ldpi/training/output/ResCNN/best_model_with_center.pth (torch, 711778 bytes, 64 tensors)

encoder.block1.convblock1.0.depthwise_conv.weight f4 [1, 1, 7]
000000 a2 36 0a 40 7e ca 1d 3f b1 5b a2 3d d8 dc 85 3c
       2.1595845 0.61637104 0.07927645 0.016340658
000010 35 27 09 3d 37 0f c3 bc aa fc 1e bc
       0.033484656 -0.023810966 -0.0097037945

encoder.block1.convblock1.0.pointwise_conv.weight f4 [64, 1, 1]
000000 cb 1a ec bc 91 76 3f 3d 46 11 f0 bc d7 74 19 3c
       -0.02882137 0.046743933 -0.029305112 0.009366236
000010 35 5a d2 3c 3c 06 e3 3c 62 8d 15 3d 4a 59 1a bc
       0.02567778 0.027712934 0.036511786 -0.009420702
000020 a6 c9 b3 3c 46 4d fb 3c 27 e1 6d 3c f2 fc ff bc
       0.02194674 0.030676495 0.0145190125 -0.031248543
000030 30 1d 67 bc d6 93 42 3c a6 8d df bc 3a b4 50 3c
       -0.01410608 0.011876067 -0.027289223 0.012738282
000040 b6 51 e8 3c fc 28 29 bc 05 d0 d2 bc 75 6b b8 3c
       0.028359275 -0.010324713 -0.025733957 0.022512177
000050 ba a7 95 bc 13 f4 96 bc fd bc 52 3d d4 2a fa bc
       -0.018268455 -0.01842693 0.051449765 -0.030538
000060 e6 a0 35 bc 52 cb 80 bc 52 12 12 3d 73 23 f6 bc
       -0.011085724 -0.01572195 0.035662003 -0.0300462
000070 c8 2e a9 bc 58 00 50 3d 7e da 27 bd 2c 4d 7f 3a
       -0.02065219 0.050781578 -0.040979855 0.00097389775
000080 e8 17 ab 3c 18 04 b4 bc ef 36 7a 3c 65 55 89 3c
       0.020885423 -0.021974608 0.015271886 0.016764352
000090 f2 c6 8a 3c 25 79 ec bc 88 92 02 bc b1 90 91 3c
       0.016940568 -0.02886636 -0.007969506 0.01776919
0000a0 7b b3 ed bc 25 53 ae bc c2 a9 6c bc 44 5f a9 3c
       -0.029016247 -0.02127988 -0.01444477 0.020675309
0000b0 5e 4f a2 bc 53 3d 90 3b 0f 58 6b bd 66 78 1e 3c
       -0.019813236 0.0044018417 -0.057457026 0.00967226
0000c0 58 8b e4 ba eb 71 25 bc c1 e3 46 bd 73 e2 e5 3c
       -0.0017436547 -0.010097961 -0.048557047 0.028062081
0000d0 e1 83 35 bc c9 42 9a 3c 81 4f 80 bc bc 47 d2 bc
       -0.011078806 0.018830674 -0.01566291 -0.025668971
0000e0 89 e9 65 39 ba 5e 46 3c 21 a0 cb 3c 6a a9 a2 3c
       0.0002192614 0.0121075455 0.024856629 0.019856174
0000f0 1b 35 fd 3c ac e9 9d bc 9c fe a3 3b e5 2d cb 3c
       0.030909112 -0.019276462 0.005004717 0.024802158

encoder.block1.convblock1.1.weight f4 [64]
000000 16 f3 5a 3d df 7c 19 3f 04 26 f4 3c 9e f8 36 3d
       0.05345448 0.59956163 0.029803284 0.044670694
000010 a5 b9 59 3d 72 3c 96 3d 85 4e d3 3e de 8f ec 3d
       0.05315556 0.07335748 0.41270843 0.11550878
000020 b7 9c 3c 3d 73 9b cb 3c 4c 7f 14 3d 80 d1 3d 3d
       0.046047892 0.024854397 0.036254212 0.046342373
000030 97 f9 99 3d c3 17 8f 3d 3f 2f 9e 3d 9c a6 6b 3d
       0.075183086 0.06986954 0.07723855 0.057531938
000040 3c 7c 84 3d 49 39 f6 3d 32 32 77 3d 39 3d 00 3d
       0.06469008 0.12022645 0.060350604 0.031308386
000050 ca ec 65 3e 96 13 4e 3e ae 5a af 3f 29 71 50 3d
       0.22453609 0.20124659 1.3699548 0.050889168
000060 7f 68 88 3e bf 0c db 3d d8 31 1c 3f 32 e2 97 3d
       0.26642224 0.106957905 0.61013556 0.0741619
000070 33 12 8f 3d 16 8c 33 3f e0 44 42 3f 40 0a 03 3e
       0.06985893 0.7013563 0.75886345 0.12796879
000080 04 59 00 3e 9e f3 f8 3d 65 fb 16 3d d6 b6 72 3d
       0.12533957 0.12155841 0.036860842 0.059256397
000090 a6 5a 4d 3d b8 b5 ce 3e 62 6f 69 3d 4e 20 1f 3e
       0.050135277 0.40373015 0.05699099 0.15539667
0000a0 6b 84 9e 3d 35 af c8 3e b1 89 52 3d a2 f3 5d 3d
       0.077401005 0.39196172 0.051400844 0.054187424
0000b0 97 26 d4 3d 78 af 61 3d d7 f0 e4 3f 33 76 c5 3d
       0.10358923 0.05509898 1.7885998 0.09641685
0000c0 a5 7b f0 3c 8e b5 1c 3d ca 5d 25 3f fa 6f 40 3f
       0.029355833 0.03825908 0.64596236 0.7517086
0000d0 9c da a2 3d f2 33 3d 3e 52 8f 5c 3e bd 60 88 3e
       0.07951853 0.18476847 0.21539047 0.26636305
0000e0 26 39 bf 3d 5b 67 23 3d b2 fb 19 3d 28 76 51 3d
       0.09337072 0.03989349 0.03759355 0.051138073
0000f0 24 7b bb 3e 3d 68 f3 3c da 8b 3b 3d 28 ba 3b 3d
       0.36617386 0.02971279 0.04578767 0.04583183

encoder.block1.convblock1.1.bias f4 [64]
000000 82 0c 0b be c6 2e 1b 3f ad fb 19 bd 89 6b 2e 3d
       -0.1357899 0.60618246 -0.037593532 0.042583022
000010 2b 0f 1c 3d 7d d0 63 bc 82 c0 ae 3e 9d 94 a1 bb
       0.038100403 -0.013904688 0.34131247 -0.004931046
000020 4a 65 bb bd 3e 16 04 bd f7 16 97 3c 56 0d 94 bd
       -0.09150179 -0.032247774 0.018443568 -0.07229106
000030 a7 6a 13 3e 99 9e dd bc 62 f2 d3 3d 1d 03 af 3d
       0.14396153 -0.027053164 0.10348965 0.08545516
000040 17 47 17 bd c9 01 95 3c e8 e9 c9 bd 8a c9 e5 bc
       -0.03693303 0.018189328 -0.09859067 -0.028050203
000050 08 e3 54 bd d2 59 eb 3c 5d fb 12 bf 37 0f 1e 3c
       -0.051974326 0.028729353 -0.574148 0.009647182
000060 9c b5 87 be 82 6e bb 3c f4 5e 56 bf 00 cb 75 bd
       -0.26505744 0.022879843 -0.83738637 -0.06000805
000070 71 7c 16 bd 7a d9 c2 3e 72 bf 99 be 51 fb c1 bd
       -0.03673977 0.38056546 -0.30028874 -0.09471763
000080 7b 36 dc bd 6c c0 9a bb 3d 31 2c bc 79 98 16 bd
       -0.10752579 -0.0047226455 -0.010509786 -0.036766503
000090 03 c8 8d bd 54 da b1 3d bc 26 8b bd b2 8d e1 bd
       -0.06922915 0.08684221 -0.06794497 -0.11013354
0000a0 40 b4 1c bd 36 d7 e0 bd bf e2 51 bd 1c 70 6e be
       -0.038257837 -0.10978548 -0.051241633 -0.23284954
0000b0 92 fb ab 3d c3 55 b4 bd 60 17 f5 3e de 03 81 bd
       0.083975926 -0.0880542 0.47869396 -0.06299566
0000c0 5e 26 98 bc 63 0d 23 bd 1e 27 19 bd 3f 86 14 3f
       -0.018572982 -0.03980769 -0.03739082 0.58017343
0000d0 55 a6 04 be 21 cb 69 3d 14 f0 4b 3e 2d 33 12 3e
       -0.12954076 0.057078484 0.19915801 0.14277335
0000e0 d1 b2 83 bc 7f 2d eb 3e f5 90 ba bc 78 18 6b bd
       -0.016076477 0.45933148 -0.022774199 -0.057396382
0000f0 25 b9 62 bd 05 dd ac bd 27 e0 3d bd 89 d4 3d bd
       -0.05535235 -0.08440594 -0.046356346 -0.046345267

encoder.block1.convblock1.1.running_mean f4 [64]
000000 97 9d b7 bc 94 dc 14 3d 88 b2 ba bc 1b a2 ee 3b
       -0.022414012 0.036343172 -0.022790208 0.007282508
000010 b8 96 a3 3c ae 8d b0 3c 65 94 e8 3c 3a 22 f0 bb
       0.01996933 0.021551933 0.028391073 -0.007328299
000020 8f d1 8b 3c 2a 6f c3 3c d2 fe 38 3c 21 14 c7 bc
       0.017067699 0.023856718 0.011291223 -0.02430159
000030 f5 b1 33 bc 8e 50 17 3c af da ad bc 4d 4d 22 3c
       -0.010967721 0.009235514 -0.02122244 0.009906125
000040 2e ac b4 3c cb a0 03 bc 3a f2 a3 bc c1 6b 8f 3c
       0.022054758 -0.0080339415 -0.020012964 0.017507436
000050 c4 9b 68 bc 0f d0 6a bc f6 c8 23 3d 46 8d c2 bc
       -0.014197294 -0.014331832 0.039986573 -0.023749005
000060 4a 31 0d bc 4e 55 48 bc 0a ff e2 3c 17 6b bf bc
       -0.008617708 -0.0122273695 0.027709503 -0.023366494
000070 3d 92 83 bc af d7 21 3d 1d 98 02 bd 70 8b 46 3a
       -0.016060943 0.039512333 -0.031883348 0.00075738784
000080 b3 11 85 3c e6 fe 8b bc 91 96 42 3c 52 98 55 3c
       0.016243791 -0.017089318 0.011876718 0.013036804
000090 43 d1 57 3c 80 05 b8 bc c1 16 cb bb 3f 73 62 3c
       0.0131724505 -0.02246356 -0.006197781 0.013821422
0000a0 6b db b8 bc 13 8d 87 bc c6 0c 38 bc f5 b7 83 3c
       -0.022565564 -0.016546762 -0.011233514 0.016078928
0000b0 66 73 7c bc e7 4d 60 3b c6 3a 37 bd f8 d6 f5 3b
       -0.0154083725 0.003422612 -0.044733785 0.007502433
0000c0 67 bc b1 ba 1b aa 00 bc 40 b3 1a bd 69 4e b1 3c
       -0.0013560177 -0.007853056 -0.037768602 0.021643834
0000d0 76 29 0d bc 49 e9 6f 3c e1 8a 47 bc 66 78 a3 bc
       -0.008615842 0.014643022 -0.012179107 -0.019954871
0000e0 bd cc 32 39 4f 47 1a 3c 5e 5b 9e 3c 40 00 7d 3c
       0.00017051674 0.009416415 0.019330677 0.015441954
0000f0 33 e0 c4 3c 0f 9d 75 bc ca 20 7f 3b 81 02 9e 3c
       0.024032688 -0.014991059 0.0038929456 0.019288303

encoder.block1.convblock1.1.running_var f4 [64]
000000 5a f6 f3 39 d0 59 a0 3a 69 38 fc 39 a9 08 4e 38
       0.00046532118 0.0012233797 0.00048107214 4.9122293e-05
000010 97 a5 c1 39 8b 8e e1 39 5c b6 43 3a e1 a0 50 38
       0.00036935203 0.00043021547 0.00074658333 4.9740895e-05
000020 c2 75 8d 39 82 30 0a 3a 8a a4 f7 38 2f 64 0f 3a
       0.00026981352 0.00052715105 0.000118085256 0.00054699456
000030 82 a8 e9 38 b6 ad a5 38 7b b6 da 39 cb 9c be 38
       0.00011141693 7.900169e-05 0.0004171616 9.089111e-05
000040 5a 34 ec 39 2c bd 7a 38 7d 7e c2 39 d3 d7 94 39
       0.00045052433 5.9780825e-05 0.00037096805 0.0002838956
000050 84 c3 43 39 b4 7c 47 39 c8 1d c2 3a c6 f1 08 3a
       0.00018669484 0.00019024574 0.0014809901 0.00052240153
000060 93 41 90 38 41 34 11 39 d4 6e 3a 3a 90 91 04 3a
       6.878669e-05 0.00013847744 0.00071118516 0.0005057091
000070 11 87 7a 39 0f 88 bd 3a 7c d0 76 3a 88 9f 0e 35
       0.00023892174 0.0014460104 0.0009415222 5.313127e-07
000080 cc 21 80 39 8b d1 8d 39 de fe 08 39 c9 10 25 39
       0.00024439243 0.00027049737 0.00013064916 0.00015741879
000090 db 84 28 39 70 09 f5 39 fd 39 15 38 bf 87 39 39
       0.00016071221 0.00046737073 3.5578374e-05 0.00017693544
0000a0 c5 45 f7 39 1f f5 84 39 28 1e f5 38 c9 16 7b 39
       0.00047163494 0.0002535963 0.000116881274 0.00023945713
0000b0 3c 95 66 39 9c 08 36 37 2a ee f2 3a b2 ae 5a 38
       0.00021990103 1.085005e-05 0.0018534113 5.2137948e-05
0000c0 9f 96 e4 35 87 94 6f 38 80 2c ad 3a d1 95 e3 39
       1.703116e-06 5.7120367e-05 0.0013212115 0.00043408436
0000d0 f9 30 90 38 e3 3e 50 39 10 10 10 39 5a 5e c1 39
       6.875577e-05 0.00019859853 0.00013738894 0.00036882126
0000e0 3b 55 e7 32 55 3b ac 38 68 75 b5 39 ca 96 67 39
       2.6930698e-08 8.2126506e-05 0.00034610485 0.0002208605
0000f0 a2 3c 0c 3a 13 43 5a 39 9f 7f 6b 37 fa a9 b4 39
       0.0005349611 0.00020815087 1.4036806e-05 0.00034458918

encoder.block1.convblock2.0.depthwise_conv.weight f4 [64, 1, 5]
000000 dc 92 90 bc 9f 3e f1 bc ac 51 d6 bc 28 2d 70 bc
       -0.017648153 -0.029448805 -0.026161991 -0.014659204
000010 3b 2f 81 3b e4 e5 1b bf 88 eb c4 3e 2e bd 93 3e
       0.003942398 -0.6089766 0.38460946 0.2885527
000020 ac 2c 42 be 1a 55 a9 be c3 98 4a bc 89 ff 1a bc
       -0.18962353 -0.3307274 -0.012365523 -0.009460338
000030 33 e1 d3 3c 82 b0 17 3b e7 7c ab 3b a2 1e 50 bc
       0.02586422 0.0023145978 0.0052333954 -0.012702616
000040 ce 71 0c bd a7 83 91 3c 53 fb 3e bb 4c 52 49 3c
       -0.03428822 0.017762972 -0.00291415 0.0122876875
000050 44 f8 a3 39 6d a0 d6 ba 9e 4d e7 3c 02 f3 ba bc
       0.00031274755 -0.0016374715 0.028235253 -0.022820953
000060 42 38 1e bd 76 db fb bb 84 d8 0e bd 09 cb 0a bd
       -0.03862787 -0.007686074 -0.034874454 -0.033885036
000070 4e b4 0e bd 4f 71 fb bc 47 cc 9a 3e ed b3 88 bd
       -0.03483992 -0.030693678 0.30233976 -0.06674943
000080 a2 eb f4 bd 51 0d 8a 3e 81 4c 81 3e e8 e5 be 3c
       -0.11959006 0.26963285 0.2525368 0.023302987
000090 33 1f 1f 3d ce 42 89 3d cb d6 fc 3c 27 21 d6 3c
       0.038848113 0.06702195 0.03086414 0.026138855
0000a0 53 7a d4 bb 66 1a c1 b9 a8 5e 9c bc 76 a6 2e 3b
       -0.0064843087 -0.00036831497 -0.019088104 0.0026649511
0000b0 56 38 92 3b be e6 a9 3b 19 8a 83 3b 9b b9 cd 3a
       0.004462282 0.0051849773 0.0040142653 0.0015695574
0000c0 25 fa 2a bc 09 80 14 bc 47 99 9c bc e1 6f 75 3c
       -0.010435616 -0.009063729 -0.019116057 0.014980287
0000d0 74 4d 31 3c d8 21 1d 3c 21 52 44 bb f5 43 b1 3c
       0.010821689 0.0095905885 -0.002995618 0.02163885
0000e0 fe 8c da 3c 8b 7f e1 bc 29 8c 16 3b a3 07 04 bc
       0.026678558 -0.027526638 0.0022971726 -0.008058461
0000f0 c5 d7 04 be cd 22 a8 3a 5f c9 a2 3c f2 f4 a4 ba
       -0.12972935 0.0012827754 0.019871412 -0.0012585206
000100 78 5a b2 bd e8 e3 38 bc 17 22 05 3b 82 e0 b3 bc
       -0.08708662 -0.011284806 0.0020314509 -0.02195764
000110 15 47 65 bb 97 f4 76 bc 74 40 ed bd 34 0a cf bc
       -0.0034984995 -0.015072963 -0.11584559 -0.02527342
000120 05 5f c9 3c 8e cf 47 3d 69 47 b1 bc 7e 06 ce 3c
       0.024581442 0.048781924 -0.021640496 0.02514958
000130 89 8f 52 3c 7b ab ab bc bb d1 32 b8 e9 c8 95 3b
       0.012851604 -0.020955792 -4.2633834e-05 0.0045710695
000140 00 40 7a bc ec 97 af 3a d1 1a 82 bd a3 6e 90 3d
       -0.015274048 0.0013396717 -0.06352771 0.07052352
000150 8f d0 66 3d 00 b5 76 3b 1b 96 1c bd 93 2e 81 bd
       0.05635124 0.0037644506 -0.03822909 -0.063077115
000160 24 a6 63 bd ed 65 f2 bc 25 ad 85 bc 7a 1f 9a 3b
       -0.055578366 -0.029589618 -0.016317913 0.0047034593
000170 0f e4 09 3c 97 da 1f bb 3e bf b9 bc 55 b9 be 39
       0.00841619 -0.0024391764 -0.0226742 0.00036377707
000180 52 0a dc bc bc ff f9 ba 0f ff 43 bb a6 09 d7 bc
       -0.02686039 -0.0019073407 -0.0029906665 -0.026249718
000190 6a 22 02 3e 6c ce a2 3e d3 ee 58 be 47 59 c6 bc
       0.1270844 0.31798112 -0.21184854 -0.024212493
0001a0 2b f0 38 3c 59 c2 88 bc 46 5c 0c bd dd 86 dd bc
       0.011287729 -0.016694235 -0.034267686 -0.027041847
0001b0 02 58 e0 bd 38 cf a8 bd 64 1e 5c 3e 7c f0 81 3e
       -0.10954286 -0.08242649 0.21495968 0.25378788
0001c0 b8 d0 2a 3f e8 4a d1 3d bc df 70 3e c5 ce 23 3d
       0.6672473 0.10219365 0.23522848 0.039992113
0001d0 5d b5 a5 3c 9c 0c 98 bc 3a 03 84 3c 91 64 60 3b
       0.020228082 -0.0185607 0.01611482 0.003423963
0001e0 32 56 3c bd c8 c3 75 bd 1f 24 a5 3c 8b 30 72 bd
       -0.04598064 -0.060001165 0.020158825 -0.059128325
0001f0 bb f4 45 bd 67 4b 80 3c a5 79 19 bd f0 9d 0e bd
       -0.048329096 0.015660955 -0.037469525 -0.03481859
000200 40 7c 95 bc 04 14 70 bb b8 95 1b 3b e9 60 04 3e
       -0.018247724 -0.0036633024 0.0023740362 0.12927593
000210 cc f8 f5 be 42 e5 b9 bc 53 c2 7d bd 92 6a cf 3d
       -0.4804138 -0.022692326 -0.0619529 0.101277485
000220 94 36 9c 3d a8 d7 25 be 6c 19 79 bd 7e 8d cd 3c
       0.076275975 -0.16195548 -0.06081526 0.025091883
000230 f3 3c d6 bc 70 ce 08 bd 5e 01 c3 bb 8b f8 a0 bc
       -0.02615211 -0.0334 -0.0059510907 -0.019649765
000240 32 71 15 bc e5 52 59 3e 31 04 9d be d3 cf cb 3e
       -0.009121226 0.21223028 -0.3066726 0.39806995
000250 db 01 35 bf b0 48 08 bf ac de f4 bd 10 42 c3 be
       -0.70705956 -0.5323591 -0.11956534 -0.3813634
000260 a0 f1 87 be 46 5b b3 be 18 9c 93 be 89 19 c7 3a
       -0.26551533 -0.35030574 -0.28830028 0.0015190105
000270 b4 a5 9d 3c e5 bb 39 3c 6b 7b 2c 3d 34 ec 6a 3d
       0.019244052 0.011336301 0.042109888 0.057354167
000280 80 86 e2 3c dc be d2 bd 69 4b 23 3e c6 2f c7 bd
       0.027652025 -0.1029031 0.15946735 -0.09725909
000290 79 90 ba bd 34 84 6a 3d bb f5 53 3d 18 b8 28 3d
       -0.09109587 0.057254985 0.05174802 0.04119119
0002a0 67 4a 26 3d 10 e3 94 3c 93 26 9e bc 41 5a 07 bb
       0.0405983 0.018174678 -0.019305503 -0.002065316
0002b0 b2 23 57 bc f0 ac 31 3b e9 ac 14 bc 68 3e 36 3d
       -0.013131069 0.0027111135 -0.009074428 0.04449311
0002c0 94 f1 87 3d c3 d2 df bc 7c 37 a4 bc e4 1d 2c bd
       0.06637874 -0.027322179 -0.020045988 -0.042020693
0002d0 01 26 97 3d 89 4e e9 3d 39 a6 12 be af 30 4b bd
       0.073802955 0.113919325 -0.14321221 -0.049606975
0002e0 42 7d be bc b5 2e 7d 3d 70 8f 99 be e8 b0 e4 bd
       -0.023253087 0.06181212 -0.29992247 -0.11166555
0002f0 cf b4 1a be b7 9f 96 bd ca 79 86 3c 48 1c 38 3c
       -0.15108036 -0.07354682 0.016415495 0.0112372115
000300 f2 dc 95 3b 71 61 d4 3b 7c ba 7a 3c d6 af 8b bd
       0.004573458 0.0064813425 0.01530325 -0.068206474
000310 df 3e 42 bd 6e 65 b4 bd 86 f4 fe 3d 60 9e 82 3e
       -0.04742324 -0.08808409 0.12448983 0.25511456
000320 df 41 07 3d 3f c4 d9 bb 71 33 28 3d 5a 70 4c 3c
       0.033021804 -0.006645709 0.041064683 0.012477959
000330 a4 0b 7c bc 21 73 06 3e 1d 14 80 3d 7b f2 8a 3d
       -0.015383635 0.13129856 0.06253836 0.06784531
000340 b7 14 c1 3d 0e 04 3e 3d 75 10 49 3d 02 5e a8 3c
       0.09427779 0.046390586 0.04908796 0.020552639
000350 3d dc 28 3c c6 14 47 bc 74 58 87 bc b8 77 85 3d
       0.010306415 -0.012150949 -0.01652167 0.06516975
000360 48 88 1d 3d 31 e0 a1 3c 96 4b cc 3c 05 75 43 3d
       0.038460046 0.019760223 0.024938386 0.04771902
000370 1d e9 fe 3d 04 e0 ab 3d 6a bf 14 bd b3 27 47 bd
       0.124468066 0.08392337 -0.03631536 -0.048621845
000380 fa e2 86 bd 3b f2 9b 3b d1 af 81 bb 97 89 55 ba
       -0.06586261 0.0047591007 -0.0039577265 -0.00081458077
000390 90 79 13 bc 13 29 52 bc d2 f3 9f 3e df d2 8c bf
       -0.009001151 -0.012827176 0.31240708 -1.1001853
0003a0 7f 74 2c bf 33 23 80 3e 3e 24 71 3c 39 b8 dc 3d
       -0.6736526 0.25026855 0.0147181135 0.10777325
0003b0 58 9b ba 3d 49 24 b3 bd 06 a3 f2 bc fb 60 3c bd
       0.09111661 -0.08747155 -0.029618751 -0.045990925
0003c0 54 6f 3d bc d2 df 0e bd d7 c8 02 3c cf 60 8a 3a
       -0.011562187 -0.03488142 0.007982454 0.0010557416
0003d0 cc e4 4c 3c d4 e9 86 ba 7f b1 ca bc cb 9b 8b bc
       0.012505721 -0.0010293075 -0.02474284 -0.017042061
0003e0 3e 2d a4 bb d7 1e dc 3b d4 fa a6 3e 8a 32 a5 3c
       -0.005010276 0.0067175436 0.32613242 0.0201657
0003f0 c8 9f 09 be cf de e6 be 49 b4 e9 be dc 57 17 3f
       -0.13439858 -0.45091864 -0.4564536 0.5911844

encoder.block1.convblock2.0.pointwise_conv.weight f4 [64, 64, 1]
000000 64 65 78 39 ad 1d 0f 3c d9 57 3c ba 91 c9 35 3b
       0.00023688894 0.008735103 -0.0007184721 0.002773855
000010 e9 d1 21 ba 76 4a 3f bb 36 0c 71 bc d2 4e 3a bb
       -0.00061729416 -0.002918867 -0.014712384 -0.0028428328
000020 d1 39 4a bb e2 da 0d 3b 6d c9 33 bb 68 91 62 3a
       -0.0030857215 0.0021645357 -0.0027433292 0.0008642883
000030 dd 23 92 3b 67 ff 5d 39 1c b4 18 3c 93 7a 22 bb
       0.0044598416 0.00021171347 0.009320285 -0.0024792298
000040 ac d0 d8 bb c6 65 2c bb 7e 6f 39 bb af 1d c3 ba
       -0.0066166725 -0.002630578 -0.0028295214 -0.0014886166
000050 1c 42 b2 bc 65 3c 0d bb 02 89 d4 3c 0e a1 87 3b
       -0.021760039 -0.002155089 0.025944237 0.0041390723
000060 1e 16 07 3b 02 5c 75 bb 47 d6 3d bc 95 3a d8 bb
       0.0020612548 -0.0037438874 -0.011586732 -0.0065987804
000070 d7 ea 2e 3b fc 16 50 3d f9 ee 78 3c c0 68 c1 3b
       0.0026690268 0.05080317 0.015193694 0.0059023798
000080 38 12 60 bb c5 09 d2 ba 42 85 9f b7 83 97 03 bb
       -0.0034190547 -0.001602464 -1.901633e-05 -0.0020079322
000090 0e cd 6c bb 22 6f 82 ba f1 b2 50 3b 2d c5 1e 3b
       -0.0036132964 -0.0009951333 0.0031844939 0.0024226413
0000a0 fd 60 80 b9 b1 09 0e 3c 92 14 00 bc 04 28 df 3a
       -0.00024486324 0.008669303 -0.007817404 0.0017025475
0000b0 b6 17 a5 bc 7d d0 16 bb 77 7c ec 3a 82 7b 59 bb
       -0.020152908 -0.0023012452 0.0018042465 -0.0033185189
0000c0 59 01 9b 3b 4e 31 62 3b c3 30 81 bd 67 21 b4 bc
       0.0047303853 0.0034514251 -0.06308129 -0.021988584
0000d0 4c cd b2 3b 30 72 59 bb e2 eb f3 3b da 93 df 3c
       0.005456602 -0.0033179633 0.007443891 0.02729218
0000e0 3d 2a 65 3b 2c a7 b1 ba dc 80 15 3a 5e 0d 90 3a
       0.0034967803 -0.001355385 0.00057031005 0.0010990312
0000f0 dc 19 6c 3a b1 41 b5 3a e1 4e 01 bb d0 f1 1b 3b
       0.0009006539 0.0013828782 -0.0019730853 0.0023795255
000100 91 fe 20 3b 19 c5 c1 bc 6b 24 88 b9 ad 5f 17 bb
       0.0024565796 -0.023653554 -0.00025967075 -0.0023097799
000110 f1 79 f9 b9 5c e1 ed ba 8c 7a 6e bb 57 f4 36 3b
       -0.00047583834 -0.0018148827 -0.0036388962 0.0027916634
000120 ea 55 3a 3b 12 ff 0c 3a 31 96 9f 3b 24 22 1d bb
       0.0028432556 0.00053785846 0.004870199 -0.0023976648
000130 7b 2a bb 3c 42 c3 ff b9 e8 a4 36 3c 5b d0 2c bb
       0.022847405 -0.00048782869 0.011147715 -0.0026369307
000140 b2 72 e8 3b cf 47 aa bb 1d c9 07 bc 7b 7d d6 bb
       0.007093751 -0.0051965485 -0.008287695 -0.00654572
000150 4f a7 38 bb af 1e 89 3b 61 02 1f 3d 85 cb 34 bb
       -0.0028175896 0.004184566 0.038820628 -0.0027587127
000160 22 48 ca ba cc 70 aa bb 34 b0 df bb 3c f7 44 bc
       -0.0015432874 -0.0052014347 -0.006826425 -0.012021836
000170 c4 20 82 3a 00 d2 0f bd b8 59 f6 bb b3 ac 5e bb
       0.0009927978 -0.03511238 -0.0075180195 -0.0033977448
000180 eb 34 9c bc 24 51 72 3a 2d 9e b8 3a 8b cf 97 3a
       -0.019068202 0.0009243658 0.0014085226 0.0011582238
000190 a6 44 3e 39 57 08 03 bb 89 35 5f 3b 94 9c 6d 3c
       0.00018145386 -0.0019993985 0.003405901 0.014502663
0001a0 8e 04 5f 3b 36 f4 11 3b c1 58 56 ba 61 32 0b bc
       0.0034029814 0.0022270805 -0.00081766775 -0.008495898
0001b0 8a fd e8 38 02 b6 9f ba 48 f3 f3 3c 37 79 c4 bb
       0.000111098474 -0.001218498 0.029779091 -0.0059958952
0001c0 c4 82 7f 3b 56 4b 62 39 e6 b8 f0 bb a8 26 5f 3c
       0.0038987854 0.00021581104 -0.0073462604 0.013620056
0001d0 a2 ee be bb dd 42 94 3b 4c 82 06 bc df 64 f8 b8
       -0.005826787 0.0045245723 -0.008209776 -0.0001184435
0001e0 43 31 4a 39 f6 c1 3a 3c e1 ad df 39 86 ec 8a ba
       0.00019282573 0.011398783 0.00042663424 -0.0010599054
0001f0 95 b2 97 bc 58 fb 01 ba 3a 90 90 3b 88 86 fb b9
       -0.018517772 -0.00049584126 0.0044117244 -0.00047974684
000200 3f 0e 1b 3b ab c5 92 bd 18 0d c9 bb b7 31 c2 b8
       0.0023659614 -0.071666084 -0.006135594 -9.259901e-05
000210 86 f6 f0 3a bf 18 72 bb 8d 29 c4 3d a6 d5 15 bc
       0.0018384017 -0.003694102 0.09578238 -0.009145176
000220 88 28 2d 3c ca 00 aa 3b ad aa b8 ba 4a 8b aa 3c
       0.010568745 0.0051880823 -0.0014088951 0.020818371
000230 34 34 06 bc a0 58 46 3b a0 fb d3 bb 75 b1 98 3c
       -0.008191157 0.0030265227 -0.006469205 0.018639306
000240 e6 ab 3d 3c 20 f4 d6 ba fc 49 85 3b 23 17 e9 3a
       0.011576628 -0.0016399659 0.0040676575 0.0017783385
000250 d5 2a 18 3d 99 bf b8 3c 19 bf 67 3e 0c 69 46 3b
       0.037150223 0.022552298 0.22631492 0.0030275015
000260 d5 dd 2d bd 79 e6 55 3c 96 2f 1b 3d b1 b4 4f 3c
       -0.042447884 0.013055437 0.03788718 0.0126773575
000270 5a 14 9f 3c 4a 4f d5 bd 53 43 8e bd 2a b5 10 bc
       0.019418884 -0.10415514 -0.06946435 -0.008832255
000280 af 02 24 3c a0 71 f5 3b d5 f2 25 3c f8 c4 ff bb
       0.010010405 0.007490352 0.010128696 -0.007805463
000290 52 2d c0 b9 08 87 35 bd 9f 11 09 3c 62 59 b9 3c
       -0.0003665486 -0.04431823 0.008366018 0.022625629
0002a0 46 2d de bb 7a 12 87 3d d4 9b 2c bc 1f 63 4f 3d
       -0.0067802994 0.06595321 -0.010535199 0.05063164
0002b0 65 de c3 3c 48 79 6a 3c db 24 99 3c f8 3f 08 3c
       0.023909757 0.014311142 0.018694332 0.008316033
0002c0 ec 87 32 bb ce d2 0c bb db 68 ce 3c d3 ec 1f 3e
       -0.002724166 -0.0021487954 0.025196483 0.15617685
0002d0 3d 43 99 3c 08 03 17 bd ea 77 bb bc d8 7c f7 bc
       0.01870882 -0.036868125 -0.022884328 -0.030210897
0002e0 d8 bd 6b 3a 5b 62 c1 bc 80 db d2 ba 63 fb 56 3a
       0.00089928275 -0.02360647 -0.0016087145 0.00082009117
0002f0 bd 99 61 bd e8 7e 5a bc 0b 72 f2 3a 37 dc 78 bb
       -0.055078257 -0.013335921 0.0018497122 -0.0037973055
000300 79 7e 12 3a e9 a4 74 3b 4e 79 8b 3a 44 2e b4 b9
       0.0005588304 0.003732974 0.001064101 -0.00034366746
000310 03 b7 4d 3b 69 00 2f 3b f3 6c 4c bb 1a 2d 55 3b
       0.00313896 0.0026703125 -0.0031192868 0.0032528103
000320 74 06 14 3b d9 54 5b bb 0a 0f ba 3a ca fa 44 bb
       0.0022586854 -0.0033467321 0.0014195156 -0.0030056708
000330 5d d8 25 3b 6b 28 d2 b9 a9 00 89 ba f8 e3 14 ba
       0.0025305965 -0.00040084435 -0.0010452467 -0.0005679722
000340 94 7d 18 bb e8 7d 2b 3b a0 f0 77 37 3f 11 e2 3a
       -0.002326821 0.0026167575 1.4778372e-05 0.0017247571
000350 65 6c 17 3a 9e 08 3a ba 59 39 f0 bb 56 3f 30 3b
       0.0005776345 -0.0007096621 -0.007331055 0.002689322
000360 79 17 11 3a 1c dc 38 3b 84 8d 23 bb 77 66 32 3b
       0.0005534809 0.0028207367 -0.0024956176 0.0027221718
000370 87 8f 66 3a 9b c2 a9 3b 0a a3 63 ba 43 db 29 bb
       0.0008795191 0.0051806695 -0.00086836575 -0.0025918044
000380 2b a9 13 bb 84 89 c5 3a 89 1e 9f 3a ce 83 ca b9
       -0.0022531252 0.001507089 0.0012139837 -0.00038626645
000390 d4 26 5b 3b d8 55 64 38 a6 38 4e 3b a6 de 0a bb
       0.0033439891 5.4439384e-05 0.003146687 -0.0021189838
0003a0 99 8e f9 ba 0e aa 78 3a ee 63 e1 b9 e8 fe ea 3a
       -0.001903969 0.00094857893 -0.00042989798 0.0017928751
0003b0 78 72 85 bb 3d d9 eb ba 34 88 9f bb 73 9b 99 3a
       -0.0040724836 -0.0017993819 -0.0048685316 0.0011719301
0003c0 32 d5 27 3b ef 25 62 bb a5 17 9b b9 51 07 e2 3a
       0.0025609252 -0.0034507473 -0.0002958152 0.0017244612
0003d0 ae ac 75 3b 3c 6a 9f 39 b9 de 7f 3b 3d 2a 59 3b
       0.0037486958 0.00030405994 0.0039042665 0.0033136748
0003e0 8d eb 1e bb 84 7d 6b 3a 8a f0 18 3a 63 07 f4 ba
       -0.0024249286 0.0008983242 0.0005834183 -0.0018617924
0003f0 6a de 18 bb 18 9c f4 ba a6 1f f8 ba a3 88 29 ba
       -0.0023325928 -0.0018662242 -0.001893033 -0.0006467199

encoder.block1.convblock2.1.weight f4 [64]
000000 c1 06 d7 3d 76 fc f8 3d 46 6c 26 3e 4b 42 fd 3c
       0.10499335 0.12157528 0.1625224 0.0309154
000010 92 1b 0e 3d f3 ee ef 3d aa 95 26 3f b2 cd ed 3e
       0.03469426 0.11715498 0.6507212 0.46445996
000020 00 13 fd 3c 39 d7 6d 3d 40 fd 03 3d 76 a0 b3 3c
       0.030892849 0.05806658 0.03222394 0.0219271
000030 74 93 9b 3d 51 16 98 3d 9a 01 8d 3d 25 86 50 3e
       0.07596484 0.074261315 0.06885071 0.20363672
000040 f0 c4 e7 3c 06 67 a6 3d f2 36 19 3e 82 01 af 3d
       0.02829215 0.08125119 0.14962366 0.085452095
000050 3d 31 61 3e ef 81 72 3f a7 97 dc 3d b2 b4 45 3e
       0.21991439 0.9472951 0.10771113 0.19307211
000060 84 cd 33 3d 70 49 e5 3d 4c 09 d3 3c fa 0f 08 3e
       0.043897167 0.11195648 0.025761269 0.13287345
000070 f7 83 84 3d 96 eb f8 3c e1 24 62 3c 1c bd 1c 3e
       0.06470483 0.030385774 0.013802738 0.15306515
000080 50 ab f9 3c 80 01 76 3f 6e 1b 9b 3e ef 8e 8b 3f
       0.030477196 0.9609604 0.30294365 1.0902995
000090 db 9f 7f 3e 7a 3e 08 3e 08 6f c7 3e 8c ff 4a 3d
       0.24963324 0.13305083 0.38951898 0.049560115
0000a0 f7 48 d2 3c 74 a3 d5 3d 9a dd 65 3d 0e 69 37 3d
       0.025669558 0.10431567 0.05611954 0.044777922
0000b0 04 0b 32 3d e6 63 86 3d bf 5d 57 3d e8 da 9e 3e
       0.043467537 0.06562023 0.052579638 0.31026387
0000c0 33 bd 56 3d cb de f3 3f e3 ce a0 3d 6a d9 d9 3b
       0.05242653 1.9052366 0.078519605 0.006648232
0000d0 46 c4 0f 3e 0d a1 49 3d 2c 92 26 3d cd b3 09 3f
       0.14039716 0.049225856 0.040666744 0.5378998
0000e0 38 0e 2f 3e f8 68 51 3d 54 3d 11 3d 99 62 11 3d
       0.17095268 0.051125497 0.035458878 0.03549442
0000f0 56 9a ee 3d 3e 21 17 3e 8e 04 38 3d 12 08 b3 3d
       0.11650531 0.14758775 0.04492622 0.08741774

encoder.block1.convblock2.1.bias f4 [64]
000000 b7 6d df 3c 68 7c f0 39 e2 a1 61 3d d3 01 a7 ba
       0.027273996 0.00045869057 0.055086024 -0.0012741633
000010 39 40 8d 3b 4d 3e 25 bd 52 8a 3f 3e dd 4e 8e be
       0.0043106345 -0.040342618 0.18705109 -0.27794543
000020 7c 5b 3a bc b8 2e b8 bc e0 05 3e bb 13 78 ee bc
       -0.011374351 -0.022483215 -0.00289952 -0.02910999
000030 ca d5 9e 3c e6 84 e0 bc df 0b d3 bd 08 c0 6a 3d
       0.019389052 -0.02740712 -0.103049986 0.05731204
000040 17 17 ef bb 99 2e 7f bd 81 5c cd bd 72 8e 25 3b
       -0.0072964537 -0.0623003 -0.10027409 0.0025261906
000050 f9 8a 4d be 95 da 9d 3d ca c0 ed bc 65 a6 b1 bd
       -0.20072545 0.07707707 -0.029022593 -0.08674315
000060 07 9f 28 bc 0f 4e aa bc fb 15 cd bb c0 47 88 3c
       -0.010291821 -0.020789174 -0.006258724 0.016635776
000070 c2 3a 54 bd 17 0c 80 bb 37 2f cd bc 07 2f aa be
       -0.05181385 -0.003907691 -0.025046928 -0.33239004
000080 d3 65 ab 3a e8 f1 01 3e 8d 2e 9e bd 76 01 e9 be
       0.0013076611 0.12689936 -0.077237226 -0.45508927
000090 db 97 8c bd 7c 28 17 3d 49 19 4e 3d e9 ed 43 3b
       -0.06864902 0.036903843 0.050317083 0.0029896444
0000a0 94 6c 7c 3c 0f 00 a4 bd e1 fe 19 3b 11 81 99 ba
       0.015406746 -0.08007824 0.0023497867 -0.0011711438
0000b0 3e 56 af ba 32 2d 1e 3c 30 e8 e6 ba a2 51 26 3e
       -0.0013377143 0.00965433 -0.0017616805 0.16242078
0000c0 3e 05 47 bd d4 00 9c 3c bc 40 5d bd 4b d4 b8 bd
       -0.048588984 0.019043364 -0.054016814 -0.09024867
0000d0 19 52 50 bd 6c a9 f3 3b c5 fb b4 3b 8a 28 9c be
       -0.050859544 0.007435968 0.0055231773 -0.3049968
0000e0 f3 6a 48 be a4 d3 43 bd bf e5 a7 bd 45 f0 cf ba
       -0.19572048 -0.047809258 -0.081981175 -0.0015864453
0000f0 15 23 95 3c ec 66 57 bd e6 4f 5c bd 6c f7 bd bd
       0.018205205 -0.05258839 -0.053787135 -0.092757076

encoder.block1.convblock2.1.running_mean f4 [64]
000000 c0 81 09 bd b8 4e c3 3c 28 fc bf 3e 12 4f bc 38
       -0.033571005 0.023841247 0.37497067 8.9792666e-05
000010 b0 74 fd bc 86 ee 77 3d 16 df a7 be 54 3b 92 bd
       -0.03093943 0.060530208 -0.3278739 -0.07140222
000020 84 08 9a 3c f3 df d2 bc cd 9d 7a bb 2b b8 16 bd
       0.018802889 -0.025741553 -0.003824103 -0.03679673
000030 ce c5 f6 bb af aa 05 3d 70 74 af bb 02 ed bc 3e
       -0.0075309044 0.03263348 -0.0053544566 0.36899573
000040 3c f8 68 3b 39 82 13 3d e4 fe ff 3d cd 60 5a 3c
       0.003554835 0.036012862 0.124997884 0.013328743
000050 b7 10 1e 3f a0 86 04 3f 09 50 2f 3b 5c 8b ac bd
       0.61744255 0.5176792 0.0026750586 -0.08425018
000060 16 75 31 3d f2 f8 e4 3d 7a 99 11 3b 29 3c f9 3c
       0.043324552 0.11180295 0.0022216723 0.030424194
000070 28 df 98 3d d4 82 a6 ba 39 ce 29 3c fb 53 6a 3e
       0.07464439 -0.0012703785 0.010364109 0.22883599
000080 ce 32 91 3c e3 d3 4e bf d4 f9 77 be 3e 4a 15 be
       0.01772442 -0.80792063 -0.24216396 -0.14579102
000090 30 f8 21 be 55 d6 6e bc 63 a5 c1 be 1d 5b f3 3c
       -0.15817332 -0.014577468 -0.37821493 0.029706532
0000a0 0f 79 9d bb aa 03 98 bb 85 7d 07 3c 24 ab dd 3b
       -0.004805691 -0.0046391087 0.008269672 0.0067647863
0000b0 32 78 c1 3c 57 f5 3e 3d 68 06 12 bd 4f 1a e5 bd
       0.023616884 0.046620693 -0.03565064 -0.111866586
0000c0 44 4f 8a 3c d4 35 a3 bf 3d 06 19 3d ed 02 88 3d
       0.0168835 -1.2750802 0.037359465 0.06641183
0000d0 81 65 4a bd 97 11 35 bc ae db dc bb 50 b2 c2 3e
       -0.049413208 -0.011051557 -0.006740055 0.38026667
0000e0 42 f5 52 3e 95 3c a4 bc d2 06 0f 3e 92 2a 08 bc
       0.20601371 -0.020048419 0.13967445 -0.008310931
0000f0 59 66 12 3d 9b 78 c1 bd ef e4 5b bc 55 ce 8e bd
       0.035742138 -0.09446832 -0.013421281 -0.069729485

encoder.block1.convblock2.1.running_var f4 [64]
000000 b2 d5 14 3b 52 40 d2 3b ac cc f9 3d 04 ad 01 39
       0.002271038 0.006416359 0.12197241 0.00012366852
000010 e7 9c 33 3a f7 f9 c9 3b c2 cd 4b 3e a6 cf e3 3d
       0.00068516884 0.0061638313 0.19902709 0.1112359
000020 cc de bb 38 bb cb 2b 3a 4a d3 b5 38 97 a4 0c 3a
       8.958354e-05 0.00065534905 8.670108e-05 0.0005365102
000030 5d 70 30 3a de 88 f8 39 5c 5d 30 3a 65 0a 5f 3d
       0.00067306106 0.0004740422 0.0006727779 0.054453272
000040 48 a4 33 38 12 41 11 3b ff 0d 0f 3d c7 a3 8d 3b
       4.2829924e-05 0.002216403 0.034925457 0.0043225023
000050 f8 aa 34 3e a1 13 30 3f f9 7c 6b 3c 6a 89 33 3c
       0.17643344 0.6877995 0.0143730575 0.010958055
000060 0f 9f 7d 3a 44 70 b3 3b 93 15 f1 37 38 cf 59 3b
       0.00096748857 0.0054760296 2.8739485e-05 0.0033235084
000070 36 8a d0 3a 96 74 20 38 7b d0 34 3a c8 6c 19 3c
       0.0015910331 3.825555e-05 0.0006897521 0.009364314
000080 79 6f c4 39 78 3f 2c 3e 0a b9 06 3e 21 ee f4 3e
       0.00037467087 0.16821086 0.13156524 0.47837928
000090 d9 86 91 3d 3b b5 6a 3a bf 90 10 3d d5 86 41 3a
       0.07105798 0.0008953397 0.03529429 0.0007382457
0000a0 62 53 b9 37 d5 aa 47 3b 2a 1c b0 39 54 75 2a 39
       2.2092547e-05 0.0030466814 0.0003359032 0.00016256172
0000b0 08 e9 d3 39 c9 32 e4 3a d2 db c2 3a b4 9a 90 3c
       0.00040418678 0.0017410155 0.0014866537 0.017651893
0000c0 0d fd 89 3a f1 54 f4 3f 88 0c 4b 3a 83 64 e2 3b
       0.0010527686 1.9088422 0.0007745703 0.0069089546
0000d0 b9 bc c8 3b dd aa bf 39 3a fe 8e 39 25 5c 86 3e
       0.006126013 0.00036557662 0.00027273764 0.26242176
0000e0 ac 9d 74 3c 53 b9 88 39 34 98 6b 3b 97 34 87 39
       0.01493017 0.0002607802 0.0035948874 0.0002578839
0000f0 e7 ea 7b 3b 26 61 a6 3c 08 b3 2e 39 96 69 22 3c
       0.0038439573 0.020309996 0.00016660627 0.009912869

encoder.block1.convblock3.0.depthwise_conv.weight f4 [64, 1, 3]
000000 77 b5 41 3b 12 13 64 bd 06 e6 b5 bd 29 09 dd 3d
       0.0029557624 -0.05568225 -0.08881764 0.10792763
000010 72 66 f4 3c c7 75 cb 3c 7c d7 7e 3d 56 0c 0c 3d
       0.029834006 0.024836434 0.06221722 0.034191452
000020 8f 5a f8 3d 95 61 83 bb 2b 92 1d 3c 47 27 56 3c
       0.12126648 -0.0040094354 0.009617369 0.013070888
000030 b9 cc fd bb 2a 6c 8b bc 5d ba 9d bc ef 41 3b bd
       -0.007745352 -0.01701935 -0.019253904 -0.045717176
000040 ee a5 f3 bd 8a a9 bb 3d 9d 4a b2 be 9d 7d 7e be
       -0.11896883 0.091631964 -0.3482255 -0.24852605
000050 fd 8a cd be aa 06 8b 3e a5 97 94 3e 15 4c 88 3e
       -0.40145102 0.27153522 0.29021946 0.26620546
000060 65 9d b0 bb c8 6d 16 3b 0f a7 db 3c 10 2e 20 3d
       -0.0053898566 0.0022953618 0.026813058 0.03910643
000070 f3 f0 9a 3c 0a 5d 0e 3d 1a 53 4b bc 2a 15 8d 3c
       0.018913722 0.034756698 -0.01240995 0.017222006
000080 45 06 d4 bb 91 3f da 3b b8 a0 04 3a 62 38 eb 3b
       -0.006470474 0.0066604097 0.00050593494 0.007178352
000090 1c 31 9c 3d 94 d5 c0 bb e9 6e 92 bc 3a 52 98 bd
       0.07626554 -0.0058848355 -0.017875152 -0.074375585
0000a0 1b 9a c2 3d 1d b2 60 bd 9b 0c 12 bd 64 61 a6 bd
       0.095020495 -0.054857362 -0.035656553 -0.081240445
0000b0 7a 1e 1a bd e5 43 0f be 27 cb 84 3c 66 60 2a be
       -0.03762672 -0.13990743 0.016210152 -0.16638336
0000c0 0d 2e a9 3c c8 c6 b1 3b f2 95 ba bb 3e c9 3a bc
       0.020651842 0.005425308 -0.0056941444 -0.011400519
0000d0 80 22 d7 bc e9 52 ca bc d7 3f 6e 3e 6f 5f bc bd
       -0.026261568 -0.024697738 0.2326654 -0.0919789
0000e0 cd 77 7a bd 45 86 89 bd 5c ff 2b bd 45 98 ef 3c
       -0.061149407 -0.06715063 -0.041991577 0.029247412
0000f0 79 b9 f2 3c e1 a0 9b bc 14 ee 74 3c 78 55 11 3f
       0.029629456 -0.018997611 0.01494934 0.5677104
000100 26 63 bd bc 67 c8 85 bf d8 ca eb 3c c1 29 36 bd
       -0.023118567 -1.0451783 0.028783247 -0.044473413
000110 51 eb b8 bd b5 38 39 bb 26 a7 6a 3c 6a 37 e0 bc
       -0.09029258 -0.002826256 0.014322078 -0.027370173
000120 cc f3 40 3c 87 6d 1f 3d 05 b0 b4 bb 76 5a cb bd
       0.011776876 0.038922813 -0.005514147 -0.099293634
000130 bf ca 0e bd 61 92 d2 3b ce ae cb 3b a6 0d a3 bc
       -0.034861322 0.006426141 0.0062159067 -0.019903969
000140 68 25 99 3b e9 c5 88 bd 0d 50 a2 bd 59 5d 9d bd
       0.0046736486 -0.06678373 -0.07925425 -0.0768382
000150 f4 8e a4 3c eb fc a5 bc 71 82 10 bd d8 79 56 bb
       0.020087697 -0.020262202 -0.03528065 -0.0032726433
000160 e9 39 4f bb 90 78 35 bc 4f b6 39 bb 78 06 43 3c
       -0.003162021 -0.011076108 -0.0028337424 0.011903398
000170 1b 03 f2 3b 90 3b 88 bd cf fd 98 bd f6 75 97 bd
       0.007385624 -0.06651986 -0.07470285 -0.07395546
000180 11 82 69 bc 33 33 b4 bb f3 e6 7b bc 61 76 ab be
       -0.014252202 -0.0054992675 -0.015374887 -0.33488753
000190 20 30 2e 3f df 88 27 bf 38 5d 0c be 6f 66 a3 bd
       0.6804218 -0.65443224 -0.13707435 -0.07978522
0001a0 30 90 11 be 06 3d d7 be 79 12 f3 be 1f f6 f4 be
       -0.1421516 -0.42038745 -0.4747503 -0.47844025
0001b0 a6 14 23 3e 83 95 d9 3d dc 96 79 3d ea 92 c7 bc
       0.15925846 0.1062422 0.060934886 -0.024362046
0001c0 98 2b fd bd 5b e1 9d 3d 2a cb 8c 3e 90 12 88 3e
       -0.123618305 0.07708999 0.27498752 0.26576662
0001d0 3c 15 3c 3c e1 a5 6b 3c 59 71 83 3c f5 28 0b 3d
       0.011479672 0.01438281 0.01604526 0.033974607
0001e0 8a de 10 3c 81 51 50 3c ac 45 ab 3c d8 c5 b5 3d
       0.00884212 0.012714745 0.020907246 0.08875626
0001f0 a7 b2 c8 bc f9 8c 8a bc d2 32 07 bd e8 af 23 3d
       -0.02449925 -0.016912924 -0.03300745 0.03996268
000200 ce d2 ac 3c db 8e 94 3c a6 b0 eb 3c 9d 98 7c 3c
       0.021096613 0.018134525 0.028770756 0.015417245
000210 e9 f5 48 3c a8 75 d8 3c ab e0 c3 3c da 80 da 3c
       0.012265661 0.02642329 0.023910841 0.02667277
000220 6b 60 15 3d 58 93 2f 3d da 5e 08 3d 52 5f dd 3c
       0.036468904 0.042865127 0.033293582 0.027022991
000230 34 b5 b7 3a 0d 70 67 be 66 8b 40 be 8f 7c 2a be
       0.0014015795 -0.22601338 -0.18803176 -0.16649078
000240 9f c9 c2 bc 97 ec 91 bc 21 18 82 bc d2 30 f3 3e
       -0.023777781 -0.01781301 -0.015880646 0.47498184
000250 aa 12 3f 3f 6c 79 f1 be 80 11 16 bc 8f ec 28 3c
       0.74637854 -0.4716295 -0.009159446 0.010310306
000260 2b 1a 2c 3c 4a 8e 54 3b ea 36 f2 3b 24 47 1e 3a
       0.010504286 0.0032433444 0.0073918 0.00060378225
000270 9d 5a a1 3d 90 66 ab 3d a4 89 82 3d 1b ed e6 3c
       0.07878611 0.083691716 0.06373909 0.028189233
000280 51 1e c0 3c 52 b7 cc 3c 84 ed f9 3c e0 58 68 3b
       0.023451956 0.024989758 0.030508764 0.0035453364
000290 d5 e0 d4 3c 9b d9 85 be 82 20 3a be f4 e2 8f be
       0.025986115 -0.26142582 -0.18176463 -0.2810284
0002a0 0f 6d 21 bd 1f ac 9a bd 34 50 f9 bc ca 3a 2c 3d
       -0.039410647 -0.07552361 -0.030433752 0.042048253
0002b0 f6 35 cc bb 27 ff 1a 3d 05 be d1 bc af 61 47 bd
       -0.0062320186 0.03784099 -0.025603304 -0.048677143
0002c0 01 d0 ff bc 6e 2d 8f 3c 72 31 54 bc a6 1e da 3c
       -0.031227114 0.017477717 -0.012951242 0.026625942
0002d0 26 90 87 3d ed df 4c 3d 2f 4c 94 3d c3 cf 7b bd
       0.06619291 0.05001824 0.07241093 -0.061477434
0002e0 d1 84 90 bd ef fa c8 bd 71 bb ed ba c3 36 11 bc
       -0.07056583 -0.09813487 -0.0018137527 -0.008863154
0002f0 6d d6 97 3a cf fa 28 bd 2c 06 32 bd 8b 4f 23 bd
       0.001158429 -0.041254815 -0.043462917 -0.03987078

encoder.block1.convblock3.0.pointwise_conv.weight f4 [64, 64, 1]
000000 77 0f dd bb 29 fb 82 3b 46 aa 8e 3c f9 82 36 3a
       -0.0067462283 0.003997226 0.017415177 0.00069622655
000010 e2 c7 ca 3b e1 02 dd bc 66 04 3d 3b ec e7 43 3c
       0.0061883787 -0.026978912 0.0028841733 0.01195715
000020 7c bb 3f ba d4 79 91 bb ca b6 36 3b c4 ec 22 bc
       -0.0007314009 -0.004439572 0.0027879947 -0.009944145
000030 16 81 6e bb 8f 21 eb 3b b7 e6 87 bc b8 b6 9d bd
       -0.003639286 0.0071756314 -0.016589506 -0.077008665
000040 c0 3f 8c bb 96 fc d2 39 70 17 30 3e 88 bd dc bb
       -0.0042800605 0.00040242512 0.1719644 -0.006736461
000050 e1 d0 95 3d 13 52 af 3d 1e e8 50 3c ee a0 8c 3b
       0.07315231 0.08560576 0.012750654 0.0042916453
000060 45 8b f3 bb a5 3b b4 b9 01 35 fd 3a fd 0d 13 bb
       -0.0074323737 -0.00034376714 0.0019318165 -0.0022438758
000070 ec f5 14 bb a5 be f3 ba 77 18 95 bb 8d 24 7b bc
       -0.0022729589 -0.0018596245 -0.0045500356 -0.015328539
000080 c4 17 46 3b 1c 13 64 bd 6a 47 f4 bc 08 12 f4 3c
       0.0030226568 -0.055682287 -0.02981921 0.029793754
000090 af 8e 2c 3a 2e d3 9c 3a 6e dd 34 3c c6 f4 b6 39
       0.0006582541 0.0011964792 0.011039121 0.00034896116
0000a0 f3 9e 8d 3b 8c 6c 5a 3d dd 74 a2 ba 9c 79 b1 bb
       0.0043219267 0.053326175 -0.0012394447 -0.0054161083
0000b0 2a d0 cb ba a9 21 4c bb 37 44 75 3b 7a 47 4c 3b
       -0.0015549709 -0.0031147993 0.0037424692 0.0031170533
0000c0 a2 0e 8f 39 69 f0 46 bd 02 50 45 3c f0 c9 97 bb
       0.00027285988 -0.048569117 0.012043001 -0.004632227
0000d0 a7 cd 12 bb 7d b4 29 bb b6 e1 7c b9 9a 11 a6 3d
       -0.002240041 -0.0025894933 -0.00024116677 0.08108826
0000e0 92 6a e6 bc 48 70 92 bc 7d 29 24 3c 30 57 b1 bb
       -0.028126989 -0.017875805 0.010019657 -0.005412005
0000f0 b3 af 8d 39 f2 22 dd 3b 8a 87 85 3b 9d 21 46 3c
       0.00027024522 0.0067485506 0.0040749954 0.012092975
000100 88 4e 8e 3b a6 15 94 3b 5c a3 87 3d ff 5b 83 3a
       0.0043428577 0.0045191823 0.06622955 0.0010021924
000110 e6 d2 1a bb 4e 26 90 3c 39 22 d7 bd 77 a5 88 bc
       -0.002362424 0.01759639 -0.10504574 -0.016680462
000120 ad 3f 17 bb 89 91 32 bc 53 a3 25 bb 54 68 1c bd
       -0.0023078725 -0.010898956 -0.002527435 -0.038185433
000130 00 f4 3d 3b 88 80 a2 ba c1 34 6d 3c 48 c9 45 bd
       0.0028984547 -0.0012397924 0.01447791 -0.04828766
000140 7f 82 d8 bb 7e 6d d6 3c db ba cc 3c 10 43 c3 ba
       -0.006607353 0.026175257 0.024991443 -0.0014897306
000150 0c da 22 bd 20 8d 6d 3b ab 73 90 3c c6 3c d6 bc
       -0.039758727 0.0036247447 0.01763328 -0.026152026
000160 76 1a 92 39 08 7b 57 ba 17 e8 a0 3a 5f e0 12 3c
       0.00027867005 -0.0008219932 0.0012276199 0.008964627
000170 8e 0d 6b 3d 66 71 5e 3b 6d c5 c2 bc 76 20 09 3d
       0.057385974 0.0033942102 -0.02377578 0.033478223
000180 ee 65 e2 3b 6a 4a 25 3b cc d8 14 3c c4 bd 7a 3d
       0.0069091236 0.0025221356 0.0090848915 0.06121613
000190 17 4b 47 ba 00 f0 c5 3b cd 86 3e bc 67 8c 94 bb
       -0.0007602437 0.006040573 -0.011628819 -0.004533339
0001a0 ad 7d 9a 3c ce 52 a5 ba e8 7d a4 bc 49 ed 24 bb
       0.018858755 -0.0012613179 -0.020079568 -0.0025165847
0001b0 5d de 81 bc bb 86 08 bd 20 34 dc bc aa cd 05 bd
       -0.015853101 -0.033331614 -0.026880324 -0.03266684
0001c0 eb bd fb bb 33 c4 20 bc 2b ff ca bb 0a 9b f2 bc
       -0.007682552 -0.009812403 -0.006194969 -0.029614944
0001d0 d3 d2 cc bc 88 ac 2d bc 89 30 13 bc a5 36 a7 bd
       -0.025002873 -0.010600217 -0.00898374 -0.081647195
0001e0 e9 82 bc bd d0 d6 3a 3c 56 70 01 bc 7f f5 01 bb
       -0.09204657 0.011403754 -0.007900318 -0.0019830165
0001f0 42 fd fd bc 00 bf f7 bb a3 7d d6 3c f1 5f 8c 3d
       -0.031004552 -0.007560611 0.026182955 0.06854237
000200 db ac 22 39 2c a6 97 bb f5 10 06 bc a1 de 4f ba
       0.00015513918 -0.0046279635 -0.008182754 -0.00079295976
000210 05 e9 a9 3b bc a3 85 3c 51 b5 6e bc 2f 2c c9 b9
       0.005185249 0.016313426 -0.014569596 -0.00038370627
000220 89 a4 15 3a 5a 0a 97 bb 84 72 43 3a f4 5e 8c 3b
       0.00057084166 -0.0046093883 0.0007455724 0.00428378
000230 6c 08 aa bb 23 ea 90 3a d9 79 ee ba 06 ad dd 3c
       -0.0051889922 0.0011056106 -0.0018194272 0.027060043
000240 60 59 35 bb 06 01 79 3b 14 f0 a9 3d 7e e5 54 3b
       -0.002767168 0.0037994995 0.082977444 0.003248542
000250 db 37 6c 3c c2 dc 24 3d 10 29 e5 3c 25 0c fc 3a
       0.014417614 0.040249594 0.027973682 0.0019229694
000260 7b d7 08 bc d8 ec 7c 3c bc 47 6e 3a 35 4f fc 3b
       -0.008352156 0.015437327 0.0009089669 0.007699872
000270 2d 6d 8b 3b 4f 4e 13 bb 53 2e b4 ba ab 55 28 bb
       0.004254958 -0.0022477095 -0.0013746716 -0.0025685828
000280 5f 46 2f 3b 97 8d 6c bc 2c 72 4e 3d 79 a8 7d bd
       0.0026744825 -0.0144380545 0.05040185 -0.061928246
000290 b9 df 43 bc 0b 81 e8 3c 3c 14 ef 3b 8c bd 0f bb
       -0.011955195 0.028381845 0.0072961133 -0.0021933047
0002a0 40 47 9e 3b b0 12 ea 3c 03 df 20 bc cc 6c 3f bb
       0.004830271 0.028573364 -0.009818795 -0.0029209135
0002b0 ba 06 b6 ba 9d 26 a9 bb 30 37 fc bb 2a 97 11 bb
       -0.0013887503 -0.0051620738 -0.0076970086 -0.0022215345
0002c0 9d 56 01 3c ed b3 05 be 76 9e d7 bb 77 4c a5 bb
       0.007894185 -0.13056917 -0.0065801693 -0.0050445157
0002d0 8c 3d 86 ba 05 f2 07 b9 1f e5 d0 bb 60 19 b7 3b
       -0.0010241731 -0.00012964763 -0.0063749696 0.0055877417
0002e0 01 a6 61 bb 0c c9 22 bb c0 34 28 3b 2c 9b 82 3a
       -0.0034431221 -0.0024839072 0.0025666207 0.0009964458
0002f0 70 fa f9 bb 16 5d e9 3a 42 f4 94 bb 19 c1 b9 3b
       -0.0076287314 0.0017804231 -0.0045457194 0.005668771
000300 ce c9 86 3a ac 95 91 bb 8d aa 69 bc 86 93 96 ba
       0.0010283531 -0.004442891 -0.014261854 -0.0011488057
000310 fb a3 15 bb 7e b4 82 bc 71 db d4 bc c9 b7 df bc
       -0.0022833336 -0.015955206 -0.025983544 -0.027309315
000320 f1 7b 8c bb 1e 43 ea bb 80 6f 4c 3a cc ad 16 bc
       -0.004287236 -0.0071491143 0.0007798597 -0.00919671
000330 ff 64 08 bc 43 f5 ac 3a 64 cf a7 bc 99 7d ae 3c
       -0.008324861 0.0013195652 -0.020484634 0.021300124
000340 aa 58 0d ba af 86 08 3a b4 76 81 bd 6e f9 97 3b
       -0.0005391935 0.00052080577 -0.06321469 0.0046378886
000350 ca 20 74 3c 9d 60 59 3b 58 b6 24 bb 5d 85 47 3b
       0.014900396 0.0033169158 -0.00251331 0.003044448
000360 86 86 e9 bb 07 53 3b 3c d2 7a 59 3a eb 57 31 3c
       -0.007126632 0.0114333695 0.0008296195 0.010824184
000370 50 20 e4 bb d8 95 64 3b 10 c2 9e bb 50 b3 e7 bc
       -0.0069618598 0.0034879353 -0.0048449114 -0.028283745
000380 56 84 6b 3b 7f db bf bc 86 b1 fd 3c d3 f0 af bc
       0.0035937033 -0.023420094 0.030968439 -0.021477139
000390 32 75 28 3b fe 1b 0e bc bc 6d 95 bc 9d 58 6b bb
       0.002570462 -0.008673666 -0.018240802 -0.0035910972
0003a0 d9 7c e3 bb 3e 65 45 bc 81 e2 c4 3b 5d 5c 1b b9
       -0.0069423732 -0.012048064 0.0060084467 -0.0001481636
0003b0 d4 e8 3b bb a0 e0 ab bb b1 90 f6 bb 0a 51 60 bc
       -0.0028672712 -0.0052452832 -0.007524573 -0.013691196
0003c0 0f 85 9f 3b 03 2a 69 3d 21 fa 49 3a d5 d5 14 3c
       0.0048681567 0.05692483 0.00077048136 0.009084185
0003d0 eb 01 cb bb dc e4 13 bc 3f 87 4c bb 4b 95 48 3d
       -0.006195297 -0.009026732 -0.0031208543 0.048970502
0003e0 09 be 04 3c dd 63 58 bc 1c 2b d1 bb e8 47 ec bb
       0.008101949 -0.013207403 -0.006383313 -0.0072107203
0003f0 6c 82 6b bc 67 97 af bc 16 de 90 3b a1 e7 9a bb
       -0.014374357 -0.021434499 0.004421006 -0.0047273193

encoder.block1.convblock3.1.weight f4 [64]
000000 c6 57 17 3e 5e 63 00 3e a2 0d 50 3e 12 97 1e 3e
       0.14779577 0.12537906 0.203177 0.15487316
000010 bb 42 e4 3e 49 c8 18 3f 67 f6 9b 3e c2 06 6b 3e
       0.4458216 0.5968061 0.30461428 0.22951797
000020 29 65 a2 3e ec f4 a9 3e c1 3c 03 3e 4c b6 32 3f
       0.31717804 0.33194673 0.12816145 0.6980941
000030 fe c7 85 3d 81 72 20 3e 6a c5 50 3e fa ba 93 3e
       0.06532286 0.1566868 0.20387807 0.2885359
000040 9d 4a 92 3e 28 a9 ed 3e e2 a3 db 3e 97 89 13 3f
       0.2857255 0.46418118 0.4289847 0.5763182
000050 27 e7 5b 3f 7a 43 ae 3e e9 9a f9 3d cc d5 ee 3e
       0.85899585 0.34035856 0.1218775 0.4664749
000060 e2 c5 29 3f 5f e0 e4 3e ae 21 14 3f a4 ad 9f 3e
       0.6631757 0.44702432 0.5786389 0.31187165
000070 0d f4 ae 3e e5 54 e3 3e bd ea 54 3d bb 69 ad 3e
       0.3417057 0.44400707 0.051981676 0.33869728
000080 1d bd 4b 3e 5d 3a ff 3e 45 77 67 3e c2 61 77 3e
       0.1989636 0.49849215 0.22604091 0.24158385
000090 8a 4c 50 3e c8 80 60 3e 82 d7 df 3e 21 0d 8e 3e
       0.20341697 0.21924126 0.43719107 0.27744392
0000a0 12 31 db 3d 3b 0a e7 3e 16 7a b3 3e 1f 8b 87 3d
       0.10702719 0.45124993 0.35054082 0.06618332
0000b0 a6 7a e2 3e eb 2e d5 3d 08 40 05 3f 8b 08 29 3e
       0.44234198 0.104093395 0.5205083 0.16507165
0000c0 1d b2 d8 3d 34 04 a0 3e 12 77 da 3e 7b 74 fe 3e
       0.105808474 0.31253207 0.42668968 0.49698243
0000d0 6a b5 87 3e 6b 77 fa 3d 15 df cd 3e 60 85 bc 3e
       0.26505595 0.122298084 0.4020926 0.36820507
0000e0 47 95 17 3e ba a2 4a 3e c3 1a 3f 3f 0b 4f 96 3e
       0.14803039 0.19788638 0.7465021 0.2935718
0000f0 fe 86 d4 3e f6 59 68 3d d7 84 3a 3e c3 3d 0c 3e
       0.4150924 0.05672642 0.18214737 0.13695435

encoder.block1.convblock3.1.bias f4 [64]
000000 91 db 00 be 84 16 ad 3b a7 aa 88 bd b3 cd bf 3c
       -0.12583758 0.005282225 -0.06673174 0.023413515
000010 1d 22 29 be a5 90 8e be f6 97 3d be 9c 46 b0 bd
       -0.1651692 -0.2784473 -0.18515 -0.08607218
000020 d6 9a bc 3c db 84 a2 bc c2 38 fd bd 6d f5 e1 be
       0.02302305 -0.019838741 -0.12364341 -0.44132558
000030 70 44 e9 bc ef 3c 73 bd 58 f7 df bd cd 24 37 3e
       -0.028475016 -0.059384283 -0.10935849 0.17885132
000040 22 f1 be bc ff 18 da 3c ea e2 88 bd cc 7e 55 3d
       -0.02330834 0.026623247 -0.066839054 0.052122876
000050 28 6d eb be 6e f0 44 3e 95 82 90 3c 02 80 3d bd
       -0.45981717 0.19232342 0.017640391 -0.046264656
000060 0f 70 32 bd 21 a6 0b be 48 84 6d be 4a b5 15 3d
       -0.0435639 -0.13637592 -0.23194993 0.036549844
000070 55 d4 20 3e 5c b1 4e be 35 78 8f bd cf 64 d9 bd
       0.15705998 -0.20184845 -0.070053495 -0.10614931
000080 96 2a a0 bd 77 32 b7 bb 35 1c bf 3d c9 f9 a4 bd
       -0.078206226 -0.0055907327 0.09331552 -0.08055455
000090 d5 19 41 bb 47 e4 31 bd f7 12 87 3d 9a 16 27 3d
       -0.002946486 -0.043430593 0.06595414 0.04079304
0000a0 4d f5 84 bd 0d dd 6c 3d 49 ae 6e 3d bb 66 37 bd
       -0.064921 0.057827998 0.05827168 -0.044775706
0000b0 6d af 32 be 4d d3 cc bd 10 54 9d bd c6 0e 5d 3d
       -0.17449732 -0.1000124 -0.07682049 0.053969167
0000c0 bf a8 59 3b 76 9d c5 bd ba c2 14 be e7 b0 9f bd
       0.0033212153 -0.09649174 -0.14527407 -0.07797413
0000d0 96 2d e4 bd b3 4c 6f bd 8d 16 03 3c 7f 44 49 be
       -0.11141507 -0.058422755 0.008000982 -0.19655035
0000e0 b7 c5 92 bd 22 77 5b 3c 85 ad 91 bd d3 06 25 be
       -0.07166617 0.013395103 -0.07113174 -0.16115884
0000f0 1d 3b 0c 3e 83 e2 67 bd c5 31 0e be 24 83 4e bd
       0.13694425 -0.056612503 -0.13886173 -0.050418034

encoder.block1.convblock3.1.running_mean f4 [64]
000000 c4 a6 5c bd 55 03 ab 3c 9b 0b 87 bd 82 ba 43 3d
       -0.053869978 0.020875612 -0.065940104 0.04778529
000010 b7 d3 39 bc 85 d9 e8 bd fc fe 5c bb 66 19 80 3d
       -0.011341981 -0.113696136 -0.0033721318 0.06254844
000020 e9 2a f4 bc 55 ee c8 3d 90 9d 3c bd 12 e0 03 3e
       -0.029805617 0.09811083 -0.0460487 0.12878445
000030 98 63 26 3c da 6a 7c bd 2c 69 42 bd f0 51 2a be
       0.010155581 -0.06162534 -0.04746358 -0.16632819
000040 c0 40 52 39 a5 2f d4 bc e1 7d 04 3d 4a d8 53 be
       0.00020051282 -0.025901625 0.03234661 -0.20687976
000050 c0 74 67 3e ac 3b ed bc 77 cf 42 bb 29 8c 55 3b
       0.2260313 -0.028959118 -0.002972571 0.0032584763
000060 ff 90 32 3d 34 01 23 3d 39 d1 d9 3d a3 0d cb bd
       0.04359531 0.03979607 0.10635609 -0.099147104
000070 ab 5f d3 bc 20 fd 22 3d 82 3c 0d 3d 8b 65 13 bc
       -0.025802454 0.03979218 0.034481533 -0.008996378
000080 e0 ba d6 bc 15 e9 17 bd 0d dd 8d bd 6a 73 d7 3d
       -0.026212156 -0.03708752 -0.06926928 0.1052006
000090 d4 5c 05 bd 2a 45 4a bd 2b 0c 90 3d 9b f6 6f bd
       -0.03255923 -0.049382366 0.07033571 -0.05858479
0000a0 cd 37 f8 bc 8f fe 6e bd e3 00 b1 bd af 42 94 bb
       -0.030300045 -0.058348235 -0.08642747 -0.004524551
0000b0 c7 ea 24 bd ee 85 83 3c ef 04 bc 3d 44 bc 45 3d
       -0.040262964 0.016055074 0.091806285 0.048275247
0000c0 58 ae 13 3c e1 e0 0d bb 6d 2b 03 3e d2 5b c5 3d
       0.009013735 -0.002164893 0.12809534 0.09636654
0000d0 0a 5a d8 3d b3 62 74 3d b7 a5 9d bc e6 27 c1 bc
       0.105640486 0.05966444 -0.019244058 -0.023578595
0000e0 35 32 8e 3d ef f9 24 bd b0 6f 8d 3d a6 a6 75 3c
       0.0694317 -0.040277418 0.06906068 0.014993345
0000f0 96 d4 a1 3d 4f c7 29 3d d3 45 a4 3b 12 1c 70 3c
       0.07901876 0.04144984 0.0050132065 0.01465513
