ldpi/training/output/ResCNN/best_model_with_center.pth (torch, 711778 bytes, 64 tensors)

encoder.block1.convblock1.0.depthwise_conv.weight f4 [1, 1, 7]
-0.40152642 -1.8686743 0.08142605 -0.021694941 0.08089533 -0.19845554 -0.7477801
00000000: df94 cdbe b830 efbf b3c2 a63d 97b9 b1bc
00000010: 73ac a53d ee37 4bbe 846e 3fbf

encoder.block1.convblock1.0.pointwise_conv.weight f4 [64, 1, 1]
0.040096838 -0.035239182 0.006145617 -0.0010194929 0.011633394 0.040377926 -0.01505117 -0.019455062
-0.021521915 0.023661936 0.03487778 0.014987605 0.023289472 -0.0406029 -0.010032328 -0.041064143
0.022974664 -0.018558579 0.009791864 -0.02053562 0.00082616205 -0.010035323 0.012721764 0.018076202
0.024020879 -0.01716888 -0.013905812 -0.028067822 0.03291931 -0.01459657 -0.03009792 0.0345376
-0.041988187 0.40784672 0.063254826 0.039919965 0.18556407 0.016780565 0.006968896 0.0063136397
-0.012167186 -0.030550184 -0.025464974 -0.032877583 -0.018582942 0.02486021 0.075621724 -0.021982638
-0.02600447 0.03403273 0.004435902 0.005953465 0.029117381 -0.0193218 -0.027450478 0.034808856
0.0055190674 0.02612873 0.031896073 0.029257745 -0.017612405 0.04312982 0.01944808 -0.028974129
00000000: 953c 243d f656 10bd 2c61 c93b 81a0 85ba
00000010: fe99 3e3c 5363 253d 2f99 76bc 3960 9fbc
00000020: ba4e b0bc add6 c13c 01dc 0e3d 928e 753c
00000030: 90c9 be3c 3a4f 26bd a25e 24bc e032 28bd
00000040: 5d35 bc3c 2908 98bc 0e6e 203c 513a a8bc
00000050: cc92 583a 326b 24bc f26e 503c 8b14 943c
00000060: 6fc7 c43c c0a5 8cbc 34d5 63bc 7dee e5bc
00000070: 66d6 063d 7426 6fbc ea8f f6bc 4c77 0d3d
00000080: cefb 2bbd 49d1 d03e bf8b 813d 1e83 233d
00000090: 8204 3e3e 6577 893c 565b e43b a6e2 ce3b
000000a0: e058 47bc 6144 fabc ec9b d0bc a5aa 06bd
000000b0: 413b 98bc a4a7 cb3c 90df 9a3d ef14 b4bc
000000c0: 5407 d5bc e765 0b3d 0b5b 913b 4915 c33b
000000d0: 9387 ee3c c048 9ebc d3df e0bc bb93 0e3d
000000e0: 4bd9 b43b eb0b d63c 75a5 023d f0ad ef3c
000000f0: e447 90bc e5a8 303d 9451 9f3c 275b edbc

encoder.block1.convblock1.1.weight f4 [64]
0.051788088 0.12537019 0.046521246 0.040489897 0.04026001 0.045362074 0.18460912 0.049234774
0.020187376 0.11452868 0.2228416 0.08857876 0.041112747 0.022801394 0.07584584 0.815959
0.3303978 0.057251602 0.047630128 0.06229037 0.043934997 0.14250648 0.08284821 0.051276438
0.19395453 0.03821506 0.2641008 0.11681538 0.046370585 0.02978488 0.09685944 0.05722489
0.07661418 1.5106196 0.9827886 0.043135375 0.85833174 0.05581961 0.057172656 0.041677635
0.16505657 0.67486984 0.03609063 0.40259025 0.17157073 0.045760475 1.3175795 0.33436024
0.0372613 0.063983195 0.014242787 0.048095886 0.18370073 0.0856545 0.15726155 0.25806114
0.04330484 0.056938846 0.050079826 0.045698732 -0.07505734 0.046792623 0.3132898 0.5412174
00000000: bf1f 543d 0b61 003e 108d 3e3d bcd8 253d
00000010: aee7 243d 95cd 393d 2c0a 3d3e 67aa 493d
00000020: ff5f a53c 038e ea3d 9730 643e c868 b53d
00000030: d765 283d fdc9 ba3c 1055 9b3d b0e2 503f
00000040: e729 a93e a880 6a3d cf17 433d 3024 7f3d
00000050: 2ff5 333d 38ed 113e 53ac a93d 3e07 523d
00000060: 049c 463e 6587 1c3d 3838 873e e73c ef3d
00000070: 15ef 3d3d 6cff f33c 3e5e c63d a564 6a3d
00000080: e5e7 9c3d fc5b c13f 0998 7b3f b8ae 303d
00000090: a1bb 5b3f 1aa3 643d e02d 6a3d 2bb6 2a3d
000000a0: 9704 293e 45c4 2c3f c5d3 133d 4f20 ce3e
000000b0: 3db0 2f3e 566f 3b3d 72a6 a83f 4431 ab3e
000000c0: 4e9f 183d 9f09 833d 945a 693c 3100 453d
000000d0: 0b1c 3c3e a06b af3d 2c09 213e 9720 843e
000000e0: 6a60 313d b538 693d 8120 4d3d 982e 3b3d
000000f0: aab7 99bd 9fa9 3f3d 8567 a03e 398d 0a3f

encoder.block1.convblock1.1.bias f4 [64]
0.010781455 0.30452687 0.019406687 -0.11523115 0.051048614 -0.04007096 0.04456598 0.008587921
-0.109721884 -0.080395594 -0.05397766 0.07132705 0.013390005 -0.22629185 -0.011504273 0.12702498
0.19277585 0.042722132 0.0073806182 -0.028596168 0.01022879 0.046332788 0.07347849 0.010628931
0.22084773 -0.0267428 0.06803154 0.024521638 0.05134307 -0.25860506 0.047402203 0.03302794
-0.023296578 -0.66403466 0.09601575 -0.12982866 0.58405215 0.025991272 0.18077648 0.024802048
0.04028583 0.16998008 -0.11053967 0.075700544 0.034194473 0.011870395 0.26696217 -0.10869152
-0.05823752 0.017590698 -0.39944443 0.008286156 -0.4109364 -0.015573692 0.03458967 -0.07119787
-0.070837446 0.021283252 0.0077333474 0.014234378 0.74699545 0.01156178 -0.054961056 0.14972077
00000000: b3a4 303c f2ea 9b3e c6fa 9e3c 4ffe ebbd
00000010: 5a18 513d 7221 24bd d18a 363d 5ab4 0c3c
00000020: deb5 e0bd 72a6 a4bd ae17 5dbd eb13 923d
00000030: c061 5b3c 0db9 67be 6b7c 3cbc d612 023e
00000040: 0867 453e 67fd 2e3d 1dd9 f13b 8342 eabc
00000050: a896 273c 73c7 3d3d e47b 963d f824 2e3c
00000060: e825 623e b713 dbbc 1f54 8b3d 9ae1 c83c
00000070: 1c4d 523d e267 84be d028 423d 4e48 073d
00000080: 77d8 bebc 2dfe 29bf e8a3 c43d cef1 04be
00000090: 7184 153f a6eb d43c 781d 393e aa2d cb3c
000000a0: c102 253d 420f 2e3e 9f62 e2bd e308 9b3d
000000b0: 810f 0c3d 0c7c 423c 44af 883e a999 debd
000000c0: 778a 6ebd 5e1a 903c fb83 ccbe a8c2 073c
000000d0: 4166 d2be cc28 7fbc e6ad 0d3d 30d0 91bd
000000e0: 3913 91bd 375a ae3c 0568 fd3b 4f37 693c
000000f0: 183b 3f3f 9f6d 3d3c d81e 61bd 6750 193e

encoder.block1.convblock1.1.running_mean f4 [64]
-0.028165152 0.024752839 -0.0043169395 0.0007161202 -0.008171557 -0.028362595 0.010572177 0.013665786
0.015117593 -0.016620772 -0.024499558 -0.010527747 -0.016359178 0.028520623 0.0070468727 0.02885118
-0.016137205 0.013036061 -0.0068781096 0.014424816 -0.0005804948 0.0070477566 -0.008936057 -0.012697234
-0.01687335 0.01205991 0.009760229 0.019715609 -0.023123441 0.01025304 0.021141604 -0.024260188
0.029493682 -0.28648302 -0.044429377 -0.028040912 -0.1303454 -0.011787136 -0.0048954166 -0.0044349204
0.008545846 0.021463621 0.017887315 0.023093661 0.013052964 -0.017462514 -0.053119592 0.01543974
0.01826627 -0.02390556 -0.0031159027 -0.004181874 -0.020452863 0.013572134 0.019281957 -0.024450993
-0.0038767494 -0.018353552 -0.022404695 -0.020551462 0.012373853 -0.030295596 -0.013661119 0.020352684
00000000: 9bba e6bc 77c6 ca3c 1d75 8dbb 03ba 3b3a
00000010: ffe1 05bc ac58 e8bc ed36 2d3c 76e6 5f3c
00000020: c8af 773c 4928 88bc 4cb3 c8bc 927c 2cbc
00000030: af03 86bc 15a4 e93c 74e9 e63b 4f59 ec3c
00000040: 2c32 84bc 3495 553c c461 e1bb 1056 6c3c
00000050: 592c 18ba def0 e63b 8a68 12bc 0f08 50bc
00000060: fb39 8abc ee96 453c 5ee9 1f3c a182 a13c
00000070: 5f6d bdbc 5efc 273c 2831 ad3c 4dbd c6bc
00000080: bc9c f13c e7ad 92be 94fb 35bd 0eb6 e5bc
00000090: 4479 05be d51e 41bc bb69 a0bb cf52 91bb
000000a0: e003 0c3c 7ad4 af3c 6b88 923c eb2e bd3c
000000b0: 19dc 553c 8c0d 8fbc ee93 59bd f7f6 7c3c
000000c0: 25a3 953c 98d5 c3bc 2c34 4cbb 1a08 89bb
000000d0: c38c a7bc a85d 5e3c 32f5 9d3c 734d c8bc
000000e0: 1011 7ebb 305a 96bc 0d8a b7bc 8a5b a8bc
000000f0: b3bb 4a3c 782e f8bc e3d2 5fbc acba a63c

encoder.block1.convblock1.1.running_var f4 [64]
0.00084206485 0.00065038644 1.978213e-05 5.443687e-07 7.088123e-05 0.0008539123 0.00011864526 0.00019823966
0.00024259769 0.0002932404 0.0006371438 0.00011765004 0.00028408243 0.0008634542 5.2712596e-05 0.0008835754
0.00027642594 0.00018039066 5.0218e-05 0.00022087261 3.5769472e-07 5.2726216e-05 8.476437e-05 0.00017113528
0.00030222017 0.00015438652 0.000101124104 0.00041261184 0.0005675787 0.00011159033 0.00047445734 0.0006247549
0.0009233774 0.08712026 0.0020953799 0.0008346523 0.018034859 0.00014748162 2.5438974e-05 2.0878182e-05
7.752342e-05 0.0004890168 0.0003396344 0.0005661183 0.00018085887 0.00032369423 0.002995232 0.0002530476
0.00035417755 0.00060662325 1.0305976e-05 1.8563647e-05 0.00044404762 0.0001955319 0.0003946604 0.00063462043
1.5953532e-05 0.0003575704 0.0005328431 0.00044833936 0.00016252695 0.00097427226 0.00019810408 0.00043970742
00000000: 04be 5c3a b27e 2a3a cdf1 a537 bb20 1235
00000010: 12a6 9438 16d9 5f3a 30d1 f838 8ede 4f39
00000020: d261 7e39 0fbe 9939 ff05 273a e2ba f638
00000030: e6f0 9439 6e59 623a b817 5d38 be9f 673a
00000040: 43ed 9039 4027 3d39 2ba1 5238 0a9a 6739
00000050: 3009 c034 5826 5d38 86c3 b138 c772 3339
00000060: 4e73 9e39 d1e2 2139 9712 d438 d353 d839
00000070: 90c9 143a 9a05 ea38 96c0 f839 97c6 233a
00000080: cf0e 723a 1b6c b23d a452 093b 91cc 5a3a
00000090: d7bd 933c 4ca5 1a39 c865 d537 8e23 af37
000000a0: 1294 a238 5d31 003a f510 b239 8e67 143a
000000b0: efa4 3d39 81b5 a939 a74b 443b 79ab 8439
000000c0: e8b0 b939 cc05 1f3a d4e7 2c37 21b9 9b37
000000d0: 10cf e839 b207 4d39 6cea ce39 a85c 263a
000000e0: f3d3 8537 4978 bb39 7fae 0b3a 170f eb39
000000f0: ff6b 2a39 4e66 7f3a 29ba 4f39 8888 e639

encoder.block1.convblock2.0.depthwise_conv.weight f4 [64, 1, 5]
-0.01786686 0.014312844 -0.00060591416 0.012338787 0.012709499 0.12227323 0.016483244 -0.038031798
0.029689174 0.034659036 0.021480756 0.024101809 -0.008782281 0.020889811 -0.010776237 -0.018269602
-0.013120111 -0.026851175 -0.0043665646 0.0010717656 -0.02022223 -0.0030773103 -0.0026554253 0.012013145
-0.014694215 0.016449194 0.0033911208 0.013228248 0.019445175 -0.003084706 0.08788813 0.05563025
0.05053049 0.0732369 0.08429337 -0.0064625945 -0.009000077 -0.0070773168 -0.012106057 -0.025153756
-0.006175752 -0.013501747 -0.0052594603 0.0037172853 0.017772596 0.032888588 0.007741783 0.031995747
0.038678866 0.030687332 0.083780624 0.08591738 0.070132464 0.07302334 0.10478303 0.02792689
-0.010282094 -0.014517075 -0.01322403 0.014455504 0.0036191014 0.0089409435 0.00418366 0.0048044017
-0.001573995 -0.0044973018 -0.016912758 -0.013159503 -0.019055162 -0.01215282 -0.021429354 -0.031283766
-0.03408997 -0.006460943 -0.03089435 0.2721377 -0.05637233 0.10381021 0.14675002 0.38431707
-0.123098284 0.1533575 0.19396684 0.08940942 -0.0063117095 -0.0019821415 0.0004860096 -0.017954493
-0.006548732 -0.0016495968 -0.003214232 0.013188256 0.020847093 0.014942699 -0.0017512047 -0.024998268
-0.021136455 -0.008279361 -0.019373965 -0.014896039 -0.0043856357 0.016062543 0.0149220545 -0.019785173
0.005944753 0.0791201 0.042383812 0.025354762 0.016903654 0.003850516 0.012098319 -0.016608521
-0.023067342 -0.009275477 -0.023809617 -0.0058245105 -0.0042858436 -0.0025465337 0.0052338443 -0.020674022
0.012344536 0.1281548 0.09150888 0.039961427 0.050599966 -0.011393869 -0.009557358 0.005055357
0.0031751753 0.0063399803 -0.16791674 -0.090530045 -0.06256769 -0.04145503 -0.08131232 0.045948725
0.021206472 0.01629402 0.02287352 0.014432828 -0.02003039 0.014036304 -0.0012025507 0.02549339
0.0018632559 -0.020514416 -0.02003881 -0.019516082 0.004215298 -0.01557199 -0.03409948 -0.037510667
-0.004657088 -0.0266211 -0.017919654 -0.004818455 -0.016690047 0.0050108717 -0.0006500718 -0.011896339
-0.027036307 -0.015342415 -0.026731314 -0.02771533 -0.007570383 -0.078632124 -0.17861487 -0.17007823
-0.039229862 -0.28642222 0.086342655 0.007219193 -0.58207023 -0.86854887 -0.1656254 0.010289093
0.0031552818 0.013584777 0.016830388 0.014609632 0.9709131 0.16560036 -0.019792374 -0.47943515
-0.70265186 0.0193754 -0.011806677 0.012709007 -0.006840328 0.0173656 0.03806984 0.0015786198
-0.011125338 -0.009452657 -0.013443151 -0.013411534 0.0009925844 -0.0052002463 0.00016918442 0.0126511315
-0.063603446 -0.019864518 -0.048641194 -0.059456374 -0.065181516 -0.4119317 -0.0037313611 0.029596377
-0.21776734 -0.28190532 -0.009036683 -0.021434745 -0.007391294 -0.009989153 0.0010616244 -0.16189224
-0.051685143 -0.07943873 -0.068150766 -0.14506184 0.079378605 0.050118443 0.05066047 0.058847398
0.07945765 0.012545856 -0.018303405 0.008625074 0.0024217293 -0.0134419 -1.3558544 0.7119214
0.888 0.50336975 0.255115 -0.10397076 -0.05197985 -0.070105046 -0.08740571 -0.149392
-0.015034912 0.0096806055 -0.019502647 -0.018392451 -0.003711179 0.014348847 0.0037410182 0.0035401422
0.028656127 0.028536787 0.026745318 0.008623384 0.015459504 -0.001576697 0.0077900384 0.009144489
00000000: 855d 92bc 6b80 6a3c 36d6 1eba a028 4a3c
00000010: 813b 503c 636a fa3d de07 873c 3bc7 1bbd
00000020: b636 f33c a2f6 0d3d 69f8 af3c 2871 c53c
00000030: 8ee3 0fbc 1c21 ab3c d08e 30bc 22aa 95bc
00000040: bcf5 56bc fff6 dbbc 6615 8fbb 7c7a 8c3a
00000050: 17a9 a5bc b3ac 49bb a506 2ebb c8d2 443c
00000060: 01c0 70bc 76c0 863c 913d 5e3b 4bbb 583c
00000070: 7d4b 9f3c c728 4abb b1fe b33d 8cdc 633d
00000080: 0ff9 4e3d 3afd 953d 01a2 ac3d 2cc4 d3bb
00000090: 0f75 13bc d6e8 e7bb 7c58 46bc 400f cebc
000000a0: f65d cabb 6e36 5dbc 8d57 acbb b39d 733b
000000b0: d697 913c 2fb6 063d c8ae fd3b f90d 033d
000000c0: bb6d 1e3d 0064 fb3c 2d95 ab3d 74f5 af3d
000000d0: 9ca1 8f3d 438d 953d 7c98 d63d efc6 e43c
000000e0: 3a76 28bc 07d9 6dbc 9aa9 58bc c7d6 6c3c
000000f0: 722e 6d3b 097d 123c 1517 893b 3e6e 9d3b
00000100: 824e ceba 1a5e 93bb a08c 8abc f59a 57bc
00000110: 9219 9cbc 9f1c 47bc 9d8c afbc 6823 00bd
00000120: eda1 0bbd 51b6 d3bb 2616 fdbc a255 8b3e
00000130: ace6 66bd 739a d43d a345 163e 35c5 c43e
00000140: f41a fcbd c009 1d3e 3e9f 463e 491c b73d
00000150: 75d2 cebb d1e6 01bb 1bcf fe39 4d15 93bc
00000160: bf96 d6bb 4937 d8ba dda5 52bb 8e13 583c
00000170: 86c7 aa3c 39d2 743c ae88 e5ba 2bc9 ccbc
00000180: 5c26 adbc 28a6 07bc 26b6 9ebc 840e 74bc
00000190: 61b5 8fbb 9895 833c a27b 743c 8414 a2bc
000001a0: 34cc c23b b809 a23d a69a 2d3d cab4 cf3c
000001b0: 8879 8a3c f058 7c3b 0738 463c 980e 88bc
000001c0: b9f7 bcbc 2cf8 17bc 630c c3bc 89db bebb
000001d0: 4370 8cbb bfe3 26bb ab80 ab3b 915c a9bc
000001e0: bd40 4a3c 033b 033e 0269 bb3d 98ae 233d
000001f0: e941 4f3d 5aad 3abc 7796 1cbc 68a7 a53b
00000200: 9a16 503b 9cbf cf3b 5ef2 2bbe d167 b9bd
00000210: 7d23 80bd c0cc 29bd 1387 a6bd bb34 3c3d
00000220: 32b9 ad3c 097b 853c 4061 bb3c ab77 6c3c
00000230: c616 a4bc 87f8 653c e89e 9dba 84d7 d03c
00000240: 7e38 f43a d90d a8bc 6e28 a4bc 31e0 9fbc
00000250: 7c20 8a3b a921 7fbc e5ab 0bbd c9a4 19bd
00000260: 7c9a 98bb 7e14 dabc 3dcc 92bc 21e4 9dbb
00000270: 91b9 88bc 3d32 a43b 9469 2aba dde8 42bc
00000280: 3f7b ddbc c15e 7bbc a1fb dabc 420b e3bc
00000290: fa10 f8bb e109 a1bd d1e6 36be fd28 2ebe
000002a0: 7eaf 20bd efa5 92be 6bd4 b03d fb8e ec3b
000002b0: 8e02 15bf 3859 5ebf b499 29be 9593 283c
000002c0: d8c8 4e3b af92 5e3c e2df 893c 3d5d 6f3c
000002d0: c38d 783f 2493 293e 9e23 a2bc 8678 f5be
000002e0: fee0 33bf 29b9 9e3c cb70 41bc 7039 503c
000002f0: d524 e0bb 4e42 8e3c 1fef 1b3d b1e9 ce3a
00000300: 0d47 36bc 51df 1abc a940 5cbc 0dbc 5bbc
00000310: 9b19 823a d466 aabb 1967 3139 b146 4f3c
00000320: 8642 82bd eaba a2bc fd3b 47bd 8788 73bd
00000330: e37d 85bd b6e8 d2be da89 74bb 1a74 f23c
00000340: 67fe 5ebe e555 90be 980e 14bc eb97 afbc
00000350: ab32 f2bb 8ba9 23bc 3426 8b3a 14c7 25be
00000360: cdb3 53bd c6b0 a2bd a192 8bbd 178b 14be
00000370: 4091 a23d ff48 4d3d 5a81 4f3d f809 713d
00000380: b1ba a23d 228d 4d3c 06f1 95bc 2f50 0d3c
00000390: e0b5 1e3b 6a3b 5cbc a38c adbf 7b40 363f
000003a0: f853 633f d7dc 003f 6f9e 823e 9fee d4bd
000003b0: d3e8 54bd 3c93 8fbd c401 b3bd 37fa 18be
000003c0: fe54 76bc 679b 1e3c 04c4 9fbc c4ab 96bc
000003d0: 4037 73bb 6d17 6b3c df2b 753b bb01 683b
000003e0: 41c0 ea3c fbc5 e93c ff18 db3c 1849 0d3c
000003f0: dc49 7d3c 2ca9 ceba 9443 ff3b c4d2 153c

encoder.block1.convblock2.0.pointwise_conv.weight f4 [64, 64, 1]
-0.0010090519 -0.0048657563 0.004564267 -0.0004395566 -0.00036736895 -0.006091774 0.004238546 -0.0037241406
0.004993159 -0.0019496968 -0.003924293 -0.0092896335 -0.0020083091 0.0003688993 0.0035588094 0.009212109
-0.018766921 0.004748455 -0.010191802 0.005116246 0.0036047462 -0.0034055558 -0.007231012 -0.0019369032
-0.005656893 -0.0041918056 0.001985372 0.009634528 -0.0025154771 0.0007054757 0.0013899651 0.0033136636
0.005587766 -0.009933584 0.01021495 -0.0046056486 0.017197702 -0.00051642774 -0.009270104 -0.002230333
0.003505523 0.010496471 0.0019201908 0.009314369 0.0016911521 0.004476133 -0.026360346 -0.0027452204
0.0024259205 -0.0015202838 -0.0021847286 -0.0034932296 0.005493043 0.0032734487 -0.0007375242 -0.0035755762
0.00057085557 -0.009168628 -0.0006326919 -0.00340184 -0.01224642 0.001017362 -0.00066705927 -0.0016652263
-0.003702885 -0.013622268 -0.004531538 -0.0063720294 -0.0023395908 0.0048114234 -0.14495628 0.016834803
0.002557741 0.010609591 -0.15430503 -0.010483646 -0.00029497902 0.0006505113 0.025027843 -0.7430682
0.01688906 -8.733155e-05 -0.0030441692 0.012241527 -0.0013898549 -0.026128406 -0.00040183085 0.0064344853
-0.09398484 0.0059921895 0.08911927 -0.024436595 0.00528212 -0.0009704963 0.008719394 -0.0013237845
0.030898979 0.68806934 -0.502795 0.00023897787 -0.081342965 -0.0055102645 -0.000576283 -0.0017213976
0.10749331 0.22869456 0.0014202766 0.2989464 -0.13355348 0.0028977871 0.21663506 0.15481457
-0.0052366355 -0.0148445545 -0.0001306243 0.005504721 -0.25890806 0.034562163 0.10368854 0.12948209
0.0033021248 -0.00066376285 -0.015893405 0.006330643 0.03764027 0.011229726 -0.16368036 0.35777283
-0.00043305827 -0.013354934 -0.004047138 -0.0030425666 -0.00021316593 0.0052075563 -0.010210973 0.008114073
0.0028067857 0.006475113 -0.020452041 -0.011602033 0.0015764922 -0.00093992526 0.0055451603 -0.025851019
-0.09751761 -0.005484507 0.002146029 0.003422535 0.0036712256 -0.010174049 0.001840872 0.002203375
-0.03279986 -0.004864258 0.012461121 -0.030827513 -0.0049148174 0.0025639427 0.0051256516 0.0038743592
0.004459014 0.05949049 -0.05542966 0.0006729987 -0.07455196 -0.0063518295 -0.0036682615 0.00014037457
0.0059650475 0.065687105 0.0023457916 0.038561337 -0.006026516 -0.0026926044 -0.1163455 0.016604196
0.0039718547 -0.0065640854 -0.002966112 -0.002020609 -0.013519101 0.007462539 0.011325342 0.02441553
-0.0018576366 -0.0039446573 -0.0033839087 0.0066251294 0.01869815 0.0016545872 -0.017487472 0.063001975
-0.0014497103 -0.006245398 0.0058316044 0.0012455779 -0.002544799 0.003921483 -0.0016223093 0.0030343607
-0.0023840433 -0.008531009 -0.0007874036 -0.0042718435 0.007830103 -0.0008734563 0.0021267342 0.011376591
-0.0005735803 0.006567858 0.004859037 0.0013640699 0.008679975 -0.013113035 -0.0032364873 -0.0025394633
0.003149312 0.0014378102 -0.0020937459 0.007921817 -0.00014085337 0.0027817984 0.0062932526 -0.0045322063
0.0040019806 0.0027611419 0.00039561925 -0.0021396326 -0.0053945566 0.004938469 -0.0038438472 0.0028443048
-0.0049141296 0.017187737 -0.00037775844 0.0046881004 -0.0015365285 0.0032980132 -0.0010899252 -0.0031857193
0.00443808 0.0046278588 0.00077116385 -0.0069702114 0.0025696033 0.0068818396 0.009505093 0.001250341
-0.0023618184 -0.0029525855 0.010083935 -0.0032131842 0.0020823497 -0.0093926415 -0.0051613185 -0.008748129
00000000: 2a42 84ba ec70 9fbb d98f 953b 4a74 e6b9
00000010: 6d9b c0b9 819d c7bb 80e3 8a3b b610 74bb
00000020: a79d a33b f88c ffba 5b97 80bb 8c33 18bc
00000030: d69d 03bb d368 c139 ea3a 693b 63ee 163c
00000040: 16bd 99bc ed98 9b3b 84fb 26bc 2fa6 a73b
00000050: 9b3d 6c3b bf2f 5fbb 20f2 ecbb b0df fdba
00000060: 755d b9bb 6a5b 89bb 041d 023b 24da 1d3c
00000070: b4da 24bb acef 383a 7d2f b63a 0d2a 593b
00000080: 9419 b73b 79c0 22bc 9b5c 273c fbea 96bb
00000090: 32e2 8c3c e160 07ba a2e1 17bc c72a 12bb
000000a0: ebbc 653b 64f9 2b3c e9ae fb3a 4c9b 183c
000000b0: a6a9 dd3a 86ac 923b a7f1 d7bc 28e9 33bb
000000c0: 31fc 1e3b 4244 c7ba aa2d 0fbb abee 64bb
000000d0: fcfe b33b 5b87 563b 6956 41ba 3754 6abb
000000e0: 78a5 153a 0338 16bc 3cdb 25ba 68f1 5ebb
000000f0: 35a5 48bc 0159 853a 97dd 2eba b943 daba
00000100: 1aac 72bb ef2f 5fbc 4c7d 94bb 75cc d0bb
00000110: d253 19bb 25a9 9d3b 6b6f 14be 24e9 893c
00000120: c69f 273b dad3 2d3c 2302 1ebe 99c3 2bbc
00000130: 6aa7 9ab9 1387 2a3a 3107 cd3c b839 3ebf
00000140: ed5a 8a3c c525 b7b8 af80 47bb b090 483c
00000150: cb2b b6ba 3d0b d6bc d3ac d2b9 60d8 d23b
00000160: 207b c0bd 215a c43b 2a84 b63d 412f c8bc
00000170: a215 ad3b e768 7eba cadb 0e3c d682 adba
00000180: db1f fd3c 5025 303f 2cb7 00bf 2296 7a39
00000190: 2497 a6bd 738f b4bb b311 17ba 85a0 e1ba
000001a0: 7425 dc3d e82e 6a3e 9328 ba3a 810f 993e
000001b0: 3ec2 08be cde8 3d3b 95d5 5d3e b687 1e3e
000001c0: 1598 abbb 9336 73bc 32f8 08b9 f260 b43b
000001d0: 998f 84be 0e91 0d3d a85a d43d f496 043e
000001e0: 7668 583b 5f00 2eba e332 82bc 4871 cf3b
000001f0: af2c 1a3d e2fc 373c d39b 27be 002e b73e
00000200: 190c e3b9 a7ce 5abc db9d 84bb cc65 47bb
00000210: 4b85 5fb9 26a4 aa3b ed4b 27bc e4f0 043c
00000220: 0df2 373b 2f2d d43b 0a8b a7bc 7416 3ebc
00000230: 4da2 ce3a 5165 76ba 2db4 b53b 84c5 d3bc
00000240: 50b7 c7bd 61b7 b3bb 64a4 0c3b 9c4c 603b
00000250: f298 703b 0eb1 26bc 6a49 f13a 8066 103b
00000260: 2559 06bd 5b64 9fbb bb29 4c3c fb89 fcbc
00000270: 7a0c a1bb d207 283b 15f5 a73b f6e8 7d3b
00000280: ec1c 923b 4dac 733d 360a 63bd 2e6c 303a
00000290: b3ae 98bd 0223 d0bb 3767 70bb 8331 1339
000002a0: 7276 c33b f686 863d dabb 193b 7ef2 1d3d
000002b0: 157a c5bb 6876 30bb 8d46 eebd 8605 883c
000002c0: 5526 823b 8a17 d7bb 1a63 42bb 326c 04bb
000002d0: 387f 5dbc 5088 f43b ed8d 393c 1403 c83c
000002e0: f17b f3ba 2f42 81bb 91c4 5dbb 9d17 d93b
000002f0: dd2c 993c bcde d83a e341 8fbc 2e07 813d
00000300: 3504 beba 32a6 ccbb 0b17 bf3b a942 a33a
00000310: a4c6 26bb c97f 803b aba3 d4ba 20dc 463b
00000320: 9c3d 1cbb a5c5 0bbc c369 4eba d2fa 8bbb
00000330: d549 003c a9f8 64ba ae60 0b3b e264 3a3c
00000340: 535c 16ba 3037 d73b 8f38 9f3b 97ca b23a
00000350: 7436 0e3c 0ed8 56bc 3f1b 54bb 206d 26bb
00000360: b064 4e3b e874 bc3a 3a37 09bb 82ca 013c
00000370: 0ab2 13b9 d54e 363b a137 ce3b e782 94bb
00000380: 0c23 833b 46f4 343b 1e6b cf39 1439 0cbb
00000390: d2c4 b0bb e1d2 a13b 0ee9 7bbb 8467 3a3b
000003a0: b506 a1bb 4ccd 8c3c e10d c6b9 a39e 993b
000003b0: 5765 c9ba 7b23 583b d2db 8eba 80c7 50bb
000003c0: 506d 913b 4ba5 973b ee27 4a3a 5f66 e4bb
000003d0: ca66 283b 0e81 e13b 40bb 1b3c 7be2 a33a
000003e0: bdc8 1abb 2a80 41bb 1737 253c 4994 52bb
000003f0: 0878 083b 98e3 19bc 4720 a9bb 5054 0fbc

encoder.block1.convblock2.1.weight f4 [64]
0.06796168 1.3551897 0.16407411 0.033130623 0.04111367 0.054445833 0.31169978 0.06815458
0.33364582 0.056107108 0.019236749 0.8311785 0.044180326 0.038127873 0.33542958 0.094059266
0.25497973 0.4778704 1.2471715 0.35942087 0.031480987 -0.070504725 0.096666686 0.31328607
0.05725263 0.06113683 0.04313556 0.03875383 0.13348292 0.027959405 0.043673933 0.07499977
0.18975265 0.41939867 0.10691213 0.0878914 0.044614475 0.83738565 0.73110735 0.2925675
0.031098217 0.45138854 0.042836595 0.067556314 0.059355773 0.04472746 0.03104888 0.2863619
0.05501577 0.23098955 0.39944813 0.05935972 0.032937787 0.062183086 0.026808655 0.41099167
0.19424696 0.0007922487 0.3790494 0.05932014 0.5834262 0.11339699 0.018691722 0.47667238
00000000: 7e2f 8b3d db76 ad3f 0b03 283e fab3 073d
00000010: cf66 283d 9802 5f3d 1d97 9f3e a194 8b3d
00000020: a0d3 aa3e 91d0 653d 6396 9d3c 1dc8 543f
00000030: 6ef6 343d f92b 1c3d 6dbd ab3e 25a2 c03d
00000040: b48c 823e 6eab f43e 51a3 9f3f 0306 b83e
00000050: 35f2 003d c864 90bd 2ff9 c53d 0867 a03e
00000060: bc81 6a3d 9d6a 7a3d eaae 303d 56bc 1e3d
00000070: bfaf 083e 1f0b e53c 70e3 323d 7b99 993d
00000080: 854e 423e 6cbb d63e bff4 da3d 6800 b43d
00000090: abbd 363d e85e 563f da29 3b3f 68cb 953e
000000a0: b0c1 fe3c 661c e73e 6d75 2f3d f75a 8a3d
000000b0: 0a1f 733d 2434 373d 395a fe3c 079e 923e
000000c0: 3758 613d 8688 6c3e 7784 cc3e 2e23 733d
000000d0: c6e9 063d b1b3 7e3d d39d db3c 806d d23e
000000e0: ade8 463e e9ae 4f3a c312 c23e adf9 723d
000000f0: 6b5b 153f ae3c e83d 621f 993c 670e f43e

encoder.block1.convblock2.1.bias f4 [64]
2.5449266e-05 -0.3050204 -0.13577047 -0.06858805 -0.010578988 -0.016099116 0.17681693 -0.028223
-0.18330592 -0.08174908 -0.08203938 0.07063194 -0.0036785735 -0.019378118 -0.5853311 -0.03454548
-0.53027755 -0.04783961 -0.18283956 -0.31323928 -0.03280425 -0.35335097 -0.062282257 -0.07395952
-0.03206994 -0.05289174 -0.21888392 0.0019914117 -0.00025192864 -0.020639658 -0.23050125 -0.020923054
0.028054845 0.013362786 -0.18484163 -0.035350624 -0.06329616 -0.07509039 0.3061031 0.12453537
-0.0071346294 -0.35661736 -0.010297432 -0.06906694 -0.028265644 -0.034223974 -0.009438239 -0.20703745
-0.026423959 0.07685457 -0.8110122 -0.10160901 -0.013786749 -0.036415134 -0.008821882 0.20940445
0.051689822 -0.010523799 -0.1713492 -0.08601558 0.29070902 -0.016231108 -0.059986822 0.11368042
00000000: e27b d537 a22b 9cbe 6a07 0bbe e477 8cbd
00000010: 7e53 2dbc 4be2 83bc 7f0f 353e ec33 e7bc
00000020: 8cb4 3bbe 106c a7bd 4304 a8bd 7ba7 903d
00000030: 3914 71bb dcbe 9ebc 42d8 15bf 907f 0dbd
00000040: 45c0 07bf 78f3 43bd 4b3a 3bbe e660 a0be
00000050: c05d 06bd 6bea b4be ae1b 7fbd 1778 97bd
00000060: c55b 03bd 02a5 58bd 1b23 60be 5882 023b
00000070: 4a15 84b9 8014 a9bc 8508 6cbe d366 abbc
00000080: 46d3 e53c 96ef 5a3c 2047 3dbe d1cb 10bd
00000090: 6ba1 81bd fec8 99bd 8cb9 9c3e 660c ff3d
000000a0: 9cc9 e9bb 8d96 b6be 8fb6 28bc f872 8dbd
000000b0: 5a8d e7bc 702e 0cbd d8a2 1abc a001 54be
000000c0: 0f77 d8bc ee65 9d3d 7f9e 4fbf 6218 d0bd
000000d0: d1e1 61bc 0928 15bd a889 10bc 1f6e 563e
000000e0: b5b8 533d 036c 2cbc 2a76 2fbe f028 b0bd
000000f0: d0d7 943e 1af7 84bc beb4 75bd 48d1 e83d

encoder.block1.convblock2.1.running_mean f4 [64]
-0.018998317 -0.17689495 -0.13410565 -0.003465189 0.005572762 0.016661378 -0.27120978 0.0036103067
0.042531915 -0.013152914 0.00075850723 -0.46873316 0.008818197 -0.0001319287 0.1661118 0.034294136
-0.13309638 -0.6974629 -0.2205483 -0.32157877 -0.031554706 -0.05528609 0.005163049 0.16311795
0.007881638 -0.035029437 0.0024016195 0.01739633 -0.06135035 0.036424536 -0.049247276 0.012506969
-0.13263148 0.24803421 -0.01415429 0.002174142 -0.020201078 0.1523466 -0.81172806 0.15608074
0.014936017 -0.77806455 0.047190156 0.0037323039 -0.004191817 -0.00959196 -0.018669415 -0.052130755
-0.0023457042 0.04383667 -0.24523722 0.02162512 0.005635117 -0.02130228 -0.0037262253 0.012917027
-0.15954982 0.018493544 0.044199355 -0.06600451 -0.28111404 -0.004703878 0.07522802 -0.017427476
00000000: 5ca2 9bbc f323 35be fe52 09be 3918 63bb
00000010: b79b b63b 717d 883c 02dc 8abe e59a 6c3b
00000020: f235 2e3d 527f 57bc 8fd6 463a cbfd efbe
00000030: 337a 103c 5756 0ab9 3619 2a3e 0278 0c3d
00000040: 6b4a 08be ee8c 32bf 6ad7 61be f9a5 a4be
00000050: 823f 01bd ab73 62bd cb2e a93b 6408 273e
00000060: fc21 013c 077b 0fbd 7d64 1d3b c082 8e3c
00000070: 814a 7bbd e531 153d 83b7 49bd 08ea 4c3c
00000080: 8cd0 07be aefc 7d3e 65e7 67bc 0d7c 0e3b
00000090: bb7c a5bc bf00 1c3e 69cd 4fbf a1d3 1f3e
000000a0: 32b6 743c 3d2f 47bf 774a 413d ab99 743b
000000b0: 825b 89bb 9927 1dbc 9af0 98bc 0f87 55bd
000000c0: 63ba 19bb 158e 333d 771f 7bbe 2a27 b13c
000000d0: caa6 b83b 1e82 aebc b033 74bb f0a1 533c
000000e0: 0761 23be c67f 973c 620a 353d 5f2d 87bd
000000f0: 2eee 8fbe fd22 9abb 2611 9a3d 11c4 8ebc

encoder.block1.convblock2.1.running_var f4 [64]
0.0011669467 0.6342623 0.005571245 6.654727e-06 5.642554e-05 0.00030766145 0.25850445 0.00016206269
0.010639868 0.0002636508 5.4407747e-06 0.12617247 3.4402576e-05 6.0995702e-05 0.012085083 0.00063353585
0.019391289 0.42460728 0.49007535 0.059890542 0.001846705 0.00030727143 0.00011477402 0.043837145
3.1568525e-05 0.0004886705 0.0008481266 0.00018871497 0.012091419 0.0042751455 0.0015979976 0.00034202752
0.020686736 0.053623993 0.0019590252 0.00033118195 0.00023484648 0.2925262 0.93000644 0.057359744
0.00035075695 0.593155 0.0018954331 0.00027691392 6.170306e-05 5.7044468e-05 2.9039114e-05 0.01584349
0.00042398766 0.0124640735 0.063161366 0.00017510483 4.4110922e-05 0.00041182624 1.4311673e-05 0.10343503
0.04650419 7.892239e-05 0.089880474 0.0023576305 0.37133023 0.00030686968 0.013031493 0.09261993
00000000: 3cf4 983a 045f 223f fe8e b63b ab4b df36
00000010: 76aa 6c38 9f4d a139 b25a 843e 5fef 2939
00000020: d752 2e3c 9d3a 8a39 e68f b636 5b33 013e
00000030: 7c4b 1038 a3d5 7f38 8300 463c df13 263a
00000040: 7bda 9e3c 2066 d93e 28eb fa3e c94f 753d
00000050: 230d f23a 4619 a139 d5b2 f038 948e 333d
00000060: 7268 0438 1f1a 003a d054 5e3a cae1 4539
00000070: 161b 463c 8516 8c3b e773 d13a 2852 b339
00000080: 3b77 a93c d5a4 5b3d fd62 003b 7da2 ad39
00000090: 1f41 7639 fec5 953e e714 6e3f 0df2 6a3d
000000a0: cde5 b739 02d9 173f 2e70 f83a c22e 9139
000000b0: 9466 8138 0843 6f38 0699 f337 35ca 813c
000000c0: a94a de39 1d36 4c3c bf5a 813d 589c 3739
000000d0: be03 3938 62ea d739 2b1c 7037 bfd5 d33d
000000e0: 2d7b 3e3d 2383 a538 4113 b83d 7a82 1a3b
000000f0: ff1e be3e 5ae3 a039 0b82 553c 85af bd3d

encoder.block1.convblock3.0.depthwise_conv.weight f4 [64, 1, 3]
-0.01451146 -0.020643504 -0.048550706 0.13270071 0.30078802 0.45295703 0.10028518 0.07246077
0.11526245 0.004418431 0.028733678 0.0041518807 -0.020141507 -0.021340575 0.0045234603 0.024247115
0.030184073 -0.0017715421 0.10251039 0.20777196 0.25446084 -0.030647852 -0.025956314 -0.039754685
0.0073214034 0.08791504 0.14448182 -0.02127969 -0.028008034 -0.010966603 -0.011190397 -0.021531267
-0.014677327 -0.14578965 -0.2129952 -0.39518726 0.016218951 0.024368579 0.013227352 0.015268771
0.00327055 0.009779752 0.09027137 0.06390887 -0.07618446 -0.045160655 -0.05351584 -0.044960953
0.088721804 0.003573212 0.055284824 0.43316934 -0.108894534 0.27061418 -0.26321685 0.015539044
-0.55751145 0.021416375 -0.19925705 -0.009419676 -0.0068263924 -0.036003903 -0.0006667852 0.0133360345
-0.0016046332 0.03299574 -0.052463844 -0.05607018 -0.023264186 -0.19576038 -0.18643525 -0.13583134
0.0038682236 0.036169183 0.03634848 -0.037756853 -0.022386953 -0.030881781 0.02465146 0.03465601
0.05627964 0.010618807 -0.02593398 -0.0052100862 -0.11502052 -0.03766538 0.03937577 -0.003372913
0.021355828 -0.0037704678 -0.02098501 -0.04712076 -0.025850726 0.042368513 0.0051948377 0.04252334
-0.081183285 -0.07953197 -0.13658072 0.2498258 0.23656322 0.16950029 -0.09722404 -0.090238586
-0.09658928 0.054650046 0.043011095 0.039136376 0.020435585 0.017191032 0.0344769 -0.63909537
-0.17997861 -0.220311 0.9190824 -0.11150944 0.20279673 -0.21880719 -0.16899942 -0.037441775
0.014569486 0.013194216 -0.010186202 0.122114606 -0.43842617 -0.024869725 -0.00842538 0.020273436
0.01907795 0.039402965 0.034 0.031513378 0.030156072 0.04398295 0.0011496521 0.023974227
0.031844668 0.0046587344 -0.006735496 -0.011192769 -0.012437925 -0.113770016 -0.15738632 -0.11293526
0.02481766 0.030152714 0.010453404 -0.18537048 -0.15222988 -0.005035163 -0.2707706 -0.22774628
-0.07097945 0.006943734 0.01871505 0.037594043 -0.0033525364 0.011414841 -0.003658087 0.02960181
0.011053923 0.03502684 -0.007248576 -0.01512761 0.017316518 0.3971263 -0.07038429 -0.18192685
0.086054586 0.03790772 -0.17764732 -0.0062677413 0.011170567 0.004636443 -0.20651543 0.025061518
0.063935295 -0.028646292 -0.020731159 -0.027251683 0.3536927 -0.2969371 -0.36807054 -0.067934975
-0.042537108 -0.04635621 -0.008678767 0.021542558 0.025181148 0.118264 -0.13203381 -0.43060568
00000000: 7ac1 6dbc 911c a9bc 1bdd 46bd b2e2 073e
00000010: e300 9a3e fce9 e73e 5162 cd3d 5066 943d
00000020: b80e ec3d 7cc8 903b e462 eb3c 800c 883b
00000030: cdff a4bc 6ed2 aebc 8939 943b e3a1 c63c
00000040: 9744 f73c 1733 e8ba f8f0 d13d 2cc2 543e
00000050: b148 823e 3411 fbbc 56a2 d4bc cfd5 22bd
00000060: 62e8 ef3b cd0c b43d 0bf3 133e bf52 aebc
00000070: 1b71 e5bc 44ad 33bc ed57 37bc 5762 b0bc
00000080: 2c79 70bc e249 15be 6a1b 5abe fc55 cabe
00000090: 9bdd 843c 9da0 c73c 89b7 583c de29 7a3c
000000a0: b956 563b 413b 203c 32e0 b83d a7e2 823d
000000b0: 9906 9cbd 61fa 38bd 6d33 5bbd fa28 38bd
000000c0: c7b3 b53d 8d2c 6a3b 5772 623d 5fc8 dd3e
000000d0: 1904 dfbd f18d 8a3e 5cc4 86be 7997 7e3c
000000e0: 12b9 0ebf 6571 af3c 0a0a 4cbe fc54 1abc
000000f0: eeaf dfbb d478 13bd 33cb 2eba 627f 5a3c
00000100: 8e52 d2ba 8b26 073d 54e4 56bd d8a9 65bd
00000110: 8994 bebc 6975 48be e2e8 3ebe 5f17 0bbe
00000120: 0682 7d3b 2326 143d 25e2 143d eea6 1abd
00000130: d864 b7bc cafb fcbc dcf1 c93c 76f3 0d3d
00000140: 7b85 663d 81fa 2d3c 7f73 d4bc 5fb9 aabb
00000150: e18f ebbd 0347 1abd 7d48 213d 170c 5dbb
00000160: 6bf2 ae3c f419 77bb c1e8 abbc b301 41bd
00000170: e7c4 d3bc 9b8a 2d3d 7539 aa3b f42c 2e3d
00000180: 6c43 a6bd a8e1 a2bd d1db 0bbe 56d2 7f3e
00000190: a13d 723e 7c91 2d3e 661d c7bd 02cf b8bd
000001a0: 9ad0 c5bd bad8 5f3d 672c 303d 774d 203d
000001b0: 8768 a73c 35d4 8c3c a637 0d3d c19b 23bf
000001c0: 504c 38be 3599 61be fc48 6b3f 105f e4bd
000001d0: f2a9 4f3e fe0e 60be 2f0e 2dbe 8c5c 19bd
000001e0: dab4 6e3c 8e2c 583c 07e4 26bc 3917 fa3d
000001f0: 6579 e0be 98bb cbbc 9b0a 0abc 7a14 a63c
00000200: 5c49 9c3c 0165 213d 9643 0b3d 2c14 013d
00000210: de09 f73c 7727 343d ecaf 963a 9965 c43c
00000220: 8e6f 023d 4ca8 983b 70b5 dcbb e061 37bc
00000230: 70c8 4bbc 4100 e9bd e129 21be 9a4a e7bd
00000240: 684e cb3c d302 f73c c144 2b3c c2d1 3dbe
00000250: 26e2 1bbe 02fe a4bb 72a2 8abe 5236 69be
00000260: ad5d 91bd 4388 e33b 4e50 993c 36fc 193d
00000270: 3ab6 5bbb 5005 3b3c 84bc 6fbb 7f7f f23c
00000280: 831b 353c 4e78 0f3d 7685 edbb ccd9 77bc
00000290: 5fdb 8d3c 2354 cb3e a325 90bd 084b 3abe
000002a0: 633d b03d 2045 1b3d 2ee9 35be a061 cdbb
000002b0: c104 373c 4eed 973b c878 53be d04d cd3c
000002c0: 82f0 823d a1ab eabc 64d4 a9bc ec3e dfbc
000002d0: 3617 b53e 2408 98be be73 bcbe 7e21 8bbd
000002e0: 643b 2ebd 02e0 3dbd 6331 0ebc 057a b03c
000002f0: b248 ce3c 6534 f23d df33 07be 5978 dcbe

encoder.block1.convblock3.0.pointwise_conv.weight f4 [64, 64, 1]
0.010358519 -0.030794809 -0.024512995 0.006895204 -0.00061807 -0.0026621171 0.004463195 -0.0042272275
0.034635846 -0.004294628 -0.0006981238 -0.032541342 -0.004136941 0.005577794 -0.026809573 -0.009938461
-0.053342074 0.0068102754 0.01826131 -0.037077866 0.0036255203 -0.0032631522 -0.0046823253 0.0021411686
-0.004222312 -0.008466343 -0.017286649 -0.0035113224 -0.015344951 0.0056134607 -0.0023532242 0.0071129985
-0.023912601 0.005400934 -0.0065270537 0.0034481643 -0.0022219913 -0.045729656 0.024517205 0.0016284706
0.006271094 -0.004582506 0.010068018 0.0077634547 0.0012992135 0.0012001807 -0.0010819309 0.007996727
0.00677081 -0.0024125816 0.009235135 0.011755437 -0.00039328946 0.008091383 -0.0007238979 -0.025564557
0.0016635044 -0.001392566 0.0035734978 -0.02242144 -0.009817164 0.017295456 -0.023047427 -0.0107028065
0.0037593811 -0.107588075 -0.0016718733 -0.003961043 -3.0780193e-05 -0.004095901 -0.030152291 0.0029966398
-0.005624872 0.0027160945 0.0058888015 0.045813423 0.0016268621 -0.0037514048 0.0367368 0.00233145
0.0006096042 -0.039445918 -0.07627044 0.0033285252 -0.0013272847 -0.003045451 -0.0009743377 -0.0030250244
0.00774463 -0.0059108306 -0.002278016 -0.0032693392 -0.0037305097 0.0026599672 -0.008184536 -0.0034042129
0.03328401 0.02647791 0.008723039 0.0056551984 0.0018386614 0.037949145 -0.14789861 0.049578775
0.0047027697 -0.12624583 -0.002658628 -0.0018907383 0.0026760933 0.0020760826 -0.00199707 0.003974305
0.00044541658 -0.018268729 -0.046920303 -0.0095315995 -0.0019323154 0.00035274873 -0.00091561244 -0.064641476
0.017687103 0.00046315126 0.021115398 0.0007842138 0.037104804 -0.0030237937 -0.00071769394 0.05084547
0.0017087155 -5.7429447e-06 -0.06150019 -0.0011544367 0.0057085324 -0.002133751 -0.00554357 0.0034303486
-0.019237908 0.0054028886 -0.0035665473 0.05398914 -0.0007778324 -0.0022267557 0.027685078 -0.004728029
-0.0076431436 -0.06715297 0.020242888 0.10716741 0.00095102715 0.00050380174 -0.0051972736 0.0072314157
-0.0008184422 -0.00086468854 0.0028786429 0.0011730382 0.01507899 -0.0054186834 -0.00025413005 0.0044899993
0.026398333 -0.01882047 -0.025448486 -0.0022637872 0.004822698 0.07261876 -0.024820723 0.06206124
-0.0031390204 -0.08657336 -0.0053416695 0.003592173 0.0014676492 -0.0052841366 0.0017715675 0.0057408833
-0.0031787904 0.011116344 -0.07152362 0.0060073216 -0.0008895852 0.002872921 0.005091732 0.02554158
-0.010443347 -0.0031866923 -0.023046724 -0.0024653613 0.12392166 0.014182384 -0.0060547204 -0.0049446737
0.0007936454 -0.20032184 -0.010193766 -0.0060288394 0.003442719 -0.0074838786 -0.03623634 -0.009388352
-0.023273874 0.010990623 0.006215133 0.15255594 -0.003524062 0.0026014056 0.027636189 -0.012264596
0.014622134 0.08057236 0.11572699 0.029719913 -0.009553471 -0.014610227 -0.018428758 0.036679573
0.0103527075 -0.014880971 -0.0070425128 0.00084429246 -0.014738111 -0.015080342 0.002646339 0.017379405
0.03220002 0.0020902124 -0.014624783 0.02457425 0.017131662 0.13910913 -0.058101658 0.06394971
0.0023023975 -0.00024431103 0.0071951426 0.016299315 0.009859247 0.015518871 0.0077186855 0.07474879
0.006668548 0.047228776 -0.07897338 0.023384375 0.002866939 0.016248891 0.0024736926 0.05077573
-0.00090252754 0.010768676 0.0035442503 -0.006765972 0.18765552 -0.0052970033 -0.007517473 0.09973804
00000000: c7b6 293c 6545 fcbc 7acf c8bc 2af1 e13b
00000010: fa05 22ba ea76 2ebb fe3f 923b 8e84 8abb
00000020: 51de 0d3d f3b9 8cbb 4c02 37ba 124a 05bd
00000030: 2d8f 87bb edc5 b63b c09f dbbc edd4 22bc
00000040: 387d 5abd bb28 df3b be98 953c f6de 17bd
00000050: 239a 6d3b 9cda 55bb 316e 99bb d952 0c3b
00000060: 525b 8abb 6bb6 0abc bb9c 8dbc 371e 66bb
00000070: 6469 7bbc 1ff1 b73b 8d38 1abb 2814 e93b
00000080: 5ce4 c3bc 51fa b03b e5e0 d5bb 99fa 613b
00000090: d49e 11bb 054f 3bbd 4ed8 c83c 6872 d53a
000000a0: c07d cd3b d928 96bb 54f4 243c 9464 fe3b
000000b0: 5f4a aa3a 624f 9d3a 94cf 8dba b404 033c
000000c0: acdd dd3b 671c 1ebb f74e 173c e099 403c
000000d0: 6b32 ceb9 b891 043c f7c3 3dba c36c d1bc
000000e0: f209 da3a c386 b6ba 5831 6a3b 2bad b7bc
000000f0: 2cd8 20bc 33af 8d3c f5cd bcbc d35a 2fbc
00000100: f35f 763b 2357 dcbd c222 dbba a3cb 81bb
00000110: fb19 01b8 e836 86bb f001 f7bc 4663 443b
00000120: d950 b8bb 8100 323b d9f6 c03b dba6 3b3d
00000130: 6f3c d53a 21da 75bb 5479 163d 3ecb 183b
00000140: d8cd 1f3a 0b92 21bd ad33 9cbd 6323 5a3b
00000150: 49f8 adba 3096 47bb b26a 7fba 7d3f 46bb
00000160: aac6 fd3b a4af c1bb c44a 15bb 6942 56bb
00000170: 917b 74bb d852 2e3b 6f18 06bc 3719 5fbb
00000180: d054 083d 34e8 d83c 14eb 0e3c 3e4f b93b
00000190: 3dff f03a 9070 1b3d bc72 17be 1d13 4b3d
000001a0: b119 9a3b 9646 01be 603c 2ebb a6d2 f7ba
000001b0: 6561 2f3b e30e 083b 46e1 02bb e33a 823b
000001c0: cd86 e939 4da8 95bc 812f 40bd 6d2a 1cbc
000001d0: bf45 fdba 22f1 b839 b605 70ba c062 84bd
000001e0: 8be4 903c 1cd3 f239 33fa ac3c b293 4d3a
000001f0: 35fb 173d d72a 46bb a023 3cba 5743 503d
00000200: faf6 df3a 85b3 c0b6 a0e7 7bbd 7850 97ba
00000210: a40e bb3b 67d6 0bbb d6a6 b5bb b3cf 603b
00000220: d198 9dbc b70a b13b bcbc 69bb b723 5d3d
00000230: 73e7 4bba c3ee 11bb d1cb e23c 95ed 9abb
00000240: 5673 fabb 7f87 89bd 6ad4 a53c 967a db3d
00000250: 5a4e 793a 9011 043a e44d aabb 83f5 ec3b
00000260: ba8c 56ba 44ac 62ba 9da7 3c3b a1c0 993a
00000270: de0d 773c 368f b1bb c23c 85b9 d820 933b
00000280: 5141 d83c 632d 9abc 5879 d0bc 0c5c 14bb
00000290: b907 9e3b 25b9 943d d454 cbbc ed33 7e3d
000002a0: 06b8 4dbb 604d b1bd 2c09 afbb aa6a 6b3b
000002b0: 235e c03a 8d26 adbb f133 e83a 051e bc3b
000002c0: 4153 50bb 5321 363c fa7a 92bd 11d9 c43b
000002d0: 0d33 69ba 9e47 3c3b 8bd8 a63b 933c d13c
000002e0: 921a 2bbc d3d7 50bb 7ccc bcbc e691 21bb
000002f0: a4ca fd3d 3b5d 683c ad66 c6bb ee06 a2bb
00000300: a40c 503a 2b21 4dbe c103 27bc 928d c5bb
00000310: 3e9f 613b 533b f5bb 8e6c 14bd 9ad1 19bc
00000320: daa8 bebc 0412 343c 50a8 cb3b a037 1c3e
00000330: f3f3 66bb 587c 2a3b 4a65 e23c 72f1 48bc
00000340: ad91 6f3c 1f03 a53d 4602 ed3d 2d77 f33c
00000350: 2986 1cbc bc5f 6fbc e8f7 96bc 523d 163d
00000360: 679e 293c 51cf 73bc e1c4 e6bb 8253 5d3a
00000370: 1e78 71bc 8a13 77bc 336e 2d3b 415f 8e3c
00000380: 2be4 033d f2fb 083b c99c 6fbc f04f c93c
00000390: b357 8c3c a072 0e3e 01fc 6dbd 11f8 823d
000003a0: d2e3 163b df16 80b9 3bc5 eb3b 2486 853c
000003b0: ae88 213c dd42 7e3c 07ed fc3b e515 993d
000003c0: d683 da3b f672 413d ccbc a1bd 9790 bf3c
000003d0: 41e3 3b3b 651c 853c ad1d 223b 36fa 4f3d
000003e0: 9997 6cba 1a6f 303c a746 683b 16b5 ddbb
000003f0: c528 403e 7c92 adbb 2255 f6bb 7543 cc3d

encoder.block1.convblock3.1.weight f4 [64]
0.10298214 0.28469607 0.12426206 0.41174892 0.09520048 0.20959865 0.5822817 0.22859772
0.16404925 0.39797464 0.12984066 0.10323163 0.26040784 0.7381654 0.41387174 0.61544526
0.040565975 0.4374976 0.8073735 0.44266754 0.12792836 0.26424047 0.2902025 0.16098899
0.33012396 0.49564162 0.7079842 0.06465612 0.14901806 0.43060982 0.17982055 0.04537188
0.119292594 0.0913688 0.059675355 0.26007706 0.47859886 0.498646 0.3895518 0.042597268
0.036963582 0.4125662 0.28654167 0.18935516 0.6954503 0.056289945 0.370985 0.12399985
0.20101391 0.16901748 0.119918086 0.10032777 0.36250296 0.082559325 0.11874659 0.15631217
0.09819433 0.050999764 0.5670022 0.41117895 0.041470114 0.1392329 0.113046676 0.16789447
00000000: 4de8 d23d afc3 913e 1b7d fe3d c1d0 d23e
00000010: 78f8 c23d 07a1 563e 6a10 153f 8515 6a3e
00000020: 87fc 273e 55c3 cb3e f3f4 043e 1b6b d33d
00000030: 2d54 853e 68f8 3c3f ffe6 d33e d28d 1d3f
00000040: 8228 263d afff df3e 08b0 4e3f 52a5 e23e
00000050: a7ff 023e 874a 873e 6c95 943e 4cda 243e
00000060: 0206 a93e bdc4 fd3e 743e 353f 6e6a 843d
00000070: 3198 183e e478 dc3e e122 383e ddd7 393d
00000080: ad4f f43d 911f bb3d 256e 743d d228 853e
00000090: e90a f53e 874e ff3e 5573 c73e 797a 2e3d
000000a0: 2067 173d e13b d33e 97b5 923e 52e6 413e
000000b0: 0809 323f 4990 663d bff1 bd3e a2f3 fd3d
000000c0: 97d6 4d3e eb12 2d3e 9d97 f53d a578 cd3d
000000d0: fd99 b93e dd14 a93d 6a31 f33d 4c10 203e
000000e0: 1c1a c93d 21e5 503d 0e27 113f 0c86 d23e
000000f0: 91dc 293d 1293 0e3e 0485 e73d 87ec 2b3e

encoder.block1.convblock3.1.bias f4 [64]
-0.029115243 0.043945134 -0.07216855 -0.30698413 -0.047824044 -0.13877703 -0.2886789 -0.1470187
-0.009397151 -0.1416958 -0.013948452 0.029675573 0.27346355 -0.24922143 -0.13627365 -0.4110755
-0.031070314 -0.206922 -0.18254343 -0.1751334 -0.0943977 -0.12744434 -0.20053126 -0.028594665
-0.20904218 -0.09235432 0.06643596 -0.007573298 -0.07821542 0.10513172 -0.067261055 -0.0045442763
-0.045936532 -0.05294172 -0.06326707 -0.03409793 -0.1877509 -0.15110056 -0.11813696 0.01186377
-0.04417372 -0.13517793 -0.15245141 0.0061107595 0.43123972 -0.0011510708 -0.1257135 -0.04267803
-0.04445283 -0.08784799 -0.308284 -0.03639461 -0.2522926 -0.0628286 0.038640678 -0.0367768
-0.013382047 -0.053830888 0.12489584 -0.031690948 -0.043477666 0.12097491 -0.011406286 -0.07637923
00000000: 1783 eebc d0ff 333d 1bcd 93bd 062d 9dbe
00000010: 25e3 43bd 911b 0ebe b9cd 93be 128c 16be
00000020: 82f6 19bc b418 11be 0c88 64bc 301a f33c
00000030: 6a03 8c3e e733 7fbe 528b 0bbe 7d78 d2be
00000040: 2c87 febc 5ce3 53be aaec 3abe 2c56 33be
00000050: 9553 c1bd c580 02be 1158 4dbe 5c3f eabc
00000060: 270f 56be 4324 bdbd 940f 883d 6e29 f8bb
00000070: 682f a0bd 4d4f d73d 2ac0 89bd 27e8 94bb
00000080: f227 3cbd 6bd9 58bd 2a92 81bd 45aa 0bbd
00000090: c641 40be 1bba 1abe caf1 f1bd 4260 423c
000000a0: 81ef 34bd 156c 0abe 391c 1cbe c43c c83b
000000b0: 74cb dc3e 87df 96ba 0abb 00be 28cf 2ebd
000000c0: 2c14 36bd a6e9 b3bd 67d7 9dbe 8412 15bd
000000d0: 7f2c 81be 48ac 80bd b045 1e3d 45a3 16bd
000000e0: 6040 5bbc c77d 5cbd 64c9 ff3d 5ece 01bd
000000f0: a315 32bd b2c1 f73d 6ee1 3abc b76c 9cbd

encoder.block1.convblock3.1.running_mean f4 [64]
0.022479061 -0.13493799 -0.093565606 -0.28581023 -0.018074552 -0.1725012 -0.2562025 -0.17490047
-0.14703569 -0.42854285 0.012555528 0.007074229 -0.1119171 -0.16561857 -0.18628715 0.008848702
0.0019118439 -0.03166801 0.275422 0.1027351 -0.108600274 0.06758377 0.013173684 0.0676104
-0.19432603 -0.03371604 -0.22902882 0.005600757 -0.11990339 -0.24533704 0.08554737 0.0014427695
-0.10201049 0.08819679 -0.027952515 -0.13829152 -0.1054368 -0.07960706 -0.12495899 -0.0069625224
-0.036900144 -0.095707536 -0.22794859 -0.05376713 -0.33104452 -0.003898164 -0.18311651 0.0017425207
0.05470753 -0.15320124 -0.08114344 -0.03556205 -0.4067305 -0.019711778 -0.020307504 0.04366788
0.008549944 -0.03750059 -0.006464349 -0.4840649 -0.012480608 -0.12858662 0.0018116774 -0.02442776
00000000: 0226 b83c 2f2d 0abe 539f bfbd b855 92be
00000010: 1511 94bc 28a4 30be f92c 83be 1c19 33be
00000020: 8690 16be f869 dbbe b4b5 4d3c efce e73b
00000030: cb34 e5bd ea97 29be 0fc2 3ebe 25fa 103c
00000040: d696 fa3a 51b6 01bd 1d04 8d3e c866 d23d
00000050: d269 debd 5c69 8a3d 6fd6 573c 5277 8a3d
00000060: 67fd 46be d519 0abd 8886 6abe 8e86 b73b
00000070: e98f f5bd a239 7bbe 7633 af3d 501b bd3a
00000080: e0ea d0bd 85a0 b43d acfc e4bc 4b9c 0dbe
00000090: 40ef d7bd 0709 a3bd 80ea ffbd df25 e4bb
000000a0: 9b24 17bd 5002 c4bd 5b6b 69be ec3a 5cbd
000000b0: ab7e a9be 5778 7fbb e582 3bbe 4b65 e43a
000000c0: 0115 603d c9e0 1cbe 882e a6bd 83a9 11bd
000000d0: fb3e d0be 987a a1bc ec5b a6bc 17dd 323d
000000e0: 1015 0c3c 389a 19bd e4d2 d3bb 5bd7 f7be
000000f0: 777b 4cbc 36ac 03be ce75 ed3a ba1c c8bc

encoder.block1.convblock3.1.running_var f4 [64]
0.0003163143 0.00411459 0.0007976995 0.029658258 0.0017470309 0.0024841349 0.008445112 0.0013517998
0.06881716 0.1547634 0.0008080108 0.002791956 0.18262643 0.01077452 0.25471434 0.042271476
4.0098595e-05 0.034805007 0.013640458 0.020756003 0.0009309485 0.0035875181 0.047326352 0.01647955
0.006384945 0.0071392213 0.25675833 0.00014199171 0.0014101164 0.1477052 0.0049716015 6.9121845e-05
0.0006033867 0.0016795017 0.000105864776 0.0018338057 0.04867652 0.011897263 0.0067421626 2.2717355e-05
8.163416e-05 0.067253344 0.011906918 0.051030185 0.17130707 6.4270316e-05 0.03246352 0.00022935578
0.00626351 0.008284159 0.00031569926 0.000318603 0.04558988 4.117438e-05 0.0026442222 0.002508589
0.00038001264 9.600268e-05 0.09941298 0.096390195 2.6716887e-05 0.027017899 0.002161644 0.00014487377
00000000: fdd6 a539 afd3 863b b51c 513a e0f5 f23c
00000010: a1fc e43a decc 223b 5e5d 0a3c e02e b13a
00000020: 03f0 8c3d 4c7a 1e3e b0d0 533a 40f9 363b
00000030: 6c02 3b3e 9d87 303c eb69 823e db24 2d3d
00000040: 8a2f 2838 b28f 0e3d 3a7c 5f3c 7e08 aa3c
00000050: e50a 743a 911c 6b3b 47d9 413d 1f00 873c
00000060: cd38 d13b 21f0 e93b d475 833e 9ce3 1439
00000070: a8d3 b83a 0840 173e d1e8 a23b 82f5 9038
00000080: 992c 1e3a ba22 dc3a b803 de38 4f5c f03a
00000090: 0861 473d bdec 423c 5ced dc3b 2691 be37
000000a0: 0233 ab38 1fbc 893d 3c15 433c 0705 513d
000000b0: 1f6b 2f3e ddc8 8638 78f8 043d 397f 7039
000000c0: 213e cd3b 48ba 073c 7084 a539 2c0a a739
000000d0: 74bc 3a3d a7b2 2c38 b04a 2d3b 2467 243b
000000e0: 6f3c c739 0c55 c938 0899 cb3d 3968 c53d
000000f0: 141e e037 a454 dd3c 5eaa 0d3b 42e9 1739

encoder.block1.shortcut.0.weight f4 [64, 1, 1]
0.022163013 0.05235814 -0.023333935 -0.0015251038 -0.041681796 0.023727775 -0.031891204 -0.038634513
-0.04443769 0.085127994 0.02706042 0.012774699 0.11428741 -0.043098506 -0.07351187 -0.03971219
-0.02576256 0.03785388 -0.033553243 -0.059026964 -0.028319182 0.014841975 0.04890137 0.028576091
-0.032487556 0.04521444 -1.8193845e-06 -0.008931583 0.029752903 -0.0806286 0.049382333 0.042811155
0.02768817 -0.04068852 0.017712852 -0.04327077 -0.0538019 -0.035013843 -0.025680413 -0.04070778
-0.02324426 0.026447363 0.05685355 0.02005376 -0.067020014 -0.020433871 0.037651956 -0.025625253
0.030126682 -0.027584413 0.023542523 -0.04074168 -0.03532644 0.021697583 -0.026872631 0.035942785
0.037623577 -0.00032388148 0.056060508 0.032644417 0.009296253 -1.7776641e-07 0.03450016 -0.0076156296
00000000: 358f b53c 7d75 563d cf26 bfbc fee5 c7ba
00000010: 88ba 2abd c060 c23c 5aa0 02bd 393f 1ebd
00000020: 4c04 36bd 9657 ae3d d0ad dd3c f94c 513c
00000030: 850f ea3d 0f88 30bd 648d 96bd 40a9 22bd
00000040: 010c d3bc ac0c 1b3d 206f 09bd 42c6 71bd
00000050: a1fd e7bc c12b 733c ce4c 483d 6818 ea3c
00000060: ac11 05bd c732 393d 9331 f4b5 c655 12bc
00000070: 5cbc f33c 9c20 a5bd 2145 4a3d c05a 2f3d
00000080: 4dd2 e23c 01a9 26bd 8b1a 913c b13c 31bd
00000090: 625f 5cbd ad6a 0fbd bb5f d2bc 33bd 26bd
000000a0: bf6a bebc 24a8 d83c 45df 683d c847 a43c
000000b0: ca41 89bd ef64 a7bc f038 1a3d 0dec d1bc
000000c0: 3bcc f63c b5f8 e1bc 40dc c03c bfe0 26bd
000000d0: 75b2 10bd 21bf b13c fe23 dcbc be38 133d
000000e0: 2e1b 1a3d a3ce a9b9 b49f 653d 27b6 053d
000000f0: 504f 183c 0fe0 3eb4 0a50 0d3d 888c f9bb

encoder.block1.shortcut.1.weight f4 [64]
0.05393017 0.1620797 0.13058212 0.0012607764 0.022456761 -0.046035144 -0.05306032 0.077681124
0.17080018 0.5671204 0.05764375 0.03184469 -0.8235876 -0.13769707 -0.39854407 -0.15807804
0.027777042 0.07935882 -0.06783788 -0.24658929 0.050837953 -0.036133762 0.22217482 0.1392951
0.06602784 0.1422418 1.8189743e-06 0.05564144 0.044962723 0.49474776 0.1868593 0.05148691
0.054422133 -0.047040924 0.026613146 0.18803968 0.19027281 -0.0049162083 -0.06518951 0.037483968
0.05152787 0.06517262 0.25778294 0.034542687 0.25524795 0.045145907 -0.024723409 0.03778322
0.027427858 -0.024655638 -0.019382503 0.015493368 -0.0025102017 0.04969085 0.0847578 0.12666808
0.052872 0.033347152 -0.2019909 -0.07210003 0.015018349 1.8462744e-07 0.057895355 -0.042247504
00000000: e2e5 5c3d 39f8 253e 52b7 053e a340 a53a
00000010: 3ef7 b73c 598f 3cbd c755 59bd 4817 9f3d
00000020: 3ee6 2e3e cd2e 113f da1b 6c3d 946f 023d
00000030: a3d6 52bf 7600 0dbe f80d ccbe 36df 21be
00000040: ae8c e33c e186 a23d 96ee 8abd e781 7cbe
00000050: 753b 503d ff00 14bd cc81 633e 60a3 0e3e
00000060: 9b39 873d d6a7 113e 7b23 f435 47e8 633d
00000070: d52a 383d 944f fd3e 0b58 3f3e f0e3 523d
00000080: bee9 5e3d fcad 40bd d003 da3c 798d 403e
00000090: e0d6 423e 2518 a1bb 1482 85bd ca88 193d
000000a0: e30e 533d 3979 853d 20fc 833e a27c 0d3d
000000b0: dcaf 823e eaea 383d bf88 cabc 94c2 1a3d
000000c0: 63b0 e03c 9ffa c9bc 0ec8 9ebc e5d7 7d3c
000000d0: 3282 24bb a288 4b3d 7f95 ad3d 47b5 013e
000000e0: 4f90 583d 0697 083d b4d6 4ebe 2ea9 93bd
000000f0: 850f 763c 013e 4634 ae23 6d3d b80b 2dbd

encoder.block1.shortcut.1.bias f4 [64]
-0.029115243 0.043945134 -0.07216855 -0.30698413 -0.047824044 -0.13877703 -0.2886789 -0.1470187
-0.009397151 -0.1416958 -0.013948452 0.029675573 0.27346355 -0.24922143 -0.13627365 -0.4110755
-0.031070314 -0.206922 -0.18254343 -0.1751334 -0.0943977 -0.12744434 -0.20053126 -0.028594665
-0.20904218 -0.09235432 0.06643596 -0.007573298 -0.07821542 0.10513172 -0.067261055 -0.0045442763
-0.045936532 -0.05294172 -0.06326707 -0.03409793 -0.1877509 -0.15110056 -0.11813696 0.01186377
-0.04417372 -0.13517793 -0.15245141 0.0061107595 0.43123972 -0.0011510708 -0.1257135 -0.04267803
-0.04445283 -0.08784799 -0.308284 -0.03639461 -0.2522926 -0.0628286 0.038640678 -0.0367768
-0.013382047 -0.053830888 0.12489584 -0.031690948 -0.043477666 0.12097491 -0.011406286 -0.07637923
00000000: 1783 eebc d0ff 333d 1bcd 93bd 062d 9dbe
00000010: 25e3 43bd 911b 0ebe b9cd 93be 128c 16be
00000020: 82f6 19bc b418 11be 0c88 64bc 301a f33c
00000030: 6a03 8c3e e733 7fbe 528b 0bbe 7d78 d2be
00000040: 2c87 febc 5ce3 53be aaec 3abe 2c56 33be
00000050: 9553 c1bd c580 02be 1158 4dbe 5c3f eabc
00000060: 270f 56be 4324 bdbd 940f 883d 6e29 f8bb
00000070: 682f a0bd 4d4f d73d 2ac0 89bd 27e8 94bb
00000080: f227 3cbd 6bd9 58bd 2a92 81bd 45aa 0bbd
00000090: c641 40be 1bba 1abe caf1 f1bd 4260 423c
000000a0: 81ef 34bd 156c 0abe 391c 1cbe c43c c83b
000000b0: 74cb dc3e 87df 96ba 0abb 00be 28cf 2ebd
000000c0: 2c14 36bd a6e9 b3bd 67d7 9dbe 8412 15bd
000000d0: 7f2c 81be 48ac 80bd b045 1e3d 45a3 16bd
000000e0: 6040 5bbc c77d 5cbd 64c9 ff3d 5ece 01bd
000000f0: a315 32bd b2c1 f73d 6ee1 3abc b76c 9cbd
