ldpi/training/output/ResCNN/best_model_with_center.pth (torch, 711778 bytes, 64 tensors)

encoder.block1.convblock1.0.depthwise_conv.weight f4 [1, 1, 7]
000000 8d a0 eb bf c1 98 be be 9c 45 22 bd 28 d6 0c bc
       -1.8408371 -0.37225917 -0.039617166 -0.008595981
000010 13 5b 93 3d f3 35 47 3d ed 73 ae 3d
       0.071951054 0.048635434 0.08518205

encoder.block1.convblock1.0.pointwise_conv.weight f4 [64, 1, 1]
000000 77 d4 63 be 2f 7d 5d be 42 2b 96 be 56 89 dd bd
       -0.22249018 -0.21629785 -0.29329878 -0.108172104
000010 c8 30 f0 bc 4d 5f b6 be f4 49 20 3e ce 1f b6 be
       -0.029320136 -0.35619584 0.15653211 -0.3557114
000020 a0 95 04 3f 8a e6 e2 3e 2e 94 85 3d a9 60 f3 bc
       0.5179081 0.44316512 0.06522404 -0.029709177
000030 11 b4 09 bf 6d 2e 0d bd 59 96 88 3e 9b 58 c6 3e
       -0.53790385 -0.034468103 0.26677206 0.38739476
000040 0f ca 07 bf 37 c4 de bd 6d ef 93 3e 0e 43 6d 3e
       -0.5304269 -0.10877269 0.28893605 0.2317011
000050 a0 e4 cc 3c d2 31 3e 3d f8 18 8d be 02 bf 0a bf
       0.02501136 0.04643423 -0.27558112 -0.54197705
000060 9d 8b 07 bf 23 76 0b 3d 3c eb a2 3e e8 88 ce bd
       -0.5294741 0.03404821 0.31820095 -0.100847065
000070 a4 82 06 3f 6c 00 3e 3e 5c 99 b5 be 46 c8 bf bd
       0.5254309 0.18554848 -0.35468566 -0.09364371
000080 3c f8 7c be 5f 44 7a 3e 2a 95 e1 3e c4 44 81 3e
       -0.24704069 0.24440144 0.44059116 0.25247777
000090 9b d7 74 3e 98 5b 5d 3e 09 55 00 bf 52 78 6f 3d
       0.23910372 0.21616971 -0.50129753 0.058464356
0000a0 ff 5a d2 bc 6b 77 08 3f 7b 04 e8 3e 42 9d b3 be
       -0.025678156 0.5330722 0.45315918 -0.35080916
0000b0 e0 07 91 3e 52 b5 af be 47 ce fb 3e 96 a9 06 3e
       0.2832632 -0.34318024 0.49180815 0.1315063
0000c0 b6 30 0a 3f 91 0a 5c 3e 07 ba 01 bf 2b 3c 06 bf
       0.53980577 0.21488406 -0.5067448 -0.5243556
0000d0 29 2c 89 3e 8d f4 a3 3e da 29 06 bf b7 06 19 be
       0.26791504 0.32022515 -0.5240761 -0.14943968
0000e0 c5 80 fa bd 77 f7 f2 bc 5f 60 c2 3d 63 bd c6 be
       -0.12231592 -0.029659016 0.094910376 -0.38816366
0000f0 5d 44 ef be c6 e1 02 3f ce 27 05 3f 80 d4 8a 3d
       -0.46731845 0.5112575 0.5201386 0.067788124

encoder.block1.convblock1.1.weight f4 [64]
000000 08 2d 16 3f 96 d7 1e 3f 75 ad 0c 3f 5a 60 19 3f
       0.5866246 0.6204771 0.54952174 0.59912646
000010 67 94 17 3f 8e d5 0d 3f dc 9f 1c 3f 93 d1 fe 3e
       0.5921082 0.55403984 0.61181426 0.49769267
000020 56 11 19 3f 6c fd 08 3f 41 4d 31 3f aa 2e 32 3f
       0.5979208 0.5351169 0.69258505 0.69602454
000030 54 67 39 3f 63 a5 38 3f 4b e3 05 3f 70 80 2d 3f
       0.7242329 0.7212736 0.52299947 0.67774105
000040 2f 94 36 3f 01 0e 27 3f 0c 0b 1c 3f 96 57 75 3f
       0.7131986 0.65255743 0.60954356 0.9583677
000050 77 4b 19 3f c8 c2 5b 3f b0 e7 16 3f 36 68 0f 3f
       0.59880775 0.8584409 0.5894728 0.5601839
000060 f3 79 0a 3f e4 fb 2e 3f 27 a9 29 3f 34 3b 0c 3f
       0.5409233 0.68353105 0.6627373 0.54777837
000070 ad 2c 60 3f 87 73 37 3f 17 f6 57 3f 18 78 21 3f
       0.8756817 0.71660656 0.8435988 0.63073874
000080 c5 17 17 3f 8d e7 6d 3f 05 c8 15 3f d8 b9 6b 3f
       0.59020644 0.92931443 0.5850833 0.9208045
000090 26 4f c7 3e 09 ce 15 3f ab 60 25 3f fa 14 2a 3f
       0.38927573 0.5851751 0.6460063 0.6643826
0000a0 a6 ba 17 3f 8a c5 05 3f a6 81 23 3f 32 a5 52 3f
       0.5926918 0.52254546 0.638697 0.8228332
0000b0 97 c8 25 3f 02 e0 04 3f 81 07 2d 3f a7 ed 09 3f
       0.647592 0.5190431 0.67589575 0.53878254
0000c0 b6 27 14 3f 87 7f 47 3f 80 fd 58 3f 90 1a 0a 3f
       0.57873094 0.77928966 0.8476181 0.5394678
0000d0 6b 18 a3 3f 4b 02 54 3f 57 9d 1c 3f ff cd 67 3f
       1.2741827 0.82816 0.6117758 0.905487
0000e0 08 7b 16 3f 1e 72 44 3f e4 7b 38 3f 82 51 1e 3f
       0.5878148 0.7673663 0.7206404 0.6184312
0000f0 c2 28 38 3f 3b a2 9e 3f 05 3d 40 3f 9e 60 1c 3f
       0.7193719 1.2393259 0.7509311 0.61084926

encoder.block1.convblock1.1.bias f4 [64]
000000 77 f1 44 bd 4c c4 2a 3e 9a 59 91 3d 30 06 24 3e
       -0.04808184 0.16676444 0.07097168 0.16017985
000010 39 8a 0b 3e c9 98 d8 3d 28 48 11 be 89 91 63 3e
       0.13626947 0.105760165 -0.14187682 0.22223486
000020 6d 2d f3 bc a5 b8 ee bd 3c 67 ca 3e 4e 3c 35 be
       -0.029684747 -0.11656312 0.39531887 -0.17698786
000030 d3 71 ad 3d 19 9b 31 be cf 8e b9 bd b2 08 41 be
       0.08468976 -0.17344321 -0.09060442 -0.18850973
000040 61 2d 0c be 0f 55 2f 3e 4d cc f3 3e 18 0f 02 3f
       -0.13689186 0.17122291 0.47616807 0.5080428
000050 0b 16 7e be 92 9c fe 3d e0 06 0b 3e e0 a7 0b 3e
       -0.24813096 0.12432207 0.13576841 0.13638258
000060 d5 fa 79 bf 29 b9 8e 3f 09 7a 06 be 0c 22 0f 3e
       -0.97648364 1.1150256 -0.1313249 0.13977832
000070 7e 7c 41 3e 47 3c 91 3e d4 6f cf be 97 56 09 3e
       0.18895146 0.283663 -0.40515006 0.13411938
000080 34 15 f7 be 62 40 e4 3e 52 20 1a be 64 0c 2b 3f
       -0.48258364 0.4458037 -0.15051392 0.6681578
000090 ce 2a 2d 3f 0c f3 0f be 77 01 8b bf f0 3e 85 be
       0.6764344 -0.14057559 -1.0859822 -0.2602458
0000a0 38 a5 06 3e 81 e3 fd bd e7 af 95 bd fe 40 39 be
       0.13148963 -0.123969086 -0.07308941 -0.18091199
0000b0 80 d8 3a be 01 e4 30 3e f4 1a 7f be de 0f 1d be
       -0.1824665 0.17274477 -0.24912626 -0.15338084
0000c0 ae c9 d2 bd 88 98 91 3e 40 e3 f9 be 10 7f a3 3d
       -0.102923736 0.28436685 -0.4880619 0.079832196
0000d0 69 74 df 3e 26 d1 40 3f 1a 3a 1b 3e 7d a6 96 3d
       0.436435 0.75319135 0.15158883 0.07355974
0000e0 bb 21 59 bf 77 14 75 be c4 e4 7d be 63 63 91 be
       -0.84817094 -0.23933588 -0.24794298 -0.2839614
0000f0 10 47 fc be 34 55 9d 3e 78 38 8f be c7 cd 30 be
       -0.49272966 0.30729067 -0.2797277 -0.17265998

encoder.block1.convblock1.1.running_mean f4 [64]
000000 1e ad fa 3d 07 b3 f3 3d 41 3a 25 3e 69 c0 73 3d
       0.12240051 0.11899381 0.16135503 0.05950967
000010 d8 23 84 3c f7 a8 48 3e ba 5c b0 bd 1b 63 48 3e
       0.016130373 0.19595705 -0.08611436 0.19569056
000020 32 e1 91 be 56 a7 79 be 49 f9 12 bd 67 e5 85 3c
       -0.28492123 -0.2438024 -0.035882268 0.01634474
000030 0a 83 97 3e ad 56 9b 3c ac 48 16 be 59 3c 5a be
       0.29592162 0.018962229 -0.1467616 -0.21312083
000040 e5 67 95 3e de 1a 75 3d 15 c5 22 be e9 86 02 be
       0.29180828 0.059840076 -0.15895493 -0.12746777
000050 87 70 61 bc de 43 d1 bc 1d 3f 1b 3e bf a8 98 3e
       -0.013759739 -0.025545057 0.15160795 0.29816243
000060 31 23 95 3e f3 71 99 bc 8c 41 33 be e1 3e 63 3d
       0.2912841 -0.018731093 -0.17505473 0.055479888
000070 a7 ff 93 be f9 0d d1 bd 2f cf 47 3e 86 03 53 3d
       -0.28905985 -0.10207743 0.19512628 0.051517032
000080 20 2b 0b 3e 81 ae 09 be 16 34 78 be 3a 3b 0e be
       0.1359067 -0.13445474 -0.24238619 -0.1388978
000090 79 b2 06 be 12 8e f3 bd 75 33 8d 3e fb bd 03 bd
       -0.1315402 -0.11892332 0.2757832 -0.0321636
0000a0 88 72 67 3c a5 26 96 be 9e 48 7f be 21 a0 45 3e
       0.0141264275 -0.29326358 -0.24930045 0.19299366
0000b0 fb 92 1f be ee 53 41 3e 33 87 8a be 7f 2a 94 bd
       -0.15583412 0.18879673 -0.27056274 -0.07234668
0000c0 2e 0c 98 be 3d 1b f2 bd 3e bc 8e 3e 1d b2 93 3e
       -0.29696792 -0.118216015 0.27877992 0.28846827
0000d0 83 ed 16 be 79 65 34 be f5 9d 93 3e 0e 5f a8 3d
       -0.14739041 -0.17616834 0.2883145 0.08221255
0000e0 b9 cf 89 3d 31 aa 85 3c 43 de 55 bd 3d ab 5a 3e
       0.06729073 0.016316505 -0.05221392 0.21354385
0000f0 4c a1 83 3e a5 01 90 be 09 82 92 be 66 c0 18 bd
       0.25708997 -0.28126255 -0.28614834 -0.03729286

encoder.block1.convblock1.1.running_var f4 [64]
000000 05 05 92 3c 2d 01 8a 3c 91 c0 fd 3c 57 10 8a 3b
       0.01782466 0.016846264 0.030975612 0.0042133736
000010 55 4c a2 39 88 20 3b 3d 78 8d 10 3c 52 9e 3a 3d
       0.0003095592 0.04568532 0.008822791 0.045561142
000020 c2 cd c5 3d ab d4 90 3d 29 c8 c8 3a fd a3 a6 39
       0.09658386 0.07071813 0.0015318441 0.00031784168
000030 55 5f d5 3d 65 49 e0 39 7b ed d1 3c eb 57 5d 3d
       0.10418574 0.00042779293 0.025625935 0.054038923
000040 5a 7b cf 3d e5 99 8b 3b 6b 42 f6 3c 2a 5c 9e 3c
       0.10130949 0.004260289 0.030060967 0.019331057
000050 87 32 6c 39 4a 85 4b 3a 5c 05 e0 3c b7 9d d8 3d
       0.00022525537 0.0007763697 0.027346306 0.10576957
000060 b3 bc ce 3d 2d da da 39 d9 55 15 3d 3f ff 6f 3b
       0.10094585 0.00041742754 0.036458824 0.0036620644
000070 81 97 cb 3d 84 1c 4b 3c 31 8b 39 3d aa ef 4e 3b
       0.099410065 0.012396935 0.04529876 0.0031575956
000080 b8 05 b4 3c 48 32 b0 3c 2d 27 8f 3d 9e 08 bc 3c
       0.021975383 0.021508351 0.06989894 0.022953328
000090 f5 a3 a8 3c 55 d7 89 3c b8 51 b9 3d 7e 52 a1 3a
       0.020585993 0.016826311 0.0904879 0.001230791
0000a0 47 f4 78 39 73 8e d1 3d c8 6f 97 3d 99 82 35 3d
       0.00023742123 0.10232248 0.073943675 0.044314
0000b0 3e af ec 3c 99 b3 2d 3d 9f 5e b2 3d 76 0d cc 3b
       0.028892156 0.042407606 0.08709454 0.0062271906
0000c0 49 e2 d6 3d d7 34 88 3c 5a 5e bd 3d 64 c2 ca 3d
       0.10492379 0.016626759 0.09246512 0.09900358
0000d0 f8 ba d3 3c c7 3d 17 3d 14 8b ca 3d 09 c0 03 3c
       0.02584599 0.03692415 0.09889808 0.00804139
0000e0 57 87 b0 3b bd 10 a6 39 99 92 54 3b 13 39 5e 3d
       0.0053872275 0.00031674458 0.0032436012 0.05425365
0000f0 43 0c a1 3d 9f c1 c0 3d df 82 c7 3d da e0 d8 3a
       0.07863667 0.0941193 0.097417586 0.0016546503

encoder.block1.convblock2.0.depthwise_conv.weight f4 [64, 1, 5]
000000 e7 c0 82 3e 53 31 fd bd 24 a6 66 3e b7 b8 6d 3e
       0.25537798 -0.123629235 0.22524315 0.23214994
000010 30 bc 89 bd ee d7 85 3e 9b ff e5 bd d9 31 bb 3e
       -0.06725347 0.26141304 -0.112303935 0.36561468
000020 90 5a 9b 3e 1f 23 09 bc ca c5 1e be b1 c6 a3 bd
       0.3034253 -0.00837019 -0.15505138 -0.07996882
000030 c1 d0 39 3e c6 89 3e 3e 37 c3 42 bc 84 c0 0a 3e
       0.1814604 0.18607244 -0.011887363 0.13550001
000040 e7 69 94 3e 75 ef b0 3e f4 c5 86 bd a8 9e 4c 3e
       0.28987047 0.3455769 -0.06580725 0.19982398
000050 a3 b4 a6 be 2b 96 63 3e 50 45 1c bd 6a 16 37 3b
       -0.3255969 0.22225253 -0.03815204 0.0027936944
000060 65 4f 84 3d b7 ea 27 be 20 ec 11 bb 79 37 20 be
       0.06460456 -0.1639813 -0.0022265986 -0.15646161
000070 6a 1a ca 3d 57 10 eb 3d 84 fd a7 be 55 a4 17 be
       0.09868319 0.11477726 -0.32810605 -0.14808781
000080 17 e4 07 be 67 17 f3 3d 70 ff e3 3d 72 a1 3b 3e
       -0.13270603 0.11869698 0.11132705 0.18323305
000090 e9 6a 5e bd 0d 80 f5 bd da 76 f8 3d 63 7b a0 3d
       -0.054301176 -0.119873144 0.12132044 0.07836034
0000a0 c8 0a 78 3b 8a 67 37 3c a2 c0 55 be fb e0 bd bd
       0.0037848223 0.011194119 -0.20874265 -0.09271427
0000b0 9d 7f c6 bd 67 48 3e 3d b4 31 b1 bd 93 67 62 be
       -0.09692309 0.046455767 -0.08652058 -0.22109823
0000c0 46 3b 2b 3e e4 b0 57 be dc d1 36 bc ea 1a ae 3e
       0.1672183 -0.21063572 -0.011158433 0.3400491
0000d0 57 7f 87 3e ac 85 51 be a4 99 1c 3d 96 af 93 3d
       0.2646434 -0.20461148 0.03823246 0.07211225
0000e0 42 d7 89 3e b8 c8 5d 3e a6 78 90 3d 90 40 87 bd
       0.2692204 0.216586 0.07054262 -0.06604111
0000f0 04 34 47 3e 46 88 47 3e 2e 3a 43 bd 53 90 8b 3d
       0.19453436 0.19485578 -0.047662906 0.06814637
000100 28 32 c6 3d 50 8a 23 be d4 f5 1b 3e 76 75 a8 bd
       0.09677535 -0.15970731 0.15230495 -0.08225529
000110 32 96 75 3e 7d a9 97 3e dd b1 39 3d 33 40 dc bd
       0.23983076 0.29621497 0.04533564 -0.107544325
000120 1d 7b 76 bd 18 b2 09 be f5 34 57 3e 19 82 b1 be
       -0.060176004 -0.13446844 0.21016295 -0.3466957
000130 71 ee b6 bd 67 7b be be 44 8d b5 bd 66 46 86 bd
       -0.08932198 -0.37203524 -0.08864835 -0.06556396
000140 47 f6 9d 3e 9a 0d 22 3e b2 67 b8 3d 78 db e5 bb
       0.30851957 0.15825501 0.09004153 -0.007014688
000150 d9 70 c5 3d e5 98 a0 be ff b7 49 be dc db ac 3d
       0.096406646 -0.3136665 -0.19699095 0.08440372
000160 6c 6e a5 3e e6 46 96 3e cb f8 0b be c3 62 0e be
       0.32310808 0.29350966 -0.13669126 -0.13904862
000170 8f 8f 09 3d 62 3f 1d 3e a2 f6 1f be 34 75 6c be
       0.033584174 0.1535621 -0.15621427 -0.23091584
000180 2e 34 3f 3e f3 87 eb 3e b2 61 07 be 90 37 5e bc
       0.18672249 0.4600216 -0.13220862 -0.013563052
000190 b6 43 24 be 9b 57 8b bd a5 dd 39 bd aa f7 96 3c
       -0.16041455 -0.06803819 -0.045377392 0.018428642
0001a0 26 02 11 be e1 46 b8 3e eb 4d 81 be f7 ee 7f bc
       -0.14160976 0.35991576 -0.2525476 -0.0156209385
0001b0 aa 5a 23 be 9a ea fa be 62 70 ab be 90 3f aa 3d
       -0.15952554 -0.49007112 -0.3348418 0.08312905
0001c0 fb 82 3b 3b 23 d0 2a 3e e4 d5 7f 3d 9f 14 92 3e
       0.0028612006 0.1668096 0.06245984 0.28531358
0001d0 a9 ac c8 3d 89 0a a3 bd 5b d5 05 be 5f 31 56 bc
       0.09798557 -0.07960994 -0.1306967 -0.013073294
0001e0 b6 c0 69 be 21 ab 0e be dc 8e c2 bd 32 87 72 3d
       -0.2282742 -0.13932468 -0.094999045 0.059210964
0001f0 dd b6 07 3e 63 bb 33 bc b3 b5 9f bd fa f9 37 3e
       0.1325335 -0.010969969 -0.07798328 0.17966452
000200 0e b5 a1 3d 87 3d 36 3e d0 5a 84 bc 7a 12 d1 3e
       0.078958616 0.17796908 -0.016156584 0.4083441
000210 2b aa 86 3b 21 05 29 be 50 fb 35 3e f2 ac 96 be
       0.004109641 -0.16505863 0.1777165 -0.29428822
000220 0d aa 23 3d da 29 a5 bd 36 e6 9e bc 05 fb f2 bd
       0.039957095 -0.08064623 -0.019396883 -0.118642844
000230 f3 02 15 be da ae b2 bb 17 6a b2 be e7 fc ab be
       -0.14551906 -0.005452973 -0.34846565 -0.33591387
000240 30 ba 7d bd 6c 34 07 3e 5a bc 84 3e 36 59 9b bc
       -0.06194514 0.13203591 0.2592495 -0.018963438
000250 53 63 85 3e a0 0d b8 3d 26 c2 7a 3e 73 0f 00 3e
       0.2605234 0.08986974 0.24488124 0.12505893
000260 09 21 b8 3d e2 8f c9 3e 59 7d b3 bd 77 b9 24 3e
       0.08990676 0.39367586 -0.087641425 0.16086374
000270 57 87 d0 bd e6 14 86 be 62 6d 2a be 5f d3 f2 bc
       -0.10182064 -0.2618782 -0.16643289 -0.029641805
000280 c6 ce 4c be 8e 57 4f ba 31 e9 f9 3c ea 54 a7 be
       -0.20000753 -0.000790947 0.030506702 -0.32681972
000290 fc 0a 09 bd da 65 b1 be fe 94 eb bd 71 86 93 be
       -0.03345774 -0.3464802 -0.115030274 -0.28813508
0002a0 92 c2 08 3e 2d 53 43 bb c3 6f 86 3e d0 7d 00 be
       0.13355473 -0.0029804215 0.26257142 -0.12547994
0002b0 ef 04 ce 3d fe b7 13 3e 54 5d 4a be 9c 9d 23 3d
       0.10059535 0.14425656 -0.19762164 0.03994523
0002c0 cd 45 6e 3d 63 54 a3 3e db b2 10 3d 83 42 05 bf
       0.058172036 0.3190032 0.03532682 -0.52054614
0002d0 55 ff 10 3c 6a 42 aa bc 3c 58 25 be da d8 ad 3d
       0.008849938 -0.020783622 -0.1614694 0.08488627
0002e0 cc b1 82 be a5 15 18 3e c8 a3 37 3c c0 00 82 3e
       -0.25526273 0.14852007 0.011208482 0.25391197
0002f0 d1 ef db bd 37 71 17 bd 43 19 1b be 1b cb b6 bd
       -0.10739101 -0.036973204 -0.15146355 -0.08925458
000300 fd 63 e2 3d 13 3c 1c 3e 19 be 18 3e 69 9d 63 3e
       0.110542275 0.15257291 0.14916267 0.22228016
000310 d0 a9 b2 bd 6a 4f c2 3e 20 4c b7 3e bf c0 5a 3e
       -0.087237954 0.37951213 0.35800266 0.2136259
000320 94 f7 44 be fb 10 9e bd 2b 37 17 3d e5 fa 5d 3e
       -0.19235069 -0.077180825 0.036917847 0.2167774
000330 f3 3e 36 3e 74 34 47 3d 69 22 44 3e c3 8b cf bd
       0.1779745 0.048634008 0.19153751 -0.10134079
000340 21 77 27 3d 79 76 82 be ee dd 46 3e 77 37 07 3e
       0.040885095 -0.25481012 0.19420597 0.13204752
000350 fe 1f 27 3e b9 d2 a4 3c ce 41 37 bd d7 96 55 be
       0.16320798 0.020120012 -0.04474049 -0.20858322
000360 5e 9f 10 be 46 ab db bd bc 5d 57 3d 92 dc 82 be
       -0.14123294 -0.10726027 0.052579626 -0.25558907
000370 98 50 8b be 4e 7c c9 bd 9f b9 6c be 97 8d 99 bc
       -0.27209926 -0.09838162 -0.23117684 -0.018744273
000380 18 a6 94 be 58 60 f5 bd 66 6d 20 3d 09 e9 34 be
       -0.2903297 -0.11981267 0.03916683 -0.17667021
000390 75 f5 22 3e f2 cc 62 3e ce bb d6 3e 81 1b 8a 3d
       0.15913947 0.22148493 0.4194016 0.06743527
0003a0 0c 2f 4f 3d 7b cc ff 3c b7 ee a7 3b 9a a9 59 be
       0.050581977 0.031225434 0.0051248926 -0.21256104
0003b0 72 8c 60 be d7 26 e6 3d e9 fd 3b be 60 3d 72 3d
       -0.21928576 0.11237877 -0.18358578 0.059140563
0003c0 b0 d0 94 3e ff 00 1e be 74 d9 33 be 8e 2c ee bd
       0.29065466 -0.15430067 -0.1756342 -0.11629592
0003d0 94 96 52 3e 8d 66 3e be f1 69 91 be 2e 24 0d be
       0.20565253 -0.18593808 -0.2840114 -0.13783333
0003e0 20 04 26 3e 41 d2 53 be 94 c3 4e be b3 f8 9c 3d
       0.16212511 -0.20685674 -0.20191795 0.07664623
0003f0 db c1 a6 bd 90 a0 68 be 84 bf b1 be 0c 1b 09 be
       -0.08142444 -0.227175 -0.34716427 -0.13389224

encoder.block1.convblock2.0.pointwise_conv.weight f4 [64, 64, 1]
000000 fc 5e 03 bc 3d 41 0f 3d 0e 98 90 3b b8 d7 c0 3c
       -0.0080182515 0.034974325 0.0044126576 0.023540363
000010 f2 9d 96 3b 22 13 71 bc 57 a5 18 3d c7 54 7d 3d
       0.0045964653 -0.014714034 0.037267055 0.061848428
000020 8d 5b d7 bc 00 b2 08 3c dc 2f e6 bc ab 98 2b bc
       -0.026288772 0.00834322 -0.028098993 -0.010473411
000030 b1 5a 4a 3c ef 2a 5d 3c 60 a5 51 3d ad f1 48 bd
       0.012350724 0.013499006 0.051183105 -0.049058605
000040 37 6a 5f 3d 26 12 d0 bc 74 fd 9a bd 6a ef 46 3d
       0.054544654 -0.025399279 -0.075678736 0.048568167
000050 f0 33 89 3d 51 ba ab bd 01 d8 55 bd d6 64 ee 3c
       0.066993594 -0.083851464 -0.05220795 0.029100817
000060 3d f4 81 bc 32 e7 b8 3c 7b 63 86 ba 00 b9 77 bd
       -0.015863532 0.02257118 -0.0010253036 -0.060479164
000070 9c e9 ab bc 71 f6 28 3d ee 4a be 3c a0 3e 41 bc
       -0.020985417 0.04125065 0.023229089 -0.011794716
000080 c4 9f 11 bc a1 1c 94 bb ec 73 99 bd cf 05 e5 3c
       -0.008888189 -0.0045200144 -0.074928135 0.027956871
000090 7f bc f4 bb 84 c8 c8 3c 79 b4 81 bd af bb 75 bc
       -0.0074687595 0.024509676 -0.063332506 -0.014998361
0000a0 a7 d0 7d bd 80 e3 a9 bd 8b a0 e8 bc de 34 9b 3b
       -0.061966565 -0.08295345 -0.028396865 0.004736527
0000b0 c4 0e 65 bd 0e 53 5b 3d 83 c3 32 bd 7b 89 ec bc
       -0.055922285 0.053546004 -0.043643486 -0.02887415
0000c0 11 d1 88 bb 1f af 9c bd 91 00 79 bd e6 8e ec bb
       -0.0041753133 -0.07650589 -0.060791556 -0.0072191833
0000d0 be 65 dd bd bd 43 5f 3d df 61 6b 3d a4 72 97 3c
       -0.108104214 0.05450796 0.057466384 0.018487282
0000e0 b0 24 89 3d bd d1 75 bd 76 e6 81 3c 69 62 38 bd
       0.06696451 -0.060014475 0.015856963 -0.045015726
0000f0 5a 0f 09 3b d8 db 81 bc 8b 1e 80 3d c3 26 2e bb
       0.0020913691 -0.0158519 0.062558256 -0.0026573397
000100 36 e0 a9 ba 5c 61 eb bd 25 28 ae bb a8 c5 97 bd
       -0.0012960497 -0.11493179 -0.005314844 -0.07410747
000110 39 c6 85 bc 18 f8 13 3d 11 a1 d4 3c 53 21 93 bd
       -0.016329871 0.036125273 0.025955709 -0.071840905
000120 71 16 81 bc 75 75 1f bd 57 2f 41 3d 11 51 8d bd
       -0.015757771 -0.038930375 0.047164287 -0.06900228
000130 87 85 43 3c 8f 20 30 bd 5a 11 2b bd 10 28 35 3d
       0.011933691 -0.0429998 -0.041764595 0.04422766
000140 ab c0 ce bc 85 c8 78 bd 87 8e 14 bd 3d 11 11 bd
       -0.025238356 -0.060738105 -0.036268737 -0.03541683
000150 75 1f 03 3b e6 f2 94 bd 2a 38 fb 3a 30 00 98 3c
       0.0020007764 -0.07272892 0.0019166518 0.018554777
000160 82 44 d7 3b a3 1a 39 3d f2 e3 29 3c 68 8e 18 3d
       0.006569446 0.04519142 0.010369288 0.037245184
000170 5a db 21 3d f7 e0 34 bd a9 fd 2f bd 14 3e 99 3d
       0.03951583 -0.044159856 -0.04296652 0.074825436
000180 30 80 58 bd 5f ed 12 bd 0f 04 14 3d 96 3a 2e 3c
       -0.052856624 -0.035870906 0.036136683 0.010634085
000190 25 00 4e 3d 73 d7 ac bc bd f8 a1 bd bc 9b ce 3c
       0.050293107 -0.021098828 -0.07908771 0.025220744
0001a0 f9 60 4f bd b4 41 5d bc 81 a5 88 bd c3 6f 5d 3d
       -0.05062959 -0.013504434 -0.06672192 0.054061662
0001b0 3b e7 5f 3d 8e fb 59 3d 2d 8d 3e 3c 47 3c 8a 3d
       0.054663878 0.053218417 0.011630339 0.06749778
0001c0 a6 26 4a bd bd 11 d6 bc 2f f2 18 3d f7 de 66 bd
       -0.049353264 -0.026131505 0.03734034 -0.05636498
0001d0 35 a9 c8 3d 25 c4 8d 3c 96 37 fd 3c 3a 2f e2 bb
       0.09797899 0.017305443 0.030910295 -0.0069026025
0001e0 0b 59 40 bd e2 54 2b bc 54 72 78 3c cd 91 6f bd
       -0.046959918 -0.010457249 0.015163977 -0.058488656
0001f0 b7 ad 66 3d a2 dc 5b 3c 50 2b 3d bd 2b 7e 11 3c
       0.05631801 0.013419302 -0.046183884 0.008880178
000200 a8 af 83 bd 67 ff 61 bc 1c 00 d6 3c 89 4b 19 3c
       -0.06429988 -0.013793803 0.026123099 0.009356388
000210 77 f8 a1 bd 32 e8 54 3b b2 7c 81 3c 81 81 41 bd
       -0.07908719 0.0032487032 0.01580653 -0.047242645
000220 c7 2f d2 3b 1c ed 73 3d f7 9c 6e bc df f7 03 3d
       0.006414387 0.059552297 -0.0145637905 0.03221881
000230 31 18 6f bd 8e a9 4f bd 9f 23 be bb c4 f6 e8 3c
       -0.05837268 -0.05069881 -0.005802586 0.02843798
000240 ba cf 81 bd a0 15 d9 bc 8a d5 c7 3d 14 d3 d8 bd
       -0.06338449 -0.02649957 0.09757526 -0.10587135
000250 a2 05 8f bd 4b 29 59 bd b1 46 3e bd 02 49 04 3c
       -0.06983496 -0.053017896 -0.046454135 0.008074047
000260 57 3b 45 3c 7f fe 14 3b a9 20 dc bd 51 5f 5c 3a
       0.0120380735 0.00227347 -0.10748417 0.0008406537
000270 6e 58 d9 3c 91 58 75 3c dc 55 a3 bc a7 44 b3 3c
       0.026531424 0.014974729 -0.019938402 0.021883322
000280 eb e0 b9 3c 5d ca de 3d af 4a 8b 3d af d8 12 bb
       0.022690257 0.108784415 0.06801354 -0.0022406986
000290 cb ff 8a 3b ec a1 a9 3c 4a aa 04 bd 54 03 aa 3d
       0.0042419187 0.020707093 -0.032388963 0.08301416
0002a0 90 b0 bf bd 24 da f9 3c 4b 68 c3 bc 57 0c c2 3c
       -0.093598485 0.030499525 -0.023853442 0.023687525
0002b0 e6 5d 65 bd a1 5c ac bc 5a 11 ea bc 79 9c 04 bd
       -0.05599775 -0.021040263 -0.028572727 -0.032375786
0002c0 e1 fd 7e bd c4 47 98 3d d8 3b 92 3d 02 44 d2 bb
       -0.062253837 0.07435563 0.071403205 -0.0064167986
0002d0 61 74 fb 3d 9f c3 2a 3d e7 84 de bd 79 47 6c 3d
       0.12278057 0.041690465 -0.10865193 0.05768535
0002e0 05 e7 8a 3d df 5e 96 3c 2a 4c aa 3d 1c 0f e3 3b
       0.06782345 0.018355785 0.083153084 0.0069292914
0002f0 be d8 00 3c 1a c3 22 3e f2 85 99 3d 1d 4a f6 bc
       0.007864175 0.15894738 0.07496251 -0.030064637
000300 ba a6 42 bd 03 e2 78 bd 45 b8 e9 3c 9f 93 19 3d
       -0.047522284 -0.060762417 0.02853025 0.037494298
000310 3a 79 54 3b 41 d9 2a 3d 54 6d fc 3c 2c ea a5 bd
       0.003242089 0.041711096 0.03081385 -0.08101305
000320 98 c1 40 3d 4c 8f 6c 3d 2a 85 b9 3c 6a a1 24 3b
       0.047059625 0.057753846 0.022646505 0.0025120624
000330 10 2d 35 3d da 2e be bd c3 19 b7 3d c4 25 9c 3d
       0.044232428 -0.0928628 0.089404605 0.07624391
000340 18 17 b0 3d 78 41 41 bd 97 d2 8a 3d 58 29 ac bc
       0.08598155 -0.047181576 0.06778448 -0.021015808
000350 2e 68 97 bd ec 8f 90 3d b9 b0 70 bd 5a f9 2f bc
       -0.073929176 0.07058701 -0.058762286 -0.010740602
000360 ea b7 f2 bc df ee 01 be 94 a0 9c bd 27 0f 3f 3d
       -0.029628713 -0.12688778 -0.07647815 0.04664531
000370 21 80 8d 3d 30 59 b2 bd f7 70 86 3d b5 d3 e6 bc
       0.06909204 -0.087084174 0.06564515 -0.028177122
000380 7e 2a 33 bc db e6 5b bc 11 9e ec 3c be c4 96 3c
       -0.010935424 -0.013421739 0.028883966 0.01840436
000390 08 70 15 3e 49 64 4a 3d a9 3a 8c bd e7 59 b6 bd
       0.14593518 0.049412046 -0.06847126 -0.08903866
0003a0 f0 4c 27 bd 1f d6 10 bd ac 68 6a 3b 42 a4 8c bc
       -0.040844858 -0.03536045 0.0035767956 -0.017168168
0003b0 c2 b8 a5 3d a6 a2 99 bd 4c 8a a6 38 5d 64 2d bd
       0.080918804 -0.07501726 7.9412566e-05 -0.042332042
0003c0 d9 38 fd 3c 01 fd d3 3c 21 ea 0d bd 89 b8 35 3c
       0.030910896 0.025877478 -0.03464711 0.01109136
0003d0 be 5d b7 3c 42 ce a8 bd f5 4a 9e bd 51 67 a3 3b
       0.022383567 -0.082424656 -0.07729141 0.0049866815
0003e0 4a d9 94 bc 14 b2 18 bd 2f ce 7f bd f8 32 0c bd
       -0.018170018 -0.037279204 -0.06245249 -0.034228295
0003f0 de 0e 8d bd 01 c4 7f bb 7a a6 0a be 90 af f5 bc
       -0.06887601 -0.003902674 -0.13540068 -0.029990941

encoder.block1.convblock2.1.weight f4 [64]
000000 c9 88 00 3f 8f 20 08 3f 9d b2 1f 3f 45 80 df 3e
       0.5020872 0.5317468 0.6238192 0.4365255
000010 db f3 00 3f f6 06 05 3f 73 8e 47 3f d9 22 19 3f
       0.50372094 0.51963747 0.77951735 0.598188
000020 64 e8 13 3f f0 16 fd 3e a7 76 69 3f ac 9d 45 3f
       0.57776475 0.49431562 0.91196674 0.77193713
000030 e7 5c 06 3f c3 73 02 3f f2 4c 03 3f 46 54 1a 3f
       0.5248551 0.5095789 0.51289284 0.6028484
000040 0f 33 fa 3e e2 c5 09 3f 44 e9 fe 3e 05 1a f1 3e
       0.4886708 0.5381757 0.49787343 0.47090164
000050 e2 c0 fd 3e bb c1 43 3f 0c 01 15 3f b2 fd f3 3e
       0.4956122 0.76467484 0.5820472 0.47654492
000060 50 33 22 3f b9 a8 00 3f 6f 80 fe 3e 03 74 3e 3f
       0.63359547 0.5025745 0.49707362 0.7439577
000070 5a a2 05 3f ce 5f 3a 3f 85 a5 ef 3e 78 57 10 3f
       0.52200854 0.72802436 0.4680597 0.56383467
000080 7a d7 13 3f 2d fe 07 3f 07 0d e9 3e 64 d3 39 3f
       0.57750666 0.53122216 0.45517752 0.7258818
000090 b9 e8 c7 3e a2 f7 0b 3f 4a 9f fa 3e c1 cd 4e 3f
       0.3904474 0.5467473 0.48949653 0.80782706
0000a0 f0 91 48 3f b4 f8 24 3f c5 50 09 3f c8 ab 81 3f
       0.7834768 0.6444199 0.5363887 1.0130548
0000b0 ba fd fd 3e 7d f5 0f 3f 2b a8 f0 3e 66 26 1d 3f
       0.4960764 0.5623396 0.47003302 0.61386716
0000c0 33 38 f4 3e d8 3f f7 3e e7 71 43 3f db 1c 7b 3e
       0.47699127 0.48290896 0.76345676 0.24522726
0000d0 e4 5b 0a 3f 9b 8e a7 3f ee e6 fa 3e c0 c0 00 3f
       0.54046464 1.3090395 0.4900431 0.50294113
0000e0 29 fc 03 3f 76 62 f1 3e 2c 2b f5 3e f4 c1 0f 3f
       0.5155664 0.47145432 0.478845 0.56155324
0000f0 8e cf 71 3f de 63 3a 3f f7 3b d8 3f 2c 58 fa 3e
       0.9445733 0.72808635 1.68933 0.48895395

encoder.block1.convblock2.1.bias f4 [64]
000000 f1 e3 92 bc ef 46 ab bc a6 93 37 bd ee e8 9f 3c
       -0.017930957 -0.020907847 -0.044818543 0.01952025
000010 66 be 4f bc e4 42 7e 3c 0f 37 dc 3d 07 56 9d bb
       -0.012679672 0.015518878 0.10752689 -0.004801515
000020 ed 8c ec bd 5b e9 a4 be 7d d0 a5 bd fe 9a 06 c0
       -0.11550317 -0.32209286 -0.080964066 -2.10321
000030 93 b4 4d bd 24 65 93 bc 8d 65 c6 bb f3 ac 2d be
       -0.050221037 -0.017992564 -0.0060545863 -0.16960506
000040 e5 3f 44 bd 51 3a 00 3d 1d a7 9c bb de e7 0a bd
       -0.047912497 0.031305615 -0.0047806636 -0.033912532
000050 37 b0 83 bd ce 19 25 bd 3c 2d 2d be 85 7a 3a bd
       -0.06430095 -0.040307812 -0.16911787 -0.045527
000060 3c b8 da bd da c6 ce 3d 3a c6 54 3c c9 e1 11 3e
       -0.10679671 0.10096522 0.012986714 0.14246286
000070 3b 13 69 3d 94 59 e4 bd b2 06 b8 be 18 2b 4d bf
       0.056903105 -0.11149898 -0.35942608 -0.8014388
000080 26 5f 37 3d 45 90 44 3e 57 88 51 bd 74 28 2b 3d
       0.044768475 0.1919566 -0.051155414 0.041786626
000090 7d e2 14 be 04 9d 72 bd ac 35 75 3d a7 f1 9b bf
       -0.14539523 -0.059231773 0.05986564 -1.2183121
0000a0 b2 96 13 bd f6 ea 50 3d b2 ad 8e bd 8e a8 81 3e
       -0.036032386 0.051005326 -0.069667235 0.2532391
0000b0 96 bb 0f bd 05 6b 33 3e 5f a2 04 bd 2f 7f 8e 3d
       -0.035091005 0.17521293 -0.03238141 0.06957852
0000c0 e8 83 9c 3e 65 70 f5 3b f7 f0 08 be 5d 9f 5f bf
       0.30569386 0.007490205 -0.13373171 -0.87352544
0000d0 79 fe c9 bc e9 56 92 bf 37 b5 07 bd cd 97 e3 bd
       -0.024657475 -1.1432773 -0.033131804 -0.11112938
0000e0 46 ac ec bb 97 0e 38 bd 53 be a1 bd d9 9a 68 bb
       -0.007222685 -0.04493579 -0.078976296 -0.0035492687
0000f0 65 db 99 bd fb 3d 02 3c f5 50 c8 be 04 f0 8c bd
       -0.07512549 0.007949348 -0.39124265 -0.06881717

encoder.block1.convblock2.1.running_mean f4 [64]
000000 6e 74 62 3e a0 0e 20 be 01 30 fb bd 42 d1 99 be
       0.22114727 -0.15630579 -0.122650154 -0.30042464
000010 94 58 e7 3d 4b 21 46 bd 24 5a 01 bf 6d 21 15 be
       0.11296192 -0.048371594 -0.5052817 -0.14563532
000020 b3 71 66 b9 10 34 de be 06 e8 af be 25 8c 4c bf
       -0.00021976866 -0.43399096 -0.34356707 -0.79901344
000030 59 1d c1 bd c3 59 b7 3d ef 3c a3 bd 3b 50 a7 bb
       -0.09429426 0.089526676 -0.079706065 -0.0051059998
000040 2a f5 24 3e a6 ac 9e bd 5f 33 35 3e 05 e9 d1 3d
       0.16109148 -0.07747774 0.17695378 0.10249523
000050 71 ba cd bd 6a c9 b7 be 58 c1 02 be ca 0e 15 3e
       -0.100453265 -0.35895854 -0.12769067 0.14556423
000060 40 54 54 3b 87 d1 b2 bd 51 c6 c4 bd ce 33 22 bf
       0.003239885 -0.087313704 -0.09608138 -0.633603
000070 78 65 82 bd a3 f8 48 be 0f 1c 66 bf b5 f6 2f bf
       -0.0636701 -0.19626097 -0.89886564 -0.6873582
000080 dc ea 40 3e 4f 69 32 be 5b ae ba 3d 69 8e ca be
       0.18839592 -0.17422985 0.09115287 -0.39561775
000090 d4 4e 9f 3d 68 5f 88 3e a3 27 15 3b 5d 4e 0c bf
       0.07778707 0.2663529 0.002275922 -0.5480707
0000a0 f2 d5 95 be 30 29 3f bd a4 a0 e4 3d 99 1d f0 be
       -0.2926479 -0.04667014 0.11163452 -0.4689758
0000b0 89 65 fe 3d 8e 48 87 3c 7d 1c 10 be 86 15 ef be
       0.1242171 0.016514089 -0.14073367 -0.4669611
0000c0 98 31 ec be 6e c1 85 3d 6f 29 23 be a9 a8 62 be
       -0.46131587 0.065310344 -0.15933774 -0.22134651
0000d0 77 2f 29 be f3 7f 76 bf ee 4e 76 be 01 f6 01 3b
       -0.16522013 -0.96288985 -0.24053547 0.0019830468
0000e0 d0 b1 7e 3e 75 34 72 3d 61 63 9e 3d 95 8b dc 3d
       0.24872518 0.05913206 0.07733799 0.10768811
0000f0 81 f3 47 bf ca a4 e3 be f0 a3 28 bf 82 f3 f9 3d
       -0.7810593 -0.44461662 -0.6587515 0.122046486

encoder.block1.convblock2.1.running_var f4 [64]
000000 95 a0 5c 3c c1 46 50 3c 22 6a ce 3c c0 09 0d 3d
       0.01346602 0.012712182 0.025197092 0.034433126
000010 9b 04 9e 3b d5 94 c9 3b 1e 7f 4f 3e 7f 49 c8 3c
       0.0048223264 0.0061517754 0.20263335 0.024449108
000020 6a 7c 7b 3d b2 17 2f 3d 6b ca 45 3e 02 a2 22 3f
       0.061397947 0.042747207 0.19315498 0.63528454
000030 30 2e d6 3b 8c 54 f0 3b 31 17 6a 3c b3 a7 1e 3d
       0.0065362677 0.0073342975 0.014287756 0.03873415
000040 03 1b 10 3c 5e 0e 83 3c 78 e1 31 3c 52 27 12 3c
       0.008795503 0.015998062 0.010856979 0.0089205075
000050 32 1a df 3b 0a 55 d5 3d 26 18 ae 3c be 68 78 3c
       0.0068085426 0.104166105 0.02125175 0.015161691
000060 00 4f 2f 3d 1f 33 30 3d bb 5e 9f 3b 9c c0 14 3e
       0.04279995 0.043017503 0.0048635877 0.145266
000070 8f 04 d0 3b b1 17 a5 3d 64 e2 64 3e 07 3e 85 3e
       0.0063481997 0.080611594 0.22351986 0.26023886
000080 7b 86 95 3c 9f 26 25 3d 4c ef ae 3c ff d5 96 3d
       0.018252602 0.040320035 0.02135434 0.07365035
000090 b0 cb 37 3c 55 43 8d 3d b5 51 95 3c 88 86 9a 3e
       0.0112179965 0.06897608 0.018227438 0.30180764
0000a0 bb e6 e7 3d b7 5f 9a 3c 65 d5 16 3d b7 d8 a1 3d
       0.11323305 0.018844469 0.036824603 0.07902663
0000b0 49 84 52 3c 40 f7 63 3d 47 de cf 3c ad 8f 2d 3d
       0.012848922 0.055655718 0.025374545 0.042373348
0000c0 9f 07 6b 3d d7 49 5e 3d 14 44 cc 3c d2 08 34 3d
       0.057380315 0.054269638 0.024934806 0.043953724
0000d0 a1 48 ce 3c 26 3f e1 3e f5 f9 04 3d ab 54 f7 3b
       0.025181117 0.4399349 0.03246494 0.007547935
0000e0 cb 1b a8 3c e7 0c 52 3c 70 63 87 3c 1a 1c 20 3c
       0.020521065 0.012820459 0.016526908 0.009772325
0000f0 c1 7a e7 3d 15 1d 31 3e 57 78 5a 3e 9c d7 f8 3c
       0.1130271 0.1729625 0.21334969 0.030376248

encoder.block1.convblock3.0.depthwise_conv.weight f4 [64, 1, 3]
000000 87 a3 b8 3e 65 f1 d9 bd e9 30 83 be 20 26 45 3d
       0.3606226 -0.106417455 -0.25623253 0.048132062
000010 67 da 43 3e c3 a7 81 be 78 cd 8f 3e 7e ab 57 be
       0.19126283 -0.25323305 0.28086448 -0.21061513
000020 cb bb 8b 3e 59 02 36 3e ad 8e 41 3e ce eb 09 3e
       0.27291712 0.17774333 0.18902083 0.13468859
000030 4a 02 96 bb 98 66 bd bd 65 40 e1 3d 4f 4e cc 3d
       -0.0045779096 -0.09248084 0.109986104 0.09975874
000040 49 e1 5a 3d 1c 61 2c be e2 1b 2b bf d6 1a 94 3e
       0.053437505 -0.1683392 -0.6683942 0.28926724
000050 41 dd a9 3e 86 82 51 3e 3e 3a b1 3e 13 d2 66 be
       0.33176616 0.20459947 0.34614748 -0.22541074
000060 4a 8d 39 be e6 4b b6 be af 6b aa bd 78 6e 46 be
       -0.18120304 -0.3560478 -0.0832132 -0.19378078
000070 6e 31 98 be 53 bd 64 bd d8 08 27 be fa 0f 72 3d
       -0.29725212 -0.055844616 -0.16311967 0.059097268
000080 57 c0 13 bf d9 a8 b8 3e f2 8b e2 3e 32 ca d7 3e
       -0.5771536 0.3606632 0.44247395 0.4214645
000090 0b 3f 71 be e7 be 2f 3e 70 b4 8b 3c 05 5b 79 3e
       -0.23559205 0.17162667 0.017053813 0.24351127
0000a0 83 b6 f2 3b cd 5b 11 be 10 4a 52 be 48 c3 5b 3d
       0.007407011 -0.14195175 -0.20536065 0.05365303
0000b0 26 f4 e3 3d f5 91 47 be e8 86 75 be 51 51 1d 3e
       0.11130552 -0.19489272 -0.23977244 0.15363051
0000c0 cd fe ab 3e 51 3e 86 bd b3 41 3f be a4 25 03 3a
       0.33592835 -0.06554855 -0.18677406 0.00050028623
0000d0 2f cb 31 be 46 00 ed 3d cd 9d 84 3b 63 3c 87 3e
       -0.17362665 0.11572318 0.0040471316 0.2641326
0000e0 a8 19 85 be 83 15 a4 bc dd 36 20 be 37 6c 75 3e
       -0.25996137 -0.020029789 -0.15645929 0.23967062
0000f0 90 94 22 be 89 61 54 3e 25 6d 63 3c 24 7b f8 3e
       -0.15876985 0.20740332 0.013881003 0.4853145
000100 d1 eb 7f 3d 1b a7 96 3e 8a 1c 1f bc cd 05 93 be
       0.06248075 0.29424366 -0.009711394 -0.28715363
000110 2e 85 2f be 1e f6 03 be fa d7 31 3e a7 9b 5e be
       -0.17140648 -0.12886855 0.17367545 -0.21739064
000120 73 db 48 bd 6e 4d 97 be ad 39 b4 be b2 68 c0 be
       -0.049037408 -0.29551262 -0.35200253 -0.37579876
000130 66 e0 a0 bc e4 6f 0f 3e bd 69 25 3e a2 63 cb bd
       -0.019638252 0.14007527 0.16153617 -0.09931113
000140 fc 9c 05 be b0 c5 ab be fb 2d 98 be a9 06 38 be
       -0.13048166 -0.3354926 -0.2972258 -0.1797129
000150 bd 59 1c 3e 19 a2 66 be d9 eb 29 3e 01 ab fa 3e
       0.15268607 -0.22522773 0.16593875 0.4895859
000160 0c 00 d7 be 31 23 9b be 5d e1 3e be 88 a6 8b be
       -0.41992223 -0.30300286 -0.18640657 -0.2727549
000170 1a 06 97 bd 18 d2 ae 3e ce 97 a7 3e c2 51 7a 3e
       -0.07374211 0.34144664 0.32733005 0.2444525
000180 30 b3 d7 be 84 ff 39 3e 81 e2 7a 3e 83 11 a4 be
       -0.42128897 0.18163878 0.24500467 -0.3204461
000190 08 17 8f 3d aa eb 2c 3e be 79 75 be 94 77 61 be
       0.06986815 0.16886774 -0.23972222 -0.22018272
0001a0 8f 92 08 3e 9b a5 9a 3e 44 f9 9b be e2 bd ce be
       0.13337158 0.30204472 -0.30463612 -0.40379244
0001b0 f5 e6 4c 3e 9a b9 03 bd 09 21 5a 3d bc a6 9c 3e
       0.20009978 -0.032159425 0.05325416 0.30595958
0001c0 36 58 ae be 94 6d 07 bd 06 16 39 be 30 f8 4c 3e
       -0.34051675 -0.033063486 -0.18074808 0.20016551
0001d0 33 7b 04 be c6 ad 88 3d 09 1b df be 51 de 13 bf
       -0.12937622 0.0667377 -0.43575314 -0.577611
0001e0 c8 e8 05 bf 05 a3 13 3e d4 47 93 be ed 81 97 3e
       -0.5230832 0.14417656 -0.28765738 0.29591313
0001f0 f2 59 83 be 3d ed a3 3e f6 8b 9e be 62 24 b0 bd
       -0.2565456 0.32016936 -0.30966157 -0.086006895
000200 60 9c 93 3e 57 d0 f1 3c 8e 40 3e be 76 6b da 3e
       0.28830242 0.02951829 -0.18579313 0.4266011
000210 20 53 8f be d7 8f 5f 3e 26 26 63 3d 46 3e bb 3e
       -0.27993107 0.21832214 0.055456303 0.36570948
000220 89 e3 6b bd 8c 2b 72 be bd 2c 15 be 73 bb 9d bd
       -0.05759004 -0.23649424 -0.14567848 -0.07701769
000230 61 c0 5c 3d 25 83 41 be 8d 3e 3e be ad ff 00 bd
       0.053894404 -0.18897684 -0.18578549 -0.03149383
000240 36 3c f4 3d ad c7 0d be 7e 4b 75 be 3a a4 6f 3e
       0.11925547 -0.13845702 -0.23954579 0.23402491
000250 4b 2b c0 bd 9c a3 9d 3d 2e ef 36 3e 2f 1b f3 3e
       -0.093832575 0.07697222 0.17864677 0.47481677
000260 3e e2 3c 3e a7 02 06 3e a6 a1 5d 3e 73 18 3e 3e
       0.1844568 0.1308695 0.21643695 0.18564014
000270 bc ea 13 3e 44 60 41 3d a7 25 32 3d 0e 9c cc be
       0.14445013 0.047210947 0.04349294 -0.3996281
000280 20 5c ce be 29 c1 91 be 4d e2 04 be 93 80 ed bc
       -0.4030466 -0.28467682 -0.12976952 -0.028991973
000290 7c f9 5a bd cf 4d e9 bb 0a 34 ed 3d ff 29 5f 3e
       -0.053460583 -0.007119871 0.11582191 0.21793364
0002a0 15 6a 81 be da 5e b2 bd 22 e0 6e 3e 84 ce 17 3d
       -0.25276247 -0.08709498 0.23327687 0.037062183
0002b0 6d f7 a0 bd e0 c5 32 3e 3d b5 4e be e8 41 3d be
       -0.07859693 0.17458296 -0.20186324 -0.18482172
0002c0 88 62 9e 3e 99 09 ae bd a1 1b 96 3d 18 85 41 3e
       0.30934548 -0.08497924 0.073294885 0.18898427
0002d0 02 5b ce be e5 f8 a7 bd 6d 7e fa bd 43 16 fd be
       -0.40303808 -0.0820177 -0.12231145 -0.49431047
0002e0 36 16 c2 3e c8 e2 92 3e ab 09 80 3e dc 7e ae 3d
       0.3790757 0.28688645 0.25007376 0.0852029
0002f0 cd 8a 9a 3e 13 3a 2b be 62 e1 a1 3e 1d 56 50 be
       0.30184022 -0.16721372 0.31617266 -0.2034535

encoder.block1.convblock3.0.pointwise_conv.weight f4 [64, 64, 1]
000000 78 cd 09 bd e0 1b 8f bd 80 b9 dd ba b6 62 d1 3c
       -0.033643216 -0.069877386 -0.0016916245 0.025559764
000010 83 cc 3e 3d 73 03 3f 38 fb 7f eb bd 80 74 96 bc
       0.046581756 4.554116e-05 -0.1149902 -0.018366098
000020 23 55 2b bd 8f 88 08 bd 74 1a 1d bd 21 31 98 3d
       -0.04182924 -0.033333357 -0.038355306 0.074312456
000030 3b 78 3d 3d 52 58 89 bc 9c 1f 65 bd 6d 96 41 3d
       0.04625724 -0.016765747 -0.05593835 0.047262598
000040 5d 9a 7d bd 79 b1 55 3d 10 4d 7a 3d a7 aa 05 bc
       -0.06191479 0.052171204 0.06110865 -0.0081583625
000050 9a e9 94 bd 87 11 4a 3d 43 54 0d 3d 60 b6 8d 3d
       -0.072711185 0.04933312 0.034504186 0.06919551
000060 24 9a 9f 3d de 31 0b 3c 2d 1a 83 3d b5 4c 10 bd
       0.07793072 0.008495776 0.06401477 -0.035229404
000070 8e e2 ab bc 8a c8 11 bd e8 f3 09 3c 0c ea 0e bd
       -0.020982053 -0.03559164 0.008419968 -0.034891173
000080 4c 89 0f 3e 49 47 0f 3d 4b 19 90 3c da c7 96 3d
       0.14017218 0.034980092 0.017590186 0.073623374
000090 b8 4f 59 3d 7d f0 bd bd e9 8f a8 bc 3b c7 24 3d
       0.05305454 -0.09274385 -0.020576434 0.040229063
0000a0 0e 73 46 3d 7a 3f 56 bc 9a 9b 94 3c b8 8f 0f 3d
       0.04844957 -0.013076657 0.018140603 0.03504917
0000b0 45 26 20 bd 19 42 f4 3c 94 ff 1d bc 52 97 a8 bc
       -0.039098997 0.029816674 -0.009643454 -0.020579968
0000c0 06 49 8b 3d 6d 0c 87 bc e2 f4 aa 3c 84 44 87 3d
       0.068010375 -0.016485417 0.020868722 0.06604865
0000d0 fe ec 32 bd 54 a3 dc 3c 4a b1 17 3d 94 43 87 3d
       -0.043683045 0.02693335 0.03703431 0.066046864
0000e0 dd 7a 4b 3d 4c d2 75 bc 16 6d 11 bd 7e 35 82 3d
       0.04967772 -0.015003752 -0.035504423 0.06357859
0000f0 7f 68 c6 3d 8e a3 93 3c a2 a8 d4 bd 4a ba 29 3b
       0.096879 0.018022325 -0.10383727 0.002589839
000100 28 e4 94 bc dd c7 37 bd f9 62 5e bd fa 1f f5 3c
       -0.0181752 -0.04486834 -0.054293606 0.029922474
000110 c0 ef 9b bb 7e 03 bb 3c fd f2 e6 3c 7d ab a2 3c
       -0.004758805 0.022828814 0.028192038 0.019857163
000120 30 c4 86 3b 13 29 74 bd f0 94 96 bd 44 84 29 3c
       0.004112743 -0.059609484 -0.07352626 0.010346476
000130 27 f8 1a bd d0 a9 6a bd 28 a3 8d 3d a3 6e 0b 3d
       -0.037834313 -0.057290852 0.06915885 0.03404106
000140 81 c0 7e 3d 72 0e 08 bd c6 54 b2 bc 8b 48 68 3d
       0.062195305 -0.0332169 -0.021768939 0.056709807
000150 96 0a f6 3c b9 d4 e9 bb f3 e4 cd bc 8e 76 11 bd
       0.030034345 -0.007135954 -0.025133586 -0.035513453
000160 49 4f 4c bd 9d 50 c9 3c 52 bc 6b 3d 3e 6f b4 bc
       -0.0498803 0.024574572 0.057552643 -0.0220257
000170 f1 92 37 bd 74 e6 55 3d 97 41 79 bc 7c d0 0e bd
       -0.04481787 0.05222173 -0.015213392 -0.034866795
000180 19 89 27 3c 34 f9 2a 3c 45 36 21 bd ce f0 81 3d
       0.010225558 0.010435391 -0.039358396 0.06344758
000190 b2 e8 25 3d 3c 83 83 bd 48 5d 83 3d ce c3 44 bd
       0.04050512 -0.06421515 0.06414276 -0.048038296
0001a0 aa 3b c1 bc e0 e7 25 3d e9 fc 48 3d fc af 90 3d
       -0.02358802 0.040504336 0.04906932 0.07064816
0001b0 08 52 a0 bb 33 cf 86 3b 27 4d b7 3d 1e 37 09 bd
       -0.0048925914 0.0041140555 0.089502625 -0.03349983
0001c0 32 fe b0 3d d0 f8 62 bd 13 96 f8 bb 74 48 60 3d
       0.08642234 -0.055413067 -0.0075862496 0.054756597
0001d0 f1 86 35 bd 7d eb 59 3d 63 a8 62 bc 6f 55 99 3d
       -0.044318143 0.053203095 -0.013834092 0.07486998
0001e0 e8 b6 d0 3c 5b 52 b7 3c 2c 2f 05 3c 86 e5 27 3d
       0.025477841 0.022378137 0.008128922 0.040990375
0001f0 7f 3c 56 bd 76 1b 10 3c 26 97 ab 3d 72 49 f3 3c
       -0.052303787 0.00879561 0.08378439 0.029698107
000200 71 6d 35 3c 12 eb 14 bd b8 5f 66 3d 90 da 86 bc
       0.011073456 -0.036356993 0.05624363 -0.01646164
000210 23 90 4f bd 09 41 d9 3b 29 26 ce 3d 5c b8 14 3d
       -0.05067457 0.0066300672 0.10065872 0.03630863
000220 49 b7 7f 3d 0a 90 89 3c bb fd 9b bd ec e0 c4 bd
       0.062430654 0.016792316 -0.076167546 -0.09613213
000230 17 37 24 3c db 9f bf 3c 16 71 35 3d d5 a6 3a bc
       0.0100229 0.023391655 0.0442973 -0.011392315
000240 c5 0e 0b bd 6e 4d 62 bd 5e 1b 1c bd 2d 43 03 3c
       -0.033949632 -0.055249624 -0.038112037 0.008011621
000250 07 ed ef 3c 53 66 0f bc 05 f6 ca 3c 70 a3 b9 3d
       0.029287828 -0.008752423 0.024775514 0.09064376
000260 ac 06 e0 3a cd f4 cc 3c c6 c1 c6 3b a6 be 52 3d
       0.0017091832 0.025019074 0.00606558 0.051451348
000270 fb 93 be bb cd c3 87 3d 65 de 5a bd e9 e7 6a 3c
       -0.0058159805 0.06629143 -0.05343475 0.014337518
000280 9c 19 4c 3c f2 37 b8 3d 15 8b 09 3d c1 f8 ba 3c
       0.012457278 0.08995046 0.033579905 0.022823693
000290 13 57 2a 3d 9b 14 63 3d 37 90 f5 bb 4d ad 00 3e
       0.041586947 0.055439573 -0.0074939984 0.12566109
0002a0 6a 6b c5 bd b6 14 2d 3d 89 3d a6 3d 44 ca 1c be
       -0.09639628 0.04225608 0.08117206 -0.15311533
0002b0 8f 59 15 3d 71 3c 6f 3d 84 07 1b bd d5 8c ca 3c
       0.036462363 0.05840725 -0.037848964 0.024725357
0002c0 a1 fd 0f bd 81 c6 50 bc 8d c6 9c bc da ea 79 bd
       -0.03515399 -0.0127426395 -0.019137645 -0.061014988
0002d0 9f 83 b5 3c bf b5 81 3d 0f 28 54 3b b7 ea 6f bd
       0.022157488 0.063334934 0.003237251 -0.05857345
0002e0 ee 6d 11 bd c5 c3 54 bd af ba 19 bd 48 3d 82 3d
       -0.035505228 -0.051944513 -0.03753155 0.06359345
0002f0 dc e4 a1 bd d6 1a bf 3c f0 9d 8d 3e d6 a3 f0 3c
       -0.079049796 0.023328226 0.2765956 0.029374998
000300 6f 16 2d bd ec b2 3b 3d 10 b4 0e bd 69 9f fe 3b
       -0.042257722 0.04582493 -0.03483969 0.007770468
000310 b3 0f 2f 3d 1d 8e 5b bd aa d1 b0 bd 30 cb 39 bc
       0.04273958 -0.053602327 -0.0863374 -0.011339948
000320 a4 48 04 3d 4e 91 37 bc 63 29 bc bc 36 e6 42 3d
       0.032295838 -0.011204077 -0.022968953 0.047582828
000330 21 ca 52 bd 47 b0 bf bb 42 f4 d1 3b 01 9f 1a 3d
       -0.051462296 -0.0058498713 0.0064072916 0.037749294
000340 da 29 88 bd 62 20 5e bc 4f 43 92 3c d0 b5 78 bd
       -0.066486076 -0.013557525 0.01785436 -0.060720265
000350 15 ce 33 3d ba 46 23 bd 5d cc 08 3d 82 2d 57 bd
       0.043897707 -0.039862372 0.03339802 -0.052533634
000360 01 1d 81 bd ba 7d 5e 3d b4 fb 5d 3d 8f 66 2a bd
       -0.0630436 0.05431912 0.05419512 -0.041601714
000370 17 b4 fb ba d5 55 19 3e b3 e1 b0 bc 98 9b 1a bd
       -0.0019203451 0.14974149 -0.021591997 -0.037746042
000380 83 36 94 39 22 9c 08 bd 5f b2 83 3d ad 7b f6 bc
       0.00028269374 -0.033352025 0.06430506 -0.03008827
000390 01 a5 a1 bd 20 fc de 3c e0 dc 8e bd 5d ad 50 bd
       -0.078928 0.027219832 -0.06975722 -0.050946582
0003a0 2d a0 fa 3d 63 02 ac bd 46 90 0e bd 40 4b 43 3c
       0.12237582 -0.08398893 -0.03480556 0.0119197965
0003b0 09 c0 2b bd 5c 97 e8 bd c2 bf 0d bd 6e 3e 48 3d
       -0.041931186 -0.113569945 -0.034606703 0.048887663
0003c0 c1 6d 17 bd 31 a1 92 bc 40 6e a1 3c 29 a7 c8 3c
       -0.036969904 -0.017899128 0.019705892 0.02449377
0003d0 ab cf 11 bb a7 91 91 3c b9 74 92 3d 7f 6a 5a bd
       -0.0022249024 0.017769648 0.07151169 -0.05332422
0003e0 af e1 ac bb 2b 47 95 3b 7d c4 ac 3d 6b 94 89 bc
       -0.005275927 0.004555603 0.08435915 -0.016794404
0003f0 74 cb 86 3d b3 58 0e bd 36 67 b6 3d 74 50 4d bd
       0.06581774 -0.03475256 0.08906405 -0.050125554

encoder.block1.convblock3.1.weight f4 [64]
000000 2e 56 18 3f d7 2c 0c 3f b6 3f 11 3f 23 4f 12 3f
       0.595065 0.5475592 0.5673784 0.57152003
000010 73 7c 2d 3f ae 60 15 3f 43 7d 98 3f 5d 06 39 3f
       0.6776802 0.58350646 1.1913227 0.72275335
000020 79 4d 08 3f 19 12 28 3f b8 6a 0c 3f 2e 32 30 3f
       0.53243214 0.65652615 0.5485034 0.6882657
000030 fb ca 09 3f a7 e0 48 3f 3b 15 87 3f ad 40 05 3f
       0.5382535 0.7846779 1.0553354 0.5205181
000040 5d 48 13 3f 2a bd 7b 3f 98 fd a7 3f b4 a3 07 3f
       0.5753229 0.98335516 1.3124266 0.52984166
000050 db 23 62 3f c6 de 4e 3f 63 d5 0d 3f 79 95 08 3f
       0.8833596 0.80808675 0.5540373 0.5335308
000060 7a 62 1d 3f 0e 96 65 3f 5e 52 fb 3e 42 b7 13 3f
       0.6147839 0.8968209 0.4908628 0.57701504
000070 0a 67 0b 3f 3a c3 13 3f 49 24 28 3f 3b a9 2a 3f
       0.544541 0.5771977 0.65680367 0.66664475
000080 0e 81 d2 3e 89 c2 27 3f d4 87 02 3f 78 61 16 3f
       0.41114086 0.6553121 0.5098851 0.58742476
000090 b4 88 04 3f 27 44 09 3f 6e 95 69 3f c5 7d 40 3f
       0.5177109 0.5361962 0.91243637 0.7519191
0000a0 7c 99 19 3f 1a db 44 3f 6c 94 4f 3f c5 ed 0c 3f
       0.59999824 0.7689682 0.8108585 0.5505031
0000b0 c1 bc 60 3f 79 6e 13 3f 49 cc 79 3f e2 b8 07 3f
       0.87788016 0.5759044 0.9757734 0.53016484
0000c0 d2 02 27 3f 08 0b 08 3f d5 c1 27 3f bc 6f 17 3f
       0.6523868 0.5314183 0.6553014 0.5915487
0000d0 49 66 49 3f ab 20 16 3f df 33 4e 3f c6 6b 04 3f
       0.786717 0.586436 0.805479 0.5172695
0000e0 3b 78 25 3f 66 fc 05 3f 6a b6 0f 3f 7b ae 1c 3f
       0.6463658 0.52338254 0.56137717 0.61203736
0000f0 53 d3 23 3f 66 b7 17 3f ef 34 27 3f 28 60 0c 3f
       0.6399433 0.5926422 0.65315145 0.5483422

encoder.block1.convblock3.1.bias f4 [64]
000000 9a 16 08 3d b2 fb 02 bb c7 bc 3b bd b4 4f f2 3c
       0.03322468 -0.0019986448 -0.04583433 0.029579021
000010 38 eb 2d 3d 09 45 04 3b b4 a3 69 be 1b 2d a4 be
       0.04246065 0.002018275 -0.22816354 -0.32065663
000020 8d 52 fb bc 2b 1a 10 3d ed 09 fe bc be f3 9d bc
       -0.030679012 0.035181206 -0.031010592 -0.019281264
000030 cc 5c 98 bc 94 39 b8 be 63 a2 c6 be 2f 0a 34 bc
       -0.018598936 -0.3598143 -0.38795766 -0.010988756
000040 d1 0e 6c be 97 b5 c6 bd 4b d7 ff be ad 98 3e bd
       -0.23052527 -0.09702604 -0.49968943 -0.04653232
000050 7c 36 e9 3d 41 ce 9c bd d5 26 9b bc 91 77 45 bd
       0.11387345 -0.07656527 -0.018939415 -0.04820973
000060 47 7c 2c bc 0e cd b2 bd de 7a 8a 3b 50 74 c8 bc
       -0.010527677 -0.08730517 0.0042260727 -0.024469525
000070 2c 3c ae 3c 6b d1 ac bb 81 80 8a 3d 58 2e 9e 3d
       0.021268927 -0.005273988 0.067627914 0.07723683
000080 56 0e d0 bd 40 56 73 be b9 8e c2 bb 17 06 c1 3c
       -0.10158984 -0.2376337 -0.005937424 0.023562474
000090 68 cd 37 be fe 78 df 3b 6e eb b1 be 8a 21 21 be
       -0.1794945 0.0068198433 -0.3474993 -0.1573545
0000a0 8a 7f 5d 3d 62 c1 f6 bd d0 15 6a be 8c 6f 1c 3c
       0.05407671 -0.120486036 -0.22859883 0.009548079
0000b0 93 95 83 be 58 f6 a7 bc 5d 96 11 bd db 77 41 bc
       -0.25700054 -0.020503208 -0.03554379 -0.011808361
0000c0 f1 3b 75 bc a2 70 ec bc dd c3 92 bd 67 d9 be 3c
       -0.014967904 -0.028862301 -0.07166264 0.023297025
0000d0 f6 fb f0 bc 97 45 59 be 42 d3 5f be 65 3d 77 be
       -0.02941702 -0.21217953 -0.21857932 -0.24144514
0000e0 38 40 e4 bd 96 f6 fe bd 57 3e 01 bd 49 0d 29 bd
       -0.11145061 -0.12449376 -0.031553593 -0.041272435
0000f0 a6 b9 3d 3d 0a 3e 26 bc 50 e8 1a bc 35 3c b6 bc
       0.046319626 -0.010146627 -0.009454802 -0.022245506

encoder.block1.convblock3.1.running_mean f4 [64]
000000 23 cd 4d bd 94 3d 74 3d ee 05 9e 3d 2f 30 f3 bc
       -0.05024446 0.059629038 0.07715975 -0.029686062
000010 09 01 2b bd c2 b2 cd bd 95 20 14 3d 4d a7 c3 bd
       -0.041749034 -0.10043861 0.036163885 -0.095533945
000020 3a f9 33 3c de 3f 1f be 2e 20 3d bd 57 da 5b bd
       0.010984713 -0.15551707 -0.046173267 -0.053675022
000030 e2 80 90 bc 02 1c 65 be 2a d9 94 bd 1d fc b2 bd
       -0.017639581 -0.22373965 -0.07267983 -0.08739493
000040 3e ea b1 3d 1a 0d a9 bd 9c 90 14 bc d3 d2 22 3d
       0.08687256 -0.08254452 -0.009067681 0.03975184
000050 1d 4e 20 bd 59 02 f3 bc 69 59 39 bd 09 d4 6d 3d
       -0.039136995 -0.029664205 -0.045251284 0.05806354
000060 2b c7 53 3c cc b1 35 3d 11 3c 72 3d 38 3a 99 bc
       0.012925903 0.044359013 0.059139315 -0.018704519
000070 ad 48 01 bd 0d fd 55 3c fd 82 54 bd e0 94 2a bd
       -0.03156345 0.01306082 -0.051882733 -0.041645885
000080 12 e0 84 be 85 f0 6c 3c 75 ea 6e 3d d7 bc c3 bd
       -0.25952202 0.014461641 0.058329064 -0.09557503
000090 ea 21 47 3d e8 95 6f 3d c3 ee bc bc 64 dc c9 3d
       0.048616327 0.05849257 -0.02306307 0.09856489
0000a0 ef 92 eb 3c e7 8b 17 3c ba 53 e2 bb a5 e0 03 3c
       0.028756587 0.009249664 -0.0069069536 0.008049165
0000b0 4d 18 2b bc b9 24 e5 bd b5 aa 73 be 88 e3 18 3d
       -0.0104428055 -0.11188645 -0.23795588 0.037326366
0000c0 eb 66 c4 bd 8d d2 93 3c 89 7b 16 bd 8e 76 aa 3d
       -0.095899425 0.018044734 -0.036738906 0.08323394
0000d0 0d ea c9 bd ac 07 b5 3d 1e 9b fc bc f4 c9 9a 3c
       -0.09859095 0.08839354 -0.030835684 0.018895127
0000e0 f9 2d 4c be 83 11 8a bd ff 40 25 bd 09 2c 61 bd
       -0.19939412 -0.06741621 -0.04034519 -0.054973636
0000f0 9e 3d 0a be 3b c4 65 bd cb 36 0d bd 60 b1 3d bd
       -0.13500068 -0.056095343 -0.034476083 -0.046311736

encoder.block1.convblock3.1.running_var f4 [64]
000000 4e 65 c7 3b a8 11 c2 3b 8a 6a 97 3c 11 6f b0 3b
       0.0060850745 0.005922515 0.018483419 0.005384334
000010 fd f4 1f 3d af 66 4e 3c 15 4d 03 3d ac f1 82 3c
       0.039052 0.012597724 0.032055933 0.015984379
000020 5a 36 21 3b ca 25 c5 3c 87 c4 4e 3b 82 57 e0 3c
       0.0024599046 0.02406587 0.0031550245 0.027385477
000030 53 51 1e 3b f7 2c a0 3d 88 ea 5b 3d 79 e2 26 3c
       0.002415736 0.07821076 0.053690463 0.010185831
000040 30 41 a0 3c b4 1c 8c 3d 4b aa 5c 3d 6e 04 91 3b
       0.019562334 0.06841412 0.05387334 0.004425577
000050 2d 86 97 3d 74 04 0e 3e 53 23 bd 3b 70 06 d2 3b
       0.07398639 0.13868886 0.0057720332 0.006409459
000060 c2 6a f3 3b c1 5c e4 3d 08 04 06 3c ff 0e 3d 3c
       0.007428498 0.11150504 0.008179672 0.01153922
000070 d6 df 94 3b 34 60 ca 3b 8e a8 cc 3b 0f 80 58 3d
       0.004543285 0.006176019 0.006245679 0.0528565
000080 63 26 a6 3d 2f e4 06 3c 03 6a ff 3b 63 50 85 3b
       0.081127904 0.008233114 0.00779462 0.0040684207
000090 28 ce 92 3c 53 5f 84 3b 3a a7 8e 3c d0 62 0b 3d
       0.017920569 0.004039684 0.017413724 0.03402978
0000a0 5a e2 50 3c 55 ee 11 3d 6d 4b 24 3d a2 9a 0b 3c
       0.012749279 0.03562768 0.040110994 0.008520754
0000b0 6b 7b e5 3c 6a 90 e7 3b 2b d6 93 3d c2 ef 38 3b
       0.028012952 0.007066776 0.07218584 0.0028219079
0000c0 d2 1c d4 3c e1 2e 2a 3b 06 14 d0 3c ba 19 cc 3c
       0.025892649 0.0025967883 0.025400173 0.024914611
0000d0 39 b7 bd 3c 37 59 8f 3c fe 16 25 3d cb 92 2b 3c
       0.023158656 0.017498596 0.04030513 0.01047201
0000e0 a7 46 45 3d 52 d5 81 3c 32 ce 44 3c c4 a0 ab 3b
       0.048163082 0.01584879 0.012012051 0.0052376706
0000f0 6e 33 0f 3d 39 67 27 3d 27 60 f9 3b cd df 00 3c
       0.034961157 0.040869925 0.007610339 0.007865858
