ldpi/training/output/ResCNN/best_model_with_center.pth (torch, 711778 bytes, 64 tensors)

encoder.block1.convblock1.0.depthwise_conv.weight f4 [1, 1, 7]
0.28926125 2.064944 0.20999159 0.34423772 0.13085932 -0.1539867 0.000301684
00000000: 0d1a 943e 0b28 0440 0908 573e ed3f b03e
00000010: fcff 053e b1ae 1dbe 572b 9e39

encoder.block1.convblock1.0.pointwise_conv.weight f4 [64, 1, 1]
0.03807816 0.041008744 0.035202343 0.027405072 -0.03527833 0.043402266 0.02385706 -0.03669261
0.02031346 -0.012182215 0.0373518 -0.014866345 -0.035686545 0.036388062 0.013885893 0.027486105
-0.0280988 0.027574101 0.03611997 0.03881798 -0.030527815 -0.026754212 0.04239356 0.046311602
-0.047402624 -0.096526064 0.0008986501 0.078774124 0.01159497 0.0343588 -0.032575034 -0.034483492
-0.029131074 -0.009199882 0.06387473 -0.03801279 0.03999191 -0.022919877 -0.020871636 -0.009180004
0.044332974 -0.022891676 -0.03510978 0.030770326 0.007807421 -0.03212385 0.032134924 -0.032319896
-0.03413036 0.023407293 0.038279288 0.014518626 0.029424103 -0.04256607 -0.010170081 -0.000837492
-0.03825334 -0.021487828 6.2e-43 0.049648553 0.0028065385 -0.054650974 0.027160171 -0.0010229881
00000000: d8f7 1b3d c9f8 273d 5530 103d 9a80 e03c
00000010: 0380 10bd 93c6 313d e26f c33c fd4a 16bd
00000020: 6a68 a63c ea97 47bc 33fe 183d f891 73bc
00000030: 0e2c 12bd a60b 153d a881 633c 8a2a e13c
00000040: 742f e6bc 15e3 e13c 89f2 133d 9aff 1e3d
00000050: 7815 fabc a62b dbbc dfa4 2d3d 3cb1 3d3d
00000060: 4129 42bd 75af c5bd 6393 6b3a 5454 a13d
00000070: d4f8 3d3c d0bb 0c3d 666d 05bd 903e 0dbd
00000080: 4aa4 eebc 1abb 16bc c1d0 823d 4db3 1bbd
00000090: 8fce 233d 77c2 bbbc fefa aabc ba67 16bc
000000a0: 7e96 353d 5387 bbbc 46cf 0fbd 0d12 fc3c
000000b0: 65d5 ff3b 4c94 03bd e99f 033d de61 04bd
000000c0: 47cc 0bbd a7c0 bf3c beca 1c3d 88df 6d3c
000000d0: d10a f13c c259 2ebd 69a0 26bc 238b 5bba
000000e0: 89af 1cbd 3e07 b0bc ba01 0000 485c 4b3d
000000f0: e7ed 373b b3d9 5fbd 027f de3c c915 86ba

encoder.block1.convblock1.1.weight f4 [64]
0.09665846 0.49917525 0.11902917 0.2279461 0.40629485 0.22161964 0.2279721 0.34238625
0.06356089 0.1743737 0.4176978 0.094818495 0.19714639 0.15155876 0.030963957 0.2562995
0.18063551 0.036430955 0.27458814 0.08910182 0.2592616 0.26980865 0.39862865 0.45266354
0.5068197 0.31458482 0.15047204 0.2872625 0.052778207 0.05381508 0.23580483 0.17402397
0.4701988 0.059489846 0.41932198 0.04268392 0.45611376 0.3690003 0.14461438 0.09078908
0.3117692 0.03749772 0.25798324 0.034097683 0.05807323 0.19833624 0.042719007 0.31016368
0.14717835 0.11956818 0.45020938 0.08780719 0.07307043 0.56854814 0.24104035 0.06426668
0.21579814 0.19668546 2.605e-42 0.4154564 0.19052528 0.69107044 0.5530833 0.160474
00000000: dff4 c53d e693 ff3e 91c5 f33d b46a 693e
00000010: e105 d03e 42f0 623e 8571 693e 404d af3e
00000020: 362c 823d 058f 323e 7cdc d53e 3330 c23d
00000030: bee0 493e 3832 1b3e 20a8 fd3c b039 833e
00000040: 84f8 383e a038 153d d196 8c3e 047b b63d
00000050: f0bd 843e 5c24 8a3e 0e19 cc3e 84c3 e73e
00000060: f0be 013f 4311 a13e 5815 1a3e 1214 933e
00000070: f62d 583d 346d 5c3d d276 713e 5733 323e
00000080: e6bd f03e a0ab 733d 5fb1 d63e 56d5 2e3d
00000090: be87 e93e 9bed bc3e cb15 143e a0ef b93d
000000a0: 36a0 9f3e 3697 193d 6116 843e 03aa 0b3d
000000b0: 32de 6d3d a818 4b3e 20fa 2e3d c6cd 9e3e
000000c0: ecb5 163e 29e0 f43d d881 e63e 42d4 b33d
000000d0: f3a5 953d 5f8c 113f 48d3 763e 409e 833d
000000e0: 30fa 5c3e ea67 493e 4307 0000 b4b6 d43e
000000f0: 0f19 433e fee9 303f de96 0d3f 4c53 243e

encoder.block1.convblock1.1.bias f4 [64]
-0.12399492 0.037483398 0.024190983 -0.18201905 0.064065255 0.36870563 0.058258288 0.064752795
-0.07026882 -0.281501 0.016004913 0.10303343 0.0073353155 -0.05032129 -0.09165739 -0.3680593
-0.22359225 -0.06237365 0.02100115 0.17418589 -0.06693619 -0.10298663 0.11583897 0.03431848
-0.072072126 0.13131905 -0.13052167 0.38369477 -0.07823207 -0.07200116 -0.06839651 -0.03743679
-0.19290398 -0.026819065 -0.24831179 -0.011767647 0.22698751 -0.13046756 -0.08522475 -0.01184107
0.011002772 -0.05047759 0.3518715 -0.04323759 0.01650554 0.029773941 -0.042370226 0.3676434
0.099561706 -0.23490144 0.16159728 -0.025731737 -0.095596515 -0.18184905 -0.3852023 -0.021196
-0.34546813 0.21697505 0.80605847 0.46898705 -0.3713819 -0.12338547 -0.24936582 -0.06566259
00000000: 0cf1 fdbd 3188 193d 2b2c c63c 3463 3abe
00000010: a534 833d fcc6 bc3e 3ea0 6e3d 1d9d 843d
00000020: 19e9 8fbd e620 90be bc1c 833c 3103 d33d
00000030: 165d f03b b21d 4ebd dfb6 bbbd 4572 bcbe
00000040: 5ef5 64be 837b 7fbd 9b0a ac3c c95d 323e
00000050: d715 89bd a7ea d2bd fb3c ed3d 8991 0c3d
00000060: 8d9a 93bd 8078 063e 79a7 05be a473 c43e
00000070: 2338 a0bd 5875 93bd 7813 8cbd 5257 19bd
00000080: 9f88 45be a8b3 dbbc 7245 7ebe 17cd 40bc
00000090: 6a6f 683e 4a99 05be 508a aebd 0c01 42bc
000000a0: f844 343c 97c1 4ebd 8028 b43e e619 31bd
000000b0: a036 873c 7be8 f33c 678c 2dbd c13b bc3e
000000c0: 02e7 cb3d 018a 70be c279 253e 5dcb d2bc
000000d0: 1bc8 c3bd a336 3abe 3c39 c5be 3ca3 adbc
000000e0: 33e1 b0be b52e 5e3e d959 4e3f 121f f03e
000000f0: c525 bebe 85b1 fcbd c159 7fbe 1c7a 86bd

encoder.block1.convblock1.1.running_mean f4 [64]
0.02952891 0.031802215 0.027298804 0.021252237 -0.027357863 0.033658616 0.018501207 -0.02845462
0.015752718 -0.0094470875 0.028966324 -0.011528665 -0.027674224 0.028218308 0.010768258 0.02131511
-0.021790113 0.021383213 0.028010758 0.03010264 -0.023673652 -0.020747246 0.032875836 0.035914287
-0.03676019 -0.07485422 0.00069688674 0.061088018 0.008991654 0.026644617 -0.025261525 -0.026741318
-0.022590086 -0.0071342913 0.049533747 -0.029478218 0.031013912 -0.017773049 -0.016185826 -0.007118769
0.034379475 -0.017752085 -0.027227122 0.023861825 0.006054537 -0.024911422 0.024920046 -0.025063872
-0.026467476 0.018151911 0.029685076 0.01125898 0.022817846 -0.03300918 -0.007886709 -0.0006494599
-0.02966476 -0.016663268 4.76e-43 0.038498092 0.00217642 -0.042380445 0.021063788 -0.00079330854
00000000: 9de6 f13c 0a43 023d bea1 df3c 2c19 ae3c
00000010: 991d e0bc 9edd 093d d88f 973c aa19 e9bc
00000020: d80b 813c f5c7 1abc c94a ed3c bae2 3cbc
00000030: 0eb5 e2bc 152a e73c 596d 303c 079d ae3c
00000040: 2e81 b2bc d92b af3c d176 e53c d099 f63c
00000050: 3fef c1bc 21f6 a9bc d0a8 063d dc1a 133d
00000060: da91 16bd 2b4d 99bd 47af 363a 6e37 7a3d
00000070: bb51 133c d045 da3c 42f1 cebc 9c10 dbbc
00000080: d80e b9bc c6c6 e9bb e6e3 4a3d 4e7c f1bc
00000090: e310 fe3c c998 91bc 2398 84bc 9044 e9bb
000000a0: 7ed1 0c3d d26c 91bc 6a0b dfbc e079 c33c
000000b0: 2365 c63b 0a13 ccbc 2025 cc3c c052 cdbc
000000c0: 52d2 d8bc 51b3 943c 1e2e f33c 9677 383c
000000d0: 7eec ba3c a234 07bd 4137 01bc 8440 2aba
000000e0: 8303 f3bc 6881 88bc 5401 0000 2db0 1d3d
000000f0: 45a2 0e3b 1e97 2dbd f78d ac3c 09f6 4fba

encoder.block1.convblock1.1.running_var f4 [64]
0.0007457574 0.00086500356 0.0006373676 0.0003862887 0.00064012856 0.0009689373 0.00029275438 0.00069248193
0.00021223341 7.6330594e-05 0.0007176121 0.00011367394 0.00065501867 0.00068102754 9.917304e-05 0.00038857778
0.0004060894 0.00039106476 0.00067104655 0.0007750183 0.00047932856 0.00036814896 0.0009243927 0.0011031573
0.0011557355 0.004792203 4.1536242e-07 0.003191647 6.9148366e-05 0.0006071859 0.0005457855 0.0006116014
0.00043645382 4.3531574e-05 0.0020984823 0.00074319914 0.0008226519 0.00027016315 0.00022406428 4.334233e-05
0.0010108842 0.00026952644 0.0006340249 0.00048697885 3.135195e-05 0.000530762 0.0005311296 0.00053727836
0.0005991393 0.00028180415 0.0007536661 0.00010841791 0.00044529932 0.0009319063 5.319789e-05 3.6075082e-07
0.00075263495 0.00023747773 6e-45 0.0012675924 4.0512427e-06 0.0015361496 0.00037946936 5.3825363e-07
00000000: ef7e 433a 68c1 623a 0415 273a cb86 ca39
00000010: 4dce 273a 4800 7e3a d47c 9939 ad87 353a
00000020: f98a 5e39 ad13 a038 221e 3c3a 3b64 ee38
00000030: 8fb5 2b3a fc86 323a 1ffb cf38 07ba cb39
00000040: 66e8 d439 d307 cd39 2ce9 2f3a 992a 4b3a
00000050: 644e fb39 1e04 c139 f252 723a d197 903a
00000060: 0c7c 973a ea07 9d3b fafe de34 f32a 513b
00000070: bf03 9138 8e2b 1f3a 0b13 0f3a e053 203a
00000080: d7d3 e439 ac95 3638 b186 093b 40d3 423a
00000090: 3ca7 573a afa4 8d39 ccf2 6a39 79ca 3538
000000a0: a57f 843a 3a4f 8d39 b134 263a 3251 ff39
000000b0: e67f 0338 d622 0b3a 813b 0b3a 24d8 0c3a
000000c0: 8f0f 1d3a 1dbf 9339 ad91 453a 6c5e e338
000000d0: 1077 e939 2c4b 743a cd20 5f38 37ad c134
000000e0: 7a4c 453a 7103 7939 0400 0000 5825 a63a
000000f0: e9ef 8736 a158 c93a 84f3 c639 827c 1035

encoder.block1.convblock2.0.depthwise_conv.weight f4 [64, 1, 5]
-0.0762015 -0.03387955 -0.028397026 -0.04027215 -0.02029222 0.05443468 0.12271475 0.023911497
0.23172486 0.27205685 -0.07271031 -0.02482944 -0.035053432 -0.03326496 -0.061852053 -0.018022077
-0.027856043 -0.07533683 -0.04480884 -0.088267006 -0.093829304 0.17782114 -0.06063287 0.076998115
0.22838974 -0.12879322 -0.47356278 0.39638102 0.029139452 -0.27698267 0.26315168 -0.07688601
-0.094776325 -0.018142931 0.01414519 -0.04697438 0.08313978 -0.062257938 0.14306998 0.22742255
-0.0014588991 -0.0036924856 0.0047154897 0.012385807 0.0019719652 0.05436148 0.022488497 0.04054584
0.082237385 0.08140248 0.076545335 0.14061145 0.075877525 0.19162402 0.21018748 0.035535444
-0.02928609 0.016309677 -0.04376445 -0.051850714 -0.031200495 -0.042241927 -0.088963754 -0.016091162
0.0007190566 0.0072989226 -0.16805573 -0.01918206 0.013922214 -0.029378753 -0.007002736 -0.0152784
0.00072522956 0.031101283 -0.0016254723 0.19711031 0.16169262 0.09799016 0.14701283 0.11279561
-0.06943416 -0.014261023 -0.034718014 -0.055866964 -0.11063342 0.005025257 0.0011794608 -0.026099686
-0.022524845 -0.029310172 0.27055734 0.044579513 0.032754023 0.033638462 -0.06505299 0.120479554
-0.004868008 -0.033204943 -0.017328411 -0.02262867 -0.1766868 -0.056813516 -0.024674421 -0.03506242
-0.099636786 0.07530264 0.038452458 0.10591067 0.077101424 0.085466236 -0.0994421 -0.0811175
-0.08813759 -0.18570825 -0.19250672 -0.15339388 -0.14861219 -0.17409404 -0.099108145 -0.2380618
0.1393069 -0.17212032 0.51031435 -0.0881257 -0.26104072 -0.021539226 -0.054207534 -0.06234174
-0.11082355 0.16603178 0.021338604 -0.03756793 -0.0190761 -0.02825045 -0.043627635 -0.3068656
-0.6566528 0.19868934 0.21336015 0.2721173 0.013141283 0.013134039 0.028127862 0.011200718
0.040724326 -0.016299628 -0.02409011 -0.014870213 -0.038154997 -0.021355161 -0.061504014 0.05647149
-0.014719632 0.122224815 0.19781083 0.007144828 -0.17890055 0.028375836 -0.01121896 -0.036706135
0.13084885 -0.025036976 0.1597666 0.0140836965 0.06611789 -0.036833793 -0.01493894 -0.014939636
-0.00504371 -0.024748709 -0.32698599 -0.07229531 -0.19841306 -0.18293485 0.8035242 -0.0018111559
-0.019023871 0.0011097499 0.014885948 0.015227482 0.035568703 0.0901008 -0.0064607747 0.31429118
0.29046336 0.1497732 0.04682975 0.11024622 0.03329655 0.105816536 0.2849829 -0.13431917
0.07109804 -0.030438626 -0.09246712 -0.04132249 -0.029865166 -0.017496798 -0.010852982 -0.025091799
0.36531913 -0.03264611 0.023700148 0.01108961 -0.222371 0.006058882 0.005819186 0.0056701098
-0.02650355 -0.0003783298 -0.17583856 0.109470814 -0.13584863 0.025248626 0.19076054 -0.021779044
-0.056518596 -0.0016714273 0.0092321215 0.002411672 -0.022421753 -0.016562015 -0.033903386 -0.016086895
-0.003389061 0.045146096 0.025605634 0.08458123 -0.041019287 -0.0046319226 0.0027453532 0.035581704
-0.04630884 -0.0072823744 0.03108205 -0.014690003 -0.021013305 -0.071694866 -0.15609859 -0.11669725
0.035927173 0.042096347 -0.01801044 -0.09602509 -0.053853396 -0.02855471 -0.009833295 -0.03424172
-0.03606889 -0.042140223 0.017214393 -0.29427165 -0.2386239 -0.11148653 -0.15948749 0.07284306
00000000: 880f 9cbd 48c5 0abd e1a0 e8bc 69f4 24bd
00000010: df3b a6bc e6f6 5e3d df51 fb3d 0be2 c33c
00000020: 4849 6d3e 094b 8b3e 25e9 94bd 1c67 cbbc
00000030: 3094 0fbd d740 08bd 9458 7dbd 09a3 93bc
00000040: 5b32 e4bc 324a 9abd 7989 37bd 55c5 b4bd
00000050: 9429 c0bd bf16 363e 2c5a 78bd 30b1 9d3d
00000060: 00df 693e 5fe2 03be d276 f2be 74f2 ca3e
00000070: dcb5 ee3c acd0 8dbe d1bb 863e 6a76 9dbd
00000080: 171a c2bd 7ca0 94bc 3ac1 673c 3568 40bd
00000090: 3045 aa3d 2e02 7fbd f080 123e 75e1 683e
000000a0: 8838 bfba a1fd 71bb 6584 9a3b d7ed 4a3c
000000b0: 163c 013b 25aa 5e3d cc39 b83c 6513 263d
000000c0: 136c a83d 58b6 a63d cdc3 9c3d 73fc 0f3e
000000d0: ad65 9b3d 1639 443e 633b 573e 9d8d 113d
000000e0: 62e9 efbc df9b 853c 5a42 33bd 6a61 54bd
000000f0: 2e98 ffbc df05 2dbd a132 b6bd 9dd1 83bc
00000100: 127f 3c3a cd2b ef3b cd16 2cbe b223 9dbc
00000110: ff19 643c b6ab f0bc 3577 e5bb 4152 7abc
00000120: 551d 3e3a 1ec8 fe3c cd0d d5ba 49d7 493e
00000130: c092 253e 11af c83d 888a 163e 6301 e73d
00000140: 7f33 8ebd 11a7 69bc 7a34 0ebd c2d4 64bd
00000150: c693 e2bd e9aa a43b 2398 9a3a 02cf d5bc
00000160: 0686 b8bc e31b f0bc 7e86 8a3e 0299 363d
00000170: 1529 063d 7cc8 093d 813a 85bd fcbd f63d
00000180: d083 9fbb e801 08bd 50f4 8dbc c35f b9bc
00000190: 62ed 34be 4ab5 68bd 0322 cabc 9d9d 0fbd
000001a0: 5f0e ccbd 4538 9a3d 5380 1d3d b1e7 d83d
000001b0: 5ae7 9d3d ec08 af3d 4da8 cbbd ef20 a6bd
000001c0: 7b81 b4bd 4e2a 3ebe 7b20 45be 4913 1dbe
000001d0: cb2d 18be b545 32be 36f9 cabd 79c6 73be
000001e0: 78a6 0e3e 4f40 30be f6a3 023f 3f7b b4bd
000001f0: 21a7 85be 0873 b0bc b808 5ebd 0d5a 7fbd
00000200: 75f7 e2bd 3c04 2a3e 4cce ae3c d4e0 19bd
00000210: 7b45 9cbc 7d6d e7bc e4b2 32bd 7d1d 9dbe
00000220: 661a 28bf 3875 4b3e 157b 5a3e f552 8b3e
00000230: 894e 573c 2730 573c 676c e63c 3783 373c
00000240: 8dce 263d cc86 85bc 9f58 c5bc 32a2 73bc
00000250: 6a48 1cbd 05f1 aebc a2eb 7bbd a64e 673d
00000260: 9d2a 71bc 0151 fa3d ec8e 4a3e 291f ea3b
00000270: b531 37be 7174 e83c bbcf 37bc 2c59 16bd
00000280: 3efd 053e 581a cdbc db99 233e 4ebf 663c
00000290: d168 873d 08df 16bd 75c2 74bc 60c5 74bc
000002a0: b545 a5bb cebd cabc b56a a7be 900f 94bd
000002b0: cb2c 4bbe 4653 3bbe c3b3 4d3f 4f64 edba
000002c0: f3d7 9bbc 0775 913a 31e4 733c b07c 793c
000002d0: 7db0 113d c586 b83d e8b4 d3bb c6ea a03e
000002e0: 9db7 943e 255e 193e 8dd0 3f3d c5c8 e13d
000002f0: f761 083d 57b6 d83d 47e9 913e f78a 09be
00000300: d99b 913d 6d5a f9bc 675f bdbd c541 29bd
00000310: cba7 f4bc 7255 8fbc b5d0 31bc 518d cdbc
00000320: 1c0b bb3e edb7 05bd d026 c23c 32b1 353c
00000330: 39b5 63be 9689 c63b dfae be3b 54cc b93b
00000340: f91d d9bc 915a c6b9 060f 34be 3c32 e03d
00000350: e71b 0bbe 35d6 ce3c bb56 433e f769 b2bc
00000360: 0b80 67bd cb13 dbba 5342 173c 240d 1e3b
00000370: d3ad b7bc 10ad 87bc 47de 0abd aac8 83bc
00000380: 021b 5ebb 1deb 383d e8c2 d13c ed38 ad3d
00000390: d703 28bd 62c7 97bb 62eb 333b 1fbe 113d
000003a0: 57ae 3dbd fca0 eebb c99f fe3c 57ae 70bc
000003b0: 1824 acbc c2d4 92bd 4fd8 1fbe f8fe eebd
000003c0: 5f28 133d 386d 2c3d a18a 93bc cda8 c4bd
000003d0: 6195 5cbd 91eb e9bc d41b 21bc 0c41 0cbd
000003e0: f9bc 13bd 3a9b 2cbd 3305 8d3c c6aa 96be
000003f0: d359 74be 0d53 e4bd b050 23be be2e 953d

encoder.block1.convblock2.0.pointwise_conv.weight f4 [64, 64, 1]
0.0018838433 -0.047206 -0.0053064465 0.02789072 -0.04982472 -0.017809374 -0.007905221 -0.03060497
-0.002345436 0.01874186 -0.025134748 0.0024653946 0.006394835 0.01500635 0.0015887376 0.02506555
0.035115212 0.0010146784 -0.011020154 -0.03794981 -0.018556967 0.018544516 0.034592137 -0.0019396899
0.010976709 -0.019764746 -0.034130607 0.08614356 0.001514731 0.0019182372 0.011466845 -0.012880277
0.035304155 -0.0011182883 0.09499403 -0.00092650775 -0.06323019 0.030732162 -0.019291822 -0.001954726
-0.051330283 -0.0034664494 0.027432473 -0.0008391272 -0.00035905 -0.024096848 0.0055642747 0.038967136
0.003184671 -0.009682921 -0.064213105 -0.0072089634 -0.0010115021 -0.038100928 -0.032539092 0.009239448
0.0332497 -0.023208346 0.15309118 -0.06434229 0.0004326073 -0.15917896 0.065019794 0.012662543
-0.0036361832 0.020812362 -0.0020950139 -0.0018014192 0.027705008 0.007570598 -0.0010625486 0.014750696
0.0036190692 -0.0024694246 0.012601769 -0.009947942 -0.0064541474 0.003430895 -0.0035657503 0.0055433814
-0.0010048851 -0.0026006566 0.011752092 -0.008319679 0.006284392 0.0072643785 -0.019638415 -0.015766945
-0.038244087 -0.02117415 0.00036389744 0.0023580706 0.0047446755 -0.0053504207 0.015127922 -0.014709323
0.01685446 -0.0044161174 -0.0443588 -0.0012409271 0.02167293 0.0022235613 -0.032832876 0.0029418343
0.026403729 0.002337416 0.059274733 0.005998783 -0.0031291118 0.007324961 -0.0059099304 -0.0053930874
-0.0043045483 -0.00014977003 -0.01858331 0.00026151066 -0.0038047913 0.008292341 -0.012870464 -0.0029010219
0.012031919 0.023205806 0.06447114 -0.09522294 -0.005875858 -0.012648019 -0.020035302 -0.0012660654
0.010008795 0.035241503 0.0032752869 -0.00796842 0.044343997 0.011083348 0.0018640604 0.024070011
0.0034237627 -0.017901491 0.023379046 -0.004061135 -0.010029656 -0.005683266 -0.0020557435 -0.03731722
-0.010522695 0.0072736447 0.00027976502 0.0060984655 0.015788566 -0.007317036 -0.02014868 0.0067683677
-0.01532265 0.02841639 0.0020148081 -0.062241726 -0.0034590792 0.0044889706 -0.010185971 -0.0055442704
-0.017176002 0.0033046135 -0.06823681 0.00092580204 0.0312138 -0.010300257 -0.006010627 0.0055813864
0.0038782568 0.0011867085 0.008442777 -0.0014546022 0.0031239146 0.0015528245 0.0029295997 -0.0145535935
-0.015048566 0.0015690159 0.01502508 -0.001414658 -0.004587992 0.016651688 0.0078269215 -0.0052622743
-0.016834587 0.0072300793 0.0073963366 -0.01520202 0.02932603 0.05096305 -0.04544237 -0.003869348
-0.002662698 0.0013285596 -0.0016150178 -0.006051286 -0.0013176972 -0.0059714634 -0.003831025 -0.0007319401
0.0020347605 -0.0010745913 -0.0024612348 0.0034382811 -0.002917742 -0.0008909258 -0.00042291082 -0.0013824423
0.0017584233 -0.0033681474 -0.002560751 0.0027960776 0.0032884614 0.00097480125 0.00027869485 -0.0028423362
-0.0021970712 0.00032585682 0.0028891081 -0.010489889 0.0020018334 -0.0067143776 -0.004341475 -0.003860083
0.0014890514 0.0035679436 -0.005301633 0.003306028 0.005019282 0.0025602856 0.0017982584 0.004045166
-0.0016226773 -0.004121221 0.006458848 0.006198672 0.0016914244 0.0009612519 0.010652818 -0.00015903746
0.0027551416 -0.0036240027 0.0023035929 0.0016205747 -0.0035368088 0.0020589307 0.00043037903 -0.0010886318
0.00010757909 0.0046423953 0.029094025 -0.0002103084 0.0041679353 -0.0040997625 -0.0011126619 0.00013986901
00000000: 4beb f63a 145b 41bd b3e1 adbb 147b e43c
00000010: 0115 4cbd f7e4 91bc e684 01bc 46b7 fabc
00000020: e3b5 19bb 8788 993c 63e7 cdbc 7592 213b
00000030: c48b d13b 32dd 753c 303d d03a 4556 cd3c
00000040: f8d4 0f3d f5fe 843a e08d 34bc 4371 1bbd
00000050: c804 98bc abea 973c 7cb0 0d3d 313d feba
00000060: a8d7 333c ade9 a1bc 89cc 0bbd 096c b03d
00000070: f089 c63a 5c6d fb3a 6fdf 3b3c cc07 53bc
00000080: 179b 103d 8793 92ba 3b8c c23d e2e0 72ba
00000090: d47e 81bd 04c2 fb3c e209 9ebc dc1a 00bb
000000a0: b43f 52bd 5f2d 63bb 11ba e03c e0f8 5bba
000000b0: e03e bcb9 c166 c5bc 8554 b63b 019c 1f3d
000000c0: eab5 503b 1da5 1ebc 2982 83bd 2b39 ecbb
000000d0: 6194 84ba b80f 1cbd b647 05bd 0e61 173c
000000e0: d630 083d 6e1f bebc efc3 1c3e e4c5 83bd
000000f0: 92cf e239 cfff 22be 1929 853d 8e76 4f3c
00000100: 084d 6ebb b07e aa3c 804c 09bb 991d ecba
00000110: 9df5 e23c c712 f83b 3745 8bba e7ac 713c
00000120: e82d 6d3b 12d6 21bb a677 4e3c b1fc 22bc
00000130: 507d d3bb ded8 603b 5daf 69bb 41a5 b53b
00000140: 59b6 83ba c76f 2abb d98b 403c 434f 08bc
00000150: 4ded cd3b 060a ee3b bee0 a0bc ae29 81bc
00000160: d5a5 1cbd 6975 adbc 7dc9 be39 dc89 1a3b
00000170: 3979 9b3b 9552 afbb 1bdb 773c 5fff 70bc
00000180: 5d12 8a3c 14b5 90bb 93b1 35bd 9ba6 a2ba
00000190: 6e8b b13c 2bb9 113b c47b 06bd cacb 403b
000001a0: a24c d83c 552f 193b 10ca 723d 7091 c43b
000001b0: c911 4dbb 3a06 f03b 17a8 c1bb 7fb8 b0bb
000001c0: 2b0d 8dbb 960b 1db9 073c 98bc 5e1b 8939
000001d0: ce59 79bb 99dc 073c a3de 52bc 121f 3ebb
000001e0: 8721 453c 1a1a be3c 7209 843d 3f04 c3bd
000001f0: 458a c0bb a339 4fbc 1321 a4bc 1bf2 a5ba
00000200: eefb 233c 6559 103d 32a6 563b fa8d 02bc
00000210: 0da2 353d ee96 353c 7d53 f43a 792e c53c
00000220: 3561 603b 26a6 92bc 6a85 bf3c 4513 85bb
00000230: 6d53 24bc b13a babb a7b9 06bb f1d9 18bd
00000240: 6267 2cbc c157 ee3b 6dad 9239 a3d5 c73b
00000250: 0657 813c bfc3 efbb d80e a5bc 2fc9 dd3b
00000260: da0b 7bbc 7dc9 e83c df0a 043b 2ef1 7ebd
00000270: b8b1 62bb 3718 933b 0fe3 26bc b6ac b5bb
00000280: b0b4 8cbc 3792 583b bebf 8bbd 86b1 723a
00000290: 15b4 ff3c 69c2 28bc cbf4 c4bb 10e4 b63b
000002a0: 5a2a 7e3b 548b 9b3a 9353 0a3c 5aa8 beba
000002b0: 97ba 4c3b 2588 cb3a 87fe 3f3b 3272 6ebc
000002c0: 438e 76bc 70a7 cd3a c12b 763c 0c6c b9ba
000002d0: de56 96bb 1f69 883c 7d3c 003c 286f acbb
000002e0: b0e8 89bc 4dea ec3b f85c f23b e511 79bc
000002f0: 243d f03c a2be 503d c721 3abd e394 7dbb
00000300: a980 2ebb 1023 ae3a 01af d3ba de49 c6bb
00000310: 95b6 acba 44ac c3bb ef11 7bbb abdf 3fba
00000320: 9e59 053b 4dd9 8cba ab4c 21bb c954 613b
00000330: 9637 3fbb 058d 69ba 21ba ddb9 1133 b5ba
00000340: e57a e63a 23bc 5cbb 46d2 27bb 663e 373b
00000350: 3a83 573b ce89 7f3a ca1d 9239 7d46 3abb
00000360: bdfc 0fbb c3d7 aa39 3157 3d3b c9dd 2bbc
00000370: 3131 033b 4804 dcbb ef42 8ebb 72f9 7cbb
00000380: 462c c33a 29d4 693b 52b9 adbb f2a9 583b
00000390: ca78 a43b 77ca 273b 8ab3 eb3a 508d 843b
000003a0: 04b0 d4ba 4f0b 87bb bea4 d33b 3b1e cb3b
000003b0: c9b2 dd3a 86fc 7b3a 2889 2e3c 4bc3 26b9
000003c0: 9b8f 343b ad80 6dbb e0f7 163b 7769 d43a
000003d0: cec9 67bb 20ef 063b 7fa4 e139 6cb0 8eba
000003e0: 169c e138 3c1f 983b 9856 ee3c 3b86 5cb9
000003f0: 2d93 883b 4d57 86bb bdd6 91ba cda9 1239

encoder.block1.convblock2.1.weight f4 [64]
0.2464108 0.15948993 0.12764147 0.05012473 0.48104352 0.045626536 0.12648183 0.08298955
0.1120621 0.04397448 0.07640154 0.19339101 0.67986196 0.1813827 0.042677183 0.28031716
0.051305704 0.62838215 0.057095237 0.034788255 0.12599471 0.05805657 0.20175184 0.5298039
0.720741 0.47178307 0.16165595 0.524072 0.17996699 0.35075644 0.2605451 0.058675237
0.10528798 0.21923153 0.038818564 0.12204411 0.036999263 0.06971063 0.02633314 0.13169111
0.1767216 0.78651875 0.137116 0.81997967 0.5324536 0.060389955 0.10856028 0.309288
0.7556947 0.052355785 0.31452104 0.10013301 0.5727828 0.04024838 0.045784283 0.12133882
0.1161236 0.060065392 0.054454733 0.044677313 0.09334346 0.103384994 0.17637639 0.19573402
00000000: 1d53 7c3e 5451 233e 72b4 023e 974f 4d3d
00000010: 564b f63e e4e2 3a3d 7484 013e 6df6 a93d
00000020: d080 e53d 961e 343d 6978 9c3d 4b08 463e
00000030: 6f0b 2e3f 63bc 393e 45ce 2e3d bb85 8f3e
00000040: ee25 523d a7dd 203f b2dc 693d 217e 0e3d
00000050: c204 013e bacc 6d3d 0998 4e3e 3aa1 073f
00000060: 7b82 383f 8d8d f13e 2389 253e 9529 063f
00000070: 4449 383e 5996 b33e 2b66 853e 7255 703d
00000080: 39a1 d73d 3b7e 603e 3700 1f3d 43f2 f93d
00000090: 8a8c 173d 72c4 8e3d 99b8 d73c 09da 063e
000000a0: 82f6 343e 4b59 493f 2368 0c3e 30ea 513f
000000b0: e14e 083f 755b 773d da54 de3d ff5a 9e3e
000000c0: 3575 413f 0573 563d e708 a13e 8912 cd3d
000000d0: e5a1 123f 7cdb 243d 4d88 3b3d 7d80 f83d
000000e0: 36d2 ed3d 2107 763d ed0b 5f3d 8fff 363d
000000f0: db2a bf3d 83bb d33d 039c 343e 806e 483e

encoder.block1.convblock2.1.bias f4 [64]
-0.0737152 0.025495376 -0.035060592 0.0018886796 -0.042557668 0.0010967631 -0.08218493 -0.09637068
0.039796498 -0.07986408 0.0041125086 -0.11557527 -0.48510236 0.16283922 -0.0035864946 -0.2530817
0.0023151396 -0.23041065 0.011049717 -0.004088292 -0.10803428 0.010648235 0.032735463 0.10696247
0.14928193 0.061359692 0.0032223712 -0.14949735 0.034431912 -0.018523004 0.039914284 0.0014708664
0.00037557416 -0.15314639 -0.036662947 0.08736379 -0.0014606416 0.029585835 -0.2359673 -0.13294196
0.08099893 0.25965154 -0.30155075 -0.26522037 -0.1441124 -0.09778107 0.01041857 0.065276794
-0.4120929 -0.040679436 -0.0546567 0.0061357357 -0.012323295 0.0009529276 -0.033152126 0.03033463
-0.0042762277 0.006020553 -0.08040077 -0.03486915 0.01879339 -0.029568883 -0.31913 -0.05008859
00000000: fff7 96bd aedb d03c b29b 0fbd 928d f73a
00000010: f350 2ebd 43c1 8f3a 9350 a8bd fe5d c5bd
00000020: a701 233d c78f a3bd 39c2 863b bab2 ecbd
00000030: 565f f8be 53bf 263e 650b 6bbb ed93 81be
00000040: 99b9 173b c5f0 6bbe df09 353c 14f7 85bb
00000050: 1441 ddbd ef75 2e3c 9f15 063d 240f db3d
00000060: 5ddd 183e 4d54 7b3d 6b2e 533b d515 19be
00000070: 7a08 0d3d 8ebd 97bc 297d 233d 16ca c03a
00000080: b6e8 c439 68d2 1cbe e32b 16bd c9eb b23d
00000090: 0073 bfba fe5d f23c 69a1 71be f021 08be
000000a0: c4e2 a53d 0cf1 843e dc64 9abe f7ca 87be
000000b0: 3392 13be 7141 c8bd a6b2 2a3c d7af 853d
000000c0: d7fd d2be 7b9f 26bd b4df 5fbd 480e c93b
000000d0: a5e7 49bc e4cd 793a 86ca 07bd 5480 f83c
000000e0: 991f 8cbb 0f48 c53b 29a9 a4bd f4d2 0ebd
000000f0: 98f4 993c 713a f2bc 0265 a3be b129 4dbd

encoder.block1.convblock2.1.running_mean f4 [64]
-0.13678485 -0.03939639 0.013327291 -0.01575343 -0.17855366 -0.0032814723 0.008787202 0.00771587
0.022818886 0.0072793756 0.022768186 -0.030309264 0.16786638 -0.101916574 -0.0069648293 0.006484364
-0.018581208 0.018766435 0.0066346168 0.0050934437 0.013443598 -0.00020263229 -0.0055911043 0.010677214
0.009534653 -0.07626306 0.04109798 -0.06470618 0.011932431 0.015978063 0.29449767 -0.021834943
-0.014614846 0.0092090685 0.0024343587 0.021178355 -0.0016726396 0.012841019 -0.03137976 0.0027924709
-0.12132274 -0.031220967 -0.0094118 -0.06409273 -0.21564378 0.004581932 -0.0062491563 0.12412406
-0.122389905 0.008207774 -0.08805531 -0.008590123 -0.011948977 0.0040631033 -0.001366108 0.017682092
-0.039077118 0.006032948 0.003635356 -0.0021101683 0.02390001 0.007327625 -0.046331268 0.019636696
00000000: 5411 0cbe 1c5e 21bd b65a 5a3c 560d 81bc
00000010: c5d6 36be f80d 57bb 32f8 0f3c 69d5 fc3b
00000020: acee ba3c d487 ee3b 5984 ba3c 224b f8bc
00000030: 2ae5 2b3e a3b9 d0bd 3939 e4bb ca7a d43b
00000040: 9e37 98bc 11bc 993c 3367 d93b e7e6 a63b
00000050: 8942 5c3c b179 54b9 9535 b7bb 7bef 2e3c
00000060: 3c37 1c3c cf2f 9cbd 5b56 283d ac84 84bd
00000070: 3e80 433c 6de4 823c 66c8 963e 32df b2bc
00000080: 1b73 6fbc a2e1 163c c389 1f3b 3b7e ad3c
00000090: 793c dbba 2363 523c 1088 00bd e301 373b
000000a0: 0f78 f8bd 1dc3 ffbc f333 1abc 0d43 83bd
000000b0: b9d1 5cbe 0824 963b b9c5 ccbb c134 fe3d
000000c0: 8fa7 fabd e679 063c 5856 b4bd 96bd 0cbc
000000d0: a4c5 43bc c823 853b fa0e b3ba 09da 903c
000000e0: 540f 20bd 09b0 c53b 273f 6e3b c04a 0abb
000000f0: f4c9 c33c 931c f03b dbc5 3dbd 23dd a03c

encoder.block1.convblock2.1.running_var f4 [64]
0.0048930096 0.0007597003 0.0011693274 8.603711e-06 0.004588578 4.4966037e-05 0.00021440575 5.016171e-05
0.0004460912 4.3705066e-05 0.00068622164 0.005473291 0.013588266 0.004263589 1.5956113e-05 0.0014638574
2.080669e-05 0.011170628 0.00015916537 1.6165352e-05 0.0011451604 4.0488005e-05 0.00037087649 0.02921429
0.094109595 0.04349448 0.0015649276 0.009116271 0.0014735797 0.003009508 0.01741916 5.2398587e-05
0.0006733948 0.0017138491 6.5992635e-06 0.0012250335 1.0705704e-05 0.00023805576 0.00033138483 0.0008905671
0.0017229008 0.0907534 7.403701e-05 0.03238454 0.12922798 8.925641e-05 0.00047007206 0.008277043
0.05602817 5.482512e-05 0.0047835833 0.00060118065 0.03031818 1.3804649e-05 4.1469662e-05 0.0006689553
0.00015286378 3.8979037e-05 2.0541462e-05 4.7267284e-05 0.0002139634 0.00014738488 0.002647057 0.0023134246
00000000: 8a55 a03b a026 473a 1e44 993a a858 1037
00000010: c85b 963b ea99 3c38 1bd2 6039 ba64 5238
00000020: 59e1 e939 f54f 3738 8ee3 333a 4b59 b33b
00000030: 52a1 5e3c 94b5 8b3b 7ed9 8537 e7de bf3a
00000040: 078a ae37 0205 373c a1e5 2639 d49a 8737
00000050: 3519 963a aad1 2938 3372 c239 cf52 ef3c
00000060: 88bc c03d 4527 323d 421e cd3a 695c 153c
00000070: 2125 c13a 2a3b 453b a0b2 8e3c 8ec6 5b38
00000080: c386 303a 3ca3 e03a 3e6f dd36 4e91 a03a
00000090: a69c 3337 9b9e 7939 b8bd ad39 f274 693a
000000a0: f5d2 e13a ebdc b93d 5144 9b38 a7a5 043d
000000b0: 5754 043e 2c2f bb38 0174 f639 6f9c 073c
000000c0: cb7d 653d 06f4 6538 9bbf 9c3b 8d98 1d3a
000000d0: d55d f83c 849a 6737 b6ef 2d38 d55c 2f3a
000000e0: 0f4a 2039 6c7d 2338 7450 ac37 dc40 4638
000000f0: 5d5b 6039 548b 1a39 3f7a 2d3b d39c 173b

encoder.block1.convblock3.0.depthwise_conv.weight f4 [64, 1, 3]
0.048029117 -0.2427457 -0.081183724 -0.023258436 0.17352536 -0.06629043 -0.0611322 -0.061880723
-0.07762251 -0.025645278 0.00576868 0.033989906 -0.36186066 -0.0032475288 -0.22171953 0.032396782
0.02351256 -0.022059513 0.032830153 0.021627445 0.052896544 -0.020973394 -0.044723902 -0.032832127
0.07516444 0.036352865 0.072092004 0.02229882 0.028440334 0.021582851 0.0044433633 0.009695392
0.084603935 -0.06347086 0.12791745 0.12141382 0.04088092 0.27887425 0.04599822 -0.13518743
-0.07394622 -0.13271627 0.0007930339 -0.028895896 -0.0038798153 0.044190813 0.08501009 0.15998624
0.03365332 -0.02752917 0.005283558 0.010180964 -0.3748863 -0.21775 0.02555169 0.024790905
0.033028938 -0.0014702277 0.0040117856 0.014563615 -0.023670245 -0.04782476 -0.035980616 0.053284533
0.021927806 0.0047963057 0.061249312 0.048585214 0.08947704 0.088257656 0.103049584 0.42726633
0.67558867 -0.1005808 -0.49866024 0.5661223 0.041304715 0.08957627 -0.09647977 -0.057449065
-0.0930945 -0.10780343 0.015550459 -0.2153765 -0.097139575 -0.09484773 -0.11372679 0.07959743
-0.008978889 0.1754171 -0.1600247 -0.0017331283 -0.08017646 -0.0019533208 -0.05223048 -0.000512952
-0.03084401 -0.095759295 -0.020246822 0.14492717 0.14311899 0.12308194 0.009547914 0.024518592
0.0089600645 0.10338321 0.08378765 0.037611198 -0.0039847684 0.018357689 0.012132918 -0.03407327
-0.018035075 -0.05697734 0.031366784 0.08114038 0.09731916 -0.042544056 -0.07344033 -0.09673791
-0.03374292 0.21561389 -0.14466636 0.36834207 0.091271766 0.7729299 -0.013991006 -0.046606157
-0.07133113 -0.06883071 -0.1931082 -0.35637972 -0.20381722 -0.5603148 0.6121414 0.022344792
-0.0011909216 0.021539459 0.06313158 0.04108341 0.06438846 -0.2815871 0.20617905 0.023258703
-0.08854115 0.31577152 -0.44936505 0.04100488 0.031521812 0.009751308 -0.095909305 -0.11385935
-0.14769487 0.072723635 0.05634872 0.016997863 0.12249901 0.188593 0.27236632 0.018803505
0.016317103 0.013711468 0.0055801827 0.021822007 0.023558715 -0.05848085 -0.07083778 -0.07048778
-0.04515361 0.09648871 0.06295891 -0.043718643 -0.004123731 -0.039146483 0.019593691 0.028484931
0.030601105 0.016554186 0.02142609 0.002826429 0.061984256 0.038469736 0.049410544 0.051473666
0.05615062 0.055438828 0.06424699 0.0370932 0.0157449 0.0992299 0.09687328 0.10683548
00000000: 2eba 443d 5492 78be a743 a6bd 7a88 bebc
00000010: a2b0 313e 47c3 87bd c265 7abd a476 7dbd
00000020: 8df8 9ebd 0c16 d2bc 3207 bd3b 0039 0b3d
00000030: cd45 b9be 7ed4 54bb 720a 63be 7db2 043d
00000040: 6a9d c03c 27b6 b4bc e978 063d 0a2c b13c
00000050: 0caa 583d 65d0 abbc 6930 37bd fb7a 06bd
00000060: d0ef 993d bee6 143d f9a4 933d 04ac b63c
00000070: b4fb e83c 85ce b03c a299 913b 6cd9 1e3c
00000080: d444 ad3d 03fd 81bd cbfc 023e cfa7 f83d
00000090: c072 273d 9bc8 8e3e a168 3c3d 936e 0abe
000000a0: 1e71 97bd c6e6 07be 9be3 4f3a 16b7 ecbc
000000b0: 8044 7ebb 6d01 353d c519 ae3d 6fd3 233e
000000c0: 10d8 093d db84 e1bc b221 ad3b 0fce 263c
000000d0: 19f1 bfbe dbf9 5ebe c751 d13c 4c16 cb3c
000000e0: 5a49 073d a8b4 c0ba 4c75 833b 3b9c 6e3c
000000f0: 1ae8 c1bc e5e3 43bd 6960 13bd e240 5a3d
00000100: f1a1 b33c 542a 9d3b 8fe0 7a3d 4a01 473d
00000110: bd3f b73d 6ec0 b43d a90b d33d a7c2 da3e
00000120: 61f3 2c3f 4efd cdbd 6550 ffbe 64ed 103f
00000130: 222f 293d c373 b73d 3097 c5bd b64f 6bbd
00000140: 54a8 bebd 0bc8 dcbd 5ac7 7e3c a88b 5cbe
00000150: 1df1 c6bd 873f c2bd 97e9 e8bd fa03 a33d
00000160: 311c 13bc 8aa0 333e 84dd 23be 232a e3ba
00000170: 8e33 a4bd 4903 00bb a1ef 55bd a077 06ba
00000180: 94ac fcbc 731d c4bd aadc a5bc ca67 143e
00000190: c98d 123e 6212 fc3d db6e 1c3c 37db c83c
000001a0: 3ccd 123c 94ba d33d dc98 ab3d 330e 1a3d
000001b0: a992 82bb dd62 963c 26c9 463c 6a90 0bbd
000001c0: 4bbe 93bc 1261 69bd 757a 003d ed2c a63d
000001d0: 454f c73d ad42 2ebd e267 96bd 861e c6bd
000001e0: 0436 0abd e3c9 5c3e 6b23 14be 5597 bc3e
000001f0: b1ec ba3d bcde 453f 883a 65bc 19e6 3ebd
00000200: 0e16 92bd 1ef7 8cbd 28be 45be 6777 b6be
00000210: 76b5 50be ca70 0fbf 4cb5 1c3f 6d0c b73c
00000220: b318 9cba 8573 b03c 214b 813d 1447 283d
00000230: 19de 833d 2f2c 90be 9a20 533e 0989 be3c
00000240: 1055 b5bd ceac a13e 2d13 e6be bcf4 273d
00000250: 041d 013d f3c3 1f3c 196c c4bd 172f e9bd
00000260: 533d 17be 21f0 943d eacd 663d 1a3f 8b3c
00000270: c3e0 fa3d 861e 413e 9973 8b3e cf09 9a3c
00000280: 72ab 853c 11a6 603c f7d9 b63b 11c4 b23c
00000290: 35fe c03c 9e89 6fbd 6613 91bd e65b 90bd
000002a0: fef2 38bd df9b c53d 9af0 803d 5212 33bd
000002b0: 5d20 87bb 1058 20bd f382 a03c 3b59 e93c
000002c0: 2baf fa3c a59c 873c c485 af3c 9c3b 393b
000002d0: 34e3 7d3d 7192 1d3d b662 4a3d 0dd6 523d
000002e0: 31fe 653d d313 633d ed93 833d 0aef 173d
000002f0: 73fb 803c 0c39 cb3d 8065 c63d 8fcc da3d

encoder.block1.convblock3.0.pointwise_conv.weight f4 [64, 64, 1]
-0.045308273 -0.0023939237 0.01790622 -0.0026150518 0.06272891 0.00014598778 0.012035065 0.02590858
-0.009961981 -0.004990339 -0.019080918 -0.00023799346 -0.35733202 0.12935275 0.0016961098 0.048946768
-0.0012077404 0.08243984 -0.0073207845 -0.0011134335 -0.11130804 -0.015725307 -0.056366786 0.13031152
0.0634892 0.013069597 0.00782987 0.040421095 0.007300619 0.054539684 0.023424624 0.0073821647
0.0038591344 -0.07619299 0.002289544 -0.029670084 -0.0066878814 0.018312678 0.015499222 -0.005869729
0.052007515 -0.25005835 -0.0033003918 -0.13327773 -0.0934479 -0.03312325 -0.06188829 -0.12421333
0.30921414 -0.009808289 0.07815184 -0.029714897 0.37085193 -0.00056156004 -0.021932073 0.030187357
-0.0125888 0.013784539 -0.0047053704 -0.015579601 -0.03878625 -0.0053813793 0.0634523 -0.05944201
-0.008226498 -0.015695354 -0.0057392824 0.010198233 -0.046787918 -0.0069729397 -0.014105103 0.0028721755
-0.012261991 0.005163817 -0.00741907 -0.018311653 -0.08115434 0.022627467 -0.002497168 -0.017869037
-0.006768168 0.028447038 -0.0011487663 -0.0019442134 0.00943382 -0.008073848 0.0038062446 0.041017722
0.10437602 0.07753098 0.0033030475 -0.041155428 0.008193509 -0.054217108 0.0016979309 0.0012538147
0.00078536215 -0.0065062195 0.0011135049 -0.0027233171 -0.0010372886 0.0002366587 0.0034298368 0.0054869866
-0.034754094 -0.10362888 0.004610032 0.0021054263 0.0027342201 -0.012733355 -0.011820393 0.029311854
0.09697053 -0.0035825586 0.010810395 0.0015725698 -0.029586885 -0.004625665 -0.007912215 -0.0020890017
0.019253852 0.0036813156 -0.0008009796 -0.005117493 -0.007684939 -0.010498428 0.027304588 0.00271061
-0.027446166 -0.010186954 0.00070101704 0.0025049131 -0.18104322 0.008999762 0.008867553 -0.005920131
-0.0033872225 0.0018814866 -0.0050512655 0.03271702 -0.017289555 -0.0056881933 -0.004055266 -0.0028177237
0.0013019105 0.018292965 -0.0030296573 -0.0021942472 0.014247495 0.00059475575 0.0060788486 0.026356835
0.030082548 -0.114285186 0.010102447 -0.0759129 0.0030556899 -0.0038141864 -0.00020619828 -0.0123006655
-0.03571251 -0.0037364685 0.0072645755 0.009270459 -0.007547148 -0.0026909225 0.0066215214 -0.0093822945
-0.012329179 0.073906854 0.0008701737 0.052583482 -0.0064847562 -0.0039934814 -0.006976675 0.03201867
0.08427273 -0.002728849 -0.017156562 0.008263217 -0.062250864 0.005967859 -0.0043243337 0.0018601252
0.009883226 0.0045954254 0.0077234074 -0.00412633 0.00045352243 0.0038817134 0.0022743125 0.009818395
0.03286947 0.055360988 0.03550435 0.007394818 -0.021922546 -0.0064009116 -0.0008074365 0.0021872032
-0.035655286 0.0010866916 -0.013211018 0.14276661 -0.19328381 -0.014478309 0.007380496 -0.0542209
-0.010701871 0.1681313 -0.012083827 -0.000977804 -0.0646626 -0.009105232 0.018648958 0.15501893
-0.3110439 0.6784823 0.0725487 0.14246473 0.035650287 0.06194486 0.06918941 0.0029302854
0.0267279 -0.06951182 0.003511707 -0.06411244 0.003441213 0.009673885 -0.020512532 0.04552764
0.02608805 0.014557941 0.018752797 -0.09818269 0.013592324 -0.0036326572 -0.0025918926 -0.15309721
0.09196576 -0.03898443 0.07995738 0.009970129 0.16497742 -0.005296753 -0.002465627 0.015173034
0.015814405 0.007801141 0.0050735692 0.0037085162 -0.024377793 -0.032734025 0.014097853 -0.034677148
00000000: 2b95 39bd 60e3 1cbb 11b0 923c 4a61 2bbb
00000010: 0478 803d 4c14 1939 b92e 453c 3b3e d43c
00000020: 9437 23bc ff85 a3bb 964f 9cbc e28d 79b9
00000030: 39f4 b6be 0c75 043e 0050 de3a 687c 483d
00000040: 0b4d 9eba 38d6 a83d 31e3 efbb a1f0 91ba
00000050: 78f5 e3bd 5cd2 80bc dce0 66bd 6270 053e
00000060: a006 823d dd21 563c db48 003c 9790 253d
00000070: 083a ef3b 0165 5f3d ffe4 bf3c 16e6 f13b
00000080: 88e9 7c3b 120b 9cbd 2d0c 163b ad0e f3bc
00000090: 0426 dbbb 7804 963c 73f0 7d3c db56 c0bb
000000a0: d505 553d a607 80be 634b 58bb f579 08be
000000b0: 9d61 bfbd 3fac 07bd 937e 7dbd 8f63 febd
000000c0: 5151 9e3e f2b2 20bc 120e a03d a86c f3bc
000000d0: 4ee0 bd3e a835 13ba e4aa b3bc 7a4b f73c
000000e0: 4141 4ebc 8cd8 613c 822f 9abb 9541 7fbc
000000f0: 55de 1ebd 4856 b0bb 48f3 813d 7779 73bd
00000100: 6fc8 06bc 8b93 80bc 9710 bcbb 7d16 273c
00000110: b0a4 3fbd 427d e4bb 1719 67bc 1c3b 3c3b
00000120: 85e6 48bc 3d35 a93b ac1b f3bb 5202 96bc
00000130: 3f34 a6bd 3d5d b93c 87a7 23bb 1662 92bc
00000140: 82c7 ddbb c309 e93c 3392 96ba fad4 feba
00000150: 4f90 1a3c 2c48 04bc 3072 793b 3302 283d
00000160: 18c3 d53d 90c8 9e3d f177 583b 9892 28bd
00000170: 113e 063c c212 5ebd 1b8d de3a 0a57 a43a
00000180: c3e0 4d3a 2032 d5bb 06f3 913a ae79 32bb
00000190: a1f5 87ba 9627 7839 1dc7 603b 2ecc b33b
000001a0: 4f5a 0ebd 613b d4bd c00f 973b 31fb 093b
000001b0: 9a30 333b 909f 50bc 52aa 41bc 6a1f f03c
000001c0: 7c98 c63d 5cc9 6abb 151e 313c b01e ce3a
000001d0: 3260 f2bc e492 97bb 3ca2 01bc a2e7 08bb
000001e0: 41ba 9d3c 3a42 713b d5f8 51ba a5b0 a7bb
000001f0: f1d1 fbbb 9901 2cbc dfad df3c 7da4 313b
00000200: c8d6 e0bc 2fe7 26bc 75c4 373a 7829 243b
00000210: 6563 39be bd73 133c 3749 113c a9fd c1bb
00000220: 2afc 5dbb 379c f63a 1685 a5bb 4802 063d
00000230: d3a2 8dbc 0664 babb 09e2 84bb 8fa9 38bb
00000240: dea4 aa3a 21db 953c 378d 46bb 5ccd 0fbb
00000250: 536e 693c 62e9 1b3a 1431 c73b 4aea d73c
00000260: ad6f f63c 5a0e eabd bc84 253c 3978 9bbd
00000270: f841 483b 6ef7 79bb ee36 58b9 bb88 49bc
00000280: 4847 12bd 8adf 74bb ad0b ee3b 20e3 173c
00000290: 114e f7bb 305a 30bb 59f9 d83b 32b8 19bc
000002a0: 5300 4abc 7a5c 973d 5e1c 643a c761 573d
000002b0: 147e d4bb c0db 82bb 979c e4bb 0226 033d
000002c0: 2e97 ac3d 7dd6 32bb eb8b 8cbc 7262 073c
000002d0: c3fa 7ebd 088e c33b 24b3 8dbb 72cf f33a
000002e0: 41ed 213c 3995 963b a314 fd3b 2a36 87bb
000002f0: c0c6 ed39 5864 7e3b a20c 153b 55dd 203c
00000300: 23a2 063d 34c2 623d 026d 113d 3b50 f23b
00000310: e996 b3bc bdbe d1bb 25aa 53ba 2e57 0f3b
00000320: 470b 12bd 526f 8e3a 0773 58bc 6931 123e
00000330: 31ec 45be 6e36 6dbc 16d8 f13b bc16 5ebd
00000340: e656 2fbc 9d2a 2c3e 3efb 45bc a829 80ba
00000350: d36d 84bd 1c2e 15bc b3c5 983c 48bd 1e3e
00000360: 2541 9fbe 04b1 2d3f 6a94 943d 46e2 113e
00000370: 0906 123d e5b9 7d3d 2db3 8d3d 080a 403b
00000380: 78f4 da3c 375c 8ebd ab24 663b 624d 83bd
00000390: f985 613b 377f 1e3c e609 a8bc 317b 3a3d
000003a0: 9bb6 d53c 6e84 6e3c 779f 993c 0214 c9bd
000003b0: 57b2 5e3c e011 6ebb bedc 29bb 84c5 1cbe
000003c0: 8b58 bc3d 23ae 1fbd b2c0 a33d c059 233c
000003d0: d7ef 283e 6290 adbb 5b96 21bb 5198 783c
000003e0: 368d 813c b7a0 ff3b 2f40 a63b 940a 733b
000003f0: f0b3 c7bc 1d14 06bd aefa 663c a009 0ebd

encoder.block1.convblock3.1.weight f4 [64]
0.6486096 0.17112225 0.25716206 0.5797226 0.25795376 0.33636895 0.15048982 0.27583703
0.04477613 0.5504426 0.41866705 0.23378395 0.24591954 0.29678327 0.3995781 0.3509016
0.23376296 0.56639665 0.5611297 0.33414105 0.26743054 0.33628473 0.43092978 0.23827499
0.28253785 0.3713715 0.12553625 0.5386773 0.37125522 0.1836978 0.32224962 0.23183161
0.33757144 0.30216432 0.39942354 0.1683706 0.57673186 0.10426044 0.112128146 0.16652198
0.191301 0.5182958 0.35983872 0.24548844 0.41130692 0.187911 0.4942694 0.2313187
0.32904553 0.32752433 0.21918154 0.20012979 0.454001 0.2363634 0.057974864 0.37930954
0.22986978 0.18097535 0.4183458 0.35569918 0.32263383 0.07511488 0.18099695 0.29884645
00000000: 470b 263f ac3a 2f3e bfaa 833e b368 143f
00000010: 8412 843e 8d38 ac3e 011a 1a3e 833a 8d3e
00000020: 2d67 373d cee9 0c3f 875b d63e 0f65 6f3e
00000030: 55d2 7b3e faf3 973e 8095 cc3e 60a9 b33e
00000040: 8f5f 6f3e 5fff 103f 32a6 0f3f 8914 ab3e
00000050: a8ec 883e 832d ac3e d4a2 dc3e 5cfe 733e
00000060: cda8 903e 6824 be3e 938c 003e c1e6 093f
00000070: 2a15 be3e 471b 3c3e e7fd a43e 4465 6d3e
00000080: 2ad6 ac3e 48b5 9a3e 3e81 cc3e 5869 2c3e
00000090: b3a4 133f 7f86 d53d 71a3 e53d bd84 2a3e
000000a0: 69e4 433e 09af 043f c83c b83e 5261 7b3e
000000b0: d296 d23e be6b 403e e110 fd3e cfde 6c3e
000000c0: a878 a83e 45b1 a73e 2071 603e d3ee 4c3e
000000d0: d272 e83e 3f09 723e 0d77 6d3d dc34 c23e
000000e0: fc62 6b3e 9a51 393e 6c31 d63e 341e b63e
000000f0: 4330 a53e d5d5 993d 4457 393e 6702 993e

encoder.block1.convblock3.1.bias f4 [64]
-0.2101799 -0.102876104 -0.019823866 0.039937265 0.08138762 -0.26963538 -0.06796968 -0.076081485
0.00029245942 0.08794698 -0.16652241 0.03317261 0.017191116 0.057894018 -0.33105603 0.13254395
-0.06712312 -0.18937503 -0.31548285 0.13396648 -0.026982289 -0.12124881 -0.1167031 -0.15472321
-0.08339402 -0.2139421 -0.046808716 -0.19175047 -0.16466098 0.015664028 -0.09107903 -0.16058515
0.11737656 -0.08584492 -0.30019847 0.012923402 0.014680133 0.026838375 -0.0068615223 -0.07965764
-0.1407074 -0.071021564 -0.19053696 -0.19592565 -0.036915794 0.038213614 -0.1197693 -0.013673784
-0.22723527 -0.18387912 0.030182067 -0.25443 0.07938416 0.056572944 -0.04411967 -0.08027468
0.12215307 0.06673103 0.13878152 -0.24148673 -0.026677445 -0.04352799 -0.11102548 -0.08839815
00000000: 6639 57be b5b0 d2bd a965 a2bc 4295 233d
00000010: 8dae a63d a60d 8abe b033 8bbd 9cd0 9bbd
00000020: 3d55 9939 8c1d b43d da84 2abe 01e0 073d
00000030: 62d4 8c3c 4722 6d3d 2d80 a9be 9ab9 073e
00000040: d977 89bd 87eb 41be f886 a1be 822e 093e
00000050: f609 ddbc 4c51 f8bd 0902 efbd c36f 1ebe
00000060: 7cca aabd a313 5bbe 7fba 3fbd 3c5a 44be
00000070: e39c 28be d951 803c a487 babd 6f70 24be
00000080: 1f63 f03d 76cf afbd 9db3 99be adbc 533c
00000090: f184 703c 27dc db3c 9fd6 e0bb 8b23 a3bd
000000a0: 9a15 10be c173 91bd 1f1c 43be bca0 48be
000000b0: 0435 17bd e185 1c3d 9b49 f5bd 0208 60bc
000000c0: 5db0 68be cf4a 3cbe 6240 f73c a644 82be
000000d0: 2a94 a23d 08b9 673d d4b6 34bd 0d67 a4bd
000000e0: 642b fa3d 47aa 883d be1c 0e3e 4c48 77be
000000f0: a88a dabc 684a 32bd 5461 e3bd 170a b5bd

encoder.block1.convblock3.1.running_mean f4 [64]
-0.10732722 -0.051662758 0.03205753 0.12694304 -0.01804459 0.049020216 0.045444574 -0.01430092
-0.0065321224 -0.037962686 0.122359686 -0.012743572 -0.11208216 -0.053225867 0.09147683 -0.0995676
0.061420545 0.057065044 0.20685917 -0.3573784 -0.07893498 0.062092017 -0.08060949 0.037775874
-0.027161628 0.0319997 0.023860514 0.037373647 0.07240595 0.0075671673 0.009492747 0.04187585
0.05786076 -0.0032927971 -0.11114015 0.0014923249 0.050097115 0.025213834 -0.030072307 0.019574841
0.01295299 0.011255317 0.07952945 -0.029487193 -0.004368197 -0.08925436 0.16484053 -0.0046342835
-0.06141124 0.0049527306 -0.003902777 -0.05901899 -0.0025147162 -0.14405824 0.012964182 0.069708146
-0.09359066 -0.05656228 0.041878097 0.007986075 0.15708819 0.020341353 0.0628439 0.027112894
00000000: 60ce dbbd 549c 53bd c24e 033d 5bfd 013e
00000010: 3fd2 93bc 6cc9 483d 1724 3a3d 684e 6abc
00000020: 6a0b d6bb c37e 1bbd b797 fa3d 6aca 50bc
00000030: 558b e5bd 5e03 5abd 3458 bb3d 19ea cbbd
00000040: 1c94 7b3d 09bd 693d e4d2 533e 4dfa b6be
00000050: aaa8 a1bd 3354 7e3d 9716 a5bd e0ba 1a3d
00000060: 1082 debc 1e12 033d 2077 c33c 1c15 193d
00000070: 9249 943d 00f6 f73b 7787 1b3c 0386 2b3d
00000080: 67ff 6c3d f8cb 57bb 729d e3bd 1d9a c33a
00000090: a232 4d3d 3e8d ce3c 335a f6bc 6b5b a03c
000000a0: c738 543c 3968 383c 56e0 a23d 208f f1bc
000000b0: 1823 8fbb fdca b6bd f5cb 283e 30db 97bb
000000c0: 5a8a 7bbd 844a a23b bcc5 7fbb e5bd 71bd
000000d0: f0cd 24bb 0184 13be b867 543c 25c3 8e3d
000000e0: 76ac bfbd d9ad 67bd 5e88 2b3d 07d8 023c
000000f0: badb 203e e9a2 a63c 4db4 803d dc1b de3c

encoder.block1.convblock3.1.running_var f4 [64]
0.016734047 0.0040066075 0.0010019664 0.03650016 0.0066732215 0.027350448 0.0017539121 0.0055409293
7.603694e-05 0.024411978 0.015834158 0.0008135134 0.005862227 0.007249847 0.02416904 0.010960531
0.0075607602 0.026373807 0.052874137 0.06310735 0.0076651378 0.002885355 0.012224556 0.0016604586
0.008042158 0.010476191 0.0015770633 0.01639655 0.012442223 0.0008478111 0.006664996 0.0227115
0.0047844592 0.007957319 0.017071543 0.0043804985 0.04970728 0.00048772054 0.0008899123 0.0022564947
0.004216699 0.017182171 0.031810638 0.011918164 0.01011383 0.0051009515 0.044689946 0.00073617825
0.015878728 0.028058618 0.0004624269 0.0072542015 0.023933675 0.013186106 0.00014719438 0.02277295
0.0071266335 0.0023790458 0.022278784 0.0011965868 0.04415955 0.00029397692 0.0025154569 0.0022336815
00000000: d715 893c dc49 833b 6a54 833a 3181 153d
00000010: 0aab da3b 0c0e e03c 86e3 e53a af90 b53b
00000020: 0576 9f38 a1fb c73c a3b6 813c f641 553a
00000030: ed17 c03b 2090 ed3b 27fe c53c cd93 333c
00000040: 41c0 f73b e20d d83c 8d92 583d 6d3e 813d
00000050: d62b fb3b 3918 3d3b 8149 483c bfa3 d93a
00000060: 41c3 033c 54a4 2b3c 77b5 ce3a 0f52 863c
00000070: 77da 4b3c a43f 5e3a 0a66 da3b 780d ba3c
00000080: f4c6 9c3b 6a5f 023c 9fd9 8b3c 498a 8f3b
00000090: dc99 4b3d beb4 ff39 0149 693a b3e1 133b
000000a0: 3c2c 8a3b a0c1 8c3c df4b 023d 6744 433c
000000b0: 7ab4 253c e225 a73b ce0c 373d 16fc 403a
000000c0: 1b14 823c 30db e53c e371 f239 a7b4 ed3b
000000d0: 8e10 c43c 8a0a 583c 3158 1a39 568e ba3c
000000e0: 8986 e93b c4e9 1b3b ff81 b63c cad6 9c3a
000000f0: a5e0 343d ea20 9a39 5dda 243b f562 123b

encoder.block1.shortcut.0.weight f4 [64, 1, 1]
0.045834374 0.029162131 -0.026075572 -0.021661514 0.0481805 0.015823029 -0.030676723 0.02956556
0.013013351 0.064113095 0.047588836 0.010219504 0.018983621 -0.031695437 -0.01640558 -0.010107581
0.024908096 -0.028253593 -0.02693529 0.07558892 0.035837412 -0.04014796 -0.042636886 -0.004190538
0.011642651 -0.017700283 -0.018990783 -0.05770226 0.038228396 -0.015218147 -0.035259716 -0.035355598
0.008065312 -0.02923523 0.02908484 -0.060530715 0.016921423 -0.020581936 -0.015254899 -0.028318867
0.015184095 -0.03762314 -0.04378737 0.031434134 0.044068296 -0.025872542 0.0759523 -0.03199134
-0.039440066 0.029772857 -0.026776426 0.030442173 -0.02129349 -0.05616594 0.027336987 0.059208028
-0.046078164 -0.026515115 -0.036740124 -0.02420481 -0.071829595 0.01772414 0.032740496 0.028394748
00000000: d3bc 3b3d 6ce5 ee3c 709c d5bc 7d73 b1bc
00000010: ea58 453d 4c9f 813c c04d fbbc 7933 f23c
00000020: f335 553c ba4d 833d 83ec 423d b56f 273c
00000030: 8a83 9b3c 13d3 01bd ff64 86bc 449a 25bc
00000040: 100c cc3c 1474 e7bc 66a7 dcbc 5dce 9a3d
00000050: 40ca 123d 3072 24bd 04a4 2ebd c850 89bb
00000060: d1c0 3e3c 2f00 91bc 8f92 9bbc 3459 6cbd
00000070: 6195 1c3d 8955 79bc 7e6c 10bd 08d1 10bd
00000080: 5f24 043c b97e efbc 5543 ee3c 0eef 77bd
00000090: cc9e 8a3c 739b a8bc afef 79bc f8fc e7bc
000000a0: b6c6 783c b91a 1abd 635a 33bd 14c1 003d
000000b0: f580 343d a7f2 d3bc e18c 9b3d 5a09 03bd
000000c0: e88b 21bd 35e6 f33c 3c5a dbbc dd61 f93c
000000d0: af6f aebc 420e 66bd d1f1 df3c 1e84 723d
000000e0: 75bc 3cbd 3a36 d9bc d07c 16bd 2a49 c6bc
000000f0: 651b 93bd 3732 913c e61a 063d 1a9c e83c

encoder.block1.shortcut.1.weight f4 [64]
0.1487339 0.07346457 0.01582477 -0.026607243 0.17073347 0.0060958895 0.064621806 0.047484234
0.047885012 0.24123105 -0.13733046 -0.012616989 -0.028933745 0.06601195 0.070149176 0.00971624
0.02346667 -0.06048646 -0.044568144 -0.45959294 -0.08271909 -0.08833249 0.12038304 0.04626803
0.0072706672 0.03025096 0.018112497 0.28209782 0.030022724 0.010984921 -0.09680961 -0.09204078
-0.0069588777 0.014676427 -0.07141482 -0.2617312 -0.0066698096 0.03232105 0.022989312 0.015939215
0.019198941 0.10180276 -0.16821127 0.020944567 -0.1460545 -0.050232492 0.4623509 0.008626728
0.028917354 0.06228696 0.052088663 0.045157023 0.003582372 0.24559341 0.034211796 0.24103789
0.16495587 0.05080455 0.078908645 -0.03693652 0.3388748 0.037543673 -0.07130592 0.059948716
00000000: b34d 183e 9874 963d f3a2 813c 6ff7 d9bc
00000010: c1d4 2e3e 07c0 c73b 7058 843d d47e 423d
00000020: 1323 443d 4605 773e 5ba0 0cbe 7db7 4ebc
00000030: 7606 edbc 4631 873d 5faa 8f3d dd30 1f3c
00000040: 2d3d c03c a6c0 77bd 168d 36bd c44f ebbe
00000050: a068 a9bd aae7 b4bd 628b f63d 8c83 3d3d
00000060: c73e ee3b dcd0 f73c a960 943c 206f 903e
00000070: 37f2 f53c 19fa 333c 1e44 c6bd e07f bcbd
00000080: 4c07 e4bb 6575 703c ef41 92bd a201 86be
00000090: 6b8e dabb 1463 043d 1554 bc3c f592 823c
000000a0: 1947 9d3c f77d d03d 933f 2cbe f193 ab3c
000000b0: 508f 15be 96c0 4dbd 42b9 ec3e 1f57 0d3c
000000c0: 16e4 ec3c 9d20 7f3d ec5a 553d 92f6 383d
000000d0: 3bc6 6a3b d77c 7b3e ab21 0c3d a3d2 763e
000000e0: 31ea 283e 6f18 503d db9a a13d c04a 17bd
000000f0: ff80 ad3e 65c7 193d d708 92bd c98c 753d

encoder.block1.shortcut.1.bias f4 [64]
-0.2101799 -0.102876104 -0.019823866 0.039937265 0.08138762 -0.26963538 -0.06796968 -0.076081485
0.00029245942 0.08794698 -0.16652241 0.03317261 0.017191116 0.057894018 -0.33105603 0.13254395
-0.06712312 -0.18937503 -0.31548285 0.13396648 -0.026982289 -0.12124881 -0.1167031 -0.15472321
-0.08339402 -0.2139421 -0.046808716 -0.19175047 -0.16466098 0.015664028 -0.09107903 -0.16058515
0.11737656 -0.08584492 -0.30019847 0.012923402 0.014680133 0.026838375 -0.0068615223 -0.07965764
-0.1407074 -0.071021564 -0.19053696 -0.19592565 -0.036915794 0.038213614 -0.1197693 -0.013673784
-0.22723527 -0.18387912 0.030182067 -0.25443 0.07938416 0.056572944 -0.04411967 -0.08027468
0.12215307 0.06673103 0.13878152 -0.24148673 -0.026677445 -0.04352799 -0.11102548 -0.08839815
00000000: 6639 57be b5b0 d2bd a965 a2bc 4295 233d
00000010: 8dae a63d a60d 8abe b033 8bbd 9cd0 9bbd
00000020: 3d55 9939 8c1d b43d da84 2abe 01e0 073d
00000030: 62d4 8c3c 4722 6d3d 2d80 a9be 9ab9 073e
00000040: d977 89bd 87eb 41be f886 a1be 822e 093e
00000050: f609 ddbc 4c51 f8bd 0902 efbd c36f 1ebe
00000060: 7cca aabd a313 5bbe 7fba 3fbd 3c5a 44be
00000070: e39c 28be d951 803c a487 babd 6f70 24be
00000080: 1f63 f03d 76cf afbd 9db3 99be adbc 533c
00000090: f184 703c 27dc db3c 9fd6 e0bb 8b23 a3bd
000000a0: 9a15 10be c173 91bd 1f1c 43be bca0 48be
000000b0: 0435 17bd e185 1c3d 9b49 f5bd 0208 60bc
000000c0: 5db0 68be cf4a 3cbe 6240 f73c a644 82be
000000d0: 2a94 a23d 08b9 673d d4b6 34bd 0d67 a4bd
000000e0: 642b fa3d 47aa 883d be1c 0e3e 4c48 77be
000000f0: a88a dabc 684a 32bd 5461 e3bd 170a b5bd
