ldpi/training/output/ResCNN/best_model_with_center.pth (torch, 711778 bytes, 64 tensors)

encoder.block1.convblock1.0.depthwise_conv.weight f4 [1, 1, 7]
00000000: 08c3 85bc 8749 f33f dbb4 103f cc97 bc3d
00000010: ea4f 79bc bacd c83a ea9c 4c3b
-0.01632835 1.9006814 0.56525964 0.092086405 -0.015216807 0.00153201 0.0031221458

encoder.block1.convblock1.0.pointwise_conv.weight f4 [64, 1, 1]
00000000: 4c99 25bd 4744 d33c 42f4 3fbd 507b a53b
00000010: 4788 ec3c 2584 3cbd bee9 e33b 94ab 403d
00000020: 0dcb 043d 980b 873c ee13 a13c e8b7 0d3d
00000030: 2f35 8fbc 503c 213d b845 f6bc a477 c43c
00000040: 580e 97bc db08 e3bc cee5 e5bc 4830 183d
00000050: 4e39 e1bc e130 a03c ff4f 99bc b8e7 05bd
00000060: 6acb eb3b 2898 e8bc 9989 febc 0cf8 cc3a
00000070: 67e8 733c d718 2cbd 6e04 39bd 5b50 1dbd
00000080: adf3 c23c aaa1 1c3d 0fce 9c3c 06a6 00bd
00000090: 8113 1cbd 25ff e0bc 34f4 c9bb 10e4 103d
000000a0: c534 86bc e3c1 dc3c 3157 493d 85c3 27bd
000000b0: 7757 bebc 788a e0bc 524f 633c e0e0 ab3c
000000c0: 0849 6c3c 8958 8d3c 9053 2cbd b7ea 8c3c
000000d0: 3bd2 a238 3063 273d caa7 de3c 3275 c7bc
000000e0: c337 21bd 2449 46bd 5200 9abc cb06 37bd
000000f0: 880d 093d d9a8 003c 6da5 e5bc bed4 4f3d
-0.0404294 0.025789393 -0.0468638 0.0050501004 0.028873576 -0.04602446 0.0069553545 0.04703863
0.032420207 0.01648502 0.019662824 0.034599215 -0.017481415 0.03936416 -0.030062541 0.02398283
-0.018439457 -0.027714184 -0.028063681 0.03715542 -0.027493145 0.019554557 -0.018714903 -0.032691687
0.0071958797 -0.028392866 -0.031071471 0.0015637889 0.014886952 -0.042015877 -0.04517024 -0.03840671
0.023797834 0.038240112 0.019141225 -0.031408332 -0.038104538 -0.027465412 -0.0061631445 0.035373747
-0.016382584 0.026947921 0.049155418 -0.040957946 -0.023235066 -0.027409777 0.013873892 0.020981252
0.014421709 0.01725413 -0.04207188 0.017201765 7.7639204e-05 0.040866077 0.027179617 -0.024347875
-0.03935982 -0.048409596 -0.01879898 -0.044684213 0.03346017 0.007852756 -0.028032983 0.050739996

encoder.block1.convblock1.1.weight f4 [64]
00000000: 5484 0b3e 77f8 0a3e df42 083f 7a1d c13d
00000010: abca 753d a28a fb3e 1fb3 3b3e a941 0d3f
00000020: aa30 083e 7d42 513e eba0 173e 9400 d03e
00000030: 26fe 893e 3137 b23e 7c29 833d 6804 4e3d
00000040: 31b8 403d e70f 063f 1eea c83e b048 013f
00000050: 6b63 083f 2bb0 003e 2106 283e 121c ea3c
00000060: 8788 bc3d 4f5b 7d3e 7cce b23d 39fb 463e
00000070: 4e8a 3d3d 20cd e53d 673f 2f3f e57c 963e
00000080: a4fe 403e ac7b 8f3d 7636 5c3d f2a7 eb3e
00000090: 21f1 ab3e 71cb 853e 9125 963d c972 8a3e
000000a0: 2be8 3f3e 0ab9 913e e54e 0f3f 39a3 4b3d
000000b0: 6c5e 6a3e 88e9 f53d 1e91 c63d e689 383e
000000c0: d588 003e 99fe 563e 1e99 113f e479 c93d
000000d0: c84e 133f c586 873d 4d6a 663d 7a92 a73d
000000e0: 2505 6d3d 3e30 4d3f 216d 483e d05b 133f
000000f0: ad3f 003f be8a 6b3d beb5 f43c fd45 373f
0.13624698 0.13571344 0.5322704 0.0942945 0.060007732 0.49129206 0.18330048 0.55178314
0.13299814 0.2043552 0.14807479 0.4062544 0.26951712 0.34807733 0.06404397 0.05029717
0.04705066 0.52368015 0.39241117 0.5050154 0.532767 0.12567203 0.16408588 0.028577838
0.09205728 0.24741863 0.0873079 0.19431771 0.046274476 0.11220765 0.6845612 0.29392162
0.18847138 0.070060104 0.053762875 0.4602657 0.33582404 0.26131776 0.07331384 0.270407
0.18740909 0.28461486 0.5597976 0.049716208 0.22887582 0.12007433 0.09695648 0.18021354
0.12552197 0.20995559 0.56874263 0.09837702 0.57542086 0.06617502 0.05625372 0.08182235
0.057866234 0.80151737 0.1957288 0.5756197 0.5009716 0.05750536 0.029871818 0.7159117

encoder.block1.convblock1.1.bias f4 [64]
00000000: ffc7 02be ff9b 23bf e5a2 4d3e 1d05 57be
00000010: fad8 92be e1d9 fc3d f169 edbe 9383 0e3e
00000020: 2aaf 553d 13b0 08bf 2921 05bd 546c 2abe
00000030: b54f f7bd f31a 873d 6c6e 8ebd b73a 52be
00000040: e581 813d f9f6 1ebe 16d1 b6bc f41e 1c3e
00000050: 22c7 2abe 44ac aabd 2cc6 02be 36d8 c7bc
00000060: 9f9e 3c3d 1f84 e1bc d83d 91bc 9674 68be
00000070: e410 99bc 2185 843e b284 6cbe 0efe 5cbd
00000080: 23d5 603d 0990 9dbc b12b d4bd f35d 14be
00000090: 5c2c 223f 430a 2cbc d385 8bbc 84a0 dcbd
000000a0: 5e71 393d 6530 20be d5bf 813f 3794 87bc
000000b0: 55e2 c43e 6cfb 12be 2d87 ee3c c8b6 3abe
000000c0: 2093 5abd 7bf2 003e 1258 583e 0e9f 313f
000000d0: 3350 2ebe 283b 1dbd a076 dcbd 3a48 083f
000000e0: 0f90 fb3d 3545 8d3e f434 643d 458c 1f3e
000000f0: c2f9 9fbe 915b 9dbd a834 b8bc a780 713e
-0.12771605 -0.63909906 0.2008167 -0.20998044 -0.28681165 0.123462446 -0.4636989 0.13917379
0.052169003 -0.5339367 -0.032502327 -0.16642886 -0.1207575 0.06596937 -0.06954655 -0.2053021
0.063236035 -0.155239 -0.022316497 0.15246183 -0.16677526 -0.08333638 -0.12770909 -0.02439509
0.04604971 -0.02752882 -0.017729685 -0.22700724 -0.018684812 0.2588282 -0.23097494 -0.053953223
0.054890763 -0.01923372 -0.10359896 -0.14488964 0.6334894 -0.010500493 -0.017031586 -0.107728034
0.04527413 -0.15643461 1.0136667 -0.016550167 0.38453928 -0.14353722 0.029117191 -0.18233788
-0.053362966 0.12592499 0.21127346 0.69383323 -0.17022781 -0.038386494 -0.107648134 0.5323521
0.12283336 0.27591863 0.055714563 0.15580852 -0.31245238 -0.076834805 -0.022486046 0.23584233

encoder.block1.convblock1.1.running_mean f4 [64]
00000000: 4ea5 e1bc c2ef 8f3c 89c7 02bd 747c 613b
00000010: 6b26 a13c f36f 00bd 1d47 9b3b a843 033d
00000020: d4f1 b43c 7403 383c 5d7c 5b3c b11a c13c
00000030: 8c23 43bc 67b3 db3c 33c9 a7bc 91da 853c
00000040: 6fd4 4dbc 9aad 9abc e7a0 9cbc 3b63 cf3c
00000050: aa71 99bc d046 5a3c 83e7 50bc b875 b6bc
00000060: 40a5 a03b 8877 9ebc c36a adbc 59a5 8b3a
00000070: cd2c 263c 1680 eabc f219 fcbc 565b d6bc
00000080: 31d2 843c 496d d53c c7a9 553c 024c afbc
00000090: 92ac d4bc 644a 99bc fa96 89bb d86d c53c
000000a0: b0de 36bc 5d66 963c f22b 093d 7f98 e4bc
000000b0: 6bae 81bc f7fa 98bc eedd 1a3c ab33 6a3c
000000c0: c2fa 203c 4c99 403c 97cf eabc 8203 403c
000000d0: 6adc 5d38 3b15 e43c 1bb2 973c 30e4 87bc
000000e0: 1bad dbbc 7717 07bd a3d7 51bc 2664 f9bc
000000f0: cbbf ba3c f24f af3b 6575 9cbc 0499 0d3d
-0.027544644 0.01757038 -0.031928573 0.0034406455 0.01967164 -0.031356763 0.004738702 0.032046944
0.022087969 0.011231292 0.01339635 0.023572298 -0.0119103305 0.026818944 -0.020481681 0.016339572
-0.012562855 -0.018881608 -0.019119693 0.025315871 -0.018730957 0.013322547 -0.012750509 -0.02227293
0.004902512 -0.019344106 -0.021169072 0.0010654136 0.010142517 -0.02862553 -0.03077409 -0.0261666
0.016213508 0.026053088 0.013040966 -0.021398548 -0.025961194 -0.01871223 -0.004198906 0.02410023
-0.011161491 0.018359357 0.033489175 -0.027904747 -0.01583024 -0.018674357 0.009452326 0.014294545
0.00982541 0.011755299 -0.02866344 0.011719586 5.2895783e-05 0.027842155 0.018517544 -0.0165883
-0.026815942 -0.032981362 -0.012807759 -0.030443262 0.022796532 0.0053501064 -0.019098947 0.034569755

encoder.block1.convblock1.1.running_var f4 [64]
00000000: b7f6 353a 0915 9439 9f7e 743a d8b4 3537
00000010: 619e b939 dad0 6b3a 5856 ac37 9a4f 763a
00000020: 0005 ea39 5a06 f238 172a 2c39 b443 053a
00000030: 6216 0839 7d80 2c3a 6338 c939 fb0f 8039
00000040: 4968 1739 3f02 ab39 3d59 af39 34b5 193a
00000050: 754a a839 d045 2a39 e4f6 1b39 85f4 ed39
00000060: 4975 b837 2f7d b339 0cf4 d639 9f62 8b35
00000070: fc5f c538 6086 443a 2922 633a 4836 243a
00000080: 2530 7c39 5aca 223a af26 2339 8aa3 db39
00000090: e0a4 213a 58f4 a739 994f 8737 f14c 0b3a
000000a0: 9e06 ef38 00ae a139 687d 863a aac0 3a3a
000000b0: f767 7039 7946 a739 2c6d ab38 5e06 4439
000000c0: d939 b938 5591 0439 b50b 453a 73c3 0339
000000d0: 29e9 2f31 6eea 393a 507a a439 affd 8339
000000e0: 9876 2c3a 2c71 823a 3e5e 1d39 b146 5e3a
000000f0: 4c46 f939 69ad db37 e1f7 ae39 134f 8f3a
0.00069413654 0.00028244432 0.00093267293 1.0830547e-05 0.0003540395 0.000899566 2.0544205e-05 0.0009396017
0.00044635683 0.00011540642 0.00016418878 0.0005083636 0.00012978309 0.00065804255 0.0003837972 0.0002442597
0.00014439331 0.00032617335 0.0003344509 0.0005863488 0.00032098932 0.0001623847 0.00014873926 0.00045386344
2.1989124e-05 0.0003423481 0.0004099909 1.038501e-06 9.4115705e-05 0.000749683 0.0008664453 0.0006264192
0.00024050528 0.00062099623 0.00015559302 0.0004189278 0.0006166231 0.00032034772 1.613032e-05 0.00053138944
0.000113976406 0.00030837953 0.0010260763 0.0007124046 0.00022926914 0.00031905228 8.17425e-05 0.00018694389
8.8322624e-05 0.00012642641 0.0007516698 0.00012565944 2.5598388e-09 0.00070921227 0.00031371647 0.00025175276
0.0006578951 0.0009951941 0.00015007795 0.0008479162 0.00047545356 2.6187585e-05 0.0003337255 0.00109336

encoder.block1.convblock2.0.depthwise_conv.weight f4 [64, 1, 5]
00000000: 25c3 be3d 1992 f53c ac61 1ebd e981 cbbc
00000010: 7f3f 2b3d c396 bd3d eaa9 7f3d 3107 173e
00000020: b256 31bc 8919 bcbd d717 053f 2582 613e
00000030: 6a9c e8bd 4b1a 49be 5758 aabe fb30 5cbc
00000040: 3b44 843d 8baa a3bd 2f72 d13d 52e0 c5bc
00000050: 3a56 223c d50d 5e3c 2606 a33c 1488 ac3c
00000060: d439 5a3c 440c 25be 1c1d 76be 497f c83e
00000070: 11d6 b3bd 8ba9 a13e eac3 013c 5009 5a3c
00000080: 377a 423d b5d0 1b3d 88da a53d ae41 1dbf
00000090: 971e 67be c099 34be 04e6 0b3e 2eba ca3e
000000a0: 1cc6 293d 8f02 a23c 7130 0fbe 2373 943d
000000b0: fe14 f33c 2348 3abd b604 16bd 8680 88bd
000000c0: 1655 15bd 2d7b 8cbd 91cb 6f3d e99f 4c3d
000000d0: eb2c 813d 6dfe 7d3d d871 7b3d 8ecd df3d
000000e0: 30f0 583e 5260 dbbe 8a81 eb3e 7ec0 df3d
000000f0: 3db5 79bd 6087 cd3c a1e8 893d a990 0f3e
00000100: 642a ec3b 15bd f13b ff56 443d 84ca 953d
00000110: 427f d33d 8da1 023d 1741 263c 8887 50bc
00000120: 23b4 693c 30b5 1a3c 9130 993c 82eb 16bc
00000130: 31c3 983c 42f5 143c ec15 43bc 7506 c9bc
00000140: d9b4 06bc 4139 f13c 276a f0b9 d3f1 84ba
00000150: 4b13 40bc 3ba0 893c eb41 c3bd c4f7 d8bd
00000160: 25d5 abbd bab6 21be 92d6 c9bd c283 ecbd
00000170: 7dcd 3ebd e23c fabd 8b7a bdbd 57ef ed3e
00000180: fad0 d53d c99b 9fbe 427f 0ebd 5498 3abf
00000190: a5c4 523d 148b 003e 945d 1b3e 8532 ee3d
000001a0: 7572 823d a133 053d c5a1 5d3b b4df 123c
000001b0: 09a6 0abb cef9 41bd aee2 bf3c 2c98 4d3d
000001c0: a4aa 22bb 0356 06bd ab0d 3fbc ab52 193c
000001d0: f08c d9bb 6cf6 b4ba 6761 f73b bba3 9d3a
000001e0: 6871 d73c 4f24 3bbb f997 cb3a 6612 763c
000001f0: 9d4c 503c cc7a 32bd a0ca 67bd e78f 80bd
00000200: eb63 bfbd 59b7 54bd 2677 273b 95e1 03bd
00000210: 9184 86bd 48b3 08bc 4359 dbbc 64c2 573d
00000220: 48ad c43d cf8c fb3d 10fd 5e3d 7d26 9e3c
00000230: e885 7b3c 220d a73c 8a4e 27bc d5b8 c6bc
00000240: 995c afbc 0f22 9a3d 66e9 803d ea07 2b3d
00000250: 1dfa 083d b056 9c3d 237e 0abe 4967 fabd
00000260: 2c2f f2bd f47a 93be 14c4 38be 6989 dabc
00000270: aef0 91bd cc3f 8a3e 9c30 bf3c 983e 8f3d
00000280: f3a2 883d 44ab 2a3d 51ba b13c ca9d ef3a
00000290: d74c 233c e754 37bc 675d 78bc c565 b63c
000002a0: 16c5 553d 4b53 353d 9744 a2bc fc40 aebc
000002b0: 7ea3 813c 38bc 02bb dff3 c1bc e75f 6f3d
000002c0: db6c f43d 66b7 023e 36f4 983d 3698 783d
000002d0: e05d 71be 4c81 b6bd 79f7 d03d 5c73 89bc
000002e0: 8040 ee3e 879b a4bc fefc 88bd 3c49 45bd
000002f0: d265 8fbd de98 8cbd 4579 cebb 3679 73bc
00000300: 89de 19bd b7c1 2cbd 99dd d9bc 2e70 653d
00000310: 5109 2a3d d075 8d3d 752f 9e3d 0aa8 a03d
00000320: edf6 dabd 57b7 4abd 4801 86bd 78c7 9bbd
00000330: 8b93 92bd 13fa 9abd 0f46 703d b780 8cbd
00000340: da85 693e b623 403e 0617 59be 7107 05bd
00000350: d228 b73f d13f a2be cc60 d2be 4bc0 3abd
00000360: 8a90 24bd d6df 0a3d 42f3 c5bb 3fef 5f3b
00000370: 527e 24be 31e1 54bd b581 ddbd 5028 8c3c
00000380: 7ff6 d8bd 5be1 3c3d 8205 003d 9e8a 463d
00000390: 1c9e 763d 986e 4b3c 4e30 ff3a 1cf6 783c
000003a0: 6c51 8b3c bb28 b13c a5eb ccbc af94 943d
000003b0: 1aca 473d 282f 153d 5ae4 ac3d 4e27 c03c
000003c0: 7d5a 9c3d 4978 603c 23a8 56bd 1e33 c9bd
000003d0: 4576 26bd e521 d23c 7ce6 98bb 4943 90bc
000003e0: 95f7 11bd aa68 b5bc 45cf ac3e 2cf8 ae3d
000003f0: 74ea 3b3e acee 16bd 8be3 e83d 32d4 a1bd
0.093145646 0.029976891 -0.038667366 -0.02484222 0.0418086 0.09257271 0.062417902 0.14748837
-0.010823892 -0.09184558 0.519895 0.22022302 -0.113579586 -0.19638936 -0.33270523 -0.013439412
0.064583264 -0.07991513 0.10226857 -0.024154816 0.009908253 0.0135531025 0.019900393 0.02106098
0.013319451 -0.1611796 -0.24034542 0.3915961 -0.08781064 0.31574664 0.007920245 0.013307884
0.047479834 0.038040835 0.08098322 -0.61428344 -0.22570263 -0.17636776 0.13661963 0.3959517
0.041448697 0.01977661 -0.13983323 0.07248523 0.029673096 -0.04547895 -0.036625586 -0.06665139
-0.036458097 -0.068594314 0.058543745 0.04995719 0.063073955 0.062010217 0.061387867 0.10927878
0.21185374 -0.42846924 0.45997268 0.10925387 -0.060963858 0.025088966 0.067338236 0.14020027
0.007207202 0.0073772767 0.04793453 0.073140174 0.10327007 0.031892348 0.010147355 -0.012727626
0.014264139 0.0094426125 0.018699916 -0.009211423 0.018647762 0.009091677 -0.011907082 -0.024539212
-0.008221828 0.029446246 -0.00045855457 -0.001014287 -0.01172335 0.016800037 -0.09534057 -0.105941325
-0.083902635 -0.15792361 -0.09855379 -0.11548568 -0.046582688 -0.12218644 -0.09251889 0.46471664
0.1044025 -0.31173542 -0.03478933 -0.72888684 0.051457066 0.12553054 0.15172416 0.116307296
0.06369487 0.03251994 0.0033818346 0.008964468 -0.0021156094 -0.047357373 0.023423519 0.05019395
-0.0024820948 -0.03279687 -0.011660974 0.0093580885 -0.0066391155 -0.001380635 0.007549453 0.0012026945
0.026299194 -0.0028555577 0.0015532962 0.015019035 0.0127135785 -0.04357414 -0.056589723 -0.06277447
-0.0934523 -0.051932666 0.0025553196 -0.032197554 -0.06568254 -0.008343525 -0.026775962 0.05267562
0.09603363 0.122827165 0.054440558 0.019305462 0.01535175 0.020392004 -0.010211596 -0.024258057
-0.021406459 0.075260274 0.06294517 0.041755594 0.03344165 0.07633722 -0.1352468 -0.12226731
-0.118254036 -0.28804743 -0.18043548 -0.02667685 -0.07125984 0.27001798 0.023338608 0.06994361
0.06671705 0.041667238 0.021695288 0.0018281278 0.0099670505 -0.011189676 -0.015158988 0.022265324
0.05218991 0.044268887 -0.019808097 -0.021271221 0.01582503 -0.0019948613 -0.023675857 0.05844107
0.11934825 0.12765273 0.074684545 0.060692035 -0.23570967 -0.0891138 0.10203452 -0.01677864
0.46533585 -0.020093692 -0.066888794 -0.048165545 -0.070018426 -0.068650946 -0.0063010775 -0.014860442
-0.03756574 -0.04217693 -0.026594924 0.056015186 0.04151279 0.069072366 0.077238955 0.07844551
-0.106916286 -0.049491253 -0.06543213 -0.07606405 -0.07157048 -0.07567229 0.058660563 -0.06860488
0.22804967 0.18763623 -0.21200189 -0.0324778 1.4309332 -0.31689313 -0.41089475 -0.04559354
-0.040176906 0.033904873 -0.0060409615 0.0034169701 -0.16063812 -0.05197257 -0.10815755 0.017109066
-0.105938904 0.046113353 0.031255253 0.04847204 0.06020938 0.012416504 0.0019469352 0.015195396
0.017006598 0.021625867 -0.025014708 0.07254922 0.048776723 0.036421925 0.08441992 0.023456242
0.07634447 0.013700553 -0.05240644 -0.09824203 -0.040640134 0.025650928 -0.0046661478 -0.017610209
-0.035636503 -0.022144634 0.33751884 0.08543429 0.18351156 -0.03684871 0.113715254 -0.07901801

encoder.block1.convblock2.0.pointwise_conv.weight f4 [64, 64, 1]
00000000: 4a2d 3cbc e714 a2bd e5dd 4dbc 42d4 88bc
00000010: 7ffc 80bc 1e26 d0bb da56 32bd 0ecc 8d3c
00000020: 80de 05bd bff0 223d aef8 03bd 7cf8 d2bd
00000030: 2540 6b3d 566b 97bd b844 89ba 9518 bfb8
00000040: d0e0 0e3c c8bf afbd 16fb eb3c dbc8 1bbe
00000050: 66e1 613d 8d43 2ebc ef1e d4bc 3cc1 093b
00000060: b78a 1d3c f9db 3bbc be0f 00bb 9868 d0bc
00000070: 49c1 c93b d8a8 f6bc d91f 463e 3336 773d
00000080: 530a ec3c 75d4 4dbc 3878 c23a 7540 8c3d
00000090: c751 cabd 90f3 f1bc 35af 01bc d9ee 25bd
000000a0: fb63 303d 4f78 7fbc 820c 06bd 3cb6 e2bb
000000b0: d743 643d d339 3ebc 179f 0cbc fd46 e3bc
000000c0: 1c5b db3b 81ba a13c f766 e7bd 4ac2 b13d
000000d0: 80ef 9a3d 3b4a c13b 2b0d 373b a35b 9d3d
000000e0: cd88 09bb ae11 0cbe 2870 a9bc 8422 3c3d
000000f0: 8f06 ddbd 26ea 1cbb 86bf 7a3b 1c85 0b3e
00000100: d19c 9fbc bb51 c3bb f3a4 39be f286 8e3b
00000110: 1afe 94bc ba46 d63d 7a4b 41bc 095b 143e
00000120: 6ee6 003c 0638 983b e40b 29bc e625 77bc
00000130: de50 d53c dac2 24bd 88e3 e93a 8e3d ee3b
00000140: c4f4 00ba ce39 66bd 9b71 103c 23d0 2abe
00000150: 540c fc3c 65f2 abbb 3ae0 81bc c8a9 593a
00000160: 1810 923c 4b92 493c 6f52 4f3b f9a6 1f3b
00000170: 6954 0aba 613d 15bc 39a7 bb3d aec6 303c
00000180: 64e0 ff3b 555a 84ba fee3 273c 77f0 5dba
00000190: 5a87 003e 2023 24bc 207a df3a ac68 36bc
000001a0: e11f 663c a45d 253d ab6b 1cbd 08a2 b33c
000001b0: 40fa 093c c1d7 edba 09fe 2fbc c5b2 4b3c
000001c0: ffd8 0c3b 25b4 5a3c 6128 3cbd 9e64 833d
000001d0: b590 0f3d 8a08 75bc 070d 513c fe41 a73c
000001e0: 18f1 63bc 8587 d0bd 0993 aabb f272 283e
000001f0: b601 ed3b fe56 23bc 6edf d0bb de12 70bb
00000200: ece0 6dbb bdde ac3a 8e24 e63b e4f2 48bb
00000210: 8f40 0c3a dbd7 01bc f0d2 7a3b bc9e c23b
00000220: bf35 3dbb 4faa 1a3b b854 3cba 1d16 37bc
00000230: 9fbc 6ebb 8833 0a3a c437 83bb 4c32 82ba
00000240: 2d95 573b ca65 0bbc d854 d03b 0830 b5bc
00000250: 6c2c c63b c972 6a3b 97c5 823a e3cb 56bb
00000260: 6c54 1dbb f61f 1f3b 0daf 733b 5838 653b
00000270: 24d7 90bb b351 843b 9125 9ebb 3ac1 8bbb
00000280: 8228 bcba f59a b939 a996 1c3b 7d11 c73b
00000290: 7db9 39bc 0787 eb3a 372d 593b 1502 c439
000002a0: fc5a 18bb cbba b5ba 1a1c af3a ed44 b639
000002b0: 4746 0e3b 093e c7bb 9b18 8b3b 2a7d 5db7
000002c0: d61f 86bb 7b6d 61bb 994d 88ba 211d 0a3c
000002d0: 5db5 793a 4d1a df3a 9926 483b 0f44 db3b
000002e0: 5678 833b 4821 c23a b937 93ba ae9e 2b3b
000002f0: e4eb a2ba 83df 1e3b 4782 9a3b b0b3 163c
00000300: d612 59bd c92c 7abd e660 d8bc bf40 fbbc
00000310: a718 51bd 3bf2 aeb9 d74f f1bc fcc7 b4bd
00000320: 99c6 b9bc 9ca7 483d e920 37bc 4dda fabc
00000330: 824e de3d 9fba 15bd f14e b23b 78f6 673a
00000340: e2f9 e73a 3714 48bc dd6f 513d f51d 443d
00000350: e608 4b3b 41d2 d83c a653 8bbd b3eb 4f3b
00000360: 7582 1e3c ac3f b0ba b773 1dbb f753 babc
00000370: 9855 e1ba bce4 bbbc 0c90 7f3d 38ff c03d
00000380: 6633 113d db4a 0bbc cbcf 593b ff2c 673c
00000390: 850c 15bc 335b 39bc e7df ffbb a4ab eebc
000003a0: c9c1 fa3b c089 45bd ac24 edba 1294 bdb9
000003b0: ceb6 f13b 509f 8ebc 8ff0 63bc 253d f0bc
000003c0: 74bf 533a 5ad5 2a3d 448a 49bd 6427 0e3d
000003d0: 1dd0 8c3b 7361 4abb 1730 ce3b e8cd d43c
000003e0: 9f36 c3bb 75c8 22bd 5120 c3bb 0511 ac3c
000003f0: 5a6d 73bd 6ff6 f8bb a2d5 563b 35cd 243a
-0.011485407 -0.07914143 -0.012565111 -0.016702775 -0.0157454 -0.0063522 -0.04353986 0.017309215
-0.032682896 0.039780375 -0.03221958 -0.10301301 0.05743422 -0.073935196 -0.001047275 -9.1121685e-05
0.008720592 -0.08581501 0.02880625 -0.15213339 0.055146597 -0.010636223 -0.025893657 0.0021019718
0.009615592 -0.01146602 -0.0019540633 -0.0254405 0.0061570746 -0.030109808 0.19348086 0.060354423
0.028813517 -0.012562861 0.0014836853 0.06848232 -0.09878879 -0.029535085 -0.007915308 -0.040510986
0.0430641 -0.015592649 -0.032726772 -0.0069186967 0.05572876 -0.011610466 -0.008582852 -0.02774381
0.0066942107 0.019742252 -0.11298936 0.08679636 0.07565212 0.0058987415 0.0027931433 0.07683494
-0.002098608 -0.1367862 -0.020683363 0.045931354 -0.107922666 -0.0023943274 0.003826113 0.13624996
-0.019483956 -0.0059606708 -0.1812933 0.004349583 -0.018187571 0.10462709 -0.01179778 0.14487852
0.007867439 0.0046453504 -0.010317776 -0.015084719 0.026039537 -0.040224887 0.0017844299 0.0072705215
-0.00049192854 -0.05620747 0.008816148 -0.1668096 0.030767597 -0.0052474015 -0.01585399 0.00083031924
0.01782994 0.012302945 0.0031634828 0.0024360998 -0.00052768603 -0.009108872 0.091627546 0.010789556
0.007808732 -0.0010097722 0.010247229 -0.0008466313 0.12551633 -0.01001814 0.0017049946 -0.011133354
0.014045686 0.040372506 -0.038188618 0.021927848 0.008421481 -0.0018145965 -0.010741719 0.012432759
0.0021491644 0.013348614 -0.045936946 0.064156756 0.035050113 -0.014955649 0.012759454 0.02041721
-0.013912462 -0.10182098 -0.0052055162 0.16450098 0.00723287 -0.009969471 -0.006374291 -0.003663234
-0.0036297394 0.001318894 0.0070234006 -0.0030662352 0.0005350196 -0.007924999 0.0038272701 0.005939333
-0.0028871146 0.0023600047 -0.0007184255 -0.011174706 -0.0036428345 0.0005271961 -0.0040044505 -0.0009933203
0.0032895312 -0.008508155 0.0063577704 -0.02211763 0.006047776 0.0035773984 0.0009977099 -0.0032775335
-0.0024006618 0.0024280525 0.0037183196 0.003497621 -0.004420178 0.0040380596 -0.0048262556 -0.0042649778
-0.0014355334 0.00035401402 0.0023893511 0.006075083 -0.011335728 0.0017969318 0.0033138522 0.00037385584
-0.002324759 -0.0013864873 0.0013359815 0.000347651 0.002170937 -0.006080393 0.0042448766 -1.32017685e-05
-0.0040931506 -0.003439753 -0.0010399102 0.008429796 0.00095256214 0.0017021388 0.0030540584 0.006691463
0.004012148 0.0014810944 -0.0011231817 0.002618711 -0.001242992 0.002424211 0.0047152373 0.009198114
-0.05299648 -0.061077867 -0.026413392 -0.030670522 -0.0510489 -0.00033368342 -0.029457016 -0.088272065
-0.022677707 0.04898797 -0.01117728 -0.030621672 0.10854818 -0.03655493 0.0054415395 0.00088486774
0.0017698372 -0.012211851 0.05113207 0.04788013 0.0030980646 0.026467444 -0.06803064 0.003172618
0.009674658 -0.001344671 -0.002402527 -0.022745116 -0.0017191647 -0.022936217 0.062393233 0.09423679
0.035449408 -0.008501734 0.0033235427 0.014109849 -0.009097223 -0.0113132475 -0.0078086737 -0.029134579
0.0076524955 -0.04822707 -0.0018092594 -0.0003615921 0.0073765283 -0.01740995 -0.013912334 -0.029326031
0.000807754 0.041707374 -0.049204126 0.034705535 0.00429727 -0.0030880838 0.006292354 0.02597709
-0.005957439 -0.039741952 -0.00595478 0.02100421 -0.059430458 -0.0075977365 0.0032781144 0.0006286682

encoder.block1.convblock2.1.weight f4 [64]
00000000: a61f ee3e e482 b63e 55bd 503d 53ae 243e
00000010: e654 093e 9cf2 743d 54c2 7d3d dae4 4d3f
00000020: 3e8a 783e 1386 993e e2b7 883e 5f94 5a3e
00000030: 476d db3d 795d c73e 50a7 c63e 5fe2 3e3d
00000040: 880c 203d bbb9 543f 293d b83d ee2a 343f
00000050: 9268 e83d a096 803d 79f6 d43d 13d5 993e
00000060: c135 963d ee00 663d 587c 603d 85e7 233e
00000070: 1f76 0a3e 9bdd 203e fb27 b53e 5f09 d13e
00000080: a619 343d 589a ab3e 1750 403d 0999 1a3e
00000090: d39f a53e f2f0 2c3e 9bde 273f 8256 aa3d
000000a0: bd68 7d3f 1bf5 273f 7233 263d f360 663e
000000b0: 56f0 c33d 0946 fd3e a9ad 403d 79b1 de3e
000000c0: 5ef8 263e 486c 633e 386d 3a3e 2980 9f3e
000000d0: 8758 443d 70bc 103e 40b8 443e 3c50 663d
000000e0: 0889 093f 090a 5b3f eccf 9a3d 72a4 de3d
000000f0: 5e31 e13e 0b05 433d 43dc 8d3e 5860 fd3d
0.4650852 0.35646737 0.05096181 0.16082124 0.13411292 0.059801683 0.061952904 0.80427325
0.24271485 0.29985103 0.2670279 0.21345662 0.107142024 0.389385 0.38799524 0.046602603
0.03907445 0.830959 0.089960404 0.70378006 0.1134807 0.062787294 0.103985734 0.30045375
0.073344715 0.05615323 0.054806083 0.16006286 0.13521622 0.15709536 0.35382065 0.40827462
0.043969773 0.33516192 0.04695138 0.15097441 0.323485 0.16888788 0.65574044 0.08317281
0.9898794 0.65608376 0.040576406 0.2249792 0.09567325 0.49467495 0.047040615 0.43494776
0.16305682 0.22209275 0.18205726 0.31152466 0.04793599 0.14134383 0.19210911 0.05622886
0.5372472 0.8556219 0.07559189 0.10871209 0.43982977 0.04761223 0.2770711 0.12371892

encoder.block1.convblock2.1.bias f4 [64]
00000000: 801b 3bbd 810f 3ebe eb0c 403c 8345 2fbe
00000010: 095f bdbd dadd 77bd 4f13 84bd 0c4a 18bf
00000020: d2e8 06be 8a61 dabc 91cc 103e ac4f fe3d
00000030: d017 d43d 2af9 84be 52b2 a2be efec 963b
00000040: 80fb 0abb 9c31 31be 5263 9b3c 6e5f d4bd
00000050: 84cb 2c3d cd22 4f3c 9970 ecbc ff23 33be
00000060: c033 cbbd e90d 3b3c 7535 a03b 9f34 0c3b
00000070: 535a 24be a5d7 c93d 461e 9abe be9a 0dbf
00000080: 0929 1bbd 20a5 90be 3d2b 62bc a74a d6bd
00000090: 3125 e2bd 709a b93d 0aa1 bbbd 9006 9abd
000000a0: 05d0 81be a57f 0ebd 717e 80bc 43c6 38be
000000b0: 7576 cdbc dbaa 82bc 9dc1 d4bc 369a 883e
000000c0: 92a4 04be 2fc1 7a3e 10b4 23be 68af fabd
000000d0: 1342 7bbb 033f ebbd acbd 783d fdc3 853c
000000e0: e4aa 1dbc 02c6 8fbd 2761 bdbd fd33 1e3c
000000f0: 4096 09bf 742d a43a e144 87be c403 dc3c
-0.045680523 -0.18560602 0.01172183 -0.1711636 -0.09246642 -0.06051431 -0.06448995 -0.59487987
-0.13174751 -0.026657838 0.14140536 0.1241754 0.103561044 -0.25971347 -0.31776673 0.0046058814
-0.0021207035 -0.1730408 0.018968258 -0.10369764 0.042186275 0.0126425745 -0.028862284 -0.174942
-0.0992198 0.011416891 0.004889185 0.002139367 -0.16050081 0.09855584 -0.30101222 -0.5531424
-0.03788093 -0.2825098 -0.013804254 -0.104634576 -0.1104225 0.0906266 -0.09161575 -0.07520783
-0.2535402 -0.0347897 -0.015685292 -0.18044381 -0.025080899 -0.01595061 -0.025971228 0.26680154
-0.12953404 0.24487756 -0.15986657 -0.12240487 -0.0038338944 -0.11486628 0.06072776 0.016328806
-0.009623263 -0.07020189 -0.09247046 0.00965595 -0.5374489 0.0012525753 -0.26419738 0.026857264

encoder.block1.convblock2.1.running_mean f4 [64]
00000000: ca65 d7bd a8c1 b3bd 3776 233b a708 5dbd
00000010: a364 e7bd 3e6d 2abc f4c0 a7bc 5921 c5bc
00000020: f661 d7bd 4fd5 43bd f832 2ebe f275 71bb
00000030: 12bf a1bd b64d de3c 60ae bcbd dc36 0a3c
00000040: d8e3 793b 0c0d bcbe 53ee cb3c 6964 1cbf
00000050: 57a2 de3a 1ac1 483c 5141 4cbc 3396 d33c
00000060: 3a9c 30bc 98e5 d83a f005 853c 82c2 393c
00000070: 23ba c03c 937d 873b b513 5ebe 5f5a 7abb
00000080: cf9e 7abc 075a 80ba a4fb b9bb 5b4f a33c
00000090: 1f37 c03d 49bd 14bd 7384 15be da2f 96bc
000000a0: aaa7 11bf 6902 7ebe beef 52bb d27a 7bbd
000000b0: 3700 a63c 5f64 57bb 3596 3d3b 1427 61be
000000c0: 536c 86bc 1b36 a2bd 525d 98bd 409f 273d
000000d0: fca1 803b 3ce5 0fbd 674e 113d 3b74 ca3b
000000e0: 15b1 bfbd da5a a3be 8a53 333b 2136 3cbc
000000f0: d4dc 73be 723f 203b eae1 8c3c da7b b33c
-0.105174616 -0.087771714 0.0024942288 -0.05396333 -0.11298492 -0.010402022 -0.02047775 -0.024063753
-0.105167314 -0.04781085 -0.1701163 -0.0036843983 -0.07897772 0.027136665 -0.09212947 0.008435931
0.003813019 -0.36728704 0.024893915 -0.61090714 0.0016985637 0.01225307 -0.0124667445 0.025828457
-0.010779435 0.0016547916 0.016238183 0.011337878 0.023526257 0.0041348427 -0.21687205 -0.0038200838
-0.015296652 -0.0009792455 -0.00567575 0.0199353 0.093855135 -0.03631333 -0.14601307 -0.018333364
-0.5689646 -0.24805607 -0.0032186355 -0.061396427 0.020263774 -0.0032866222 0.0028928642 -0.21987563
-0.016409075 -0.07920476 -0.074396744 0.040923357 0.00392556 -0.035130724 0.03547516 0.0061784065
-0.093599476 -0.31905252 0.0027363026 -0.011487515 -0.23814708 0.002445188 0.017197568 0.021909643

encoder.block1.convblock2.1.running_var f4 [64]
00000000: 5c4a a73c 817f ee3b 00d3 5c39 5c62 933b
00000010: 8e4e 073c 3262 6c3a 6891 f33a 8c03 103e
00000020: 54c7 883c d4b9 933c 79de 113e 9f6c 9f3c
00000030: 11b2 483b bcec 093d 47ce b03c 3025 aa38
00000040: 01f8 4a37 12b4 5b3e f5b1 7d3a 72f9 b03e
00000050: fa21 7c3a 8d8d dc38 0a0e 763a f65c 8a3c
00000060: 6c9a 9f3a 993b 4238 83fc 5639 d64a c33a
00000070: 2821 313b d72e 3b3c 8fc6 cd3c 2df0 dc3d
00000080: dbe2 fc39 1124 153d fea7 2738 9a2a 443b
00000090: 312c 203d ad89 fb3b f7de 5b3e ab75 7639
000000a0: 27c9 fe3d ed40 1c3e 15ae 9a38 22b7 323b
000000b0: 2519 ca3a 6b85 c03c 3682 3839 2243 263e
000000c0: 8358 963a 22ff 903b 3585 403c fe82 773c
000000d0: 934d 2638 146f 493a 4227 863b 7ea2 0338
000000e0: 93dc d73d e36b 273e 114a 363a 65fe 3c3a
000000f0: 743a e43c 349a 9438 8334 533b e303 d03a
0.0204212 0.0072783832 0.00021059439 0.0044978093 0.008258475 0.0009017318 0.0018582763 0.14063853
0.01669661 0.018032946 0.14245023 0.019460974 0.0030623714 0.033673033 0.021582736 8.1131584e-05
1.2097881e-05 0.2145541 0.0009677702 0.34565312 0.00096181 0.000105167834 0.0009386247 0.01689003
0.0012176759 4.630871e-05 0.00020502698 0.0014899622 0.002702782 0.011424742 0.025119094 0.107879974
0.00048234206 0.03641135 3.9972358e-05 0.002993262 0.039104644 0.0076763243 0.21471773 0.00023504223
0.124407105 0.15259142 7.3757175e-05 0.00272698 0.0015418871 0.023501119 0.00017596115 0.16236547
0.001147047 0.0044249455 0.011750509 0.015106915 3.964973e-05 0.00076840934 0.0040940354 3.1384167e-05
0.10540118 0.1634975 0.0006953786 0.00072095386 0.027859904 7.0859125e-05 0.0032227344 0.0015870299

encoder.block1.convblock3.0.depthwise_conv.weight f4 [64, 1, 3]
00000000: 9e3b 69be 7921 a3bd 39d0 69be 44ae b1be
00000010: 284e a9bd 0b8e 66bd c7bc f8bc 5e38 cfbc
00000020: f086 80bb e833 cfbd 6b40 02bd 83fb 8abd
00000030: ceda 413e 3425 01be 56f2 88bd 9fac e3bc
00000040: e878 11bb 2008 2bbd cbc2 0f3d 65af ccbc
00000050: 5977 633d 764c 82bd 5b8f 00be c94e 4bbe
00000060: e6cd 253e 2945 aa3d 5736 65be 202d 563d
00000070: 8c4d 023e f416 433e 4a5c d1be 3db2 903e
00000080: e452 053e dd09 f5bd b5de 6fbd 34e4 01be
00000090: 2867 913c 52a4 173c 2e44 9f3c 94c0 3c3e
000000a0: 3f4d 463e 0239 923e c8a1 0b3e 19b1 083e
000000b0: 279f 2d3e 15e0 bbbc 04fa 28bc ee95 fa3b
000000c0: f7a0 02bd 75db 683c 6488 ca3b 2b78 1f3f
000000d0: fcc1 18bf d656 803e 745e 46bb f376 90bc
000000e0: 67fd a9bd c2ef 2bbf fdfc 013d 2693 ea3e
000000f0: d0e6 963d 2759 813d d139 503d 9adc acbc
00000100: 6026 e9bc 70ab 1ebd f3c4 a63d f48f 2f3c
00000110: 47f5 afbc e06d 7a3d 3c64 043e 4e89 683e
00000120: 0a2a 92bd 9c52 1e3b 6f53 e6bc 4c33 cdbc
00000130: b323 1dbd a223 a0bc 192f 293d 3b5a 003c
00000140: edc7 85bc 5628 963d 101f ab3d cf6b 9f3d
00000150: 9f8d 15bd 345f 50bd 10ee 2bbd 670c e3bd
00000160: 8d2a c1bd 1834 2ebd 1ca6 07bd dc83 c7bd
00000170: 37d0 4cbe 2653 503c 5d70 cb3d d5a3 183e
00000180: 5e24 26bd 60bb a13c 5e83 e23c 0c4f 363e
00000190: 0a52 fc3d 9293 553e d25f d93c 05d3 22bc
000001a0: 1b7c be3c 84be d33d 274c ac3d 9b68 c63d
000001b0: de32 ffbd d976 cdbd 35da 5abe 71f3 ad3d
000001c0: 06e5 6b3d 313b d53d 1ec9 fe3e f0c6 ce3d
000001d0: 26c6 983d a1b7 34bc 4ab7 a9bc a3c4 acbc
000001e0: 7704 79be bd5e 06be 59d6 6fbe eaab 91be
000001f0: 12e0 dcbd e42e 99be 9c9f cabc 951e cfba
00000200: 8163 013d 1353 403d 960d b33c 1549 613d
00000210: 4cc3 72bd f04b 2ebd 0a25 3dbd c7e8 d2bd
00000220: c150 52be b531 93be 647e b8bc d086 a5bc
00000230: 4447 dabb 0618 c1be 257d 163e 7f0e ec3e
00000240: 6427 f03c ba4b 563d a701 343d 95c6 2abe
00000250: 796e 00be 2342 79be 40cd 62be 9b0a 233e
00000260: aa03 253d 448e 26be d5d3 4bbc 5a7a 7cbe
00000270: e61d 13bd b950 4fbc 0a2f ba3a a4f9 593d
00000280: 783f ae3c 519c 903d 6396 ea3d 1816 f33d
00000290: dda4 b43d ae81 1bbd 3d61 16bd 0f6c aabb
000002a0: 2d71 9b3c a601 a63e 1970 19bf e964 aabe
000002b0: ce40 60be e15a 92be 5ed5 f83c 3e74 0e3d
000002c0: 6f5f 243d 7886 acbd 65d1 4bbd 59d3 14bd
000002d0: 1074 2a3e a80e 1b3e f507 293e ea84 a6ba
000002e0: dbaa f9bc c41c 0b3c b663 703c 1dc0 f23c
000002f0: df2d 523d a545 4d3d 455a 843d a0bf 993d
-0.22776648 -0.07965369 -0.22833337 -0.34703267 -0.0826686 -0.056287806 -0.030363454 -0.025295433
-0.003922336 -0.10117322 -0.031799715 -0.06786253 0.18931124 -0.12611848 -0.06686847 -0.027792273
-0.002219731 -0.041755795 0.03509788 -0.024985978 0.05553374 -0.0636224 -0.12554686 -0.19854273
0.16191825 0.083139725 -0.2238401 0.05228913 0.12724894 0.19051725 -0.40890723 0.28260985
0.13019902 -0.11964772 -0.058562 -0.12684709 0.017749384 0.009255486 0.01944169 0.18432838
0.19365405 0.28559119 0.13635933 0.13348807 0.16955243 -0.022934 -0.010313515 0.0076472675
-0.03189179 0.014212479 0.00618081 0.62292737 -0.59670997 0.2506625 -0.00302687 -0.017634844
-0.08300286 -0.67162716 0.03173541 0.4581539 0.07368243 0.063158326 0.050836388 -0.021101285
-0.028460681 -0.038737714 0.08143034 0.010715473 -0.021479262 0.06113994 0.12928861 0.22708628
-0.071369246 0.0024158126 -0.028115956 -0.025048874 -0.038364124 -0.019548241 0.04130468 0.007834013
-0.016330684 0.07331912 0.08355534 0.07784235 -0.036512014 -0.050872043 -0.04197508 -0.1108635
-0.09431944 -0.04253015 -0.0331174 -0.09741947 -0.20001303 0.012715137 0.09933541 0.14906247
-0.040562026 0.019742668 0.027650531 0.17803591 0.12320335 0.20857075 0.026534948 -0.009938006
0.023252537 0.10339072 0.084129624 0.09687921 -0.12460874 -0.10032434 -0.21372302 0.084936984
0.05759146 0.104116805 0.49762815 0.10096538 0.07459669 -0.011030109 -0.020717282 -0.021089857
-0.2431811 -0.13122077 -0.23421611 -0.28451473 -0.107849255 -0.29918587 -0.02473431 -0.0015801961
0.031589035 0.046954226 0.021857064 0.055001337 -0.05926828 -0.04255289 -0.0461779 -0.10298305
-0.20538618 -0.2874886 -0.022521205 -0.020205885 -0.0066613276 -0.3771364 0.14696176 0.4610481
0.029315658 0.052318312 0.04394689 -0.16677316 -0.12542142 -0.24341635 -0.22148609 0.15922014
0.040286697 -0.16265208 -0.012440641 -0.24656048 -0.035917185 -0.012653523 0.0014204693 0.05321659
0.021270499 0.07061065 0.11454465 0.118694484 0.08820508 -0.03796547 -0.036713827 -0.00520087
0.018974865 0.32423133 -0.5993667 -0.33280113 -0.21899721 -0.2858496 0.030375179 0.034778826
0.040130075 -0.084240854 -0.04976024 -0.03633437 0.16645837 0.1514231 0.16506942 -0.0012704406
-0.030476978 0.008490745 0.01467221 0.029632622 0.051313277 0.050115246 0.0646253 0.07507253

encoder.block1.convblock3.0.pointwise_conv.weight f4 [64, 64, 1]
00000000: 318c 783d 0c1c 9b3d 5441 243c d9c3 e7bb
00000010: b393 003c c8d7 1b3b dc62 a83b 9b4e a83c
00000020: 16d6 8b3c 81e7 d6bd e4e8 75bd d9ca ac3c
00000030: 022e 9f3d 4b4b e5bd 97cc 5dbd 91dd ca3a
00000040: 8316 57bb 06bb 2bbe 8e71 e03b 74d3 acbd
00000050: 0e92 8ebc eb09 883c c704 29bb cb57 31bd
00000060: 1627 d83b 741e 013c bcb0 aabb 2b31 fdbc
00000070: 7eee b03b 7c2d 803c 9d16 d03d ce3a c5bc
00000080: c6eb 62ba 09f2 cebd 6b92 77ba 058f 05bd
00000090: d6e7 443d 1284 cab9 a83a 83bd 6864 88ba
000000a0: d356 aebd a5ed d3bd 0b64 bbb9 76f2 873b
000000b0: 20fb d53c 59aa c73d 0d46 063b aa60 da3c
000000c0: 051b 40bc 106b d4bd 54c7 f1bb dde3 0a3d
000000d0: 42d5 203c 01d4 723c d74d 72bd ffca 943a
000000e0: b719 b8b9 97c1 923d 6d31 c2bb da43 883c
000000f0: 746e c0bd a683 8c3b aeaa 063c fa94 02bd
00000100: 7a65 ad3d 9c7a c93c 96ae c43b b683 febb
00000110: f8d7 393a cc86 b7bb 6416 003d f53b c63d
00000120: 13d8 253b 039a d9bb 1f21 ad3d fbfc 1c3d
00000130: 43d7 cb3b c21a c7bc 993a 62bb f8f9 9e3b
00000140: 3cfc 1c3b a893 05bd 8707 533b b061 843c
00000150: 5663 ddbc 4d70 fa3a cb93 dbba cc48 4bbd
00000160: 64d3 873a 7671 173c b85d b3ba 46af edbb
00000170: 801b 11bc 2817 013d 2b06 0a3b 18d8 53bd
00000180: b1be 05b8 a969 78ba 005e c6ba 2eed f4ba
00000190: 0d36 c23c 613f 81bc 84f2 3cbe 18c0 0e3c
000001a0: 8730 033d 0946 95be b9bc b23b ab85 b7bb
000001b0: 6faf 693c 9e4b 84bd d12a 04bb fde9 bfbd
000001c0: 3162 1bbb 35f8 25bd 9101 3eba 3ef1 253d
000001d0: 54f5 5f3b 6196 7d3a 1377 5fbc 09ce 823a
000001e0: 2537 eb3d a769 23bd fe20 02bc 331b cc3b
000001f0: e9e1 31bc e186 79bb 7147 f9bc c28f b7bc
00000200: ee60 ddbb be09 0a3c 2b66 87ba b463 80bb
00000210: e4ae cf3a dc10 42b9 47ec 9cbb 72ff 31ba
00000220: 7b8f 483b fafd 303c 61e5 0cbc c683 c9bb
00000230: 3c64 d4ba 2d2c 3fbb 104d 713b 3e1e 163b
00000240: 0106 f3ba dac5 31b8 c65b 2cbb 3e28 6dbb
00000250: b59c 273a 4c15 b7bb b31e 313b 37bc 023c
00000260: c9c9 39bb ed0e 96bb 089c 71bb 6787 533c
00000270: 0214 2c3b ba80 27bb 8023 52bc c109 543b
00000280: cad7 483b 9eb6 f43b 24ce 793b 8683 b0ba
00000290: 70e0 95bb d1ab fd3b 2e55 90bc 0de4 57ba
000002a0: c422 87bb 063d 7fbc bd68 193b 62d1 503b
000002b0: cf2f 123a 47b0 71bc 4844 0b3b 9fbc ca39
000002c0: 9877 c03b 5b66 0b3c 619f 9abb ec2d 8bbb
000002d0: bd64 e33a a562 d6bb ed6a 983b 3354 a7bb
000002e0: 6615 1f3c a9fa 4fbb e645 87bb 4f7c fcba
000002f0: b49f 543b 47e2 6b3b c476 e93a a0ae 173c
00000300: a7f0 103d 26b8 7f3c 57ad a93a 04e3 383d
00000310: a710 50bb b9da 8d3b 2923 11bb 1c2e cc3d
00000320: c790 4d3d fe00 753d ff12 e93c c769 853d
00000330: da2e dfbc 2452 583d 9d5d 823d d801 be3b
00000340: 013c f5b9 d6d7 353b 1a80 dbbc 4596 abbb
00000350: ca63 19bc 0c18 a53a 8148 463c 0998 eabb
00000360: f117 62bc 3346 3d3c 3f58 973a 9f1b 5fbc
00000370: 604a 81bc a36e 5d3d 1f07 83bd 7a1f 20bd
00000380: 32eb 0e3c 16c8 5b3d 53aa 3c3b 0a10 063c
00000390: 1c71 29bd 4374 35bd 8a1f a7bd 1dae c63b
000003a0: 2a41 d53d 3b32 c1bd a44d c7ba f062 a6bc
000003b0: 1c44 f43a 0463 bcbd fb8b 443b f220 0e3b
000003c0: 9c65 9a3c 121d aa3d 9cc6 2fbc 90ad e5bb
000003d0: d55b 90bb 257b 2abc c75c 853c b3b4 f23b
000003e0: 4406 323d 22a5 04be 850e f93b c6b1 3d3b
000003f0: f855 353d ba4d 6c3c 14b2 dabc 4ba2 28bc
0.060680572 0.07573709 0.010025341 -0.0070729074 0.007847714 0.0023779739 0.005138738 0.020545295
0.017069858 -0.104933746 -0.060036555 0.021092819 0.07772447 -0.111960016 -0.05415019 0.0015477409
-0.0032819815 -0.16770563 0.0068494743 -0.08438769 -0.017403629 0.016606292 -0.00257902 -0.043296617
0.0065964563 0.007880796 -0.0052090567 -0.030907234 0.0053995242 0.015646689 0.10160563 -0.024075892
-0.0008656349 -0.10104758 -0.000944412 -0.032607097 0.04807266 -0.00038626842 -0.06407672 -0.00104059
-0.08512654 -0.103480615 -0.00035741957 0.0041487766 0.026120722 0.09749288 0.002048853 0.026657421
-0.011725192 -0.10371983 -0.007378498 0.033908714 0.00981647 0.0148210535 -0.059156265 0.0011352001
-0.00035114374 0.071658306 -0.005926302 0.016633917 -0.09396067 0.0042881547 0.008219404 -0.031880356
0.08466621 0.024594598 0.0060022576 -0.007767166 0.0007089372 -0.005600786 0.031271353 0.09679405
0.0025305792 -0.006640674 0.08453583 0.0383272 0.0062207296 -0.024304751 -0.003451979 0.004851576
0.0023954054 -0.03261152 0.0032200532 0.016159862 -0.027024906 0.0019106955 -0.001675242 -0.04962997
0.0010362682 0.00924336 -0.0013684547 -0.0072535602 -0.008856654 0.031516224 0.0021060805 -0.051719755
-3.1887266e-05 -0.0009476194 -0.0015134215 -0.0018686408 0.023707414 -0.015777292 -0.18451887 0.008712791
0.0320287 -0.29154995 0.0054546264 -0.0056006513 0.014263018 -0.06459735 -0.0020167122 -0.093708016
-0.002370965 -0.04051991 -0.0007248158 0.04051327 0.0034173327 0.0009673592 -0.013639229 0.0009979616
0.11485127 -0.03989568 -0.007942436 0.0062288283 -0.010857084 -0.003807478 -0.030429574 -0.022407416
-0.0067559397 0.008425174 -0.0010330131 -0.0039181355 0.0015844968 -0.00018507562 -0.0047889086 -0.00067900785
0.00306031 0.01080274 -0.00859961 -0.006149742 -0.0016204189 -0.0029170618 0.0036819614 0.002290621
-0.0018541218 -4.2384352e-05 -0.0026299818 -0.0036187316 0.00063938956 -0.0055872556 0.0027026355 0.007979444
-0.0028349033 -0.004579416 -0.0036866684 0.0129107 0.0026257043 -0.0025558905 -0.012825847 0.0032354447
0.0030646198 0.0074680587 0.0038117254 -0.0013466931 -0.004573874 0.0077414294 -0.017618742 -0.00082355813
-0.0041240174 -0.015578514 0.0023408376 0.0031863083 0.0005576582 -0.0147515 0.0021250416 0.00038668976
0.0058736317 0.00850829 -0.0047187065 -0.0042474177 0.0017348748 -0.006542521 0.0046514184 -0.005106473
0.009709692 -0.0031735098 -0.0041282056 -0.0019263121 0.0032443823 0.0035993026 0.0017811884 0.009257942
0.035385754 0.015607869 0.0012945336 0.045138374 -0.0031748207 0.0043290523 -0.0022146201 0.09969732
0.0501869 0.0598154 0.02845144 0.06514316 -0.02724402 0.05281271 0.063655116 0.0057985596
-0.00046774748 0.0027747056 -0.026794482 -0.0052364194 -0.0093621705 0.0012595668 0.012102247 -0.0071592373
-0.013799653 0.011552381 0.0011546685 -0.013617425 -0.015782535 0.05406059 -0.063978426 -0.03909252
0.008723067 0.053657614 0.0028788045 0.008182535 -0.041367635 -0.04430033 -0.081603125 0.0060632364
0.1041282 -0.09433409 -0.0015205634 -0.020310849 0.0018636021 -0.09198573 0.0029990661 0.0021687117
0.01884728 0.08306326 -0.0107285045 -0.0070092157 -0.0044054785 -0.0104053365 0.016279591 0.007406795
0.043463007 -0.12953618 0.007600608 0.0028945073 0.04427144 0.014422828 -0.026696242 -0.0102926

encoder.block1.convblock3.1.weight f4 [64]
00000000: d162 be3e e8f1 c13e ea35 5f3d c5f7 953e
00000010: 2dd1 f63e 6a22 843e adb1 773e a27c b03e
00000020: 7290 ca3e b3fa c33e cf67 223e c2fc 393e
00000030: 4879 9e3e 42dd 543e f8d6 2b3f 5669 d53e
00000040: 25b3 de3e b148 d73e e490 013f 5f6d 603e
00000050: ebd9 2f3f 504b 313e 83b6 993e 0618 b23e
00000060: b0d5 993e c003 a53e 0888 aa3e 7ca5 9a3d
00000070: 08d4 553e 81ce 363d 8577 023f 2497 ba3e
00000080: cf1b b73d 3f4e cc3e 1b94 a23e 3d6d d23e
00000090: a143 d53d c790 853e d0e4 bd3e a949 593e
000000a0: 6427 883e 65da 1f3f 419c 503e f2d1 333f
000000b0: 9f06 393e cff5 af3e f42d 3c3e c75e 643d
000000c0: 37ac 803e 8661 df3e 3fbd 333f 314a bc3e
000000d0: 470e 383f f189 853e 5ab4 ec3d 62c5 0b3f
000000e0: 53e7 e33e 17ca 363e e38e 393d 349f 333f
000000f0: a276 803e d359 fb3e e41f 9d3d 93c6 ce3e
0.37184766 0.37879872 0.054494776 0.29290596 0.48206463 0.25807506 0.24188872 0.34470087
0.39563328 0.38277206 0.15859912 0.18162826 0.30951905 0.20787528 0.6712489 0.41681927
0.4349605 0.42047647 0.5061171 0.21916722 0.6869189 0.17313886 0.30022058 0.34783953
0.30045843 0.32229424 0.3330691 0.07551095 0.20881665 0.04463053 0.5096362 0.36443436
0.08940851 0.39903447 0.3175362 0.41098967 0.1041329 0.2608702 0.37088633 0.21219505
0.26592553 0.6244262 0.20372106 0.70242226 0.18068932 0.34367225 0.18376905 0.05575445
0.2513139 0.43629092 0.7021064 0.36775354 0.71896785 0.26081803 0.11557837 0.5459806
0.44512424 0.17850529 0.045302283 0.701648 0.2509051 0.49091968 0.07672098 0.40385875

encoder.block1.convblock3.1.bias f4 [64]
00000000: 9b41 2fbd dc6b 76bd 644e 803a 81b8 bbbd
00000010: 947a 07be 98b4 2c3c 5b37 aa3d 6b15 dfbd
00000020: 73ed 2abe 1ff2 8bbe c4d5 303d 4799 203d
00000030: 9434 dbbb 056e f53b ff83 cbbe b34a 98bd
00000040: fe4a 15be 3e0e 77bd 0ef3 79bd 5944 8cbd
00000050: 1070 27be c46f 5bbd 16f5 30bd 126d 0bbd
00000060: 9e32 8a3d 8aeb 27bd 3aa9 7fbd b7b5 913b
00000070: 0b18 4b3d 4916 43bb 8399 08be dc31 91bd
00000080: f191 f83a 3614 a8bd b226 11be 4058 55be
00000090: a348 82bc a2a4 30bd b9bc a23c 6bb8 e03c
000000a0: ddcc c23c e33f 16bd 23a2 acbd 5074 16be
000000b0: 1cdf 083b 02c2 f43a 75f6 8dbd 1559 d63b
000000c0: d44e e6bc afc5 c2bc 10d3 e4be 4267 3dbd
000000d0: 94d2 78be d656 81bd eadc d339 75eb 46be
000000e0: 5d14 10be dc9a 67bc 40ee f43a d6cb cabe
000000f0: 7698 b63d 53f6 f8bd 978c 94bd 7701 83bd
-0.042787176 -0.060161456 0.0009788987 -0.09166051 -0.13230354 0.010541104 0.083113395 -0.10892757
-0.16692142 -0.2733316 0.043172613 0.039208677 -0.0066896174 0.007489922 -0.39749143 -0.07436123
-0.14579388 -0.060316317 -0.06102281 -0.06848974 -0.16351342 -0.053573385 -0.043202482 -0.034039564
0.06747936 -0.040996112 -0.062417246 0.004446711 0.049583476 -0.0029767922 -0.1333981 -0.07089588
0.0018964392 -0.0820698 -0.14174917 -0.20834446 -0.015903777 -0.043125756 0.01986538 0.027431687
0.023779327 -0.03668202 -0.084293626 -0.14692807 0.0020884937 0.0018673541 -0.069317736 0.006541381
-0.02811376 -0.023775904 -0.44692278 -0.046241052 -0.24299079 -0.06315391 0.0004040965 -0.19425757
-0.14070268 -0.014136042 0.0018686727 -0.3960864 0.08915798 -0.121563576 -0.07253378 -0.06396764

encoder.block1.convblock3.1.running_mean f4 [64]
00000000: 9cec e8bc 09cb 55bb 41d1 863b 258b 0e3c
00000010: 6b60 02bd 45cd 00bd ba1d d7bc 6ba8 123c
00000020: 5672 74b9 6367 693b b073 7cbb bce5 25bc
00000030: a466 cfbb cb0d ddbc e07c 883c 8b03 73bb
00000040: 4b5a 51bd 5ebe f3bb 544c d43c a0eb 923c
00000050: e80c 543d 0135 573c e7c9 7cbd 855a acbb
00000060: c8ad 8b3c e451 c6bc 8800 47bd 69cf 8b3b
00000070: dddc 39bb ba51 f13a 2f24 2f3c 50a6 20bd
00000080: 65dd 003c 91e3 0fbd a523 2c3c 462a 203b
00000090: 55aa 1fbb cf38 1c3c 98b5 58bc 7522 6cbc
000000a0: a950 b3bc a6f5 0cbd 596b 303c 8846 65bd
000000b0: a63b 3bba a46a 04bd 7e85 803c 92f1 a2bb
000000c0: c152 3fbd 77a3 ea3b 3da7 163d d303 20bd
000000d0: f6ac 683d 1b7e b23c 7ee6 a43b 80b9 8f3d
000000e0: 87fe a9bc f552 87bc 1265 6dbb b110 7ebd
000000f0: b170 4f3b ba31 60bd 30ba 6cbc 82d9 863c
-0.028433137 -0.003262224 0.0041143005 0.008700167 -0.031830233 -0.03144576 -0.026259292 0.008951287
-0.00023312247 0.0035614602 -0.0038521104 -0.010125574 -0.0063293744 -0.026984116 0.016661108 -0.003708097
-0.0511115 -0.007438465 0.025915302 0.01793462 0.05177012 0.013135196 -0.061715987 -0.005259814
0.017050639 -0.02420897 -0.04858449 0.0042666686 -0.0028360405 0.0018411197 0.010689779 -0.039221108
0.007865285 -0.035129134 0.010506545 0.002443926 -0.0024363 0.009535029 -0.013226889 -0.014412512
-0.021889048 -0.034413956 0.010767781 -0.055975467 -0.0007142372 -0.032328263 0.015688654 -0.004972645
-0.04670978 0.0071606 0.036780585 -0.039066147 0.056805573 0.021788647 0.0050323596 0.07017803
-0.02075125 -0.01651905 -0.0036223573 -0.062027637 0.0031652863 -0.054734923 -0.014448687 0.016461138

encoder.block1.convblock3.1.running_var f4 [64]
00000000: 034b 673b 9cba d93b 9a46 2b38 d76a 243b
00000010: 863d 773b 6a17 0b3c cd24 153b f7bb 893c
00000020: 8f18 553c 762b 373c 2fab 523a 214f 343b
00000030: c969 dd3b f1ec bd3b f112 c13c 7f11 033d
00000040: b7d8 953c 6171 243c aab7 7a3c fb7a 283b
00000050: 864e 823d 34fe 0f3a d94b 4b3c 935a 0a3c
00000060: 132f 223c cea1 1b3c 26fa 263c 858d 0038
00000070: 8b4d 593c f9ea c737 350e 2e3c bcf9 c13b
00000080: cc97 2639 9411 a03c efda 2c3c 03a9 ec3c
00000090: ad57 223a 384f c83b 37a5 213c 5a77 733b
000000a0: 0b69 823a 03e0 be3c a1a4 113b b484 a83c
000000b0: b15e 9e3b db7b a43c a78f a53a 21dc 5c38
000000c0: cd5d 0f3c 3516 073d 473c ce3c 93b5 273c
000000d0: 038b 4e3d a17a c13b 9533 1a39 d5cb 0a3d
000000e0: 6eb1 823c d917 5a3a a0b0 4437 75cc 143c
000000f0: fee6 d73b c128 953c d156 f439 85e6 133c
0.0035292513 0.00664456 4.083533e-05 0.0025088096 0.003772588 0.008489469 0.002275753 0.016813261
0.0130063435 0.0111797955 0.00080363726 0.0027512985 0.0067569953 0.005796068 0.023568602 0.031999107
0.018291814 0.010036797 0.015302578 0.0025708068 0.063626334 0.00054928963 0.01240822 0.008444446
0.009898919 0.009499026 0.010191476 3.064938e-05 0.013263117 2.3832066e-05 0.010623504 0.0059196632
0.00015887542 0.019539632 0.010550245 0.028889185 0.0006192874 0.0061129592 0.00986605 0.0037149996
0.0009949518 0.023300176 0.002222337 0.02057109 0.0048330654 0.02007859 0.0012631313 5.26571e-05
0.008750391 0.032980163 0.025175227 0.010236162 0.05042554 0.005904511 0.000147058 0.033885796
0.015953746 0.00083195936 1.1723634e-05 0.0090819495 0.0065888157 0.01820791 0.0004660399 0.009027128

encoder.block1.shortcut.0.weight f4 [64, 1, 1]
00000000: 17a5 78bc 9ec6 11bd 3c4e cdbc 41be 243d
00000010: ea03 dbbc 0745 3abd 1da7 27bd 5107 1dbd
00000020: 1790 b53c db75 fe3c d704 2b3d 0a4a 2bbd
00000030: 78a3 debc d160 a4bc 587d 073d 4877 ff3c
00000040: 3997 32bd 3635 13bd 5e8e 23bd a5be 9abc
00000050: 6797 07bd 1e2c c93c 719a ac3c 6a16 c8bc
00000060: da11 13bd f490 e73c 87e4 03bd e89d 0abd
00000070: c686 febb 026c 23bd 260d 0c3d 0b2f fd3c
00000080: 7463 273d 7f5c 98bc d7d3 a8bc 73d4 97bc
00000090: a8af 0f3d c728 33bd c4ff f93c 8b7e acbb
000000a0: 443d 1abd 6f8a 753c fce8 9a3c ea89 6b3d
000000b0: 7667 25bd 5c15 963c ff41 74bc 433d 1cbc
000000c0: 8f94 47bd 62be 8b37 53c8 26bd d2af 793d
000000d0: 7903 1f3d 6124 323d 1e87 92bc b0b8 6dbd
000000e0: e8e4 00bd ba3a 073c e10a 27bd 6aa5 703c
000000f0: 1ab5 04bd 85d9 3cbd 0375 033d 89cc 0cbd
-0.015176079 -0.035589807 -0.02506172 0.040220503 -0.026735265 -0.045475986 -0.040930856 -0.038337056
0.022163434 0.031062057 0.041752663 -0.041818656 -0.027177557 -0.020065697 0.03307852 0.031184807
-0.04360125 -0.035939418 -0.039930694 -0.018889735 -0.033103373 0.02455717 0.021069737 -0.02442475
-0.035905696 0.028267361 -0.032200363 -0.033841997 -0.007767531 -0.039897926 0.034192227 0.03090622
0.04086633 -0.018598793 -0.020608826 -0.01853392 0.03507963 -0.04374006 0.030517466 -0.0052641085
-0.037656084 0.014986618 0.018909924 0.057504572 -0.04038187 0.018320732 -0.014908313 -0.00953609
-0.04872566 1.6658745e-05 -0.040718388 0.06095869 0.03882167 0.043491725 -0.017886695 -0.05803746
-0.031468302 0.008253748 -0.04078186 0.014687875 -0.032399274 -0.04610588 0.032094013 -0.034374747

encoder.block1.shortcut.1.weight f4 [64]
00000000: 1eab 62bc 4023 f03d aa1a 4c3d a74f eabc
00000010: a7ba e43d afdb 1c3e 5907 793d 1e24 a5bd
00000020: c064 c7bc bdee 363d 4413 2a3d 1c60 e93b
00000030: 387b 59bd 24e1 d3bc 870d a63d 17e5 9c3c
00000040: 8be9 923d 66be b7bd 1c54 0f3e f584 d23c
00000050: 6aa2 803d 144d 163d f009 ecbc 1062 44bd
00000060: a893 c63d ee86 953c 246c 293d 631a 603d
00000070: 2caa 643b 0551 2e3d b502 9e3d 1e7a cd3d
00000080: 259c 493d 007c eabc 8a31 063d fe3e 803b
00000090: 0d18 263d 03b9 633d 4d13 88bd 811c 98bb
000000a0: 59ff 3c3d 1f5e 653c 659d f6bc 4727 7fbe
000000b0: f4fb 2c3d 32ef c1bc 2bb4 44bb b31e 4f3d
000000c0: b94c fe3d 2cfa dbb6 154e ed3d cd6d 90be
000000d0: d073 e93d c8db 063e 887f 383d e31f 89be
000000e0: ce7b b5bd 71af 363b f6c0 233d 8612 f5bc
000000f0: c573 483d ded8 233e dc19 f5bc 9e18 c83d
-0.013834743 0.117254734 0.049830116 -0.028602434 0.111684136 0.15318178 0.060798023 -0.080635294
-0.024340034 0.044661272 0.04152228 0.007122053 -0.053096026 -0.025864191 0.08108049 0.019152207
0.07173451 -0.089718625 0.13996929 0.025698164 0.06280978 0.0366946 -0.028813332 -0.047945082
0.09696132 0.018252816 0.041362897 0.054712664 0.003489147 0.042557735 0.0771536 0.10033058
0.049221177 -0.028623581 0.032762088 0.0039137593 0.04055028 0.055596363 -0.06644306 -0.00464207
0.046141956 0.013999491 -0.030104348 -0.24917327 0.04223247 -0.023673628 -0.0030014615 0.050566386
0.124169774 -6.5558324e-06 0.115871586 -0.2820877 0.113990426 0.13169777 0.0450435 -0.2678214
-0.088615045 0.0027875567 0.039978944 -0.02991606 0.04893853 0.16000697 -0.029919557 0.0977032

encoder.block1.shortcut.1.bias f4 [64]
00000000: 9b41 2fbd dc6b 76bd 644e 803a 81b8 bbbd
00000010: 947a 07be 98b4 2c3c 5b37 aa3d 6b15 dfbd
00000020: 73ed 2abe 1ff2 8bbe c4d5 303d 4799 203d
00000030: 9434 dbbb 056e f53b ff83 cbbe b34a 98bd
00000040: fe4a 15be 3e0e 77bd 0ef3 79bd 5944 8cbd
00000050: 1070 27be c46f 5bbd 16f5 30bd 126d 0bbd
00000060: 9e32 8a3d 8aeb 27bd 3aa9 7fbd b7b5 913b
00000070: 0b18 4b3d 4916 43bb 8399 08be dc31 91bd
00000080: f191 f83a 3614 a8bd b226 11be 4058 55be
00000090: a348 82bc a2a4 30bd b9bc a23c 6bb8 e03c
000000a0: ddcc c23c e33f 16bd 23a2 acbd 5074 16be
000000b0: 1cdf 083b 02c2 f43a 75f6 8dbd 1559 d63b
000000c0: d44e e6bc afc5 c2bc 10d3 e4be 4267 3dbd
000000d0: 94d2 78be d656 81bd eadc d339 75eb 46be
000000e0: 5d14 10be dc9a 67bc 40ee f43a d6cb cabe
000000f0: 7698 b63d 53f6 f8bd 978c 94bd 7701 83bd
-0.042787176 -0.060161456 0.0009788987 -0.09166051 -0.13230354 0.010541104 0.083113395 -0.10892757
-0.16692142 -0.2733316 0.043172613 0.039208677 -0.0066896174 0.007489922 -0.39749143 -0.07436123
-0.14579388 -0.060316317 -0.06102281 -0.06848974 -0.16351342 -0.053573385 -0.043202482 -0.034039564
0.06747936 -0.040996112 -0.062417246 0.004446711 0.049583476 -0.0029767922 -0.1333981 -0.07089588
0.0018964392 -0.0820698 -0.14174917 -0.20834446 -0.015903777 -0.043125756 0.01986538 0.027431687
0.023779327 -0.03668202 -0.084293626 -0.14692807 0.0020884937 0.0018673541 -0.069317736 0.006541381
-0.02811376 -0.023775904 -0.44692278 -0.046241052 -0.24299079 -0.06315391 0.0004040965 -0.19425757
-0.14070268 -0.014136042 0.0018686727 -0.3960864 0.08915798 -0.121563576 -0.07253378 -0.06396764
