ldpi/training/output/ResCNN/best_model_with_center.pth (torch, 711778 bytes, 64 tensors)

encoder.block1.convblock1.0.depthwise_conv.weight f4 [1, 1, 7]
0.31048334 2.0856137 0.28983608 0.26145512 0.008113107 0.027121183 0.009836318
00000000: acf7 9e3e b27a 0540 6565 943e 72dd 853e
00000010: d6ec 043c 3e2d de3c 8228 213c

encoder.block1.convblock1.0.pointwise_conv.weight f4 [64, 1, 1]
0.01977195 0.03328216 -0.008780845 0.17029089 -0.019466182 0.03267436 0.033311628 -0.018249463
-0.024349373 -0.032321896 0.007442421 -0.035509277 -0.021997506 0.04137843 -0.04775687 0.024144754
0.02810448 0.021487541 -0.038710926 -0.031669877 0.023587165 0.028550494 0.030432018 0.028429644
-0.016521186 0.020818926 0.011003362 0.016793866 -0.028018108 -0.018795783 0.021933863 0.026458617
-0.02388156 -0.03424285 -0.046895236 0.02266061 -0.04054064 0.04164707 -0.039164826 -0.018910354
-0.0022518241 -0.0048684813 0.08112732 0.032128815 0.020377966 -0.020447193 -0.048047468 -0.049913246
-0.013728709 0.024494085 0.031893197 -0.015594319 -0.04836244 0.004577741 -0.040754955 -0.028137302
-0.032231726 -0.013910708 -0.01502692 0.0068510133 -0.022752492 0.02362672 -0.022356562 0.03620345
00000000: c9f8 a13c e052 083d 89dd 0fbc bc60 2e3e
00000010: 8b77 9fbc 8dd5 053d c671 083d e67f 95bc
00000020: 5678 c7bc f763 04bd 8ddf f33b 2d72 11bd
00000030: 1d34 b4bc 6e7c 293d b59c 43bd 38cb c53c
00000040: 5e3b e63c a406 b03c 598f 1ebd 46b8 01bd
00000050: df39 c13c bae2 e93c 914c f93c 49e5 e83c
00000060: 7057 87bc 748c aa3c 7247 343c 4a93 893c
00000070: 3b86 e5bc 9df9 99bc a5ae b33c bebf d83c
00000080: 43a3 c3bc 3b42 0cbd 3815 40bd bea2 b93c
00000090: f10d 26bd 1e96 2a3d 4c6b 20bd e3e9 9abc
000000a0: 5793 13bb c887 9fbb 1526 a63d 8199 033d
000000b0: b1ef a63c df80 a7bc 6ccd 44bd d571 4cbd
000000c0: 61ee 60bc d2a7 c83c 71a2 023d 517f 7fbc
000000d0: b217 46bd e000 963b abee 26bd 3380 e6bc
000000e0: 6a05 04bd bde9 63bc 7833 76bc 777e e03b
000000f0: 6f63 babc d38c c13c 1c25 b7bc 124a 143d

encoder.block1.convblock1.1.weight f4 [64]
0.4507259 0.3935692 0.03411221 0.69743 0.14006585 0.16409163 0.32222527 0.22328228
0.5461877 0.45784917 0.1605595 0.033164598 0.38491917 0.11528521 0.06901444 0.0155859925
0.6440268 0.4940416 0.032886647 0.4689139 0.40143052 0.12797248 0.7038362 0.5334942
0.26675043 0.13365453 0.18105358 0.04490707 0.5168066 0.04916213 0.017455343 0.6380603
0.5504567 0.07137062 0.40706772 0.08078907 0.13502572 0.5148843 0.7638852 0.26618853
0.18195547 0.039928384 0.4838728 0.053803105 0.072571896 0.09565638 0.15320165 0.9416732
0.01694481 0.48590133 0.617262 0.20297842 0.6915835 0.017469043 0.5421857 0.35055727
0.46201995 0.2766262 0.085158825 0.13359706 0.29462215 0.35200018 0.039626256 0.17100643
00000000: 8cc5 e63e e781 c93e 3fb9 0b3d c68a 323f
00000010: 6c6d 0f3e a307 283e b6fa a43e 1ca4 643e
00000020: f5d2 0b3f 356b ea3e b669 243e 9ad7 073d
00000030: 2014 c53e a71a ec3d 7157 8d3d 645c 7f3c
00000040: f1de 243f 05f3 fc3e 26b4 063d 7c15 f03e
00000050: 4d88 cd3e 380b 033e 9c2e 343f 1393 083f
00000060: 8393 883e bcdc 083e 1c66 393e 7af0 373d
00000070: 704d 043f 3b5e 493d 82fe 8e3c eb57 233f
00000080: bbea 0c3f c22a 923d 2e6b d03e bd74 a53d
00000090: 2f44 0a3e 75cf 033f fb8d 433f dd49 883e
000000a0: 8952 3a3e f28b 233d 2dbe f73e a560 5c3d
000000b0: 93a0 943d 7ee7 c33d e5e0 1c3e 7f11 713f
000000c0: d8cf 8a3c 0fc8 f83e e204 1e3f 93d9 4f3e
000000d0: 9e0b 313f 3d1b 8f3c afcc 0a3f 3e7c b33e
000000e0: e18d ec3e f3a1 8d3e c067 ae3d abcd 083e
000000f0: b7d8 963e 5e39 b43e 244f 223d 4f1c 2f3e

encoder.block1.convblock1.1.bias f4 [64]
0.23170437 -0.09760215 -0.3481108 0.22053093 0.034606688 -0.04417621 -0.3320806 -0.066785514
-0.17242411 -0.18454275 -0.041750323 -0.09394272 -0.08403678 -0.18675813 0.067187004 -0.14199309
0.23069532 -0.64648896 -0.05112078 0.5156112 -0.107974835 -0.4602718 0.12116238 -0.10397879
-0.5838367 -0.2279145 -0.041291457 -0.06589686 0.118190385 -0.08383345 -0.10590353 -0.16579157
0.33228025 0.13125886 -0.08826749 -0.12310101 -0.14183818 0.2445971 0.5038188 0.36172032
-0.20770217 -0.0704713 -0.37759942 -0.5086759 -0.2615828 -0.023979003 0.1308624 0.22449721
0.123098314 -0.22723553 -0.15693985 0.062413126 -0.14572875 -0.13103807 -0.21742803 0.04128888
-0.21353225 0.07641269 0.012775309 0.054469228 0.05566774 0.31958255 0.9101011 0.043794233
00000000: e943 6d3e a3e3 c7bd 943b b2be dcd2 613e
00000010: bebf 0d3d 1df2 34bd 7806 aabe d8c6 88bd
00000020: f28f 30be c6f8 3cbe 6302 2bbd 0a65 c0bd
00000030: 7a1b acbd 863d 3fbe 5799 893d a366 11be
00000040: 653b 6c3e 4d80 25bf 0664 51bd 18ff 033f
00000050: e921 ddbd bfa8 ebbe fb23 f83d d5f2 d4bd
00000060: 5276 15bf 6b62 69be 3b21 29bd eff4 86bd
00000070: cd0d f23d dfb0 abbd f3e3 d8bd 44c5 29be
00000080: a320 aa3e b968 063e 96c5 b4bd 621c fcbd
00000090: 073e 11be aa77 7a3e 45fa 003f 6833 b93e
000000a0: e1af 54be 4253 90bd b654 c1be 9538 02bf
000000b0: 2eee 85be 9d6f c4bc cb00 063e 99e2 653e
000000c0: f81a fc3d 6eb0 68be d7b4 20be e8a4 7f3d
000000d0: eb39 15be d82e 06be 74a5 5ebe 871e 293d
000000e0: 33a8 5abe 427e 9c3d 884f 513c 201b 5f3d
000000f0: db03 643d 53a0 a33e 63fc 683f 9561 333d

encoder.block1.convblock1.1.running_mean f4 [64]
0.015809478 0.026600694 -0.007018151 0.13610607 -0.015556759 0.026115175 0.026623417 -0.014595994
-0.019493727 -0.025829284 0.005944063 -0.028381033 -0.017608333 0.03307201 -0.038170032 0.019297872
0.022505708 0.017169919 -0.030939989 -0.025313254 0.018865254 0.022819184 0.024311237 0.022718335
-0.013204676 0.016639747 0.0087845465 0.013422581 -0.022378365 -0.015022667 0.017530799 0.021150844
-0.019096596 -0.02736888 -0.037483748 0.018111618 -0.032402325 0.033283878 -0.03130146 -0.015109563
-0.0017997874 -0.0038911686 0.06484165 0.025679192 0.016287232 -0.016343232 -0.03840228 -0.03988883
-0.010972838 0.01956635 0.02547201 -0.012449945 -0.038665112 0.0036587939 -0.03258519 -0.022488153
-0.025775976 -0.011067098 -0.012010542 0.005478788 -0.018183062 0.01888448 -0.017873418 0.028936101
00000000: e182 813c b3e9 d93c 85f8 e5bb 645f 0b3e
00000010: c7e1 7ebc 7eef d53c 5a19 da3c 0924 6fbc
00000020: 4fb1 9fbc ef97 d3bc 6ac6 c23b 577f e8bc
00000030: 5a3f 90bc 8476 073d 2e58 1cbd 9216 9e3c
00000040: e45d b83c eea7 8c3c dc75 fdbc be5d cfbc
00000050: 4e8b 9a3c 4cef ba3c 5c28 c73c cd1b ba3c
00000060: 6d58 58bc 1450 883c 0fed 0f3c 63ea 5b3c
00000070: d552 b7bc a221 76bc c09c 8f3c 8944 ad3c
00000080: 7770 9cbc b434 e0bc 8f88 19bd d15e 943c
00000090: 4db8 04bd ad54 083d f635 00bd 1a8e 77bc
000000a0: d8e6 ebba fa02 7fbb b3cb 843d 2b5d d23c
000000b0: cd6c 853c 3ee2 85bc b64b 1dbd 7862 23bd
000000c0: 6bc7 33bc 9c49 a03c adaa d03c dbfa 4bbc
000000d0: 4f5f 1ebd 60c8 6f3b 0c78 05bd 1339 b8bc
000000e0: 2428 d3bc c652 35bc ddc7 44bc 6887 b33b
000000f0: a5f4 94bc a0b3 9a3c 466b 92bc 670b ed3c

encoder.block1.convblock1.1.running_var f4 [64]
0.00020510926 0.00058069086 4.042064e-05 0.015202419 0.00019860797 0.0005596852 0.00058168225 0.00017483275
0.0003118482 0.0005474977 2.9001167e-05 0.00066101935 0.00025444292 0.0008975918 0.0011956466 0.00030561638
0.00041565613 0.00024193508 0.00078559364 0.00052584027 0.00029207082 0.00042732467 0.00048503248 0.0004235638
0.00014309133 0.00022722241 6.3331354e-05 0.0001478529 0.00041098087 0.00018520463 0.00025220934 0.00036713245
0.00029927286 0.00061471213 0.0011530374 0.00026919824 0.0008616089 0.0009091252 0.0008040572 0.00018735383
2.658277e-06 1.2425614e-05 0.0034503716 0.0005411535 0.00021769688 0.00021919637 0.0012102406 0.0013057528
9.880881e-05 0.00031418883 0.0005324659 0.00012720485 0.0012268596 1.0985848e-05 0.00087135856 0.00041501646
0.0005452379 0.00010053284 0.00011838127 2.4634606e-05 0.0002713269 0.000292669 0.00026216463 0.00068712805
00000000: 9912 5739 8139 183a 5589 2938 9113 793c
00000010: 6c41 5039 d7b7 123a 097c 183a 4f53 3739
00000020: 8f7f a339 f385 0f3a 8847 f337 4248 2d3a
00000030: c066 8539 5e4c 6b3a 3eb7 9c3a 233b a039
00000040: 6cec d939 f4af 7d39 4cf0 4d3a 8bd8 093a
00000050: 1521 9939 8c0a e039 f54b fe39 c511 de39
00000060: c90a 1639 8d42 6e39 c3d0 8438 f608 1b39
00000070: eb78 d739 7d33 4239 f73a 8439 af7b c039
00000080: b9e7 9c39 a224 213a 8421 973a 2d23 8d39
00000090: 98dd 613a 5c52 6e3a 5ec7 523a 6974 4439
000000a0: da64 3236 9b77 5037 a11f 623b 32dc 0d3a
000000b0: 9045 6439 14d8 6539 f0a0 9e3a cb25 ab3a
000000c0: 9337 cf38 b6b9 a439 2f95 0b3a 4b62 0539
000000d0: 94ce a03a dc4f 3837 e26b 643a 9196 d939
000000e0: 4cee 0e3a 28d5 d238 7643 f838 6aa6 ce37
000000f0: e140 8e39 5e71 9939 2473 8939 6220 343a

encoder.block1.convblock2.0.depthwise_conv.weight f4 [64, 1, 5]
-0.2448996 -0.3732423 -0.109113745 0.2518486 0.19362015 0.014548544 0.06271306 0.018319326
-0.2721067 -0.3123563 0.034049258 0.01956279 -0.015812833 0.032537237 0.05070989 0.12304299
0.59245193 0.31537116 -0.31485525 -0.023237245 -0.056630734 -0.109310076 -0.020063253 -0.03811967
0.0056666103 -0.07621215 -0.061130073 -0.008326713 -0.07323792 -0.081362136 -0.1033034 -0.10861368
-0.1351455 -0.11096589 -0.14082268 0.052824747 0.07218277 0.047732934 0.061212882 0.043697953
-0.074201345 -0.10960505 -0.1517932 -0.10793109 -0.066075966 -0.191926 0.014631961 -0.3857539
0.27084425 0.36628875 -0.034162268 -0.06743126 -0.066943504 -0.07137103 -0.06419412 0.008387003
0.013901837 0.005892125 -0.003677083 -0.011838737 0.13632154 0.10882099 0.124002315 0.112701185
0.10007985 0.0037513077 -0.0055417465 -0.007980142 -0.0072559193 0.008721765 -0.014361459 -0.03784714
0.028734999 -0.0016233411 0.0070266556 -0.00027683197 -0.015920812 -0.03599782 0.0072663506 -0.030503392
-0.111799926 -0.016823377 0.78206223 -0.29181606 -0.61100185 -0.00202796 0.011833566 0.040592454
0.06284749 0.08254582 -0.0022913148 -0.008707907 -0.024380876 -0.012718328 0.016064644 0.23204157
0.04014719 0.1686437 -0.16479719 -0.07667075 0.071381256 -0.10782212 -0.13904218 0.22843063
0.3789312 0.030773748 0.05238226 0.03644624 0.024426248 0.067233816 -0.091445036 0.2041383
0.44484138 -0.04071889 0.13219291 -0.09980357 -0.15590423 -0.14443783 -0.14967637 -0.1659406
0.06552792 0.060536824 0.07466936 0.052351475 0.105170004 -0.02394199 -0.02167421 0.005808529
0.007635931 0.0050191884 -0.08188859 -0.058340836 -0.105967686 -0.04503363 -0.06861241 0.008016493
0.017644187 0.012095441 0.0010925559 0.011570436 0.0810529 0.25558683 -0.19054325 0.17041746
0.31916088 -0.0344056 0.0029649464 0.0053736437 -0.024568 -0.0006219357 0.011793825 -0.0035651717
-0.010282959 0.019731022 0.02773409 0.031260483 0.067386575 0.080582224 0.095071025 0.1715818
-0.6036616 -0.0104359025 0.34862953 0.054478336 0.11502446 -0.040847223 0.024359057 0.0028804142
0.03393674 0.027527556 0.121108726 0.09613589 0.13783492 0.12532537 0.07392683 -0.018258315
-0.013070703 -0.023032103 -0.043908916 -0.015560746 0.01710226 0.058733154 -0.014662863 0.056665905
0.054812007 -0.5338654 -0.26931033 -0.100481674 0.36361828 0.4890201 -0.4893364 0.04009174
-0.5257728 0.30271932 0.41335043 -0.26291993 -0.15017517 0.23942392 -0.07866493 -0.10169441
0.14992502 -0.0040324097 0.09898108 0.03683659 0.057684187 0.0055826246 0.008708838 0.005467387
0.0198255 0.0017924652 -0.033766106 -0.05361537 -0.08593538 -0.08870379 -0.16704132 -0.05753348
-0.03669109 -0.05082492 -0.065962344 -0.08019567 -0.0018636762 -0.029653661 -0.033666465 -0.025202982
-0.04274118 0.024917405 0.02887475 0.027072564 0.057820417 0.034422394 -0.108232774 -0.10005864
0.041004546 0.05801844 0.06801346 0.26356384 0.7844944 -1.1682819 0.033629358 -0.046064507
0.011344483 0.025035542 -0.019299818 0.041143976 0.045182526 0.110855326 0.109258 0.10066842
0.12524974 0.18247615 -0.19952403 -0.2379287 -0.16565992 0.0020704572 -0.02304173 0.035529766
00000000: f6c6 7abe 9d19 bfbe 0777 dfbd 4df2 803e
00000010: 5c44 463e 045d 6e3c b46f 803d 6912 963c
00000020: 9251 8bbe 2aed 9fbe 3c77 0b3d 2542 a03c
00000030: ea89 81bc c445 053d 2cb5 4f3d f7fd fb3d
00000040: eeaa 173f 5478 a13e b534 a1be 095c bebc
00000050: a1f5 67bd f6dd dfbd b15b a4bc 5f23 1cbd
00000060: f9ae b93b 1e15 9cbd 8763 7abd c46c 08bc
00000070: c3fd 95bd 31a1 a6bd bc90 d3bd d970 debd
00000080: 9563 0abe 1642 e3bd d233 10be c35e 583d
00000090: 8fd4 933d 9c83 433d 5cba 7a3d a0fc 323d
000000a0: e0f6 97bd 9d78 e0bd ad6f 1bbe fa0a ddbd
000000b0: d652 87bd 4088 44be e4ba 6f3c 8981 c5be
000000c0: 19ac 8a3e 338a bb3e bced 0bbd 6719 8abd
000000d0: ad19 89bd f92a 92bd 3578 83bd a469 093c
000000e0: 88c4 633c ba12 c13b 37fb 70bb 43f7 41bc
000000f0: e097 0b3e 8add de3d edf4 fd3d e1cf e63d
00000100: aaf6 cc3d 80d8 753b 8a97 b5bb 24bf 02bc
00000110: 10c3 edbb bce5 0e3c 534c 6bbc 9a05 1bbd
00000120: a965 eb3c 4ac6 d4ba dc3f e63b c223 91b9
00000130: 5d6c 82bc 7372 13bd 911a ee3b 40e2 f9bc
00000140: 5cf7 e4bd 2ed1 89bc 3b35 483f ea68 95be
00000150: 9e6a 1cbf 86e7 04bb 93e1 413c 4644 263d
00000160: 2fb6 803d c80d a93d e229 16bb 9cab 0ebc
00000170: 67ba c7bc 8960 50bc 009a 833c 4e9c 6d3e
00000180: 6171 243d efb0 2c3e 98c0 28be 8e05 9dbd
00000190: 5630 923d d8d1 dcbd 1361 0ebe b8e9 693e
000001a0: 4503 c23e 3a19 fc3c c88e 563d a748 153d
000001b0: 8e19 c83c e2b1 893d 8947 bbbd a109 513e
000001c0: 40c2 e33e dac8 26bd 945d 073e d065 ccbd
000001d0: 5ca5 1fbe 83e7 13be c344 19be 55ec 29be
000001e0: 8133 863d 76f5 773d 40ec 983d 806e 563d
000001f0: 5f63 d73d fe21 c4bc 1d8e b1bc 7955 be3b
00000200: d536 fa3b 0178 a43b 34b5 a7bd cdf6 6ebd
00000210: 9605 d9bd 2f75 38bd aa84 8cbd 9c57 033c
00000220: 8b8a 903c f52b 463c 1834 8f3a ed91 3d3c
00000230: 10ff a53d 47dc 823e c51d 43be ea81 2e3e
00000240: 0e69 a33e e3ec 0cbd 8c4f 423b 6415 b03b
00000250: d542 c9bc 6609 23ba e33a 413c a8a5 69bb
00000260: db79 28bc f4a2 a13c 9a32 e33c fe0a 003d
00000270: f901 8a3d 4b08 a53d 99b4 c23d 24b3 2f3e
00000280: 9189 1abf 59fb 2abc 927f b23e ad24 5f3d
00000290: f291 eb3d 6b4f 27bd a58c c73c 55c5 3c3b
000002a0: 4001 0b3d 7881 e13c da07 f83d e5e2 c43d
000002b0: 9924 0d3e 4b55 003e f366 973d 7692 95bc
000002c0: 8026 56bc d2ad bcbc d6d9 33bd 80f2 7ebc
000002d0: 0a1a 8c3c 2d92 703d 813c 70bc 821a 683d
000002e0: 8e82 603d 67ab 08bf 0be3 89be 56c9 cdbd
000002f0: 2d2c ba3e d860 fa3e 4d8a fabe 3d37 243d
00000300: 0c99 06bf 07fe 9a3e aba2 d33e 719d 86be
00000310: 85c7 19be 8b2b 753e 141b a1bd 2945 d0bd
00000320: f285 193e 4e22 84bb 98b6 ca3d f7e1 163d
00000330: 4146 6c3d 73ee b63b 84af 0e3c c427 b33b
00000340: 1669 a23c 27f1 ea3a 544e 0abd ca9b 5bbd
00000350: e3fe afbd 55aa b5bd e10c 2bbe 3aa8 6bbd
00000360: 6549 16bd cb2d 50bd 4417 87bd a13d a4bd
00000370: 9946 f4ba 3cec f2bc d9e5 09bd 7c76 cebc
00000380: 6011 2fbd 961f cc3c bd8a ec3c 48c7 dd3c
00000390: 1ad5 6c3d 7ffe 0c3d 25a9 ddbd 8beb ccbd
000003a0: 62f4 273d bea4 6d3d a44a 8b3d d7f1 863e
000003b0: a0d4 483f 438a 95bf f0be 093d 23ae 3cbd
000003c0: 36de 393c 5617 cd3c a71a 9ebc 9686 283d
000003d0: 5011 393d 1e08 e33d a9c2 df3d 3f2b ce3d
000003e0: 7841 003e 07db 3a3e 0750 4cbe 95a3 73be
000003f0: c1a2 29be 82b0 073b 03c2 bcbc a987 113d

encoder.block1.convblock2.0.pointwise_conv.weight f4 [64, 64, 1]
-0.014239029 0.0010855946 0.0011999198 0.002174545 0.031232692 0.0222396 0.025927568 0.006542841
0.0032846343 0.047817707 0.011637917 -0.008896265 0.03581886 -0.019534074 0.039123215 0.017442418
-0.006119924 -0.018192861 0.023184974 -0.016754828 -0.015263074 -0.017331898 0.020540202 0.011624391
0.0065860986 -0.023428136 -0.004946578 0.014267634 -0.038644988 0.015890338 -0.015137403 -0.009300146
0.01293107 -0.01919328 0.0041664043 -0.022319002 -0.018766912 0.010450854 0.031132432 -0.054946344
-0.031277396 -0.013653792 0.012621485 0.009865959 0.015188593 0.009238356 0.009508803 0.021504775
-0.05826606 -0.02334053 -0.020158196 0.001994343 0.00990623 -0.018545622 -0.007746087 -0.014083852
-0.056484744 -0.0033919276 -0.02969549 0.0014269417 0.013783359 -0.022410376 0.010241014 0.01303954
-0.005784513 0.002284245 -0.005563363 0.006455633 0.002520495 -0.0042361096 -0.0043414366 0.0053199236
0.0019485244 -0.025692064 0.00037002985 -2.7927566e-05 0.0068179937 -0.00077273906 -0.001989531 0.0050722975
0.01689949 0.0012371582 -0.0020142365 0.0012367611 0.006782663 0.004224874 0.0016175685 -0.006177735
0.003009146 -0.0012466245 -0.0040254476 0.00025536597 -0.014836665 0.0012228086 -0.00013797943 0.002447535
0.00072211394 -0.0025545452 -0.00019536346 0.0031086842 -0.0038553465 -0.018172506 -0.021771923 0.0046370416
0.0057394328 -0.0017255504 -0.008032211 0.0007520093 -0.0004970461 5.5225937e-05 -0.0052129338 0.0019250425
-0.0064562084 0.007564199 0.0064209946 -0.001991534 -0.0037369248 0.0033212672 -0.002090832 0.0065112594
0.021363953 -0.0024788354 -0.0020327403 -0.0054898015 -0.0005356645 -0.0076348246 0.029832533 0.0038663435
0.023260346 -0.089647636 0.0048188143 -0.057076845 -0.023210552 -0.0009407988 0.043167148 0.027234156
-0.06570763 0.04673094 0.0019542128 -0.006341016 0.05001127 -0.009546012 -0.017474245 0.0034483965
0.13423443 -0.03497742 0.0070589655 -0.052521765 0.067660764 -0.0049264994 0.09115942 -0.005428229
-0.023229266 -0.0064957174 -0.002540977 0.005106262 0.2600186 -0.0023419661 0.0023795997 -0.007771184
-0.014514705 0.02670214 0.056845553 -0.009537506 0.02796947 -0.020243568 0.3301786 -0.043729305
-0.02171609 0.00442266 0.04235041 0.0024671524 0.012829223 0.010900194 0.001227559 0.444642
0.02348921 -0.030795334 0.07358552 0.0027849656 -0.10979141 -0.008894472 -0.057790093 0.051758137
-0.20413958 0.005521149 0.016545333 -0.002321947 -0.03174473 -0.0143929245 -0.2591494 0.013194291
-0.0018420886 0.0016212736 0.00023344732 0.0010267466 -0.0036020111 -0.0039754687 -0.004916642 -0.0058565782
-0.0070009353 -0.008485164 -0.0054755416 0.0038109731 -0.0103656845 -0.0013454763 -0.0006303713 0.0043577575
0.004878211 -0.0012998349 -0.0048234626 0.007475508 -0.004680888 -0.0021774112 -0.008098962 -0.0066624745
-0.012234912 -0.0046441383 0.002554585 -0.0067883395 0.015702602 -0.0017295945 0.004225267 0.0051611876
-0.004690709 0.0012380764 -0.0030929018 0.0058421763 0.00999568 -0.009958986 -0.010878669 0.0063767512
-0.0019015482 -0.0021819845 0.0015283334 0.0048658056 0.0059655984 0.0020849213 -0.001038623 -0.017560259
0.0025130755 -0.0024314444 -0.0021118822 -0.003910858 -0.012574893 0.0018434394 -0.008822149 0.0074426085
0.0029663949 0.00401793 0.0005705431 -0.0045763412 -0.0039533186 0.0010804095 -0.007356941 0.00078820717
00000000: d14a 69bc 834a 8e3a a146 9d3a d082 0e3b
00000010: b4db ff3c d22f b63c 0d66 d43c 5465 d63b
00000020: 0543 573b 80dc 433d f6ac 3e3c a4c1 11bc
00000030: ccb6 123d ec05 a0bc aa3f 203d 67e3 8e3c
00000040: a589 c8bb 3209 95bc 6aee bd3c 6c41 89bc
00000050: f911 7abc a0fb 8dbc ed43 a83c 3b74 3e3c
00000060: 33d0 d73b 5dec bfbc e716 a2bb cbc2 693c
00000070: 354a 1ebd 742c 823c df02 78bc a45f 18bc
00000080: d7dc 533c 3a3b 9dbc 5586 883b 57d6 b6bc
00000090: 11bd 99bc 0f3a 2b3c 7109 ff3c 6b0f 61bd
000000a0: ba1c 00bd 28b4 5fbc 58ca 4e3c d5a4 213c
000000b0: 94d9 783c 795c 173c cfca 1b3c c82a b03c
000000c0: 64a8 6ebd a434 bfbc cd22 a5bc 86b3 023b
000000d0: bd4d 223c fdec 97bc e3d2 fdbb f5bf 66bc
000000e0: 8c5c 67bd 1a4b 5ebb f543 f3bc 3808 bb3a
000000f0: 99d3 613c f795 b7bc edc9 273c cba3 553c
00000100: 038c bdbb 46b3 153b df4c b6bb c689 d33b
00000110: e42e 253b 10cf 8abb 9c42 8ebb c152 ae3b
00000120: a165 ff3a 2a78 d2bc 9100 c239 fe45 eab7
00000130: 7a69 df3b a491 4aba cb62 02bb 8435 a63b
00000140: cd70 8a3c 2428 a23a 4801 04bb d11a a23a
00000150: 1a41 de3b d070 8a3b 9804 d43a 996e cabb
00000160: 1835 453b c765 a3ba e7e7 83bb a4e2 8539
00000170: 7c15 73bc a646 a03a 92ae 10b9 d366 203b
00000180: 3f4c 3d3a 286a 27bb 7bda 4cb9 11bb 4b3b
00000190: fba9 7cbb 82de 94bc 085b b2bc 53f2 973b
000001a0: da11 bc3b dd2b e2ba 8999 03bc 7d22 453a
000001b0: 334c 02ba 66a2 6738 42d1 aabb b551 fc3a
000001c0: 9a8e d3bb 1add f73b 3567 d23b 6584 02bb
000001d0: 32e7 74bb 9ea9 593b 5706 09bb 675c d53b
000001e0: 7503 af3c f573 22bb b937 05bb cbe3 b3bb
000001f0: d66b 0cba 8d2d fabb 5b63 f43c 7b62 7d3b
00000200: 7b8c be3c 2e99 b7bd 25e7 9d3b 69c9 69bd
00000210: 0e24 bebc f09f 76ba 09d0 303d 2a1a df3c
00000220: b991 86bd f168 3f3d 4012 003b 4cc8 cfbb
00000230: 9ed8 4c3d e066 1cbc 2626 8fbc 7efe 613b
00000240: c074 093e 7c44 0fbd e54e e73b 1021 57bd
00000250: ba91 8a3d 796e a1bb cab1 ba3d 49df b1bb
00000260: 4d4b bebc 07da d4bb 8586 26bb 6e52 a73b
00000270: 2821 853e ac7b 19bb 0ff3 1b3b 6ba5 febb
00000280: 16cf 6dbc 72be da3c e2d6 683d 3343 1cbc
00000290: 3b20 e53c d7d5 a5bc 2b0d a93e 801d 33bd
000002a0: f1e5 b1bc f6eb 903b a077 2d3d f3af 213b
000002b0: a931 523c ba96 323c 0ce6 a03a 1ea8 e33e
000002c0: 726c c03c 7f46 fcbc 01b4 963d f883 363b
000002d0: 52da e0bd 1fba 11bc 4eb5 6cbd 5700 543d
000002e0: f709 51be c1ea b43b 148a 873c ce2b 18bb
000002f0: c306 02bd 4dd0 6bbc 3baf 84be de2c 583c
00000300: 3d72 f1ba ea80 d43a 8ac9 7439 e693 863a
00000310: b80f 6cbb a644 82bb c81b a1bb 8ae8 bfbb
00000320: 1a68 e5bb 5b05 0bbc 2c6c b3bb 85c1 793b
00000330: d5d4 29bc b15a b0ba 803f 25ba 85cb 8e3b
00000340: 66d9 9f3b 395f aaba 230e 9ebb 1bf5 f43b
00000350: 2262 99bb e6b2 0ebb 82b1 04bc e350 dabb
00000360: f174 48bc db2d 98bb d36a 273b b870 debb
00000370: bea2 803c 90b3 e2ba 1c74 8a3b 2e1f a93b
00000380: 85b4 99bb f346 a23a 48b2 4abb ba6f bf3b
00000390: ecc4 233c 042b 23bc 723c 32bc 11f4 d03b
000003a0: 5f3d f9ba a0ff 0ebb 5c52 c83a 5671 9f3b
000003b0: 117b c33b 2da3 083b 6822 88ba 88da 8fbc
000003c0: 69b2 243b de58 1fbb 8167 0abb a826 80bb
000003d0: ed06 4ebc 909f f13a c68a 10bc 20e1 f33b
000003e0: d967 423b d7a8 833b 8090 153a 22f5 95bb
000003f0: d78a 81bb 879c 8d3a 7e12 f1bb b09f 4e3a

encoder.block1.convblock2.1.weight f4 [64]
0.07264981 0.08716439 0.51045406 0.071819976 0.06457805 0.16899331 0.09088406 0.2936527
0.24267118 0.14804704 0.063468084 0.79369754 0.080545135 0.13096789 0.6926732 0.7717896
0.47858757 0.4314975 0.0767252 0.29352093 0.23541512 0.2738053 0.7468096 0.13957827
0.18901797 0.06878638 0.07114762 0.24710318 0.048299547 0.11875798 0.7185806 0.13980763
0.25150886 0.11845821 0.06892529 0.052125555 0.06165781 0.051391575 0.27593482 0.051313486
0.60603 0.5729101 0.34148502 0.14347133 0.053286515 0.94083416 0.19994834 0.048930034
0.067718334 1.0761318 0.09549557 0.3282446 0.052399635 0.08661565 0.24628241 0.424263
0.44668025 0.87536573 0.04713087 0.7614847 0.62367684 0.24167803 0.74251354 0.353146
00000000: 6cc9 943d 3e83 b23d 1ead 023f 5a16 933d
00000010: 7f41 843d 950c 2d3e 6c21 ba3d a659 963e
00000020: cb7e 783e a599 173e 8efb 813d c32f 4b3f
00000030: d9f4 a43d 721c 063e 0853 313f 0194 453f
00000040: 6e09 f53e 3eed dc3e 1a22 9d3d 6048 963e
00000050: a910 713e 3530 8c3e ea2e 3f3f 9bed 0e3e
00000060: ed8d 413e e0df 8c3d d8b5 913d 9e08 7d3e
00000070: bfd5 453d 6237 f33d e6f4 373f bb29 0f3e
00000080: c5c5 803e 389a f23d b428 8d3d 9b81 553d
00000090: e68c 7c3d f97f 523d 5447 8d3e 172e 523d
000000a0: c824 1b3f 3caa 123f 20d7 ae3e 26ea 123e
000000b0: f642 5a3d 82da 703f 42bf 4c3e dc6a 483d
000000c0: e9af 8a3d b0be 893f 2e93 c33d ad0f a83e
000000d0: 00a1 563d 8c63 b13d 7531 7c3e 0039 d93e
000000e0: 46b3 e43e f817 603f 4d0c 413d a9f0 423f
000000f0: 49a9 1f3f 727a 773e 5e15 3e3f 8dcf b43e

encoder.block1.convblock2.1.bias f4 [64]
-0.20431449 0.0046345666 0.1927887 0.0073615164 0.010202869 0.04840927 -0.21509387 0.13770574
-0.31164864 0.06774275 0.017880209 -0.11823931 0.0031890022 -0.008414199 -0.3599747 -0.08551389
-0.2675517 -0.048351415 -0.067327455 -0.27546686 0.11961552 -0.00037022805 -0.18135479 0.028184645
-0.47311825 0.009686084 -0.013828389 -0.23451404 -0.0031413329 -0.09686434 -0.0882819 0.04775478
-0.065160505 0.082652666 -0.051223524 -0.00019749481 0.014841285 -0.008758206 -0.021934329 0.004426138
-0.34796512 0.11046935 -0.24476355 -0.20346586 -0.046524774 -0.5583647 0.033569716 0.0010532227
-0.055034462 -0.6273174 -0.60762316 0.15394694 0.0068228696 -0.002257225 -0.23572688 -0.14177926
0.13279861 -0.090072714 0.0007667968 -0.022949344 -0.05066164 -0.096503556 -0.08029696 -0.6846438
00000000: d137 51be 90dd 973b 676a 453e e038 f13b
00000010: ef29 273c cc48 463d 9141 5cbe bc02 0d3e
00000020: 6990 9fbe b6bc 8a3d 8479 923c 7427 f2bd
00000030: 94fe 503b b5db 09bc 9b4e b8be e821 afbd
00000040: 89fc 88be 220c 46bd fae2 89bd fe09 8dbe
00000050: fbf8 f43d 2b1b c2b9 12b5 39be 7ce3 e63c
00000060: 8e3c f2be 62b2 1e3c 7890 62bc 7324 70be
00000070: d2de 4dbb d060 c6bd 24cd b4bd 849a 433d
00000080: df72 85bd cd45 a93d c2cf 51bd 9c16 4fb9
00000090: dc28 733c 947e 0fbc 9faf b3bc 2309 913b
000000a0: 7c28 b2be c13d e23d 4ca3 7abe 5b59 50be
000000b0: c390 3ebd fdf0 0ebf 6680 093d 4a0c 8a3a
000000c0: d16b 61bd e097 20bf 318d 1bbf 44a4 1d3e
000000d0: 6192 df3b f4ed 13bb 6362 71be 952e 11be
000000e0: 5cfc 073e 0b78 b8bd dd02 493a 4300 bcbc
000000f0: 9482 4fbd a8a3 c5bd bc72 a4bd d144 2fbf

encoder.block1.convblock2.1.running_mean f4 [64]
-0.012443486 -0.021559399 0.21791734 0.014199076 0.011707092 0.03514157 -0.027332274 0.026178677
-0.0019244113 -0.01353912 0.0052013234 -0.29293498 0.017030204 -0.005661899 0.08418575 -0.019131796
-0.04686232 -0.17354524 -0.026184935 -0.47144923 0.02146239 0.030382462 -0.23894197 -0.01911998
-0.07857727 0.00973981 0.0077207657 -0.15861934 0.006335939 0.008051031 0.11955941 -0.061054904
-0.25254866 -0.045281135 0.012601597 -0.017971283 0.019529894 -0.011352872 -0.08193924 0.0074694795
-0.18400314 0.07800444 -0.14766651 -0.04936349 0.003827412 0.013884903 0.05504242 -0.00067418383
-0.04358264 -0.15036616 -0.17053567 0.07094063 0.006795027 0.0031235614 -0.056359213 -0.14706327
0.06393964 -0.36199003 0.004785893 -0.033237923 0.016919693 -0.08096169 -0.2285544 -0.10374326
00000000: c3df 4bbc 569d b0bc b925 5f3e 3ea3 683c
00000010: 1acf 3f3c 9bf0 0f3d efe7 dfbc aa74 d63c
00000020: 873c fcba 2fd3 5dbc dd6f aa3b 93fb 95be
00000030: ed82 8b3c 7487 b9bb 9469 ac3d 49ba 9cbc
00000040: b4f2 3fbd d8b5 31be ca81 d6bc cb61 f1be
00000050: e5d1 af3c a4e4 f83c 34ad 74be 81a1 9cbc
00000060: 1fed a0bd b993 1f3c 7afe fc3b 1c6d 22be
00000070: b59d cf3b 79e8 033c 90db f43d b514 7abd
00000080: 0f4e 81be b678 39bd ee76 4e3c 8338 93bc
00000090: 28fd 9f3c 6501 3abc c3cf a7bd 89c2 f43b
000000a0: 526b 3cbe cbc0 9f3d e435 17be 5f31 4abd
000000b0: 51d5 7a3b 817d 633c 2974 613d b6bb 30ba
000000c0: b683 32bd 96f9 19be e7a0 2ebe 5249 913d
000000d0: d1a8 de3b aab4 4c3b ebd8 66bd c197 16be
000000e0: c9f2 823d c256 b9be fbd2 9c3b 7d24 08bd
000000f0: 2b9b 8a3c 3ecf a5bd 2a0a 6abe 5977 d4bd

encoder.block1.convblock2.1.running_var f4 [64]
0.00044930648 0.000102723905 0.067887075 0.00012798133 5.260122e-05 0.0034511366 0.0018949708 0.011386155
0.015728112 0.0016970638 8.5399835e-05 0.044056904 0.00034143793 0.0007105381 0.0843132 0.09927937
0.18626572 0.049008947 0.003180052 0.31979197 0.005825602 0.011977667 0.028378665 0.0029394724
0.008763044 0.00018664774 0.00013247402 0.005814972 6.684925e-05 0.0005667592 0.08196039 0.0023506263
0.008040031 0.0014952633 0.0012341724 3.9250863e-05 8.556469e-05 9.76096e-05 0.0053147813 4.3183096e-05
0.013009973 0.033010233 0.005156622 0.0014789577 0.00038372295 0.044018053 0.005166891 0.00015789601
3.910302e-05 0.058753032 0.014901133 0.05733766 5.533924e-05 0.000505858 0.021112122 0.019019367
0.056160793 0.057722755 1.1388835e-05 0.34142005 0.05569198 0.00401569 0.04460997 0.037116636
00000000: e590 eb39 7a6d d738 6108 8b3d ba32 0639
00000010: 21a0 5c38 772c 623b ab60 f83a ff8c 3a3c
00000020: 3ed8 803c 0370 de3a b018 b338 0375 343d
00000030: 0603 b339 6843 3a3a 66ac ac3d fb52 cb3d
00000040: 71bc 3e3e 9bbd 483d 6b68 503b c6bb a33e
00000050: b1e4 be3b fa3d 443c 607a e83c 2aa4 403b
00000060: df92 0f3c dfb6 4339 b9e8 0a39 858b be3b
00000070: 6b31 8c38 9192 143a d9da a73d f70c 1a3b
00000080: 56ba 033c b6fc c33a f4c3 a13a 4ba1 2438
00000090: 3171 b338 c1b3 cc38 9e27 ae3b 7f1f 3538
000000a0: c827 553c bd35 073d e1f8 a83b 96d9 c13a
000000b0: 6c2e c939 464c 343d 064f a93b e390 2539
000000c0: 8c02 2438 05a7 703d e223 743c e5da 6a3d
000000d0: 0e1c 6838 8e9b 043a 54f3 ac3c 81ce 9b3c
000000e0: dc08 663d b26e 6c3d ad12 3f37 9cce ae3e
000000f0: 461d 643d 0d96 833b f2b8 363d 9d07 183d

encoder.block1.convblock3.0.depthwise_conv.weight f4 [64, 1, 3]
0.03970632 0.04342662 0.051422276 0.0065631648 -0.05236145 -0.05851939 -0.2854306 0.5478632
-0.18230303 0.010148632 0.052114055 0.03963137 -0.03894789 -0.025785021 -0.01503339 0.104802445
0.046220005 0.085704096 -0.016054688 -0.05544773 -0.07450091 0.10604874 -0.103900254 -0.28605592
0.030592754 0.0714644 0.09231608 -0.06203597 -0.09344515 -0.08574222 0.056244776 0.019194525
0.010648637 -0.3033894 -0.11941487 -0.13967085 -0.061025556 -0.041616753 -0.0043124235 0.015596684
0.08393034 0.090318 0.49878204 -0.7096909 0.08121826 -0.5594205 -0.022585288 -0.088209495
-0.5020842 0.08463977 0.19171515 0.11765669 0.1012116 0.18460691 -0.040734917 -0.049373414
-0.010465604 0.103037365 0.06950892 0.11584727 -0.08726474 -0.09089993 -0.09204382 -0.13451137
-0.081674166 -0.13469511 -0.24344966 -0.1044563 -0.09130767 0.11007055 -0.023282303 -0.07975309
-0.077129476 -0.09561102 -0.0829873 0.008761927 0.053114843 0.026022788 -0.048223097 -0.034542132
-0.015737792 0.026088953 0.022610977 0.07244405 -0.023447303 -0.016564647 0.0191528 0.073771544
0.06363622 0.055027332 -0.7657462 0.13456537 0.15349473 0.12875187 0.036853332 -0.04887535
0.13219702 0.18673249 0.09289293 0.076437935 0.06812614 0.033305604 0.08251458 -0.009529727
-0.058821563 0.015198617 0.016509289 -0.0155719295 -0.027104966 -0.023641033 -0.030206097 -0.024086654
0.013669783 0.028816756 -0.14788666 -0.15441814 -0.045653317 0.025878709 -0.0103230225 0.024345348
0.06141577 -0.086932585 -0.31342307 0.010825414 -0.16129275 -0.50507635 0.060194634 0.069201894
0.093061216 0.0047043804 -0.028956717 -0.07676206 -0.017024746 -0.03657812 -0.033214483 0.19776072
0.2824955 0.3378485 0.122172594 0.110221535 0.08361768 -0.018298706 -0.026768561 0.013614534
-0.006687286 0.02005723 0.0040693805 -0.020227386 -0.2562016 -0.3625812 -0.13596345 -0.14298524
-0.18276115 -0.430171 0.13743891 0.30253562 -0.0003261926 -0.00045597693 -0.04321786 -0.039890505
0.06546423 0.03683515 0.0765505 0.12141691 0.14543815 -0.17650533 -0.056324515 -0.14198487
0.26182458 0.26381558 0.25776345 -0.035416134 0.124046154 0.42084852 -0.022344688 0.00015526493
0.0119302375 0.16547361 0.07647983 -0.67027164 0.6282805 -0.113777414 -0.08750896 0.010259522
0.14488328 0.1806214 -0.2988168 -0.2798339 -0.15128371 -0.11118432 -0.12758578 -0.13043426
00000000: 18a3 223d 1de0 313d 2aa0 523d d10f d73b
00000010: f678 56bd 07b2 6fbd f623 92be c340 0c3f
00000020: a5ad 3abe 7346 263c 8c75 553d 8154 223d
00000030: d387 1fbd 1c3b d3bc 9c4e 76bc aaa2 d63d
00000040: 3051 3d3d a185 af3d 1f85 83bc 291d 63bd
00000050: ef93 98bd 1530 d93d a8c9 d4bd ec75 92be
00000060: a89d fa3c ed5b 923d 3710 bd3d 6e19 7ebd
00000070: 2c60 bfbd 9e99 afbd ec60 663d d63d 9d3c
00000080: 9f77 2e3c db55 9bbe c98f f4bd e005 0fbe
00000090: eff5 79bd 5476 2abd 3b4f 8dbb 3c89 7f3c
000000a0: ace3 ab3d a5f8 b83d 5c60 ff3e 4eae 35bf
000000b0: c255 a63d 2f36 0fbf c804 b9bc 2ea7 b4bd
000000c0: 9788 00bf 9e57 ad3d fa50 443e fef5 f03d
000000d0: 0748 cf3d 9809 3d3e a8d9 26bd c73b 4abd
000000e0: ed77 2bbc 4105 d33d b15a 8e3d 5541 ed3d
000000f0: dbb7 b2bd be29 babd 7881 bcbd 59bd 09be
00000100: c944 a7bd 84ed 09be de4a 79be 2fed d5bd
00000110: 84ff babd ab6c e13d 87ba bebc 9755 a3bd
00000120: 0ff6 9dbd b6cf c3bd 3ff5 a9bd 2f8e 0f3c
00000130: f38e 593d be2d d53c 9585 45bd 0d7c 0dbd
00000140: 8bec 80bc 80b8 d53c a83a b93c 8c5d 943d
00000150: 8f14 c0bc 95b2 87bc 55e6 9c3c 8915 973d
00000160: b553 823d 5764 613d f107 44bf 81cb 093e
00000170: b92d 1d3e 88d7 033e 85f3 163d 8531 48bd
00000180: a85e 073e cd36 3f3e a63e be3d 7e8b 9c3d
00000190: b885 8b3d 756b 083d 67fd a83d 9222 1cbc
000001a0: e1ee 70bd 9f03 793c 7d3e 873c 6821 7fbc
000001b0: 3c0b debc d7aa c1bc c772 f7bc 6051 c5bc
000001c0: 3af7 5f3c 1e11 ec3c 9a6f 17be ca1f 1ebe
000001d0: f9fe 3abd 96ff d33c e521 29bc e56f c73c
000001e0: 1a8f 7b3d b609 b2bd fd78 a0be 145d 313c
000001f0: ed29 25be af4c 01bf a68e 763d b9b9 8d3d
00000200: e196 be3d 3427 9a3b a336 edbc 6d35 9dbd
00000210: 7b77 8bbc f0d2 15bd e90b 08bd c981 4a3e
00000220: 40a3 903e 7bfa ac3e a035 fa3d d4bb e13d
00000230: bf3f ab3d 2be7 95bc be49 dbbc 7f0f 5f3c
00000240: 0521 dbbb 0f4f a43c 7058 853b e7b3 a5bc
00000250: db2c 83be 3ea4 b9be 013a 0bbe b96a 12be
00000260: bd25 3bbe 603f dcbe c9bc 0c3e f3e5 9a3e
00000270: d404 abb9 3010 efb9 3605 31bd 3a64 23bd
00000280: 1c12 863d 74e0 163d 82c6 9c3d 6ea9 f83d
00000290: bded 143e d0bd 34be 89b4 66bd 7b64 11be
000002a0: df0d 863e d612 873e 92f9 833e 8210 11bd
000002b0: e90b fe3d 7579 d73e 350c b7bc 9dce 2239
000002c0: 0b77 433c ea71 293e 75a1 9c3d ec96 2bbf
000002d0: fed6 203f 2204 e9bd e637 b3bd 8e17 283c
000002e0: 485c 143e d1f4 383e 84fe 98be 6446 8fbe
000002f0: 1eea 1abe 9bb4 e3bd d9a5 02be 8f90 05be

encoder.block1.convblock3.0.pointwise_conv.weight f4 [64, 64, 1]
0.000481393 0.005743323 -0.009622499 0.0007582499 -0.005301998 -0.005101243 0.016931662 0.010740761
-0.012989177 0.0008349042 -0.0045650303 0.019814158 -0.004534354 -0.013571104 -0.04841994 0.00252897
-0.051727675 -0.006688664 0.017755745 0.004937276 0.0012518395 0.003695191 0.012942069 -0.006301424
-0.05354485 -0.0013611071 0.0019967498 -0.0104223685 0.0007398772 0.0044838884 -0.0122792665 -0.006681596
-0.014469052 0.0061117113 -0.019834017 -0.0023336334 -0.0043138103 -0.005029841 0.0109163625 -0.005482808
0.014597046 -0.0005861673 0.054536797 -0.019944629 -0.003856424 0.013103106 -0.0052353092 0.004041438
-0.0011751787 0.06726788 0.03964931 -0.0025592109 0.0023896063 0.010304276 -0.016079882 0.0075523327
0.026395567 0.012600781 0.0050136065 -0.02865553 0.006184355 -0.010036632 -0.024354337 -0.04722596
-0.020364026 0.0032123458 0.0897115 0.003356812 0.0034600864 -0.008146375 0.00895132 0.04378252
0.010322803 0.006143298 0.00040726346 -0.0016742024 0.008102368 -0.0027644054 -0.084119 0.024115028
-0.1268613 -0.025316844 0.005471203 -0.053614024 0.021515733 0.03507707 0.04432551 0.005586401
0.04714514 -0.002290448 0.00697123 -0.020610955 0.0008319184 0.0074600372 -0.111341655 -0.0050009573
-0.025992475 0.025817435 0.0015200373 0.0050190026 0.003956039 -0.0027710209 0.027191134 -0.0041533033
0.03335205 -0.06481219 -0.010980785 0.017558737 0.00045656206 -0.072483815 -0.005897041 -0.005464555
-0.003061701 0.02507117 0.027754422 0.03427535 0.0011488738 -0.00336987 0.0061623654 0.014463631
0.05783593 -0.060535662 -0.0050960574 0.06363157 -0.03544527 -0.015571044 -0.027790988 0.05756284
0.023272343 -0.00017105493 -0.014841591 -0.0005464075 0.0013023262 -0.008947407 0.015000528 0.005789388
-0.056110155 -0.0011436703 -0.00558867 0.003735157 -0.0074567143 0.0016505363 0.03052245 -0.0009144446
-0.012708484 -0.0031159064 0.031704433 0.002038839 0.00918005 0.0015011252 0.003816584 -0.005633071
-0.01740641 0.0060770526 0.0031239185 0.005348916 -0.0058656232 0.018651612 0.021489454 0.0018933631
-0.00593907 0.011604871 -0.013053426 -0.0029811224 0.0016137825 0.0023789667 0.008155863 0.0040066484
0.015018487 0.0057664555 0.070064686 -0.032340404 0.009046818 0.034151763 -0.0060279034 0.0033812865
-0.0044557205 0.02200976 0.013227371 0.008923381 -0.0003042282 0.0047855815 -0.013467546 0.004260006
0.0047486015 -0.031786475 -0.00090451736 -0.02085152 0.023279788 -0.0061644893 0.0048864805 -0.02290216
-0.00520617 -0.0048918216 0.029201949 2.7337057e-05 0.005372378 -0.053478196 0.0035021896 -0.0134877255
-0.009209106 0.008068046 -0.0029049541 0.07496151 0.0057382337 -0.011435175 -0.02013526 -0.10558279
0.030074969 -0.0041948287 0.0027347624 -0.031205432 0.006908932 0.05485591 0.079004 -0.0066518
0.012722149 -0.0002552881 0.008322125 -0.017195178 -0.003281587 0.014607242 0.014472056 -0.0155763365
0.0025091006 0.0006110046 0.0109853735 -0.00024050863 0.0019250211 0.0024301526 0.010851948 -0.00028516498
0.051029373 -0.10569942 0.01052044 0.0015871193 0.011933885 -0.05521436 -0.007827364 0.0015817384
-0.0025042063 0.072171494 0.016069414 -0.09353636 0.0015882722 -0.010682225 -0.015509681 0.035336692
-0.02274734 0.0728506 -0.0072687846 0.15667064 0.1525342 -0.011435762 -0.01653287 0.003325022
00000000: 7a63 fc39 7c32 bc3b b0a7 1dbc 4ac5 463a
00000010: 62bc adbb 5428 a7bb 45b4 8a3c 04fa 2f3c
00000020: 8fd0 54bc 79dd 5a3a 4096 95bb 4d51 a23c
00000030: eb94 94bb 5659 5ebc fd53 46bd 13bd 253b
00000040: 66e0 53bd 952c dbbb 7f74 913c dfc8 a13b
00000050: c314 a43a 042b 723b f90a 543c 2d7c cebb
00000060: d851 5bbd 2d67 b2ba e7db 023b 95c2 2abc
00000070: 52f4 413a 95ed 923b fa2e 49bc 4af1 dabb
00000080: 9a0f 6dbc c044 c83b f37a a2bc dfef 18bb
00000090: dd5a 8dbb 5dd1 a4bb 8bda 323c 21a9 b3bb
000000a0: 7328 6f3c 06a9 19ba fa61 5f3d eb62 a3bc
000000b0: 0fbc 7cbb 69ae 563c f58c abbb 0a6e 843b
000000c0: 7408 9aba bec3 893d 5167 223d 6fb8 27bb
000000d0: f19a 1c3b 44d3 283c f5b9 83bc 8f79 f73b
000000e0: 843b d83c 8273 4e3c 2e49 a43b 01bf eabc
000000f0: 21a6 ca3b b070 24bc bf82 c7bc 0270 41bd
00000100: 75d2 a6bc 3886 523b aaba b73d f6fd 5b3b
00000110: 9ec2 623b 6078 05bc 8fa8 123c 4d55 333d
00000120: f920 293c b84d c93b fa85 d539 e970 dbba
00000130: cbbf 043c 072b 35bb 9546 acbd e18c c53c
00000140: eee7 01be 4565 cfbc c747 b33b 619a 5bbd
00000150: c341 b03c f9ac 0f3d aa8e 353d 210e b73b
00000160: 431b 413d 571b 16bb ea6e e43b 4ed8 a8bc
00000170: 1915 5a3a 5473 f43b 1807 e4bd 12df a3bb
00000180: 2cee d4bc 167f d33c fd3b c73a 7276 a43b
00000190: a9a1 813b 049a 35bb f1bf de3c 6f18 88bb
000001a0: 299c 083d 41bc 84bd c0e8 33bc 57d7 8f3c
000001b0: b95e ef39 6572 94bd f73b c1bb 0310 b3bb
000001c0: d2a6 48bb 0e62 cd3c 3e5d e33c 4f64 0c3d
000001d0: cf95 963a 09d9 5cbb abed c93b def8 6c3c
000001e0: 5ee5 6c3d 3ef4 77bd d4fc a6bb 4551 823d
000001f0: 0f2f 11bd b11d 7fbc eda9 e3bc 03c7 6b3d
00000200: a4a5 be3c 355d 33b9 252a 73bc c93c 0fba
00000210: d1b2 aa3a 2598 12bc c6c4 753c e8b4 bd3b
00000220: c3d3 65bd 35e7 95ba 2921 b7bb 89c9 743b
00000230: 7457 f4bb cf56 d83a 380a fa3c 57b7 6fba
00000240: 3f37 50bc 3c34 4cbb 82dc 013d 0b9e 053b
00000250: ec67 163c 67c1 c43a a71f 7a3b a095 b8bb
00000260: e397 8ebc 0322 c73b a8ba 4c3b f645 af3b
00000270: 6a34 c0bb 44cb 983c a70a b03c b92a f83a
00000280: 889c c2bb 5b22 3e3c 09de 55bc ef5e 43bb
00000290: 8e85 d33a 70e8 1b3b 2ba0 053c 344a 833b
000002a0: 1a10 763c 89f4 bc3b 137e 8f3d 5f77 04bd
000002b0: 1b39 143c b8e2 0b3d b885 c5bb 9398 5d3b
000002c0: 4b01 92bb d04d b43c 9db7 583c 5f33 123c
000002d0: d180 9fb9 5ed0 9c3b fba6 5cbc 8597 8b3b
000002e0: 289a 9b3b 8932 02bd 221d 6dba cfd0 aabc
000002f0: 41b5 be3c 7cff c9bb c51e a03b 509d bbbc
00000300: 8598 aabb 934b a0bb ed38 ef3c e251 e537
00000310: c60a b03b f40b 5bbd fe84 653b 9ffb 5cbc
00000320: cae1 16bc d62f 043c 0b61 3ebb 6c85 993d
00000330: cb07 bc3b 9a5a 3bbc b3f2 a4bc ca3b d8bd
00000340: c85f f63c c674 89bb b339 333b 89a2 ffbc
00000350: 5264 e23b 97b0 603d d9cc a13d 58f7 d9bb
00000360: 8f70 503c 30d8 85b9 8659 083c e7dc 8cbc
00000370: e50f 57bb 3753 6f3c 341c 6d3c e433 7fbc
00000380: b96f 243b d32b 203a fffb 333c 0b31 7cb9
00000390: fd50 fc3a 3243 1f3b 5ecc 313c 3282 95b9
000003a0: 2d04 513d f078 d8bd ec5d 2c3c e306 d03a
000003b0: 5786 433c 7428 62bd 583e 00bc 5552 cf3a
000003c0: 9c1d 24bb a6ce 933d 01a4 833c fe8f bfbd
000003d0: 922d d03a 8004 2fbc 511c 7ebc 35bd 103d
000003e0: a158 babc b232 953d fc2e eebb 456e 203e
000003f0: ed31 1c3e 105d 3bbc f16f 87bc 9de8 593b

encoder.block1.convblock3.1.weight f4 [64]
0.089055575 0.23494959 0.10011168 0.23177534 0.40520954 0.3437308 0.06630583 0.24079975
0.13962208 0.37761867 0.32912672 0.6216981 0.51494193 0.38244814 0.894946 0.42664233
0.78127724 0.74172556 0.29166168 0.5229081 0.56968 0.22726032 0.3348044 0.82665837
0.30821887 0.39886782 0.17073098 0.3870763 0.22059095 0.2688964 0.22225346 0.49547753
0.5405675 0.34693673 0.19581713 0.21775214 0.70026964 0.39284948 0.54576486 0.47405037
0.7163038 0.37506163 0.35986325 0.25349334 0.3926149 0.56215245 0.17537013 0.622896
0.46787986 0.5917978 0.36903387 0.43358272 0.3082725 0.3329385 0.5928133 0.1810171
0.2966657 0.22774892 0.33934405 0.52067107 0.47575793 0.3696592 0.35212764 0.055078596
00000000: c562 b63d a096 703e 5a07 cd3d 8456 6d3e
00000010: a077 cf3e 7cfd af3e 5acb 873d 3694 763e
00000020: 17f9 0e3e 3c57 c13e 4c83 a83e 9b27 1f3f
00000030: 3cd3 033f 3ed0 c33e 2e1b 653f dd70 da3e
00000040: c901 483f bae1 3d3f ae54 953e 4edd 053f
00000050: 8cd6 113f eeb6 683e 7b6b ab3e e29f 533f
00000060: ddce 9d3e 6738 cc3e 1ad4 2e3e dd2e c63e
00000070: 98e2 613e caac 893e 6996 633e 3baf fd3e
00000080: a262 0a3f b1a1 b13e 4984 483e 6bfa 5e3e
00000090: df44 333f 9123 c93e 3fb7 0b3f bbb6 f23e
000000a0: b05f 373f 1408 c03e ff3f b83e e1c9 813e
000000b0: d204 c93e 39e9 0f3f 3a94 333e 1d76 1f3f
000000c0: f38d ef3e 1080 173f 02f2 bc3e 8efe dd3e
000000d0: e5d5 9d3e ea76 aa3e 9dc2 173f 8c5c 393e
000000e0: 91e4 973e 0337 693e 81be ad3e b34a 053f
000000f0: 8b96 f33e f843 bd3e 134a b43e 189a 613d

encoder.block1.convblock3.1.bias f4 [64]
-0.075611494 -0.0007692115 -0.07269938 0.016125126 -0.018206714 0.001044468 0.006706634 0.0859643
0.00068648515 0.09084254 0.06807469 -0.20532897 -0.08149364 -0.081349656 -0.4063877 -0.14858456
-0.35972294 -0.12659651 -0.15130414 -0.11449824 -0.1675593 0.0349853 -0.0006155666 -0.42280483
0.02552672 -0.04036068 0.033046998 -0.054825958 -0.05316614 0.060181513 0.066495374 -0.09884085
-0.11947953 0.004815754 -0.116607696 0.042534463 -0.1941495 -0.059266068 -0.051842242 -0.05291059
-0.21988435 -0.21752842 -0.16012472 0.033685107 0.061411604 -0.21967132 0.01822515 -0.10434806
-0.0818569 -0.22691351 0.016361276 -0.2475156 0.014684972 -0.0013160727 -0.07715218 -0.040513676
-0.037733793 0.1511516 -0.05241602 -0.14477567 -0.06419072 -0.032971647 -0.06433444 -0.00048148743
00000000: 33da 9abd e9a4 49ba 6ae3 94bd d718 843c
00000010: 3f26 95bc 88e6 883a 53c3 db3b 0d0e b03d
00000020: 3df5 333a a70b ba3d be6a 8b3d c241 52be
00000030: 23e6 a6bd a69a a6bd 0c12 d0be 8d26 18be
00000040: 9b2d b8be 84a2 01be 79ef 1abe 0e7e eabd
00000050: aa94 2bbe bf4c 0f3d fa5d 21ba e079 d8be
00000060: 691d d13c 3e51 25bd 4a5c 073d 2f91 60bd
00000070: bdc4 59bd e480 763d ba2e 883d 126d cabd
00000080: afb1 f4bd 79cd 9d3b 04d0 eebd 9e38 2e3d
00000090: 20cf 46be fac0 72bd 8858 54bd c6b8 58bd
000000a0: 5d29 61be c5bf 5ebe bcf7 23be 65f9 093d
000000b0: bc8a 7b3d 85f1 60be e94c 953c 70b4 d5bd
000000c0: 97a4 a7bd 045c 68be 1508 863c bb74 7dbe
000000d0: 3d99 703c 1280 acba f601 9ebd abf1 25bd
000000e0: c08e 1abd 7cc7 1a3e 2eb2 56bd 1340 14be
000000f0: 6d76 83bd 470d 07bd c6c1 83bd 2670 fcb9

encoder.block1.convblock3.1.running_mean f4 [64]
0.004099657 -0.002377525 -0.004307959 0.0005415445 -0.023444546 -0.012252445 0.0027023784 -0.0045325714
-0.019913066 0.0031206685 0.004740538 -0.007141792 -0.017356593 -0.029091552 0.003820841 -0.0061566876
-0.002764472 -0.020256087 -0.004081704 -0.03738395 -0.023632629 -0.0066972403 -0.0048639462 -0.016503466
-0.005128364 -0.0072890776 -0.0003137991 -0.006717099 -0.02265977 -0.009301919 -0.05470148 0.0010149137
-0.040708225 0.0033780185 -0.0039632334 -0.006430113 0.05028226 0.023158455 -0.025296738 -0.0003276361
0.029572617 -0.016577812 -0.0035709343 0.029348416 0.0061884336 -0.036647525 -0.0035409278 -0.03261334
-0.020140685 0.008368775 -0.035228003 -0.019798674 -0.014066119 -0.020477746 0.0011492381 -0.013625394
-0.017094383 -0.03798862 0.020764973 -0.02473374 -0.020191973 0.006451561 0.029414766 0.0066655786
00000000: 6a56 863b 40d0 1bbb c829 8dbb 70f6 0d3a
00000010: c70e c0bc 7bbe 48bc 631a 313b f785 94bb
00000020: ba20 a3bc 2184 4c3b 8456 9b3b b205 eabb
00000030: 6a2f 8ebc 6851 eebc 1367 7a3b 0abe c9bb
00000040: 252c 35bb 18f0 a5bc d1bf 85bb ea1f 19bd
00000050: 3799 c1bc 8674 dbbb bd61 9fbb 4732 87bc
00000060: d60b a8bb 37d9 eebb 6785 a4b9 1c1b dcbb
00000070: fba0 b9bc 1367 18bc a90e 60bd da06 853a
00000080: abbd 26bd bf61 5d3b 03de 81bb b3b3 d2bb
00000090: c5f4 4d3d cdb6 bd3c 1b3b cfbc 93c6 abb9
000000a0: 4642 f23c 31ce 87bc 5606 6abb 176c f03c
000000b0: 58c8 ca3b b71b 16bd e90e 68bb 9195 05bd
000000c0: 14fe a4bc 301d 093c 3d4b 10bd d430 a2bc
000000d0: 9475 66bc f2c0 a7bc 08a2 963a 0b3d 5fbc
000000e0: 8509 8cbc f599 1bbd 4e1b aa3c 6a9e cabc
000000f0: a369 a5bc 9e67 d33b 3cf7 f03c ed6a da3b

encoder.block1.convblock3.1.running_var f4 [64]
0.0003009957 0.007028461 0.00023400187 0.004059037 0.025135018 0.035003167 0.00027545987 0.010613994
0.0005238508 0.02156436 0.013657035 0.014835583 0.046200015 0.022259882 0.016526574 0.026870009
0.04345549 0.016645398 0.007702954 0.0030645109 0.039416976 0.004012858 0.0039097588 0.015309638
0.003086687 0.005692356 0.0008295446 0.0030169098 0.0009049749 0.022515792 0.003100925 0.031281892
0.082639985 0.04288964 0.0021519095 0.0022858046 0.026392698 0.034749493 0.015110514 0.008175029
0.03745295 0.03125309 0.036742732 0.0061432575 0.015160835 0.018873932 0.0016986228 0.0058849705
0.018142872 0.031720646 0.007957854 0.013150742 0.015355806 0.02472782 0.0122862 0.0028247223
0.015821276 0.01075551 0.0041184216 0.015159032 0.06642408 0.020152016 0.07507784 2.8266599e-05
00000000: f6ce 9d39 014f e63b 665e 7539 ac01 853b
00000010: f4e7 cd3c 7b5f 0f3d 996b 9039 51e6 2d3c
00000020: 0853 093a bea7 b03c c2c1 5f3c f210 733c
00000030: 3a3c 3d3d 5b5a b63c bd62 873c 7e1e dc3c
00000040: 62fe 313d ee5b 883c 1069 fc3b f6d5 483b
00000050: b273 213d 4b7e 833b 6f1d 803b 47d5 7a3c
00000060: 044a 4a3b f186 ba3b cc75 593a 59b7 453b
00000070: d63b 6d3a 0a73 b83c e338 4b3b 7121 003d
00000080: 273f a93d 0cad 2f3d 0d07 0d3b 70cd 153b
00000090: 8035 d83c 7c55 0e3d 1792 773c 8ff0 053c
000000a0: 4468 193d 3d03 003d 8c7f 163d 614d c93b
000000b0: 2765 783c 819d 9a3c 53a4 de3a b6d6 c03b
000000c0: 5ca0 943c 82ed 013d a961 023c 3676 573c
000000d0: eb96 7b3c ff91 ca3c 0f4c 493c fa1e 393b
000000e0: 9f9b 813c e137 303c d3f3 863b 975d 783c
000000f0: 5909 883d d715 a53c 69c2 993d 0f1e ed37

encoder.block1.shortcut.0.weight f4 [64, 1, 1]
0.03459753 -0.047365714 -0.04937407 0.02605064 -0.032146536 0.015225542 0.019003164 -0.018702403
0.012293357 0.053598974 -0.029662874 -0.033694733 0.03379322 -0.032310225 0.02892323 -0.02133023
-0.03588384 -0.04579717 -0.015577875 -0.020175561 -0.035671506 0.049085725 -0.02991422 -0.01995153
0.032308023 -0.03494572 0.038705043 0.043006226 -0.041137204 0.03322333 -0.04899435 0.019597812
0.046817638 0.0465812 0.019385653 0.041969683 -0.041624162 -0.028626567 0.02374907 -0.04146934
-0.026656006 0.036009245 -0.015860315 0.011910552 -0.03904775 -0.026312431 -0.03481287 -0.037709847
-0.02783176 -0.04014968 0.04844892 0.036372498 0.0084431395 0.023524433 0.037400622 0.018061504
-0.041645627 -0.038459063 -0.01487155 -0.029547129 0.01727535 0.018659482 0.031913362 -0.023797203
00000000: 24b6 0d3d 8d02 42bd 773c 4abd 2768 d53c
00000010: 16ac 03bd 8d74 793c 86ac 9b3c c835 99bc
00000020: 146a 493c 998a 5b3d 8eff f2bc 7d03 0abd
00000030: c26a 0a3d ba57 04bd 69f0 ec3c bcbc aebc
00000040: effa 12bd d095 3bbd 583a 7fbc 3847 a5bc
00000050: 491c 12bd 1d0e 493d ab0e f5bc 6471 a3bc
00000060: 6b55 043d 3e23 0fbd 2e89 1e3d 4c27 303d
00000070: 7c7f 28bd 3015 083d 4dae 48bd 978b a03c
00000080: dac3 3f3d eecb 3e3d a9ce 9e3c 67e8 2b3d
00000090: 197e 2abd 4382 eabc 698d c23c c1db 29bd
000000a0: b25d dabc 6e7e 133d 7eed 81bc 7a24 433c
000000b0: 89f0 1fbd 2b8d d7bc f197 0ebd a475 1abd
000000c0: 6eff e3bc fe73 24bd 6072 463d 54fb 143d
000000d0: 1855 0a3c 50b6 c03c 6531 193d b8f5 933c
000000e0: 9b94 2abd 4087 1dbd cda7 73bc d20c f2bc
000000f0: 0985 8d3c c5db 983c 96b7 023d 5af2 c2bc

encoder.block1.shortcut.1.weight f4 [64]
0.036607206 -0.005775373 0.0023737273 0.05128914 0.14512175 -0.023445638 0.04826577 0.042087756
0.048927635 0.23168294 0.08059844 0.16495652 -0.16253553 -0.0022453363 0.0753532 0.061103396
0.22791266 0.19914663 -0.0018746938 0.1088269 -0.093594104 0.011031647 -0.02388617 -0.04223584
0.028273936 0.150764 0.04843698 -0.07714803 -0.027016183 0.053699676 0.005487178 -0.041678373
-0.03781765 0.033310536 -0.04813315 0.03663664 -0.2995912 -0.027524885 -0.060692992 0.13347985
-0.12229702 0.037729733 0.04942818 0.009730478 0.022453664 -0.041157607 0.016236529 0.26503587
-0.098318234 0.15449956 -0.015709262 0.00712059 0.0057670805 0.026736422 0.18816847 0.03331452
0.03397904 0.12636094 -0.06959393 -0.1711918 -0.031890202 -0.03324996 0.10368454 0.05192153
00000000: 70f1 153d 573f bdbb 8990 1b3b 9014 523d
00000010: cc9a 143e 1111 c0bc 54b2 453d 3664 2c3d
00000020: 5868 483d 4b3e 6d3e cb10 a53d 5dea 283e
00000030: b76f 26be 7e26 13bb c752 9a3d 8e47 7a3d
00000040: f061 693e 18ed 4b3e 49b8 f5ba a3e0 de3d
00000050: 44ae bfbd 15be 343c eeac c3bc 7dff 2cbd
00000060: be9e e73c e161 1a3e db65 463d c9ff 9dbd
00000070: 0b51 ddbc 31f4 5b3d c9cd b33b f1b6 2abd
00000080: aee6 1abd a170 083d 4427 45bd 4d10 163d
00000090: 0564 99be de7b e1bc 3799 78bd f1ae 083e
000000a0: dc76 fabd 7e8a 1a3d 3475 4a3d 956c 1f3c
000000b0: bff0 b73c e194 28bd 7802 853c c8b2 873e
000000c0: 125b c9bd 2235 1e3e b6b0 80bc d753 e93b
000000d0: c7f9 bc3b 5706 db3c 3caf 403e ce74 083d
000000e0: 9b2d 0b3d c364 013e 4387 8ebd e74c 2fbe
000000f0: 4d9f 02bd 1c31 08bd 8f58 d43d acab 543d

encoder.block1.shortcut.1.bias f4 [64]
-0.075611494 -0.0007692115 -0.07269938 0.016125126 -0.018206714 0.001044468 0.006706634 0.0859643
0.00068648515 0.09084254 0.06807469 -0.20532897 -0.08149364 -0.081349656 -0.4063877 -0.14858456
-0.35972294 -0.12659651 -0.15130414 -0.11449824 -0.1675593 0.0349853 -0.0006155666 -0.42280483
0.02552672 -0.04036068 0.033046998 -0.054825958 -0.05316614 0.060181513 0.066495374 -0.09884085
-0.11947953 0.004815754 -0.116607696 0.042534463 -0.1941495 -0.059266068 -0.051842242 -0.05291059
-0.21988435 -0.21752842 -0.16012472 0.033685107 0.061411604 -0.21967132 0.01822515 -0.10434806
-0.0818569 -0.22691351 0.016361276 -0.2475156 0.014684972 -0.0013160727 -0.07715218 -0.040513676
-0.037733793 0.1511516 -0.05241602 -0.14477567 -0.06419072 -0.032971647 -0.06433444 -0.00048148743
00000000: 33da 9abd e9a4 49ba 6ae3 94bd d718 843c
00000010: 3f26 95bc 88e6 883a 53c3 db3b 0d0e b03d
00000020: 3df5 333a a70b ba3d be6a 8b3d c241 52be
00000030: 23e6 a6bd a69a a6bd 0c12 d0be 8d26 18be
00000040: 9b2d b8be 84a2 01be 79ef 1abe 0e7e eabd
00000050: aa94 2bbe bf4c 0f3d fa5d 21ba e079 d8be
00000060: 691d d13c 3e51 25bd 4a5c 073d 2f91 60bd
00000070: bdc4 59bd e480 763d ba2e 883d 126d cabd
00000080: afb1 f4bd 79cd 9d3b 04d0 eebd 9e38 2e3d
00000090: 20cf 46be fac0 72bd 8858 54bd c6b8 58bd
000000a0: 5d29 61be c5bf 5ebe bcf7 23be 65f9 093d
000000b0: bc8a 7b3d 85f1 60be e94c 953c 70b4 d5bd
000000c0: 97a4 a7bd 045c 68be 1508 863c bb74 7dbe
000000d0: 3d99 703c 1280 acba f601 9ebd abf1 25bd
000000e0: c08e 1abd 7cc7 1a3e 2eb2 56bd 1340 14be
000000f0: 6d76 83bd 470d 07bd c6c1 83bd 2670 fcb9
