ldpi/training/output/ResCNN/best_model_with_center.pth (torch, 711778 bytes, 64 tensors)

encoder.block1.convblock1.0.depthwise_conv.weight f4 [1, 1, 7]
000000 a1 58 fe bf c7 59 11 bf 60 2e 3d bd d2 3a e2 bc
       -1.9870797 -0.56777614 -0.046186805 -0.027615938
000010 6a c0 ad bc 56 8c ac bb e3 99 3c 3c
       -0.021209914 -0.005265753 0.011511299

encoder.block1.convblock1.0.pointwise_conv.weight f4 [64, 1, 1]
000000 ac 4a 21 bd d0 fd ad 3c 88 c7 3f bd 1b cd 14 3d
       -0.039377853 0.021239191 -0.046821147 0.036328416
000010 c5 d0 95 bc 2f 27 12 bd ed d9 1b 3d 9e bc 92 bc
       -0.018288026 -0.0356819 0.038049627 -0.017912205
000020 18 d4 02 3d 4f bd 37 3d 19 ae 2e 3c 7c bd d7 3c
       0.03194055 0.044858273 0.010661625 0.02633547
000030 67 db fe bc 78 ea 2c 3c 69 81 e4 bc 5c f8 fe bc
       -0.031110479 0.010553949 -0.027893739 -0.031124286
000040 10 23 2c bd 88 c6 36 bc 5d e4 47 3d 5a c7 40 bc
       -0.042025626 -0.011155732 0.04880177 -0.011766279
000050 b7 06 44 3c 74 83 c0 ba aa 49 a2 3c ac 95 04 3d
       0.011964492 -0.0014687614 0.019810516 0.0323693
000060 af c4 08 3d 66 68 f5 bc 45 b8 78 3c 0f 27 c6 bc
       0.033390697 -0.029957008 0.015180652 -0.024188546
000070 18 1e 10 bd 01 b3 83 bc c8 b0 0f 3d 5f c3 08 3d
       -0.03518495 -0.016076567 0.0350807 0.033389445
000080 ec b7 be 3c fe 9f cd bc 32 1d 33 3d 31 55 33 3d
       0.02328106 -0.025100704 0.043729015 0.043782417
000090 53 88 0d bd b9 32 ec bc ac a7 13 3d 9b a5 27 ba
       -0.034553837 -0.02883278 0.036048576 -0.00063952216
0000a0 73 6e 08 3d 4d 61 08 3d ce 18 15 bd f0 06 e2 bc
       0.033308458 0.03329592 -0.03640061 -0.027591199
0000b0 a8 77 4d 3d 12 05 90 3c ab 4f 48 3d 99 18 34 3d
       0.05016294 0.017580543 0.048904102 0.04396877
0000c0 f1 85 90 bc 80 ca 61 3c 79 04 0d 39 6d a8 57 3c
       -0.017641993 0.01378119 0.00013448474 0.013162714
0000d0 69 45 0b 3d a6 08 7b 3a 20 9b f0 bc f4 a6 c4 bc
       0.03400174 0.0009576179 -0.029370844 -0.02400539
0000e0 43 e3 b5 3d 36 33 c5 3c c6 b0 4f 3d 43 62 f6 bc
       0.08881237 0.02407227 0.050705694 -0.030076152
0000f0 60 a1 8e bb 6a 47 02 bd 95 ae 10 3d 7b 2f 2c 3d
       -0.0043527335 -0.031806387 0.035322744 0.04203747

encoder.block1.convblock1.1.weight f4 [64]
000000 f8 8d 7d 3e 00 0d 0e 3e 34 70 bb 3e d7 d9 71 3d
       0.24761188 0.13872147 0.36609042 0.05904564
000010 fe cd 0d 3e 4f 43 db 3e 64 9e 43 3e 7b 47 63 3e
       0.13848111 0.4282479 0.1910339 0.22195236
000020 92 8a fc 3e 16 3b f9 3e 34 b3 9f 3d 6d be a2 3e
       0.4932447 0.48677891 0.07797852 0.31785908
000030 88 19 ac 3e 7d 29 f0 3d 82 7f 2e 3e 8b 06 cd 3e
       0.3361323 0.11726663 0.17040828 0.40044054
000040 45 86 2f 3e 54 15 78 3d fa 3e 1e 3f 25 bb 34 3c
       0.17141064 0.060567215 0.61814845 0.011030947
000050 86 2e 0b 3e a1 cb 55 3e eb c2 ba 3d 52 ad c0 3d
       0.13591966 0.2087846 0.09119209 0.09408058
000060 e1 4e 49 3e 55 00 a9 3e 21 f4 12 3e 14 2a 1d 3e
       0.19658996 0.33008066 0.1435094 0.15348083
000070 4d b4 cc 3d 86 5e c5 3d e3 4f 06 3f f8 6e 9a 3e
       0.09995327 0.096371695 0.5246565 0.30162787
000080 78 88 2c 3e 5f f2 82 3e 5d a3 ec 3e 5f ec 89 3e
       0.16848934 0.2557554 0.46218386 0.2693815
000090 88 49 cc 3e 2e 28 b0 3e e1 42 04 3e 22 16 e5 3d
       0.3989985 0.34405655 0.12916137 0.11185862
0000a0 65 f0 3f 3d c3 68 61 3d da e2 c4 3e d9 52 bb 3e
       0.046860117 0.05503155 0.38454324 0.36586645
0000b0 2e e0 26 3f 42 51 8f 3c d8 99 38 3f 93 96 47 3c
       0.6518582 0.017494801 0.72109747 0.012181896
0000c0 a9 ba 90 3e ca 63 54 3e 74 4e 56 3e ee b9 1c 3d
       0.2826741 0.20741192 0.20928365 0.038263254
0000d0 68 8a d7 3e 4f da 59 3e 4b 62 bd 3e 74 29 0d 3d
       0.42097783 0.21274684 0.36989054 0.03446336
0000e0 be 63 86 3e cd 3f 70 3e c1 3b 0f 3f 5b 1a cf 3d
       0.26247972 0.23461838 0.5595055 0.10112449
0000f0 be a1 da 3c 02 e9 ce 3e 5e 37 da 3e 48 32 d7 3d
       0.026688453 0.40412146 0.42620367 0.10507637

encoder.block1.convblock1.1.bias f4 [64]
000000 df 26 ca be 98 34 c9 3d d5 b0 01 3e 45 fb 5d bc
       -0.3948278 0.098244846 0.12665112 -0.013548677
000010 0f ae e7 3d 9d f0 07 3e ae c0 26 3e 1a 42 80 3d
       0.11312496 0.1327538 0.16284439 0.06262608
000020 80 70 43 3e 48 e0 31 3e a7 51 8e bc 31 36 c8 3c
       0.19085884 0.17370713 -0.01737292 0.024439903
000030 f5 2f c7 bd 5b 7b b5 be d0 dc a0 bd 95 0d e3 bd
       -0.09725944 -0.35445675 -0.07854617 -0.11086575
000040 c5 15 7a bd c3 1a a1 bd 6c 25 c3 3d 76 1a 4d 3f
       -0.061055917 -0.078664325 0.09528622 0.801185
000050 96 bc 8a bd 43 1b 5d be 63 c5 c3 bc 88 dc 97 3e
       -0.06774251 -0.21592431 -0.023897832 0.2966044
000060 69 2a b4 3c 48 07 b7 bd cd 25 1f bd c8 58 43 3d
       0.021992879 -0.08936936 -0.03885441 0.04769209
000070 b7 9f 3c bd ed 64 b0 bc f8 7e 11 be a6 73 89 bd
       -0.046050753 -0.0215325 -0.14208591 -0.06711511
000080 2e 12 90 3e 85 61 e5 bd 51 fc c1 3e 25 14 ab bd
       0.2813887 -0.11200241 0.37887815 -0.08353452
000090 1a c3 4c 3e 5a 48 e5 bd c7 2f b4 3d 1b 2f 55 bd
       0.199963 -0.111954406 0.08798175 -0.052046876
0000a0 f2 47 93 bd fb 84 08 bf 81 ff 22 3e 4d d3 c9 bd
       -0.07191457 -0.5332791 0.1591778 -0.098547556
0000b0 a4 ff a6 3d 44 67 d4 bd 7f 41 7c be cd 99 27 be
       0.08154228 -0.10371259 -0.2463436 -0.16367264
0000c0 35 e2 dc 3d 9d 95 8c 3d 3e 7f 6a bd 32 2f 4e bc
       0.10785333 0.06864474 -0.057250254 -0.012584494
0000d0 cf a4 0b 3e 82 27 ae bd d0 a3 11 3e 1c e0 af bd
       0.13637088 -0.08503629 0.14222646 -0.08587667
0000e0 6e bb 95 3e 23 87 74 3d 20 41 f6 3e 87 3c fa 3c
       0.2924456 0.05969919 0.4809656 0.03054644
0000f0 60 fa 64 be 12 8c 4a bc dc e8 f1 be 61 8f e5 bc
       -0.22361135 -0.012362497 -0.4724797 -0.02802247

encoder.block1.convblock1.1.running_mean f4 [64]
000000 de 24 e5 3c be 2f 77 bc ab 3a 08 3d 5b 66 d3 bc
       0.027971681 -0.015087066 0.033259075 -0.025805643
000010 33 d6 54 3c 57 a3 cf 3c 66 6a dd bc c7 77 50 3c
       0.012990522 0.025346441 -0.027028274 0.01272387
000020 c5 db b9 bc 85 84 02 bd 68 2a f8 bb ce 41 99 bc
       -0.022687802 -0.03186466 -0.0075734146 -0.018708136
000030 6e 07 b5 3c c5 a8 f5 bb a4 51 a2 3c 6e 1a b5 3c
       0.02209827 -0.0074969255 0.01981432 0.02210733
000040 64 8d f4 3c 21 d5 01 3c c0 fd 0d bd 99 ed 08 3c
       0.029852577 0.007924349 -0.034665823 0.008357429
000050 02 3f 0b bc 2f c0 88 3a 51 8f 66 bc 6e 5c bc bc
       -0.008498909 0.0010433252 -0.014072255 -0.022993293
000060 1b 4e c2 bc e5 50 ae 3c 8c ae 30 bc aa c1 8c 3c
       -0.023718884 0.021278808 -0.010783803 0.01718219
000070 f7 be cc 3c fb 19 3b 3c 78 25 cc bc ff 4c c2 bc
       0.024993403 0.011419768 -0.02492021 -0.023718355
000080 91 79 87 bc 66 0f 92 3c 02 77 fe bc bf c6 fe bc
       -0.01653746 0.017829608 -0.031062607 -0.031100629
000090 cf 17 c9 3c 7c c4 a7 3c 79 c5 d1 bc 79 2c ee 39
       0.024547486 0.020479433 -0.025606858 0.00045428032
0000a0 8d d3 c1 bc de c0 c1 bc 59 d2 d3 3c d9 8b a0 3c
       -0.023660446 -0.023651537 0.025857138 0.019597935
0000b0 99 f3 11 bd 64 9b 4c bc 84 4b 0e bd 2a dc ff bc
       -0.035632703 -0.01248822 -0.034739986 -0.031232912
0000c0 90 50 4d 3c 35 5c 20 bc 76 57 c8 b8 eb 30 19 bc
       0.012531415 -0.009787609 -9.553034e-05 -0.009350042
0000d0 27 dc c5 bc f7 51 32 ba 6f e6 aa 3c c9 b0 8b 3c
       -0.024152828 -0.0006802375 0.020861832 0.017052071
0000e0 e7 33 81 bd e1 12 8c bc 56 87 13 bd 5b 04 af 3c
       -0.06308728 -0.017098846 -0.03601774 0.021364382
0000f0 10 a2 4a 3b f7 18 b9 3c 33 8c cd bc 23 9f f4 bc
       0.003091935 0.022594912 -0.025091266 -0.029861039

encoder.block1.convblock1.1.running_var f4 [64]
000000 5b 78 3e 3a 4c a5 5d 39 51 a4 86 3a 0c 1d 22 3a
       0.0007265859 0.0002113778 0.0010272359 0.0006184138
000010 20 53 24 39 33 65 1c 3a b7 d6 31 3a dd a5 1d 39
       0.00015671225 0.00059660076 0.0006784009 0.00015034476
000020 18 9d fa 39 5e 2d 77 3a b9 67 5f 38 86 67 aa 39
       0.0004780076 0.00094290625 5.3263942e-05 0.00032502058
000030 37 c2 ed 39 54 ea 5a 38 d4 26 bf 39 24 f4 ed 39
       0.00045348864 5.2193485e-05 0.00036459288 0.00045386062
000040 66 f2 58 3a c6 96 74 38 c7 45 92 3a df 06 88 38
       0.0008275866 5.8314552e-05 0.0011159711 6.486265e-05
000050 e9 ab 8c 38 bb ac 87 35 c5 d4 40 39 3b b4 00 3a
       6.707741e-05 1.0108555e-06 0.0001838981 0.0004909669
000060 84 f4 08 3a bf 73 dc 39 07 7a e2 38 5f bd 8f 39
       0.0005224424 0.00042047907 0.00010799249 0.00027416178
000070 a6 11 18 3a 1c fa fd 38 fa 2d 17 3a f3 f2 08 3a
       0.00058009697 0.000121105666 0.0005767044 0.00052241905
000080 ac 27 85 39 9f c6 9a 39 fd e3 6a 3a 4a 77 6b 3a
       0.00025397295 0.00029521153 0.00089603645 0.0008982314
000090 f5 b0 12 3a 33 33 cc 39 22 a0 1f 3a 01 c7 4d 34
       0.00055958267 0.00038948058 0.00060892303 1.916451e-07
0000a0 f5 47 08 3a b3 2d 08 3a d8 c2 22 3a dd ff ba 39
       0.0005198711 0.0005194798 0.00062088436 0.00035667318
0000b0 bf 8b 9a 3a d4 dc 17 39 2a e6 92 3a 2a 79 6d 3a
       0.0011790915 0.00014482747 0.001120751 0.00090588874
0000c0 39 ea 18 39 fb 90 ba 38 d3 98 11 32 f9 41 aa 38
       0.00014583104 8.896176e-05 8.474859e-09 8.11852e-05
0000d0 24 03 0e 3a 49 b2 e6 34 8e e5 d3 39 28 92 8d 39
       0.0005417338 4.2970558e-07 0.00040416088 0.0002700251
0000e0 d0 38 72 3b 41 59 8e 39 61 e7 9d 3a 98 3a de 39
       0.0036960132 0.0002715085 0.0012047106 0.00042386795
0000f0 52 f2 14 37 d4 90 f8 39 1e 43 19 3a e6 11 59 3a
       8.877907e-06 0.00047410151 0.0005846488 0.000828056

encoder.block1.convblock2.0.depthwise_conv.weight f4 [64, 1, 5]
000000 56 43 84 bd 38 a7 68 bd d2 b6 8c bd fd 9d ca bc
       -0.06458156 -0.056800097 -0.06870808 -0.024733538
000010 59 16 a3 3d 2b 7c 1d be b7 26 65 bd ac 02 16 bb
       0.07963247 -0.15379398 -0.055945124 -0.0022889776
000020 b5 a3 9f 3c e9 77 9a 3d d2 31 93 3e de ed 0c 3e
       0.019487241 0.07542402 0.28748947 0.13762614
000030 73 54 27 be 5a a1 a8 3d 1f 12 ae 3d af d2 c2 bc
       -0.16340809 0.082339 0.0849955 -0.023782102
000040 52 e8 7c bb 5d da 06 3d 5e 4b 6f 3c f3 f0 1c 3d
       -0.0038590622 0.03292309 0.014605371 0.038315725
000050 cc 33 64 3d a2 68 e6 3d e6 97 00 be d8 5e 54 bd
       0.05571346 0.11250426 -0.12557945 -0.051848263
000060 f2 2b a2 3c cc c6 03 be bf 3c bd bd e4 03 cb bd
       0.019796345 -0.12868804 -0.09240102 -0.099128515
000070 fe ec 46 3d b7 71 94 be e9 57 6c be 7f f7 1c 3d
       0.048565857 -0.28993008 -0.2308041 0.03832197
000080 87 bf 89 3d 4e 3f 0c bd 47 85 4c 3d fc 5f 77 3d
       0.06725984 -0.03424006 0.04993179 0.060394272
000090 5e 91 80 3d 3c 5c 48 3d 1d 17 83 3d f6 86 8f 3d
       0.062777266 0.048916087 0.06400893 0.07008164
0000a0 0b 4b 1a 3d 3e c7 c0 3d 57 91 61 3e 6c a1 37 3e
       0.037669223 0.094130024 0.22028099 0.17932671
0000b0 52 d6 40 bd 09 8b e7 3c 78 3d f9 3e 20 c4 e0 bd
       -0.04707939 0.02826454 0.4867971 -0.10974908
0000c0 97 1e bd 3c 3c 89 8b be e8 09 56 3d 4e 94 3d bc
       0.023085875 -0.2725314 0.05225554 -0.011571003
0000d0 b0 e5 a5 3b 8e 2f 4d 3b 4e e0 b2 bd 9d 91 89 3d
       0.0050627813 0.0031308862 -0.08734189 0.06717227
0000e0 13 87 90 3d 52 a8 d8 3d d8 89 a8 3d 97 37 05 3e
       0.07057013 0.105789796 0.082294166 0.13009487
0000f0 36 b2 11 3e ea 5d 08 3e 75 f3 13 3e 89 f6 14 3d
       0.14228138 0.13317075 0.1444834 0.036367927
000100 2b 11 9a bd 69 17 52 3c f5 1c 40 bc 8f 48 fa bd
       -0.07522806 0.012822964 -0.011725654 -0.12220871
000110 9b 9e bb bd 72 57 21 3b 8a 3d 35 be 5e 2c d8 3d
       -0.09161111 0.0024618772 -0.17699257 0.10555337
000120 6b ac 86 3d 29 23 b2 bd 86 de 5d 3d 9b d1 87 3d
       0.06575855 -0.086981125 0.054167293 0.06631776
000130 40 db 81 3d ef 30 14 3e 6d 28 cd 3d 46 75 a0 3d
       0.06340647 0.14471792 0.10017476 0.07834868
000140 32 de b1 bc ef e1 68 3d 16 04 93 bd b2 89 d0 bd
       -0.021712396 0.056856092 -0.07178514 -0.10182513
000150 85 0d 88 bd 71 c1 81 bc c3 1d 39 bc 86 80 c9 3c
       -0.06643204 -0.01583931 -0.0112986 0.024597418
000160 9f 71 82 3a 96 fc 00 3d 17 4a af bd b2 05 c6 be
       0.0009952075 0.031490885 -0.085590534 -0.3867622
000170 96 22 9d bd 51 ea 2a 3e 7f ff 4d 3f b0 41 dc 3e
       -0.07672612 0.16690947 0.8046798 0.43018866
000180 c2 55 dd 3d bb ab 87 be f9 fb 53 3d 99 f9 e5 3e
       0.10807373 -0.26498207 0.05175397 0.4491699
000190 a5 de 9e 3c 10 c9 ab bc ea 69 6d 3c ee 66 bb bc
       0.019393275 -0.020969898 0.014490584 -0.02287623
0001a0 1a 5b d7 bd 3d ed 0b 3e 07 4c 0d 3e c8 a9 dd 3d
       -0.10515423 0.13664718 0.13798533 0.10823399
0001b0 c2 cc 9f 3d 8f 00 50 3d 9c 9e 19 be b7 d1 e2 bc
       0.07802726 0.050781783 -0.15001911 -0.02768789
0001c0 69 ec a1 3c 26 cd c8 bc 8d e6 9a 3d 3d 96 b0 bd
       0.01976605 -0.024511885 0.07563505 -0.08622406
0001d0 c2 8f 96 3d 58 9d b4 bd 41 05 c8 3d b4 3d 0e bd
       0.073516384 -0.088190734 0.09766627 -0.034726813
0001e0 5f fa b0 3d f2 1f 82 3d a1 4f e9 3d 14 f5 0d bb
       0.086415045 0.06353749 0.11392141 -0.002166097
0001f0 d4 a7 7e 3c bb 61 92 3d 18 c2 b0 3d 32 1b f4 3d
       0.015542943 0.07147547 0.086307704 0.119192496
000200 0f 3f 92 3d 3d f8 7a 3d 92 49 39 bd 75 ae 0b bd
       0.07140934 0.061271895 -0.045236178 -0.034101922
000210 59 7d 80 bd 4b f1 96 bd b9 52 7c bd fc e8 ae bd
       -0.06273908 -0.07370242 -0.061602328 -0.08540532
000220 dc 74 5c bd e6 1a 6b bd cd aa a2 bd 0b 9d 37 3b
       -0.053822383 -0.0573987 -0.07942734 0.002801719
000230 b7 43 e4 3d 7e 90 75 bd b4 0e 30 bc 5e b5 bb bc
       0.11145728 -0.05995225 -0.010745693 -0.022913631
000240 76 b2 b2 bc 35 e3 b0 3d 8f 8c a2 3d 85 59 7c 39
       -0.021813612 0.08637086 0.07936966 0.00024065941
000250 40 7a 0b 3c 42 ef 5c bb cd 48 30 bd 27 51 f9 3c
       0.008513033 -0.0033711945 -0.04303818 0.030434204
000260 e0 b5 b6 bd 4b 89 11 be c1 8d ad be 61 65 09 3d
       -0.08921409 -0.1421253 -0.33897212 0.033543948
000270 b5 e4 29 be 84 d3 c9 bd fd 30 ae bd 0a 54 35 be
       -0.16591151 -0.098547965 -0.085054375 -0.1770784
000280 f5 38 5a be 03 6e b0 3d 8a 0b 99 bd 54 cb e2 3c
       -0.2131079 0.08614733 -0.07472904 0.027684845
000290 32 bb 7d 3d b5 0e d1 bd 10 4f f3 bd d1 72 48 3e
       0.0619461 -0.10207883 -0.11880314 0.19575049
0002a0 cf bd 9c bc 9f b1 0b 3e ac 5d f8 3e 22 4f 34 be
       -0.019133477 0.13641976 0.48508966 -0.17608312
0002b0 29 a2 cb 3e ec 02 28 be 09 ca f6 be 10 3d 89 3d
       0.39772156 -0.16407365 -0.48201016 0.067011
0002c0 bc fa 8e 3d f1 b1 27 3d 60 5f ae 3d 41 ab 34 3e
       0.069814175 0.040941183 0.08514285 0.17643453
0002d0 21 cb 2f bf 1c 48 de 3e d4 df 3a 3e 2a 6d c3 3c
       -0.68669325 0.4341439 0.18249446 0.023855764
0002e0 7e 20 3f 3e 6c 07 b2 bd 01 bb 85 bd 86 1d ec bd
       0.18664739 -0.08692822 -0.06529809 -0.11529069
0002f0 aa 4a dd bd 5b 15 08 be e9 46 e9 3d f7 ac 9c bd
       -0.10805257 -0.13289396 0.11390478 -0.07650178
000300 da ea 06 bd c7 8e 14 bd cc 70 39 3d 44 ab ec 3d
       -0.032938816 -0.036268976 0.045273587 0.11556104
000310 16 a1 6e bc e6 20 a6 bd 02 ba 0b bc bc 76 be bd
       -0.014564773 -0.08111744 -0.008528234 -0.092999905
000320 3b 10 a9 bb c1 3e 95 ba df ff a7 3a 3b d2 86 bc
       -0.0051594055 -0.00113865 0.0012817344 -0.016457668
000330 8b 14 06 bd 13 93 d8 3c 36 3b 28 bd fa 20 68 bc
       -0.032734435 0.026437318 -0.041072093 -0.0141680185
000340 25 a4 d5 bd 10 ee e6 bd 45 03 de be b0 66 45 be
       -0.10431699 -0.112758756 -0.4336187 -0.19277453
000350 44 62 4f 3e 1d 3c 94 bc b1 84 13 3e be aa a0 bd
       0.20252329 -0.01809507 0.14406087 -0.078450665
000360 8e 46 b3 bd 09 d8 17 be 98 e2 49 bd bf 58 0a 3c
       -0.087536916 -0.14828505 -0.049288362 0.00844401
000370 63 22 c6 3d 02 44 19 bf f3 34 1f 3f c5 e3 d6 3d
       0.096745275 -0.59869397 0.6219017 0.10492662
000380 20 81 e5 be b2 82 b9 3b 7f 6f 55 3c ac be b3 bb
       -0.44825077 0.005661332 0.013027071 -0.0054853763
000390 d3 bb 49 bc ab c1 5b bc 20 d2 57 3e 3f 0b a6 3d
       -0.012312847 -0.013412873 0.2107625 0.08107614
0003a0 c6 36 bb 3e c9 ea c8 3d 89 bf 7a 3e e5 ea 90 bb
       0.36565226 0.09810407 0.24487127 -0.004422533
0003b0 8f 47 0b 3a 3f 4d 15 3c 63 65 d0 bc a8 b9 e3 bc
       0.0005313092 0.009112655 -0.02543897 -0.027798489
0003c0 8f 07 9a bc 49 9e 7f 3e 21 f3 2f bd 50 5e 95 3b
       -0.018802432 0.24962725 -0.042956475 0.004558362
0003d0 65 f8 b2 be cf 70 c9 3d 13 b6 d8 3c 66 0f c8 3b
       -0.34955135 0.0983597 0.026454007 0.0061053513
0003e0 84 44 5a 3d 06 b9 ca 3d a2 fe 18 be 34 54 5c 3d
       0.053287998 0.09898572 -0.14940885 0.05379124
0003f0 c4 7e 3a 3e 5f 99 e6 3b 28 ca 36 3e af e3 0e 3b
       0.1821242 0.007037326 0.17850554 0.002180319

encoder.block1.convblock2.0.pointwise_conv.weight f4 [64, 64, 1]
000000 09 60 fb 3c 53 e3 b8 3b e8 e8 d9 bb fd 1a 1b 38
       0.030685442 0.0056423335 -0.006650079 3.6980015e-05
000010 fe e7 15 bd dc e4 94 3c 54 fd c6 3b e8 2b 8a bc
       -0.036598198 0.018175535 0.0060726795 -0.01686664
000020 f5 9a 8c bc 82 d8 ae 38 ec 38 fd 3a 4d d5 7d bc
       -0.017163733 8.337294e-05 0.0019319332 -0.015492749
000030 22 22 d8 3a c5 62 5d 3b a2 eb 13 bd 84 9a b4 3c
       0.0016489665 0.0033780795 -0.03611339 0.022046335
000040 8e 66 08 bc fb 3e aa 3c d1 14 10 bc 38 ef ff ba
       -0.008325232 0.020781985 -0.0087940255 -0.0019526249
000050 23 5d 56 bb 6b 36 b9 bc 75 7c 6d bb f9 40 99 3b
       -0.0032709322 -0.022608956 -0.0036237512 0.004676935
000060 61 cf cc bc 69 7a ae 3b fe 64 c3 bb c9 66 de 3a
       -0.02500123 0.005324651 -0.005962967 0.0016967888
000070 b8 c0 81 bb ef b0 9e 3a e2 6a aa 3c 36 2b 8a ba
       -0.0039597414 0.0012107174 0.020802919 -0.0010541442
000080 63 1d 05 3c e3 3c 89 3b f5 d5 31 3b 72 d1 6d 3c
       0.008124682 0.0041881665 0.0027135585 0.014515268
000090 d4 32 dd bb 41 05 a9 bc 0e 9c 44 3c e2 8e 65 bb
       -0.006750444 -0.020632388 0.012000097 -0.0035027792
0000a0 3f 92 99 3c a3 4b b2 3b 9a 6c 2b bb 61 55 18 3c
       0.018746493 0.0054411455 -0.002615726 0.0092977
0000b0 e9 3d 32 bb 72 68 cd 3c 9a e6 cd bc c2 09 e1 3c
       -0.0027197546 0.025074217 -0.025134373 0.027470473
0000c0 80 28 91 3c 1b c5 c6 bb 52 d9 7b bb 0b 33 c4 bb
       0.017719507 -0.0060659773 -0.0038429094 -0.00598753
0000d0 a5 98 21 3b c8 10 de bb 27 0a 80 3b 2a 8c 00 3c
       0.0024657634 -0.006776903 0.0039074603 0.007845918
0000e0 80 28 bf bb b7 8a 83 bb fd 22 d4 bb 1e 79 35 3a
       -0.0058336854 -0.004014339 -0.0064738975 0.000692265
0000f0 4d 5c b3 3b fb fc 09 bd af cb 16 bd 74 5c 42 bc
       0.0054736496 -0.033688527 -0.03681534 -0.011862863
000100 0c 66 08 be b1 24 8b bc 4b 4d 4d be 24 67 4e bc
       -0.13320178 -0.01698527 -0.20049016 -0.012597833
000110 a4 c6 83 bd d6 bd 6d 3e 9b c4 08 bd fd e6 d6 bd
       -0.06434372 0.23216948 -0.033390623 -0.10493276
000120 ca c6 28 3e 4e 75 bd 3d 07 27 5b 3c 66 74 50 be
       0.16482082 0.0925089 0.013376004 -0.20356902
000130 ee 70 0b 3e ae a5 8d 3d 97 5c aa bd 32 b5 1e 3e
       0.13617298 0.069163665 -0.08318441 0.15498808
000140 a7 69 ec bd be eb b8 3c 8d 4e a0 3d a6 0f 56 bc
       -0.11543589 0.022573348 0.07827482 -0.013065254
000150 ad 3c 91 3b cc 15 20 3d 03 07 39 39 83 36 70 bd
       0.004432282 0.039083287 0.00017645587 -0.058645736
000160 3c 55 0a bd 7e 02 08 3e 45 8a 8f 3d 97 1d 89 3d
       -0.033772692 0.132822 0.07008795 0.06695097
000170 1f 90 53 3c 60 24 99 3c a6 79 34 3e 13 5b 14 3e
       0.012912779 0.018694103 0.1762453 0.14487867
000180 dc 70 7c bd 48 83 35 3e 9d 5c 4c bc a0 99 cc bd
       -0.06163107 0.17725861 -0.012473253 -0.09990239
000190 81 25 b4 bd 79 a6 cb bd 90 2f a0 3a 45 69 f3 bc
       -0.08796216 -0.099438615 0.0012221206 -0.029713282
0001a0 90 9b 3c bc 29 72 03 3e 29 4a d4 3d 6c 8f 0c be
       -0.011511698 0.12836517 0.103657074 -0.13726586
0001b0 d7 aa 88 3d 98 c8 3a 3c 14 3d d3 be b4 ff 8d 3c
       0.0667321 0.011400364 -0.41257536 0.017333843
0001c0 d6 a8 f5 3d b3 1e af 3d 26 ea 9e 3d e6 7e 86 3a
       0.119950935 0.08550777 0.07759504 0.0010261207
0001d0 c2 40 e7 3a ee a7 84 3d b8 73 8c bd 6f 39 af 3c
       0.0017643201 0.064773425 -0.06858009 0.021389691
0001e0 c0 be dc bd cf 43 a4 3d 5c db b8 bd 6f 0a d2 bb
       -0.1077857 0.08020746 -0.090262145 -0.006409935
0001f0 0d 8e c5 3c af b4 ce be 6e 1e b3 be 5d f1 1e bd
       0.024115587 -0.40372226 -0.34984154 -0.0388044
000200 93 fc 04 3e 29 59 20 3b cd 18 7b 3d 4f f0 b8 3b
       0.12986974 0.0024467206 0.06130295 0.0056438814
000210 3e 08 b4 3b 1f 20 1f bd e7 09 83 3b 50 12 e9 3c
       0.0054941466 -0.038848992 0.003998983 0.028451115
000220 f6 aa bb be 4a ce d3 bd 33 7f 8a bb 8f ed c2 3a
       -0.3665387 -0.10342081 -0.004226589 0.0014871823
000230 1f d5 08 be 43 35 52 bd 10 e0 a3 3c 4a f3 29 be
       -0.13362549 -0.051320326 0.020004302 -0.16596714
000240 19 90 3d 3d bc 41 71 bb 9d 2d 21 be 54 51 02 bd
       0.04628 -0.0036812862 -0.15740056 -0.03181584
000250 f3 54 d7 bc eb 2e 38 3d 1a 1a d3 bc 0b a4 d3 3d
       -0.026285624 0.04496662 -0.025769282 0.10334023
000260 e1 91 8c bd a8 96 ff bd 71 45 84 bc 5b 53 cb bc
       -0.06863762 -0.12479907 -0.016146393 -0.02482002
000270 05 ae 3f bc 67 b8 eb bc 02 ba a2 bd fa 39 1c bd
       -0.011699204 -0.028774453 -0.079456344 -0.03814123
000280 25 f9 b9 3d 66 23 94 bd 07 f9 86 bd 3a f0 14 3d
       0.09080724 -0.07233314 -0.06590467 0.03636191
000290 0a fe 69 bd 91 29 09 3e 66 11 51 39 70 2e 74 3c
       -0.057127036 0.13394763 0.00019938275 0.01490365
0002a0 a5 bb bc bb 0a d7 0f bd 90 f8 10 bd 0a 26 ed 3d
       -0.0057596737 -0.035117187 -0.035393298 0.11579521
0002b0 02 16 cb bd 64 d3 89 ba 73 d3 77 3d 0a 54 c1 bb
       -0.09916307 -0.001051527 0.060504388 -0.005899911
0002c0 d8 54 8c bc 6a 97 7f bd 9e f6 19 bd 4c 5b eb 3a
       -0.0171303 -0.06240026 -0.037588708 0.0017956286
0002d0 49 5b db bb 97 dc 9b bd e4 2d b3 3b c9 16 b2 3b
       -0.0066942316 -0.076104335 0.005468117 0.005434845
0002e0 27 c6 b6 3c db 3c 89 bd 6f 62 03 bd 9d 5e cf b9
       0.022311283 -0.067010604 -0.032076295 -0.0003955261
0002f0 d4 68 64 bb f7 83 88 bd e1 87 7f 3d 77 d1 6d 3c
       -0.0034852521 -0.06665795 0.062385444 0.014515272
000300 62 72 c2 3a b5 75 84 bc 86 b3 15 3d 09 95 cd 3a
       0.0014835114 -0.016169408 0.03654816 0.0015684675
000310 9d 77 f8 3c 90 72 1c bd 9d 02 0e 3d 71 48 1b 3d
       0.030330474 -0.038195193 0.03467046 0.037910882
000320 c6 65 7b bc 1f 00 fc bb 65 16 05 bc 60 fa 1a 3d
       -0.015344089 -0.007690444 -0.008123015 0.037836432
000330 e7 ad 14 bc fe f9 de bc eb 58 82 3c db 68 96 bc
       -0.009074665 -0.027218815 0.01591154 -0.018360546
000340 12 4d 19 3b 6f 89 eb bc ae 7b 10 3b 66 c9 bc 3c
       0.0023391885 -0.028752057 0.0022046375 0.023045253
000350 1e 76 17 bd 65 b8 51 3d 85 ef 4e bc db a5 c4 3c
       -0.03697788 0.051201243 -0.012630348 0.024004867
000360 e0 7d 1a bc 24 2b ae bc 23 72 ab bc ea 8b 3a bc
       -0.009429425 -0.021260805 -0.020928448 -0.011385897
000370 ec 92 31 ba 6e 69 32 bb 78 6e 88 bd 49 2e 43 bd
       -0.0006773907 -0.0027223486 -0.06661695 -0.047651563
000380 3c 07 2d 3d 72 ff 07 bd a0 3c fb bc 04 2d 5a 3d
       0.042243227 -0.033202596 -0.030668557 0.053265586
000390 e1 8f cb 3b 49 df c4 3c 4b 3e fe 3c 73 59 ea ba
       0.00621222 0.024032252 0.031035563 -0.0017879441
0003a0 e8 47 c1 bc dd b0 55 bc c6 e4 e5 bc 8f 17 0b 3c
       -0.023593858 -0.013042656 -0.02806319 0.0084895035
0003b0 de be 40 bb 15 e3 ca bc 1c 83 e1 3d 3e 4b e7 bc
       -0.002941064 -0.024766484 0.11011335 -0.02823412
0003c0 75 44 07 bd 41 05 19 bd bb b4 b6 3b cb 94 2e bc
       -0.03302427 -0.037358526 0.005575744 -0.010655592
0003d0 1f cd 3e bc 44 2a ec bc a8 48 c7 3c 10 c1 39 bc
       -0.011645584 -0.028828748 0.024326637 -0.011337534
0003e0 f0 c5 09 3d 12 04 9b bc 34 74 2d 3b eb ed c7 39
       0.033636034 -0.01892284 0.0026466968 0.000381335
0003f0 c1 24 11 bd ac 67 8f 3d 67 39 97 3c 50 37 f4 3c
       -0.035435442 0.07002196 0.018459989 0.029811531

encoder.block1.convblock2.1.weight f4 [64]
000000 45 39 c0 3d d2 b1 39 3f 9c d2 d6 3e 98 a7 2a 3e
       0.09385923 0.7253696 0.41957557 0.16665494
000010 db 66 1b 3e 77 11 1a 3f cb 27 78 3d a6 ca 4a 3e
       0.15175955 0.601829 0.060584825 0.19803867
000020 29 4c ac 3e 5c c2 ce 3e 62 8b 13 3d 7b d6 6e 3e
       0.33651856 0.4038266 0.036021598 0.23324005
000030 26 a9 53 3e 3d 01 78 3e 79 8b 27 3e 63 86 47 3e
       0.20669994 0.24219222 0.16361798 0.19484858
000040 44 60 70 3d e5 14 5a 3f 27 2a 4c 3e c9 02 59 3e
       0.058685556 0.8518813 0.19937955 0.21192469
000050 77 62 45 3d 06 55 1e 3e c5 75 0c 3e 30 b3 92 3d
       0.048189607 0.15462121 0.137168 0.071630836
000060 58 6f 8b 3d 4f f5 23 3f db eb 6f 3e 78 f5 82 3d
       0.068083465 0.64046186 0.23429815 0.06394476
000070 2c 2a 53 3e 0e 1a 02 3f b8 0a 9f 3e d9 8e b8 3e
       0.20621556 0.50821006 0.31062865 0.36046484
000080 49 0c 8a 3d 5c 56 06 3f ec 79 96 3d 63 07 ef 3d
       0.067406245 0.52475524 0.073474735 0.11671331
000090 d3 3d 2a 3f b0 8e d7 3d db 04 1c 3e 45 54 28 3f
       0.66500586 0.10525262 0.15236227 0.65753585
0000a0 79 85 aa 3e 4a 98 5e 3d c5 e0 33 3d bd 64 5c 3e
       0.33304957 0.054344453 0.04391553 0.21522804
0000b0 85 53 a2 3e c5 e2 3c 3d ca e3 26 3f f8 14 81 3e
       0.31704345 0.0461147 0.6519133 0.2521131
0000c0 29 98 79 3d da 79 9c 3d 62 57 f8 3e b4 07 97 3d
       0.060936127 0.07640429 0.48504168 0.07374516
0000d0 b3 d2 43 3e 3b 88 04 3f 4a a1 c3 3d 51 18 b3 3d
       0.19123344 0.5177037 0.09552248 0.08744872
0000e0 65 da 62 3e 9e 23 d3 3e 46 63 3a 3f c2 31 20 3f
       0.22153623 0.4123811 0.7280773 0.62575924
0000f0 68 72 36 3d c4 47 0d 3d 97 bd 02 3f 19 2d 0e 3e
       0.0445427 0.03449227 0.5107054 0.13884391

encoder.block1.convblock2.1.bias f4 [64]
000000 12 8c 8d bd 15 55 f3 be ee 8e 89 be 56 a4 ae bd
       -0.06911482 -0.4752585 -0.2686686 -0.08527438
000010 51 64 63 be 22 11 bc bd 7b ae 01 bc 22 1b 86 bb
       -0.22206236 -0.09182955 -0.007915135 -0.00409259
000020 35 c1 40 be 42 ec 52 be a3 90 0d bd f9 7d f2 3d
       -0.18823703 -0.20597938 -0.034561764 0.118404336
000030 6a bf 5f 3d 5e 1e 5f be e8 1c 02 be 40 4a 58 3d
       0.054625906 -0.21788928 -0.1270634 0.052805185
000040 0f 5b b8 3c 26 9c 50 be 86 64 be bc 85 dd 1b bd
       0.022504358 -0.20372066 -0.023241293 -0.038053054
000050 00 e0 6a bd ae 52 a6 bc 10 35 db bd 24 a5 94 bb
       -0.05734253 -0.020303097 -0.1070348 -0.004536288
000060 7f 73 da bd 12 35 43 be 65 01 ce be b1 4c 95 bd
       -0.106665604 -0.19063213 -0.4023544 -0.07290018
000070 6f 43 05 3d 6f 38 94 be 1a 0a 8e bd 07 7b 3f be
       0.032535013 -0.28949305 -0.069355205 -0.18699275
000080 7f 3e bc bd 4d dd ea bd c7 c9 62 bd aa 85 6b bd
       -0.09191608 -0.11467991 -0.05536821 -0.05750052
000090 24 27 1d bd fd 24 c6 bd c6 c6 ee bc 5e 69 89 bd
       -0.038367406 -0.09675024 -0.029147517 -0.0670955
0000a0 06 76 12 be 91 43 96 bd af 41 13 ba e7 54 53 bd
       -0.14302835 -0.07337106 -0.00056173926 -0.05159464
0000b0 e3 a4 bc bd 77 3d af bd 95 b8 8f 3c 3d b5 34 bc
       -0.09211137 -0.08556645 0.01754407 -0.011029539
0000c0 0b ba 95 bd 99 ca 5c bd c3 5d f3 3d 69 fc 9f bc
       -0.073108755 -0.05390415 0.11883118 -0.019529538
0000d0 dc 09 f4 bd d9 bb f4 be bf 04 a6 bd b5 f3 1f bc
       -0.11915943 -0.47799566 -0.08106374 -0.009762694
0000e0 59 b7 1c bd 9c d1 c4 3d 06 0e b4 bc 04 06 1f bc
       -0.03826079 0.09610292 -0.021979343 -0.009706024
0000f0 cc 4a 0a bb 37 f6 e3 bc 71 e1 92 3d 37 f8 61 3d
       -0.0021101711 -0.027827365 0.07171906 0.055168357

encoder.block1.convblock2.1.running_mean f4 [64]
000000 ac 9e 84 bc 82 17 00 be 92 33 d7 bd 5b a0 52 3d
       -0.016188942 -0.12508968 -0.10507883 0.05142246
000010 06 0b dc 3c a0 37 e5 3c e9 07 9b bc 6c cc 90 bb
       0.026860725 0.027980626 -0.01892467 -0.0044189002
000020 6b 6d 55 3d 28 d0 07 be d5 8d 6a 3b b0 b1 fb 3b
       0.052106302 -0.13262999 0.0035790105 0.007681094
000030 50 1c b5 bc aa 6f 54 bd a7 c1 1a bd 8c dd 2b 3b
       -0.022108227 -0.051864304 -0.037782338 0.0026224582
000040 22 c9 81 ba 55 ca 0c 3d c0 5f 4a bd 1f 5a 05 bd
       -0.0009901861 0.034372646 -0.04940772 -0.03255665
000050 1f 41 b4 3c da e8 89 bd d5 08 d8 bc 08 3e c6 bc
       0.022003708 -0.06733866 -0.026371399 -0.0241995
000060 1f 7b 9a bc 44 57 09 3e 82 e3 b9 bd 68 73 8c bc
       -0.018857537 0.13412195 -0.09076597 -0.017144874
000070 74 82 cc bc d9 11 50 bd 3f b5 30 be 69 e6 37 3c
       -0.024964549 -0.05079827 -0.1725664 0.011224368
000080 ce 19 00 3c 74 a7 d4 bc 6b f0 d1 bb 56 09 70 bc
       0.007818652 -0.025958754 -0.006406834 -0.014650663
000090 d8 1b f4 3d 54 90 a6 3c 37 c7 19 bd ee 5c 2c be
       0.11919373 0.020332493 -0.0375435 -0.16832325
0000a0 4d 34 2d 3c 40 96 92 3c 81 e4 3e 3b 18 b1 93 bc
       0.0105715515 0.01789391 0.0029127898 -0.01802878
0000b0 d9 d0 50 be f6 4a a6 bb de 36 31 3d 9a 00 a7 bd
       -0.20392169 -0.005074854 0.043265216 -0.081544116
0000c0 12 b7 11 3c 35 5f b8 bc 1b 70 ae 3d 15 2b 56 bc
       0.008893745 -0.022506336 0.08517476 -0.013071795
0000d0 51 37 68 bd 4d 84 56 bd f3 d4 4e bc 74 c5 ee bc
       -0.05669338 -0.052372266 -0.012624013 -0.029146887
0000e0 87 3a 87 bd 65 9c be 3d 30 42 08 3e a9 e4 33 3a
       -0.0660296 0.09307174 0.13306499 0.0006862381
0000f0 c3 74 ca bb 89 f0 54 3b 7f 4d 8c 3d 07 04 b3 bc
       -0.00617847 0.0032492003 0.06850719 -0.021852506

encoder.block1.convblock2.1.running_var f4 [64]
000000 07 36 9b 38 1a c7 b0 3b 54 0f 18 3b c0 7b 04 3a
       7.401039e-05 0.0053948285 0.0023202496 0.00050538406
000010 84 05 66 3a 35 e6 5e 3d 3a 40 6b 38 28 76 e9 39
       0.00087746256 0.05441876 5.608818e-05 0.00044529256
000020 88 7d 6a 3c 09 ee b0 3b fa 51 5e 37 75 5a a8 3a
       0.014312156 0.0053994698 1.3251318e-05 0.0012844341
000030 19 3f 40 3c 3b 8e 45 3b 78 e5 3f 3a 97 13 56 3b
       0.011733794 0.003014459 0.0007320265 0.0032665485
000040 cf f7 3e 38 84 68 31 3d 4f 2b bf 3a 1e ef 18 3b
       4.553032e-05 0.043312564 0.001458505 0.0023335884
000050 9c d2 2d 38 a4 c1 ae 3a 32 5f 46 39 03 4b 6f 39
       4.144256e-05 0.0013332856 0.00018918214 0.0002282076
000060 01 5c 19 39 9b 9b 66 3d b8 41 49 3b bd e9 a1 3a
       0.00014625491 0.05630074 0.0030709337 0.0012352985
000070 2b 1d 35 3b 2e 64 3f 3c 85 16 3b 3c 96 99 2e 3b
       0.0027635794 0.0116816 0.011418943 0.0026641837
000080 ef ef d7 38 1e 08 ff 3c 53 85 13 38 42 45 f7 39
       0.0001029669 0.0311318 3.51717e-05 0.00047163112
000090 0c 68 61 3d f3 92 19 3a 9a 3f 01 3b ce 8d 87 3c
       0.055030867 0.0005858384 0.0019721747 0.01654711
0000a0 e7 f5 c1 3c 84 64 26 39 9b 45 13 37 07 16 7c 3b
       0.023676826 0.00015868439 8.778089e-06 0.0038465278
0000b0 0b cd 45 3b d0 87 eb 38 e3 cc 5b 3d 69 82 6e 3b
       0.003018203 0.0001123097 0.053662192 0.0036393648
0000c0 89 fa a1 37 1a 73 f1 38 84 48 c0 3c a9 a7 9f 39
       1.930936e-05 0.00011513215 0.023472078 0.0003045176
0000d0 28 03 5c 3b ee c6 3b 3b 55 78 13 3a fe 39 ee 38
       0.0033571217 0.0028652507 0.0005625536 0.00011359526
0000e0 1a 82 f1 3a 68 a0 ba 3c 0e aa c0 3d 01 a7 f1 3c
       0.0018425614 0.022781566 0.09407435 0.029498579
0000f0 df 5f 44 38 4f 29 86 37 2e c3 4b 3d 7e 56 6f 3a
       4.681933e-05 1.599328e-05 0.049746685 0.0009130015

encoder.block1.convblock3.0.depthwise_conv.weight f4 [64, 1, 3]
000000 88 08 80 3c 62 9e 90 3c b4 2c e3 3c 0b 44 8d bd
       0.015629068 0.017653648 0.027731277 -0.06897744
000010 c2 4a 41 3e f2 40 97 3e 83 d9 90 3c 96 49 24 3e
       0.18876174 0.29541737 0.017681843 0.16043696
000020 03 78 7f 3e 62 a9 02 3d 65 f2 a0 3d d0 c0 d2 3d
       0.24948125 0.031899817 0.07858733 0.10290682
000030 7d 44 f7 b9 89 a7 4c 3d 39 c9 b5 3d d1 39 de bd
       -0.0004716254 0.04996446 0.08876271 -0.10850871
000040 c1 ee 0c be a4 55 d2 be b0 9f 1c 3d cb 56 fe bc
       -0.13762952 -0.41080964 0.038238227 -0.031047245
000050 15 18 d2 bc 1b 92 99 3d f1 a6 72 3d 26 5e f0 3d
       -0.025646249 0.074985705 0.05924124 0.117367074
000060 7a 5d 05 3d 1c 3a b4 bd 00 14 72 be 2e df 47 bd
       0.03255985 -0.08800146 -0.23640442 -0.048796825
000070 a0 d0 e0 bd ec 7c 70 be 2f d2 9b 3c 9c b8 30 3b
       -0.10977292 -0.23485154 0.019021122 0.0026965505
000080 99 16 30 3c ab 37 14 bd de 5b 1b bd 12 42 2f be
       0.010747575 -0.0361859 -0.03792941 -0.17115048
000090 34 ed 5f 3e 59 cf 82 bd 20 26 ca bd e5 35 bf bc
       0.2186783 -0.06387205 -0.09870553 -0.023341129
0000a0 e5 e3 7f bb 64 85 b2 3d c0 31 d9 bc 28 22 08 bd
       -0.0039045748 0.087168485 -0.02651298 -0.0332357
0000b0 96 3c 8f bd fb 42 dd bd e2 58 f7 bd 04 87 e0 bd
       -0.06993978 -0.10803791 -0.120775 -0.10963252
0000c0 05 b8 ec bc 37 0f 3b bd e6 aa 5c bc ee c4 c7 3d
       -0.028896341 -0.045668807 -0.01346848 0.09754358
0000d0 01 7d 74 3e 0e 89 58 3e cd b4 3f 3e a7 b9 c5 bc
       0.2387581 0.21146032 0.18721314 -0.024136377
0000e0 ca 8b 98 bb ab ea c7 bd c0 15 d6 bd c2 7d f8 bd
       -0.004655336 -0.09761556 -0.10453367 -0.121333614
0000f0 d0 a6 9d 3b 3d 35 fb 3b fa e4 06 3d 8c f5 17 3e
       0.0048111454 0.0076662586 0.032933213 0.14839762
000100 97 b5 0e 3c 90 0c 51 bd ce 16 40 bc 82 6a 21 bd
       0.008710287 -0.05103737 -0.011724187 -0.039408214
000110 8a 1a f7 bc f5 bc 6e 3d 98 5d d4 3c 5b ae c4 bc
       -0.030164022 0.058285672 0.025923535 -0.02400892
000120 05 6f 9b bc f9 11 d1 bc f3 22 87 bc ce 80 b2 3d
       -0.018973837 -0.025521265 -0.016496157 0.08715974
000130 f4 c9 e8 3e e0 e6 1b be 20 d8 df 3b ee 8b 59 bc
       0.45466578 -0.1522479 0.006831184 -0.013277991
000140 ce 50 91 bd 5c e5 0e bd 40 d8 e1 bc a9 3e 30 bd
       -0.070954904 -0.034886703 -0.027568936 -0.043028507
000150 f1 36 8c 3d 92 0a d9 3d 47 9a e6 3d ec 60 76 bd
       0.06846417 0.10597719 0.11259895 -0.060151026
000160 b4 46 f0 3c ec d4 63 3e 7c e8 cf 3d 61 2e b9 3d
       0.029330589 0.22249192 0.10151765 0.09042049
000170 96 3a 45 3e d6 4a 1d bd 46 ee 3a be b3 0c 4d be
       0.1926063 -0.038401447 -0.18254957 -0.20024376
000180 7f 8a 03 3c d1 47 84 3c 9a f7 2a 3d 0a 54 f7 3e
       0.0080286255 0.016147526 0.041740038 0.48306304
000190 bf 18 1d be f7 ef 21 be 70 4e 9c bc ba da af bc
       -0.15341471 -0.15814196 -0.01908037 -0.021466602
0001a0 cc a8 ee ba 1e 7c 75 bd 18 d2 42 bd 55 b9 9b bd
       -0.0018208264 -0.05993282 -0.047563642 -0.07603709
0001b0 58 db 94 bd 2a da ef 3e d9 64 23 bf 38 da 0d 3d
       -0.07268399 0.46846133 -0.63825756 0.034631938
0001c0 80 35 26 3d 70 41 8c 3d a1 26 3e 3d 0d bb c6 3d
       0.040578365 0.06848419 0.04642356 0.09703646
0001d0 6c c2 b5 3d 64 98 64 3e c1 40 15 bd 75 00 8f 3e
       0.08874974 0.22323757 -0.036438707 0.27930036
0001e0 6c 71 1c 3c 8a c2 69 bc f2 65 57 3d f4 38 9d bc
       0.009548526 -0.014267573 0.052587457 -0.019192196
0001f0 b8 d7 9c 3a a3 f9 9e bc 3a 63 a1 38 67 8e 5e 3c
       0.0011966145 -0.019406145 7.6955606e-05 0.013583756
000200 b3 4c fd bb 8b 04 8f bd f3 4a ef bd d4 90 f7 bd
       -0.0077300905 -0.069832884 -0.11684217 -0.12088171
000210 1c a5 7d 3e 68 eb d0 3d 3d 52 fc 3d fc 2e 28 bb
       0.24770015 0.1020115 0.12320373 -0.002566277
000220 f1 6e 32 bd eb f0 0a bd fc 0c 0d bf 65 6a ac 3c
       -0.043562833 -0.033921164 -0.5509794 0.021046827
000230 21 43 41 be 77 a2 a9 bd 24 8c 05 be f1 76 f3 bd
       -0.18873264 -0.08282941 -0.1304174 -0.11887921
000240 1a 6b eb b9 c4 2f cc 3c 39 6f 0d 3d 34 88 02 3d
       -0.0004490249 0.02492512 0.0345299 0.031868175
000250 61 1b 11 3d 8b 06 01 3d b6 4e c5 be da b9 c7 3e
       0.0354265 0.03150038 -0.38536614 0.3900898
000260 a5 03 16 3e 6e f8 5f bc 00 a6 63 bd ff 7d 47 3c
       0.14649828 -0.01367007 -0.05557823 0.012176036
000270 d8 73 e1 bd bc de 9d bd f4 83 e3 bd 46 f7 17 3e
       -0.110084236 -0.07708499 -0.111091524 0.14840421
000280 5b 0d 80 3e 5e e5 55 3e 0f 88 fa bb f2 1b 0f 3b
       0.2501019 0.20888278 -0.007645614 0.0021836725
000290 b4 dd 78 bc 45 04 08 bc c6 ff 2c 3d 88 78 92 3d
       -0.015189577 -0.008301799 0.042236112 0.07151896
0002a0 65 5a 89 bd 9d 6f a7 bd 4e f7 17 be c1 e1 7c 3e
       -0.067066945 -0.081755854 -0.14840433 0.24695493
0002b0 a1 0d 90 3d 88 ee ec be 4d 5c 2e bf 50 f2 28 3f
       0.070338495 -0.46275735 -0.6810959 0.6599474
0002c0 27 ca 9f 3d 2f e8 05 3f db f2 dd be db a8 95 bc
       0.078022294 0.5230741 -0.43349347 -0.018268993
0002d0 d8 ad bb bb d2 96 9f 3c 74 60 54 3c 7e fc 88 bc
       -0.005727511 0.019481096 0.012962449 -0.01672196
0002e0 f3 ed 7b bc 2b d5 49 3c 29 9e 8d 3d 27 78 cb be
       -0.015376556 0.01231889 0.06914932 -0.39740106
0002f0 8d db 05 3f cd e2 40 bd a0 a9 a3 bd a9 c5 b5 bd
       0.5228813 -0.047091294 -0.07991338 -0.08875591

encoder.block1.convblock3.0.pointwise_conv.weight f4 [64, 64, 1]
000000 44 2e bb 3b 97 4c f1 bb 26 0f d9 bc 32 fd f7 bb
       0.0057123024 -0.0073638665 -0.026496481 -0.007568025
000010 9d e8 d1 ba 7a f4 a3 bc 08 d3 14 bc e8 af 2d bc
       -0.0016014759 -0.020014036 -0.009083517 -0.010601021
000020 f7 2f b6 3c fb f4 fd 3a 2c 99 8f 3b f1 e8 ba bb
       0.022239668 0.0019375378 0.004382273 -0.0057040383
000030 cc 16 80 3c 34 0b 07 3a e6 23 e8 3b 2a 0b 0d bc
       0.01563587 0.00051515107 0.0070843576 -0.008608619
000040 f1 96 c8 3b cb 41 cd 3c af 70 3f bd fc b2 7d 3c
       0.0061215092 0.025055787 -0.046738323 0.015484568
000050 d4 19 0e bb 29 d7 95 bd 95 da ec ba 99 37 c4 bc
       -0.0021682875 -0.07316429 -0.0018070514 -0.023952292
000060 06 50 f6 3a c0 1c 8d bc 9c 49 11 3b 36 2b d8 3b
       0.0018792159 -0.017225623 0.0022169119 0.006596948
000070 5c 20 96 bb 47 b6 69 3b c1 01 b7 bb 63 dd 3e 3c
       -0.0045814943 0.0035661624 -0.005584926 0.011649462
000080 8f ea 1d bc 52 d8 42 bc ce 30 3b bb 68 f7 ec 39
       -0.009638443 -0.011892395 -0.0028563025 0.0004519776
000090 a6 e8 af be 24 47 2c bc 90 b7 ba bc 3d b6 65 bc
       -0.34357184 -0.010515008 -0.022792608 -0.0140205
0000a0 4d 05 9a 3b 86 97 44 ba 38 fb 68 bb ec 16 17 3c
       0.004700339 -0.00074993854 -0.0035550129 0.009221774
0000b0 0d 76 d2 bd e3 3d 83 3b 71 f2 9e bd 76 27 ca bb
       -0.10276423 0.00400518 -0.07761086 -0.006169255
0000c0 06 1c 2d bb f8 dc f4 ba 10 fd d1 bc 50 7c a3 3c
       -0.0026414408 -0.0018681576 -0.025633365 0.019956738
0000d0 9f b7 24 3d 03 09 45 bc 33 7b 2b 3b b3 57 80 bc
       0.040214177 -0.012026074 0.0026165962 -0.015666818
0000e0 bb e2 39 3c 26 58 a9 3c 42 70 29 3e 31 13 85 3d
       0.011345561 0.020671915 0.16546729 0.06497801
0000f0 1d e9 bc ba 47 4c af 3b 0c 26 ca 3d 3a 6d 0b 3c
       -0.0014412735 0.005349669 0.09870538 0.008509928
000100 e0 33 17 3c 5d af 3a be 6b 83 93 3d 51 d4 cb 3c
       0.009228677 -0.18230958 0.072028 0.024881514
000110 42 0e 6d 3c eb a3 84 bc 08 50 94 3b 2c 13 24 bd
       0.014468731 -0.016191443 0.004526142 -0.040057346
000120 82 42 85 3c eb 6e bf 3d ee e9 60 ba c7 7b b5 3d
       0.016267065 0.09347328 -0.000857978 0.08861499
000130 00 4c a7 3c 89 61 79 bd 12 a7 a4 3c 44 7e a1 3b
       0.020421982 -0.060884032 0.020099197 0.004928382
000140 f0 02 02 3c 77 e7 1d be ba 17 8a bc b8 dd e9 3b
       0.007935271 -0.15420328 -0.016857017 0.0071370266
000150 aa 63 a9 3a dc 49 9f 3a 58 73 75 bc 59 03 36 3b
       0.0012923379 0.0012152749 -0.014981113 0.0027772991
000160 c0 31 5f 3c b8 1d 1a 3e 11 71 42 3d e5 73 27 bc
       0.013622701 0.150504 0.04747111 -0.0102205025
000170 20 38 20 bd f1 e1 2a be 72 16 7c bd 68 94 88 bd
       -0.039116025 -0.16687752 -0.061544843 -0.06668931
000180 eb 50 97 bb d7 c3 0e 3c 1d d8 a6 bb 99 70 7e 3c
       -0.0046178005 0.008713684 -0.0050916807 0.015529775
000190 61 ba d2 bc 9d 9e b4 3c ab 72 f6 bc c4 1f 21 3e
       -0.025723638 0.022048289 -0.030083975 0.15734774
0001a0 e3 a2 9e bd 60 f9 d5 3b dc dd b4 bb 91 e7 06 3d
       -0.07745912 0.006529972 -0.0055196118 0.032935683
0001b0 0d 57 4a bd 5f ff 7e 3b cd b3 b2 3d fb 0c 78 3d
       -0.049399424 0.0038909537 0.087257005 0.060559254
0001c0 30 f4 a5 bb 28 f1 3a 3b 5b 71 ff 3c c1 fb 02 bc
       -0.00506451 0.0028525088 0.031181982 -0.007994593
0001d0 2d 91 88 bc a3 84 e1 3d cb 0f 06 3d ef 37 5b bc
       -0.016670788 0.110116266 0.032729905 -0.013380035
0001e0 b7 a8 2a 3d 66 91 15 bd 6e 1f db be 5b ba 10 bd
       0.041664805 -0.036515616 -0.42797416 -0.035333972
0001f0 30 63 9b bb a3 42 90 ba f3 62 8f bd 37 a7 3a 3d
       -0.0047420487 -0.0011006187 -0.07001295 0.045569625
000200 ee cd 5c bb 6f 07 f8 3c 38 bc f8 bc a9 6d 04 bc
       -0.003369208 0.030276982 -0.030363187 -0.008082786
000210 e7 96 fd bb 63 e9 a1 3c 30 23 7f bb df 45 ee bc
       -0.007738936 0.019764608 -0.0038930885 -0.029086052
000220 7c dc 02 3d 85 a8 55 bd bf ef 6f b9 f7 00 1f bc
       0.03194855 -0.052162666 -0.00022882129 -0.00970482
000230 26 6d c6 bb be ca 88 3d c9 53 a5 3c 43 db 8e b9
       -0.006055492 0.06679295 0.020181553 -0.00027247713
000240 d5 1e 1a 3c 08 96 6a 3d b6 a1 00 3d db a9 13 3d
       0.009406765 0.057271987 0.03140422 0.03605066
000250 b5 3f 00 bb 36 73 30 3d 7c 5f a7 3b 0f 8d ce 3b
       -0.0019569222 0.043078624 0.005107818 0.0063034366
000260 bd 11 0b 3c ff 0b a1 3d be 7b 55 3c 24 63 6e 3c
       0.008488116 0.07863616 0.013029991 0.014550004
000270 04 15 60 bd d5 f4 99 ba a6 a8 fe 3b b6 68 d1 3c
       -0.054707542 -0.0011745939 0.0077715693 0.025562625
000280 16 a3 e3 b9 65 8c 65 3d c9 1a dd 3b ab 66 85 bb
       -0.00043418322 0.056042094 0.006747578 -0.004071077
000290 40 6d 4e 3e 5b f7 75 bc a0 bb 1e 3c c1 b6 3e bd
       0.20158863 -0.015012587 0.009688288 -0.046561006
0002a0 29 6c 58 bd 8e 7f b8 3a 15 7a a2 3b 03 b3 72 3d
       -0.052837525 0.00140761 0.004958401 0.05925275
0002b0 8c ee 79 3d 81 3f 72 3b 98 94 0a 3d 09 7e 09 bc
       0.06101851 0.003696412 0.033833116 -0.0083918655
0002c0 25 ff 91 3b b6 81 ed bb d1 a4 44 bc 05 04 b8 3b
       0.0044554644 -0.0072481288 -0.012002186 0.0056157135
0002d0 2e ba ec bc 7c 02 96 bd b3 c2 a5 3c fc a8 e0 3c
       -0.028897371 -0.073246926 0.020234441 0.027424328
0002e0 82 e1 07 bd 29 8a 1c bd 56 4c fc be 12 7b 7d bc
       -0.033174045 -0.038217697 -0.4927699 -0.015471237
0002f0 c3 ef dc 3a 72 eb 92 bb 6e 35 d9 bd c9 78 b3 3c
       0.0016856123 -0.0044836337 -0.10605894 0.02190818
000300 8d 71 18 3c 27 6c 36 bd c5 88 6d 3c d9 7b e1 b9
       0.009304416 -0.044536736 0.01449794 -0.00043007618
000310 34 c8 dc bb 69 37 8c 3d 28 39 cc 3b 66 6f b9 bc
       -0.0067377333 0.06846506 0.0062323995 -0.022636127
000320 44 00 b3 b9 4a 3e 96 39 1a fd 5d bb ca 44 8a 3c
       -0.00034141738 0.00028656638 -0.0033872784 0.016878504
000330 26 1c 38 3d 2d 8c 28 bc 29 73 0f b9 f4 5f ac bb
       0.04494872 -0.010287327 -0.00013680443 -0.005260462
000340 14 b9 19 3c 87 8e ee 3c ad e5 49 3c 70 d5 8c 3c
       0.009382505 0.029120697 0.012322825 0.017191619
000350 3b 21 b0 bb d6 43 70 3c c7 d3 a2 3b 5f bc e6 3a
       -0.005375055 0.014664611 0.0049690935 0.0017603746
000360 a6 0c 7b ba 03 8c aa be 50 a1 f8 3c ee e7 8d 3c
       -0.0009576775 -0.33309945 0.030350357 0.017322507
000370 22 b2 fe bb 3d dc 3c bd 4c e0 85 bc 88 b8 e0 3b
       -0.0077727 -0.046108473 -0.016342305 0.0068579353
000380 8c 90 2b bc dc 18 b4 3e da e8 61 bc 51 ef e9 3b
       -0.010471474 0.35175216 -0.013788426 0.0071391244
000390 1a 70 9e bd f9 70 ab 3b 02 50 a8 bc f5 be 80 bc
       -0.077362254 0.0052319732 -0.020545963 -0.015716055
0003a0 d1 75 cd bd f3 55 8e 3b 7f 94 b0 bb 6d 55 8b 3d
       -0.10032237 0.004343742 -0.005388796 0.06803403
0003b0 a0 92 02 bd 7b c8 47 3c 62 c2 02 be ca 81 e5 3b
       -0.031878114 0.012193794 -0.12769464 0.0070039975
0003c0 60 40 31 ba 71 c2 13 3c 62 de 2c 3d 15 a7 6c 3b
       -0.0006761607 0.009018526 0.04220427 0.003611033
0003d0 e2 15 01 3d 87 49 ad bd 06 7f 9a bc dc 8e 57 bc
       0.03151501 -0.0846129 -0.018859398 -0.013156619
0003e0 fd bf 03 3d d1 c3 00 be 01 eb 21 3e 91 fa 95 3e
       0.032165516 -0.12574698 0.15812303 0.2929273
0003f0 97 5a b5 ba df eb c3 3b d8 9c f3 bc 5d 68 ef 3c
       -0.0013836202 0.0059790458 -0.029737875 0.029224569

encoder.block1.convblock3.1.weight f4 [64]
000000 2d ab 88 3e 70 40 f1 3e 8a db d6 3e af d2 86 3e
       0.26693097 0.47119474 0.4196437 0.26332614
000010 d8 ab e5 3e e8 e8 71 3e 37 70 c7 3e bb d7 97 3e
       0.4485767 0.23624003 0.389528 0.29656777
000020 ef d2 c4 3e b6 d2 82 3e d9 4b 73 3e b3 c4 fe 3e
       0.3844218 0.25551385 0.23759402 0.49759445
000030 42 1a ad 3e 5e fe 8f 3e 32 0e 9e 3e 13 70 94 3e
       0.33809096 0.28123754 0.30870205 0.28991756
000040 14 97 18 3f ca 46 ae 3e e3 2e e4 3e 7d 91 a3 3e
       0.59605527 0.34038383 0.44567022 0.31946936
000050 07 94 ba 3e ea 2e a2 3e 81 a0 cb 3e 42 af b1 3e
       0.3644106 0.31676418 0.39770892 0.34704024
000060 f6 87 40 3e 57 1c a9 3e e3 c2 d3 3e 16 75 51 3e
       0.18801865 0.33029434 0.41359624 0.20454821
000070 d6 e1 9b 3e 17 28 0b 3f 5e 99 aa 3e 3d 06 d6 3e
       0.30445737 0.5435805 0.33320135 0.41801634
000080 ce d1 84 3e 97 e6 ad 3e 39 4d ba 3e 77 44 fc 3e
       0.25941318 0.3396499 0.3638704 0.49270985
000090 91 fe f9 3e 49 52 1c 3f ac c8 9e 3e 59 ec fa 3e
       0.4882703 0.6106306 0.31012475 0.49008444
0000a0 fd cc f6 3e 56 1b af 3e 24 eb f1 3e cf 62 8c 3e
       0.4820327 0.34200543 0.4724971 0.27419135
0000b0 41 a6 99 3e 46 51 b5 3e 13 19 d9 3e 7f 20 98 3e
       0.30009654 0.3541357 0.42401943 0.29712293
0000c0 23 e3 01 3f 0d d3 b7 3e f8 ee 8b 3e 9c 6b b6 3e
       0.5073721 0.35903206 0.27330756 0.35628974
0000d0 4d 42 aa 3e 60 17 cd 3e 66 24 02 3f 28 f4 86 3e
       0.33253708 0.40056896 0.5083679 0.2635815
0000e0 ac 6d 85 3e de ac 80 3e 37 54 05 3e bc 44 22 3f
       0.26060236 0.25131887 0.13020407 0.6338613
0000f0 7f ab d5 3d a3 4c d8 3e f2 d6 13 3f 82 2d 1d 3f
       0.10433101 0.4224597 0.57749856 0.61397564

encoder.block1.convblock3.1.bias f4 [64]
000000 60 de 2c 3d 2a e5 ef bd cd c6 78 be 7e 4a 02 bd
       0.04220426 -0.117136315 -0.24294586 -0.031809323
000010 8d f3 34 be 8a d4 40 3d bf fd b5 3b 21 e0 ec bd
       -0.17671032 0.047077693 0.0055539305 -0.11566187
000020 68 35 0c be 24 f8 68 3d a9 e1 b9 3c 4b 51 bd bd
       -0.13692248 0.05687727 0.022690611 -0.09244021
000030 c7 da a2 bd db c6 28 be 66 20 60 bd 51 86 5b bd
       -0.07951885 -0.16482107 -0.054718398 -0.05359489
000040 96 69 82 be 36 cd 66 be be ed 35 be 96 38 27 bd
       -0.2547118 -0.2253922 -0.17766473 -0.04082545
000050 90 5a b4 bd af 39 07 3c b2 8b 73 bd eb f1 49 bd
       -0.08806336 0.008253499 -0.059459396 -0.049302977
000060 1c 74 d2 bb 40 41 b1 bd 91 07 a8 bd 54 e1 eb 3c
       -0.0064225327 -0.086550236 -0.08204568 0.028793968
000070 a1 96 f0 bd de 4b 55 be e7 bb 83 3c 44 90 f9 bd
       -0.1174748 -0.20829722 0.01608081 -0.121857196
000080 48 d4 bf bc a0 83 6b bd bf 23 c6 bc bd 0b 61 bc
       -0.023416653 -0.057498574 -0.024186967 -0.013735709
000090 e7 61 02 be 94 ad c3 be 6d 49 f3 bd 4e 5d 0a be
       -0.1273266 -0.38218367 -0.11879239 -0.13512155
0000a0 fc d9 73 bc 2f bb c3 bd a1 ca b1 be 51 bf e0 bd
       -0.0148835145 -0.09557187 -0.34724906 -0.10973991
0000b0 01 10 3c 3b 7c 18 2f be 13 0a 47 be 7b 37 d7 bc
       0.0028696063 -0.17099184 -0.19437437 -0.026271572
0000c0 2c db 2b be 4d 00 90 be 44 8f f8 3c 48 14 b4 bd
       -0.16782826 -0.2812523 0.030341752 -0.08792931
0000d0 5f 34 51 be ea 8e f4 bd fa 03 85 be 3a 22 8d bc
       -0.20430134 -0.11941321 -0.25979596 -0.017228235
0000e0 34 75 6e 3d fe be 38 bd 14 28 1a bc 96 45 80 be
       0.058217242 -0.04510402 -0.009408969 -0.2505309
0000f0 96 50 8e bd 9f d3 69 be f4 ec 0d be f8 dc 17 be
       -0.06948964 -0.22834633 -0.13859922 -0.14830387

encoder.block1.convblock3.1.running_mean f4 [64]
000000 ce 00 12 3d 94 63 00 bd bf 28 e1 bc 82 86 0c 3c
       0.0356453 -0.031344965 -0.02748525 0.008576991
000010 1d ed ca bb 18 4b 18 bd cc e1 a5 bc 66 68 d8 bb
       -0.006192817 -0.03718099 -0.02024927 -0.006604242
000020 97 a5 8b 3b 76 c8 5e 3b ea 2c 0c bc 43 4c 60 bd
       0.004261683 0.0033993996 -0.00855563 -0.05476023
000030 22 f9 f7 bb d9 46 9a bc 61 78 05 ba 43 ec b1 bc
       -0.0075675407 -0.01883261 -0.0005091485 -0.021719104
000040 6e 08 20 bd e5 60 c9 bb 75 a7 1f 3c 93 1e 8e bb
       -0.03907054 -0.006145584 0.009744515 -0.004337141
000050 dc a4 0a bc 24 61 d3 3b 1d ed 82 bc f7 37 1c bd
       -0.008462157 0.006450789 -0.015982205 -0.03813931
000060 31 75 80 3b b2 ef a5 3c bb 74 04 3d be b5 40 3b
       0.0039202203 0.020255897 0.032337885 0.0029405202
000070 6c 4e 32 bd 67 ee 83 3c 54 4c 07 3d 95 b0 f5 3c
       -0.04353182 0.01610489 0.033031777 0.029991427
000080 4e 21 c3 3c 66 0c 8f bd 31 51 36 bd 49 ab 35 bd
       0.023819592 -0.06984787 -0.044511024 -0.044352803
000090 04 19 1f 3d 04 42 a5 3b b0 30 9e bb 1b 4f 36 3c
       0.038842216 0.00504327 -0.0048275813 0.011127259
0000a0 7e 71 c1 3c af e5 bf bc 01 ec 4c 3c 27 1a 01 bc
       0.023613688 -0.023424951 0.01250744 -0.00787977
0000b0 d4 85 9c bc de 05 bd bc 79 61 0a 3c 52 96 0c bd
       -0.019106783 -0.023074087 0.008446091 -0.034323044
0000c0 d8 95 b0 3b ea bd 19 3c 79 f3 08 3c d2 f1 c1 bc
       0.0053889565 0.009383658 0.00835883 -0.02367488
0000d0 ce e3 ab b9 5e 81 ca 3a 35 0a 04 bd db 4c 48 3c
       -0.0003278539 0.0015449931 -0.032236297 0.012225355
0000e0 12 9f 0e bc fb 93 fc 3c d6 cc 2e bc 4a 9b 2f 3b
       -0.0087049175 0.030832281 -0.010668954 0.002679544
0000f0 a1 0a 32 3b 39 d7 59 bc 6b 2e 30 bd b9 a3 2f bd
       0.002716698 -0.013295942 -0.043013018 -0.042880747

encoder.block1.convblock3.1.running_var f4 [64]
000000 f3 8c 3a 3c b5 93 b8 3c d2 3b cf 3c 61 0b d4 3c
       0.011386144 0.02253137 0.02529708 0.025884332
000010 ae 4a d1 3c d7 3f 8e 3c 8b eb 7d 3c 16 31 5f 3c
       0.025548305 0.017364426 0.015498052 0.013622543
000020 f6 1d 7f 3c 6e cb da 3b b5 36 f1 3b 63 fd 6c 3d
       0.015571108 0.0066770827 0.007361258 0.057858836
000030 ef c0 1f 3c 27 68 f7 3a 26 f8 33 3c 88 41 4f 3c
       0.009750589 0.0018875644 0.010984456 0.012649901
000040 79 68 de 3c b7 51 a4 3c 5a e3 c2 3c 18 25 16 3c
       0.027149426 0.020058496 0.02379005 0.009164117
000050 e1 08 89 3c 5a 81 e8 3b c1 4a 00 3c cc 97 14 3c
       0.016727867 0.007095498 0.007830323 0.009069394
000060 37 cc 9f 3a f7 ad c7 3c aa 12 fe 3c 75 ce 0c 3b
       0.0012191598 0.024374945 0.03101476 0.0021485363
000070 cd 88 7c 3c 77 a7 ce 3c 6f 81 67 3c 46 f3 44 3c
       0.015413475 0.025226338 0.0141299805 0.0120208915
000080 91 91 7d 3b 86 64 01 3d b0 83 d0 3b dc a7 8c 3c
       0.00386915 0.031590007 0.0063633546 0.017169885
000090 2a 20 3f 3c 08 1a 04 3c 5f c2 12 3c d1 d9 93 3c
       0.011665383 0.008062847 0.0089574745 0.018048199
0000a0 bd a1 d5 3c b9 e9 4e 3c eb f3 a0 3c ef 29 e0 3b
       0.0260781 0.012628966 0.01964756 0.0068409364
0000b0 00 54 21 3c 80 de 36 3c 35 a5 02 3c 0b 85 81 3c
       0.009846687 0.011161447 0.007973959 0.01581051
0000c0 d2 ac 35 3c b2 54 72 3c fd fb 24 3c 6d c7 f9 3b
       0.011088567 0.014790701 0.010069844 0.0076226504
0000d0 d0 75 5b 3b 85 e5 70 3c e8 12 ca 3c e7 a2 2c 3c
       0.003348697 0.014703159 0.024667218 0.010536886
0000e0 97 db 62 3c 54 9e 1d 3c 84 c9 b8 3b 94 cf aa 3c
       0.0138463 0.009620268 0.005639257 0.020850934
0000f0 b3 31 2e 39 c6 50 0a 3c ea 06 04 3c c6 94 13 3c
       0.00016612448 0.008442109 0.008058289 0.009007638
