ldpi/training/output/ResCNN/best_model_with_center.pth (torch, 711778 bytes, 64 tensors)

encoder.block1.convblock1.0.depthwise_conv.weight f4 [1, 1, 7]
-0.09299626 -2.0309129 -0.22501056 -0.1448001 0.04206617 -0.027395546 0.07814464
00000000: d374 bebd 7afa 01c0 2b69 66be 7a46 14be
00000010: 944d 2c3d a06c e0bc 4c0a a03d

encoder.block1.convblock1.0.pointwise_conv.weight f4 [64, 1, 1]
-0.042274944 -0.03069426 -0.004419802 0.0057551614 -0.0005797218 0.03801665 0.01705342 0.019585868
0.054761615 0.02160052 0.024586564 0.028250607 -0.01957738 0.027615352 0.0176024 0.001366987
-0.03699821 -0.021750264 -0.033080727 -0.032275286 -0.000112109235 0.026283268 0.00073929835 0.042438265
-0.029238421 0.025860775 0.025365524 -0.020478545 0.034569327 0.015536789 -0.033545494 0.01799194
-0.01960236 0.00061479723 -0.03978951 -0.020124368 -0.03475106 -0.02970592 -0.030173238 -0.031324584
0.023929087 -0.00040604925 -0.020211449 -0.030636653 -0.035697993 0.037294716 0.031142443 0.0050214054
0.0065552616 0.052116774 0.041702513 0.039119054 0.01377356 0.03523923 0.013828005 -0.03504821
-0.016077958 0.014490198 0.02166336 0.031298622 -0.026580619 -0.016058274 -0.009473094 0.026200231
00000000: 7e28 2dbd 8772 fbbc fdd3 90bb cb95 bc3b
00000010: 79f8 17ba 59b7 1b3d 9db3 8b3c 8b72 a03c
00000020: b74d 603d 93f3 b03c c369 c93c d16d e73c
00000030: be60 a0bc 9739 e23c e932 903c 792c b33a
00000040: 6f8b 17bd 9c2d b2bc a87f 07bd 1733 04bd
00000050: 301c ebb8 0250 d73c 79cd 413a bfd3 2d3d
00000060: 6a85 efbc fad9 d33c 5ccb cf3c 9fc2 a7bc
00000070: 9198 0d3d 048e 7e3c 0067 09bd d563 933c
00000080: 2195 a0bc 582a 213a 53fa 22bd dcdb a4bc
00000090: 2157 0ebd d459 f3bc de2d f7bc 354e 00bd
000000a0: ef06 c43c 02e3 d4b9 7b92 a5bc b8f9 fabc
000000b0: 0f38 12bd 58c2 183d 701e ff3c 9a8a a43b
000000c0: 85cd d63b 6678 553d 41d0 2a3d 4d3b 203d
000000d0: 7faa 613c 0357 103d db8e 623c b68e 0fbd
000000e0: ecb5 83bc 4c68 6d3c 5c77 b13c fc32 003d
000000f0: 99bf d9bc a48c 83bc 0935 1bbc dea1 d63c

encoder.block1.convblock1.1.weight f4 [64]
0.5902723 0.38151672 0.09309717 0.07290135 0.41068685 0.46907076 0.02612042 0.0656604
0.6679233 0.072484605 0.042396672 0.5120003 0.07219863 0.41632295 0.18960945 0.2839517
0.430892 0.0996981 0.43445924 0.048923966 0.2075653 0.048913814 0.15736203 0.9169547
0.32693475 0.042918317 0.46387362 0.3647931 0.4327455 0.03172739 0.21556449 0.10505779
0.12505405 0.028955465 0.45978788 0.17991762 0.4405434 0.3264994 0.18540962 0.029899694
0.051110443 0.027544927 0.13929147 0.19129269 0.45249206 0.6296949 0.015671756 0.03590763
0.37286168 0.5674413 0.52258605 0.48524082 0.060611058 0.38344988 0.10600364 0.38627356
0.013860801 0.039902013 0.31928128 0.046933196 0.01949211 0.23692459 0.13577718 0.2974913
00000000: 161c 173f 2956 c33e bba9 be3d 4e4d 953d
00000010: 8c45 d23e 0b2a f03e 7efa d53c f678 863d
00000020: 05fd 2a3f cf72 943d 22a8 2d3d 7412 033f
00000030: e0dc 933d 4828 d53e fb28 423e 1e62 913e
00000040: e09d dc3e 842e cc3d 7171 de3e 7f64 483d
00000050: ff8b 543e da59 483d 8323 213e 8bbd 6a3f
00000060: fe63 a73e 1ecb 2f3d d880 ed3e 29c6 ba3e
00000070: d190 dd3e 94f4 013d f0bc 5c3e 8a28 d73d
00000080: 2b0e 003e 0334 ed3c 5169 eb3e 533c 383e
00000090: e88e e13e ee2a a73e 05dc 3d3e 34f0 f43c
000000a0: 2f59 513d e6a5 e13c 6ca2 0e3e 3be2 433e
000000b0: 0aad e73e af33 213f 0e62 803c e113 133d
000000c0: bae7 be3e d543 113f 33c8 053f 7c71 f83e
000000d0: 4d43 783d 8b53 c43e 7018 d93d a6c5 c53e
000000e0: 6a18 633c 4b70 233d d678 a33e 063d 403d
000000f0: ebad 9f3c 5c9c 723e 2c09 0b3e c850 983e

encoder.block1.convblock1.1.bias f4 [64]
-0.15800199 -0.19915648 -0.1621852 0.057307355 -0.41135544 0.07952059 -0.06384646 -0.014303086
0.75183547 0.5424496 -0.010650973 0.23698258 -0.11879518 -0.10687389 0.03622312 -0.45586157
-0.19346277 -0.09889577 0.1554059 -0.10196577 -0.13046342 -0.050493043 -0.03870125 -0.19492036
-0.07260869 -0.18920009 -0.46161324 0.39192924 0.19299333 -0.02640341 -0.053611238 -0.10930996
-0.044839915 -0.04461437 0.5291724 -0.47855052 -0.0002008573 -0.013809241 0.60175323 -0.06515163
0.25454056 -0.061075598 -0.09427405 -0.11837511 0.47441652 -0.1682981 -0.03799931 -0.05536331
-0.44496027 -0.0994747 0.08566127 0.40533522 -0.013398714 -0.07760716 -0.02510768 0.23101434
-0.16288126 -0.060513552 -0.09928722 -0.10624586 -0.07163969 -0.320227 -0.034594476 0.10480386
00000000: 46cb 21be adef 4bbe e113 26be 1ebb 6a3d
00000010: 2e9d d2be b1db a23d efc1 82bd 7e57 6abc
00000020: 4a78 403f fadd 0a3f 6b81 2ebc 90ab 723e
00000030: e34a f3bd b3e0 dabd b25e 143d b066 e9be
00000040: 1b1b 46be de89 cabd b922 1f3e 6ed3 d0bd
00000050: 3498 05be cbd1 4ebd 3485 1ebd 3499 47be
00000060: ddb3 94bd abbd 41be 9258 ecbe f3aa c83e
00000070: 0ba0 453e f74b d8bc 7597 5bbd e6dd dfbd
00000080: 0faa 37bd 8fbd 36bd d877 073f 9304 f5be
00000090: 399d 52b9 2840 62bc 800c 1a3f 386e 85bd
000000a0: 2453 823e 682a 7abd c112 c1bd a66e f2bd
000000b0: b9e6 f23e 5656 2cbe 2aa5 1bbd a3c4 62bd
000000c0: d5d1 e3be 64b9 cbbd 2d6f af3d 1988 cf3e
000000d0: 4886 5bbc 81f0 9ebd 9fae cdbc 068f 6c3e
000000e0: 58ca 26be 0fdd 77bd 1957 cbbd 6e97 d9bd
000000f0: d4b7 92bd cbf4 a3be f0b2 0dbd 68a3 d63d

encoder.block1.convblock1.1.running_mean f4 [64]
0.027753854 0.020104947 0.0028962118 -0.0037749566 0.0003799845 -0.024905918 -0.011177842 -0.012837686
-0.035914835 -0.014160308 -0.016115503 -0.018447679 0.012832282 -0.018082527 -0.011527676 -0.0008960057
0.024237894 0.014256498 0.021779373 0.021155162 7.348314e-05 -0.01722765 -0.00048458044 -0.027806913
0.019161697 -0.016950702 -0.016629064 0.0134587055 -0.022634527 -0.010183568 0.021986537 -0.011793321
0.01284925 -0.00040297522 0.026110785 0.0131906215 0.022802098 0.019484503 0.019778583 0.020532018
-0.0156863 0.00026614917 0.013251284 0.02008544 0.02335752 -0.024421649 -0.020412635 -0.0032913315
-0.004296714 -0.03414586 -0.027313218 -0.025648361 -0.009027697 -0.023092518 -0.009062193 0.022986278
0.01053846 -0.00949775 -0.01418923 -0.020515 0.017422538 0.0105236685 0.006211057 -0.017169867
00000000: 0d5c e33c 21b3 a43c 5fce 3d3b 4365 77bb
00000010: a838 c739 7f07 ccbc 4423 37bc 2855 52bc
00000020: 6f1b 13bd a300 68bc a904 84bc 961f 97bc
00000030: 7e3e 523c cf21 94bc 94de 3cbc ede1 6aba
00000040: 8c8e c63c 1694 693c a86a b23c 974d ad3c
00000050: f61a 9a38 0021 8dbc 490f feb9 53cb e3bc
00000060: fef8 9c3c 33dc 8abc ad39 88bc e781 5c3c
00000070: 0b6c b9bc fbd8 26bc 1c1d b43c c638 41bc
00000080: a985 523c 6b46 d3b9 49e6 d53c 7a1d 583c
00000090: 77cb ba3c f79d 9f3c b206 a23c c332 a83c
000000a0: 8e80 80bc f089 8b39 ea1b 593c 388a a43c
000000b0: 4558 bf3c e90f c8bc 6638 a7bc 61b3 57bb
000000c0: 73cb 8cbb 87dc 0bbd f8bf dfbc 831c d2bc
000000d0: e8e8 13bc 852c bdbc 9879 14bc b84d bc3c
000000e0: 81a9 2c3c 739c 1bbc f279 68bc 130f a8bc
000000f0: b6b9 8e3c 776b 2c3c 1f86 cb3b d2a7 8cbc

encoder.block1.convblock1.1.running_var f4 [64]
0.00076711236 0.00040252498 8.353112e-06 1.4191003e-05 1.437874e-07 0.0006177278 0.00012442429 0.00016412039
0.001284531 0.00019967883 0.00025862883 0.00033889076 0.00016398233 0.00032560804 0.00013233324 7.9948586e-07
0.0005850222 0.00020240202 0.00047241105 0.00044567866 5.3773053e-09 0.00029555697 2.3384113e-07 0.0007699901
0.00036564027 0.00028613073 0.00027537663 0.00018039934 0.0005101917 0.000103273494 0.00048139464 0.00013850372
0.00016441649 1.6171333e-07 0.0006789522 0.00017326858 0.000517787 0.0003780743 0.00038956563 0.0004198097
0.00024503667 7.054066e-08 0.00017486692 0.00040174875 0.00054328865 0.00059391896 0.00041494187 1.0787789e-05
1.8384932e-05 0.0011610793 0.00074290123 0.0006551084 8.1160106e-05 0.00053104357 8.178101e-05 0.0005261754
0.00011059702 8.983188e-05 0.000200491 0.00041911413 0.00030228184 0.00011028814 3.8416627e-05 0.00029357866
00000000: 0a18 493a fd09 d339 5824 0c37 e515 6e37
00000010: fb63 1a34 03ef 213a e477 0239 bb17 2c39
00000020: b55d a83a e160 5139 9398 8739 26ad b139
00000030: acf2 2b39 5fb6 aa39 efc2 0a39 409c 5635
00000040: 2d5c 193a e13b 5439 f0ad f739 faa9 e939
00000050: 47c3 b831 fcf4 9a39 c315 7b34 29d9 493a
00000060: 68b3 bf39 d103 9639 6d60 9039 9429 3d39
00000070: 63be 053a 8994 d838 b263 fc39 4f3b 1139
00000080: 3767 2c39 6ca3 2d34 b6fb 313a 6eaf 3539
00000090: 19bc 073a 4638 c639 9d3e cc39 e719 dc39
000000a0: 4478 8039 237c 9733 7b5c 3739 cea1 d239
000000b0: 7c6b 0e3a 3ab1 1b3a 8e8c d939 33fd 3437
000000c0: 5739 9a37 5b2f 983a 42bf 423a 95bb 2b3a
000000d0: 8034 aa38 bb35 0b3a d881 ab38 09ef 093a
000000e0: 53f0 e738 2064 bc38 e53a 5239 8cbc db39
000000f0: 957b 9e39 7f4a e738 8a21 2138 76eb 9939

encoder.block1.convblock2.0.depthwise_conv.weight f4 [64, 1, 5]
-0.43826193 -0.55085963 -0.0652574 -0.0572041 0.1462122 -0.0739778 -0.0644061 -0.115068905
-0.13427462 -0.07708032 0.018191928 0.029946657 0.020903274 0.032198947 0.040439643 -0.011449387
0.03472111 -0.021077609 0.02857058 0.032386344 -0.712438 0.12366747 0.48632163 0.23020844
0.12837373 0.50930536 0.020800393 0.106381446 0.030712921 0.0085239075 0.0039855926 -0.07666001
-0.06878902 -0.050879307 -0.021550145 0.022493752 0.02070408 0.03384527 0.020632196 0.0305395
-0.5768893 0.9798049 -0.004145531 -0.28512296 0.21449262 0.18491043 0.12498919 -0.11082703
0.115441374 0.3680355 -0.026461 -0.028145747 -0.0040672193 0.0129698 0.00980741 -0.25038663
-0.09709195 -0.16429858 -0.11050971 -0.08336466 0.025013642 0.021397103 0.02531819 0.017665362
0.008722668 -0.07045734 -0.08919098 -0.14163898 -0.14324565 -0.14299484 0.054659065 0.011288697
0.033693146 0.055702273 0.019209668 0.006621921 -0.041289464 -0.06556119 -0.01010557 0.0002039512
-0.013964435 0.09622471 -0.09634134 -0.24429871 -0.18430907 0.009911112 -0.014053389 -0.0047125686
0.0053634946 -0.021260317 0.32898098 -0.2634649 -0.11991324 -0.0013373485 0.47006732 0.0028574385
0.015327334 -0.005914657 0.0035126007 0.008894701 -0.3738173 0.067417935 0.18616809 0.004832343
-0.038096026 0.03176624 0.048774637 -0.019323615 -0.04891898 0.0011209155 -0.030411994 -0.03980634
-0.059708778 -0.08033796 -0.05340087 0.09603211 0.19838674 0.20995878 0.13653456 0.1808931
0.089108326 0.063442916 0.09564281 0.14125338 0.14728034 0.0043358426 -0.009260625 -0.011517269
-0.0028205144 0.0071218153 -0.049759552 -0.04408307 0.0010595376 -0.040406484 -0.0028859114 -0.016075006
0.23006701 -0.004954261 -0.030918889 -0.021052336 0.279924 -0.08837214 0.19345562 0.1906346
-0.0073370533 0.034996066 0.020231262 0.025385119 -0.016468503 -0.01605493 0.017585652 0.06952183
0.10351252 0.10376707 0.0719343 0.04822893 0.048902802 0.015374625 0.043406703 0.045697175
-0.045098368 -0.010284949 -0.019410193 -0.006036373 0.029825533 0.011303403 0.011587922 0.012011665
0.0074201217 0.011131581 -0.60393715 0.027518582 0.54598564 0.27831265 -0.19987948 -0.045054425
-0.057563014 -0.064665765 -0.047388736 -0.038729608 -0.1851196 -0.18308708 -0.17513543 -0.13389495
-0.16132022 0.13583948 0.11277576 0.13562891 0.114244334 0.0798811 0.13381435 -0.12838721
-0.04115147 0.044631887 0.110063896 -0.01463518 0.0035657652 -0.019715097 -0.0011975784 0.0025904835
-0.11628183 -0.15929987 0.036209967 -0.027202707 -0.08318166 -0.0060097557 -0.008816755 0.01096766
-0.0017195328 -0.010181675 -0.052417442 -0.0069253743 -0.10100352 -0.003012637 0.08187416 -0.037464935
0.21309793 0.039238147 -0.059145357 -0.053067632 0.48499402 0.5869784 -0.2350824 -0.22510946
-0.20136827 0.12808652 0.17811078 0.19045772 0.11083771 0.13818169 0.0403755 -0.03978472
-0.00044087158 -0.008614667 -0.051093664 -0.009237183 0.00694036 0.0021848362 0.023465488 0.021291818
-0.11159711 -0.0914077 -0.117792614 -0.06061632 -0.049869183 0.54456717 0.05247978 0.042245243
-0.14412624 -0.72843343 0.566356 -0.34338164 0.19859046 -0.12085446 -0.23546512 -0.53698295
00000000: de63 e0be 2305 0dbf aca5 85bd d94e 6abd
00000010: a7b8 153e ac81 97bd 58e7 83bd 3fa9 ebbd
00000020: 497f 09be 49dc 9dbd 3d07 953c b152 f53c
00000030: 583d ab3c 0be3 033d 0aa4 253d 3696 3bbc
00000040: b937 0e3d f3aa acbc d90c ea3c 8ba7 043d
00000050: 5662 36bf 5f45 fd3d 26ff f83e c3bb 6b3e
00000060: 6774 033e d661 023f 9665 aa3c 84de d93d
00000070: aa99 fb3c dca7 0b3c 9399 823b ecff 9cbd
00000080: 42e1 8cbd d266 50bd ee89 b0bc d144 b83c
00000090: 9a9b a93c 56a1 0a3d da04 a93c f92d fa3c
000000a0: 04af 13bf 7ed4 7a3f 3cd7 87bb a3fb 91be
000000b0: f4a3 5b3e 2959 3d3e 55fa ff3d 48f9 e2bd
000000c0: 876c ec3d 266f bc3e bdc4 d8bc e991 e6bc
000000d0: 4f46 85bb 497f 543c 42af 203c ad32 80be
000000e0: 25d8 c6bd e33d 28be ea52 e2bd 17bb aabd
000000f0: 69e9 cc3c fa48 af3c 1868 cf3c f3b6 903c
00000100: 85e9 0e3c f04b 90bd c3a9 b6bd cf09 11be
00000110: fdae 12be 3d6d 12be 2fe2 5f3d 3af4 383c
00000120: d301 0a3d 1128 643d 985d 9d3c b3fc d83b
00000130: 241f 29bd f244 86bd d591 25bc bcdb 5539
00000140: 16cb 64bc 7611 c53d 9c4e c5bd 7129 7abe
00000150: 84bb 3cbe 3762 223c 3040 66bc e46b 9abb
00000160: 41c0 af3b 1e2a aebc 3270 a83e dfe4 86be
00000170: 1395 f5bd f849 afba aaac f03e dd43 3b3b
00000180: 801f 7b3c bdcf c1bb a933 663b 14bb 113c
00000190: fb64 bfbe 6a12 8a3d d9a2 3e3e a258 9e3b
000001a0: 940a 1cbd 511d 023d eac7 473d 8f4c 9ebc
000001b0: 455f 48bd afeb 923a 9322 f9bc f90b 23bd
000001c0: 3191 74bd 3a88 a4bd dfba 5abd 7cac c43d
000001d0: e525 4b3e 6fff 563e b7cf 0b3e 0a3c 393e
000001e0: 6d7e b63d 5cee 813d 61e0 c33d baa4 103e
000001f0: a8d0 163e af13 8e3b e0b9 17bc edb2 3cbc
00000200: 61d8 38bb 1e5e e93b acd0 4bbd 7390 34bd
00000210: 2fe0 8a3a 4581 25bd 8f21 3dbb bbaf 83bc
00000220: b096 6b3e 5a57 a2bb 9c49 fdbc f375 acbc
00000230: 3352 8f3e 74fc b4bd 3b19 463e b735 433e
00000240: aa6b f0bb 0958 0f3d 08bc a53c 74f4 cf3c
00000250: f4e8 86bc a185 83bc c90f 903c 7661 8e3d
00000260: 5ffe d33d d483 d43d 4a52 933d b38b 453d
00000270: 4e4e 483d dae5 7b3c 3acb 313d f62c 3b3d
00000280: 11b9 38bd 3482 28bc 2002 9fbc c4cc c5bb
00000290: ad54 f43c e931 393c 45db 3d3c 93cc 443c
000002a0: 7e24 f33b 3c61 363c a09b 1abf a66e e13c
000002b0: b7c5 0b3f ff7e 8e3e 35ad 4cbe fd8a 38bd
000002c0: 32c7 6bbd 7c6f 84bd b11a 42bd f0a2 1ebd
000002d0: fe8f 3dbe 2e7b 3bbe b456 33be c21b 09be
000002e0: 2131 25be 8119 0b3e faf6 e63d 4ee2 0a3e
000002f0: eff8 e93d b498 a33d a106 093e f077 03be
00000300: 728e 28bd edcf 363d 2e69 e13d 65c8 6fbc
00000310: 9daf 693b 8e81 a1bc 10f8 9cba 1ac5 293b
00000320: 2b25 eebd 811f 23be e750 143d 36d8 debc
00000330: 255b aabd 7ced c4bb 2774 10bc b3b1 333c
00000340: f261 e1ba 0ad1 26bc acb3 56bd 40ee e2bb
00000350: efda cebd a96f 45bb a4ad a73d d574 19bd
00000360: 5836 5a3e 2eb8 203d 6742 72bd 725d 59bd
00000370: 2351 f83e 3744 163f 71b9 70be 1883 66be
00000380: 7c33 4ebe 1d29 033e ac62 363e 5907 433e
00000390: e2fe e23d 807f 0d3e c860 253d 4df5 22bd
000003a0: c824 e7b9 8824 0dbc 9747 51bd 8e57 17bc
000003b0: f66b e33b 782f 0f3b b23a c03c 2e6c ae3c
000003c0: 078d e4bd f633 bbbd 413d f1bd d248 78bd
000003d0: a143 4cbd c168 0b3f 0af5 563d 5909 2d3d
000003e0: d495 13be 9d7a 3abf b5fc 103f b8cf afbe
000003f0: 4c5b 4b3e 8b82 f7bd c51d 71be b777 09bf

encoder.block1.convblock2.0.pointwise_conv.weight f4 [64, 64, 1]
0.0006983168 0.0058159907 0.00095335575 0.009556237 0.0021858502 0.0037193594 0.007421496 0.0041720346
0.0037566999 0.005542564 0.0012189365 -0.0032551829 0.00912311 -0.0071636387 0.0046258345 -0.0019902152
-0.0030148807 0.007926639 -0.0051002856 0.013683445 -0.009800587 0.0012862044 -0.009492738 0.006175385
-0.003884486 0.0034229995 0.0064134947 0.0059044412 0.0037286195 -0.004275671 0.007709339 0.005438293
0.00041525948 -0.012323154 0.001362207 0.0084837405 0.009132265 0.0010287906 0.011550225 0.0076108044
0.004367831 0.013714316 -0.0005821624 -0.0011169348 0.0020654958 4.618794e-05 0.0042820224 0.0032552169
-0.001979962 0.0016238382 -0.0025112373 -0.005035904 0.0058854274 0.0042752423 0.005647611 -0.0038319847
-0.004074101 0.008679926 -0.0029014621 -0.0071372064 0.010024324 -0.00963071 0.008283544 0.0017252836
-0.012719452 0.02782131 0.029083129 -0.0064846296 0.0017215165 -0.00046039786 0.006645086 0.0023908184
-0.008590022 -0.010875066 -0.0039429897 -0.024744587 0.0031701806 -0.014047176 0.018049305 0.07648855
0.0039487053 0.02501514 0.0028422726 0.0036951 0.014085827 -0.00934924 -0.010287054 0.04055762
-0.014367076 -0.01607032 0.03920609 0.039506424 -0.035142064 0.0019982252 -0.017618628 -0.016243124
-0.011893379 0.005943319 -0.016616924 0.028910426 -0.002678523 -0.003335246 0.028590452 -0.0024370493
0.008565487 -0.0031271644 -0.008676642 0.023458166 0.01655419 0.032803778 0.011543365 -0.0013440598
-0.037758954 0.021332843 0.037024405 0.025896806 0.0053057857 -0.08373204 0.013050363 -0.0049933447
0.0018508168 0.028555874 -0.008264454 0.0066322936 -0.001350206 -0.060579903 0.010083401 0.01796804
0.10405471 0.038296293 0.014122318 0.017685872 -0.058102414 0.0037076229 -0.014224448 -0.0021117977
0.23884895 0.10269408 0.0033541452 0.03133122 0.00391518 0.005272699 -0.018656267 0.0882873
0.03930273 0.011732204 0.083466865 0.005330339 -0.023465358 -0.027261734 0.0013846074 -0.026487593
-0.0196137 0.01153892 -0.042023435 0.038611807 0.08702176 -0.0025837077 0.008442188 0.021743122
0.032092277 -0.0043085255 -0.18762168 0.020143608 0.014609454 -0.0241813 0.033390902 0.0025643597
0.005533678 -0.004249537 0.06555485 -0.004339391 0.053268604 0.021557383 0.013821799 -4.8333886e-06
0.033090245 0.0016037002 0.085990295 -0.0004082491 -0.0025848951 -0.043850265 -0.023342693 -0.1926345
-0.0018375525 -0.0053186542 -0.015907438 -0.004229888 -0.00044137207 -0.08778795 0.025517058 -0.01790927
0.00936317 0.0070824567 0.019961663 0.0012065604 0.01870321 -0.013935741 0.012992486 0.0044903983
0.006451485 -0.010184073 0.0006726897 -0.01649513 0.041606765 -0.019783938 0.009016776 0.018334037
-0.0037925113 0.02681733 -0.009983705 0.024579532 0.013000343 -0.018434867 -0.011815646 0.015382487
-0.0040219217 -0.00056497083 0.02253706 0.003133491 0.0036864474 0.00099606 0.00059151417 0.0033014256
0.005985299 0.0029497545 0.021032104 -0.00013919047 0.005939596 -0.00524726 0.009703233 0.0002387476
0.01575822 -0.0064430325 0.002085129 0.00238548 -0.026576458 -0.011468016 0.024683695 0.0037922768
-0.021737542 0.009423383 0.014090737 0.043818925 -0.0020964032 0.0012122735 0.020803345 -0.029093035
-0.023254558 0.005295543 -0.012344207 0.0029957953 -0.0016413059 -0.014914989 0.023050334 0.015107881
00000000: 3f0f 373a 1194 be3b 9fea 793a c391 1c3c
00000010: 7b40 0f3b 7fc0 733b 0530 f33b 90b5 883b
00000020: f732 763b 669e b53b b9c4 9f3a e854 55bb
00000030: 1979 153c f5bc eabb 5094 973b 456e 02bb
00000040: 4e95 45bb bcde 013c 4c20 a7bb 8730 603c
00000050: a492 20bc dc95 a83a 6e87 1bbc e25a ca3b
00000060: dc92 7ebb 6754 603b 4b28 d23b 0b7a c13b
00000070: db5b 743b ee1a 8cbb 9f9e fc3b b533 b23b
00000080: 2fb7 d939 0ee7 49bc 158c b23a 63ff 0a3c
00000090: 7f9f 153c 7cd8 863a 283d 3d3c 0e64 f93b
000000a0: 0620 8f3b 03b2 603c 429c 18ba 1d66 92ba
000000b0: 455d 073b ecb9 4138 3550 8c3b 7a55 553b
000000c0: 40c2 01bb f8d6 d43a 9293 24bb 3904 a5bb
000000d0: 8bda c03b 5517 8c3b 980f b93b 0922 7bbb
000000e0: 0980 85bb 4036 0e3c 7526 3ebb 3adf e9bb
000000f0: 103d 243c 20ca 1dbc b4b7 073c e922 e23a
00000100: 4065 50bc 84e9 e33c be3f ee3c 047d d4bb
00000110: 82a4 e13a 8e61 f1b9 06bf d93b 47af 1c3b
00000120: 2abd 0cbc 552d 32bc 3234 81bb 29b5 cabc
00000130: cec2 4f3b 2026 66bc 23dc 933c 07a6 9c3d
00000140: 2464 813b 8dec cc3c 6c45 3a3b 7e29 723b
00000150: 3ec8 663c 8e2d 19bc 088b 28bc bf1f 263d
00000160: e263 6bbc e7a5 83bc 9196 203d 7dd1 213d
00000170: 20f1 0fbd a8f4 023b f154 90bc 4d10 85bc
00000180: 72dc 42bc 2cc0 c23b 3720 88bc 8fd5 ec3c
00000190: 298a 2fbb 2494 5abb 8636 ea3c e7b6 1fbb
000001a0: 4256 0c3c 1df1 4cbb 7928 0ebc 572b c03c
000001b0: a79c 873c 415d 063d 6220 3d3c 2a2b b0ba
000001c0: 22a9 1abd 37c2 ae3c e7a6 173d 8a25 d43c
000001d0: 28dc ad3b b47b abbd 31d1 553c 369f a3bb
000001e0: 1b97 f23a 02ee e93c a267 07bc b653 d93b
000001f0: 65f9 b0ba a222 78bd d934 253c b631 933c
00000200: a31a d53d 93dc 1c3d 4b61 673c f6e1 903c
00000210: ccfc 6dbd 97fb 723b a90d 69bc 1666 0abb
00000220: d294 743e 4651 d23d 38d1 5b3b 2a55 003d
00000230: e94a 803b 9bc6 ac3b 07d5 98bc f9cf b43d
00000240: e6fb 203d 6e38 403c adf0 aa3d 20aa ae3b
00000250: 6c3a c0bc 0054 dfbc b77b b53a 82fc d8bc
00000260: e9ac a0bc bd0d 3d3c c420 2cbd 6a27 1e3d
00000270: 7738 b23d 6c53 29bb 1a51 0a3c a21e b23c
00000280: 3173 033d 882e 8dbb e61f 40be 3504 a53c
00000290: 7e5c 6f3c dd17 c6bc e6c4 083d d10e 283b
000002a0: db53 b53b b33f 8bbb 9f41 863d 7331 8ebb
000002b0: 2e30 5a3d 1c99 b03c d474 623c 7e2e a2b6
000002c0: a389 073d 4033 d23a ae1b b03d 440a d6b9
000002d0: 5867 29bb 569c 33bd 2d39 bfbc fa41 45be
000002e0: 08da f0ba 1b48 aebb 5150 82bc df9a 8abb
000002f0: f567 e7b9 2bca b3bd 2609 d13c 76b6 92bc
00000300: fb67 193c f413 e83b a486 a33c 7325 9e3a
00000310: 7937 993c bc52 64bc 70de 543c 3124 933b
00000320: fb66 d33b 19db 26bc 7157 303a cb20 87bc
00000330: db6b 2a3d ed11 a2bc 1abb 133c 4331 963c
00000340: c88b 78bb 04b0 db3c b292 23bc 045b c93c
00000350: 64ff 543c b804 97bc 6996 41bc d406 7c3c
00000360: 53ca 83bb 8d1a 14ba a49f b83c 415b 4d3b
00000370: 5398 713b 3a8e 823a d80f 1b3a bb5c 583b
00000380: 5420 c43b ab50 413b 854b ac3c a8f3 11b9
00000390: f1a0 c23b 35f1 abbb 4ffa 1e3c 5258 7a39
000003a0: 6217 813c 1320 d3bb a9a6 083b b755 1c3b
000003b0: dfb6 d9bc 58e4 3bbc 7635 ca3c d987 783b
000003c0: ee12 b2bc 8864 1a3c d6dc 663c 797b 333d
000003d0: cf63 09bb 26e5 9e3a c76b aa3c 8454 eebc
000003e0: 5880 bebc 3c86 ad3b 5b3f 4abc 1b55 443b
000003f0: 1621 d7ba ff5d 74bc 0ed4 bc3c 0c87 773c

encoder.block1.convblock2.1.weight f4 [64]
0.041023254 0.111822836 0.4129289 0.08907792 0.037669025 0.050087005 0.031759385 0.5976395
0.09572176 0.06535815 0.0786136 0.11359717 0.035602726 0.11686503 0.24007744 0.4873789
0.3280798 0.043401815 0.37166142 0.02817575 0.641358 0.70766395 0.030770095 0.6101985
0.038711283 0.1923498 0.031736452 0.30425876 0.5846411 0.044452384 0.21537651 0.66201955
0.034203086 0.065394826 0.07272776 0.7302027 0.03570914 0.06575013 0.37356818 0.6789885
0.16616288 0.2925698 0.7335209 0.03650122 0.45528555 0.20446673 0.44226992 0.83098304
0.10544554 0.16985115 0.54427063 0.8293354 0.030104602 0.044755954 0.09003254 0.04798429
0.7179338 0.32161212 0.1696347 0.44129807 0.13290851 0.03991858 0.12788066 0.14435166
00000000: 0008 283d 5f03 e53d 6b6b d33e 7c6e b63d
00000010: d64a 1a3d 0828 4d3d 2116 023d e7fe 183f
00000020: c509 c43d 7eda 853d 2b00 a13d a2a5 e83d
00000030: 2ad4 113d ef56 ef3d dcd6 753e ba89 f93e
00000040: 13fa a73e 1ac6 313d 684a be3e d5d0 e63c
00000050: 0a30 243f 7729 353f 9111 fc3c f835 1c3f
00000060: b98f 1e3d 59f7 443e 15fe 013d cec7 9b3e
00000070: 0aab 153f b413 363d a98b 5c3e 1d7a 293f
00000080: 8918 0c3d b9ed 853d 4bf2 943d 90ee 3a3f
00000090: bf43 123d 01a8 863d 5444 bf3e 31d2 2d3f
000000a0: 9a26 2a3e b5cb 953e 07c8 3b3f 4e82 153d
000000b0: 301b e93e ba5f 513e 3471 e23e 4ebb 543f
000000c0: d5f3 d73d 76ed 2d3e 5255 0b3f 534f 543f
000000d0: ed9d f63c 0552 373d fb62 b83d 2d8b 443d
000000e0: 82ca 373f 58aa a43e b8b4 2d3e d2f1 e13e
000000f0: 2b19 083e aa81 233d 26f3 023e ecd0 133e

encoder.block1.convblock2.1.bias f4 [64]
-0.024331383 -0.169472 0.04486796 -0.095446885 0.006416983 -0.021002952 -0.07597265 0.034742724
-0.10374673 -0.04851192 0.030208 -0.10477657 -0.0015260695 -0.06961333 -0.25939298 0.13837713
-0.11258163 -0.026392968 -0.1439897 -0.005424358 -0.07483998 -0.19836569 -0.00082307594 -0.17087863
-0.0010800061 -0.019535473 0.0004382286 -0.5195633 -0.09310206 -0.09508556 0.07751038 -0.037907656
0.001959662 -0.0048791105 -0.011589557 -0.33619475 0.0022646398 -0.09835426 0.07839278 -0.1682782
0.009580395 -0.2258327 -0.14748882 0.0011115009 0.03902929 -0.11467537 0.2780535 -0.44609636
-0.35724995 0.05560309 -0.023289992 -0.6673925 -0.025028372 -0.01139011 -0.030511364 -0.07077016
-0.09533357 0.15515822 0.07173528 -0.13503368 0.05313564 0.00059162354 -0.18395735 -0.27165616
00000000: 9c52 c7bc 118a 2dbe 77c7 373d a879 c3bd
00000010: 8e45 d23b 620e acbc 8c97 9bbd 634e 0e3d
00000020: 2a79 d4bd 6fb4 46bd c576 f73c 1995 d6bd
00000030: 6506 c8ba 6f91 8ebd 28cf 84be bcb2 0d3e
00000040: 3391 e6bd 1136 d8bc 0972 13be d0be b1bb
00000050: b445 99bd 6020 4bbe b1c3 57ba cffa 2ebe
00000060: fe8e 8dba db08 a0bc 0cc2 e539 1a02 05bf
00000070: 4bac bebd 38bc c2bd c3bd 9e3d 0f45 1bbd
00000080: ac6d 003b f2e0 9fbb 20e2 3dbc b821 acbe
00000090: 5a6a 143b f56d c9bd 658c a03d 1f51 2cbe
000000a0: 17f7 1c3c b040 67be 4f07 17be c8af 913a
000000b0: 2ddd 1f3d ecda eabd 075d 8e3e be66 e4be
000000c0: 77e9 b6be 11c0 633d a7ca bebc 3cda 2abf
000000d0: 4d08 cdbc 959d 3abc f8f2 f9bc f2ef 90bd
000000e0: 3f3e c3bd cce1 1e3e f2e9 923d 4546 0abe
000000f0: c2a4 593d 2f17 1b3a 515f 3cbe 8416 8bbe

encoder.block1.convblock2.1.running_mean f4 [64]
0.006663828 0.013690609 0.09848812 -0.012305059 0.007380627 -0.0011992743 -0.015379567 0.053641196
0.012691246 -0.013947814 0.0012649405 -0.0042328485 0.0033779202 0.014268215 -0.049520947 -0.07736452
-0.233165 0.013412185 -0.1518891 0.0016843629 -0.18144257 -0.047788788 0.0035271617 -0.19414912
-0.005832498 -0.010614109 0.0030108315 -0.1180436 -0.19873016 -0.017852535 -0.04260214 -0.07594089
0.0035968202 0.007528827 0.009950707 -0.21288715 0.0056491736 -0.012862116 -0.09282961 -0.23354134
0.024240235 -0.06410309 -0.120243736 -0.0015512583 -0.14353481 -0.019036364 -0.2245648 -0.1826775
-0.046588566 0.027514646 -0.113548204 -0.2371074 -0.0048562665 0.006009889 0.036050193 -0.008303103
-0.2836269 -0.14780205 0.00033499193 -0.16166277 -0.00097019965 0.0033169538 -0.009219402 -0.010365449
00000000: 3e5c da3b 934e 603c 24b4 c93d 289b 49bc
00000010: 30d9 f13b f830 9dba 94fa 7bbc dfb6 5b3d
00000020: f2ee 4f3c 5f85 64bc 5ccc a53a b5b3 8abb
00000030: 1960 5d3b 3bc5 693c 7ad6 4abd 4a71 9ebd
00000040: cec2 6ebe c8be 5b3c d188 1bbe d7c5 dc3a
00000050: 15cc 39be 2dbe 43bd f427 673b 07cf 46be
00000060: 8a1e bfbb cde6 2dbc 5f51 453b d8c0 f1bd
00000070: eb7f 4bbe 7b3f 92bc 957f 2ebd e686 9bbd
00000080: a1b8 6b3b 61b4 f63b 4a08 233c 17ff 59be
00000090: b41c b93b a0bb 52bc 731d bebd 7625 6fbe
000000a0: 7593 c63c 7b48 83bd 5942 f6bd 9753 cbba
000000b0: cafa 12be 26f2 9bbc 51f4 65be d00f 3bbe
000000c0: a7d3 3ebd 6566 e13c f68b e8bd 48cc 72be
000000d0: 5121 9fbb 9aee c43b 5ea9 133d bd09 08bc
000000e0: 8c37 91be 6c59 17be dba1 af39 ed8a 25be
000000f0: ff54 7eba 4061 593b fa0c 17bc d8d3 29bc

encoder.block1.convblock2.1.running_var f4 [64]
3.193251e-05 0.0005380101 0.024599392 0.0004055229 3.5147637e-05 5.2008356e-05 9.3579285e-05 0.08108993
0.00038121335 0.00039898654 0.0008277919 0.0006231334 1.4734129e-05 0.00044988567 0.000851866 0.0076293056
0.01959944 0.00016023949 0.0030347875 8.667896e-06 0.031793393 0.024566064 1.1199644e-05 0.05175337
7.850107e-05 0.0003942119 3.1042653e-06 0.0123820845 0.1046704 0.00020041101 0.001177672 0.04030027
5.8803003e-06 0.00015859643 0.0005253651 0.034800615 1.8929333e-05 0.0001284667 0.006654769 0.09018503
0.0010089274 0.0041261897 0.06066895 5.7139514e-05 0.008807907 0.0020314218 0.02829265 0.021366213
0.0030177685 0.0024588185 0.03904161 0.03536932 6.4150474e-05 1.1707522e-05 0.00090772856 6.6437125e-05
0.070042126 0.011001338 0.0027566925 0.011482251 0.0020047033 1.4070103e-05 0.002413865 0.001758571
00000000: 46ef 0538 3f09 0d3a aa84 c93c 5d9c d439
00000010: 7d6b 1338 8c23 5a38 ff3f c438 7a12 a63d
00000020: 97dd c739 112f d139 2d00 593a c659 233a
00000030: 9a32 7737 a2de eb39 c24f 5f3a 41ff f93b
00000040: 018f a03c f605 2839 49e3 463b 546c 1137
00000050: ca39 023d c53e c93c 1be6 3b37 57fb 533d
00000060: f1a0 a438 3aae ce39 df52 5036 3ade 4a3c
00000070: 6f5d d63d 6c25 5239 1d5c 9a3a e511 253d
00000080: 654f c536 e84c 2639 a8b8 093a 178b 0e3d
00000090: 6fca 9e37 04b5 0639 4010 da3b eeb2 b83d
000000a0: fc3d 843a fd34 873b 0180 783d 16a9 6f38
000000b0: 0a4f 103c 9a21 053b fdc5 e73c 3208 af3c
000000c0: c1c5 453b 2124 213b 18ea 1f3d 6cdf 103d
000000d0: 8688 8638 6d6b 4437 a2f4 6d3a 2954 8b38
000000e0: 3f72 8f3d f53e 343c a0a9 343b 0d20 3c3c
000000f0: 5761 033b a20e 6c37 ef31 1e3b da7f e63a

encoder.block1.convblock3.0.depthwise_conv.weight f4 [64, 1, 3]
-0.021010466 -0.00891186 -0.025444333 0.04890841 0.062460195 0.0706551 0.029094435 -0.2501729
0.3788439 -0.012766144 -0.03798483 -0.040661264 0.01186309 -0.005682773 0.025186693 0.012665355
0.024408475 0.0095983185 -0.016874865 -0.023334483 -0.005660907 0.52653307 0.023326866 -0.038175736
-0.041152973 -0.0181392 -0.0387505 0.06491831 -0.0076555363 -0.045062434 -0.06136517 -0.0124277305
0.055030145 0.00834968 -0.033181995 -0.07088441 0.011016222 0.02364566 -0.002778098 0.046178594
0.03209112 0.030288603 0.060410753 0.0723312 0.13420396 0.12865718 -0.0076891896 0.08158108
-0.09286961 -0.11683938 -0.084717356 0.009262297 0.0210832 -0.041934922 0.10769121 0.13498375
0.27945486 -0.020291328 -0.009662981 0.0023767066 -0.13223517 -0.2547436 -0.24417408 0.041519888
-0.09414828 0.46503007 0.011756752 -0.008246929 0.0028720652 -0.25112355 -0.19358924 -0.1372987
-0.011416851 -0.031116243 0.020497756 0.09190779 0.09276265 0.110418975 -0.016464187 -0.0045087845
-0.0043725697 0.03850169 0.14414907 0.13129787 0.28818566 0.314952 -0.6208588 0.022349052
0.024621129 0.015450611 -0.14809056 -0.12573962 -0.07524138 -0.6158357 -0.05828624 0.09860113
-0.014925768 -0.008672135 -0.005402416 -0.040377386 -0.02572868 -0.036594283 0.06875017 0.021706937
-0.02481906 -0.25338724 -0.11028887 -0.2985209 -0.011410246 -0.011878261 -0.012534125 -0.019331215
-0.01914146 -0.0345094 -0.113532536 -0.1224843 -0.20454343 -0.5010622 0.049681123 0.6061522
0.08161531 0.10338195 0.071448594 -0.06584854 -0.04811746 -0.047846954 0.30012268 0.19983377
0.37120187 0.0010314172 0.010439125 -0.02821824 -0.21650437 -0.17620683 -0.19443704 -0.112510584
-0.10851304 -0.11474896 0.10354497 0.022434158 0.20334628 0.36951363 0.24732366 0.2581648
-0.09658218 -0.10556943 -0.09666359 0.10968213 0.096783385 0.04569614 0.17898056 0.27201143
-0.54057735 0.04359269 0.13363935 0.20679308 0.020456951 0.018247494 -0.003608045 -0.010341169
-0.034996983 -0.014393035 0.0547613 0.04760234 0.020108154 -0.012676258 -0.021196276 -0.023210106
0.44631675 -0.76339537 0.2245615 0.10103076 -0.057395972 -0.036752343 0.18937518 -0.040692143
0.009534017 0.10324426 0.11407354 0.19374488 0.0706817 0.081608735 0.06153939 0.022635795
0.020458618 0.0031577658 0.124201484 0.09524326 0.07322971 0.009131112 0.13877192 0.1203275
00000000: 241e acbc 0d03 12bc a270 d0bc 2f54 483d
00000010: 43d6 7f3d 9fb3 903d 7457 ee3c aa16 80be
00000020: d4f7 c13e 1729 51bc fb95 1bbd 6d8c 26bd
00000030: 685d 423c 8e36 babb 5354 ce3c 5982 4f3c
00000040: 48f4 c73c 4442 1d3c 283d 8abc f527 bfbc
00000050: 217f b9bb dfca 063f fc17 bf3c 295e 1cbd
00000060: 0590 28bd a998 94bc d8b8 1ebd e4f3 843d
00000070: 4bdb fabb 6393 38bd 0b5a 7bbd ae9d 4bbc
00000080: 4a67 613d 19cd 083c d8e9 07bd d82b 91bd
00000090: 627d 343c 8bb4 c13c c010 36bb c425 3d3d
000000a0: fa71 033d ce1f f83c 4471 773d 6122 943d
000000b0: c36c 093e b5be 033e 99f5 fbbb fb13 a73d
000000c0: 6c32 bebd 7c49 efbd 4b80 adbd e4c0 173c
000000d0: adb6 ac3c f4c3 2bbd 368d dc3d 2e39 0a3e
000000e0: b514 8f3e 003a a6bc 7b51 1ebc 85c2 1b3b
000000f0: a868 07be c16d 82be c508 7abe c210 2a3d
00000100: d0d0 c0bd 6c18 ee3e 649f 403c 211e 07bc
00000110: 4239 3c3b 4493 80be 423c 46be 0898 0cbe
00000120: be0d 3bbc 7ee7 febc e9ea a73c 273a bc3d
00000130: 58fa bd3d 5823 e23d e7df 86bc 6dbe 93bb
00000140: c647 8fbb f3b3 1d3d d09b 133e f372 063e
00000150: 128d 933e 6341 a13e 9af0 1ebf 5c15 b73c
00000160: 40b2 c93c 8f24 7d3c 0da5 17be e3c1 00be
00000170: 2718 9abd 69a7 1dbf 8dbd 6ebd 64ef c93d
00000180: 358b 74bc 9215 0ebc c006 b1bb c262 25bd
00000190: f4c4 d2bc e3e3 15bd e4cc 8c3d bfd2 b13c
000001a0: 5751 cbbc f9bb 81be 22df e1bd bbd7 98be
000001b0: 0af2 3abc 0a9d 42bc ee5b 4dbc 7f5c 9ebc
000001c0: 8dce 9cbc bb59 0dbd bf83 e8bd 0cd9 fabd
000001d0: d573 51be 9d45 00bf 6f7e 4b3d ca2c 1b3f
000001e0: ed25 a73d eab9 d33d a453 923d 99db 86bd
000001f0: d016 45bd 2bfb 43bd aea9 993e 39a1 4c3e
00000200: 2c0e be3e 9e30 873a dd08 2b3c f029 e7bc
00000210: 52b3 5dbe 906f 34be 811a 47be f36b e6bd
00000220: 163c debd 8101 ebbd 630f d43d d7c7 b73c
00000230: 023a 503e e430 bd3e 6a42 7d3e 2d2e 843e
00000240: e1cc c5bd c934 d8bd 8ff7 c5bd 06a1 e03d
00000250: 5e36 c63d e02b 3b3d ae46 373e 1545 8b3e
00000260: 4763 0abf 408e 323d c1d8 083e 91c1 533e
00000270: 5695 a73c c57b 953c f374 6cbb 026e 29bc
00000280: ff58 0fbd c4d0 6bbc 634d 603d acfa 423d
00000290: dbb9 a43c 14b0 4fbc d0a3 adbc 1f23 bebc
000002a0: a183 e43e e16d 43bf 73f3 653e 37e9 ce3d
000002b0: 0a18 6bbd a089 16bd 91eb 413e ceac 26bd
000002c0: 9134 1c3c ba71 d33d 639f e93d 0f65 463e
000002d0: 91c1 903d 7b22 a73d ba10 7c3d b46e b93c
000002e0: d598 a73c 85f2 4e3b 595d fe3d e60e c33d
000002f0: 75f9 953d a99a 153c 3a1a 0e3e 446e f63d

encoder.block1.convblock3.0.pointwise_conv.weight f4 [64, 64, 1]
0.0007742843 -0.0008059793 0.006809774 -0.005383758 0.0029729398 0.0009160212 -0.0040543354 -0.02287903
-0.0004462255 -0.0049858293 -0.0026415503 -0.0028098503 -0.0044768844 0.0059029264 0.0046589943 -2.2857328e-05
0.0034829492 -0.0054166312 -0.0041230796 0.0034990676 0.006845225 0.03204891 0.002106577 -0.020332506
-0.0019661298 -0.00208921 0.0042283935 0.0013338898 0.01718179 0.0023732954 0.0022068168 0.021241227
-0.00415086 -0.0009542947 0.00022899521 -0.0041043037 0.0009980239 0.0012943846 0.004014411 0.0035282949
-0.0004247207 -0.0011504162 -0.026706142 0.0022134478 0.005023902 -0.005224065 -0.0005884404 -0.012638988
0.004857409 0.0034853849 0.027206762 0.012961662 0.003321367 0.0030489238 0.0015318962 -0.0022740571
0.0060365708 -7.15803e-05 0.0115164155 0.0033825315 0.0032522497 0.002993289 -0.0025495482 0.0068915756
-0.0027626068 -0.005334871 0.11249632 0.006899538 0.0027567395 -0.006702303 0.005363152 0.012572039
0.0041495417 -0.0024193542 -0.006057924 -0.0036426357 -0.00020489236 -0.002053167 -0.019520873 0.017460072
0.03322867 -0.0014966562 -0.1001489 -0.0016617316 0.07980331 -0.052408587 0.0044165105 0.03825155
-0.0024892362 -0.01330752 -0.0013068215 -0.03339055 0.2118149 -0.00024980912 0.048470307 0.0029483545
0.0010970152 0.007942271 -0.008142767 0.101497866 0.0021069166 0.0019030608 0.018167173 -0.17428212
-0.005599318 -0.008276579 0.044925034 0.007086451 -0.003738008 0.03747871 0.07882045 0.0009904186
0.002144891 -0.060998637 0.05429698 -0.032441337 0.0007398346 0.009627586 -0.0006101606 0.007722268
-0.2694884 -0.0021236814 -0.044673473 -0.043440368 -0.03155093 -0.001548928 0.00463189 -0.015080879
-0.0042491574 -0.0013078081 0.009672994 0.0041097803 -0.0034177348 0.008122874 0.0039155087 -0.039229173
0.026102083 0.05005018 0.002219241 0.029754426 -0.0036029706 -0.0364299 0.038786337 0.073611125
-0.06141167 -0.004050372 -0.05979383 -0.0040457775 0.24779889 -0.054023758 -0.0004943034 0.20697337
-0.0024075988 -0.054459676 0.00050771196 0.071203895 0.12372817 0.0112586785 0.047714774 -0.23092088
0.0014993283 0.006296793 0.02121451 0.35373366 0.0040158783 -0.0077914204 -0.06994672 -0.22518407
-0.049647886 -0.077065535 0.36104617 -0.00428234 -0.28546885 -0.042549312 0.29867956 0.32802275
-0.031930964 -0.039033268 0.03168668 -0.34360048 0.0040479046 0.01061396 0.02298714 0.008037588
0.34090552 0.15798353 -0.047666937 0.1237251 -0.027433217 -0.0027987275 0.049765833 -0.012224282
0.00070255867 -0.006989624 0.0340078 0.0022394795 0.0021382875 -0.001048026 0.0031439133 0.119927354
0.009955259 -0.018777007 -0.004731905 0.015210665 -0.0046731266 -0.018326646 -0.044722244 -0.023002252
0.047356956 0.0009526517 -0.03567343 -0.0018350254 -0.10080268 -0.060996376 0.0014600029 0.042091828
-0.0042677443 -0.0036647762 -0.0014516509 -0.033338904 0.03828508 -0.002022122 0.013596931 0.06547942
-1.6426833e-05 0.0055751526 -0.010750549 -0.0046390765 -0.000627771 0.0022423214 -0.06786217 -0.24929155
-0.0045746327 0.03231775 0.0037618596 0.00019631557 0.07540429 0.039546203 -0.03956085 -0.03183894
0.012379496 -0.014244395 0.13040644 0.28336272 -0.00075494056 0.0008971588 -0.011002364 -0.0024221512
-0.49838263 -0.016659059 -0.031683933 -0.08103104 -0.029777542 -0.0037713686 -0.01273496 -0.029888703
00000000: 57f9 4a3a 5b48 53ba 8624 df3b 3c6a b0bb
00000010: a7d5 423b 2421 703a 3bda 84bb ce6c bbbc
00000020: 5ff3 e9b9 2b60 a3bb dc1d 2dbb 7725 38bb
00000030: d4b2 92bb 566d c13b 7aaa 983b bdbd bfb7
00000040: 3142 643b ff7d b1bb e61a 87bb 9d50 653b
00000050: e94d e03b b845 033d 7f0e 0a3b 5b90 a6bc
00000060: 2fda 00bb 21eb 08bb 568e 8a3b ead5 ae3a
00000070: d3c0 8c3c 4a89 1b3b 3ea0 103b 1502 ae3c
00000080: f003 88bb a229 7aba 6f1e 7039 657d 86bb
00000090: 20d0 823a 57a8 a93a 528b 833b f73a 673b
000000a0: 0cad deb9 90c9 96ba d7c6 dabc 7e0f 113b
000000b0: 8b9f a43b a22e abbb 9141 1aba c213 4fbc
000000c0: e62a 9f3b 0e6b 643b b7e0 de3c 275d 543c
000000d0: 4bab 593b 74d0 473b e8c9 c83a 5908 15bb
000000e0: 6dce c53b 621d 96b8 59af 3c3c 76ad 5d3b
000000f0: b223 553b 0e2b 443b 5216 27bb bad2 e13b
00000100: da0c 35bb 24d0 aebb 7864 e63d 8515 e23b
00000110: 6aaa 343b fe9e dbbb 61bd af3b f4fa 4d3c
00000120: e1f8 873b 078e 1ebb 8d81 c6bb 49b9 6ebb
00000130: 60d8 56b9 6d8e 06bb 3dea 9fbc 6d08 8f3c
00000140: c91a 083d 732b c4ba de1a cdbd 76ce d9ba
00000150: eb6f a33d 63aa 56bd 60b8 903b a8ad 1c3d
00000160: 7422 23bb c907 5abc a749 abba 88c4 08bd
00000170: 01e6 583e d0f8 82b9 cd88 463d 2e39 413b
00000180: b9c9 8f3a 4d20 023c 3d69 05bc 1dde cf3d
00000190: 3214 0a3b 2070 f93a 53d3 943c 0377 32be
000001a0: 7c7a b7bb 7d9a 07bc 5003 383d 7635 e83b
000001b0: 5ef9 74bb 4783 193d 9e6c a13d efd0 813a
000001c0: 4d91 0c3b b5d9 79bd 8366 5e3d 35e1 04bd
000001d0: 76f1 413a 06bd 1d3c 2ff3 1fba 140b fd3b
000001e0: 62fa 89be 762d 0bbb 88fb 36bd 87ee 31bd
000001f0: 8c3b 01bd 6605 cbba 1cc7 973b cb15 77bc
00000200: 843c 8bbb c26a abba 7a7b 1e3c 56ab 863b
00000210: 13fc 5fbb ce15 053c ab4d 803b c5ae 20bd
00000220: 09d4 d53c 6b01 4d3d b070 113b 8ebf f33c
00000230: d11f 6cbb 8537 15bd 6cde 1e3d 6ec1 963d
00000240: ce8a 7bbd fcb8 84bb 60ea 74bd 7192 84bb
00000250: febe 7d3e 0448 5dbd 2494 01ba d4f0 533e
00000260: cec8 1dbb 1c11 5fbd f917 053a 59d3 913d
00000270: 3265 fd3d 5276 383c 9170 433d 8676 6cbe
00000280: 1c85 c43a 5455 ce3b 0dca ad3c 941c b53e
00000290: a197 833b 2c4f ffbb 3a40 8fbd a796 66be
000002a0: 955b 4bbd 89d4 9dbd 0bdb b83e df52 8cbb
000002b0: f928 92be 3048 2ebd 87ec 983e 99f2 a73e
000002c0: 0bca 02bd 59e1 1fbd e4c9 013d 67ec afbe
000002d0: 49a4 843b 2de6 2d3c 874f bc3c 16b0 033c
000002e0: 2b8b ae3e 6fc6 213e 683e 43bd 9663 fd3d
000002f0: a0bb e0bc db6a 37bb 42d7 4b3d 5b48 48bc
00000300: ea2b 383a 3709 e5bb c34b 0b3d 3bc4 123b
00000310: 8322 0c3b eb5d 89ba 1d0a 4e3b 799c f53d
00000320: 621b 233c 3dd2 99bc 190e 9bbb 2736 793c
00000330: 0721 99bb c321 96bc ac2e 37bd 386f bcbc
00000340: 5ef9 413d 60bb 793a 4d1e 12bd 3c85 f0ba
00000350: a371 cebd 56d7 79bd 915d bf3a 7b68 2c3d
00000360: 6fd8 8bbb be2c 70bb 5245 beba 608e 08bd
00000370: d1d0 1c3d 9485 04bb a9c5 5e3c 131a 863d
00000380: 5bcc 89b7 c5af b63b 1223 30bc 6503 98bb
00000390: 0091 24ba e9f3 123b 52fb 8abd 4946 7fbe
000003a0: cde6 95bb 9e5f 043d 8889 763b 0fda 4d39
000003b0: 906d 9a3d 33fb 213d 8f0a 22bd 8c69 02bd
000003c0: 5fd3 4a3c 5361 69bc 4489 053e eb14 913e
000003d0: 34e7 45ba 4f2f 6b3a 4243 34bc f4bc 1ebb
000003e0: 022c ffbe 9478 88bc 03c7 01bd 9af3 a5bd
000003f0: 08f0 f3bc 1129 77bb 4ba6 50bc 27d9 f4bc

encoder.block1.convblock3.1.weight f4 [64]
0.089454636 0.28857583 0.6529018 0.45227328 0.32866564 0.41135252 0.44961178 0.25306875
0.33722997 0.26459983 0.23878567 0.031638063 0.12745716 0.37622038 0.6092747 0.36134043
0.7843262 0.61525196 0.48349097 0.5315057 0.44670513 0.50947857 0.47792655 0.42363766
0.2330659 0.27087012 0.4323779 0.030289097 0.22164828 0.031896852 0.37389332 0.5233904
0.41492602 0.25919458 0.08751626 0.5110417 0.30609488 0.4020718 0.60801744 0.23875055
0.6589153 0.17203438 0.4463845 0.5614517 0.3977688 0.2956635 0.25538597 0.17410071
0.3824866 0.34659252 0.2541726 0.37715754 0.39717954 0.21779318 0.43409857 0.24663717
0.3392765 0.35645595 0.19043075 0.03738135 0.38367614 0.17806578 0.496324 0.28889468
00000000: fe33 b73d 36c0 933e 9324 273f 5d90 e73e
00000010: dd46 a83e cc9c d23e 8433 e63e 3a92 813e
00000020: 68a9 ac3e a179 873e 3b84 743e ea96 013d
00000030: 2184 023e f59f c03e 6df9 1b3f 9d01 b93e
00000040: 9ac9 483f 2781 1d3f 218c f73e c210 083f
00000050: 89b6 e43e 306d 023f cab2 f43e 09e7 d83e
00000060: d4a8 6e3e 7daf 8a3e a360 dd3e d720 f83c
00000070: c4f7 623e 46a6 023d f26e bf3e eafc 053f
00000080: 2f71 d43e 27b5 843e ba3b b33d a1d3 023f
00000090: 78b8 9c3e 5bdc cd3e 08a7 1b3f 067b 743e
000000a0: acae 283f c829 303e 828c e43e 4cbb 0f3f
000000b0: 5aa8 cb3e 3561 973e f3c1 823e 7547 323e
000000c0: 49d5 c33e 9374 b13e e922 823e cb1a c13e
000000d0: 1e5b cb3e 2d05 5f3e 2b42 de3e 748e 7c3e
000000e0: a6b5 ad3e 6581 b63e 4700 433e 301d 193d
000000f0: 3371 c43e e056 363e 2e1e fe3e 01ea 933e

encoder.block1.convblock3.1.bias f4 [64]
0.01272841 0.0010301943 -0.2194883 -0.30261323 -0.10220133 -0.023463117 -0.071856044 0.033098184
-0.06840331 0.056011654 -0.09227225 -0.00096998236 -0.090004094 0.029088669 -0.10221011 -0.087811
-0.4049676 -0.1381292 -0.13069037 -0.26802656 -0.15271354 -0.19231129 -0.0744793 -0.18865252
0.041023087 0.11604143 0.028084492 -0.0015845344 0.027352408 0.0003465773 0.01394095 -0.12337663
-0.08702597 0.1357279 0.03077932 -0.2047433 -0.117608845 -0.0695395 -0.22663957 -0.24688464
-0.0736847 -0.13173088 -0.120202124 -0.12647857 -0.04347849 -0.1017771 0.05088468 -0.03659332
-0.158163 0.0066656903 -0.08161052 -0.18698251 0.01697275 0.05779362 -0.019937893 -0.046008065
-0.18918236 -0.013275915 -0.101933636 -0.0016761103 -0.029183095 0.08538264 -0.28031507 0.02699941
00000000: d28a 503c 9607 873a 8ac1 60be 1ff0 9abe
00000010: ee4e d1bd b935 c0bc 4329 93bd f691 073d
00000020: 0917 8cbd 7a6c 653d 3cf9 bcbd 6a46 7eba
00000030: 1154 b8bd 5c4b ee3c 8953 d1bd 41d6 b3bd
00000040: ea57 cfbe be71 0dbe b2d3 05be c73a 89be
00000050: f060 1cbe 40ed 44be 9a88 98bd 202e 41be
00000060: d307 283d 21a7 ed3d 7311 e63c 27b0 cfba
00000070: 2812 e03c d1b4 b539 9568 643c e3ac fcbd
00000080: ac3a b2bd 41fc 0a3e ea24 fc3c 3aa8 51be
00000090: e8dc f0bd ba6a 8ebd 3414 68be 54cf 7cbe
000000a0: 01e8 96bd 76e4 06be 882c f6bd 9983 01be
000000b0: 8016 32bd 8370 d0bd 746c 503d e1e2 15bd
000000c0: 7bf5 21be dd6b da3b 6b23 a7bd 5878 3fbe
000000d0: 700a 8b3c 01b9 6c3d cb54 a3bc f472 3cbd
000000e0: 05b9 41be 3983 59bc 95c2 d0bd eeb0 dbba
000000f0: 6311 efbc 18dd ae3d 7585 8fbe de2d dd3c

encoder.block1.convblock3.1.running_mean f4 [64]
-0.009854647 -0.02119243 0.104045294 0.0039486554 -0.063938886 -0.012056197 0.005149113 -0.0025666656
-0.010815736 -0.01572841 0.0010202982 -0.0012959633 0.021429017 -0.036584776 -0.09801006 -0.008654257
0.06866791 0.08807789 0.041260403 -0.08988278 0.06864312 -0.03105222 -0.0062543056 0.02209577
0.0027691114 -0.0011105271 -0.039018948 -0.00066265336 -0.0061980924 -0.0017512213 -0.04910715 0.001940891
-0.014749623 0.023763763 -0.004613565 -0.036238853 -0.017731542 0.027779104 0.016868953 0.07309801
0.0565769 0.006171342 -0.011226996 0.029182754 0.045690488 0.004857574 0.010430824 0.0032559661
-0.041902184 -0.022731494 0.004190507 0.055456065 -0.035648067 -0.016174389 -0.0468924 0.016021438
-0.0018889814 0.0040616924 0.0005263421 0.0041272826 0.0026333467 -0.013820823 0.02929148 -0.030270265
00000000: 6375 21bc bf9b adbc b315 d53d b963 813b
00000010: 64f2 82bd 5b87 45bc e4b9 a83b 8135 28bb
00000020: 7c34 31bc ded8 80bc 87bb 853a 50dd a9ba
00000030: e88b af3c ebd9 15bd 80b9 c8bd 96ca 0dbc
00000040: c3a1 8c3d 2e62 b43d ab00 293d 7714 b8bd
00000050: c494 8c3d 3a61 febc ebf0 ccbb 3002 b53c
00000060: fb79 353b 1b8f 91ba 55d2 1fbd eab5 2dba
00000070: 5e19 cbbb 3c89 e5ba 9424 49bd 7f65 fe3a
00000080: 67a8 71bc 39ac c23c 632d 97bb 316f 14bd
00000090: bd41 91bc 0191 e33c c230 8a3c 69b4 953d
000000a0: 2ebd 673d f838 ca3b 6ff1 37bc ac10 ef3c
000000b0: f325 3b3d 492c 9f3b 0ce6 2a3c 0c62 553b
000000c0: a0a1 2bbd 6637 babc 8550 893b e625 633d
000000d0: b503 12bd 2780 84bc 3f12 40bd 643f 833c
000000e0: b397 f7ba f217 853b 38fa 093a 283e 873b
000000f0: 3a94 2c3b bc70 62bc b0f4 ef3c 59f9 f7bc

encoder.block1.convblock3.1.running_var f4 [64]
0.00012517137 0.011228729 0.037143387 0.020970512 0.001373464 0.035239365 0.0174347 0.017031852
0.0013195274 0.005286804 0.0024133134 4.0747186e-06 0.0006615325 0.022895776 0.0098952735 0.003360374
0.013882774 0.033280786 0.016581688 0.0034568585 0.004460222 0.019025313 0.044806525 0.0025614956
0.021414988 0.00818581 0.013553419 4.147638e-06 0.0034755731 3.63598e-06 0.010481724 0.05501533
0.040408988 0.009287949 0.00011824677 0.0025440974 0.007334953 0.0076854196 0.010327184 0.005824564
0.010865465 0.00038928975 0.013660647 0.010094083 0.010696199 0.017972134 0.0065260543 0.00094002247
0.011311844 0.0033120685 0.0023948504 0.0035537651 0.027922124 0.017000163 0.0057080705 0.016648136
0.0065749073 0.008366492 0.0010446348 2.7988177e-05 0.03279477 0.018854348 0.011679283 0.0031320734
00000000: 6f40 0339 b4f8 373c aa23 183d 5aca ab3c
00000010: ce05 b43a 2757 103d 37d3 8e3c 6286 8b3c
00000020: fef3 ac3a ed3c ad3b ae28 1e3b 91b9 8836
00000030: b26a 2d3a ec8f bb3c c91f 223c b839 5c3b
00000040: 9374 633c 6f51 083d 52d6 873c 768c 623b
00000050: 0e27 923b f9da 9b3c 0c87 373d c4de 273b
00000060: 7c6e af3c c71d 063c 290f 5e3c f02b 8b36
00000070: 71c6 633b a901 7436 89bb 2b3c c157 613d
00000080: e583 253d 7b2c 183c 40fb f738 dfba 263b
00000090: 0c5a f03b f9d5 fb3b 5933 293c fcdb be3b
000000a0: 1005 323c 9619 cc39 e8d0 5f3c a761 253c
000000b0: 1c3f 2f3c 4c3a 933c 83d8 d53b d76b 763a
000000c0: 5055 393c 4a0f 593b ecf2 1c3b 49e6 683b
000000d0: f0bc e43c ed43 8b3c c40a bb3b ac61 883c
000000e0: 5272 d73b 9c13 093c 21ec 883a 27c8 ea37
000000f0: cf53 063d 6f74 9a3c 775a 3f3c 7943 4d3b

encoder.block1.shortcut.0.weight f4 [64, 1, 1]
0.020962456 0.0233033 0.037025113 0.037407286 0.019152079 0.018935896 -0.0132487975 0.02019827
-0.026129516 -0.019218557 -0.033208404 0.010266652 -0.03131326 0.06329439 0.029336154 -0.03143846
-0.025009131 -0.0437939 -0.024191318 -0.039138995 -0.009398036 -0.0025743584 -0.032546762 -0.032982957
0.016134083 0.004872592 0.015425851 -0.024008136 -0.030861633 -0.027323592 -0.01997039 -0.038400967
-0.020925839 -5.3781583e-05 -0.009845926 0.026090764 0.024248123 -0.021286625 -0.031632554 0.018704005
0.02041468 0.0062316097 -0.030056812 0.041584097 -0.017853132 -0.029378287 -0.02124231 0.021593299
-0.0010045515 0.024815997 -0.019005686 0.026646983 0.0073005212 -0.028223412 -0.031327616 0.00017556104
-0.025824066 0.034581237 0.027826587 -0.02451211 0.024377774 -0.026634011 -0.03201459 0.025560547
00000000: 75b9 ab3c 90e6 be3c a5a7 173d 6238 193d
00000010: d2e4 9c3c 741f 9b3c 7c11 59bc d876 a53c
00000020: 910d d6bc 3c70 9dbc 8905 08bd 7635 283c
00000030: 5542 00bd 7da0 813d 6052 f03c 9dc5 00bd
00000040: f3df ccbc 3c61 33bd df2c c6bc 3650 20bd
00000050: 38fa 19bc 91b6 28bb c14f 05bd 2319 07bd
00000060: a02b 843c 44aa 9f3b b5bc 7c3c b6ac c4bc
00000070: 89d1 fcbc bad5 dfbc f198 a3bc 554a 1dbd
00000080: aa6c abbc 8993 61b8 cf50 21bc 4cbc d53c
00000090: 00a4 c63c 4a61 aebc 2391 01bd 2439 993c
000000a0: b03c a73c 8832 cc3b b439 f6bc 1654 2a3d
000000b0: bb40 92bc bcaa f0bc 5a04 aebc 6ee4 b03c
000000c0: 28ab 83ba eb4a cb3c d0b1 9bbc c64a da3c
000000d0: 3639 ef3b c934 e7bc 6351 00bd cf16 3839
000000e0: fe8c d3bc 0ea5 0d3d 95f4 e33c 9fcd c8bc
000000f0: e6b3 c73c 922f dabc bb21 03bd 5a64 d13c

encoder.block1.shortcut.1.weight f4 [64]
0.039910343 0.040610563 0.14591107 -0.102993555 -0.032941695 -0.026475457 -0.016314058 0.027290342
-0.048630048 -0.02712086 0.05650935 0.031990603 -0.015499583 -0.27932316 -0.07137443 0.07703744
0.01444407 -0.14846261 -0.058573898 -0.115221396 0.008952627 0.0025247382 0.072688945 -0.04097819
-0.020493489 0.004803358 0.0051237936 0.030970842 0.079309605 0.03288303 0.022764571 0.10085099
-0.02894143 5.3846983e-05 0.035487898 -0.090921484 0.039002813 -0.03446164 -0.06856297 0.034117598
0.0905203 0.033044882 -0.07297101 0.13633685 0.018028455 0.027828438 -0.0043602134 0.02444003
-0.0004189487 0.03395317 0.06401858 0.052792042 0.0073918593 -0.04972077 -0.0417366 0.00012966237
0.005544548 -0.09813896 -0.036827248 0.029006625 0.026553256 0.042837933 -0.073129036 0.051713005
00000000: 0779 233d 4357 263d b669 153e 49ee d2bd
00000010: dfed 06bd 0fe3 d8bc 0fa5 85bc ff8f df3c
00000020: 4d30 47bd 912c debc 5976 673d 9408 033d
00000030: f7f1 7dbc 7203 8fbe c22c 92bd cec5 9d3d
00000040: d2a6 6c3c 9506 18be 2feb 6fbd 32f9 ebbd
00000050: 0aae 123c 1476 253b f1dd 943d bfd8 27bd
00000060: f6e1 a7bc 7d65 9d3b 7fe5 a73b 90b6 fd3c
00000070: 136d a23d 5bb0 063d c47c ba3c f78a ce3d
00000080: 9416 edbc c2d9 6138 c25b 113d 0b35 babd
00000090: 6ac1 1f3d a627 0dbd be6a 8cbd e5be 0b3d
000000a0: b562 b93d 125a 073d d371 95bd e39b 0b3e
000000b0: 69b0 933c 77f8 e33c 1fe0 8ebb 7536 c83c
000000c0: 58a6 dbb9 7b12 0b3d 2c1c 833d 783c 583d
000000d0: 6937 f23b 02a8 4bbd fff3 2abd faf5 0739
000000e0: 0aaf b53b 14fd c8bd 2bd8 16bd 4d9f ed3c
000000f0: 3786 d93c d476 2f3d adc4 95bd 04d1 533d

encoder.block1.shortcut.1.bias f4 [64]
0.01272841 0.0010301943 -0.2194883 -0.30261323 -0.10220133 -0.023463117 -0.071856044 0.033098184
-0.06840331 0.056011654 -0.09227225 -0.00096998236 -0.090004094 0.029088669 -0.10221011 -0.087811
-0.4049676 -0.1381292 -0.13069037 -0.26802656 -0.15271354 -0.19231129 -0.0744793 -0.18865252
0.041023087 0.11604143 0.028084492 -0.0015845344 0.027352408 0.0003465773 0.01394095 -0.12337663
-0.08702597 0.1357279 0.03077932 -0.2047433 -0.117608845 -0.0695395 -0.22663957 -0.24688464
-0.0736847 -0.13173088 -0.120202124 -0.12647857 -0.04347849 -0.1017771 0.05088468 -0.03659332
-0.158163 0.0066656903 -0.08161052 -0.18698251 0.01697275 0.05779362 -0.019937893 -0.046008065
-0.18918236 -0.013275915 -0.101933636 -0.0016761103 -0.029183095 0.08538264 -0.28031507 0.02699941
00000000: d28a 503c 9607 873a 8ac1 60be 1ff0 9abe
00000010: ee4e d1bd b935 c0bc 4329 93bd f691 073d
00000020: 0917 8cbd 7a6c 653d 3cf9 bcbd 6a46 7eba
00000030: 1154 b8bd 5c4b ee3c 8953 d1bd 41d6 b3bd
00000040: ea57 cfbe be71 0dbe b2d3 05be c73a 89be
00000050: f060 1cbe 40ed 44be 9a88 98bd 202e 41be
00000060: d307 283d 21a7 ed3d 7311 e63c 27b0 cfba
00000070: 2812 e03c d1b4 b539 9568 643c e3ac fcbd
00000080: ac3a b2bd 41fc 0a3e ea24 fc3c 3aa8 51be
00000090: e8dc f0bd ba6a 8ebd 3414 68be 54cf 7cbe
000000a0: 01e8 96bd 76e4 06be 882c f6bd 9983 01be
000000b0: 8016 32bd 8370 d0bd 746c 503d e1e2 15bd
000000c0: 7bf5 21be dd6b da3b 6b23 a7bd 5878 3fbe
000000d0: 700a 8b3c 01b9 6c3d cb54 a3bc f472 3cbd
000000e0: 05b9 41be 3983 59bc 95c2 d0bd eeb0 dbba
000000f0: 6311 efbc 18dd ae3d 7585 8fbe de2d dd3c
