ldpi/training/output/ResCNN/pretrained_model.pth (torch, 711292 bytes, 63 tensors)

encoder.block1.convblock1.0.depthwise_conv.weight f4 [1, 1, 7]
-0.5931309 -1.8666552 -0.29511553 -0.2781577 -0.075389616 -0.050321314 0.0300749
00000000: 6dd7 17bf 8fee eebf 6219 97be b06a 8ebe
00000010: df65 9abd b91d 4ebd a35f f63c

encoder.block1.convblock1.0.pointwise_conv.weight f4 [64, 1, 1]
0.048788555 -0.042805623 0.0068186214 -0.0012409211 0.014175707 0.04912979 -0.013744343 -0.02368432
-0.026177447 0.029051054 0.042235013 0.018188616 0.028339654 -0.049408756 -0.0099690445 -0.004776551
0.013139113 -0.022578156 0.011816827 -0.025050499 0.0016407506 -0.014182827 0.015514872 0.0219899
0.032135 -0.020909164 -0.020457769 -0.034237962 0.04007863 -0.017753545 -0.03665888 0.04202046
-0.051074665 0.49625117 0.051909633 0.048575692 -0.032395005 0.020456117 0.0066378387 0.007666516
-0.01280656 -0.012674542 -0.030978894 -0.037445962 -0.02190437 0.030252706 0.0151971765 -0.02803725
-0.03164681 0.04141312 0.005397618 0.00727991 0.035416193 -0.02317189 -0.0326787 0.04287467
0.0067178956 0.031807262 0.03878727 0.035593156 0.03011361 0.052478977 0.003502699 -0.030876469
00000000: 82d6 473d f354 2fbd be6e df3b 67a6 a2ba
00000010: 3941 683c 523c 493d f42f 61bc 9e05 c2bc
00000020: 1672 d6bc 7afc ed3c 9ffe 2c3d 4b00 953c
00000030: 9028 e83c d660 4abd 3455 23bc 9d84 9cbb
00000040: 6f45 573c d3f5 b8bc 5d9b 413c b436 cdbc
00000050: 740e d73a 175f 68bc 1732 7e3c 2a24 b43c
00000060: fd9f 033d b249 abbc 0d97 a7bc 1b3d 0cbd
00000070: 7d29 243d e26f 91bc 9f27 16bd a51d 2c3d
00000080: ab33 51bd a214 fe3e 329f 543d 4ef7 463d
00000090: a0b0 04bd 9693 a73c 3a82 d93b 6637 fb3b
000000a0: 9bd2 51bc e2a8 4fbc 73c7 fdbc f060 19bd
000000b0: cb70 b3bc 86d4 f73c 94fd 783c 60ae e5bc
000000c0: 16a0 01bd cea0 293d 80de b03b 508c ee3b
000000d0: 9210 113d fad2 bdbc 1ada 05bd 5a9d 2f3d
000000e0: cb21 dc3b 5548 023d 67df 1e3d 21ca 113d
000000f0: d1b0 f63c 32f4 563d 8a8d 653b a6f0 fcbc

encoder.block1.convblock1.1.weight f4 [64]
0.06293863 0.1509214 0.056366574 0.049269892 0.049066633 0.055075932 0.2214259 0.059923284
0.024565114 0.14127229 0.27332073 0.10764976 0.05001082 0.027728517 0.091228224 0.92990154
0.39009655 0.06962213 0.05781428 0.076258294 0.053483766 0.17578971 0.100844234 0.062362436
0.2528503 0.046647005 0.3315632 0.14274685 0.056443166 0.036245286 0.118549645 0.069648534
0.092130005 1.8065907 0.9484571 0.052480094 1.3947873 0.06809845 0.06893847 0.050705433
0.20011766 0.8634723 0.043926127 0.47285733 0.2062626 0.05564509 1.2122825 0.41365805
0.045396667 0.07788526 0.017329304 0.05854993 0.22347376 0.10245164 0.1846113 0.32664302
0.052700568 0.06951772 0.060566097 0.055394452 0.13075218 0.056759555 0.395295 0.65194434
00000000: f8e5 803d 248b 1a3e a3e0 663d 3acf 493d
00000010: 18fa 483d 4d97 613d 79bd 623e 1e72 753d
00000020: c73c c93c afa9 103e b2f0 8b3e 7a77 dc3d
00000030: 25d8 4c3d ea26 e33c ddd5 ba3d 070e 6e3f
00000040: bcba c73e 0c96 8e3d abce 6c3d 4f2d 9c3d
00000050: cb11 5b3d 3802 343e 6c87 ce3d c16f 7f3d
00000060: 9875 813e ee10 3f3d a7c2 a93e 3b2c 123e
00000070: f330 673d f075 143d 28ca f23d e4a3 8e3d
00000080: a8ae bc3d 5d3e e73f 16ce 723f 5ef5 563d
00000090: 6488 b23f 3377 8b3d 9d2f 8d3d 80b0 4f3d
000000a0: a5eb 4c3e 850c 5d3f e2eb 333d 5b1a f23e
000000b0: 8136 533e 1bec 633d 132c 9b3f fdca d33e
000000c0: dbf1 393d 4f82 9f3d 2ff6 8d3c 0dd2 6f3d
000000d0: 4ed6 643e 2ad2 d13d bf0a 3d3e c13d a73e
000000e0: 8ddc 573d 4e5f 8e3d 2814 783d 4be5 623d
000000f0: e6e3 053e b57c 683d 1b64 ca3e d3e5 263f

encoder.block1.convblock1.1.bias f4 [64]
0.013346879 0.3700299 0.0231352 -0.14014792 0.06232646 -0.048903745 0.060930386 0.010651805
-0.13358681 -0.09571743 -0.06957951 0.086513646 0.016314784 -0.27539438 -0.015391962 0.25684434
0.2296919 0.0520703 0.009186585 -0.034698337 0.012406584 0.052853253 0.08904667 0.013087561
0.24171045 -0.032433905 0.09142086 0.029042266 0.06207041 -0.31465936 0.055546284 0.040139124
-0.029651385 -0.92886317 0.37091047 -0.158007 0.5490014 0.03177977 0.21992616 0.030229902
0.053451754 0.20389144 -0.13451363 0.12925427 0.0501828 0.014355788 0.76860416 -0.1633038
-0.07082411 0.021890918 -0.4861446 0.010129577 -0.49990582 -0.020219326 0.046927173 -0.09030901
-0.086199336 0.026075339 0.009501311 0.017291335 0.9005131 0.014499612 -0.06710322 0.21088235
00000000: deac 5a3c 8f74 bd3e 0886 bd3c f082 0fbe
00000010: 084a 7f3d 4b4f 48bd 2492 793d e984 2e3c
00000020: fbca 08be 8007 c4bd b47f 8ebd 112e b13d
00000030: 95a6 853c 7e00 8dbe 912e 7cbc 1a81 833e
00000040: 5a34 6b3e ab47 553d 5583 163c d81f 0ebd
00000050: fc44 4b3c a77c 583d 1a5e b63d 366d 563c
00000060: f282 773e 6ad9 04bd dc3a bb3d 0cea ed3c
00000070: 8b3d 7e3d 081b a1be 8084 633d ec68 243d
00000080: 76e7 f2bc fac9 6dbf fae7 bd3e 96cc 21be
00000090: 5b8b 0c3f 812b 023d 5334 613e b3a4 f73c
000000a0: 3af0 5a3d ebc8 503e f1bd 09be 3b5b 043e
000000b0: 7b8c 4d3d 8a34 6b3c 3ec3 443f 1d39 27be
000000c0: 3b0c 91bd 9554 b33c f2e7 f8be 86f6 253c
000000d0: a8f3 ffbe 00a3 a5bc b536 403d eef3 b8bd
000000e0: 4789 b0bd f39b d53c 63ab 1b3c 8fa6 8d3c
000000f0: 0788 663f c88f 6d3c 6a6d 89bd 8bf1 573e

encoder.block1.convblock1.1.running_mean f4 [64]
-0.10860708 0.095288634 -0.015178778 0.002762386 -0.03155622 -0.10936672 0.030595966 0.052723117
0.058273006 -0.06466989 -0.0940184 -0.04048926 -0.06308626 0.1099877 0.022191864 0.010632971
-0.029248677 0.05026072 -0.026305167 0.055764344 -0.0036524374 0.031572074 -0.034537297 -0.04895122
-0.071534984 0.046545412 0.045540564 0.07621634 -0.08921812 0.039520763 0.081605494 -0.09354079
0.11369612 -1.1046934 -0.115554854 -0.10813324 0.07211378 -0.04553689 -0.01477634 -0.017066257
0.02850839 0.028214509 0.0689614 0.0833576 0.048760813 -0.06734487 -0.033830088 0.062413078
0.07044824 -0.09218879 -0.012015513 -0.01620564 -0.07883916 0.05158242 0.07274531 -0.095442325
-0.014954555 -0.070805416 -0.08634346 -0.079233095 -0.06703523 -0.11682225 -0.0077972766 0.068733394
00000000: 646d debd b026 c33d 69b0 78bc 2609 353b
00000010: 1841 01bd a9fb dfbd 64a4 fa3c 32f4 573d
00000020: adaf 6e3d a671 84bd b88c c0bd 11d8 25bd
00000030: 5e33 81bd 3b41 e13d b6cb b53c ea35 2e3c
00000040: ec9a efbc 2fde 4d3d ef7d d7bc 2769 643d
00000050: bb5d 6fbb b851 013d fb76 0dbd 1381 48bd
00000060: ef80 92bd 67a6 3e3d be88 3a3d 5017 9c3d
00000070: fdb7 b6bd 86e0 213d c820 a73d 5092 bfbd
00000080: 83d9 e83d 9866 8dbf 06a8 ecbd f674 ddbd
00000090: 64b0 933d e484 3abd 7618 72bc 89ce 8bbc
000000a0: 6d8a e93c 1d22 e73c a23b 8d3d 64b7 aa3d
000000b0: 6bb9 473d 1bec 89bd 6b91 0abd dba4 7f3d
000000c0: 2b47 903d 7acd bcbd b7dc 44bc b1c1 84bc
000000d0: 6d76 a1bd 1648 533d 7efb 943d 4477 c3bd
000000e0: f303 75bc 6e02 91bd d7d4 b0bd f644 a2bd
000000f0: c449 89bd 8140 efbd 4c80 ffbb 18c4 8c3d

encoder.block1.convblock1.1.running_var f4 [64]
54.01318 41.57818 1.0550109 0.03494235 4.5598783 54.771378 4.2865887 12.728746
15.54957 19.15083 40.477074 7.506943 18.224386 55.39514 2.2551265 0.5177173
3.9173818 11.5675335 3.1685865 14.239561 0.06108702 4.5644603 5.4621067 10.97262
23.432594 9.920582 9.496867 26.599876 36.449326 7.152107 30.494547 40.066864
59.19362 5588.135 61.144833 53.54289 23.813316 9.495333 0.9998093 1.3337055
3.7215924 3.645259 21.77688 31.818068 10.887428 20.767887 5.240704 17.837528
22.726036 38.917038 0.66110134 1.2025853 28.462143 12.183911 24.232231 41.71242
1.0240716 22.957067 34.138332 28.747286 20.577353 62.493454 0.27840015 21.633116
00000000: 7f0d 5842 0e50 2642 990a 873f b61f 0f3d
00000010: 86ea 9140 e415 5b42 bc2b 8940 f2a8 4b41
00000020: 0acb 7841 e634 9941 86e8 2142 e138 f040
00000030: 8bcb 9141 a094 5d42 fe53 1040 1f89 043f
00000040: 62b6 7a40 9e14 3941 1fca 4a40 3ed5 6341
00000050: 6236 7a3d 0f10 9240 94c9 ae40 da8f 2f41
00000060: f475 bb41 b4ba 1e41 2bf3 1741 8ccc d441
00000070: 1ccc 1142 0fde e440 d5f4 f341 7844 2042
00000080: 44c6 6c42 14a1 ae45 4f94 7442 eb2b 5642
00000090: ac81 be41 e2ec 1741 81f3 7f3f ddb6 aa3f
000000a0: 922e 6e40 ec4b 6940 0d37 ae41 678b fe41
000000b0: e832 2e41 a224 a641 d9b3 a740 42b3 8e41
000000c0: ecce b541 0cab 1b42 f03d 293f 51ee 993f
000000d0: 78b2 e341 4df1 4241 9cdb c141 85d9 2642
000000e0: c714 833f 13a8 b741 a78d 0842 71fa e541
000000f0: 6b9e a441 4cf9 7942 778a 8e3e 9f10 ad41

encoder.block1.convblock2.0.depthwise_conv.weight f4 [64, 1, 5]
-0.021780513 0.017621242 -0.0005593481 0.014860324 0.015190746 0.14884768 0.0056991125 -0.053078275
0.016779 0.03692284 0.026153734 0.028914755 -0.010626941 0.024968155 -0.013005393 -0.022230133
-0.015962897 -0.0327025 -0.0053116316 0.0013041113 -0.024843719 -0.004003812 -0.0032969667 0.01391606
-0.018921087 0.020027077 0.004120894 0.016133845 0.023672676 -0.0037495364 0.10284039 0.07379999
0.057810944 0.0955966 0.09447007 -0.0073199146 -0.0112855015 -0.008614927 -0.015411379 -0.030367546
-0.007515869 -0.016445199 -0.006398186 0.00452388 0.021628557 0.040936425 0.010024774 0.038759526
0.047141176 0.03804915 0.10592788 0.10831121 0.0859142 0.09433183 0.12388385 0.034455523
-0.010839098 -0.016283099 -0.0132962605 0.019079724 0.0043882974 0.010876457 0.005173726 0.005735241
-0.0018417906 -0.005473303 -0.02058117 -0.01601077 -0.023192087 -0.014785309 -0.024977274 -0.03732892
-0.04096349 -0.008928979 -0.037341733 0.13483593 -0.04888764 -0.09048672 0.27953047 0.28785917
-0.16253874 0.15697226 0.23745987 0.060833864 -0.024076954 -0.0028079734 0.0008461762 -0.021949884
-0.007712097 -0.002253561 -0.0040834695 0.015948445 0.025415817 0.017748129 -0.0025108561 -0.029688507
-0.026513938 -0.010290742 -0.024691446 -0.018325685 -0.005350689 0.019500494 0.018165007 -0.024129326
0.007205495 0.099590965 0.050546486 0.03083004 0.016418854 0.0045589926 0.015181069 -0.019048957
-0.027965229 -0.009990392 -0.02901086 -0.006978466 -0.005060612 -0.0030981337 0.00653973 -0.025172085
0.0074303523 0.13904108 0.11869442 0.029642327 0.053540565 -0.013967213 -0.011681751 0.0061926614
0.0039095473 0.007792532 -0.21823257 -0.113603465 -0.07166899 -0.045157764 -0.108862095 0.053144086
0.02993107 0.02258976 0.02971767 0.015555858 -0.024579613 0.01628423 -0.0017424346 0.030501783
0.0020317046 -0.02496566 -0.024382675 -0.023752043 0.005129584 -0.018953267 -0.04349762 -0.044792756
-0.005682148 -0.029128766 -0.022083454 -0.0058305184 -0.020109575 0.006137831 -0.000690115 -0.014717622
-0.03266187 -0.017756356 -0.03144336 -0.033780716 -0.008320062 -0.17871392 -0.24787839 -0.24344885
-0.16080122 -0.26304767 0.2651374 0.17914344 -0.6704725 -0.79918385 -0.088278174 0.012520581
0.0038390271 0.016544381 0.020486059 0.017769288 1.3500843 0.4524295 -0.10157613 -0.5732632
-0.8604688 0.023605153 -0.014595157 0.015607917 -0.008480794 0.021548476 0.04599427 0.0037523496
-0.012249218 -0.009809447 -0.015998883 -0.016402017 0.0011096722 -0.0064117424 0.00017772664 0.0153492065
-0.07428573 -0.0297415 -0.05746696 -0.07893932 -0.075510345 -0.57453704 0.0341653 0.17349063
-0.10641964 -0.29726696 -0.01099659 -0.026059533 -0.0089945495 -0.012154592 0.0012913875 -0.16969135
-0.072319865 -0.06801167 -0.11119823 -0.15806355 0.09574937 0.06787432 0.05819609 0.07587817
0.08971649 0.0153878145 -0.02196237 0.010652237 0.0033138148 -0.016285317 -1.7036804 0.40731758
0.9340952 0.271997 -0.084142886 -0.11822847 -0.10719265 -0.09552287 -0.13485494 -0.18142404
-0.0183196 0.011648123 -0.02378636 -0.022340566 -0.004500896 0.017445344 0.0042574373 0.004187004
0.035131954 0.03488019 0.03257058 0.010490159 0.018817348 -0.00191852 0.009481002 0.011053442
00000000: 0c6d b2bc 6c5a 903c 37a1 12ba b778 733c
00000010: 9be2 783c 876b 183e 9fbf ba3b 9b68 59bd
00000020: 1d74 893c 673c 173d 5b40 d63c a3de ec3c
00000030: 9f1c 2ebc 048a cc3c 9214 55bc f81b b6bc
00000040: 9fc4 82bc 0ef3 05bd 320d aebb b7ee aa3a
00000050: 0e85 cbbc 6932 83bb ec11 58bb 3000 643c
00000060: 6500 9bbc d30f a43c 9008 873b 202b 843c
00000070: 33ed c13c c8ba 75bb fb9d d23d 7324 973d
00000080: 2bcb 6c3d 26c8 c33d 8679 c13d e5db efbb
00000090: d3e6 38bc 9f25 0dbc 0280 7cbc 5cc5 f8bc
000000a0: ae47 f6bb 15b8 86bc e0a7 d1bb 0e3d 943b
000000b0: 5f2e b13c f4ac 273d f33e 243c 4fc2 1e3d
000000c0: 1b17 413d 6dd9 1b3d b7f0 d83d 45d2 dd3d
000000d0: c9f3 af3d 0c31 c13d d1b6 fd3d 3c21 0d3d
000000e0: 7996 31bc 2264 85bc 8fd8 59bc 154d 9c3c
000000f0: b5cb 8f3b 2b33 323c 5c88 a93b b0ee bb3b
00000100: 3d68 f1ba 6559 b3bb d899 a8bc 0529 83bc
00000110: 55fd bdbc 153e 72bc 249d ccbc 36e6 18bd
00000120: 55c9 27bd da4a 12bc a5f3 18bd 6e12 0a3e
00000130: 683e 48bd 1a51 b9bd 9e1e 8f3e 4762 933e
00000140: 8e70 26be 56bd 203e ae28 733e ee2c 793d
00000150: 083d c5bc fa05 38bb ecd1 5d3a 3ed0 b3bc
00000160: c2b5 fcbb 7bb0 13bb a0ce 85bb 50a6 823c
00000170: d534 d03c 8664 913c 2d8d 24bb 5035 f3bc
00000180: c233 d9bc 809a 28bc b745 cabc bf1f 96bc
00000190: d554 afbb 80bf 9f3c c8ce 943c ddaa c5bc
000001a0: 131c ec3b 59f6 cb3d d509 4f3d 488f fc3c
000001b0: d580 863c 9a63 953b 05ba 783c 8f0c 9cbc
000001c0: 5617 e5bc beae 23bc 2fa8 edbc 9eab e4bb
000001d0: 7ed3 a5bb 0f0a 4bbb 3b4b d63b b035 cebc
000001e0: 507a f33b c960 0e3e 0f16 f33d 77d4 f23c
000001f0: 5a4d 5b3d bdd6 64bc d164 3fbc cfeb ca3b
00000200: a91b 803b 7f58 ff3b 5c78 5fbe efa8 e8bd
00000210: 31c7 92bd 59f7 38bd 17f3 debd 9dad 593d
00000220: 0132 f53c 290e b93c 7972 f33c ffdd 7e3c
00000230: 2f5b c9bc 8166 853c 6762 e4ba e0de f93c
00000240: 5926 053b c984 ccbc 2dbe c7bc a593 c2bc
00000250: 1216 a83b e243 9bbc 8f2a 32bd 9c78 37bd
00000260: 5031 babb 739f eebc 5ce8 b4bc ef0d bfbb
00000270: d6bc a4bc dc1f c93b d5e8 34ba 2e22 71bc
00000280: 74c8 05bd c775 91bc c1ca 00bd a65d 0abd
00000290: df50 08bc c800 37be d5d3 7dbe a84a 79be
000002a0: 13a9 24be 2fae 86be 17c0 873e 6171 373e
000002b0: 16a4 2bbf 5097 4cbf 30cb b4bd 1f23 4d3c
000002c0: 3098 7b3b 1588 873c 61d2 a73c e690 913c
000002d0: 90cf ac3f d7a4 e73e 2507 d0bd 61c1 12bf
000002e0: af47 5cbf 985f c13c 8620 6fbc 59b8 7f3c
000002f0: 07f3 0abc 6e86 b03c 7d64 3c3d fbe9 753b
00000300: f2b0 48bc ceb7 20bc 1710 83bc 865d 86bc
00000310: 6c72 913a 9819 d2bb 225c 3a39 3d7b 7b3c
00000320: 1e23 98bd 72a4 f3bc 7a62 6bbd f0aa a1bd
00000330: 2ba5 9abd dc14 13bf eaf0 0b3d 87a7 313e
00000340: 8af2 d9bd 6033 98be 0b2b 34bc cd7a d5bc
00000350: e05d 13bc 0e24 47bc c643 a93a 92c3 2dbe
00000360: 701c 94bd b449 8bbd e6bb e3bd 69db 21be
00000370: 3f18 c43d b101 8b3d 065f 6e3d 0466 9b3d
00000380: 47bd b73d 2c1d 7c3c 6eea b3bc b886 2e3c
00000390: 962c 593b c968 85bc 3312 dabf ee8b d03e
000003a0: dd20 6f3f 3143 8b3e 1b53 acbd c521 f2bd
000003b0: d287 dbbd 7fa1 c3bd 6a17 0abe 39c7 39be
000003c0: fc12 96bc c5d7 3e3c 9ddb c2bc 9003 b7bc
000003d0: 417c 93bb 8ae9 8e3c f981 8b3b 2333 893b
000003e0: 86e6 0f3d 88de 0e3d ba68 053d eade 2b3c
000003f0: d726 9a3c d976 fbba 3456 1b3c 7f19 353c

encoder.block1.convblock2.0.pointwise_conv.weight f4 [64, 64, 1]
-0.0012336052 -0.0058881147 0.005537403 -0.00053489726 -0.00043946863 -0.0074120816 0.005184865 -0.0045352047
0.0060759294 -0.0023862931 -0.005086039 -0.011312807 -0.0024491083 0.00044893104 0.0043445397 0.011449878
-0.023556547 0.005777589 -0.012410084 0.006252165 0.0043824194 -0.0041650585 -0.008752989 -0.0023477338
-0.0074210763 -0.00509875 0.0024285149 0.011714355 -0.0030675055 0.000858378 0.0016727673 0.0040503154
0.00683284 -0.009484702 0.016078558 -0.0056032506 0.014666057 -0.00064194924 -0.011274428 -0.0027124975
0.0042565297 0.013618946 0.0023366106 0.011272738 0.00207237 0.0054510194 -0.033839557 -0.002743009
0.0029545184 -0.0018796957 -0.0026577835 -0.004247654 0.006686876 0.0040034065 -0.0009191911 -0.0038886038
0.0006946116 -0.011167654 -0.00078661775 -0.004125311 -0.014302517 0.0012502777 -0.0015006575 -0.0018620455
-0.0044673076 -0.017008694 -0.005669627 -0.007751691 -0.0028346134 0.0055930302 -0.16826804 0.019847373
0.0031128875 0.011643485 -0.18116677 -0.0115584675 -0.00042268177 0.00079153496 0.028715914 -0.8379995
-0.010169296 -0.00023179213 -0.003844773 0.014566135 -0.0017925495 -0.029729182 0.0005012936 0.007419447
-0.12786363 0.007442359 0.09194401 -0.028220309 0.006118861 -0.001181222 0.010045369 -0.0016638775
0.036923476 0.8419181 -0.5781373 0.00029075242 -0.07739847 -0.006271965 2.8312415e-05 -0.0020476847
0.12465681 0.19939312 0.0017276533 0.33742633 -0.15463571 0.0034404765 -0.2244785 0.16142881
-0.006343552 -0.017351227 -0.00015903218 0.006719205 -0.31501713 0.040214818 0.120087944 0.1481688
0.004018914 -0.00032642216 -0.01917081 0.007650789 0.049468137 0.013845704 -0.1847431 0.3887689
-0.000529638 -0.016400106 -0.0048886514 -0.0037016363 -0.00026904175 0.006336845 -0.012876358 0.0098845195
0.0034154407 0.00790641 -0.024394633 -0.014125146 0.0019291005 -0.0011441689 0.0068089417 -0.030654358
-0.117619656 -0.006640427 0.0026321278 0.004183171 0.004467293 -0.012660635 0.0022073353 0.002678398
-0.038995396 -0.0059183543 0.016215166 -0.03764372 -0.005966177 0.0031201094 0.006350305 0.004705788
0.0054696603 0.06872782 -0.07946959 0.00081863935 -0.08491813 -0.007719322 -0.004435909 0.00015788569
0.007552238 0.079073064 0.0028539386 0.04816009 -0.0077148518 -0.0032663322 -0.13920681 0.020718178
0.004828966 -0.007945868 -0.0036099502 -0.0024548392 -0.016465265 0.009138421 0.014111521 0.028972968
-0.0022607541 -0.0047930777 -0.004090584 0.008044773 0.02218049 0.0019848384 -0.020104114 0.08004231
-0.0017639305 -0.0076001543 0.0070954 0.0015158317 -0.003096715 0.0047712307 -0.0019687265 0.0036923771
-0.0029017339 -0.010380933 -0.00096185785 -0.005196392 0.009528317 -0.0010626263 0.0025865834 0.013630371
-0.00072770036 0.007992272 0.0059139864 0.0016593635 0.0105590755 -0.015948832 -0.0039375573 -0.0030903767
0.003815232 0.0017489948 -0.0025706901 0.009639508 -0.0001715717 0.0033860323 0.0076561267 -0.0055153007
0.004867359 0.003369037 0.00062288705 -0.0026035802 -0.006999511 0.0060099503 -0.004677532 0.003460237
-0.0059825582 0.02099587 -0.00045953813 0.0056982227 -0.0018646789 0.004014143 -0.0014445526 -0.0038820698
0.0054018344 0.0056307903 0.0009384614 -0.008480384 0.0031271477 0.008375292 0.011563559 0.001528502
-0.0028737187 -0.0035929543 0.012270301 -0.0039094305 0.0025393162 -0.011427285 -0.0062892223 -0.0106904525
00000000: ecb0 a1ba 16f1 c0bb 1a73 b53b 5938 0cba
00000010: 7b68 e6b9 0ce1 f2bb cde5 a93b 0e9c 94bb
00000020: 9718 c73b 5b63 1cbb caa8 a6bb 5a59 39bc
00000030: 3881 20bb 815e eb39 a45c 8e3b 4598 3b3c
00000040: a9f9 c0bc ee51 bd3b aa53 4bbc f6de cc3b
00000050: 669a 8f3b 0b7b 88bb b268 0fbc 70dc 19bb
00000060: 802c f3bb 6a13 a7bb b827 1f3b 91ed 3f3c
00000070: 3408 49bb c604 613a c240 db3a 82b8 843b
00000080: 04e6 df3b b965 1bbc 2eb7 833c 799b b7bb
00000090: e749 703c 7c48 28ba 61b8 38bc 28c4 31bb
000000a0: 5c7a 8b3b 0022 5f3c d221 193b 4ab1 383c
000000b0: 99d0 073b 779e b23b 599b 0abd 0ec4 33bb
000000c0: 98a0 413b 1f60 f6ba 352e 2ebb e82f 8bbb
000000d0: 951d db3b 022f 833b dff5 70ba f2d7 7ebb
000000e0: 9816 363a 89f8 36bc 0635 4eba 9e2d 87bb
000000f0: 1b55 6abc 5ce0 a33a b6b1 c4ba e10f f4ba
00000100: 7e62 92bb d155 8bbc 47c8 b9bb e601 febb
00000110: ecc4 39bb bd45 b73b 754e 2cbe f596 a23c
00000120: 9601 4c3b 51c4 3e3c c883 39be ba5f 3dbc
00000130: 639b ddb9 037f 4f3a a33d eb3c 2387 56bf
00000140: 1e9d 26bc 3a0d 73b9 96f8 7bbb cca6 6e3c
00000150: fbf3 eaba 9d8a f3bc 3e69 033a d51e f33b
00000160: afee 02be 08df f33b 244d bc3d 472e e7bc
00000170: ba80 c83b 3cd3 9aba 5595 243c 7716 daba
00000180: 123d 173d f287 573f ce00 14bf 2170 9839
00000190: 1783 9ebd 0e85 cdbb 7380 ed37 7332 06bb
000001a0: 124c ff3d b62d 4c3e 6d72 e23a 25c3 ac3e
000001b0: d358 1ebe 9e79 613b b1dd 65be 984d 253e
000001c0: 92dd cfbb 2924 8ebc e0c1 26b9 c72c dc3b
000001d0: ed49 a1be 4bb8 243d abf0 f53d 90b9 173e
000001e0: 18b1 833b a423 abb9 1a0c 9dbc 78b3 fa3b
000001f0: 1a9f 4a3d 17d9 623c 4c2d 3dbe b80c c73e
00000200: 68d7 0aba 8459 86bc fb30 a0bb 2797 72bb
00000210: 2c0e 8db9 4fa5 cf3b 5cf7 52bc aef2 213c
00000220: 96d5 5f3b e389 013c 41d7 c7bc 286d 67bc
00000230: dfd9 fc3a f0f7 95ba 8b1d df3b d91e fbbc
00000240: 93e2 f0bd f097 d9bb c77f 2c3b fb12 893b
00000250: 5f62 923b 8d6e 4fbc f1a8 103b 1088 2f3b
00000260: a3b9 1fbd c1ee c1bb abd5 843c 4d30 1abd
00000270: ec7f c3bb c07a 4c3b 3816 d03b 0333 9a3b
00000280: d63a b33b 2cc1 8c3d f4c0 a2bd f599 563a
00000290: 8ee9 adbd 5ef2 fcbb 1a5b 91bb 1e8e 2539
000002a0: c478 f73b 0ff1 a13d 2509 3b3b 8443 453d
000002b0: decc fcbb f60f 56bb 3b8c 0ebe 2bb9 a93c
000002c0: 4e3c 9e3b 632f 02bc ea94 6cbb 5ee1 20bb
000002d0: 2ae2 86bc 51b9 153c 0234 673c b858 ed3c
000002e0: 2929 14bb 400f 9dbb 4e0a 86bb 39ce 033c
000002f0: dcb3 b53c 1014 023b 62b1 a4bc 39ed a33d
00000300: b033 e7ba b70a f9bb 8780 e83b dfae c63a
00000310: 42f2 4abb fc57 9c3b c005 01bb cffb 713b
00000320: 042b 3ebb ca14 2abc 3025 7cba 7f46 aabb
00000330: a81c 1c3c d247 8bba ab83 293b eb51 5f3c
00000340: 25c3 3eba 05f2 023c 1dca c13b 007f d93a
00000350: f9ff 2c3c 20a7 82bc a006 81bb eb87 4abb
00000360: f908 7a3b 873e e53a 0679 28bb 07ef 1d3c
00000370: ede7 33b9 32e8 5d3b 3fe0 fa3b b2b9 b4bb
00000380: 5e7e 9f3b 10cb 5c3b 3e49 233a d4a0 2abb
00000390: 275c e5bb 1eef c43b fb45 99bb 25c5 623b
000003a0: 5609 c4bb 88ff ab3c 2aee f0b9 28b8 ba3b
000003b0: 3e68 f4ba 1289 833b 2457 bdba 536a 7ebb
000003c0: df01 b13b 7e82 b83b 1403 763a 4ff1 0abc
000003d0: d5f0 4c3b 8538 093c 1575 3d3c 0458 c83a
000003e0: 0055 3cbb c577 6bbb 5f09 493c ae1a 80bb
000003f0: a86a 263b 8239 3bbc d215 cebb 0227 2fbc

encoder.block1.convblock2.1.weight f4 [64]
0.081579626 1.7152646 0.19311234 0.040449362 0.049433865 0.066007845 0.37892783 0.08279704
0.40202433 0.068010435 0.023416514 0.9686778 0.053721514 0.04643083 0.38807768 0.11394851
0.31196815 0.5740158 1.3896984 0.45110452 0.038176555 -0.08579341 0.117426366 0.35309842
0.06636623 0.07560108 0.052480314 0.04725895 0.15929401 0.03416584 0.05316219 0.091394864
0.21561724 0.41247633 0.14129156 0.107969075 0.054531034 0.7235981 1.0340157 0.3670205
0.037974935 0.7180003 0.052507594 0.08365079 0.07323998 0.054500215 0.037699047 0.32909402
0.06714897 0.18391067 0.52349913 0.07317145 0.040084172 0.07594549 0.032603588 0.4207465
0.22109677 0.0009640128 0.42980698 0.07605239 0.6008142 0.13495584 0.022735536 0.5642725
00000000: 3813 a73d ca8d db3f 3ebf 453e 3bae 253d
00000010: 2a7b 4a3d 1f2f 873d d402 c23e 7f91 a93d
00000020: 22d6 cd3e 0e49 8b3d fdd3 bf3c 45fb 773f
00000030: 170b 5c3d 412e 3e3d 1eb2 c63e d65d e93d
00000040: 4aba 9f3e b3f2 123f a3e1 b13f 2cf7 e63e
00000050: 055f 1c3d 75b4 afbd 3c7d f03d 51c9 b43e
00000060: 05eb 873d bdd4 9a3d 99f5 563d 9a92 413d
00000070: f81d 233e 7bf1 0b3d 99c0 593d 3b2d bb3d
00000080: c4ca 5c3e 1930 d33e bcae 103e e41e dd3d
00000090: ef5b 5f3d ba3d 393f a05a 843f 1cea bb3e
000000a0: 9b8b 1b3d dece 373f 3412 573d 1b51 ab3d
000000b0: d8fe 953d 9e3b 5f3d 516a 1a3d 037f a83e
000000c0: 6685 893d 1453 3c3e 0a04 063f eada 953d
000000d0: 4d2f 243d 4f89 9b3d 578b 053d 166c d73e
000000e0: 3167 623e ceb5 7c3a a90f dc3e 5bc1 9b3d
000000f0: f6ce 193f dd31 0a3e e03f ba3c 2a74 103f

encoder.block1.convblock2.1.bias f4 [64]
0.0025664596 -0.22681147 -0.16666752 -0.08340894 -0.0132743055 -0.020640852 0.13297729 -0.03529302
-0.22257993 -0.0997172 -0.09983217 -0.09056328 -0.005022384 -0.023556601 -0.7185089 -0.043622345
-0.6446626 -0.34967774 -0.6789648 -0.37584966 -0.040028896 -0.4301077 -0.07525888 -0.109483406
-0.03971304 -0.06447421 -0.2665239 0.0026650303 -0.0025981262 -0.02493939 -0.280346 -0.024652125
-0.015857266 -0.06898334 -0.21988927 -0.04336126 -0.07686251 -0.37010995 -0.14484598 0.16046616
-0.008608766 -0.42149252 -0.0121855885 -0.083091326 -0.033679504 -0.041594144 -0.011735129 -0.23771721
-0.031834967 0.07200728 -0.9688598 -0.12320107 -0.01665721 -0.04397585 -0.0107390685 0.19240847
0.061481293 -0.012801928 -0.21143223 -0.10289274 0.21125796 -0.020548405 -0.07300494 0.1741175
00000000: 0c32 283b 4441 68be e4aa 2abe 4ed2 aabd
00000010: 797c 59bc 0117 a9bc 332b 083e 6a8f 10bd
00000020: feeb 63be 8838 ccbd cf74 ccbd 3e79 b9bd
00000030: d092 a4bb c6f9 c0bc 33f0 37bf 58ad 32bd
00000040: 9c08 25bf f608 b3be a3d0 2dbf 5e6f c0be
00000050: 57f5 23bd 1437 dcbe 5421 9abd d638 e0bd
00000060: 24aa 22bd 0e0b 84bd d275 88be caa7 2e3b
00000070: 5345 2abb b14d ccbc 8389 8fbe 41f3 c9bc
00000080: 19e7 81bc 2347 8dbd a72a 61be 949b 31bd
00000090: 176a 9dbd 0d7f bdbe 8152 14be 3e51 243e
000000a0: c80b 0dbc decd d7be 10a6 47bc c92b aabd
000000b0: 85f3 09bd 9f5e 2abd b344 40bc 246c 73be
000000c0: 6265 02bd 8e78 933d 3207 78bf d850 fcbd
000000d0: b474 88bc 0520 34bd ebf2 2fbc ba06 453e
000000e0: cfd3 7b3d 2ebf 51bc b181 58be 6eb9 d2bd
000000f0: 0254 583e 2155 a8bc 9d83 95bd dc4b 323e

encoder.block1.convblock2.1.running_mean f4 [64]
0.012240793 -0.36493683 -0.067130536 -0.005505757 -0.0027837902 0.004757372 -0.0034161273 0.0061939503
0.06444294 -0.038515672 0.004793574 -0.35734272 0.015248802 0.0011155983 0.30643606 0.027172867
0.0090880515 -0.17325407 -0.45272762 -0.039216142 -0.027341774 -0.06360452 0.009444789 0.06130448
0.007619204 -0.014086395 -0.009102378 0.009710476 0.004760251 -0.02342564 -0.04298482 0.02479365
-0.05117458 0.12908776 0.013073547 0.0031507176 -0.014083355 -0.7414768 -0.28649098 -0.0961915
-0.0008545022 -0.28403157 0.030813787 0.019134155 -0.00090885285 -0.008533009 -0.02369028 0.13199368
-0.013737016 -0.14923549 -0.09728855 0.024930252 0.007743486 -0.012349629 -0.008540761 -0.16305926
0.03937434 0.020811645 -0.10868001 -0.022922788 -0.30749118 0.017338052 0.0090053715 -0.11628357
00000000: 9b8d 483c 00d9 babe bc7b 89bd a369 b4bb
00000010: 4070 36bb bbe3 9b3b 1be1 5fbb 9ff6 ca3b
00000020: a9fa 833d 9cc2 1dbd 6a13 9d3b a0f5 b6be
00000030: 1cd6 793c 4439 923a 30e5 9c3e a299 de3c
00000040: 0de6 143c 8469 31be eacb e7be 1ba1 20bd
00000050: dbfb dfbc 1643 82bd 51be 1a3c 681a 7b3d
00000060: 84aa f93b 9fca 66bc 2422 15bc b018 1f3c
00000070: e1fb 9b3b 21e7 bfbc da10 30bd 0d1c cb3c
00000080: 709c 51bd 952f 043e 6e32 563c 457c 4e3b
00000090: dfbd 66bc 6cd1 3dbf f2ae 92be 0d00 c5bd
000000a0: ac00 60ba 966c 91be 326d fc3c 3bbf 9c3c
000000b0: 1540 6eba 09ce 0bbc 1e12 c2bc 5a29 073e
000000c0: 3911 61bc 30d1 18be 383f c7bd 873a cc3c
000000d0: 12bd fd3b 1956 4abc 8cee 0bbc 02f9 26be
000000e0: fd46 213d 2f7d aa3c a093 debd 92c8 bbbc
000000f0: 7c6f 9dbe 8808 8e3c 448b 133c 1526 eebd

encoder.block1.convblock2.1.running_var f4 [64]
2.88474e-05 0.87000716 0.017878823 3.5434332e-05 1.692252e-05 2.732871e-05 0.02531104 0.00029998214
0.017759005 0.00014463186 1.9323812e-05 0.4807502 0.000108059365 0.00015536729 0.04859708 0.00015436021
0.011562311 0.20006183 0.22231995 0.13176577 0.005001839 0.0015886396 0.0013250104 0.0032438317
0.00033405304 0.001633901 0.0032565554 2.7766064e-05 0.0009371084 0.00025487534 0.001120718 0.0017128402
0.0019186547 0.027818186 0.0031975335 0.0006144183 0.0010629124 0.04490789 0.37325743 0.03639546
0.0001075801 0.4162157 0.00068829523 0.0016497633 0.0002599898 0.0003787653 0.0003263997 0.006229135
0.0006023777 0.0021923613 0.18174203 0.0005163117 8.083663e-05 0.0016899576 3.2196513e-05 0.05338363
0.00061719434 0.00042724516 0.2270211 0.0021625436 0.037404295 0.00069790886 0.005035714 0.052292705
00000000: 52fd f137 cab8 5e3f 9c76 923c 539f 1438
00000010: d6f4 8d37 f53f e537 1959 cf3c ec46 9d39
00000020: 557b 913c 52a8 1739 9219 a237 e424 f63e
00000030: ee9d e238 17ea 2239 bb0d 473d c1db 2139
00000040: d96f 3d3c 02dd 4c3e d7a7 633e 9bed 063e
00000050: 77e6 a33b e639 d03a f9ab ad3a 7796 543b
00000060: d723 af39 9f28 d63a ef6b 553b 2beb e837
00000070: 48a8 753a caa0 8539 0ee5 923a 6181 e03a
00000080: 5e7b fb3a f7e2 e33c b68d 513b ea10 213a
00000090: 6c51 8b3a 56f1 373d 991b bf3e 6813 153d
000000a0: a09c e138 391a d53e b66e 343a df3c d83a
000000b0: 3e4f 8839 0595 c639 a020 ab39 c61d cc3b
000000c0: e2e8 1d3a b8ad 0f3b 951a 3a3e 1759 073a
000000d0: d686 a938 9181 dd3a be0a 0738 cba8 5a3d
000000e0: 36cb 213a e0ff df39 3878 683e 76b9 0d3b
000000f0: 3f35 193d dff3 363a a102 a53b e030 563d

encoder.block1.convblock3.0.depthwise_conv.weight f4 [64, 1, 3]
-0.016838312 -0.023051945 -0.058645416 0.19807081 0.29558086 0.5942346 0.11318588 0.080388255
0.1449033 0.0054318598 0.034952827 0.00508355 -0.024089025 -0.025529781 0.0049216896 0.03020444
0.036335044 -0.00102649 0.15441138 0.20138551 0.28103685 -0.03777788 -0.032325175 -0.04795924
0.051269196 0.09907828 0.16264893 -0.026022984 -0.03417655 -0.013258733 -0.0136176385 -0.026190031
-0.017855803 -0.16402204 -0.21324898 -0.40882102 0.019442542 0.029845664 0.01612552 0.018677507
0.0040093167 0.01181324 0.12559025 0.036606565 -0.025924405 -0.054857716 -0.06376882 -0.05655545
0.10818359 0.0015635588 0.06840049 0.6612859 -0.07535572 0.29968888 -0.4004622 -0.44633064
-0.45947033 0.05269918 -0.23895341 -0.073836744 -0.008349876 -0.04379221 -0.000789336 0.016234456
-0.0019520588 0.0401672 -0.06383847 -0.068703525 -0.02467258 -0.19641046 -0.22033449 -0.17856494
0.0039943988 0.041477643 0.042240348 -0.046915412 -0.028839312 -0.0377865 0.029999297 0.042143606
0.068487085 0.012898001 -0.03167936 -0.0066105123 -0.13911617 -0.04400843 0.03872778 -0.004039744
0.026101848 -0.0040610037 -0.025530675 -0.05734419 -0.031455092 0.05064873 0.0075174114 0.05231303
-0.08248251 -0.087976575 -0.15584803 0.19603969 0.24083804 0.18826438 -0.120453686 -0.10768758
-0.120829 0.06864127 0.053715013 0.04565458 0.024887955 0.020950353 0.041961137 -0.4831812
-0.22238037 -0.17330551 1.0578486 -0.37411392 0.1418055 -0.23596013 -0.22110084 -0.13216126
0.018052517 0.016215222 -0.012069935 0.22089027 -0.6738319 -0.051409017 -0.010571469 0.024666516
0.023745975 0.04834055 0.04179778 0.03843972 0.036983874 0.054242738 0.0013885914 0.029109627
0.03888462 0.0053935465 -0.0080869235 -0.013741633 -0.01506701 -0.12125112 -0.16326945 -0.11546578
0.031125544 0.03621396 0.012126376 -0.14177144 -0.12559687 -0.0034723948 -0.33477983 -0.2753982
-0.08911241 0.008849479 0.022891868 0.045949806 -0.004073594 0.013842068 -0.0041446434 0.03607379
0.013797318 0.042615104 -0.008775763 -0.018284412 0.021172583 0.08039155 -0.14301321 -0.3576662
0.09747348 0.04978989 -0.20083901 -0.007627129 0.013595642 0.0056400998 -0.15789114 -0.01776324
0.12009161 -0.036029167 -0.025893187 -0.034472227 0.0762107 -0.33596864 -0.19912468 -0.07975029
-0.050256606 -0.054912172 -0.010556719 0.026205208 0.03063998 -0.16466072 -0.22142597 -0.47274116
00000000: 80f0 89bc 6fd7 bcbc 2d36 70bd 13d3 4a3e
00000010: 6056 973e c21f 183f 00ce e73d 99a2 a43d
00000020: 8861 143e befd b13b b22a 0f3d e893 a63b
00000030: 5956 c5bc d523 d1bc 2046 a13b 4d6f f73c
00000040: 0ed4 143d 4a8b 86ba 041e 1e3e 0138 4e3e
00000050: 10e4 8f3e fabc 1abd 6767 04bd e870 44bd
00000060: a6ff 513d 8ee9 ca3d 718d 263e 272e d5bc
00000070: b6fc 0bbd 283b 59bc 841c 5fbc 7a8c d6bc
00000080: 5546 92bc 65f5 27be f15d 5abe fd50 d1be
00000090: f745 9f3c e57e f43c ab19 843c 9201 993c
000000a0: 9660 833b 528c 413c bb9a 003e c4f0 153d
000000b0: 6b5f d4bc 7cb2 60bd 3a99 82bd b0a6 67bd
000000c0: 5c8f dd3d 54f0 cc3a 8e15 8c3d 084a 293f
000000d0: 1a54 9abd d270 993e 6209 cdbe 7385 e4be
000000e0: b23f ebbe 18db 573d 34b0 74be b837 97bd
000000f0: ebcd 08bc 765f 33bd 71eb 4eba 1ffe 843c
00000100: 39dc ffba 5d86 243d bebd 82bd 6fb4 8cbd
00000110: 271e cabc d31f 49be 5d9f 61be bad9 36be
00000120: 72e3 823b 76e4 293d 3704 2d3d 602a 40bd
00000130: 6c40 ecbc 04c6 1abd 16c1 f53c c69e 2c3d
00000140: f542 8c3d 2352 533c 37c2 01bd ff9c d8bb
00000150: 7874 0ebe 2f42 34bd 05a1 1e3d d45f 84bb
00000160: 8bd3 d53c 2b12 85bb b525 d1bc bee1 6abd
00000170: 0ed7 00bd 0b75 4f3d 9e54 f63b 3046 563d
00000180: 97ec a8bd 102d b4bd a096 1fbe a1be 483e
00000190: 3f9e 763e 61c8 403e 6cb0 f6bd 4e8b dcbd
000001a0: 3275 f7bd cb93 8c3d 4604 5c3d 4c00 3b3d
000001b0: d3e1 cb3c 13a0 ab3c 71df 2b3d 8763 f7be
000001c0: aeb7 63be 0077 31be 9567 873f dc8b bfbe
000001d0: 7635 113e 889f 71be 4268 62be 4855 07be
000001e0: dfe2 933c c9d5 843c fac0 45bc 0f31 623e
000001f0: 3f80 2cbf 4392 52bd f433 2dbc 6f11 ca3c
00000200: eb86 c23c be00 463d 2634 2b3d f872 1d3d
00000210: 677c 173d a22d 5e3d 6501 b63a 5077 ee3c
00000220: 7b45 1f3d 59bc b03b 047f 04bc 9624 61bc
00000230: 9fdb 76bc 8252 f8bd 1b30 27be 5379 ecbd
00000240: fffa fe3c 1755 143d b5ad 463c 882c 11be
00000250: 779c 00be 1e91 63bb 4368 abbe fe00 8dbe
00000260: 9180 b6bd 68fd 103c ba87 bb3c dd35 3c3d
00000270: c97b 85bb d7c9 623c cacf 87bb 1cc2 133d
00000280: 250e 623c 2d8d 2e3d 38c8 0fbc 31c9 95bc
00000290: 2072 ad3c 53a4 a43d 0e72 12be 0620 b7be
000002a0: 2da0 c73d 7cf0 4b3d bea8 4dbe ffec f9bb
000002b0: 41c0 5e3c 96d0 b83b 37ae 21be 3784 91bc
000002c0: 97f2 f53d 5293 13bd f31d d4bc c032 0dbd
000002d0: 5b14 9c3d 1504 acbe 57e7 4bbe 1f54 a3bd
000002e0: dfd9 4dbd 96eb 60bd 17f6 2cbc 4eac d63c
000002f0: b200 fb3c d29c 28be 7dbd 62be 210b f2be

encoder.block1.convblock3.0.pointwise_conv.weight f4 [64, 64, 1]
0.012831442 -0.0150560215 -0.029586112 0.008397549 -0.00073880143 -0.003262559 -0.000992692 -0.005281111
0.04272236 -0.005239538 -0.000849685 -0.057096865 -0.005025015 0.0067967344 -0.032625612 -0.012130267
-0.06487454 -0.0015654694 -0.00945889 -0.04567919 0.0044105486 -0.0039715157 -0.005777505 0.0010539179
-0.0052362825 -0.0102987345 -0.021023912 -0.004286396 -0.01815301 0.006831053 -0.002863323 0.008744223
-0.027142113 0.010398156 -0.008164184 0.004369635 -0.0027030187 -0.05917822 0.015438014 0.0015371216
0.0076235854 -0.0035152973 0.01225467 0.009487538 0.00165996 0.0014960185 -0.0013215184 0.010487198
0.008291142 -0.0013591449 0.011225962 0.0142670255 -0.00048220466 0.009881869 -0.0008853832 -0.026871627
0.0019189686 -0.0016950775 0.0037433533 -0.027277146 -0.0020516526 0.020797562 -0.028040871 -0.012530233
0.0045820493 -0.07841651 0.005570973 -0.0048608817 -0.00012565861 -0.004661247 -0.007115315 0.0035874625
-6.691872e-06 0.0032904744 0.0071665654 -0.011907345 0.001989215 -0.0045721196 0.043659534 0.0026548388
0.0029005243 0.037234392 -0.03801536 0.015670989 -0.0015920049 -0.0037043225 0.0022550558 0.00065313163
0.006553321 -0.0075321733 -0.00277198 -0.0039008926 -0.0036274672 0.0033523154 -0.009963776 -0.0042979266
0.025974369 0.014131682 0.009648951 0.007282953 0.002214062 0.052083194 0.03217383 0.059425827
0.005961433 -0.08701812 -0.0033923164 -0.0020331752 0.003104527 0.0023626918 -0.0026528975 0.013235731
0.0007659234 -0.010883296 -0.056574967 -0.012176502 -0.0024557377 0.0005667919 -0.0011573929 -0.10347223
-0.0030174213 0.0005634602 0.030275302 0.00037731827 0.05861726 -0.0025338077 -0.0008730699 -0.08362801
0.0020861053 0.009020033 -0.07464162 -0.0014033477 0.0069237505 -0.0025989355 -0.013367067 0.0040641124
-0.022465294 0.006562902 -0.004339098 0.05969341 -0.0009555667 -0.002706782 0.033858396 -0.0057232752
-0.009254097 -0.0795314 0.014556747 0.13155033 0.0011588574 0.0006130754 -0.0061862394 0.008650686
-0.0010723529 -0.0011021943 0.0035024362 0.0014308997 0.018878447 -0.006587478 -0.00030927945 0.0055082943
0.03315962 -0.022570772 -0.030954808 -0.002565916 0.0058732764 0.08127883 -0.046310667 0.07378763
-0.003810902 -0.097614266 -0.006491991 0.004347124 0.0018472773 -0.0064077424 0.0021351625 0.0068781087
-0.0038369652 0.014456512 -0.08669813 0.0073001157 -0.0010800334 0.0035340423 0.0061981836 0.038877234
-0.013195111 -0.0038766225 -0.028822571 -0.003004991 0.15525892 0.01721826 -0.007365291 0.00295852
0.00093847536 -0.24110156 -0.012308917 -0.0073339725 0.0041498872 -0.009095995 -0.049894407 -0.01144027
-0.028258333 0.013373395 0.007564102 0.18319613 -0.0042779054 0.003166245 0.03380269 -0.015036612
0.017800242 0.09774083 0.13491891 0.035993118 -0.011629071 -0.017770037 -0.02249019 0.044271905
0.012631264 -0.01811545 -0.008571427 0.000977181 -0.017928584 -0.01835944 0.00321852 0.021162407
0.04088088 0.003871594 -0.017814655 0.02992333 0.020845158 0.16842441 -0.071478225 0.08015268
0.0028041182 -0.0014263714 0.008804734 0.019850623 0.012013922 0.01888604 0.009389637 0.091019355
0.00811735 0.05447343 -0.096093945 0.028500685 0.003491976 0.019781291 0.0030027083 0.06421351
0.0005356013 0.013099153 0.004326336 -0.008241012 0.23375396 -0.006491377 -0.009150427 0.12323998
00000000: f83a 523c 88ad 76bc 935e f2bc e095 093c
00000010: 20ac 41ba a8d0 55bb 371d 82ba 2c0d adbb
00000020: a4fd 2e3d 6eb0 abbb 65bd 5eba 67de 69bd
00000030: e2a8 a4bb 24b7 de3b 6fa2 05bd 07be 46bc
00000040: f1dc 84bd 7030 cdba 76f9 1abc 1a1a 3bbd
00000050: 5d86 903b 7d23 82bb 3a51 bdbb 9e23 8a3a
00000060: 1f95 abbb 06bc 28bc 573a acbc e574 8cbb
00000070: 9fb5 94bc 07d7 df3b 97a6 3bbb ee43 0f3c
00000080: 2359 debc 075d 2a3c 12c3 05bc 282f 8f3b
00000090: 2125 31bb dc64 72bd b9ef 7c3c 3e79 c93a
000000a0: 45cf f93b e760 66bb d0c7 483c 9e71 1b3c
000000b0: 0493 d93a 0d16 c43a cd36 adba 7fd2 2b3c
000000c0: 92d7 073c 5625 b2ba 19ed 373c 3ec0 693c
000000d0: 6ad0 fcb9 90e7 213c 1019 68ba e321 dcbc
000000e0: e785 fb3a 5d2d deba 0c53 753b 5274 dfbc
000000f0: 0575 06bb a65f aa3c f8b5 e5bc 9b4b 4dbc
00000100: 0425 963b d698 a0bd b58c b63b 0848 9fbb
00000110: 3ac3 03b9 60bd 98bb 9727 e9bb a21b 6b3b
00000120: be8a e0b6 00a5 573b 82d5 ea3b 0617 43bc
00000130: 7d5d 023b b8d1 95bb 57d4 323d cefc 2d3b
00000140: b916 3e3b 1783 183d feb5 1bbd 7260 803c
00000150: d2aa d0ba 38c4 72bb 8fc9 133b ec36 2b3a
00000160: 3ebd d63b 73d0 f6bb 1baa 35bb 1ea6 7fbb
00000170: cdba 6dbb 85b2 5b3b 1b3f 23bc 9fd5 8cbb
00000180: 33c8 d43c 9288 673c a216 1e3c d6a5 ee3b
00000190: cc19 113b 3055 553d b5c8 033d 7f68 733d
000001a0: 2058 c33b 8e36 b2bd a051 5ebb 053f 05bb
000001b0: 5275 4b3b 64d7 1a3b 3cdc 2dbb aeda 583c
000001c0: 40c8 483a da4f 32bc 27bb 67bd f37f 47bc
000001d0: 71f0 20bb c394 143a a9b3 97ba 40e9 d3bd
000001e0: eebf 45bb 2db5 133a e903 f83c cdd2 c539
000001f0: a718 703d 3d0e 26bb bbde 64ba 2945 abbd
00000200: 0ab7 083b c3c8 133c b5dd 98bd 89f0 b7ba
00000210: a1e0 e23b e752 2abb 8b01 5bbc 3f2c 853b
00000220: 2309 b8bc 9d0d d73b fe2e 8ebb 1481 743d
00000230: ff7e 7aba 4464 31bb 1aaf 0a3d 508a bbbb
00000240: 7f9e 17bc 5ce1 a2bd 6c7f 6e3c 21b5 063e
00000250: cde4 973a cbb6 203a f0b5 cabb 9bbb 0d3c
00000260: 318e 8cba 8177 90ba 2189 653b 078d bb3a
00000270: f9a6 9a3c c5db d7bb c926 a2b9 ec7e b43b
00000280: 62d2 073d 57e6 b8bc f094 fdbc ed28 28bb
00000290: 9d74 c03b 8475 a63d 41b0 3dbd f81d 973d
000002a0: 53c0 79bb fde9 c7bd c5ba d4bb 5272 8e3b
000002b0: 5720 f23a 0af8 d1bb 15ee 0b3b c261 e13b
000002c0: 9875 7bbb 02db 6c3c ca8e b1bd cf35 ef3b
000002d0: e88f 8dba 649b 673b 221a cb3b bc3d 1f3d
000002e0: 4f30 58bc ef0e 7ebb 501d ecbc 62ef 44bb
000002f0: 32fc 1e3e 4f0d 8d3c 8a58 f1bb bbe3 413b
00000300: 0404 763a 54e3 76be 57ab 49bc d251 f0bb
00000310: c7fb 873b 5e07 15bc 145e 4cbd f86f 3bbc
00000320: 057e e7bc 161c 5b3c 49dc f73b c497 3b3e
00000330: ac2d 8cbb c780 4f3b b174 0a3d 1f5c 76bc
00000340: d0d1 913c 582c c83d 2f28 0a3e 856d 133d
00000350: dc87 3ebc 7892 91bc 593d b8bc 7556 353d
00000360: 5cf3 4e3c da66 94bc 2c6f 0cbc c114 803a
00000370: f7de 92bc 8966 96bc ceed 523b c95c ad3c
00000380: b672 273d 92ba 7d3b 0af0 91bc c521 f53c
00000390: 77c3 aa3c 7377 2c3e 2d63 92bd 1727 a43d
000003a0: 4cc5 373b 15f5 baba bb41 103c c69d a23c
000003b0: 0bd6 443c e6b6 9a3c fed6 193c 5b68 ba3d
000003c0: a2fe 043c 881f 5f3d e7cc c4bd 457a e93c
000003d0: a3d9 643b 600c a23c 16c9 443b 5f82 833d
000003e0: 9867 0c3a d49d 563c f0c3 8d3b 4f05 07bc
000003f0: 335d 6f3e 9eb5 d4bb aceb 15bc 3e65 fc3d

encoder.block1.convblock3.1.weight f4 [64]
0.13305955 0.24405102 0.15694958 0.50100905 0.12284586 0.25469992 0.7382664 0.2659122
0.26975378 0.6736502 0.15932465 0.12572391 0.7230253 0.882128 0.8153834 0.92804563
0.049436174 0.54170215 0.9141623 0.5584995 0.15919104 0.2655583 0.49092212 0.21714076
0.383418 0.45946854 0.8476322 0.07495136 0.17489515 0.6176447 0.24856547 0.055018578
0.12775481 0.11464551 0.07247945 0.3036406 0.5929257 0.47181496 0.43572044 0.051949
0.04476874 0.45460266 0.39143196 0.2874149 0.5344813 0.07107528 0.3808908 0.15664771
0.27117133 0.18009707 0.14594752 0.12271399 0.4734434 0.10083716 0.18350403 0.18834005
0.11946653 0.06151027 0.51881164 0.6994709 0.050461072 0.3064645 0.14699411 0.21003293
00000000: c340 083e 83e8 793e 64b7 203e 2142 003f
00000010: 9c96 fb3d 0768 823e 07ff 3c3f a525 883e
00000020: 2b1d 8a3e 5774 2c3f 0026 233e c5bd 003e
00000030: 3018 393f 24d3 613f f7bc 503f 6694 6d3f
00000040: 967d 4a3d feac 0a3f 8a06 6a3f d3f9 0e3f
00000050: fa02 233e 42f7 873e 255a fb3e 265a 5e3e
00000060: 5d4f c43e 763f eb3e 6dfe 583f 1980 993d
00000070: b717 333e f71d 1e3f f287 7e3e 295b 613d
00000080: 28d2 023e 44cb ea3d 1b70 943d c876 9b3e
00000090: fbc9 173f bb91 f13e c016 df3e 7ac8 543d
000000a0: 6d5f 373d aec1 e83e c569 c83e 0c28 933e
000000b0: c4d3 083f eb8f 913d 1e04 c33e 4268 203e
000000c0: f8d6 8a3e 5e6b 383e 4473 153e 7951 fb3d
000000d0: 2c67 f23e b783 ce3d 7be8 3b3e 37dc 403e
000000e0: deaa f43d 31f2 7b3d d7d0 043f 8610 333f
000000f0: 45b0 4e3d eae8 9c3e a085 163e df12 573e

encoder.block1.convblock3.1.bias f4 [64]
-0.032093376 0.06452674 -0.08441 -0.37587315 -0.05497676 -0.16800107 -0.30895966 -0.18937437
0.08248639 -0.20658635 -0.009496315 0.041044988 -0.041313797 -0.27478927 -0.11843651 -0.32608175
-0.03761225 -0.20004246 -0.34937024 -0.19772999 -0.11191095 -0.17530937 -0.03794505 0.03328522
-0.26090157 -0.1482378 -0.07425625 -0.010989607 -0.10010044 -0.023783896 -0.041243833 -0.0055252304
-0.06597106 -0.05153959 -0.077061124 -0.09696986 -0.21696764 -0.18112774 -0.18350083 0.014577527
-0.053880617 -0.20677887 -0.18416399 0.053765792 0.033354975 0.00037929535 -0.20537327 -0.045465924
-0.05010664 -0.12496945 -0.37527934 -0.042127397 -0.28427294 -0.077275075 0.061691187 -0.009891689
-0.01577259 -0.0658123 -0.20568009 -0.02189825 -0.052914087 0.106564 -0.0054680575 -0.08744852
00000000: 5874 03bd 9826 843d 26df acbd 7272 c0be
00000010: 502f 61bd 7908 2cbe f62f 9ebe 5beb 41be
00000020: a0ee a83d 5f8b 53be 6f96 1bbc ca1e 283d
00000030: a838 29bd 2eb1 8cbe d78e f2bd 30f4 a6be
00000040: 4d0f 1abd eed7 4cbe a8e0 b2be bb79 4abe
00000050: 9131 e5bd 4d84 33be 456c 1bbd 1556 083d
00000060: e494 85be a6cb 17be a913 98bd c10d 34bc
00000070: 7601 cdbd 72d6 c2bc 4bef 28bd fe0c b5bb
00000080: d61b 87bd 2d1b 53bd 39d2 9dbd 2298 c6bd
00000090: c42c 5ebe 8d79 39be a4e7 3bbe 94d6 6e3c
000000a0: ecb1 5cbd d7bd 53be 7c95 3cbe 8539 5c3d
000000b0: 3a9f 083d 29dc c639 5f4d 52be 7a3a 3abd
000000c0: 9f3c 4dbd fcef ffbd 9d24 c0be c78d 2cbd
000000d0: 398c 91be 6542 9ebd e6af 7c3d c010 22bc
000000e0: 8535 81bc 99c8 86bd cd9d 52be f563 b3bc
000000f0: 71bc 58bd 3a3e da3d 642d b3bb 3618 b3bd

encoder.block1.convblock3.1.running_mean f4 [64]
0.010800755 -0.0025263904 -0.04974504 -0.20446055 -0.021617211 -0.12949216 -0.25295803 -0.1489339
-0.0921468 -0.3338621 -0.012494589 -0.005313921 -0.20884229 -0.26860723 0.02618408 0.024551585
0.0020035717 -0.095857956 0.11038538 0.13693213 -0.059199598 0.08735592 -0.1646653 0.028938731
-0.11968757 0.026108535 -0.2978151 0.005907807 -0.063555196 -0.22742039 -0.005104263 0.0026098713
-0.070731536 0.023138838 -0.00775547 -0.05762158 -0.13846186 0.01091867 -0.15795746 -0.0051943627
-0.019971719 -0.057482004 -0.17898162 -0.06599847 -0.03614892 0.0028683501 -0.19146092 0.027589288
0.07194244 -0.0721381 -0.041770764 -0.03349775 -0.30887195 -0.02298025 -0.021560274 0.030411337
-0.0050339787 -0.017945549 -0.117435634 -0.3098188 -0.0056230775 -0.10041212 -0.020905623 -0.022812603
00000000: a6f5 303c cc91 25bb 74c1 4bbd 1b5e 51be
00000010: 9416 b1bc 9899 04be b783 81be 2182 18be
00000020: 76b7 bcbd f9ef aabe 1bb6 4cbc 6620 aebb
00000030: c1da 55be e386 89be ff7f d63c 6820 c93c
00000040: 5b4e 033b 2d51 c4bd bb11 e23d f037 0c3e
00000050: 477b 72bd a9e7 b23d 059e 28be eb10 ed3c
00000060: c21e f5bd 91e1 d53c 397b 98be 4796 c13b
00000070: 3a29 82bd e4e0 68be a941 a7bb 600a 2b3b
00000080: b2db 90bd a98d bd3c 9921 febb 9b04 6cbd
00000090: f2c8 0dbe 39e4 323c 9abf 21be 7935 aabb
000000a0: bb9b a3bc 4072 6bbd f546 37be 352a 87bd
000000b0: e410 14bd eefa 3b3b 550e 44be ee02 e23c
000000c0: 8f56 933d 24bd 93bd d217 2bbd f034 09bd
000000d0: 7724 9ebe 1441 bcbc 2c9f b0bc 3221 f93c
000000e0: 13f4 a4bb 8b02 93bc 1882 f0bd 92a0 9ebe
000000f0: cb41 b8bb dfa4 cdbd 4542 abbc 7fe1 babc

encoder.block1.convblock3.1.running_var f4 [64]
7.532027e-05 7.908557e-05 0.0020918304 0.012702924 0.000443141 0.005177998 0.019326793 0.0036923275
0.0028922432 0.023579912 0.00042476956 0.00012366008 0.032557677 0.0129389735 0.043235276 0.005769083
4.8715947e-06 0.0018710449 0.01603878 0.0039456114 0.001538432 0.003761334 0.0042824736 0.0024265798
0.008313975 0.0027199432 0.030307937 6.9135865e-05 0.0010249921 0.026118217 0.0005092256 2.1159956e-05
0.0015403774 4.597973e-05 2.8050137e-05 0.0005920122 0.020948634 0.00093155185 0.0114536695 1.1791501e-05
0.00020845066 0.012055039 0.0070083956 0.0040594977 0.005592832 8.367369e-05 0.011331978 0.00022753215
0.0030041998 0.0033984915 0.0003920829 0.00037524712 0.025922203 0.00020933586 0.0019806956 0.0022236689
0.00031752215 0.0003427404 0.0096210465 0.038758796 1.1259122e-05 0.008994011 0.00057756156 0.00033801014
00000000: 43f5 9d38 beda a538 1717 093b ed1f 503c
00000010: 6155 e839 32ac a93b 3953 9e3c fafa 713b
00000020: ca8b 3d3b a92a c13c 9bb3 de39 c0aa 0139
00000030: 335b 053d fdfd 533c 7917 313d 930a bd3b
00000040: ae76 a336 d93d f53a c263 833c 304a 813b
00000050: 36a5 c93a b780 763b fe53 8c3b 4107 1f3b
00000060: 5737 083c 1341 323b 5a48 f83c 09fd 9038
00000070: 0759 863a dff5 d53c 8d7d 053a a980 b137
00000080: 7de6 c93a 5cda 4038 364d eb37 4431 1b3a
00000090: 789c ab3c 6333 743a 2ca8 3b3c 1cd4 4537
000000a0: 8c93 5a39 8082 453c afa6 e53b 8905 853b
000000b0: 1344 b73b f879 af38 c3a9 393c b295 6e39
000000c0: 1ce2 443b 3ab9 5e3b 7a90 cd39 d1bc c439
000000d0: cd5a d43c 2b81 5b39 8fce 013b f9ba 113b
000000e0: 1a79 a639 d6b1 b339 98a1 1d3c 8bc1 1e3d
000000f0: 90e5 3c37 9e5b 133c 8067 173a f436 b139

encoder.block1.shortcut.0.weight f4 [64, 1, 1]
0.020999398 0.04285313 -0.015852772 -0.001194151 -0.05059678 0.016745886 -0.046943344 -0.04491263
-0.016490445 0.026823038 0.02661746 0.016025245 -0.025890086 0.017723715 -0.049541548 -0.018755948
-0.03135737 0.048828777 -0.03045111 0.0075481217 -0.019881932 -0.004803726 0.0036765924 0.005990104
-0.04004098 0.027080035 -0.002321205 0.0049791825 0.035775777 0.01897118 0.0175094 0.052004665
0.033237074 -0.051111624 0.021441841 -0.0153774945 -0.04384512 -0.04959939 -0.0035931705 -0.049525164
-0.028182505 0.03635106 -0.030805387 0.030014014 -0.029605262 -0.024106266 0.048923776 -0.033062186
0.04141503 -0.032259528 0.028650977 -0.04956368 -0.043161422 0.023251697 -0.020272827 -0.022777544
0.04525536 -0.0024502217 0.03282406 -0.009296928 0.011309741 0.0071262894 0.040720798 -0.0029554944
00000000: ee06 ac3c c386 2f3d acdd 81bc 0f85 9cba
00000010: 923e 4fbd ab2e 893c aa47 40bd 4ef6 37bd
00000020: f816 87bc fdbb db3c dc0c da3c 6047 833c
00000030: 7217 d4bc 5331 913c 14ec 4abd 13a6 99bc
00000040: 9670 00bd af00 483d 9b74 f9bc 3c56 f73b
00000050: 6fdf a2bc 9368 9dbb fcf2 703b a248 c43b
00000060: 0302 24bd f3d6 dd3c 5c1f 18bb 6928 a33b
00000070: 9f89 123d 7369 9b3c e06f 8f3c d802 553d
00000080: 9923 083d 6c5a 51bd cda6 af3c e3f1 7bbc
00000090: f196 33bd bb28 4bbd 667b 6bbb e6da 4abd
000000a0: ffde e6bc d9e4 143d 945b fcbc f3df f53c
000000b0: bc86 f2bc 817a c5bc 4c64 483d 376c 07bd
000000c0: cea2 293d 9122 04bd 74b5 ea3c 4903 4bbd
000000d0: 08ca 30bd 587a be3c 3313 a6bc f997 babc
000000e0: af5d 393d e693 20bb 8672 063d 2452 18bc
000000f0: 7e4c 393c a683 e93b daca 263d f8b0 41bb

encoder.block1.shortcut.1.weight f4 [64]
0.052646264 0.0678707 0.15554723 -1.8723484e-05 0.022664968 -0.01714621 -0.073780924 0.07425853
0.094431624 0.31431922 0.05180988 0.04137868 -0.14832032 -0.05631946 -0.13941419 -0.17636395
0.03389881 0.11036328 -0.1468081 -0.010099152 0.06539881 -0.040289722 0.12037149 0.13219884
0.08267287 0.04506209 0.034699704 0.06892193 0.049763042 0.24883641 0.09103313 0.06064889
0.063765496 -0.07918218 0.03210462 0.14018023 -0.065810055 -0.05834051 -0.08872574 0.045529053
0.06244732 0.116678126 0.18947227 0.07386685 0.19052972 0.052891944 0.0550393 0.055151023
-0.07513233 -0.011727788 -0.023594622 0.018381517 -0.0013916596 0.052775163 0.08108602 0.11417501
0.0567898 0.040700637 0.11080166 -0.06786599 0.018277334 -0.03500056 0.057584308 -0.051586002
00000000: 9ca3 573d cbff 8a3d c647 1f3e 6010 9db7
00000010: e2ab b93c 3576 8cbc 741a 97bd db14 983d
00000020: 5e65 c13d 73ee a03e 9936 543d b17c 293d
00000030: 48e1 17be 3caf 66bd 98c2 0ebe c098 34be
00000040: 7bd9 0a3d 2506 e23d dd54 16be ea76 25bc
00000050: d0ef 853d d606 25bd 5485 f63d 225f 073e
00000060: 6550 a93d 0793 383d 4721 0e3d f126 8d3d
00000070: 55d4 4b3d f9ce 7e3e 946f ba3d f86a 783d
00000080: 7c97 823d 442a a2bd 2280 033d 688b 0f3e
00000090: 6cc7 86bd 75f6 6ebd d7b5 b5bd ac7c 3a3d
000000a0: c3c8 7f3d f1f4 ee3d 0505 423e 8147 973d
000000b0: 391a 433e 39a5 583d e470 613d 0ae6 613d
000000c0: fbde 99bd e825 40bc 8249 c1bc d694 963c
000000d0: 5968 b6ba c52a 583d 6d10 a63d 96d4 e93d
000000e0: 6c9c 683d b6b5 263d fbeb e23d 53fd 8abd
000000f0: 59ba 953c bf5c 0fbd 86dd 6b3d d84b 53bd

encoder.block1.shortcut.1.bias f4 [64]
-0.032093376 0.06452674 -0.08441 -0.37587315 -0.05497676 -0.16800107 -0.30895966 -0.18937437
0.08248639 -0.20658635 -0.009496315 0.041044988 -0.041313797 -0.27478927 -0.11843651 -0.32608175
-0.03761225 -0.20004246 -0.34937024 -0.19772999 -0.11191095 -0.17530937 -0.03794505 0.03328522
-0.26090157 -0.1482378 -0.07425625 -0.010989607 -0.10010044 -0.023783896 -0.041243833 -0.0055252304
-0.06597106 -0.05153959 -0.077061124 -0.09696986 -0.21696764 -0.18112774 -0.18350083 0.014577527
-0.053880617 -0.20677887 -0.18416399 0.053765792 0.033354975 0.00037929535 -0.20537327 -0.045465924
-0.05010664 -0.12496945 -0.37527934 -0.042127397 -0.28427294 -0.077275075 0.061691187 -0.009891689
-0.01577259 -0.0658123 -0.20568009 -0.02189825 -0.052914087 0.106564 -0.0054680575 -0.08744852
00000000: 5874 03bd 9826 843d 26df acbd 7272 c0be
00000010: 502f 61bd 7908 2cbe f62f 9ebe 5beb 41be
00000020: a0ee a83d 5f8b 53be 6f96 1bbc ca1e 283d
00000030: a838 29bd 2eb1 8cbe d78e f2bd 30f4 a6be
00000040: 4d0f 1abd eed7 4cbe a8e0 b2be bb79 4abe
00000050: 9131 e5bd 4d84 33be 456c 1bbd 1556 083d
00000060: e494 85be a6cb 17be a913 98bd c10d 34bc
00000070: 7601 cdbd 72d6 c2bc 4bef 28bd fe0c b5bb
00000080: d61b 87bd 2d1b 53bd 39d2 9dbd 2298 c6bd
00000090: c42c 5ebe 8d79 39be a4e7 3bbe 94d6 6e3c
000000a0: ecb1 5cbd d7bd 53be 7c95 3cbe 8539 5c3d
000000b0: 3a9f 083d 29dc c639 5f4d 52be 7a3a 3abd
000000c0: 9f3c 4dbd fcef ffbd 9d24 c0be c78d 2cbd
000000d0: 398c 91be 6542 9ebd e6af 7c3d c010 22bc
000000e0: 8535 81bc 99c8 86bd cd9d 52be f563 b3bc
000000f0: 71bc 58bd 3a3e da3d 642d b3bb 3618 b3bd
