ldpi/training/output/ResCNN/pretrained_model.pth (torch, 711292 bytes, 63 tensors)

encoder.block1.convblock1.0.depthwise_conv.weight f4 [1, 1, 7]
0	0x401165db	2.2718418
1	0x3ee04ba9	0.43807724
2	0x3ed6264b	0.4182609
3	0xbc6d0dae	-0.0144685935
4	0xbc94b5bb	-0.018153062
5	0xbc9343ea	-0.01797672
6	0xbc9333fe	-0.017969128

encoder.block1.convblock1.0.pointwise_conv.weight f4 [64, 1, 1]
0	0xbcfd93e0	-0.030954301
1	0x3cfebaba	0.031094898
2	0xbd00f65c	-0.031484947
3	0x3c24f7cd	0.010068846
4	0x3ce1b1d4	0.027550615
5	0x3cf411a9	0.029793577
6	0x3d0692d0	0.032854855
7	0xbbb5b753	-0.0055455356
8	0x3cc12790	0.023578435
9	0x3d06e4dd	0.032933105
10	0x3c7fdaac	0.0156161
11	0xbd0958eb	-0.033532064
12	0xbc45ca82	-0.012072207
13	0x3c5242fe	0.012833355
14	0xbcef39f6	-0.029202443
15	0x3c5f923c	0.013645705
16	0x3cf90ba1	0.030401053
17	0xbaf5df94	-0.0018758648
18	0xbce26e35	-0.027640441
19	0x3cc624d7	0.024187488
20	0xbbe5789c	-0.007002903
21	0xbc84239f	-0.016130267
22	0x3cdfded4	0.027327932
23	0xbd064f48	-0.032790452
24	0xbc93b2e6	-0.018029641
25	0xbc8783d9	-0.016542362
26	0x3d09eb84	0.03367187
27	0xbd045e6c	-0.03231661
28	0xbcb565d7	-0.022143288
29	0x3cdc1d2c	0.026869379
30	0xbcd0c0aa	-0.025482494
31	0x3b4cb196	0.003123378
32	0x3cba18d5	0.022716919
33	0xbcbedd1f	-0.023298798
34	0x3c8676cb	0.016414067
35	0x3c91ad11	0.01778272
36	0x3c980dff	0.018561361
37	0xbcaf0fec	-0.021369897
38	0xbc0c35ad	-0.008557719
39	0x3c03eecb	0.008052538
40	0xbcff2dae	-0.031149711
41	0xbc1ba21b	-0.009499098
42	0xbc7d2181	-0.0154498825
43	0x3cb5ef06	0.022208702
44	0xbcac54e2	-0.021036569
45	0x3b968709	0.004593734
46	0xbca6c78d	-0.020358825
47	0x3b704301	0.0036661031
48	0xbaf57243	-0.0018726069
49	0xbc3183df	-0.010834663
50	0xbd04e400	-0.032444
51	0x3cfc588c	0.030803941
52	0xbc42fa6e	-0.011900527
53	0x3c9d956c	0.019236289
54	0x3b186b79	0.0023257418
55	0xbbc5f2cc	-0.0060409065
56	0x3ba43c1b	0.005012048
57	0x3c533a45	0.0128923105
58	0x3cdabdef	0.026701896
59	0x3cae3515	0.021265546
60	0x3d0a11e2	0.03370846
61	0xbca976bd	-0.020686502
62	0x3b885f4d	0.0041617514
63	0x3cda2fd7	0.02663414

encoder.block1.convblock1.1.weight f4 [64]
0	0x3d6b2028	0.057403713
1	0x3f1bac69	0.6080995
2	0x3d0318a8	0.032005936
3	0x3d44641f	0.047947045
4	0x3d67d464	0.056599036
5	0x3da1fbdf	0.07909369
6	0x3eda2d06	0.42612475
7	0x3dfc7fc9	0.123290606
8	0x3d4aea72	0.04953999
9	0x3cdaefe7	0.026725722
10	0x3d2003d3	0.039066147
11	0x3d4be658	0.04978022
12	0x3d99429c	0.07483408
13	0x3d99d8e3	0.07512071
14	0x3da67447	0.08127647
15	0x3d7c9692	0.061667033
16	0x3d8bc61c	0.06824896
17	0x3e02b9bc	0.12766165
18	0x3d84ad84	0.06478408
19	0x3d0a610f	0.03378397
20	0x3e7143be	0.23560998
21	0x3e585266	0.21125183
22	0x3fd45e7e	1.6591337
23	0x3d60183d	0.054710615
24	0x3e94c63d	0.29057494
25	0x3de9b584	0.114115745
26	0x3f23c99d	0.6397951
27	0x3da54c55	0.080712
28	0x3d990cdc	0.07473156
29	0x3f59df56	0.8510641
30	0x3f591338	0.8479495
31	0x3e0cd4d0	0.13753057
32	0x3e0b97d2	0.13632134
33	0x3e041fef	0.12902807
34	0x3d226c1d	0.039653886
35	0x3d8044d3	0.06263127
36	0x3d652fa7	0.055953648
37	0x3ed40816	0.4141242
38	0x3d7a9a68	0.06118241
39	0x3e213afa	0.15745154
40	0x3da9b292	0.08286013
41	0x3ed42e81	0.4144173
42	0x3d610f7e	0.054946415
43	0x3d6e83ef	0.05823129
44	0x3de20298	0.11035651
45	0x3d724a6b	0.059153
46	0x3fec0285	1.8438269
47	0x3dd1da30	0.10246694
48	0x3d012985	0.031533737
49	0x3d281e8a	0.04104475
50	0x3f113768	0.5672517
51	0x3f80a258	1.0049543
52	0x3daefa74	0.08543864
53	0x3e493bda	0.19651738
54	0x3e700dbf	0.23442744
55	0x3e85bd05	0.26120773
56	0x3dcdf4bb	0.10056444
57	0x3d2f22ef	0.042757925
58	0x3d2607f4	0.04053493
59	0x3d5eb70f	0.054373797
60	0x3eca5221	0.39515784
61	0x3d02addc	0.031904086
62	0x3d487d7d	0.0489478
63	0x3d4949bf	0.049142595

encoder.block1.convblock1.1.bias f4 [64]
0	0xbe154ead	-0.14580794
1	0x3f027995	0.5096677
2	0xbd2566c4	-0.040381208
3	0x3d3b34f8	0.04570481
4	0x3d2588f0	0.040413797
5	0xbc7c196a	-0.015386919
6	0x3ea60810	0.32428026
7	0xbbc3746b	-0.005964806
8	0xbdc92c22	-0.09822871
9	0xbd0dc46c	-0.03461115
10	0x3c9f7ecd	0.019469643
11	0xbd9f10d0	-0.077668786
12	0x3e1ec62f	0.15505289
13	0xbcebe1ad	-0.028794134
14	0x3ddfc53c	0.10926291
15	0x3dbbe730	0.09174955
16	0xbd232084	-0.03982593
17	0x3cae9773	0.021312451
18	0xbdd8df05	-0.105894126
19	0xbcf5ee99	-0.030020999
20	0xbd477a13	-0.048700403
21	0x3d124bd3	0.035716843
22	0xbee8ba0c	-0.45454443
23	0x3c271f36	0.010200312
24	0xbe8f9c41	-0.280489
25	0x3cd0cfdd	0.025489742
26	0xbf683923	-0.90712184
27	0xbd8230c6	-0.06356959
28	0xbd21ea5b	-0.03953014
29	0x3e8b1c17	0.27169868
30	0xbe4621a2	-0.19348767
31	0xbdd03f21	-0.10168291
32	0xbdec57eb	-0.115402065
33	0xbbcebef5	-0.006309385
34	0xbc3533f0	-0.011059746
35	0xbd21b378	-0.039477795
36	0xbd959953	-0.07304635
37	0x3de93379	0.11386771
38	0xbd9568e7	-0.07295399
39	0xbdfa7e37	-0.12231105
40	0xbd28cecd	-0.041212846
41	0xbe0b5368	-0.13606036
42	0xbd626a04	-0.055276886
43	0xbe8011bb	-0.25013527
44	0x3db4f4fa	0.08835788
45	0xbdc1bce4	-0.09459856
46	0x3f09e8bc	0.5387075
47	0xbd88c072	-0.06677331
48	0xbca37091	-0.019951137
49	0xbd2f4018	-0.042785734
50	0x3e02a69a	0.12758866
51	0x3e886037	0.26635906
52	0xbe0e9384	-0.1392346
53	0x3d6ce556	0.0578359
54	0x3e614a83	0.2200108
55	0x3e23a449	0.15980639
56	0xbc8be45f	-0.01707667
57	0x3efc7348	0.49306703
58	0xbcc6f173	-0.024285054
59	0xbd7dbd84	-0.061948314
60	0xbd960bae	-0.073264465
61	0xbdb9967b	-0.09061905
62	0xbd4ce75d	-0.050025333
63	0xbd4c5ec9	-0.04989508

encoder.block1.convblock1.1.running_mean f4 [64]
0	0xbd8a18ae	-0.067429885
1	0x3d8ab940	0.06773615
2	0xbd8c76ba	-0.06858583
3	0x3cb3ae39	0.021933662
4	0x3d75d2b6	0.060015403
5	0x3d84eb06	0.0649014
6	0x3d929349	0.07156999
7	0xbc45ec1f	-0.012080221
8	0x3d526184	0.05136253
9	0x3d92eca9	0.071740456
10	0x3d0b5612	0.03401763
11	0xbd9598b9	-0.0730452
12	0xbcd76e52	-0.026297722
13	0x3ce50386	0.027955782
14	0xbd8247e5	-0.06361369
15	0x3cf382a3	0.029725378
16	0x3d87a0d2	0.06622471
17	0xbb85e695	-0.0040863254
18	0xbd769fe4	-0.060211077
19	0x3d57d0b6	0.052689277
20	0xbc79efb7	-0.015254906
21	0xbd0fec85	-0.035137672
22	0x3d73d610	0.059530318
23	0xbd9249bc	-0.0714297
24	0xbd20df0c	-0.039275214
25	0xbd1399d1	-0.036035363
26	0x3d963866	0.07334976
27	0xbd902c92	-0.07039751
28	0xbd459360	-0.04823625
29	0x3d6fbea4	0.05853142
30	0xbd635ebc	-0.055510268
31	0x3bdef2fe	0.0068038693
32	0x3d4ab1a7	0.04948583
33	0xbd4fe2c5	-0.050753374
34	0x3d1274c5	0.03575589
35	0x3d1eab07	0.038737323
36	0x3d259d96	0.04043349
37	0xbd3eaccf	-0.046551522
38	0xbc98b6d4	-0.018641867
39	0x3c8fb2fa	0.017541397
40	0xbd8af7db	-0.06785556
41	0xbca98367	-0.02069254
42	0xbd09da65	-0.033655543
43	0x3d4628cb	0.048378747
44	0xbd3bb36c	-0.045825407
45	0x3c23f3c3	0.010006848
46	0xbd35a754	-0.04434903
47	0x3c02d83d	0.007986126
48	0xbb85ab0c	-0.0040792283
49	0xbcc158c1	-0.023601891
50	0xbd90be0f	-0.07067501
51	0x3d896cf4	0.06710234
52	0xbcd45e05	-0.025923738
53	0x3d2ba340	0.041903734
54	0x3ba60366	0.005066323
55	0xbc579a33	-0.013159323
56	0x3c32e1c9	0.010918089
57	0x3ce610db	0.02808421
58	0x3d6e4014	0.05816658
59	0x3d3dbe73	0.046324205
60	0x3d966230	0.073429465
61	0xbd3893ce	-0.045062833
62	0x3c1488d8	0.009065829
63	0x3d6da550	0.058018982

encoder.block1.convblock1.1.running_var f4 [64]
0	0x407542c7	3.8322008
1	0x40777e6e	3.8670917
2	0x407dbdeb	3.9647167
3	0x3ecf9a9b	0.40547642
4	0x40424a0e	3.03577
5	0x4063364d	3.5501893
6	0x408a26c3	4.3172317
7	0x3dfbe5a8	0.12299663
8	0x400e4dc0	2.2234955
9	0x408acf6e	4.337821
10	0x3f79af33	0.9753296
11	0x408fe7c2	4.4970407
12	0x3f1537aa	0.5828806
13	0x3f28a076	0.65869844
14	0x405a490c	3.4107084
15	0x3f3ea68c	0.7447288
16	0x406c9272	3.6964383
17	0x3c669583	0.014073732
18	0x40438ee9	3.0555975
19	0x4015c015	2.3398488
20	0x3e48d87c	0.19613832
21	0x3f8532d0	1.0406132
22	0x403f2945	2.986894
23	0x40899c3e	4.3003225
24	0x3fa66a07	1.3001107
25	0x3f8c1762	1.0944636
26	0x40911b98	4.5346184
27	0x4085a976	4.176936
28	0x3ffb03f3	1.961058
29	0x4038ccbe	2.8874965
30	0x40263707	2.5971086
31	0x3d1fd06c	0.039017126
32	0x40041837	2.063978
33	0x400af2c4	2.1710672
34	0x3f89ed40	1.0775528
35	0x3fa1e320	1.2647438
36	0x3fb05fe0	1.3779259
37	0x3fe9c991	1.8264638
38	0x3e95f73f	0.29290196
39	0x3e84c864	0.25934136
40	0x40785e03	3.880738
41	0x3eb8c627	0.36088678
42	0x3f7465ba	0.9546772
43	0x3ffc802d	1.9726616
44	0x3fe28d0f	1.7699298
45	0x3dacd973	0.08439913
46	0x3fd4303b	1.6577219
47	0x3d5c2dc8	0.053754598
48	0x3c65c8a7	0.01402489
49	0x3ef06283	0.46950158
50	0x4086b7c3	4.209932
51	0x4072e24a	3.7950616
52	0x3f1100e9	0.56642014
53	0x3fbd6f33	1.479956
54	0x3cb138fe	0.021633621
55	0x3e15747a	0.14595214
56	0x3dcdc33f	0.10047006
57	0x3f2a2e00	0.6647644
58	0x403680cf	2.8516119
59	0x3fe7827d	1.8086697
60	0x40916c5f	4.544479
61	0x3fdb12e0	1.7115135
62	0x3d8dde8b	0.06927212
63	0x40359400	2.8371582

encoder.block1.convblock2.0.depthwise_conv.weight f4 [64, 1, 5]
0	0xbc9b4f87	-0.01895882
1	0xbd0186de	-0.03162276
2	0xbce61a4b	-0.02808871
3	0xbc81040a	-0.015748996
4	0x3b8aaf0b	0.0042322925
5	0xbf230936	-0.6368593
6	0x3e935106	0.28772753
7	0x3e7d5b50	0.24741864
8	0xbdfc0b52	-0.12306847
9	0xbe7c86cf	-0.246608
10	0xbc59a843	-0.013284746
11	0xbc267429	-0.010159531
12	0x3ce38b8e	0.027776506
13	0x3b22fab2	0.0024868664
14	0x3bb81f4d	0.0056189657
15	0xbc62eb52	-0.01385005
16	0xbd16514f	-0.036698636
17	0x3c9e2704	0.019305713
18	0xbb3d7ca6	-0.0028913408
19	0x3c525dbf	0.012839734
20	0x391fe3d2	0.00015248291
21	0xbb161155	-0.0022898514
22	0x3cf59fda	0.02998345
23	0xbcc26e54	-0.02373425
24	0xbd27d0d3	-0.040970635
25	0xbc0e68d6	-0.008691987
26	0xbd1ac5a0	-0.037786126
27	0xbd14b171	-0.036302034
28	0xbd1a52e4	-0.037676707
29	0xbd080281	-0.033205513
30	0x3ea7fb42	0.32808882
31	0xbc6eea40	-0.014582217
32	0xbdc9e98c	-0.09858999
33	0x3e7dae3d	0.24773498
34	0x3e728318	0.23682821
35	0x3ccae945	0.024769435
36	0x3d296dc5	0.04136445
37	0x3d920556	0.07129924
38	0x3d08e7ba	0.033424117
39	0x3cdcf2fd	0.026971335
40	0xbbe51bd3	-0.0069918423
41	0xb9c98640	-0.00038437732
42	0xbca80958	-0.020512268
43	0x3b3fa613	0.0029243275
44	0x3b9baf9a	0.004751158
45	0x3bb69242	0.0055716345
46	0x3b8d4909	0.004311685
47	0x3adb6c5b	0.0016740666
48	0xbc37668b	-0.011193882
49	0xbc1fd9d0	-0.00975652
50	0xbca771f0	-0.020440072
51	0x3c849ad2	0.016187105
52	0x3c3ec623	0.011643919
53	0x3c26e95b	0.010187472
54	0xbb48d97e	-0.0030647214
55	0x3cbe5fca	0.023239035
56	0x3ceaa96b	0.028645238
57	0xbcf23e51	-0.02957073
58	0x3b21ccee	0.0024688798
59	0xbc0de6cb	-0.008660982
60	0xbe0b9bdb	-0.13633673
61	0x3b1c32d1	0.0023834
62	0x3cbc7a7c	0.023007624
63	0xbb5b777d	-0.0033487969
64	0xbdbf0080	-0.09326267
65	0xbc4670a7	-0.012111819
66	0x3b1547ac	0.0022778315
67	0xbcc084fa	-0.023500908
68	0xbb8218f6	-0.0039702607
69	0xbc8459fc	-0.01615619
70	0xbdfb1bd2	-0.12261166
71	0xbcd8dcb4	-0.026472427
72	0x3ce26e78	0.027640566
73	0x3d4c525a	0.049883224
74	0xbcba6c7c	-0.022756808
75	0x3cd9ce56	0.026587646
76	0x3c642504	0.013924841
77	0xbcb8ba9c	-0.02254992
78	0x39be980a	0.00036352902
79	0x3b9c798f	0.004775233
80	0xbc833c85	-0.016020069
81	0x3ab792b1	0.001400551
82	0xbd8b631b	-0.06806012
83	0x3d9a7150	0.07541144
84	0x3d757d5d	0.05993401
85	0x3b6a811a	0.0035782517
86	0xbd27ed3f	-0.04099774
87	0xbd88c8b6	-0.066789076
88	0xbd707437	-0.05870458
89	0xbcfdaaad	-0.030965174
90	0xbc8faf67	-0.017539693
91	0x3ba58aae	0.0050519323
92	0x3c14263a	0.009042317
93	0xbb2ba0c6	-0.0026188358
94	0xbcc78b1c	-0.024358325
95	0x39ccb152	0.00039042026
96	0xbcecdc60	-0.028913677
97	0xbb039053	-0.0020075038
98	0xbb517503	-0.0031960614
99	0xbce713e2	-0.028207723
100	0x3e203ab3	0.15647392
101	0x3ea8fb17	0.33004066
102	0xbe64e090	-0.22351289
103	0xbcf3e8bb	-0.02977406
104	0x3c94be2b	0.018157085
105	0xbc9789a1	-0.018498244
106	0xbd1eb7c0	-0.038749456
107	0xbcc55e5b	-0.024092844
108	0xbde61bbf	-0.11235761
109	0xbdaf8235	-0.08569757
110	0x3e89e188	0.2692988
111	0x3e8d3384	0.27578366
112	0x3f258ade	0.6466502
113	0x3ebb594b	0.36591563
114	0x3edbfa8e	0.42964596
115	0x3d2fa991	0.04288632
116	0x3cb228dd	0.021748
117	0xbca5b85b	-0.02022951
118	0x3c8d1aad	0.017224634
119	0x3b6093d8	0.003426781
120	0xbd4b916c	-0.049699232
121	0xbd84aff5	-0.06478874
122	0x3cad5ba6	0.021161865
123	0xbd82e2b7	-0.06390899
124	0xbd562a6c	-0.05228655
125	0x3c751148	0.014957733
126	0xbd23311c	-0.039841756
127	0xbd18e96b	-0.03733198
128	0xbc98b8f6	-0.018642884
129	0xbb8b69ef	-0.0042545716
130	0xbccde828	-0.025135115
131	0x3deaa3d3	0.11457028
132	0xbf040f2d	-0.51585656
133	0x3b347ba4	0.0027539516
134	0xbd8ca62c	-0.06867632
135	0x3ddeabd1	0.10872615
136	0x3da73a30	0.08165395
137	0xbe32754c	-0.17427558
138	0xbd860d18	-0.06545466
139	0x3cdba391	0.026811393
140	0xbce624fc	-0.028093807
141	0xbd116c52	-0.035503693
142	0xbbc8be57	-0.006126206
143	0xbcabaec6	-0.020957362
144	0xbc1dae6b	-0.009624104
145	0x3e818c55	0.25302377
146	0xbf06a471	-0.5259467
147	0x3ea472f0	0.3211894
148	0xbf263eaa	-0.6493937
149	0xbf1c3c3e	-0.6102942
150	0xbe500dff	-0.20317839
151	0xbec7e2f1	-0.3904033
152	0xbea8cabb	-0.3296717
153	0xbea2ff50	-0.31835413
154	0xbe9b9680	-0.3038826
155	0x3ad62f68	0.0016341032
156	0x3ca9327c	0.020653956
157	0x3c479561	0.012181611
158	0x3d3933e9	0.04521552
159	0x3d7c6077	0.061615434
160	0x3cf1c1b6	0.029511314
161	0xbde0fcd6	-0.10985725
162	0x3e3142b2	0.17310598
163	0xbdd56450	-0.10419524
164	0xbdc8ad82	-0.09798719
165	0x3d770096	0.060303293
166	0x3d62d3c4	0.055377737
167	0x3d2ed5af	0.042684253
168	0x3d323df8	0.04351613
169	0x3c8f7e76	0.017516356
170	0xbcaa3d9f	-0.020781336
171	0xbb126e7b	-0.0022343684
172	0xbc671cc4	-0.014105979
173	0x3b36a2ce	0.0027868035
174	0xbc1e74f0	-0.009671435
175	0x3d411853	0.047142338
176	0x3d91cd55	0.07119242
177	0xbcf744d0	-0.03018418
178	0xbcae8ea8	-0.021308258
179	0xbd349654	-0.044088677
180	0x3da18ec2	0.07888557
181	0x3dfa51e6	0.12222652
182	0xbe1e0249	-0.15430559
183	0xbd5a44b4	-0.053288177
184	0xbcc8d580	-0.024515867
185	0x3cf8a19e	0.030350503
186	0xbea042dd	-0.31301013
187	0xbdfee952	-0.12446846
188	0xbe1544bb	-0.14577
189	0xbda461b6	-0.080264494
190	0x3c90890b	0.017643472
191	0x3c45d023	0.012073549
192	0x3ba11447	0.0049157473
193	0x3be411e2	0.0069601396
194	0x3c869c17	0.016431851
195	0xbd90ce24	-0.07070568
196	0xbd4cbef6	-0.049986802
197	0xbdc049bf	-0.09389066
198	0x3e075061	0.13214256
199	0x3e8b4d26	0.27207297
200	0x3d106941	0.035256628
201	0xbbeafcf8	-0.0071712695
202	0x3d335d41	0.043790106
203	0x3c5af62f	0.013364359
204	0xbc899bc3	-0.016797906
205	0x3e00d353	0.12580614
206	0x3dafcb4b	0.08583697
207	0x3da13cb0	0.07872903
208	0x3dcc0ab5	0.0996298
209	0x3d40376f	0.046927866
210	0x3d57db54	0.052699402
211	0x3cb4bcdf	0.022062717
212	0x3c351a22	0.011053594
213	0xbc560a88	-0.013064034
214	0xbc918c39	-0.017767059
215	0x3d8f772a	0.070051506
216	0x3d290b9c	0.041270837
217	0x3cadcf6f	0.021217076
218	0x3cdb8152	0.026795063
219	0x3d51dfa3	0.051238667
220	0x3e086258	0.13318765
221	0x3db6042c	0.088875145
222	0xbd20eef0	-0.03929037
223	0xbd4cb6cd	-0.04997902
224	0xbd916241	-0.070988186
225	0x3ba710f9	0.005098459
226	0xbb8b6dae	-0.004255018
227	0xba652c74	-0.0008742281
228	0xbc1e325c	-0.009655561
229	0xbc619560	-0.013768524
230	0x3dd9b32b	0.10629877
231	0xbf88855d	-1.0665699
232	0xbf3a4f49	-0.7277723
233	0x3e54f275	0.20795615
234	0x3e06d9e6	0.13169059
235	0x3dea2386	0.11432557
236	0x3dc723ca	0.09723623
237	0xbdc449fa	-0.095844224
238	0xbd007e0d	-0.03137021
239	0xbd40d73d	-0.047080267
240	0xbc4b7ca0	-0.01241985
241	0xbd194302	-0.03741742
242	0x3c0c7a52	0.008574085
243	0x3a94a2fa	0.0011340075
244	0x3c5c259b	0.0134367
245	0xba90e4bc	-0.0011054496
246	0xbcd9bb57	-0.026578588
247	0xbc95ddd7	-0.018294258
248	0xbbb06539	-0.0053831604
249	0x3bec74ba	0.0072160633
250	0x3e8d7ea7	0.2763569
251	0xbc833b29	-0.01601942
252	0xbde564db	-0.11200877
253	0xbec5fe86	-0.38670748
254	0xbef726a8	-0.4827168
255	0x3f1be56d	0.6089695

encoder.block1.convblock2.0.pointwise_conv.weight f4 [64, 64, 1]
0	0x398557c5	0.0002543313
1	0x3c5b5e6b	0.01338921
2	0xba4a4df1	-0.00077173027
3	0x3b43f4e0	0.0029900596
4	0xba303b07	-0.0006722663
5	0xbb503c76	-0.0031774319
6	0xbc8835df	-0.01662725
7	0xbb474557	-0.003040632
8	0xbb59424a	-0.0033151084
9	0x3b1843c9	0.0023233762
10	0xbb405aa8	-0.002935091
11	0x3a7362ec	0.0009284455
12	0x3b9aadbf	0.004720419
13	0x396391de	0.00021702747
14	0x3c21d9df	0.009878605
15	0xbb2fd4fb	-0.0026829827
16	0xbbe87a51	-0.0070946594
17	0xbb387924	-0.0028148377
18	0xbb47341c	-0.003039605
19	0xbad2298b	-0.0016034109
20	0xbcbc5e9b	-0.02299433
21	0xbb1316fe	-0.0022444124
22	0x3d17638f	0.03696018
23	0x3b9216cc	0.004458284
24	0x3b12264e	0.0022300663
25	0xbb83cbdc	-0.0040221047
26	0xbc60cef0	-0.013721213
27	0xbbe76319	-0.007061374
28	0x3b3bad8f	0.0028637385
29	0x3d4d115d	0.050065387
30	0x3c875c07	0.016523374
31	0x3bcfb5f8	0.006338831
32	0xbb702c2d	-0.0036647425
33	0xbadc8ea7	-0.0016827182
34	0xb7ad355f	-2.064806e-05
35	0xbb0ec14f	-0.0021782701
36	0xbb802fa0	-0.0039119273
37	0xba966bcf	-0.0011476221
38	0x3b6036f4	0.0034212442
39	0x3b323f56	0.0027198396
40	0xb9873712	-0.00025790237
41	0x3c19b129	0.009380617
42	0xbc097278	-0.008389108
43	0x3aefc95a	0.001829426
44	0xbcafaaf1	-0.021443816
45	0xbb2211fa	-0.0024729953
46	0xbbaaf76d	-0.0052174837
47	0xbb6e5b68	-0.00363704
48	0x3ba675fb	0.0050799823
49	0x3b72fc5e	0.0037076692
50	0xbd850d38	-0.06496662
51	0xbcc96e4f	-0.024588732
52	0x3bc009e2	0.005860553
53	0xbb6aa5e5	-0.0035804447
54	0x3c099fa4	0.008399878
55	0x3ceb5035	0.02872477
56	0x3b766207	0.003759505
57	0xbabb127e	-0.0014272479
58	0x3a21a353	0.0006166
59	0x3a9b1694	0.001183229
60	0x3a3e3994	0.00072565046
61	0x3ac2aecd	0.001485312
62	0xbb0b2956	-0.0021234355
63	0x3b27da65	0.002561235
64	0x3b2cdbef	0.0026376208
65	0xbcdecc64	-0.02719707
66	0xb99240db	-0.0002789561
67	0xbb224b27	-0.0024764033
68	0xba08f217	-0.00052240625
69	0xbb0056fa	-0.0019583092
70	0xbb644abb	-0.0034834582
71	0x3b48c0de	0.0030632536
72	0x3b4822fe	0.0030538435
73	0x3a1730aa	0.00057674444
74	0x3bab309f	0.005224302
75	0xbb289b41	-0.0025727304
76	0x3cc9226c	0.024552546
77	0xba0ae2f4	-0.0005298101
78	0x3c4439c5	0.011976664
79	0xbb39722a	-0.0028296807
80	0x3bfa8b64	0.007646011
81	0xbbb91d94	-0.005649278
82	0xbc11e590	-0.00890483
83	0xbbe6740f	-0.007032878
84	0xbb47308f	-0.0030393933
85	0x3b8da78f	0.004322953
86	0x3d34108a	0.043961085
87	0xbb419b4e	-0.0029542032
88	0xbad9495f	-0.0016577652
89	0xbbb80829	-0.005616207
90	0xbbf4411e	-0.0074540516
91	0xbc5390ea	-0.012912968
92	0x3a8a9df5	0.0010575639
93	0xbd1dacf1	-0.038495008
94	0xbc2a7025	-0.010402714
95	0xbb6f44f9	-0.0036509617
96	0xbca84f37	-0.020545585
97	0x3a8d18eb	0.0010764872
98	0x3ac5fe82	0.0015105756
99	0x3aa18330	0.0012322422
100	0x39455cde	0.0001882198
101	0xbb3ce6fe	-0.0028824206
102	0x3b6fd70a	0.003659668
103	0x3c811e29	0.015761452
104	0x3b705f0f	0.0036677753
105	0x3b37c983	0.0028043694
106	0xba662d95	-0.0008780596
107	0xbc15748c	-0.009122025
108	0x390ffa1f	0.0001373072
109	0xbaab869b	-0.001308638
110	0x3cc413d1	0.02393523
111	0xbbd35ae9	-0.0064500463
112	0x3b891431	0.004183315
113	0x39731551	0.00023182227
114	0xbc15bdbc	-0.0091394745
115	0x3c6f7cdf	0.014617174
116	0xbbcd180e	-0.006258971
117	0x3ba26f82	0.0049571404
118	0xbc0f8349	-0.008759328
119	0xb7878ff0	-1.616028e-05
120	0x3958f923	0.00020692176
121	0x3c487d9a	0.012236977
122	0x39f1b816	0.00046104257
123	0xba941001	-0.0011296273
124	0xbca4a041	-0.020095946
125	0xba0b9035	-0.0005323918
126	0x3b9b42af	0.004738174
127	0xba061b13	-0.00051157287
128	0x3b2682e1	0.00254076
129	0xbd9ef70a	-0.07761963
130	0xbbd7cb11	-0.0065854867
131	0xb8d2ba29	-0.00010048255
132	0x3b017edd	0.0019759454
133	0xbb81d87d	-0.003962575
134	0x3dd2e8e9	0.1029833
135	0xbc20e2eb	-0.009819726
136	0x3c39e857	0.011346898
137	0x3bb69a88	0.005572621
138	0xbac6abd8	-0.0015157415
139	0x3cb728f5	0.022358397
140	0xbc0fdba4	-0.008780394
141	0x3b54f043	0.003249184
142	0xbbe2ea8b	-0.0069249324
143	0x3ca4106c	0.020027362
144	0x3c4b887f	0.01242268
145	0xbae6c3ab	-0.0017605921
146	0x3b8f456e	0.0043722903
147	0x3afa520d	0.0019097939
148	0x3d22c9af	0.03974312
149	0x3cc682bc	0.02423226
150	0x3e7885f7	0.24269854
151	0x3b54ddbe	0.0032480801
152	0xbd3aaf6a	-0.045577444
153	0x3c65c417	0.014023802
154	0x3d2637d2	0.04058058
155	0x3c5f00f6	0.013611069
156	0x3caaca32	0.020848367
157	0xbde24216	-0.11047761
158	0xbd98c8c0	-0.07460165
159	0xbc1b724d	-0.009487701
160	0x3c309f29	0.010780134
161	0x3c03bf12	0.00804116
162	0x3c324d09	0.010882624
163	0xbc0957cd	-0.00838275
164	0xb9cf327a	-0.00039519725
165	0xbd4290b9	-0.0475013
166	0x3c1341e8	0.008987881
167	0x3cc70973	0.024296498
168	0xbbee86ca	-0.0072792517
169	0x3d9118b5	0.070847906
170	0xbc395116	-0.011310836
171	0x3d5ed0dc	0.054398403
172	0x3cd21714	0.02564577
173	0x3c7bc83d	0.015367565
174	0x3caad2ca	0.020852465
175	0x3c1250a2	0.008930357
176	0xbb3fc103	-0.002925933
177	0xbb17159e	-0.0023053656
178	0x3cdcbee0	0.026946485
179	0x3e2cdeeb	0.16881911
180	0x3ca4a20f	0.020096807
181	0xbd2239de	-0.039605968
182	0xbcc98586	-0.024599802
183	0xbd048424	-0.03235258
184	0x3a7d1a5d	0.00096551125
185	0xbccfbe66	-0.025359344
186	0xbae26713	-0.001727315
187	0x3a662230	0.0008778898
188	0xbd7284e7	-0.059208777
189	0xbc6a9911	-0.01431872
190	0x3b022945	0.0019861024
191	0xbb859c00	-0.0040774345
192	0x3a1d656b	0.0006004187
193	0x3b832d4e	0.0040032035
194	0x3a95bb79	0.0011423669
195	0xb9c192d3	-0.0003692122
196	0x3b5cfa11	0.0033718387
197	0x3b3bedd8	0.0028675701
198	0xbb5be1b4	-0.0033551278
199	0x3b64f52a	0.0034936168
200	0x3b1f0972	0.0024267104
201	0xbb6b924d	-0.0035945356
202	0x3ac7d95f	0.0015247277
203	0xbb537711	-0.0032267014
204	0x3b3238a2	0.00271944
205	0xb9e1ba21	-0.0004305402
206	0xba930f05	-0.0011219686
207	0xba1fee4e	-0.0006100879
208	0xbb23d1b8	-0.0024996828
209	0x3b382858	0.0028100219
210	0x378513a8	1.5863989e-05
211	0x3af2d772	0.0018527342
212	0x3a21b249	0.0006168229
213	0xba47d82d	-0.000762346
214	0xbc017462	-0.007901283
215	0x3b3d4133	0.0028877973
216	0x3a1bd619	0.0005944684
217	0x3b46918f	0.0030299162
218	0xbb2f99eb	-0.0026794623
219	0x3b3f9a21	0.0029236155
220	0x3a77a25d	0.0009446496
221	0x3bb7ae77	0.0056055146
222	0xba6f0ea4	-0.0009119308
223	0xbb36776b	-0.0027842175
224	0xbb1ea3ae	-0.0024206447
225	0x3ad4217c	0.0016184296
226	0x3aaacebf	0.0013031586
227	0xb9d97df4	-0.00041483308
228	0x3b6b5c5f	0.0035913212
229	0x3879eb0a	5.9585123e-05
230	0x3b5d94d4	0.0033810632
231	0xbb1515fa	-0.0022748695
232	0xbb05fad8	-0.0020443704
233	0x3a85135f	0.0010152868
234	0xb9f221b5	-0.0004618295
235	0x3afc5aa1	0.0019253084
236	0xbb8f6d6c	-0.004377058
237	0xbafd497d	-0.0019324269
238	0xbba8b283	-0.0051482334
239	0x3aa506eb	0.0012590563
240	0x3b3451dc	0.0027514612
241	0xbb72f305	-0.003707112
242	0xb9ac2ad6	-0.00032838312
243	0x3aed4004	0.0018100743
244	0x3b83e60b	0.004025226
245	0x39ab0758	0.00032621133
246	0x3b8959d1	0.004191615
247	0x3b69a67f	0.0035652218
248	0xbb2a9a10	-0.002603177
249	0x3a7cd8d6	0.0009645348
250	0x3a244a46	0.0006267171
251	0xbb030a72	-0.001999524
252	0xbb241f3f	-0.0025043038
253	0xbb035909	-0.0020042083
254	0xbb052f37	-0.0020322332
255	0xba36191d	-0.0006946491

encoder.block1.convblock2.1.weight f4 [64]
0	0x3ddf38ae	0.10899483
1	0x3e049436	0.12947163
2	0x3e330226	0.17481288
3	0x3d07d22e	0.033159427
4	0x3d189b90	0.03725773
5	0x3dfbc979	0.12294287
6	0x3f38d72e	0.7220334
7	0x3efeb974	0.49750865
8	0x3d06d6e1	0.03291977
9	0x3d7a019b	0.061036687
10	0x3d0dc037	0.03460714
11	0x3cc0ccc8	0.023535147
12	0x3da24b42	0.079245105
13	0x3da685d5	0.08130995
14	0x3d97fdb7	0.07421439
15	0x3e4ca11f	0.19983338
16	0x3cf90a41	0.030400397
17	0x3db2870b	0.08717164
18	0x3e2e0154	0.16992694
19	0x3db87e99	0.090085216
20	0x3e72812c	0.23682088
21	0x3f8bf55a	1.093425
22	0x3dee21cd	0.11627541
23	0x3e548564	0.2075401
24	0x3d410c4f	0.04713088
25	0x3df379d8	0.11888474
26	0x3ce28202	0.027649883
27	0x3e1024d4	0.14076549
28	0x3d8ee1fb	0.06976696
29	0x3d05cc70	0.03266567
30	0x3c72f411	0.014828698
31	0x3e2b74c1	0.16743757
32	0x3d05deee	0.032683305
33	0x3f74080d	0.95324785
34	0x3ea23f2e	0.31688827
35	0x3f87b6b5	1.0602633
36	0x3e84385d	0.25824252
37	0x3e0ea0d9	0.13928546
38	0x3ebc4a34	0.36775362
39	0x3d57cd09	0.05268577
40	0x3ce1a6b9	0.02754532
41	0x3de4f772	0.11180009
42	0x3d7726a4	0.060339585
43	0x3d45f32b	0.048327606
44	0x3d3e0608	0.04639247
45	0x3d8f1c60	0.06987834
46	0x3d66a454	0.05630906
47	0x3eabe673	0.33574256
48	0x3d65fe7a	0.05615089
49	0x400329f1	2.049435
50	0x3dac22ef	0.084051006
51	0x3be9d1f8	0.007135626
52	0x3e14751e	0.14497802
53	0x3d58bac1	0.052912477
54	0x3d34ae7c	0.044111714
55	0x3f085781	0.5325852
56	0x3e4047ed	0.18777438
57	0x3d616a30	0.05503291
58	0x3d1d6b9d	0.038432706
59	0x3d1c2f74	0.038131192
60	0x3dfb4d00	0.12270546
61	0x3e1d9582	0.15389064
62	0x3d459d78	0.048245877
63	0x3dc25641	0.09489108

encoder.block1.convblock2.1.bias f4 [64]
0	0x3cf3d31a	0.029763747
1	0xbba5ad93	-0.005056092
2	0x3d683a02	0.056695946
3	0xbab59835	-0.0013854565
4	0x3b910c35	0.004426504
5	0xbd37f2cd	-0.044909287
6	0x3de71fab	0.11285337
7	0xbe8fc3dc	-0.28079116
8	0xbc4bc0bc	-0.012436088
9	0xbcd549f2	-0.026036236
10	0xbb4d2cd1	-0.003130723
11	0xbd0019fa	-0.031274773
12	0x3c969f20	0.018386424
13	0xbccfa3c9	-0.025346654
14	0xbde27a17	-0.11058443
15	0x3d3c4253	0.04596169
16	0xbbffa53c	-0.00780168
17	0xbd893378	-0.0669927
18	0xbdd5df2c	-0.10442957
19	0x39fc59e6	0.00048132165
20	0xbe5c6a38	-0.21524894
21	0xbdb740a7	-0.08947878
22	0xbcefe6ed	-0.029284919
23	0xbdbe9080	-0.09304905
24	0xbc31edcb	-0.010859917
25	0xbcc01cfe	-0.023451325
26	0xbbdc8dd3	-0.006730774
27	0x3ccd754e	0.02508035
28	0xbd6290b0	-0.055313766
29	0xbb8a7eb3	-0.0042265295
30	0xbcdc74c0	-0.02691114
31	0xbeb62a9c	-0.35579383
32	0x3ac725ac	0.0015193722
33	0xbd4b2b8f	-0.049602088
34	0xbdbc491c	-0.09193632
35	0xbf234281	-0.6377335
36	0xbda00ead	-0.07815299
37	0x3d22426e	0.039614134
38	0x3c307ea9	0.010772386
39	0x3b5d4331	0.0033761973
40	0x3c884e1a	0.016638804
41	0xbdb05f68	-0.08611947
42	0x3b29c681	0.002590567
43	0xba8d93e8	-0.0010801526
44	0xbab72f65	-0.0013975917
45	0x3c39a5f5	0.011331071
46	0xbb015d30	-0.0019739382
47	0x3e307451	0.17231871
48	0xbd562f46	-0.052291177
49	0xbe9bb7cb	-0.3041366
50	0xbd6e484a	-0.05817441
51	0xbdc68acd	-0.09694443
52	0xbd8121de	-0.06305288
53	0x3c0a0572	0.00842415
54	0x3bbcafd1	0.0057582636
55	0xbeb73b25	-0.3578731
56	0xbe54438c	-0.20728892
57	0xbd5228c5	-0.051308412
58	0xbdb42129	-0.08795387
59	0xbae03457	-0.0017105442
60	0x3cc49569	0.023997026
61	0xbd77e207	-0.06051829
62	0xbd6ca82b	-0.057777565
63	0xbdcaa3fa	-0.09894557

encoder.block1.convblock2.1.running_mean f4 [64]
0	0xbc809ace	-0.015698817
1	0x3d0f1e50	0.034941018
2	0x3eb01e88	0.34398293
3	0xbad3e05e	-0.0016164889
4	0xbcf8727f	-0.030328033
5	0x3d62dffb	0.055389386
6	0xbe6cac52	-0.2311261
7	0xbe7672d7	-0.24067245
8	0x3c97946d	0.018503392
9	0xbcf3e213	-0.029770887
10	0xbaf571b5	-0.0018725904
11	0xbd09752e	-0.033559017
12	0xbc0ad6cd	-0.008474064
13	0x3ce951ec	0.028481446
14	0xbbf47ec8	-0.0074614026
15	0x3ec709a0	0.3887453
16	0x3b81b279	0.003958043
17	0x3cb364ed	0.021898711
18	0x3e21f30d	0.15815373
19	0x3c7f25f4	0.015573014
20	0x3f1aefb1	0.6052199
21	0x3db68a50	0.089131
22	0xbb06818a	-0.0020523989
23	0xbdb6a1c5	-0.08917574
24	0x3d2950c6	0.041336797
25	0x3dc50a60	0.096211195
26	0x3b1d0d32	0.0023964164
27	0x3d05ea58	0.03269419
28	0x3d76fad2	0.060297795
29	0x3a1ad3e7	0.00059062097
30	0x3c64a10a	0.01395441
31	0x3e4122bc	0.18860906
32	0x3c921e5c	0.017836742
33	0xbf0daca6	-0.55341566
34	0xbe31e674	-0.17373067
35	0xbe8716ed	-0.26384678
36	0xbe19e8b9	-0.15030183
37	0xbc2e462f	-0.01063685
38	0xbe963927	-0.2934048
39	0x3ce8c2f0	0.028413266
40	0xbb97b751	-0.0046300073
41	0xbb7774d1	-0.0037758837
42	0x3b42d0c0	0.0029726475
43	0x3bc31f62	0.005954669
44	0x3cb8c639	0.022555457
45	0x3d3961ff	0.045259472
46	0xbcee531a	-0.02909236
47	0xbdb9ff30	-0.09081876
48	0x3c32f24e	0.010922028
49	0xbf9ea730	-1.2394772
50	0x3cf535c2	0.02993286
51	0x3d6b8ddb	0.05750833
52	0xbd8b6f8a	-0.06808384
53	0xbc07f001	-0.0082969675
54	0xba843487	-0.0010086455
55	0x3ec41da7	0.38303873
56	0x3e3dd81a	0.18539467
57	0xbc82cb12	-0.015965972
58	0x3dfb1693	0.12260165
59	0xbbedae9a	-0.00725348
60	0x3d00f28f	0.031481322
61	0xbdcc5dcd	-0.099788286
62	0xbc795889	-0.015218862
63	0xbd84b6bc	-0.06480166

encoder.block1.convblock2.1.running_var f4 [64]
0	0x3a4d9ec4	0.00078437873
1	0x3cce700c	0.025199912
2	0x3f3839dd	0.7196329
3	0x3a1063f2	0.0005508057
4	0x3bbcc848	0.00576118
5	0x3cee7eb2	0.029113147
6	0x3f4ee392	0.80815995
7	0x3cd1d026	0.025611948
8	0x3a197fc2	0.0005855524
9	0x3add6572	0.0016891195
10	0x39c847b0	0.00038200384
11	0x3b15c364	0.0022852058
12	0x3a6d2325	0.00090460695
13	0x3acb5332	0.0015512465
14	0x3a63c9ad	0.0008689415
15	0x3ec05d43	0.37571153
16	0x395c84e3	0.00021030339
17	0x3b78505b	0.0037889692
18	0x3ea00d65	0.3126022
19	0x3ca503a0	0.02014333
20	0x3fc741ec	1.5566993
21	0x3f670985	0.902489
22	0x3d6129ff	0.05497169
23	0x3cccef36	0.025016408
24	0x3afe0121	0.0019378999
25	0x3c6b9193	0.014377969
26	0x38ad0de1	8.251868e-05
27	0x3b96a6a4	0.004597502
28	0x3c05f921	0.008177073
29	0x39283361	0.00016040869
30	0x3a8914cd	0.001045847
31	0x3ccdf96b	0.025143346
32	0x3a4886e6	0.0007649496
33	0x3eba3010	0.36364794
34	0x3eb8ba0b	0.3607944
35	0x3edbba6b	0.42915663
36	0x3e1c6bd2	0.15275505
37	0x3a90940e	0.0011030452
38	0x3c8221a8	0.01588519
39	0x3ad5d2c6	0.0016313426
40	0x3929e7af	0.00016203405
41	0x3bffdf00	0.007808566
42	0x39742c4e	0.00023286158
43	0x3996add4	0.00028739742
44	0x3a73d80d	0.00093019084
45	0x3b9f4f95	0.004861782
46	0x3b9003c8	0.004394982
47	0x3dbdfa0d	0.09276209
48	0x3b0940bb	0.0020943123
49	0x404625e0	3.0960617
50	0x3b2dcf62	0.0026521315
51	0x3cc3ec06	0.023916256
52	0x3c2d6394	0.010582823
53	0x3940d98d	0.00018391591
54	0x3af87706	0.001895637
55	0x3d43678a	0.047706164
56	0x3d15654a	0.03647355
57	0x3b04fc3c	0.0020291945
58	0x3ca12931	0.019672962
59	0x3a101891	0.0005496825
60	0x3be3011a	0.0069276216
61	0x3d1d403c	0.038391337
62	0x399e1fbf	0.0003015976
63	0x3cbc4e94	0.022986688

encoder.block1.convblock3.0.depthwise_conv.weight f4 [64, 1, 3]
0	0x3b2d65c1	0.0026458355
1	0xbd754ce6	-0.05988779
2	0xbdba6385	-0.09101013
3	0x3deae4c8	0.11469418
4	0x3d038dd9	0.0321177
5	0x3cdc4ba6	0.02689154
6	0x3d8964f5	0.06708709
7	0x3d0a13d9	0.033710334
8	0x3e052865	0.1300369
9	0xbb8c2582	-0.004276932
10	0x3c287232	0.0102811325
11	0x3c65308b	0.013988624
12	0xbc05e329	-0.008171835
13	0xbc95cb7d	-0.018285507
14	0xbca96a0f	-0.020680455
15	0xbd3d0ad6	-0.046152912
16	0xbe0271bd	-0.127387
17	0x3dc77da2	0.097407594
18	0xbed0c507	-0.4077532
19	0xbe85e37b	-0.26150116
20	0xbece8796	-0.4033782
21	0x3e89b127	0.2689297
22	0x3e9fe7c0	0.312315
23	0x3e954dae	0.29160827
24	0xbbc3d695	-0.005976508
25	0x3b1683a0	0.0022966638
26	0x3cea0ae3	0.028569644
27	0x3d2b6366	0.04184284
28	0x3ca67b70	0.020322531
29	0x3d15ccc3	0.03657223
30	0xbc5bb8a3	-0.01341072
31	0x3c96d37e	0.018411394
32	0xbbe62771	-0.0070237448
33	0x3bea2882	0.007145942
34	0x3a0f787b	0.000547297
35	0x3bfcac78	0.0077109896
36	0x3da16593	0.07880702
37	0xbbded2e9	-0.006800045
38	0xbca16d9e	-0.01970559
39	0xbda4b0a2	-0.080415025
40	0x3dcf3f34	0.10119477
41	0xbd7551d9	-0.05989251
42	0xbd1b83c5	-0.037967462
43	0xbdb31c62	-0.08745648
44	0xbd26176a	-0.040549673
45	0xbe0d45b7	-0.13796125
46	0xb768737a	-1.3855164e-05
47	0xbe254865	-0.16140898
48	0x3cb5cd1a	0.022192527
49	0x3bbf0ea9	0.005830605
50	0xbbc7b030	-0.0060940012
51	0xbc46cc81	-0.0121337185
52	0xbce6de0d	-0.028182054
53	0xbcd907a2	-0.026492897
54	0x3e847edf	0.25878045
55	0xbdb7e432	-0.08979072
56	0xbd7df22f	-0.061998542
57	0xbd8f80ea	-0.0700701
58	0xbd345546	-0.044026636
59	0x3d0536da	0.032523014
60	0x3d0a9904	0.033837333
61	0xbc89df08	-0.016829982
62	0x3ca426fd	0.020038122
63	0x3f3afb2f	0.73039526
64	0xbe0ca431	-0.13734509
65	0xbf8d07a9	-1.1017963
66	0x3d0285ff	0.03186607
67	0xbd444637	-0.047918525
68	0xbdc6114d	-0.096712686
69	0xbb36d0ed	-0.0027895526
70	0x3c81b335	0.015832523
71	0xbcf4bbd8	-0.029874727
72	0x3c4fd836	0.012685826
73	0x3d2b324a	0.041796006
74	0xbbb0b4ff	-0.00539267
75	0xbdd8426a	-0.105595425
76	0xbd166846	-0.036720537
77	0x3be0537e	0.0068458905
78	0x3bdc0759	0.006714743
79	0xbcaed5dc	-0.02134221
80	0x3ba47009	0.0050182384
81	0xbd8cfa49	-0.068836756
82	0xbdb0ba6e	-0.08629309
83	0xbda89609	-0.08231742
84	0x3caffb69	0.021482186
85	0xbcb69f83	-0.022292858
86	0xbd1a300f	-0.03764349
87	0xbb66b2e3	-0.003520184
88	0xbb615c18	-0.0034387168
89	0xbc443e0b	-0.011977683
90	0xbb478191	-0.0030442218
91	0x3c516bab	0.012782018
92	0x3c01ebb5	0.007929732
93	0xbd931760	-0.07182193
94	0xbda416d4	-0.080121666
95	0xbda408cf	-0.080094926
96	0xbc7a501c	-0.015277889
97	0xbbbe5088	-0.00580794
98	0xbc870e42	-0.01648629
99	0xbea62b0f	-0.32454726
100	0x3f2e15b7	0.68001884
101	0xbf231a53	-0.6371204
102	0xbe01ab44	-0.12662989
103	0xbdb95833	-0.09050026
104	0xbe1f4732	-0.15554503
105	0xbee8d3e8	-0.45474172
106	0xbf02dbaf	-0.5111646
107	0xbee0a77c	-0.4387778
108	0x3e2645ac	0.16237515
109	0x3ddcbbf5	0.107780375
110	0x3d825733	0.06364288
111	0xbcb67303	-0.022271639
112	0xbe05e99d	-0.13077398
113	0x3da59ced	0.08086572
114	0x3e8311cb	0.25599512
115	0x3e73acbb	0.2379636
116	0x3d7aba56	0.06121286
117	0x3c7702a1	0.01507631
118	0x3c888934	0.016666986
119	0x3d13ff65	0.036132235
120	0x3c1a5ba6	0.009421265
121	0x3c620ba1	0.013796718
122	0x3cb7d0ae	0.022438373
123	0x3dc2815e	0.09497331
124	0xbcd83c26	-0.026395869
125	0xbc9b2beb	-0.01894184
126	0xbd1180af	-0.035523113
127	0x3d3165d8	0.043310016
128	0x3cb409d1	0.021977337
129	0x3ca3957f	0.019968746
130	0x3cfd5b37	0.030927284
131	0x3c87ed50	0.016592652
132	0x3c56ee84	0.01311839
133	0x3ce57d07	0.02801372
134	0x3cd185a9	0.02557643
135	0x3ce6098e	0.028080728
136	0x3d1f5776	0.03890177
137	0x3d3c1b59	0.04592452
138	0x3d114578	0.03546664
139	0x3cee4b22	0.02908856
140	0x3a8d8486	0.0010796941
141	0xbe6be9d9	-0.23038425
142	0xbe40701f	-0.18792771
143	0xbe56f186	-0.20990571
144	0xbcd1b70e	-0.025599983
145	0xbc9bbc0f	-0.019010572
146	0xbc8a6477	-0.016893608
147	0x3eed7dff	0.4638519
148	0x3f5ae290	0.85501957
149	0xbefbeb70	-0.49203062
150	0xbc1bfac6	-0.009520238
151	0x3c3153a9	0.010823169
152	0x3c2dacfe	0.010600327
153	0x3b643f56	0.003482779
154	0x3c02061a	0.007936025
155	0x3a29e244	0.00064805546
156	0x3dab9214	0.083774716
157	0x3db6ca60	0.08925319
158	0x3d8510ca	0.06497343
159	0x3cf558a0	0.029949486
160	0x3cd21ac6	0.025647532
161	0x3cdd18d8	0.026989385
162	0x3d06b07b	0.03288315
163	0x3b8d832e	0.0043186164
164	0x3ce82ca1	0.028341593
165	0xbe829d6c	-0.25510728
166	0xbe34ec0b	-0.17668168
167	0xbe94d978	-0.29072165
168	0xbd4314c3	-0.04762722
169	0xbda3fbe0	-0.08007026
170	0xbd0727b3	-0.032996845
171	0x3d390076	0.045166455
172	0xbbdf53aa	-0.0068153935
173	0x3d26d635	0.040731627
174	0xbce19e30	-0.02754125
175	0xbd56ceaa	-0.052443184
176	0xbd08c159	-0.033387516
177	0x3c990918	0.018681094
178	0xbc62dbe2	-0.013846369
179	0x3ceb2298	0.028703019
180	0x3d8d68ca	0.069047526
181	0x3d572263	0.052523028
182	0x3d9f592b	0.07780679
183	0xbd8328b9	-0.064042516
184	0xbd965cb1	-0.07341898
185	0xbdd45d8b	-0.103694044
186	0xbb01fd5d	-0.0019834854
187	0xbc1be6e1	-0.009515495
188	0x3aa8f168	0.0012889327
189	0xbd35e5c0	-0.04440856
190	0xbd40baec	-0.047053263
191	0xbd2ff09e	-0.04295408

encoder.block1.convblock3.0.pointwise_conv.weight f4 [64, 64, 1]
0	0xbbe811f4	-0.0070822183
1	0x3b8fe629	0.004391451
2	0x3c9b46d0	0.018954664
3	0x3a441f7d	0.0007481499
4	0x3bd9d3e5	0.0066475742
5	0xbcec9ffa	-0.028884877
6	0x3b66b1a6	0.0035201102
7	0x3c550ca1	0.013003499
8	0xba4dadee	-0.0007846047
9	0xbb9c35ee	-0.004767171
10	0x3b4407df	0.0029911918
11	0xbc2f0fd0	-0.010684922
12	0xbb7e3b00	-0.003879249
13	0x3bfdc0e5	0.007743942
14	0xbc91f62c	-0.01781758
15	0xbda96bee	-0.08272539
16	0xbb9695bd	-0.004595487
17	0x39ddcfb3	0.00042307153
18	0x3e3d2187	0.18469821
19	0xbbed93f8	-0.0072503053
20	0x3da1114c	0.07864627
21	0x3dba216f	0.09088408
22	0x3c602d42	0.013682665
23	0x3b960de1	0.004579291
24	0xbc02bbd5	-0.007979353
25	0xb9fbeefa	-0.00048052502
26	0x3b07e973	0.0020738512
27	0xbb1d4756	-0.0023998818
28	0xbb201de8	-0.0024431888
29	0xbb031490	-0.002000127
30	0xbba0431a	-0.0048908116
31	0xbc86f7b6	-0.01647554
32	0x3b54d35c	0.0032474613
33	0xbd7c97d7	-0.061668243
34	0xbd040f45	-0.032241125
35	0x3cf66a81	0.030080082
36	0x3a244a51	0.00062671775
37	0x3aa55c93	0.001261609
38	0x3c3ad7d7	0.011403999
39	0x39c4b28d	0.00037517064
40	0x3b97f5af	0.004637442
41	0x3d6a8baf	0.05726212
42	0xbab1170d	-0.0013510898
43	0xbbbe03e3	-0.005798803
44	0xbadab3b5	-0.0016685637
45	0xbb5b23dd	-0.0033438124
46	0x3b837222	0.0040114084
47	0x3b5e2ca9	0.0033901131
48	0x39984ca9	0.00029048815
49	0xbd5bb286	-0.05363705
50	0x3c53fd9a	0.012938881
51	0xbba31423	-0.0049767657
52	0xbb1d5ff4	-0.0024013491
53	0xbb368e76	-0.002785591
54	0xb97fe316	-0.00024403291
55	0x3db0fb92	0.08641733
56	0xbcf7bc07	-0.030241026
57	0xbc9d4dc4	-0.01920212
58	0x3c304f6b	0.010761122
59	0xbbbe3c09	-0.0058054966
60	0x3995cc99	0.00028571932
61	0x3bed6e4f	0.007245816
62	0x3b8f876e	0.004380158
63	0x3c54b872	0.012983428
64	0x3b97195b	0.004611177
65	0x3b9ee2a7	0.0048487964
66	0x3d91413d	0.07092521
67	0x3a8de355	0.0010825197
68	0xbb26de95	-0.002546226
69	0x3c9a1d04	0.018812664
70	0xbde7b1d6	-0.113132164
71	0xbc7685f7	-0.015046588
72	0xbb21f40b	-0.0024712111
73	0xbc3fc8c9	-0.011705586
74	0xbb31fb3a	-0.00271578
75	0xbd27dd16	-0.04098233
76	0x3b4d4708	0.0031322856
77	0xbab489c0	-0.0013773963
78	0x3c7ed0b7	0.015552691
79	0xbd563af4	-0.052302316
80	0xbbe868f7	-0.007092591
81	0x3ce64487	0.028108848
82	0x3cdcb503	0.026941782
83	0xbad30267	-0.0016098738
84	0xbd2ecb1b	-0.042674165
85	0x3b841fdc	0.0040321182
86	0x3c99fc0a	0.01879694
87	0xbce61a85	-0.028088817
88	0x39a52b0f	0.00031503334
89	0xba7a0513	-0.0009537499
90	0x3aac5e54	0.001315067
91	0x3c16deea	0.00920842
92	0x3d7c6d27	0.061627533
93	0x3b6f0656	0.0036472282
94	0xbcd127b8	-0.025531635
95	0x3d13503b	0.035965186
96	0x3bf2b1b4	0.007406438
97	0xbaa73695	-0.0012757356
98	0x3c2130ed	0.009838325
99	0x3d858de8	0.06521207
100	0xba53c192	-0.00080778555
101	0x3bcaa1a9	0.006183822
102	0xbc3657a6	-0.011129295
103	0xbb9dfbb1	-0.0048212637
104	0x3ca5f987	0.020260585
105	0xbaafce3f	-0.0013412907
106	0xbcb08ce5	-0.021551559
107	0xbb30ef40	-0.0026998073
108	0xbc8b244e	-0.016985085
109	0xbd123453	-0.03569443
110	0xbcec7a93	-0.028867042
111	0xbd0a1f5a	-0.033721305
112	0xbc072de1	-0.0082506845
113	0xbc6acc08	-0.014330871
114	0xbbda19bc	-0.0066559
115	0xbd023b64	-0.03179492
116	0xbcdbf48e	-0.026850011
117	0xbc39b65a	-0.01133498
118	0xbc1e44d3	-0.009659964
119	0xbdb46120	-0.088075876
120	0xbdca906b	-0.09890827
121	0x3c48c15b	0.012253131
122	0xbc0b0c5e	-0.008486835
123	0xbb0bcc40	-0.002133146
124	0xbd0721aa	-0.03299109
125	0xbc05222f	-0.008125826
126	0x3ce646b0	0.028109878
127	0x3d96af4c	0.07357654
128	0x3a53a065	0.0008072912
129	0xbb8e89bd	-0.004349916
130	0xbbec9f88	-0.007221166
131	0xba5cf673	-0.0008429058
132	0x3bb64577	0.00556248
133	0x3c8e1d53	0.017347967
134	0xbc7b081f	-0.01532176
135	0x3b480af2	0.0030524102
136	0x3a22e902	0.00062145304
137	0xbba2f3ca	-0.0049729096
138	0x3a5267c8	0.0008026329
139	0x3b96a2c0	0.004597038
140	0xbbb6bab0	-0.005576454
141	0x3a91ce41	0.001112409
142	0xbb00ab27	-0.0019633265
143	0x3cdc3ece	0.026885416
144	0xbb42bb17	-0.0029713565
145	0x3b82bc99	0.0039897677
146	0x3db6cf12	0.08926214
147	0x3b5ab50c	0.0033372073
148	0x3c80e130	0.015732378
149	0x3d2d6394	0.042331293
150	0x3cf479a4	0.029843159
151	0x3b03b238	0.002009524
152	0xbc12d4a2	-0.008961828
153	0x3c84aa4c	0.016194485
154	0x3a7e4052	0.00096989155
155	0x3c006033	0.007835436
156	0x3b9408f9	0.004517671
157	0xbb1f7285	-0.0024329734
158	0xbac18312	-0.0014763793
159	0xbb37efe8	-0.002806658
160	0x3b3b4c45	0.0028579396
161	0xbcbf1158	-0.0233237
162	0x3d53876e	0.051642828
163	0xbd870054	-0.065918595
164	0xbc458c91	-0.012057439
165	0x3cf822b1	0.03028998
166	0x3bddc39f	0.0067677046
167	0xbb1717fc	-0.0023055067
168	0x3ba94511	0.005165704
169	0x3cfb734c	0.030694626
170	0xbc2d90b4	-0.010593582
171	0xbb4a34e8	-0.0030854288
172	0xbabea42a	-0.0014544774
173	0xbbb1c738	-0.00542536
174	0xbc07073a	-0.008241469
175	0x3a7e89b9	0.00097098533
176	0x3c0a1959	0.008428895
177	0xbe0f7f1f	-0.14013337
178	0xbbe644ed	-0.0070272596
179	0xbbb199fb	-0.005419967
180	0xba992815	-0.0011684919
181	0xb8f45dc7	-0.00011652294
182	0xbbdcc3e1	-0.006737218
183	0x3bcf8827	0.0063333693
184	0xbb7939b6	-0.0038028783
185	0xbb3002fd	-0.002685725
186	0x3b32f43a	0.0027306215
187	0x3a8e37e7	0.00108504
188	0xbc00b0e5	-0.007854675
189	0x3ac7b413	0.0015236161
190	0xbba00981	-0.0048839455
191	0x3bc4375a	0.0059880437
192	0x3aaded6b	0.0013269609
193	0xbb6ecac0	-0.0036436766
194	0xbc45e25d	-0.012077895
195	0xbaa2c081	-0.001241699
196	0xbb1e0056	-0.0024109087
197	0xbc8bf7fb	-0.01708602
198	0xbba18aae	-0.004929862
199	0xbd00840f	-0.03137594
200	0xbb9769ac	-0.0046207514
201	0xbbfc8e2b	-0.0077073774
202	0x3a5cdf88	0.0008425643
203	0xbc21f149	-0.009884187
204	0xbc139277	-0.009007088
205	0x3acbeb4e	0.0015557797
206	0xbcb4102c	-0.021980368
207	0x3cbbfa0f	0.022946386
208	0xba18afb7	-0.00058245234
209	0x39c51776	0.00037592248
210	0xbd8b4333	-0.067999266
211	0x3b989fcb	0.0046577207
212	0x3c84b0a7	0.016197516
213	0xbc9c4171	-0.019074174
214	0xbb23e948	-0.0025010873
215	0x3b5a3737	0.003329707
216	0xbbfbd74e	-0.0076855784
217	0x3c3fb692	0.011701243
218	0x3a69e5ae	0.00089224696
219	0x3c49969c	0.0123039745
220	0xbbf96d07	-0.007611874
221	0x3b72b780	0.0037035644
222	0xbbaa6e34	-0.0052011255
223	0xbcf86983	-0.03032375
224	0x3b7ec785	0.0038876247
225	0xbc593abe	-0.013258634
226	0x3ce916ab	0.028453192
227	0xbc397a13	-0.011320609
228	0x3baa6735	0.0052002915
229	0xbc111fcf	-0.008857681
230	0xbc922611	-0.017840417
231	0xbb8189b0	-0.003953181
232	0xbbf69eab	-0.007526239
233	0xbc52fc7e	-0.012877582
234	0x3bd3bd67	0.0064617875
235	0x35e6d605	1.7198623e-06
236	0xbb4e33eb	-0.003146405
237	0xbbbeeddf	-0.0058266963
238	0xbc026814	-0.0079593845
239	0xbc0f489e	-0.008745341
240	0x3ba87d1b	0.005141867
241	0x3d98cd4a	0.07461031
242	0x3a69c6e3	0.0008917881
243	0x3c1ff8a8	0.009763874
244	0xbbd71516	-0.006563793
245	0xbc200a06	-0.009768015
246	0xbb4f0703	-0.0031589873
247	0x3d3d196c	0.046166822
248	0x3c120601	0.008912564
249	0xbc6880b3	-0.014190841
250	0xbbe1248e	-0.0068708127
251	0xbbfc7104	-0.007703902
252	0xbc82dd08	-0.015974537
253	0xbcc215e6	-0.023692083
254	0x3b9b9f95	0.0047492483
255	0xbba8eded	-0.005155316

encoder.block1.convblock3.1.weight f4 [64]
0	0x3e207566	0.15669784
1	0x3e07769a	0.13228837
2	0x3e5ea699	0.2174324
3	0x3e13f6a7	0.14449559
4	0x3edd284c	0.43194807
5	0x3f2faafb	0.6862027
6	0x3ead6a04	0.33869946
7	0x3e6eec1f	0.2333226
8	0x3e9b5ec7	0.30345747
9	0x3ed3bec2	0.41356474
10	0x3e0357de	0.12826487
11	0x3f56b375	0.8386758
12	0x3d8ea719	0.06965465
13	0x3e2d2637	0.16909109
14	0x3e63ad5f	0.22234105
15	0x3ea25aa8	0.3170979
16	0x3ea63c94	0.32468092
17	0x3f010ecd	0.5041321
18	0x3edb6349	0.42849186
19	0x3f16d961	0.58925444
20	0x3f6edc6e	0.933051
21	0x3e9f54cc	0.31119382
22	0x3dff3c3e	0.12462662
23	0x3eda9fec	0.42700136
24	0x3f39335d	0.72344
25	0x3edfdbc8	0.43722367
26	0x3f02f58e	0.51155937
27	0x3e8f1e08	0.279526
28	0x3eab34bf	0.3343868
29	0x3ef62d96	0.48081654
30	0x3d64d7f2	0.055870004
31	0x3eb66f14	0.3563162
32	0x3e5a97b8	0.21346939
33	0x3f095363	0.53642863
34	0x3e871881	0.26385882
35	0x3e8bcb0e	0.27303356
36	0x3e606fb5	0.21917613
37	0x3e6c5803	0.23080449
38	0x3f15275f	0.582632
39	0x3eae9898	0.34100795
40	0x3df082e0	0.117437124
41	0x3f02734f	0.50957197
42	0x3ec66293	0.3874708
43	0x3d91c5d3	0.0711781
44	0x3ee7ba6a	0.4525941
45	0x3de26c32	0.11055793
46	0x3f00d2dd	0.5032175
47	0x3e38f890	0.18063569
48	0x3de720e8	0.11285573
49	0x3e9b5bbe	0.3034343
50	0x3eed4efb	0.4634932
51	0x3f003e07	0.50094646
52	0x3e8a162c	0.2697004
53	0x3e04f399	0.1298355
54	0x3eccaae2	0.39974123
55	0x3ec3d930	0.38251638
56	0x3e22b168	0.15887988
57	0x3e531f72	0.20617464
58	0x3f5368d8	0.82581854
59	0x3ea21edb	0.31664166
60	0x3ec40d96	0.38291615
61	0x3d7bc24d	0.061464597
62	0x3e4e7967	0.20163499
63	0x3e195eef	0.1497762

encoder.block1.convblock3.1.bias f4 [64]
0	0xbe0b91fb	-0.13629906
1	0x3baaba50	0.0052101985
2	0xbd85e4de	-0.065377936
3	0x3cc6369b	0.02419596
4	0xbe301ca2	-0.17198423
5	0xbe8570b3	-0.26062545
6	0xbe4470b4	-0.19183618
7	0xbdb210d8	-0.08694619
8	0xbc846987	-0.0161636
9	0x3c28a440	0.0102930665
10	0xbe0bfae6	-0.13669929
11	0xbeda39de	-0.42622274
12	0xbcfed3a4	-0.031106777
13	0xbd74e540	-0.059788942
14	0xbde8e5b3	-0.11371937
15	0x3e4a7243	0.1977015
16	0xbd0c5c0a	-0.034267463
17	0xbd20d06b	-0.039261263
18	0xbda0e589	-0.0785628
19	0xbce88059	-0.028381513
20	0xbf03ffe3	-0.5156233
21	0x3e381081	0.17975046
22	0x3c8a90d3	0.01691476
23	0xbdcfd892	-0.101487294
24	0xbdbe11fa	-0.092807725
25	0xbe271982	-0.16318324
26	0xbe90309e	-0.28162092
27	0xbd11447e	-0.03546571
28	0x3de6d519	0.11271114
29	0xbe2304cb	-0.15919797
30	0xbd99f52d	-0.07517467
31	0xbdc7d2b6	-0.09756987
32	0xbd9fc885	-0.07801918
33	0xbd43f170	-0.047837675
34	0x3e083974	0.13303167
35	0xbd9968cb	-0.07490691
36	0xbcae139a	-0.021249581
37	0xbd70fd34	-0.058835223
38	0xbca74868	-0.020420268
39	0x3d9bf927	0.076158814
40	0xbd896987	-0.06709581
41	0x3da872ff	0.08225059
42	0x3d0e8550	0.034795105
43	0xbd45049e	-0.048100106
44	0xbe54f4ae	-0.20796463
45	0xbddcab6c	-0.10774884
46	0xbd4a1501	-0.049336437
47	0x3d2c8fc7	0.042129304
48	0xba1b0b90	-0.00059145037
49	0xbdbadb4a	-0.09123857
50	0xbdf84e96	-0.12124364
51	0xbdb13e5f	-0.086544745
52	0xbdf22781	-0.11823941
53	0xbd732390	-0.059360087
54	0xbaa4b58d	-0.0012566313
55	0xbe6bb19d	-0.23016973
56	0xbd963b79	-0.07335562
57	0x3c4346f6	0.011918774
58	0xbe03bfd9	-0.12866153
59	0xbe33a6d2	-0.17544106
60	0x3db9baca	0.0906883
61	0xbd77f739	-0.060538504
62	0xbe1508a6	-0.1455408
63	0xbd549852	-0.051903076

encoder.block1.convblock3.1.running_mean f4 [64]
0	0xbcdc85f0	-0.026919335
1	0x3d1bd260	0.038042426
2	0xbd1f7e30	-0.0389387
3	0x3cb560f8	0.022140965
4	0x3c5d4ab8	0.013506584
5	0xbd8ac9a7	-0.067767434
6	0xbb2d21c5	-0.0026417833
7	0x3cfd0093	0.030884063
8	0x3bdc39b4	0.006720746
9	0x3cb13207	0.0216303
10	0xbc589e51	-0.013221339
11	0x3d52e3bf	0.051486727
12	0x3c0bda3c	0.008535918
13	0xbcd60a05	-0.026127825
14	0xbcad5661	-0.021159353
15	0xbd8da897	-0.069169216
16	0x3c8bdc04	0.017072685
17	0x3d9c8a20	0.07643533
18	0xbdad4eec	-0.08462319
19	0x3dafd5bd	0.08585689
20	0x3e11b59d	0.14229436
21	0x3d30d17c	0.04316853
22	0xbbc40e7f	-0.0059831734
23	0x3cbf7d27	0.023375107
24	0x3de93cc2	0.11388542
25	0x3d3dd0cd	0.046341706
26	0x3cdee650	0.027209431
27	0xbd802944	-0.06257871
28	0xbb8bbb1e	-0.0042642495
29	0x3cd02107	0.025406374
30	0x3c8ea8c5	0.01741446
31	0x3cf4e64d	0.029894972
32	0xbb9139d7	-0.004431944
33	0x3dae3942	0.08507015
34	0xbd4280c0	-0.047486067
35	0x3d9ccb4b	0.076559626
36	0x3c33c4cf	0.010972216
37	0xbccb666f	-0.024829118
38	0x3d9d7a5d	0.076893546
39	0xbc88d42e	-0.016702738
40	0xbc80878a	-0.01568963
41	0xbcd63a4f	-0.02615085
42	0x3c830bb2	0.015996788
43	0x3bc745a8	0.0060813017
44	0x3c5884a1	0.013215215
45	0x3ce5e61e	0.02806383
46	0x3d92bc35	0.07164804
47	0x3cf07a06	0.02935506
48	0x3c235fdf	0.009971588
49	0x3c096e1c	0.0083880685
50	0x3ccf0978	0.02527307
51	0x3d1a540a	0.037677802
52	0x3d8c3a83	0.06847098
53	0x3d05ba93	0.032648634
54	0x3d135c60	0.035976768
55	0xbc7561c9	-0.014976927
56	0x3d49106d	0.04908793
57	0xbcb967ca	-0.022632498
58	0x3e09d0b5	0.13458522
59	0x3d1b7c90	0.03796059
60	0x3dc709d5	0.09718672
61	0x3c9e1200	0.019295692
62	0x3be972a7	0.0071242633
63	0x3ccc328e	0.02492645

encoder.block1.convblock3.1.running_var f4 [64]
0	0x3ad2c502	0.0016080441
1	0x3954665a	0.00020256024
2	0x3a3ec06c	0.0007276598
3	0x3a14f93f	0.00056828925
4	0x3a0d0327	0.0005379193
5	0x3b8a06e2	0.0042122463
6	0x3a76730a	0.00094012974
7	0x3ab9f712	0.0014188013
8	0x3995cbb7	0.00028571274
9	0x3ace0ca3	0.0015720319
10	0x39cca036	0.0003902928
11	0x3b77a70d	0.003778878
12	0x387040b2	5.728071e-05
13	0x3a28a963	0.0006433932
14	0x3a751b42	0.000935007
15	0x3b57f118	0.00329501
16	0x39b3da97	0.00034304403
17	0x3c2a1d05	0.010382895
18	0x3b197b2e	0.0023419368
19	0x3c8a22f5	0.016862372
20	0x3c4e1ed7	0.012580595
21	0x3ab697f5	0.0013930785
22	0x38538f2b	5.0439656e-05
23	0x3a6ccaff	0.00090329343
24	0x3c7b2fe6	0.015331244
25	0x3aa811d7	0.00128227
26	0x3ab3ccfa	0.0013717704
27	0x3a8cc87f	0.0010740905
28	0x3a447dad	0.0007495534
29	0x3a83a88c	0.0010044738
30	0x3a2d44fd	0.00066097063
31	0x3b414fc7	0.0029497014
32	0x39fca4d5	0.00048187995
33	0x3c21b054	0.0098687
34	0x3b71d3bd	0.0036899887
35	0x3b389546	0.0028165146
36	0x3a259b8a	0.00063174276
37	0x39d7ca35	0.00041158652
38	0x3c6481bb	0.013946946
39	0x3a81f157	0.0009913844
40	0x39990681	0.0002918728
41	0x3b28e28d	0.00257698
42	0x3a961a9e	0.0011452024
43	0x390efbd4	0.00013635989
44	0x3a4adb9a	0.00077384117
45	0x3932bf92	0.00017046768
46	0x3bf3621f	0.0074274684
47	0x3a00407d	0.0004892422
48	0x383929c2	4.4146327e-05
49	0x398e359f	0.000271243
50	0x3a249b76	0.0006279269
51	0x3aeef58d	0.0018231139
52	0x3b461b3b	0.0030228633
53	0x3a3631b6	0.00069501565
54	0x3aceadc3	0.0015768338
55	0x3a1302df	0.0005608033
56	0x3a87aa86	0.0010350503
57	0x39c844f5	0.0003819835
58	0x3cfcb139	0.030846225
59	0x3a78ed1a	0.000949578
60	0x3bb1dbaa	0.0054277973
61	0x39e9e1ea	0.00044609542
62	0x3a1278d0	0.00055874605
63	0x38c80a15	9.538621e-05

encoder.block1.shortcut.0.weight f4 [64, 1, 1]
0	0xbcee8597	-0.029116435
1	0xbc3a9052	-0.011386948
2	0x3cb5ef02	0.022208694
3	0xbcce8785	-0.025211105
4	0xbcded810	-0.027202636
5	0x3ceca84e	0.028888848
6	0xbc3d34a1	-0.011548192
7	0x3c9759e7	0.018475486
8	0x3cd2ba6e	0.025723662
9	0x3ca23281	0.019799473
10	0x3cb3e810	0.021961242
11	0x3bfd6151	0.0077325483
12	0xbcca63e5	-0.024705837
13	0x3b8ff7ea	0.0043935673
14	0xbceb6eb8	-0.028739318
15	0xbbcad1c7	-0.006189558
16	0xbb9781fc	-0.0046236496
17	0x3c30c66b	0.010789494
18	0x3c3dca82	0.011583926
19	0xbc26b032	-0.010173844
20	0x3c0381fd	0.008026597
21	0xbc1af3d6	-0.009457549
22	0xbcb9a494	-0.022661485
23	0xbb9c352c	-0.004767081
24	0x3c967307	0.018365396
25	0xbbee289b	-0.007268024
26	0x3c11ff90	0.0089110285
27	0xbc80d828	-0.015728071
28	0xbcc73654	-0.024317898
29	0x3c9b2bd5	0.0189418
30	0xbced4007	-0.028961195
31	0x3b6b304e	0.0035886946
32	0xbc99b9e0	-0.01876539
33	0xbd038b26	-0.032115124
34	0xbbb88e5e	-0.005632206
35	0xbc2ff324	-0.010739122
36	0xbc838d3e	-0.01605856
37	0xbbefb4cc	-0.007315254
38	0x3c9b5d29	0.01896532
39	0xbd029a3a	-0.031885363
40	0x3ce8311b	0.028343728
41	0xbca62556	-0.020281475
42	0x3bb03638	0.005377557
43	0x3b55809a	0.0032577873
44	0xbc6a6aa1	-0.014307649
45	0xbbc497e5	-0.0059995526
46	0xbc5a60de	-0.013328759
47	0xbbcfdf71	-0.006343775
48	0x3c9b8c2a	0.018987734
49	0xbcec284f	-0.028827814
50	0xbce7a72f	-0.028277962
51	0x3ce54366	0.02798624
52	0x3d065cf4	0.03280349
53	0x3cd71177	0.026253445
54	0x3cd46a36	0.025929552
55	0xbc83be92	-0.016082082
56	0x3c974a79	0.018468129
57	0x3bb7c2ee	0.005607954
58	0x3cf817fa	0.03028487
59	0xbc81a90c	-0.015827678
60	0xbb61d1b3	-0.0034457266
61	0x3c9995e8	0.018748239
62	0x3c4d8158	0.012543045
63	0x3d02ec3c	0.031963572
