ldpi/training/output/ResCNN/pretrained_model.pth (torch, 711292 bytes, 63 tensors)

encoder.block1.convblock1.0.depthwise_conv.weight f4 [1, 1, 7]
-0.3414876 -2.0106227 -0.37905782 -0.15204187 0.06883775 0.004476965 0.022018794
00000000: 76d7 aebe 0bae 00c0 de13 c2be ddb0 1bbe
00000010: cefa 8c3d 81b3 923b c260 b43c

encoder.block1.convblock1.0.pointwise_conv.weight f4 [64, 1, 1]
-0.026741905 0.017885696 0.03269247 -0.030972674 -0.0041060555 -0.028579872 0.023860835 0.026749952
-0.015914582 0.011241206 -0.027063228 -0.0043523507 0.030023105 -0.022559145 0.03294094 0.0052010915
0.0065274467 0.03196351 -0.011310214 -0.01422812 0.032929543 0.026799573 -0.019019777 -0.03576438
-0.0038446304 -0.02985437 0.035222135 -0.027689489 -0.026869556 0.0068964283 0.025278766 -0.035231568
-0.0146209225 -0.034341276 0.0019349541 -0.006288009 -0.016165081 0.0030223283 -0.004069499 0.0025652018
0.03398415 -0.008190921 0.016734257 0.03300368 0.02498327 -0.011927787 -0.030724691 -0.021627415
0.016129237 -0.016448772 -0.028350972 0.023599537 0.025549298 0.030135198 0.02812459 -0.02141989
-0.02207596 0.0034403335 0.032276627 0.010164913 -0.004423299 0.012593263 0.027598323 -0.0033103952
00000000: d711 dbbc 0685 923c 8ae8 053d 68ba fdbc
00000010: 178c 86bb 5620 eabc cc77 c33c b722 db3c
00000020: 4c5f 82bc 092d 383c b4b3 ddbc 2a9e 8ebb
00000030: 04f3 f53c f5cd b8bc 14ed 063d eb6d aa3b
00000040: 31e4 d53b 2bec 023d 7a4e 39bc 101d 69bc
00000050: 21e1 063d c78a db3c 5dcf 9bbc ac7d 12bd
00000060: 32f6 7bbb 2791 f4bc 1645 103d 11d5 e2bc
00000070: 8b1d dcbc 6ffb e13b 6a15 cf3c fa4e 10bd
00000080: 988c 6fbc 70a9 0cbd 499e fd3a a50b cebb
00000090: a26c 84bc 4112 463b 6f59 85bb f21c 283b
000000a0: f732 0b3d 3633 06bc 4816 893c de2e 073d
000000b0: b7a9 cc3c c46c 43bc 59b2 fbbc fa2b b1bc
000000c0: 7621 843c 93bf 86bc 4c40 e8bc d153 c13c
000000d0: c34c d13c 17de f63c 8a65 e63c c478 afbc
000000e0: a5d8 b4bc 3877 613b 7f34 043d bc8a 263c
000000f0: 52f1 90bb f953 4e3c e115 e23c 37f3 58bb

encoder.block1.convblock1.1.weight f4 [64]
0.2088912 0.7258008 0.75188625 0.19509125 0.26259026 0.23108727 0.4557599 0.017502956
0.6661869 0.3323816 0.08643858 0.05371528 0.49775648 0.38550517 0.04798197 0.42891407
0.47238412 0.057972644 0.050808113 0.73567057 0.42331415 0.041805483 0.11021315 0.05210479
0.316508 0.79283744 0.3807714 0.37840903 0.23766114 0.08104161 0.38098845 0.10796511
0.048307654 0.05736549 0.09767449 0.24662343 0.4841548 0.14260267 0.28632593 0.112887144
0.2621891 0.78131616 0.043353703 0.034887575 0.18751602 0.16669823 0.114016846 0.10326097
0.20547082 0.058317743 0.5646712 0.3149433 0.042691626 0.13635959 0.05597444 0.013937412
0.50053644 0.08145587 0.5499058 0.4017406 0.19206747 0.3420351 0.050250757 0.08243649
00000000: 93e7 553e 15ce 393f 9e7b 403f 00c6 473e
00000010: 3b72 863e 24a2 6c3e 5d59 e93e 5c62 8f3c
00000020: 3a8b 2a3f ec2d aa3e b606 b13d 8e04 5c3d
00000030: f0d9 fe3e ef60 c53e be88 443d a09a db3e
00000040: 55dc f13e b974 6d3d 2b1c 503d e854 3c3f
00000050: a2bc d83e 3a3c 2b3d 6fb7 e13d d56b 553d
00000060: 560d a23e 65f7 4a3f 78f4 c23e d4be c13e
00000070: 715d 733e 25f9 a53d eb10 c33e d01c dd3d
00000080: 3fde 453d 13f8 6a3d 9009 c83d da8a 7c3e
00000090: 23e3 f73e 6f06 123e 5099 923e 6031 e73d
000000a0: a63d 863e 5604 483f a793 313d 46e6 0e3d
000000b0: 3304 403e f1b2 2a3e aa81 e93d 7d7a d33d
000000c0: f166 523e 96de 6e3d 4b8e 103f 4040 a13e
000000d0: 6add 2e3d d9a1 0b3e 7445 653d be59 643c
000000e0: 2823 003f 56d2 a63d a0c6 0c3f f2b0 cd3e
000000f0: 56ad 443e 3a1f af3e bdd3 4d3d 76d4 a83d

encoder.block1.convblock1.1.bias f4 [64]
-0.40821794 -0.48687017 -0.36558762 -0.05157425 0.60972023 0.06631958 0.30027056 0.38040563
-0.15921356 -0.110374354 -0.6442083 -0.0916 0.47454897 0.15769579 0.013182685 -0.48127255
-0.13406853 0.030760512 -0.021060463 -0.19631249 0.61794317 -0.009609051 -0.063225985 -0.01180661
0.30213973 0.1978232 0.38942355 0.8586704 0.045997158 -0.021777859 0.52807117 0.040308308
-0.0109101925 -0.09619547 -0.1762895 0.3259137 0.21671751 -0.030544689 -0.016280914 -0.029722827
-0.08746793 0.28535548 -0.06914155 -0.048628356 0.047272567 -0.755986 0.08637096 -0.14957012
-0.11896985 -0.07220741 0.37172812 -0.089333504 -0.046718292 -0.036166385 -0.08677226 -0.06103269
0.31165773 0.04564993 0.12358417 -0.08381953 0.04195452 -0.16032337 -0.020035978 -0.018498413
00000000: f101 d1be 0c47 f9be 4d2e bbbe 853f 53bd
00000010: a016 1c3f 8fd2 873d 10bd 993e 87c4 c23e
00000020: e108 23be f30b e2bd d6ea 24bf c898 bbbd
00000030: 15f8 f23e 017b 213e 30fc 573c 5b69 f6be
00000040: 4349 09be 78fd fb3c fe86 acbc 2406 49be
00000050: 8631 1e3f 486f 1dbc a07c 81bd 8370 41bc
00000060: 0fb2 9a3e 2a92 4a3e 8662 c73e d3d1 5b3f
00000070: 8467 3c3d 7b67 b2bc ac2f 073f 531a 253d
00000080: aac0 32bc 2102 c5bd 3c85 34be 29de a63e
00000090: 32eb 5d3e db38 fabc 8d5f 85bc 497d f3bc
000000a0: 6322 b3bd 1d1a 923e 169a 8dbd 872e 47bd
000000b0: e1a0 413d 4c88 41bf 42e3 b03d e928 19be
000000c0: 77a6 f3bd 7be1 93bd 2653 be3e 7cf4 b6bd
000000d0: ae5b 3fbd 3423 14bd a8b5 b1bd 6afd 79bd
000000e0: 9a91 9f3e 6cfb 3a3d b319 fd3d 93a9 abbd
000000f0: 81d8 2b3d cf2b 24be 7e22 a4bc fc89 97bc

encoder.block1.convblock1.1.running_mean f4 [64]
0.07207558 -0.048206065 -0.08811372 0.08347849 0.011066764 0.077029325 -0.06431044 -0.07209728
0.042893462 -0.030297633 0.07294162 0.011730586 -0.08091918 0.060802087 -0.088783406 -0.014018137
-0.01759297 -0.08614901 0.030483628 0.038348056 -0.088752694 -0.07223101 0.051262677 0.09639323
0.010362163 0.0804644 -0.09493176 0.07462955 0.072419636 -0.01858746 -0.06813209 0.09495717
0.03940675 0.09255763 -0.005215146 0.01694763 0.04356861 -0.00814587 0.010968235 -0.0069138086
-0.0915951 0.022076415 -0.045102667 -0.088952504 -0.06733566 0.03214813 0.08281012 0.058290854
-0.043472007 0.04433322 0.07641239 -0.06360618 -0.06886124 -0.08122129 -0.07580224 0.057731528
0.059499796 -0.009272491 -0.086992934 -0.027396781 0.011921809 -0.03394174 -0.074383825 0.008922276
00000000: 5d9c 933d b973 45bd f774 b4bd c5f6 aa3d
00000010: 5f51 353c 8dc1 9d3d 31b5 83bd bda7 93bd
00000020: 0eb1 2f3d be32 f8bc 6b62 953d a531 403c
00000030: f4b8 a5bd 9c0b 793d 13d4 b5bd 54ac 65bc
00000040: 221f 90bc e46e b0bd cdb8 f93c da12 1d3d
00000050: f9c3 b5bd daed 93bd d0f8 513d d069 c53d
00000060: 10c6 293c 85ca a43d 956b c2bd 61d7 983d
00000070: bf50 943d bb44 98bc d688 8bbd e878 c23d
00000080: f968 213d db8e bd3d d1e3 aabb c2d5 8a3c
00000090: 0075 323d 4176 05bc 1db4 333c 3b8d e2bb
000000a0: 3696 bbbd 99d9 b43c 93bd 38bd bb2c b6bd
000000b0: 47e7 89bd c2ad 033d 5a98 a93d 64c2 6e3d
000000c0: b40f 32bd c096 353d 197e 9c3d f543 82bd
000000d0: 1f07 8dbd 5957 a6bd 343e 9bbd e577 6c3d
000000e0: 0fb6 733d a5eb 17bc 5a29 b2bd 376f e0bc
000000f0: b153 433c 7e06 0bbd 8c56 98bd bd2e 123c

encoder.block1.convblock1.1.running_var f4 [64]
2.339769 1.0466465 3.4969041 3.1386702 0.055161733 2.6724453 1.8627713 2.341177
0.82866454 0.41344157 2.396335 0.06197778 2.949168 1.6650741 3.5502608 0.08850694
0.13940391 3.342698 0.41853324 0.6623436 3.5478048 2.349871 1.1835841 4.1849446
0.048361246 2.9161115 4.0590057 2.5085235 2.3621597 0.15560971 2.0907397 4.06118
0.6994196 3.8585236 0.012249817 0.12936436 0.8549566 0.02988626 0.054183893 0.021529373
3.7786891 0.21950969 0.91622293 3.5637975 2.0421462 0.46548754 3.0886118 1.5303737
0.8511692 0.88522816 2.6298087 1.8221967 2.1357296 2.9712303 2.5879784 1.5011452
1.5945109 0.03872482 3.4085097 0.3380614 0.06401487 0.5188775 2.4920323 0.035854854
00000000: c6be 1540 83f8 853f 47cd 5f40 f9df 4840
00000010: 45f1 613d 5809 2b40 4a6f ee3f d8d5 1540
00000020: 5c23 543f 9dae d33e 8d5d 1940 6adc 7d3d
00000030: 2bbf 3c40 2621 d53f 7937 6340 2043 b53d
00000040: e6bf 0e3e c4ee 5540 fd49 d63e 5a8f 293f
00000050: 3c0f 6340 4964 1640 af7f 973f 11eb 8540
00000060: 7116 463d 92a1 3a40 60e3 8140 a68b 2040
00000070: a02d 1740 2758 1f3e aece 0540 30f5 8140
00000080: 2a0d 333f 0df2 7640 75b3 483c 1778 043e
00000090: 70de 5a3f 08d4 f43c eeef 5d3d 5e5e b03c
000000a0: 0bd6 7140 26c7 603e 968d 6a3f 4215 6440
000000b0: 86b2 0240 6254 ee3e d1ab 4540 49e3 c33f
000000c0: 3ae6 593f 509e 623f c94e 2840 be3d e93f
000000d0: cbaf 0840 a328 3e40 70a1 2540 8725 c03f
000000e0: ef18 cc3f eb9d 1e3d 0625 5a40 6216 ad3e
000000f0: 3a1a 833d 28d5 043f 757d 1f40 8adc 123d

encoder.block1.convblock2.0.depthwise_conv.weight f4 [64, 1, 5]
0.03947858 0.033770204 0.052970342 0.04988785 0.03516222 0.041328385 0.0710236 0.15359354
0.013668751 0.055696867 0.096446864 0.13913597 0.16465221 0.13761543 0.14121744 -0.13252091
-0.05492801 -0.05346042 -0.073530614 -0.066535905 -0.1671771 -0.06536504 0.09754164 -0.04246023
-0.088108025 -0.06914381 -0.09508899 -0.04367425 -0.107860126 -0.10993758 -0.7173375 -0.06096938
0.11988381 0.14504673 0.2140861 0.08335748 0.013367481 -0.049995504 0.18315838 0.25279433
0.037513506 0.12493125 0.17505577 0.104452655 0.15799205 -0.48974088 0.01595914 0.1490705
0.21804914 0.20740989 -0.046799287 0.13379681 0.15580368 0.022992644 0.013888707 0.02099892
0.012749179 0.023695292 0.0078070154 -0.010078377 0.56320196 -0.47011214 -0.04833614 0.017661963
-0.08330257 -0.122961745 -0.15305017 -0.023158876 -0.11258517 -0.20908011 0.038468547 0.0073947394
0.01731969 -0.0021984603 -0.0022402222 0.033643767 0.00016605486 -0.056578517 0.016002813 0.005532768
-0.12769072 -0.1605857 -0.15624101 -0.121655434 -0.13807452 -0.04679137 0.010134258 0.003341232
-0.007703161 -0.028597528 0.009935629 -0.0323485 0.027835654 0.007371188 0.030252881 -0.20605803
-0.15495054 -0.25821385 -0.121491216 -0.22692971 0.41578868 0.26182875 -0.17995407 -0.1923225
0.030049846 -0.024753507 -0.0238164 -0.0024941002 -0.0043621203 -0.013401605 0.07758243 -0.06555052
-0.011423964 0.040103316 0.05505288 -0.01995468 -0.029160641 -0.019238332 0.0139879305 0.01562451
-0.02410007 0.23367916 -0.04459305 0.029029017 0.1087042 -0.14051771 -0.25004643 -0.18975395
-0.14150243 -0.11772122 -0.23242657 0.21801426 -0.03109131 0.13591173 0.27505648 -0.31682825
-0.053914685 0.6933331 0.003988054 -0.58988047 0.09027915 0.114115976 0.10148112 0.07783655
0.04910368 0.013479839 -0.030149546 -0.041707873 -0.04679898 -0.033328127 0.3755245 0.30984053
-0.065573506 -0.16693775 -0.21936937 0.042425938 -0.0989611 0.037214793 -0.010948053 0.010412106
-0.0023542834 -0.036078934 0.0009442385 -0.017491192 0.005907326 0.021655582 0.023355007 0.0049927398
0.020181745 0.0073466846 -0.0060582 -0.014926333 -0.023354292 -0.01693636 -0.03269711 0.20409824
0.063029796 -0.18045399 -0.105354294 -0.11600225 -0.37769526 0.17294483 0.24305324 0.19189242
0.117669925 0.03038981 0.08202443 0.09910769 -0.0059959283 0.015425272 0.04178198 0.11120739
0.15602472 0.0691775 0.04748249 -0.046840243 -0.0471578 -0.042816084 -0.036772527 -0.05130204
0.06538793 0.1480857 0.119250774 0.084662 0.05002319 0.037133172 0.6973435 -0.9044835
-0.1836953 -0.07400177 0.0043110377 0.017894648 0.010930711 0.008455691 0.019437041 0.003618962
-0.03581189 0.011798087 -0.0055311685 -0.013846713 -0.14153323 -0.06997039 -0.09892106 -0.021261929
-0.004363407 0.022751857 0.041708972 0.0018124055 0.002630442 0.060228616 -0.015948072 0.018534446
-0.01868865 -0.06815068 -0.06448365 0.030871894 0.007493698 -0.0033483016 0.019152883 -0.008778031
-0.07045154 -0.24752437 0.123440534 0.13467176 0.046507075 0.008842093 0.031710774 0.06063071
-0.005601314 -0.022937145 -0.9018428 -0.11779072 0.2714181 0.27544877 0.21407226 0.08979559
00000000: 4bb4 213d a052 0a3d 6ef7 583d 3457 4c3d
00000010: 4306 103d f447 293d d274 913d a047 1d3e
00000020: e6f2 5f3c 6622 643d ef85 c53d a979 0e3e
00000030: 979a 283e 0feb 0c3e 4e9b 103e 90b3 07be
00000040: 31fc 60bd 50f9 5abd 3897 96bd fa43 88bd
00000050: 7930 2bbe 1bde 85bd e9c3 c73d c7ea 2dbd
00000060: fb71 b4bd 459b 8dbd 04be c2bd c5e3 32bd
00000070: c5e5 dcbd f426 e1bd 6ea3 37bf 07bb 79bd
00000080: a585 f53d 2187 143e 6339 5b3e 54b7 aa3d
00000090: 4703 5b3c 16c8 4cbd df8d 3b3e 426e 813e
000000a0: c3a7 193d f5db ff3d d241 333e 46eb d53d
000000b0: abc8 213e 51bf fabe bebc 823c f0a5 183e
000000c0: 4648 5f3e 4263 543e 9cb0 3fbd 0802 093e
000000d0: 008b 1f3e 125b bc3c 768d 633c ed05 ac3c
000000e0: efe1 503c a11c c23c fed1 ff3b c71f 25bc
000000f0: 012e 103f 8ab2 f0be 1efc 45bd d2af 903c
00000100: 8a9a aabd 5ed3 fbbd 2fb9 1cbe afb7 bdbc
00000110: 0e93 e6bd 1919 56be 3291 1d3d 924f f23b
00000120: 06e2 8d3c 0b14 10bb b1d0 12bb 0cce 093d
00000130: 031f 2e39 e0be 67bd 5518 833c 394c b53b
00000140: 5bc1 02be 9470 24be a5fd 1fbe 7c26 f9bd
00000150: 6863 0dbe 4fa8 3fbd 290a 263c 92f8 5a3b
00000160: cc6a fcbb 5d45 eabc 0cc9 223c dc7f 04bd
00000170: 9907 e43c 028a f13b e4d4 f73c e000 53be
00000180: 5bab 1ebe 9b34 84be 63d0 f8bd 4360 68be
00000190: 41e2 d43e 6b0e 863e e145 38be 30f0 44be
000001a0: 182b f63c dec7 cabc 9c1a c3bc 0f74 23bb
000001b0: 1ef0 8ebb 6892 5bbc 89e3 9e3d 5a3f 86bd
000001c0: 942b 3bbc 6043 243d 217f 613d ff77 a3bc
000001d0: 4ce2 eebc b599 9dbc a22d 653c f2fd 7f3c
000001e0: 836d c5bc 9749 6f3e 34a7 36bd 43ce ed3c
000001f0: 4fa0 de3d e0e3 0fbe 1606 80be dc4e 42be
00000200: 03e6 10be d317 f1bd 3b01 6ebe 213f 5f3e
00000210: 34b3 febc 722c 0b3e 34d4 8c3e 5037 a2be
00000220: a5d5 5cbd 477e 313f 39ae 823b 6802 17bf
00000230: 46e4 b83d a3b5 e93d 55d5 cf3d c568 9f3d
00000240: f120 493d 8bda 5c3c 2efc f6bc e0d5 2abd
00000250: 4ab0 3fbd 1383 08bd bf44 c03e 6ba3 9e3e
00000260: 674b 86bd bbf1 2abe 5da2 60be d2c6 2d3d
00000270: 1eac cabd 8a6e 183d 765f 33bc 8a97 2a3c
00000280: 524a 1abb 81c7 13bd c686 773a b049 8fbc
00000290: 3e92 c13b 0c67 b13c 0053 bf3c 239a a33b
000002a0: 3054 a53c 75bc f03b dd83 c6bb 948d 74bc
000002b0: 8051 bfbc 1fbe 8abc 68ed 05bd 21ff 503e
000002c0: c415 813d eec8 38be fec3 d7bd 9692 edbd
000002d0: 4661 c1be 7318 313e f3e2 783e 727f 443e
000002e0: eefc f03d 0df4 f83c 6dfc a73d f9f8 ca3d
000002f0: 7e79 c4bb 48ba 7c3c 9523 2b3d b3c0 e33d
00000300: f2c4 1f3e efac 8d3d 007d 423d 8edb 3fbd
00000310: 8a28 41bd eb5f 2fbd ca9e 16bd 1722 52bd
00000320: 1bea 853d c7a3 173e c039 f43d 4563 ad3d
00000330: 1ee5 4c3d f418 183d 1b85 323f 3b8c 67bf
00000340: 9f1a 3cbe 3d8e 97bd 9b43 8d3b cc97 923c
00000350: ba16 333c bd89 0a3c 6e3a 9f3c 1b2c 6d3b
00000360: 7daf 12bd c34c 413c ce3e b5bb 53dd 62bc
00000370: 16ee 10be a34c 8fbd 2097 cabd 7f2d aebc
00000380: e9fa 8ebb 1a62 ba3c 07d7 2a3d 3d8e ed3a
00000390: 7e63 2c3b 48b2 763d 88a5 82bc 8dd5 973c
000003a0: f118 99bc 9592 8bbd 0110 84bd 0ee7 fc3c
000003b0: b28d f53b 2e6f 5bbb 82e6 9c3c bbd1 0fbc
000003c0: e648 90bd 0777 7dbe 64ce fc3d 65e7 093e
000003d0: 347e 3e3d 6dde 103c 28e3 013d e857 783d
000003e0: 3a8b b7bb aee6 bbbc 2bdf 66bf 433c f1bd
000003f0: 50f7 8a3e 9f07 8d3e c235 5b3e c0e6 b73d

encoder.block1.convblock2.0.pointwise_conv.weight f4 [64, 64, 1]
-0.00097260054 -0.07663608 -0.061167147 -0.024033861 -0.19167714 0.030515652 0.053475764 -0.038060777
-0.100370415 0.14233854 -0.05148563 -0.009033978 -0.004263408 0.005790753 0.0011468384 0.069831215
0.030443626 -0.012449109 0.0015229638 0.08928351 -0.042911917 0.008152313 -0.012257724 0.009143554
0.013492978 0.047092468 0.06709801 0.18682167 -0.0009531446 0.005892286 -0.1355372 -0.014545895
-0.004012414 -0.009339899 -0.04828058 0.09920708 -0.1472098 0.014803622 -0.034248065 0.009584053
-0.0448164 0.12716198 0.0066962116 2.9318164e-05 0.029310903 0.00055482186 -0.028608995 -0.015237502
0.05373691 -0.03840012 -0.09245661 -0.024159692 0.018552156 0.009156483 0.009102308 -0.0037127591
-0.19216336 0.008374717 0.05951797 -0.032285158 -0.008190166 -0.05463649 0.0006984569 -0.0063196663
0.0069555095 0.038940836 0.034950178 0.01606833 0.0078625735 -0.015017936 -0.0031999627 -0.0070843673
-0.0503876 0.009227578 -0.010447618 0.0006937629 0.0044621 -0.0573291 0.00022124684 -0.014932545
-0.027188003 -0.0007160459 -7.431801e-05 0.075887814 -0.037927166 -0.0016684093 -0.003992542 0.0059993183
-0.026915839 -0.07612573 -0.026713273 0.00024040954 0.005393504 0.0009628917 -0.010822079 -0.0021219298
0.0037878104 0.00589401 0.005123377 -0.0039050689 0.022876317 0.005043444 -0.024366936 -0.00042828557
0.013203269 -0.03924165 -0.004600759 0.008045388 0.01376298 -0.0115418825 0.0010045926 0.0020206796
0.033496898 0.0060566724 -0.022698574 0.012217027 0.001481526 -0.0049834526 -0.009091453 0.0014295743
-0.0038254636 -0.004068306 -0.08661265 0.016846167 -0.012595597 -0.0055141156 0.0043241205 0.007923056
-0.0036527116 -0.030141706 -0.010914329 -0.008446716 -0.021417012 0.018667428 0.052483015 -0.009792034
0.06709055 0.02238504 0.030846186 -0.0025516346 -0.024490846 0.04866622 -0.0026339893 0.019198239
-0.016120953 -0.005570582 -0.0069355187 -0.1191 0.0032509463 -0.0034797403 -0.007578649 -0.002204172
0.040382065 0.05674928 0.052509017 0.08962682 0.011914354 0.0026133067 -0.018208345 0.008383216
-0.0015197162 -0.0011744599 0.0018614348 0.03160772 -0.06401594 -0.0044535347 0.02563411 -0.0007084065
-0.003500217 0.09054278 -0.0005606731 -0.00019667317 -0.014162572 0.03637961 0.007078723 -0.0035810156
0.0021069534 -0.0024714952 -0.0058685844 0.008385531 0.013449865 0.0004267116 0.001128315 0.0038016515
-0.029736338 0.00069941883 0.12092862 -0.017307851 0.018080615 0.021005226 0.0056660175 -0.00695719
0.0030602755 0.007885916 0.0015666212 0.0007515299 0.00044988838 0.003751617 -0.0031701995 -0.0035229318
0.0008543995 -0.00668715 -0.0008947218 -0.00014605267 -0.0034365111 0.004265088 0.0033981672 -0.0024866387
-0.005270111 -0.0016211554 0.000120698685 0.0007760223 0.0026020233 0.0003560852 -0.0032855966 -0.0010750046
-0.0053472756 0.0013707061 -0.0043205684 -0.0025257056 0.00423864 -0.0020196668 -0.0008269214 -0.0025172185
0.004263797 -0.00031211026 0.0018969439 0.0010192471 0.0028720223 0.0036148827 0.00044729607 0.003886082
0.001165529 -0.0013093137 -0.004339491 0.0025645606 -0.0026650215 -0.0017503415 -0.005038367 0.001709591
-0.003741019 -0.0019552954 0.006812313 -0.0020304061 -0.0021675113 0.0011432816 -0.0056786807 -0.0027109184
0.0052522444 0.0038176468 0.0043235393 0.0050753583 -0.0010135742 -0.002425762 -0.00053619355 -0.001752879
00000000: 1ef6 7eba 61f3 9cbd 678a 7abd a9e2 c4bc
00000010: 0347 44be f6fb f93c 6709 5b3d 9ee5 1bbd
00000020: 018f cdbd 32c1 113e 99e2 52bd 4003 14bc
00000030: 0fb4 8bbb 5bc0 bd3b 8351 963a ab03 8f3d
00000040: e964 f93c 59f7 4bbc 2f9e c73a 46da b63d
00000050: 68c4 2fbd 4791 053c 9fd4 48bc d8ce 153c
00000060: a711 5d3c 08e4 403d ae6a 893d 2e4e 3f3e
00000070: 74dc 79ba 1414 c13b 44ca 0abe e851 6ebc
00000080: 917a 83bb 6006 19bc dcc1 45bd 152d cb3d
00000090: 2abe 16be e48a 723c b347 0cbd 6f06 1d3c
000000a0: 6791 37bd c036 023e e56b db3b 47f0 f537
000000b0: 6b1d f03c 7771 113a 695d eabc b7a6 79bc
000000c0: 3c1b 5c3d 7249 1dbd e459 bdbd 8cea c5bc
000000d0: b1fa 973c 1305 163c d921 153c c351 73bb
000000e0: 79c6 44be 1c36 093c 1dc9 733d 713d 04bd
000000f0: 0c30 06bc 83ca 5fbd a618 373a 3415 cfbb
00000100: 0beb e33b 6d80 1f3d eb27 0f3d bba1 833c
00000110: 06d2 003c ca0d 76bc 77b6 51bb fb23 e8bb
00000120: 3a63 4ebd 442f 173c 7c2c 2bbc a4dd 353a
00000130: cf36 923b ebd1 6abd 7ffe 6739 a2a7 74bc
00000140: 60b9 debc 07b5 3bba 2edb 9bb8 126b 9b3d
00000150: 8459 1bbd 87ae daba dfd3 82bb ee95 c43b
00000160: 9b7e dcbc cfe7 9bbd cbd5 dabc 7216 7c39
00000170: febb b03b 916a 7c3a 174f 31bc 1310 0bbb
00000180: ea3c 783b 8a22 c13b 00e2 a73b 2fec 7fbb
00000190: 1d67 bb3c 7a43 a53b 2b9d c7bc 848b e0b9
000001a0: 8652 583c dabb 20bd f7c1 96bb ced0 033c
000001b0: 1f7e 613c 2a1a 3dbc 89ac 833a 616d 043b
000001c0: 0b34 093d 0d77 c63b 5cf2 b9bc ed29 483c
000001d0: c32f c23a 3b4c a3bb 51f4 14bc 8e60 bb3a
000001e0: a1b4 7abb 6d4f 85bb f961 b1bd f900 8a3c
000001f0: c35d 4ebc c1af b4bb 5ab1 8d3b b5cf 013c
00000200: 5562 6fbb bdeb f6bc 04d2 32bc 1864 0abc
00000210: bb72 afbc 6fec 983c 6ef8 563d c46e 20bc
00000220: c566 893d d560 b73c 24b1 fc3c 5339 27bb
00000230: 07a1 c8bc 3b56 473d 029f 2cbb a045 9d3c
00000240: 1710 84bc 6e89 b6bb 5943 e3bb b3ea f3bd
00000250: d40d 553b 5b0c 64bb 5156 f8bb df73 10bb
00000260: aa67 253d ef71 683d b213 573d 448e b73d
00000270: 6c34 433c 0344 2b3b ab29 95bc c259 093c
00000280: 3731 c7ba 56f0 99ba 63fb f33a 1977 013d
00000290: ca1a 83bd f5ee 91bb a0fe d13c 5bb4 39ba
000002a0: e663 65bb 7e6e b93d 23fa 12ba 0d3a 4eb9
000002b0: 220a 68bc c902 153d a2f4 e73b 79af 6abb
000002c0: d014 0a3b cff8 21bb 414d c0bb 7763 093c
000002d0: d35c 5c3c 43b8 df39 f8e3 933a 2125 793b
000002e0: 9f99 f3bc 3459 373a 6da9 f73d 32c9 8dbc
000002f0: cc1d 943c 2713 ac3c 00aa b93b 24f9 e3bb
00000300: e78e 483b ee33 013c 1657 cd3a 5102 453a
00000310: ffde eb39 b0dd 753b 1fc3 4fbb fde0 66bb
00000320: c8f9 5f3a e11f dbbb c38b 6aba b725 19b9
00000330: 1737 61bb 27c2 8b3b c9b3 5e3b e0f6 22bb
00000340: e5b0 acbb f37c d4ba 9d1f fd38 fa6d 4b3a
00000350: b586 2a3b f2b0 ba39 2a53 57bb 2be7 8cba
00000360: 3338 afbb 44a9 b33a 8e93 8dbb 4f86 25bb
00000370: 4ae4 8a3b 635c 04bb c1c5 58ba ebf7 24bb
00000380: 52b7 8b3b bba2 a3b9 e0a2 f83a 4298 853a
00000390: 8a38 3c3b abe7 6c3b 1083 ea39 a3ad 7e3b
000003a0: aac4 983a 479d abba 4a32 8ebb 3012 283b
000003b0: a4a7 2ebb b76b e5ba e318 a5bb 5b14 e03a
000003c0: e22b 75bb 6a24 00bb d339 df3b 9010 05bb
000003d0: ce0c 0ebb 2ada 953a 3a14 babb aaa9 31bb
000003e0: 051b ac3b 7c31 7a3b 7aac 8d3b 314f a63b
000003f0: e8d9 84ba 88f9 1ebb 578f 0cba dcc0 e5ba

encoder.block1.convblock2.1.weight f4 [64]
0.35441843 0.17176579 0.17931217 0.034839492 0.040535163 0.33542034 0.12061019 0.5249561
0.0784667 0.14082761 0.8310428 0.28518417 0.0938816 0.17642215 0.031683676 0.12722747
0.05891752 0.23467624 0.32419786 0.12621474 0.19566016 1.0319741 0.032914277 0.18713483
0.21820821 0.3549005 0.16098897 0.265415 0.16769661 0.5781973 0.68334216 0.17519611
0.5637621 0.03365493 0.20496368 0.10151597 0.17914772 0.044730484 0.65759236 0.3219576
0.09264933 0.07651553 0.17984071 0.66139567 0.12502468 0.031071402 0.0358547 0.13977833
0.18691495 0.22993459 0.15723762 0.73016185 0.47116438 0.81573266 0.90325516 0.12413059
0.20396969 0.041123793 0.79982185 0.028422507 0.045261104 0.11266624 0.64735985 0.15262166
00000000: 5576 b53e 5fe3 2f3e 9c9d 373e dbb3 0e3d
00000010: 3308 263d 37bc ab3e 7a02 f73d 8663 063f
00000020: 26b3 a03d 1d35 103e 39bf 543f a903 923e
00000030: ff44 c03d 02a8 343e bec6 013d eb47 023e
00000040: 7f53 713d f84e 703e 43fd a53e 703e 013e
00000050: 235b 483e ba17 843f 1fd1 063d 46a0 3f3e
00000060: f971 5f3e 85b5 b53e 4bda 243e 7ae4 873e
00000070: a9b8 2b3e bd04 143f 83ef 2e3f 9c66 333e
00000080: b752 103f c0d9 093d 00e2 513e 9be7 cf3d
00000090: 8072 373e 5037 373d f957 283f a0d7 a43e
000000a0: efbe bd3d 2db4 9c3d 2a28 383e 3a51 293f
000000b0: 7806 003e 7489 fe3c 61dc 123d 0d22 0f3e
000000c0: a266 3f3e f973 6b3e e602 213e e3eb 3a3f
000000d0: 753c f13e dbd3 503f bb3b 673f 2e38 fe3d
000000e0: 6edd 503e 6c71 283d 20c1 4c3f 51d6 e83c
000000f0: b563 393d 8fbd e63d 60b9 253f da48 1c3e

encoder.block1.convblock2.1.bias f4 [64]
-0.22531724 -0.086756125 0.08852014 -0.00074340106 -0.02429947 -0.440142 0.012027634 0.046212908
0.019797225 -0.0585074 -0.11510954 -0.15869996 -0.13645394 0.004642769 -0.0037653628 -0.031357005
0.019054024 -0.045411922 -0.27362332 -0.007006998 -0.042435125 -0.5953658 -0.002115425 -0.06551376
-0.07544461 -0.28540435 0.009296321 -0.16705184 -0.06928577 -0.3643447 -0.47071975 -0.5706232
-0.33178058 -0.001606345 0.12688932 -0.079795204 0.05925406 0.0053274063 0.004808757 -0.5127269
0.011496533 0.008808848 -0.42401075 -0.09957411 -0.14452118 -0.024375401 0.0006562224 -0.09408713
0.0027979051 -0.18545237 -0.027813178 -0.07950341 -0.2484297 -0.15058927 -0.1762431 -0.04509721
-0.19591172 0.00078084925 -0.099116534 -0.027074086 -0.06239403 0.026994733 -0.049507108 -0.18828143
00000000: 90b9 66be 32ad b1bd 0c4a b53d cde0 42ba
00000010: af0f c7bc 4b5a e1be 8e0f 453c bf49 3d3d
00000020: ca2d a23c 75a5 6fbd 8dbe ebbd 3e82 22be
00000030: 95ba 0bbe 5f22 983b 4ec4 76bb 3470 00bd
00000040: 2f17 9c3c da01 3abd 5b18 8cbe f69a e5bb
00000050: 74d0 2dbd e569 18bf f1a2 0abb 142c 86bd
00000060: b482 9abd 8520 92be 994f 183c a30f 2bbe
00000070: b3e5 8dbd 638b babe 2e02 f1be 5d14 12bf
00000080: 25df a9be fe8b d2ba 46ef 013e ab6b a3bd
00000090: 63b4 723d 8691 ae3b c792 9d3b 1242 03bf
000000a0: f45b 3c3c fd52 103c f017 d9be 83ed cbbd
000000b0: 5cfd 13be ecae c7bc 5706 2c3a c1b0 c0bd
000000c0: 0f5d 373b 3ae7 3dbe 76d8 e3bc afd2 a2bd
000000d0: 5b64 7ebe 1334 1abe 1279 34be dab7 38bd
000000e0: 159d 48be e8b1 4c3a 9cfd cabd 79ca ddbc
000000f0: e290 7fbd 0f24 dd3c f7c7 4abd d9cc 40be

encoder.block1.convblock2.1.running_mean f4 [64]
-0.102329016 0.0023827702 -0.023404779 -0.0004886748 -0.0030049447 -0.013029653 -0.01452189 -0.048261598
0.005218758 -0.04443503 -0.065045066 -0.08983324 -0.008026731 0.023667756 0.0022894335 0.0112576485
0.0034691347 -0.069648854 -0.039287087 -0.030898547 -0.0112405205 0.007115097 -0.00013292478 -0.069534
-0.024784328 -0.046236377 -0.01832731 -0.033765826 -0.011353937 0.023686646 -0.24348007 -0.07661725
-0.031189177 -0.00062721124 -0.012934061 0.001149631 -0.017841376 0.0044032596 0.019658148 -0.038716286
-0.0031991214 -0.0043359087 -0.07354586 0.059752382 -0.004550131 -5.7506724e-05 -0.0041239075 -0.01407784
-0.023102928 -0.15392385 -0.026882276 -0.1778747 -0.05659748 -0.08602607 -0.098089896 -0.039582603
0.042368237 -0.006155856 0.06596083 -0.0011501403 -0.0038856557 -0.020098232 -0.05295177 0.082466364
00000000: e091 d1bd 4028 1c3b 61bb bfbc 691a 00ba
00000010: 9bee 44bb 537a 55bc 39ed 6dbc f4ad 45bd
00000020: 1d02 ab3b 8201 36bd 5936 85bd 7dfa b7bd
00000030: 8d82 03bc e2e2 c13c 520a 163b 0072 383c
00000040: 6c5a 633b 0fa4 8ebd 7feb 20bd f31e fdbc
00000050: 292a 38bc c225 e93b b961 0bb9 d767 8ebd
00000060: 8108 cbbc 5b62 3dbd 2823 96bc 094e 0abd
00000070: dd05 3abc 7f0a c23c d752 79be 81e9 9cbd
00000080: 7280 ffbc 6f6b 24ba 62e9 53bc 37af 963a
00000090: 1428 92bc 3849 903b 200a a13c f894 1ebd
000000a0: 5aa8 51bb 3d14 8ebb 369f 96bd eabe 743d
000000b0: 4419 95bb 6033 71b8 d821 87bb bea6 66bc
000000c0: 5a42 bdbc 379e 1dbe 3838 dcbc c924 36be
000000d0: c2d2 67bd 702e b0bd 5be3 c8bd 5e21 22bd
000000e0: 518a 2d3d 10b7 c9bb 7916 873d 4ec0 96ba
000000f0: 7ca6 7ebb 0ca5 a4bc f5e3 58bd 20e4 a83d

encoder.block1.convblock2.1.running_var f4 [64]
0.019487446 0.0004119173 0.0011100799 2.0222338e-05 3.8229427e-05 0.011678827 0.0018483202 0.021572312
0.00040108018 0.0010880245 0.035604313 0.00028447114 0.00031589804 0.0058980677 1.6913344e-06 0.0019519231
0.00018364041 0.0024284523 0.009730648 0.0002590605 0.0068498603 0.023629045 7.677301e-06 0.008279374
0.00034997176 0.050650522 0.0012542197 0.014128934 0.0015702638 0.0053053917 0.054911148 0.013511315
0.0027597551 8.720863e-07 0.0010930693 0.0002403374 0.00031014648 2.4563644e-05 0.031188153 0.011428799
0.0009948099 6.6033994e-05 0.0032759262 0.022821398 0.0005089498 1.4940235e-05 6.9482694e-06 0.0007910846
0.006057535 0.03947196 0.0012640837 0.041642055 0.018749136 0.078437164 0.033235315 0.00424408
0.068718314 6.475994e-06 0.049744252 2.1995915e-05 0.00023179821 5.5979504e-05 0.018067416 0.0159054
00000000: 23a4 9f3c 9bf6 d739 1a80 913a 24a3 a937
00000010: 8958 2038 8d58 3f3c 5643 f23a 6bb8 b03c
00000020: 1248 d239 0b9c 8e3a d4d5 113d 1225 9539
00000030: 1e9f a539 9444 c13b cf01 e335 acd7 ff3a
00000040: 998f 4039 ab26 1f3b 4c6d 1f3c 83d2 8739
00000050: cb74 e03b b391 c13c c2cd 0037 36a6 073c
00000060: 6a7c b739 ec76 4f3d a164 a43a 0b7d 673c
00000070: 4fd1 cd3a dad8 ad3b 83ea 603d 905e 5d3c
00000080: 02dd 343b 5019 6a35 5245 8f3a 1403 7c39
00000090: 289b a239 060e ce37 4c7e ff3c db3f 3b3c
000000a0: 4864 823a bb7b 8a38 ecb0 563b f1f3 ba3c
000000b0: 0b6b 053a d2a7 7a37 2e25 e936 ca60 4f3a
000000c0: 497e c63b 5aad 213d 9caf a53a dc90 2a3d
000000d0: ca97 993c aaa3 a03d c121 083d ec11 8b3b
000000e0: 30bc 8c3d 5d4c d936 a1c0 4b3d de83 b837
000000f0: dc0e 7339 89cb 6a38 1e02 943c 0b4c 823c

encoder.block1.convblock3.0.depthwise_conv.weight f4 [64, 1, 3]
-0.13598782 0.09715032 0.29082203 0.10083963 0.08338688 0.103041396 0.05772082 0.09550414
0.08971335 -0.011492895 -0.017189145 0.0165968 -0.009236994 0.03698012 -0.024987428 -0.15869397
-0.096910134 -0.09401926 -0.05264758 -0.04182534 -0.07407472 0.14133427 0.21251594 0.23603663
0.06263666 0.021398691 0.04323297 -0.009259386 -0.068049066 -0.1086693 0.29819828 -0.93446434
0.41974378 0.02653596 0.050783917 0.23158576 0.005947159 0.021811316 0.025958197 0.07884726
0.12648702 0.042557824 -0.0011367487 0.010151799 -0.0015411943 -0.08734083 -0.035003763 -0.04006764
-0.053747553 -0.025639927 -0.012393973 -0.22263516 -0.05908461 0.08780933 -0.08365573 -0.06459382
-0.023208128 0.09240662 0.07737144 0.0060883113 -0.034965 -0.09430108 -0.12074248 0.059878163
0.2540237 0.3460287 0.0055882917 -0.007822267 0.020449486 -0.0084315725 -0.0697392 -0.11450467
0.027280383 0.1016463 0.1276319 0.04010755 0.048204858 0.16905491 0.028076518 -0.12625366
-0.09139139 -0.14105439 -0.15145476 -0.018042859 -0.070504524 -0.09645625 -0.10493741 0.16358078
0.27057564 0.3093713 0.02641519 -0.13126354 -0.14950088 0.029311504 -0.08741009 -0.14312449
-0.005251145 0.18401313 0.20412804 0.014080785 -0.02022858 0.007467572 -0.09872622 -0.11191486
-0.12936439 0.060029585 0.02983297 -0.0125225475 0.10078314 0.12605259 0.07422722 -0.029494409
-0.024595454 0.0038806458 0.2099998 0.046112824 0.37484115 -0.044825036 -0.10642233 -0.14656593
-0.054960284 -0.035795543 -0.031290144 0.03852786 0.042873908 0.041375417 0.102632776 0.0410845
0.010525524 0.06217917 -0.12656154 -0.49378392 0.026020441 0.058908958 0.06393458 0.0031379596
0.014660271 0.00824616 -0.00068192004 -0.012043303 0.01753282 0.072460234 0.07986551 0.09420111
0.0664046 0.08673637 0.080778666 -0.015246569 0.08498216 0.13281754 0.09086247 0.08649382
0.0712892 0.11768553 0.3075684 0.15977342 0.124287285 -0.10793314 -0.21101607 -0.56463444
-0.040520642 0.8497682 0.4763218 -0.81047046 0.33619452 -0.02587937 -0.07898332 -0.07116273
-0.035323065 0.032449953 0.128858 -0.010831121 0.0020982218 0.02709611 -0.46899143 -0.14689928
-0.06539998 -0.008072704 -0.014082065 -0.011922196 -0.00881222 0.033528984 0.027459322 -0.10748811
0.030037066 0.02956862 0.020752972 0.18925379 0.26671514 0.027015695 0.032901682 0.0670857
00000000: 6440 0bbe bff6 c63d a0e6 943e 0285 ce3d
00000010: bec6 aa3d 5e07 d33d ab6c 6c3d ad97 c33d
00000020: a2bb b73d b24c 3cbc 40d0 8cbc 03f6 873c
00000030: c356 17bc 7778 173d 6fb2 ccbc ac80 22be
00000040: d278 c6bd 2b8d c0bd fda4 57bd 0c51 2bbd
00000050: 7db4 97bd eeb9 103e c79d 593e 96b3 713e
00000060: a647 803d 4f4c af3c 0e15 313d aeb4 17bc
00000070: 4f5d 8bbd 038e debd 72ad 983e 0e39 6fbf
00000080: a8e8 d63e f161 d93c cc02 503d d124 6d3e
00000090: 63e0 c23b a5ad b23c 49a6 d43c ac7a a13d
000000a0: d085 013e 1d51 2e3d f5fe 94ba bb53 263c
000000b0: e601 caba c0df b2bd 1b60 0fbd f71d 24bd
000000c0: 6526 5cbd d30a d2bc 1710 4bbc 79fa 63be
000000d0: b402 72bd 61d5 b33d b253 abbd c449 84bd
000000e0: f91e bebc af3f bd3d eb74 9e3d 7580 c73b
000000f0: 7637 0fbd ed20 c1bd d547 f7bd ce42 753d
00000100: 650f 823e ac2a b13e fd1d b73b f728 00bc
00000110: ae85 a73c 9424 0abc 6dd3 8ebd 6d81 eabd
00000120: 1c7b df3c ef2b d03d f0b1 023e d047 243d
00000130: 7572 453d bb1c 2d3e ba00 e63c a448 01be
00000140: 692b bbbd 9070 10be f516 1bbe 9ece 93bc
00000150: ad64 90bd db8a c5bd 6de9 d6bd b881 273e
00000160: e488 8a3e ea65 9e3e ab64 d83c f369 06be
00000170: c216 19be ae1e f03c 1004 b3bd 3a8f 12be
00000180: cc11 acbb f06d 3c3e f106 513e 18b3 663c
00000190: 68b6 a5bc 89b2 f43b f930 cabd 9e33 e5bd
000001a0: 1978 04be 95e1 753d 4664 f43c 5f2b 4dbc
000001b0: 6467 ce3d ee13 013e 7104 983d 429e f1bc
000001c0: 687c c9bc 6f52 7e3b 300a 573e cde0 3c3d
000001d0: 2eeb bf3e 759a 37bd f3f3 d9bd 6115 16be
000001e0: 091e 61bd 599e 12bd 182a 00bd 64cf 1d3d
000001f0: 8d9c 2f3d 4579 293d 2231 d23d 3848 283d
00000200: 3f73 2c3c 96af 7e3d 5999 01be 3fd1 fcbe
00000210: d228 d53c 854a 713d 22f0 823d 3aa6 4d3b
00000220: a231 703c e71a 073c e1c2 32ba 4651 45bc
00000230: fda0 8f3c 0866 943d 8790 a33d 83ec c03d
00000240: 23ff 873d d7a2 b13d 496f a53d bfcc 79bc
00000250: 200b ae3d 5201 083e 1a16 ba3d ac23 b13d
00000260: 1200 923d 1c05 f13d 9b79 9d3e a59b 233e
00000270: 558a fe3d 0d0c ddbd 9914 58be e28b 10bf
00000280: f9f8 25bd 698a 593f 73e0 f33e fe7a 4fbf
00000290: b021 ac3e f900 d4bc 02c2 a1bd c4bd 91bd
000002a0: ebae 10bd 3eea 043d 5af3 033e 0475 31bc
000002b0: 5282 093b a9f8 dd3c a51f f0be c46c 16be
000002c0: 6df0 85bd 6043 04bc 76b8 66bc 5055 43bc
000002d0: 2161 10bc b055 093d 5ff2 e03c ba22 dcbd
000002e0: 4b10 f63c e439 f23c 2302 aa3c bfcb 413e
000002f0: e38e 883e 0550 dd3c eac3 063d 3a64 893d

encoder.block1.convblock3.0.pointwise_conv.weight f4 [64, 64, 1]
-0.038019862 -0.021161947 -0.032981712 0.0011632541 0.00021136583 -0.055808224 0.014039692 0.0034077202
-0.014631441 0.006498934 0.23020029 -0.025550833 0.0113871 -0.026510641 -0.0010901195 0.009077878
0.008221833 0.104690805 0.059779108 -0.02230555 0.013344372 0.0878864 -0.0011334304 -0.004100603
-0.014460318 0.050168827 0.014165059 -0.035789974 0.01593423 -0.072537474 -0.020780517 0.04865783
-0.06747389 -0.0013369188 0.033049632 0.0024694467 0.00020004694 0.0035816485 0.08267505 -0.039296642
0.017034711 -0.01197095 -0.049307376 -0.07620964 0.031390246 -0.0061418237 0.0004335064 0.035100084
-0.0139431385 -0.027404984 -0.0005582012 -0.09490521 0.07728772 0.29179338 -0.17471054 0.0062274747
-0.022292163 -0.001309528 0.05094101 0.0084721325 -0.027392885 0.019421 -0.09462065 0.021616766
-0.09231078 -0.006461841 -0.031645533 0.001457617 0.00042187012 0.0007846084 0.007493976 0.026233435
-0.007165752 0.011686677 -0.096552 -0.07963419 -0.0042895684 -0.018853186 0.0011686819 0.01073167
0.0008164762 0.08036263 -0.007690361 -0.018235192 0.011299133 -0.036516923 0.004610553 0.017374473
-0.020930767 -0.011080619 0.03395477 0.012706817 0.0010262654 -0.064868085 0.016172763 0.01799349
-0.03015517 0.00035825412 0.022721684 0.009387957 -0.01707975 -0.0029803764 0.057709776 0.012825773
-0.0029291455 -0.0036596765 -0.003778601 -0.027191361 -0.00451658 -0.0020721077 0.0010783515 0.0038472319
-0.01197879 0.02431197 -0.0179925 -0.030924795 0.01428781 -0.47044122 0.051438484 0.005469185
-0.03322948 -0.007570151 0.00032815218 0.0013703293 -0.0027438381 0.011507686 0.0024675243 -0.0057429564
0.06525391 -0.00841249 0.021771923 -0.002977901 -0.0053537553 0.01542169 0.0020174254 0.052452553
-2.6707168e-05 0.00053405756 -0.12301536 -0.036839344 0.0069499803 0.0009634855 0.003520994 0.009656753
0.006563443 -0.09728173 -0.04648197 0.048191696 0.005592676 -0.051663782 -0.003968479 0.012179457
-0.028204788 -0.02161082 0.0018010422 0.024533557 0.005544965 -0.0357512 0.011290697 -0.0016413224
-0.035354685 0.003441861 0.005425669 0.0048545925 0.016781837 0.0050807283 0.06662695 -4.9216982e-05
0.010118092 -0.0077952705 0.012907481 0.043759733 -0.01919696 0.0016083781 -0.0016666409 0.0011399477
-0.013538209 -0.04263356 0.00051022536 0.11731942 -0.040430855 0.18003598 0.05054214 0.005820114
-0.008253446 0.0016131296 0.10316204 0.0047811354 -0.018425152 -0.057457138 -0.01748659 -0.015110114
0.1216002 0.010238463 -0.014329627 -0.0046341773 0.0032531656 0.026299002 -0.0015370199 0.08431177
-0.00132522 0.013544486 -0.1898738 -0.00595387 -0.0036869221 -0.0040561203 0.00044181885 0.0056554223
-0.001147077 0.044205867 -0.07848408 -0.00920363 -0.0145694455 -0.09406166 -0.002107459 0.020302374
-0.011999332 -0.06403462 -0.005102241 0.010319147 -0.0014807021 0.0064528724 0.045487963 -0.005844438
0.029959477 -0.0033394801 0.008166138 -0.009718484 -0.0121165505 0.004758367 0.23205163 0.030205749
0.010957662 -0.0036317285 0.025818838 0.2144793 -0.030421486 0.005856191 -0.0027945635 0.0065667275
0.0053021563 0.038320422 0.016021116 0.063644044 -0.030470168 -0.008423418 0.14679158 0.0084659215
-0.050573833 0.0031629063 0.09052181 0.0008936873 -0.007154242 0.0071308883 0.036527675 -0.010129067
00000000: b7ba 1bbd d25b adbc d517 07bd 5578 983a
00000010: 15a2 5d39 2a97 64bd bc06 663c 0f54 5f3b
00000020: b6b8 6fbc 02f5 d43b a0b9 6b3e fb4f d1bc
00000030: f690 3a3c d82c d9bc 57e2 8eba 61bb 143c
00000040: deb4 063c 2268 d63d f0da 743d 21ba b6bc
00000050: 5aa2 5a3c c9fd b33d 9d8f 94ba 5a5e 86bb
00000060: f8ea 6cbc d47d 4d3d 9014 683c 8298 12bd
00000070: 8188 823c 878e 94bd e73b aabc 6f4d 473d
00000080: c02f 8abd 8d3b afba 0d5f 073d 71d6 213b
00000090: b1c3 5139 17ba 6a3b 8951 a93d 84f5 20bd
000000a0: 618c 8b3c ce21 44bc 88f6 49bd cd13 9cbd
000000b0: 0f93 003d 5a41 c9bb 3e48 e339 1bc5 0f3d
000000c0: c371 64bc 6b80 e0bc 4054 12ba aa5d c2bd
000000d0: 0649 9e3d f165 953e 52e7 32be d80f cc3b
000000e0: 0e9e b6bc 78a4 abba 85a7 503d b3ce 0a3c
000000f0: 0b67 e0bc ca18 9f3c 79c8 c1bd a515 b13c
00000100: 6f0d bdbd dabd d3bb bf9e 01bd 830d bf3a
00000110: 732e dd39 2eae 4d3a 0790 f53b 80e7 d63c
00000120: afce eabb 7a79 3f3c 0ebd c5bd 4017 a3bd
00000130: 828f 8cbb ff71 9abc 752e 993a e3d3 2f3c
00000140: ca08 563a 2a95 a43d 6cff fbbb f861 95bc
00000150: 0020 393c c592 15bd 1f14 973b e954 8e3c
00000160: 0077 abbc 7c8b 35bc 2814 0b3d 4130 503c
00000170: c183 863a 8fd9 84bd be7c 843c 1567 933c
00000180: fa07 f7bc 0ed4 bb39 d322 ba3c f2cf 193c
00000190: d5ea 8bbc 6b52 43bb 1661 6c3d 3123 523c
000001a0: e8f6 3fbb 2fd7 6fbb 68a2 77bb 6bc0 debc
000001b0: d2ff 93bb 33cc 07bb 7957 8d3a d721 7c3b
000001c0: b042 44bc e629 c73c 0265 93bc ff55 fdbc
000001d0: 6b17 6a3c acdd f0be 29b1 523d d936 b33b
000001e0: a31b 08bd 070f f8bb d70b ac39 9f9c b33a
000001f0: f7d1 33bb bc8a 3c3c 30b6 213b 692f bcbb
00000200: d8a3 853d 8ad4 09bc 085b b23c e328 43bb
00000210: 8e6e afbb 42ab 7c3c c836 043b 7dd8 563d
00000220: 3509 e0b7 ffff 0b3a 7aef fbbd dae4 16bd
00000230: a9bc e33b 6b92 7c3a 7ac0 663b 5c37 1e3c
00000240: 2712 d73b a53b c7bd e163 3ebd a864 453d
00000250: c442 b73b 679d 53bd 040a 82bb 588c 473c
00000260: ba0d e7bc 2d09 b1bc f310 ec3a 99fa c83c
00000270: 8ab2 b53b da6f 12bd 9efc 383c a421 d7ba
00000280: 13d0 10bd d890 613b cfc9 b13b 4613 9f3b
00000290: 107a 893c 3d7c a63b b673 883d 556e 4eb8
000002a0: 5bc6 253c 786f ffbb e679 533c 683d 333d
000002b0: f142 9dbc 37d0 d23a 3073 daba 4c6a 953a
000002c0: 5dcf 5dbc 87a0 2ebd a5c0 053a 2a45 f03d
000002d0: d39a 25bd 5a5b 383e 4605 4f3d a8b6 be3b
000002e0: 7639 07bc a66f d33a 9f46 d33d 12ab 9c3b
000002f0: 58f0 96bc 2d58 6bbd 0a40 8fbc 6990 77bc
00000300: 8709 f93d 3abf 273c d0c6 6abc 4cda 97bb
00000310: 1033 553b 0171 d73c d475 c9ba a6ab ac3d
00000320: 01b3 adba b1e9 5d3c 476e 42be ae18 c3bb
00000330: 4aa0 71bb 34e9 84bb eca3 e739 1f51 b93b
00000340: 8459 96ba 3611 353d 43bc a0bd d2ca 16bc
00000350: afb4 6ebc 66a3 c0bd 4b1d 0abb 2a51 a63c
00000360: d998 44bc 9524 83bd b330 a7bb a411 293c
00000370: 1e14 c2ba 9e72 d33b 9651 3a3d b382 bfbb
00000380: 946d f53c 2edb 5abb 44cb 053c 473a 1fbc
00000390: 7f84 46bc 13ec 9b3b f19e 6d3e 0c72 f73c
000003a0: c487 333c 4b02 6ebb 0782 d33c 76a0 5b3e
000003b0: 7b36 f9bc 4ae5 bf3b ff24 37bb b42d d73b
000003c0: b6bd ad3b e0f5 1c3d b73e 833c cf57 823d
000003d0: 939c f9bc 6002 0abc 8850 163e a6b4 0a3c
000003e0: 8226 4fbd c348 4f3b 8063 b93d 5746 6a3a
000003f0: 226e eabb 3aaa e93b 0b9e 153d 63f4 25bc

encoder.block1.convblock3.1.weight f4 [64]
0.3765888 0.31946427 0.23037514 0.33966857 0.27723616 0.56785333 0.32686192 0.42723456
0.5166133 0.43342558 0.19998504 0.63640434 0.48729587 0.26135907 0.7129313 0.26618215
0.80103254 0.25621077 0.32597438 0.39292583 0.21926084 0.3545935 0.5256518 0.5317949
0.33981812 0.38550994 0.39900485 0.2872503 0.50138456 0.47172818 0.8810785 0.23677096
0.26585978 0.29699767 0.36717927 0.4260333 0.3939652 0.26471072 0.5177606 0.08182123
0.39392677 0.20274605 0.32541206 0.4470314 0.050980642 0.23179354 0.53031033 0.40969625
0.6842429 0.30803627 0.53404474 0.3720614 0.20116031 0.31647786 0.17681548 0.25254226
0.54700804 0.4923653 0.4757499 0.18830119 0.036314137 0.21067397 0.05360289 0.506058
00000000: 3fd0 c03e d290 a33e 76e7 6b3e 0ae9 ad3e
00000010: e6f1 8d3e d65e 113f 725a a73e 7dbe da3e
00000020: c540 043f f5e9 dd3e e1c8 4c3e 65eb 223f
00000030: d87e f93e dbd0 853e aa82 363f 0749 883e
00000040: 7810 4d3f 0f2e 833e 1de6 a63e 932d c93e
00000050: ea85 603e 478d b53e 1e91 063f b623 083f
00000060: a4fc ad3e 8f61 c53e 5d4a cc3e 7912 933e
00000070: bd5a 003f 5b86 f13e 5c8e 613f 1674 723e
00000080: c61e 883e 1410 983e ecfe bb3e 0921 da3e
00000090: cfb5 c93e 2a88 873e f58b 043f e491 a73d
000000a0: c5b0 c93e a99c 4f3e 699c a63e 4de1 e43e
000000b0: 14d1 503d 495b 6d3e 6bc2 073f b5c3 d13e
000000c0: 8b2a 2f3f eeb6 9d3e 28b7 083f d57e be3e
000000d0: f8fc 4d3e 6309 a23e 1e0f 353e 384d 813e
000000e0: b808 0c3f 4e17 fc3e 7e95 f33e 07d2 403e
000000f0: 22be 143d ebba 573e b48e 5b3d 048d 013f

encoder.block1.convblock3.1.bias f4 [64]
-0.13197312 -0.054461822 -0.0492596 -0.03262999 -0.01414759 -0.19304535 -0.017469775 -0.24410719
-0.13764976 -0.15774354 0.030323923 -0.24213304 -0.11170381 0.013976087 -0.124404326 0.07620503
-0.34459695 0.015976582 -0.017749563 -0.13662978 0.03673779 -0.0050453176 -0.15396433 -0.08481972
-0.038353235 -0.06409446 -0.053671036 -0.16602685 -0.023992203 -0.2994928 -0.4017988 0.080623075
-0.002320378 -0.00080395717 -0.28846154 -0.20466043 -0.07744016 -0.10038527 -0.30164853 -0.06386875
-0.118166275 0.077302754 -0.18557158 -0.07630149 0.011297485 0.025039975 -0.16522232 -0.03937448
-0.14439481 -0.04611381 -0.17188162 -0.21676442 0.019697804 -0.11067171 0.0076045403 -0.056214944
-0.17689547 -0.070157 -0.13159706 0.04318563 0.0028282432 -0.059169177 0.0015425789 -0.16200878
00000000: f623 07be 5c13 5fbd 6fc4 49bd 06a7 05bd
00000010: 4bcb 67bc aead 45be c61c 8fbc 3cf7 79be
00000020: 0ff4 0cbe 8687 21be e069 f83c b9f1 77be
00000030: f8c4 e4bd f5fb 643c b2c7 febd 6211 9c3d
00000040: 036f b0be 52e1 823c 8867 91bc ade8 0bbe
00000050: 5d7a 163d 3153 a5bb d3a8 1dbe f6b5 adbd
00000060: 4818 1dbd f543 83bd 29d6 5bbd f102 2abe
00000070: 4c8b c4bc 1f57 99be 93b8 cdbe b61d a53d
00000080: 7c11 18bb a7c0 52ba 3bb1 93be 8192 51be
00000090: f298 9ebd cb96 cdbd ad71 9abe 9fcd 82bd
000000a0: 2901 f2bd e850 9e3d 7a06 3ebe f543 9cbd
000000b0: 1619 393c a220 cd3c 0a30 29be 2247 21bd
000000c0: 3cdc 13be d6e1 3cbd bc01 30be 7ef7 5dbe
000000d0: 4a5d a13c d9a7 e2bd 822f f93b a441 66bd
000000e0: 1624 35be 79ae 8fbd 61c1 06be 6ae3 303d
000000f0: 0c5a 393b 615b 72bd 5c30 ca3a a1e5 25be

encoder.block1.convblock3.1.running_mean f4 [64]
-0.010340026 -0.009047568 0.014756159 0.024688428 0.006761073 0.055892922 -0.01592704 -0.004258235
-0.015786668 0.015988247 0.016405923 0.060879048 0.0247569 -0.009445203 -0.044863 0.011286121
-0.024489798 -0.00087557215 -0.003503672 -0.005948928 0.012161792 -0.01148751 0.043542176 0.0718313
-0.0023279213 -0.017802455 0.022847721 0.001494827 0.083827145 -0.03296719 0.09102159 -0.0068286504
-0.00333172 -0.0075424137 0.00078746723 0.0031323049 0.018077835 0.00037069488 0.045847416 0.0022048922
-0.013296071 0.004251676 0.012580733 -0.0031831847 -0.0023717731 -0.0024148645 0.026717326 0.0054925433
-0.018781863 0.0019699254 -0.015397918 -0.0034491539 -0.0069006025 0.010422956 0.006744059 0.0057296543
0.031118792 0.06550198 0.03597101 -0.0202579 0.00038102063 -0.011077603 8.56384e-05 -0.017969074
00000000: 3669 29bc 403c 14bc d1c3 713c 633f ca3c
00000010: fe8b dd3b faef 643d 6c79 82bc aa88 8bbb
00000020: 0b53 81bc c9f9 823c b765 863c 4f5c 793d
00000030: fbce ca3c 0dc0 1abc 44c2 37bd 6ce9 383c
00000040: d49e c8bc a786 65ba dd9d 65bb 3aef c2bb
00000050: 4142 473c 1c36 3cbc 4859 323d 4a1c 933d
00000060: 0a90 18bb 74d6 91bc 252b bb3c 12ee c33a
00000070: 91ad ab3d 9b08 07bd 8769 ba3d dfc2 dfbb
00000080: fc58 5abb 5a26 f7bb 086e 4e3a 5b47 4d3b
00000090: f817 943c d359 c239 80ca 3b3d f47f 103b
000000a0: c4d7 59bc a551 8b3b 6b1f 4e3c fa9c 50bb
000000b0: c06f 1bbb b442 1ebb 4bde da3c cbfa b33b
000000c0: 6cdc 99bc dd19 013b 8d47 7cbc 330b 62bb
000000d0: 731e e2bb 0cc5 2a3c 44fd dc3b d3bf bb3b
000000e0: d6ec fe3c e725 863d 5656 133d e5f3 a5bc
000000f0: b9c3 c739 d67e 35bc c498 b338 e133 93bc

encoder.block1.convblock3.1.running_var f4 [64]
0.00023848112 0.0002925831 0.00026158695 0.00031507885 0.00021796054 0.0008871387 0.0003417657 0.00023543018
0.00050066994 0.00031018554 0.00016129285 0.001084547 0.0010716837 0.00016868685 0.004518541 0.0006527345
0.0014276585 0.00050609943 0.00070960005 0.00026963235 0.0001269491 0.00017770205 0.0011676697 0.0017675832
0.00041986624 0.00048473358 0.00047295095 0.000866162 0.0029091944 0.0004398115 0.0016771562 8.5295935e-05
0.00027150154 0.00034517713 0.00016158164 0.00023112875 0.00056467124 8.318219e-05 0.00030693624 5.830867e-05
0.00024987 9.5926356e-05 8.145512e-05 0.00046642276 7.5805015e-06 0.00014374612 0.000736296 0.00071392086
0.0033298943 0.00025110246 0.0008536018 0.00013032556 6.291083e-05 0.00011581887 8.8931e-05 0.00012557131
0.0007413403 0.0013638634 0.0006117284 0.0003895875 5.374979e-07 8.090533e-05 1.1693259e-06 0.0007582507
00000000: ca10 7a39 d765 9939 9b25 8939 2b31 a539
00000010: 568c 6439 df8e 683a 042f b339 cfdd 7639
00000020: 643f 033a 66a0 a239 b820 2939 5c27 8e3a
00000030: bd77 8c3a 88e1 3039 4510 943b 451c 2b3a
00000040: 4520 bb3a c2ab 043a 7404 3a3a 715d 8d39
00000050: a41d 0539 8855 3a39 7e0c 993a 40ae e73a
00000060: 7e21 dc39 d723 fe39 67f6 f739 260f 633a
00000070: 2fa8 3e3b 8096 e639 06d4 db3a e8e0 b238
00000080: 5258 8e39 e4f8 b439 3e6e 2939 275b 7239
00000090: 7206 143a 1972 ae38 49ec a039 7590 7438
000000a0: fc00 8339 122c c938 e2d2 aa38 348a f439
000000b0: 035c fe36 8eba 1639 fd03 413a 6b26 3b3a
000000c0: 5b3a 5a3b 67a6 8339 3fc4 5f3a 00a8 0839
000000d0: ffee 8338 c8e3 f238 7880 ba38 cbab 0339
000000e0: 8156 423a a9c3 b23a 665c 203a 8d41 cc39
000000f0: 9348 1035 b8ab a938 bbf1 9c35 58c5 463a

encoder.block1.shortcut.0.weight f4 [64, 1, 1]
-0.015754318 -0.014831716 -0.0029508334 -0.01701256 -0.0028376046 0.02273925 0.031952064 0.0138760675
0.006604674 -0.027561422 -0.010196222 -0.008738694 0.004280803 -0.02636432 -0.006102615 -0.028448204
0.19221492 -0.0027711818 -0.0119447885 -0.026031332 0.028445277 0.16059902 0.033786517 -0.026407987
0.020803664 0.02598787 -0.016364647 -0.0053136186 0.033021275 -0.025590353 0.021581233 -0.029411115
0.02799823 0.03272248 -0.016194928 0.032373045 0.011621328 0.027689412 0.007063984 -0.022380192
0.0028047208 0.035351433 -0.031018727 -0.019952528 -0.006332429 0.0020394067 0.015455014 0.017066486
-0.0064683324 -0.01800529 0.015576837 0.025230424 0.020318381 -0.005065392 -0.0037755433 0.012926685
-0.004465564 0.03321725 -0.027789839 0.0010615133 0.0017996647 -0.025917774 -0.009711835 0.008095766
00000000: 330f 81bc ba00 73bc c562 41bb ed5d 8bbc
00000010: 1bf7 39bb aa47 ba3c 2be0 023d 7258 633c
00000020: 056c d83b 7ec8 e1bc 0e0e 27bc bd2c 0fbc
00000030: fa45 8c3b fdf9 d7bc 72f8 c7bb 350c e9bc
00000040: fdd3 443e b79c 35bb 13b4 43bc a93f d5bc
00000050: 1206 e93c 1274 243e bb63 0a3d 9055 d8bc
00000060: 726c aa3c 83e4 d43c 270f 86bc dd1d aebb
00000070: 5141 073d dca2 d1bc 20cb b03c 94ef f0bc
00000080: 8b5c e53c 0208 063d 3aab 84bc 9999 043d
00000090: 6267 3e3c e8d4 e23c fe78 e73b aa56 b7bc
000000a0: 68cf 373b aacc 103d fc1a febc 7c73 a3bc
000000b0: 4480 cfbb 91a7 053b 0737 7d3c 04cf 8b3c
000000c0: 4ef4 d3bb d47f 93bc fd35 7f3c 09b0 ce3c
000000d0: bc72 a63c 96fb a5bb 1b6f 77bb 72ca 533c
000000e0: de53 92bb d00e 083d 84a7 e3bc 7a22 8b3a
000000f0: bae2 eb3a 8351 d4bc 631e 1fbc 1ba4 043c

encoder.block1.shortcut.1.weight f4 [64]
0.07447748 -0.009832529 -0.032924216 -0.05697939 0.014480908 0.12631363 0.020735135 -0.019396564
-0.14664188 -0.09302504 0.0474985 -0.14601673 0.1140519 -0.010240469 0.15403076 -0.019812066
-0.066899925 -0.025241222 0.08421268 0.06899332 0.0020689648 -0.015215901 0.04571123 -0.14255522
-0.0008530344 -0.0030234728 -0.016209394 0.09783213 0.07839525 -0.11598326 0.17542942 0.00052779255
0.017991833 -0.022255076 -0.0076031745 0.02280101 0.088777214 0.012199736 0.029176071 -0.0007852229
-0.03963361 0.016157603 0.0057261735 -0.038751677 0.056978736 0.013551096 0.11605222 -0.048203588
0.16461292 -0.015742501 -0.15926416 0.03581102 0.014789414 0.0042223562 -0.012355287 0.020434208
-0.11281144 0.10622926 -0.12350052 -0.00546126 0.037932202 0.005922779 0.03256048 -0.10151986
00000000: a687 983d 9e18 21bc 8bdb 06bd 3963 69bd
00000010: 5541 6d3c 5c58 013e bbdc a93c 8be5 9ebc
00000020: 4a29 16be ea83 bebd ca8d 423d 6985 15be
00000030: 0b94 e93d a4c7 27bc 3dba 1d3e ea4c a2bc
00000040: d402 89bd aec6 cebc b377 ac3d 5f4c 8d3d
00000050: 7897 073b 1d4c 79bc b33b 3b3d fff9 11be
00000060: 2b9e 5fba 7525 46bb 90c9 84bc 365c c83d
00000070: b08d a03d a288 edbd c5a3 333e 8f5b 0a3a
00000080: 9c63 933c 4750 b6bc 0d24 f9bb 2fc9 ba3c
00000090: d4d0 b53d 67e1 473c a802 ef3c 6bd7 4dba
000000a0: da56 22bd f35c 843c a0a2 bb3b 14ba 1ebd
000000b0: 8962 693d 6b05 5e3c c9ac ed3d 2071 45bd
000000c0: 4a90 283e 6bf6 80bc 2516 23be 93ae 123d
000000d0: 4c4f 723c b15b 8a3b d46d 4abc a465 a73c
000000e0: af09 e7bd ba8e d93d d7ed fcbd 5ff4 b2bb
000000f0: cc5e 1b3d df13 c23b 235e 053d a5e9 cfbd

encoder.block1.shortcut.1.bias f4 [64]
-0.13197312 -0.054461822 -0.0492596 -0.03262999 -0.01414759 -0.19304535 -0.017469775 -0.24410719
-0.13764976 -0.15774354 0.030323923 -0.24213304 -0.11170381 0.013976087 -0.124404326 0.07620503
-0.34459695 0.015976582 -0.017749563 -0.13662978 0.03673779 -0.0050453176 -0.15396433 -0.08481972
-0.038353235 -0.06409446 -0.053671036 -0.16602685 -0.023992203 -0.2994928 -0.4017988 0.080623075
-0.002320378 -0.00080395717 -0.28846154 -0.20466043 -0.07744016 -0.10038527 -0.30164853 -0.06386875
-0.118166275 0.077302754 -0.18557158 -0.07630149 0.011297485 0.025039975 -0.16522232 -0.03937448
-0.14439481 -0.04611381 -0.17188162 -0.21676442 0.019697804 -0.11067171 0.0076045403 -0.056214944
-0.17689547 -0.070157 -0.13159706 0.04318563 0.0028282432 -0.059169177 0.0015425789 -0.16200878
00000000: f623 07be 5c13 5fbd 6fc4 49bd 06a7 05bd
00000010: 4bcb 67bc aead 45be c61c 8fbc 3cf7 79be
00000020: 0ff4 0cbe 8687 21be e069 f83c b9f1 77be
00000030: f8c4 e4bd f5fb 643c b2c7 febd 6211 9c3d
00000040: 036f b0be 52e1 823c 8867 91bc ade8 0bbe
00000050: 5d7a 163d 3153 a5bb d3a8 1dbe f6b5 adbd
00000060: 4818 1dbd f543 83bd 29d6 5bbd f102 2abe
00000070: 4c8b c4bc 1f57 99be 93b8 cdbe b61d a53d
00000080: 7c11 18bb a7c0 52ba 3bb1 93be 8192 51be
00000090: f298 9ebd cb96 cdbd ad71 9abe 9fcd 82bd
000000a0: 2901 f2bd e850 9e3d 7a06 3ebe f543 9cbd
000000b0: 1619 393c a220 cd3c 0a30 29be 2247 21bd
000000c0: 3cdc 13be d6e1 3cbd bc01 30be 7ef7 5dbe
000000d0: 4a5d a13c d9a7 e2bd 822f f93b a441 66bd
000000e0: 1624 35be 79ae 8fbd 61c1 06be 6ae3 303d
000000f0: 0c5a 393b 615b 72bd 5c30 ca3a a1e5 25be
