ldpi/training/output/ResCNN/pretrained_model.pth (torch, 711292 bytes, 63 tensors)

encoder.block1.convblock1.0.depthwise_conv.weight f4 [1, 1, 7]
00000000: fd37 97be a663 00c0 8138 d4be 3ce1 92be
00000010: 6228 59bc 78b3 cc39 0afe 833c
-0.29534903 -2.006082 -0.4144936 -0.28687465 -0.013254257 0.00039043627 0.016112346

encoder.block1.convblock1.0.pointwise_conv.weight f4 [64, 1, 1]
00000000: 7fbd 95bc df21 99bc 2bb5 8dbb 3d8b 973b
00000010: 621d 66bb 787c 4e3c c1a3 8f3c 4e15 a53c
00000020: 09ee 11bc 636e 5e3c 83fc ce3c e36d 073d
00000030: 8933 a3bc 4200 aa3c 0813 853c 5814 7fbc
00000040: 50fe e1bc fbd2 b6bc e380 85bb 64db 07bd
00000050: 1b38 24bb 8e44 dd3c 50c1 673b 5541 693c
00000060: 1ce5 d7bc 6878 d93c 556e 8a3c 3208 90bc
00000070: 5b7f df3c c6aa 823c 044a 0abd 6b9a 933c
00000080: 7943 a5bc 8c8b 253a 40ef 40bc 488c b0bc
00000090: 82c9 8abc 29de b2bc c1d4 05bd 8ec0 03bd
000000a0: b5d6 c53c 7fc4 dab9 3748 9ebc 77e0 03bd
000000b0: 9f4a adbc f678 953c 2cf8 023d 7e11 a93b
000000c0: ffd1 dc3b f56b cb3c 3a5d 983c 7dbb bb3b
000000d0: 5fe3 683c 4087 6c3c e782 703c 451d c63b
000000e0: 535c 87bc 8df5 733c a5b4 b43c 34a4 033d
000000f0: 35d2 dfbc c7a6 95bc 93ba 9bbb a415 093c
-0.018278835 -0.018692909 -0.0043245754 0.004624753 -0.0035112728 0.012602918 0.017534139 0.02015176
-0.00890685 0.013576123 0.025266891 0.03306378 -0.019922035 0.020752076 0.016244426 -0.015568815
-0.027587086 -0.0223174 -0.0040742024 -0.03316821 -0.0025057856 0.027010228 0.0035363026 0.014236768
-0.026354365 0.026546672 0.016898314 -0.017582033 0.027282408 0.015950572 -0.033761993 0.018017968
-0.020173775 0.00063150446 -0.011775792 -0.021551266 -0.01694179 -0.02183445 -0.0326736 -0.032166056
0.024150232 -0.000417266 -0.019321544 -0.03219649 -0.021153746 0.018246155 0.031974956 0.005159556
0.0067389007 0.024831751 0.018599141 0.0057291375 0.014214366 0.014436543 0.014679647 0.0060459697
-0.016523516 0.014890087 0.022058794 0.03213902 -0.027321914 -0.018268002 -0.004752466 0.008366976

encoder.block1.convblock1.1.weight f4 [64]
00000000: 218f 173f a0d5 be3e b3e5 c33d d128 9b3d
00000010: f7c9 d73e 4a49 e73e f8fe db3c 3b8c 8a3d
00000020: f5ac 463f 344d e73c 92e5 323d f767 153f
00000030: 5bc9 953d 4eab db3e 339d 473e 5c5c 973e
00000040: f7d0 ca3e c263 d13d f0fe 033f 3eb9 4d3d
00000050: 785b 5a3e f044 4e3d fc94 253e 2a6c 6d3f
00000060: a8dd a33e 84ab 343d 1e04 ef3e 23cc c33e
00000070: 566d e13e 3728 053d b1ff 573e d651 da3d
00000080: 69b4 033e 75bb f33c e8f4 0d3f c2b7 3f3e
00000090: 0fe2 d23e ba4f 9f3e 6743 523e 4266 fc3c
000000a0: 3d22 373d 10d0 e73c 57bc 0e3e 2e1a 4f3e
000000b0: 5430 073f ee41 243f b6d7 833c bb08 173d
000000c0: 5425 c43e f398 d53e 5465 ee3e d580 fc3e
000000d0: 19cc 7f3d d4f5 ad3e b9df e03d 439a f53e
000000e0: 9442 693c 2ff7 273d 5e99 a93e 8ca0 453d
000000f0: 1f0f a43c 869a 7d3e b3dd 0e3e 2f10 933e
0.5920277 0.37272358 0.09565296 0.075761445 0.42146274 0.45173103 0.026854977 0.06765028
0.7760766 0.028235056 0.043675967 0.5836176 0.07313796 0.42904133 0.1949356 0.29562652
0.39612553 0.102241054 0.5156088 0.05022549 0.21323955 0.050358713 0.16170114 0.9274317
0.32005048 0.044108883 0.4668283 0.3824168 0.4402873 0.032509055 0.21093632 0.1066014
0.1286179 0.029752472 0.5545182 0.18722442 0.41188094 0.31115514 0.20533524 0.03081048
0.044710387 0.028297454 0.13939033 0.2022483 0.5280812 0.641631 0.01609407 0.03687356
0.3830973 0.41718253 0.46561682 0.4931704 0.062450502 0.33976614 0.10980172 0.47969255
0.014237065 0.041007217 0.33124822 0.048248813 0.020026742 0.24765977 0.13951759 0.28723285

encoder.block1.convblock1.1.bias f4 [64]
00000000: 2158 1ebe 458d 33be 6b98 2abe 96b0 6b3d
00000010: 6e1a d8be 032f 183e ac3f 86bd 1033 71bc
00000020: 7ede 2d3f 4673 113f 5e70 2fbc 1778 2a3e
00000030: bd02 fbbd 7d02 d7bd 59d9 8d3c 60e6 eebe
00000040: 2ae0 4dbe 98ac d0bd 7491 263e b98f d6bd
00000050: fc46 09be 3509 54bd 1877 22bd ad09 75be
00000060: edd4 87bd 8739 47be 9757 f7be fdd2 cc3e
00000070: 0279 513e 8449 dfbc 541e 70bd 206a e8bd
00000080: 88ae 40bd 39ba 3bbd b3bb 043f 644d fbbe
00000090: f47d 953c 69a8 50bc c483 1e3f 6b06 89bd
000000a0: 5212 873e 157f 80bd 56d5 d1bd a5d7 00be
000000b0: fe57 d03e 4d6d 32be d0ee 1fbd cdee 68bd
000000c0: fffb e9be 26da 103e 4123 7a3e c637 ce3e
000000d0: 4a2c 60bc c915 bebd de11 cfbc 1a7f a23e
000000e0: f255 2bbe 8d94 7ebd 4d94 c3bd 0aaa dfbd
000000f0: aeac 96bd bbc7 a7be cdb8 1dbd 4d91 033e
-0.15463306 -0.17534359 -0.16659705 0.057541452 -0.42207664 0.14861684 -0.06555113 -0.014721647
0.6791762 0.5681652 -0.010707943 0.16647373 -0.12256382 -0.104985215 0.017315554 -0.46660137
-0.20105043 -0.1018917 0.16266423 -0.10476632 -0.13405985 -0.051766593 -0.039664358 -0.23929472
-0.06632409 -0.19455539 -0.48309013 0.4000472 0.20456317 -0.027256735 -0.058622673 -0.11348367
-0.047041446 -0.045831893 0.51848906 -0.49082482 0.018248536 -0.012735465 0.6191981 -0.06690677
0.26381165 -0.06274239 -0.10245769 -0.12582262 0.40692133 -0.17424507 -0.03904611 -0.056868363
-0.4570007 0.14145717 0.24427511 0.40276927 -0.013682434 -0.09281499 -0.025277074 0.31737596
-0.16732004 -0.062153388 -0.095497705 -0.10921104 -0.07357155 -0.3276957 -0.038506318 0.12848397

encoder.block1.convblock1.1.running_mean f4 [64]
00000000: 7ee4 3e3c 8637 433c 07a7 343b 2231 41bb
00000010: 93ad 123b ec9d 03bc 8c1d 37bc c373 52bc
00000020: f508 ba3b c9c7 0dbc 89ef 83bc 09a6 acbc
00000030: 980d 503c b3b8 58bc 7ea5 29bc 3e97 223c
00000040: 0e0d 903c 9911 693c 8d31 2a3b a131 ad3c
00000050: c859 d13a f209 8dbc 3fb9 13bb 04ae 14bc
00000060: 379d 893c 499e 8abc aa79 30bc 989d 373c
00000070: c775 8ebc e193 26bc 624b b03c 122b 3cbc
00000080: 9dae 523c 830a d3b9 31f5 f53b 5511 613c
00000090: e6ed 303c 7006 643c 769c aa3c 00f6 a73c
000000a0: b035 7cbc f671 8b39 2ac8 493c ac1e a83c
000000b0: 94ea 5c3c 238d 3ebc 8bf6 a6bc 5288 57bb
000000c0: ebc0 8cbb dda9 81bc d43c 42bc 6f53 6fbb
000000d0: 2372 14bc 1ec4 16bc 114e 19bc a68f 7cbb
000000e0: a58f 2c3c ad80 1bbc 385e 66bc ddd1 a7bc
000000f0: 96aa 8e3c 8bc7 3e3c ea86 463b 3ec2 aebb
0.0116511565 0.011915093 0.0027565376 -0.0029478748 0.002238129 -0.008033257 -0.011176478 -0.012844983
0.0056773373 -0.0086535895 -0.01610543 -0.021075265 0.0126985535 -0.0132276295 -0.010354398 0.009923754
0.01758435 0.014225387 0.0025969476 0.021141829 0.0015972191 -0.017216656 -0.0022540835 -0.009074692
0.016798599 -0.01692118 -0.0107711945 0.011207007 -0.017390145 -0.010167093 0.02152032 -0.011484878
0.012859014 -0.00040252888 0.0075060357 0.013737042 0.010798907 0.01391755 0.02082656 0.020503044
-0.0153936595 0.00026597054 0.012315789 0.020522438 0.013483662 -0.011630329 -0.020381233 -0.003288765
-0.0042954586 -0.015828067 -0.011855323 -0.0036518236 -0.009060415 -0.009202031 -0.009356991 -0.003853777
0.010532294 -0.009491128 -0.014060549 -0.020485813 0.017415326 0.011644254 0.0030292817 -0.005333214

encoder.block1.convblock1.1.running_var f4 [64]
00000000: 2245 ba3f 0ace c23f 64d2 a63d d4c8 be3d
00000010: 58f3 5b3d 9019 313f cf66 ab3f ce65 e23f
00000020: 25e9 b03e e581 4d3f 79f5 3140 f65d 9840
00000030: ec43 dd3f 5616 f03f 3e1d 933f b521 873f
00000040: 7824 5440 1bd6 0a40 8810 943d c054 9940
00000050: af08 e03c ff5c 4b40 f918 5f3d b6fe 613f
00000060: 659b 4140 5d71 4440 3a32 9f3f d856 ac3f
00000070: 817b 4f40 04d7 8d3f bdde 9e40 c4fd b43f
00000080: 82e4 e23f 93aa e33a db9d 1a3f bd77 0140
00000090: 3404 a03f 7be4 0440 caca 9440 9734 9040
000000a0: a993 2240 1bcb 463a ab20 d03f 7a7a 9040
000000b0: a578 f93f c69a b93f 3f7f 8e40 c875 ed3d
000000c0: a18a 4a3e d2e1 2b40 fada c03f 1a64 123e
000000d0: c848 613f c761 683f 3546 703f b707 233e
000000e0: 7436 983f 6736 773f 2da3 0740 8ef6 8f40
000000f0: 7215 5040 a00c ba3f 8f77 c93d 491d 9c3e
1.4552348 1.5219128 0.081455976 0.09315649 0.053698868 0.6917963 1.339075 1.7687318
0.34552875 0.8027633 2.7806075 4.76147 1.7286353 1.8756816 1.1493299 1.0557162
3.3147259 2.169318 0.072297156 4.7915955 0.02734789 3.177551 0.054467175 0.88279283
3.0251095 3.0694191 1.2437203 1.3464003 3.241913 1.1081243 4.9646897 1.4139943
1.7725985 0.0017369561 0.6039712 2.0229332 1.2501283 2.0764453 4.6497545 4.5064197
2.5402625 0.00075833657 1.625997 4.5149508 1.9489943 1.4500358 4.453033 0.115947306
0.19779445 2.685658 1.5066826 0.14295998 0.8800168 0.90774196 0.9385713 0.15920912
1.1891618 0.96567386 2.1193345 4.498847 3.251309 1.4535103 0.09837257 0.30491093

encoder.block1.convblock2.0.depthwise_conv.weight f4 [64, 1, 5]
00000000: be15 bbbe 865f 14bf a12c 9dbd 9756 d63d
00000010: 12a4 563e fa8e 5fbd cfd1 9cbd 89e3 abbd
00000020: 5d51 51bd f3b6 80bd 7dbe 983c 9fc2 fb3c
00000030: fccf af3c cb74 073d c10f 2a3d 8ec2 51bc
00000040: 465d 0f3d f487 b3bc 9a09 e83c d29e 0a3d
00000050: 7160 3bbf f713 023e 32c3 ff3e f52f 723e
00000060: 0f0c 073e e440 013f cd13 343d 056f f13d
00000070: 75b7 05bc 204e 313d 9510 863b 6a5c a1bd
00000080: 66d1 90bd 64e7 55bd 546a b5bc 1655 be3c
00000090: 6e29 ae3c 7dcc 0e3d f51a af3c 5202 013d
000000a0: 6efe 2abf 2455 753f 4820 a0bc 763f 85be
000000b0: a0ad 453e 719d 443e fded 033e 892e eabd
000000c0: 691a ec3d bb50 c83e 96a3 debc 3e84 edbc
000000d0: 570b 8abb 4abe 5b3c 27ec 233c 2be6 88be
000000e0: 20cb 05be c432 4cbe 552c dbbd 3d90 d7bd
000000f0: 98bf d13c f2d5 b33c 98fb d23c 7aeb 923c
00000100: ee6d 123c 95cb 9dbd 1058 aebd 1b03 14be
00000110: 5636 17be d33a 19be 0761 563d 86b6 463c
00000120: 06a0 0a3d 695b 4d3d 0414 9c3c 90ec cd3b
00000130: 0c3c 38bd 879d 8fbd 3bb0 3cbc bbe0 b1b7
00000140: 0a81 0e3c e454 763d 6c15 c8bd 269b 34be
00000150: bb4c 40be 0744 243c 1718 76bc 3249 a0bb
00000160: a175 d33b a37d b1bc 7f90 c43e 31af 8cbe
00000170: bc6b 23be 5a52 a93d a2df fb3e 2f6f 3c3b
00000180: 76f1 803c 6c0d c8bb d2f0 6b3b 558e 153c
00000190: e3b0 c4be 34ef 8d3d eedc 433e c299 a23b
000001a0: 8554 20bd a999 053d f242 4d3d 41a7 a2bc
000001b0: b6e2 4dbd cc27 9b3a fd14 00bd 97ae 27bd
000001c0: 7d5b 7bbd 3a1a a9bd b7e8 60bd c43b d23d
000001d0: f496 193e 1559 633e b632 103e d4c9 333e
000001e0: a08c 9d3d a60f a43d ebcf c13d dd35 de3d
000001f0: b8b1 153e d303 923b 64e9 1bbc 1fe8 41bc
00000200: 22d7 3dbb 41cb ef3b e07e 43bd 6ad9 2fbd
00000210: 43a8 873b e8c1 1ebd 2de0 a2ba d987 0abd
00000220: 64b8 6a3e da13 1c3c 3d67 65bd fed3 0bbd
00000230: a28f 973e 7bed b9bd 3d09 553e aa1c 223e
00000240: b14c 703c ce42 133d ea74 aa3c 1800 d63c
00000250: e559 8abc 4e00 87bc 7093 2f3c ea7c 9b3d
00000260: f26b d03d 8fc7 b93d 35df 8e3d d2ef 4a3d
00000270: 7be2 4d3d 615a 813c 62d8 363d b969 3f3d
00000280: fef2 40bd 4fb3 43bc 9efe aebc 308c acbb
00000290: bd26 f63c 973f 3e3c 2d15 433c 254d 4a3c
000002a0: 46d7 f93b e65d 3b3c 3cc0 25bf e629 513d
000002b0: bed3 163f c006 863e ed41 14be a828 3ebd
000002c0: 59e7 72bd 8679 88bd 6f3c 48bd 4f94 23bd
000002d0: e82b 23be 1464 38be d32a 17be d507 f8bd
000002e0: 01da 0ebe 6d06 f03d fa3d e73d b9a6 fa3d
000002f0: 9eda c73d 3d80 973d 6ab4 193e 3311 05be
00000300: ac0c 56bd 1358 853d 0104 ea3d 099c 76bc
00000310: 9611 703b 03f3 a5bc b0d1 a0ba 6dc4 2e3b
00000320: 6f0e f6bd 0efc 27be 2f8c 133d f82d d2bc
00000330: 1722 b4bd 0e6e cabb 4b64 14bc 3ba0 383c
00000340: 1c8c e7ba a45c 2bbc 54e6 52bd d9ce cfbb
00000350: 95e3 d4bd 3d71 1c3b b6b3 af3d 3da8 1fbd
00000360: 2c72 633e 8d49 4f3d 2ef3 90bd 7afa 4ebd
00000370: dcde f33e e3f2 063f 0874 7cbe 2996 94be
00000380: 2d9d 9fbe f80e 0a3e 0561 1e3e c6c8 493e
00000390: 48d7 d43d 51de 1a3e 62ec 293d 317c 27bd
000003a0: 4958 edb9 ac14 11bc 29c8 56bd 0779 1bbc
000003b0: 2096 e93b 9c1f 133b f69d c53c de47 b33c
000003c0: 31b7 eabd e748 c0bd 31dd f7bd 4001 7fbd
000003d0: 33c4 51bd e026 023f adb1 423d d0c4 023d
000003e0: b31c 37be 18da 2bbf 2dfe 103f 14e4 b7be
000003f0: 0e8a 303e d66f 1abe 9cbb 60be e72b f8be
-0.36540025 -0.5795826 -0.07674528 0.104657345 0.20961025 -0.054579712 -0.07657205 -0.08393008
-0.051102985 -0.06284895 0.01864552 0.030732451 0.02146148 0.033070367 0.04151893 -0.012802733
0.03500106 -0.021915413 0.02832489 0.03384287 -0.7319403 0.12702928 0.4995361 0.23651107
0.13188194 0.5048964 0.043964196 0.117887534 -0.008161415 0.043287396 0.004091332 -0.07878955
-0.070711896 -0.052222624 -0.022145428 0.023233932 0.02125999 0.034862984 0.021375159 0.031496353
-0.6679448 0.9583304 -0.019546643 -0.2602498 0.19304514 0.19200684 0.12883754 -0.11434657
0.11528475 0.39124092 -0.027177613 -0.028993722 -0.0042127776 0.013412068 0.010005034 -0.26738104
-0.13065767 -0.1994124 -0.10701815 -0.10525558 0.025604054 0.021952603 0.025754735 0.01793455
0.008937342 -0.07704846 -0.0851289 -0.1445431 -0.14766821 -0.14963846 0.052338626 0.012128478
0.033844016 0.050136004 0.019052513 0.006284304 -0.04497914 -0.07012468 -0.011516626 -2.1204693e-05
0.0086977575 0.06013955 -0.09769711 -0.1763731 -0.1877927 0.010025985 -0.015020392 -0.004891538
0.0064532314 -0.021666354 0.38391492 -0.2747741 -0.15959066 0.082676604 0.49194056 0.0028752794
0.015740138 -0.0061051156 0.0036001694 0.009128173 -0.38416204 0.0693039 0.19127247 0.004962177
-0.039143104 0.032617245 0.050112672 -0.019855144 -0.050265037 0.0011837422 -0.031270016 -0.040937986
-0.061366547 -0.082569554 -0.054909434 0.10265306 0.1499899 0.22201951 0.14081845 0.1755746
0.07692838 0.08010797 0.09463485 0.10850117 0.14618576 0.0044560223 -0.009516094 -0.011835127
-0.002896734 0.007317931 -0.04772842 -0.04293195 0.0041399314 -0.038759142 -0.0012426429 -0.03382096
0.22921902 0.009526217 -0.05600666 -0.03413772 0.2960177 -0.09078499 0.20804305 0.15831247
0.014666722 0.03595238 0.020807702 0.026123092 -0.016888568 -0.016479637 0.010716304 0.07592185
0.10176839 0.09071266 0.06976167 0.049545117 0.050264817 0.015790166 0.044639952 0.046731684
-0.047106735 -0.011944606 -0.021361645 -0.005265735 0.030047769 0.011611841 0.011906904 0.012347494
0.0076245395 0.011435961 -0.6474645 0.051065348 0.5891684 0.26177025 -0.14478274 -0.04642549
-0.05930266 -0.06663804 -0.04888576 -0.03993636 -0.15934718 -0.18006927 -0.1476243 -0.12110869
-0.1395035 0.117199756 0.11291118 0.12238831 0.09758495 0.073975064 0.15010229 -0.12994842
-0.05225818 0.065109394 0.11426545 -0.01505185 0.0036631576 -0.020257479 -0.0012269523 0.0026667372
-0.12014472 -0.16404745 0.03602236 -0.025656685 -0.087955646 -0.0061776703 -0.009057115 0.011268671
-0.0017665657 -0.010459099 -0.05148919 -0.006341797 -0.1039497 0.0023871206 0.08579199 -0.038978804
0.22211522 0.050607253 -0.07077633 -0.05053184 0.47630966 0.52714366 -0.24653637 -0.29020813
-0.31174603 0.13482273 0.15466698 0.19705495 0.10392624 0.1512387 0.041485198 -0.040889923
-0.0004526994 -0.008855026 -0.05243698 -0.009489304 0.007128492 0.002244926 0.024123173 0.021884855
-0.11460722 -0.09388905 -0.12102736 -0.06225705 -0.0512125 0.5084057 0.047532726 0.031925976
-0.17882042 -0.6712966 0.5663784 -0.35916197 0.17240164 -0.15081725 -0.21946567 -0.48470995

encoder.block1.convblock2.0.pointwise_conv.weight f4 [64, 64, 1]
00000000: 06fb 463a 5c27 c43b 025b 803a 51e3 203c
00000010: ad30 133b f3f9 803b cde2 f93b 2b96 8c3b
00000020: c87f 5a3b 89f2 ba3b 4b1b a43a adff 69bb
00000030: e67c 193c faca f4bb b139 9c3b 54e0 05bb
00000040: 7ca6 4abb c957 053c 7fc5 a9bb 2f5a 663c
00000050: e1f3 24bc 742d ad3a a1d0 1fbc 5d23 db3b
00000060: af69 83bb 917e 663b 3cb9 d73b 32a5 c53b
00000070: 913a 823b 7df9 8fbb af8c 013c b11d b73b
00000080: 3d37 e039 a067 4fbc bd48 793a 2ae9 0e3c
00000090: f5f2 1a3c 4d96 853a b08f 423c d614 003c
000000a0: eae4 923b 2ddc 663c 7fa6 1bba fe35 97ba
000000b0: 088f 173b cbd4 8039 5940 903b d954 5b3b
000000c0: e837 05bb a18b cb3a 16f3 28bb 44a8 a1bb
000000d0: a239 c63b d51c 8c3b 2b6f be3b 0884 79bb
000000e0: a537 89bb 6426 123c 06e7 47bb 7b55 f0bb
000000f0: f4c3 283c 3f2a 22bc de85 0b3c ae80 e73a
00000100: 5e2b 20bc 4cfe ed3c 17de f43c aed5 d9bb
00000110: 99ce e73a f075 ad3a a2d1 df3b ec5d 223b
00000120: 6fec 93bb 4bdd 32bc 322f 85bb c4b8 dfbc
00000130: f709 553b 2f57 74bc 6fbf 983c 8c04 a13d
00000140: 3d98 8b3b af7c d23c 7d15 2a3b 14d5 783b
00000150: 9df2 6c3c cc6a 1dbc b01b 2dbc cc6d 323d
00000160: 13fa 7abc a249 87bc e3f1 243d edc5 213d
00000170: 7714 10bd fdc3 063b a352 96bc 4ac3 88bc
00000180: 8b6a 47bc be40 c83b e2d5 7fbc f653 f33c
00000190: f170 97ba 5282 8abb aaeb f03c 8915 24bb
000001a0: f254 0d3c af71 52bb 1b11 11bc 1e83 c43c
000001b0: 6a2b 3c3c df20 0f3d 9455 423c 900b b5ba
000001c0: c8f2 1ebd 4cbb c33c a646 1f3d e771 ca3c
000001d0: bb5e b33b 8bc8 afbd 4efb 5c3c f7bd 0fbc
000001e0: e349 f93a be65 f03c 826b 0fbc 5266 df3b
000001f0: cbd9 b5ba 3120 7fbd d596 2b3c a612 913c
00000200: 853c 063e 9b13 373d f1c3 6d3c 3413 933c
00000210: 6e9b 74bd b2b4 9f3b 7b73 6fbc f3b1 0fbb
00000220: f48b 3f3e fbc7 d23d b707 643b 9cd6 0c3d
00000230: b1d6 853b cf67 db3b 64bd 9ebc 29a3 b93d
00000240: b28e 353d ca4d 453c 4a16 bb3d b279 b33b
00000250: 729e c5bc 3e5f e5bc 0be9 b93a 3b38 0abd
00000260: 34f7 d7bc ef42 423c a939 31bd 14c8 363d
00000270: 52bc c13d 3f85 2dbb b54a b33b 7a21 b73c
00000280: badf 083d ac1e 91bb 9f49 5dbe 6086 a93c
00000290: b080 ed3c c0fe 05bd ef20 023d b4a0 2c3b
000002a0: 46dc c53b d72f 8fbb 89d6 8b3d 4b4d b6bb
000002b0: 1f98 b23d fd8e a13c fe9e 683c af94 a6b6
000002c0: 3f41 0b3d 78ec 093b ea2c e23d 8a7e fd3c
000002d0: 170a 2dbb 4ec0 13bd bc97 cabc fd91 35be
000002e0: f879 f7ba cb23 b3bb e3db 85bc d078 8ebb
000002f0: 71a7 edb9 72c3 b7bd 9d42 e03c 222b 9bbc
00000300: 4d5b 1f3c a15e ec3b 7d0c a83c 4d78 a33a
00000310: 0784 9d3c b5ad 6fbc d8be 5a3c f930 973b
00000320: fa16 a83b ed35 2bbc e5f7 353a 3bb5 89bc
00000330: 9712 2f3d 52de a6bc 9ab6 173c f910 9a3c
00000340: 3381 84bb 69bf e13c 271b 3abc 22dc ce3c
00000350: 0ae9 5a3c ff1a 9bbc 5814 47bc ea67 813c
00000360: c884 87bb 670f 18ba c3ab bd3c 28d5 553b
00000370: 782b 6d3b 2e1c 863a 0bea 2c3a 8b62 5e3b
00000380: 4031 c93b 87cc 463b a91f bd3c eb15 16b9
00000390: cda9 c73b 60e2 aebb 7fd4 203c 508e 8039
000003a0: 6b89 843c d7a7 d8bb a1ef 093b 7bf2 1f3b
000003b0: 230d dfbc 4cdd 41bc 08b6 cf3c 4849 7f3b
000003c0: 54f3 b6bc 93dd 0e3c d577 623c 1449 363d
000003d0: 1f46 0dbb 155d 8f3a dd07 af3c 2559 f4bc
000003e0: 40ba c3bc ec61 b23b 2c6d 50bc add5 493b
000003f0: 752e ddba b6c6 7abc 9af8 c13c 011e 813c
0.0007590506 0.0059861373 0.0009792747 0.009819821 0.0022459433 0.0039360463 0.0076259137 0.0042903624
0.0033340324 0.005705182 0.0012520341 -0.0035705373 0.009368157 -0.0074704858 0.0047676195 -0.00204279
-0.0030921986 0.008138605 -0.005181014 0.014059587 -0.010067911 0.0013212399 -0.009754331 0.0066875652
-0.004010401 0.0035170654 0.006583361 0.0060316557 0.003974267 -0.004393755 0.007907077 0.0055882563
0.00042765765 -0.0126589835 0.0009509435 0.008722583 0.0094573395 0.0010191888 0.011875078 0.007817468
0.004482855 0.01409058 -0.00059375906 -0.0011536477 0.0023126025 0.00024572606 0.004402202 0.0033467321
-0.0020327512 0.0015529284 -0.0025779656 -0.004933389 0.006049351 0.004275898 0.005811592 -0.0038073082
-0.0041875415 0.008920286 -0.003050269 -0.007334409 0.010300625 -0.009897768 0.008515803 0.0017662251
-0.009775965 0.029051922 0.029891057 -0.006647787 0.0017685472 0.0013234001 0.00683041 0.002477522
-0.004514269 -0.010917018 -0.004064464 -0.027309783 0.003250716 -0.014913364 0.01864597 0.078621954
0.0042600916 0.02569422 0.002595275 0.0037968801 0.01446214 -0.009607982 -0.010565683 0.04356174
-0.015318411 -0.016514603 0.040269744 0.039495397 -0.035175767 0.0020563595 -0.018349951 -0.016694684
-0.012171398 0.0061112335 -0.0156149585 0.029703122 -0.0011554045 -0.004226961 0.029409248 -0.002503725
0.00862621 -0.0032111218 -0.008854176 0.023988303 0.01148496 0.034943458 0.011861224 -0.001381265
-0.038805753 0.023893021 0.038885735 0.024712516 0.0054739392 -0.085831724 0.01348765 -0.0087733185
0.0019019212 0.02934539 -0.008753659 0.0068176175 -0.0013874111 -0.06228656 0.010472973 0.017709088
0.13109024 0.04469643 0.014512048 0.017953493 -0.05971854 0.0048738355 -0.014614935 -0.0021926134
0.18705732 0.102920495 0.0034794637 0.034384355 0.004084431 0.0066957246 -0.019377418 0.090643235
0.044325538 0.012042472 0.09135111 0.0054771537 -0.024123404 -0.027999517 0.0014183832 -0.03374503
-0.026362993 0.0118567785 -0.04326788 0.044624403 0.094597474 -0.0026477126 0.0054715523 0.02235483
0.033416487 -0.004428705 -0.21610115 0.020693958 0.028992027 -0.03271365 0.03176969 0.0026340904
0.0060382215 -0.0043697166 0.06828029 -0.0055634133 0.08720421 0.019721502 0.014198063 -4.9644946e-06
0.03399777 0.0021045487 0.11043723 0.030944128 -0.002640372 -0.036072068 -0.024730556 -0.17731471
-0.0018880954 -0.0054669133 -0.016340202 -0.004347898 -0.00045328916 -0.08972825 0.027375514 -0.018941466
0.009726358 0.007213429 0.020513767 0.0012471766 0.019227995 -0.014628817 0.013351165 0.0046139923
0.005129692 -0.010449869 0.0006941541 -0.01681005 0.042742338 -0.020369682 0.009259844 0.018806921
-0.004043722 0.027557092 -0.011359013 0.025251452 0.013361225 -0.018933771 -0.012150846 0.01579662
-0.004135702 -0.0005800635 0.023153191 0.0032628272 0.003618924 0.0010231787 0.00065961544 0.0033933248
0.0061399043 0.003033431 0.023086386 -0.0001431328 0.00609324 -0.0053370446 0.009816288 0.00024520094
0.016178807 -0.006611805 0.002104737 0.0024406004 -0.027227944 -0.011832546 0.025355354 0.003895359
-0.022332825 0.00871982 0.0138225155 0.044503286 -0.0021556688 0.0010937775 0.021366054 -0.029827664
-0.023892522 0.005443802 -0.012721341 0.0030797527 -0.0016874807 -0.015306165 0.023678113 0.015761377

encoder.block1.convblock2.1.weight f4 [64]
00000000: c32a 2d3d f10b e13d 42cf bc3e 4593 b83d
00000010: 7a7b 1e3d 1de5 553d 548f 053d 8920 1c3f
00000020: e4b7 c63d 5786 873d 71c6 a43d 756a eb3d
00000030: 2c4e 153d 5de0 f53d e938 843e ef40 fe3e
00000040: cdf6 aa3e 43db 343d c85a bb3e 7b9f ed3c
00000050: 06e2 283f a801 423f 626f 013d 4e6b 283f
00000060: a408 233d 8cc7 453e 6a9f 053d 7f1b 9e3e
00000070: a948 193f a66c 3e3d 0894 553e fe43 183f
00000080: a005 103d 94df 873d 826f 953d e13a 3d3f
00000090: 9e4c 163d 5bd9 873d 9d33 cd3e 32f6 2c3f
000000a0: b40d 333e 5839 973e 48cb 2a3f 11f4 183d
000000b0: a048 e83e 3035 613e 09f8 e13e 9e85 583f
000000c0: 7106 de3d d40a 333e a337 0d3f 1e30 5e3f
000000d0: fd8f fd3c 9092 3a3d 040a ba3d a05d 483d
000000e0: 4a05 573f b922 ab3e 70d9 373e 81cd de3e
000000f0: ac04 053e 5652 273d 14b6 0b3e d85e 1d3e
0.04227711 0.10988606 0.36876875 0.090124644 0.038691975 0.052220453 0.03260739 0.60987145
0.09703043 0.0661742 0.08045662 0.114949144 0.036451504 0.120056845 0.2582467 0.49658915
0.3339142 0.044154417 0.36592698 0.02900671 0.65969884 0.7578378 0.031600364 0.65788734
0.039803162 0.19314402 0.032622732 0.30880353 0.59876496 0.046490334 0.2085725 0.5947875
0.035161614 0.06634441 0.07296659 0.7391797 0.03669416 0.06633254 0.4007844 0.67563164
0.17485696 0.29535937 0.6671643 0.037342135 0.45367908 0.21992946 0.44134548 0.84578884
0.10841072 0.174846 0.5516302 0.8679217 0.030952448 0.04554993 0.090839416 0.048917413
0.83992445 0.3342493 0.1795404 0.43516162 0.12990063 0.040850006 0.13643676 0.15368211

encoder.block1.convblock2.1.bias f4 [64]
00000000: c8f9 cbbc fed3 34be 5ae1 303d 2111 cbbd
00000010: 9b41 d93b fdcb adbc 31e0 9fbd 04db c9bd
00000020: 124b d9bd 2579 4dbd 2238 f83c 058c e0bd
00000030: bdbf eaba 1781 8fbd 66af 83be f389 163e
00000040: 53d8 efbd 78f4 e0bc 4f83 27be 5c24 aebb
00000050: 1122 d6bd 6f4e 17be 955a 5fba b995 e7bd
00000060: 0888 89ba fdeb 16bd 7c9e fc39 ca18 09bf
00000070: b81f c9bd d564 c7bd a1e8 843d 93f5 01be
00000080: 3c09 043b 27fd adbb fb1b 63bc 92d2 b2be
00000090: 4b12 183b 0463 d0bd 0b87 043e 5fea eebd
000000a0: 974e 303c 9546 72be 81ff 15be 6aba 923a
000000b0: 6854 80bc 4fd9 debd 8658 903e f0e0 debe
000000c0: 21e6 bbbe 9355 a13d eda8 79bd 5416 3abf
000000d0: 15e5 d2bc 29f2 40bc 4978 02bd 445e 95bd
000000e0: b61c 20be e637 263e 2c54 aa3d 1c83 22be
000000f0: 44c2 743d 8c53 3f3a e64a 3ebe ed7d 8dbe
-0.024899378 -0.17658994 0.043183662 -0.099153765 0.0066301352 -0.021215433 -0.07806433 -0.09856227
-0.10610022 -0.05016436 0.030300204 -0.109642066 -0.0017909926 -0.07007044 -0.25719756 0.14701061
-0.117111824 -0.027460322 -0.16358684 -0.005314393 -0.104557164 -0.14776014 -0.00085202727 -0.11307854
-0.0010492811 -0.03684615 0.00048183266 -0.5355345 -0.09820503 -0.09736029 0.06489683 -0.12691335
0.0020147106 -0.005309719 -0.0138616515 -0.34926277 0.0023204263 -0.10175136 0.1294214 -0.116657965
0.010760925 -0.23659737 -0.14648248 0.0011194472 -0.015665248 -0.10881292 0.28192538 -0.4353099
-0.36699012 0.0787765 -0.060952116 -0.7269032 -0.025744 -0.0117764855 -0.031852994 -0.0729337
-0.15635952 0.16232261 0.08316836 -0.15870327 0.05975558 0.0007298521 -0.18583259 -0.27635136

encoder.block1.convblock2.1.running_mean f4 [64]
00000000: f517 c43b f02f 713b 175d 6a3d 01f1 25bc
00000010: 4441 8d3b fd1a 0a3a 49dc 53bc 7a6d e7bc
00000020: 69b5 e03b 9a76 f2ba e309 7ebb e9bc 48bb
00000030: cd70 fc3a 2a4c 1f3c 1b98 d0bc a236 19bd
00000040: ef57 39be ccbf 1c3c eea1 07be 5823 143b
00000050: d1a9 27be 2257 38bd 75a2 bb3a a8bb 28be
00000060: b052 3bbb 3e9b 4c3c a1f7 233b 373d f1bd
00000070: b47f 34bd 89d9 82bc cc4b 0dbc 311b e53a
00000080: 8193 353b 1390 533b 40ea 353c 5c4c 52bd
00000090: 1137 663b 236f 2ebc fff7 88bd c29a 0bbe
000000a0: 36d5 9b3c bec5 c3bc 2b92 dd3c e8b0 86bb
000000b0: 9fdb 4ebd ec78 19bd 5fc6 d1bd 8d62 01be
000000c0: 0daf 3ebd 70c0 20bc c739 233d f753 c8bd
000000d0: ca3e f7ba 9a73 7d3b df99 0f3d 9d85 04bc
000000e0: 4c25 ecbd b425 93bd df67 87bc 99c8 cbbd
000000f0: 8760 91bc 7aae 1f3b 98fd 873c b2c5 d5bc
0.005984301 0.0036802255 0.057217684 -0.010128261 0.004310759 0.0005268304 -0.012930938 -0.028250445
0.0068575633 -0.0018498481 -0.0038763217 -0.0030630177 0.0019259691 0.009722749 -0.025463155 -0.037405618
-0.1809995 0.009567212 -0.13245365 0.0022604074 -0.16373374 -0.04500497 0.0014315384 -0.16477835
-0.002858322 0.0124881845 0.0025019425 -0.11779254 -0.0440671 -0.01597287 -0.008624028 0.0017479417
0.0027706327 0.003228192 0.011103213 -0.051342353 0.0035128037 -0.010646614 -0.066879265 -0.13633254
0.019022565 -0.023898002 0.027047237 -0.0041104443 -0.050502416 -0.037468836 -0.102429144 -0.1263525
-0.04655366 -0.009811506 0.039850023 -0.0978164 -0.0018863317 0.003867364 0.035058852 -0.0080884965
-0.11530551 -0.07184926 -0.016529022 -0.0995037 -0.017746223 0.002436547 0.016600415 -0.026095245

encoder.block1.convblock2.1.running_var f4 [64]
00000000: 112d 8838 1147 c33a 7ee3 943a 1a9b ad38
00000010: 388f 1a37 ffcf e037 5c76 8939 f239 b33c
00000020: 9a01 6339 a4c9 133a 6ff2 1c37 f580 5e3a
00000030: a8f5 b537 6684 113a 493c 933b 1a50 173d
00000040: 64be bb3d 79f4 a338 6804 953a 808a 3937
00000050: c84e b93c 10f2 0d3d 0ae7 6536 daec eb3c
00000060: 0997 1036 064a 2739 0713 7237 9996 e53c
00000070: 2c33 db3c 740b b039 903d 133a f7d2 a33c
00000080: 443b c537 a151 8a39 00d2 283a 027d 863d
00000090: 7327 d937 2c21 a138 b650 d43c f655 083d
000000a0: e602 b339 b876 973c e0fe 8f3d d059 5c36
000000b0: 7503 4f3d a0b7 7039 9af5 3a3e 4711 903c
000000c0: 904b 9f3b 8305 f93a 8123 433c 88e0 033e
000000d0: b54b 3e38 2403 c937 1efc 813a 7e38 8837
000000e0: 0a62 3f3d 0888 5e3d 73a1 8a3a b9b3 623d
000000f0: d9d6 3e3a 1ee0 f537 fe62 e13a f364 e238
6.4933796e-05 0.0014898499 0.0011359302 8.278173e-05 9.212461e-06 2.6799737e-05 0.0002621886 0.021878216
0.00021649004 0.0005637652 9.354771e-06 0.0008487844 2.1691274e-05 0.000555104 0.0044932705 0.036941625
0.091671735 7.817982e-05 0.0011369111 1.1059106e-05 0.022620574 0.034654677 3.4258142e-06 0.028799463
2.1545586e-06 0.00015953937 1.4428754e-05 0.028025912 0.0267578 0.0003357787 0.00056167785 0.019998057
2.3511828e-05 0.0002638223 0.0006439984 0.06566812 2.5886786e-05 7.683257e-05 0.025917392 0.033285104
0.000341437 0.018489227 0.070310354 3.2834832e-06 0.050540406 0.00022956589 0.18257752 0.017586363
0.0048613027 0.0018998835 0.01191032 0.1287862 4.5370038e-05 2.396253e-05 0.0009917056 1.623877e-05
0.046724357 0.05432895 0.001057668 0.055347178 0.00072799396 2.9310639e-05 0.001719564 0.00010795323

encoder.block1.convblock3.0.depthwise_conv.weight f4 [64, 1, 3]
00000000: 4b85 b1bc 6444 17bc 184e d6bc 7c4c 4c3d
00000010: b53f 823d 2297 923d c4bb 73bd dada 4ebe
00000020: 7d08 b83e c325 5fbc 7efa 1fbd 137a 28bd
00000030: 79a0 493c dbd4 bdbb f690 d33c b3d6 5e3c
00000040: f34e d33c e743 2a3c cc19 8ebc c96d c4bc
00000050: 958e bebb bc63 0a3f ea48 e43b 794d 46bd
00000060: 4869 1cbd 8958 9bbc 8cbb 20bd 1cf1 873d
00000070: d7e2 f8bb c864 3bbd 3785 81bd 8027 36bc
00000080: 669a 643d 911f 213c 324d 10bd 9713 94bd
00000090: 6c75 383c 21bb c53c 4078 3fbb b5d3 403d
000000a0: 0463 f63c 5ed1 ff3c 01c1 7a3d ccb6 983d
000000b0: 1729 113e 35f9 d93d 24de f8ba 9256 bf3d
000000c0: acab bcbd c43e e7bd 9dee b6bd d93d 213c
000000d0: 9cd4 af3c 7ba0 2fbd 84f3 bd3d 467e 1a3e
000000e0: 6fd6 8c3e 232e abbc 8e0d 22bc 9801 163b
000000f0: 34e3 3dbe fd35 7cbe 913c 73be d69d 923d
00000100: cae5 91bd 883f f63e 11de 443c 82e1 0bbc
00000110: 2841 3d3b de5c 87be daf8 85be 25af 82bd
00000120: 8ea0 3ebc edb1 03bd 191d ab3c 6a3c d13d
00000130: c7d0 a73d 3a2e e83d ced2 8abc 16b5 97bb
00000140: c37b 93bb ad31 1f3d cd84 163e 6da8 093e
00000150: 766e 9f3e 5bbc 843e 8482 28bf 19b7 bc3c
00000160: 4225 d03c 7074 823c 5cd2 efbd d7ad 03be
00000170: 2436 b4bd 3538 0ebf ccc4 1cbd 969d 9e3d
00000180: b15c 7bbc e17e 12bc 5be3 b7bb 2c06 26bd
00000190: 970e d6bc 6227 19bd f898 8d3d 5da5 b73c
000001a0: 1d10 d0bc 6392 2cbe 6a71 22be 45b4 a2be
000001b0: 552c 42bc 6a60 47bc 29d8 51bc 2c1e a5bc
000001c0: acaf a1bc dd30 0fbd 06a3 dbbd 2192 1abe
000001d0: 2a38 7cbe 49c3 02bf 6974 903d b9a7 153f
000001e0: c367 ac3d ff92 da3d a122 a73d bf7c 86bd
000001f0: 34f0 32bd 0993 3fbd 07b6 7a3e f70d 443e
00000200: 5a9f 743e dc00 963a 7398 303c 3f9b ebbc
00000210: 5624 5fbe 2475 54be b5d3 01be 9688 edbd
00000220: 5aef ebbd 6183 fcbd f26c 3a3d a166 0b3d
00000230: 9800 3c3e 8ecf 9d3e d0a2 793e c7f3 973e
00000240: 734d cbbd 6547 debd 2178 cbbd 1899 003e
00000250: f56b c73d 033d 4a3d 529b 0f3e 403c b23e
00000260: 2bbf 05bf f857 013e c29c 7c3e 0aa9 8a3e
00000270: 9aba ac3c ddcc 993c a8ca 6abb e720 28bc
00000280: c0a3 11bd 865a 71bc dc3d 603d 0bd3 433d
00000290: aa10 aa3c 8d72 55bc 18f6 b1bc 15df c2bc
000002a0: b178 093f 78b7 55bf cd80 843e 3a86 ca3d
000002b0: 7fd7 9dbd 1b38 50bd f577 523e 3074 ccbc
000002c0: 495f f73b 046b bc3d 0ebb e43d 4f16 3b3e
000002d0: 0408 863d 2809 a53d 7952 863d 8d46 bc3c
000002e0: 7c05 ac3c 06e9 573b bd7b 023e 211f c93d
000002f0: 8638 9c3d 183c e63b 2051 123e 579e fd3d
-0.021670004 -0.009232614 -0.026160285 0.04987763 0.063598074 0.071577325 -0.05950524 -0.20200673
0.35943976 -0.013619843 -0.039057247 -0.041132044 0.012306326 -0.0057931966 0.025825959 0.013600993
0.025794482 0.010392166 -0.017346285 -0.02397813 -0.005815337 0.5405843 0.0069667 -0.048413727
-0.03818634 -0.018963115 -0.03924136 0.06637785 -0.007595401 -0.04575041 -0.06324237 -0.011117816
0.05581131 0.009834186 -0.03522987 -0.07230299 0.011258464 0.024137082 -0.0029215962 0.0470769
0.030076511 0.031227764 0.06121922 0.07456741 0.14175831 0.106432356 -0.0018987102 0.09342684
-0.09212431 -0.112912685 -0.089322306 0.009841406 0.021463685 -0.042877655 0.092749625 0.15087232
0.2750735 -0.020896023 -0.009890927 0.0022889134 -0.18543702 -0.2462997 -0.23753573 0.07159011
-0.07123907 0.48095345 0.012015835 -0.008537652 0.0028877947 -0.2643804 -0.2616642 -0.063810624
-0.011634959 -0.032152105 0.020887898 0.10216601 0.08194118 0.11336942 -0.016946223 -0.0046297414
-0.0045008375 0.038865734 0.14699097 0.13443156 0.31138963 0.25924954 -0.6582415 0.023036527
0.02540839 0.015924662 -0.11710045 -0.12859283 -0.08799389 -0.55554515 -0.038273618 0.07744901
-0.015341924 -0.008941383 -0.0056118197 -0.04053323 -0.026130004 -0.037391074 0.06913942 0.022417719
-0.025398308 -0.16852717 -0.15863577 -0.3177816 -0.01185139 -0.012168983 -0.012807884 -0.020155989
-0.019737087 -0.03495871 -0.10724454 -0.15094806 -0.246308 -0.5107923 0.070534535 0.5845905
0.084182285 0.106725685 0.08160902 -0.06566762 -0.043686107 -0.046771083 0.244835 0.19145952
0.23888913 0.0011444348 0.010778534 -0.02876055 -0.21791205 -0.2074781 -0.12678416 -0.11598317
-0.11520262 -0.12329746 0.045514055 0.03403342 0.18359601 0.30822414 0.24378514 0.29678175
-0.09926882 -0.10853461 -0.09935022 0.125584 0.09737388 0.04937459 0.14024094 0.34811592
-0.52244824 0.12631214 0.24669173 0.27082092 0.021085072 0.018774444 -0.003582636 -0.010261751
-0.035556555 -0.014731055 0.054746494 0.047808688 0.0207599 -0.013027799 -0.021723792 -0.023788014
0.53699785 -0.83483076 0.25879517 0.09888883 -0.07707118 -0.050834756 0.20553572 -0.024957746
0.0075492007 0.09200099 0.1116849 0.18270229 0.065444976 0.08058387 0.06558699 0.02298286
0.020998709 0.003294529 0.12742515 0.098203905 0.076279685 0.0070262067 0.14288759 0.123837166

encoder.block1.convblock3.0.pointwise_conv.weight f4 [64, 64, 1]
00000000: e5a0 523a 5dd7 50ba 5d1d f63b abbb b5bb
00000010: 2819 493b 289e 733a b990 88bb 7326 a9bc
00000020: c17c e1b9 2202 a5bb bfdb 2ebb 7a17 39bb
00000030: 86c4 96bb f738 c63b 9553 9c3b e3a1 293a
00000040: 6251 393b 0b69 b6bb 2cda b4ba 1425 6b3b
00000050: 6524 d53b e883 1b3d 5d19 0e3b 3355 a6bc
00000060: ed14 05bb fd0a fdba 577f 8e3b ab13 af3a
00000070: 409b 7a3c bfec 1f3b cd9a c53a d64c 703c
00000080: d19f 8bbb 659d 81ba 3a17 e139 398f bfbb
00000090: 1ea7 863a d927 ae3a e62d ea3a a0a3 f83b
000000a0: c151 3dba ad8e 97ba 2b4d f4bc 62af 133b
000000b0: 3573 d43b 3107 adbb 1d2f 22ba ffd1 e2bb
000000c0: 1a8c a33b 490b 863b 21f8 ca3c 0545 583c
000000d0: 3139 603b ddba 4f3b af69 cf3a 650b 19bb
000000e0: 37d2 6a3b f170 323a 9c60 3f3c 2596 943b
000000f0: 8c4a 533b b6d6 4a3b 4a12 2bbb 9dd7 e73b
00000100: 5615 3bbb 70fc b1bb 6803 e23d 6490 e93b
00000110: 364a 373b 5f18 e4bb bc9c b43b e88b 013c
00000120: fac9 8e3b abd2 0fbb 48e7 c4bb 3d23 6bbb
00000130: bb35 4fb9 9982 3cbb fe76 a7bc 880f b63c
00000140: 182b f73c f7ac c1ba 5ea6 c3bd 3860 dcba
00000150: 0069 183d 671b 38bd e228 943b 773f 363d
00000160: 4aa9 26bb c91c 93bc f633 b0ba 4abb 0cbd
00000170: ee4e 6e3e f3a5 8ab9 0407 443d e98a 7abc
00000180: afb4 933a d725 063c e60d 05bc afc2 db3d
00000190: c51c 103b 7a3e 033b 60cc 583b 6fab 1abe
000001a0: 3e2b 00bc fc68 1dbc 48e0 073d 5a9f ee3b
000001b0: c2b1 d4bb 3593 133d 9e1f a13d 6758 e43c
000001c0: 7181 103b fad4 84bd 9276 aa3d d039 dabc
000001d0: 052f 493a 4c53 223c 06a3 14ba 42d2 023c
000001e0: 08e9 91be e136 0dba ab9b 56bd 36bf 1abd
000001f0: 93b2 01bd 66b6 cdba b259 9a3b 41d3 80bc
00000200: ec43 8ebb 1603 aeba b645 173d 4a94 873b
00000210: 394d 65bb 621e 0e3c 01c6 833b 512d 96bd
00000220: f364 dc3c 28df 503d 1717 483b 7b87 f63c
00000230: da98 71bb dea3 17bd 4751 253d 4fcc 923d
00000240: 8be7 6ebd 4d8a 8dbb 8f68 98bd 7006 8abb
00000250: 9e50 893e c3f0 4dbd cfe4 03ba 211d 663e
00000260: cc91 24bb fa0d 58bd 9599 f839 09db 953d
00000270: bd9d d13d d60e 3e3c 31f6 343d 3cdf 51be
00000280: 063d c43a 54af c83b 8846 af3c f6b2 c33e
00000290: 2c17 863b b9e8 04bc 5624 51bd 7412 43be
000002a0: a51f 4dbd dc10 a3bd 7212 be3e 720d 91bb
000002b0: 91ed 90be c21a 41bd cfb9 983e de14 913e
000002c0: 2149 06bd fc4f 27bd bb4c bb3b 5a72 b2be
000002d0: 2f75 8a3b 2b87 303c 7fcf bf3c 4940 073c
000002e0: 8ed7 d03e 58e5 263e 295e 34bd a223 f73d
000002f0: 1427 d4bc e1ff 3cbb 2231 503d 5a42 4dbc
00000300: 7fa0 403a f84b f2bb b748 eb3c 1416 183b
00000310: 2394 063b 8ada 8eba de8b 533b 68d4 f23d
00000320: 6030 293c 23a8 9cbc dc25 b1bb 5745 823c
00000330: 31dd 9dbb f104 9ebc a374 3bbd befc 8bbc
00000340: 5a84 443d 0d1a 8d3a 7020 2abd 565f f5ba
00000350: 4bf3 88bd add9 57bd 9ed1 c33a d9d6 283d
00000360: 0c98 8dbb 718b 6fbb b4c2 bfba d446 0abd
00000370: 9993 393d 58e8 08bb 6333 9b3c 5b19 0c3d
00000380: a107 3c38 1072 c03b abc8 31bc ba8e 32bc
00000390: f3ce 18ba fd5e 163b f4d8 a0bd 8e99 92be
000003a0: ccbd a7bb d876 063d 40e3 943c f798 2a39
000003b0: dff7 753d 77cb 353d 5566 eebc b953 4bbd
000003c0: f153 503c 0a4c 92bc 8102 e53d 5f0d 943e
000003d0: 2d89 4eba 9509 883a 4a0e 39bc 456a 24bb
000003e0: a31a 03bf 7c67 95bc 599e 0fbd 1d42 a4bd
000003f0: 99b0 02bd 9da7 7dbb d362 56bc 5803 fbbc
0.00080348394 -0.0007966662 0.0075108246 -0.0055460534 0.003068516 0.00092932815 -0.004167643 -0.020648217
-0.00043008293 -0.0050356546 -0.0026681272 -0.0028242753 -0.004601064 0.006049271 0.004770706 0.00064709614
0.0028277268 -0.0055667213 -0.001379793 0.0035880255 0.0065045827 0.037967592 0.0021682598 -0.020304298
-0.0020306662 -0.0019305643 0.004348676 0.0013357302 0.015295804 0.0024402586 0.0015076041 0.014666757
-0.004260995 -0.0009888826 0.0004293265 -0.005845931 0.0010273193 0.0013287022 0.0017866462 0.007587865
-0.000722196 -0.0011562906 -0.029821953 0.0022534956 0.0064834603 -0.0052803983 -0.000618683 -0.006922006
0.0049910666 0.0040907008 0.02477652 0.013200049 0.0034213776 0.0031697073 0.0015824343 -0.002335274
0.0035830864 0.0006806991 0.011680748 0.0045345 0.0032240478 0.0030950732 -0.002610343 0.0070752637
-0.0028546653 -0.005431704 0.11035806 0.0071278084 0.0027967817 -0.006960913 0.0055118483 0.007906891
0.0043575736 -0.0021945636 -0.006009016 -0.0035879158 -0.00019761075 -0.0028764366 -0.020442482 0.022224203
0.030171916 -0.0014776279 -0.095532164 -0.0016813343 0.03720951 -0.044948008 0.004521475 0.04449412
-0.0025430494 -0.017958062 -0.001344322 -0.0343583 0.23272297 -0.00026445053 0.047858253 -0.015291908
0.0011269058 0.008187733 -0.008120989 0.10730492 0.0021989804 0.0020026253 0.0033080801 -0.15104459
-0.00782281 -0.00960755 0.033172876 0.00728218 -0.006490917 0.03602906 0.078673586 0.027874185
0.002204981 -0.064859346 0.08323397 -0.026638895 0.0007674548 0.009907555 -0.00056700443 0.0079847
-0.284981 -0.0005386901 -0.05239455 -0.03778001 -0.031664442 -0.0015694618 0.0047103995 -0.015725734
-0.004341593 -0.0013276066 0.036931716 0.0041375505 -0.0034988655 0.008674236 0.0040214066 -0.07332862
0.026903605 0.05099407 0.003053134 0.030093899 -0.0036864788 -0.03702151 0.040360715 0.07167875
-0.058326285 -0.0043194653 -0.07441818 -0.004212193 0.2681932 -0.050278436 -0.00050313486 0.2247205
-0.0025111316 -0.052747704 0.00047416674 0.07317168 0.10235164 0.011600217 0.0441801 -0.20495313
0.00149718 0.0061244164 0.021395937 0.38222474 0.004092118 -0.008112126 -0.051060043 -0.19050008
-0.050079007 -0.079622 0.37123448 -0.0044266516 -0.2830625 -0.04714466 0.2982926 0.28336233
-0.032784585 -0.040847763 0.005715934 -0.34852868 0.004225395 0.010774414 0.023414372 0.008255073
0.40789455 0.16298425 -0.04403511 0.12067343 -0.02589754 -0.002883904 0.050828107 -0.0125280265
0.00073481345 -0.00739431 0.028721197 0.002320652 0.0020535074 -0.001089887 0.0032279412 0.118569195
0.010326475 -0.019123143 -0.0054061245 0.015902204 -0.004817628 -0.019289466 -0.04576553 -0.01708829
0.047977783 0.001076521 -0.04153484 -0.0018720429 -0.066870295 -0.052697826 0.001493979 0.04122052
-0.004321104 -0.003655162 -0.001463017 -0.033758953 0.045306776 -0.002089044 0.018945402 0.03420387
4.4829798e-05 0.0058729723 -0.010851066 -0.0108982865 -0.00058291777 0.00229448 -0.078538805 -0.28632778
-0.005119061 0.032828182 0.018174767 0.00016269447 0.06005084 0.044383492 -0.02910153 -0.04964039
0.012715326 -0.017858524 0.11182118 0.2891645 -0.0007878717 0.0010378832 -0.011294911 -0.0025087756
-0.5121252 -0.018237822 -0.03506312 -0.080204226 -0.031906698 -0.0038704642 -0.013085085 -0.030641243

encoder.block1.convblock3.1.weight f4 [64]
00000000: e8a4 b53d 072a 973e 1ada 393f 8460 053f
00000010: 09fd a43e b451 ce3e 4d71 e33e c56b 6e3e
00000020: c967 5a3e 3af3 943e fe66 873e 7108 053d
00000030: 3acd 013e f5ef d23e 9cfb 263f f5d9 b63e
00000040: 3e0f 593f 29b8 233f 9de6 ee3e d12a 103f
00000050: 2675 d83e 4917 f23e 415f f23e a704 e43e
00000060: 84a6 813e 14db 883e f47b c73e 1f87 fe3c
00000070: 2af2 653e b3b2 053d 9d54 b93e b811 fc3e
00000080: d8d9 d83e 86fe 903e ab30 b63d 1203 083f
00000090: 9b43 a83e f54f c33e 2374 1d3f eced 7f3e
000000a0: a2ed 3a3f 9fcf 343e d2df f33e 72ca 0c3f
000000b0: 1d76 c13e 3d05 9d3e 2544 763e c280 233e
000000c0: da23 be3e 00de 963e a2e9 873e 9c8a 983e
000000d0: 8f16 b43e 7196 7a3e 6c61 d83e 944d 943e
000000e0: c360 b73e 8eb5 bc3e 39e3 4b3e 03c0 1c3d
000000f0: 99f1 d03e 1607 803e 024b 0b3f 2133 823e
0.08869344 0.29524252 0.7259842 0.52100396 0.322243 0.4029671 0.4442238 0.23283298
0.21328653 0.29091817 0.26445764 0.032478753 0.12675944 0.41198698 0.65227675 0.35713163
0.8478888 0.6395288 0.4666032 0.5631533 0.42276877 0.4728339 0.47338298 0.445348
0.25322354 0.26729643 0.38961756 0.03107029 0.2245566 0.032641124 0.36197367 0.49232268
0.42353702 0.28319186 0.088960014 0.53129685 0.3286408 0.3814694 0.61505336 0.24993104
0.7301885 0.17657326 0.476317 0.5499641 0.37785426 0.3066806 0.24049433 0.15967086
0.37136728 0.29466248 0.26545435 0.2979325 0.3517346 0.24471451 0.42261827 0.28965437
0.3581601 0.36857265 0.19910897 0.038269054 0.40809324 0.25005406 0.5441133 0.25429633

encoder.block1.convblock3.1.bias f4 [64]
00000000: 821e 443c 2a58 a1bb fa96 7ebe 4fdc 91be
00000010: dcaa f9bd 09e3 94bd 3fe5 babd 53a0 cb3c
00000020: f7b0 81bd a05c 073d 3e46 b0bd d252 87ba
00000030: 8615 c2bd d4ea 843c e28d e6bd b3ed cfbd
00000040: 003c ddbe ab80 31be 103f 21be f673 93be
00000050: 309b 40be 0506 4bbe 9e92 a5bd 18d5 43be
00000060: dbee 8d3c adee bc3d 4336 eebc d305 e0ba
00000070: bbf2 a23b a237 ed39 d584 66bd 2701 c7bd
00000080: afdc 87bd b4fd c53d 1bba e83c 33f3 39be
00000090: 8eb7 d2bd 4aa9 9fbd 000e 8bbe b8f0 80be
000000a0: a0a1 39bd 7028 0bbe 2da6 08be 69db 1ebe
000000b0: 1c05 3cbd 511f c6bd bb09 883d fb1b 5dbd
000000c0: dec1 2abe d8e4 a3bc 7b3c a7bd 9578 42be
000000d0: d568 77bd 4fbf 963d 0b3a a73b d0f3 373c
000000e0: 3f40 33be dcef 58bd 4e5c ccbd 0ad0 d4ba
000000f0: 8e52 36bd dd31 bc3d 5baa 8cbe 435c 6cbc
0.011970164 -0.00492384 -0.2486228 -0.28488395 -0.12190792 -0.07269866 -0.091257565 0.024856722
-0.063325815 0.03304732 -0.08607148 -0.0010324365 -0.094767615 0.016225256 -0.11257531 -0.101527594
-0.4320984 -0.17334239 -0.15746713 -0.2879941 -0.188092 -0.19826515 -0.08084606 -0.19124258
0.01732581 0.09225211 -0.029078608 -0.001709158 0.0049727834 0.00045245612 -0.056279022 -0.09717017
-0.06633889 0.09667531 0.028409055 -0.1815918 -0.102889165 -0.07795961 -0.2715912 -0.25183654
-0.045320153 -0.13589644 -0.13344641 -0.15513386 -0.04590331 -0.09673942 0.06642481 -0.053981762
-0.16675517 -0.020006582 -0.081658326 -0.18991311 -0.06040271 0.07360708 0.005103355 0.011227563
-0.17504977 -0.052963123 -0.09978543 -0.0016236317 -0.044512324 0.09189198 -0.2747372 -0.014426294

encoder.block1.convblock3.1.running_mean f4 [64]
00000000: 6085 78ba 3479 94bb 8e00 093d 93a2 feb8
00000010: 8bb0 c5bc 1994 f7ba ed3a 993c 3ec6 20ba
00000020: 1113 e33b f259 b0bb 713e 23ba dc05 d9b9
00000030: 8e72 5fbb 9fd3 9fbb 49dc 933b fbc6 ce3a
00000040: c9c4 013d 4c5e 033d 1a1a 1c3c 8f08 7fbc
00000050: d335 b83c f59b c0bb 5199 05bc 8c03 c4bb
00000060: 2fc1 bfbb f64b fbbb 88af 6c3c 97c9 6239
00000070: ff12 903b a6aa 96ba 7f1e 45bc 179c 0dbc
00000080: 1164 24bc ce68 28bc 69d4 cc3a dc2a 25bc
00000090: 5004 93ba 1529 0c3c 4988 6d3b 3fcc f93c
000000a0: e165 eb3c 867f e93b dc2e 9f3b 87ad 8a3c
000000b0: 83b3 6cbb b8df cb3a babf 6b38 2001 98ba
000000c0: eb15 4bbb e607 a33b eb4e 2f3b 4342 e2bb
000000d0: 3341 8c3b 5219 24bb 96c3 613c af66 933a
000000e0: 5996 943b 1175 a53c ee72 3bbb 8090 963a
000000f0: 123a 18bc 8b7b 34bc c7a8 9ebb 4f68 f6ba
-0.00094803236 -0.00453105 0.033447795 -0.000121419456 -0.024132034 -0.0018888741 0.018704856 -0.0006133056
0.006929763 -0.005381816 -0.0006227261 -0.0004139383 -0.003409538 -0.004877522 0.004512344 0.0015775854
0.03168181 0.03207235 0.0095277075 -0.015566005 0.022486603 -0.0058779665 -0.008154229 -0.005981868
-0.0058518867 -0.0076689674 0.014446147 0.00021628138 0.0043967958 -0.0011494949 -0.012031197 -0.008643172
-0.010033623 -0.010278894 0.0015627268 -0.010081019 -0.0011216495 0.008554717 0.0036244562 0.0304929
0.028735103 0.0071257977 0.004857881 0.016928447 -0.003611774 0.0015554344 5.6206925e-05 -0.0011597015
-0.0030988406 0.004975307 0.002674992 -0.0069048717 0.0042802333 -0.0025039506 0.0137795415 0.0011245812
0.0045345244 0.020197423 -0.002860244 0.0011487156 -0.009291189 -0.011015783 -0.004841897 -0.0018799397

encoder.block1.convblock3.1.running_var f4 [64]
00000000: e683 8936 952f 2939 eb8a 703a 4909 5a39
00000010: 333d 4438 44cc 8639 a2b8 ba39 c286 b338
00000020: b753 a438 c964 2339 4677 ba37 19b7 aa34
00000030: dc64 6d38 db0d 393a 49d9 033b a942 d038
00000040: e6fd f739 a213 373a 67d7 4039 7940 323a
00000050: f6ec 1e3a ca3e 0f39 a5a9 113a 16dd a138
00000060: b7b9 c338 e91b 3639 9198 043a 019c 8834
00000070: 59be 5d37 8e43 6635 e724 4139 9d01 fb39
00000080: 515a 8639 93b6 1f39 b456 ee36 8cb2 9f3a
00000090: 4c05 8c38 e7d1 1939 f8d0 9539 7971 c739
000000a0: 0bd3 2c3b 53c3 2439 76ae 9a39 a2fc b739
000000b0: 4bd7 7739 8e2c 7538 5c81 0b39 6de2 dc36
000000c0: e276 d638 8ca9 9b38 e066 1639 a5a2 4438
000000d0: 01a0 5839 6f62 0039 8cd8 f239 febb 5139
000000e0: b31f 5138 2428 9539 e5c5 a438 26c4 0435
000000f0: 24b3 9e39 0087 5739 a1df 4c39 a524 ea37
4.098273e-06 0.00016134822 0.0009175974 0.00020793559 4.6787038e-05 0.0002571066 0.00035614247 8.560486e-05
7.8357225e-05 0.00015582437 2.2228469e-05 3.179819e-07 5.6599136e-05 0.00070592546 0.0020118526 9.930629e-05
0.0004730068 0.00069838215 0.0001839079 0.00067997683 0.00060625316 0.00013660933 0.000555659 7.718259e-05
9.332917e-05 0.0001736727 0.00050581346 2.5445482e-07 1.3216945e-05 8.577998e-07 0.00018419662 0.00047875653
0.00025625763 0.00015231436 7.1030463e-06 0.0012183948 6.676707e-05 0.00014669412 0.00028575188 0.00038040782
0.0026370909 0.00015713023 0.00029503152 0.00035092706 0.00023635958 5.8454047e-05 0.00013304263 6.5828704e-06
0.00010226459 7.4225565e-05 0.00014343439 4.6881516e-05 0.00020658971 0.000122437 0.00046319177 0.00020001826
4.9859005e-05 0.00028449402 7.85699e-05 4.9459265e-07 0.0003026958 0.00020554289 0.00019538264 2.7912038e-05

encoder.block1.shortcut.0.weight f4 [64, 1, 1]
00000000: d2c5 a33c c120 2e3c 2302 413c a4ac 4f3c
00000010: c1c0 8d3c 709f cebb 0877 84bc 84b0 8e3c
00000020: 6935 a7bc 77be 46bc 00a4 01bd d9b1 2d3c
00000030: 2ddf 03bd 540f bb3c dfe2 113c b27c d2bc
00000040: 7b19 ebbc 5296 a8bb a4e9 2dbc c3ae c3bc
00000050: 9f44 3abc 9293 d13b c804 863b 5ef5 06bd
00000060: dbff 703c 4921 64bc 7a3b a13c 880e cabc
00000070: bd40 ecbb a819 e6bc 3f23 edbc 0cb2 163c
00000080: 4319 7b3b d186 c53b e143 22bc 9e9d b53c
00000090: 7c06 993c c8d4 23bc 9fbf babc f1a1 883c
000000a0: c7b1 063c fc9e 223b 6b7b 94bc 36fc c03c
000000b0: 1e3c a7bc ce4b fdbc 5dbe e4bc 529d b43c
000000c0: ca03 ccba f86b c93c 25a1 7fbc eeb4 7d3c
000000d0: 4416 b3bc bb53 cabc b46c 08bd b90f 143c
000000e0: 5f62 f1bc 4a34 7ebb a9d6 f23c 3acf cebc
000000f0: 5b76 d83c 5ab6 e7bc d176 b9bc 63a5 6f3c
0.019991789 0.010627926 0.011780295 0.012675438 0.017303826 -0.0063056275 -0.01617004 0.017418154
-0.02041121 -0.012130371 -0.031650543 0.010601484 -0.03219526 0.022834457 0.008904188 -0.025694225
-0.028698673 -0.0051448727 -0.010614786 -0.023887044 -0.0113689 0.0063957656 0.0040899254 -0.032948844
0.014709438 -0.013923951 0.019681681 -0.024665132 -0.007209866 -0.028088406 -0.02894747 0.009197723
0.0038314618 0.0060280343 -0.009903879 0.022169884 0.01867985 -0.0099994615 -0.02279645 0.016678782
0.008221096 0.0024814 -0.018125257 0.023557764 -0.020414408 -0.030919936 -0.027922804 0.022047672
-0.0015565094 0.024587616 -0.015602385 0.0154850315 -0.021861203 -0.024698129 -0.033306792 0.009036952
-0.029465852 -0.003878849 0.029643374 -0.025245298 0.026423624 -0.028285194 -0.022639664 0.014626834

encoder.block1.shortcut.1.weight f4 [64]
00000000: cb69 193d d331 c53b 4566 133e 248d 21bd
00000010: 6c02 f8bc ad78 3dbc 2b61 60bd 0889 1e3c
00000020: 50d8 b63c 775f 01bb ec24 243d 16c4 063d
00000030: c718 86bc 8ff6 99bd f6a4 99bd 4736 6e3d
00000040: 035b 453b 0096 03be 1413 99bd 1e1b 87bd
00000050: f2cf 773c 35e1 cd3c b2fc ed3b 0bb2 fbbc
00000060: 5204 4b3c 72f0 e63c 90df 523d e945 023d
00000070: 1568 1e3d 03d3 0a3d a02e 3bbc 31a9 b93d
00000080: 69c4 f8bc bdf4 5abc 7075 163d 48b4 d8bd
00000090: 62e2 493c 5266 e9bc 86eb 47bd 2d1c f43c
000000a0: 3b52 133e 0653 093d 436c 26bd 72a4 e53d
000000b0: d8c2 a93c ef94 0a3d 7315 113d b7cf c83c
000000c0: 7c05 a1bb e2bc de3c d41f 843d f23a bb3c
000000d0: 1ca7 5ebd 7081 7739 94cb efbc f8cc 26ba
000000e0: f1f7 083d 5de3 81bd bdeb 34bd 33ec f63c
000000f0: 79f6 3b3c 0026 74bc ae33 033c 6b5a de3c
0.037454408 0.0060179024 0.14394481 -0.039441243 -0.030274592 -0.011564416 -0.054780167 0.0096762255
0.022319943 -0.001974074 0.040074274 0.032901846 -0.016369237 -0.075177304 -0.07502167 0.05815723
0.0030114062 -0.12850189 -0.07474342 -0.06596969 0.015125262 0.025131801 0.0072627896 -0.030724546
0.012391167 0.028190825 0.051482737 0.031804953 0.03867348 0.033892643 -0.0114246905 0.09065474
-0.030367093 -0.013364014 0.03673309 -0.10581261 0.01232204 -0.028491173 -0.048808597 0.029798592
0.14386837 0.033526443 -0.04063059 0.11213006 0.020722792 0.03383344 0.035420846 0.024513109
-0.004913984 0.027189676 0.06451383 0.022855256 -0.054358587 0.00023603975 -0.029271878 -0.000636294
0.03343958 -0.06342194 -0.04417013 0.030141925 0.011472338 -0.014901638 0.008007927 0.027142724

encoder.block1.shortcut.1.bias f4 [64]
00000000: 821e 443c 2a58 a1bb fa96 7ebe 4fdc 91be
00000010: dcaa f9bd 09e3 94bd 3fe5 babd 53a0 cb3c
00000020: f7b0 81bd a05c 073d 3e46 b0bd d252 87ba
00000030: 8615 c2bd d4ea 843c e28d e6bd b3ed cfbd
00000040: 003c ddbe ab80 31be 103f 21be f673 93be
00000050: 309b 40be 0506 4bbe 9e92 a5bd 18d5 43be
00000060: dbee 8d3c adee bc3d 4336 eebc d305 e0ba
00000070: bbf2 a23b a237 ed39 d584 66bd 2701 c7bd
00000080: afdc 87bd b4fd c53d 1bba e83c 33f3 39be
00000090: 8eb7 d2bd 4aa9 9fbd 000e 8bbe b8f0 80be
000000a0: a0a1 39bd 7028 0bbe 2da6 08be 69db 1ebe
000000b0: 1c05 3cbd 511f c6bd bb09 883d fb1b 5dbd
000000c0: dec1 2abe d8e4 a3bc 7b3c a7bd 9578 42be
000000d0: d568 77bd 4fbf 963d 0b3a a73b d0f3 373c
000000e0: 3f40 33be dcef 58bd 4e5c ccbd 0ad0 d4ba
000000f0: 8e52 36bd dd31 bc3d 5baa 8cbe 435c 6cbc
0.011970164 -0.00492384 -0.2486228 -0.28488395 -0.12190792 -0.07269866 -0.091257565 0.024856722
-0.063325815 0.03304732 -0.08607148 -0.0010324365 -0.094767615 0.016225256 -0.11257531 -0.101527594
-0.4320984 -0.17334239 -0.15746713 -0.2879941 -0.188092 -0.19826515 -0.08084606 -0.19124258
0.01732581 0.09225211 -0.029078608 -0.001709158 0.0049727834 0.00045245612 -0.056279022 -0.09717017
-0.06633889 0.09667531 0.028409055 -0.1815918 -0.102889165 -0.07795961 -0.2715912 -0.25183654
-0.045320153 -0.13589644 -0.13344641 -0.15513386 -0.04590331 -0.09673942 0.06642481 -0.053981762
-0.16675517 -0.020006582 -0.081658326 -0.18991311 -0.06040271 0.07360708 0.005103355 0.011227563
-0.17504977 -0.052963123 -0.09978543 -0.0016236317 -0.044512324 0.09189198 -0.2747372 -0.014426294
