ldpi/training/output/ResCNN/pretrained_model.pth (torch, 711292 bytes, 63 tensors)

encoder.block1.convblock1.0.depthwise_conv.weight f4 [1, 1, 7]
00000000: ced8 06c0 d7f3 00bf 520d 27be 6bb0 d3bc
00000010: 2082 5f3c fd6e 1a3b ffee ad3b
-2.1069827 -0.5037207 -0.16313675 -0.025840959 0.013641864 0.002356469 0.0053080316

encoder.block1.convblock1.0.pointwise_conv.weight f4 [64, 1, 1]
00000000: 24c4 2fbd d6cc b03c 11fb 48bd 32c6 213d
00000010: 086d 00bc 8591 d7bc 0981 263d 004c 80bc
00000020: 570f d53c e057 303d ccad ba3b f438 573c
00000030: 7606 8abc 21f6 3b3c 5426 fdbc 5ef8 cabb
00000040: e441 3bbd 6a23 43bc edc9 ea3c 6d5f 04bc
00000050: 21f9 2f3c 8193 52bc d1fb a63c 3c2f 133d
00000060: 62ef 143d bb0b babb d537 783b 819a d5bc
00000070: 4d16 1dbd 39fb 91bc 358c c93c 7b75 093d
00000080: 7ad8 e73c 0d28 c8bc 2a4b 2a3d 8873 403d
00000090: a357 83bc 0ae5 08bd 3381 1f3d 189b acbb
000000a0: fda5 143d d297 143d 1d85 16bd a36b e3bc
000000b0: 88d6 2a3d 5fba 9c3c 94a4 db3c c8fc 433d
000000c0: a1bb 99bc 764e 3b3c 4a42 d2bb 04fc 693c
000000d0: 13c2 943b c159 833c 5269 6dbc cb09 e0bc
000000e0: d519 1cbd f7a3 e43c 245f 323d 0d88 07bd
000000f0: 4744 9bbb 511d 8dbc 0d6d 1c3d dc4e 3b3d
-0.042911664 0.021582048 -0.04906756 0.039495654 -0.007838495 -0.026314506 0.0406504 -0.01566124
0.026008291 0.043052554 0.0056969877 0.013136137 -0.016848784 0.011472256 -0.030902065 -0.0061941585
-0.045717135 -0.011910299 0.028660739 -0.008079392 0.010740549 -0.0128525505 0.020383747 0.035933718
0.036361106 -0.005677668 0.0037875075 -0.02607465 -0.038351346 -0.017819988 0.024602989 0.033559304
0.028301466 -0.02443316 0.04157559 0.04698518 -0.016033 -0.033421554 0.038941573 -0.005267512
0.03629111 0.0362776 -0.03674804 -0.027761286 0.0417085 0.019131837 0.026811875 0.047848493
-0.018766226 0.011432281 -0.0064165937 0.014281277 0.004539737 0.016034009 -0.014490442 -0.02734842
-0.038110573 0.027910216 0.043547764 -0.033088733 -0.004738364 -0.017225893 0.038189936 0.045729503

encoder.block1.convblock1.1.weight f4 [64]
00000000: c0da 893e 3b20 153e c7f5 bf3e 2b95 823d
00000010: bc0e 0e3e b38c d93e 6040 483e f1ad 763e
00000020: 3882 0e3f 546f f53e dcf3 a73d 0ae2 a63e
00000030: 3184 b63e d5a5 023e e9b3 423e 34af ea3e
00000040: dbd4 3f3e 6767 863d 6517 123f 2b9c dc3c
00000050: 3e66 163e ed29 6d3e 8644 c03d 7973 f03d
00000060: 572a 5b3e bbb5 bf3e 6678 1b3e cd83 2a3e
00000070: 5ec4 e13d 4e1d d83d 4518 0a3f a7a0 9e3e
00000080: 8c75 4c3e 2d89 923e e89b 003f 6b78 8f3e
00000090: e6e1 153f cb95 c73e ddd9 093e 14c7 f93d
000000a0: 9be5 503d 6625 753d a359 dd3e 5986 cd3e
000000b0: 4d8b 1c3f 7ffd 9b3c 527a 303f 45d6 583c
000000c0: a0d2 af3e cb83 6f3e e6b3 693e a0de 293d
000000d0: 86ef d33e 5b6e 7c3e 4ef7 0e3f b1b6 793d
000000e0: 87d0 f13e 7ed5 863e 20ca 003f c4b5 ec3d
000000f0: c8d9 ed3c 0d0d dd3e bbbe ec3e c32a e93d
0.26924706 0.14563076 0.374922 0.06376108 0.13872808 0.42490157 0.19555807 0.24089791
0.5566745 0.479365 0.08200809 0.3259433 0.3564773 0.12758572 0.19013943 0.45836794
0.18733542 0.06562691 0.5706695 0.026929935 0.1468744 0.23160525 0.0938807 0.11740775
0.2140287 0.37443337 0.15182647 0.1665184 0.11023782 0.105524644 0.5394328 0.30981943
0.19966716 0.28620282 0.50237894 0.2802156 0.5854782 0.3898147 0.13462014 0.12196174
0.05100022 0.05985012 0.4323245 0.40141562 0.61150056 0.019041775 0.68936646 0.01323468
0.34340382 0.23390119 0.22822532 0.041472077 0.4139368 0.24651472 0.55846107 0.060965244
0.47229406 0.26334757 0.5030842 0.115581065 0.02903451 0.4317402 0.46239266 0.11385109

encoder.block1.convblock1.1.bias f4 [64]
00000000: ecf8 dabe c37a df3d a3dc b23d 05bb 77bc
00000010: 936c ed3d 7d29 f43d b4d6 373e 1bf7 703d
00000020: faaa 6b3e 466e 5f3e d22a c0bc 9c7a 103d
00000030: 3126 04be b499 c5be 8cf8 9ebd 050f d1bd
00000040: 8a6b 6dbd 0fa1 afbd 1aca 293e d177 5d3f
00000050: 4bf1 98bd 5597 6dbe d7ef 07bd b911 a53e
00000060: 2232 a83c 2b47 cebd e6dc 1abd e2c2 2a3d
00000070: d938 46bd bcf6 bbbc 5194 07be 9796 a4bd
00000080: cd82 9b3e 1cd1 d5bd 50ad c33e 3bdb a4bd
00000090: 988e 163e 1606 87bd ca78 cf3d 73ca 67bd
000000a0: 7f22 a0bd 85bc 14bf 3abf 203e 20d3 0dbe
000000b0: a19c 9d3e 9c38 e7bd f38a 32be 3168 36be
000000c0: 4ca0 d83d e98d 9b3d 2c4a 7fbd fa8b 60bc
000000d0: f3de 343e 83b4 93bd e2d8 203e 6b9d abbd
000000e0: 1556 a13e 84dc 5a3d cfd3 013f 0d40 e03c
000000f0: 7d3c 79be 13f7 953d a5ef 03bf 3012 d8bc
-0.42768037 0.10912087 0.08733489 -0.0151202725 0.115929745 0.11921976 0.17952996 0.05882941
0.23014441 0.2181941 -0.023457918 0.03527318 -0.12905194 -0.3859383 -0.0776225 -0.10207943
-0.057963885 -0.08575641 0.16581002 0.8651095 -0.07467898 -0.2320226 -0.033187713 0.32240084
0.020531718 -0.10072168 -0.03780832 0.04168976 -0.048394058 -0.0229448 -0.13240172 -0.08036535
0.3037323 -0.10440275 0.38218164 -0.080496274 0.14702833 -0.06592958 0.101304606 -0.056589555
-0.078190796 -0.5810016 0.15697947 -0.13850069 0.3078356 -0.11290094 -0.17435817 -0.17813183
0.10577449 0.075954266 -0.062326595 -0.013705248 0.17663173 -0.07212164 0.15707734 -0.083796345
0.31510988 0.053432956 0.5071382 0.027374292 -0.2433948 0.07322516 -0.51537544 -0.02637586

encoder.block1.convblock1.1.running_mean f4 [64]
00000000: c891 5f3d 74e2 e0bc 3fa4 7f3d a5c5 4dbd
00000010: 9e5a 233c 2d19 093d cac9 53bd 9a30 a33c
00000020: c380 07bd ae4d 60bd 3773 edbb dae0 88bc
00000030: 6490 af3c da14 6fbc e0ff 203d 0816 013c
00000040: 952f 6e3d d135 783c 7c52 15bd d05f 283c
00000050: 2bd5 5fbc 62ec 853c f865 d4bc e036 3bbd
00000060: e970 3dbd 15a5 ec3b f2dc 9dbb 44d9 073d
00000070: 68cf 473d 17af b93c 6e2e 00bd fbd7 2ebd
00000080: 4f73 13bd d697 fe3c c59b 58bd d9ca 74bd
00000090: 4710 a73c 4120 2e3d 9fe2 4abd b18c db3b
000000a0: 9113 3dbd 8901 3dbd fd74 3f3d d6a2 103d
000000b0: 0b4d 59bd 7a5a c7bc 8eb0 0bbd 4c4a 79bd
000000c0: 338b c33c 973f 6ebc bcb8 053c 87cf 94bc
000000d0: 4837 bdbb f912 a7bc 7bfd 963c 2b7c 0e3d
000000e0: 488e 463d 7969 11bd 2ce2 62bd 5b64 2c3d
000000f0: a57e c53b 567e b33c 21f8 46bd 1540 6ebd
0.054582387 -0.027451731 0.062412497 -0.050237317 0.009970335 0.033471275 -0.051706113 0.019920636
-0.03308178 -0.05476158 -0.0072464007 -0.01670878 0.021431156 -0.014592374 0.03930652 0.007878788
0.058150847 0.01514955 -0.036455616 0.01027675 -0.013661663 0.016348068 -0.025927529 -0.04570663
-0.046250258 0.0072218277 -0.0048175985 0.033166185 0.048781782 0.022666497 -0.03129428 -0.042686444
-0.03599864 0.03107826 -0.05288293 -0.059763763 0.020393504 0.04251123 -0.04953253 0.0067001213
-0.046161238 -0.046144042 0.046742428 0.035311542 -0.05305199 -0.024335135 -0.034103923 -0.06086187
0.023870086 -0.014541528 0.00816172 -0.018165363 -0.0057744123 -0.020394789 0.018431416 0.034786385
0.048475534 -0.035500977 -0.055391476 0.042087894 0.00602706 0.021910828 -0.048576478 -0.058166582

encoder.block1.convblock1.1.running_var f4 [64]
00000000: a842 c840 989f ca3f 50eb 0241 4fa5 a940
00000010: 5ad3 553e 239d 1640 f2b5 b340 6a65 553f
00000020: fe20 1340 da93 c940 38e6 e13d 7a21 163f
00000030: 47fc 763f 9303 e53e c6b4 4f40 1d86 053e
00000040: 304d e340 2cd6 f63e 40ab 3240 9c2b 633e
00000050: 7abb c83e f6b7 0f3f 5ebf b43f 256d 8c40
00000060: 60c9 8f40 a75e e03d 39b1 473d 71e1 1340
00000070: 35f5 9f40 d023 8a3f aaa8 0340 7df6 7440
00000080: b937 2e40 f6d8 0140 eefb bb40 e915 f040
00000090: bca5 5f3f baf4 7240 53eb a440 a51f c13d
000000a0: cd3b 8f40 8020 8f40 f5dc 9240 73a1 2740
000000b0: 1d30 bd40 333a 9f3f 705c 1c40 48fd f840
000000c0: 2533 993f b56b e33e 3049 0f3e 6772 313f
000000d0: f271 8f3d f2ac 5f3f caae 363f 85ae 2240
000000e0: a7f4 9d40 1e6f 2940 d33d ce40 2724 6e40
000000f0: a045 9c3d 2815 813f 3f9d 9e40 ae6c e340
6.2581367 1.5829954 8.182449 5.3014293 0.20881405 2.3533409 5.61596 0.8335787
2.2988887 6.2992983 0.11030239 0.5864483 0.96478695 0.4472929 3.2454085 0.13039441
7.1031723 0.48210275 2.7917023 0.22184604 0.39205533 0.5614008 1.4120901 4.3883233
4.493332 0.109555535 0.048752997 2.3106349 4.9986825 1.0792179 2.0571694 3.8275445
2.722151 2.0288672 5.874503 7.5026746 0.87362266 3.796187 5.153726 0.09429864
4.47605 4.4727173 4.5894723 2.619229 5.912123 1.2439636 2.443142 7.780918
1.1968733 0.4441811 0.13992763 0.6931519 0.07004155 0.8737327 0.71360457 2.5419018
4.936115 2.647407 6.445047 3.7209566 0.076304674 1.0084581 4.956695 7.1070166

encoder.block1.convblock2.0.depthwise_conv.weight f4 [64, 1, 5]
00000000: 5082 7cbd 6fab 85bd defc 93bd 6467 45bc
00000010: e1c3 b03d f805 27be 990c 75bd 64a0 4eb7
00000020: 56f7 e23c 008c a83d 958d 9d3e 509a 0d3e
00000030: a330 ddbd 834f 933d 82cc 053d 17e3 d8bc
00000040: bee3 88bb 982e 103d 1ceb 823c 24bc 283d
00000050: c5b5 7a3d f8e3 f53d 2664 f3bd 07a8 62bd
00000060: f42c 763c 7533 c5bd b6a9 28bd 414b 10be
00000070: 1a16 023d b72e 6bbe a727 79be 8a35 1b3d
00000080: a412 9a3d fdff b2bc 12f9 6b3d af46 6d3d
00000090: 0c6b 843d a80d 8b3d 01cf 883d d8a1 703d
000000a0: e5d9 103e ff5d aa3d c17f 8d3e 8ade 123e
000000b0: a8ae 65bc 1845 ed3d bd52 023f e76d babd
000000c0: 9104 afbc 8d0f 6fbe d8a2 693d e157 48bc
000000d0: 48a7 b83b a710 5f3b 3f7d bfbd 243a 8c3d
000000e0: bab5 8e3d 9768 b13d b44d c83d 111b e53d
000000f0: 6ec8 143e 4ffc 203e a7b7 1f3e 751c 6a3d
00000100: d5ef cdbc 13ba 643c 2b12 51bc b8f6 07be
00000110: 7752 ccbd 60cb 2f3b 3034 4bbe 4fc3 e03d
00000120: 9846 ac3d 3d93 b6bd e520 2c3d 6556 153d
00000130: fc2e b03d 9c31 143e fc52 c03d d6af 193e
00000140: e181 eebc 224b 633d 200f 78bd 436c d3bd
00000150: 2e40 c0bd 2ca7 8fbc 2745 4abc 82f8 d83c
00000160: 9fd7 623a d8f7 0b3d 0f35 b6bd 37d6 ddbe
00000170: 7af5 46bd dc3e d33d 8908 513f c09f ec3e
00000180: 1972 ee3d 0cd6 90be 8644 693d 700f fd3e
00000190: ba54 c83c 1cc3 b1bc a7a9 873c 0274 cabc
000001a0: ced7 e7bd 1ad4 1b3e 2117 163e f6a6 ee3d
000001b0: 9fa7 bc3d 4aaa 593d 59a7 25be 3fe8 fdbc
000001c0: a26b ae3c 40c5 e3bc 9da3 a53d cc80 cabd
000001d0: 282c b63d ffb3 c6bd 232e e43d 3af7 ccbc
000001e0: 5a8a ca3d 79b4 853d ec04 f93d c3e8 c5ba
000001f0: 0350 8d3c 4ad6 7b3d b666 d33d 4b8e 023e
00000200: a3d0 9e3d 7c73 ef3d b0b3 34bd 3df3 17bd
00000210: 237e 7fbd c790 a5bd fdbe 80bd cb3f b6bd
00000220: a13e 72bd 980a 89bd fb86 a0bd e214 3d3c
00000230: cc79 f83d 82b3 86bd df30 8bbc 9b74 cbbc
00000240: 63a3 b3bc 19dc be3d 8de8 b33d c01c df3a
00000250: 2e6e 193c fb42 08bb a461 373d 28cc da3c
00000260: af94 2ebc c10e 2bbe 4f5b a0be 7d40 4c3d
00000270: 255b 36be 4d6d aabd 35a5 c7bd 34bc 30be
00000280: 8d6e 6cbe aef0 d13d 73e2 9ebd 8b21 4a3d
00000290: bf94 9f3d e6c1 f1bd d021 0dbe 81ad 283e
000002a0: 2d28 95bc 7458 433e 571f fc3e 4cf2 3ebe
000002b0: 9c73 cd3e e92a 2ebe be02 0bbf 9fc9 533d
000002c0: 0dca 9a3d 9977 ea3c f266 c53d a7cf 333e
000002d0: d76a 48bf c969 fc3e 7a3b 8d3e 22cc d33d
000002e0: 8236 403e 2bcb 99bd 23a5 a8bd cd72 ebbd
000002f0: 0f78 bebd 5697 2dbe 8afe f53d 30a1 adbd
00000300: dc47 17bd 8fe9 39bd f9bf 343d e5ec 003e
00000310: 93fb 80bc 32cd b4bd 5836 18bc cd86 cfbd
00000320: 4bf1 b7bb 0331 a2ba eed2 b63a 75e4 92bc
00000330: 1114 12bd 70aa eb3c 450e 37bd 11ae 7cbc
00000340: 2988 e8bd 9060 fbbd cd7c edbe 5086 61be
00000350: 0054 333e a62b b03c 0482 5d3e 224a 86bd
00000360: 1976 e4bd 0847 2abe 221a 4fbd 3641 57bd
00000370: 2ea8 cd3d 031e 0ebf f954 3e3f c108 833e
00000380: 7b87 d9be 3b09 ca3b 8353 683c ff95 c3bb
00000390: b554 5bbc b607 6fbc 6c36 bb3d 8b48 d33d
000003a0: 1bfb 703e 86bd f23d 9b55 193e cea9 9dbb
000003b0: 8db1 173a 813f 223c 8ee1 e2bc 51d0 f7bc
000003c0: 440e bebc 7770 a33e 8426 36bd 4a5a 88bc
000003d0: 8bda babe b493 ef3d d581 ed3c 0d51 8f3c
000003e0: a716 393d 6049 f33d 3c86 26be 03b3 6e3d
000003f0: 4312 4b3e 625f f53b 175e 473e 4749 373b
-0.061647713 -0.06526839 -0.07225965 -0.012048576 0.08631111 -0.1631087 -0.059826467 -1.2315901e-05
0.02770583 0.08229828 0.3077208 0.13828397 -0.10800292 0.071929 0.032665737 -0.026475472
-0.0041775396 0.035200685 0.01598125 0.04119505 0.061208505 0.12006372 -0.11884336 -0.055336025
0.015025366 -0.09628955 -0.041177474 -0.14091207 0.03175936 -0.22967039 -0.24331532 0.037892856
0.07523087 -0.02185058 0.05761058 0.057928737 0.0646573 0.06789714 0.06680108 0.058748096
0.1414562 0.083187096 0.2763653 0.14342704 -0.014018692 0.11585444 0.509075 -0.091029935
-0.021364482 -0.23345776 0.057040066 -0.012227983 0.005635176 0.0034037025 -0.09350061 0.06847027
0.06968255 0.08662527 0.09780446 0.11186803 0.14529583 0.15721248 0.15597402 0.057156045
-0.025138775 0.013960379 -0.012760679 -0.1327771 -0.099766664 0.0026824102 -0.19844127 0.10974752
0.08411902 -0.08914802 0.04202356 0.036459345 0.086027116 0.1447205 0.09390828 0.15008482
-0.029114665 0.055491574 -0.0605613 -0.10323384 -0.09387241 -0.017535768 -0.012345589 0.026485685
0.0008653346 0.03417191 -0.08896839 -0.43327495 -0.04857395 0.10314724 0.8165365 0.4621563
0.11642856 -0.28288305 0.056950115 0.4942584 0.024454463 -0.02169948 0.016560389 -0.02471352
-0.11320458 0.15217629 0.1465726 0.11652939 0.09211659 0.053140916 -0.1617712 -0.030994533
0.021291558 -0.027804017 0.080878474 -0.09887847 0.08895141 -0.097023 0.111416124 -0.02502023
0.0988967 0.06528563 0.12159142 -0.0015099276 0.017250067 0.06148366 0.10322325 0.12749593
0.07754638 0.11691949 -0.044116676 -0.037097204 -0.062376153 -0.08084255 -0.06286428 -0.08898886
-0.05914176 -0.06691474 -0.078382455 0.011540623 0.12132606 -0.06577207 -0.016991077 -0.024835875
-0.021928495 0.09319324 0.0878459 0.0017022118 0.009364648 -0.0020791877 0.04477085 0.026708677
-0.010655566 -0.16704847 -0.31319663 0.04986619 -0.17808206 -0.08321629 -0.097483076 -0.17259294
-0.23089047 0.10250984 -0.077580355 0.049348395 0.07792043 -0.11804561 -0.1378243 0.16472436
-0.018207634 0.19076711 0.4924266 -0.18647116 0.40127265 -0.17008556 -0.5430106 0.051705953
0.075580694 0.028621482 0.09638776 0.17559682 -0.78288025 0.49299458 0.2758444 0.103416696
0.18770793 -0.07509454 -0.08234622 -0.11496506 -0.09300243 -0.16952261 0.1201144 -0.0847801
-0.036933765 -0.045388754 0.044128392 0.12590368 -0.01574496 -0.088282004 -0.0092903 -0.10133133
-0.005613481 -0.0012374226 0.001394836 -0.017931202 -0.035663668 0.028767794 -0.044691343 -0.01542236
-0.113540955 -0.12274277 -0.46384278 -0.22023892 0.17512512 0.021505188 0.21631628 -0.065571085
-0.11155338 -0.16628659 -0.05056203 -0.052552424 0.10041843 -0.55514544 0.7434841 0.25592616
-0.42486176 0.006165651 0.014180067 -0.0059688087 -0.013386895 -0.014589241 0.091412395 0.10316571
0.23533289 0.11852555 0.14974062 -0.004811502 0.000578665 0.009902836 -0.027695443 -0.0302507
-0.023200162 0.3192174 -0.044470325 -0.016644616 -0.3649486 0.11698094 0.028992573 0.017494703
0.04518762 0.118792295 -0.16262144 0.058276188 0.19831185 0.007488177 0.19469486 0.002796726

encoder.block1.convblock2.0.pointwise_conv.weight f4 [64, 64, 1]
00000000: 34bf 083d fd9c ce3b 4b6d d5bb 3198 4a38
00000010: 7ef3 22bd d7ae a53c 24ae dd3b 63a5 95bc
00000020: 06bb 97bc ae5d c7ba 0e94 083b 2c06 88bc
00000030: eb94 1a3b d1b6 703b 90e3 21bd 230c c83c
00000040: 098e 16bc 3529 b93c f31a a9bb cab6 05bb
00000050: 5bf4 6abb 7989 c9bc 0e02 81bb 1c0d a53b
00000060: fae7 debc c452 c93b b71d d6bb 7e51 dd3a
00000070: 24d3 8bbb 77c3 b53a 5efc b23c 530d abba
00000080: ece8 133c 8be1 8e3b 48e1 1d39 7c26 833c
00000090: 6637 1cbc 9537 bbbc d80a 573c 93f2 79bb
000000a0: 6dd7 a63c f4dd c13b de6c 93bb 39e4 1e3c
000000b0: d249 83bb a094 df3c 7f27 dbbc 92ba f43c
000000c0: e79a a43c fe5b d0bb ecc1 88bb b364 d5bb
000000d0: 1732 8a3b 0dbf ecbb 6b50 463a 6e8f 0b3c
000000e0: c95b 99bb db1f 8dbb da53 c2bb b84a 3c3a
000000f0: 3d20 c33b 23ba 17bd 6fd4 23bd 6101 53bc
00000100: 9b3a 11be 381a 66bc 9592 1ebe a14c 4dbc
00000110: 01f1 7dbd 7d81 683e a068 8bbc 9fc4 d3bd
00000120: f883 3c3e 497d d63d 563e 4e3c a241 51be
00000130: 23dc 163e 943a 9a3d 9f30 cabd a609 473e
00000140: b7da 05be 4c02 c73c 385e 043e 9bb8 1abd
00000150: cb63 5d3b d649 273d 7b43 843b bf1b 92bd
00000160: e6a8 ebbc b421 273e 782f 983d ccdc 8c3d
00000170: ea61 583c f71f c33c 89db 1b3e fa41 0d3e
00000180: d729 83bd f054 333e 149b 1b3c 70c9 cbbd
00000190: cf2e 17be 9555 0fbe 5b37 6bbb c335 05bd
000001a0: 9160 4dbc 0509 0f3e bdfe 653d 8444 1abe
000001b0: fa4f 353d 216b 4b3c ef44 cdbe 4599 9a3c
000001c0: 6154 cf3d 8f33 bb3d 8bf3 ac3d 2176 9a3a
000001d0: c3d5 6a3c 3049 9f3d 3b11 1abd cf4f be3c
000001e0: 19b0 e2bd 0f3f b93d 7975 a03d 7f9e 34bb
000001f0: 9cb6 d63c 6913 d6be fddb c2be c59e 2abd
00000200: 0f1b 123e e1cd 843a 6d64 2e3d 497e ca3b
00000210: 30fd 0c3c f76e dbbc f97b 92ba 4963 b63c
00000220: 38fc b2be 32ed 05be 23d7 88bb cab6 203c
00000230: e902 15be f6d7 64bd c142 f23c b3b6 43be
00000240: 021d 5b3d e254 7cbb c132 08be 4413 d4bc
00000250: 4007 edbc d35a 3c3d 944c f4bc af96 e73d
00000260: 2eec 91bd 2168 11be c86c a3bc ea6f adbc
00000270: 3039 5ebc 2634 04bd 2c5a c7bd 8b28 38bd
00000280: fa7c bf3d 59b3 8fbd d2c1 80bd c2aa 3a3d
00000290: 36fc 39bd c598 203e ce8e eb3a 695c 843c
000002a0: 2d82 cdbb f287 1cbd f404 d7bc 1136 013e
000002b0: 2916 d4bc 7223 96ba 4c86 c83d 4157 d2bb
000002c0: 9024 1ebb a53d 6abd cfc3 27bd 0ba2 ee3a
000002d0: e38b 79bc e6b7 aabd a963 18bb b70d d83b
000002e0: 1674 143d 8eeb 87bd 9756 49bd 7d9a 33bb
000002f0: 0298 78bb d850 aabd 75b0 8a3d c8f1 8c3c
00000300: f5fc b23a 7b08 8ebc 2518 153d 7edc ce3a
00000310: 64cf 003d ca84 48bd 5ff4 113d f9f7 363d
00000320: 4f90 0abd 9a59 abbc 2e90 0fbc bdb2 0b3d
00000330: 666c 67bb 115f f2bc 1f7e 9e3c 250b 41bc
00000340: 8fef 9e3a 25e1 ffbc 7643 7c3b d8cf d63c
00000350: a8e4 23bd a230 653d 4d43 5cbc cbaa d13c
00000360: 1f26 5abc 0837 8bbc 4334 afbc 6b86 70bc
00000370: 4c5f cdba 79f8 32bb 8b9d 85bd 9a8d 39bd
00000380: 5315 383d e990 07bd fa5b 05bd 1b5e 5e3d
00000390: b7ef 453d 4bd2 a93c 72ff 0f3d 94a9 01bb
000003a0: 4c4a d2bc 2795 68bc 5566 a8bc 1c2a 033b
000003b0: 0a81 033b 60ab dcbc ba9c c23d a4c7 fbbc
000003c0: d802 06bd 125b 2ebd 72d2 c73b 2f89 3dbc
000003d0: 05cd 1cbc 8e53 fbbc f3a2 2e3c 9903 49bc
000003e0: 99e5 093d c196 c5bc 0cf2 e4bc 801e 7eb9
000003f0: 7fe5 1dbd 31ba b63d 0f38 a63c 2a81 023d
0.03338547 0.0063053356 -0.006513273 4.8302292e-05 -0.039782993 0.020224972 0.006765144 -0.01826734
-0.018521797 -0.0015210414 0.00208402 -0.016604505 0.0023587297 0.003673006 -0.03952366 0.02441985
-0.009189137 0.022602657 -0.0051606833 -0.002040314 -0.0035851214 -0.024601685 -0.0039370125 0.005036963
-0.027210224 0.0061438996 -0.006534304 0.0016885248 -0.0042671133 0.0013867457 0.021848854 -0.0013050236
0.009027701 0.004360383 0.0001505661 0.016009562 -0.009534692 -0.022853652 0.013125144 -0.003813897
0.020366395 0.0059163515 -0.004499062 0.009697967 -0.004006603 0.02729255 -0.026752232 0.02987412
0.020093394 -0.0063586226 -0.004173508 -0.0065122484 0.004217397 -0.0072249235 0.0007565084 0.008518083
-0.004680131 -0.004306776 -0.005930406 0.0007182765 0.005954771 -0.03704275 -0.039997514 -0.012878747
-0.14182512 -0.014044337 -0.15485604 -0.012530477 -0.061997417 0.22705646 -0.017017663 -0.10340237
0.18409717 0.10473115 0.012588104 -0.20435193 0.14732413 0.07530704 -0.09872555 0.19437274
-0.13071714 0.024293087 0.12926567 -0.03777371 0.0033781405 0.0408419 0.0040363646 -0.071341984
-0.02876706 0.1632145 0.07430929 0.06878051 0.013206938 0.023818953 0.15220465 0.137947
-0.06404465 0.1751287 0.009497423 -0.099505305 -0.1476395 -0.1399749 -0.0035891149 -0.032521974
-0.01253523 0.13968284 0.05615114 -0.15065199 0.044265725 0.012415678 -0.40091655 0.018871913
0.10123516 0.091406934 0.0844489 0.0011784473 0.014333191 0.07777631 -0.03761409 0.023231415
-0.11068744 0.090452306 0.07834906 -0.0027560291 0.026210122 -0.41811684 -0.38058463 -0.04165532
0.14268135 0.0010132157 0.042576242 0.006179605 0.0086052865 -0.02678631 -0.0011175863 0.02226414
-0.34958053 -0.13078764 -0.004176037 0.009809205 -0.14551891 -0.05587002 0.029572846 -0.19112663
0.05349446 -0.0038502743 -0.13300611 -0.025888093 -0.028934121 0.045985054 -0.029821672 0.113080375
-0.07125126 -0.14199878 -0.019949332 -0.021171529 -0.013563439 -0.032276295 -0.09733996 -0.04496054
0.09350009 -0.0701663 -0.06286968 0.045573004 -0.045406543 0.15683277 0.0017971636 0.016157346
-0.0062716217 -0.038215585 -0.026247479 0.12618281 -0.025889473 -0.0011454655 0.0979124 -0.006419093
-0.002413068 -0.057187695 -0.040958222 0.0018206252 -0.0152311055 -0.08335857 -0.0023252761 0.006593432
0.03624352 -0.06636725 -0.049154844 -0.0027405315 -0.00379324 -0.08316201 0.06771938 0.017205134
0.0013655709 -0.017338028 0.03639998 0.0015782265 0.031447783 -0.048954763 0.03563344 0.04467008
-0.03382903 -0.020916749 -0.008762402 0.034106005 -0.0035312413 -0.029586347 0.019347249 -0.011782442
0.0012125837 -0.031235287 0.0038492358 0.026222154 -0.040012985 0.055954583 -0.01344378 0.025594136
-0.013314753 -0.016994014 -0.021387225 -0.014680485 -0.001566866 -0.0027308746 -0.065241896 -0.045301057
0.04494221 -0.03309718 -0.03255842 0.054288965 0.048324313 0.020730158 0.03515572 -0.0019784914
-0.025670193 -0.014195717 -0.020556608 0.0020014113 0.0020065927 -0.026937187 0.095025495 -0.030734845
-0.032717556 -0.04256732 0.006098085 -0.011568352 -0.009570365 -0.03067949 0.010658967 -0.012268924
0.033666227 -0.024119737 -0.027947448 -0.0002423469 -0.038548943 0.08922232 0.020290403 0.03186146

encoder.block1.convblock2.1.weight f4 [64]
00000000: eb4a d13d 5120 483f b6e2 e93e f719 343e
00000010: 4cab 303e 0140 1f3f f626 863d eced 483e
00000020: 44a9 a73e ddd6 da3e 4625 213d 6088 603e
00000030: 1e87 643e 3b1a 883e fe0f 313e d1e5 4b3e
00000040: d349 853d 68f3 773f 9204 4f3e 8876 4f3e
00000050: 5c0c 573d 53bd 283e 2735 193e dbd1 9c3d
00000060: 4bef 963d 85d5 373f 5c0d 843e 56ab 8c3d
00000070: 3afe 7c3e fbad 0d3f 9401 b13e a1c4 b83e
00000080: 8787 973d b7b2 0e3f cc45 a43d 9c0c 003e
00000090: 31ce 2e3f 98cc e53d dff5 2d3e 1ccc 3f3f
000000a0: e706 be3e 4a9b 6f3d a878 433d 056e 7d3e
000000b0: 8be9 a63e 983a 4e3d 3619 2b3f 2f58 8b3e
000000c0: c44f 883d 69ec a93d 1917 fa3e e7ec a43d
000000d0: 89fb 403e 10cd 343f 8798 d43d f35d c53d
000000e0: 3f3d 803e f4ad da3e 831d 393f d8a9 2f3f
000000f0: bb74 473d 0fc6 183d d20f 2a3f af0c 143e
0.102193676 0.7817431 0.4568078 0.1758803 0.17252845 0.6220704 0.065504 0.1962201
0.32746327 0.42742053 0.039342187 0.21927023 0.22317168 0.26582512 0.17291257 0.19911887
0.065082215 0.96855783 0.20216587 0.2026006 0.05250202 0.16478471 0.14961682 0.07657214
0.0736986 0.7181018 0.25791442 0.06868617 0.24706355 0.553436 0.34571517 0.36087516
0.07398897 0.5574145 0.08021125 0.1250481 0.68283373 0.11220664 0.16988324 0.7492082
0.3711464 0.058497705 0.04772249 0.24749 0.32600054 0.050348848 0.66835344 0.27215716
0.06655839 0.08297045 0.48845747 0.08052998 0.18845953 0.706254 0.10380655 0.0963706
0.25046727 0.4271084 0.72310656 0.68618536 0.048695307 0.03729826 0.6643039 0.14457963

encoder.block1.convblock2.1.bias f4 [64]
00000000: 2109 9abd c6b6 fdbe 418f 89be 6e7d cebd
00000010: f315 74be 9f60 5abd c99d 0fbc 6b54 56bc
00000020: 4277 72be 965f 53be 5f99 19bd b83d 133e
00000030: 3d8f 5a3d 1595 6fbe ef2c 10be b308 553d
00000040: a3ca ca3c 8fa8 11be 5218 e8bc a7fa 50bd
00000050: 8f98 7fbd e4e4 afbc 8ff5 edbd 45e9 77bb
00000060: 1d1e eebd 7cc9 01be a57e dfbe 864e a4bd
00000070: 46ef 903c 4440 abbe 389a 98bd 453e 69be
00000080: b601 ccbd 28dc c8bd 8e00 76bd b5e8 8bbd
00000090: 6546 36bd b803 d7bd 7b3d 0fbd 01b3 bfbd
000000a0: f8fb 13be fe1e a4bd eae2 1eba 13d6 5ebd
000000b0: 6fa0 d7bd f25f bebd d8ce ebbd 4db3 f83b
000000c0: 4e68 a2bd 728e 70bd 1e78 b33d a3b1 acbc
000000d0: 33c2 13be b210 d2be 01e6 b4bd e567 34bc
000000e0: e0ca 03bd 2430 a03d 182d 60bd 03d3 f1bd
000000f0: e27c 18bb c766 f9bc 1ef8 93bd 26c9 803d
-0.075212725 -0.49553508 -0.26867107 -0.100825176 -0.23836498 -0.0533148 -0.008765646 -0.01308165
-0.23678306 -0.20641932 -0.03749978 0.14379013 0.05335926 -0.23396714 -0.14079641 0.05201025
0.024754828 -0.14224456 -0.02833191 -0.05102029 -0.06240135 -0.021471448 -0.11619102 -0.0037828248
-0.116268374 -0.12674516 -0.4365131 -0.0802279 0.01769222 -0.33447468 -0.0745129 -0.2277766
-0.09961264 -0.098076165 -0.060059123 -0.06831495 -0.044500727 -0.10498756 -0.03497074 -0.09360314
-0.14451587 -0.08013724 -0.00060610345 -0.054403376 -0.10528647 -0.09295644 -0.11514062 0.0075897337
-0.07930051 -0.058729596 0.08763145 -0.021080798 -0.1442955 -0.41028363 -0.08832932 -0.0110110985
-0.0321759 0.07821682 -0.054730505 -0.118078254 -0.0023267795 -0.030444516 -0.07225059 0.06288366

encoder.block1.convblock2.1.running_mean f4 [64]
00000000: 91aa 52bc 5717 4abd 5b91 01be cc1d 1f3d
00000010: be4f e03c 04fd 633d dc77 9bbc d157 b0bc
00000020: 2a53 a93d 53e9 aabd 9da2 a73b 3728 58bd
00000030: b00e 89bd ac86 a5bd d720 afbc f918 8d3b
00000040: 462b 86bb 79c1 7fbd f62a 56bd bec0 d0bc
00000050: ed9f d13c 2dfe 94bd 8dfc 8bbc 2de7 bebc
00000060: f0cb a4bc 5d92 4c3e 94c5 83bd a3de 24bc
00000070: 8b08 a0bc 8157 383d b4ce 16be 957e 4dbc
00000080: fd86 4a3c 9a15 39bd f24f 4cbb 7a9a a7bb
00000090: ebe5 223c 3960 2f3b bead f4bc 9b0c 87bc
000000a0: 818d f7bc 688d 953c b5aa 133b 943f b3bc
000000b0: 69dd 6fbe aaa7 d6bb f0d8 a13d 41a7 edbd
000000c0: 01ae 4f3c ee9d 62bc 167d c83d b735 56bc
000000d0: c70a 56bd b031 76bd aeeb a2bc e526 0fbd
000000e0: 2a05 d7bd 49c6 3b3e bb1b de3d efa5 773d
000000f0: 2869 05bc a52e c23b 58f8 013e 71e2 e8bc
-0.012858049 -0.049338665 -0.12653105 0.038846776 0.027381774 0.055661216 -0.018978052 -0.02152625
0.082678154 -0.08345284 0.0051158206 -0.052772727 -0.066922545 -0.08082327 -0.021377964 0.0043059555
-0.004094514 -0.06244037 -0.052287064 -0.025482532 0.025588954 -0.07275043 -0.017088199 -0.023303593
-0.020116776 0.19977708 -0.064341694 -0.010062846 -0.019535324 0.045005325 -0.14727288 -0.012542387
0.012361285 -0.045186616 -0.003117558 -0.0051148506 0.009942512 0.0026760234 -0.029868003 -0.016485503
-0.030218842 0.018255904 0.002253217 -0.021880902 -0.23424305 -0.006550749 0.07902706 -0.11604167
0.012675763 -0.013831599 0.09789483 -0.01307433 -0.05225637 -0.06010598 -0.019887771 -0.034949202
-0.10499032 0.18337359 0.10845133 0.06046098 -0.008142747 0.0059259706 0.12692392 -0.028428288

encoder.block1.convblock2.1.running_var f4 [64]
00000000: 8971 0339 973f 113b 361b 503c 65cd ef3a
00000010: f1de fe39 dbda 393c e8f7 d436 bf4b 913a
00000020: 9ce1 e03b 1630 5d3c 1371 9637 ae69 173a
00000030: 3a28 9a39 34a9 c43b 9b31 9e3a ce42 8b3a
00000040: ce70 2f38 41b5 ff3c 8073 413a 4dcb 4f3b
00000050: 0569 0a38 aa71 5c39 6aec 9939 0eac 9237
00000060: d946 3739 9ed0 a53c 8fc8 223b b386 1439
00000070: 12f8 243a 4e59 eb3a eaa5 1b3d 1834 3b3a
00000080: 7b84 ad37 3fd3 163c eb96 7438 d7bd 5e3a
00000090: af5f 4f3c d333 473a 2d39 0439 16c8 dd3c
000000a0: 0da5 cc3a d0c1 0239 9faf 9436 d2cc 8f39
000000b0: 5f31 2c3b 79aa 1938 19ed a93c e5e7 1b3c
000000c0: 0d07 8338 15c0 a739 6b69 ab3b ab38 f237
000000d0: cc51 ec39 bbab 983b 2a03 233a 09a9 4438
000000e0: cce6 813a f297 9d3b 64b4 b93c 936f 2c3c
000000f0: 5279 4a36 7c44 0838 e2f6 3b3c 4e89 2b3b
0.00012535429 0.0022163147 0.0127018 0.0018295465 0.0004861276 0.011343683 6.3469524e-06 0.0011085196
0.0068628322 0.013500234 1.7934048e-05 0.00057759404 0.0002940314 0.006001616 0.0012069227 0.0010624768
4.182831e-05 0.031214358 0.00073795766 0.003170687 3.299957e-05 0.00021023178 0.00029358576 1.7484675e-05
0.00017478633 0.020241078 0.002483878 0.00014164559 0.0006293069 0.0017955692 0.038000025 0.00071412465
2.0684898e-05 0.009205638 5.8314687e-05 0.0008496916 0.01265709 0.000759897 0.000126098 0.027072947
0.0015613154 0.00012469967 4.4311887e-06 0.00027427688 0.0026274545 3.6636808e-05 0.02074294 0.009515737
6.24788e-05 0.00031995834 0.0052310727 2.8875036e-05 0.0004507437 0.0046591437 0.0006218428 4.6887468e-05
0.0009910702 0.004809373 0.022669025 0.010524648 3.0170963e-06 3.2488708e-05 0.011472436 0.002617437

encoder.block1.convblock3.0.depthwise_conv.weight f4 [64, 1, 3]
00000000: 0a88 8f3c b659 9e3c e915 f63c 2d09 f8bc
00000010: 52a2 0a3e b888 993e 9a13 3e3d e200 4b3e
00000020: f1ba 653e d0d9 2b3d 88b3 aa3d eb58 e03d
00000030: 66ad 05bb eb9e 6f3d feb0 ca3d 3540 f5bc
00000040: 65e0 efbd 9e9d d0be 793d 273d cc68 0dbd
00000050: 7dc2 debc a88d 9c3d 2069 af3d 799e 9a3d
00000060: 524f 0a3d c81c 82bd 490d 77be 3333 c7bc
00000070: 83bb 09be d28a 5bbe fb57 aa3c dbe2 3c3b
00000080: 7268 3e3c 7850 aebc cada 93bd 092c 08be
00000090: 8955 633e 62e1 a2bd 3c60 00be d752 64bc
000000a0: ad8a f0bb e97e c33d fe6a a9bc b029 08bd
000000b0: 9f19 95bd 0635 f0bd e211 f2bd ab84 dcbd
000000c0: d096 02bd 18cc 4fbd 3559 82bc ebf3 143e
000000d0: d34d 643e 4a51 993e 11ba 3e3e 06db 10bd
000000e0: 01a4 51bc 5798 aebd 6ec0 debd be16 dbbd
000000f0: 9078 a13b 81d6 0a3c 9542 133d 660c 213e
00000100: 03c8 123c 2513 68bd 3e64 5bbc 6998 31bd
00000110: 5a68 05bd f47d 7c3d 61f1 e23c c35b dabc
00000120: 61b2 a1bc 35a9 e6bc 5a49 94bc 9cc2 e33d
00000130: 5d34 003f 8599 47bd 7921 0d3c 4417 6abc
00000140: 5620 a3bd 5559 1bbd 0951 febc 9b10 3ebd
00000150: 4527 863d 9935 113e 3d59 0d3e 21ca 06bd
00000160: 9069 513d d209 823e 103d e03d 2520 023e
00000170: fffa 533e e405 a4bd 8a39 23be 6c30 59be
00000180: ab78 103c bde7 8f3c dfaa 3a3d 2e98 033f
00000190: fd69 f4bd c194 33be 5451 afbc c8e6 bdbc
000001a0: 2182 06bb 020e 95bd fc1d 61bd 0f7c 9bbd
000001b0: 1cff b93c 73bf 153f e4d4 15bf e941 123d
000001c0: f9b8 2a3d e6bc 953d e80b 423d c8e1 df3d
000001d0: 2f3f d13d 9e66 883e c397 be3d b92e ab3e
000001e0: 2c1a f43b aebd ca3b f376 9c3d a2e0 a6bc
000001f0: 8b1b ee3a 98c6 abbc fd73 eb38 2443 703c
00000200: 9a7c 08bc eb08 a5bd 429b 0ebe 634a 0fbe
00000210: e573 793e b22c db3d 7818 133e 2858 37bb
00000220: 4102 42bd cb5a 17bd 2587 11bf 4650 343d
00000230: 7ad5 d2bd c1b9 b8bd 3ce4 0abe 35a8 06be
00000240: 09fa 11ba ee0b dd3c a41a 1a3d 739e 0f3d
00000250: 5e13 1d3d 85a4 0a3d 1f10 aabe 37c5 e23e
00000260: 04c9 173e 39cf 65bc 11e2 79bd 76d0 573c
00000270: daf3 ddbd dd4f a7bd 10e0 f0bd 9cf9 3a3e
00000280: c134 8e3e 88ae b13e bfb4 0bbc f440 083b
00000290: a82f 84bc 5bcd 17bc 8e25 3d3d 2b35 a23d
000002a0: 855a 97bd 7985 bcbd 595a 2fbe 1cc6 793e
000002b0: 7031 f03d beab f6be 34b2 46bf 238d 143f
000002c0: db03 293e b9ee 113f 1659 f9be c97a 1a3d
000002d0: 7179 c9bb f2bb b13c 9748 683c 718c 94bc
000002e0: 64e1 87bc c109 5b3c 325e 813d 46b4 f9be
000002f0: 73e4 203f a665 59bd a1b6 aebd 78d5 b4bd
0.017520923 0.019329887 0.030039744 -0.030277813 0.13538483 0.2998712 0.046405412 0.19824556
0.22434594 0.04195577 0.08335024 0.1095446 -0.0020397543 0.058501165 0.0989704 -0.029937843
-0.11712722 -0.40745252 0.04083011 -0.03452377 -0.027192349 0.07644206 0.08564973 0.075497575
0.033767052 -0.06353146 -0.24126162 -0.024316406 -0.13450436 -0.21439674 0.020793905 0.002882174
0.011621581 -0.021278605 -0.07219465 -0.13298048 0.22200598 -0.079531446 -0.1253671 -0.013935766
-0.00734075 0.095456906 -0.0206809 -0.03324288 -0.072802775 -0.117288634 -0.11819817 -0.10767492
-0.031882107 -0.05073175 -0.015911678 0.14546172 0.22295313 0.2994483 0.18625666 -0.035365127
-0.012795449 -0.0852515 -0.10876547 -0.10697697 0.0049277022 0.008473993 0.03595217 0.15727386
0.008958819 -0.056658883 -0.013390599 -0.04335824 -0.03257022 0.061643556 0.027702989 -0.026655084
-0.019738378 -0.028156856 -0.018101383 0.11121103 0.500799 -0.048730392 0.008613938 -0.0142877735
-0.07965152 -0.03792699 -0.0310445 -0.046402555 0.06550459 0.14180602 0.13803573 -0.03290761
0.051126063 0.25398117 0.10949147 0.12707575 0.20701216 -0.08008936 -0.15939918 -0.21209878
0.008817832 0.017566556 0.04557311 0.5140408 -0.11934278 -0.17537214 -0.021401085 -0.023181334
-0.002052434 -0.072780624 -0.054960236 -0.07592022 0.022704653 0.58495253 -0.5852797 0.035707388
0.04168031 0.0731142 0.047374636 0.10931736 0.102171294 0.2664079 0.0930629 0.33434084
0.007449409 0.0061871624 0.07639875 -0.020370785 0.0018166167 -0.02096872 0.00011227278 0.014664445
-0.008330489 -0.080583416 -0.13926414 -0.1399322 0.24360617 0.10701884 0.14364803 -0.002797613
-0.04736543 -0.03695182 -0.5684684 0.044021867 -0.10294624 -0.09019805 -0.13563627 -0.13150103
-0.0005568569 0.026983228 0.037623063 0.03506322 0.038348548 0.033848304 -0.33215424 0.44291088
0.14822775 -0.0140264565 -0.06100661 0.01317226 -0.108375266 -0.081695296 -0.117614865 0.18259281
0.27774623 0.3470347 -0.00852698 0.0020790668 -0.016136006 -0.009265269 0.046178393 0.07920297
-0.07390312 -0.092051454 -0.17124309 0.24391979 0.117281795 -0.48177904 -0.77615666 0.5802786
0.16505377 0.57004887 -0.4870078 0.037714753 -0.00614851 0.021696065 0.014177463 -0.018133374
-0.016586967 0.013369025 0.063167945 -0.4877035 0.62848586 -0.053075455 -0.085309274 -0.088297784

encoder.block1.convblock3.0.pointwise_conv.weight f4 [64, 64, 1]
00000000: 4796 c83b d6a9 51bc f3b8 7ebc 9d91 f2bb
00000010: 7cde 1cbb 8f7d 43bb 3136 1dbc f4ec 2dbc
00000020: 8aec be3c 9fc9 6fba 792a 9b3b 0c96 aeba
00000030: 8b89 933c 8786 e7b9 cdc7 0a3c e66e 04bb
00000040: ab7e e03b 40d2 e5bb 619c 3ebd a8c8 673c
00000050: 2f40 22bb a19c a0bd 472b f2ba 9bca cebc
00000060: ed3f 063b 562e 883b 50aa 303b 8580 e93b
00000070: ad01 30bb 38fd b6ba 5528 71b6 63c7 083c
00000080: d179 2cbc 3d86 75bd 1067 50bb a636 5c39
00000090: f17f b2be 5553 39bc ab50 c7bc c7da 09bc
000000a0: d299 2c3b d12d 48ba eef2 78bb 3624 833c
000000b0: a601 c4bd f2d0 8e3b 9e22 eabc fd25 e5ba
000000c0: ba4c 3cbb fbff 01bb d737 32bd 8ea7 ad3c
000000d0: 73df 2e3d cdd0 91bc 0c2a 3a3b 519f 8abc
000000e0: 9aff 753c 0aaa 5c3d e665 423e 126d 893d
000000f0: 65c7 dfba e895 be3b 78cb 113e 2eaa 0e3c
00000100: cbfe 2a3c 57f2 3abe 68db a63d 5c6e e73c
00000110: e6d5 803c 321e 373c c047 943b 6eb9 28bd
00000120: 3c70 a13c ab3d b93d 76bc 74ba 15df d63d
00000130: 2893 013d 0f9b 88bd 155a a53c 9108 193c
00000140: 0845 073c a2dd 4dbe b700 acbc ca66 0639
00000150: 8775 bc3a 655e 88ba 41b2 8ebc d81f f63a
00000160: 8e32 733c 0d11 fb3d ac05 573d f950 2fbc
00000170: 6c6f 4dbd 7f73 46be bd91 8cbd af78 a2bd
00000180: 1a30 a2bb c8c4 e4bc c962 bfbb 6397 6f3c
00000190: 5ae2 1fbc 2351 c33c ff99 0cbd e4bf 6b3e
000001a0: 937d abbd f1d9 e63b 7e96 c3bb 9977 213d
000001b0: 6142 87bd 7b8c 8a3b 096b b53d 05e1 943d
000001c0: d6bc b4bb 80f9 833b ff37 b9bc 03ae 02bc
000001d0: 6752 71bc 7261 073e 98ba 113d 464d 65bc
000001e0: b0c0 463d fa24 d5bd 88df d6be a2d8 c1bc
000001f0: 95e8 abbb 8d66 a4ba e266 a4bc 0c14 363d
00000200: 2cfc 6dbb 4332 0a3c 4f4e 33bd bf94 edbb
00000210: 36f9 04bc 8140 093c aaf3 73bb cd20 f8bc
00000220: 4339 053d 5c8e 42bd 08d7 83b9 e430 fdbb
00000230: 6bf4 ecbb ddc0 943d 3456 ae3c c897 043a
00000240: 34af 1b3c 8525 6c3d 1ca2 013d 930c e53c
00000250: 2cf8 0abb 41e3 363d a2ab bd3b de88 e63b
00000260: f0a5 173c 54a5 a63d 9f28 683c 4ae9 803c
00000270: 4978 63bd 5126 003b aace 803b fb92 773c
00000280: 22cf f6b9 3f47 7a3d 6a46 f13b 2593 f5bb
00000290: 2a62 4f3e 08b1 86bc f22d 503c 1912 9bbd
000002a0: 2b10 6dbd 9b8d cf3a b9c2 af3b 857b 813d
000002b0: 543e 7f3d 50c7 833b 20ad 303d dbd2 2dbc
000002c0: 90c5 9e3b 0eb8 04bc 6dae e4ba 8267 bf3b
000002d0: 4c4c 01bd aee1 b9bd f07d b43c c323 f63c
000002e0: b1fd 0dbd a0ea ddbc eef3 09bf 9c51 04bd
000002f0: ea42 f63a c93d 9fbb a54a 02be d8b4 8d3c
00000300: 4d20 243c 9e9f 7bbd 26d4 033c f71f 2b3a
00000310: d72e e0bb 42c4 a03d b4b9 cd3b 9998 bdbc
00000320: 5656 cfbb 9d0e 113b e25a 71bb ebdf 5c3c
00000330: 7bd0 3d3d dac4 67bc 8646 09ba ee28 d9bb
00000340: 61de 233c e0f0 493b b0e5 7f3c d93e 8c3c
00000350: cec9 bfbb b3bf 9b3c 42e0 a73b d3fd 023b
00000360: 62df 83ba f9c4 b7be b682 083d 526d 9a3c
00000370: 4380 c0bb 9d56 64bd ee3a b1bc 3908 a23c
00000380: c966 3bbc 5dd7 c13e 7b7b 76bc 2b5f d83b
00000390: 44d1 c63c c978 bc3b 152e b6bc c7f7 5439
000003a0: f4d6 debd a719 9c3b 32f4 bfbb 2285 8f3d
000003b0: db15 22bd df2d 593c 322c 0cbe ca73 8b3c
000003c0: d0fa 42ba 17d5 1f3c 7a34 863d 8b80 833b
000003d0: 035a 0a3d 4bff afbd 8dcb a7bc 5b59 72bc
000003e0: 6e96 1c3d c2ba 0ebe dc3f 063e 166a a73e
000003f0: 74b8 a7ba 344d d53b 78ba 96bd 0e18 e33c
0.00612143 -0.01279684 -0.015547025 -0.0074026124 -0.0023936322 -0.0029829477 -0.00959544 -0.010615576
0.02330615 -0.00091471703 0.0047352877 -0.0013319864 0.018009922 -0.00044159984 0.008470488 -0.0020207702
0.0068510375 -0.007013589 -0.046535853 0.014146961 -0.0024757495 -0.078423746 -0.0018476032 -0.025243094
0.002048488 0.0041559143 0.0026956983 0.0071259164 -0.0026856468 -0.0013960963 -3.5935275e-06 0.008348319
-0.01052709 -0.059942473 -0.0031799711 0.00021001193 -0.34863237 -0.011311372 -0.024330458 -0.008413977
0.0026336801 -0.00076362217 -0.0037986594 0.016008478 -0.09570627 0.0043584043 -0.02858096 -0.0017482635
-0.0028732256 -0.0019836414 -0.043510284 0.02119806 0.042693567 -0.01779976 0.002840641 -0.016921671
0.015014553 0.0538731 0.18984184 0.06710257 -0.0017072974 0.00581621 0.14237773 0.008707566
0.010436724 -0.18256508 0.08147317 0.028250866 0.015726995 0.011176633 0.004525155 -0.041192465
0.019706838 0.09044965 -0.0009335944 0.10491768 0.03163448 -0.066702 0.020184556 0.009340421
0.008256204 -0.20104077 -0.020996435 0.00012817528 0.0014378288 -0.0010404108 -0.017418982 0.0018777801
0.014843596 0.122591116 0.052495643 -0.010700458 -0.05015509 -0.19379996 -0.06863735 -0.07933175
-0.004949582 -0.027925864 -0.0058406335 0.014623496 -0.009758556 0.0238424 -0.03432655 0.23022419
-0.08373561 0.0070450236 -0.005968868 0.039420698 -0.06604458 0.0042281724 0.08858306 0.072694816
-0.005515675 0.0040275455 -0.022609709 -0.007976058 -0.014729119 0.13220766 0.03557834 -0.013995474
0.048523605 -0.10407443 -0.41967416 -0.023662869 -0.005246232 -0.001254277 -0.02006859 0.044452712
-0.0036313636 0.008434835 -0.043775853 -0.007250398 -0.008116057 0.008377195 -0.0037224093 -0.030289078
0.032525312 -0.047499046 -0.00025146478 -0.0077267755 -0.0072312853 0.07263348 0.02128134 0.00050580176
0.009502221 0.05765297 0.03164874 0.027960097 -0.002120505 0.04465032 0.0057882825 0.007035359
0.009255871 0.081370026 0.014169841 0.01573624 -0.055534635 0.0019554088 0.0039308863 0.0151107265
-0.00047075102 0.0611031 0.0073631303 -0.0074943476 0.2025229 -0.016441837 0.012706267 -0.07571811
-0.057876747 0.0015835048 0.005363789 0.063223876 0.0623153 0.0040215626 0.043133855 -0.010609354
0.0048453286 -0.008100523 -0.0017447002 0.0058411965 -0.031566903 -0.09076248 0.022032708 0.03004635
-0.034665767 -0.027089417 -0.5388783 -0.03230439 0.0018788252 -0.0048596603 -0.12723787 0.017298147
0.010017467 -0.06143152 0.008046186 0.00065278955 -0.0068415212 0.07849933 0.006278241 -0.023144053
-0.0063274307 0.0022133954 -0.0036827852 0.013481121 0.0463414 -0.014146054 -0.0005236644 -0.0066271937
0.01000175 0.0030813739 0.015618727 0.017119812 -0.0058529144 0.019012308 0.005123169 0.0019987717
-0.001006108 -0.35892466 0.03332778 0.018850956 -0.005874665 -0.055746663 -0.021634545 0.019779311
-0.01143808 0.37859622 -0.0150440885 0.006603142 0.024269708 0.0057517034 -0.02223877 0.000203102
-0.10880843 0.0047638 -0.005857968 0.07007815 -0.039571624 0.013255565 -0.13688734 0.017022986
-0.00074378867 0.009755394 0.06552978 0.0040131263 0.033777248 -0.08593615 -0.020482803 -0.014791812
0.0382294 -0.1393843 0.13110298 0.32698125 -0.001279606 0.0065094475 -0.07359785 0.027721431

encoder.block1.convblock3.1.weight f4 [64]
00000000: 6643 823e bb20 f43e b144 e63e 9feb a43e
00000010: adb3 e83e cfd6 933e c8e0 d23e 4e21 bc3e
00000020: 7281 d43e f197 863e cdba 863e eed0 033f
00000030: bc2f c13e a044 b13e 76e8 b93e dab7 a33e
00000040: b4bd 293f 2e6c de3e 6876 f43e abcc 9c3e
00000050: b5fc ce3e 680f 933e ba1d da3e ce10 b03e
00000060: 9fcf 573e e0e8 ba3e 65e8 dc3e 7508 633e
00000070: 04a2 b93e 534e 1a3f 189b 9c3e 2dbb d23e
00000080: ff3e 8f3e 6fd1 c33e 7c9c be3e 8f8f 0a3f
00000090: cc9c 073f 1ee4 343f 9caf bc3e 8f44 f93e
000000a0: 6fdc 073f 9fc0 ac3e 67fe 033f 587d a13e
000000b0: cbe0 9a3e 1921 d23e b1b7 e93e afef 953e
000000c0: 58a6 123f a8de be3e 31e1 9e3e aa4b b53e
000000d0: c79b c73e 946a ee3e e070 f83e a10d 933e
000000e0: 373c 8e3e 611f 933e 55d8 5c3e 5957 413f
000000f0: 9f33 e43d 728b df3e 758c 2a3f 013f 2b3f
0.25442046 0.4768122 0.44974282 0.32211015 0.45449582 0.28874823 0.4118712 0.3674416
0.4150501 0.26287797 0.26314393 0.51490676 0.3773173 0.3462267 0.36310166 0.31976205
0.6630509 0.4344191 0.47746587 0.306249 0.40427175 0.28722692 0.42600805 0.3438782
0.21075295 0.36505795 0.43146053 0.22171195 0.3625642 0.60275763 0.30587077 0.4115843
0.2797775 0.38245723 0.37228763 0.54125303 0.5297363 0.7066058 0.3685273 0.4868512
0.5307073 0.33740708 0.5156006 0.31540942 0.30249628 0.41040877 0.45647958 0.29284427
0.5728507 0.37279248 0.31031182 0.3540929 0.38986036 0.46565688 0.48523617 0.28721336
0.27780315 0.28734878 0.21566899 0.75523907 0.111426584 0.43661076 0.6662057 0.6689301

encoder.block1.convblock3.1.bias f4 [64]
00000000: 3ee2 203d 3a9a 09be aa93 6dbe c72b 0b3a
00000010: b65c 59be 8ecd 6b3d 27b2 49bd 62a2 01be
00000020: 9fb0 0dbe 690b 973c 5998 693c 1f3b c0bd
00000030: e1e1 9abd 897c 22be 68b4 80bd 7815 66bd
00000040: c39e 84be 3759 4cbe 35a7 44be e145 22bd
00000050: 9473 d7bd 943c f5bc 5797 52bd 7aa9 5abd
00000060: 9884 91bc 9bab eabd 1b80 30bd b448 dd3c
00000070: cfae e0bd d243 7fbe ba12 94bc 123d 15be
00000080: f00a 15bd 3935 5fbd fdab 81bd 20e5 95bd
00000090: 1777 24be a69b c7be 7efb bcbd baeb 30be
000000a0: 6f5e c1bd ba26 8ebd 0e3f bebe c0cf e3bd
000000b0: f49a b1bc dff6 2cbe ae2c 71be 49df 053c
000000c0: 9ecf 25be fff6 a2be 529f 23bd 0b05 03be
000000d0: d606 56be 020b 0dbe f8c6 92be 7a69 fdbc
000000e0: a11c 283d 5003 66bd 6e98 3e3d 902c 8fbe
000000f0: 2bd5 9ebd bd35 86be c3e2 8dbd 4516 07be
0.03927826 -0.13437739 -0.2320086 0.00053089525 -0.21226773 0.05756908 -0.049242165 -0.126596
-0.13836907 0.018438058 0.014257514 -0.093862765 -0.07562614 -0.15867819 -0.0628441 -0.056172818
-0.25902376 -0.19955908 -0.1920441 -0.039617423 -0.10520092 -0.029936112 -0.05141386 -0.05338428
-0.017763421 -0.114585124 -0.04309092 0.027012207 -0.10970842 -0.24928215 -0.018075336 -0.14574078
-0.036387384 -0.054494116 -0.06331632 -0.07319093 -0.16061054 -0.38985938 -0.09227656 -0.17277423
-0.0944184 -0.0694098 -0.37157482 -0.111236095 -0.021680333 -0.16891049 -0.235522 0.008170911
-0.16192481 -0.31829068 -0.03994686 -0.12794892 -0.20901045 -0.1377373 -0.28667426 -0.030934084
0.041042928 -0.056155503 0.046532087 -0.27963686 -0.07755502 -0.26212874 -0.06928017 -0.13192089

encoder.block1.convblock3.1.running_mean f4 [64]
00000000: c762 91bb a418 cebb b675 68bb 6816 0bbc
00000010: b1c2 0abc 73ab a9bb 681a 50bc 5bdf 8e3b
00000020: c6dd d9ba c360 3cbb d626 1abc 861f f6bc
00000030: 7b9e 10bb 778c 5cbc 76bd 52bc c686 61bc
00000040: 8068 8cbb de81 f6bb c045 72ba 103d cabb
00000050: 0de3 523a cc1e 56bb 451d 3ebc 51af e3bb
00000060: 4697 8dbb b2c0 dcbb 43c9 3fbc ea12 a7b9
00000070: 9865 6ebb 1c39 adbb 0172 76bc 9afc 95bb
00000080: eb19 73bb 65d3 9ebc 7f81 9bbb 747b 98bc
00000090: 000c f7bb 70c8 3f3b 6cc4 9fbb a544 12bc
000000a0: 75dd fabc e916 f2bb 8d1a f239 89c9 b13a
000000b0: bcfb 32bc e64e 07bb 3ffa 9fbb 44dd a6bb
000000c0: e5e5 13ba a706 60b7 e19a a9bb 1888 f5bb
000000d0: 9a9a 37bb 24fd acbb 59b2 843b b781 1abc
000000e0: dc85 0ebc c086 54bb 03db cd3a ca75 65bc
000000f0: 1996 973b c270 7fba 5a17 82bc 0a88 42bc
-0.004436824 -0.0062895585 -0.0035470552 -0.008489229 -0.00846927 -0.005177909 -0.012701608 0.004360122
-0.001662188 -0.0028744198 -0.009408673 -0.030044328 -0.0022067118 -0.013461224 -0.012862554 -0.013765043
-0.0042849183 -0.0075228056 -0.0009241961 -0.00617183 0.00080446975 -0.0032672165 -0.011603658 -0.0069483896
-0.0043210117 -0.0067368383 -0.011705699 -0.00031866814 -0.0036376473 -0.005286349 -0.015041829 -0.0045772316
-0.0037094306 -0.01938791 -0.0047456617 -0.018613555 -0.0075392723 0.0029263757 -0.0048757102 -0.008927499
-0.030623177 -0.007387985 0.0004617762 0.001356409 -0.010924276 -0.0020646392 -0.0048821266 -0.005092295
-0.0005641862 -1.3352989e-05 -0.0051759337 -0.0074930303 -0.0028015734 -0.0052792 0.004049581 -0.0094303405
-0.008698907 -0.003242895 0.0015705529 -0.014005134 0.0046260473 -0.000974428 -0.015880276 -0.011873255

encoder.block1.convblock3.1.running_var f4 [64]
00000000: ee1e 2839 c92a 253a b45a a439 d63e 313a
00000010: fb70 cb39 47ad b239 a228 263a 51a4 8439
00000020: 3a2c e739 ace5 2139 6e89 1a39 2b54 9f3a
00000030: 8ff2 ad39 ede3 e238 7469 b539 bcdc 7e39
00000040: 172f 823a 4ba5 af39 fadd 0c3a 58fe 6139
00000050: 1df0 f039 1256 1f39 6956 953a 9e9c 8139
00000060: e322 1a39 c5e3 a439 4689 163a 5b80 9438
00000070: f63f 6d39 0900 583a 675f 9b39 3158 a639
00000080: 3f18 0b39 253d 543a da84 073a 94c1 2d3b
00000090: ec2f 433a 9497 3a3a 3864 f939 6629 df39
000000a0: 7831 ae3a 404d 6b39 cee9 fc39 37c0 2039
000000b0: 736a 8039 0be4 8b39 4762 d43a 1926 8739
000000c0: d088 213a 521c 0739 2f5c 6539 0d9f 6d39
000000d0: 24b7 ef38 2a01 323a 9e0d cb39 50dd 6839
000000e0: 66c8 8939 e48d 0039 c181 6d38 b78b bb3a
000000f0: d1ed 0f39 ef9b 3639 4489 833b d2a2 7a3b
0.0001603325 0.0006300626 0.00031348097 0.00067613774 0.00038803354 0.00034079907 0.0006338452 0.00025299427
0.00044092705 0.00015439716 0.00014737781 0.0012155821 0.00033177852 0.00010818974 0.0003460158 0.00024305558
0.0009932247 0.00033501754 0.0005373653 0.00021552423 0.00045955266 0.00015195485 0.001139355 0.00024721486
0.00014699581 0.0003145022 0.0005742501 7.081098e-05 0.00022625909 0.00082397513 0.00029634984 0.00031727695
0.00013265105 0.00080962694 0.0005169638 0.0026513087 0.00074458006 0.0007117924 0.0004756765 0.0004256472
0.0013289889 0.00022440124 0.00048239384 0.00015330395 0.00024493373 0.0002668205 0.0016203605 0.00025777592
0.0006162049 0.00012885153 0.00021873483 0.00022661332 0.00011430521 0.00067903346 0.00038729323 0.0002220769
0.00026279985 0.0001225989 5.6626046e-05 0.0014308606 0.00013726136 0.00017414962 0.004014166 0.003824402

encoder.block1.shortcut.0.weight f4 [64, 1, 1]
00000000: 76e2 393b 3aea 213d c3dc 2c3d 19c1 323d
00000010: 1bbb 6d3c d188 f6ba 10de 9abc cb99 8c3c
00000020: b119 6f3c dd75 c03b 57c5 213d 1811 31bd
00000030: 5ee5 4a3d f335 28bd ae09 903c 3862 b13c
00000040: 841d 033c 6cb4 c7bc 3356 3f3d 057f b0bc
00000050: 93ad 12bd f240 443d e485 ee3b 46c5 40bd
00000060: 9a2d d6bc c9a1 953c b9d9 8d3b 0b4e ac3c
00000070: 29a9 1fbd 3808 2bbd b065 793c 51f1 233d
00000080: fbf4 0d3d 9b4a bd3c b8a0 853b 4358 26bc
00000090: 654b 2bbd 50ca 303c 7589 393d 96dc 15bd
000000a0: a643 113d 43e7 ffbc 7c9e 42bd fbcc b4bc
000000b0: 8428 413d 0b83 04bc 2f96 113d 4c93 a4bc
000000c0: 1c25 473d fff3 db3c 75b8 fcbc 8b8c 233d
000000d0: e576 723c 3ae0 293d 65cd 67bc 54d0 95bb
000000e0: a4ae b3bc 3e3a f73c 5cc7 c63b 9b24 eebc
000000f0: 3b72 8c3c a961 043d f97c dc3b 35d6 15bd
0.002836374 0.039530016 0.042202722 0.043641184 0.014509941 -0.0018809085 -0.018904716 0.017163178
0.014593528 0.0058734254 0.03949484 -0.043229192 0.049535148 -0.041067075 0.01758274 0.02165328
0.008002643 -0.024378024 0.046713065 -0.021544943 -0.035810065 0.0479135 0.0072791446 -0.047063135
-0.026144791 0.018265622 0.004328933 0.021033308 -0.038979683 -0.041755885 0.015221998 0.04002506
0.03465746 0.023106864 0.004077997 -0.010152879 -0.04181995 0.010790423 0.045297105 -0.03658732
0.035464905 -0.031238204 -0.047514424 -0.022070399 0.04715778 -0.008087884 0.035543617 -0.020089768
0.048619375 0.026849745 -0.030849675 0.039928954 0.0147988545 0.041473605 -0.014148091 -0.004571954
-0.021933861 0.03017914 0.006066246 -0.02907019 0.017144313 0.0323197 0.006728765 -0.036581237

encoder.block1.shortcut.1.weight f4 [64]
00000000: fc0d 7e3c 3360 013e 2ac6 42bd 029e 443d
00000010: 1896 27bb 253e 873c af7d d3bd 815b 123c
00000020: 8988 ea3c 4f22 373d 7899 ee3c fed9 463c
00000030: 902c aa3d 5f85 893c 9b96 963d 1fb1 773d
00000040: 1485 f53d e389 843d fbe8 f2bc 3623 12bc
00000050: 9175 37bd 7a66 903c 329f 873d 12d8 e8bc
00000060: fae9 a1bb 4245 d8bc 496c 813d f9ee d83c
00000070: 4d22 313b 1f77 edbd 1485 013d 6d82 b9bd
00000080: 6836 2f3d 46b7 3c3d 3df7 b43d 2a34 bc3d
00000090: b3ce ccbd 8809 b93d d0e9 c1bd 66eb 12be
000000a0: 8a4b 10bc 7102 0abd 8b0f 16bd 9e51 8f3d
000000b0: fee8 b43c 96df d5bd b5d1 db3d d154 24bc
000000c0: abfc 473e 5d84 923c aaee 6fbd 265c 47bc
000000d0: 571e 04bd a44c af3d 6378 ae3c ee53 13bd
000000e0: 839c 553b 6f2a 473b ed94 523d 237d 5ebe
000000f0: 2a9e 4f3c ba6c 28bd 1176 3f3e 1564 4d3e
0.015506264 0.12634353 -0.047552265 0.04800225 -0.002557164 0.016509125 -0.103267066 0.008932949
0.028629558 0.044710454 0.029125914 0.012136934 0.08309281 0.01678723 0.073529445 0.06047165
0.11988273 0.06471612 -0.02965211 -0.008919528 -0.044789854 0.01762699 0.06622161 -0.028423343
-0.0049412223 -0.026400212 0.06319482 0.026481139 0.0027028501 -0.11594986 0.031621054 -0.0905808
0.042776495 0.04607322 0.088362195 0.09189637 -0.10000362 0.09035021 -0.09468424 -0.1434761
-0.008807072 -0.033693735 -0.036635917 0.06997989 0.022083756 -0.10443036 0.10733358 -0.010029987
0.19529979 0.017885381 -0.058577217 -0.012167966 -0.032255497 0.0855954 0.02129764 -0.035968713
0.003259451 0.0030390283 0.051411558 -0.21727423 0.012671987 -0.041119315 0.18697383 0.2005771

encoder.block1.shortcut.1.bias f4 [64]
00000000: 3ee2 203d 3a9a 09be aa93 6dbe c72b 0b3a
00000010: b65c 59be 8ecd 6b3d 27b2 49bd 62a2 01be
00000020: 9fb0 0dbe 690b 973c 5998 693c 1f3b c0bd
00000030: e1e1 9abd 897c 22be 68b4 80bd 7815 66bd
00000040: c39e 84be 3759 4cbe 35a7 44be e145 22bd
00000050: 9473 d7bd 943c f5bc 5797 52bd 7aa9 5abd
00000060: 9884 91bc 9bab eabd 1b80 30bd b448 dd3c
00000070: cfae e0bd d243 7fbe ba12 94bc 123d 15be
00000080: f00a 15bd 3935 5fbd fdab 81bd 20e5 95bd
00000090: 1777 24be a69b c7be 7efb bcbd baeb 30be
000000a0: 6f5e c1bd ba26 8ebd 0e3f bebe c0cf e3bd
000000b0: f49a b1bc dff6 2cbe ae2c 71be 49df 053c
000000c0: 9ecf 25be fff6 a2be 529f 23bd 0b05 03be
000000d0: d606 56be 020b 0dbe f8c6 92be 7a69 fdbc
000000e0: a11c 283d 5003 66bd 6e98 3e3d 902c 8fbe
000000f0: 2bd5 9ebd bd35 86be c3e2 8dbd 4516 07be
0.03927826 -0.13437739 -0.2320086 0.00053089525 -0.21226773 0.05756908 -0.049242165 -0.126596
-0.13836907 0.018438058 0.014257514 -0.093862765 -0.07562614 -0.15867819 -0.0628441 -0.056172818
-0.25902376 -0.19955908 -0.1920441 -0.039617423 -0.10520092 -0.029936112 -0.05141386 -0.05338428
-0.017763421 -0.114585124 -0.04309092 0.027012207 -0.10970842 -0.24928215 -0.018075336 -0.14574078
-0.036387384 -0.054494116 -0.06331632 -0.07319093 -0.16061054 -0.38985938 -0.09227656 -0.17277423
-0.0944184 -0.0694098 -0.37157482 -0.111236095 -0.021680333 -0.16891049 -0.235522 0.008170911
-0.16192481 -0.31829068 -0.03994686 -0.12794892 -0.20901045 -0.1377373 -0.28667426 -0.030934084
0.041042928 -0.056155503 0.046532087 -0.27963686 -0.07755502 -0.26212874 -0.06928017 -0.13192089
