ldpi/training/output/ResCNN/pretrained_model.pth (torch, 711292 bytes, 63 tensors)

encoder.block1.convblock1.0.depthwise_conv.weight f4 [1, 1, 7]
0.36168402 2.0963242 0.23905224 0.27529526 -0.022189794 0.0014598976 -0.0032179789
00000000: a62e b93e 2d2a 0640 1cca 743e 80f3 8c3e
00000010: 5fc7 b5bc 095a bf3a bae4 52bb

encoder.block1.convblock1.0.pointwise_conv.weight f4 [64, 1, 1]
0.023715498 0.03318024 -0.008840994 0.025942361 -0.019479277 0.03310355 0.030955225 -0.017825311
-0.013330041 -0.02745374 0.0052817645 -0.03574987 -0.007139093 0.04166302 -0.048092403 0.024316289
0.018432034 0.013216981 -0.038978253 -0.031000057 0.02679203 0.028744306 0.025686206 0.017170334
-0.0166348 0.021004997 0.009207342 0.016928123 -0.03152342 -0.018929446 0.022085348 0.024226895
0.0047819084 -0.034482054 -0.046550177 0.022848459 -0.040814668 0.048284333 -0.033058576 -0.006629036
0.010451961 -0.004902454 0.08157375 0.032356042 0.020518312 -0.02054133 -0.048289187 -0.036351018
-0.013846553 0.007995309 0.03198106 -0.015709031 -0.046320073 0.004609486 -0.04010263 -0.02879369
-0.022610089 -0.013839642 -0.0150703285 0.008225175 -0.023834903 -0.0036454978 -0.02235675 0.036332563
00000000: 0147 c23c 01e8 073d d1d9 10bc 1385 d43c
00000010: 0193 9fbc 9797 073d d095 fd3c 6306 92bc
00000020: 3f66 5abc aae6 e0bc a712 ad3b 756e 12bd
00000030: 0def e9bb d8a6 2a3d 8afc 44bd f432 c73c
00000040: c7fe 963c 098c 583c a9a7 1fbd d5f3 fdbc
00000050: f67a db3c 2e79 eb3c e16b d23c cda8 8c3c
00000060: b445 88bc ac12 ac3c 64da 163c d9ac 8a3c
00000070: b41e 01bd ed11 9bbc 55ec b43c 7b77 c63c
00000080: 8eb1 9c3b 0e3d 0dbd 66ab 3ebd b12c bb3c
00000090: 482d 27bd cbc5 453d 6e68 07bd 6238 d9bb
000000a0: b43e 2b3c c4a4 a0bb 2310 a73d c587 043d
000000b0: 0516 a83c 4b46 a8bc e2ca 45bd cee4 14bd
000000c0: a7dc 62bc c2fe 023c 92fe 023d 3ab0 80bc
000000d0: 1eba 3dbd 2c0b 973b a842 24bd bfe0 ebbc
000000e0: cb38 b9bc aabf 62bc 8ae9 76bc e2c2 063c
000000f0: 6a41 c3bc 4ee9 6ebb 8125 b7bc 74d1 143d

encoder.block1.convblock1.1.weight f4 [64]
0.48567066 0.39556748 0.03434835 0.7350637 0.14084373 0.16758022 0.31004816 0.22377233
0.5425431 0.4450292 0.16207235 0.033391826 0.37939405 0.11600633 0.06959464 0.015694037
0.6810836 0.49360505 0.033113874 0.46892625 0.4126543 0.1288814 0.72223663 0.52627
0.26856825 0.13473083 0.18228433 0.045322254 0.53201735 0.0495052 0.01757564 0.6415124
0.57690644 0.07192337 0.39982358 0.08155849 0.13579606 0.5747573 0.7501713 0.26307324
0.18534176 0.040200166 0.48066467 0.054181818 0.07307982 0.09601976 0.15071854 0.88392985
0.017311819 0.48377007 0.62404925 0.20554522 0.6735354 0.01758934 0.538062 0.3548799
0.43929577 0.28401864 0.08560861 0.13587351 0.29941687 0.3548929 0.0012352705 0.17036441
00000000: d3a9 f83e d287 ca3e dbb0 0c3d 222d 3c3f
00000010: 5739 103e 269a 2b3e a2be 9e3e 9324 653e
00000020: 1be4 0a3f deda e33e 4bf6 253e dec5 083d
00000030: f03f c23e ba94 ed3d a287 8e3d c890 803c
00000040: 7f5b 2e3f cdb9 fc3e 6aa2 073d 1a17 f03e
00000050: 6d47 d33e 7cf9 033e 80e4 383f a1b9 063f
00000060: c781 893e e1f6 093e bea8 3a3e d4a3 393d
00000070: 4a32 083f f7c5 4a3d cafa 8f3c 283a 243f
00000080: 24b0 133f 8f4c 933d adb5 cc3e 2308 a73d
00000090: 1f0e 0b3e 4b23 133f 3a0b 403f 89b1 863e
000000a0: 3bca 3d3e eea8 243d ae19 f63e c1ed 5d3d
000000b0: dfaa 953d 02a6 c43d f655 1a3e 3a49 623f
000000c0: 84d1 8d3c b6b0 f73e b1c1 1f3f 727a 523e
000000d0: d16c 2c3f 8517 903c 6ebe 093f d1b2 b53e
000000e0: 60eb e03e e46a 913e 9153 af3d 6d22 0b3e
000000f0: 2b4d 993e 86b4 b53e cde8 a13a 0274 2e3e

encoder.block1.convblock1.1.bias f4 [64]
0.19495766 -0.1075352 -0.35053456 0.20558889 0.034893814 -0.043877516 -0.34223846 -0.066025995
-0.17744698 -0.21604083 -0.042042293 -0.094628856 -0.09446142 -0.18806206 0.06759226 -0.14295547
0.18588626 -0.65242326 -0.05146385 0.5164667 -0.11362967 -0.4633728 0.14541838 -0.11853912
-0.58790004 -0.22939786 -0.042559233 -0.06629477 0.13560437 -0.08443048 -0.10663422 -0.16807295
0.33199507 0.13231543 -0.101095006 -0.123829104 -0.14295124 0.19213292 0.4670168 0.3630714
-0.2077313 -0.07095249 -0.3831315 -0.5122553 -0.2634006 -0.024514927 0.1334596 0.34272256
0.123948805 -0.2308342 -0.15967213 0.06417399 -0.16924539 -0.13194698 -0.21986783 0.048096977
-0.24770305 0.07470571 0.012982214 0.054704186 0.057644676 0.32369465 0.91624814 0.045119636
00000000: fba2 473e 6a3b dcbd 4479 b3be e585 523e
00000010: d1ec 0e3d e9b8 33bd e139 afbe a338 87bd
00000020: a9b4 35be cf39 5dbe 8a34 2cbd c6cc c1bd
00000030: fd74 c1bd 5793 40be d06d 8a3d eb62 12be
00000040: f858 3e3e 3605 27bf c2cb 52bd 2937 043f
00000050: acb6 e8bd 333f edbe 8ee8 143e a3c4 f2bd
00000060: 9e80 16bf 46e7 6abe 9752 2ebd 8dc5 87bd
00000070: dfdb 0a3e e3e9 acbd 0b63 dabd 511b 2cbe
00000080: 42fb a93e b27d 073e e60a cfbd 1d9a fdbd
00000090: cf61 12be 7ebe 443e d31c ef3e 7fe4 b93e
000000a0: 84b7 54be 8a4f 91bd d029 c4be 2a23 03bf
000000b0: 72dc 86be 87d3 c8bc a2a9 083e 5579 af3e
000000c0: dfd8 fd3d cd5f 6cbe 1781 23be a76d 833d
000000d0: aa4e 2dbe 1c1d 07be 0825 61be 5601 453d
000000e0: dea5 7dbe 4fff 983d 5ab3 543c 7f11 603d
000000f0: d31c 6c3d 4ebb a53e 3d8f 6a3f 5ecf 383d

encoder.block1.convblock1.1.running_mean f4 [64]
0.017317612 0.024228992 -0.006455901 0.018943721 -0.014224227 0.02417299 0.022604227 -0.013016461
-0.009733908 -0.020047365 0.0038568685 -0.026105393 -0.005213134 0.030423312 -0.035118204 0.017756324
0.0134595055 0.009651347 -0.028462837 -0.02263697 0.019564165 0.020989766 0.018756673 0.012538179
-0.012147122 0.01533834 0.0067234184 0.012361312 -0.02301914 -0.013822726 0.016127236 0.017691048
0.0034918615 -0.025179602 -0.033992033 0.01668448 -0.029803827 0.035258356 -0.024140147 -0.004840677
0.0076322667 -0.0035798869 0.059567057 0.023627143 0.014982954 -0.014999763 -0.035261896 -0.026544366
-0.010111079 0.005838363 0.02335332 -0.011471105 -0.033824004 0.0033659548 -0.029283885 -0.021025829
-0.016510418 -0.010106031 -0.011004705 0.006006215 -0.0174048 -0.0026620282 -0.016325423 0.026530886
00000000: aadd 8d3c e17b c63c 068c d3bb dd2f 9b3c
00000010: bb0c 69bc 6f06 c63c 802c b93c ff42 55bc
00000020: f87a 1fbc 5f3a a4bc 84c3 7c3b fada d5bc
00000030: f0d2 aabb 4f3a f93c 1bd8 0fbd b675 913c
00000040: 4285 5c3c af20 1e3c e52a e9bc 2b71 b9bc
00000050: 0745 a03c bbf2 ab3c 98a7 993c ef6c 4d3c
00000060: b904 47bc a94d 7b3c 1f50 dc3b 1a87 4a3c
00000070: a392 bcbc b778 62bc 441d 843c d1ec 903c
00000080: b7d7 643b 7445 cebc 3b3b 0bbd e4ad 883c
00000090: 2827 f4bc 116b 103d 8fc1 c5bc 8b9e 9ebb
000000a0: 1818 fa3b 899c 6abb 96fc 733d b68d c13c
000000b0: 107b 753c 91c1 75bc c76e 10bd 9273 d9bc
000000c0: f0a8 25bc bd4f bf3b 764f bf3c 4df1 3bbc
000000d0: 0a8b 0abd 5a97 5c3b c2e4 efbc 5c3e acbc
000000e0: db40 87bc c493 25bc 144d 34bc c8cf c43b
000000f0: 8394 8ebc 6c75 2ebb e5bc 85bc 4d57 d93c

encoder.block1.convblock1.1.running_var f4 [64]
2.1749728 4.257438 0.30226755 2.602605 1.467354 4.237781 3.7055888 1.2287499
0.6871512 2.9146893 0.10788159 4.9424043 0.19709487 6.7126007 8.944215 2.2865667
1.3138199 0.67554426 5.875354 3.7163305 2.7758791 3.1951628 2.551463 1.1401101
1.0701002 1.7062181 0.3278369 1.1081713 3.8428726 1.385687 1.8862437 2.2697852
0.0884284 4.5980697 8.379768 2.0188458 6.4420166 9.015749 4.226273 0.16993782
0.4224593 0.09294292 25.73298 4.048555 1.628068 1.631723 9.017562 5.1100183
0.74143434 0.24720646 3.9552588 0.954307 8.297128 0.0821664 6.219208 3.206151
1.9769415 0.74069417 0.87828356 0.26162517 2.1969292 0.051392883 1.9328878 5.1048307
00000000: c132 0b40 ef3c 8840 d0c2 9a3e 1591 2640
00000010: 42d2 bb3f e79b 8740 5e28 6d40 ad47 9d3f
00000020: 24e9 2f3f 458a 3a40 06f1 dc3d 2d28 9e40
00000030: 3dd3 493e a0cd d640 811b 0f41 1c57 1240
00000040: 402b a83f 78f0 2c3f e602 bc40 5cd8 6d40
00000050: 01a8 3140 8c7d 4c40 2b4b 2340 21ef 913f
00000060: 0bf9 883f 5b65 da3f 3dda a73e 8fd8 8d3f
00000070: a0f1 7540 315e b13f 6f70 f13f 2944 1140
00000080: f319 b53d 6323 9340 8813 0641 c534 0140
00000090: 0025 ce40 8240 1041 a13d 8740 2e04 2e3e
000000a0: 964c d83e dc58 be3d 25dd cd41 c38d 8140
000000b0: 8864 d03f 4ddc d03f ef47 1041 4585 a340
000000c0: a4ce 3d3f b123 7d3e f622 7d40 774d 743f
000000d0: 09c1 0441 dc46 a83d c003 c740 9431 4d40
000000e0: 6b0c fd3f 229e 3d3f 31d7 603f bcf3 853e
000000f0: 7d9a 0c40 5881 523d de68 f73f c65a a340

encoder.block1.convblock2.0.depthwise_conv.weight f4 [64, 1, 5]
-0.25254554 -0.38683617 -0.0842265 0.2617621 0.20049366 0.004689952 0.07125017 0.018325904
-0.27324328 -0.31574273 0.034281593 0.019698681 -0.015924219 0.032764465 0.051052958 0.0874393
0.62940323 0.29286152 -0.3394874 -0.043767262 -0.05736922 -0.10947416 -0.019707713 -0.039157607
0.005586919 -0.080128245 -0.060620375 -0.010343824 -0.07495556 -0.0824969 -0.09841538 -0.110724874
-0.13351458 -0.108353056 -0.1362645 0.051415343 0.071830906 0.04777378 0.060212895 0.042517908
-0.06698119 -0.09929635 -0.15221326 -0.101111144 -0.052467752 -0.18943992 0.019258428 -0.3880842
0.26744717 0.3716919 -0.035473738 -0.067233264 -0.06858246 -0.07238688 -0.06393434 0.00844381
0.013998743 0.0059350086 -0.0037029567 -0.011924504 0.1319164 0.106433704 0.12371898 0.10830068
0.09585374 0.003537785 -0.005757966 -0.007926706 -0.007438424 0.007879703 -0.014483662 -0.038006786
0.02917645 -0.0017343992 0.0069696927 -0.0002787116 -0.016034426 -0.03625178 0.0073170313 -0.030712798
-0.11126746 -0.01893385 0.76016885 -0.30337307 -0.66189027 0.00058199454 0.008549184 0.04160637
0.061491597 0.072013795 -0.0023071873 -0.008768056 -0.02455241 -0.012804096 0.016178258 0.23393513
0.047264963 0.1624918 -0.15562163 -0.06718044 0.08841118 -0.11474998 -0.1368806 0.23084788
0.38723856 0.030983154 0.052733395 0.0367002 0.024597783 0.06768827 -0.15576497 0.20860846
0.45771635 -0.046626937 0.11509754 -0.09580949 -0.14522989 -0.15578759 -0.14352137 -0.14965835
0.06598238 0.060955636 0.075204015 0.052699186 0.10588663 -0.024058918 -0.021914031 0.005856643
0.0076151644 0.0046247668 -0.08309236 -0.058202635 -0.10794928 -0.045399565 -0.067321576 0.008065685
0.017786479 0.012143647 0.0011117208 0.011732122 0.1027228 0.2678286 -0.18813497 0.18136483
0.3287662 -0.03464174 0.0029863883 0.005410958 -0.024739536 -0.0006261823 0.011879592 -0.0035893982
-0.010354014 0.019866914 0.027925674 0.048780605 0.05425447 0.09328499 0.101192795 0.15956259
-0.62194854 -0.03592436 0.34857553 0.08553135 0.12353176 -0.041261233 0.024965696 0.003084196
0.034267735 0.027845433 0.11489784 0.09225975 0.13633005 0.12084278 0.06501992 -0.018334186
-0.013372957 -0.023151338 -0.044161305 -0.01585884 0.01717542 0.05909785 -0.014801244 0.05704863
0.055198163 -0.5591591 -0.2868035 -0.068665355 0.37017822 0.49951196 -0.4840421 0.048697516
-0.5113499 0.2524733 0.39813343 -0.26520872 -0.141572 0.24108511 -0.07188201 -0.1023934
0.15155566 -0.0033796 0.099967875 0.03734149 0.05779351 0.005621053 0.008768987 0.005505258
0.01996139 0.0018045785 -0.0305472 -0.0527215 -0.085812725 -0.091198415 -0.15568155 -0.057921104
-0.03694505 -0.05116799 -0.0664168 -0.08073924 -0.0018766249 -0.02986084 -0.033893693 -0.025374517
-0.043039694 0.02497413 0.028964063 0.027311122 0.058003772 0.034592997 -0.10846432 -0.098278835
0.042708587 0.056994505 0.06855307 0.22135125 0.66897535 -1.231142 0.037681013 -0.10909298
0.011374499 0.025292242 -0.019516379 0.041397784 0.0455449 0.1103883 0.10763665 0.10101946
0.12687814 0.17303203 -0.20760743 -0.23211242 -0.17974232 0.0029600856 -0.00021273589 0.037222683
00000000: a64d 81be 640f c6be f17e acbd af05 863e
00000010: 364e 4d3e 2bae 993b 9ceb 913d 3520 963c
00000020: 8be6 8bbe 08a9 a1be db6a 0c3d 215f a13c
00000030: 8273 82bc 0834 063d e81c 513d 6013 b33d
00000040: 9220 213f f2f1 953e 4bd1 adbe 4d45 33bd
00000050: fdfb 6abd fd33 e0bd 1272 a1bc ba63 20bd
00000060: 7912 b73b 471a a4bd 124d 78bd 2479 29bc
00000070: 4d82 99bd 22f4 a8bd 018e c9bd b9c3 e2bd
00000080: 0cb8 08be 35e8 ddbd ec88 0bbe e598 523d
00000090: 151c 933d 70ae 433d cca1 763d 4227 2e3d
000000a0: 6f2d 89bd e25b cbbd cbdd 1bbe 5c13 cfbd
000000b0: 6de8 56bd 8afc 41be dac3 9d3c f9b2 c6be
000000c0: d6ee 883e 674e be3e e94c 11bd 98b1 89bd
000000d0: f674 8cbd 933f 94bd 02f0 82bd e857 0a3c
000000e0: fc5a 653c 767a c23b 4ead 72bb ff5e 43bc
000000f0: 1815 073e eaf9 d93d 6060 fd3d bfcc dd3d
00000100: f74e c43d 2fda 673b 52ad bcbb 04df 01bc
00000110: 06be f3bb df19 013c e24c 6dbc 01ad 1bbd
00000120: 7303 ef3c c854 e3ba 0562 e43b 0a20 92b9
00000130: a15a 83bc bf7c 14bd b5c3 ef3b 6899 fbbc
00000140: 32e0 e3bd 291b 9bbc 6d9a 423f b753 9bbe
00000150: a471 29bf fe90 183a e011 0c3c 716b 2a3d
00000160: 9dde 7b3d f87b 933d 2e34 17bb e4a7 0fbc
00000170: 2322 c9bc 45c8 51bc 4488 843c b18c 6f3e
00000180: e898 413d 4064 263e 475b 1fbe e695 89bd
00000190: ec10 b53d 0a02 ebbd 6e2a 0cbe 6363 6c3e
000001a0: 2244 c63e 62d0 fd3c f9fe 573d f352 163d
000001b0: 4a81 c93c 26a0 8a3d da80 1fbe 759d 553e
000001c0: cc59 ea3e e3fb 3ebd 42b8 eb3d c437 c4bd
000001d0: 25b7 14be c886 1fbe 44f7 12be 0a40 19be
000001e0: c521 873d 9eac 793d 9004 9a3d 1adb 573d
000001f0: 17db d83d 3517 c5bc 0e85 b3bc 15e9 bf3b
00000200: a188 f93b 5b8b 973b 542c aabd e365 6ebd
00000210: 8314 ddbd e5f4 39bd e5df 89bd ef25 043c
00000220: f3b4 913c 26f6 463c 29b7 913a 1638 403c
00000230: 5560 d23d d520 893e 74a6 40be b4b7 393e
00000240: 0b54 a83e 7fe4 0dbd 48b7 433b 684e b13b
00000250: 91aa cabc 6226 24ba 9fa2 423c 1c3c 6bbb
00000260: e2a3 29bc f0bf a23c 62c4 e43c 2cce 473d
00000270: ef39 5e3d 330c bf3d 2b3e cf3d 6064 233e
00000280: 0538 1fbf 6c25 13bd 7e78 b23e 0f2b af3d
00000290: 38fe fc3d 8a01 29bd dc84 cc3c 3920 4a3b
000002a0: 535c 0c3d 1b1c e43c 8f4f eb3d aef2 bc3d
000002b0: 1b9a 0b3e 6b7c f73d 2a29 853d 9331 96bc
000002c0: 3f1a 5bbc e0a7 bdbc 7ce2 34bd 66ea 81bc
000002d0: 77b3 8c3c 9610 723d eb80 72bc d3ab 693d
000002e0: 7817 623d 0d25 0fbf e9d7 92be 6ca0 8cbd
000002f0: 0088 bd3e 08c0 ff3e 5ed4 f7be 0c77 473d
00000300: d4e7 02bf 2e44 813e 25d8 cb3e 70c9 87be
00000310: 40f8 10be 04df 763e e036 93bd a2b3 d1bd
00000320: 6831 1b3e 477c 5dbb f5bb cc3d 64f3 183d
00000330: e3b8 6c3d cf30 b83b ccab 0f3c 7465 b43b
00000340: 1286 a33c 9b87 ec3a 1f3e fabc 80f2 57bd
00000350: 95be afbd 3cc6 babd fc6a 1fbe ae3e 6dbd
00000360: b153 17bd 8795 51bd 8805 88bd 9d5a a5bd
00000370: 15f9 f5ba b89e f4bc 1dd4 0abd 38de cfbc
00000380: 644a 30bd 8c96 cc3c 0b46 ed3c 93bb df3c
00000390: 5d95 6d3d 63b1 0d3d 8b22 debd 6a46 c9bd
000003a0: 33ef 2e3d 1273 693d 8d65 8c3d e7a9 623e
000003b0: f841 2b3f 1096 9dbf 6857 1a3d 246c dfbd
000003c0: 1b5c 3a3c ad31 cf3c d0e0 9fbc b990 293d
000003d0: 4a8d 3a3d 4313 e23d 9b70 dc3d 4ae3 ce3d
000003e0: 58ec 013e 4f2f 313e 0b97 54be e1ae 6dbe
000003f0: 5f0e 38be fffd 413b db11 5fb9 d076 183d

encoder.block1.convblock2.0.pointwise_conv.weight f4 [64, 64, 1]
-0.014325808 0.0010891914 0.0012082738 0.002174048 0.031453423 0.022394039 0.026107466 0.0065854816
0.0033188043 0.048142884 0.0117190005 -0.008956414 0.03605687 -0.01966991 0.03939473 0.017562715
-0.006189249 -0.018319845 0.02334537 -0.016869184 -0.015363098 -0.017452195 0.020680858 0.011705907
0.006631767 -0.02359472 -0.0049806884 0.014364935 -0.03894128 0.016001724 -0.015242106 -0.009365269
0.01301069 -0.019327244 0.004184354 -0.022472525 -0.018900372 0.010544194 0.03133021 -0.05532201
-0.031498395 -0.013749585 0.012709653 0.009933905 0.015293296 0.009301849 0.0095734615 0.021694006
-0.05867122 -0.023504108 -0.020292567 0.0020030094 0.01000179 -0.018679285 -0.007792283 -0.014193427
-0.056863368 -0.0034061428 -0.029901605 0.0014359567 0.013888079 -0.022561846 0.010313507 0.013130075
-0.005397954 0.0018931367 -0.005601791 0.0054418296 0.002515895 -0.0043157754 -0.0042984644 0.0053632953
0.0019214215 -0.026086489 0.00036277898 -2.8116836e-05 0.0069109756 -0.0007774603 -0.0019984448 0.005107384
0.013204947 0.0011535964 -0.0020284383 0.0016939221 0.007486867 0.0042532776 0.000514593 -0.006331929
0.003030588 -0.0012561829 -0.0040644137 0.00025598772 -0.0153968325 0.0012313018 -0.00013891925 0.002674278
0.0010988477 -0.0025756962 -0.00012982496 0.0031349794 -0.0038829003 -0.017578397 -0.024244918 0.0051603946
0.005769329 -0.0017375244 -0.008086056 0.00075736974 -0.00050059654 5.696907e-05 -0.005267781 -0.00078080007
-0.0065037194 0.0077579836 0.00658947 -0.0019870205 -0.0038899465 0.0033443798 -0.002130283 0.00661259
0.021618387 -0.0026629944 -0.0020550822 -0.0055254125 -0.0006563904 -0.008007811 0.030052433 0.0038571502
0.028982705 -0.0888814 0.00485223 -0.071089685 -0.023419095 -0.0009191541 0.042379778 0.027500777
-0.066842034 0.045743823 0.00196387 -0.0063838996 0.050886165 -0.009602863 -0.0175643 0.0034723445
0.13867807 -0.034084357 0.0071074185 -0.04427476 0.06466859 -0.004960472 0.08452804 -0.0047981655
-0.02339407 -0.006556036 -0.0020243712 0.0051665623 0.2609184 -0.002358674 0.0023963077 -0.010375435
-0.0254099 0.026690021 0.057835076 -0.009652764 0.028174944 -0.012166036 0.31873333 -0.045378845
-0.021677844 0.0044527343 0.043370437 0.0024841388 0.01291499 0.010993769 0.0006948629 0.45570254
0.023625474 -0.0324226 0.07468493 0.0028300176 -0.11109613 -0.008954621 -0.058769565 0.05259969
-0.20499061 0.0054305145 0.016613623 -0.002334248 -0.031869847 -0.013465427 -0.26189053 0.013247968
-0.0014894741 0.0012988724 0.0002350659 0.0005575173 -0.003632876 -0.00407036 -0.0050958805 -0.0059070215
-0.007023198 -0.008745903 -0.0055643264 0.003837149 -0.010468584 -0.0013547706 -0.0006398088 0.004387832
0.0046473984 -0.0012742289 -0.0048568784 0.007786297 -0.0043348176 -0.0021924484 -0.007844763 -0.007152726
-0.01232068 -0.0046786782 0.002489496 -0.0068346476 0.015622344 -0.0017415686 0.0042536706 0.0055432105
-0.0053620767 0.0012394519 -0.0031376474 0.0058787866 0.010065489 -0.009556251 -0.012015406 0.0064138835
-0.001877748 -0.0021970216 0.0013570301 0.0048997784 0.006008482 0.0020946583 -0.0011117657 -0.017031772
0.0025277936 -0.0020777695 -0.0025150147 -0.0039530904 -0.012550183 0.0018563881 -0.008875686 0.007477605
0.0031499034 0.0040361215 0.0005740956 -0.0046410984 -0.003956104 0.001245749 -0.0074257934 0.0008431006
00000000: cbb6 6abc 33c3 8e3a f15e 9e3a 797a 0e3b
00000010: 4ed5 003d b473 b73c 53df d53c 06cb d73b
00000020: 4c80 593b 7931 453d 0d01 403c ecbd 12bc
00000030: 5eb0 133d cb22 a1bc 5e5c 213d afdf 8f3c
00000040: 2fcf cabb 8013 96bc ca3e bf3c 3e31 8abc
00000050: 81b5 7bbc e8f7 8ebc e76a a93c 22ca 3f3c
00000060: 4b4f d93b b749 c1bc 0b35 a3bb e85a 6b3c
00000070: e480 1fbd 0c16 833c 07ba 79bc c970 19bc
00000080: ca2a 553c 2b54 9ebc e81c 893b 4d18 b8bc
00000090: f4d4 9abc 8ec1 2c3c 1b54 003d 5599 62bd
000000a0: 7604 01bd f045 61bc 263c 503c d1c1 223c
000000b0: bc90 7a3c c866 183c 02da 1c3c a1b7 b13c
000000c0: 3c51 70bd b08b c0bc 993c a6bc ec44 033b
000000d0: 8cde 233c 4d05 99bc 6856 ffbb 8c8b 68bc
000000e0: 90e9 68bd 9839 5fbb 36f4 f4bc b636 bc3a
000000f0: d38a 633c 9fd3 b8bc fcf9 283c 871f 573c
00000100: 52e1 b0bb 2023 f83a 3b8f b7bb 6051 b23b
00000110: b7e1 243b 596b 8dbb 22da 8cbb 95be af3b
00000120: 35d8 fb3a 55b3 d5bc 5f33 be39 72dc ebb7
00000130: 7775 e23b 7ace 4bba 57f8 02bb d85b a73b
00000140: 9059 583c 4634 973a 8cef 04bb 9806 de3a
00000150: 6454 f53b 145f 8b3b c0e5 063a 127c cfbb
00000160: d49c 463b 81a6 a4ba c62e 85bb 1736 8639
00000170: ff42 7cbc a263 a13a daaa 11b9 f142 2f3b
00000180: 3607 903a 03cd 28bb 9f21 08b9 3a74 4d3b
00000190: 4278 7ebb 9200 90bc 479d c6bc 8718 a93b
000001a0: a40c bd3b a5bd e3ba 617b 04bc 398a 463a
000001b0: 773a 03ba 13f2 6e38 5a9d acbb 9bae 4cba
000001c0: 271d d5bb af36 fe3b 7bec d73b ac38 02bb
000001d0: 79ee 7ebb 622d 5b3b 389c 0bbb 6dae d83b
000001e0: 0b19 b13c a285 2ebb 8fae 06bb 850e b5bb
000001f0: 9d11 2cba 3233 03bc 8530 f63c 3ec8 7c3b
00000200: 236d ed3c 7407 b6bd 75ff 9e3b 7897 91bd
00000210: 67d9 bfbc 63f3 70ba 6b96 2d3d 4f49 e13c
00000220: 7ae4 88bd e05d 3b3d 45b4 003b 0830 d1bb
00000230: 036e 503d 5455 1dbc 02e3 8fbc 4690 633b
00000240: a001 0e3e 0a9c 0bbd 59e5 e83b 7359 35bd
00000250: f770 843d 758b a2bb 091d ad3d ee39 9dbb
00000260: eca4 bfbc 04d4 d6bb 50ab 04bb 444c a93b
00000270: 1997 853e fc93 1abb 5f0b 1d3b bbfd 29bc
00000280: 6c28 d0bc 08a5 da3c 79e4 6c3d a026 1ebc
00000290: 24cf e63c 0e54 47bc 0431 a33e 2bdf 39bd
000002a0: bc95 b1bc 3ee8 913b 33a5 313d efcc 223b
000002b0: 6599 533c 361f 343c 7627 363a d851 e93e
000002c0: 368a c13c 8fcd 04bd 6af4 983d d177 393b
000002d0: 5e86 e3bd 67b6 12bc 5bb8 70bd c672 573d
000002e0: 0fe9 51be 75f2 b13b 4b19 883c 2ffa 18bb
000002f0: f589 02bd 189e 5cbc 8416 86be 010e 593c
00000300: 753a c3ba ed3e aa3a 067c 7639 5a26 123a
00000310: 8c15 6ebb a860 85bb 58fb a6bb b08f c1bb
00000320: db22 e6bb fa4a 0fbc f454 b6bb ad78 7b3b
00000330: 6c84 2bbc 8f92 b1ba d7b8 27ba cdc7 8f3b
00000340: 3449 983b 0704 a7ba 7326 9fbb 3124 ff3b
00000350: 160b 8ebb 2eaf 0fbb 5287 00bc 6a61 eabb
00000360: addc 49bc 994f 99bb d026 233b 2ef5 dfbb
00000370: dcf4 7f3c 5845 e4ba 6062 8b3b d2a3 b53b
00000380: 5cb4 afbb 1b75 a23a fda0 4dbb d6a2 c03b
00000390: b9e9 243c d291 1cbc 44dc 44bc 8e2b d23b
000003a0: c51e f6ba e8fb 0fbb 60de b13a 528e a03b
000003b0: cde2 c43b 8946 093b abb8 91ba 3786 8bbc
000003c0: 57a9 253b 302b 08bb f2d2 24bb ed88 81bb
000003d0: 489f 4dbc 0c52 f33a 536b 11bc b206 f53b
000003e0: 9c6e 4e3b 7141 843b e77e 163a 5b14 98bb
000003f0: 35a2 81bb 6648 a33a 1254 f3bb 8603 5d3a

encoder.block1.convblock2.1.weight f4 [64]
0.07303496 0.088204905 0.4950834 0.07241808 0.06508042 0.16847247 0.09151672 0.28059396
0.2444669 0.15080169 0.06387326 0.8232629 0.08071124 0.13119772 0.68766207 0.7745531
0.49363846 0.42579657 0.07736032 0.2857752 0.23874591 0.27167812 0.7838183 0.13990037
0.19062734 0.06908983 0.07182368 0.25279212 0.048737124 0.11844106 0.6885099 0.13880229
0.2525291 0.12021927 0.06964336 0.052483894 0.061391216 0.051743906 0.27612433 0.05159882
0.6077563 0.5628437 0.34196848 0.1444252 0.053450294 0.94419646 0.2006147 0.049318872
0.06816639 1.0827556 0.096181706 0.32701075 0.052661505 0.087071285 0.2504226 0.42521238
0.45532316 0.8790489 0.047438458 0.77356076 0.63898385 0.24672656 0.7269254 0.3603761
00000000: 5a93 953d c6a4 b43d 927b fd3e ee4f 943d
00000010: e248 853d 0c84 2c3e 1e6d bb3d 03aa 8f3e
00000020: 8855 7a3e c26b 1a3e fccf 823d 5bc1 523f
00000030: ef4b a53d b258 063e 9f0a 303f 1d49 463f
00000040: 2ebe fc3e 0202 da3e 166f 9e3d 2151 923e
00000050: cf79 743e 6519 8b3e 51a8 483f 0b42 0f3e
00000060: d033 433e f87e 8d3d 4b18 933d f86d 813e
00000070: 94a0 473d 3a91 f23d 2f42 303f 3022 0e3e
00000080: 7f4b 813e 8535 f63d 2ea1 8e3d 5af9 563d
00000090: 5b75 7b3d 6bf1 533d 2b60 8d3e 4959 533d
000000a0: eb95 1b3f 8616 103f 7e16 af3e 33e4 133e
000000b0: b2ee 5a3d dcb6 713f f16d 4d3e 9602 4a3d
000000c0: d29a 8b3d bc97 8a3f eafa c43d f46d a73e
000000d0: 97b3 573d 6e52 b23d 6437 803e 70b5 d93e
000000e0: 1e20 e93e 5909 613f d44e 423d 1408 463f
000000f0: 7294 233f e3a5 7c3e c817 3a3f 3783 b83e

encoder.block1.convblock2.1.bias f4 [64]
-0.20577018 0.0050559207 0.18822159 0.0072034583 0.010395588 0.05022717 -0.21660872 0.15264893
-0.31366906 0.06594627 0.017710557 -0.101259254 0.003669975 -0.0063640475 -0.36342767 -0.109844424
-0.2790348 -0.057849858 -0.06780961 -0.28396398 0.11735234 0.005656628 -0.15923864 0.026274933
-0.4762806 0.010062994 -0.013507235 -0.23356585 -0.003099075 -0.09846432 -0.13730416 0.047523353
-0.06582745 0.082621604 -0.05119956 -0.00017770073 0.014808508 -0.008703039 -0.021803124 0.0045999726
-0.33571932 0.09505996 -0.2479938 -0.20488699 -0.046850234 -0.57817525 0.029479867 0.0010956308
-0.055434767 -0.63347304 -0.6119004 0.17057306 0.006733729 -0.0023921186 -0.23568556 -0.13819702
0.09341596 -0.1212313 0.00074524066 -0.10111345 -0.07926956 -0.08841231 -0.07911067 -0.6867482
00000000: 6bb5 52be 23ac a53b 29bd 403e fd0a ec3b
00000010: 4252 2a3c 01bb 4d3d adce 5dbe 0050 1c3e
00000020: 3b99 a0be d70e 873d bb15 913c 0361 cfbd
00000030: f783 703b 8089 d0bb 3113 babe 1df6 e0bd
00000040: a6dd 8ebe f9f3 6cbd c4df 8abd ba63 91be
00000050: 6c56 f03d 3c5b b93b 740f 23be 873e d73c
00000060: 0ddb f3be 42df 243c 734d 5dbc e32b 6fbe
00000070: da19 4bbb a9a7 c9bd 7699 0cbe d9a7 423d
00000080: 8bd0 86bd 8435 a93d a1b6 51bd 2d55 3ab9
00000090: 629f 723c 3197 0ebc 779c b2bc 5ebb 963b
000000a0: 67e3 abbe ccae c23d 16f2 7dbe e5cd 51be
000000b0: 08e6 3fbd 4b03 14bf c37f f13c 459b 8f3a
000000c0: 910f 63bd 4a2b 22bf 81a5 1cbf b4aa 2e3e
000000d0: 9da6 dc3b 17c5 1cbb 8e57 71be 8583 0dbe
000000e0: de50 bf3d 1e48 f8bd 415c 433a 9214 cfbd
000000f0: 1458 a2bd 8311 b5bd c604 a2bd bbce 2fbf

encoder.block1.convblock2.1.running_mean f4 [64]
-0.015151661 -0.022834867 0.13699043 0.014688736 0.006541626 0.0061151986 -0.013870369 0.059601586
0.037119042 -0.0075851493 0.004984709 -0.34715024 0.013361762 -0.014527808 0.06124646 0.008254672
0.061744444 -0.1543416 -0.015488102 -0.4282672 0.03206911 -0.028806183 -0.26281488 -0.034403253
-0.08136795 0.007183441 0.0026049833 -0.15585503 0.0031545486 0.021631809 0.1282859 -0.05326487
-0.26208127 -0.03515344 0.0067613176 -0.01836543 0.013812924 -0.00981758 -0.050804015 0.004735669
-0.12853706 0.14496987 -0.12859303 -0.043235324 0.0051686815 -0.003618755 0.050956994 -0.0025545463
-0.042300604 -0.07850314 -0.12000836 -0.022514993 0.0025322025 -0.0044126925 -0.026257414 -0.11344707
0.08223696 -0.2204553 0.0026149922 0.03717262 0.12504813 -0.12125522 -0.1134358 -0.12033642
00000000: ac3e 78bc 3010 bbbc 3847 0c3e 06a9 703c
00000010: 235b d63b 0162 c83b 8b40 63bc cb20 743d
00000020: 230a 183d d88c f8bb c556 a33b adbd b1be
00000030: 4beb 5a3c 0b06 6ebc 91dd 7a3d 9b3e 073c
00000040: bee7 7c3d b90b 1ebe cfc1 7dbc d745 dbbe
00000050: e65a 033d f2fa ebbc ac8f 86be 6dea 0cbd
00000060: 3da4 a6bd 1263 eb3b 5eb8 2a3b 7698 1fbe
00000070: 8bbc 4e3b 3135 b13c 615d 033e 442c 5abd
00000080: 842f 86be 0efd 0fbd 0b8e dd3b 1973 96bc
00000090: 9a4f 623c ead9 20bc df17 50bd ac2d 9b3b
000000a0: 389f 03be fb72 143e e4ad 03be 8617 31bd
000000b0: 0b5e a93b a228 6dbb 48b8 503d 2d6a 27bb
000000c0: 6643 2dbd 41c6 a0bd f1c6 f5bd 5d71 b8bc
000000d0: 4ff3 253b 5998 90bb ca19 d7bc f056 e8bd
000000e0: da6b a83d 09bf 61be 4a60 2b3b 5142 183d
000000f0: 9e0c 003e a854 f8bd 0751 e8bd f172 f6bd

encoder.block1.convblock2.1.running_var f4 [64]
0.00013916976 4.474274e-05 0.0029333695 0.00021123183 7.863379e-05 0.00060987705 0.001411691 0.003526752
0.015375519 0.0018557162 0.00018975534 0.04297878 0.00030416335 0.00012006992 0.023512244 0.05788986
0.049645603 0.004387252 0.0025878425 0.7520125 0.003026819 0.008320344 0.032183215 0.00029867896
0.009977871 0.00013859961 4.5351666e-05 0.01498694 5.809324e-05 0.00010944957 0.06540723 0.00030812333
0.0006143874 0.0036269454 0.0005784672 4.546175e-06 0.00013087802 3.097542e-06 0.0031985808 1.8826242e-05
0.0043557817 0.019205151 0.010165857 0.0018920028 0.00024122211 0.009597098 0.010886044 4.6620607e-05
5.962489e-05 0.02403593 0.017668594 0.0024527719 3.8547794e-05 1.6941394e-05 0.025681617 0.003029995
0.014772887 0.051599283 1.8519773e-05 0.057081804 0.02993776 0.00070701324 0.046429045 0.036277622
00000000: 19ee 1139 27aa 3b38 c63d 403b 1d7e 5d39
00000010: 32e8 a438 28e0 1f3a 7d08 b93a 1521 673b
00000020: 9ae9 7b3c 813b f33a 10f9 4639 840a 303d
00000030: 1d78 9f39 0cce fb38 c09c c03c eb1d 6d3d
00000040: 3059 4b3d f0c2 8f3b cb98 293b e483 403f
00000050: 995d 463b 0d52 083c 8cd2 033d 0398 9c39
00000060: 397a 233c 0d55 1139 fb37 3e38 c88b 753c
00000070: 24a9 7338 4a88 e538 3af4 853d 9d8b a139
00000080: d70e 213a 0cb2 6d3b 47a4 173a 598b 9836
00000090: 4d3c 0939 5edf 4f36 489f 513b 0ced 9d37
000000a0: f2ba 8e3b 1f54 9d3c b28e 263c 14fd f73a
000000b0: 91f0 7c39 263d 1d3c 615b 323c 7f8a 4338
000000c0: bd15 7a38 00e7 c43c babd 903c afbe 203b
000000d0: 61ae 2138 5e1d 8e37 4162 d23c e192 463b
000000e0: fb09 723c c559 533d e95a 9b37 9cce 693d
000000f0: 0940 f53c db56 393a 622c 3e3d d897 143d

encoder.block1.convblock3.0.depthwise_conv.weight f4 [64, 1, 3]
0.039982714 0.043724418 0.051777247 0.0065663382 -0.05366369 -0.05876517 -0.28973156 0.5266156
-0.19431695 0.010041282 0.052860364 0.039585408 -0.039087813 -0.026352447 -0.015120937 0.10505194
0.045048412 0.08512744 -0.016168298 -0.0558309 -0.075035565 0.10676006 -0.11678936 -0.27475667
0.03239435 0.07145616 0.092638604 -0.061094284 -0.096774586 -0.08557372 0.05651483 0.019424481
0.010477992 -0.33376133 -0.15142345 -0.16291322 -0.0609566 -0.04190468 -0.0043194485 0.015364531
0.08253997 0.091657825 0.50168514 -0.7069531 0.07187693 -0.5605162 -0.021670569 -0.098327264
-0.51493376 0.07655387 0.2156422 0.12114937 0.0818188 0.17587483 -0.041370366 -0.049602482
-0.0105671305 0.09905242 0.06715033 0.1140158 -0.078175664 -0.101054825 -0.091618545 -0.13669033
-0.09174483 -0.1191222 -0.28527823 -0.13790138 -0.13602853 0.1093228 -0.024190793 -0.080300495
-0.077633634 -0.096273325 -0.08362676 0.008795633 0.053353988 0.026134148 -0.048675526 -0.034954697
-0.015569353 0.028616216 0.026805434 0.07594813 -0.023628652 -0.016829714 0.01938096 0.0729126
0.06347172 0.05709569 -0.734973 0.17031455 0.16570051 0.12939416 0.036136124 -0.044150207
0.13382143 0.18510698 0.096498184 0.07701425 0.06948916 0.033413127 0.083108865 -0.00984397
-0.05911654 0.015336469 0.016613549 -0.01564881 -0.026795477 -0.023176694 -0.029861659 -0.024354456
0.013824275 0.028860927 -0.138681 -0.16050102 -0.04975075 0.025978815 -0.010448746 0.024452996
0.0062797978 -0.12443016 -0.28577495 0.014793932 -0.14399268 -0.4942127 0.06264377 0.06853795
0.09025794 0.0049236473 -0.029319111 -0.07717141 -0.01696363 -0.036641482 -0.033420473 0.21933089
0.30409902 0.3273908 0.1185353 0.11329107 0.084191434 -0.018481063 -0.02701809 0.013689509
-0.006751829 0.020169804 0.0041035246 -0.045695473 -0.2620104 -0.35594106 -0.13687237 -0.14394762
-0.1840265 -0.4308621 0.15391585 0.30468607 -0.00024857026 -0.00047821022 -0.043373264 -0.039861668
0.06603743 0.03687267 0.07959716 0.12312476 0.14589624 -0.17569093 -0.055930022 -0.13480741
0.24618965 0.2726802 0.26077047 -0.05737717 0.15750389 0.40963483 -0.022500196 0.00017621985
0.011934754 0.25266773 0.035412624 -0.66532755 0.646086 -0.10162274 -0.1027867 0.016602527
0.14644219 0.18108337 -0.24277785 -0.28078893 -0.1499745 -0.10977855 -0.12882705 -0.13205314
00000000: eac4 233d 6018 333d 6114 543d 702a d73b
00000010: 75ce 5bbd bfb3 70bd b257 94be 48d0 063f
00000020: 06fb 46be 3084 243c 1c84 583d 4f24 223d
00000030: 8b1a 20bd 16e1 d7bc cebd 77bc 7925 d73d
00000040: af84 383d 4c57 ae3d 6173 84bc f1ae 64bd
00000050: 3fac 99bd 05a5 da3d 432f efbd e8ac 8cbe
00000060: f0af 043d 9b57 923d 4fb9 bd3d 003e 7abd
00000070: c131 c6bd 4641 afbd 187c 673d 1720 9f3c
00000080: e2ab 2b3c c4e2 aabe c00e 1bbe b9d2 26be
00000090: a1ad 79bd 3ea4 2bbd 298a 8dbb 84bb 7b3c
000000a0: b70a a93d 19b7 bb3d 706e 003f e1fa 34bf
000000b0: 3634 933d fd7d 0fbf 7a86 b1bc ce5f c9bd
000000c0: b3d2 03bf 47c8 9c3d 4fd1 5c3e 291d f83d
000000d0: 9d90 a73d 8818 343e f973 29bd f92b 4bbd
000000e0: c221 2dbc ffdb ca3d 1d86 893d 1e81 e93d
000000f0: 901a a0bd d5f5 cebd 81a2 bbbd 8df8 0bbe
00000100: b7e4 bbbd 57f6 f3bd fd0f 92be 0536 0dbe
00000110: 104b 0bbe a2e4 df3d c52b c6bc 9674 a4bd
00000120: 62fe 9ebd f32a c5bd 8244 abbd 8f1b 103c
00000130: b689 5a3d 4817 d63c fd5f 47bd a82c 0fbd
00000140: 9916 7fbc 8e6c ea3c 1297 db3c b18a 9b3d
00000150: e090 c1bc 78de 89bc d2c4 9e3c 3453 953d
00000160: 76fd 813d 2cdd 693d 3127 3cbf f066 2e3e
00000170: 65ad 293e e77f 043e 7903 143d d9d6 34bd
00000180: 7c08 093e af8c 3d3e d7a0 c53d a6b9 9d3d
00000190: 5550 8e3d 34dc 083d fb34 aa3d 9a48 21bc
000001a0: 2f24 72bd d045 7b3c 2319 883c ef31 80bc
000001b0: 3082 dbbc 0ddd bdbc 70a0 f4bc ff82 c7bc
000001c0: 367f 623c c06d ec3c 6402 0ebe 615a 24be
000001d0: 71c7 4bbd 86d1 d43c 3831 2bbc a651 c83c
000001e0: c3c6 cd3b 3dd5 febd 1851 92be 4062 723c
000001f0: d172 13be 7209 fdbe 604b 803d a05d 8c3d
00000200: 28d9 b83d 8c56 a13b a22e f0bc 0b0c 9ebd
00000210: 50f7 8abc 6115 16bd e8e3 08bd 4798 603e
00000220: deb2 9b3e c49f a73e a3c2 f23d 2605 e83d
00000230: 8f6c ac3d 9965 97bc 0b55 ddbc f649 603c
00000240: 723e ddbb 253b a53c dc76 863b 2d2b 3bbd
00000250: 3a26 86be e83d b6be 4528 0cbe 0167 13be
00000260: 7171 3cbe f599 dcbe 1e9c 1d3e d0ff 9b3e
00000270: 8952 82b9 4ab8 fab9 2aa8 31bd fd45 23bd
00000280: a23e 873d cc07 173d d603 a33d d628 fc3d
00000290: d365 153e 53e8 33be e116 65bd f40a 0abe
000002a0: 2419 7c3e bd9c 8b3e b583 853e 5304 6bbd
000002b0: b348 213e a8bb d13e 5552 b8bc a8c7 3839
000002c0: fd89 433c aa5d 813e d40c 113d e852 2abf
000002d0: e465 253f 951f d0bd d581 d2bd 0602 883c
000002e0: f1f4 153e eb6d 393e c29a 78be 91c3 8fbe
000002f0: ea92 19be 94d3 e0bd 3deb 03be f038 07be

encoder.block1.convblock3.0.pointwise_conv.weight f4 [64, 64, 1]
0.0004847083 0.005762162 -0.010177702 0.0007582653 -0.0053398297 -0.004995443 0.017045276 0.010901325
-0.013079245 0.0009164058 -0.004609066 0.020132368 -0.004568792 -0.0136364205 -0.048238035 0.0025000453
-0.052831598 -0.0066385414 0.017879156 0.0049558654 0.0011903894 0.0036484955 0.013228513 -0.006316735
-0.053919632 -0.0013635812 0.0020127927 -0.010507736 0.00074777997 0.0044974377 -0.014468782 -0.006747337
-0.014312572 0.006209442 -0.019973457 -0.0023459329 -0.0043586437 -0.005065686 0.01092931 -0.005511546
0.01444874 -0.0005694271 0.054898124 -0.02008329 -0.0038868245 0.01360063 -0.005361976 0.004072275
-0.0011831404 0.067168415 0.039921094 -0.0024144112 0.0024013 0.010368232 -0.016198583 0.007605095
0.027171696 0.013244986 0.0050460403 -0.027275719 0.0064236014 -0.010032112 -0.024927167 -0.047540125
-0.020504769 0.003029854 0.08117603 0.0032508532 0.0033840553 -0.00798343 0.009011983 0.04432226
0.010352878 0.0068745753 0.00027817304 0.0020918923 0.0080229845 -0.002962693 -0.07527474 0.019071251
-0.12843047 -0.024058735 0.0055439984 -0.05411798 0.023563856 0.03284275 0.05049525 0.005997445
0.047476232 -0.0024256175 0.006864934 -0.021109218 0.00083301286 0.0072562913 -0.11546743 -0.0056328294
-0.026728429 0.025894253 0.0016002243 0.0050424887 0.0039499328 -0.002789642 0.02917879 -0.0041558226
0.034706883 -0.06963349 -0.011203288 0.01768359 0.00048556048 -0.07536111 -0.008062359 -0.0055359686
-0.0030809091 0.030931797 0.027946007 0.031077042 0.0011462354 -0.0036419833 0.0056707244 0.014503871
0.053387355 -0.06743183 -0.0051477673 0.063848965 -0.0387908 -0.01645521 -0.022051228 0.057961036
0.023436578 -0.00016776653 -0.014985509 -0.00055153907 0.0013128514 -0.009054207 0.015104117 0.005772314
-0.056508064 -0.0011471966 -0.0056254966 0.0039105406 -0.0075055803 0.00164948 0.031602923 -0.00091962196
-0.012766232 -0.0030033742 0.03192829 0.0020525523 0.009275538 0.0015710139 0.0038555132 -0.005621959
-0.017524915 0.0061204373 0.0031512394 0.005359441 -0.0059068496 0.018765299 0.021071147 0.0018912723
-0.005999874 0.011684978 -0.013133172 -0.0030011265 0.0016261953 0.002393851 0.008329703 0.0040342677
0.0152491955 0.00563318 0.07055024 -0.032560114 0.009111022 0.034161817 -0.0060710385 0.0034026979
-0.004486387 0.022360994 0.013318707 0.008546919 -0.0003013546 0.0048067775 -0.0135574285 0.00414964
0.0046365703 -0.032088794 -0.00091172825 -0.020447338 0.023255963 -0.006267485 0.005197177 -0.023061411
-0.005243771 -0.0053572315 0.020609219 8.374555e-05 0.0049945638 -0.053692903 0.0035264161 -0.01487174
-0.009351228 0.00699004 -0.002919931 0.08174058 0.005124248 -0.011241069 -0.0165578 -0.111815855
0.032663267 0.001619042 0.0027416635 -0.03101871 0.0062832073 0.04906774 0.08741514 -0.0065700426
0.012824762 -0.0003076707 0.008129917 -0.017634153 -0.0033751004 0.014543362 0.020159226 -0.015348968
0.003106105 -0.00033403342 0.011080811 -0.00024862614 0.0016930661 0.0024479686 0.011214667 -0.00021655725
0.04991808 -0.11013649 0.010172508 0.0015228809 0.012039094 -0.05053975 -0.0078087943 0.0015224355
-0.0025131954 0.06673992 0.016183028 -0.09542543 0.0014852715 -0.010877104 -0.015739053 0.033015717
-0.02977497 0.07347134 -0.007329478 0.1532695 0.15015282 -0.012036438 -0.009908526 0.003400415
00000000: 7220 fe39 85d0 bc3b 60c0 26bc 53c6 463a
00000010: bdf9 aebb d0b0 a3bb 89a2 8b3c 799b 323c
00000020: 544a 56bc f43a 703a a607 97bb a3ec a43c
00000030: ceb5 95bb 4b6b 5fbc 3f95 45bd cdd7 233b
00000040: f265 58bd 1f88 d9bb 4f77 923c d064 a23b
00000050: d706 9c3a 991b 6f3b 68bc 583c 9dfc cebb
00000060: d5da 5cbd 31ba b2ba 0fe9 033b a428 2cbc
00000070: aa06 443a 3e5f 933b 780e 6dbc c418 ddbb
00000080: 477f 6abc 9378 cb3b 609f a3bc 39be 19bb
00000090: f4d2 8ebb 0efe a5bb d910 333c 339a b4bb
000000a0: 68ba 6c3c 9b45 15ba dbdc 603d b685 a4bc
000000b0: 18ba 7ebb 2dd5 5e3c 84b3 afbb b870 853b
000000c0: 9b13 9bba 988f 893d 4d84 233d 193b 1ebb
000000d0: 215f 1d3b 84df 293c e4b2 84bc 2934 f93b
000000e0: 2d97 de3c 7f01 593c 4159 a53b 5471 dfbc
000000f0: 137d d23b ba5d 24bc 0f34 ccbc 6fb9 42bd
00000100: 9ef9 a7bc 8490 463b 9e3f a63d 440c 553b
00000110: 07c7 5d3b efcc 02bc ffa6 133c 428b 353d
00000120: 1e9f 293c 1e44 e13b c1d7 9139 2118 093b
00000130: d672 033c be29 42bb a529 9abd 503b 9c3c
00000140: 4783 03be d316 c5bc 6eaa b53b d1aa 5dbd
00000150: fd08 c13c 1f86 063d 1bd4 4e3d 3786 c43b
00000160: 7076 423d 1cf7 1ebb 3ef3 e03b 3ded acbc
00000170: 8c5e 5a3a 2fc6 ed3b 307a ecbd 9993 b8bb
00000180: 94f5 dabc 2f20 d43c 9ebe d13a 763b a53b
00000190: 706e 813b 6dd2 36bb 5c08 ef3c 912d 88bb
000001a0: ce28 0e3d 019c 8ebd ff8d 37bc 2ddd 903c
000001b0: d392 fe39 ed56 9abd fc17 04bc 1267 b5bb
000001c0: 14e9 49bb ae64 fd3c 06ef e43c 4895 fe3c
000001d0: 473d 963a 57ae 6ebb 7cd1 b93b a5a1 6d3c
000001e0: b3ac 5a3d b319 8abd 9aae a8bb 3fc3 823d
000001f0: 1ae3 1ebd 14cd 86bc c7a4 b4bc 8d68 6d3d
00000200: 11fe bf3c 7cea 2fb9 c885 75bc 2995 10ba
00000210: fc13 ac3a 1958 14bc 4277 773c ae25 bd3b
00000220: 0075 67bd 885d 96ba 1656 b8bb fe23 803b
00000230: 5ff1 f5bb 5d33 d83a 1172 013d c912 71ba
00000240: 7529 51bc 42d4 44bb 3dc7 023d 1d84 063b
00000250: 6df8 173c 7bea cd3a c7ac 7c3b 6938 b8bb
00000260: 6990 8fbc f38d c83b 0685 4e3b 409e af3b
00000270: 3f8e c1bb afb9 993c 669d ac3c 91e4 f73a
00000280: 979a c4bb 5a72 3f3c 842c 57bc 8cae 44bb
00000290: 0f26 d53a 28e2 1c3b 4e79 083c e431 843b
000002a0: c3d7 793c 8a96 b83b a57c 903d c15d 05bd
000002b0: 6546 153c 43ed 0b3d 90ef c6bb ccff 5e3b
000002c0: 8b02 93bb 672e b73c b536 5a3c 6008 0c3c
000002d0: 21ff 9db9 2c82 9d3b fa1f 5ebc b4f9 873b
000002e0: 5fee 973b 8a6f 03bd 0c01 6fba 2d81 a7bc
000002f0: 4a83 be3c 7a5f cdbb 154d aa3b 49eb bcbc
00000300: f0d3 abbb b78b afbb aad4 a83c 8da0 af38
00000310: 70a9 a33b 17ed 5bbd 721b 673b 99a8 73bc
00000320: e535 19bc b50c e53b 505c 3fbb 9b67 a73d
00000330: 4fe9 a73b 762c 38bc 39a4 87bc b6ff e4bd
00000340: ebc9 053d 0936 d43a 7bad 333b f31a febc
00000350: 5de3 cd3b 41fb 483d b506 b33d 8349 d7bb
00000360: f31e 523c dd4e a1b9 5833 053c 8075 90bc
00000370: ca30 5dbb 4847 6e3c f624 a53c 3d7a 7bbc
00000380: cb8f 4b3b 3521 afb9 4a8c 353c 095a 82b9
00000390: dfe9 dd3a 196e 203b b9bd 373c a513 63b9
000003a0: e776 4c3d 3d8f e1bd 97aa 263c 679b c73a
000003b0: 9f3f 453c c502 4fbd eae0 ffbb 758c c73a
000003c0: 6cb4 24bb f0ae 883d 4592 843c 686e c3bd
000003d0: 71ad c23a e135 32bc 30ef 80bc 7d3b 073d
000003e0: a3ea f3bc 2478 963d 1e2c f0bb aef2 1c3e
000003f0: a9c1 193e 7b34 45bc 5f57 22bc 7fd9 5e3b

encoder.block1.convblock3.1.weight f4 [64]
0.09028753 0.2328045 0.10043102 0.23972647 0.3997742 0.34690595 0.06690894 0.22543351
0.14141475 0.38652682 0.32613733 0.64450866 0.48782113 0.3858445 0.8994232 0.43297553
0.77745605 0.73828524 0.29502982 0.5230471 0.5910841 0.22481848 0.34483647 0.8248134
0.31244805 0.39058018 0.17406999 0.3934597 0.2296922 0.25754857 0.2282949 0.49536613
0.55071706 0.32251415 0.19829123 0.22366454 0.69902635 0.38654682 0.5400379 0.46217796
0.68473226 0.37305924 0.3770219 0.26874048 0.4050981 0.5790161 0.17805947 0.62469816
0.47294664 0.5898086 0.36162433 0.42362803 0.31374735 0.332701 0.61118305 0.18159185
0.3007431 0.22962889 0.34541795 0.5343352 0.46457365 0.37346867 0.35863492 0.05502519
00000000: abe8 b83d 4e64 6e3e c7ae cd3d db7a 753e
00000010: 34af cc3e a89d b13e 8e07 893d 0bd8 663e
00000020: 07cf 103e d8e6 c53e 79fb a63e 85fe 243f
00000030: b1c3 f93e 698d c53e 9940 663f f8ae dd3e
00000040: 5c07 473f 4300 3d3f 260e 973e 6ae6 053f
00000050: 4a51 173f d136 663e 688e b03e f926 533f
00000060: 31f9 9f3e 20fa c73e 673f 323e 8d73 c93e
00000070: 6f34 6b3e 68dd 833e 23c6 693e a1a0 fd3e
00000080: cbfb 0c3f 9320 a53e db0c 4b3e 5108 653e
00000090: 64f3 323f 77e9 c53e ec3f 0a3f 97a2 ec3e
000000a0: 9d4a 2f3f 9f01 bf3e 0409 c13e 5a98 893e
000000b0: 0569 cf3e 663a 143f 3955 363e 38ec 1f3f
000000c0: 1026 f23e b2fd 163f d326 b93e c6e5 d83e
000000d0: 7ea3 a03e c957 aa3e 7e76 1c3f 37f3 393e
000000e0: 00fb 993e d623 6b3e 9fda b03e 31ca 083f
000000f0: 99dc ed3e 4937 bf3e ff9e b73e 1862 613d

encoder.block1.convblock3.1.bias f4 [64]
-0.075687066 -0.00848027 -0.073427014 0.015937356 -0.038328677 -0.00742485 0.0067251264 0.08652021
0.0014433289 0.057376552 0.054758843 -0.20342268 -0.11318205 -0.089837864 -0.42038432 -0.15030254
-0.37856323 -0.1360589 -0.15191929 -0.11746234 -0.15499587 0.027357463 -0.00011114065 -0.46548852
0.026693769 -0.062351745 0.032111272 -0.053955734 -0.045342773 0.055514056 0.06285964 -0.11836215
-0.12244197 0.0026534998 -0.117080495 0.04959325 -0.20543471 -0.06023766 -0.04701316 -0.075807266
-0.23619743 -0.2200285 -0.15406372 0.036840875 0.048205074 -0.21867715 0.019318234 -0.11379206
-0.08561798 -0.2289194 0.018381387 -0.25846303 0.017540641 -0.013449295 -0.08052504 -0.04131656
-0.033401877 0.15063865 -0.060133543 -0.14689258 -0.0732018 -0.02728536 -0.06963734 -0.00048351346
00000000: d201 9bbd d5f0 0abc e760 96bd 0f8f 823c
00000010: 88fe 1cbd 284c f3bb 735e dc3b 8231 b13d
00000020: 152e bd3a ad03 6b3d cf4a 603d 094e 50be
00000030: fecb e7bd eafc b7bd 9d3c d7be e9e8 19be
00000040: 0ad3 c1be 0653 0bbe bb90 1bbe 1890 f0bd
00000050: 3db7 1ebe c21c e03c 2f14 e9b8 8354 eebe
00000060: e4ac da3c 8b64 7fbd 1c87 033d b000 5dbd
00000070: 58b9 39bd b562 633d 8ebc 803d db67 f2bd
00000080: dbc2 fabd 57e6 2d3b e6c7 efbd 4b22 4b3d
00000090: 7a5d 52be c4bb 76bd df90 40bd d740 9bbd
000000a0: bddd 71be 274f 61be e1c2 1dbe 75e6 163d
000000b0: af72 453d e7ec 5fbe 4641 9e3c d00b e9bd
000000c0: 7b58 afbd d969 6abe 9094 963c 4455 84be
000000d0: 64b1 8f3c 6f5a 5cbc 50ea a4bd 8e3b 29bd
000000e0: 68d0 08bd 0541 1a3e 974e 76bd 026b 16be
000000f0: d3ea 95bd 8c85 dfbc 069e 8ebd 1480 fdb9

encoder.block1.convblock3.1.running_mean f4 [64]
0.0034817283 0.0009554817 -0.0037540896 0.0066756993 0.0046324776 -0.0026882102 0.001207854 -0.0023965004
-0.012845466 0.012259559 0.018107563 -0.007935071 0.010629933 -0.015410234 0.012026514 -0.015283523
0.027419988 -0.004812932 0.0035198857 -0.0023315123 0.00528745 -0.0021083287 0.0059909276 0.022280633
0.0026656797 -0.0026474397 0.0034132646 -0.0031038611 -0.01182366 -0.0008088305 -0.028167553 -0.008515257
-0.027020514 -0.00091560755 0.0006629686 0.0013026838 0.028808732 0.0093683135 -0.005562642 -0.0048982473
0.023082202 -0.0073809503 -0.002852167 0.025942225 0.009140609 0.0019665791 -1.4921027e-05 -0.008990486
0.006198416 0.003706714 -0.012566854 -0.027181016 -0.016008243 -0.0053958963 0.015212242 -0.0075341044
-0.010204517 -0.014118634 0.020068875 0.0023259835 -0.008035926 0.0047043907 0.03298267 0.0039066523
00000000: b52d 643b 4b79 7a3a 2c07 76bb d3bf da3b
00000010: 0acc 973b af2c 30bb db50 9e3a 9b0e 1dbb
00000020: ca75 52bc 51dc 483c 5056 943c 1a02 02bc
00000030: 2c29 2e3c 357b 7cbc db0a 453c be67 7abc
00000040: e29f e03c cdb5 9dbb e2ad 663b 49cc 18bb
00000050: 5842 ad3b e32b 0abb 8b4f c43b e085 b63c
00000060: afb2 2e3b ab80 2dbb 14b1 5f3b 266a 4bbb
00000070: 06b8 41bc b207 54ba a4bf e6bc 9483 0bbc
00000080: 205a ddbc 6205 70ba 12cb 2d3a d1be aa3a
00000090: 4a00 ec3c 8e7d 193c d346 b6bb 7a81 a0bb
000000a0: e316 bd3c e6db f1bb 6ceb 3abb ca84 d43c
000000b0: 7ec2 153c b9e1 003b 5355 7ab7 d54c 13bc
000000c0: 151c cb3b 57ec 723b 35e5 4dbc b9aa debc
000000d0: b823 83bc 0fd0 b0bb c43c 793c a6e0 f6bb
000000e0: d930 27bc d851 67bc 7b67 a43c 876f 183b
000000f0: 1ea9 03bc 4a27 9a3b d618 073d 6003 803b

encoder.block1.convblock3.1.running_var f4 [64]
7.382488e-05 0.00047184885 7.706205e-05 0.0006375107 0.0011990014 0.00056235713 1.7515366e-06 0.00015542943
0.00015295205 0.0028783758 0.0016758889 0.001339645 0.0014997389 0.00080711354 0.0031164915 0.0007327572
0.0019212646 0.0067586266 8.4592306e-05 0.0023774176 0.0013952723 0.000108825436 0.0013248172 0.0025194522
0.0006597424 0.0015543734 0.00010843087 0.0015840405 0.0003572642 0.00024123573 0.0005564416 0.00076811836
0.0011048078 0.0005205257 0.00058928336 0.00047143988 0.0026873695 0.0012722716 0.005217458 0.0021944314
0.0018617513 0.00011081341 0.00032124497 0.000568731 0.002654612 0.0011920312 0.00034969975 0.00459052
0.0011664229 0.0015187936 0.0011813233 0.00048942334 0.00076007034 0.00083756726 0.00583057 0.00019054307
0.00021757277 0.0003048911 0.00075200404 0.0011255573 0.0008595408 0.0012891701 0.0018508886 9.336245e-06
00000000: 6ed2 9a38 7b62 f739 609c a138 9e1e 273a
00000010: d027 9d3a 266b 133a 5716 eb35 c5fa 2239
00000020: c161 2039 22a3 3c3b 80a9 db3a 0797 af3a
00000030: e392 c43a 7994 533a 0d3e 4c3b 8116 403a
00000040: f1d2 fb3a 7877 dd3b 2667 b138 73ce 1b3b
00000050: 92e1 b63a 3639 e438 7da5 ad3a 651d 253b
00000060: 90f2 2c3a 1ebc cb3a 6165 e338 949f cf3a
00000070: 304f bb39 39f4 7c39 2ade 113a 8d5b 493a
00000080: 33cf 903a e373 083a 237a 1a3a 972b f739
00000090: 941e 303b 5ac2 a63a 36f7 aa3b 73d0 0f3b
000000a0: 0206 f43a 7f64 e838 c56c a839 e416 153a
000000b0: 00f9 2d3b ee3d 9c3a e857 b739 136c 963b
000000c0: a8e2 983a 4212 c73a a2d6 9a3a a54c 003a
000000d0: 753f 473a 3090 5b3a 5e0e bf3b 84cc 4739
000000e0: 3f24 6439 cad9 9f39 2322 453a 7087 933a
000000f0: cf52 613a 5ff9 a83a 8499 f23a dea2 1c37

encoder.block1.shortcut.0.weight f4 [64, 1, 1]
0.034798715 -0.04779828 -0.049716756 0.028190427 0.011657359 0.0019871327 0.01901351 -0.005406555
0.014561305 0.016849015 -0.016809585 -0.037174486 -0.010597243 -0.03276372 0.02189016 -0.021329427
0.006981889 -0.046062414 -0.01647851 -0.021355746 -0.006876517 0.04955478 -0.032442946 -0.0060065216
0.033731285 -0.033371724 0.038822748 0.04410833 -0.041675795 0.03252853 -0.049368687 -0.006866315
0.04653441 0.04658122 0.019293442 0.042439073 -0.015085075 -0.029212056 -0.022422984 -0.04197855
-0.014487043 0.036967266 -0.0043329215 0.01413718 -0.039441995 -0.03432476 -0.03491775 -0.03060526
-0.0189196 -0.03696754 0.04899664 0.037279915 0.009683964 0.021009196 0.02715203 0.010140178
-0.041694168 -0.015506469 -0.005044839 0.010336572 0.014469427 0.0110183945 0.0046373196 -0.023929646
00000000: 1989 0e3d 21c8 43bd cca3 4bbd 9cef e63c
00000010: 82fe 3e3c 8e3a 023b 38c2 9b3c 7829 b1bb
00000020: 8a92 6e3c f206 8a3c 41b4 89bc 4644 18bd
00000030: 0fa0 2dbc 4033 06bd fe52 b33c 0dbb aebc
00000040: 54c8 e43b f1ab 3cbd f1fd 86bc 3ff2 aebc
00000050: 6854 e1bb f4f9 4a3d e5e2 04bd 5bd2 c4bb
00000060: d129 0a3d cab0 08bd 9a04 1f3d f0aa 343d
00000070: 3db4 2abd a33c 053d d236 4abd d3fe e0bb
00000080: de9a 3e3d f3cb 3e3d 480d 9e3c 98d4 2d3d
00000090: 6427 77bc 1f4e efbc 68b0 b7bc b3f1 2bbd
000000a0: 105b 6dbc fd6a 173d 2efb 8dbb a19f 673c
000000b0: ee8d 21bd 1f98 0cbd ea05 0fbd e2b7 fabc
000000c0: 47fd 9abc 466b 17bd b3b0 483d d3b2 183d
000000d0: 7da9 1e3c 7a1b ac3c ef6d de3c fd22 263c
000000e0: 81c7 2abd d80e 7ebc 2d4f a5bb ba5a 293c
000000f0: 2d11 6d3c 7f86 343c a8f4 973b 1b08 c4bc

encoder.block1.shortcut.1.weight f4 [64]
0.036457628 -0.010099511 0.0022138031 0.059018154 0.13463679 -0.014684802 0.04840614 0.03910815
0.05151406 0.129047 0.055470068 0.17642315 -0.15246817 0.0060263597 0.061447922 0.063783936
0.21517804 0.2002639 0.008763085 0.11323623 -0.07484473 0.019444345 -0.043863084 -0.0465805
0.040400054 0.14755459 0.046659186 -0.085157424 -0.032493487 0.047924325 0.0068450104 -0.042264342
-0.006858403 0.020134492 -0.04806655 0.039358836 -0.2974421 -0.0305809 -0.079733275 0.13548692
-0.13114774 0.045715567 0.049372938 0.014999342 0.01280625 -0.07760143 0.011331554 0.25890955
-0.088165335 0.14283442 -0.021568056 -0.021456353 0.0025041886 0.0052677915 0.17735 0.022141445
0.028942378 0.0745384 -0.07252561 -0.17192167 -0.03852434 -0.025481064 0.088551 0.052196287
00000000: 9854 153d 6b78 25bc 7415 113b 05bd 713d
00000010: 3ade 093e 8698 70bc 8445 463d de2f 203d
00000020: 6800 533d e624 043e 9534 633d 45a8 343e
00000030: 9e20 1cbe c578 c53b d1b0 7b3d 27a1 823d
00000040: a257 5c3e fb11 4d3e 0b93 0f3c 66e8 e73d
00000050: 3248 99bd bf49 9f3c c7a9 33bd 32cb 3ebd
00000060: 877a 253d 8d18 173e b41d 3f3d 0467 aebd
00000070: e417 05bd 4c4c 443d 1c4c e03b 601d 2dbd
00000080: 74bc e0bb 17f1 a43c 6ee1 44bd bb36 213d
00000090: 554a 98be cc84 fabc 334b a3bd 15bd 0a3e
000000a0: 984b 06be 3f40 3b3d 473b 4a3d cdbf 753c
000000b0: 4ed1 513c 80ed 9ebd fba7 393c cb8f 843e
000000c0: 0790 b4bd 3043 123e 7eaf b0bc 3cc5 afbc
000000d0: 501d 243b 709d ac3b 3d9b 353e fa61 b53c
000000e0: 9118 ed3c 97a7 983d 4f88 94bd 3c0c 30be
000000f0: b3cb 1dbd aabd d0bc 3a5a b53d c6cb 553d

encoder.block1.shortcut.1.bias f4 [64]
-0.075687066 -0.00848027 -0.073427014 0.015937356 -0.038328677 -0.00742485 0.0067251264 0.08652021
0.0014433289 0.057376552 0.054758843 -0.20342268 -0.11318205 -0.089837864 -0.42038432 -0.15030254
-0.37856323 -0.1360589 -0.15191929 -0.11746234 -0.15499587 0.027357463 -0.00011114065 -0.46548852
0.026693769 -0.062351745 0.032111272 -0.053955734 -0.045342773 0.055514056 0.06285964 -0.11836215
-0.12244197 0.0026534998 -0.117080495 0.04959325 -0.20543471 -0.06023766 -0.04701316 -0.075807266
-0.23619743 -0.2200285 -0.15406372 0.036840875 0.048205074 -0.21867715 0.019318234 -0.11379206
-0.08561798 -0.2289194 0.018381387 -0.25846303 0.017540641 -0.013449295 -0.08052504 -0.04131656
-0.033401877 0.15063865 -0.060133543 -0.14689258 -0.0732018 -0.02728536 -0.06963734 -0.00048351346
00000000: d201 9bbd d5f0 0abc e760 96bd 0f8f 823c
00000010: 88fe 1cbd 284c f3bb 735e dc3b 8231 b13d
00000020: 152e bd3a ad03 6b3d cf4a 603d 094e 50be
00000030: fecb e7bd eafc b7bd 9d3c d7be e9e8 19be
00000040: 0ad3 c1be 0653 0bbe bb90 1bbe 1890 f0bd
00000050: 3db7 1ebe c21c e03c 2f14 e9b8 8354 eebe
00000060: e4ac da3c 8b64 7fbd 1c87 033d b000 5dbd
00000070: 58b9 39bd b562 633d 8ebc 803d db67 f2bd
00000080: dbc2 fabd 57e6 2d3b e6c7 efbd 4b22 4b3d
00000090: 7a5d 52be c4bb 76bd df90 40bd d740 9bbd
000000a0: bddd 71be 274f 61be e1c2 1dbe 75e6 163d
000000b0: af72 453d e7ec 5fbe 4641 9e3c d00b e9bd
000000c0: 7b58 afbd d969 6abe 9094 963c 4455 84be
000000d0: 64b1 8f3c 6f5a 5cbc 50ea a4bd 8e3b 29bd
000000e0: 68d0 08bd 0541 1a3e 974e 76bd 026b 16be
000000f0: d3ea 95bd 8c85 dfbc 069e 8ebd 1480 fdb9
