ldpi/training/output/ResCNN/scripted_quantized_model.pth (torch, 270232 bytes, 61 tensors)

cpu f4 [64]
00000000: 0000 0000 0000 0000 0000 0000 0000 0000
00000010: 0000 0000 0000 0000 0000 0000 0000 0000
00000020: 0000 0000 0000 0000 0000 0000 0000 0000
00000030: 0000 0000 0000 0000 0000 0000 0000 0000
00000040: 0000 0000 0000 0000 0000 0000 0000 0000
00000050: 0000 0000 0000 0000 0000 0000 0000 0000
00000060: 0000 0000 0000 0000 0000 0000 0000 0000
00000070: 0000 0000 0000 0000 0000 0000 0000 0000
00000080: 0000 0000 0000 0000 0000 0000 0000 0000
00000090: 0000 0000 0000 0000 0000 0000 0000 0000
000000a0: 0000 0000 0000 0000 0000 0000 0000 0000
000000b0: 0000 0000 0000 0000 0000 0000 0000 0000
000000c0: 0000 0000 0000 0000 0000 0000 0000 0000
000000d0: 0000 0000 0000 0000 0000 0000 0000 0000
000000e0: 0000 0000 0000 0000 0000 0000 0000 0000
000000f0: 0000 0000 0000 0000 0000 0000 0000 0000
0.0 0.0 0.0 0.0 0.0 0.0 0.0 0.0
0.0 0.0 0.0 0.0 0.0 0.0 0.0 0.0
0.0 0.0 0.0 0.0 0.0 0.0 0.0 0.0
0.0 0.0 0.0 0.0 0.0 0.0 0.0 0.0
0.0 0.0 0.0 0.0 0.0 0.0 0.0 0.0
0.0 0.0 0.0 0.0 0.0 0.0 0.0 0.0
0.0 0.0 0.0 0.0 0.0 0.0 0.0 0.0
0.0 0.0 0.0 0.0 0.0 0.0 0.0 0.0

weight f4 [64]
00000000: 8728 053e 4cce 023e 20b3 0a3f 4abc b53d
00000010: d835 673d 2423 023f c19d 303e 7cb4 d03e
00000020: 6702 033e 7e07 433e a986 0f3e f544 f93e
00000030: d7c5 803e 2934 a73e 249c 763d 73d0 413d
00000040: 3ac3 363d cf58 fe3e cd3e ba3e 756f d03e
00000050: 1557 013f 2de8 ef3d deff 1c3e 7a34 dc3c
00000060: 6a24 b13d 3b34 6c3e 023b a73d 5b3c 3b3e
00000070: 3647 323d 1019 d33d d9e9 1d3f 1aba 913e
00000080: 1199 343e 9266 873d faf3 4f3d e080 de3e
00000090: 63d8 943e 547b 7b3e 8bf8 8c3d f45a 833e
000000a0: efa5 343e 8519 8f3e c684 293f d218 413d
000000b0: 53ec 553e be91 e73d b6e8 ba3d 7e35 313e
000000c0: 5a33 ef3d 9876 4a3e c48d 093f ad86 c33d
000000d0: c2a2 0a3f da9d 7e3d 55b2 583d 05a5 a93d
000000e0: 4954 643d 4df9 3c3f 6b77 3d3e bb8b 213f
000000f0: 1b96 f93e ad5b 5d3d 304f e63c 9d38 223f
0.13003741 0.12774009 0.54179573 0.08873804 0.056447834 0.5083487 0.17247678 0.407627
0.12793885 0.19045827 0.14016213 0.48685423 0.2515094 0.32656983 0.0602075 0.047317933
0.044619776 0.4967713 0.36376038 0.40710035 0.505235 0.11714206 0.1533198 0.026880492
0.086495236 0.230668 0.08165552 0.18284743 0.043524943 0.10307515 0.6168495 0.28462297
0.17636515 0.066113606 0.050769784 0.434577 0.2907134 0.24558765 0.06883343 0.2565533
0.17641424 0.27949157 0.6621822 0.04714281 0.20890932 0.11307095 0.09126417 0.17305562
0.116797164 0.19771802 0.5373194 0.09547172 0.541546 0.062162258 0.052904446 0.08283428
0.055744443 0.738179 0.18502586 0.63103837 0.48747334 0.054042507 0.028113931 0.63367635

bias f4 [64]
00000000: 5c8c f2bd 2cf7 19bf 5166 253e 044e 4abe
00000010: 5236 8abe bbad be3d 5e53 dfbe 6693 273e
00000020: 76e1 4b3d 6bcf 00bf 1ef2 e9bc 20ba afbd
00000030: 576e f0bd f71c 913d f320 86bd dfc9 45be
00000040: 1415 733d 9083 0bbe 0485 1dbd 4366 243e
00000050: 2915 19be 27ff a1bd 6485 f8bd ff20 bcbc
00000060: 9cee 303d 7b86 01bd 891c 90bc 70b5 5abe
00000070: 7b58 90bc 84f5 793e 4b77 84be fa39 37bd
00000080: 4637 483d 7138 98bc 466d c7bd 7ee4 06be
00000090: 5460 1a3f dc83 57bc e37f 85bc 3fb1 d9bd
000000a0: 04e7 2f3d 7626 12be 12ac 773f 945a 78bc
000000b0: 0c2b bb3e 3e3a 0abe 82ba e43c 5966 2fbe
000000c0: b30d 54bd 9aef f13d 1502 503e af1f 273f
000000d0: c406 24be 4a47 15bd 1e6f cfbd 0440 003f
000000e0: c7b9 ec3d 6cc2 8a3e 8fc8 663d d91a ba3d
000000f0: 16e2 96be c238 94bd 983a adbc 86dd 813d
-0.11843178 -0.6014278 0.16152312 -0.19756323 -0.26994568 0.0931048 -0.43618292 0.16364822
0.049775563 -0.50316495 -0.028557833 -0.085804224 -0.11739796 0.07085603 -0.06549253 -0.19315289
0.059346274 -0.13624406 -0.03845693 0.16054635 -0.14949478 -0.079099946 -0.12134817 -0.022964953
0.043196306 -0.03162239 -0.017591732 -0.21358275 -0.017620316 0.24410063 -0.25872263 -0.044733025
0.048880838 -0.0185816 -0.09737639 -0.131731 0.60303235 -0.013153996 -0.016296333 -0.1062951
0.042944923 -0.14272484 0.96746933 -0.015158314 0.3655628 -0.1349878 0.027920965 -0.17128886
-0.051770877 0.118132785 0.20313294 0.6528272 -0.16018206 -0.03644494 -0.10128616 0.5009768
0.11558872 0.27101457 0.05634361 0.09087152 -0.29469365 -0.07237388 -0.021146104 0.0634108

running_mean f4 [64]
00000000: d9c6 c2bc 96ce 773c 7fce fcbc 3527 423b
00000010: a1ba 8a3c bc2a fabc ee51 863b 9687 af3c
00000020: f4e4 9c3c 4455 063c 21c6 3c3c e8ee 193d
00000030: bc04 17bc 7b57 bb3c ad65 90bc 6d79 663c
00000040: 35d5 31bc 95ce 97bc ae82 71bc a8d1 4e3d
00000050: 103e 9cbc d40e 373c a75c 2bbc 2f0a 9dbc
00000060: 4ff8 883b 1669 84bc 2112 95bc 6869 703a
00000070: 47e9 0e3c 66a4 c9bc d312 c9bc c668 bfbc
00000080: 7990 643c 3ac6 b73c 5a4c 383c 6b0b 9dbc
00000090: 9844 a8bc b056 83bc 7f67 50bb 806d a93c
000000a0: 7fc6 2abc 005e a13c 58ee 363d 53d9 c4bc
000000b0: a623 65bc 6bd1 83bc bc58 053c 51a1 553c
000000c0: 46e0 fb3b 3826 273c b19c ccbc e569 3c3c
000000d0: 40ff 3e38 3860 c43c 8e98 823c b8b2 74bc
000000e0: b85d bdbc 1a06 d2bc 2226 3dbc 8182 0abd
000000f0: 3b6b b43c 736b 933b daad 86bc d214 ee3c
-0.023776459 0.0151249375 -0.030860184 0.002962542 0.016934695 -0.030537955 0.0040991222 0.021426957
0.019152142 0.00819904 0.011521847 0.037581354 -0.009217437 0.022868862 -0.017626608 0.014067036
-0.010854055 -0.018531123 -0.014740629 0.050492913 -0.019072562 0.011172969 -0.010459102 -0.019169895
0.0041799913 -0.01616339 -0.018197121 0.000917098 0.00872261 -0.024614524 -0.024545109 -0.02336539
0.013950461 0.022433389 0.011248672 -0.019170484 -0.02054052 -0.016032547 -0.003179997 0.020682096
-0.010423302 0.019698143 0.044660896 -0.02402941 -0.01398555 -0.01609107 0.008138832 0.013038949
0.0076866476 0.010201983 -0.02497706 0.011499857 4.553725e-05 0.023971662 0.015941884 -0.014935188
-0.023115978 -0.025637675 -0.011544736 -0.033815864 0.022023788 0.004498893 -0.01644032 0.029062662

running_var f4 [64]
00000000: faa3 183a 4e12 7739 2392 803a 29aa 1737
00000010: 12de 9a39 c3cc 7b3a 1c2e 9137 b4ed f739
00000020: 6d14 c639 5535 9138 8760 0f39 6fac be3a
00000030: 6685 b738 af35 0d3a f4c7 a739 bfb7 5539
00000040: 427a fe38 4071 b939 e4ac 6a39 2319 2c3b
00000050: e66f c439 61d3 0639 784b ec38 7d72 c639
00000060: 0bf7 9637 e014 8d39 5fd1 b239 838b 6835
00000070: 7f58 a438 3397 233a 54ab 223a 7d68 133a
00000080: b530 5239 0ee2 073a afa8 0839 9875 c639
00000090: d3d6 e339 84ce 8a39 23bf 2e37 a7fd e639
000000a0: 15ae ea38 e488 d139 8aa3 063b d2e7 1b3a
000000b0: bb3f 5339 6ad2 8b39 6215 8f38 cb9e 3739
000000c0: 8a40 7f38 e3d1 e038 ea71 283a 8fd4 0e39
000000d0: 24c6 1231 3a28 1b3a c63d 8939 3ce9 7039
000000e0: 2947 103a 2479 313a 82f2 0f39 e160 9a3a
000000f0: 61f7 023a f0e0 ae37 16f5 9139 f90e 643a
0.0005822774 0.00023562575 0.0009809177 9.03992e-06 0.00029538624 0.0009605402 1.7306818e-05 0.00047288614
0.0003778072 6.924073e-05 0.00013673502 0.0014547239 8.7509674e-05 0.00053867226 0.000320017 0.00020381714
0.00012134436 0.00035370328 0.00022380386 0.00262601 0.00037467404 0.0001285798 0.00011267414 0.00037850803
1.7996432e-05 0.0002690917 0.000341068 8.662975e-07 7.836613e-05 0.0006240487 0.00062053395 0.0005623175
0.00020045305 0.0005183526 0.0001303281 0.00037853117 0.0004345687 0.00026475277 1.0415711e-05 0.00044058004
0.00011190415 0.00039965578 0.0020544254 0.00059473247 0.0002014627 0.00026668917 6.822754e-05 0.00017511395
6.0856844e-05 0.00010720247 0.0006425666 0.0001362136 2.1358426e-09 0.0005918775 0.000261767 0.0002297507
0.0005503768 0.00067700655 0.00013727884 0.001177814 0.0004995969 2.0847161e-05 0.00027839158 0.0008699741

cpu f4 [64]
00000000: 0000 0000 0000 0000 0000 0000 0000 0000
00000010: 0000 0000 0000 0000 0000 0000 0000 0000
00000020: 0000 0000 0000 0000 0000 0000 0000 0000
00000030: 0000 0000 0000 0000 0000 0000 0000 0000
00000040: 0000 0000 0000 0000 0000 0000 0000 0000
00000050: 0000 0000 0000 0000 0000 0000 0000 0000
00000060: 0000 0000 0000 0000 0000 0000 0000 0000
00000070: 0000 0000 0000 0000 0000 0000 0000 0000
00000080: 0000 0000 0000 0000 0000 0000 0000 0000
00000090: 0000 0000 0000 0000 0000 0000 0000 0000
000000a0: 0000 0000 0000 0000 0000 0000 0000 0000
000000b0: 0000 0000 0000 0000 0000 0000 0000 0000
000000c0: 0000 0000 0000 0000 0000 0000 0000 0000
000000d0: 0000 0000 0000 0000 0000 0000 0000 0000
000000e0: 0000 0000 0000 0000 0000 0000 0000 0000
000000f0: 0000 0000 0000 0000 0000 0000 0000 0000
0.0 0.0 0.0 0.0 0.0 0.0 0.0 0.0
0.0 0.0 0.0 0.0 0.0 0.0 0.0 0.0
0.0 0.0 0.0 0.0 0.0 0.0 0.0 0.0
0.0 0.0 0.0 0.0 0.0 0.0 0.0 0.0
0.0 0.0 0.0 0.0 0.0 0.0 0.0 0.0
0.0 0.0 0.0 0.0 0.0 0.0 0.0 0.0
0.0 0.0 0.0 0.0 0.0 0.0 0.0 0.0
0.0 0.0 0.0 0.0 0.0 0.0 0.0 0.0

cpu f4 [64]
00000000: 0000 0000 0000 0000 0000 0000 0000 0000
00000010: 0000 0000 0000 0000 0000 0000 0000 0000
00000020: 0000 0000 0000 0000 0000 0000 0000 0000
00000030: 0000 0000 0000 0000 0000 0000 0000 0000
00000040: 0000 0000 0000 0000 0000 0000 0000 0000
00000050: 0000 0000 0000 0000 0000 0000 0000 0000
00000060: 0000 0000 0000 0000 0000 0000 0000 0000
00000070: 0000 0000 0000 0000 0000 0000 0000 0000
00000080: 0000 0000 0000 0000 0000 0000 0000 0000
00000090: 0000 0000 0000 0000 0000 0000 0000 0000
000000a0: 0000 0000 0000 0000 0000 0000 0000 0000
000000b0: 0000 0000 0000 0000 0000 0000 0000 0000
000000c0: 0000 0000 0000 0000 0000 0000 0000 0000
000000d0: 0000 0000 0000 0000 0000 0000 0000 0000
000000e0: 0000 0000 0000 0000 0000 0000 0000 0000
000000f0: 0000 0000 0000 0000 0000 0000 0000 0000
0.0 0.0 0.0 0.0 0.0 0.0 0.0 0.0
0.0 0.0 0.0 0.0 0.0 0.0 0.0 0.0
0.0 0.0 0.0 0.0 0.0 0.0 0.0 0.0
0.0 0.0 0.0 0.0 0.0 0.0 0.0 0.0
0.0 0.0 0.0 0.0 0.0 0.0 0.0 0.0
0.0 0.0 0.0 0.0 0.0 0.0 0.0 0.0
0.0 0.0 0.0 0.0 0.0 0.0 0.0 0.0
0.0 0.0 0.0 0.0 0.0 0.0 0.0 0.0

weight f4 [64]
00000000: 00af e23e 2b67 ab3e afe3 443d be68 203e
00000010: a53b 0a3e b989 673d 31b8 7a3d f469 393f
00000020: 8640 723e 4a94 a33e 2bd0 8e3e 0ed7 513e
00000030: 2f41 cd3d 2b2f f53e 7790 c23e 7b14 353d
00000040: 66bd 163d f017 4d3f 814d af3d e4ec 2e3f
00000050: 8f33 dd3d f66c 713d 6be4 c93d 020d 903e
00000060: aa51 8d3d c694 573d 1d9b 503d 61a6 1a3e
00000070: 6cea f63d 779f 133e a4e9 ab3e 7aa0 c13e
00000080: 1ba2 293d 50e9 bd3e 78a8 343d 17cd 1c3e
00000090: 3448 a63e bce8 2a3e 3285 203f 09ef a03d
000000a0: bd2f 5b3f 237d 0e3f 5252 1d3d b424 593e
000000b0: 14c1 ba3d c798 0b3f 5b08 383d 9528 c23e
000000c0: a2c0 1e3e 0576 5d3e 9ac8 3e3e 6a81 8e3e
000000d0: b6fd 393d 07ce 0a3e a1d7 343e 674c 5d3d
000000e0: f2f6 ea3e 545e 413f 2487 8f3d 5bc1 cb3d
000000f0: 0ab2 ca3e 9594 373d 1588 873e 56c4 ee3d
0.4427414 0.33477148 0.0480687 0.15664956 0.13499315 0.056527827 0.061210815 0.72427297
0.23657426 0.31949073 0.27893195 0.20492193 0.100221984 0.4788755 0.38000843 0.044208985
0.03680172 0.8011465 0.085597046 0.68330216 0.1080085 0.058941804 0.098580204 0.28134924
0.06900342 0.052632116 0.050929178 0.15102531 0.12056431 0.144163 0.3357669 0.37817746
0.04141436 0.37092066 0.044105977 0.1531261 0.32476962 0.16690344 0.6270324 0.07858092
0.8561972 0.55659693 0.038408585 0.21205407 0.09118858 0.54529995 0.044929843 0.37921587
0.15503171 0.21627052 0.18631211 0.2783311 0.045407973 0.13555156 0.17660381 0.05402794
0.4589153 0.7553456 0.07008198 0.09948989 0.39588958 0.044819433 0.2647101 0.11658542

bias f4 [64]
00000000: 7adc 24bd ceeb 37be c067 343c 9f21 22be
00000010: 4f05 a9bd 2e5f 68bd 968f 70bd 7831 13bf
00000020: a257 fdbd 6ea0 6abd a71d cb3d 390a 0a3e
00000030: d376 c93d 4839 64be f32b 93be 384c 903b
00000040: fec7 ffba fb1e 14be 86aa 8d3c c9ed b7bd
00000050: ee28 323d ecd9 443c 49dd e1bc 0015 2ebe
00000060: d660 bfbd 8521 263c 293a 963b 5e33 063b
00000070: d3d7 1dbe 4481 c43d 1e8b 91be 1157 06bf
00000080: 49ac 12bd d7e7 70be 8e83 57bc 5300 bdbd
00000090: 43ae bcbd 4f97 a43d c31a aebd e9e7 90bd
000000a0: 6673 b0be d25c 21be b904 71bc 1229 2fbe
000000b0: c182 b7bc 835e 113c 5830 c5bc d0a4 cb3e
000000c0: 5199 f8bd 3726 823e ff18 0abe 67ba e3bd
000000d0: 741d 66bb aa40 e1bd 8511 213d 4ee9 763c
000000e0: 40c7 313d caa3 fdbd 4461 b3bd 6707 af3b
000000f0: 2c32 05bf e396 963a b7a6 7fbe d9ae 9a3c
-0.040249325 -0.17961046 0.011011064 -0.15833138 -0.08252966 -0.056731395 -0.058730684 -0.5749736
-0.1237023 -0.057281904 0.09917765 0.13480462 0.09837117 -0.22287476 -0.28744468 0.0044036172
-0.0019514558 -0.14464943 0.017293226 -0.08980901 0.043496065 0.012014847 -0.027571337 -0.17000198
-0.09344642 0.010139828 0.00458457 0.0020477395 -0.15414362 0.09594968 -0.2842645 -0.524766
-0.035808835 -0.2352594 -0.013153924 -0.092285775 -0.09212925 0.08036672 -0.08501198 -0.07075483
-0.34463042 -0.15758064 -0.014710599 -0.17105511 -0.022401216 0.008872631 -0.024070904 0.3977418
-0.12138618 0.2541978 -0.13486098 -0.11119538 -0.003511277 -0.10998662 0.03932335 0.015070273
0.04340291 -0.12384756 -0.08758786 0.0053414586 -0.5202968 0.001148906 -0.2496594 0.018882202

running_mean f4 [64]
00000000: f32e 11be 5112 39be 172f 343a dbf8 2bbd
00000010: e45d bfbd b4db 20bc 9d75 91bc 0de6 273d
00000020: 65f9 21be 21b7 483c d384 92be 7667 bebd
00000030: 745a b8bc 7b14 22bd 3e83 24be 30a5 033c
00000040: 7dd6 963a 1d59 bdbe 42d5 233d 0768 43bf
00000050: 8422 f4bb 5507 873c 039f a3bc a557 753d
00000060: 12aa 11bc 3f59 29bb 4ac4 553c 620e 0c3d
00000070: eebd 813c 219a 89bc ccef f5bd 09cc 913d
00000080: 3843 81bc f7e4 223c 85e0 0ebc 4a5d a33c
00000090: 6f19 e93d bd72 81bd 1a07 acbd a2d6 24bc
000000a0: a52a 04bf 5950 8dbe 52b9 cabb 3e7b 12bd
000000b0: 19ca 963c 1021 fe3d fcca c63b dbd0 cbbe
000000c0: 1b24 a4bb 1e10 ebbd bfa8 a4bd 3f78 a23d
000000d0: 6e4b 0dbb 76d1 20bd 0575 3c3d a57e f23b
000000e0: 773f b8be 8d6b 88be dfa8 b43b 14a2 e8bc
000000f0: c4b7 4cbe 6b27 183c ab94 823d 0db8 ac3c
-0.14178066 -0.18073393 0.0006873472 -0.041985374 -0.0934408 -0.009818006 -0.017756278 0.040990878
-0.15817793 0.012250693 -0.28616962 -0.09297077 -0.022504069 -0.039570313 -0.1606569 0.008034989
0.0011508014 -0.3698205 0.0399983 -0.7633061 -0.0074504036 0.016482988 -0.019973284 0.059898037
-0.008890646 -0.0025840548 0.013047287 0.034193404 0.015837636 -0.016797127 -0.12008628 0.07118995
-0.015779123 0.009942285 -0.008720522 0.019941945 0.11381804 -0.06320713 -0.08399792 -0.010060938
-0.5162757 -0.27600363 -0.0061866427 -0.035762064 0.018406915 0.1240865 0.006066678 -0.39807782
-0.005009187 -0.114776835 -0.08039998 0.07933091 -0.0021559852 -0.039262258 0.046010036 0.007400351
-0.3598592 -0.26644555 0.005513295 -0.028397597 -0.19991976 0.009286742 0.063760124 0.021083856

running_var f4 [64]
00000000: d42d 3e3c a766 5c3c 0017 0e39 6fff 153b
00000010: 6567 3a3c 09a1 213a 67e0 b43a 72da 993d
00000020: a23b d63c c12b cf3b 83a0 213e 1aba 8b3b
00000030: ffcd 023b ee6e 373c dd7b 323c 4d32 6f38
00000040: b9da 1d37 7aea 8a3e 34fe dd3a 08ff fd3e
00000050: fa8a f239 4a97 e438 ad89 ad3a e84b 9e3b
00000060: 7c1f af3a 40f1 0d38 256d a939 35ec b93a
00000070: 346c 133b 86ff d83b da50 893c 4439 593d
00000080: 21f1 da39 4d05 c93c b2aa 9338 90a3 fa3a
00000090: 43e8 053d 1fdb 1d3b 7dfb 2f3e 56b5 1b39
000000a0: 3d53 2b3d 30fd fe3d ad6f d738 9952 f93a
000000b0: 4b17 ac3a 6cc4 363d b77f 1c39 e9e0 843e
000000c0: 125e 813a e485 b43c 7f4c 883c f03b de3c
000000d0: 93e2 8237 b06c bf39 0527 973a d546 9838
000000e0: 24f5 333e eddd 333e a589 b039 206e 9d3a
000000f0: 6f3e 6c3c c3f7 d838 a290 c53a efed ac3a
0.011607606 0.013452209 0.00013550743 0.0022887846 0.01137719 0.00061656587 0.0013799787 0.07512368
0.026151482 0.0063223545 0.15783887 0.0042641284 0.001995921 0.011195881 0.010893789 5.7028887e-05
9.408855e-06 0.27132016 0.001693672 0.49608636 0.00046261383 0.00010900067 0.0013239883 0.004830826
0.0013360824 3.38417e-05 0.0003231551 0.0014184775 0.0022494914 0.0066222576 0.016762186 0.05303313
0.00041759855 0.02453866 7.041301e-05 0.0019122232 0.032692205 0.0024086905 0.17185779 0.00014849505
0.04182743 0.124506354 0.000102728 0.0019021808 0.00131295 0.044620916 0.00014924897 0.25952843
0.0009869954 0.0220365 0.016638039 0.02712819 1.5602714e-05 0.00036511337 0.0011532014 7.261118e-05
0.17573982 0.17565127 0.0003367189 0.0012010969 0.014419182 0.00010345832 0.0015073011 0.0013193468

cpu f4 [64]
00000000: 0000 0000 0000 0000 0000 0000 0000 0000
00000010: 0000 0000 0000 0000 0000 0000 0000 0000
00000020: 0000 0000 0000 0000 0000 0000 0000 0000
00000030: 0000 0000 0000 0000 0000 0000 0000 0000
00000040: 0000 0000 0000 0000 0000 0000 0000 0000
00000050: 0000 0000 0000 0000 0000 0000 0000 0000
00000060: 0000 0000 0000 0000 0000 0000 0000 0000
00000070: 0000 0000 0000 0000 0000 0000 0000 0000
00000080: 0000 0000 0000 0000 0000 0000 0000 0000
00000090: 0000 0000 0000 0000 0000 0000 0000 0000
000000a0: 0000 0000 0000 0000 0000 0000 0000 0000
000000b0: 0000 0000 0000 0000 0000 0000 0000 0000
000000c0: 0000 0000 0000 0000 0000 0000 0000 0000
000000d0: 0000 0000 0000 0000 0000 0000 0000 0000
000000e0: 0000 0000 0000 0000 0000 0000 0000 0000
000000f0: 0000 0000 0000 0000 0000 0000 0000 0000
0.0 0.0 0.0 0.0 0.0 0.0 0.0 0.0
0.0 0.0 0.0 0.0 0.0 0.0 0.0 0.0
0.0 0.0 0.0 0.0 0.0 0.0 0.0 0.0
0.0 0.0 0.0 0.0 0.0 0.0 0.0 0.0
0.0 0.0 0.0 0.0 0.0 0.0 0.0 0.0
0.0 0.0 0.0 0.0 0.0 0.0 0.0 0.0
0.0 0.0 0.0 0.0 0.0 0.0 0.0 0.0
0.0 0.0 0.0 0.0 0.0 0.0 0.0 0.0

cpu f4 [64]
00000000: 0000 0000 0000 0000 0000 0000 0000 0000
00000010: 0000 0000 0000 0000 0000 0000 0000 0000
00000020: 0000 0000 0000 0000 0000 0000 0000 0000
00000030: 0000 0000 0000 0000 0000 0000 0000 0000
00000040: 0000 0000 0000 0000 0000 0000 0000 0000
00000050: 0000 0000 0000 0000 0000 0000 0000 0000
00000060: 0000 0000 0000 0000 0000 0000 0000 0000
00000070: 0000 0000 0000 0000 0000 0000 0000 0000
00000080: 0000 0000 0000 0000 0000 0000 0000 0000
00000090: 0000 0000 0000 0000 0000 0000 0000 0000
000000a0: 0000 0000 0000 0000 0000 0000 0000 0000
000000b0: 0000 0000 0000 0000 0000 0000 0000 0000
000000c0: 0000 0000 0000 0000 0000 0000 0000 0000
000000d0: 0000 0000 0000 0000 0000 0000 0000 0000
000000e0: 0000 0000 0000 0000 0000 0000 0000 0000
000000f0: 0000 0000 0000 0000 0000 0000 0000 0000
0.0 0.0 0.0 0.0 0.0 0.0 0.0 0.0
0.0 0.0 0.0 0.0 0.0 0.0 0.0 0.0
0.0 0.0 0.0 0.0 0.0 0.0 0.0 0.0
0.0 0.0 0.0 0.0 0.0 0.0 0.0 0.0
0.0 0.0 0.0 0.0 0.0 0.0 0.0 0.0
0.0 0.0 0.0 0.0 0.0 0.0 0.0 0.0
0.0 0.0 0.0 0.0 0.0 0.0 0.0 0.0
0.0 0.0 0.0 0.0 0.0 0.0 0.0 0.0

weight f4 [64]
00000000: d9d3 b43e fce4 bd3e 4d5f 573d 87a9 9a3e
00000010: 1c3c d03e 18e0 7c3e 87b2 753e a2fb 853e
00000020: 3848 b93e 600b b03e 6bc0 0e3e 3acb 463e
00000030: e228 903e b9a5 403e 69df 203f 10c4 cf3e
00000040: 2450 d53e 9da2 c73e 0bed e63e 4a6c 4b3e
00000050: 3a7e 153f afab 2e3e f5f9 993e 30ac ab3e
00000060: 27d8 883e 17bf a23e c7d7 ad3e d501 963d
00000070: 0a14 313e fcd4 2b3d 18da ea3e 0846 a53e
00000080: 0a20 b03d 9b1f c63e 2a1b 833e a625 c63e
00000090: 9417 ca3d a02e 723e b52b c23e aac9 3b3e
000000a0: 5a46 b53e 4f66 0f3f 00d6 373e 01da 2c3f
000000b0: 9633 223e bc38 943e e894 6f3e 303f 573d
000000c0: 2304 aa3e 0123 bc3e 6bee 353f b8bb 963e
000000d0: e6ba 203f 3d20 663e 5d14 e53d da53 063f
000000e0: b424 b73e 70fd 463e cb08 2f3d d029 1b3f
000000f0: f039 953e d343 033f c184 a03d b4de bd3e
0.35317877 0.37088764 0.05258112 0.30207464 0.4067086 0.2469486 0.23993884 0.26168543
0.3618791 0.34383678 0.13940589 0.19413462 0.2815619 0.18813218 0.62840897 0.4057927
0.41662705 0.38991252 0.45102724 0.19865528 0.5839573 0.1705768 0.30073515 0.33529806
0.2672741 0.31786415 0.33953688 0.07324568 0.172928 0.041951165 0.45869517 0.32279992
0.08599861 0.38695988 0.25606662 0.38700598 0.098677784 0.23650599 0.3792397 0.18338647
0.35405236 0.56015486 0.17952728 0.6752015 0.15839991 0.28949535 0.23396647 0.052550495
0.3320628 0.36745456 0.7106692 0.29440093 0.62785184 0.22473235 0.111855246 0.524717
0.3577019 0.19432616 0.042732995 0.60610676 0.29145765 0.51275367 0.07837821 0.37083972

bias f4 [64]
00000000: 736b 9dbd 6eb7 cebd 9b50 033b cc4a a0bd
00000010: 1550 33be c723 473c 0a15 883d 0acf 11be
00000020: 4a49 29be a87b 89be 2fd7 243d f225 5d3d
00000030: edc0 2b3c 4595 8c3c 1431 bebe 359e b7bd
00000040: 9c86 51be 04cd b6bd 1f80 cdbd 9780 95bd
00000050: a9ad 13be 1d84 4ebd 64d2 33bd 2cf0 87bd
00000060: 5623 b33d a187 8c3b 3a54 9ebd 0b9e a33b
00000070: 214e 863d 8aa8 38bb 1fbb 1dbe a91a 44bd
00000080: cc8b 823a 7c64 b8bd f29c 1dbe 44ab 52be
00000090: 9cde 71bc 9ee8 8fbd f4cb 8d3d 74ee 733c
000000a0: 707d 4c3c a815 20bd b023 bbbd 984e 0abe
000000b0: 6d58 1ebc 19a3 813c f55b 23bd f546 bd3b
000000c0: 1579 39bd 0d9f 88bd 3012 b7be 9e33 9dbb
000000d0: 7519 82be 93a2 b0bd 774b 693b c038 1dbe
000000e0: c829 43be ad7d 45bb 80ad e13a 1a37 debe
000000f0: 238f db3d 5844 e6bd dc63 86bd d7b5 a2bd
-0.0768651 -0.1009358 0.0020037058 -0.07826766 -0.17511018 0.012154526 0.06644638 -0.14239135
-0.16531864 -0.26852155 0.040244278 0.053991266 0.010483009 0.017161021 -0.3714682 -0.089657225
-0.20461506 -0.089258224 -0.10034203 -0.07299917 -0.14421715 -0.05041896 -0.043901816 -0.06637606
0.08746974 0.004288629 -0.07730909 0.0049932054 0.06557871 -0.002817663 -0.15403412 -0.047876988
0.0009959876 -0.09003541 -0.15391901 -0.20573145 -0.014762547 -0.0702679 0.069236666 0.014888395
0.0124810785 -0.039083153 -0.09137666 -0.13506544 -0.009664637 0.015824841 -0.03988262 0.005776281
-0.04528149 -0.066709615 -0.35756063 -0.004797413 -0.25410047 -0.086247586 0.003559796 -0.1535368
-0.19058907 -0.0030134723 0.0017217845 -0.43401414 0.107206605 -0.11243504 -0.065620154 -0.079448394

running_mean f4 [64]
00000000: f93a 4bbd e87b 1bbd ba76 343b 333d 853c
00000010: 690c 13bd 4c4f 22bd 8e4d 03bd 2961 003d
00000020: 2de4 60bc cae9 123d a9a2 103b 07d4 9abc
00000030: 45c1 e0bb e8e3 94bc 2158 04bd 355e 1c3b
00000040: b327 8dbd 621c e9bb a040 5c3b 0fff 9d3c
00000050: 0479 033d d00c 493c 9917 9cbd 48e8 d0ba
00000060: 71c7 d13c b653 e7bc d8ee 1abd e08e 5c3b
00000070: 6931 babb 9d32 e03a d267 653c afb1 86bd
00000080: 39ec 633b a041 a8bc b395 713c b832 2cbb
00000090: 8df5 7fbb 4436 603c e6d0 6dbd 98fe 3bbb
000000a0: 0b9a 703a ad3b 04bd d151 4c3b ca99 63bd
000000b0: c6d7 aebb 2dfa 51bd 17ad 1d3d 9036 89bb
000000c0: e123 9cbd f916 313d 82a4 8a3d 14a7 2fbd
000000d0: 6e33 bd3c 3d12 f23c bca9 1f3b c613 bd3d
000000e0: 0d5c 09bd f220 783c d42f 10bb 785c cbbd
000000f0: 7e64 23bd 36aa 97bc 5e70 17bc 9152 613b
-0.049616788 -0.037959963 0.0027536587 0.016264534 -0.035900507 -0.039626405 -0.032056384 0.03134266
-0.013726276 0.03586749 0.002206961 -0.01889993 -0.006858977 -0.01817508 -0.03231061 0.0023859863
-0.06892338 -0.007113979 0.0033607855 0.01928666 0.03209783 0.012271121 -0.076216884 -0.0015938366
0.025607796 -0.028238159 -0.037825435 0.0033654496 -0.0056821597 0.0017104928 0.0140018035 -0.06576859
0.003477825 -0.020539105 0.014745164 -0.0026275348 -0.0039056272 0.013684813 -0.05806055 -0.0028685685
0.00091782276 -0.032283474 0.0031176696 -0.055566587 -0.005335781 -0.051263977 0.03849515 -0.0041874126
-0.07624031 0.0432348 0.067696586 -0.042883947 0.023095813 0.029549712 0.0024362644 0.09232287
-0.033535052 0.0151445735 -0.0022001164 -0.099297464 -0.03989076 -0.01851378 -0.009243099 0.0034381489

running_var f4 [64]
00000000: bc16 013c 34b0 373b 53c4 1a38 47f0 b93a
00000010: 3014 bf3b 112c a93b e665 163b 2b23 513c
00000020: e13b 383c 0139 133c b09c 013a 0056 133b
00000030: fed4 5b3b d063 b13b e037 563c d798 cf3c
00000040: 95ea 7d3c d0e1 5b3c d5c3 1e3c 865d e53a
00000050: d733 493d 54fd d739 afbe 443c eb49 c13b
00000060: 91a0 303c 50d1 163c 687f b43b c89e 9138
00000070: 87b1 163c 1338 4d37 9cc0 ae3b 8e65 983b
00000080: e07b b538 76e3 a43c 1012 c43b 93cf 903c
00000090: e7b4 0b3a 7d35 af3b edc8 1f3c c14d 493b
000000a0: 42fe d43a f399 543c 0dea b63a 9a08 bf3c
000000b0: 2b64 803b 36d2 4f3c 8d3f b43a bd48 d737
000000c0: 8fd1 d73b d141 ff3c 1885 223c db9b a03b
000000d0: c580 133d 084b d03b ea02 0039 a4f2 973c
000000e0: b134 ea3b a68b 693a 67f7 de36 608a 1b3c
000000f0: 545e 613b d6a2 bc3c 9233 b439 da4c 893b
0.007878955 0.002802861 3.6899302e-05 0.0014185988 0.005831264 0.005162724 0.002294892 0.012764732
0.011244745 0.008985759 0.0004944308 0.002248168 0.0033543701 0.00541351 0.013074845 0.025341434
0.015497823 0.013420537 0.009690245 0.0017499186 0.049121704 0.0004119674 0.012008353 0.0058987043
0.0107804695 0.009205177 0.005508352 6.943714e-05 0.009197599 1.2232008e-05 0.0053330194 0.004650778
8.653826e-05 0.020127993 0.0059835985 0.017677104 0.0005329386 0.0053469525 0.009752494 0.003071651
0.0016250091 0.0129761575 0.0013955251 0.023319531 0.003918191 0.012684396 0.001375185 2.5663869e-05
0.0065862606 0.031159313 0.009919427 0.004901392 0.036011476 0.0063566007 0.00012208117 0.018548317
0.0071473946 0.0008909054 6.644917e-06 0.00949344 0.00343885 0.023026865 0.00034370698 0.0041900696

cpu f4 [64]
00000000: 0000 0000 0000 0000 0000 0000 0000 0000
00000010: 0000 0000 0000 0000 0000 0000 0000 0000
00000020: 0000 0000 0000 0000 0000 0000 0000 0000
00000030: 0000 0000 0000 0000 0000 0000 0000 0000
00000040: 0000 0000 0000 0000 0000 0000 0000 0000
00000050: 0000 0000 0000 0000 0000 0000 0000 0000
00000060: 0000 0000 0000 0000 0000 0000 0000 0000
00000070: 0000 0000 0000 0000 0000 0000 0000 0000
00000080: 0000 0000 0000 0000 0000 0000 0000 0000
00000090: 0000 0000 0000 0000 0000 0000 0000 0000
000000a0: 0000 0000 0000 0000 0000 0000 0000 0000
000000b0: 0000 0000 0000 0000 0000 0000 0000 0000
000000c0: 0000 0000 0000 0000 0000 0000 0000 0000
000000d0: 0000 0000 0000 0000 0000 0000 0000 0000
000000e0: 0000 0000 0000 0000 0000 0000 0000 0000
000000f0: 0000 0000 0000 0000 0000 0000 0000 0000
0.0 0.0 0.0 0.0 0.0 0.0 0.0 0.0
0.0 0.0 0.0 0.0 0.0 0.0 0.0 0.0
0.0 0.0 0.0 0.0 0.0 0.0 0.0 0.0
0.0 0.0 0.0 0.0 0.0 0.0 0.0 0.0
0.0 0.0 0.0 0.0 0.0 0.0 0.0 0.0
0.0 0.0 0.0 0.0 0.0 0.0 0.0 0.0
0.0 0.0 0.0 0.0 0.0 0.0 0.0 0.0
0.0 0.0 0.0 0.0 0.0 0.0 0.0 0.0

weight f4 [64]
00000000: 8f12 cdbc 486c 063e c602 3c3d efd9 8dbc
00000010: 1bd2 db3d 0950 1b3e b243 f03d 3b25 b8bd
00000020: 3992 d4bb 3317 3c3e a78e 213d 412a 28bd
00000030: 80d5 98bd b2fc 36bc 1c32 053d 8f95 2ebd
00000040: 4b9f de3d 3d71 d6bc 9e69 cd3d 3f71 d63b
00000050: ad16 3f3c bfd9 5b3d 2d55 493d 3ecb 2cbe
00000060: 9a97 393e b983 da3b 3cd1 b6bc d765 493d
00000070: 689a fb3c bd64 253d 966d 673d 1786 c63d
00000080: e26a 423d deae aeb9 4e2e 623c 738e 1a3b
00000090: 7c9e 0e3d b342 3a3d 4437 8fbd c6a9 32bc
000000a0: 622a 4f3c 8326 9a34 9d45 a0bc e059 5dbe
000000b0: e11b 3e3d 0db3 8abd 5ddc ddbd 92fb 413d
000000c0: e316 333e dac5 2db9 3821 b93d 991e a7be
000000d0: 6e9d 36bb e154 343e 36e0 263d f9c9 c9be
000000e0: 7871 abbd a27d 3e3d 8906 1a3d 4c0b 4fbd
000000f0: 68fc 4f3d ca62 013e 3bbc f9bc ec41 a53d
-0.025033263 0.13127244 0.045901082 -0.017315833 0.10733434 0.1516725 0.11731662 -0.08991476
-0.0064871577 0.18368225 0.039442685 -0.04105592 -0.07462597 -0.011168646 0.03251849 -0.0426231
0.108702265 -0.026177043 0.100299105 0.0065442617 0.011663121 0.053674456 0.049153496 -0.16874406
0.18124238 0.0066685346 -0.022316568 0.049169388 0.030713275 0.040379275 0.056500994 0.09693544
0.047465213 -0.00033318152 0.013804985 0.0023583442 0.03481911 0.045473766 -0.06992963 -0.010904735
0.012644382 2.8712756e-07 -0.019564444 -0.21616316 0.046413306 -0.067724325 -0.108330466 0.047359057
0.174892 -0.00016572271 0.09039539 -0.32640532 -0.0027864831 0.17610504 0.040741168 -0.39411905
-0.08371252 0.04650653 0.03760389 -0.050547883 0.050777823 0.12635341 -0.030485263 0.08069214

bias f4 [64]
00000000: 736b 9dbd 6eb7 cebd 9b50 033b cc4a a0bd
00000010: 1550 33be c723 473c 0a15 883d 0acf 11be
00000020: 4a49 29be a87b 89be 2fd7 243d f225 5d3d
00000030: edc0 2b3c 4595 8c3c 1431 bebe 359e b7bd
00000040: 9c86 51be 04cd b6bd 1f80 cdbd 9780 95bd
00000050: a9ad 13be 1d84 4ebd 64d2 33bd 2cf0 87bd
00000060: 5623 b33d a187 8c3b 3a54 9ebd 0b9e a33b
00000070: 214e 863d 8aa8 38bb 1fbb 1dbe a91a 44bd
00000080: cc8b 823a 7c64 b8bd f29c 1dbe 44ab 52be
00000090: 9cde 71bc 9ee8 8fbd f4cb 8d3d 74ee 733c
000000a0: 707d 4c3c a815 20bd b023 bbbd 984e 0abe
000000b0: 6d58 1ebc 19a3 813c f55b 23bd f546 bd3b
000000c0: 1579 39bd 0d9f 88bd 3012 b7be 9e33 9dbb
000000d0: 7519 82be 93a2 b0bd 774b 693b c038 1dbe
000000e0: c829 43be ad7d 45bb 80ad e13a 1a37 debe
000000f0: 238f db3d 5844 e6bd dc63 86bd d7b5 a2bd
-0.0768651 -0.1009358 0.0020037058 -0.07826766 -0.17511018 0.012154526 0.06644638 -0.14239135
-0.16531864 -0.26852155 0.040244278 0.053991266 0.010483009 0.017161021 -0.3714682 -0.089657225
-0.20461506 -0.089258224 -0.10034203 -0.07299917 -0.14421715 -0.05041896 -0.043901816 -0.06637606
0.08746974 0.004288629 -0.07730909 0.0049932054 0.06557871 -0.002817663 -0.15403412 -0.047876988
0.0009959876 -0.09003541 -0.15391901 -0.20573145 -0.014762547 -0.0702679 0.069236666 0.014888395
0.0124810785 -0.039083153 -0.09137666 -0.13506544 -0.009664637 0.015824841 -0.03988262 0.005776281
-0.04528149 -0.066709615 -0.35756063 -0.004797413 -0.25410047 -0.086247586 0.003559796 -0.1535368
-0.19058907 -0.0030134723 0.0017217845 -0.43401414 0.107206605 -0.11243504 -0.065620154 -0.079448394

running_mean f4 [64]
00000000: 6097 a5bb d871 3ebc a41f cfbb b559 233c
00000010: deab 44bc ddff 47bc d8cc 47bc 0e31 2bbc
00000020: 1b84 943b 90e7 693c 932d 2e3c 457e 2fbc
00000030: ee88 14bc 235c 89bb 9781 c03b 8287 fa3b
00000040: 0582 47bc 2c2f e1bb 584d 13bc 067e 53bb
00000050: cb25 c6bb 9f80 f43b 6ae0 e1bb e3a0 5cbc
00000060: 0817 70bc 2902 293b 33bd f4bb 6846 0cbc
00000070: 4478 cebb 7055 27bc 615a 013c 3579 123c
00000080: c19b 2b3c d979 6e38 f451 6abb 9b49 5abb
00000090: 5e8a 113c f0f9 33bc e8dc 423c 303c 27bb
000000a0: b183 09bc 1fbe a7b3 a74f 823b 1fbd 633c
000000b0: d2e1 2abc 372c 0c3c c356 2fbc 2af0 1bbb
000000c0: ef87 6abc 6282 ab39 e525 21bc d06f 933c
000000d0: 6324 0d3b 6bec 5b3c 1d5e 95bb db20 a7bc
000000e0: 12dd 07bc ac55 e13b a6ea 2abc 46ac e33b
000000f0: 187b 03bc 5fe4 2bbc 8d8b 073c 7143 0dbc
-0.0050534457 -0.011623822 -0.0063209105 0.009970118 -0.012003867 -0.012206999 -0.012194835 -0.010448707
0.0045323498 0.0142764 0.010630983 -0.010711257 -0.00906585 -0.0041918918 0.0058748233 0.0076455483
-0.012176995 -0.0068720784 -0.008990608 -0.003227116 -0.0060469857 0.007461622 -0.0068932073 -0.013466093
-0.014653929 0.002578864 -0.0074688434 -0.008561708 -0.006300958 -0.010213241 0.007895083 0.008940031
0.010474146 5.68571e-05 -0.0035754414 -0.0033308032 0.008883087 -0.010984883 0.0118934885 -0.0025518052
-0.008393214 -7.811126e-08 0.0039767805 0.01390007 -0.010429816 0.0085554635 -0.010701838 -0.0023794272
-0.014314636 0.00032712804 -0.009835695 0.017997652 0.002153658 0.013423066 -0.0045583383 -0.020401409
-0.008292453 0.006876668 -0.010431921 0.006948027 -0.008024953 -0.01049146 0.008273018 -0.008622036

running_var f4 [64]
00000000: 345f 0238 8471 2c39 87f8 4b38 05bc fd38
00000010: 69e7 3739 462e 3e39 48cd 3d39 e056 0b39
00000020: f9bd d137 5010 8239 463e 1039 0b6e 1239
00000030: 9bcb d138 3e6a b337 6a32 3038 9835 9538
00000040: 3d3f 3d39 db17 7138 cf53 ce38 79aa 5437
00000050: dbac 3a38 e31d 8e38 fa93 7238 c06f 6739
00000060: 9608 8939 dece 0737 5664 8e38 6f1c bb38
00000070: 63af 4a38 4521 0539 a91b 9f38 3103 cc38
00000080: c804 0c39 8232 8731 ba86 8237 258d 6237
00000090: fd6b c938 b601 1a39 9489 3439 1cf9 0437
000000a0: a8d1 b338 0cc8 0528 4779 a137 1798 7639
000000b0: 03d6 0a39 98d6 ba38 242c 1239 cd3a e736
000000c0: e5c2 8239 65db 0b34 45f0 f638 6eb4 ce39
000000d0: 796e bd36 bef5 6539 8327 d437 aacd 043a
000000e0: ff86 af38 566a 7138 5ce4 0a39 9e73 7638
000000f0: b662 a438 607b 0c39 9eb4 ae38 dec1 bd38
3.108308e-05 0.00016445486 4.863043e-05 0.000120990015 0.00017538447 0.0001813705 0.00018100918 0.00013288436
2.5003204e-05 0.00024807686 0.00013756109 0.00013964639 0.00010003821 2.1387936e-05 4.200862e-05 7.114856e-05
0.00018048003 5.7481095e-05 9.838456e-05 1.2675876e-05 4.450684e-05 6.7766545e-05 5.783511e-05 0.00022071507
0.00026137073 8.094792e-06 6.789777e-05 8.922151e-05 4.8323895e-05 0.00012696262 7.586863e-05 9.7280725e-05
0.00013353222 3.934759e-09 1.5559945e-05 1.35035125e-05 9.604541e-05 0.00014687222 0.0001721739 7.925813e-06
8.574437e-05 7.426361e-15 1.924917e-05 0.00023517046 0.00013240431 8.909142e-05 0.00013940089 6.891182e-06
0.0002494074 1.3025199e-07 0.00011774948 0.00039425812 5.6454996e-06 0.00021930688 2.5290768e-05 0.0005066047
8.369795e-05 5.755791e-05 0.00013245776 5.8758647e-05 7.838516e-05 0.00013397401 8.330609e-05 9.048333e-05

cpu f4 [64]
00000000: 0000 0000 0000 0000 0000 0000 0000 0000
00000010: 0000 0000 0000 0000 0000 0000 0000 0000
00000020: 0000 0000 0000 0000 0000 0000 0000 0000
00000030: 0000 0000 0000 0000 0000 0000 0000 0000
00000040: 0000 0000 0000 0000 0000 0000 0000 0000
00000050: 0000 0000 0000 0000 0000 0000 0000 0000
00000060: 0000 0000 0000 0000 0000 0000 0000 0000
00000070: 0000 0000 0000 0000 0000 0000 0000 0000
00000080: 0000 0000 0000 0000 0000 0000 0000 0000
00000090: 0000 0000 0000 0000 0000 0000 0000 0000
000000a0: 0000 0000 0000 0000 0000 0000 0000 0000
000000b0: 0000 0000 0000 0000 0000 0000 0000 0000
000000c0: 0000 0000 0000 0000 0000 0000 0000 0000
000000d0: 0000 0000 0000 0000 0000 0000 0000 0000
000000e0: 0000 0000 0000 0000 0000 0000 0000 0000
000000f0: 0000 0000 0000 0000 0000 0000 0000 0000
0.0 0.0 0.0 0.0 0.0 0.0 0.0 0.0
0.0 0.0 0.0 0.0 0.0 0.0 0.0 0.0
0.0 0.0 0.0 0.0 0.0 0.0 0.0 0.0
0.0 0.0 0.0 0.0 0.0 0.0 0.0 0.0
0.0 0.0 0.0 0.0 0.0 0.0 0.0 0.0
0.0 0.0 0.0 0.0 0.0 0.0 0.0 0.0
0.0 0.0 0.0 0.0 0.0 0.0 0.0 0.0
0.0 0.0 0.0 0.0 0.0 0.0 0.0 0.0

cpu f4 [128]
00000000: 0000 0000 0000 0000 0000 0000 0000 0000
00000010: 0000 0000 0000 0000 0000 0000 0000 0000
00000020: 0000 0000 0000 0000 0000 0000 0000 0000
00000030: 0000 0000 0000 0000 0000 0000 0000 0000
00000040: 0000 0000 0000 0000 0000 0000 0000 0000
00000050: 0000 0000 0000 0000 0000 0000 0000 0000
00000060: 0000 0000 0000 0000 0000 0000 0000 0000
00000070: 0000 0000 0000 0000 0000 0000 0000 0000
00000080: 0000 0000 0000 0000 0000 0000 0000 0000
00000090: 0000 0000 0000 0000 0000 0000 0000 0000
000000a0: 0000 0000 0000 0000 0000 0000 0000 0000
000000b0: 0000 0000 0000 0000 0000 0000 0000 0000
000000c0: 0000 0000 0000 0000 0000 0000 0000 0000
000000d0: 0000 0000 0000 0000 0000 0000 0000 0000
000000e0: 0000 0000 0000 0000 0000 0000 0000 0000
000000f0: 0000 0000 0000 0000 0000 0000 0000 0000
00000100: 0000 0000 0000 0000 0000 0000 0000 0000
00000110: 0000 0000 0000 0000 0000 0000 0000 0000
00000120: 0000 0000 0000 0000 0000 0000 0000 0000
00000130: 0000 0000 0000 0000 0000 0000 0000 0000
00000140: 0000 0000 0000 0000 0000 0000 0000 0000
00000150: 0000 0000 0000 0000 0000 0000 0000 0000
00000160: 0000 0000 0000 0000 0000 0000 0000 0000
00000170: 0000 0000 0000 0000 0000 0000 0000 0000
00000180: 0000 0000 0000 0000 0000 0000 0000 0000
00000190: 0000 0000 0000 0000 0000 0000 0000 0000
000001a0: 0000 0000 0000 0000 0000 0000 0000 0000
000001b0: 0000 0000 0000 0000 0000 0000 0000 0000
000001c0: 0000 0000 0000 0000 0000 0000 0000 0000
000001d0: 0000 0000 0000 0000 0000 0000 0000 0000
000001e0: 0000 0000 0000 0000 0000 0000 0000 0000
000001f0: 0000 0000 0000 0000 0000 0000 0000 0000
0.0 0.0 0.0 0.0 0.0 0.0 0.0 0.0
0.0 0.0 0.0 0.0 0.0 0.0 0.0 0.0
0.0 0.0 0.0 0.0 0.0 0.0 0.0 0.0
0.0 0.0 0.0 0.0 0.0 0.0 0.0 0.0
0.0 0.0 0.0 0.0 0.0 0.0 0.0 0.0
0.0 0.0 0.0 0.0 0.0 0.0 0.0 0.0
0.0 0.0 0.0 0.0 0.0 0.0 0.0 0.0
0.0 0.0 0.0 0.0 0.0 0.0 0.0 0.0
0.0 0.0 0.0 0.0 0.0 0.0 0.0 0.0
0.0 0.0 0.0 0.0 0.0 0.0 0.0 0.0
0.0 0.0 0.0 0.0 0.0 0.0 0.0 0.0
0.0 0.0 0.0 0.0 0.0 0.0 0.0 0.0
0.0 0.0 0.0 0.0 0.0 0.0 0.0 0.0
0.0 0.0 0.0 0.0 0.0 0.0 0.0 0.0
0.0 0.0 0.0 0.0 0.0 0.0 0.0 0.0
0.0 0.0 0.0 0.0 0.0 0.0 0.0 0.0

weight f4 [128]
00000000: a881 783e c4c5 553e 5a6a 323e 21cc 5d3e
00000010: aaef 773e e830 343e afb6 9f3e 1832 173e
00000020: 92e1 aa3e e3cf a53e d2a1 113e a98a 453e
00000030: 8c32 9e3e a26d 563e b2dc ef3d 1b55 4a3e
00000040: 3239 413e ac8d 583e ade9 923e a9bc 4e3e
00000050: 0cd7 8f3e ac8d 313e 8692 163e 9c5c 2f3e
00000060: 74f2 223e 80b1 853e ca52 2e3e 3eaa 0e3e
00000070: c586 5a3e 814d 343e 80e2 513e bdcc 473e
00000080: 2ae5 823e acf1 703e 8b8b 1e3e 1aa4 573e
00000090: 98c8 113e 39c6 5c3e 7d45 3b3e 1090 133e
000000a0: 98b7 023e 4826 1d3e 81e9 1c3e 042b 243e
000000b0: 39e0 8f3e c727 813e 453f 5b3e 8b95 163e
000000c0: 80ba 363e 214a 073e d70c 7c3e 2cfa c03d
000000d0: 65bd 643e 72c6 223e c380 513e ab8e 483e
000000e0: 6f1c 4c3e 0ec0 253e d590 973e 408c 613e
000000f0: d885 3c3e f2aa 783e 2ace 163e f25a 983e
00000100: c370 803e e975 423e 3b30 853e 5f22 bc3d
00000110: d8d7 1f3e c3ee 3c3e 87b5 433e 043a 5a3e
00000120: 7d9f 593e 34eb 7b3e 3af4 083e 6338 923e
00000130: b9e6 493e 83df 6a3e 85bf 013e 2ba0 583e
00000140: a1d3 753e 23c8 673e 4cd4 903e 4070 7f3e
00000150: 1cff 883e 8ae4 2f3e 1cb2 033e 5368 2f3e
00000160: b42b 0a3e 10f0 eb3d 1f08 673e 29ee 043e
00000170: 10b4 003e 0f31 5a3e 666b 7e3e b0c7 8e3e
00000180: 8cfe 633e f468 053e 8189 a23e abfa 303e
00000190: dec3 6b3e 8a42 583e 2233 573e 2eaf 613e
000001a0: ad9b 693e bfcf 963e 80a7 5f3e 5b30 7c3e
000001b0: 26e5 523e d9a1 343e 1149 993e 3166 7a3e
000001c0: 6722 7a3e 8289 843e 21b7 9e3e c0f1 1b3e
000001d0: 1bb6 ca3e f725 283e 862f 483e 4094 e63d
000001e0: befb 583e 49b4 683e e6dd 853e f749 543e
000001f0: 4792 473e c355 9c3e fa12 6c3e 6ec3 313e
0.2426821 0.20876223 0.17423382 0.216599 0.24212518 0.17596781 0.31194064 0.14765203
0.33375221 0.32385167 0.14221886 0.19291176 0.3089794 0.20940259 0.11712016 0.19759028
0.18869475 0.21147794 0.28693905 0.20189156 0.28093755 0.173392 0.14704332 0.17125171
0.15912801 0.26111984 0.17023769 0.1393213 0.21340473 0.1760769 0.20496559 0.19511695
0.25565463 0.2352969 0.15482919 0.21058694 0.14236677 0.21559991 0.18288226 0.14410424
0.12765348 0.15346634 0.1532345 0.16032034 0.28100756 0.2522566 0.21410854 0.14705484
0.17844582 0.13211872 0.24614273 0.094227165 0.22337873 0.15896013 0.20459275 0.19585674
0.19932722 0.16186544 0.29602686 0.22026157 0.18410432 0.2428396 0.14727083 0.29756886
0.2508603 0.18990292 0.2601336 0.09186243 0.15609682 0.18450455 0.19112216 0.21311194
0.21252246 0.24601442 0.13374415 0.28558645 0.1971692 0.22936825 0.12670715 0.21154849
0.24006511 0.2263494 0.2828697 0.24945164 0.26757133 0.17177024 0.12860912 0.1712964
0.13493234 0.11520398 0.22561692 0.12981476 0.12568688 0.21307777 0.24845657 0.27886724
0.2226507 0.13028318 0.31745532 0.17283122 0.23023936 0.21119133 0.210156 0.22039482
0.22813292 0.29455373 0.2184124 0.24627821 0.20595226 0.17639865 0.29938558 0.24453045
0.24427186 0.2588616 0.3099909 0.15228939 0.3959206 0.16420732 0.19549379 0.11258745
0.21189782 0.22725023 0.26145858 0.2073134 0.19489394 0.3053418 0.23054114 0.17359707

bias f4 [128]
00000000: 77eb 393d 9957 19be efb8 cfbc 231d b7bc
00000010: 398e 27bd 7e52 23be e578 b3bd 2955 cebd
00000020: 1ed5 883c 1eb3 71bd ef82 f93d ed1d 9b3c
00000030: 4de1 84bd 7b88 bdbc 17a9 9cbd 80fd 2fbe
00000040: 209a acbc 0c7e c5bd a7b7 d0bd 3fc3 a1be
00000050: c265 08be 6f3c 4abd 5183 f0bd b7ed 99bd
00000060: 3f35 8fbd 8280 1abe d1c1 e0bd 5113 9fbd
00000070: 4bba 35bb c1ec 823d c422 b9bd 773e 86be
00000080: a810 18be c6ca 04be 7dd8 b3ba 02de 493d
00000090: 1651 c3bc d127 53bc 7cad 93bc a528 b1bd
000000a0: ad0b 0fbe 7545 34bd 4873 28bd 4014 77be
000000b0: b2b3 36bc d98a 90bd 0e72 10be 494d 86bc
000000c0: d475 65bd 5040 85be 2948 cebd b099 3e3d
000000d0: 5727 50be 25ff 3dbe 4c10 d4bb ab1b e3bd
000000e0: be36 debd 27c2 0d3d 13ed b43c fc80 1bbe
000000f0: ccfe f5bd e5ef 78bc 6ce8 a3be 67c8 adbe
00000100: ac4a 74bd 4d0a 8cbb 5f3d 76be e53a 033d
00000110: 1d71 fcba ed20 2bbe 2843 dcbd 6e78 0dba
00000120: 99da fbbd 545b 37bc a4fd 4abc e17a cd3b
00000130: 5ebc aebe c822 6a3a b18c 403c 2784 b7bd
00000140: 3917 4dbe 24e6 3bbe fe72 e9bd 5860 d7bd
00000150: e043 31bc 6dd4 18be 8a44 2f3d d680 363d
00000160: 5488 c5bd 9aba 35bc 919a 91bd aff3 ecbd
00000170: e426 3dbe a1e8 b4bd 14b5 b9bb d493 16bd
00000180: 517c f2bd 05f2 28be ee01 7bbe 4b50 5a3d
00000190: 57a4 523c 598e 93bd bef9 b1bd 9662 bfbd
000001a0: 2b76 4abe e03c 3cbe f876 89bd 3fe4 ccbd
000001b0: b059 3e3c e5ef 89be af50 bcbd 13e8 dabd
000001c0: 42a5 efbd 179a 1abe 77eb 2c3d fc0f 4bbd
000001d0: 3ee9 f3bd cc1b d2bd 0ad7 a23c abbf 34be
000001e0: 0e76 9fbc 334d a0bd aa1d 253c 8acd 4b3b
000001f0: 2c60 b63b 438d a6bd 4315 90bd eb4f 43be
0.045390572 -0.14974822 -0.025356738 -0.02235276 -0.04090712 -0.15949437 -0.08763293 -0.10074837
0.016703185 -0.05900871 0.12183177 0.018935168 -0.06488285 -0.023136368 -0.07649439 -0.17186546
-0.021069586 -0.09643182 -0.10191279 -0.31594273 -0.13320068 -0.04937404 -0.117437966 -0.07516044
-0.06992578 -0.15088084 -0.109744675 -0.07767356 -0.0027729447 0.063928135 -0.09039834 -0.26219532
-0.14850104 -0.12967977 -0.0013721135 0.04928399 -0.023842376 -0.012887911 -0.01802706 -0.086503305
-0.13969298 -0.044011552 -0.041125566 -0.24128819 -0.011151241 -0.07057733 -0.14106008 -0.016394274
-0.056020573 -0.2602563 -0.10072357 0.046533287 -0.20327507 -0.18554361 -0.0064716693 -0.110892616
-0.10850285 0.034608986 0.022085702 -0.15185922 -0.12011489 -0.015193914 -0.3201326 -0.33941957
-0.059641525 -0.004273689 -0.24046849 0.032038588 -0.0019259785 -0.16711779 -0.107549965 -0.00053966686
-0.122975536 -0.011191208 -0.012389574 0.006270752 -0.34128088 0.00089315744 0.011752293 -0.08960753
-0.2002839 -0.1834951 -0.11398886 -0.10516423 -0.010819405 -0.14924784 0.042789973 0.04455646
-0.09645143 -0.011091853 -0.07109559 -0.115699165 -0.18471867 -0.08833433 -0.005667338 -0.036762074
-0.11840118 -0.16498573 -0.24512455 0.05329923 0.0128565645 -0.07204885 -0.08690213 -0.09344976
-0.1977164 -0.18382597 -0.067121446 -0.10004472 0.011618063 -0.26940838 -0.09195077 -0.10688796
-0.11701442 -0.15097843 0.042216744 -0.04957579 -0.11909722 -0.10259208 0.01987793 -0.1765124
-0.019465473 -0.078272246 0.010077873 0.0031097853 0.005565664 -0.08132412 -0.07035305 -0.19073455

running_mean f4 [128]
00000000: 9a00 263c 4b63 4a3c 32d8 74bc 5831 fa3c
00000010: 1961 813a 3422 e83c 4d0d f1bb f9d4 c23c
00000020: 802d a2bb 9243 f4bc ab52 e4bc 988a fbbc
00000030: 978a a7bc 4053 36bd 1fe7 c43a 5360 d3bb
00000040: 0d85 d6bc 861f 35bc 927e aa3c ccc8 a83c
00000050: f4eb a63b 6ac4 533c e5bc fcbb 0dca 17bd
00000060: fb60 2cbc 6e3d 45bc 61bb 05bc bcec d5ba
00000070: 66a2 453c 2409 0a3c 8057 83bc b72d 7e3b
00000080: 688a 023c 0a4c 653c 99e2 b33a 6f0a d43a
00000090: 343f d63b b142 05bd 2887 8a3a 5193 e73a
000000a0: 44cc 66bb c7fd 013d dbc9 60bc b1db 06bd
000000b0: 4243 55bc af43 3f3c 2ee8 203c 7c30 c3bb
000000c0: d0b1 173c 512e c43c d162 283c 869a b0bc
000000d0: f04a 303b f69b 9039 b20f 89bc 2fd9 91bb
000000e0: dd11 443c a76d 293c 8828 85ba add0 13bc
000000f0: dfb9 f2bb ca42 c13b 3b76 87bc edd0 f23c
00000100: 0706 a4bc 7c0d 47bb 5b41 4dbc e40e 31bc
00000110: 0ae2 fabb cf56 22bc 5c9f 91bb 1953 7ebc
00000120: a539 47bb 72f3 34bc a504 60bc 6122 b2bc
00000130: 6a65 833b 2030 fbbc 8121 fabc 8545 423c
00000140: f3eb d0bc 8c07 aebb 4bb7 be3c 7f94 9abc
00000150: bd5e 3c3a e503 06bc 8577 08bc 66ec 843b
00000160: bef4 c3bb 59e3 f5bb 8a0b 073b 49b2 b9ba
00000170: 4021 57bc 6d49 b4bc 7f37 9bbb 9c41 8abc
00000180: c17b 86bc d0b5 8dbc 129e 42bc c3d8 6cbc
00000190: ec41 193c 80e3 c13c a2a3 21bd 509d f9bc
000001a0: 4972 3c3b e033 45bc 8ecf 1cbd fc92 93bb
000001b0: 1180 3cbc 07b3 b0bc ba75 2dbc fd09 13bc
000001c0: 5e7b bd3a e986 c63c 87a1 7abc 7f86 25bb
000001d0: 72b0 55bd 0d0d 243c b205 03bc 72e1 b13a
000001e0: 4ac9 fdbc ffff c33a 3068 f23c f4aa cabc
000001f0: 8cbe 43bd 3e38 56bd 8006 0fbc 493d 76bc
0.010131979 0.012352775 -0.014944123 0.030541107 0.0009870856 0.028336622 -0.007356322 0.023783194
-0.0049492717 -0.029817376 -0.02787145 -0.030705735 -0.020451827 -0.044512987 0.0015022493 -0.0064506917
-0.02618649 -0.011054879 0.020812307 0.02060356 0.005094046 0.012925247 -0.0077129477 -0.037057925
-0.010521169 -0.012038572 -0.00816235 -0.0016321163 0.012062645 0.008425031 -0.016032934 0.0038784572
0.007967569 0.01399518 0.0013724148 0.0016177426 0.006538296 -0.032534305 0.0010568844 0.0017667805
-0.0035216967 0.03173616 -0.013720001 -0.032924358 -0.013016524 0.011673852 0.009820981 -0.0059567075
0.009258702 0.023947867 0.010277466 -0.021558058 0.0026900135 0.0002758202 -0.016731117 -0.004450939
0.01196715 0.010341085 -0.0010159174 -0.00902192 -0.0074074115 0.0058978545 -0.016535869 0.02964064
-0.020022405 -0.0030373028 -0.012527789 -0.010806773 -0.0076563405 -0.009908392 -0.004444046 -0.015522742
-0.003039935 -0.01104437 -0.013672982 -0.021744909 0.004009892 -0.030662596 -0.030533554 0.011857395
-0.025503134 -0.0053109583 0.02328076 -0.018869637 0.0007185748 -0.0081796395 -0.008329277 0.004056501
-0.0059801033 -0.0075039086 0.0020606243 -0.0014167513 -0.013130486 -0.022007668 -0.0047368403 -0.016876988
-0.016416432 -0.017298609 -0.011878507 -0.014455977 0.009354096 0.02366805 -0.039462693 -0.03047052
0.0028754643 -0.012036294 -0.038283877 -0.004503606 -0.011505143 -0.021569742 -0.01058715 -0.008974549
0.0014456322 0.024234252 -0.0152973 -0.0025257168 -0.052170224 0.010012877 -0.007996963 0.0013571216
-0.030979771 0.0014953612 0.029590696 -0.02473972 -0.04778914 -0.05229973 -0.008729577 -0.01502926

running_var f4 [128]
00000000: 90e7 873a ef6b 0a3a fa28 993a f43a a43a
00000010: 47ee 023b 2b0b 203a 55d3 533b 25af 683a
00000020: f82c 293b 6683 5f3b 597d 523a d94e 4c3b
00000030: 9ca7 7a3a 82bd 723a 017a 2b39 0153 7d3b
00000040: d628 2a3a 5f4d 8a3a 35ae 5d3a 5307 863b
00000050: c797 d43a 54d5 263a a417 283a c956 803a
00000060: bc2b f139 2495 3f3b 68ba 203b 5c5e 1b3a
00000070: e50e d839 d182 033a dc12 953a 487a 893b
00000080: 540a 8f3b e7f9 503a 7553 1e3a ba63 bd3a
00000090: 07c3 7e39 fb8b 0c3b 187c 073a 5a6e 943a
000000a0: 5dc9 a73a e800 553a ed7f 493a d501 663b
000000b0: 29d8 c53a 02f5 103b ed5f 0c3a 8cb6 233a
000000c0: 6e46 673a 8c98 4e3b a4d6 543a d8b1 9939
000000d0: b4e8 ce3a 252d 263a 623b af3a 81b6 793a
000000e0: ea9a 513a 25f6 103b 613e 753a 9050 8f3a
000000f0: 7256 d039 f9a2 073a 5466 fc3a 2cec b83a
00000100: 6376 e33a 488c 0a39 d6a7 8c3a 473a 893a
00000110: 67a8 2b3a 4a10 a33a 8f77 023a ce5a 453a
00000120: 9f69 dd3a ba80 203b b551 6439 530b ac3a
00000130: 6f91 773b 3a02 b13a 91fa ca39 c1dd 743a
00000140: d726 a83a 7336 1d3a f929 6a3a 44c2 0b3a
00000150: 87e2 453a 67f3 0d3a 8277 8339 1bb3 9239
00000160: 94b7 3e3a 8744 8739 f2ba 2c3a 9be9 c73a
00000170: b511 b53a 0826 7e3a 8092 263a 4d84 fc3a
00000180: 94d0 4b3a 842b 453a 08d2 c63b 69ec 2339
00000190: e978 ca3a 664d 793a d294 f43a b985 9b3a
000001a0: e4d1 553b e3fc c43a bc2c 6a3a 1505 e83a
000001b0: f7b1 103a 3866 913a 4f41 943a 9eba 9d3a
000001c0: ac5c 943a 868e 793a 04f3 a53a 7273 083a
000001d0: da6c 933b abf5 a63a 6eff 133a 221b a63a
000001e0: ed48 1f3a f93a fa3a b381 8b3a a7ec be3a
000001f0: c9f3 1b3b f0b7 ab3a 5a0e 723a 57ef 9a3a
0.0010368694 0.00052803656 0.0011685186 0.0012529776 0.001997845 0.000610518 0.0032322009 0.0008876196
0.0025814157 0.003410542 0.00080295425 0.0031174927 0.0009561719 0.0009259806 0.00016353281 0.003865421
0.00064910704 0.0010551623 0.000845644 0.0040902286 0.001621955 0.0006364186 0.0006412214 0.0009791489
0.00045999687 0.0029233182 0.002452517 0.00059268414 0.00041209828 0.00050167466 0.0011373418 0.0041954853
0.004365245 0.00079718087 0.0006039658 0.0014449276 0.00024295981 0.002144574 0.0005168333 0.0011324391
0.00128011 0.000812544 0.0007686604 0.0035096307 0.0015094328 0.0022118692 0.000535487 0.0006245158
0.00088224455 0.003152403 0.0008119142 0.00029314938 0.0015785904 0.00063391245 0.0013369138 0.00095257914
0.0007995801 0.002211937 0.00093553035 0.0010934044 0.00039737258 0.0005174126 0.001925657 0.0014108471
0.0017354008 0.00013212964 0.0010731171 0.0010469639 0.0006548226 0.0012440768 0.0004976922 0.00075284846
0.001689244 0.002449079 0.00021774213 0.0013125933 0.0037775894 0.0013504692 0.0003871513 0.0009340905
0.0012828958 0.0005997188 0.0008932646 0.0005331377 0.0007548709 0.0005414993 0.00025075307 0.00027980734
0.000727528 0.00025800263 0.00065891363 0.0015252115 0.0013814481 0.0009694998 0.00063542277 0.0019265503
0.0007774916 0.0007521438 0.006067518 0.00015632961 0.0015447411 0.00095101295 0.0018660075 0.0011865414
0.0032626325 0.0015028979 0.00089330575 0.001770171 0.0005519683 0.0011093086 0.0011310967 0.0012033766
0.0011319122 0.0009519834 0.0012660925 0.0005205191 0.00449906 0.001273801 0.0005645667 0.0012672881
0.00060762354 0.0019091062 0.0010643512 0.0014566378 0.002379643 0.0013101082 0.0009233706 0.0011820596

cpu f4 [128]
00000000: 0000 0000 0000 0000 0000 0000 0000 0000
00000010: 0000 0000 0000 0000 0000 0000 0000 0000
00000020: 0000 0000 0000 0000 0000 0000 0000 0000
00000030: 0000 0000 0000 0000 0000 0000 0000 0000
00000040: 0000 0000 0000 0000 0000 0000 0000 0000
00000050: 0000 0000 0000 0000 0000 0000 0000 0000
00000060: 0000 0000 0000 0000 0000 0000 0000 0000
00000070: 0000 0000 0000 0000 0000 0000 0000 0000
00000080: 0000 0000 0000 0000 0000 0000 0000 0000
00000090: 0000 0000 0000 0000 0000 0000 0000 0000
000000a0: 0000 0000 0000 0000 0000 0000 0000 0000
000000b0: 0000 0000 0000 0000 0000 0000 0000 0000
000000c0: 0000 0000 0000 0000 0000 0000 0000 0000
000000d0: 0000 0000 0000 0000 0000 0000 0000 0000
000000e0: 0000 0000 0000 0000 0000 0000 0000 0000
000000f0: 0000 0000 0000 0000 0000 0000 0000 0000
00000100: 0000 0000 0000 0000 0000 0000 0000 0000
00000110: 0000 0000 0000 0000 0000 0000 0000 0000
00000120: 0000 0000 0000 0000 0000 0000 0000 0000
00000130: 0000 0000 0000 0000 0000 0000 0000 0000
00000140: 0000 0000 0000 0000 0000 0000 0000 0000
00000150: 0000 0000 0000 0000 0000 0000 0000 0000
00000160: 0000 0000 0000 0000 0000 0000 0000 0000
00000170: 0000 0000 0000 0000 0000 0000 0000 0000
00000180: 0000 0000 0000 0000 0000 0000 0000 0000
00000190: 0000 0000 0000 0000 0000 0000 0000 0000
000001a0: 0000 0000 0000 0000 0000 0000 0000 0000
000001b0: 0000 0000 0000 0000 0000 0000 0000 0000
000001c0: 0000 0000 0000 0000 0000 0000 0000 0000
000001d0: 0000 0000 0000 0000 0000 0000 0000 0000
000001e0: 0000 0000 0000 0000 0000 0000 0000 0000
000001f0: 0000 0000 0000 0000 0000 0000 0000 0000
0.0 0.0 0.0 0.0 0.0 0.0 0.0 0.0
0.0 0.0 0.0 0.0 0.0 0.0 0.0 0.0
0.0 0.0 0.0 0.0 0.0 0.0 0.0 0.0
0.0 0.0 0.0 0.0 0.0 0.0 0.0 0.0
0.0 0.0 0.0 0.0 0.0 0.0 0.0 0.0
0.0 0.0 0.0 0.0 0.0 0.0 0.0 0.0
0.0 0.0 0.0 0.0 0.0 0.0 0.0 0.0
0.0 0.0 0.0 0.0 0.0 0.0 0.0 0.0
0.0 0.0 0.0 0.0 0.0 0.0 0.0 0.0
0.0 0.0 0.0 0.0 0.0 0.0 0.0 0.0
0.0 0.0 0.0 0.0 0.0 0.0 0.0 0.0
0.0 0.0 0.0 0.0 0.0 0.0 0.0 0.0
0.0 0.0 0.0 0.0 0.0 0.0 0.0 0.0
0.0 0.0 0.0 0.0 0.0 0.0 0.0 0.0
0.0 0.0 0.0 0.0 0.0 0.0 0.0 0.0
0.0 0.0 0.0 0.0 0.0 0.0 0.0 0.0
