ldpi/training/output/ResCNN/scripted_quantized_model.pth (torch, 269226 bytes, 61 tensors)

cpu f4 [64]
00000000: 0000 0000 0000 0000 0000 0000 0000 0000
00000010: 0000 0000 0000 0000 0000 0000 0000 0000
00000020: 0000 0000 0000 0000 0000 0000 0000 0000
00000030: 0000 0000 0000 0000 0000 0000 0000 0000
00000040: 0000 0000 0000 0000 0000 0000 0000 0000
00000050: 0000 0000 0000 0000 0000 0000 0000 0000
00000060: 0000 0000 0000 0000 0000 0000 0000 0000
00000070: 0000 0000 0000 0000 0000 0000 0000 0000
00000080: 0000 0000 0000 0000 0000 0000 0000 0000
00000090: 0000 0000 0000 0000 0000 0000 0000 0000
000000a0: 0000 0000 0000 0000 0000 0000 0000 0000
000000b0: 0000 0000 0000 0000 0000 0000 0000 0000
000000c0: 0000 0000 0000 0000 0000 0000 0000 0000
000000d0: 0000 0000 0000 0000 0000 0000 0000 0000
000000e0: 0000 0000 0000 0000 0000 0000 0000 0000
000000f0: 0000 0000 0000 0000 0000 0000 0000 0000
0.0 0.0 0.0 0.0 0.0 0.0 0.0 0.0
0.0 0.0 0.0 0.0 0.0 0.0 0.0 0.0
0.0 0.0 0.0 0.0 0.0 0.0 0.0 0.0
0.0 0.0 0.0 0.0 0.0 0.0 0.0 0.0
0.0 0.0 0.0 0.0 0.0 0.0 0.0 0.0
0.0 0.0 0.0 0.0 0.0 0.0 0.0 0.0
0.0 0.0 0.0 0.0 0.0 0.0 0.0 0.0
0.0 0.0 0.0 0.0 0.0 0.0 0.0 0.0

weight f4 [64]
00000000: 9575 373d a34b a23e 4691 cc3c e9e0 1a3d
00000010: b9c4 343d 77d4 783d 2406 943e b363 c83d
00000020: 132c 1d3d ff78 aa3c d07a f73c 6af1 1e3d
00000030: f58a 703d 797a 6f3d b608 823d 6faa 453d
00000040: 287b 693d 704e d03d 4a23 4f3d 182b d63c
00000050: ec6a 453e 71f2 343e f2de 3f3f 0fea 303d
00000060: 6720 633e 36b4 b83d 1f34 333f f533 793d
00000070: 8996 703d 8d79 b43e d61c 4e3f 49a0 db3d
00000080: 5726 fb3d bb19 d63d 04e9 fc3c cb63 513d
00000090: ad2f 2b3d 8f0b b73e adc5 433d b246 223e
000000a0: 24ac 873d d14c ab3e 52d5 313d 2bee 393d
000000b0: 0758 ae3d ac44 3d3d c600 d63f c111 af3d
000000c0: 2d75 c93c e671 033d edec 2b3f 5724 053f
000000d0: cb72 883d 848c 1f3e 5048 583e bc64 5c3e
000000e0: f139 a03d 6d1a fd3c 87b6 003d 94e3 2f3d
000000f0: 48f7 983e 39f4 cb3c 8452 213d 07d7 1c3d
0.04478987 0.3169833 0.024971616 0.037812147 0.04413292 0.060749497 0.28910935 0.09784641
0.03837211 0.020809649 0.030209929 0.03880445 0.05872627 0.05846641 0.06349318 0.04825824
0.057002217 0.10171211 0.050570764 0.026143596 0.19279069 0.17670609 0.7494956 0.043191966
0.2218033 0.090187475 0.70001405 0.060840566 0.05873731 0.35248986 0.8051275 0.10723931
0.12263172 0.104541264 0.03087283 0.05112056 0.041793514 0.35751006 0.04779594 0.1584728
0.0662463 0.33457044 0.04341633 0.04539315 0.08512884 0.04620807 1.6718986 0.08548308
0.024592007 0.032091044 0.67158395 0.52008575 0.0666252 0.15580946 0.21121335 0.21522802
0.078235514 0.03089639 0.03142407 0.042941645 0.2987616 0.024896728 0.039385334 0.038291004

bias f4 [64]
00000000: c9e0 e8bd 7355 013f 8d0d 01bd 79f0 113d
00000010: 58f7 0a3d 09cd 5ebc a7b9 a33e 9d13 a6bb
00000020: 3e37 9dbd f297 ddbc 974e 823c 9522 78bd
00000030: 986a f93d b3fb bcbc 072b b53d 47a5 923d
00000040: b2ae efbc e736 963c 4a33 a9bd c373 c1bc
00000050: 6ea6 43bd 9848 c93c d7f0 70bf 6853 063c
00000060: 39b0 64be 2ed3 a03c eec6 14bf c4ab 52bd
00000070: d95f febc 5816 f93e 60a7 7bbe e087 a2bd
00000080: e5c4 91bd fafc 2ebb f572 10bc c697 f7bc
00000090: 6f46 6dbd 3401 c43d 7fe4 68bd 4d9a 97bd
000000a0: e6ad f8bc 6a5e abbd d775 2ebd 0ac0 47be
000000b0: 6f00 993d e010 97bd 1e91 b2be 3c0f 4cbd
000000c0: 0c10 7fbc fc82 08bd f0fd 8bbe 9d7a 0d3f
000000d0: 3e42 debd a619 503d f986 c63d 92d4 ed3d
000000e0: c8b7 5cbc 1a12 c53e afbf 9dbc bcca 41bd
000000f0: 12d8 f2bc 75de 90bd 5ffe 1abd 5b26 20bd
-0.11370999 0.5052101 -0.031507064 0.035629723 0.03392729 -0.013598689 0.3197758 -0.005068256
-0.07676552 -0.027049992 0.015906615 -0.060579855 0.12178534 -0.023069238 0.088460974 0.071604304
-0.029258106 0.018336726 -0.08261736 -0.02361477 -0.04776614 0.024570748 -0.9411749 0.008198597
-0.22332849 0.019631948 -0.5811604 -0.05143334 -0.031051563 0.4864986 -0.24575567 -0.07936072
-0.07117633 -0.0026701079 -0.00881647 -0.030223738 -0.0579285 0.09570542 -0.056858536 -0.074024774
-0.030356359 -0.083676174 -0.04259285 -0.19506851 0.07470786 -0.073762655 -0.3487634 -0.049819216
-0.015567791 -0.03332804 -0.27342176 0.5526522 -0.108524784 0.05080571 0.09693713 0.1161281
-0.013471551 0.38490373 -0.01925644 -0.047312483 -0.029644046 -0.0707368 -0.037840243 -0.03909908

running_mean f4 [64]
00000000: 420f 89bc d9d9 e53c f355 8bbc 0b88 b93b
00000010: 7afe 733c 1662 833c 566b bd3c b4c6 f6bb
00000020: 9788 503c 56d5 913c ee9d 093c 4190 94bc
00000030: 2f63 cfbb 3477 df3b 6a48 81bc 3a62 f23b
00000040: 92c2 873c de4d febb d1be 74bc 5d18 563c
00000050: 912f 5abc 7c03 60bc c8a1 b6b9 8154 91bc
00000060: a2aa a1bb cf31 19bc 3b7a 163d 7079 8ebc
00000070: 50e9 44bc c792 f33c 1105 22bd 372a 143a
00000080: 4de8 6f3c f511 59bc fd21 113c 3225 243c
00000090: 55a3 1f3c 2eac abbc b83a 99bb c2d3 853c
000000a0: 0182 8abc 241f 7dbc 9c91 0abc a3af 443c
000000b0: de92 38bc 8b9e 333b 2ec9 3fbd e95e 143c
000000c0: 16f5 83ba 0eba c0bb 4c47 1abd fe14 2a3d
000000d0: 5097 d2bb c664 3d3c 2a9c 91bc 2b9d 72bc
000000e0: 0374 0539 966b d03b c257 6c3c 911f 3d3c
000000f0: c86b 8b3c 6855 37bc 1bcb 963b b6c9 6b3c
-0.016730908 0.02805798 -0.017008757 0.0056619695 0.014892215 0.016037982 0.02312247 -0.0075310115
0.012727878 0.017801922 0.00839947 -0.018135192 -0.0063289623 0.00681963 -0.0157816 0.0073969634
0.01657227 -0.0077607473 -0.014938072 0.013067332 -0.013317005 -0.013672706 -0.00034834282 -0.01774049
-0.004933671 -0.009350254 0.03673766 -0.01739189 -0.012018517 0.029733075 -0.039555613 0.00056520425
0.014642787 -0.01324891 0.008858201 0.010018634 0.009743531 -0.020956125 -0.0046761893 0.016336326
-0.016907694 -0.015449319 -0.008457568 0.012004766 -0.011265485 0.0027407731 -0.04682272 0.0090558315
-0.0010067548 -0.0058815544 -0.03766565 0.041523926 -0.0064267293 0.011559671 -0.01777466 -0.01480798
0.00012727086 0.0063604815 0.01442522 0.011543171 0.017019168 -0.011189796 0.004601849 0.014391353

running_var f4 [64]
00000000: 6dc2 9f39 eba6 603a 161c a539 c45e 1238
00000010: 2326 7d39 e0cc 9239 a491 183a 3b7a 8138
00000020: f6e9 3839 29de b439 b20f a138 08b4 bb39
00000030: 09e3 3638 f457 5438 f424 8e39 88d1 7938
00000040: 86be 9c39 597f 8938 deb5 7e39 a6e8 4239
00000050: 966d 4a39 e362 5539 c1d4 0d34 259f b339
00000060: 0c46 de37 8696 c738 2592 c03a c7a1 ac39
00000070: 74e0 2439 d946 7c3a 003f df3a 8ab2 ba34
00000080: 74bd 7439 fa5c 4839 6022 b338 5624 e538
00000090: 0bbb d838 b7a3 fa39 bead c737 1150 9839
000000a0: 4a27 a339 c038 8839 114c a338 e77f 2439
000000b0: e9dc 1039 be30 0937 b567 1c3b 6f37 bb38
000000c0: 1716 9435 8bf1 1d38 226c ca3a 3c04 f63a
000000d0: b194 3c38 1487 1839 7650 b439 164b 7a39
000000e0: 7176 9732 88b6 3838 7285 6d39 ae17 1839
000000f0: db4f a539 45ec 0e39 5d61 c137 4368 6c39
0.00030471702 0.00085697946 0.00031492178 3.489737e-05 0.00024142167 0.00027999934 0.0005820042 6.1739665e-05
0.00017634765 0.00034497798 7.680002e-05 0.00035801553 4.3603624e-05 5.062665e-05 0.00027111883 5.9561367e-05
0.0002989659 6.5563894e-05 0.00024291078 0.0001858795 0.00019305045 0.00020350101 1.3209048e-07 0.00034260112
2.649708e-05 9.5170966e-05 0.0014691992 0.0003292693 0.00015723874 0.0009623594 0.0017032325 3.4775104e-07
0.0002334023 0.00019108123 8.541788e-05 0.00010926339 0.00010334522 0.00047805693 2.3803554e-05 0.00029051353
0.00031119055 0.00025982223 7.786614e-05 0.00015687906 0.00013815206 8.177185e-06 0.0023865525 8.92718e-05
1.1033288e-06 3.765667e-05 0.0015443603 0.0018769572 4.4961173e-05 0.0001454617 0.00034392223 0.0002386983
1.7632575e-08 4.4039014e-05 0.00022651794 0.00014504671 0.0003153075 0.00013630193 2.3052731e-05 0.00022545554

cpu f4 [64]
00000000: 0000 0000 0000 0000 0000 0000 0000 0000
00000010: 0000 0000 0000 0000 0000 0000 0000 0000
00000020: 0000 0000 0000 0000 0000 0000 0000 0000
00000030: 0000 0000 0000 0000 0000 0000 0000 0000
00000040: 0000 0000 0000 0000 0000 0000 0000 0000
00000050: 0000 0000 0000 0000 0000 0000 0000 0000
00000060: 0000 0000 0000 0000 0000 0000 0000 0000
00000070: 0000 0000 0000 0000 0000 0000 0000 0000
00000080: 0000 0000 0000 0000 0000 0000 0000 0000
00000090: 0000 0000 0000 0000 0000 0000 0000 0000
000000a0: 0000 0000 0000 0000 0000 0000 0000 0000
000000b0: 0000 0000 0000 0000 0000 0000 0000 0000
000000c0: 0000 0000 0000 0000 0000 0000 0000 0000
000000d0: 0000 0000 0000 0000 0000 0000 0000 0000
000000e0: 0000 0000 0000 0000 0000 0000 0000 0000
000000f0: 0000 0000 0000 0000 0000 0000 0000 0000
0.0 0.0 0.0 0.0 0.0 0.0 0.0 0.0
0.0 0.0 0.0 0.0 0.0 0.0 0.0 0.0
0.0 0.0 0.0 0.0 0.0 0.0 0.0 0.0
0.0 0.0 0.0 0.0 0.0 0.0 0.0 0.0
0.0 0.0 0.0 0.0 0.0 0.0 0.0 0.0
0.0 0.0 0.0 0.0 0.0 0.0 0.0 0.0
0.0 0.0 0.0 0.0 0.0 0.0 0.0 0.0
0.0 0.0 0.0 0.0 0.0 0.0 0.0 0.0

cpu f4 [64]
00000000: 0000 0000 0000 0000 0000 0000 0000 0000
00000010: 0000 0000 0000 0000 0000 0000 0000 0000
00000020: 0000 0000 0000 0000 0000 0000 0000 0000
00000030: 0000 0000 0000 0000 0000 0000 0000 0000
00000040: 0000 0000 0000 0000 0000 0000 0000 0000
00000050: 0000 0000 0000 0000 0000 0000 0000 0000
00000060: 0000 0000 0000 0000 0000 0000 0000 0000
00000070: 0000 0000 0000 0000 0000 0000 0000 0000
00000080: 0000 0000 0000 0000 0000 0000 0000 0000
00000090: 0000 0000 0000 0000 0000 0000 0000 0000
000000a0: 0000 0000 0000 0000 0000 0000 0000 0000
000000b0: 0000 0000 0000 0000 0000 0000 0000 0000
000000c0: 0000 0000 0000 0000 0000 0000 0000 0000
000000d0: 0000 0000 0000 0000 0000 0000 0000 0000
000000e0: 0000 0000 0000 0000 0000 0000 0000 0000
000000f0: 0000 0000 0000 0000 0000 0000 0000 0000
0.0 0.0 0.0 0.0 0.0 0.0 0.0 0.0
0.0 0.0 0.0 0.0 0.0 0.0 0.0 0.0
0.0 0.0 0.0 0.0 0.0 0.0 0.0 0.0
0.0 0.0 0.0 0.0 0.0 0.0 0.0 0.0
0.0 0.0 0.0 0.0 0.0 0.0 0.0 0.0
0.0 0.0 0.0 0.0 0.0 0.0 0.0 0.0
0.0 0.0 0.0 0.0 0.0 0.0 0.0 0.0
0.0 0.0 0.0 0.0 0.0 0.0 0.0 0.0

weight f4 [64]
00000000: b4de b53d cbaa ce3d 6ff5 083e c846 d53c
00000010: 868c ee3c cadc bd3d 1c89 263f 6718 c33e
00000020: e92c d33c f73b 493d 6e48 dd3c adb1 963c
00000030: 7314 893d b73c 6d3d b4c2 683d 1d8d 4d3e
00000040: 553e c23c 2d1d 8c3d 1c41 183e 071d 913d
00000050: 730b 3c3e 2bf4 2d3f 6c0e c83d cca0 253e
00000060: ca84 163d 79da c63d 4021 b13c c010 e13d
00000070: 031f 603d 7d86 d03c 9469 3e3c 9427 0a3e
00000080: 8fc9 d03c 717c 513f 29a2 743e e776 433f
00000090: bed8 4b3e b569 f93d 9fe1 a43e ae70 293d
000000a0: ace2 ac3c e3d8 b23d 5d88 413d d2eb 193d
000000b0: 3d6c 143d 031e 5f3d 0c99 323d 3885 883e
000000c0: 1d1f 353d 4fcb b53f 8fc7 863d f286 b63b
000000d0: a425 f03d e303 283d 1882 0b3d 56f5 173f
000000e0: 51f7 0e3e 248c 323d c56d f43c b56f f43c
000000f0: aa8d c83d 490e f63d b92d 1a3d a4db 983d
0.08880368 0.1009117 0.13374875 0.026034728 0.029119741 0.09270628 0.6505296 0.38104555
0.02577825 0.049129453 0.027012076 0.01839527 0.066933535 0.05791923 0.05682631 0.20073362
0.023711363 0.06841502 0.14868587 0.07085615 0.18363743 0.67950696 0.09768376 0.1617462
0.03674773 0.09709639 0.0216223 0.10989523 0.054717075 0.025454754 0.0116218515 0.1349166
0.025486736 0.8183051 0.23889984 0.76353306 0.199069 0.12178365 0.32203385 0.041367225
0.02110418 0.08732774 0.047249187 0.03757841 0.036236037 0.05447198 0.043602988 0.26664138
0.044219125 1.420267 0.065810315 0.005570286 0.117259294 0.04101933 0.034059614 0.5935873
0.13961531 0.04359068 0.029837498 0.029838422 0.09792645 0.120144434 0.03764126 0.07463768

bias f4 [64]
00000000: 74da a53c d0a5 753a 1982 383d 2dc0 74ba
00000010: 8b0b 6a3b 6560 3ebd 5414 153e c24f 80be
00000020: 56d7 1dbc 3c2b 96bc bb04 21bb 89b6 c7bc
00000030: a549 983c 579d dcbc aeb5 b1bd 27b0 2d3d
00000040: e004 c5bb 82ed 53bd a341 86bd 0e7f 153b
00000050: 1960 2cbe 98d0 003f 50db a0bc 29f9 94bd
00000060: f207 04bc 28f5 71bc 90c7 a8bb 70bf 1b3c
00000070: c7ac 31bd 94e7 51bb f2b0 abbc fe35 8dbe
00000080: 637c 8d3a 0858 353f 5747 a6bd 044a f9be
00000090: ccb8 93bd 66f2 2d3d b942 e53c d428 093b
000000a0: f67f 523c 57a3 8abd 0111 f93a ed0d 82ba
000000b0: 7cba 97ba b068 003c b7b8 e5ba 23da f93d
000000c0: b8cd 25bd 51f0 e13e 7484 39bd 33e6 9abd
000000d0: 88c2 31bd 5778 a23b 58c8 853b 177f c0bd
000000e0: b8dd 2abe 8598 21bd 01da 8cbd 075e a2ba
000000f0: c3c1 573c 5f4d 4bbd b0a4 38bd 0748 9dbd
0.020245768 0.0009370716 0.045045946 -0.0009336498 0.0035712447 -0.046478648 0.14558536 -0.2506085
-0.00963386 -0.018331163 -0.002456947 -0.024379032 0.018589804 -0.026930494 -0.08677231 0.04240432
-0.006012544 -0.051740177 -0.06555488 0.0022811326 -0.16833533 0.5031829 -0.019635826 -0.07274086
-0.008058535 -0.014767922 -0.005150743 0.0095060915 -0.043377664 -0.00320289 -0.020958398 -0.27580255
0.0010794516 0.7083745 -0.08119076 -0.48689282 -0.072129816 0.042467497 0.027985917 0.0020928876
0.012847891 -0.06769436 0.001900226 -0.0009922363 -0.0011575962 0.007837459 -0.0017526363 0.121998094
-0.04047939 0.4412866 -0.045292333 -0.07563438 -0.04339841 0.0049581933 0.0040827207 -0.093992405
-0.16686141 -0.039452095 -0.068775184 -0.0012387641 0.013168755 -0.049634334 -0.045078933 -0.07679754

running_mean f4 [64]
00000000: 4c33 a1bc 286a b33c af7e 003e 2a62 3fba
00000010: 473a 1cbc 6a8e d63c cf9e 8dbe 86e5 61be
00000020: fabb 9b3b 5bd5 f2ba 8a93 d439 e470 16bc
00000030: cb53 6d3c 317c 9e3b 0e2a df3b 0c21 a63c
00000040: 3b3a b23b 02e5 b13c 657d 9dbc 0b63 2d3c
00000050: 6301 0b3e 26c1 2d3d 476d 7ebc ea16 d9bb
00000060: f38f c73b 5796 5f3d 73c9 653a 4cc7 28bc
00000070: eca2 ed3c dbe1 bab9 2f9c 7fbb b425 a03d
00000080: ab18 c93a bb55 46bd c1eb 67bb d6ab d23e
00000090: 3106 c73c b760 adba 4b14 2bbe 21e6 e53a
000000a0: 2ac9 ae37 bad6 ff3a 8201 64bb 8b51 7c3b
000000b0: dc11 303b 1483 f23b dd4a bbbb 79f4 52bd
000000c0: 11b4 473c 4518 e23e 4c65 683c af1f a33c
000000d0: 07dc 283c 9add 47bc a447 feba e461 bf3e
000000e0: 48c6 1d3d 1882 96bb a11a 303d de60 343b
000000f0: b76d fcbb c5fd fd3b 267b 9cba a88f 24bb
-0.01967778 0.021901205 0.12548326 -0.00073006994 -0.009535379 0.026190955 -0.27660224 -0.22060212
0.004752633 -0.001852672 0.00040545716 -0.009182189 0.01448531 0.004836582 0.006810433 0.02027943
0.0054390705 0.021715645 -0.019224832 0.010582696 0.13574748 0.04242053 -0.015528983 -0.006625046
0.006090158 0.054586735 0.0008765675 -0.010301422 0.029008351 -0.0003564496 -0.0039003005 0.07819691
0.0015342435 -0.048421603 -0.0035388323 0.41146725 0.024294944 -0.0013227676 -0.1670696 0.0017539897
2.083609e-05 0.001951895 -0.0034790938 0.0038500752 0.0026866114 0.0074008796 -0.0057157115 -0.05150268
0.012188927 0.4415914 0.014184307 0.019912569 0.010306365 -0.01219883 -0.0019400013 0.37379372
0.038519174 -0.004593145 0.042994145 0.0027523558 -0.0077035087 0.007751199 -0.0011938557 -0.002511004

running_var f4 [64]
00000000: bc50 c739 70e4 9e39 8ad9 7c3b 2fa1 b436
00000010: ae3d 9f37 a5e7 083a 23ad 893d e05e d53c
00000020: cd00 af37 df36 c338 1468 ef36 aa11 a839
00000030: e382 e038 2300 8239 8ee7 6139 4e01 853c
00000040: 8ef6 6f37 f618 bd39 4700 293b d1e3 e738
00000050: fc08 303c 0777 863e 7396 5a3a 6549 183b
00000060: e533 7d39 e51e 243a d177 9936 af9e 4e3a
00000070: bf31 9d39 66c5 6d36 ef2e 1939 9801 8d3b
00000080: 4f57 9538 e6f2 733e 2788 7b3c 5583 df3d
00000090: 7ccc 2e3c c5e1 8839 551b 423c efe7 1839
000000a0: 31db ab35 ec47 a239 c6f8 7538 6242 8e37
000000b0: f6f1 9a38 e519 9d39 7d03 8539 d8a3 283c
000000c0: 5401 4239 3de2 443f 4499 5139 5aeb 533a
000000d0: 1ef3 163a 79e1 b938 69aa 9337 f657 4e3d
000000e0: 64b8 863b db60 4438 907f 973a c1ef 4e38
000000f0: 3687 223a f9a4 3d3b 38a4 bf38 532f aa3a
0.0003801639 0.00030306308 0.0038581812 5.3831823e-06 1.8982999e-05 0.0005222506 0.06722476 0.026046216
2.0861999e-05 9.308545e-05 7.1348713e-06 0.00032056618 0.00010705532 0.00024795634 0.00021543933 0.016235974
1.4302916e-05 0.00036067487 0.0025787519 0.000110573725 0.01074433 0.26262686 0.0008338459 0.0023237106
0.00024147292 0.0006260707 4.573704e-06 0.0007881922 0.00029982437 3.5430653e-06 0.00014608701 0.0043031685
7.121136e-05 0.23823127 0.0153522855 0.109137215 0.01066887 0.00026108153 0.011847337 0.00014582252
1.2804286e-06 0.00030952634 5.864424e-05 1.6958631e-05 7.388361e-05 0.00029964666 0.00025370336 0.01029297
0.00018501777 0.7690771 0.00019988889 0.00080840813 0.0005758273 8.863485e-05 1.7603119e-05 0.050376855
0.0041113365 4.6820245e-05 0.0011558402 4.9337516e-05 0.00061999576 0.0028937443 9.138178e-05 0.0012984074

cpu f4 [64]
00000000: 0000 0000 0000 0000 0000 0000 0000 0000
00000010: 0000 0000 0000 0000 0000 0000 0000 0000
00000020: 0000 0000 0000 0000 0000 0000 0000 0000
00000030: 0000 0000 0000 0000 0000 0000 0000 0000
00000040: 0000 0000 0000 0000 0000 0000 0000 0000
00000050: 0000 0000 0000 0000 0000 0000 0000 0000
00000060: 0000 0000 0000 0000 0000 0000 0000 0000
00000070: 0000 0000 0000 0000 0000 0000 0000 0000
00000080: 0000 0000 0000 0000 0000 0000 0000 0000
00000090: 0000 0000 0000 0000 0000 0000 0000 0000
000000a0: 0000 0000 0000 0000 0000 0000 0000 0000
000000b0: 0000 0000 0000 0000 0000 0000 0000 0000
000000c0: 0000 0000 0000 0000 0000 0000 0000 0000
000000d0: 0000 0000 0000 0000 0000 0000 0000 0000
000000e0: 0000 0000 0000 0000 0000 0000 0000 0000
000000f0: 0000 0000 0000 0000 0000 0000 0000 0000
0.0 0.0 0.0 0.0 0.0 0.0 0.0 0.0
0.0 0.0 0.0 0.0 0.0 0.0 0.0 0.0
0.0 0.0 0.0 0.0 0.0 0.0 0.0 0.0
0.0 0.0 0.0 0.0 0.0 0.0 0.0 0.0
0.0 0.0 0.0 0.0 0.0 0.0 0.0 0.0
0.0 0.0 0.0 0.0 0.0 0.0 0.0 0.0
0.0 0.0 0.0 0.0 0.0 0.0 0.0 0.0
0.0 0.0 0.0 0.0 0.0 0.0 0.0 0.0

cpu f4 [64]
00000000: 0000 0000 0000 0000 0000 0000 0000 0000
00000010: 0000 0000 0000 0000 0000 0000 0000 0000
00000020: 0000 0000 0000 0000 0000 0000 0000 0000
00000030: 0000 0000 0000 0000 0000 0000 0000 0000
00000040: 0000 0000 0000 0000 0000 0000 0000 0000
00000050: 0000 0000 0000 0000 0000 0000 0000 0000
00000060: 0000 0000 0000 0000 0000 0000 0000 0000
00000070: 0000 0000 0000 0000 0000 0000 0000 0000
00000080: 0000 0000 0000 0000 0000 0000 0000 0000
00000090: 0000 0000 0000 0000 0000 0000 0000 0000
000000a0: 0000 0000 0000 0000 0000 0000 0000 0000
000000b0: 0000 0000 0000 0000 0000 0000 0000 0000
000000c0: 0000 0000 0000 0000 0000 0000 0000 0000
000000d0: 0000 0000 0000 0000 0000 0000 0000 0000
000000e0: 0000 0000 0000 0000 0000 0000 0000 0000
000000f0: 0000 0000 0000 0000 0000 0000 0000 0000
0.0 0.0 0.0 0.0 0.0 0.0 0.0 0.0
0.0 0.0 0.0 0.0 0.0 0.0 0.0 0.0
0.0 0.0 0.0 0.0 0.0 0.0 0.0 0.0
0.0 0.0 0.0 0.0 0.0 0.0 0.0 0.0
0.0 0.0 0.0 0.0 0.0 0.0 0.0 0.0
0.0 0.0 0.0 0.0 0.0 0.0 0.0 0.0
0.0 0.0 0.0 0.0 0.0 0.0 0.0 0.0
0.0 0.0 0.0 0.0 0.0 0.0 0.0 0.0

weight f4 [64]
00000000: fa8f 103e 4fd5 cf3d 912b 353e 1137 143e
00000010: a67b 883e 6979 123f 68e8 803e 15db 2c3e
00000020: 55da 9b3e e422 7b3e b19f d33d 6973 263f
00000030: 7175 5b3d 81f2 0c3e 3ab3 353e 9fd2 083e
00000040: 4905 6b3e 6f71 503e 9c2f a03e 81bc a23e
00000050: 1557 5e3f a2e5 883e fe59 e93d 9468 f53e
00000060: 2bf3 073f 1834 c43e 8cb7 0b3f 38b1 b83e
00000070: ecc1 723e a76a 293f 4f3e 2e3d 4f07 723e
00000080: 1bfc 203e 3dad ed3e 5846 1f3e 8083 473e
00000090: 2c15 3f3e 3781 303e e2bc 3dbe 2b0a 843e
000000a0: e183 a83d 5a19 a93e f221 8a3e da03 613d
000000b0: 1031 8c3e 1c75 b33d b73c 0f3f 65cd 4d3e
000000c0: 4079 ba3d 4ffe 923e e3e9 143f f394 093f
000000d0: 4ab1 a63e 7b0e dd3d 211e ce3e f5a7 bd3e
000000e0: 0cb3 d73d 6a3e 273e 22bc 333f ab2c 6f3e
000000f0: 8cf1 8e3e 303b 473d 1803 243e cfba e33d
0.14117423 0.10148107 0.176924 0.14474131 0.26656836 0.5721651 0.25177312 0.16880448
0.30440012 0.24525028 0.10333193 0.6501985 0.053578798 0.13764383 0.17744151 0.13361596
0.22951235 0.20355771 0.31286323 0.31784442 0.86851627 0.26737696 0.11394118 0.4793135
0.5310542 0.38320994 0.54576945 0.36072707 0.23706788 0.66178364 0.04253989 0.236356
0.1572117 0.46421233 0.15554178 0.19483757 0.1866042 0.17236792 -0.18529084 0.25789008
0.08228279 0.33027154 0.26979023 0.054935314 0.27381182 0.08762571 0.5595202 0.20097883
0.09105158 0.28709647 0.5816938 0.53742903 0.32557136 0.107937776 0.40257362 0.37042204
0.10532197 0.16332403 0.7020894 0.23356883 0.2791866 0.04864043 0.16016805 0.11119615

bias f4 [64]
00000000: 9e62 c4bd 0bd8 8a3b ec85 3fbd f8ac 453c
00000010: 9298 5ebe 743d 52be 944d 26be ce03 b0bd
00000020: ef5c 703c ee63 c23e c855 d7bd 8a2f b1be
00000030: ca96 c9bc 0224 3bbd 1634 b5bd 0b83 653e
00000040: af96 30bb b231 7a3e e841 1dbe ecfd 01bc
00000050: a89f 82be 3ef7 293e 60f2 5f3c 9c49 c33c
00000060: a575 383e 254a f8bd d4fb 1abe 4fc8 653d
00000070: f2ff f03d 5717 483b 8cba 71bd d37e 25be
00000080: 436f 9cbd 5f0c 903d d049 d83c bbf7 94bd
00000090: aa40 a83c 1258 37bd 2fde a43d 20a9 d23b
000000a0: 65a6 60bd c285 3b3d 121f 20be 7528 1bbd
000000b0: bd89 66be 642c abbd 6bd6 333e 1e0b 543d
000000c0: 9601 ed3b 8103 05bd e884 da3d 38b4 10bd
000000d0: 1b95 6dbd 861a 40bd 6dc8 bfbc a774 e8bd
000000e0: b344 8fbd 9191 e5bb eb76 a83c bac0 16be
000000f0: d92f 093e 654b 40bd 4b8c e8bd f22c 3ebd
-0.09589122 0.00423718 -0.046758577 0.012065165 -0.21737888 -0.20531255 -0.16240531 -0.08594476
0.014670595 0.37966865 -0.10514408 -0.34606582 -0.024608035 -0.045688637 -0.08847825 0.2241327
-0.0026945283 0.2443302 -0.15357172 -0.007934075 -0.25512433 0.16598222 0.013668627 0.02383881
0.18013628 -0.12123517 -0.15135127 0.056099232 0.11767568 0.003053149 -0.059015796 -0.16161661
-0.07638409 0.070336096 0.026402384 -0.07273813 0.020538647 -0.044761725 0.08050191 0.0064288527
-0.054846186 0.04578186 -0.15636852 -0.03788038 -0.2251348 -0.08358076 0.17562263 0.051768415
0.007232855 -0.032474045 0.10669881 -0.03532812 -0.058003526 -0.046900295 -0.023411 -0.11350375
-0.06995525 -0.0070058783 0.020564517 -0.14721957 0.13397159 -0.0469469 -0.11354884 -0.046429582

running_mean f4 [64]
00000000: d2fe 06bd 17fa b13c d15e 92bd a9b8 a23c
00000010: 2412 b3bd 0865 9cbd c764 47bd a019 fc3c
00000020: 931d 76be 85eb 8ebe eecb b93c 4d1b babc
00000030: ec5c 4dba e82a cc3a 8a6e f8bb 0dc6 7ebd
00000040: d470 99bd d03a 0c3f 9b02 60be 8067 2dbe
00000050: 73c0 8a3e fe8d f53c 0adc 90bd 599f 883e
00000060: 8e0c 9a3d b008 283e 5356 133d b463 74be
00000070: 4891 debc 4ee1 883e f424 163d 40fa a9bd
00000080: 94f8 90bc be5f 9b3e d1d8 a4be c32d c63d
00000090: 010c 843c b8d9 7ebd db70 d43d 4888 413c
000000a0: c1da a13c c834 e13d b206 84be d61e a9ba
000000b0: 1bc3 7abd f937 bb3c 4890 5abe 7354 a7bc
000000c0: 65a4 90bb d488 a6bc 3cce 853e f7d2 d1be
000000d0: 7699 d13c 3491 b83d 9063 593e 1ee5 c73c
000000e0: d11a 4f3d e6ff 97bd 211c f23c 473b a4bc
000000f0: a524 efbd 63b3 b83c 0c82 7dbb ebd7 24bc
-0.03295786 0.021725697 -0.07146991 0.019863443 -0.087436944 -0.07636458 -0.048680093 0.030773938
-0.24034719 -0.27914062 0.022680249 -0.022718096 -0.0007833976 0.0015576752 -0.0075815367 -0.062200595
-0.074922234 0.5477724 -0.21875994 -0.16934013 0.27099952 0.029974934 -0.07073219 0.26684073
0.07521926 0.16409564 0.035970997 -0.23866159 -0.027168885 0.26734394 0.036656335 -0.082996845
-0.017696656 0.30346483 -0.32196668 0.09676697 0.016119005 -0.06221935 0.10373088 0.011812277
0.01975763 0.10996395 -0.25786358 -0.0012902867 -0.061221223 0.022853838 -0.21344101 -0.02042601
-0.0044141286 -0.020328917 0.26133907 -0.40981266 0.025585871 0.0901207 0.21229386 0.024401244
0.050562683 -0.07421856 0.029554429 -0.020047797 -0.11676911 0.022546476 -0.003868225 -0.0100612445

running_var f4 [64]
00000000: cfc8 bf3b c023 8d3a 0f7a fc3b f2e2 153a
00000010: a0e0 2a3d 908e fe3d d19e d93c c48a 513c
00000020: 16d2 703c 7b01 1c3e 5252 603c 59ff b23d
00000030: e531 9e38 098a 463c 1c54 183b 9763 943d
00000040: c574 d33c 3696 4f3e 9ead 653d 0e63 9d3e
00000050: 411f 503e 88ed b53d 0c60 e83a a428 b13d
00000060: 002b 163e b43c 833d 2334 073e b748 d63c
00000070: 9934 253d 896e 033e a184 be3a 362d c53c
00000080: 7e04 b33b 4175 ce3d 900b c03d dda0 e73b
00000090: ea8a fc3b 6626 5e3b a651 2a3e 5367 783d
000000a0: 595f 913b 3b75 f13d 758d b23d 2dd3 a438
000000b0: c9b3 343d 022f c139 5751 3f3e 9b03 473c
000000c0: d56e a53a 028a eb3c dc5f 303e 7171 f03d
000000d0: f640 b43b feb4 ed3b c23b 163d 08ba 153d
000000e0: 9f15 b13b fd61 da3a ac95 983e 67a8 833c
000000f0: 95c4 693e a8fd b439 0ec5 c33a 7081 ac39
0.0058527957 0.0010768101 0.00770498 0.00057177164 0.041718125 0.124295354 0.026564987 0.012789432
0.014698526 0.1523494 0.013691502 0.0874011 7.543321e-05 0.012117871 0.0023243492 0.07245558
0.025812516 0.20272145 0.056073777 0.30739635 0.20324422 0.08883196 0.001772882 0.0865033
0.1466484 0.064080626 0.13203482 0.02615772 0.040333364 0.12835135 0.0014535376 0.02406941
0.005463182 0.10080958 0.09377205 0.007068737 0.0077069895 0.00338974 0.16632709 0.060645413
0.004436415 0.11789938 0.08718387 7.859464e-05 0.04411677 0.00036846852 0.18683372 0.012146856
0.0012621531 0.02875233 0.17224067 0.11740387 0.005500908 0.007254242 0.036678083 0.036554366
0.0054041888 0.0016661283 0.2980169 0.016071511 0.22828896 0.00034521264 0.0014936046 0.00032902835

cpu f4 [64]
00000000: 0000 0000 0000 0000 0000 0000 0000 0000
00000010: 0000 0000 0000 0000 0000 0000 0000 0000
00000020: 0000 0000 0000 0000 0000 0000 0000 0000
00000030: 0000 0000 0000 0000 0000 0000 0000 0000
00000040: 0000 0000 0000 0000 0000 0000 0000 0000
00000050: 0000 0000 0000 0000 0000 0000 0000 0000
00000060: 0000 0000 0000 0000 0000 0000 0000 0000
00000070: 0000 0000 0000 0000 0000 0000 0000 0000
00000080: 0000 0000 0000 0000 0000 0000 0000 0000
00000090: 0000 0000 0000 0000 0000 0000 0000 0000
000000a0: 0000 0000 0000 0000 0000 0000 0000 0000
000000b0: 0000 0000 0000 0000 0000 0000 0000 0000
000000c0: 0000 0000 0000 0000 0000 0000 0000 0000
000000d0: 0000 0000 0000 0000 0000 0000 0000 0000
000000e0: 0000 0000 0000 0000 0000 0000 0000 0000
000000f0: 0000 0000 0000 0000 0000 0000 0000 0000
0.0 0.0 0.0 0.0 0.0 0.0 0.0 0.0
0.0 0.0 0.0 0.0 0.0 0.0 0.0 0.0
0.0 0.0 0.0 0.0 0.0 0.0 0.0 0.0
0.0 0.0 0.0 0.0 0.0 0.0 0.0 0.0
0.0 0.0 0.0 0.0 0.0 0.0 0.0 0.0
0.0 0.0 0.0 0.0 0.0 0.0 0.0 0.0
0.0 0.0 0.0 0.0 0.0 0.0 0.0 0.0
0.0 0.0 0.0 0.0 0.0 0.0 0.0 0.0

weight f4 [64]
00000000: e7ec a33d e123 c83b a70a 61bd 93ed d33c
00000010: bbb8 b2bd 961f fa3d a293 76bd eeb4 85bc
00000020: fb86 d7bd d461 1abe cdd4 a23c 7115 b63e
00000030: 17c0 a63c da88 3ebb 437c f0bb 3b14 443e
00000040: b59e 393e b9b2 9cbe ccb9 803d eaaf 91bc
00000050: 4a22 a3bd c999 85bb 385e 5c3d c0d9 50b2
00000060: 947e b2be 3497 c63d 517e 09be 0c1a 8cae
00000070: 26f0 83be 9281 4cbe 7f23 7d3c 1222 4d3e
00000080: 7ab6 073c 2477 203f 4421 fd26 6d43 39bd
00000090: c273 ff3d 05eb 5b3d 322e 2180 7f79 bfbd
000000a0: 4e66 dd3c fdf1 61be db40 a0bd 1408 cf3a
000000b0: f74f e2bc 3cfd 22bc aae9 e43e 70fc 7c3d
000000c0: b75e 3e3d ae86 853d 6d5b 1039 6071 0abd
000000d0: 63f1 803d 8279 8bbb deaa ccb8 aee7 cb3d
000000e0: 8ec0 8c3c 772f 2a3c 32ff d4be 98e6 37bd
000000f0: 1424 2bbe 8bb8 2e3c 4af7 963c 4565 b73c
0.0800417 0.0061077927 -0.0549418 0.02587012 -0.08726641 0.12213056 -0.060199387 -0.016321626
-0.10523792 -0.15076381 0.019876862 0.35563233 0.020355267 -0.002907327 -0.007339032 0.19148342
0.18126948 -0.30605105 0.06285438 -0.017784078 -0.079655245 -0.0040771705 0.05380079 -1.2156704e-08
-0.34862196 0.096968085 -0.13427092 -6.37109e-11 -0.25769156 -0.19971302 0.015450357 0.20032528
0.008283252 0.62681794 1.7564418e-15 -0.045230318 0.12473251 0.05369093 -3.047143e-39 -0.093493454
0.027026322 -0.22064967 -0.0782487 0.0015795254 -0.02762602 -0.009948071 0.44709522 0.06176418
0.046477046 0.06519829 0.00013766969 -0.03379953 0.06296041 -0.004256428 -9.7593045e-05 0.09956299
0.017181661 0.010387293 -0.4160095 -0.044897646 -0.16712981 0.010664116 0.018428463 0.022387156

bias f4 [64]
00000000: 9e62 c4bd 0bd8 8a3b ec85 3fbd f8ac 453c
00000010: 9298 5ebe 743d 52be 944d 26be ce03 b0bd
00000020: ef5c 703c ee63 c23e c855 d7bd 8a2f b1be
00000030: ca96 c9bc 0224 3bbd 1634 b5bd 0b83 653e
00000040: af96 30bb b231 7a3e e841 1dbe ecfd 01bc
00000050: a89f 82be 3ef7 293e 60f2 5f3c 9c49 c33c
00000060: a575 383e 254a f8bd d4fb 1abe 4fc8 653d
00000070: f2ff f03d 5717 483b 8cba 71bd d37e 25be
00000080: 436f 9cbd 5f0c 903d d049 d83c bbf7 94bd
00000090: aa40 a83c 1258 37bd 2fde a43d 20a9 d23b
000000a0: 65a6 60bd c285 3b3d 121f 20be 7528 1bbd
000000b0: bd89 66be 642c abbd 6bd6 333e 1e0b 543d
000000c0: 9601 ed3b 8103 05bd e884 da3d 38b4 10bd
000000d0: 1b95 6dbd 861a 40bd 6dc8 bfbc a774 e8bd
000000e0: b344 8fbd 9191 e5bb eb76 a83c bac0 16be
000000f0: d92f 093e 654b 40bd 4b8c e8bd f22c 3ebd
-0.09589122 0.00423718 -0.046758577 0.012065165 -0.21737888 -0.20531255 -0.16240531 -0.08594476
0.014670595 0.37966865 -0.10514408 -0.34606582 -0.024608035 -0.045688637 -0.08847825 0.2241327
-0.0026945283 0.2443302 -0.15357172 -0.007934075 -0.25512433 0.16598222 0.013668627 0.02383881
0.18013628 -0.12123517 -0.15135127 0.056099232 0.11767568 0.003053149 -0.059015796 -0.16161661
-0.07638409 0.070336096 0.026402384 -0.07273813 0.020538647 -0.044761725 0.08050191 0.0064288527
-0.054846186 0.04578186 -0.15636852 -0.03788038 -0.2251348 -0.08358076 0.17562263 0.051768415
0.007232855 -0.032474045 0.10669881 -0.03532812 -0.058003526 -0.046900295 -0.023411 -0.11350375
-0.06995525 -0.0070058783 0.020564517 -0.14721957 0.13397159 -0.0469469 -0.11354884 -0.046429582

running_mean f4 [64]
00000000: 3d4c f3bb 038c fdba 64d0 f43b 5ba4 bfbb
00000010: e374 0ebc 8141 37bc d785 f6bb c392 8b3b
00000020: 6b12 393c 3947 553c d593 a83b 1310 91bc
00000030: 422e afbb 3117 89ba 6612 cabb c2e5 6b3c
00000040: a136 58bc b299 93bc 1c22 05bc 9706 053c
00000050: 25bc 2dbc 63f9 9dba 000e dbbb 2f55 6631
00000060: f82b 9c3c c2dd 273c 4865 483c aa99 8dad
00000070: 706e 893c e8f0 6c3c d8c2 cbbb a799 633c
00000080: a290 7cbb e128 d2bc 5595 0ba6 5898 343b
00000090: 3fc0 24bc f33d eabb 99ce 0980 034b 21bc
000000a0: b019 cb3b 97fd 79bc 3464 173c 7cd6 3e3a
000000b0: eba3 b1bb f548 b9ba 8609 adbc c90e fe3b
000000c0: 3492 cb3b dda9 09bc 9e5a 1fb8 b9cb d53b
000000d0: e396 0c3c 4b7e af3b 47e6 9d3b 804b 17bc
000000e0: 237a 933b db31 74ba e826 afbc f3d8 a33b
000000f0: 8995 033e 9f59 843b 2c7e 2d3b d6bd e03b
-0.00742486 -0.0019344095 0.007471131 -0.00584845 -0.00869486 -0.011185051 -0.007523279 0.0042594387
0.011295895 0.013017469 0.005144576 -0.01770786 -0.0053460905 -0.0010459182 -0.006166744 0.01439804
-0.013196618 -0.018017624 -0.008125808 0.008119247 -0.010603939 -0.0012052472 -0.0066850185 3.3517826e-09
0.019063935 0.010245742 0.012231179 -1.6098085e-11 0.016776294 0.014461733 -0.0062182955 0.013891614
-0.0038538356 -0.025654258 -4.8427695e-16 0.0027556624 -0.010055601 -0.007148498 -9.00633e-40 -0.009844544
0.0061981305 -0.015258214 0.009240199 0.00072798855 -0.005421152 -0.0014136123 -0.021122705 0.0077532274
0.006212497 -0.008402315 -3.7992948e-05 0.00652453 0.008580896 0.0053556315 0.004818711 -0.009234309
0.004500644 -0.00093152904 -0.021380857 0.0050002276 0.12850012 0.004039004 0.002647291 0.0068585677

running_var f4 [64]
00000000: c088 8938 9f5d 9536 f740 8b38 60aa 2a38
00000010: 929b bc38 4d0e 1c39 5a34 8d38 d50c b537
00000020: 0b2a 1f39 7560 5339 bd0e 0438 6792 c339
00000030: 0c9b 0e38 a0aa ae35 5bbf 3d38 774b 8139
00000040: 1e3c 5939 5779 ca39 5bba a438 4a76 a438
00000050: f542 0c39 5eef e735 58fb 5e38 8a88 7623
00000060: 37ac e239 17f2 0239 cf9c 3a39 d758 ba1b
00000070: 3589 af39 f570 8239 e4ee 4038 f4b7 7039
00000080: 0636 9437 963d 4d3a 8513 b50c 9c8e 1737
00000090: d342 fc38 05f9 7e38 0400 0000 64c8 f138
000000a0: 12af 3f38 7c34 9139 2d02 d538 793c 2935
000000b0: 66a3 1238 e687 1f36 1e23 0b3a ddf7 9538
000000c0: d292 4038 2621 b038 2001 ec30 6b67 5438
000000d0: 24b2 b738 781d 0f38 4cb7 e737 acbc d438
000000e0: cd22 ca37 d68c 8a35 138f 0e3a 7880 f937
000000f0: b1ea a03c b1cb a237 f4de 0b37 b0b5 6a38
6.558141e-05 4.451445e-06 6.640137e-05 4.0689833e-05 8.993516e-05 0.00014882647 6.733155e-05 2.1582857e-05
0.00015179084 0.00020158461 3.148498e-05 0.00037302377 3.3999837e-05 1.3013669e-06 4.5239325e-05 0.00024661023
0.00020717128 0.00038618848 7.854841e-05 7.8421624e-05 0.00013376384 1.7280506e-06 5.3163007e-05 1.33646e-17
0.0004323439 0.00012487952 0.00017796758 3.082853e-22 0.00033480828 0.00024879692 4.599885e-05 0.00022956711
1.7668131e-05 0.00078293064 2.7899213e-31 9.033505e-06 0.000120287434 6.0790237e-05 6e-45 0.00011529101
4.5700996e-05 0.0002769566 0.00010157037 6.3045405e-07 3.496129e-05 2.377195e-06 0.0005307662 7.151042e-05
4.5913104e-05 8.398508e-05 1.717158e-09 5.0641054e-05 8.759301e-05 3.41213e-05 2.76227e-05 0.000101440906
2.4096482e-05 1.032279e-06 0.000543819 2.9742936e-05 0.01964316 1.9406756e-05 8.336956e-06 5.5959157e-05

cpu f4 [64]
00000000: 0000 0000 0000 0000 0000 0000 0000 0000
00000010: 0000 0000 0000 0000 0000 0000 0000 0000
00000020: 0000 0000 0000 0000 0000 0000 0000 0000
00000030: 0000 0000 0000 0000 0000 0000 0000 0000
00000040: 0000 0000 0000 0000 0000 0000 0000 0000
00000050: 0000 0000 0000 0000 0000 0000 0000 0000
00000060: 0000 0000 0000 0000 0000 0000 0000 0000
00000070: 0000 0000 0000 0000 0000 0000 0000 0000
00000080: 0000 0000 0000 0000 0000 0000 0000 0000
00000090: 0000 0000 0000 0000 0000 0000 0000 0000
000000a0: 0000 0000 0000 0000 0000 0000 0000 0000
000000b0: 0000 0000 0000 0000 0000 0000 0000 0000
000000c0: 0000 0000 0000 0000 0000 0000 0000 0000
000000d0: 0000 0000 0000 0000 0000 0000 0000 0000
000000e0: 0000 0000 0000 0000 0000 0000 0000 0000
000000f0: 0000 0000 0000 0000 0000 0000 0000 0000
0.0 0.0 0.0 0.0 0.0 0.0 0.0 0.0
0.0 0.0 0.0 0.0 0.0 0.0 0.0 0.0
0.0 0.0 0.0 0.0 0.0 0.0 0.0 0.0
0.0 0.0 0.0 0.0 0.0 0.0 0.0 0.0
0.0 0.0 0.0 0.0 0.0 0.0 0.0 0.0
0.0 0.0 0.0 0.0 0.0 0.0 0.0 0.0
0.0 0.0 0.0 0.0 0.0 0.0 0.0 0.0
0.0 0.0 0.0 0.0 0.0 0.0 0.0 0.0

cpu f4 [128]
00000000: 0000 0000 0000 0000 0000 0000 0000 0000
00000010: 0000 0000 0000 0000 0000 0000 0000 0000
00000020: 0000 0000 0000 0000 0000 0000 0000 0000
00000030: 0000 0000 0000 0000 0000 0000 0000 0000
00000040: 0000 0000 0000 0000 0000 0000 0000 0000
00000050: 0000 0000 0000 0000 0000 0000 0000 0000
00000060: 0000 0000 0000 0000 0000 0000 0000 0000
00000070: 0000 0000 0000 0000 0000 0000 0000 0000
00000080: 0000 0000 0000 0000 0000 0000 0000 0000
00000090: 0000 0000 0000 0000 0000 0000 0000 0000
000000a0: 0000 0000 0000 0000 0000 0000 0000 0000
000000b0: 0000 0000 0000 0000 0000 0000 0000 0000
000000c0: 0000 0000 0000 0000 0000 0000 0000 0000
000000d0: 0000 0000 0000 0000 0000 0000 0000 0000
000000e0: 0000 0000 0000 0000 0000 0000 0000 0000
000000f0: 0000 0000 0000 0000 0000 0000 0000 0000
00000100: 0000 0000 0000 0000 0000 0000 0000 0000
00000110: 0000 0000 0000 0000 0000 0000 0000 0000
00000120: 0000 0000 0000 0000 0000 0000 0000 0000
00000130: 0000 0000 0000 0000 0000 0000 0000 0000
00000140: 0000 0000 0000 0000 0000 0000 0000 0000
00000150: 0000 0000 0000 0000 0000 0000 0000 0000
00000160: 0000 0000 0000 0000 0000 0000 0000 0000
00000170: 0000 0000 0000 0000 0000 0000 0000 0000
00000180: 0000 0000 0000 0000 0000 0000 0000 0000
00000190: 0000 0000 0000 0000 0000 0000 0000 0000
000001a0: 0000 0000 0000 0000 0000 0000 0000 0000
000001b0: 0000 0000 0000 0000 0000 0000 0000 0000
000001c0: 0000 0000 0000 0000 0000 0000 0000 0000
000001d0: 0000 0000 0000 0000 0000 0000 0000 0000
000001e0: 0000 0000 0000 0000 0000 0000 0000 0000
000001f0: 0000 0000 0000 0000 0000 0000 0000 0000
0.0 0.0 0.0 0.0 0.0 0.0 0.0 0.0
0.0 0.0 0.0 0.0 0.0 0.0 0.0 0.0
0.0 0.0 0.0 0.0 0.0 0.0 0.0 0.0
0.0 0.0 0.0 0.0 0.0 0.0 0.0 0.0
0.0 0.0 0.0 0.0 0.0 0.0 0.0 0.0
0.0 0.0 0.0 0.0 0.0 0.0 0.0 0.0
0.0 0.0 0.0 0.0 0.0 0.0 0.0 0.0
0.0 0.0 0.0 0.0 0.0 0.0 0.0 0.0
0.0 0.0 0.0 0.0 0.0 0.0 0.0 0.0
0.0 0.0 0.0 0.0 0.0 0.0 0.0 0.0
0.0 0.0 0.0 0.0 0.0 0.0 0.0 0.0
0.0 0.0 0.0 0.0 0.0 0.0 0.0 0.0
0.0 0.0 0.0 0.0 0.0 0.0 0.0 0.0
0.0 0.0 0.0 0.0 0.0 0.0 0.0 0.0
0.0 0.0 0.0 0.0 0.0 0.0 0.0 0.0
0.0 0.0 0.0 0.0 0.0 0.0 0.0 0.0

weight f4 [128]
00000000: bdc7 653e b729 3a3e 9311 393e ec7e 5a3e
00000010: 2b13 eb3e 696d 1f3e 8225 593e 8da7 673d
00000020: c1f6 623e 780e b33e ba1f 6d3e afd9 b63e
00000030: 51a0 3a3e 0388 db3e 95ee b13e b422 563d
00000040: e44b cd3e 17b4 c13e 9004 093e 944a 6f3d
00000050: 8250 ab3d 23eb cc3d 29bd 3a3e 4cde 653c
00000060: 7cd7 583e d4e1 8d3d 8590 9f3e 85e5 7d3e
00000070: 2d8e 2f3e 6d81 e13e c282 c13d 090a d23d
00000080: 0fa7 063e b9fa 2e3e 6fc3 a73e 640a 963d
00000090: 1d89 953e a585 d03d c9b4 aa3c b81b 913d
000000a0: d16d 783d e3d1 e33d 8911 de3e e50e 0f3d
000000b0: 25cd 2b3e fa24 583e cfbd e33d 494f 9b3e
000000c0: fd5e 023e b07f a73e 89c7 123d 8071 863e
000000d0: 0a8e a93e 79c6 523d 5efa 923d 03aa c53e
000000e0: a043 593e cb98 203e 3e86 463e b5ac a13d
000000f0: 7a3f 803e bb73 8d3e eb27 d23d 12b1 e13d
00000100: a9b7 033d c17a 543e 2371 7f3e 5470 8c3e
00000110: a7a9 e23e 3c51 333e 969f a13d 8199 c03e
00000120: 083e 4f3e abd5 a13e 7a34 743d c5f8 ae3d
00000130: f65c 493e eb4d 793e 2734 5a3e 0099 d53d
00000140: dd45 553d 1309 6d3d b71d 3c3e ce13 983e
00000150: ac2a 5a3d e061 443e 9c0a 883e adc8 163e
00000160: 9d47 9b3c 6d50 663e 1839 4d3e 6725 e63c
00000170: c1ce 163e 2449 2b3e ef1c 863e 7bf9 e33d
00000180: 30a6 9c3e 32fc 1e3e fef4 9a3e 995c 733d
00000190: d61f 6e3e 7bd7 793e d7a0 3a3e 2e88 643e
000001a0: fdf3 983e 32a2 1b3e 7d69 5a3d 1c15 c73e
000001b0: b2c9 b33d ea59 c33e 0aab e43e 12ac 3e3e
000001c0: 91ae 5f3e 8323 fa3e 7139 aa3d 52f3 bd3e
000001d0: ca87 b33d 11a2 243e 5657 193e 454d 9a3d
000001e0: 4c56 413e 08f0 ce3d e2b3 903e e6d9 613e
000001f0: b70c 3c3e e9b4 403e aed7 c83e 209e 943e
0.22439475 0.18179975 0.1807311 0.2133748 0.45913061 0.1556908 0.21205714 0.056556273
0.22164442 0.34971976 0.23156634 0.35712954 0.18225218 0.42877206 0.34752336 0.05227919
0.40096962 0.3783271 0.13380647 0.058420733 0.08364965 0.10005786 0.18236221 0.0140300505
0.21175951 0.06927839 0.31164947 0.24794586 0.1714408 0.44044057 0.09448768 0.1025582
0.13149665 0.1708783 0.32766291 0.073262006 0.29206172 0.10181741 0.020838158 0.07085365
0.060651604 0.11124017 0.43372753 0.034926314 0.16777475 0.21107855 0.111201875 0.30333927
0.12731548 0.32714605 0.035834823 0.2625847 0.3311618 0.05145881 0.0717666 0.3860627
0.21217203 0.15683286 0.19387147 0.078942694 0.2504843 0.27627358 0.1026152 0.110201016
0.032157574 0.20749952 0.24945502 0.2742945 0.4427006 0.17511457 0.07891767 0.37617114
0.20238507 0.31608328 0.059620358 0.08543543 0.19664368 0.2434613 0.21308957 0.10429573
0.05206858 0.057869982 0.1837071 0.2970261 0.05326335 0.19177961 0.26570594 0.14724989
0.018955046 0.22491618 0.20041311 0.028094007 0.14727308 0.1672712 0.2619395 0.11131569
0.3059554 0.15525892 0.3026504 0.05941448 0.23254332 0.24398606 0.18225418 0.22317573
0.29873648 0.15198591 0.053323258 0.38883293 0.08778705 0.38154536 0.44661742 0.18620327
0.21843936 0.48855218 0.08311737 0.370997 0.08766134 0.16077448 0.14974722 0.07534269
0.18880576 0.10104376 0.2826224 0.22055778 0.18364225 0.18819012 0.3922705 0.2902689

bias f4 [128]
00000000: 0c05 0bbe be63 5fbd f7ef a3bd d39e e0bd
00000010: 7546 16be 3a9c 82bd da92 a7bd 3147 5bbd
00000020: 45c2 96bd da6c 40bd 425f 00be d115 33bd
00000030: b9dc 65bc 5eaa 92be 9ff2 ba3d 92cf 41bd
00000040: ede6 f9bb 9938 bdbd b279 5b3d 0309 38bd
00000050: 2ac7 22bd 205d 3cbb 21c5 1ebd 5c9d 97bd
00000060: 34f9 1cbe 1e9d ec3c a30c 80bd 6607 3c3c
00000070: 5a87 a2be 3a1c b1bd a19e e03c 0cd2 5a3c
00000080: 5f51 49be 3ba8 45be ba4d c63a 2ea9 c2bd
00000090: 6c57 78be 2e21 f43c 7893 cebc 162b 30be
000000a0: a776 e9ba 61b1 81bd e988 83bd 09ca 87bd
000000b0: a09c 7cbe 374d adbe ce78 fabd 4d2a 1cbf
000000c0: e619 1abc e93a b9bd 2b0b 47bd b4cb b3bd
000000d0: 5d7e b7bd e371 26bb 0d70 52bc 504b 03be
000000e0: ccf1 9c3d 72ca 36bc a22e 54be 984a 74bc
000000f0: f1e6 22be 88ba 05be e1aa fcbc c2ac 14be
00000100: c0e3 fbbc 017e 083c 491f 93bd 2095 1dbb
00000110: 944d 46be a998 ecbe 13cf 2c3d 973d 36be
00000120: 23af c2bc 6ce1 8e3c fef1 45bd a4cb edbd
00000130: 61f1 7fbe 8cfc b2be c86f dbbd ef40 86bd
00000140: dd5d 2abd b9ef 4cbc f349 41be 525a 983d
00000150: 0861 22bd c064 963d da1a ebbd 68f0 98be
00000160: c217 81bd 8f2f c2be a789 49bc a1a9 3fbd
00000170: 3f33 61bd 5637 9bbd 82bb b4be 7254 a53a
00000180: a5f9 573d 5db7 343d 2492 333c 138d 19bd
00000190: 2cf5 eebd 35cb dbba 8b56 98be 50db 0a3d
000001a0: 3142 26be 304d 5f3b aa66 32bc 38ce 933d
000001b0: de05 833a e16f 753d 2f8e 37bd a061 813b
000001c0: 19f7 e0bd a00d 78be 9de8 52be 1470 aabd
000001d0: 6cba 73bd 6f78 2bbb fe83 5d3b b4f3 bcbd
000001e0: 7465 183b c40b cebd a2e4 a1bd 7858 80be
000001f0: b1f6 a4bd bc7c 233e b029 213e 21ba f53c
-0.13576144 -0.05453848 -0.08004754 -0.10967793 -0.14675315 -0.06377454 -0.081823066 -0.05353469
-0.07361273 -0.04697881 -0.12536338 -0.043721978 -0.014029675 -0.28645605 0.091283076 -0.047317095
-0.0076264055 -0.09239311 0.053582855 -0.04493047 -0.03974072 -0.002874203 -0.038762216 -0.07403061
-0.15329438 0.028883513 -0.0625241 0.011476373 -0.3174389 -0.08647962 0.02741939 0.013355743
-0.19659947 -0.19302456 0.0015129365 -0.09504925 -0.24252099 0.029800978 -0.025216803 -0.17203936
-0.001781185 -0.063326605 -0.06422598 -0.06630332 -0.24669123 -0.33847973 -0.12230073 -0.61002046
-0.009405589 -0.09044439 -0.048594635 -0.08779088 -0.08959649 -0.0025397472 -0.012844098 -0.12821698
0.076633066 -0.011156665 -0.20720914 -0.014910363 -0.1590841 -0.13059437 -0.0308432 -0.14519027
-0.030748248 0.008330823 -0.071837015 -0.0024045184 -0.19365531 -0.4621022 0.04218967 -0.17796932
-0.023765152 0.017441474 -0.048326485 -0.11611107 -0.24994422 -0.34958303 -0.1071468 -0.06555354
-0.04159342 -0.012508326 -0.18875866 0.07439102 -0.039643317 0.07343435 -0.11479731 -0.29870915
-0.063033596 -0.3792691 -0.012300885 -0.04679263 -0.054980513 -0.07578914 -0.35299307 0.0012613668
0.052728314 0.04412018 0.010960136 -0.037488054 -0.116678566 -0.0016768934 -0.29753527 0.03390056
-0.16236188 0.0034073107 -0.010888735 0.072170675 0.0009996255 0.05992115 -0.04481333 0.0039484054
-0.1098463 -0.24223948 -0.20596547 -0.083221585 -0.059503958 -0.0026164313 0.0033800597 -0.0922617
0.002325383 -0.10060838 -0.079049364 -0.25067496 -0.08054865 0.15965551 0.15738559 0.02999598

running_mean f4 [128]
00000000: 21d5 8b3d 66d6 3abd 2627 ab3d 6a2c 483b
00000010: f6ff 6cbd f693 82bd 3228 2bbd 4a17 813c
00000020: eb26 24be e87d 94bd d0ef 863c 4081 a43d
00000030: b0e4 63bd de61 48be 95af f83d 8a20 debc
00000040: 48b8 05bd 04f8 0fbb 05d0 91bc 857c dbbc
00000050: 663b babc 7517 973b 5266 723c 7a96 1abb
00000060: 3aee f43d 6e5c 523b 2943 5fbd 7009 fdbc
00000070: 6674 efbd f202 793c 643c fcbc d956 923c
00000080: cab7 77bd ebbd b33d 589d bd3d 3006 dc3c
00000090: 84bd 9abd 91fe 2abd 4d37 4dbc 8a9a 6f3d
000000a0: 985d b13c 676d 12bc 3f5c 013c 6889 aa3b
000000b0: e129 fd3c 4cd9 3a3e 5ab0 5ebd 1251 093e
000000c0: 83e5 16bd 06dd 1dbe ccc8 56ba 45ef 46bd
000000d0: 9297 f0bc d97f 69bc 111a 0f3c 0429 743d
000000e0: 7a9a ddbc 9946 023d d893 ef3c 87e3 febb
000000f0: 2bd9 4a3d 87fb bf3c 2592 f73b 9776 42be
00000100: 54f0 20bc 7f68 9b3d f92e 7fbd 260b a63c
00000110: faf6 e8bd 34b0 79be 8ab9 0bbd b5a6 13be
00000120: 6772 793d e7f3 8f3d fc1e 98bc 0097 76bd
00000130: 3885 20be cd3d 6a3d a6ce 103d fe51 13bd
00000140: b463 533b e543 d93c 3203 5abe e2c4 e4bc
00000150: 870f edbc 6832 533d 5003 babd 2e57 dbbd
00000160: 4e2e 023d 9c93 48be db4d f4b7 0ab8 c8bc
00000170: a35f 413d f2a0 dabd 5295 be3d 55d7 91bc
00000180: f9ee 1bbe a9de 17bc ade3 ea3c f33f 1ebd
00000190: bbbd 103d ed11 8f3d 742b 1abc d197 c5bd
000001a0: d9d5 d0bd cc84 9f3c 47c6 123c 3a18 3a3e
000001b0: 53d5 363c d2c2 07bd 5712 c83c 01f5 f83d
000001c0: 7eb8 e3bd 20eb 33be 20f1 f33d 8eeb 43bd
000001d0: 0591 02bd 9757 263d 87c7 5bbd 0ced 66bd
000001e0: 8f75 b6bd 3a80 93bd 021b 013d feb5 e9bc
000001f0: 9e70 e93d 1d2a c0bd 95cc 55bd c004 a6bd
0.068277605 -0.045614623 0.08357076 0.003054405 -0.05786129 -0.063758776 -0.04178638 0.015758175
-0.16030471 -0.07250577 0.016471773 0.08032465 -0.055638015 -0.19568583 0.121428646 -0.027115125
-0.032646447 -0.0021967897 -0.017799387 -0.026792774 -0.022733402 0.0046109506 0.014794903 -0.0023588226
0.119595006 0.003209855 -0.05450741 -0.03088829 -0.11692123 0.015198456 -0.030790515 0.017863678
-0.06047801 0.08776458 0.092585266 0.02685842 -0.075556785 -0.04174668 -0.012525392 0.05849699
0.021651074 -0.008937216 0.007895528 0.0052043684 0.030903758 0.18246955 -0.0543674 0.13409832
-0.036839973 -0.15416345 -0.0008193373 -0.04856803 -0.02936915 -0.014251673 0.008734242 0.059609428
-0.0270512 0.03180561 0.029245302 -0.007778588 0.049523514 0.023435367 0.0075552636 -0.18990551
-0.009822924 0.075882904 -0.062300656 0.020268988 -0.11375232 -0.24383622 -0.03411249 -0.14419062
0.06090012 0.070289426 -0.018569462 -0.0602026 -0.15675819 0.057187844 0.035353325 -0.035966866
0.0032255473 0.026521632 -0.21290281 -0.027925912 -0.028938068 0.051561743 -0.09082663 -0.107099876
0.03178244 -0.19587559 -2.9123321e-05 -0.02450182 0.047210347 -0.10675229 0.09305824 -0.017802874
-0.1522788 -0.009269395 0.028673017 -0.038635205 0.03533719 0.06985841 -0.009409774 -0.09648097
-0.10197038 0.019472502 0.008958406 0.18173304 0.011159259 -0.03314478 0.024422808 0.12156106
-0.111191735 -0.17570162 0.11911225 -0.047832064 -0.031876583 0.040610876 -0.05365708 -0.05637841
-0.08909141 -0.07202192 0.031519897 -0.028529163 0.11398433 -0.093830325 -0.052197058 -0.08106375

running_var f4 [128]
00000000: e9fe b73c b12f dc3b 4d55 1c3b 874c 953b
00000010: 78f6 853c 9f34 433a 7deb 753c 67b1 4639
00000020: 3a32 fd3b d783 e13b 54b7 4f3b 4a64 0d3c
00000030: 00b5 713b 787c 3d3d 5564 953c e157 293a
00000040: 9dd5 c43b 9b5d fd3b 6a35 e53a ea2c 5d3a
00000050: 75de e339 785c 6e3a 68d5 363b 48ed a03a
00000060: f865 733b e8c6 093a 59b9 c03b a87f ba3b
00000070: e811 8e3c 4e40 d23c 5834 a33a 08a2 ad39
00000080: 235f 473b f37e d43b eefe e43b 8083 bc39
00000090: 1f00 c03c 2f34 6639 64d2 f739 53d3 2c3c
000000a0: fe71 a239 e103 923a 6b3b 363c 1c21 093a
000000b0: e8d4 1a3c bc76 d23c ba88 053b acef 9e3c
000000c0: 7a3c 8f3a b9e2 223d 28d7 3a3a 1c49 c63b
000000d0: 2a92 6d3b 510d 4e39 cb64 c839 8425 343c
000000e0: 286a d53a 78ea 133a ea43 ff3a 9d92 ac38
000000f0: 3fba 333b 4883 cc3b b9ed bb39 ad45 0c3c
00000100: 7e3d 8539 f5eb 7c3c 6bb8 3a3b 4a9c 5e3b
00000110: d892 7d3c f314 ca3c 9e56 0c3a 7726 153c
00000120: 09cc e03a 2104 773b 7e14 2a3a ce77 ee3a
00000130: 13a9 bc3b e8b8 aa3b aced e83c 5cfe b43a
00000140: da9e fb38 63e0 0c39 1fe3 f33b 9396 023d
00000150: 5c62 3e3a 292b 613b 4b58 ee3b 1662 c83b
00000160: 6091 e439 96db 833c a58d a13b 58bd 5f3a
00000170: fa56 c43a be00 e43b 38c6 533c d58e 0c3b
00000180: 170c c83b 8125 a23b fa31 3b3c b16f 113a
00000190: d427 423b 8964 233b 2a3a 3e3b 5750 c33b
000001a0: 0973 9f3b e3d7 6c3a 1c44 363a f945 ee3b
000001b0: a347 6b3a e369 903c 0d78 413c 0b2c 113b
000001c0: 74bf 343b eb97 1b3d 95f7 323b cda8 c43b
000001d0: 4dcc a339 1157 d43a fddb 423b cb32 1c3a
000001e0: 780d 0b3b f7dd af3a cc3a 273c bbd8 013c
000001f0: dc95 353c 6015 033c bb2e 523c fd60 843c
0.022460418 0.0067195524 0.0023854554 0.004556242 0.016352877 0.0007446501 0.015009758 0.00018948839
0.0077269347 0.0068821716 0.0031694965 0.008629868 0.0036881566 0.04626128 0.018236319 0.00064599334
0.00600691 0.007732106 0.0017487232 0.00084371737 0.00043462557 0.00090927584 0.0027898196 0.0012277747
0.0037139636 0.00052557746 0.00588147 0.0056914873 0.017342523 0.025665428 0.0012451513 0.00033117854
0.0030421696 0.00648486 0.006988398 0.0003595613 0.023437558 0.00021953949 0.00047268264 0.0105484305
0.0003098398 0.0011140072 0.011122565 0.0005231069 0.009450175 0.025691383 0.0020375685 0.019401394
0.0010928058 0.039767 0.00071273977 0.006051196 0.003625045 0.00019650652 0.0003822207 0.010995273
0.0016282247 0.00056425435 0.0019475196 8.228908e-05 0.0027424244 0.006241236 0.00035844537 0.008561534
0.00025413552 0.015437116 0.002849127 0.0033967667 0.015476905 0.024668192 0.0005353483 0.009103409
0.0017150651 0.003769167 0.0006488039 0.0018193664 0.00575746 0.005210031 0.028433643 0.0013808715
0.00011998201 0.00013435031 0.0074428464 0.03188188 0.00072625815 0.0034358 0.007273709 0.0061152084
0.00043595862 0.016095918 0.0049302154 0.00085349893 0.0014979534 0.0069580963 0.012925677 0.002144744
0.006104957 0.0049483185 0.01142549 0.00055479544 0.002962579 0.002493175 0.0029026368 0.005960505
0.004866008 0.0009034855 0.0006952898 0.007271525 0.0008975213 0.017628616 0.0118084075 0.0022151496
0.0027579935 0.037986677 0.0027308215 0.006001568 0.00031242 0.0016200264 0.0029733174 0.00059584965
0.0021217745 0.0013417591 0.010206889 0.007925208 0.011083093 0.008000702 0.012828524 0.016159529

cpu f4 [128]
00000000: 0000 0000 0000 0000 0000 0000 0000 0000
00000010: 0000 0000 0000 0000 0000 0000 0000 0000
00000020: 0000 0000 0000 0000 0000 0000 0000 0000
00000030: 0000 0000 0000 0000 0000 0000 0000 0000
00000040: 0000 0000 0000 0000 0000 0000 0000 0000
00000050: 0000 0000 0000 0000 0000 0000 0000 0000
00000060: 0000 0000 0000 0000 0000 0000 0000 0000
00000070: 0000 0000 0000 0000 0000 0000 0000 0000
00000080: 0000 0000 0000 0000 0000 0000 0000 0000
00000090: 0000 0000 0000 0000 0000 0000 0000 0000
000000a0: 0000 0000 0000 0000 0000 0000 0000 0000
000000b0: 0000 0000 0000 0000 0000 0000 0000 0000
000000c0: 0000 0000 0000 0000 0000 0000 0000 0000
000000d0: 0000 0000 0000 0000 0000 0000 0000 0000
000000e0: 0000 0000 0000 0000 0000 0000 0000 0000
000000f0: 0000 0000 0000 0000 0000 0000 0000 0000
00000100: 0000 0000 0000 0000 0000 0000 0000 0000
00000110: 0000 0000 0000 0000 0000 0000 0000 0000
00000120: 0000 0000 0000 0000 0000 0000 0000 0000
00000130: 0000 0000 0000 0000 0000 0000 0000 0000
00000140: 0000 0000 0000 0000 0000 0000 0000 0000
00000150: 0000 0000 0000 0000 0000 0000 0000 0000
00000160: 0000 0000 0000 0000 0000 0000 0000 0000
00000170: 0000 0000 0000 0000 0000 0000 0000 0000
00000180: 0000 0000 0000 0000 0000 0000 0000 0000
00000190: 0000 0000 0000 0000 0000 0000 0000 0000
000001a0: 0000 0000 0000 0000 0000 0000 0000 0000
000001b0: 0000 0000 0000 0000 0000 0000 0000 0000
000001c0: 0000 0000 0000 0000 0000 0000 0000 0000
000001d0: 0000 0000 0000 0000 0000 0000 0000 0000
000001e0: 0000 0000 0000 0000 0000 0000 0000 0000
000001f0: 0000 0000 0000 0000 0000 0000 0000 0000
0.0 0.0 0.0 0.0 0.0 0.0 0.0 0.0
0.0 0.0 0.0 0.0 0.0 0.0 0.0 0.0
0.0 0.0 0.0 0.0 0.0 0.0 0.0 0.0
0.0 0.0 0.0 0.0 0.0 0.0 0.0 0.0
0.0 0.0 0.0 0.0 0.0 0.0 0.0 0.0
0.0 0.0 0.0 0.0 0.0 0.0 0.0 0.0
0.0 0.0 0.0 0.0 0.0 0.0 0.0 0.0
0.0 0.0 0.0 0.0 0.0 0.0 0.0 0.0
0.0 0.0 0.0 0.0 0.0 0.0 0.0 0.0
0.0 0.0 0.0 0.0 0.0 0.0 0.0 0.0
0.0 0.0 0.0 0.0 0.0 0.0 0.0 0.0
0.0 0.0 0.0 0.0 0.0 0.0 0.0 0.0
0.0 0.0 0.0 0.0 0.0 0.0 0.0 0.0
0.0 0.0 0.0 0.0 0.0 0.0 0.0 0.0
0.0 0.0 0.0 0.0 0.0 0.0 0.0 0.0
0.0 0.0 0.0 0.0 0.0 0.0 0.0 0.0
