ldpi/training/output/ResCNN/scripted_quantized_model.pth (torch, 269226 bytes, 61 tensors)

cpu f4 [64]
000000 00 00 00 00 00 00 00 00 00 00 00 00 00 00 00 00
       0.0 0.0 0.0 0.0
000010 00 00 00 00 00 00 00 00 00 00 00 00 00 00 00 00
       0.0 0.0 0.0 0.0
000020 00 00 00 00 00 00 00 00 00 00 00 00 00 00 00 00
       0.0 0.0 0.0 0.0
000030 00 00 00 00 00 00 00 00 00 00 00 00 00 00 00 00
       0.0 0.0 0.0 0.0
000040 00 00 00 00 00 00 00 00 00 00 00 00 00 00 00 00
       0.0 0.0 0.0 0.0
000050 00 00 00 00 00 00 00 00 00 00 00 00 00 00 00 00
       0.0 0.0 0.0 0.0
000060 00 00 00 00 00 00 00 00 00 00 00 00 00 00 00 00
       0.0 0.0 0.0 0.0
000070 00 00 00 00 00 00 00 00 00 00 00 00 00 00 00 00
       0.0 0.0 0.0 0.0
000080 00 00 00 00 00 00 00 00 00 00 00 00 00 00 00 00
       0.0 0.0 0.0 0.0
000090 00 00 00 00 00 00 00 00 00 00 00 00 00 00 00 00
       0.0 0.0 0.0 0.0
0000a0 00 00 00 00 00 00 00 00 00 00 00 00 00 00 00 00
       0.0 0.0 0.0 0.0
0000b0 00 00 00 00 00 00 00 00 00 00 00 00 00 00 00 00
       0.0 0.0 0.0 0.0
0000c0 00 00 00 00 00 00 00 00 00 00 00 00 00 00 00 00
       0.0 0.0 0.0 0.0
0000d0 00 00 00 00 00 00 00 00 00 00 00 00 00 00 00 00
       0.0 0.0 0.0 0.0
0000e0 00 00 00 00 00 00 00 00 00 00 00 00 00 00 00 00
       0.0 0.0 0.0 0.0
0000f0 00 00 00 00 00 00 00 00 00 00 00 00 00 00 00 00
       0.0 0.0 0.0 0.0

weight f4 [64]
000000 79 fb 0c 3f 69 b6 14 3f 01 1f 04 3f 00 ee 0e 3f
       0.55071217 0.58090836 0.5160981 0.5583191
000010 15 e4 0e 3f c6 aa 05 3f 21 73 13 3f 22 1c f0 3e
       0.55816776 0.52213705 0.5759755 0.46896464
000020 6c d9 0f 3f 86 31 01 3f a9 4e 27 3f a7 62 25 3f
       0.56191134 0.5046619 0.653544 0.64603657
000030 39 a3 2e 3f 75 db 2d 3f ee 30 fc 3e 23 8b 23 3f
       0.6821781 0.6791299 0.4925608 0.6388418
000040 fe e2 2a 3f b2 ec 1c 3f c4 8c 12 3f 4b 1f 67 3f
       0.6675261 0.6129867 0.5724604 0.90282124
000050 bc 0d 10 3f 95 71 52 3f 12 41 0e 3f 84 7c 07 3f
       0.56270957 0.8220456 0.5556804 0.5292437
000060 aa d6 02 3f 24 39 25 3f 27 99 21 3f 96 c6 04 3f
       0.511088 0.64540315 0.63124317 0.5186552
000070 cd ac 53 3f 81 65 2c 3f 61 5f 4a 3f d8 44 16 3f
       0.8268555 0.6734238 0.79051787 0.586988
000080 bf 64 0e 3f df 4f 60 3f b8 ab 0d 3f 30 8b 5b 3f
       0.55622476 0.87621874 0.55340147 0.8575926
000090 ad 03 bc 3e 9f 6e 0d 3f 01 0d 1c 3f ad 7b 1f 3f
       0.36721554 0.5524692 0.6095734 0.6229809
0000a0 4a 6c 0f 3f 8f 2f fc 3e 02 4a 1a 3f 39 58 47 3f
       0.5602461 0.49255034 0.60269177 0.7786899
0000b0 48 57 1b 3f a1 70 f9 3e 07 b4 23 3f a2 5a 01 3f
       0.60680056 0.48718742 0.63946575 0.5052892
0000c0 ed 9d 0b 3f 3d 77 3c 3f 64 8f 4d 3f 48 a2 02 3f
       0.5453785 0.73619443 0.8029692 0.5102887
0000d0 bc b7 9a 3f fb dd 48 3f 5d 0c 11 3f ff 31 5a 3f
       1.2087321 0.78463715 0.5665949 0.8523254
0000e0 fe 8d 0c 3f 55 0e 37 3f 46 f6 2a 3f cf 42 17 3f
       0.5490416 0.71506244 0.66782033 0.59086317
0000f0 3d 72 2e 3f bc 93 96 3f 42 dc 33 3f 83 4c 15 3f
       0.68143064 1.1763835 0.7025796 0.5831987

bias f4 [64]
000000 a3 7b 33 bd 71 1a 1b 3e 0c 96 8d 3d 2e a8 1b 3e
       -0.04381908 0.15146805 0.06913385 0.15200874
000010 45 ee 01 3e 24 00 cd 3d 16 a3 0a be f0 f1 56 3e
       0.12688549 0.100097924 -0.13538775 0.2099073
000020 b8 e2 f7 bc 2d 2a e2 bd 3e d4 bd 3e 55 e2 2b be
       -0.030259475 -0.11043201 0.3707599 -0.16785558
000030 75 50 a1 3d 52 31 29 be 76 ca ae bd 1c 80 32 be
       0.07876674 -0.1652272 -0.0853471 -0.17431682
000040 72 c9 01 be 20 fd 1b 3e 41 a1 e6 3e d3 b5 f2 3e
       -0.12674502 0.15233278 0.45044902 0.47404346
000050 3a 34 72 be fe de d6 3d ec 4b 04 3e 7e 68 02 3e
       -0.23652735 0.10491751 0.12919587 0.12735173
000060 18 4a 6b bf ed 7d 86 3f b0 ff f8 bd ee 70 04 3e
       -0.91909933 1.050718 -0.121581435 0.12933704
000070 7c 2c 2f 3e 0c c2 8a 3e 00 18 c5 be 5a 40 01 3e
       0.17106813 0.2710117 -0.38494873 0.12622204
000080 fe d9 e8 be 81 22 dd 3e 5f 89 0f be 6e 1a 22 3f
       -0.45478815 0.43190387 -0.14017247 0.6332158
000090 23 88 23 3f 3a 7a 06 be 8a d1 82 bf 31 b9 7d be
       0.63879603 -0.13132563 -1.0220196 -0.24777676
0000a0 a1 f2 00 3e 39 52 f0 bd d3 dd 8d bd b4 b5 29 be
       0.12592556 -0.11734433 -0.06927075 -0.1657322
0000b0 45 72 33 be 7c 53 2b 3e 08 a7 6c be 99 86 17 be
       -0.17524059 0.16731066 -0.23110592 -0.14797439
0000c0 22 88 c8 bd c3 20 89 3e 02 0b eb be 17 85 9a 3d
       -0.0979159 0.26782808 -0.45906836 0.07544916
0000d0 b3 db ca 3e e4 ab 35 3f d6 70 12 3e 2f 32 97 3d
       0.39620742 0.7096541 0.14300856 0.07382619
0000e0 19 35 4d bf 62 6e 69 be 96 5b 79 be 0b a3 85 be
       -0.80159146 -0.22796014 -0.24351344 -0.26100954
0000f0 f4 1c ec be 3d 55 81 3e f2 ab 87 be 2c 48 21 be
       -0.4611584 0.25260344 -0.2649837 -0.15750188

running_mean f4 [64]
000000 28 56 eb 3d 92 c6 e4 3d 4b 22 1b 3e be aa 64 3d
       0.114910424 0.11170687 0.151498 0.055826895
000010 e8 74 7b 3c f2 69 3c 3e 42 a0 a5 bd 38 24 3c 3e
       0.015347697 0.1839979 -0.080872074 0.18373191
000020 52 e7 88 be 5e 66 6a be 8b 39 0a bd a2 ef 64 3c
       -0.26738983 -0.22890612 -0.033746284 0.013973149
000030 b1 4b 8e 3e 56 7e 90 3c f2 25 0d be 59 e8 4c be
       0.27792123 0.017638367 -0.13784006 -0.20010509
000040 c0 32 8c 3e de 06 66 3d 2e d7 18 be 46 0f f5 bd
       0.2738247 0.056158893 -0.14925835 -0.11965804
000050 b2 26 4c bc ef 0c d3 bc 28 c9 11 3e 5d 5f 8f 3e
       -0.012460398 -0.025763003 0.14236891 0.28002444
000060 fa 03 8c 3e 3a b3 93 bc 80 58 28 be 5a 7a 55 3d
       0.27346784 -0.018029798 -0.1644001 0.052118637
000070 10 f0 8a be f0 42 c4 bd a6 97 3b 3e 3d b5 45 3d
       -0.27136278 -0.0958308 0.18319568 0.048268545
000080 e8 a3 02 3e 9f 40 01 be 44 04 69 be 8d 7b 05 be
       0.12757838 -0.12622307 -0.22755533 -0.13035412
000090 f9 e8 fc bd 74 a9 e4 bd 94 8e 84 3e d2 38 f6 bc
       -0.123491235 -0.11165133 0.25890028 -0.03005639
0000a0 2b 3b 80 3c 34 04 8d be 52 af 6f be 94 91 39 3e
       0.015653213 -0.2754227 -0.23406723 0.1812194
0000b0 ba d3 15 be 20 87 35 3e 24 0b 82 be 2a 13 8b bd
       -0.14631549 0.17727327 -0.25399125 -0.06790765
0000c0 dd ca 8e be 7a 4c e3 bd 47 01 86 3e 40 a0 8a 3e
       -0.27889147 -0.11098571 0.2617285 0.27075386
0000d0 a0 bd 0d be 43 65 29 be fd 86 8a 3e 15 17 9e 3d
       -0.13841867 -0.16542535 0.27056113 0.07719246
0000e0 3a 52 81 3d b2 90 66 3c 1b 37 48 bd 1d 4c 4d 3e
       0.063145116 0.014072584 -0.048880678 0.20048566
0000f0 1b 25 77 3e b8 25 87 be 07 8e 89 be 8b 83 10 bd
       0.24135248 -0.26395965 -0.2686617 -0.0352817

running_var f4 [64]
000000 ab 53 66 3c d3 a9 59 3c c5 2c c8 3c e3 74 59 3b
       0.014058034 0.013285118 0.02443541 0.0033181242
000010 0f 7b 83 39 bc a2 13 3d bf 2a e4 3b 8b 35 13 3d
       0.00025077953 0.036043867 0.0069631035 0.035939734
000020 80 e4 9b 3d 3b 7f 64 3d 7d ea 9e 3a 00 f8 59 39
       0.07611942 0.0557854 0.0012124326 0.0002078712
000030 17 6a a8 3d 32 a8 ad 39 8c b5 a5 3c 77 9d 2e 3d
       0.0822336 0.00033122447 0.02022817 0.04263064
000040 73 7c a3 3d fb 0c 5c 3b d2 4c c2 3c 92 c0 79 3c
       0.07982721 0.0033577073 0.023718271 0.015243666
000050 0a 54 2d 39 dc 3d 39 3a ed c6 b0 3c 19 f9 aa 3d
       0.00016529873 0.00070664077 0.02157923 0.08348293
000060 6c 0f a3 3d 3f 73 b5 39 c8 b8 eb 3c fc 86 3d 3b
       0.07961926 0.00034608875 0.028774634 0.0028919568
000070 42 8f a0 3d af 30 20 3c e7 59 12 3d 67 8f 22 3b
       0.07839824 0.009777232 0.03573027 0.0024804713
000080 67 f4 8d 3c 63 f4 8a 3c e3 ce 61 3d f0 32 94 3c
       0.017328454 0.016962236 0.055128943 0.018090695
000090 47 01 85 3c 6f 72 59 3c 91 26 92 3d 81 20 7c 3a
       0.01623596 0.013271912 0.07136262 0.00096178806
0000a0 73 c4 88 39 5e 66 a5 3d ba ea 6e 3d e5 35 0f 3d
       0.00026086307 0.080761656 0.05832932 0.034963507
0000b0 ba b6 ba 3c a1 0a 09 3d 2c a9 8c 3d 6a e0 a0 3b
       0.022792209 0.033457402 0.068682045 0.0049095647
0000c0 a2 97 a9 3d b1 dc 56 3c 75 5c 95 3d fc d6 9f 3d
       0.08280875 0.01311414 0.072930254 0.07804677
0000d0 74 1a a7 3c c6 ab ee 3c be 9c 9f 3d 64 e0 cf 3b
       0.020398356 0.029134642 0.07793568 0.006343888
0000e0 3f 1a 8b 3b fa 14 5d 39 9b b5 26 3b ac 47 2f 3d
       0.004245072 0.00021084017 0.0025437835 0.04279296
0000f0 4f 05 7e 3d 23 eb 97 3d 0e 61 9d 3d b6 b4 ad 3a
       0.06201678 0.07417896 0.07684527 0.0013252709

cpu f4 [64]
000000 00 00 00 00 00 00 00 00 00 00 00 00 00 00 00 00
       0.0 0.0 0.0 0.0
000010 00 00 00 00 00 00 00 00 00 00 00 00 00 00 00 00
       0.0 0.0 0.0 0.0
000020 00 00 00 00 00 00 00 00 00 00 00 00 00 00 00 00
       0.0 0.0 0.0 0.0
000030 00 00 00 00 00 00 00 00 00 00 00 00 00 00 00 00
       0.0 0.0 0.0 0.0
000040 00 00 00 00 00 00 00 00 00 00 00 00 00 00 00 00
       0.0 0.0 0.0 0.0
000050 00 00 00 00 00 00 00 00 00 00 00 00 00 00 00 00
       0.0 0.0 0.0 0.0
000060 00 00 00 00 00 00 00 00 00 00 00 00 00 00 00 00
       0.0 0.0 0.0 0.0
000070 00 00 00 00 00 00 00 00 00 00 00 00 00 00 00 00
       0.0 0.0 0.0 0.0
000080 00 00 00 00 00 00 00 00 00 00 00 00 00 00 00 00
       0.0 0.0 0.0 0.0
000090 00 00 00 00 00 00 00 00 00 00 00 00 00 00 00 00
       0.0 0.0 0.0 0.0
0000a0 00 00 00 00 00 00 00 00 00 00 00 00 00 00 00 00
       0.0 0.0 0.0 0.0
0000b0 00 00 00 00 00 00 00 00 00 00 00 00 00 00 00 00
       0.0 0.0 0.0 0.0
0000c0 00 00 00 00 00 00 00 00 00 00 00 00 00 00 00 00
       0.0 0.0 0.0 0.0
0000d0 00 00 00 00 00 00 00 00 00 00 00 00 00 00 00 00
       0.0 0.0 0.0 0.0
0000e0 00 00 00 00 00 00 00 00 00 00 00 00 00 00 00 00
       0.0 0.0 0.0 0.0
0000f0 00 00 00 00 00 00 00 00 00 00 00 00 00 00 00 00
       0.0 0.0 0.0 0.0

cpu f4 [64]
000000 00 00 00 00 00 00 00 00 00 00 00 00 00 00 00 00
       0.0 0.0 0.0 0.0
000010 00 00 00 00 00 00 00 00 00 00 00 00 00 00 00 00
       0.0 0.0 0.0 0.0
000020 00 00 00 00 00 00 00 00 00 00 00 00 00 00 00 00
       0.0 0.0 0.0 0.0
000030 00 00 00 00 00 00 00 00 00 00 00 00 00 00 00 00
       0.0 0.0 0.0 0.0
000040 00 00 00 00 00 00 00 00 00 00 00 00 00 00 00 00
       0.0 0.0 0.0 0.0
000050 00 00 00 00 00 00 00 00 00 00 00 00 00 00 00 00
       0.0 0.0 0.0 0.0
000060 00 00 00 00 00 00 00 00 00 00 00 00 00 00 00 00
       0.0 0.0 0.0 0.0
000070 00 00 00 00 00 00 00 00 00 00 00 00 00 00 00 00
       0.0 0.0 0.0 0.0
000080 00 00 00 00 00 00 00 00 00 00 00 00 00 00 00 00
       0.0 0.0 0.0 0.0
000090 00 00 00 00 00 00 00 00 00 00 00 00 00 00 00 00
       0.0 0.0 0.0 0.0
0000a0 00 00 00 00 00 00 00 00 00 00 00 00 00 00 00 00
       0.0 0.0 0.0 0.0
0000b0 00 00 00 00 00 00 00 00 00 00 00 00 00 00 00 00
       0.0 0.0 0.0 0.0
0000c0 00 00 00 00 00 00 00 00 00 00 00 00 00 00 00 00
       0.0 0.0 0.0 0.0
0000d0 00 00 00 00 00 00 00 00 00 00 00 00 00 00 00 00
       0.0 0.0 0.0 0.0
0000e0 00 00 00 00 00 00 00 00 00 00 00 00 00 00 00 00
       0.0 0.0 0.0 0.0
0000f0 00 00 00 00 00 00 00 00 00 00 00 00 00 00 00 00
       0.0 0.0 0.0 0.0

weight f4 [64]
000000 86 cd f1 3e fb 4b 00 3f 74 4a 16 3f 00 f7 d4 3e
       0.47227114 0.50115937 0.58707356 0.41594696
000010 81 50 f3 3e 6a 49 fa 3e 61 58 3a 3f 30 ec 0f 3f
       0.47522357 0.48884135 0.72791106 0.5621977
000020 4e 3f 09 3f 8c ae ee 3e 7d ca 5b 3f 31 1a 3a 3f
       0.5361222 0.46617544 0.8585585 0.72696215
000030 55 a7 fd 3e 20 b4 f5 3e 7f 18 f8 3e 91 e3 11 3f
       0.49541727 0.47988987 0.4845619 0.56987864
000040 25 b3 e8 3e 81 b6 01 3f bf ab f0 3e 85 4b e4 3e
       0.45449176 0.50669104 0.47006032 0.44588867
000050 25 f1 ef 3e e8 56 37 3f 67 ce 0c 3f a4 b2 e7 3e
       0.46863666 0.71616983 0.55002445 0.4525348
000060 7f b1 17 3f 1d 7b f3 3e 70 a5 ef 3e 8b 65 35 3f
       0.5925521 0.47554865 0.46805906 0.7085807
000070 45 6f fe 3e 52 ef 33 3f c4 6e e5 3e bf 4d 05 3f
       0.49694267 0.7028705 0.4481107 0.52071756
000080 81 e5 0d 3f 4d 89 00 3f 70 f8 dc 3e 4d 24 2e 3f
       0.5542832 0.50209504 0.43158293 0.6802414
000090 ac 34 bc 3e 6c 92 05 3f 80 bb eb 3e c6 63 41 3f
       0.36758935 0.5217655 0.4604149 0.7554287
0000a0 3e e1 3b 3f fe b0 1b 3f 78 da 00 3f d1 6d 72 3f
       0.7339057 0.60816944 0.50333357 0.94698817
0000b0 ff 0e ef 3e 03 9a 06 3f 37 a0 e2 3e 47 c7 14 3f
       0.4669113 0.52578753 0.4426286 0.58116573
0000c0 cd 9a e4 3e 6e e4 e8 3e 37 d8 38 3f 3e 7d 6c 3e
       0.44649354 0.45486778 0.7220492 0.23094651
0000d0 ba 0a 02 3f be 9b 9c 3f 81 48 eb 3e b0 5b f3 3e
       0.5079762 1.2235029 0.45953754 0.4753089
0000e0 50 da f9 3e 9c 49 e3 3e ef 9b e6 3e 12 f1 07 3f
       0.48799372 0.44392097 0.45040843 0.5310222
0000f0 dd dc 5e 3f b4 07 32 3f 05 79 cc 3f da 21 ed 3e
       0.8705576 0.69543004 1.5974432 0.4631489

bias f4 [64]
000000 9e e6 9d bc f5 a2 b6 bc 79 78 1f bd 52 9f d8 3c
       -0.019275006 -0.0222945 -0.03893325 0.026443157
000010 ac b5 48 bc b5 1c 60 3c 58 07 c4 3d 95 23 db bb
       -0.012250345 0.013678719 0.09571713 -0.0066875913
000020 c1 b6 ec bd f1 21 9a be 04 0e 6b bd 03 8a fd bf
       -0.11558295 -0.3010402 -0.057386413 -1.9807743
000030 36 59 33 bd 49 42 a0 bc 01 7c ba bb 11 22 2c be
       -0.04378625 -0.019562857 -0.005691052 -0.1680987
000040 9b 5a 50 bd 1c a6 00 3d fd 5e 83 bb e2 dc 0a bd
       -0.050867658 0.031408414 -0.004009126 -0.033902057
000050 43 43 6a bd d4 e6 36 bd c1 99 20 be f3 1e 34 bd
       -0.057193052 -0.04465373 -0.15683652 -0.043974828
000060 3c 87 ce bd cc 85 d1 3d ea b7 4b 3c 9e 79 09 3e
       -0.10084388 0.10230598 0.012433985 0.134253
000070 9b ff 3e 3d 65 1b bc bd d9 94 a9 be 9d 19 43 bf
       0.046630483 -0.091849126 -0.33121374 -0.7621096
000080 c5 a1 35 3d e1 c6 39 3e 6d ff 33 bd e0 2a e8 3c
       0.04434373 0.18142273 -0.043944765 0.028340757
000090 fa 2b 0a be b7 55 5f bd 8d 1b 6e 3d 28 55 93 bf
       -0.13493338 -0.054525103 0.058131743 -1.1510363
0000a0 35 53 fb bc 4a d3 30 3d 29 5b 8e bd 68 88 73 3e
       -0.030679325 0.04317025 -0.06950981 0.23782504
0000b0 9e 1d 07 bd 3c d8 2b 3e e8 b0 fc bc a0 29 8b 3d
       -0.03298723 0.16781706 -0.030846074 0.06795049
0000c0 fa 7e 92 3e 57 ba 99 3b 23 7b 0e be b5 9f 52 bf
       0.286125 0.004691403 -0.1391416 -0.82274944
0000d0 a4 76 c4 bc 85 fc 89 bf cc 92 05 bd ca b4 d6 bd
       -0.023982354 -1.0780188 -0.0326107 -0.104837015
0000e0 d7 c8 17 bc 76 ec 29 bd 7a 71 96 bd 50 f0 7d bb
       -0.009264193 -0.041485272 -0.07345863 -0.0038747974
0000f0 9d c5 8b bd f4 2c 34 3c 1b 31 bb be 8b dd 83 bd
       -0.06824801 0.010997046 -0.36560902 -0.0643874

running_mean f4 [64]
000000 5c 16 3f 3e 50 2f 00 be 3b 01 c1 bd 8f 2d 83 be
       0.18660873 -0.12518048 -0.09424063 -0.25620696
000010 c1 40 cf 3d 16 31 2c bd 7d e7 d3 be ed 5a db bd
       0.10119773 -0.042039 -0.4138755 -0.10710702
000020 40 e5 bd 3a cd 85 b9 be 35 05 b2 be a5 ad 31 bf
       0.0014487877 -0.36234894 -0.34769598 -0.69405586
000030 1a ad 8b bd 41 ab a7 3d 03 45 88 bd 61 3e ea 3b
       -0.06820126 0.08186961 -0.06653788 0.0071485494
000040 b4 63 f7 3d a6 0f 8b bd 93 5c 1b 3e 44 aa 9c 3d
       0.12079564 -0.06790094 0.15172033 0.07649663
000050 00 77 c6 bd 01 a6 a3 be f5 8b d9 bd a2 34 01 3e
       -0.09690666 -0.31962588 -0.10622398 0.12617734
000060 3e ed 46 3d df e7 ab bd d3 ae a0 bd 8d e6 06 bf
       0.048566096 -0.08393835 -0.07845845 -0.5269554
000070 35 45 27 bd 20 42 2b be 89 f2 3e bf bd 2d 17 bf
       -0.040837485 -0.16724443 -0.7458883 -0.59054166
000080 48 c9 13 3e d3 4b 10 be 1a 99 80 3d e9 58 b2 be
       0.14432251 -0.14091425 0.06279202 -0.34833458
000090 fd 36 5a 3d 70 55 6d 3e 4b 7f 57 3b 06 96 f9 be
       0.053275097 0.23177123 0.003288227 -0.4874727
0000a0 1e 53 48 be 91 a2 17 bd 79 43 bf 3d 00 79 c9 be
       -0.19562957 -0.03702027 0.09339041 -0.39350128
0000b0 75 39 d8 3d 47 2e 56 3c 5b be de bd 76 89 bf be
       0.10557834 0.013072557 -0.10876151 -0.37409562
0000c0 d6 63 b9 be 40 5d 82 3d 55 34 24 be ed 2c 4a be
       -0.3620898 0.06365442 -0.16035588 -0.197437
0000d0 a0 13 10 be 65 5a 57 bf d5 a8 52 be c2 39 8f 3b
       -0.14069986 -0.84122306 -0.20572217 0.004370899
0000e0 8b 4c 54 3e c0 a0 55 3d 78 36 8d 3d 2d 24 b7 3d
       0.20732324 0.052155256 0.06895155 0.08942447
0000f0 12 4d 22 bf 2d 9c b4 be b2 be 06 bf 5e 11 e7 3d
       -0.6339885 -0.35275403 -0.5263473 0.112826094

running_var f4 [64]
000000 4e a0 3f 3c b2 b5 17 3c f8 7f 96 3c be 92 d7 3c
       0.011695934 0.009259628 0.018371567 0.02631509
000010 ea 43 3b 3b 4b 76 8e 3b 6f c3 0f 3e f6 8d 86 3c
       0.0028574415 0.0043475977 0.14039396 0.016425114
000020 e1 4c 2a 3d ec 6b 10 3d 99 7b 0d 3e 27 8b e9 3e
       0.041577224 0.035259172 0.1381668 0.45613977
000030 79 28 ae 3b 34 8b be 3b 20 05 1b 3c a0 2a d8 3c
       0.0053148833 0.005814934 0.009461671 0.026387513
000040 51 88 dc 3b 2d 95 45 3c ed a6 05 3c 24 d1 c2 3b
       0.0067301174 0.012059492 0.008157474 0.0059453417
000050 94 25 a6 3b 3e 0b b8 3d 61 8b 84 3c d1 29 34 3c
       0.0050703976 0.08986519 0.016179742 0.010996298
000060 00 d3 12 3d 9d 23 fa 3c e3 15 5a 3b 43 61 da 3d
       0.035845757 0.03053456 0.0033277206 0.106630825
000070 41 e2 ad 3b b9 03 90 3d 80 c3 2b 3e 49 d6 43 3e
       0.0053065126 0.0703196 0.16773796 0.19124712
000080 a9 e1 5c 3c 65 42 c8 3c 14 d9 8a 3c b6 c5 69 3d
       0.013481536 0.024445722 0.016949214 0.057073317
000090 25 d0 1b 3c 82 f1 4c 3d 7e d8 47 3c 76 66 5b 3e
       0.009510075 0.050035007 0.012197612 0.21425804
0000a0 16 00 b2 3d 56 fb 6b 3c 1d 7d d3 3c 81 54 65 3d
       0.08691423 0.014403185 0.025816495 0.055988792
0000b0 8b 42 1e 3c 4c f1 1e 3d 32 bf 98 3c e8 4d e7 3c
       0.00965942 0.038804337 0.018645857 0.02823539
0000c0 24 ad 39 3d ec ef 17 3d 65 1f 8b 3c bc 0d 03 3d
       0.045331135 0.03709404 0.016982744 0.03199552
0000d0 50 2f 92 3c ed bf 9f 3e f5 af c1 3c e8 02 c5 3b
       0.017844826 0.31201115 0.023643473 0.0060123093
0000e0 5d 64 75 3c 18 f9 13 3c a1 fe 4c 3c 15 65 03 3c
       0.014977542 0.009031557 0.01251188 0.008019705
0000f0 e4 22 b0 3d 88 6c f1 3d b4 eb 22 3e 6f da ae 3c
       0.08600405 0.11788279 0.15910226 0.021344392

cpu f4 [64]
000000 00 00 00 00 00 00 00 00 00 00 00 00 00 00 00 00
       0.0 0.0 0.0 0.0
000010 00 00 00 00 00 00 00 00 00 00 00 00 00 00 00 00
       0.0 0.0 0.0 0.0
000020 00 00 00 00 00 00 00 00 00 00 00 00 00 00 00 00
       0.0 0.0 0.0 0.0
000030 00 00 00 00 00 00 00 00 00 00 00 00 00 00 00 00
       0.0 0.0 0.0 0.0
000040 00 00 00 00 00 00 00 00 00 00 00 00 00 00 00 00
       0.0 0.0 0.0 0.0
000050 00 00 00 00 00 00 00 00 00 00 00 00 00 00 00 00
       0.0 0.0 0.0 0.0
000060 00 00 00 00 00 00 00 00 00 00 00 00 00 00 00 00
       0.0 0.0 0.0 0.0
000070 00 00 00 00 00 00 00 00 00 00 00 00 00 00 00 00
       0.0 0.0 0.0 0.0
000080 00 00 00 00 00 00 00 00 00 00 00 00 00 00 00 00
       0.0 0.0 0.0 0.0
000090 00 00 00 00 00 00 00 00 00 00 00 00 00 00 00 00
       0.0 0.0 0.0 0.0
0000a0 00 00 00 00 00 00 00 00 00 00 00 00 00 00 00 00
       0.0 0.0 0.0 0.0
0000b0 00 00 00 00 00 00 00 00 00 00 00 00 00 00 00 00
       0.0 0.0 0.0 0.0
0000c0 00 00 00 00 00 00 00 00 00 00 00 00 00 00 00 00
       0.0 0.0 0.0 0.0
0000d0 00 00 00 00 00 00 00 00 00 00 00 00 00 00 00 00
       0.0 0.0 0.0 0.0
0000e0 00 00 00 00 00 00 00 00 00 00 00 00 00 00 00 00
       0.0 0.0 0.0 0.0
0000f0 00 00 00 00 00 00 00 00 00 00 00 00 00 00 00 00
       0.0 0.0 0.0 0.0

cpu f4 [64]
000000 00 00 00 00 00 00 00 00 00 00 00 00 00 00 00 00
       0.0 0.0 0.0 0.0
000010 00 00 00 00 00 00 00 00 00 00 00 00 00 00 00 00
       0.0 0.0 0.0 0.0
000020 00 00 00 00 00 00 00 00 00 00 00 00 00 00 00 00
       0.0 0.0 0.0 0.0
000030 00 00 00 00 00 00 00 00 00 00 00 00 00 00 00 00
       0.0 0.0 0.0 0.0
000040 00 00 00 00 00 00 00 00 00 00 00 00 00 00 00 00
       0.0 0.0 0.0 0.0
000050 00 00 00 00 00 00 00 00 00 00 00 00 00 00 00 00
       0.0 0.0 0.0 0.0
000060 00 00 00 00 00 00 00 00 00 00 00 00 00 00 00 00
       0.0 0.0 0.0 0.0
000070 00 00 00 00 00 00 00 00 00 00 00 00 00 00 00 00
       0.0 0.0 0.0 0.0
000080 00 00 00 00 00 00 00 00 00 00 00 00 00 00 00 00
       0.0 0.0 0.0 0.0
000090 00 00 00 00 00 00 00 00 00 00 00 00 00 00 00 00
       0.0 0.0 0.0 0.0
0000a0 00 00 00 00 00 00 00 00 00 00 00 00 00 00 00 00
       0.0 0.0 0.0 0.0
0000b0 00 00 00 00 00 00 00 00 00 00 00 00 00 00 00 00
       0.0 0.0 0.0 0.0
0000c0 00 00 00 00 00 00 00 00 00 00 00 00 00 00 00 00
       0.0 0.0 0.0 0.0
0000d0 00 00 00 00 00 00 00 00 00 00 00 00 00 00 00 00
       0.0 0.0 0.0 0.0
0000e0 00 00 00 00 00 00 00 00 00 00 00 00 00 00 00 00
       0.0 0.0 0.0 0.0
0000f0 00 00 00 00 00 00 00 00 00 00 00 00 00 00 00 00
       0.0 0.0 0.0 0.0

weight f4 [64]
000000 80 74 0d 3f 42 97 03 3f 08 8f 08 3f 18 c7 0a 3f
       0.5525589 0.51402676 0.5334325 0.5421004
000010 f6 18 24 3f da d3 0b 3f 23 82 8f 3f 10 23 2d 3f
       0.6410059 0.54620135 1.121159 0.67631626
000020 9d 56 00 3f 60 f4 1d 3f f1 26 05 3f 3a cd 22 3f
       0.5013216 0.6170101 0.52012545 0.635944
000030 a9 ae 01 3f 8b f2 3d 3f 73 ae 78 3f c2 4e fa 3e
       0.50657135 0.74198216 0.9714119 0.48888212
000040 80 2d 0d 3f 50 f9 65 3f 16 f8 9d 3f 4c 57 ff 3e
       0.5514755 0.89833546 1.2341335 0.4987129
000050 3e 7c 58 3f 9c 6f 3d 3f c3 6f 05 3f b2 75 00 3f
       0.8456458 0.7399843 0.5212366 0.5017959
000060 50 31 18 3f 9d 50 56 3f 2f 6e ed 3e 2d 43 0b 3f
       0.59450245 0.83716756 0.46373126 0.5439938
000070 64 0e 02 3f a1 fe 0d 3f b2 e5 1e 3f 31 f1 1f 3f
       0.5080321 0.5546666 0.6206924 0.62477404
000080 e4 db c6 3e c7 db 1c 3f 45 47 f6 3e 80 68 10 3f
       0.38839638 0.61272854 0.4810125 0.56409454
000090 90 29 fb 3e f9 72 01 3f 42 e1 59 3f 30 6d 36 3f
       0.49055147 0.5056606 0.8510934 0.71260357
0000a0 0c ac 0e 3f 1e 1d 39 3f a8 84 44 3f e2 19 05 3f
       0.5573127 0.72310054 0.7676492 0.5199262
0000b0 2a 3a 53 3f af 4a 0a 3f 4e b8 69 3f d2 43 00 3f
       0.82510626 0.5402021 0.9129685 0.50103486
0000c0 bd 72 1e 3f 02 9d fe 3e 21 8e 1f 3f d1 3a 0f 3f
       0.61893827 0.49729162 0.62326247 0.5594912
0000d0 b7 df 42 3f 83 ef 0d 3f 11 d2 45 3f 82 21 f9 3e
       0.7612261 0.5544359 0.7727366 0.48658377
0000e0 99 f2 1c 3f d8 9b f9 3e cd de 06 3f 6f 5e 12 3f
       0.61307675 0.48751712 0.52683717 0.57175344
0000f0 98 59 1c 3f ca ba 10 3f 16 9d 1e 3f e2 30 02 3f
       0.6107421 0.5653502 0.61958444 0.5085584

bias f4 [64]
000000 61 f0 10 3d 67 45 e6 ba 63 14 28 bd 6e dc f2 3c
       0.035385493 -0.0017568291 -0.041035067 0.029646125
000010 cd 86 1d 3d 57 04 fe 3b 11 7f 5b be b1 aa 97 be
       0.038458634 0.007751982 -0.2143519 -0.29622415
000020 bc a3 ea bc 3b c0 f6 3c 17 ee 04 bd 4e 0d 93 bc
       -0.028642528 0.03012096 -0.032453623 -0.01795068
000030 7f 60 92 bc f5 9b ab be e0 a5 c3 be fd 2e 18 bc
       -0.017868279 -0.33517423 -0.3821249 -0.009288547
000040 04 a9 5b be 5f 1e da bd 5c 69 f1 be dd 7c 37 bd
       -0.21451193 -0.10650324 -0.47150695 -0.044796813
000050 f8 1e d4 3d e6 dc a5 bd 19 7e 8d bc 29 f3 2d bd
       0.10357469 -0.08098774 -0.017272042 -0.042468224
000060 b0 a7 9e bb 74 bf c6 bd 01 33 23 3b 11 62 bd bc
       -0.0048417673 -0.097044855 0.0024902227 -0.02311805
000070 1b b8 c3 3c e2 c0 dd bb 7c f5 83 3d c7 81 98 3d
       0.0238915 -0.006767378 0.06443307 0.07446628
000080 42 07 c1 bd d0 16 67 be 3a ed f2 bb b9 36 a4 3c
       -0.094252124 -0.22567296 -0.0074135335 0.020045625
000090 47 4d 2b be cb 16 f1 3b 45 11 aa be 61 b2 13 be
       -0.16728698 0.0073574535 -0.332163 -0.14423515
0000a0 25 18 6d 3d ae ca ee bd e5 57 5d be 91 be 18 3c
       0.057884354 -0.11659752 -0.2161556 0.009322778
0000b0 fb 64 7b be a7 75 a1 bc 9c c8 2d bd 05 f9 67 bc
       -0.2455024 -0.019709421 -0.042427644 -0.014158492
0000c0 e5 70 3e bc c6 d1 d1 bc 88 5b 77 bd 37 2e 8e 3c
       -0.011623596 -0.025612723 -0.060390025 0.017356021
0000d0 51 b3 b6 bc 1c 62 4d be 46 b2 4f be e2 d1 68 be
       -0.022302302 -0.20056957 -0.2028285 -0.22736314
0000e0 0a 34 cd bd c7 77 ef bd b8 b5 fc bc 3d 11 2f bd
       -0.10019691 -0.116927676 -0.030848369 -0.04274105
0000f0 0a d3 48 3d a7 2b dc bb a6 20 6c ba 19 62 a6 bc
       0.049029388 -0.006719071 -0.00090075505 -0.020310448

running_mean f4 [64]
000000 99 fe fa ba dd 55 5c 3d 0d fb 9b 3d fb 9c 2e bc
       -0.0019149362 0.053792823 0.076162435 -0.010657544
000010 e5 4d db bc 0e 29 cb bd 84 9b 2b 3d 67 91 8c bd
       -0.026770541 -0.0991994 0.041896358 -0.06863671
000020 2a e6 53 3c c9 cd 03 be ca e0 48 bd d3 e8 8f bd
       0.012933293 -0.1287147 -0.0490425 -0.070268296
000030 39 b3 6c bc 78 43 60 be 73 2a f1 bd eb 1f 9e bd
       -0.014447027 -0.21900737 -0.11775675 -0.077209316
000040 5a 40 97 3d 54 73 39 bd d6 bf 81 3c a2 b0 16 3d
       0.07385321 -0.045276 0.015838545 0.036789544
000050 77 54 2b bd e5 6a 96 bc f9 a6 1f bd 17 18 50 3d
       -0.0418286 -0.018361518 -0.038977597 0.050804224
000060 ec c8 bc 3c 03 5f cb 3c a0 25 6a 3d 49 fa 95 bc
       0.023045026 0.024825579 0.05716479 -0.018307822
000070 87 2b 16 bd 61 ff 21 bc eb d4 b8 bc 46 72 0d bd
       -0.036662605 -0.009887547 -0.022562465 -0.034532808
000080 a6 5e 69 be 49 75 6e bc 12 bb 2f 3d ab c5 9d bd
       -0.22790012 -0.01455433 0.042903014 -0.07703718
000090 1a 50 5f 3d 28 fc 41 3d 15 a9 5e bd ae 7b bc 3d
       0.05451975 0.047359616 -0.054360468 0.092032775
0000a0 3d 5c db 3c bf f5 2f 3c 19 99 c7 bc bd 50 52 3c
       0.026777381 0.010739743 -0.024364995 0.012836632
0000b0 fe 0e 06 bb 12 49 c9 bd 60 02 5d be b0 49 e7 3c
       -0.0020455713 -0.0982839 -0.21582937 0.02823338
0000c0 2d 73 b3 bd 77 dd b6 3c 2a e3 fd bc 19 4f 9b 3d
       -0.087622024 0.0223224 -0.03099211 0.07583446
0000d0 b9 55 aa bd 04 db af 3d 54 47 30 bd c5 99 49 3c
       -0.083171315 0.08586696 -0.043036774 0.012304728
0000e0 7e e1 33 be 32 b8 8a bd 8b a2 24 bd 53 b0 36 bd
       -0.17566487 -0.06773414 -0.040194076 -0.04460175
0000f0 f1 08 02 be 00 f8 5b bd 17 b5 de bc 7b ba 2e bd
       -0.12698723 -0.053703308 -0.02718596 -0.04265831

running_var f4 [64]
000000 56 aa 41 3b d2 8c 8f 3b 26 2a 6d 3c 0e ee 8b 3b
       0.002955099 0.0043808008 0.014475381 0.0042703217
000010 fe 12 e0 3c f8 6a 2f 3c d3 fe a6 3c db 83 29 3c
       0.027352806 0.010706656 0.020385182 0.010346378
000020 5d 0c db 3a 86 5a 82 3c 75 9b 2b 3b a9 e9 bc 3c
       0.0016712059 0.015912306 0.002618519 0.023060637
000030 d2 75 bd 3a 6e aa 80 3d 9d 61 3c 3d 1a 7c f1 3b
       0.0014454669 0.06282507 0.04599153 0.0073695304
000040 2d ec 4d 3c 39 8d 3b 3d 3b 52 04 3d 2f f7 29 3b
       0.012568516 0.045788977 0.032304984 0.0025934686
000050 0f 41 95 3d a6 f6 ba 3d 33 10 8e 3b 3e e1 a4 3b
       0.072877996 0.09129076 0.004335427 0.005031734
000060 1b 72 ce 3b f3 1d 91 3d 4d 49 b6 3b e1 fe f9 3b
       0.0063002235 0.070857905 0.0055629374 0.007629261
000070 30 17 70 3b 0b e0 5c 3b 74 a3 dc 3b a8 a1 18 3d
       0.0036634915 0.0033702876 0.0067333523 0.037263542
000080 34 dd 65 3d d2 a4 10 3c a0 db ac 3b fc 3f 58 3b
       0.05611916 0.008828359 0.005275205 0.0032997122
000090 2c 13 5a 3c ea 38 0e 3b 36 3b 7c 3c f2 fd c7 3c
       0.013310235 0.0021701404 0.015394976 0.024413083
0000a0 53 ac 05 3c 3f 8a c2 3c 27 e1 0f 3d bd a7 db 3b
       0.008158761 0.023747561 0.03512683 0.0067033456
0000b0 f9 ba 72 3c 76 ed 9c 3b c2 2d 60 3d 08 27 04 3b
       0.014815086 0.0047890497 0.054731138 0.0020164866
0000c0 91 55 8c 3c e8 97 e0 3a 47 a3 87 3c 17 ae 82 3c
       0.017130645 0.0017135115 0.016557349 0.015952153
0000d0 93 b4 78 3c 0a 5b 56 3c b0 2f dd 3c 60 cb ff 3b
       0.015179771 0.013083229 0.027000278 0.0078062266
0000e0 61 38 ff 3c 69 d5 34 3c 5c 49 25 3c 85 ea 7d 3b
       0.031154813 0.011037209 0.010088291 0.003874452
0000f0 96 09 f8 3c b8 a3 ea 3c 23 14 bd 3b 1e 7f d3 3b
       0.030278008 0.02864252 0.0057702227 0.0064543625

cpu f4 [64]
000000 00 00 00 00 00 00 00 00 00 00 00 00 00 00 00 00
       0.0 0.0 0.0 0.0
000010 00 00 00 00 00 00 00 00 00 00 00 00 00 00 00 00
       0.0 0.0 0.0 0.0
000020 00 00 00 00 00 00 00 00 00 00 00 00 00 00 00 00
       0.0 0.0 0.0 0.0
000030 00 00 00 00 00 00 00 00 00 00 00 00 00 00 00 00
       0.0 0.0 0.0 0.0
000040 00 00 00 00 00 00 00 00 00 00 00 00 00 00 00 00
       0.0 0.0 0.0 0.0
000050 00 00 00 00 00 00 00 00 00 00 00 00 00 00 00 00
       0.0 0.0 0.0 0.0
000060 00 00 00 00 00 00 00 00 00 00 00 00 00 00 00 00
       0.0 0.0 0.0 0.0
000070 00 00 00 00 00 00 00 00 00 00 00 00 00 00 00 00
       0.0 0.0 0.0 0.0
000080 00 00 00 00 00 00 00 00 00 00 00 00 00 00 00 00
       0.0 0.0 0.0 0.0
000090 00 00 00 00 00 00 00 00 00 00 00 00 00 00 00 00
       0.0 0.0 0.0 0.0
0000a0 00 00 00 00 00 00 00 00 00 00 00 00 00 00 00 00
       0.0 0.0 0.0 0.0
0000b0 00 00 00 00 00 00 00 00 00 00 00 00 00 00 00 00
       0.0 0.0 0.0 0.0
0000c0 00 00 00 00 00 00 00 00 00 00 00 00 00 00 00 00
       0.0 0.0 0.0 0.0
0000d0 00 00 00 00 00 00 00 00 00 00 00 00 00 00 00 00
       0.0 0.0 0.0 0.0
0000e0 00 00 00 00 00 00 00 00 00 00 00 00 00 00 00 00
       0.0 0.0 0.0 0.0
0000f0 00 00 00 00 00 00 00 00 00 00 00 00 00 00 00 00
       0.0 0.0 0.0 0.0

weight f4 [64]
000000 75 00 06 3f 53 0c 05 3f cf af 03 3f a4 fd 06 3f
       0.5234445 0.5197193 0.5144014 0.52730775
000010 57 83 13 3f cc 57 fc 3e fd 60 43 3e 0e e6 d7 3e
       0.57622284 0.49285734 0.19079967 0.42167705
000020 5f 75 01 3f 2a 30 f1 3e bb b4 03 3f d1 64 08 3f
       0.5056972 0.4710706 0.5144765 0.53278834
000030 80 44 f8 3e 6b bb f3 3d 49 65 de 3e c9 ae fe 3e
       0.4848976 0.119009815 0.4343665 0.49742725
000040 88 92 c1 3e 38 6d 0a 3f f4 e8 89 3e 0c b0 fb 3e
       0.37807107 0.54072905 0.26935542 0.4915775
000050 ba 7a e9 3e 8d b5 ac 3e 2f 3f 02 3f 48 9e fb 3e
       0.45601445 0.33732262 0.5087766 0.49144197
000060 2e 1f 01 3f 9e 6e b5 3e 91 5d 00 3f f0 a0 00 3f
       0.504382 0.35435957 0.5014277 0.5024557
000070 b8 1d 0a 3f 10 85 01 3f 9e 30 f2 3e f0 49 e5 3e
       0.539516 0.5059366 0.47302717 0.44782972
000080 26 ac cb 3e 48 7e a5 3e 0e 1b 0a 3f 2e fc 0b 3f
       0.39779776 0.32322907 0.5394753 0.5468167
000090 04 78 00 3f b7 be ff 3e ee 73 66 3e c2 74 a8 3e
       0.5018313 0.4995019 0.22505161 0.3290158
0000a0 83 be f9 3e 7f f0 d9 3e c0 33 a7 3e 84 2d f5 3e
       0.4877816 0.42566296 0.3265667 0.47886288
0000b0 2e 4f 96 3e 1b 94 cf 3e 54 b0 6a 3e 86 e2 00 3f
       0.29357284 0.40542683 0.22918826 0.5034565
0000c0 11 e0 b0 3e 04 76 ff 3e 46 c1 e9 3e 55 db f7 3e
       0.3454595 0.49894726 0.45655268 0.48409525
0000d0 d8 1c ac 3e 91 9f d3 3e 50 a0 98 3e 7b d4 dc 3e
       0.33615756 0.41332677 0.2980981 0.4313086
0000e0 ac 86 9c 3e 81 fc cc 3e 2b 77 fa 3e e4 b5 01 3f
       0.30571496 0.40036395 0.48919043 0.5066817
0000f0 08 5e e5 3e ba f0 eb 3e a2 8b e9 3e 36 31 fe 3e
       0.44798303 0.46082097 0.45614344 0.4964692

bias f4 [64]
000000 61 f0 10 3d 67 45 e6 ba 63 14 28 bd 6e dc f2 3c
       0.035385493 -0.0017568291 -0.041035067 0.029646125
000010 cd 86 1d 3d 57 04 fe 3b 11 7f 5b be b1 aa 97 be
       0.038458634 0.007751982 -0.2143519 -0.29622415
000020 bc a3 ea bc 3b c0 f6 3c 17 ee 04 bd 4e 0d 93 bc
       -0.028642528 0.03012096 -0.032453623 -0.01795068
000030 7f 60 92 bc f5 9b ab be e0 a5 c3 be fd 2e 18 bc
       -0.017868279 -0.33517423 -0.3821249 -0.009288547
000040 04 a9 5b be 5f 1e da bd 5c 69 f1 be dd 7c 37 bd
       -0.21451193 -0.10650324 -0.47150695 -0.044796813
000050 f8 1e d4 3d e6 dc a5 bd 19 7e 8d bc 29 f3 2d bd
       0.10357469 -0.08098774 -0.017272042 -0.042468224
000060 b0 a7 9e bb 74 bf c6 bd 01 33 23 3b 11 62 bd bc
       -0.0048417673 -0.097044855 0.0024902227 -0.02311805
000070 1b b8 c3 3c e2 c0 dd bb 7c f5 83 3d c7 81 98 3d
       0.0238915 -0.006767378 0.06443307 0.07446628
000080 42 07 c1 bd d0 16 67 be 3a ed f2 bb b9 36 a4 3c
       -0.094252124 -0.22567296 -0.0074135335 0.020045625
000090 47 4d 2b be cb 16 f1 3b 45 11 aa be 61 b2 13 be
       -0.16728698 0.0073574535 -0.332163 -0.14423515
0000a0 25 18 6d 3d ae ca ee bd e5 57 5d be 91 be 18 3c
       0.057884354 -0.11659752 -0.2161556 0.009322778
0000b0 fb 64 7b be a7 75 a1 bc 9c c8 2d bd 05 f9 67 bc
       -0.2455024 -0.019709421 -0.042427644 -0.014158492
0000c0 e5 70 3e bc c6 d1 d1 bc 88 5b 77 bd 37 2e 8e 3c
       -0.011623596 -0.025612723 -0.060390025 0.017356021
0000d0 51 b3 b6 bc 1c 62 4d be 46 b2 4f be e2 d1 68 be
       -0.022302302 -0.20056957 -0.2028285 -0.22736314
0000e0 0a 34 cd bd c7 77 ef bd b8 b5 fc bc 3d 11 2f bd
       -0.10019691 -0.116927676 -0.030848369 -0.04274105
0000f0 0a d3 48 3d a7 2b dc bb a6 20 6c ba 19 62 a6 bc
       0.049029388 -0.006719071 -0.00090075505 -0.020310448

running_mean f4 [64]
000000 d1 43 f9 3d 36 7e c6 bd 1f d3 83 bd b8 45 d3 bd
       0.12171138 -0.096920416 -0.064367525 -0.10316032
000010 84 41 9d 3d 91 59 5a 3c d2 82 2b 3d 9e 77 92 3c
       0.07678512 0.013327018 0.041872807 0.017879304
000020 f4 93 28 bd 9b 9f 85 3d 4e 30 db bd 60 cc 03 be
       -0.041156724 0.06524583 -0.10702573 -0.12870932
000030 e1 b6 9d 3d 3b 3f bd 3d 03 21 df bc a7 87 84 3d
       0.07700897 0.09240576 -0.02723742 0.06471186
000040 e8 fc d7 bd 1f d5 f1 bd 52 ac e7 bd aa 3f b2 bc
       -0.10546285 -0.11808228 -0.11312164 -0.021758873
000050 ef ab 91 3c 04 1c c3 3d 91 7a bc bd 5e c8 a4 3d
       0.01778218 0.09526828 -0.09203065 0.080460295
000060 90 56 ec bc db 06 77 bd 54 24 88 3d 84 a8 b1 3d
       -0.02884987 -0.060309272 0.06647554 0.0867472
000070 4e 00 83 3d 41 aa 2b 3d d8 15 0d bd db 44 a8 3d
       0.063965425 0.041910414 -0.03444466 0.08216258
000080 0a 3b 96 bd e5 8d 06 3e 7a ea 04 3d 0a 81 ae 3d
       -0.073354796 0.13140066 0.032450177 0.08520706
000090 aa 2d ca bc e7 63 bb 3d 10 9f 0f 3e 9d 7b 2b bc
       -0.024679977 0.09149914 0.14025521 -0.010466483
0000a0 1c 08 ae 3d f8 24 9c bd 6f bf 06 3e 26 d4 3c bd
       0.084976405 -0.07624239 0.13158964 -0.046100758
0000b0 d7 a9 80 bd 37 9c 82 bd a3 27 ba bc c9 75 b7 3d
       -0.062823944 -0.06377452 -0.022723978 0.089580126
0000c0 40 d9 08 3e 4c 86 84 3d 16 e0 86 3d 94 a3 03 be
       0.13364124 0.064709276 0.0658571 -0.12855369
0000d0 39 e0 bf 3d 68 4f 7a bd f4 de 7a 3d a7 e0 b8 3d
       0.09368939 -0.061110884 0.06124778 0.09027224
0000e0 3a c7 b5 3d e0 d0 c4 bd 54 da 88 3d a7 08 b4 bd
       0.0887589 -0.09610152 0.06682268 -0.08790713
0000f0 8f 50 81 3c 5c c9 a9 bc e3 36 29 bc 83 4f 3b bd
       0.015785484 -0.020725898 -0.010328027 -0.045730125

running_var f4 [64]
000000 4f 51 8d 3c 2b 39 33 3c 31 19 9e 3b 2a 0b 4b 3c
       0.017250685 0.010938923 0.0048247804 0.012392798
000010 6c fb e0 3b 0a e0 58 39 52 cf 05 3b bf 2b c3 39
       0.0068659093 0.00020682826 0.0020417762 0.00037225892
000020 b6 45 01 3b 43 71 a2 3b 71 8b 5a 3c 03 09 9e 3c
       0.001972539 0.0049573495 0.0133389095 0.019291406
000030 c0 4b e2 3b 53 ea 22 3c 03 79 62 3a 5f cb 9f 3b
       0.0069060028 0.009943563 0.0008639248 0.0048765386
000040 67 35 54 3c 0e 04 85 3c 34 26 74 3c 95 87 10 3a
       0.012952185 0.016237285 0.014901686 0.00055133674
000050 65 0e c1 39 4a 2a 2d 3c 67 98 21 3c c5 08 f7 3b
       0.00036822553 0.0105691645 0.009862996 0.007538887
000060 a7 14 7e 3a 90 ca 8a 3b 91 9f a8 3b dd 92 0f 3c
       0.00096924085 0.004235573 0.005145975 0.008763042
000070 1a 21 9c 3b df 0c 06 3b 63 17 b5 3a 82 cc 00 3c
       0.004764688 0.002045445 0.0013816174 0.007861258
000080 51 54 cd 3b a3 b6 a4 3c 0a ba a0 3a 54 85 0a 3c
       0.006266155 0.02010662 0.0012262475 0.008454639
000090 b4 f0 39 3a f7 bb 1f 3c fb a8 bb 3c 15 c4 05 39
       0.00070930575 0.009749404 0.022907725 0.00012756915
0000a0 9b c5 09 3c 1b d0 dd 3b 04 30 a5 3c 29 32 22 3b
       0.008408929 0.006769193 0.020164497 0.0024749136
0000b0 4f 9b 96 3b e3 32 9b 3b 8e a2 1d 3a b1 1a 19 3c
       0.004596151 0.004736291 0.0006013297 0.009344743
0000c0 eb 60 aa 3c 1c c8 9f 3b 1b 80 a5 3b 3c a7 9d 3c
       0.020798167 0.00487615 0.0050506718 0.019244783
0000d0 16 79 27 3c 5c 81 8e 3b fd 24 8f 3b af 7a 1b 3c
       0.01022174 0.004348917 0.004368423 0.009489699
0000e0 58 4f 16 3c 22 35 30 3c 98 63 aa 3b 5d 70 13 3c
       0.00917419 0.010754855 0.005199861 0.008998957
0000f0 9a 22 98 39 ef 21 03 3a 13 40 02 39 35 99 1f 3b
       0.0002901748 0.000500231 0.00012421636 0.0024352793

cpu f4 [64]
000000 00 00 00 00 00 00 00 00 00 00 00 00 00 00 00 00
       0.0 0.0 0.0 0.0
000010 00 00 00 00 00 00 00 00 00 00 00 00 00 00 00 00
       0.0 0.0 0.0 0.0
000020 00 00 00 00 00 00 00 00 00 00 00 00 00 00 00 00
       0.0 0.0 0.0 0.0
000030 00 00 00 00 00 00 00 00 00 00 00 00 00 00 00 00
       0.0 0.0 0.0 0.0
000040 00 00 00 00 00 00 00 00 00 00 00 00 00 00 00 00
       0.0 0.0 0.0 0.0
000050 00 00 00 00 00 00 00 00 00 00 00 00 00 00 00 00
       0.0 0.0 0.0 0.0
000060 00 00 00 00 00 00 00 00 00 00 00 00 00 00 00 00
       0.0 0.0 0.0 0.0
000070 00 00 00 00 00 00 00 00 00 00 00 00 00 00 00 00
       0.0 0.0 0.0 0.0
000080 00 00 00 00 00 00 00 00 00 00 00 00 00 00 00 00
       0.0 0.0 0.0 0.0
000090 00 00 00 00 00 00 00 00 00 00 00 00 00 00 00 00
       0.0 0.0 0.0 0.0
0000a0 00 00 00 00 00 00 00 00 00 00 00 00 00 00 00 00
       0.0 0.0 0.0 0.0
0000b0 00 00 00 00 00 00 00 00 00 00 00 00 00 00 00 00
       0.0 0.0 0.0 0.0
0000c0 00 00 00 00 00 00 00 00 00 00 00 00 00 00 00 00
       0.0 0.0 0.0 0.0
0000d0 00 00 00 00 00 00 00 00 00 00 00 00 00 00 00 00
       0.0 0.0 0.0 0.0
0000e0 00 00 00 00 00 00 00 00 00 00 00 00 00 00 00 00
       0.0 0.0 0.0 0.0
0000f0 00 00 00 00 00 00 00 00 00 00 00 00 00 00 00 00
       0.0 0.0 0.0 0.0

cpu f4 [128]
000000 00 00 00 00 00 00 00 00 00 00 00 00 00 00 00 00
       0.0 0.0 0.0 0.0
000010 00 00 00 00 00 00 00 00 00 00 00 00 00 00 00 00
       0.0 0.0 0.0 0.0
000020 00 00 00 00 00 00 00 00 00 00 00 00 00 00 00 00
       0.0 0.0 0.0 0.0
000030 00 00 00 00 00 00 00 00 00 00 00 00 00 00 00 00
       0.0 0.0 0.0 0.0
000040 00 00 00 00 00 00 00 00 00 00 00 00 00 00 00 00
       0.0 0.0 0.0 0.0
000050 00 00 00 00 00 00 00 00 00 00 00 00 00 00 00 00
       0.0 0.0 0.0 0.0
000060 00 00 00 00 00 00 00 00 00 00 00 00 00 00 00 00
       0.0 0.0 0.0 0.0
000070 00 00 00 00 00 00 00 00 00 00 00 00 00 00 00 00
       0.0 0.0 0.0 0.0
000080 00 00 00 00 00 00 00 00 00 00 00 00 00 00 00 00
       0.0 0.0 0.0 0.0
000090 00 00 00 00 00 00 00 00 00 00 00 00 00 00 00 00
       0.0 0.0 0.0 0.0
0000a0 00 00 00 00 00 00 00 00 00 00 00 00 00 00 00 00
       0.0 0.0 0.0 0.0
0000b0 00 00 00 00 00 00 00 00 00 00 00 00 00 00 00 00
       0.0 0.0 0.0 0.0
0000c0 00 00 00 00 00 00 00 00 00 00 00 00 00 00 00 00
       0.0 0.0 0.0 0.0
0000d0 00 00 00 00 00 00 00 00 00 00 00 00 00 00 00 00
       0.0 0.0 0.0 0.0
0000e0 00 00 00 00 00 00 00 00 00 00 00 00 00 00 00 00
       0.0 0.0 0.0 0.0
0000f0 00 00 00 00 00 00 00 00 00 00 00 00 00 00 00 00
       0.0 0.0 0.0 0.0
000100 00 00 00 00 00 00 00 00 00 00 00 00 00 00 00 00
       0.0 0.0 0.0 0.0
000110 00 00 00 00 00 00 00 00 00 00 00 00 00 00 00 00
       0.0 0.0 0.0 0.0
000120 00 00 00 00 00 00 00 00 00 00 00 00 00 00 00 00
       0.0 0.0 0.0 0.0
000130 00 00 00 00 00 00 00 00 00 00 00 00 00 00 00 00
       0.0 0.0 0.0 0.0
000140 00 00 00 00 00 00 00 00 00 00 00 00 00 00 00 00
       0.0 0.0 0.0 0.0
000150 00 00 00 00 00 00 00 00 00 00 00 00 00 00 00 00
       0.0 0.0 0.0 0.0
000160 00 00 00 00 00 00 00 00 00 00 00 00 00 00 00 00
       0.0 0.0 0.0 0.0
000170 00 00 00 00 00 00 00 00 00 00 00 00 00 00 00 00
       0.0 0.0 0.0 0.0
000180 00 00 00 00 00 00 00 00 00 00 00 00 00 00 00 00
       0.0 0.0 0.0 0.0
000190 00 00 00 00 00 00 00 00 00 00 00 00 00 00 00 00
       0.0 0.0 0.0 0.0
0001a0 00 00 00 00 00 00 00 00 00 00 00 00 00 00 00 00
       0.0 0.0 0.0 0.0
0001b0 00 00 00 00 00 00 00 00 00 00 00 00 00 00 00 00
       0.0 0.0 0.0 0.0
0001c0 00 00 00 00 00 00 00 00 00 00 00 00 00 00 00 00
       0.0 0.0 0.0 0.0
0001d0 00 00 00 00 00 00 00 00 00 00 00 00 00 00 00 00
       0.0 0.0 0.0 0.0
0001e0 00 00 00 00 00 00 00 00 00 00 00 00 00 00 00 00
       0.0 0.0 0.0 0.0
0001f0 00 00 00 00 00 00 00 00 00 00 00 00 00 00 00 00
       0.0 0.0 0.0 0.0

weight f4 [128]
000000 d2 9d ad 3e 71 1d d0 3e 9d 96 f8 3e af 1c fa 3e
       0.3390947 0.40647462 0.4855241 0.4885001
000010 e0 e2 0d 3f 6a 87 e0 3e 99 f2 0e 3f 4c 32 02 3f
       0.5542431 0.43853313 0.55838925 0.50857997
000020 28 49 f6 3e 1b cc 00 3f 3f b5 e4 3e b2 f4 0d 3f
       0.4810269 0.5031144 0.4466953 0.554515
000030 d0 9c 12 3f ef ed 0e 3f 70 23 08 3f 97 8b 11 3f
       0.57270527 0.5583181 0.53179073 0.5685362
000040 2f bf 10 3f 37 e6 1e 3f fd d7 cd 3e 43 b9 37 3f
       0.56541723 0.6207003 0.40203848 0.7176706
000050 e3 26 01 3f f7 b7 08 3f af 4d 08 3f dd 82 fc 3e
       0.5044996 0.5340571 0.53243536 0.4931859
000060 22 c7 f4 3e 9b 6f 0f 3f 4a 90 f5 3e cb b3 08 3f
       0.47808176 0.5602967 0.47961646 0.5339934
000070 a4 0c ed 3e 7f 4e f4 3e 1a 32 11 3f 37 0d 13 3f
       0.46298707 0.47716138 0.56717074 0.5744204
000080 73 16 ef 3e a0 9b 03 3f ba 13 01 3f fe 5f 0c 3f
       0.46696815 0.5140934 0.50420725 0.5483397
000090 11 27 31 3f a7 b1 db 3e 52 98 0c 3f d8 2f 11 3f
       0.69200236 0.42908975 0.5491992 0.5671363
0000a0 89 bd 0c 3f 9b 01 fc 3e 2d 62 08 3f cd eb 07 3f
       0.5497671 0.49219975 0.53274804 0.5309418
0000b0 29 b6 1a 3f 92 2d 02 3f 70 ab e8 3e 88 77 1a 3f
       0.60434204 0.50850785 0.45443296 0.6033864
0000c0 2b 0c 0d 3f d9 16 0e 3f 65 55 e6 3e 09 ed 06 3f
       0.5509669 0.5550361 0.44987026 0.52705437
0000d0 5a 47 1f 3f 34 8b ce 3e 4b 95 e2 3e a4 6d 1a 3f
       0.6221825 0.4034058 0.44254526 0.6032355
0000e0 34 56 2c 3f 09 ac 00 3f b5 ec 09 3f 77 f3 0c 3f
       0.67319036 0.50262505 0.5387681 0.55059
0000f0 1e dc 0c 3f 4e 4b 22 3f 0d 34 0d 3f a4 79 08 3f
       0.5502337 0.63396156 0.5515755 0.5331061
000100 f2 cc f5 3e a0 7c 03 3f bb b2 02 3f 4c ee 18 3f
       0.48007923 0.5136204 0.5105397 0.5973861
000110 9e b7 06 3f 3f 0e 03 3f 1e 44 00 3f 0d c9 fb 3e
       0.5262393 0.5119361 0.5010394 0.49176827
000120 1f bb d4 3e 54 8e 0d 3f 86 2f f6 3e ce f0 eb 3e
       0.41549012 0.552953 0.48083133 0.46082157
000130 01 53 fb 3e b6 de 11 3f 1b 21 05 3f 18 89 fa 3e
       0.49086764 0.56980455 0.5200364 0.4893272
000140 9a dc 05 3f 3e 23 01 3f 85 68 10 3f b3 a8 ec 3e
       0.52289736 0.504444 0.56409484 0.46222457
000150 69 88 0d 3f 4d 15 e8 3e eb 29 0b 3f 43 a9 00 3f
       0.5528627 0.4532875 0.54360837 0.5025827
000160 4c b5 02 3f 15 d6 e2 3e e3 40 0a 3f 5b 16 d7 3e
       0.5105789 0.44303957 0.5400526 0.42009243
000170 fa 25 fb 3e b9 ad 02 3f 2b cc 0f 3f b6 6a 13 3f
       0.4905241 0.5104633 0.5617091 0.575847
000180 da c7 13 3f 1e f9 f8 3e 5a 4e fb 3e 37 24 ef 3e
       0.57726824 0.4862756 0.49083215 0.46707317
000190 77 ef 0a 3f 76 e7 0e 3f 4e f5 02 3f d7 be 05 3f
       0.54271644 0.5582193 0.51155555 0.52244323
0001a0 83 2e fe 3e 37 f9 02 3f f8 56 1b 3f de f8 d9 3e
       0.4964486 0.5116152 0.6067958 0.42572683
0001b0 7e 12 01 3f 04 18 e7 3e 30 1a 09 3f 5b 54 df 3e
       0.5041884 0.4513551 0.53555584 0.43619046
0001c0 24 4f 05 3f 0f e3 0a 3f 12 a5 01 3f 77 c3 04 3f
       0.52073884 0.54252714 0.506425 0.51860756
0001d0 79 e0 07 3f 60 dd 03 3f 2e db 1e 3f fc ca 0a 3f
       0.53076893 0.51509666 0.6205319 0.5421598
0001e0 12 20 e6 3e 8d c0 08 3f 66 0a df 3e 3d d9 f8 3e
       0.44946343 0.5341881 0.4356262 0.4860324
0001f0 6c ae 00 3f d9 cb 01 3f 3a 7d f1 3e 7a d1 0d 3f
       0.50266147 0.5070167 0.47165853 0.5539776

bias f4 [128]
000000 f6 69 d0 bd 26 f5 19 be fb 24 0a be 5d 4e ce bd
       -0.101764604 -0.15034923 -0.1349067 -0.1007354
000010 71 82 0c be a7 3b 59 bd ee d9 36 3b 8b 01 3c 3c
       -0.13721634 -0.053035405 0.0027900892 0.011474977
000020 69 07 f8 bc c1 2b b0 bd 67 33 c1 bc 89 5b eb bc
       -0.030276971 -0.086020954 -0.02358408 -0.02873017
000030 6c d7 08 bf ad 83 79 be 0e da b8 bd 5e a7 29 bb
       -0.5345371 -0.24366637 -0.09025966 -0.0025887112
000040 a6 b8 bb bc 28 19 b3 be 05 f5 0d be f7 b8 54 bf
       -0.022915196 -0.3498013 -0.13862999 -0.83094734
000050 d2 1e 46 bd b5 da 70 bc b4 3b 31 be b5 8f d8 bb
       -0.048369236 -0.014700581 -0.17307931 -0.006608928
000060 4d 24 27 3d e0 23 03 be 50 24 78 bd 26 9d c7 3c
       0.040806103 -0.12806654 -0.060581505 0.024366926
000070 46 9f a5 bc 1e 4f 10 bd 63 2c 08 be 8a 6e 13 3c
       -0.020217549 -0.035231702 -0.13298182 0.008998523
000080 2a 33 40 bd f5 a5 78 bc 8e d5 99 be a3 60 d5 be
       -0.046923794 -0.015176286 -0.30045742 -0.4167529
000090 e7 5e 99 bd 69 80 72 bd 78 a3 26 bd b5 dd e4 bc
       -0.07488804 -0.059204493 -0.04068324 -0.02793775
0000a0 54 c0 14 bf 10 5c e8 bc d8 9c 88 bc b0 0d b3 bd
       -0.5810597 -0.028364211 -0.016676351 -0.08742845
0000b0 fc 7c 0a be a4 1c 6b be 53 d2 5d bd 20 41 fa 3a
       -0.1352424 -0.22960144 -0.05415566 0.0019092895
0000c0 a1 40 b1 bb e3 84 22 bf 74 09 3d be 58 17 0f bd
       -0.0054093157 -0.6348402 -0.18460637 -0.03493437
0000d0 80 28 37 be e1 23 13 3d ba 84 a3 bd 0b 9b d2 bd
       -0.17886543 0.03592289 -0.079843 -0.10283478
0000e0 38 c6 f6 bd 06 7d a0 3b 84 97 60 bd 60 a7 1b bc
       -0.12049526 0.0048977165 -0.054831997 -0.0095003545
0000f0 1e 24 76 3c 12 61 52 be 3a 44 b6 3d c0 62 27 3c
       0.015023259 -0.20544842 0.08899732 0.010216415
000100 6c 2b f7 3b 8a 66 25 bd 0d ca 9c bc 2f 9c 99 3b
       0.007543018 -0.040380992 -0.019139314 0.004687808
000110 05 26 77 bd c7 c7 5b be f0 4b ab 3b d0 19 ea bb
       -0.060338993 -0.21462928 0.0052275583 -0.0071441904
000120 4a 0b 63 bc b4 73 86 3c ff cc a3 bd 3a 8b c1 bd
       -0.013857672 0.016412593 -0.07998084 -0.094503835
000130 8c 58 80 bc 03 18 b3 bd c2 2d ca bb b2 c8 87 bd
       -0.015667222 -0.08744814 -0.0061700055 -0.066300765
000140 73 12 7b bb 9b 64 8c bb c4 25 0f be 6f d1 ec bc
       -0.0038310557 -0.004284454 -0.1397925 -0.02890846
000150 b4 9a 1c bd 91 f8 b7 bd 5b 27 14 be 6d be 68 bb
       -0.038233474 -0.08982957 -0.14468138 -0.0035513893
000160 ef e2 6b bd 6a 81 19 be 50 1c 9d bd db 21 fd be
       -0.057589468 -0.14990774 -0.07671416 -0.49439892
000170 82 b0 15 be bc af 6c bd 76 78 a3 bc 79 9a df 3c
       -0.14618114 -0.05778478 -0.019954901 0.027295338
000180 2f 92 07 be d9 21 3c be 92 d1 94 bc 6c 01 9a be
       -0.13239358 -0.18372287 -0.018166337 -0.3007921
000190 9e da f1 bb 69 c0 95 be 5c d8 17 be 4c 3c d0 3c
       -0.0073807975 -0.2924836 -0.14828628 0.025419377
0001a0 e3 60 3b bc 99 f5 02 3b 46 fc 4f bd c7 df 8c bb
       -0.011436674 0.0019982813 -0.050777696 -0.0042991373
0001b0 fa 62 7c 3c 72 6d 69 3b ed dc 0e be ed eb fc be
       0.015404457 0.0035618213 -0.13951464 -0.49398747
0001c0 63 17 e8 be 69 a9 bd bc 99 48 a2 bc 47 10 0a bc
       -0.45330343 -0.02315207 -0.019810008 -0.008426732
0001d0 9a b7 de 39 dd 8e 14 bc 78 f5 a2 bd da 3e 97 bc
       0.00042479933 -0.009067264 -0.07956976 -0.018462587
0001e0 6b ed 8a 3b 13 b8 f8 bd a9 ac 25 be a9 1f 4d ba
       0.004239728 -0.12144484 -0.16179146 -0.0007824847
0001f0 58 c7 b0 bb fe 16 16 be bd eb ff bc 44 d1 29 bd
       -0.0053948574 -0.14657208 -0.031240338 -0.041459337

running_mean f4 [128]
000000 81 12 b8 3d 90 75 b4 bd df 60 c2 bd 77 4d dc bd
       0.08987904 -0.08811486 -0.09491133 -0.10756963
000010 33 ba 82 3d d3 ce 75 3d 09 c6 ec bc 05 0b 46 bc
       0.06383171 0.060011696 -0.028903024 -0.012087588
000020 40 7a 88 3b 37 96 31 bd d9 87 0a be eb 60 ef bc
       0.004164964 -0.043356147 -0.13528384 -0.029221019
000030 72 b3 d3 bd 78 90 d0 bd b8 3b 0c 3c 0a ab 18 bd
       -0.10336961 -0.10183805 0.00855916 -0.03727249
000040 35 e2 07 bd 69 b2 07 be cd 59 7a 3c e3 22 bc bb
       -0.033174712 -0.13251652 0.015280199 -0.0057414635
000050 c6 c9 26 3d 65 a3 cd bc ad 31 19 be f8 3e b8 bc
       0.04071977 -0.025102327 -0.14960356 -0.022490963
000060 fc 8f fb 3c d0 70 8b 3c 47 26 e3 bc 30 e1 0e bd
       0.030708306 0.017021567 -0.027728213 -0.034882724
000070 15 d9 7f bd 9c 77 80 3d 7d e9 38 bd f1 04 ca 3c
       -0.062462885 0.06272814 -0.045144547 0.02466056
000080 b1 24 39 3d 39 a0 a9 bd fd 05 fa bc c5 71 ba bd
       0.045201007 -0.08282513 -0.030520434 -0.09103731
000090 f6 1e 8b bd 75 71 0d bc 6f 67 c1 bd c6 01 87 3d
       -0.06793015 -0.008633007 -0.094435565 0.06592135
0000a0 d8 fa d2 bd fe 4d 65 bd 61 35 1d bd 78 2d 9c 3b
       -0.10301751 -0.055982582 -0.038380984 0.0047661625
0000b0 19 e5 c1 3c 10 09 cd bb 29 cd a9 bd 8b 77 37 3a
       0.023668813 -0.006257184 -0.08291084 0.0006998709
0000c0 d6 82 4b ba 27 db 13 bd cc 7e 91 bd 1f 1d f2 bc
       -0.00077633315 -0.03609767 -0.07104263 -0.029554902
0000d0 33 89 e8 bc 1e f8 34 bc 78 67 29 3d 27 f1 9a bc
       -0.028385734 -0.011045484 0.04135844 -0.018913819
0000e0 6b b6 ba bc 66 d0 4d 3d 23 ff 80 3d 33 f6 a8 ba
       -0.022792062 0.050247572 0.062986635 -0.0012890756
0000f0 83 e2 9f 3c ac 94 74 bd aa bc 31 be 9c 55 5c 3d
       0.019517189 -0.059712097 -0.17357126 0.05379258
000100 5a a8 04 bb fa fb a2 bd fa 18 68 3d 7e 45 b1 bc
       -0.0020241947 -0.07958217 0.056664445 -0.021639582
000110 f0 13 49 3d f0 df 1e bd 4f 47 41 3d da 04 1d bd
       0.04909128 -0.038787782 0.047187146 -0.038334705
000120 c1 9e cc bc 38 99 15 bd 15 ab 75 bd c6 00 1f bd
       -0.024978044 -0.036523074 -0.05997761 -0.038819097
000130 f5 a0 92 bc 7a da 7c bc 54 cc b7 bd 85 b5 e5 bc
       -0.017899016 -0.015432948 -0.08974519 -0.028040657
000140 c1 00 f7 bc c3 60 ae 3c e9 ec 14 bd 6e 55 6c 3c
       -0.030151727 0.021286374 -0.036358748 0.014424665
000150 bb ac c0 3c e9 f5 f9 bc d2 8c 8b bc 0b fa a4 bc
       0.023519864 -0.030512767 -0.017034922 -0.020138761
000160 18 dd 8a 3c 2f db b6 bd be 8e 10 b8 63 9a 09 bd
       0.016951129 -0.08928525 -3.4465214e-05 -0.0335945
000170 91 72 e1 3c df 9e e4 3c b3 e5 5e 3d b4 f3 32 3d
       0.02752045 0.027907787 0.054418277 0.043689445
000180 66 8f aa bd 56 26 97 bd fe 5a 67 bd 3b 79 54 bc
       -0.08328132 -0.07380359 -0.05648326 -0.012968357
000190 73 e4 88 bc ce 19 32 bd 2a 86 48 3c ef 21 ed 3b
       -0.016710496 -0.04348164 0.012239018 0.007236711
0001a0 0d ac 01 3d 6c 13 49 bc d2 1d 5e 3d 8d cd 78 bc
       0.03165822 -0.012272697 0.054227658 -0.015185726
0001b0 5b c3 18 3c c3 5e 27 3c da 80 a1 b9 ce d9 87 bc
       0.00932392 0.010215464 -0.00030804315 -0.01658335
0001c0 a9 f7 df bc dc a6 e7 3c 1e 5e 2a 3c ec a3 7d 3b
       -0.027339773 0.028277807 0.010398416 0.0038702441
0001d0 62 1d 45 3a 89 6d 03 3c fb da c0 3d ee 1e 06 bd
       0.0007519332 0.008021721 0.09416767 -0.03274434
0001e0 6e 30 39 bc ba ee e4 bc 3c b6 c4 bd 9f b7 99 3d
       -0.01130305 -0.027945865 -0.09605071 0.07505726
0001f0 6e 6c e0 3c 73 f1 68 bd 1f 71 fa bd 91 02 f3 bc
       0.027395453 -0.05687089 -0.122286074 -0.02966431
