ldpi/training/output/ResCNN/scripted_quantized_model.pth (torch, 269226 bytes, 61 tensors)

cpu f4 [64]
0	0x00000000	0.0
1	0x00000000	0.0
2	0x00000000	0.0
3	0x00000000	0.0
4	0x00000000	0.0
5	0x00000000	0.0
6	0x00000000	0.0
7	0x00000000	0.0
8	0x00000000	0.0
9	0x00000000	0.0
10	0x00000000	0.0
11	0x00000000	0.0
12	0x00000000	0.0
13	0x00000000	0.0
14	0x00000000	0.0
15	0x00000000	0.0
16	0x00000000	0.0
17	0x00000000	0.0
18	0x00000000	0.0
19	0x00000000	0.0
20	0x00000000	0.0
21	0x00000000	0.0
22	0x00000000	0.0
23	0x00000000	0.0
24	0x00000000	0.0
25	0x00000000	0.0
26	0x00000000	0.0
27	0x00000000	0.0
28	0x00000000	0.0
29	0x00000000	0.0
30	0x00000000	0.0
31	0x00000000	0.0
32	0x00000000	0.0
33	0x00000000	0.0
34	0x00000000	0.0
35	0x00000000	0.0
36	0x00000000	0.0
37	0x00000000	0.0
38	0x00000000	0.0
39	0x00000000	0.0
40	0x00000000	0.0
41	0x00000000	0.0
42	0x00000000	0.0
43	0x00000000	0.0
44	0x00000000	0.0
45	0x00000000	0.0
46	0x00000000	0.0
47	0x00000000	0.0
48	0x00000000	0.0
49	0x00000000	0.0
50	0x00000000	0.0
51	0x00000000	0.0
52	0x00000000	0.0
53	0x00000000	0.0
54	0x00000000	0.0
55	0x00000000	0.0
56	0x00000000	0.0
57	0x00000000	0.0
58	0x00000000	0.0
59	0x00000000	0.0
60	0x00000000	0.0
61	0x00000000	0.0
62	0x00000000	0.0
63	0x00000000	0.0

weight f4 [64]
0	0x3e3dd4a6	0.1853815
1	0x3f26b0d3	0.6511356
2	0x3f314319	0.6924301
3	0x3e3707ab	0.17874019
4	0x3e781435	0.24226458
5	0x3e536899	0.2064537
6	0x3f05035b	0.51958245
7	0x3ccb908f	0.024849204
8	0x3f1cb103	0.612076
9	0x3eac4773	0.3364826
10	0x3d9dcfdd	0.077056624
11	0x3d446cc4	0.04795529
12	0x3efcc2fa	0.49367505
13	0x3eab6ac1	0.33479884
14	0x3d2fdbf8	0.042934388
15	0x3ec40996	0.38288563
16	0x3ed7f0d9	0.4217594
17	0x3d555c58	0.05209002
18	0x3d38a20d	0.04507642
19	0x3f29471b	0.66124123
20	0x3ed8d2bf	0.42348287
21	0x3d18c8dc	0.03730093
22	0x3dc6351e	0.096781
23	0x3d3f5123	0.046708237
24	0x3e922067	0.28540346
25	0x3f3680d5	0.7129033
26	0x3e9aad81	0.30210498
27	0x3eae71ec	0.3407129
28	0x3e63b23d	0.22235961
29	0x3d943e46	0.0723844
30	0x3eccaadd	0.39974108
31	0x3dc15167	0.094393544
32	0x3d30dfb5	0.043182094
33	0x3d5103c3	0.051028978
34	0x3db20e53	0.086941384
35	0x3e545325	0.20734842
36	0x3ec22c1c	0.37924278
37	0x3e022af0	0.12711692
38	0x3e840da2	0.2579165
39	0x3dcd01cd	0.10010109
40	0x3e6e7bf4	0.23289472
41	0x3efb1d6c	0.49045885
42	0x3d1e5364	0.038653746
43	0x3cfed06a	0.031105239
44	0x3e2b1524	0.16707283
45	0x3e180499	0.14845504
46	0x3dcfbeee	0.10143839
47	0x3db9c32d	0.0907043
48	0x3e5d1b6f	0.21592496
49	0x3d534109	0.051575694
50	0x3eb21bf4	0.34786952
51	0x3e8ed5c7	0.27897474
52	0x3d1b1125	0.037858147
53	0x3dfe46ee	0.124158725
54	0x3d4c2669	0.04984132
55	0x3c4b5fa4	0.012412939
56	0x3ec24fc5	0.37951484
57	0x3d955608	0.072918
58	0x3f052a4c	0.52017665
59	0x3eb25e39	0.3483751
60	0x3e315c42	0.1732035
61	0x3e9b3cc3	0.30319795
62	0x3d37fe46	0.04492023
63	0x3d9751ca	0.07388647

bias f4 [64]
0	0xbeba7091	-0.36414006
1	0xbed9e2da	-0.42555887
2	0xbe9d63fc	-0.30740345
3	0xbd32cb0b	-0.043650668
4	0x3f0c178c	0.5472343
5	0x3d6f1b93	0.058375906
6	0x3e6000b1	0.21875264
7	0x3ead178b	0.33807024
8	0xbe132b16	-0.14371905
9	0xbdef5bd8	-0.1168744
10	0xbf12e11e	-0.5737475
11	0xbda724b8	-0.081613004
12	0x3ec2b8b2	0.38031536
13	0x3e1255fa	0.1429061
14	0x3c3d77be	0.011564193
15	0xbedb84ce	-0.4287476
16	0xbe0d0e0f	-0.13774894
17	0x3ce0c752	0.027438793
18	0xbc9bac25	-0.019002983
19	0xbe5b5b46	-0.21421537
20	0x3f0cbe78	0.5497813
21	0xbc0e50a6	-0.00868622
22	0xbd6d750c	-0.057972953
23	0xbc2ae8cd	-0.010431481
24	0x3e86a0ea	0.26294643
25	0x3e47b975	0.1950434
26	0x3eb9fb30	0.36324453
27	0x3f42c622	0.76083577
28	0x3d410047	0.047119405
29	0xbca569b9	-0.020192014
30	0x3ee2401d	0.4418954
31	0x3d1fc5a1	0.039006833
32	0xbc1a7abb	-0.009428675
33	0xbdafaf82	-0.08578397
34	0xbe20f9a9	-0.15720238
35	0x3e94eabd	0.2908534
36	0x3e54b1d1	0.20770957
37	0xbce02dee	-0.027365651
38	0xbd1beb23	-0.03806604
39	0xbce08b7b	-0.02741026
40	0xbdaba11f	-0.08380341
41	0x3f06e056	0.5268606
42	0xbd7c62df	-0.06161773
43	0xbd315693	-0.043295454
44	0x3d26680a	0.040626563
45	0xbf2c5062	-0.67310154
46	0x3da084b1	0.07837809
47	0xbe091de4	-0.13390309
48	0xbd98107a	-0.07425018
49	0xbd83d68f	-0.06437408
50	0x3eba2b6a	0.36361247
51	0xbdb8a2ad	-0.09015403
52	0xbd2b1e6c	-0.04177706
53	0xbd0e15cd	-0.03468876
54	0xbd9e7565	-0.07737235
55	0xbd5ed9d6	-0.054406963
56	0x3e9e7f1e	0.30956358
57	0x3d23c3dd	0.03998171
58	0x3dd0a39b	0.10187455
59	0xbdc1025b	-0.094242774
60	0x3d18d678	0.03731391
61	0xbe13a387	-0.1441785
62	0xbc8fd9e8	-0.01755996
63	0xbc83b280	-0.016076326

running_mean f4 [64]
0	0x3c6ee303	0.014580491
1	0xbc9f14ba	-0.019419063
2	0xbcc57ae0	-0.024106443
3	0x3c8de3a3	0.01732046
4	0xbc56a9b9	-0.0131019885
5	0x3c83e298	0.01609926
6	0xbce2a480	-0.02766633
7	0xbc6ca2ef	-0.014443143
8	0x3cac7613	0.021052396
9	0xbc9da42b	-0.01924332
10	0x3c747dbb	0.014922555
11	0x3b359010	0.0027704276
12	0xbcc4ade2	-0.024008695
13	0x3c843c32	0.016141985
14	0xbc943619	-0.018092202
15	0xbb3b6544	-0.0028594295
16	0xbc8a5ed0	-0.016890913
17	0xbc900fde	-0.017585691
18	0x3bc95685	0.006144347
19	0x3cc631e6	0.024193715
20	0xbcbc6d87	-0.023001445
21	0xbc7197a9	-0.014745631
22	0x3c26fcdc	0.010192122
23	0x3ca16cd8	0.019705221
24	0x3c7a89c8	0.015291639
25	0x3cc3e678	0.023913607
26	0xbc641655	-0.01392134
27	0x3ce033fb	0.027368536
28	0x3c85256c	0.016253196
29	0xbb8d9aea	-0.0043214457
30	0xbcb5eccd	-0.022207642
31	0x3c9e6417	0.019334836
32	0x3c0426aa	0.008065859
33	0x3c9aa450	0.018877178
34	0xba8baba1	-0.0010656008
35	0x3c2c2e5e	0.010509102
36	0x3c9e0350	0.019288689
37	0xb9d65dab	-0.0004088705
38	0x3c32b978	0.010908477
39	0xbbaced51	-0.0052773138
40	0xbc986072	-0.018600676
41	0x3db5911b	0.08865567
42	0xbc16c313	-0.009201783
43	0xbc9463b0	-0.018113941
44	0xbc64c6dc	-0.013963427
45	0x3bd6d58b	0.006556218
46	0x3c8a449c	0.016878419
47	0x3c403ce6	0.011733269
48	0xbc83fecd	-0.01611271
49	0x3c12d94c	0.00896294
50	0x3d09dfa2	0.03366054
51	0xbc587aa3	-0.013212833
52	0xbc663303	-0.014050248
53	0xbc88f921	-0.016720356
54	0xbc7d468b	-0.015458713
55	0x3c411f78	0.011787288
56	0x3d0fc4a2	0.035099633
57	0xbb77f39f	-0.0037834418
58	0xbcc73969	-0.024319367
59	0xbc60c754	-0.0137193985
60	0x3c166d47	0.009181327
61	0xbc1894b0	-0.009312794
62	0xbc78da3e	-0.015188752
63	0x3b90a8c8	0.0044146515

running_var f4 [64]
0	0x395a29a0	0.00020805607
1	0x39c17de7	0.00036905633
2	0x3a15167c	0.00056872494
3	0x3999ee3b	0.0002935993
4	0x39302948	0.00016800046
5	0x3984fd5b	0.00025365766
6	0x3a445f2e	0.00074909895
7	0x39561262	0.00020415479
8	0x39e368e3	0.0004337496
9	0x39be0165	0.00036240663
10	0x396484e1	0.00021793276
11	0x36fc0bc2	7.511554e-06
12	0x3a13e19a	0.0005641222
13	0x3985b249	0.0002550057
14	0x39a7f415	0.00032034577
15	0x3706400a	8.001933e-06
16	0x399263e7	0.00027921723
17	0x399eae55	0.00030265996
18	0x381af84f	3.6947717e-05
19	0x3a162b56	0.00057285035
20	0x3a07bbb5	0.0005177812
21	0x395f21e5	0.00021279564
22	0x38d53435	0.00010166356
23	0x39c73c82	0.0003800132
24	0x396ff67f	0.00022884643
25	0x3a12b651	0.0005596625
26	0x3946e219	0.0001896698
27	0x3a402ac8	0.00073305937
28	0x39878b85	0.00025853157
29	0x37995098	1.827655e-05
30	0x39fd0d7b	0.00048265964
31	0x39bfd123	0.00036586178
32	0x388586c3	6.3670355e-05
33	0x39b6d800	0.00034874678
34	0x35952772	1.1112845e-06
35	0x38e2abef	0.00010808545
36	0x39bee701	0.00036411735
37	0x342fac89	1.6360913e-07
38	0x38f43a34	0.00011645668
39	0x37e4a3ca	2.7255988e-05
40	0x39b186ce	0.00033860508
41	0x3bfc0ea1	0.0076921736
42	0x38adc8b7	8.286669e-05
43	0x39a85b75	0.00032111598
44	0x39481668	0.00019081833
45	0x3830713b	4.2067124e-05
46	0x39922c81	0.00027880448
47	0x390d4721	0.00013473305
48	0x39853641	0.0002540816
49	0x38a4e130	7.862074e-05
50	0x3a915749	0.0011088635
51	0x39332791	0.0001708551
52	0x394a955f	0.00019319866
53	0x398f72e8	0.00027360697
54	0x39753c33	0.00023387447
55	0x390e94e9	0.00013597649
56	0x3a9e08c4	0.0012057056
57	0x376b089f	1.4009099e-05
58	0x3a17bbb2	0.00057881617
59	0x394127b3	0.00018420703
60	0x38ad0325	8.2498686e-05
61	0x38b2009d	8.487816e-05
62	0x396cbea0	0.00022577727
63	0x379fffe6	1.9073439e-05

cpu f4 [64]
0	0x00000000	0.0
1	0x00000000	0.0
2	0x00000000	0.0
3	0x00000000	0.0
4	0x00000000	0.0
5	0x00000000	0.0
6	0x00000000	0.0
7	0x00000000	0.0
8	0x00000000	0.0
9	0x00000000	0.0
10	0x00000000	0.0
11	0x00000000	0.0
12	0x00000000	0.0
13	0x00000000	0.0
14	0x00000000	0.0
15	0x00000000	0.0
16	0x00000000	0.0
17	0x00000000	0.0
18	0x00000000	0.0
19	0x00000000	0.0
20	0x00000000	0.0
21	0x00000000	0.0
22	0x00000000	0.0
23	0x00000000	0.0
24	0x00000000	0.0
25	0x00000000	0.0
26	0x00000000	0.0
27	0x00000000	0.0
28	0x00000000	0.0
29	0x00000000	0.0
30	0x00000000	0.0
31	0x00000000	0.0
32	0x00000000	0.0
33	0x00000000	0.0
34	0x00000000	0.0
35	0x00000000	0.0
36	0x00000000	0.0
37	0x00000000	0.0
38	0x00000000	0.0
39	0x00000000	0.0
40	0x00000000	0.0
41	0x00000000	0.0
42	0x00000000	0.0
43	0x00000000	0.0
44	0x00000000	0.0
45	0x00000000	0.0
46	0x00000000	0.0
47	0x00000000	0.0
48	0x00000000	0.0
49	0x00000000	0.0
50	0x00000000	0.0
51	0x00000000	0.0
52	0x00000000	0.0
53	0x00000000	0.0
54	0x00000000	0.0
55	0x00000000	0.0
56	0x00000000	0.0
57	0x00000000	0.0
58	0x00000000	0.0
59	0x00000000	0.0
60	0x00000000	0.0
61	0x00000000	0.0
62	0x00000000	0.0
63	0x00000000	0.0

cpu f4 [64]
0	0x00000000	0.0
1	0x00000000	0.0
2	0x00000000	0.0
3	0x00000000	0.0
4	0x00000000	0.0
5	0x00000000	0.0
6	0x00000000	0.0
7	0x00000000	0.0
8	0x00000000	0.0
9	0x00000000	0.0
10	0x00000000	0.0
11	0x00000000	0.0
12	0x00000000	0.0
13	0x00000000	0.0
14	0x00000000	0.0
15	0x00000000	0.0
16	0x00000000	0.0
17	0x00000000	0.0
18	0x00000000	0.0
19	0x00000000	0.0
20	0x00000000	0.0
21	0x00000000	0.0
22	0x00000000	0.0
23	0x00000000	0.0
24	0x00000000	0.0
25	0x00000000	0.0
26	0x00000000	0.0
27	0x00000000	0.0
28	0x00000000	0.0
29	0x00000000	0.0
30	0x00000000	0.0
31	0x00000000	0.0
32	0x00000000	0.0
33	0x00000000	0.0
34	0x00000000	0.0
35	0x00000000	0.0
36	0x00000000	0.0
37	0x00000000	0.0
38	0x00000000	0.0
39	0x00000000	0.0
40	0x00000000	0.0
41	0x00000000	0.0
42	0x00000000	0.0
43	0x00000000	0.0
44	0x00000000	0.0
45	0x00000000	0.0
46	0x00000000	0.0
47	0x00000000	0.0
48	0x00000000	0.0
49	0x00000000	0.0
50	0x00000000	0.0
51	0x00000000	0.0
52	0x00000000	0.0
53	0x00000000	0.0
54	0x00000000	0.0
55	0x00000000	0.0
56	0x00000000	0.0
57	0x00000000	0.0
58	0x00000000	0.0
59	0x00000000	0.0
60	0x00000000	0.0
61	0x00000000	0.0
62	0x00000000	0.0
63	0x00000000	0.0

weight f4 [64]
0	0x3ea413c8	0.32046342
1	0x3e35bb38	0.177472
2	0x3e35c6de	0.17751643
3	0x3cfe37b9	0.03103243
4	0x3d144d84	0.036206737
5	0x3e953bb5	0.29147115
6	0x3de0bc05	0.10973362
7	0x3efcbd49	0.49363163
8	0x3d92a8ea	0.07161124
9	0x3e040d6a	0.12895742
10	0x3f42cb7f	0.7609176
11	0x3e86f97b	0.26362213
12	0x3dabc787	0.08387666
13	0x3e37c979	0.1794795
14	0x3ce729e0	0.02821821
15	0x3de145f8	0.109996736
16	0x3d594f93	0.053054404
17	0x3e74dfb0	0.23913455
18	0x3e937a86	0.28804415
19	0x3def22f7	0.11676591
20	0x3e2ab650	0.16671109
21	0x3f639627	0.8890099
22	0x3cf0248d	0.029314304
23	0x3e23ac4f	0.159837
24	0x3e48ebd2	0.19621208
25	0x3ead23a8	0.33816266
26	0x3e176f0a	0.14788452
27	0x3e6ffea5	0.23436983
28	0x3e16474c	0.14675635
29	0x3f0dee5d	0.5544184
30	0x3f1b1768	0.6058259
31	0x3e20d357	0.1570562
32	0x3f160ad3	0.58610266
33	0x3cf56b94	0.029958524
34	0x3e42c894	0.19021827
35	0x3db86446	0.09003501
36	0x3e367562	0.17818215
37	0x3d2364e2	0.03989113
38	0x3f076c4e	0.52899635
39	0x3e92a87c	0.28644168
40	0x3dab393c	0.08360526
41	0x3d8cd71e	0.06876968
42	0x3e26e162	0.16296914
43	0x3f157712	0.5838481
44	0x3debaf2c	0.11508021
45	0x3ce2ea57	0.027699633
46	0x3d02e298	0.031954378
47	0x3e05914e	0.1304371
48	0x3e44c4e2	0.1921573
49	0x3e520cd1	0.20512702
50	0x3e18e640	0.14931583
51	0x3f290de4	0.6603682
52	0x3edc7d5a	0.43064386
53	0x3f34ccea	0.70625174
54	0x3f3c72c2	0.73612607
55	0x3ddb5877	0.10710233
56	0x3e4f9033	0.20269851
57	0x3d16cccc	0.036816403
58	0x3f4d7a18	0.80264425
59	0x3ccf31ce	0.025292303
60	0x3d2a6397	0.041598883
61	0x3dd20690	0.10255158
62	0x3f120573	0.57039565
63	0x3e246f76	0.16058144

bias f4 [64]
0	0xbe4f37a1	-0.20236064
1	0xbd86dc2f	-0.065849654
2	0x3d8ca4b3	0.068673514
3	0xba293db4	-0.0006456033
4	0xbcb109aa	-0.021611053
5	0xbecbc622	-0.397996
6	0x3c0f742b	0.008755724
7	0x3df69579	0.120402284
8	0x3c83fa99	0.016110705
9	0xbd557a19	-0.052118395
10	0xbdc14a81	-0.094380386
11	0xbe075b05	-0.13218315
12	0xbdf85712	-0.12125982
13	0x3cb94b8c	0.022619031
14	0xbb5c42e8	-0.0033609215
15	0xbd0add85	-0.033902664
16	0x3c960e89	0.018317478
17	0xbc456c4d	-0.012049747
18	0xbe77dbc0	-0.24204922
19	0xbb7894bc	-0.003793045
20	0xbd2eaf17	-0.042647447
21	0xbefdaf6a	-0.49547893
22	0xbaf60c75	-0.0018772023
23	0xbd9568c4	-0.07295373
24	0xbd82aec6	-0.06380992
25	0xbe7a621c	-0.24451488
26	0x3c8cf444	0.017206319
27	0xbe1d9176	-0.1538752
28	0xbd8c9003	-0.068634056
29	0xbe931f53	-0.28734836
30	0xbecfaff4	-0.4056393
31	0xbf02370c	-0.50865245
32	0xbe603677	-0.21895777
33	0xbaba0ea2	-0.0014195035
34	0x3de66d0d	0.112512685
35	0xbd932da2	-0.07186438
36	0x3d49755c	0.04918419
37	0x3b92cf34	0.004480267
38	0xbd495270	-0.049150884
39	0xbee9dcc5	-0.45676246
40	0x3c294f84	0.010333899
41	0x3bd56a83	0.0065129413
42	0xbec0cb2c	-0.37655008
43	0xbd18d891	-0.03731591
44	0xbe0329b6	-0.1280888
45	0xbcb1ec16	-0.02171902
46	0x3a1bf811	0.00059497455
47	0xbdac3823	-0.08409145
48	0x3b998bb1	0.004685842
49	0xbe2965ff	-0.16542815
50	0xbc9a546a	-0.01883908
51	0xbde287cc	-0.110610574
52	0xbe5d1fac	-0.21594113
53	0xbe066860	-0.13125753
54	0xbe0ecf68	-0.13946307
55	0xbd3f70f5	-0.046738584
56	0xbe25be5c	-0.16185898
57	0x3a87f95c	0.0010373998
58	0xbdba21be	-0.09088467
59	0xbcc5e5cc	-0.024157427
60	0xbd619438	-0.055072993
61	0x3cd68e28	0.026190832
62	0xbd9ad31b	-0.075597964
63	0xbe1d502f	-0.15362619

running_mean f4 [64]
0	0xbda776cf	-0.08176958
1	0xb9c865ff	-0.00038222966
2	0xbc3914ad	-0.011296433
3	0xba3d8aad	-0.0007230442
4	0xbbea2580	-0.0071455836
5	0xbd27ea30	-0.040994823
6	0xbc1d36d2	-0.00959559
7	0xbde7d0fc	-0.113191575
8	0x3bad52b9	0.0052894023
9	0xbcdadcd9	-0.026716636
10	0xbea5cd2e	-0.32383102
11	0x3b0f2c43	0.002184645
12	0xbb83b70e	-0.0040196246
13	0x3d0c5ea7	0.034269955
14	0x3abc7aec	0.0014379895
15	0x3c4858ff	0.01222825
16	0x3bb9e5da	0.0056731524
17	0xbd09cbfe	-0.033641808
18	0xbdb34645	-0.08753637
19	0xbc752c5a	-0.0149641875
20	0x3ad57e79	0.0016288302
21	0xbe1aa5ec	-0.15102357
22	0xb9c56f3b	-0.0003765764
23	0xbd499dc3	-0.04922272
24	0x3c8abf15	0.016936818
25	0xbd6f7cf5	-0.058468778
26	0x3c6a5cf7	0.014304391
27	0xbd969877	-0.07353299
28	0xbcbe3845	-0.02322019
29	0x3c475f20	0.012168676
30	0xbe556448	-0.20839036
31	0xbd22e4a5	-0.039768834
32	0xbd80ddf7	-0.062923364
33	0xb95a2fad	-0.0002080786
34	0x3ce5e77d	0.028064484
35	0xbc5ba899	-0.013406896
36	0x3ba523a1	0.0050396477
37	0x3ac9c48c	0.0015393659
38	0xbdd50bc7	-0.10402637
39	0xbd61164a	-0.054952897
40	0x3ba9dea3	0.005184011
41	0xbb652e44	-0.0034970203
42	0xbd8ad574	-0.06778994
43	0xbdde9774	-0.10868731
44	0xbc43b3f3	-0.011944759
45	0xba1abe9e	-0.0005903038
46	0xbb4ac698	-0.0030941125
47	0xbc3f629a	-0.011681223
48	0x3c086d62	0.00832686
49	0xbe26ec4b	-0.16301076
50	0x3c0c1481	0.00854981
51	0xbe6a13e7	-0.22859155
52	0xbc60d17e	-0.013721822
53	0xbe9b2de8	-0.3030846
54	0xbe698a5a	-0.22806683
55	0xbd0373c9	-0.032092843
56	0x3d997539	0.074930616
57	0xbb3b1ffb	-0.0028552997
58	0x3c007965	0.007841443
59	0xba8f8c76	-0.0010951895
60	0x3abc5caf	0.0014370884
61	0xbcc8eee9	-0.024527984
62	0xbda39305	-0.07987026
63	0x3d8ef2db	0.06979915

running_var f4 [64]
0	0x3c8b4302	0.016999725
1	0x397b3e8b	0.00023960524
2	0x3b0fcb1c	0.002194113
3	0x378b96c8	1.6640304e-05
4	0x390ef5de	0.00013633768
5	0x3b49dec8	0.0030802954
6	0x3a3cd0a2	0.00072027196
7	0x3cc58c0c	0.024114631
8	0x38883026	6.493954e-05
9	0x3ad3cd44	0.0016159196
10	0x3e06610c	0.13122958
11	0x3b5bac17	0.0033519322
12	0x38806614	6.122529e-05
13	0x3aed0549	0.001808324
14	0x35a57c7d	1.2329689e-06
15	0x39eb2b71	0.0004485506
16	0x381b10e4	3.697061e-05
17	0x3b38dbfa	0.0028207288
18	0x3c899175	0.016792992
19	0x3a299955	0.00064696866
20	0x3b3da5b7	0.0028937885
21	0x3d1a79b7	0.037713733
22	0x37aeda97	2.0844205e-05
23	0x3b1302c6	0.0022432073
24	0x3bb8f37b	0.0056442595
25	0x3b0030ee	0.0019560414
26	0x3a1429c6	0.00056519767
27	0x3bf7a7fa	0.007557866
28	0x3a1b5176	0.00059249194
29	0x3c220e95	0.009891172
30	0x3c427df3	0.011870849
31	0x3c0853f6	0.008320799
32	0x3bcd3bb1	0.0062632193
33	0x372c12d6	1.02563845e-05
34	0x3b5e3c45	0.0033910435
35	0x3a8c3688	0.0010697404
36	0x3ad6536a	0.0016351764
37	0x37be2f7e	2.267188e-05
38	0x3cf693c2	0.030099753
39	0x3b5704e4	0.0032809312
40	0x39c7e82f	0.00038129228
41	0x38715654	5.7539277e-05
42	0x3b1d4854	0.002399941
43	0x3d8eab75	0.069662966
44	0x39e7bc6a	0.00044200133
45	0x36894f75	4.092168e-06
46	0x36c2d12e	5.8060023e-06
47	0x3a179b9d	0.0005783381
48	0x3b3f83b1	0.0029222781
49	0x3bfc3b2e	0.0076974845
50	0x3aaa6202	0.0012999179
51	0x3d002b76	0.031291448
52	0x3b9bb867	0.004752207
53	0x3df99e77	0.12188428
54	0x3d8eb4ab	0.069680534
55	0x3a87e7f9	0.0010368816
56	0x3cb23884	0.021755464
57	0x382dcc44	4.143665e-05
58	0x3dbf1560	0.09330249
59	0x35fecfa0	1.8984902e-06
60	0x37d58f64	2.545835e-05
61	0x39cd63e1	0.00039175063
62	0x3c6654fb	0.014058347
63	0x3b35b4d7	0.0027726197

cpu f4 [64]
0	0x00000000	0.0
1	0x00000000	0.0
2	0x00000000	0.0
3	0x00000000	0.0
4	0x00000000	0.0
5	0x00000000	0.0
6	0x00000000	0.0
7	0x00000000	0.0
8	0x00000000	0.0
9	0x00000000	0.0
10	0x00000000	0.0
11	0x00000000	0.0
12	0x00000000	0.0
13	0x00000000	0.0
14	0x00000000	0.0
15	0x00000000	0.0
16	0x00000000	0.0
17	0x00000000	0.0
18	0x00000000	0.0
19	0x00000000	0.0
20	0x00000000	0.0
21	0x00000000	0.0
22	0x00000000	0.0
23	0x00000000	0.0
24	0x00000000	0.0
25	0x00000000	0.0
26	0x00000000	0.0
27	0x00000000	0.0
28	0x00000000	0.0
29	0x00000000	0.0
30	0x00000000	0.0
31	0x00000000	0.0
32	0x00000000	0.0
33	0x00000000	0.0
34	0x00000000	0.0
35	0x00000000	0.0
36	0x00000000	0.0
37	0x00000000	0.0
38	0x00000000	0.0
39	0x00000000	0.0
40	0x00000000	0.0
41	0x00000000	0.0
42	0x00000000	0.0
43	0x00000000	0.0
44	0x00000000	0.0
45	0x00000000	0.0
46	0x00000000	0.0
47	0x00000000	0.0
48	0x00000000	0.0
49	0x00000000	0.0
50	0x00000000	0.0
51	0x00000000	0.0
52	0x00000000	0.0
53	0x00000000	0.0
54	0x00000000	0.0
55	0x00000000	0.0
56	0x00000000	0.0
57	0x00000000	0.0
58	0x00000000	0.0
59	0x00000000	0.0
60	0x00000000	0.0
61	0x00000000	0.0
62	0x00000000	0.0
63	0x00000000	0.0

cpu f4 [64]
0	0x00000000	0.0
1	0x00000000	0.0
2	0x00000000	0.0
3	0x00000000	0.0
4	0x00000000	0.0
5	0x00000000	0.0
6	0x00000000	0.0
7	0x00000000	0.0
8	0x00000000	0.0
9	0x00000000	0.0
10	0x00000000	0.0
11	0x00000000	0.0
12	0x00000000	0.0
13	0x00000000	0.0
14	0x00000000	0.0
15	0x00000000	0.0
16	0x00000000	0.0
17	0x00000000	0.0
18	0x00000000	0.0
19	0x00000000	0.0
20	0x00000000	0.0
21	0x00000000	0.0
22	0x00000000	0.0
23	0x00000000	0.0
24	0x00000000	0.0
25	0x00000000	0.0
26	0x00000000	0.0
27	0x00000000	0.0
28	0x00000000	0.0
29	0x00000000	0.0
30	0x00000000	0.0
31	0x00000000	0.0
32	0x00000000	0.0
33	0x00000000	0.0
34	0x00000000	0.0
35	0x00000000	0.0
36	0x00000000	0.0
37	0x00000000	0.0
38	0x00000000	0.0
39	0x00000000	0.0
40	0x00000000	0.0
41	0x00000000	0.0
42	0x00000000	0.0
43	0x00000000	0.0
44	0x00000000	0.0
45	0x00000000	0.0
46	0x00000000	0.0
47	0x00000000	0.0
48	0x00000000	0.0
49	0x00000000	0.0
50	0x00000000	0.0
51	0x00000000	0.0
52	0x00000000	0.0
53	0x00000000	0.0
54	0x00000000	0.0
55	0x00000000	0.0
56	0x00000000	0.0
57	0x00000000	0.0
58	0x00000000	0.0
59	0x00000000	0.0
60	0x00000000	0.0
61	0x00000000	0.0
62	0x00000000	0.0
63	0x00000000	0.0

weight f4 [64]
0	0x3eaa71d1	0.3328996
1	0x3e98ac67	0.29819033
2	0x3e47aef5	0.19500335
3	0x3ea0dbe4	0.31417763
4	0x3e8b366e	0.27189964
5	0x3ef77d3a	0.48337728
6	0x3e9c5c53	0.30539188
7	0x3ed46c20	0.41488743
8	0x3ee6b8f2	0.45062977
9	0x3ed612fc	0.4181136
10	0x3e3f2086	0.1866475
11	0x3f0bdfce	0.54638374
12	0x3ee83bc1	0.4535809
13	0x3e89f18a	0.26942092
14	0x3f0dc708	0.5538182
15	0x3e6930cf	0.22772525
16	0x3f2db7cf	0.67858595
17	0x3e6f9787	0.23397647
18	0x3e8ef8f0	0.279243
19	0x3e96ff2a	0.2949155
20	0x3e4fdee0	0.20299864
21	0x3eb11d5d	0.34592715
22	0x3f02e199	0.51125485
23	0x3eed540a	0.4635318
24	0x3eacf2ed	0.33779088
25	0x3e9f943d	0.31167784
26	0x3eac7fcf	0.3369126
27	0x3e8135b8	0.25236297
28	0x3ee74426	0.4516918
29	0x3ed85f90	0.42260408
30	0x3f45261f	0.77011293
31	0x3e637f0a	0.2221643
32	0x3e802274	0.25026286
33	0x3e87ed30	0.26548147
34	0x3ea8b86e	0.3295321
35	0x3eaba89f	0.33527085
36	0x3eb22736	0.3479554
37	0x3e6e5cc3	0.23277573
38	0x3ec96fe9	0.39343193
39	0x3d944659	0.0723998
40	0x3eb6cb36	0.35701913
41	0x3e4cd3a1	0.20002605
42	0x3e8f1254	0.2794367
43	0x3ed7f570	0.4217944
44	0x3d3f37f7	0.04668423
45	0x3e66d7dd	0.22543283
46	0x3ef18b64	0.4717666
47	0x3eb96f85	0.36217895
48	0x3f1b8afb	0.6075894
49	0x3e8d3c6e	0.27585167
50	0x3ef2de6e	0.47435325
51	0x3eaa7b6c	0.33297288
52	0x3e3e5ef3	0.18590908
53	0x3e6c9bb5	0.23106273
54	0x3e37a604	0.17934424
55	0x3e733008	0.23748791
56	0x3f0a0209	0.53909355
57	0x3edb4983	0.42829522
58	0x3ede8212	0.4345861
59	0x3e2af6f8	0.16695774
60	0x3d04946b	0.032368105
61	0x3e590801	0.2119446
62	0x3d43986e	0.04775279
63	0x3ee6770e	0.45012707

bias f4 [64]
0	0xbde90431	-0.113777526
1	0xbd463801	-0.048393253
2	0xbd40a43c	-0.047031626
3	0xbbb25430	-0.005442165
4	0x3cf90cd4	0.030401625
5	0xbe2922a0	-0.16517115
6	0x3c43c04d	0.011947704
7	0xbe71f108	-0.23627102
8	0xbe054f8a	-0.13018623
9	0xbdcc90b0	-0.099885345
10	0x3d04d54f	0.03242999
11	0xbe6d13a2	-0.2315202
12	0xbd0527c9	-0.032508645
13	0x3d2e1a2b	0.042505424
14	0xbdd68640	-0.10474825
15	0x3d94f1cc	0.072726816
16	0xbea57f28	-0.32323575
17	0xbc81e631	-0.015856834
18	0xbcc57f38	-0.024108514
19	0xbe23242d	-0.15931769
20	0x3cc2025c	0.023682766
21	0x3c63ca7c	0.0139032565
22	0xbdfe4529	-0.12415535
23	0xbd420c56	-0.047375046
24	0xba8cf266	-0.0010753393
25	0xbda0e442	-0.07856037
26	0xbd78d112	-0.06074626
27	0xbe14d884	-0.14535719
28	0x3c0adb38	0.008475117
29	0xbe824a06	-0.254471
30	0xbeb3ccc2	-0.35117155
31	0x3da18a73	0.07887735
32	0x3cb2d1ee	0.021828618
33	0xbc80b62d	-0.015711868
34	0xbe8a9eb0	-0.27074194
35	0xbe64dca1	-0.22349788
36	0xbd9d5670	-0.07682502
37	0xbdc4d055	-0.09610049
38	0xbe9db65c	-0.30803192
39	0xbd69ba09	-0.057062183
40	0xbdbf255a	-0.09333296
41	0x3db0605b	0.08612128
42	0xbe32e538	-0.17470253
43	0xbd8998a5	-0.06718568
44	0x3c34e4b8	0.011040859
45	0x3d09efb1	0.033675853
46	0xbe032095	-0.12805398
47	0xbd3bb870	-0.04583019
48	0xbde3a816	-0.11116044
49	0xbcc18634	-0.023623563
50	0xbe22a886	-0.15884599
51	0xbe50d766	-0.20394668
52	0x3c8a610c	0.016891979
53	0xbe1854e1	-0.14876129
54	0x3c7aabf9	0.015299791
55	0xbcbb87cf	-0.022891907
56	0xbe135d0d	-0.14390965
57	0xbd50c93b	-0.05097316
58	0xbe0956c1	-0.13412
59	0x3d2bf8d3	0.041985344
60	0x3b1c84e8	0.002388293
61	0xbceb3ac1	-0.02871454
62	0x3aa0395c	0.0012224126
63	0xbe144dd3	-0.14482813

running_mean f4 [64]
0	0xbd0295b5	-0.031881053
1	0xbcd5e243	-0.026108867
2	0x3c10f681	0.008847834
3	0x3c7efcaa	0.0155631695
4	0x3c9de875	0.019275883
5	0x3db493c7	0.08817249
6	0xbbd8dbe5	-0.0066180103
7	0xba273f5a	-0.00063799846
8	0xbcb6ba76	-0.022305708
9	0x3d682a3b	0.0566809
10	0x3c9d47a3	0.019199198
11	0x3dde5a05	0.108570136
12	0x3d7398fb	0.059472065
13	0xbc0f886f	-0.008760556
14	0xbe025f77	-0.1273173
15	0xbb49b1da	-0.0030776174
16	0xbd05dadc	-0.032679424
17	0xbc5dccca	-0.013537595
18	0x3bb454ff	0.0055032964
19	0xbd258800	-0.040412903
20	0x3cccfa61	0.025021734
21	0x3d0b67c9	0.034034524
22	0x3cd445dd	0.02591222
23	0x3dc676a1	0.096905954
24	0x3d05ed11	0.032696787
25	0xbd0fda12	-0.035120077
26	0x3b1068cf	0.0022035127
27	0xbcb8d937	-0.022564514
28	0x3dce5144	0.10074094
29	0xbd4cd809	-0.050010715
30	0x3ddd495b	0.10805007
31	0xbcd699c7	-0.026196374
32	0xbaa8dbd8	-0.0012882901
33	0xbbeb48f0	-0.0071803257
34	0x3d00fcb6	0.031491004
35	0xbbaaaa42	-0.0052082846
36	0xbc54e0ad	-0.01299302
37	0xbc041265	-0.008061026
38	0x3dc6d37b	0.097083054
39	0xbb02c50f	-0.0019953882
40	0xbcf065e0	-0.029345453
41	0x3cce9240	0.025216222
42	0xbc1da31b	-0.009621407
43	0xbc8a6d9c	-0.016897969
44	0xbb87ba5e	-0.0041420897
45	0x3cc544fa	0.024080742
46	0x3d254bc8	0.040355474
47	0x3cde4aea	0.027135331
48	0xbd98bcbe	-0.07457875
49	0xbb51887a	-0.0031972216
50	0xbd4c4467	-0.04986992
51	0x3a60bddf	0.0008573215
52	0xbc2569d9	-0.010096037
53	0xbb6373c7	-0.003470646
54	0x3c428834	0.011873294
55	0x3b98bfe6	0.004661548
56	0x3dd6e2ff	0.10492515
57	0x3dc210d3	0.09475865
58	0x3ccbe9f3	0.02489183
59	0xbcc3e5b2	-0.023913238
60	0x3a8b618d	0.0010633931
61	0xbc8daeca	-0.01729526
62	0x39d637e7	0.0004085891
63	0xbca6d42d	-0.020364845

running_var f4 [64]
0	0x3c5fffac	0.013671797
1	0x3ca82c53	0.020528948
2	0x3bb353b4	0.0054726247
3	0x3bcb329a	0.0062011005
4	0x3c179371	0.009251461
5	0x3c9caaaa	0.019124348
6	0x3c733748	0.014844723
7	0x3cb96091	0.022629054
8	0x3b8311a7	0.003999907
9	0x3cc4553a	0.02396642
10	0x3b5e5770	0.0033926629
11	0x3cf50dd1	0.029913815
12	0x3d0e693b	0.034768324
13	0x3c65e474	0.014031518
14	0x3bd742d3	0.0065692454
15	0x3ae5c7fe	0.0017530916
16	0x3bacfa17	0.0052788365
17	0x3b394ff9	0.0028276427
18	0x3b2e9695	0.0026640047
19	0x3c58fb35	0.013243486
20	0x3badf7a6	0.005309063
21	0x3bde04bb	0.0067754663
22	0x3cfefaca	0.031125445
23	0x3beb57f8	0.0071821176
24	0x3c03ee26	0.0080523845
25	0x3cdbf5e9	0.026850658
26	0x3c96dca4	0.018415757
27	0x3a088f6a	0.00052093586
28	0x3c045e81	0.008079172
29	0x3b0f053d	0.002182319
30	0x3bb6f64f	0.0055835615
31	0x3be6011d	0.0070191757
32	0x3c82ac2e	0.015951242
33	0x3ca547c9	0.020175831
34	0x3c138ec4	0.009006206
35	0x3c96af18	0.018394038
36	0x3c1c47d8	0.009538613
37	0x3bd003cb	0.0063481084
38	0x3bab340e	0.0052247113
39	0x3890ca2a	6.904111e-05
40	0x3ca6fe96	0.020385068
41	0x3c06b733	0.008222389
42	0x3b1bbf76	0.0023765243
43	0x3cfd9dab	0.030958971
44	0x37801477	1.5268319e-05
45	0x3c572731	0.013131903
46	0x3ccd84a6	0.025087666
47	0x3b9ed0e9	0.0048466814
48	0x3c3d7a66	0.011564827
49	0x3c45fd0b	0.012084256
50	0x3c3e2b23	0.011606964
51	0x3c2f8100	0.010711908
52	0x3b6e5557	0.0036366784
53	0x3c319e5d	0.010840979
54	0x3b0bbdce	0.002132285
55	0x3c0821b8	0.00830882
56	0x3caf96fd	0.021434302
57	0x3bb12596	0.005406092
58	0x3bf9a902	0.0076190243
59	0x3aeaee0d	0.0017923728
60	0x37568754	1.27869025e-05
61	0x3b4c615c	0.003118596
62	0x38a1aef8	7.709669e-05
63	0x3c27b5dc	0.01023623

cpu f4 [64]
0	0x00000000	0.0
1	0x00000000	0.0
2	0x00000000	0.0
3	0x00000000	0.0
4	0x00000000	0.0
5	0x00000000	0.0
6	0x00000000	0.0
7	0x00000000	0.0
8	0x00000000	0.0
9	0x00000000	0.0
10	0x00000000	0.0
11	0x00000000	0.0
12	0x00000000	0.0
13	0x00000000	0.0
14	0x00000000	0.0
15	0x00000000	0.0
16	0x00000000	0.0
17	0x00000000	0.0
18	0x00000000	0.0
19	0x00000000	0.0
20	0x00000000	0.0
21	0x00000000	0.0
22	0x00000000	0.0
23	0x00000000	0.0
24	0x00000000	0.0
25	0x00000000	0.0
26	0x00000000	0.0
27	0x00000000	0.0
28	0x00000000	0.0
29	0x00000000	0.0
30	0x00000000	0.0
31	0x00000000	0.0
32	0x00000000	0.0
33	0x00000000	0.0
34	0x00000000	0.0
35	0x00000000	0.0
36	0x00000000	0.0
37	0x00000000	0.0
38	0x00000000	0.0
39	0x00000000	0.0
40	0x00000000	0.0
41	0x00000000	0.0
42	0x00000000	0.0
43	0x00000000	0.0
44	0x00000000	0.0
45	0x00000000	0.0
46	0x00000000	0.0
47	0x00000000	0.0
48	0x00000000	0.0
49	0x00000000	0.0
50	0x00000000	0.0
51	0x00000000	0.0
52	0x00000000	0.0
53	0x00000000	0.0
54	0x00000000	0.0
55	0x00000000	0.0
56	0x00000000	0.0
57	0x00000000	0.0
58	0x00000000	0.0
59	0x00000000	0.0
60	0x00000000	0.0
61	0x00000000	0.0
62	0x00000000	0.0
63	0x00000000	0.0

weight f4 [64]
0	0x3d99833a	0.074957326
1	0xbcf0dd9a	-0.029402543
2	0xbd082171	-0.033235017
3	0xbd972766	-0.073805615
4	0xbc08c197	-0.008346937
5	0x3e0b4a39	0.13602532
6	0x3c304184	0.010757808
7	0x3c400809	0.011720666
8	0xbdd91099	-0.10598869
9	0xbdf10f27	-0.11770468
10	0x3dcec6d7	0.100965194
11	0xbe169e6c	-0.1470887
12	0x3e48ae89	0.1959783
13	0x3ca66464	0.020311542
14	0x3e72f0af	0.23724626
15	0xbc229499	-0.009923124
16	0xbe15ec91	-0.14641024
17	0xbd5723e3	-0.05252446
18	0x3dca3278	0.098729074
19	0x3d9997f2	0.074996844
20	0xbb1a594f	-0.0023551767
21	0xbde265db	-0.11054584
22	0x3d84aab0	0.064778686
23	0xbda04459	-0.07825536
24	0xbdb5ebb0	-0.088828444
25	0x3d699ea6	0.057036065
26	0x3a99eea3	0.0011744093
27	0x3dcd93fe	0.10037993
28	0x3d980010	0.07421887
29	0xbddca054	-0.10772768
30	0x3e1a68d5	0.15079053
31	0xbd1ccaaf	-0.03827923
32	0xbd6df4a6	-0.058094643
33	0xbc7c3823	-0.015394243
34	0xbc7d3a7f	-0.015455841
35	0x3bd1e1f9	0.006405112
36	0x3dedb62b	0.116070114
37	0xbc4ae591	-0.012383834
38	0x3d70866f	0.058721956
39	0xba82dbb0	-0.0009983685
40	0x3c78b7ac	0.01518051
41	0x3bdf123f	0.006807595
42	0x3bae103c	0.005311994
43	0xbb071af5	-0.0020615433
44	0x3d508a7b	0.050913315
45	0x3ad3c099	0.0016155421
46	0x3e283dde	0.1642985
47	0x3bc4fcd8	0.0060115866
48	0x3e2b03b9	0.16700639
49	0xbcd6aa0a	-0.026204128
50	0xbe02ebe1	-0.12785293
51	0x3d120fc1	0.035659555
52	0xbc307930	-0.010771081
53	0x3c97d226	0.018532824
54	0xbc510476	-0.012757411
55	0x3cc36302	0.023850922
56	0xbc84a043	-0.0161897
57	0x3da9ee23	0.08297374
58	0xbd00db33	-0.031459045
59	0xbbcc86fc	-0.0062416773
60	0x3d0a7627	0.033804085
61	0xbcf27203	-0.02959538
62	0x3cefdf95	0.029281417
63	0xbe56c811	-0.20974757

bias f4 [64]
0	0xbde90431	-0.113777526
1	0xbd463801	-0.048393253
2	0xbd40a43c	-0.047031626
3	0xbbb25430	-0.005442165
4	0x3cf90cd4	0.030401625
5	0xbe2922a0	-0.16517115
6	0x3c43c04d	0.011947704
7	0xbe71f108	-0.23627102
8	0xbe054f8a	-0.13018623
9	0xbdcc90b0	-0.099885345
10	0x3d04d54f	0.03242999
11	0xbe6d13a2	-0.2315202
12	0xbd0527c9	-0.032508645
13	0x3d2e1a2b	0.042505424
14	0xbdd68640	-0.10474825
15	0x3d94f1cc	0.072726816
16	0xbea57f28	-0.32323575
17	0xbc81e631	-0.015856834
18	0xbcc57f38	-0.024108514
19	0xbe23242d	-0.15931769
20	0x3cc2025c	0.023682766
21	0x3c63ca7c	0.0139032565
22	0xbdfe4529	-0.12415535
23	0xbd420c56	-0.047375046
24	0xba8cf266	-0.0010753393
25	0xbda0e442	-0.07856037
26	0xbd78d112	-0.06074626
27	0xbe14d884	-0.14535719
28	0x3c0adb38	0.008475117
29	0xbe824a06	-0.254471
30	0xbeb3ccc2	-0.35117155
31	0x3da18a73	0.07887735
32	0x3cb2d1ee	0.021828618
33	0xbc80b62d	-0.015711868
34	0xbe8a9eb0	-0.27074194
35	0xbe64dca1	-0.22349788
36	0xbd9d5670	-0.07682502
37	0xbdc4d055	-0.09610049
38	0xbe9db65c	-0.30803192
39	0xbd69ba09	-0.057062183
40	0xbdbf255a	-0.09333296
41	0x3db0605b	0.08612128
42	0xbe32e538	-0.17470253
43	0xbd8998a5	-0.06718568
44	0x3c34e4b8	0.011040859
45	0x3d09efb1	0.033675853
46	0xbe032095	-0.12805398
47	0xbd3bb870	-0.04583019
48	0xbde3a816	-0.11116044
49	0xbcc18634	-0.023623563
50	0xbe22a886	-0.15884599
51	0xbe50d766	-0.20394668
52	0x3c8a610c	0.016891979
53	0xbe1854e1	-0.14876129
54	0x3c7aabf9	0.015299791
55	0xbcbb87cf	-0.022891907
56	0xbe135d0d	-0.14390965
57	0xbd50c93b	-0.05097316
58	0xbe0956c1	-0.13412
59	0x3d2bf8d3	0.041985344
60	0x3b1c84e8	0.002388293
61	0xbceb3ac1	-0.02871454
62	0x3aa0395c	0.0012224126
63	0xbe144dd3	-0.14482813

running_mean f4 [64]
0	0xbbf122ad	-0.00735887
1	0xbbb36cf8	-0.0054756366
2	0xbb78ba5d	-0.0037952878
3	0xbbf3d19e	-0.00744076
4	0x3b133cad	0.0022466586
5	0x3c3cbca2	0.011519583
6	0x3bcf447c	0.0063253026
7	0xbb37416e	-0.0027962583
8	0xbc17e4af	-0.009270831
9	0xbc23ed49	-0.010005304
10	0xbc199b67	-0.00937543
11	0x3c2e417e	0.010635732
12	0x3c5f2cfa	0.013621563
13	0xbbc716d3	-0.006075719
14	0x3c7040d1	0.014663891
15	0xbbc47350	-0.0059951916
16	0x3d3f6881	0.046730522
17	0xbbe91fa0	-0.0071143657
18	0xbc0e479c	-0.008684065
19	0xbc029ff1	-0.007972703
20	0x3bd90491	0.006622859
21	0x3d1ffa58	0.039057106
22	0x3c1b4c23	0.009478602
23	0xbbe31ed3	-0.006931165
24	0x3c1b6c95	0.009486337
25	0x3c01e55d	0.00792822
26	0xb93c7483	-0.00017972481
27	0x3be84227	0.007087964
28	0x3c1144c4	0.008866493
29	0xbc0961b5	-0.008385112
30	0x3bfb21d3	0.0076639443
31	0xbbfcebde	-0.0077185472
32	0x3c08af1f	0.008342533
33	0x3beb9bbc	0.007190196
34	0xbb6f011b	-0.0036469165
35	0x3bf49ba9	0.007464845
36	0xbc12eca4	-0.008967552
37	0x3bd8a229	0.006611128
38	0x3bf8bccf	0.007590867
39	0xbbb24e24	-0.005441444
40	0x3b779378	0.0037777107
41	0x3c06e378	0.008232944
42	0xbbf6032b	-0.007507702
43	0xbb37a4e4	-0.0028021866
44	0xbb04246e	-0.0020163315
45	0x39eb8bb3	0.00044926777
46	0x3c5292d0	0.012852386
47	0xb9e9eaa7	-0.00044616053
48	0xbc2c8658	-0.010530077
49	0xbbb1be0f	-0.005424268
50	0x3c0a480a	0.008440027
51	0x3bcbf767	0.006224561
52	0x3b91ab2d	0.0044454546
53	0xbb75e1a0	-0.0037518516
54	0x3b2a7730	0.0026010983
55	0x3b9323b7	0.0044903415
56	0xbc4af7af	-0.012388154
57	0x3c055b18	0.008139394
58	0xbc3e4cfe	-0.011615036
59	0xbad1e24d	-0.0016012877
60	0x399e05b6	0.00030140363
61	0xbbe10b53	-0.006867805
62	0xbb239fdb	-0.0024967107
63	0x3c617c8d	0.013762605

running_var f4 [64]
0	0x38890d42	6.5351385e-05
1	0x3817c2f5	3.6182773e-05
2	0x3791d179	1.738289e-05
3	0x388c1e79	6.681396e-05
4	0x36cc637a	6.0912544e-06
5	0x3927ebdf	0.0001601423
6	0x384a8398	4.828311e-05
7	0x371e4f3d	9.435983e-06
8	0x38d98533	0.000103721766
9	0x38fd59ec	0.00012080729
10	0x38de74d5	0.000106075466
11	0x390f245c	0.00013651088
12	0x396acb2d	0.00022391668
13	0x383ad903	4.4547964e-05
14	0x39880cfe	0.0002594962
15	0x3835ed79	4.3374926e-05
16	0x3b2cb563	0.0026353232
17	0x38801886	6.1080835e-05
18	0x38bedb74	9.100782e-05
19	0x38a0de97	7.670855e-05
20	0x385e03fb	5.293263e-05
21	0x3af14ab5	0.0018409105
22	0x38e36119	0.00010842289
23	0x38732ac8	5.7975558e-05
24	0x38e3c02a	0.00010859997
25	0x389f1452	7.585496e-05
26	0x33276ba4	3.8980616e-08
27	0x387e4b2f	6.062834e-05
28	0x38c6f5cf	9.487161e-05
29	0x38b1f155	8.484969e-05
30	0x3894a69a	7.088222e-05
31	0x3896c6c8	7.189583e-05
32	0x38b023df	8.3990155e-05
33	0x3882d74d	6.238986e-05
34	0x3786a3d8	1.605034e-05
35	0x388d0711	6.72472e-05
36	0x38cb8585	9.704664e-05
37	0x385d3ad1	5.2745283e-05
38	0x3891d459	6.9536916e-05
39	0x3815df43	3.5732297e-05
40	0x37907881	1.7222252e-05
41	0x38ab8afc	8.179803e-05
42	0x388ea6ce	6.8021574e-05
43	0x371efb44	9.476036e-06
44	0x36a4a108	4.9063274e-06
45	0x3482c57e	2.435808e-07
46	0x3951069e	0.00019934258
47	0x3480f805	2.4022316e-07
48	0x390c4fee	0.00013381217
49	0x3814ed6c	3.5507066e-05
50	0x38b447f6	8.5964726e-05
51	0x38441d57	4.6757366e-05
52	0x37c80eb4	2.3848705e-05
53	0x378e7fe9	1.6987282e-05
54	0x3708fb99	8.164811e-06
55	0x37cc1e34	2.433276e-05
56	0x394232ca	0.00018520202
57	0x38a7aaa7	7.994967e-05
58	0x392ab73b	0.00016280722
59	0x364fa8c1	3.0943631e-06
60	0x33eb6dbe	1.0963002e-07
61	0x386ebde5	5.6920475e-05
62	0x36fc6acf	7.5226194e-06
63	0x396fae5d	0.00022857772

cpu f4 [64]
0	0x00000000	0.0
1	0x00000000	0.0
2	0x00000000	0.0
3	0x00000000	0.0
4	0x00000000	0.0
5	0x00000000	0.0
6	0x00000000	0.0
7	0x00000000	0.0
8	0x00000000	0.0
9	0x00000000	0.0
10	0x00000000	0.0
11	0x00000000	0.0
12	0x00000000	0.0
13	0x00000000	0.0
14	0x00000000	0.0
15	0x00000000	0.0
16	0x00000000	0.0
17	0x00000000	0.0
18	0x00000000	0.0
19	0x00000000	0.0
20	0x00000000	0.0
21	0x00000000	0.0
22	0x00000000	0.0
23	0x00000000	0.0
24	0x00000000	0.0
25	0x00000000	0.0
26	0x00000000	0.0
27	0x00000000	0.0
28	0x00000000	0.0
29	0x00000000	0.0
30	0x00000000	0.0
31	0x00000000	0.0
32	0x00000000	0.0
33	0x00000000	0.0
34	0x00000000	0.0
35	0x00000000	0.0
36	0x00000000	0.0
37	0x00000000	0.0
38	0x00000000	0.0
39	0x00000000	0.0
40	0x00000000	0.0
41	0x00000000	0.0
42	0x00000000	0.0
43	0x00000000	0.0
44	0x00000000	0.0
45	0x00000000	0.0
46	0x00000000	0.0
47	0x00000000	0.0
48	0x00000000	0.0
49	0x00000000	0.0
50	0x00000000	0.0
51	0x00000000	0.0
52	0x00000000	0.0
53	0x00000000	0.0
54	0x00000000	0.0
55	0x00000000	0.0
56	0x00000000	0.0
57	0x00000000	0.0
58	0x00000000	0.0
59	0x00000000	0.0
60	0x00000000	0.0
61	0x00000000	0.0
62	0x00000000	0.0
63	0x00000000	0.0

cpu f4 [128]
0	0x00000000	0.0
1	0x00000000	0.0
2	0x00000000	0.0
3	0x00000000	0.0
4	0x00000000	0.0
5	0x00000000	0.0
6	0x00000000	0.0
7	0x00000000	0.0
8	0x00000000	0.0
9	0x00000000	0.0
10	0x00000000	0.0
11	0x00000000	0.0
12	0x00000000	0.0
13	0x00000000	0.0
14	0x00000000	0.0
15	0x00000000	0.0
16	0x00000000	0.0
17	0x00000000	0.0
18	0x00000000	0.0
19	0x00000000	0.0
20	0x00000000	0.0
21	0x00000000	0.0
22	0x00000000	0.0
23	0x00000000	0.0
24	0x00000000	0.0
25	0x00000000	0.0
26	0x00000000	0.0
27	0x00000000	0.0
28	0x00000000	0.0
29	0x00000000	0.0
30	0x00000000	0.0
31	0x00000000	0.0
32	0x00000000	0.0
33	0x00000000	0.0
34	0x00000000	0.0
35	0x00000000	0.0
36	0x00000000	0.0
37	0x00000000	0.0
38	0x00000000	0.0
39	0x00000000	0.0
40	0x00000000	0.0
41	0x00000000	0.0
42	0x00000000	0.0
43	0x00000000	0.0
44	0x00000000	0.0
45	0x00000000	0.0
46	0x00000000	0.0
47	0x00000000	0.0
48	0x00000000	0.0
49	0x00000000	0.0
50	0x00000000	0.0
51	0x00000000	0.0
52	0x00000000	0.0
53	0x00000000	0.0
54	0x00000000	0.0
55	0x00000000	0.0
56	0x00000000	0.0
57	0x00000000	0.0
58	0x00000000	0.0
59	0x00000000	0.0
60	0x00000000	0.0
61	0x00000000	0.0
62	0x00000000	0.0
63	0x00000000	0.0
64	0x00000000	0.0
65	0x00000000	0.0
66	0x00000000	0.0
67	0x00000000	0.0
68	0x00000000	0.0
69	0x00000000	0.0
70	0x00000000	0.0
71	0x00000000	0.0
72	0x00000000	0.0
73	0x00000000	0.0
74	0x00000000	0.0
75	0x00000000	0.0
76	0x00000000	0.0
77	0x00000000	0.0
78	0x00000000	0.0
79	0x00000000	0.0
80	0x00000000	0.0
81	0x00000000	0.0
82	0x00000000	0.0
83	0x00000000	0.0
84	0x00000000	0.0
85	0x00000000	0.0
86	0x00000000	0.0
87	0x00000000	0.0
88	0x00000000	0.0
89	0x00000000	0.0
90	0x00000000	0.0
91	0x00000000	0.0
92	0x00000000	0.0
93	0x00000000	0.0
94	0x00000000	0.0
95	0x00000000	0.0
96	0x00000000	0.0
97	0x00000000	0.0
98	0x00000000	0.0
99	0x00000000	0.0
100	0x00000000	0.0
101	0x00000000	0.0
102	0x00000000	0.0
103	0x00000000	0.0
104	0x00000000	0.0
105	0x00000000	0.0
106	0x00000000	0.0
107	0x00000000	0.0
108	0x00000000	0.0
109	0x00000000	0.0
110	0x00000000	0.0
111	0x00000000	0.0
112	0x00000000	0.0
113	0x00000000	0.0
114	0x00000000	0.0
115	0x00000000	0.0
116	0x00000000	0.0
117	0x00000000	0.0
118	0x00000000	0.0
119	0x00000000	0.0
120	0x00000000	0.0
121	0x00000000	0.0
122	0x00000000	0.0
123	0x00000000	0.0
124	0x00000000	0.0
125	0x00000000	0.0
126	0x00000000	0.0
127	0x00000000	0.0

weight f4 [128]
0	0x3e939db1	0.28831246
1	0x3e89b1a2	0.26893336
2	0x3e5a5e10	0.21324944
3	0x3e64b85c	0.22335953
4	0x3e5e02fe	0.21680829
5	0x3e925738	0.28582168
6	0x3e5326c1	0.20620252
7	0x3e2307ad	0.15920897
8	0x3e7215e4	0.23641163
9	0x3e55bd08	0.20872891
10	0x3e45313f	0.19257067
11	0x3e80dacf	0.25166938
12	0x3e32a453	0.17445497
13	0x3e4baf62	0.19891122
14	0x3e996b57	0.29964706
15	0x3e03153b	0.12801068
16	0x3e83d107	0.25745413
17	0x3e6e58bd	0.23276038
18	0x3e1d8ee8	0.15386546
19	0x3e13bf3d	0.1442842
20	0x3e669964	0.22519451
21	0x3e33270a	0.17495361
22	0x3e554444	0.20826823
23	0x3e2e24ef	0.17006277
24	0x3e8c9471	0.27457002
25	0x3e2d5b60	0.16929388
26	0x3e63f2d3	0.22260599
27	0x3e8e3aa1	0.27779105
28	0x3e72002d	0.2363288
29	0x3e84522e	0.25843948
30	0x3e6192f3	0.22028713
31	0x3e55c7ba	0.20876971
32	0x3e52dc2c	0.20591801
33	0x3e44c3c0	0.19215298
34	0x3e8efebe	0.27928728
35	0x3e11ec97	0.14250408
36	0x3e7119c6	0.23544988
37	0x3ea79dcb	0.32737574
38	0x3e2dfe24	0.16991478
39	0x3e2bf84a	0.16793934
40	0x3e81fd83	0.25388727
41	0x3e58cf04	0.2117272
42	0x3e588f83	0.21148495
43	0x3e8918ab	0.26776633
44	0x3e4218bb	0.18954746
45	0x3e73f7af	0.23824953
46	0x3de09a4e	0.10966931
47	0x3e07767d	0.13228793
48	0x3e5bbace	0.21457979
49	0x3e97d0f1	0.29651597
50	0x3e74f69a	0.23922196
51	0x3e51e653	0.20498018
52	0x3e6252ab	0.22101848
53	0x3e48f223	0.19623618
54	0x3e612921	0.21988346
55	0x3e2e8a26	0.17044887
56	0x3e2846d8	0.16433275
57	0x3e508b66	0.20365676
58	0x3e618807	0.22024547
59	0x3e76c905	0.2410012
60	0x3e5bea2e	0.21476051
61	0x3e7283d4	0.23683101
62	0x3e2575df	0.16158246
63	0x3e4d29ad	0.2003543
64	0x3e5bd045	0.21466167
65	0x3e88aeee	0.2669596
66	0x3e08dee5	0.13366278
67	0x3e1ef2d4	0.15522319
68	0x3e7a5012	0.24444607
69	0x3e7d16c7	0.2471572
70	0x3e80a80d	0.25128213
71	0x3e680737	0.22659002
72	0x3e5bcdcf	0.21465228
73	0x3e974df7	0.2955167
74	0x3e6ea048	0.2330333
75	0x3e65b405	0.22431953
76	0x3e369b4f	0.17832683
77	0x3e5b1fb6	0.21398816
78	0x3e47a6cb	0.1949722
79	0x3e58d848	0.21176255
80	0x3e6d1c32	0.23155287
81	0x3e47b817	0.19503818
82	0x3e7395cc	0.23787612
83	0x3e4b5ace	0.19858858
84	0x3e59a499	0.21254195
85	0x3e2dd928	0.1697737
86	0x3e6ed9e2	0.23325303
87	0x3e5a034d	0.21290322
88	0x3e97f04c	0.2967552
89	0x3e3623a9	0.17787041
90	0x3e7b85b4	0.24562722
91	0x3e3e3fb2	0.18578985
92	0x3e3e21c2	0.18567565
93	0x3e5111f9	0.20417012
94	0x3e31c0ab	0.17358653
95	0x3e23280f	0.1593325
96	0x3e66ae04	0.22527319
97	0x3e58c0e5	0.21167333
98	0x3e6e766f	0.23287366
99	0x3e6f5752	0.23373154
100	0x3dfec058	0.124390304
101	0x3e5a358a	0.21309486
102	0x3e6b379f	0.22970437
103	0x3e8892b2	0.2667442
104	0x3e591da4	0.21202713
105	0x3e620f25	0.2207609
106	0x3e3603ae	0.17774841
107	0x3e6caa31	0.23111798
108	0x3e77b94f	0.24191783
109	0x3e6bf482	0.23042491
110	0x3e1e9b60	0.15488958
111	0x3e60e390	0.21961808
112	0x3e5baf66	0.21453628
113	0x3e5cbbaa	0.21555963
114	0x3e508f55	0.20367177
115	0x3e846830	0.2586074
116	0x3e7ab548	0.24483216
117	0x3e34acff	0.17644118
118	0x3e848fc0	0.25890923
119	0x3e0131f6	0.12616715
120	0x3e262ef0	0.16228843
121	0x3e7d7c20	0.24754381
122	0x3e4bcf06	0.19903192
123	0x3e5fce14	0.21855956
124	0x3e09795a	0.13425198
125	0x3e540a86	0.2070714
126	0x3e7fb605	0.24971779
127	0x3e86b0ea	0.2630685

bias f4 [128]
0	0xbdfd8b74	-0.12380114
1	0xbe5b820f	-0.21436332
2	0xbcd13867	-0.02553959
3	0xbd6ab213	-0.05729873
4	0x3c87e3fb	0.016588202
5	0xbe17a048	-0.14807236
6	0xbda3e96b	-0.08003505
7	0xbd4d08f8	-0.05005738
8	0xbd92736f	-0.071509235
9	0xbe1cbb7e	-0.15305898
10	0xbe27030a	-0.16309753
11	0xbda4cf39	-0.08047337
12	0xbe227048	-0.15863144
13	0xbe167943	-0.14694695
14	0xbe21cca5	-0.15800722
15	0x3d5ee990	0.05442196
16	0xbcf38f43	-0.029731398
17	0xbcab0e1c	-0.020880751
18	0xbd9e4de4	-0.077297
19	0xbcffb629	-0.03121479
20	0xbd05a371	-0.032626573
21	0xbca49f34	-0.020095445
22	0x3d5af1fb	0.053453427
23	0xbdfa5529	-0.12223274
24	0xbe484aef	-0.19559835
25	0xbd44d975	-0.048058946
26	0xbe0efcd9	-0.13963641
27	0xbdbd61ef	-0.09247195
28	0xbdaf636c	-0.08563885
29	0xbdec30c8	-0.11532742
30	0xbe838036	-0.25683755
31	0xbe29623c	-0.1654138
32	0xbe091f3f	-0.13390826
33	0x3c0a7ec0	0.008453071
34	0xbe42f9e0	-0.19040632
35	0xbe08e115	-0.13367112
36	0xbe0a9264	-0.13532406
37	0xbe8848e5	-0.26618114
38	0x3cc34493	0.02383641
39	0xbdc7da3d	-0.097584225
40	0xbbc3e1b2	-0.0059778327
41	0xbe0601b6	-0.1308659
42	0xbd6902ed	-0.056887556
43	0xbecdd20c	-0.40199316
44	0xbd6036a3	-0.054739606
45	0xbe849c11	-0.2590032
46	0x3cc8f910	0.024532825
47	0xbd1caa6b	-0.03824846
48	0xbdc86aad	-0.09785972
49	0xbe66d5e2	-0.22542527
50	0xbd15c8bd	-0.036568392
51	0xbcc39217	-0.023873372
52	0xbd6850c2	-0.05671764
53	0xbd4f573e	-0.05062031
54	0xbdf29be3	-0.11846139
55	0x3adcd3e0	0.0016847812
56	0xbc5c2b8b	-0.013438116
57	0xbddd7874	-0.1081399
58	0xbd86965d	-0.06571648
59	0xbe09ff4a	-0.13476291
60	0xbd8ac898	-0.067765415
61	0xbdc54563	-0.09632375
62	0xbd9249ec	-0.07143006
63	0xbddac43d	-0.10681961
64	0xbdd92e5c	-0.106045455
65	0xbde24878	-0.110489786
66	0x3cd14a95	0.025548259
67	0xbd08bf17	-0.033385362
68	0xbd1a7152	-0.037705727
69	0xbc40b071	-0.011760817
70	0xbdda9526	-0.10672979
71	0xbb0b85e5	-0.0021289524
72	0xbdbbeaad	-0.0917562
73	0xbda6249f	-0.08112454
74	0xbe4ece26	-0.20195827
75	0xbd0b67b6	-0.034034453
76	0xbd5c4596	-0.0537773
77	0xbe374370	-0.17896819
78	0xbe7f226c	-0.24915475
79	0xbe5717db	-0.21005194
80	0xbd95dd91	-0.07317651
81	0xbda5ec3d	-0.081016995
82	0xbe250bee	-0.16117832
83	0xbe741f0a	-0.23839965
84	0xbde7d7c0	-0.11320448
85	0x3bef06a7	0.007294494
86	0xbe8523a5	-0.26003757
87	0xbdf553ba	-0.1197886
88	0xbe7d3a6b	-0.24729316
89	0xbdb41aab	-0.08794149
90	0xbe14af70	-0.14520049
91	0x3c8061a0	0.015671551
92	0xbe14c8e7	-0.14529763
93	0xbde5cddb	-0.112209044
94	0xbc504832	-0.012712525
95	0xba0820e3	-0.0005192889
96	0xbda1ba25	-0.078968324
97	0xbda2e5de	-0.07954
98	0xbe281068	-0.16412508
99	0xbe339f27	-0.1754118
100	0xbe3f960e	-0.18709585
101	0xbd871642	-0.06596042
102	0xbe4a18c7	-0.19736014
103	0xbe618c16	-0.22026095
104	0xbbbb0b4d	-0.0057081343
105	0xbe7e9612	-0.24861935
106	0x3cf19bc3	0.029493218
107	0xbe4268e4	-0.18985325
108	0xbddf52bd	-0.10904453
109	0x3d2bd8cf	0.04195481
110	0xbcf34e90	-0.029700547
111	0x3c4d61a8	0.01253549
112	0xbcf1bc41	-0.029508712
113	0xbd9af41f	-0.07566094
114	0xbd5cdc8c	-0.053921267
115	0x3ce68113	0.02813772
116	0xbd918379	-0.071051545
117	0xbdf6c6c5	-0.12049631
118	0xbd97f9af	-0.0742067
119	0x3d5fc58f	0.054631766
120	0xbd007c97	-0.031368818
121	0xbd1b8b66	-0.037974738
122	0xbd2bea50	-0.041971505
123	0xbe10a663	-0.14125971
124	0xbe0113cc	-0.12605208
125	0xbdb58d27	-0.08864813
126	0xbdeeb7ee	-0.116561756
127	0xbe759677	-0.23983179

running_mean f4 [128]
0	0xbbfa5e40	-0.00764063
1	0xbc9a16b5	-0.018809656
2	0xbc93623d	-0.01799118
3	0xbc9f6bed	-0.019460643
4	0x3c0cf9b8	0.008604459
5	0x3cb3c700	0.021945477
6	0x3c9aeed7	0.018912716
7	0xbb5308bb	-0.0032201249
8	0xbb87f81a	-0.004149449
9	0xbbded475	-0.006800229
10	0xbc670366	-0.014099931
11	0x3bf98ac3	0.0076154186
12	0xbc40bbf5	-0.011763562
13	0xbad202c5	-0.0016022554
14	0xbc816b52	-0.015798245
15	0xbaae2aad	-0.0013287865
16	0xbbc53a4e	-0.0060189134
17	0xbd3e99eb	-0.046533506
18	0xbca88e9a	-0.02057581
19	0xbb7a1809	-0.0038161299
20	0xbbbf5813	-0.0058393567
21	0xbc832f5a	-0.01601379
22	0xbcb3c94a	-0.021946568
23	0x3c28a5d8	0.0102934465
24	0x3cd33792	0.025783334
25	0xba1a2536	-0.00058801787
26	0x3c23f2ef	0.01000665
27	0xbb2b9797	-0.0026182884
28	0xbabd72be	-0.0014453752
29	0x3c80e80c	0.015735649
30	0x39e54024	0.00043726072
31	0xbbaef99b	-0.005339814
32	0xbc0471ac	-0.008083742
33	0xbc815a2a	-0.015790064
34	0xbb1779ac	-0.0023113294
35	0xbc74d785	-0.014943962
36	0x3a090cef	0.00052280625
37	0x3cac95ba	0.021067489
38	0xbc958bea	-0.018255193
39	0xbb738a74	-0.0037161382
40	0xbc3c2da5	-0.011485492
41	0xbb1048a5	-0.0022015956
42	0x3c1d78eb	0.009611349
43	0x3c8ace23	0.016943997
44	0xbc26ffc9	-0.01019282
45	0x3b1c9957	0.0023895109
46	0xbbc0e10f	-0.005886204
47	0x3c5ccad6	0.013476094
48	0x3b029110	0.001992289
49	0x3cd33c40	0.025785565
50	0xbc7b2533	-0.015328693
51	0xbb6f8958	-0.003655037
52	0x3c5a6c2b	0.013331453
53	0xbc2ebc28	-0.010664977
54	0xbc1059ab	-0.008810441
55	0xbb45c8f3	-0.003017959
56	0xbbef5c63	-0.0073047145
57	0xbc7fc665	-0.015611266
58	0xbb0fc7e1	-0.0021939205
59	0x3b564a7c	0.0032698205
60	0xbb3c53a6	-0.0028736382
61	0xbc6e36f9	-0.014539474
62	0xbb0163cb	-0.001974332
63	0xbc8277a6	-0.015926193
64	0x3c53530d	0.012898219
65	0x3b607cd5	0.0034254093
66	0x3b879e84	0.0041387696
67	0x3bac4e25	0.005258339
68	0x3b966fe4	0.004590975
69	0x3c32a52f	0.010903641
70	0x3c9f49c0	0.019444346
71	0xbd0b607f	-0.034027573
72	0xbc30bec9	-0.010787674
73	0xbcd546f2	-0.026034806
74	0x3b301bfb	0.0026872146
75	0xbc466286	-0.012108451
76	0xbbeb1918	-0.0071746223
77	0x3bb4e8b6	0.0055209054
78	0x3cbd9bcd	0.02314558
79	0x3c773a30	0.015089557
80	0x3abcf2aa	0.0014415581
81	0x3b2b4f34	0.0026139738
82	0x3c3b9d24	0.011451039
83	0x3beaee15	0.007169495
84	0x3c5f2244	0.013619009
85	0x3c351c80	0.011054158
86	0xbbafc6d1	-0.005364277
87	0x3bfffc80	0.007812083
88	0xb972c3c0	-0.00023151841
89	0x3b40268c	0.002931985
90	0x3c80c697	0.015719695
91	0x3c062db2	0.008189606
92	0xbcb17b4f	-0.021665243
93	0xbbc57982	-0.0060264478
94	0xbb8c0e88	-0.004274193
95	0xbcbdc041	-0.023162963
96	0xbcee895b	-0.02911823
97	0xbc3b412f	-0.011429115
98	0xbd0152f2	-0.031573243
99	0xbc68e048	-0.014213629
100	0xbb5842ea	-0.0032998868
101	0xbcde8704	-0.02716399
102	0x3c9c4cfd	0.01907968
103	0x3b93650a	0.004498129
104	0x3be780b6	0.007064904
105	0x3cd1d078	0.025612101
106	0xbc96b054	-0.018394627
107	0x3c913acf	0.017728237
108	0xbbb8c515	-0.0056387284
109	0xbb4c6e74	-0.0031193765
110	0x3bfaa27f	0.0076487656
111	0x3b5f1c3a	0.0034043924
112	0xbc7524d3	-0.014962393
113	0xbba2b345	-0.0049652182
114	0xbc0dcd18	-0.008654855
115	0xbca82139	-0.020523654
116	0xbc02b6d6	-0.007978162
117	0x3bca0398	0.006164979
118	0xbb20a590	-0.0024512745
119	0x3b2399d2	0.002496351
120	0x3c6f5aa4	0.014609013
121	0x3c7174d8	0.01473733
122	0x3c20e490	0.009820119
123	0x3bac2936	0.005253936
124	0x3c027210	0.007961765
125	0x3c31c4a0	0.010850102
126	0xbc36b160	-0.011150688
127	0x3c66257b	0.014047022
