ldpi/training/output/ResCNN/scripted_quantized_model.pth (torch, 269226 bytes, 61 tensors)

cpu f4 [64]
0	0x00000000	0.0
1	0x00000000	0.0
2	0x00000000	0.0
3	0x00000000	0.0
4	0x00000000	0.0
5	0x00000000	0.0
6	0x00000000	0.0
7	0x00000000	0.0
8	0x00000000	0.0
9	0x00000000	0.0
10	0x00000000	0.0
11	0x00000000	0.0
12	0x00000000	0.0
13	0x00000000	0.0
14	0x00000000	0.0
15	0x00000000	0.0
16	0x00000000	0.0
17	0x00000000	0.0
18	0x00000000	0.0
19	0x00000000	0.0
20	0x00000000	0.0
21	0x00000000	0.0
22	0x00000000	0.0
23	0x00000000	0.0
24	0x00000000	0.0
25	0x00000000	0.0
26	0x00000000	0.0
27	0x00000000	0.0
28	0x00000000	0.0
29	0x00000000	0.0
30	0x00000000	0.0
31	0x00000000	0.0
32	0x00000000	0.0
33	0x00000000	0.0
34	0x00000000	0.0
35	0x00000000	0.0
36	0x00000000	0.0
37	0x00000000	0.0
38	0x00000000	0.0
39	0x00000000	0.0
40	0x00000000	0.0
41	0x00000000	0.0
42	0x00000000	0.0
43	0x00000000	0.0
44	0x00000000	0.0
45	0x00000000	0.0
46	0x00000000	0.0
47	0x00000000	0.0
48	0x00000000	0.0
49	0x00000000	0.0
50	0x00000000	0.0
51	0x00000000	0.0
52	0x00000000	0.0
53	0x00000000	0.0
54	0x00000000	0.0
55	0x00000000	0.0
56	0x00000000	0.0
57	0x00000000	0.0
58	0x00000000	0.0
59	0x00000000	0.0
60	0x00000000	0.0
61	0x00000000	0.0
62	0x00000000	0.0
63	0x00000000	0.0

weight f4 [64]
0	0x3ea98902	0.3311234
1	0x3e9172e5	0.2840797
2	0x3da14ab3	0.07875576
3	0x3d70f439	0.05882666
4	0x3eacd219	0.33754042
5	0x3eee8580	0.46586227
6	0x3cafd4e1	0.021463813
7	0x3d590f08	0.05299285
8	0x3e9e3d13	0.3090597
9	0x3da834dc	0.08213207
10	0x3d0e6b6d	0.034770418
11	0x3ec5d52c	0.386392
12	0x3d7b939c	0.06142007
13	0x3ea9396b	0.3305162
14	0x3e1d9ef9	0.15392675
15	0x3e6eef2d	0.23333426
16	0x3ed372d6	0.4129855
17	0x3da5d031	0.0809635
18	0x3e92b241	0.28651622
19	0x3d253d37	0.040341582
20	0x3e2eb225	0.17060144
21	0x3d242f56	0.040084206
22	0x3e0489b1	0.1294315
23	0x3f3e7314	0.74394345
24	0x3e7e7b0b	0.24851625
25	0x3d10873c	0.03528522
26	0x3ec85992	0.39130837
27	0x3e9773a6	0.2958042
28	0x3eba3a78	0.36372733
29	0x3cd52adf	0.02602142
30	0x3e26f3fa	0.16304007
31	0x3db17187	0.08664232
32	0x3dd156e2	0.1022165
33	0x3cc2cac2	0.023778323
34	0x3d5cd21f	0.053911325
35	0x3e16c0d0	0.1472199
36	0x3ea4834a	0.32131416
37	0x3e802c34	0.25033724
38	0x3e0fc888	0.1404134
39	0x3cc9c8db	0.024631908
40	0x3d616449	0.05502728
41	0x3cb960a3	0.022629088
42	0x3de9de3f	0.11419343
43	0x3e30d87a	0.1727008
44	0x3ea0c944	0.31403553
45	0x3ef1414f	0.4712014
46	0x3c52e731	0.012872503
47	0x3cf1a9e4	0.029499955
48	0x3e9cda17	0.3063514
49	0x3f505dfc	0.8139341
50	0x3ee36f15	0.44420686
51	0x3eed0ee3	0.4630042
52	0x3d47b3d7	0.048755493
53	0x3ec7a5b2	0.38993603
54	0x3daf03be	0.08545636
55	0x3e76e2b8	0.24109924
56	0x3c3aa322	0.011391433
57	0x3d065281	0.032793526
58	0x3e7cfdb1	0.2470615
59	0x3d1df9f1	0.03856844
60	0x3c83513f	0.016029952
61	0x3e407448	0.18794358
62	0x3ddf493c	0.1090264
63	0x3e81a9e1	0.2532492

bias f4 [64]
0	0xbe06eaf5	-0.13175566
1	0xbe44a655	-0.19204076
2	0xbe074bc2	-0.13212493
3	0x3d3f776c	0.04674475
4	0xbead150c	-0.3380512
5	0x3dda152b	0.10648569
6	0xbd56999d	-0.05239259
7	0xbc4ebdbd	-0.012618479
8	0x3f54b694	0.8309109
9	0x3ee4fda3	0.4472476
10	0xbc0f3b10	-0.008742109
11	0x3e7a6346	0.24451932
12	0xbdc5b73a	-0.09654088
13	0xbdeae05b	-0.11468574
14	0x3d029d43	0.031888258
15	0xbebfbc1b	-0.374482
16	0xbe22081a	-0.15823403
17	0xbda78e90	-0.081814885
18	0x3d0f2d97	0.034955587
19	0xbdab6a71	-0.083699115
20	0xbddb592e	-0.10710369
21	0xbd2a407b	-0.0415654
22	0xbd024f36	-0.031813823
23	0xbe0bb0e6	-0.136417
24	0xbd8a5503	-0.06754496
25	0xbe1f3b18	-0.15549886
26	0xbebd1624	-0.36930954
27	0x3ea5d4ce	0.3238892
28	0x3e4ccff9	0.2000121
29	0xbcb20ccb	-0.021734616
30	0xbd545a73	-0.05184407
31	0xbdb760dc	-0.08954021
32	0xbd0e6903	-0.034768116
33	0xbd161ed4	-0.036650494
34	0x3ecfe5b8	0.4060495
35	0xbec97528	-0.39347196
36	0xbd97be68	-0.07409364
37	0xbd325f38	-0.04354784
38	0x3efd80b6	0.4951226
39	0xbd5af94a	-0.053460397
40	0x3e55ea6b	0.20890205
41	0xbd4d7d65	-0.050168414
42	0xbd918044	-0.07104543
43	0xbdb534d7	-0.08847969
44	0x3edbb84f	0.42914054
45	0xbe5ba25d	-0.21448655
46	0xbcff907f	-0.03119683
47	0xbd3a58e1	-0.045494918
48	0xbebb39b3	-0.3656746
49	0xbeb3eb6a	-0.35140544
50	0xbd418abc	-0.047251448
51	0x3ee45635	0.4459702
52	0xbc450557	-0.012025199
53	0xbd768a7a	-0.060190655
54	0xbcafa752	-0.02144209
55	0x3df8bb92	0.12145151
56	0xbe090c8d	-0.13383694
57	0xbd4ba225	-0.04971518
58	0xbde2349e	-0.11045192
59	0xbdb2b898	-0.08726615
60	0xbd711098	-0.058853716
61	0xbe893a4f	-0.26802298
62	0xbce5aaca	-0.02803554
63	0x3e02c9b4	0.12772256

running_mean f4 [64]
0	0x3e5fa5ec	0.21840638
1	0x3c3f9370	0.011692867
2	0x3bc201ec	0.0059206393
3	0x3bb8cd62	0.005639718
4	0x398c8584	0.00026802358
5	0xbcd3fb25	-0.025876591
6	0xbc012c39	-0.007884079
7	0xbc11ee5a	-0.008906925
8	0xbcf7726f	-0.030205933
9	0xbc576529	-0.013146677
10	0xbc3a2aaf	-0.011362716
11	0xbc56aae7	-0.01310227
12	0x3c19562d	0.009358925
13	0xbc6dbd3d	-0.01451045
14	0xbbebfd36	-0.007201816
15	0xba25c7ca	-0.00063240214
16	0x3cbb57b3	0.022868967
17	0x3c227b02	0.009917023
18	0x3c8e47cc	0.01736822
19	0x3c7465af	0.014916821
20	0x38595bc9	5.1822313e-05
21	0xbc472048	-0.012153693
22	0xb9b34dc8	-0.00034199492
23	0xbcbf37ba	-0.023342002
24	0x3c459d0d	0.01206137
25	0xbc4402b4	-0.011963535
26	0xbc7cc3b1	-0.015427516
27	0x3c95623b	0.018235317
28	0xbc9ec0b5	-0.019379
29	0xbbeb1f06	-0.007175329
30	0x3c671b52	0.014105635
31	0xbc0af5b7	-0.008481435
32	0x3c148834	0.0090656765
33	0xb99538c3	-0.00028461785
34	0xbc294045	-0.010330264
35	0x3c1552fa	0.009114021
36	0x3c8aaf8b	0.016929409
37	0x3c67cb82	0.014147641
38	0x3c58cf80	0.013233066
39	0x3c6d53be	0.014485298
40	0xbc43b158	-0.0119441375
41	0x3944fb03	0.00018785526
42	0x3c19e038	0.009391837
43	0x3c7c24df	0.01538965
44	0x3cca4d97	0.0246952
45	0xbc8eac79	-0.017416226
46	0xbc6be210	-0.014397159
47	0xbb183974	-0.0023227604
48	0xbb46aaaa	-0.0030314126
49	0xbd1ecdf3	-0.038770627
50	0xbcb34faa	-0.021888573
51	0xbcf291a0	-0.029610455
52	0xbbc3a8d1	-0.005971052
53	0xbcbb2dc1	-0.022848966
54	0xbbb6d039	-0.0055790213
55	0xbc73fe2e	-0.014892144
56	0x3bf35b09	0.0074266237
57	0xbbdb8185	-0.0066987895
58	0xbc3c6540	-0.011498749
59	0xbc6d168e	-0.0144707095
60	0x3c4958d9	0.012289249
61	0x3a861fe0	0.0010232888
62	0x3ba86027	0.0051384154
63	0xbc68d85a	-0.0142117385

running_var f4 [64]
0	0x3d5992f6	0.05311867
1	0x391fa568	0.0001522504
2	0x3823b975	3.903495e-05
3	0x38148e69	3.541858e-05
4	0x33abc9af	7.999494e-08
5	0x3a437737	0.0007456424
6	0x38912914	6.92179e-05
7	0x38b944ca	8.8343004e-05
8	0x3a852be1	0.0010160172
9	0x3949d009	0.00019246353
10	0x3916c212	0.00014377412
11	0x3948739a	0.00019116551
12	0x38cc8ca8	9.753677e-05
13	0x3975dac3	0.00023446516
14	0x38723f83	5.7756446e-05
15	0x34ef18a9	4.4535162e-07
16	0x3a18ab22	0.00058238406
17	0x38e5ac28	0.000109516375
18	0x39b01d88	0.00033591338
19	0x3981e8b1	0.00024778166
20	0x314d8231	2.9905431e-09
21	0x392c7a46	0.00016448749
22	0x340bd90a	1.3024342e-07
23	0x3a1f0cb4	0.00060672616
24	0x3929de02	0.000161998
25	0x39271f69	0.00015938062
26	0x398af4d3	0.0002650382
27	0x39c2239b	0.00037029092
28	0x39db413a	0.00041819533
29	0x38707830	5.7332392e-05
30	0x396853f9	0.00022156526
31	0x38a7fd9b	8.010418e-05
32	0x38bfee88	9.1520196e-05
33	0x33c1b7df	9.020709e-08
34	0x38f93653	0.00011883364
35	0x38c1fbf6	9.2498885e-05
36	0x39a7541a	0.00031915383
37	0x3969b6bf	0.0002228869
38	0x394c793e	0.00019500122
39	0x397500c1	0.00023365302
40	0x392694c9	0.0001588642
41	0x3328c7e3	3.9297344e-08
42	0x38cdfd9b	9.8223994e-05
43	0x398a466b	0.00026373877
44	0x3a320674	0.0006791123
45	0x39b11715	0.00033777268
46	0x397207c9	0.00023081819
47	0x36c997c8	6.0079365e-06
48	0x372baec3	1.0233084e-05
49	0x3adb65d2	0.0016738719
50	0x3a0bdbfb	0.0005335209
51	0x3a7ff1e8	0.0009763525
52	0x38268647	3.970254e-05
53	0x3a1866d0	0.000581366
54	0x3811603b	3.4660316e-05
55	0x39817abc	0.00024696242
56	0x3880cdd1	6.141852e-05
57	0x385196da	4.9969974e-05
58	0x391a63b3	0.00014723725
59	0x39748278	0.00023318257
60	0x393058bd	0.00016817726
61	0x359c80c9	1.1660387e-06
62	0x37f6a406	2.9401865e-05
63	0x396bd620	0.00022491114

cpu f4 [64]
0	0x00000000	0.0
1	0x00000000	0.0
2	0x00000000	0.0
3	0x00000000	0.0
4	0x00000000	0.0
5	0x00000000	0.0
6	0x00000000	0.0
7	0x00000000	0.0
8	0x00000000	0.0
9	0x00000000	0.0
10	0x00000000	0.0
11	0x00000000	0.0
12	0x00000000	0.0
13	0x00000000	0.0
14	0x00000000	0.0
15	0x00000000	0.0
16	0x00000000	0.0
17	0x00000000	0.0
18	0x00000000	0.0
19	0x00000000	0.0
20	0x00000000	0.0
21	0x00000000	0.0
22	0x00000000	0.0
23	0x00000000	0.0
24	0x00000000	0.0
25	0x00000000	0.0
26	0x00000000	0.0
27	0x00000000	0.0
28	0x00000000	0.0
29	0x00000000	0.0
30	0x00000000	0.0
31	0x00000000	0.0
32	0x00000000	0.0
33	0x00000000	0.0
34	0x00000000	0.0
35	0x00000000	0.0
36	0x00000000	0.0
37	0x00000000	0.0
38	0x00000000	0.0
39	0x00000000	0.0
40	0x00000000	0.0
41	0x00000000	0.0
42	0x00000000	0.0
43	0x00000000	0.0
44	0x00000000	0.0
45	0x00000000	0.0
46	0x00000000	0.0
47	0x00000000	0.0
48	0x00000000	0.0
49	0x00000000	0.0
50	0x00000000	0.0
51	0x00000000	0.0
52	0x00000000	0.0
53	0x00000000	0.0
54	0x00000000	0.0
55	0x00000000	0.0
56	0x00000000	0.0
57	0x00000000	0.0
58	0x00000000	0.0
59	0x00000000	0.0
60	0x00000000	0.0
61	0x00000000	0.0
62	0x00000000	0.0
63	0x00000000	0.0

cpu f4 [64]
0	0x00000000	0.0
1	0x00000000	0.0
2	0x00000000	0.0
3	0x00000000	0.0
4	0x00000000	0.0
5	0x00000000	0.0
6	0x00000000	0.0
7	0x00000000	0.0
8	0x00000000	0.0
9	0x00000000	0.0
10	0x00000000	0.0
11	0x00000000	0.0
12	0x00000000	0.0
13	0x00000000	0.0
14	0x00000000	0.0
15	0x00000000	0.0
16	0x00000000	0.0
17	0x00000000	0.0
18	0x00000000	0.0
19	0x00000000	0.0
20	0x00000000	0.0
21	0x00000000	0.0
22	0x00000000	0.0
23	0x00000000	0.0
24	0x00000000	0.0
25	0x00000000	0.0
26	0x00000000	0.0
27	0x00000000	0.0
28	0x00000000	0.0
29	0x00000000	0.0
30	0x00000000	0.0
31	0x00000000	0.0
32	0x00000000	0.0
33	0x00000000	0.0
34	0x00000000	0.0
35	0x00000000	0.0
36	0x00000000	0.0
37	0x00000000	0.0
38	0x00000000	0.0
39	0x00000000	0.0
40	0x00000000	0.0
41	0x00000000	0.0
42	0x00000000	0.0
43	0x00000000	0.0
44	0x00000000	0.0
45	0x00000000	0.0
46	0x00000000	0.0
47	0x00000000	0.0
48	0x00000000	0.0
49	0x00000000	0.0
50	0x00000000	0.0
51	0x00000000	0.0
52	0x00000000	0.0
53	0x00000000	0.0
54	0x00000000	0.0
55	0x00000000	0.0
56	0x00000000	0.0
57	0x00000000	0.0
58	0x00000000	0.0
59	0x00000000	0.0
60	0x00000000	0.0
61	0x00000000	0.0
62	0x00000000	0.0
63	0x00000000	0.0

weight f4 [64]
0	0x3d097c53	0.03356583
1	0x3dc38c61	0.095482595
2	0x3ec20a28	0.37898374
3	0x3d965b94	0.07341686
4	0x3cfe314f	0.031029372
5	0x3d2941ed	0.041322637
6	0x3cd5b2f8	0.026086316
7	0x3ed9cf70	0.42541075
8	0x3d9d3579	0.07676215
9	0x3d5e476e	0.05426734
10	0x3d872e30	0.066006064
11	0x3dcb3285	0.09921745
12	0x3cf09618	0.029368445
13	0x3dbe2637	0.09284633
14	0x3e46ff7d	0.19433399
15	0x3ed02a9b	0.40657505
16	0x3e89b7f3	0.26898155
17	0x3d163b94	0.036677912
18	0x3eb6c108	0.35694146
19	0x3cbdee96	0.023185056
20	0x3f210185	0.62892944
21	0x3f3dd694	0.74155545
22	0x3ccf30c2	0.025291804
23	0x3f179037	0.5920443
24	0x3d03433e	0.03204655
25	0x3e2052e2	0.15656617
26	0x3cd5e8e6	0.026112031
27	0x3e873ad5	0.26412073
28	0x3ee19188	0.44056344
29	0x3d164139	0.036683295
30	0x3e2951e7	0.1653515
31	0x3f2ce04f	0.6752977
32	0x3ce64094	0.028106965
33	0x3d61cd22	0.05512727
34	0x3d76a229	0.06021324
35	0x3f11c619	0.569429
36	0x3cf0c91f	0.029392777
37	0x3d58b791	0.052909438
38	0x3ec41c43	0.38302812
39	0x3f0249d9	0.5089393
40	0x3e08e48a	0.1336843
41	0x3e77f257	0.24213539
42	0x3f1d0031	0.6132842
43	0x3cf6cbe3	0.030126518
44	0x3ec8c977	0.39216205
45	0x3e246e56	0.16057715
46	0x3ed1015c	0.4082135
47	0x3f165d46	0.58736074
48	0x3db16562	0.08661915
49	0x3e27d2e0	0.16389036
50	0x3ecdac8b	0.40170702
51	0x3f2654a2	0.6497289
52	0x3ccbad73	0.02486298
53	0x3d1641c6	0.03668382
54	0x3d8efe4e	0.069820985
55	0x3d204c9a	0.039135553
56	0x3eb5bddc	0.35496414
57	0x3e848a79	0.25886896
58	0x3e12b211	0.1432574
59	0x3ece3381	0.4027367
60	0x3de25d96	0.11053006
61	0x3d069eab	0.03286616
62	0x3ddcf003	0.10787966
63	0x3df67a53	0.1203505

bias f4 [64]
0	0xbca52d41	-0.02016318
1	0xbe0cd669	-0.13753666
2	0x3de214f5	0.110391535
3	0xbda0b1df	-0.07846426
4	0x3bae0cab	0.0053115687
5	0xbc8bd03a	-0.017067064
6	0xbd7f877f	-0.06238508
7	0x3d6b8e0c	0.057508513
8	0xbdb1e491	-0.08686174
9	0xbd229a1c	-0.03969775
10	0x3cc40397	0.023927493
11	0xbdab89b1	-0.08375872
12	0xba988523	-0.0011636358
13	0xbd760b00	-0.060069084
14	0xbe5acdcb	-0.21367566
15	0x3e0056b8	0.1253308
16	0xbdab3596	-0.0835983
17	0xbca96f94	-0.020683087
18	0xbdd018fb	-0.10161015
19	0xbb9317d3	-0.004488924
20	0xbc483716	-0.012220165
21	0x3b8f02df	0.004364356
22	0xba2e6a99	-0.00066534575
23	0xbdace339	-0.08441777
24	0xba2901f6	-0.00064471306
25	0xbd126c12	-0.035747595
26	0x39d43087	0.00040471947
27	0xbed69ff2	-0.41918904
28	0xbe23e288	-0.16004384
29	0xbd9fd534	-0.07804337
30	0x3d185299	0.037188146
31	0xbd7816f4	-0.060568765
32	0x3ad493bf	0.0016218348
33	0xbb9e5126	-0.004831451
34	0xbc380a5d	-0.01123294
35	0xbe9e17c0	-0.30877495
36	0x3aed570b	0.0018107606
37	0xbda67e5c	-0.0812957
38	0x3d3c2b61	0.045939807
39	0xbd83ffbb	-0.06445261
40	0x3c04c6ad	0.008104009
41	0xbe40c17d	-0.1882381
42	0xbc80788d	-0.015682483
43	0x3a663ca0	0.00087828375
44	0x3c96ef52	0.018424664
45	0xbdd7a483	-0.10529425
46	0x3e445a2b	0.19175021
47	0xbef8a948	-0.4856665
48	0xbe96408b	-0.29346117
49	0x3d575a5d	0.05257641
50	0xbd95e132	-0.07318343
51	0xbf12694b	-0.57191914
52	0xbca6b0c4	-0.02034796
53	0xbc1f6280	-0.009728074
54	0xbcf4ab3c	-0.029866807
55	0xbd6edaa4	-0.05831398
56	0xbdc69b49	-0.09697587
57	0x3e0158e9	0.12631573
58	0x3d7746af	0.060370144
59	0xbdb027be	-0.0860133
60	0x3d194b2e	0.037425213
61	0x3914135b	0.0001412159
62	0xbe191632	-0.14949873
63	0xbe636d25	-0.22209604

running_mean f4 [64]
0	0x3b9dc0de	0.0048142513
1	0x3ac71065	0.0015187381
2	0x3d9c227c	0.07623765
3	0xbc825e21	-0.015914025
4	0x3b9958e1	0.0046797846
5	0x39524cd2	0.00020055778
6	0xbc49e261	-0.012322039
7	0x3d0da54e	0.034581475
8	0x3c36dad3	0.01116057
9	0xbbaf0f93	-0.0053424328
10	0xb985a597	-0.0002549111
11	0x3aa59ee0	0.0012635849
12	0x3a7d8501	0.0009671003
13	0xbb29538c	-0.0025837151
14	0xbce21dad	-0.027602041
15	0xbd4e52fe	-0.050372116
16	0xbe20e9e3	-0.1571422
17	0x3c1d5902	0.009603741
18	0xbde111b0	-0.10989702
19	0x3a3362e7	0.00068430457
20	0xbe00b11e	-0.12567565
21	0x3e3e747a	0.1859912
22	0x3b37ef4c	0.0028066216
23	0xbe1c0e9c	-0.15239948
24	0xbba717d6	-0.005099277
25	0xbccd9ed4	-0.02510015
26	0x3adcab05	0.0016835636
27	0xbd8d6b40	-0.06905222
28	0x3c11d87f	0.008901714
29	0xbc872a94	-0.016499795
30	0xbbfcf524	-0.0077196527
31	0x3dbb2e53	0.09139695
32	0x3b16ea2f	0.0023027768
33	0x3b7359f5	0.0037132476
34	0x3c01ece2	0.007930012
35	0xbd4ecafe	-0.050486557
36	0x3b2e476d	0.0026592866
37	0xbc658ef2	-0.014011132
38	0x3bf599c1	0.0074951355
39	0xbe13b859	-0.14425792
40	0x3c6b688e	0.0143681895
41	0xbc920d7b	-0.017828694
42	0xbd75edaf	-0.060041126
43	0xba81f384	-0.0009914492
44	0xbd1d7f90	-0.03845173
45	0xbcda7c8a	-0.026670713
46	0xbd5973fa	-0.05308912
47	0xbe0f4ff9	-0.13995351
48	0xbd0017df	-0.031272765
49	0xbc71dc0d	-0.014761937
50	0xbe2218c6	-0.15829763
51	0xbe03e37b	-0.12879746
52	0xbb002842	-0.0019555246
53	0x3b9f1d67	0.0048558
54	0x3cb66a41	0.022267463
55	0xbc072bf5	-0.008250226
56	0xbe3c1c5c	-0.18370193
57	0xbda18254	-0.07886186
58	0xbd042460	-0.032261252
59	0xbd4f3ab2	-0.050593086
60	0xbc75faf6	-0.015013447
61	0x3b65bf6c	0.0035056723
62	0x3b9e4e63	0.004831122
63	0xbbd8f97c	-0.0066215377

running_var f4 [64]
0	0x36c917f9	5.9930576e-06
1	0x392742db	0.00015951267
2	0x3bdc2541	0.006718308
3	0x3885577c	6.3582294e-05
4	0x371561bb	8.903847e-06
5	0x379f6d86	1.9005278e-05
6	0x389f309f	7.590767e-05
7	0x3c9fc771	0.01950428
8	0x3912d721	0.00014003787
9	0x399f5456	0.00030389678
10	0x393e0707	0.0001812243
11	0x39962ba5	0.00028642747
12	0x3617b558	2.260631e-06
13	0x3a450459	0.00075156015
14	0x39b0fa0f	0.00033755644
15	0x3b14813a	0.0022660033
16	0x3c511eaa	0.012763659
17	0x3798b9ad	1.8206274e-05
18	0x3b2c386f	0.0026278754
19	0x36a11b91	4.801383e-06
20	0x3ccd5c21	0.025068345
21	0x3d0673cc	0.032825276
22	0x35ae71c1	1.2997117e-06
23	0x3bd9ff1a	0.006652725
24	0x37886378	1.6258782e-05
25	0x398041f3	0.00024463198
26	0x35be642d	1.4185258e-06
27	0x3bcfbc28	0.0063395686
28	0x3d288fe1	0.04115284
29	0x3913d2a2	0.0001409748
30	0x3a417ff3	0.00073814316
31	0x3d21ac10	0.039470732
32	0x368c5253	4.181909e-06
33	0x37b4d1e4	2.155541e-05
34	0x39b7919f	0.00035012976
35	0x3c5c7f09	0.013458022
36	0x363d2794	2.8186232e-06
37	0x387c4aa1	6.0150986e-05
38	0x3b6b9ff6	0.0035953498
39	0x3d34511f	0.044022676
40	0x3a72a198	0.0009255647
41	0x3aa3f415	0.0012508655
42	0x3cf47730	0.02984199
43	0x37803dd8	1.5287587e-05
44	0x3c68ac1d	0.014201191
45	0x3acbfae2	0.001556244
46	0x3c2fea2a	0.010736981
47	0x3ce7ddf3	0.028304076
48	0x3a964096	0.001146334
49	0x3a5e3f9f	0.0008478108
50	0x3c0c98b4	0.008581329
51	0x3c726a3f	0.014795839
52	0x37a6b814	1.987446e-05
53	0x37119820	8.678093e-06
54	0x3a08ce96	0.0005218772
55	0x381cb98e	3.736611e-05
56	0x3d0bd0e6	0.034134768
57	0x3b0deb40	0.0021655113
58	0x3ae15b75	0.0017193394
59	0x3b3098ea	0.0026946613
60	0x3a5fc244	0.0008535723
61	0x37227036	9.682079e-06
62	0x3a9e5ac7	0.0012081497
63	0x3953c69c	0.00020196516

cpu f4 [64]
0	0x00000000	0.0
1	0x00000000	0.0
2	0x00000000	0.0
3	0x00000000	0.0
4	0x00000000	0.0
5	0x00000000	0.0
6	0x00000000	0.0
7	0x00000000	0.0
8	0x00000000	0.0
9	0x00000000	0.0
10	0x00000000	0.0
11	0x00000000	0.0
12	0x00000000	0.0
13	0x00000000	0.0
14	0x00000000	0.0
15	0x00000000	0.0
16	0x00000000	0.0
17	0x00000000	0.0
18	0x00000000	0.0
19	0x00000000	0.0
20	0x00000000	0.0
21	0x00000000	0.0
22	0x00000000	0.0
23	0x00000000	0.0
24	0x00000000	0.0
25	0x00000000	0.0
26	0x00000000	0.0
27	0x00000000	0.0
28	0x00000000	0.0
29	0x00000000	0.0
30	0x00000000	0.0
31	0x00000000	0.0
32	0x00000000	0.0
33	0x00000000	0.0
34	0x00000000	0.0
35	0x00000000	0.0
36	0x00000000	0.0
37	0x00000000	0.0
38	0x00000000	0.0
39	0x00000000	0.0
40	0x00000000	0.0
41	0x00000000	0.0
42	0x00000000	0.0
43	0x00000000	0.0
44	0x00000000	0.0
45	0x00000000	0.0
46	0x00000000	0.0
47	0x00000000	0.0
48	0x00000000	0.0
49	0x00000000	0.0
50	0x00000000	0.0
51	0x00000000	0.0
52	0x00000000	0.0
53	0x00000000	0.0
54	0x00000000	0.0
55	0x00000000	0.0
56	0x00000000	0.0
57	0x00000000	0.0
58	0x00000000	0.0
59	0x00000000	0.0
60	0x00000000	0.0
61	0x00000000	0.0
62	0x00000000	0.0
63	0x00000000	0.0

cpu f4 [64]
0	0x00000000	0.0
1	0x00000000	0.0
2	0x00000000	0.0
3	0x00000000	0.0
4	0x00000000	0.0
5	0x00000000	0.0
6	0x00000000	0.0
7	0x00000000	0.0
8	0x00000000	0.0
9	0x00000000	0.0
10	0x00000000	0.0
11	0x00000000	0.0
12	0x00000000	0.0
13	0x00000000	0.0
14	0x00000000	0.0
15	0x00000000	0.0
16	0x00000000	0.0
17	0x00000000	0.0
18	0x00000000	0.0
19	0x00000000	0.0
20	0x00000000	0.0
21	0x00000000	0.0
22	0x00000000	0.0
23	0x00000000	0.0
24	0x00000000	0.0
25	0x00000000	0.0
26	0x00000000	0.0
27	0x00000000	0.0
28	0x00000000	0.0
29	0x00000000	0.0
30	0x00000000	0.0
31	0x00000000	0.0
32	0x00000000	0.0
33	0x00000000	0.0
34	0x00000000	0.0
35	0x00000000	0.0
36	0x00000000	0.0
37	0x00000000	0.0
38	0x00000000	0.0
39	0x00000000	0.0
40	0x00000000	0.0
41	0x00000000	0.0
42	0x00000000	0.0
43	0x00000000	0.0
44	0x00000000	0.0
45	0x00000000	0.0
46	0x00000000	0.0
47	0x00000000	0.0
48	0x00000000	0.0
49	0x00000000	0.0
50	0x00000000	0.0
51	0x00000000	0.0
52	0x00000000	0.0
53	0x00000000	0.0
54	0x00000000	0.0
55	0x00000000	0.0
56	0x00000000	0.0
57	0x00000000	0.0
58	0x00000000	0.0
59	0x00000000	0.0
60	0x00000000	0.0
61	0x00000000	0.0
62	0x00000000	0.0
63	0x00000000	0.0

weight f4 [64]
0	0x3d98dbb9	0.07463784
1	0x3e673e89	0.22582449
2	0x3f01bb24	0.5067618
3	0x3e9a7fb1	0.30175546
4	0x3e880d9b	0.2657288
5	0x3ebe274e	0.37139362
6	0x3ec452be	0.38344377
7	0x3e47d9fa	0.19516745
8	0x3e3fce75	0.18731101
9	0x3e71d03f	0.23614596
10	0x3e3bc571	0.18337037
11	0x3cd50146	0.026001584
12	0x3dd4d120	0.1039145
13	0x3f0253bd	0.50909024
14	0x3eeb4f10	0.45958757
15	0x3e925b0f	0.28585097
16	0x3f18a599	0.5962768
17	0x3ee80c36	0.45321816
18	0x3ed07c07	0.40719625
19	0x3f02b96a	0.5106417
20	0x3ec286d3	0.37993488
21	0x3f02eeb5	0.5114549
22	0x3effd469	0.49966744
23	0x3e9f1880	0.3107338
24	0x3e7ce74f	0.24697612
25	0x3e7cf42c	0.24702519
26	0x3e93757b	0.28800568
27	0x3ccbfefe	0.024901863
28	0x3e1d0fdb	0.1533808
29	0x3cd83230	0.026391119
30	0x3e962748	0.29326844
31	0x3ee66fc8	0.45007157
32	0x3eaf45bc	0.3423289
33	0x3e4f0597	0.20216976
34	0x3d94a049	0.072571345
35	0x3ee5a18a	0.44849807
36	0x3e91d745	0.2848455
37	0x3e9ab202	0.30213934
38	0x3f12be3c	0.57321525
39	0x3e4b57c7	0.19857703
40	0x3effc126	0.49952048
41	0x3e1201cc	0.14258498
42	0x3ed0fc4b	0.40817484
43	0x3eef2386	0.4670679
44	0x3ec5789c	0.3856858
45	0x3e603c8d	0.21898098
46	0x3e4f69c0	0.20255184
47	0x3e226df1	0.15862252
48	0x3ecdbf2e	0.4018492
49	0x3e8f43aa	0.2798131
50	0x3e59cd08	0.2126962
51	0x3eadd9c3	0.33955202
52	0x3ea56004	0.32299817
53	0x3de114da	0.10990305
54	0x3e900f8f	0.2813687
55	0x3e1dd579	0.15413465
56	0x3e87286f	0.26398036
57	0x3ea510d5	0.32239404
58	0x3e1d7ac1	0.15378858
59	0x3cfc70a6	0.030815434
60	0x3e93a3f9	0.2883604
61	0x3e2901a4	0.16504532
62	0x3eefb1c2	0.46815306
63	0x3e8bee02	0.27330023

bias f4 [64]
0	0x3c284a1b	0.010271574
1	0x39f9107d	0.00047505266
2	0xbe07c3fe	-0.13258359
3	0xbe85e27e	-0.26149362
4	0xbdae1150	-0.08499396
5	0x3b18e4cc	0.0023329733
6	0xbd92aa0f	-0.07161342
7	0x3d47d584	0.04878761
8	0xbd7c5dab	-0.061612766
9	0x3d43fe40	0.047849894
10	0xbdc515a4	-0.09623268
11	0xba5c56d2	-0.0008405271
12	0xbd995809	-0.074874945
13	0x3d987ba4	0.074454576
14	0xbe1c8bdb	-0.15287726
15	0xbddd5e93	-0.10809054
16	0xbeb44479	-0.3520849
17	0xbca0d609	-0.01963331
18	0xbde00695	-0.109387554
19	0xbe28db44	-0.16489893
20	0xbdfdb0e0	-0.12387252
21	0xbe0c7d4d	-0.13719673
22	0xbc9586df	-0.018252788
23	0xbe387d2f	-0.18016504
24	0x3deabcd3	0.114617966
25	0x3d7f831a	0.062380888
26	0x3e103c23	0.1408544
27	0xba9b8984	-0.0011866544
28	0x3c1eb264	0.009686086
29	0x39c925f3	0.00038365982
30	0xbc359027	-0.011081732
31	0xbe51e6b0	-0.20498157
32	0xbda8c23e	-0.08240174
33	0x3e5a2f3b	0.2130708
34	0x3ccb6166	0.024826717
35	0xbe254983	-0.16141324
36	0xbdb89702	-0.090131775
37	0xbdb19184	-0.08670333
38	0xbdeaa35a	-0.11456938
39	0xbe4eb67f	-0.20186804
40	0xbcb97ae9	-0.022641616
41	0xbddcafee	-0.107757434
42	0xbe03df3d	-0.12878127
43	0x3ca023de	0.019548353
44	0xbc8ef772	-0.017451975
45	0xbdb5f506	-0.08884625
46	0x3db35cfc	0.0875797
47	0xbcc5b556	-0.02413432
48	0xbd9407b1	-0.072280295
49	0x3c63554f	0.01387532
50	0xbd8d2519	-0.068918414
51	0xbe3c856f	-0.18410276
52	0xbd30b20f	-0.04313856
53	0x3c9d3082	0.01918817
54	0xbd912363	-0.070868276
55	0xbd871acf	-0.0659691
56	0xbe29f672	-0.16597918
57	0x3da0ce95	0.078519024
58	0xbdb1795d	-0.08665726
59	0xbac7143a	-0.0015188523
60	0xbcd3282f	-0.025775997
61	0x3d309206	0.04310801
62	0xbe3db40d	-0.18525715
63	0x3d6be3e6	0.057590388

running_mean f4 [64]
0	0xbb45c826	-0.0030179112
1	0xbd7dfee6	-0.06201067
2	0x3d299743	0.04140402
3	0x3c16d572	0.009206163
4	0xbd272b88	-0.040813
5	0x3a8ba7e9	0.00106549
6	0xbcc8ba12	-0.024502788
7	0xbce645b8	-0.028109416
8	0x3d2305da	0.039800502
9	0xbc0258c0	-0.00795573
10	0x391f0539	0.00015165367
11	0xbab4fcec	-0.0013808287
12	0x3b84a0e1	0.0040474986
13	0xbd81782b	-0.06321748
14	0x3bd34532	0.0064474577
15	0x3b7da031	0.0038700218
16	0x3d25b3e7	0.04045477
17	0xba43e921	-0.00074733986
18	0x3cc7b336	0.024377447
19	0xbcf2edeb	-0.029654464
20	0x3dac3c9b	0.08409997
21	0xbd35cac6	-0.044382833
22	0x3d8ee001	0.06976319
23	0x3bf3d84f	0.0074415575
24	0x3c82873c	0.015933625
25	0xba155258	-0.0005696169
26	0xbd890c40	-0.066917896
27	0x38b451e0	8.598319e-05
28	0xbc87f395	-0.016595641
29	0xbaef2d01	-0.0018247665
30	0xbc6f44f1	-0.014603839
31	0xbc994fa5	-0.018714735
32	0x3c96c5c7	0.018404854
33	0xbc0fbe7c	-0.008773442
34	0xbb5bac51	-0.0033519457
35	0xbce75bd9	-0.028242039
36	0xbcb21d6a	-0.021742541
37	0x3bd4444a	0.0064778673
38	0x3d0ac4c0	0.03387904
39	0x3d3df20d	0.046373416
40	0xbc8864b1	-0.016649576
41	0x3b95926a	0.004564573
42	0xbd0af58e	-0.033925585
43	0xbd478ff8	-0.048721284
44	0x3da633ad	0.08115325
45	0x3c09bef3	0.008407342
46	0xbaa2ba03	-0.0012415055
47	0x3c48e432	0.012261437
48	0xbc917fe5	-0.01776118
49	0xbd38cbf5	-0.045116384
50	0x3bb2eb65	0.00546019
51	0x3d9487ab	0.07252439
52	0xbd198548	-0.037480623
53	0xbc7300dc	-0.014831748
54	0xbd286657	-0.041113224
55	0xbcd92649	-0.026507514
56	0xbc23cd93	-0.009997743
57	0xbcbdc0e6	-0.02316327
58	0x3ba0cbeb	0.0049071214
59	0x3b282fc7	0.0025663243
60	0xba93caf9	-0.00112757
61	0xbca2eee2	-0.019889299
62	0x3d0b467f	0.034002777
63	0xbd6bd06a	-0.057571806

running_var f4 [64]
0	0x38be578f	9.076215e-05
1	0x3b56700a	0.003272059
2	0x3ce95bc2	0.028486136
3	0x3b96e000	0.0046043396
4	0x3a8f50c4	0.0010934104
5	0x3bda2cde	0.0066581806
6	0x3c12fbb1	0.008971141
7	0x3b7fdcb9	0.0039041473
8	0x3bc8031a	0.0061038854
9	0x3aabf39a	0.0013118864
10	0x3a568e33	0.00081846415
11	0x35ad0f7d	1.2894012e-06
12	0x39982c17	0.0002902455
13	0x3cddf9ea	0.027096707
14	0x3bb2c3c7	0.0054554674
15	0x3b19bac1	0.0023457261
16	0x3c9e14fc	0.019297116
17	0x3c964618	0.01834397
18	0x3b90738a	0.0044083046
19	0x3b3f63f3	0.0029203861
20	0x3b2b8dac	0.0026176972
21	0x3b9943d4	0.004677275
22	0x3c901555	0.017588297
23	0x3ba0dd17	0.0049091685
24	0x3bb87aa0	0.0056298524
25	0x3b5fcdaa	0.0034149685
26	0x3c0932a5	0.008373891
27	0x3583a12f	9.807171e-07
28	0x3a4fa267	0.0007920623
29	0x35f58b64	1.829449e-06
30	0x3b832dc8	0.0040032603
31	0x3c54734e	0.012966944
32	0x3c42b8db	0.011884893
33	0x3c560354	0.013062317
34	0x38bef825	9.1061265e-05
35	0x3c69c30f	0.014267697
36	0x3aaee6a0	0.0013343878
37	0x3c0dab9e	0.008646874
38	0x3cb74945	0.022373805
39	0x3aecb136	0.0018058184
40	0x3c47e566	0.012200689
41	0x3996d294	0.00028767122
42	0x3bb7790a	0.005599146
43	0x3c9b1e50	0.018935353
44	0x3c00d432	0.007863091
45	0x3b1520bf	0.0022755114
46	0x3b4ef839	0.0031581058
47	0x399789e8	0.00028903713
48	0x3b8d79cf	0.004317499
49	0x3b19a709	0.0023445508
50	0x3a69cdab	0.00089188915
51	0x3b60b0f7	0.0034285167
52	0x3ba965a9	0.0051695895
53	0x3ac67a23	0.0015142601
54	0x3c327ae5	0.010893558
55	0x3b885ab9	0.0041612056
56	0x3b844608	0.0040366687
57	0x3b80a301	0.0039256816
58	0x3a012b51	0.0004927414
59	0x3746c7c0	1.1848228e-05
60	0x3b42f867	0.002975011
61	0x3b6144fe	0.0034373398
62	0x3c3b2e68	0.011424638
63	0x3ae155ee	0.0017191747

cpu f4 [64]
0	0x00000000	0.0
1	0x00000000	0.0
2	0x00000000	0.0
3	0x00000000	0.0
4	0x00000000	0.0
5	0x00000000	0.0
6	0x00000000	0.0
7	0x00000000	0.0
8	0x00000000	0.0
9	0x00000000	0.0
10	0x00000000	0.0
11	0x00000000	0.0
12	0x00000000	0.0
13	0x00000000	0.0
14	0x00000000	0.0
15	0x00000000	0.0
16	0x00000000	0.0
17	0x00000000	0.0
18	0x00000000	0.0
19	0x00000000	0.0
20	0x00000000	0.0
21	0x00000000	0.0
22	0x00000000	0.0
23	0x00000000	0.0
24	0x00000000	0.0
25	0x00000000	0.0
26	0x00000000	0.0
27	0x00000000	0.0
28	0x00000000	0.0
29	0x00000000	0.0
30	0x00000000	0.0
31	0x00000000	0.0
32	0x00000000	0.0
33	0x00000000	0.0
34	0x00000000	0.0
35	0x00000000	0.0
36	0x00000000	0.0
37	0x00000000	0.0
38	0x00000000	0.0
39	0x00000000	0.0
40	0x00000000	0.0
41	0x00000000	0.0
42	0x00000000	0.0
43	0x00000000	0.0
44	0x00000000	0.0
45	0x00000000	0.0
46	0x00000000	0.0
47	0x00000000	0.0
48	0x00000000	0.0
49	0x00000000	0.0
50	0x00000000	0.0
51	0x00000000	0.0
52	0x00000000	0.0
53	0x00000000	0.0
54	0x00000000	0.0
55	0x00000000	0.0
56	0x00000000	0.0
57	0x00000000	0.0
58	0x00000000	0.0
59	0x00000000	0.0
60	0x00000000	0.0
61	0x00000000	0.0
62	0x00000000	0.0
63	0x00000000	0.0

weight f4 [64]
0	0x3d15f3e3	0.03660954
1	0x3e062ff3	0.13104229
2	0x3dd15b75	0.10222522
3	0xbe38024e	-0.17969629
4	0xbcfb57e3	-0.030681556
5	0xbc790812	-0.015199678
6	0xbb04a419	-0.0020239411
7	0x3e2a1ac4	0.16611773
8	0xbddf500c	-0.109039396
9	0x3c34e13b	0.011040027
10	0x3d6015b7	0.05470821
11	0x3cd6f101	0.026237966
12	0xbc45e21b	-0.0120778335
13	0xbee7460d	-0.45170632
14	0xbd2c6cb8	-0.04209587
15	0x3de606db	0.11231776
16	0xba8091e2	-0.0009809101
17	0xbdf7603a	-0.12078901
18	0xbceb777a	-0.028743494
19	0xbdcee42e	-0.101021156
20	0xbb1aa724	-0.0023598159
21	0xb007f398	-4.945888e-10
22	0x3dce0430	0.100593925
23	0xbd481b27	-0.04885402
24	0xbd8b2a43	-0.0679517
25	0x3d09a1ea	0.03360168
26	0xbdfbe86d	-0.12300191
27	0x3cd11f1a	0.025527526
28	0x3dbadf29	0.09124596
29	0x3cdb3b9c	0.026761822
30	0x3d50d349	0.050982747
31	0xbd9f0c41	-0.07766009
32	0x3dbff3ba	0.09372659
33	0x2bbb6610	1.3315477e-12
34	0x3cf4bc32	0.029874895
35	0xbd6e31b2	-0.058152862
36	0x3d79843c	0.060917124
37	0xbe67ee29	-0.22649445
38	0xbcbe406e	-0.023224082
39	0x3cebddf6	0.028792363
40	0x3d9433b5	0.07236425
41	0x3cd8b1d3	0.02645198
42	0xbc932f6f	-0.017966954
43	0x3df7c2f1	0.12097729
44	0xb5f0bd32	-1.7936457e-06
45	0x3d0536da	0.032523014
46	0x3d5be594	0.05368574
47	0x3cc970b5	0.024589876
48	0xbdd2d82e	-0.10295139
49	0x3d8bc767	0.06825142
50	0x3d20c52e	0.039250545
51	0x3d3abd3c	0.045590624
52	0xb7633306	-1.3542134e-05
53	0x3c088411	0.008332268
54	0xbda72c89	-0.08162791
55	0xb5fec88c	-1.8982842e-06
56	0x3d2641b2	0.040589996
57	0xbe1c0a02	-0.15238193
58	0xbce42d3a	-0.027853597
59	0x3cc13ca2	0.023588482
60	0x3c0d5dd5	0.008628328
61	0x3e398b11	0.18119456
62	0xbd9a4ffa	-0.075347856
63	0x3d00155f	0.03127038

bias f4 [64]
0	0x3c284a1b	0.010271574
1	0x39f9107d	0.00047505266
2	0xbe07c3fe	-0.13258359
3	0xbe85e27e	-0.26149362
4	0xbdae1150	-0.08499396
5	0x3b18e4cc	0.0023329733
6	0xbd92aa0f	-0.07161342
7	0x3d47d584	0.04878761
8	0xbd7c5dab	-0.061612766
9	0x3d43fe40	0.047849894
10	0xbdc515a4	-0.09623268
11	0xba5c56d2	-0.0008405271
12	0xbd995809	-0.074874945
13	0x3d987ba4	0.074454576
14	0xbe1c8bdb	-0.15287726
15	0xbddd5e93	-0.10809054
16	0xbeb44479	-0.3520849
17	0xbca0d609	-0.01963331
18	0xbde00695	-0.109387554
19	0xbe28db44	-0.16489893
20	0xbdfdb0e0	-0.12387252
21	0xbe0c7d4d	-0.13719673
22	0xbc9586df	-0.018252788
23	0xbe387d2f	-0.18016504
24	0x3deabcd3	0.114617966
25	0x3d7f831a	0.062380888
26	0x3e103c23	0.1408544
27	0xba9b8984	-0.0011866544
28	0x3c1eb264	0.009686086
29	0x39c925f3	0.00038365982
30	0xbc359027	-0.011081732
31	0xbe51e6b0	-0.20498157
32	0xbda8c23e	-0.08240174
33	0x3e5a2f3b	0.2130708
34	0x3ccb6166	0.024826717
35	0xbe254983	-0.16141324
36	0xbdb89702	-0.090131775
37	0xbdb19184	-0.08670333
38	0xbdeaa35a	-0.11456938
39	0xbe4eb67f	-0.20186804
40	0xbcb97ae9	-0.022641616
41	0xbddcafee	-0.107757434
42	0xbe03df3d	-0.12878127
43	0x3ca023de	0.019548353
44	0xbc8ef772	-0.017451975
45	0xbdb5f506	-0.08884625
46	0x3db35cfc	0.0875797
47	0xbcc5b556	-0.02413432
48	0xbd9407b1	-0.072280295
49	0x3c63554f	0.01387532
50	0xbd8d2519	-0.068918414
51	0xbe3c856f	-0.18410276
52	0xbd30b20f	-0.04313856
53	0x3c9d3082	0.01918817
54	0xbd912363	-0.070868276
55	0xbd871acf	-0.0659691
56	0xbe29f672	-0.16597918
57	0x3da0ce95	0.078519024
58	0xbdb1795d	-0.08665726
59	0xbac7143a	-0.0015188523
60	0xbcd3282f	-0.025775997
61	0x3d309206	0.04310801
62	0xbe3db40d	-0.18525715
63	0x3d6be3e6	0.057590388

running_mean f4 [64]
0	0x3ba6a466	0.005085516
1	0x3c38b6d0	0.011274055
2	0x3c00cd1d	0.007861403
3	0x3c4fbd67	0.012679434
4	0x3ba10366	0.004913735
5	0x3b894b8b	0.0041899136
6	0x380baded	3.3302164e-05
7	0x3c5d4de4	0.01350734
8	0xbc35ce70	-0.011096582
9	0x3b270952	0.0025487733
10	0xbc000caf	-0.007815524
11	0x3b141311	0.0022594372
12	0xbbe355a3	-0.006937699
13	0x3ca58e82	0.020209555
14	0x3bf47046	0.007459673
15	0xbc22e805	-0.009943013
16	0xbaa58655	-0.0012628535
17	0xbc2b9e8d	-0.010474813
18	0xbbb09f9a	-0.0053901197
19	0xbc2a7677	-0.010404221
20	0xba29eabf	-0.0006481818
21	0xaf12f574	-1.3365825e-10
22	0xbc2b8baf	-0.010470315
23	0xbbfb2f9a	-0.0076655867
24	0x3c048c23	0.008090052
25	0xbbbdca8f	-0.005791969
26	0xbc364cb2	-0.011126684
27	0xbbaeb70c	-0.0053318795
28	0xbc0f6862	-0.008752914
29	0xbbc643f4	-0.006050581
30	0xbbe896ee	-0.0070980703
31	0xbc141f83	-0.009040716
32	0xbc1fbedd	-0.009750095
33	0x2ac8b00b	3.564929e-13
34	0xbb3e62e2	-0.0029050638
35	0x3be3ba26	0.006949681
36	0x3bfa3bf4	0.0076365415
37	0xbc76972a	-0.015050689
38	0xbc0fa43a	-0.008767182
39	0x3b8ec96a	0.0043575065
40	0x3c663fee	0.014053328
41	0x3abfb378	0.0014625629
42	0xbb37add7	-0.00280272
43	0x3c4d6b88	0.0125378445
44	0xb4f3576f	-4.5325893e-07
45	0xbbdb3410	-0.006689556
46	0xbbea9e83	-0.0071600094
47	0x3ba6cc42	0.0050902674
48	0x3c262848	0.01014144
49	0x3c0740c4	0.008255187
50	0x3b5aaf50	0.0033368655
51	0x3be056a9	0.006846268
52	0x37535029	1.2595244e-05
53	0xbb2adc72	-0.0026071337
54	0xbc1d4e14	-0.009601135
55	0xb509a043	-5.126969e-07
56	0xbbe1af58	-0.0068873577
57	0x3c45445f	0.012040227
58	0x3bc60545	0.0060431086
59	0xbbb1b5f1	-0.0054233004
60	0x3b526d1b	0.003210849
61	0xbc5b82ad	-0.013397855
62	0xbc071471	-0.00824462
63	0x3bb7430c	0.0055927094

running_var f4 [64]
0	0x38025aab	3.1078856e-05
1	0x39202912	0.00015274089
2	0x389bbfb8	7.426686e-05
3	0x394a9441	0.0001931945
4	0x37f364ac	2.9014736e-05
5	0x37b0f7d7	2.1096244e-05
6	0x30b72b0b	1.3327236e-09
7	0x3965e5ce	0.00021924751
8	0x391b2860	0.00014796993
9	0x3702f8bf	7.8065195e-06
10	0x3899efb3	7.340256e-05
11	0x36cdd8f1	6.1347314e-06
12	0x387298e3	5.7839683e-05
13	0x3a00a957	0.0004908046
14	0x388c3cd6	6.687052e-05
15	0x38f92669	0.000118804
16	0x36009ca0	1.9164654e-06
17	0x390a41d2	0.00013185226
18	0x38126ff4	3.4913377e-05
19	0x39086660	0.00013008108
20	0x35078722	5.0488063e-07
21	0x1ecac1d5	2.1467749e-20
22	0x390a236f	0.00013173906
23	0x3894162a	7.061318e-05
24	0x38a4f0cb	7.8649806e-05
25	0x38291601	4.0313233e-05
26	0x391c002c	0.00014877383
27	0x380f4a37	3.4162975e-05
28	0x38c113ac	9.206621e-05
29	0x383885bc	4.399357e-05
30	0x387df14b	6.0544622e-05
31	0x38cdfb90	9.822019e-05
32	0x38ef9360	0.00011423859
33	0x163d0f01	1.5272033e-25
34	0x372a25d4	1.0141597e-05
35	0x38736f98	5.8039645e-05
36	0x3892f76c	7.0079084e-05
37	0x398eb7b8	0.00027221232
38	0x38c1b4f1	9.23666e-05
39	0x37bf688f	2.2817663e-05
40	0x3978dbe4	0.00023733039
41	0x362c8188	2.5705394e-06
42	0x371e5eda	9.439618e-06
43	0x3946147d	0.00018890384
44	0x2a8afb4f	2.4688105e-13
45	0x38618dae	5.377613e-05
46	0x38813269	6.160589e-05
47	0x3802990f	3.1136962e-05
48	0x390198c7	0.00012359313
49	0x38abbe2d	8.1893384e-05
50	0x37607cd2	1.3380502e-05
51	0x386c3ebe	5.6325218e-05
52	0x2f519bab	1.9063744e-10
53	0x370909c3	8.168109e-06
54	0x38e84fa8	0.00011077459
55	0x2ab1d27f	3.1587577e-13
56	0x386f16dd	5.7003333e-05
57	0x3936ab32	0.00017420648
58	0x38381121	4.388497e-05
59	0x38143eeb	3.5344547e-05
60	0x374fda2e	1.238896e-05
61	0x39622f94	0.00021570764
62	0x38ab4dad	8.168384e-05
63	0x381da6e7	3.7587157e-05

cpu f4 [64]
0	0x00000000	0.0
1	0x00000000	0.0
2	0x00000000	0.0
3	0x00000000	0.0
4	0x00000000	0.0
5	0x00000000	0.0
6	0x00000000	0.0
7	0x00000000	0.0
8	0x00000000	0.0
9	0x00000000	0.0
10	0x00000000	0.0
11	0x00000000	0.0
12	0x00000000	0.0
13	0x00000000	0.0
14	0x00000000	0.0
15	0x00000000	0.0
16	0x00000000	0.0
17	0x00000000	0.0
18	0x00000000	0.0
19	0x00000000	0.0
20	0x00000000	0.0
21	0x00000000	0.0
22	0x00000000	0.0
23	0x00000000	0.0
24	0x00000000	0.0
25	0x00000000	0.0
26	0x00000000	0.0
27	0x00000000	0.0
28	0x00000000	0.0
29	0x00000000	0.0
30	0x00000000	0.0
31	0x00000000	0.0
32	0x00000000	0.0
33	0x00000000	0.0
34	0x00000000	0.0
35	0x00000000	0.0
36	0x00000000	0.0
37	0x00000000	0.0
38	0x00000000	0.0
39	0x00000000	0.0
40	0x00000000	0.0
41	0x00000000	0.0
42	0x00000000	0.0
43	0x00000000	0.0
44	0x00000000	0.0
45	0x00000000	0.0
46	0x00000000	0.0
47	0x00000000	0.0
48	0x00000000	0.0
49	0x00000000	0.0
50	0x00000000	0.0
51	0x00000000	0.0
52	0x00000000	0.0
53	0x00000000	0.0
54	0x00000000	0.0
55	0x00000000	0.0
56	0x00000000	0.0
57	0x00000000	0.0
58	0x00000000	0.0
59	0x00000000	0.0
60	0x00000000	0.0
61	0x00000000	0.0
62	0x00000000	0.0
63	0x00000000	0.0

cpu f4 [128]
0	0x00000000	0.0
1	0x00000000	0.0
2	0x00000000	0.0
3	0x00000000	0.0
4	0x00000000	0.0
5	0x00000000	0.0
6	0x00000000	0.0
7	0x00000000	0.0
8	0x00000000	0.0
9	0x00000000	0.0
10	0x00000000	0.0
11	0x00000000	0.0
12	0x00000000	0.0
13	0x00000000	0.0
14	0x00000000	0.0
15	0x00000000	0.0
16	0x00000000	0.0
17	0x00000000	0.0
18	0x00000000	0.0
19	0x00000000	0.0
20	0x00000000	0.0
21	0x00000000	0.0
22	0x00000000	0.0
23	0x00000000	0.0
24	0x00000000	0.0
25	0x00000000	0.0
26	0x00000000	0.0
27	0x00000000	0.0
28	0x00000000	0.0
29	0x00000000	0.0
30	0x00000000	0.0
31	0x00000000	0.0
32	0x00000000	0.0
33	0x00000000	0.0
34	0x00000000	0.0
35	0x00000000	0.0
36	0x00000000	0.0
37	0x00000000	0.0
38	0x00000000	0.0
39	0x00000000	0.0
40	0x00000000	0.0
41	0x00000000	0.0
42	0x00000000	0.0
43	0x00000000	0.0
44	0x00000000	0.0
45	0x00000000	0.0
46	0x00000000	0.0
47	0x00000000	0.0
48	0x00000000	0.0
49	0x00000000	0.0
50	0x00000000	0.0
51	0x00000000	0.0
52	0x00000000	0.0
53	0x00000000	0.0
54	0x00000000	0.0
55	0x00000000	0.0
56	0x00000000	0.0
57	0x00000000	0.0
58	0x00000000	0.0
59	0x00000000	0.0
60	0x00000000	0.0
61	0x00000000	0.0
62	0x00000000	0.0
63	0x00000000	0.0
64	0x00000000	0.0
65	0x00000000	0.0
66	0x00000000	0.0
67	0x00000000	0.0
68	0x00000000	0.0
69	0x00000000	0.0
70	0x00000000	0.0
71	0x00000000	0.0
72	0x00000000	0.0
73	0x00000000	0.0
74	0x00000000	0.0
75	0x00000000	0.0
76	0x00000000	0.0
77	0x00000000	0.0
78	0x00000000	0.0
79	0x00000000	0.0
80	0x00000000	0.0
81	0x00000000	0.0
82	0x00000000	0.0
83	0x00000000	0.0
84	0x00000000	0.0
85	0x00000000	0.0
86	0x00000000	0.0
87	0x00000000	0.0
88	0x00000000	0.0
89	0x00000000	0.0
90	0x00000000	0.0
91	0x00000000	0.0
92	0x00000000	0.0
93	0x00000000	0.0
94	0x00000000	0.0
95	0x00000000	0.0
96	0x00000000	0.0
97	0x00000000	0.0
98	0x00000000	0.0
99	0x00000000	0.0
100	0x00000000	0.0
101	0x00000000	0.0
102	0x00000000	0.0
103	0x00000000	0.0
104	0x00000000	0.0
105	0x00000000	0.0
106	0x00000000	0.0
107	0x00000000	0.0
108	0x00000000	0.0
109	0x00000000	0.0
110	0x00000000	0.0
111	0x00000000	0.0
112	0x00000000	0.0
113	0x00000000	0.0
114	0x00000000	0.0
115	0x00000000	0.0
116	0x00000000	0.0
117	0x00000000	0.0
118	0x00000000	0.0
119	0x00000000	0.0
120	0x00000000	0.0
121	0x00000000	0.0
122	0x00000000	0.0
123	0x00000000	0.0
124	0x00000000	0.0
125	0x00000000	0.0
126	0x00000000	0.0
127	0x00000000	0.0

weight f4 [128]
0	0x3e297807	0.16549693
1	0x3e662987	0.22476779
2	0x3e6c7213	0.23090391
3	0x3e45ac19	0.19303931
4	0x3e5ba850	0.21450925
5	0x3e56c274	0.20972615
6	0x3e50ed33	0.20402984
7	0x3eb9c72c	0.3628477
8	0x3e93da56	0.28877515
9	0x3d9e6ea8	0.0773595
10	0x3e5890d2	0.21148995
11	0x3e71dd8e	0.23619673
12	0x3e928b71	0.2862201
13	0x3e373072	0.17889574
14	0x3e36c9b9	0.17850389
15	0x3e404356	0.18775687
16	0x3dffe4e3	0.124948286
17	0x3e2251c7	0.15851508
18	0x3e8e99f6	0.27851838
19	0x3e386164	0.18005902
20	0x3e7eadae	0.24870941
21	0x3e2940a4	0.16528565
22	0x3e514624	0.20436913
23	0x3e8aac4c	0.27084577
24	0x3e343fcc	0.17602462
25	0x3e3c08cc	0.1836273
26	0x3e4f8c28	0.20268309
27	0x3e3249de	0.1741099
28	0x3e4844de	0.19557521
29	0x3df60615	0.12012879
30	0x3e5746e4	0.21023136
31	0x3e785c54	0.2425397
32	0x3ecc31a2	0.39881617
33	0x3decb4eb	0.11557945
34	0x3e04ec64	0.12980801
35	0x3dc57e8c	0.096432775
36	0x3dcca2c4	0.099919826
37	0x3e0e4ec0	0.13897228
38	0x3e63ab87	0.22233401
39	0x3e99f628	0.30070615
40	0x3e30f01d	0.17279096
41	0x3db89179	0.09012122
42	0x3e2eed2a	0.17082658
43	0x3e12ecc2	0.14348128
44	0x3e30de65	0.17272337
45	0x3e8610a0	0.2618456
46	0x3e6ea7a2	0.23306134
47	0x3e57ace0	0.2106204
48	0x3e193da8	0.14964926
49	0x3e17b6bf	0.14815806
50	0x3e706a68	0.23478091
51	0x3e622f88	0.22088444
52	0x3e76f605	0.24117287
53	0x3e2fc68b	0.17165582
54	0x3e28ee8a	0.16497245
55	0x3e7d2d9c	0.2472443
56	0x3e0d5d89	0.13805212
57	0x3e33ca1f	0.17557572
58	0x3db8b778	0.09019369
59	0x3e440a57	0.1914457
60	0x3e4c8d80	0.19975853
61	0x3dce6afd	0.10079
62	0x3e12abe0	0.14323378
63	0x3e4d196a	0.20029226
64	0x3e4d46fa	0.20046607
65	0x3e536f50	0.20647931
66	0x3e91124f	0.2833428
67	0x3ddb34dc	0.107034415
68	0x3e5ab5f0	0.21358466
69	0x3dcd6df4	0.100307375
70	0x3e9c8fa7	0.30578348
71	0x3e1764cb	0.14784543
72	0x3e210ad6	0.1572679
73	0x3e73a628	0.23793852
74	0x3e958f8f	0.2921109
75	0x3dee0fce	0.11624108
76	0x3e9ff146	0.31238765
77	0x3e5151a9	0.20441307
78	0x3df4590f	0.11931049
79	0x3e0c74c2	0.13716415
80	0x3e883967	0.26606295
81	0x3d877427	0.06613951
82	0x3e75428e	0.2395117
83	0x3e8c01bc	0.27345073
84	0x3df1e53c	0.11811301
85	0x3e767c66	0.24070892
86	0x3e04ec50	0.12980771
87	0x3de5242e	0.11188541
88	0x3e4c5a21	0.19956256
89	0x3da7bb12	0.08189978
90	0x3e8b6cdb	0.27231488
91	0x3e527b1d	0.20554776
92	0x3e70ff48	0.23534882
93	0x3e675baa	0.22593561
94	0x3e673d03	0.22581868
95	0x3d47b7c1	0.048759226
96	0x3e1dc215	0.15406068
97	0x3e468133	0.19385223
98	0x3e4280e6	0.18994483
99	0x3e2ad2e5	0.16682012
100	0x3e87f72d	0.26555768
101	0x3e6fb448	0.23408616
102	0x3e937f12	0.28807884
103	0x3ea36f9b	0.31921086
104	0x3e0c7eaa	0.13720194
105	0x3e12c2d8	0.1433214
106	0x3e9602b1	0.29298928
107	0x3e09c176	0.13452706
108	0x3ec46034	0.38354647
109	0x3dc63f8f	0.096800916
110	0x3d83cc09	0.06435401
111	0x3e3f780f	0.18698142
112	0x3e5a0ecb	0.21294706
113	0x3e136f01	0.14397813
114	0x3e6e3331	0.23261715
115	0x3e4b3b19	0.19846763
116	0x3e830994	0.25593245
117	0x3db6315e	0.08896135
118	0x3e6bfcb0	0.23045611
119	0x3da4e5a8	0.08051616
120	0x3e6e2c7e	0.2325916
121	0x3e328909	0.17435087
122	0x3e85aedf	0.2610998
123	0x3dd48a42	0.10377933
124	0x3df0383b	0.11729475
125	0x3e191d5e	0.14952609
126	0x3e898091	0.268559
127	0x3e84ffc0	0.25976372

bias f4 [128]
0	0xbe27435d	-0.16334291
1	0xbe3981f0	-0.18115973
2	0xbdcfd2eb	-0.10147651
3	0xbd8bc0d6	-0.0682389
4	0xbd6ce485	-0.05783512
5	0xbc8e26a4	-0.01735241
6	0xbd872274	-0.06598368
7	0xbe80e6e7	-0.25176165
8	0xbcba3c41	-0.02273381
9	0xbe399cbd	-0.18126197
10	0xbc8d7dfe	-0.017271992
11	0xbd988650	-0.07447493
12	0xbdb38662	-0.08765866
13	0xbe2993c0	-0.16560268
14	0xbdb5238c	-0.08844671
15	0xbde998d0	-0.114061
16	0x3d054b10	0.03254229
17	0x38a93bb9	8.069672e-05
18	0xbdc6dba5	-0.097098626
19	0xbda38fb0	-0.079863906
20	0xbcd7462e	-0.026278581
21	0xbda000df	-0.07812666
22	0xbd07f5ec	-0.033193514
23	0xbe0d0b7e	-0.13773915
24	0xbe485bae	-0.19566223
25	0xbe2047c9	-0.15652384
26	0xbe1f2f11	-0.15545298
27	0xbdd4ff5c	-0.104002684
28	0xbe163f27	-0.14672528
29	0xbd3530f1	-0.044236127
30	0x3dce8c81	0.10085393
31	0xbdaee706	-0.08540158
32	0xbd905bf5	-0.070487894
33	0xbe5c3a1f	-0.21506546
34	0xbdff2859	-0.124588676
35	0x3cb2c628	0.021823004
36	0xbdd4691b	-0.1037161
37	0xbde4d529	-0.111734696
38	0xbd7c5a75	-0.061609704
39	0x3c8baa98	0.017049119
40	0xbe780701	-0.24221422
41	0x3c965ea5	0.018355677
42	0xbd40f41c	-0.0471078
43	0xbdc350e9	-0.09536917
44	0xbe268552	-0.16261795
45	0xbcfab501	-0.030603888
46	0xbe1c3fa3	-0.1525865
47	0x3c4f0580	0.012635589
48	0xbddac98c	-0.10682973
49	0xbe17a016	-0.14807162
50	0xbe8412c3	-0.25795564
51	0xbd0e090f	-0.034676608
52	0xbe3030cd	-0.17206116
53	0xbdfdcb52	-0.12392296
54	0x3c8f3cf9	0.017485129
55	0xbd34a133	-0.044099044
56	0xbe15050e	-0.1455271
57	0xbd00441d	-0.031314958
58	0x3d39d59c	0.04536973
59	0xbcc186e6	-0.023623895
60	0xbe2365fc	-0.15956873
61	0x3d3cb152	0.046067543
62	0xbe25dd5c	-0.16197723
63	0x3d0be370	0.03415245
64	0xbe687a6e	-0.22702953
65	0xbd865003	-0.0655823
66	0xbdb6c5a4	-0.08924416
67	0xbd20c09b	-0.039246183
68	0xbe1f2321	-0.15540744
69	0xbde5ef3f	-0.11227273
70	0xbdee67ec	-0.11640915
71	0xbdb8b982	-0.09019758
72	0xbde8ff19	-0.11376781
73	0xbd358f67	-0.044326212
74	0xbc7d4eac	-0.015460651
75	0xbcaffb3e	-0.021482106
76	0x3dc8b828	0.0980075
77	0xbe36ac9b	-0.17839281
78	0xbe2a028b	-0.16602533
79	0xbd65f8da	-0.056145526
80	0x3c9e2201	0.019303324
81	0x3d30da48	0.04317692
82	0xbdc0792f	-0.09398114
83	0xbe3089d3	-0.17240076
84	0xbd8205b7	-0.06348746
85	0xbe5d5bcd	-0.2161705
86	0xbe4450cf	-0.19171451
87	0x3d09be79	0.033628915
88	0xbdce3594	-0.10068813
89	0xbdc579a1	-0.096423395
90	0xbd0c7432	-0.0342905
91	0xbea9111c	-0.33020866
92	0xbde57d32	-0.1120552
93	0xbccb7f6b	-0.024841031
94	0xbd8ec401	-0.069709785
95	0xbdb81c05	-0.08989719
96	0x3d2e69ce	0.042581372
97	0xbdcc0774	-0.09962359
98	0xbe35d043	-0.17755227
99	0xbda7457e	-0.081675515
100	0xbd90f5a3	-0.070781015
101	0xbd83a262	-0.064274564
102	0xbc73f8ea	-0.014890889
103	0x3d9bc6b7	0.07606261
104	0xbd91fb4b	-0.071280085
105	0xbe48caba	-0.19608584
106	0xbdfdbddd	-0.12389729
107	0xbd66efc2	-0.056380995
108	0xbc9a3df2	-0.018828366
109	0xbd758476	-0.059940778
110	0xbdb6cd17	-0.089258365
111	0xbcc40582	-0.023928408
112	0xbbd06b42	-0.0063604424
113	0xbdafe3a1	-0.08588339
114	0xbe382bea	-0.17985502
115	0xbdf45a25	-0.11931256
116	0xbd145cc7	-0.036221292
117	0x3bafbfde	0.0053634485
118	0xbeaa71cf	-0.33289954
119	0x3c75b4d0	0.014996722
120	0xbda6a833	-0.0813755
121	0xbd4a9e6c	-0.04946749
122	0x3c3ed661	0.011647792
123	0xbcbd5f20	-0.023116648
124	0xbde93afb	-0.11388203
125	0xbe2fb79a	-0.17159882
126	0xbd3434c5	-0.043995637
127	0xbd4031b5	-0.046922404

running_mean f4 [128]
0	0x3c9f58dd	0.019451553
1	0xbd1491d3	-0.03627188
2	0x3c28d7a3	0.010305318
3	0xbd4c9ba6	-0.049953125
4	0xbd49190f	-0.049096163
5	0xbd4d6053	-0.05014069
6	0xbc80e54e	-0.015734341
7	0xbb321fe4	-0.0027179653
8	0xbb97a791	-0.00462813
9	0x3cc2a5f3	0.023760771
10	0xbccf4e5d	-0.025305921
11	0x3cd27cc8	0.025694266
12	0xbd1e1af5	-0.038599927
13	0xbbf88fa8	-0.0075854845
14	0xbc91f021	-0.017814698
15	0xbd87f33a	-0.06638189
16	0xbc6d50de	-0.014484612
17	0xbcc91749	-0.024547236
18	0x3d6c73f3	0.057727765
19	0xbc293099	-0.010326528
20	0xbd167d9d	-0.036740888
21	0xbc4809e8	-0.012209393
22	0x3d48d40c	0.04903035
23	0xbd70bd4e	-0.058774285
24	0x3cad74d6	0.021173876
25	0x3a0057ee	0.0004895915
26	0xbb1221eb	-0.0022298049
27	0xbbd64636	-0.0065391315
28	0x3adef283	0.001700953
29	0xbc7c4c85	-0.015399103
30	0xbd49c0e8	-0.049256235
31	0xbaece68f	-0.0018074083
32	0x3c8c0790	0.01709345
33	0x3b2a85eb	0.0026019763
34	0xbccb4de8	-0.024817422
35	0xbcf65cb1	-0.030073496
36	0xbceed705	-0.029155264
37	0xbbd492ff	-0.00648725
38	0x3d0e23ba	0.03470204
39	0xbdcfff24	-0.10156086
40	0x3a29bbce	0.00064748235
41	0xbb298415	-0.002586608
42	0x3b793cc6	0.0038030609
43	0xbba9114f	-0.005159534
44	0xbc90e2c5	-0.017686257
45	0xba935ca7	-0.0011242823
46	0xbb3f66f4	-0.0029205652
47	0x3cc4e39e	0.024034318
48	0xbc634900	-0.013872385
49	0x3beb08fc	0.007172702
50	0xbdad3c65	-0.08458785
51	0x3b9e8df3	0.004838699
52	0xbd3a822b	-0.045534294
53	0x3c68e10e	0.0142138135
54	0x3cbeea9d	0.023305232
55	0x3bd411b9	0.0064718393
56	0x3c87550c	0.016520046
57	0xbc62d687	-0.013845093
58	0xbcab0491	-0.0208762
59	0xbb80fd51	-0.0039364477
60	0xbd9de3b0	-0.077094436
61	0xbd09f782	-0.033683307
62	0xbcb50a2e	-0.02209958
63	0x3c5e918f	0.013584509
64	0x3b424d41	0.0029648098
65	0xbcd87773	-0.026424145
66	0xbd274733	-0.040839385
67	0x3c0c053b	0.008546169
68	0x3b655342	0.0034992252
69	0xbbf77b6e	-0.0075525558
70	0xbd42e8b2	-0.047585197
71	0xbae5a2a5	-0.0017519785
72	0x3ca39fac	0.019973598
73	0x3ce14cfe	0.027502533
74	0xbc0ff2d9	-0.008785927
75	0xbd038dc5	-0.032117624
76	0xbcaf5d8b	-0.02140691
77	0xbc8f2ad7	-0.017476482
78	0xbc84858a	-0.016176958
79	0x3d281606	0.04103663
80	0xbdc1c387	-0.09461122
81	0xbbf4b36b	-0.0074676774
82	0x3bc08671	0.0058754017
83	0x3d3830e6	0.04496851
84	0xbcd85661	-0.026408376
85	0x3a8dfd41	0.0010832922
86	0xbc346118	-0.011009477
87	0x3c8af3cd	0.016961956
88	0x3c6ebf29	0.014571943
89	0x3bc1845f	0.0059056724
90	0x3d0dfa35	0.034662444
91	0x3ce99550	0.02851358
92	0xbd5f3ade	-0.0544995
93	0xbc3e056d	-0.011597973
94	0xbd1ce721	-0.03830636
95	0x3aa46c89	0.0012544553
96	0xbd8bfcda	-0.06835337
97	0xbc83ea9c	-0.016103081
98	0xbd364677	-0.044500794
99	0xbcfec410	-0.03109935
100	0xbcaa61a5	-0.020798514
101	0xbd3d2766	-0.04618015
102	0xbd00304f	-0.03129607
103	0xbcfdec2a	-0.0309964
104	0xbc3b8464	-0.011445139
105	0x3d043cb1	0.032284442
106	0x3d4bbab8	0.049738616
107	0xbcada5c4	-0.021197207
108	0xbdab9ef0	-0.08379924
109	0x38a9df10	8.1000966e-05
110	0x3ca59f73	0.020217633
111	0xbcf90bc2	-0.030401114
112	0xbd36b715	-0.044608194
113	0xbc8cbc1d	-0.017179543
114	0x3cbafbb0	0.022825092
115	0xbcb5f369	-0.022210794
116	0x3cfcb18b	0.030846378
117	0xbc29103f	-0.010318815
118	0x3b20f9d4	0.0024562972
119	0xbca0dd05	-0.01963664
120	0xbc3b6218	-0.011436962
121	0xbca8660e	-0.020556476
122	0x3d3ec32b	0.046572845
123	0x3c5348db	0.012895788
124	0xbbd59ae3	-0.006518708
125	0x3bfab86a	0.0076513784
126	0xbaf0fad3	-0.0018385298
127	0xbce3fc17	-0.027830167
