ldpi/training/output/ResCNN/scripted_quantized_model.pth (torch, 269226 bytes, 61 tensors)

cpu f4 [64]
00000000: 0000 0000 0000 0000 0000 0000 0000 0000
00000010: 0000 0000 0000 0000 0000 0000 0000 0000
00000020: 0000 0000 0000 0000 0000 0000 0000 0000
00000030: 0000 0000 0000 0000 0000 0000 0000 0000
00000040: 0000 0000 0000 0000 0000 0000 0000 0000
00000050: 0000 0000 0000 0000 0000 0000 0000 0000
00000060: 0000 0000 0000 0000 0000 0000 0000 0000
00000070: 0000 0000 0000 0000 0000 0000 0000 0000
00000080: 0000 0000 0000 0000 0000 0000 0000 0000
00000090: 0000 0000 0000 0000 0000 0000 0000 0000
000000a0: 0000 0000 0000 0000 0000 0000 0000 0000
000000b0: 0000 0000 0000 0000 0000 0000 0000 0000
000000c0: 0000 0000 0000 0000 0000 0000 0000 0000
000000d0: 0000 0000 0000 0000 0000 0000 0000 0000
000000e0: 0000 0000 0000 0000 0000 0000 0000 0000
000000f0: 0000 0000 0000 0000 0000 0000 0000 0000
0.0 0.0 0.0 0.0 0.0 0.0 0.0 0.0
0.0 0.0 0.0 0.0 0.0 0.0 0.0 0.0
0.0 0.0 0.0 0.0 0.0 0.0 0.0 0.0
0.0 0.0 0.0 0.0 0.0 0.0 0.0 0.0
0.0 0.0 0.0 0.0 0.0 0.0 0.0 0.0
0.0 0.0 0.0 0.0 0.0 0.0 0.0 0.0
0.0 0.0 0.0 0.0 0.0 0.0 0.0 0.0
0.0 0.0 0.0 0.0 0.0 0.0 0.0 0.0

weight f4 [64]
00000000: c191 a83e 1304 ac3e 43df e73c e320 0c3f
00000010: c927 f73d 1a0f 063e e41f 723e 89c5 363e
00000020: 6c44 e53e b172 f03e 8a82 043e 7fab e13c
00000030: bd4c a23e f6a2 c33d 520a 693d 5128 543c
00000040: d746 c03e c980 d03e 30f0 df3c 8cc7 c93e
00000050: c9ed b33e d8fd d93d 41d5 193f 4d05 de3e
00000060: f6cb 623e bed0 e33d 55e4 173e 6261 183d
00000070: 9b45 e63e 502d 273d 144c 6d3c a1b7 013f
00000080: 4338 c93e dd52 703d a5f0 ad3e 2d39 8b3d
00000090: d496 e83d 1369 c83e f2c5 273f 3986 803e
000000a0: 85bb 1a3e 06ca 073d ca6e c23e 8ef8 363d
000000b0: ade1 763d 68ed a23d 0953 093e 86f5 633f
000000c0: 0e22 4d3c a65e c03e 5730 ee3e 2133 393e
000000d0: bf68 103f 547d 6d3c d72b e43e 6e80 913e
000000e0: 6f5a de3e 2c41 753e c3c4 913d d78c e63d
000000f0: 8bb8 753e 52be 9f3e bfe8 bc3d ddf6 153e
0.329237 0.33596858 0.028304702 0.5473768 0.12068135 0.13091698 0.23644978 0.17848791
0.44778764 0.46962503 0.12940422 0.027547596 0.31699172 0.09552567 0.056894608 0.012949065
0.37554047 0.40723255 0.02733621 0.39410055 0.35142353 0.1064412 0.60091025 0.4336342
0.22148117 0.11123799 0.14833196 0.037202246 0.4497498 0.040814698 0.0144834705 0.5067082
0.39300737 0.058672775 0.3397266 0.06798015 0.11356893 0.39142665 0.65536416 0.25102404
0.15110596 0.03315165 0.3797515 0.044670634 0.060273815 0.07955438 0.13410582 0.89046514
0.012520326 0.3757221 0.46521255 0.1808591 0.5640983 0.014495213 0.44564697 0.28418297
0.4342837 0.23950642 0.071176074 0.11257332 0.23996179 0.3119989 0.0922408 0.14644952

bias f4 [64]
00000000: 2860 9c3e 5026 96bd dbf9 93be 7af7 1d3e
00000010: 73c4 ea3c b99d 2cbd 443f 97be ba49 84bd
00000020: 9443 15be 8e21 eabd 8eeb 1bbd cafb 9fbd
00000030: 1eac 93bd fdf9 1ebe 390c 683d b456 f1bd
00000040: 8124 ae3d 1faf 09bf 50ef 2dbd 9673 e33e
00000050: d6af 84bd 29c5 c3be 3491 563d 60a3 b0bd
00000060: d075 f8be 2ec8 41be ab1e 05bd fe53 60bd
00000070: 0d74 b23d f3c3 8ebd d82a b4bd 50c0 2abe
00000080: a7c8 9b3e 2308 df3d 196e 95bd b750 d0bd
00000090: 8ac2 eebd c537 c73e 2f93 f23e e5e2 a23e
000000a0: 14c1 30be 549c 6fbd 7090 a6be 1394 d8be
000000b0: 30c2 5ebe f1e7 9fbc ada4 e13d d5e4 93bd
000000c0: 7b70 d13d 532e 50be 088d 0ebe 9579 6a3d
000000d0: d08e 21be b227 dfbd 5413 37be 2fdb 053d
000000e0: e2c6 04be 1ca4 853d 0b0e 293c 319f 3c3d
000000f0: 04b6 493d 9d4d 523e 9526 433f 637a 123d
0.3054211 -0.07331526 -0.28901562 0.15426436 0.028658127 -0.042142604 -0.29540455 -0.06459375
-0.1457656 -0.11432181 -0.03806644 -0.07811697 -0.07210563 -0.1552505 0.05665228 -0.117841154
0.08503056 -0.5378284 -0.042464554 0.44424123 -0.064788505 -0.3823636 0.05238457 -0.08624911
-0.48527384 -0.18924019 -0.03249995 -0.0547676 0.08713541 -0.06970968 -0.08797234 -0.16674924
0.30426523 0.10890224 -0.0729639 -0.10171645 -0.11658199 0.38909736 0.47377917 0.31813732
-0.17261153 -0.058498695 -0.32532072 -0.42300472 -0.21753764 -0.019519778 0.110177375 -0.072213806
0.10226532 -0.20330171 -0.13920987 0.057244856 -0.15777135 -0.10896243 -0.17878467 0.032679733
-0.12966493 0.06525442 0.0103182895 0.046050254 0.04924585 0.2053742 0.76230747 0.03576125

running_mean f4 [64]
00000000: 26ff 653c 37bc 923c e73c 87bb 85e6 a33d
00000010: 44a7 28bc 9988 743c d200 2c3c 2a3a 44ba
00000020: b1b1 7fbc ec0b c9bc ea3d 34ba 77ae 88bc
00000030: 4f2d 69bc e66c 9f3c 6508 b8bc 4808 3a3c
00000040: 4f63 19bd cd46 193c a813 95bc 8834 89bc
00000050: 3fc9 943c d61d 5c3c 6ff8 bd3c ca59 8b3c
00000060: d9b1 febb 1ab6 213c 03af e73b 4f2e 013c
00000070: ff9b 9dbc c509 11bc faed 283c 954e 223c
00000080: 9eac b5bc 83c9 83bc 7c51 b5bc 830f 303c
00000090: b48c 9cbc af04 b23c c220 b5bc 6bf8 84bc
000000a0: c3d3 8aba e3fa 15bb 5303 1b3d 5bfe 773c
000000b0: 4f01 1d3c 55a8 1dbc 4454 babc 61ae 07bd
000000c0: ff45 cfbb f4aa 343c 8003 a03c 9970 51bc
000000d0: ec03 b7bc 5032 0d3b 2ca6 99bc 78e8 38bc
000000e0: acc7 b7bc efd5 66bc 739c ecbb 9162 fdbb
000000f0: 77dc 1abc 3e62 973c e739 77bc c264 8d3c
0.014037883 0.017912013 -0.004127133 0.080029525 -0.0102937855 0.014925146 0.010498242 -0.0007485474
-0.01560633 -0.024541818 -0.0006875681 -0.016684754 -0.014231994 0.019461107 -0.02246494 0.0113545135
-0.037448224 0.009355259 -0.01819785 -0.016748682 0.018162368 0.013434848 0.023189751 0.017010588
-0.007772666 0.009870077 0.0070704236 0.007884576 -0.019239424 -0.008852427 0.010310644 0.009906431
-0.022177037 -0.0160873 -0.022133581 0.010745886 -0.019110061 0.021730749 -0.022110347 -0.016231736
-0.0010591674 -0.0022885136 0.037844967 0.015136327 0.0095828315 -0.009622653 -0.02274526 -0.033125285
-0.006325483 0.0110270865 0.019532919 -0.012783193 -0.022340737 0.0021544881 -0.018755995 -0.011285894
-0.022434078 -0.014089092 -0.0072207986 -0.0077326973 -0.009451977 0.018479463 -0.015089489 0.01725996

running_var f4 [64]
00000000: d58d 5839 a549 b039 85be 9537 d9f1 db3b
00000010: cee2 e838 2ecb 7439 a53a f238 89a1 1d35
00000020: fed2 8539 1078 253a a7fe 0435 49f5 9839
00000030: 9795 5e39 1919 d039 e1a5 0a3a 61ad 0d39
00000040: 9ca2 c03a 085b c038 78f5 b539 f021 9a39
00000050: 0040 b539 2e59 4639 32bd 133a a0fd 9e39
00000060: b8c7 8438 ce1b d638 11be 5b38 96a1 8838
00000070: 5962 cb39 ca3b ac38 41a6 e938 52b0 d738
00000080: f81d 073a 2b33 8e39 8a96 063a adca fd38
00000090: 8aa8 c839 cfbb 013a 3b4e 063a cac3 9039
000000a0: 5dcc 9d35 a72b b836 0cbd c43a 20c5 7b39
000000b0: e5d3 c938 3282 cb38 3121 0e3a 39ba 963a
000000c0: a8e0 2f38 c49f 0539 03a3 d139 c392 3339
000000d0: 811e 093a fd3a a336 ae4a c139 51f8 0b39
000000e0: 6e44 0a3a 0a23 5a39 5b30 6538 086b 8338
000000f0: 785a c438 55a2 bb39 dd36 7a39 baaf a339
0.00020652202 0.00033624205 1.7850902e-05 0.00671218 0.00011104868 0.00023345344 0.000115503826 5.872212e-07
0.00025524938 0.0006312141 4.95444e-07 0.0002917445 0.00021227296 0.0003969155 0.0005289 0.00013511397
0.0014696899 9.172229e-05 0.000347059 0.00029398454 0.00034570694 0.00018915973 0.0005635797 0.00030325074
6.331451e-05 0.00010209494 5.2390682e-05 6.515083e-05 0.00038792452 8.212736e-05 0.00011141273 0.00010284841
0.0005154307 0.00027122474 0.00051341264 0.000121017314 0.00038272544 0.0004948945 0.00051233516 0.00027611695
1.1756889e-06 5.488709e-06 0.0015009954 0.0002401066 9.623895e-05 9.704045e-05 0.0005421816 0.001149959
4.193248e-05 0.00012743386 0.0003998504 0.00017125443 0.00052306807 4.8646457e-06 0.0003686747 0.00013348578
0.0005274479 0.00020803153 5.464289e-05 6.266503e-05 9.3628594e-05 0.00035788366 0.00023862296 0.0003122071

cpu f4 [64]
00000000: 0000 0000 0000 0000 0000 0000 0000 0000
00000010: 0000 0000 0000 0000 0000 0000 0000 0000
00000020: 0000 0000 0000 0000 0000 0000 0000 0000
00000030: 0000 0000 0000 0000 0000 0000 0000 0000
00000040: 0000 0000 0000 0000 0000 0000 0000 0000
00000050: 0000 0000 0000 0000 0000 0000 0000 0000
00000060: 0000 0000 0000 0000 0000 0000 0000 0000
00000070: 0000 0000 0000 0000 0000 0000 0000 0000
00000080: 0000 0000 0000 0000 0000 0000 0000 0000
00000090: 0000 0000 0000 0000 0000 0000 0000 0000
000000a0: 0000 0000 0000 0000 0000 0000 0000 0000
000000b0: 0000 0000 0000 0000 0000 0000 0000 0000
000000c0: 0000 0000 0000 0000 0000 0000 0000 0000
000000d0: 0000 0000 0000 0000 0000 0000 0000 0000
000000e0: 0000 0000 0000 0000 0000 0000 0000 0000
000000f0: 0000 0000 0000 0000 0000 0000 0000 0000
0.0 0.0 0.0 0.0 0.0 0.0 0.0 0.0
0.0 0.0 0.0 0.0 0.0 0.0 0.0 0.0
0.0 0.0 0.0 0.0 0.0 0.0 0.0 0.0
0.0 0.0 0.0 0.0 0.0 0.0 0.0 0.0
0.0 0.0 0.0 0.0 0.0 0.0 0.0 0.0
0.0 0.0 0.0 0.0 0.0 0.0 0.0 0.0
0.0 0.0 0.0 0.0 0.0 0.0 0.0 0.0
0.0 0.0 0.0 0.0 0.0 0.0 0.0 0.0

cpu f4 [64]
00000000: 0000 0000 0000 0000 0000 0000 0000 0000
00000010: 0000 0000 0000 0000 0000 0000 0000 0000
00000020: 0000 0000 0000 0000 0000 0000 0000 0000
00000030: 0000 0000 0000 0000 0000 0000 0000 0000
00000040: 0000 0000 0000 0000 0000 0000 0000 0000
00000050: 0000 0000 0000 0000 0000 0000 0000 0000
00000060: 0000 0000 0000 0000 0000 0000 0000 0000
00000070: 0000 0000 0000 0000 0000 0000 0000 0000
00000080: 0000 0000 0000 0000 0000 0000 0000 0000
00000090: 0000 0000 0000 0000 0000 0000 0000 0000
000000a0: 0000 0000 0000 0000 0000 0000 0000 0000
000000b0: 0000 0000 0000 0000 0000 0000 0000 0000
000000c0: 0000 0000 0000 0000 0000 0000 0000 0000
000000d0: 0000 0000 0000 0000 0000 0000 0000 0000
000000e0: 0000 0000 0000 0000 0000 0000 0000 0000
000000f0: 0000 0000 0000 0000 0000 0000 0000 0000
0.0 0.0 0.0 0.0 0.0 0.0 0.0 0.0
0.0 0.0 0.0 0.0 0.0 0.0 0.0 0.0
0.0 0.0 0.0 0.0 0.0 0.0 0.0 0.0
0.0 0.0 0.0 0.0 0.0 0.0 0.0 0.0
0.0 0.0 0.0 0.0 0.0 0.0 0.0 0.0
0.0 0.0 0.0 0.0 0.0 0.0 0.0 0.0
0.0 0.0 0.0 0.0 0.0 0.0 0.0 0.0
0.0 0.0 0.0 0.0 0.0 0.0 0.0 0.0

weight f4 [64]
00000000: 562e 773d bc89 933d 225b db3e cf32 733d
00000010: 939e 5c3d 17dc 0e3e 4093 9a3d c0d7 a13e
00000020: feee 433e 5fdd e73d 79af 583d 6fa8 1d3f
00000030: 4adb 893d 0b60 d73d 27fe 053f 0450 243f
00000040: 54c8 033f 2e9f ba3e 5839 7a3d 7d21 773e
00000050: b85c 423e 3a81 8a3e 11d6 123f ad47 ef3d
00000060: 68ec 203e 4da9 693d 88b4 723d 786b 473e
00000070: 34ab 223d 25b8 d43d 972a 083f 8571 083e
00000080: d1d1 7b3e 7f93 c53d 4d22 6b3d 661b 323d
00000090: 26f0 573d b79b 313d d55e 713e 0ed8 2e3d
000000a0: b187 ee3e 409a ee3e de93 973e 9003 f53d
000000b0: d066 363d 456e 4f3f bec8 263e 0c71 253d
000000c0: 185d 683d 08ec 553f 5888 a23d 12c5 773e
000000d0: 0721 353d cf1e 943d d149 2f3e c404 aa3e
000000e0: cd24 aa3e 8d20 403f 1c7f 203d 3365 1c3f
000000f0: 3d77 163f 0db7 3d3e 38cd 2e3f 5653 9b3e
0.060346924 0.07204005 0.42842966 0.059374627 0.053862166 0.13951145 0.07547617 0.31609917
0.19134137 0.1132152 0.05290172 0.61585134 0.06731279 0.105163656 0.5234093 0.64184594
0.5147755 0.3644957 0.061089844 0.24133869 0.18980682 0.27051717 0.5735789 0.11683593
0.15715182 0.057046223 0.0592542 0.1947459 0.039714053 0.10386685 0.53189987 0.13324554
0.24591757 0.09647273 0.05740576 0.04348316 0.052719258 0.043361392 0.23571332 0.042686515
0.465879 0.46602058 0.29605 0.1196357 0.044531643 0.8102763 0.16287515 0.040391013
0.056729406 0.8356328 0.07936162 0.2419627 0.04422095 0.07232439 0.17118002 0.3320676
0.33231202 0.7504967 0.03918372 0.6109192 0.58775693 0.1852686 0.6828189 0.30337018

bias f4 [64]
00000000: aacd 2dbe ca01 883b 00d4 623e c1c9 b83b
00000010: 2bd5 063c 5033 3e3d 0ae1 36be aaaa 6a3d
00000020: ddeb 87be be2a 6d3d 6534 723c e956 fabd
00000030: e4ae a83a 7395 dbbb 7652 94be ff56 173d
00000040: 387d 43be 223a e9bc 0036 6bbd ae4f 6ebe
00000050: 280e ee3d d4a2 37bd e043 3ebe 0348 c43c
00000060: 6121 c9be 9972 ee3b 9ce2 5abc 069f 4fbe
00000070: d7de 3fbb bd08 a3bd 356a 8cbd d457 153d
00000080: fce7 20bd a084 983d 1ea7 32bd aa93 e4b8
00000090: db4f 453c 17a1 f7bb 649d 30bc f3d6 513b
000000a0: 77c7 aabe 68a4 3a3e 9623 46be 8aea 2cbe
000000b0: 2baf 1dbd a9d1 ffbe 1f62 de3c ba52 e439
000000c0: 6aa8 39bd 45fb 0fbf f648 01bf 1bd4 153e
000000d0: bac0 c43b 5719 b6ba 5b28 63be 3c4a 12be
000000e0: 4ba0 263e cd31 58bb 2c9f 203a abc8 0a3d
000000f0: a87d 1fbd c761 adbd f83b 3ebd 6391 10bf
-0.16972986 0.004150604 0.22151184 0.0056392853 0.008229534 0.046435654 -0.17859283 0.057291664
-0.26547137 0.05790209 0.014783 -0.12223608 0.0012869504 -0.0067011653 -0.28969163 0.0369482
-0.19090736 -0.028470103 -0.057424545 -0.23272583 0.11623794 -0.04483302 -0.1858058 0.02396012
-0.3928328 0.0072768447 -0.013359692 -0.20275506 -0.002927711 -0.07960651 -0.06856195 0.036460713
-0.039283738 0.07447171 -0.043616407 -0.00010899392 0.012042965 -0.007557045 -0.010779712 0.003201899
-0.33355305 0.18226779 -0.19349512 -0.16886345 -0.03849713 -0.49964646 0.027146397 0.00043549185
-0.045326628 -0.5624278 -0.50501955 0.14631693 0.00600442 -0.001389305 -0.22183363 -0.1428613
0.16272084 -0.0032988668 0.0006127234 0.03388278 -0.038938195 -0.08465915 -0.04644391 -0.5647184

running_mean f4 [64]
00000000: 78dc d3bb 4528 22bc e226 323e 1f24 043c
00000010: 0108 083c 6c22 c03c 0017 30bc 90a2 333d
00000020: de71 12bc 4a3f 9dbb fae2 6d3b 285b 1fbe
00000030: 9ac2 053c 88f8 ecbb d247 1c3e 4380 0abd
00000040: 9bca 70bb 8bbd b0bd 2cdf 63bc ac7f 8abe
00000050: 2af4 e83b 36c7 183d ab80 11be 90cb b2ba
00000060: 674a 59bd 300f df3b 25ed 923b b2cb b1bd
00000070: 1d5b 553b 9b10 123c 3ea0 d83d 0000 09bd
00000080: c9c9 25be deee d4bc c438 463c 8406 16bc
00000090: ce9c 4e3c a279 f6bb 0a0f 58bd 4b72 b43b
000000a0: 874c 17be b88b 183d 990f c0bd 3d62 e5bc
000000b0: f3d7 5a3b 26ce ea3c dc62 323d 85fe 8639
000000c0: a624 d7bc 5456 17be 8be8 c6bd 5246 cd3d
000000d0: 258b 933b db4d b53b 4c2a 1cbd e20d 96bd
000000e0: 5f9b 933d 3b15 80be 52bc 693b e4e3 68bd
000000f0: 0465 bf3b 72ce 1fbd 410b e3bd aa80 7fbd
-0.006465491 -0.009897296 0.17397645 0.008065253 0.0083026895 0.023453914 -0.010747671 0.043856204
-0.008938281 -0.0047988044 0.0036298619 -0.15562117 0.008164072 -0.0072317757 0.15261772 -0.033813726
-0.0036741856 -0.086299025 -0.013908189 -0.2705053 0.0071091847 0.037299357 -0.14209239 -0.0013640989
-0.05304947 0.0068072304 0.0044838362 -0.0868143 0.0032555528 0.008915092 0.10577439 -0.033447266
-0.16190256 -0.025992807 0.012098495 -0.009156827 0.012610627 -0.007521824 -0.052748717 0.005506789
-0.14775287 0.03724262 -0.09377975 -0.028000945 0.0033392876 0.028662752 0.04355131 0.00025748104
-0.026262593 -0.14779025 -0.09712323 0.10023178 0.0045026713 0.0055329627 -0.038126275 -0.07326867
0.07207369 -0.25016198 0.0035665226 -0.05685796 0.0058408994 -0.03901524 -0.11086131 -0.062378563

running_var f4 [64]
00000000: 52bd 9039 d226 7a38 bc45 d63c 959c 2638
00000010: 3304 c937 d5ad ab3a 0a9d 5f3a 8af4 743b
00000020: 3df4 bb3b cf59 903a 9463 0838 b0ae b43c
00000030: ddb1 2c39 66d4 053a d8d0 a13c a6b1 603d
00000040: 8230 633d 4286 6e3c 698e ad3a 60bf f53d
00000050: ed07 b93b 6676 ce3b 4f44 423c aa66 a23a
00000060: a3d6 7b3b e4b0 9c38 4959 1839 62df 133b
00000070: 48e1 f537 e9d8 ed38 c0a1 8c3d e1f6 dd39
00000080: c7a1 d53a ceb1 f339 3a07 9939 c1c4 8b37
00000090: 9bbb fa37 8a01 ad37 7c3c 263b 4f1e 7937
000000a0: 1507 7f3c e340 ed3c c492 063b e987 353a
000000b0: 2110 0f39 a148 433d d494 f03a 2031 4a38
000000c0: 0d6d ba37 5cf3 063d 7b11 003c ec87 c63c
000000d0: c39e 4838 3ecf 5a39 749c 3c3c a5b9 1e3c
000000e0: 2466 1c3d f509 1f3d 8e11 8f36 666a af3d
000000f0: f9e1 2c3d ae07 0d3b 5077 1f3d 4528 b83c
0.00027606875 5.96408e-05 0.026156299 3.9723313e-05 2.3963023e-05 0.0013098071 0.00085301755 0.0037377202
0.0057359026 0.0011013093 3.2517666e-05 0.022055954 0.00016469457 0.0005105197 0.019752905 0.05485692
0.055466183 0.014558377 0.0013241294 0.119993925 0.005646697 0.0063007353 0.011857106 0.0012390215
0.0038427494 7.471608e-05 0.00014529111 0.0022563566 2.931118e-05 0.00011341443 0.06866789 0.00042336344
0.0016298824 0.00046481047 0.00029187818 1.6661712e-05 2.9889683e-05 2.0623924e-05 0.0025365641 1.4848613e-05
0.015565653 0.028961604 0.0020534256 0.0006924854 0.00013643551 0.047676686 0.0018354901 4.8206304e-05
2.2223709e-05 0.03294693 0.007816668 0.024234734 4.7831574e-05 0.00020867304 0.011511911 0.009687816
0.038183346 0.038827855 4.2637757e-06 0.08565216 0.04220769 0.002151947 0.038932145 0.02248014

cpu f4 [64]
00000000: 0000 0000 0000 0000 0000 0000 0000 0000
00000010: 0000 0000 0000 0000 0000 0000 0000 0000
00000020: 0000 0000 0000 0000 0000 0000 0000 0000
00000030: 0000 0000 0000 0000 0000 0000 0000 0000
00000040: 0000 0000 0000 0000 0000 0000 0000 0000
00000050: 0000 0000 0000 0000 0000 0000 0000 0000
00000060: 0000 0000 0000 0000 0000 0000 0000 0000
00000070: 0000 0000 0000 0000 0000 0000 0000 0000
00000080: 0000 0000 0000 0000 0000 0000 0000 0000
00000090: 0000 0000 0000 0000 0000 0000 0000 0000
000000a0: 0000 0000 0000 0000 0000 0000 0000 0000
000000b0: 0000 0000 0000 0000 0000 0000 0000 0000
000000c0: 0000 0000 0000 0000 0000 0000 0000 0000
000000d0: 0000 0000 0000 0000 0000 0000 0000 0000
000000e0: 0000 0000 0000 0000 0000 0000 0000 0000
000000f0: 0000 0000 0000 0000 0000 0000 0000 0000
0.0 0.0 0.0 0.0 0.0 0.0 0.0 0.0
0.0 0.0 0.0 0.0 0.0 0.0 0.0 0.0
0.0 0.0 0.0 0.0 0.0 0.0 0.0 0.0
0.0 0.0 0.0 0.0 0.0 0.0 0.0 0.0
0.0 0.0 0.0 0.0 0.0 0.0 0.0 0.0
0.0 0.0 0.0 0.0 0.0 0.0 0.0 0.0
0.0 0.0 0.0 0.0 0.0 0.0 0.0 0.0
0.0 0.0 0.0 0.0 0.0 0.0 0.0 0.0

cpu f4 [64]
00000000: 0000 0000 0000 0000 0000 0000 0000 0000
00000010: 0000 0000 0000 0000 0000 0000 0000 0000
00000020: 0000 0000 0000 0000 0000 0000 0000 0000
00000030: 0000 0000 0000 0000 0000 0000 0000 0000
00000040: 0000 0000 0000 0000 0000 0000 0000 0000
00000050: 0000 0000 0000 0000 0000 0000 0000 0000
00000060: 0000 0000 0000 0000 0000 0000 0000 0000
00000070: 0000 0000 0000 0000 0000 0000 0000 0000
00000080: 0000 0000 0000 0000 0000 0000 0000 0000
00000090: 0000 0000 0000 0000 0000 0000 0000 0000
000000a0: 0000 0000 0000 0000 0000 0000 0000 0000
000000b0: 0000 0000 0000 0000 0000 0000 0000 0000
000000c0: 0000 0000 0000 0000 0000 0000 0000 0000
000000d0: 0000 0000 0000 0000 0000 0000 0000 0000
000000e0: 0000 0000 0000 0000 0000 0000 0000 0000
000000f0: 0000 0000 0000 0000 0000 0000 0000 0000
0.0 0.0 0.0 0.0 0.0 0.0 0.0 0.0
0.0 0.0 0.0 0.0 0.0 0.0 0.0 0.0
0.0 0.0 0.0 0.0 0.0 0.0 0.0 0.0
0.0 0.0 0.0 0.0 0.0 0.0 0.0 0.0
0.0 0.0 0.0 0.0 0.0 0.0 0.0 0.0
0.0 0.0 0.0 0.0 0.0 0.0 0.0 0.0
0.0 0.0 0.0 0.0 0.0 0.0 0.0 0.0
0.0 0.0 0.0 0.0 0.0 0.0 0.0 0.0

weight f4 [64]
00000000: b6f1 983d 2d99 453e 1d8f ad3d 5326 3b3e
00000010: cff6 a63e c1c8 923e b3e0 623d c5aa 9a3e
00000020: e1ab 003e a420 8a3e 73f5 9e3e f2cf 093f
00000030: 236a c83e 8f53 a93e 9b29 323f a106 9e3e
00000040: 6ad7 283f 8d49 0d3f a16d 783e 9ac5 cb3e
00000050: 1a21 ed3e e4c7 4c3e 2060 8d3e fc59 133f
00000060: 4739 813e 37cf af3e 04ac 173e eaef a03e
00000070: df9f 383e 0dbf 8c3e 11ca 3d3e 83ab e33e
00000080: eddc 033f ccf3 883e 2e09 243e c9c0 243e
00000090: a2ed 1c3f e12c b53e 7a9d e73e 4a99 c73e
000000a0: fbc8 363f 2364 9f3e d488 5f3e e1a6 623e
000000b0: 950f a93e c421 dd3e 8d7c 163e 0aac ea3e
000000c0: 2448 b93e 387f 083f e238 9f3e bb64 c73e
000000d0: 9684 953e 2aa4 863e 894f eb3e 3a55 233e
000000e0: 3502 753e d5f2 f23d 928c 8a3e fbb0 d43e
000000f0: 618f dd3e e0e8 9d3e b01b a63e 77de 363d
0.07467978 0.19296713 0.08474562 0.18276338 0.32610175 0.28668788 0.05539007 0.30208412
0.12565567 0.26978028 0.31046638 0.53832924 0.39143476 0.33071563 0.69594735 0.30864432
0.65953696 0.55190355 0.2426057 0.39799196 0.46314317 0.19998127 0.276124 0.5755918
0.25239012 0.3433778 0.14811713 0.3143304 0.18029736 0.2748951 0.18534113 0.4446679
0.5150898 0.26748502 0.16019127 0.16089167 0.613001 0.35385802 0.45237333 0.38984138
0.7140042 0.31131086 0.2182954 0.22133972 0.330197 0.43189824 0.1469595 0.4583438
0.3618785 0.5331912 0.31098086 0.3894404 0.29202718 0.26297122 0.45959118 0.1595048
0.23926623 0.11862723 0.27060372 0.41541275 0.43273452 0.30841732 0.32443 0.044645753

bias f4 [64]
00000000: b44a 80bd d9e2 9fbc 537d 73bd 6b19 ae3b
00000010: 2f9c 9a3d d2d7 bcbc 752b c43b 385d 313d
00000020: 349a 5d3b 53aa a53d 55b6 8a3d e0e3 fcbd
00000030: ad57 26bd 6111 a2bd 42dc bdbe 636a 21be
00000040: 4ad1 9bbe c7f0 22be 1ed5 f7bd f510 01be
00000050: 7ff3 0dbe 754f 363d b9b7 eabc 8566 cabe
00000060: a744 a33c a7e7 2fbb 617b e03c 9524 2fbd
00000070: 4a5c 41bd 9fc5 7f3d 17dd 6c3d 484b 65bc
00000080: 5063 3fbd 29a4 7cbc c966 c8bd fcc9 8e3c
00000090: dcd8 abbd 6508 91bd 9b83 b5bc 3d12 163b
000000a0: 5bb6 e6bd 30e5 3ebe 1422 37be d505 eb3c
000000b0: 1a16 efbc 39ea 43be 682b 07bc e3f3 fdbd
000000c0: 10a9 aabd f9c8 3cbe 2139 32bd 47e5 3bbe
000000d0: dc7b 33bd 99b6 b93c ebff c7bd cd64 00bd
000000e0: f33d 2ebd 42f7 2f3e 31c7 3abd 2177 ffbd
000000f0: 0a18 97bd 75e7 db39 5d7b cdbc 1382 3f3a
-0.062642485 -0.01951735 -0.05944569 0.0053130887 0.07549321 -0.02305213 0.005986626 0.04330179
0.0033813836 0.080891274 0.06773058 -0.12348151 -0.040610958 -0.07913471 -0.37082106 -0.1576324
-0.30433112 -0.15912162 -0.12101196 -0.12604125 -0.13862418 0.04450937 -0.028652059 -0.3953134
0.019930197 -0.0026840956 0.027402582 -0.042759497 -0.047207154 0.062444326 0.057828035 -0.013994999
-0.04672557 -0.015419998 -0.0978523 0.017430298 -0.08390972 -0.07081679 -0.022157481 0.0022899054
-0.1126525 -0.18642116 -0.17884094 0.028689304 -0.029185344 -0.19132318 -0.008250095 -0.12400033
-0.08333027 -0.1843604 -0.043511514 -0.18349181 -0.043819293 0.022670077 -0.09765609 -0.03134613
-0.042539548 0.17184165 -0.04560012 -0.12473894 -0.07377632 0.00041943384 -0.025083238 0.00073054543

running_mean f4 [64]
00000000: 792d 0d3c accc f53b ce18 d8b8 c94e b73c
00000010: 6828 7cbc 97b4 843b a4f3 363a a912 e83c
00000020: 62d8 cfbc ed69 293d 5e24 403d 5c54 8abc
00000030: 253e 983c c068 5d39 616f a3bd 7811 05bd
00000040: d1cd ef3d b7f0 40bc 92a8 0bbc 1c13 82bc
00000050: da03 d03c 7692 7c3b 6634 333d c671 bc3d
00000060: cc6e 1b3d 14b2 12bd ee04 713c e91c 87bc
00000070: 8746 c5bc 4d1d e53c f5d5 31bd ab89 523d
00000080: 1c2b 8cbc b7e1 e63c 5722 4bbb da9c fb3a
00000090: a598 913d 2514 833c bc50 193d 16d4 26bd
000000a0: 6ef1 063e 2a26 1cbc a882 dc3b c0ad d33c
000000b0: 5893 29ba ccfd f03c 09b1 603c 06c3 33bd
000000c0: 1757 463c b6e9 16bd f771 afbc e6cd 06bd
000000d0: fd87 0dbc 91d6 873a 0532 a63d cf12 ebbc
000000e0: bec2 253c 0623 0e3c d5e4 5c3d c6f3 74bd
000000f0: d864 923c a707 82bb b456 ce3c e8a9 233b
0.008616799 0.0075012054 -0.00010304303 0.022376435 -0.015390493 0.0040498483 0.00069790543 0.02832921
-0.025371734 0.041360784 0.046909682 -0.016885929 0.01858432 0.00021115225 -0.07980228 -0.032487363
0.11709178 -0.011776141 -0.008524077 -0.015878253 0.025392462 0.0038539446 0.043751143 0.09201388
0.03794746 -0.03581436 0.014710648 -0.016493278 -0.024081482 0.027968073 -0.043416936 0.05140082
-0.0171104 0.028183801 -0.003099581 0.0019196526 0.07109193 0.016000817 0.03743051 -0.040729605
0.13178036 -0.009530583 0.0067294426 0.025839686 -0.00064687943 0.029417895 0.0137140835 -0.04388716
0.012105725 -0.036843978 -0.021416647 -0.032911204 -0.008638379 0.0010363628 0.08115009 -0.028695492
0.010117231 0.008675342 0.05392917 -0.059802793 0.017870352 -0.0039681974 0.025187828 0.0024973098

running_var f4 [64]
00000000: f650 1239 ae7b 1b3b de62 8e38 0509 093b
00000010: ae74 f53b 97b9 073c 5960 8f38 77e5 873b
00000020: 27d4 7b39 af04 6f3c 2d57 c63b 37f4 f33b
00000030: f737 863c f6d7 053c b1d8 543c 157a f53b
00000040: e24e de3c 1480 353c 6ffc c13a f421 3e3b
00000050: e854 433c 03d7 d73a 2f67 1f3b 5123 5f3c
00000060: ef64 f43a fffd 1e3b 9b8c e639 e972 d73a
00000070: 4631 ee39 3984 d23b ee46 8c3a c378 523c
00000080: a674 d83c e862 473c 37ee 2f3a 0f1d 863a
00000090: 5b93 5b3c 0dc3 293c a3be d73b f155 563b
000000a0: 81cd a53c d786 133c 6df7 273c 0489 363b
000000b0: a499 a33b e4b1 083c bf6e 283a 93a9 173c
000000c0: 6b88 d73b b221 343c a27c 063c 184d 863b
000000d0: c683 7d3b ee92 f13b 677f df3b eb62 123a
000000e0: 1788 d03b 3362 283b 201b df3a c213 d53b
000000f0: ac5e a83c 6d38 033c 4272 cc3c f2cb 5037
0.00013953805 0.0023724842 6.789503e-05 0.0020909917 0.007490716 0.008283994 6.8367175e-05 0.0041472274
0.00024016258 0.014588519 0.0060528726 0.007444884 0.016384108 0.008169165 0.012991116 0.00749136
0.027137224 0.0110778995 0.0014799963 0.0029011937 0.011922099 0.0016467277 0.0024322977 0.01361926
0.0018645803 0.002426028 0.00043973778 0.0016437444 0.0004543161 0.0064244536 0.0010702291 0.012846175
0.02642281 0.012169577 0.0006711217 0.0010232049 0.0134018315 0.010361445 0.006584005 0.0032705034
0.020239593 0.009004316 0.010251862 0.0027852664 0.0049926806 0.008343194 0.0006425194 0.009256738
0.0065775416 0.010994362 0.008208426 0.0040985458 0.003868328 0.0073722517 0.0068206075 0.0005584198
0.0063638794 0.0025693297 0.0017021634 0.0065025995 0.020552956 0.008009058 0.024956826 1.2445251e-05

cpu f4 [64]
00000000: 0000 0000 0000 0000 0000 0000 0000 0000
00000010: 0000 0000 0000 0000 0000 0000 0000 0000
00000020: 0000 0000 0000 0000 0000 0000 0000 0000
00000030: 0000 0000 0000 0000 0000 0000 0000 0000
00000040: 0000 0000 0000 0000 0000 0000 0000 0000
00000050: 0000 0000 0000 0000 0000 0000 0000 0000
00000060: 0000 0000 0000 0000 0000 0000 0000 0000
00000070: 0000 0000 0000 0000 0000 0000 0000 0000
00000080: 0000 0000 0000 0000 0000 0000 0000 0000
00000090: 0000 0000 0000 0000 0000 0000 0000 0000
000000a0: 0000 0000 0000 0000 0000 0000 0000 0000
000000b0: 0000 0000 0000 0000 0000 0000 0000 0000
000000c0: 0000 0000 0000 0000 0000 0000 0000 0000
000000d0: 0000 0000 0000 0000 0000 0000 0000 0000
000000e0: 0000 0000 0000 0000 0000 0000 0000 0000
000000f0: 0000 0000 0000 0000 0000 0000 0000 0000
0.0 0.0 0.0 0.0 0.0 0.0 0.0 0.0
0.0 0.0 0.0 0.0 0.0 0.0 0.0 0.0
0.0 0.0 0.0 0.0 0.0 0.0 0.0 0.0
0.0 0.0 0.0 0.0 0.0 0.0 0.0 0.0
0.0 0.0 0.0 0.0 0.0 0.0 0.0 0.0
0.0 0.0 0.0 0.0 0.0 0.0 0.0 0.0
0.0 0.0 0.0 0.0 0.0 0.0 0.0 0.0
0.0 0.0 0.0 0.0 0.0 0.0 0.0 0.0

weight f4 [64]
00000000: 785c 013d 6922 c13c 874c 433b cbe2 093d
00000010: caaf 623e 370c 453d 6e16 263d c5b7 273d
00000020: 14fa 293d 7cfb 993e 76ec aebc d9b4 423e
00000030: b694 93be 44b6 0abd 112a 233e db0a 553d
00000040: e520 813e 80c8 673e c5f9 be3b b361 923d
00000050: ddda aabd 440e 4abd 362c 973a 0804 333c
00000060: dcee 0c3d 14c9 0f3e 2bcc 303d 30fb 8abd
00000070: 2560 54bc f790 043e 4ba5 37bc 7fff 25be
00000080: a48b b2bd e257 33bd a56d 25bd eddb 313d
00000090: abb4 7abe 5efb febc 334f 9cbd 1324 103e
000000a0: 0da1 dcbd d1e6 093d 7165 423c ec0b 403c
000000b0: a998 0b3e d1d1 efbc f455 043d c0a2 503e
000000c0: 4573 87bd 519e ef3d 9a37 cfbd 8390 cf3d
000000d0: 270c 24b8 0051 d8bc 93ff ec3d 2947 983d
000000e0: 5955 203d 2599 743e a987 aebd 8bba 0bbe
000000f0: 9d15 97bc 380a 20bd 978c dc3d 2980 323d
0.031582326 0.023575978 0.0029800253 0.033663552 0.2213737 0.048107352 0.040548734 0.04094674
0.04149826 0.3007468 -0.021352988 0.190143 -0.28824395 -0.03386523 0.15934016 0.052012306
0.2522041 0.22635078 0.0058281147 0.07147541 -0.08342526 -0.04933001 0.0011533562 0.010926254
0.03440748 0.14041549 0.04316346 -0.067861915 -0.012962376 0.12945925 -0.0112088425 -0.16210745
-0.087180406 -0.043784983 -0.04038777 0.04342263 -0.24482982 -0.03112572 -0.076322936 0.14076261
-0.107729055 0.03366739 0.011865006 0.011721592 0.13632454 -0.029274853 0.032308534 0.20374584
-0.06613783 0.11700118 -0.10118027 0.10134985 -3.9111965e-05 -0.026405811 0.115721844 0.07435448
0.039143894 0.23886545 -0.08521969 -0.13645379 -0.018442923 -0.039072245 0.10769003 0.043579254

bias f4 [64]
00000000: b44a 80bd d9e2 9fbc 537d 73bd 6b19 ae3b
00000010: 2f9c 9a3d d2d7 bcbc 752b c43b 385d 313d
00000020: 349a 5d3b 53aa a53d 55b6 8a3d e0e3 fcbd
00000030: ad57 26bd 6111 a2bd 42dc bdbe 636a 21be
00000040: 4ad1 9bbe c7f0 22be 1ed5 f7bd f510 01be
00000050: 7ff3 0dbe 754f 363d b9b7 eabc 8566 cabe
00000060: a744 a33c a7e7 2fbb 617b e03c 9524 2fbd
00000070: 4a5c 41bd 9fc5 7f3d 17dd 6c3d 484b 65bc
00000080: 5063 3fbd 29a4 7cbc c966 c8bd fcc9 8e3c
00000090: dcd8 abbd 6508 91bd 9b83 b5bc 3d12 163b
000000a0: 5bb6 e6bd 30e5 3ebe 1422 37be d505 eb3c
000000b0: 1a16 efbc 39ea 43be 682b 07bc e3f3 fdbd
000000c0: 10a9 aabd f9c8 3cbe 2139 32bd 47e5 3bbe
000000d0: dc7b 33bd 99b6 b93c ebff c7bd cd64 00bd
000000e0: f33d 2ebd 42f7 2f3e 31c7 3abd 2177 ffbd
000000f0: 0a18 97bd 75e7 db39 5d7b cdbc 1382 3f3a
-0.062642485 -0.01951735 -0.05944569 0.0053130887 0.07549321 -0.02305213 0.005986626 0.04330179
0.0033813836 0.080891274 0.06773058 -0.12348151 -0.040610958 -0.07913471 -0.37082106 -0.1576324
-0.30433112 -0.15912162 -0.12101196 -0.12604125 -0.13862418 0.04450937 -0.028652059 -0.3953134
0.019930197 -0.0026840956 0.027402582 -0.042759497 -0.047207154 0.062444326 0.057828035 -0.013994999
-0.04672557 -0.015419998 -0.0978523 0.017430298 -0.08390972 -0.07081679 -0.022157481 0.0022899054
-0.1126525 -0.18642116 -0.17884094 0.028689304 -0.029185344 -0.19132318 -0.008250095 -0.12400033
-0.08333027 -0.1843604 -0.043511514 -0.18349181 -0.043819293 0.022670077 -0.09765609 -0.03134613
-0.042539548 0.17184165 -0.04560012 -0.12473894 -0.07377632 0.00041943384 -0.025083238 0.00073054543

running_mean f4 [64]
00000000: 1947 fd3b 978f 2bbc fbba 33bc 44a1 a83b
00000010: 9ac8 5fbc 95a5 dcbb 04eb 8c3b 0a86 c1bb
00000020: 7065 d23b 122c 903c 93f9 583b e926 50bc
00000030: 72fb 813c c604 e8bb e257 413c 458a cebb
00000040: 65fd 71bc d9a2 59bc fef7 49bb b7c8 7cbb
00000050: 9c36 0fbc 3de1 373c d407 c3bb 1c60 1d3b
00000060: f082 ef3b ae3d 2abc 1fc8 0d3c 6b4b 1c3c
00000070: ab26 13bc 29e3 453c a35b 31bc 58b3 4c3c
00000080: 21c7 393c 7f6e 2a3c fd50 8f3b a43d 1c3c
00000090: 4ec1 64bc 4e9e c0bb 969b 0a3c 4c42 33bc
000000a0: efa4 38bc 6e7f 013c 1125 363b 133e 3d3b
000000b0: 4dc0 40bc a41f b4bb f0bc 02bc b9fd 27bc
000000c0: 9f27 9abb 1c3e 0abc a2ae 333c 1ec8 2e3c
000000d0: 3e76 a7b9 020f ab3b 4e17 da3b 84e5 033c
000000e0: 1c28 1abc e98c 75bc ee9c 00bc 3cd8 78bc
000000f0: 23b4 8d3b 7ccb e63b df60 273c 5637 afbb
0.0077294228 -0.010471246 -0.010969873 0.0051461775 -0.013658667 -0.006733606 0.004300477 -0.0059058713
0.0064207837 0.01759914 0.0033107742 -0.012704589 0.015866969 -0.007080647 0.011800738 -0.006303104
-0.014769887 -0.013283455 -0.003081798 -0.0038571784 -0.008741047 0.011223135 -0.005951861 0.0024013584
0.00730931 -0.010390682 0.00865367 0.009539465 -0.008981387 0.012078085 -0.010825071 0.012493931
0.01133898 0.010402321 0.004373668 0.009536181 -0.013962103 -0.0058782464 0.008459946 -0.010941099
-0.011269792 0.007903917 0.002779309 0.002887611 -0.011764598 -0.005496936 -0.0079796165 -0.010253363
-0.0047044302 -0.00843766 0.010966929 0.010667829 -0.0003194082 0.005220295 0.00665561 0.008050326
-0.009408977 -0.014987209 -0.007849915 -0.015188273 0.0043244525 0.0070433 0.010215967 -0.0053471727

running_var f4 [64]
00000000: 87aa 9838 b817 0c39 9bc0 1939 c758 0738
00000010: 695c 6e39 bfb9 6738 e708 bd37 c741 3238
00000020: f5b1 5238 b8dd c539 c313 6037 6c39 4e39
00000030: 62d5 a039 041d 8038 cbec 3139 f30a 4b38
00000040: 8c5c 8b39 ee71 6139 7d27 4237 5312 9837
00000050: 363e c338 04ef 2039 430b 3538 4ac4 eb36
00000060: 8785 8838 f9f1 0939 ef5b bf38 1a8a e838
00000070: 9420 ce38 f962 3a39 56b8 1539 2a71 4739
00000080: ee45 2439 2141 0a39 2b86 c337 1961 e838
00000090: bf11 7939 df97 3038 2de3 b638 63f2 1839
000000a0: 4846 2239 0ca3 9f38 32e9 1d37 1775 2a37
000000b0: 38d6 3039 036d 1a38 9bb5 a238 c152 0639
000000c0: 3437 e237 d4ec b538 79ab 1939 ef66 1139
000000d0: 6f7a 0534 0546 0b38 7263 6238 179b a538
000000e0: a138 e238 277e 8f39 8576 9d38 645e 9339
000000f0: 0126 bf37 e787 7d38 6058 0539 3620 1238
7.279688e-05 0.00013360276 0.00014662968 3.226919e-05 0.00022731874 5.524768e-05 2.2534701e-05 4.2499767e-05
5.0233637e-05 0.0003773996 1.3356042e-05 0.00019667082 0.0003067656 6.10892e-05 0.00016968248 4.840917e-05
0.000265811 0.00021500114 1.1572495e-05 1.8128345e-05 9.309912e-05 0.0001534783 4.316425e-05 7.026397e-06
6.509857e-05 0.0001315548 9.124714e-05 0.000110883455 9.8289136e-05 0.00017775212 0.00014278418 0.00019020276
0.0001566631 0.00013184968 2.3308288e-05 0.00011080708 0.00023753101 4.210311e-05 8.720751e-05 0.00014586146
0.00015475706 7.612081e-05 9.412224e-06 1.0160052e-05 0.0001686447 3.6817986e-05 7.7585886e-05 0.00012810064
2.6967005e-05 8.674865e-05 0.00014655096 0.00013866623 1.2431131e-07 3.3205393e-05 5.3975215e-05 7.896701e-05
0.00010787068 0.00027369076 7.5084194e-05 0.0002810835 2.2786671e-05 6.044647e-05 0.0001271679 3.483911e-05

cpu f4 [64]
00000000: 0000 0000 0000 0000 0000 0000 0000 0000
00000010: 0000 0000 0000 0000 0000 0000 0000 0000
00000020: 0000 0000 0000 0000 0000 0000 0000 0000
00000030: 0000 0000 0000 0000 0000 0000 0000 0000
00000040: 0000 0000 0000 0000 0000 0000 0000 0000
00000050: 0000 0000 0000 0000 0000 0000 0000 0000
00000060: 0000 0000 0000 0000 0000 0000 0000 0000
00000070: 0000 0000 0000 0000 0000 0000 0000 0000
00000080: 0000 0000 0000 0000 0000 0000 0000 0000
00000090: 0000 0000 0000 0000 0000 0000 0000 0000
000000a0: 0000 0000 0000 0000 0000 0000 0000 0000
000000b0: 0000 0000 0000 0000 0000 0000 0000 0000
000000c0: 0000 0000 0000 0000 0000 0000 0000 0000
000000d0: 0000 0000 0000 0000 0000 0000 0000 0000
000000e0: 0000 0000 0000 0000 0000 0000 0000 0000
000000f0: 0000 0000 0000 0000 0000 0000 0000 0000
0.0 0.0 0.0 0.0 0.0 0.0 0.0 0.0
0.0 0.0 0.0 0.0 0.0 0.0 0.0 0.0
0.0 0.0 0.0 0.0 0.0 0.0 0.0 0.0
0.0 0.0 0.0 0.0 0.0 0.0 0.0 0.0
0.0 0.0 0.0 0.0 0.0 0.0 0.0 0.0
0.0 0.0 0.0 0.0 0.0 0.0 0.0 0.0
0.0 0.0 0.0 0.0 0.0 0.0 0.0 0.0
0.0 0.0 0.0 0.0 0.0 0.0 0.0 0.0

cpu f4 [128]
00000000: 0000 0000 0000 0000 0000 0000 0000 0000
00000010: 0000 0000 0000 0000 0000 0000 0000 0000
00000020: 0000 0000 0000 0000 0000 0000 0000 0000
00000030: 0000 0000 0000 0000 0000 0000 0000 0000
00000040: 0000 0000 0000 0000 0000 0000 0000 0000
00000050: 0000 0000 0000 0000 0000 0000 0000 0000
00000060: 0000 0000 0000 0000 0000 0000 0000 0000
00000070: 0000 0000 0000 0000 0000 0000 0000 0000
00000080: 0000 0000 0000 0000 0000 0000 0000 0000
00000090: 0000 0000 0000 0000 0000 0000 0000 0000
000000a0: 0000 0000 0000 0000 0000 0000 0000 0000
000000b0: 0000 0000 0000 0000 0000 0000 0000 0000
000000c0: 0000 0000 0000 0000 0000 0000 0000 0000
000000d0: 0000 0000 0000 0000 0000 0000 0000 0000
000000e0: 0000 0000 0000 0000 0000 0000 0000 0000
000000f0: 0000 0000 0000 0000 0000 0000 0000 0000
00000100: 0000 0000 0000 0000 0000 0000 0000 0000
00000110: 0000 0000 0000 0000 0000 0000 0000 0000
00000120: 0000 0000 0000 0000 0000 0000 0000 0000
00000130: 0000 0000 0000 0000 0000 0000 0000 0000
00000140: 0000 0000 0000 0000 0000 0000 0000 0000
00000150: 0000 0000 0000 0000 0000 0000 0000 0000
00000160: 0000 0000 0000 0000 0000 0000 0000 0000
00000170: 0000 0000 0000 0000 0000 0000 0000 0000
00000180: 0000 0000 0000 0000 0000 0000 0000 0000
00000190: 0000 0000 0000 0000 0000 0000 0000 0000
000001a0: 0000 0000 0000 0000 0000 0000 0000 0000
000001b0: 0000 0000 0000 0000 0000 0000 0000 0000
000001c0: 0000 0000 0000 0000 0000 0000 0000 0000
000001d0: 0000 0000 0000 0000 0000 0000 0000 0000
000001e0: 0000 0000 0000 0000 0000 0000 0000 0000
000001f0: 0000 0000 0000 0000 0000 0000 0000 0000
0.0 0.0 0.0 0.0 0.0 0.0 0.0 0.0
0.0 0.0 0.0 0.0 0.0 0.0 0.0 0.0
0.0 0.0 0.0 0.0 0.0 0.0 0.0 0.0
0.0 0.0 0.0 0.0 0.0 0.0 0.0 0.0
0.0 0.0 0.0 0.0 0.0 0.0 0.0 0.0
0.0 0.0 0.0 0.0 0.0 0.0 0.0 0.0
0.0 0.0 0.0 0.0 0.0 0.0 0.0 0.0
0.0 0.0 0.0 0.0 0.0 0.0 0.0 0.0
0.0 0.0 0.0 0.0 0.0 0.0 0.0 0.0
0.0 0.0 0.0 0.0 0.0 0.0 0.0 0.0
0.0 0.0 0.0 0.0 0.0 0.0 0.0 0.0
0.0 0.0 0.0 0.0 0.0 0.0 0.0 0.0
0.0 0.0 0.0 0.0 0.0 0.0 0.0 0.0
0.0 0.0 0.0 0.0 0.0 0.0 0.0 0.0
0.0 0.0 0.0 0.0 0.0 0.0 0.0 0.0
0.0 0.0 0.0 0.0 0.0 0.0 0.0 0.0

weight f4 [128]
00000000: ee5c 003e dd6a 143e 1731 643e f5dd 4a3e
00000010: 5587 6c3e 6bdb 253e 7553 c03e 2139 683e
00000020: cd39 e53d e3be 0b3e b7b2 4b3e 18c5 183e
00000030: 48de 523e 4f7a 413e 77b1 5b3e 8a81 833e
00000040: 62fd 483e a638 903e d9d6 a23e ea22 553e
00000050: 9c63 a13e 6b10 4a3e 5cbe 993e 8893 1b3e
00000060: 5d98 643e da5b 503e 3395 283e 9049 9b3e
00000070: 0726 a53e 315c 483e 4955 353e 6c17 8b3e
00000080: 5e52 5f3e 44e3 023e 416e 3e3e 25b9 603e
00000090: 01fa 313e 8580 2f3e cfc4 383e 0ef6 703e
000000a0: ebc2 213e cd93 093e e104 753e 96bd 243e
000000b0: 5a5c 4c3e 75a7 483e 5819 3e3e e5ad 693d
000000c0: a81d 003e 232e 123e b3ea 103e 1f5e 4f3e
000000d0: 0068 be3d fc4b 203e fd77 f33e 1c51 e23d
000000e0: 4475 6c3e d374 833e 1f50 6f3e 1e4c 2d3e
000000f0: e3db 2d3e b146 803e f374 4b3e 47c2 653e
00000100: b174 b33e dbe7 373e c1f8 483e 73b8 693e
00000110: fdaa 7d3e e570 273e dbab 4b3e 3a69 4f3e
00000120: 12ec 2c3e aba1 653e 4d57 5d3e 4060 443e
00000130: da41 0a3e 793e 563e ad37 4d3e 1a34 cb3d
00000140: d4df 383e 0ca0 a93e 2f81 ec3d e97b 0e3e
00000150: a516 573e c0a9 7b3e 72e8 a13e c0a8 4f3e
00000160: acb0 403e c79b 623e cec5 903e fe4a 783e
00000170: 1dfb 6c3e f39c 9d3d c440 f13d 17de 823e
00000180: 71cc e63d 28c4 213e f77b 103e cf8b 3c3e
00000190: 4ca3 873e c566 723e 7f0c 6a3e fbda 803e
000001a0: d05f b33e 1981 1b3e e87e 433e a791 383e
000001b0: f03b 843e 1712 603e 416d 843e a37e 613e
000001c0: 674a 643e 88b8 3d3e cc47 073e 2951 613e
000001d0: d4d2 333e 6a74 163e 0490 423e e90d 223e
000001e0: 69e3 843e 3489 383e 61cb 673e 5ed4 473e
000001f0: 89a0 633e 4891 923e 155f 863e 48f2 543e
0.1253545 0.1449389 0.22284351 0.19811232 0.230985 0.16196983 0.37563673 0.22678043
0.11192665 0.13647036 0.19892393 0.14918935 0.20592606 0.18894313 0.21454416 0.25684768
0.19627908 0.2816822 0.3180454 0.208141 0.31521308 0.19732825 0.30028045 0.15192997
0.22323747 0.20347539 0.16463165 0.3032956 0.32255575 0.19566418 0.17708315 0.27166307
0.21808764 0.12782007 0.18596746 0.21945627 0.17380525 0.1713887 0.18043827 0.23531362
0.15797012 0.13435288 0.23927642 0.16087946 0.19957104 0.1959513 0.18564355 0.057050604
0.12511313 0.14275412 0.1415203 0.20250748 0.0929718 0.15653986 0.4755248 0.11050627
0.23091608 0.25675067 0.23370408 0.16923568 0.16978411 0.25053933 0.19868831 0.22437392
0.35049966 0.1795954 0.19626142 0.22824268 0.24772258 0.1635166 0.19889776 0.20254984
0.16886929 0.22424953 0.21615334 0.19177341 0.13501683 0.20922269 0.2004077 0.09922047
0.18054134 0.3312992 0.11548077 0.13914455 0.21004732 0.24576473 0.31622654 0.20279217
0.18817395 0.22129737 0.28275913 0.24247357 0.23142667 0.07695951 0.11779931 0.25560066
0.11269463 0.15797484 0.14109789 0.18412708 0.26491773 0.23672016 0.2285633 0.2516707
0.35034037 0.15185966 0.1909138 0.18024312 0.2582698 0.218819 0.25864604 0.22020964
0.22294007 0.18527424 0.13210982 0.22003616 0.17560893 0.14692846 0.1900025 0.15825619
0.2595475 0.18021089 0.22636177 0.19514605 0.22229208 0.28626466 0.26244417 0.20795548

bias f4 [128]
00000000: c00e 5ebe de2b e8bc bda7 2e3d 1e01 84be
00000010: 314c 24be 0ea8 8fbe 8142 0ebe 28a1 12be
00000020: ef62 163d 01e7 8b3c c680 7b3c 4891 afbe
00000030: 5900 ee3b 9abb d0bd 6896 02be ec04 ab3b
00000040: aa1a ba3c a1c8 c1bd 6e92 2fbd 1226 9bbd
00000050: 35d0 2ebe 86d4 c8bd b2b8 ccbe 82ef 7fbd
00000060: 9ea8 adbd 5c2e 6dbe d03f 2d3d 4c01 56be
00000070: 08bf 67bd 14cb 02be 4b57 3abe 6bfd 18be
00000080: c25f efbd 9cb8 dfbd 9413 093d 3fd2 a3bd
00000090: af6e a8be 90b8 cabd fa64 583d 1031 b0bd
000000a0: 8de1 5bbc 3274 56bd c096 bbbd 40d8 39bc
000000b0: 422c 70bc 354c f6bd 37f1 47be 693b 95bb
000000c0: 5095 0cbe 5eb2 3cbd 7206 d3bd 303b f4bc
000000d0: 0865 c4bd 21ff e43c f07f 77be 22d3 22be
000000e0: ce25 d6bd c2f2 8fbd 0fb9 9b3b f0a7 e7bd
000000f0: 1952 19be 1dd5 39be a96a 0cbe 8df8 93bd
00000100: aa4e 44be 5c7e 653d 98b9 48bd b40d a6bd
00000110: 62fb c9be 87cb 35be 8101 1c3d 47ca 833b
00000120: 7577 6abd ebb4 5bbd 9386 7fbd 813e 13bd
00000130: 153f c23d b345 22bd 8d32 e1bd a3de f63c
00000140: a2fd cebd a987 01be 13aa 523d 6a43 33bd
00000150: 0a4f 54be 0e97 21bd b63b 63be fd74 16be
00000160: 1179 74bd fb6b cdbe e875 9fbd e4be 90bd
00000170: 00d0 9bbc 9897 e03b 3c2c c4bd 8cbd d9bd
00000180: e928 b1bc ca82 34be 1296 53bd 53f9 0dbe
00000190: 5ba5 45be 0417 3cbe 734a 813d f7cf 0bbe
000001a0: 5df8 b8be c531 acbd 9436 9abd 405e 3bbe
000001b0: 779a 57be b795 98bd 902f 5cbe d2e3 0cbd
000001c0: 082d b2be df1f 2dbe 1f5e 1ebd 11d4 643a
000001d0: 0d12 06bd 9ecb 79bd d4dc a2bd b4cb 85bd
000001e0: bc38 2fbe 64c3 05bd 8b76 b9bd 5a63 19be
000001f0: 786b 1cbe bfef 04be 8e39 76be 18a3 97bd
-0.21685314 -0.02834123 0.042640436 -0.25782102 -0.1604469 -0.28057903 -0.13892557 -0.14319289
0.036715444 0.017077925 0.015350526 -0.34290528 0.007263225 -0.10192032 -0.12752688 0.0052190926
0.022717793 -0.09462095 -0.042864256 -0.07575621 -0.17071612 -0.09806161 -0.3998466 -0.06248427
-0.08479427 -0.23162216 0.042297184 -0.20898932 -0.056578666 -0.1277278 -0.18197362 -0.14940421
-0.11688186 -0.10923883 0.033465937 -0.07999086 -0.32896945 -0.09898484 0.052830674 -0.08603108
-0.013420475 -0.052356906 -0.09159613 -0.011343062 -0.014658989 -0.12026254 -0.1952561 -0.0045542014
-0.13728833 -0.04606854 -0.10303964 -0.029813379 -0.09589583 0.027953686 -0.24169898 -0.15900853
-0.104564294 -0.07028724 0.0047522853 -0.113113284 -0.14972724 -0.18147703 -0.13712563 -0.07225142
-0.19170633 0.05602871 -0.04900512 -0.081080824 -0.39449602 -0.17753421 0.03808737 0.004021916
-0.05724283 -0.053639334 -0.0623842 -0.03594828 0.09484688 -0.03961725 -0.1099597 0.030135458
-0.1010697 -0.12649406 0.051431727 -0.043765463 -0.20733276 -0.039450698 -0.22190747 -0.14693065
-0.05968577 -0.40121445 -0.07786161 -0.070676595 -0.01902008 0.006854009 -0.095787495 -0.10631856
-0.021625953 -0.17628017 -0.05165679 -0.13864641 -0.1930136 -0.18368155 0.06313028 -0.13653551
-0.36126986 -0.0840793 -0.07529941 -0.18297672 -0.21055017 -0.07450431 -0.21502519 -0.034396954
-0.3479998 -0.16906689 -0.03866398 0.000872911 -0.03273206 -0.0609852 -0.07952276 -0.06532994
-0.17111486 -0.032657042 -0.090558134 -0.14979306 -0.15275371 -0.12982081 -0.24045393 -0.074041545

running_mean f4 [128]
00000000: 314e 45bc 65cd 4339 5c56 533c b094 ce3c
00000010: b801 69ba c95a a33c b930 8abb c942 b63c
00000020: 20aa c6b9 b020 33bc 9e37 64bd bea2 4e3c
00000030: b7ab 923a 68ab 6abc 1075 7e3c 8a8e fdbc
00000040: 33c1 d4bc 2f7e 04bc 23bb 62ba 0d41 9a3c
00000050: 9e6a 2e3d f4b7 3c3b e684 983c 490d 2ebc
00000060: 1473 c4bb da0c 3d3c 3e4a 39bd 6036 b13c
00000070: c12b ba3c 1cf1 853b 6075 953c ef0a 0bbc
00000080: 6718 603c 8f4f 933c ab54 9ebb a8e8 ca3b
00000090: 57f4 ca3b ac0c a1b9 2120 a9bc 4406 8dbb
000000a0: 0a4d f4bb 7680 9dbb aeb5 15bb 0723 5d3a
000000b0: f1d2 96bc f39f 733b 9b44 563c 344d d43a
000000c0: 9038 623c 9d0b 4f3b 090c f6bc 7ef3 aa3b
000000d0: c8ff 9f3c 06d5 2f3c 7618 11bc c1d3 223c
000000e0: b953 42bd eae5 6b3a 9411 2f3b 22e9 1abc
000000f0: 1430 493b 4fe4 093c e192 77bc eb39 a7bb
00000100: 5af5 95bc bc5c b4bb df49 453a da24 02bb
00000110: 024f b33b e480 2e3c 858c b8bb 73b5 c23c
00000120: 8e28 a43b 4aa3 40bc 5904 5b3b dfa2 b5bc
00000130: 8b59 d33c d45b 8fbb abe2 0cbb dd16 2bbc
00000140: 6779 f93b f17b 293c 72c9 cfbc 8e44 5dbc
00000150: 3b6d 9d3a 9b9b 82bc b48b 0c3d 5c58 89ba
00000160: 8bb3 86bb 035f ffbb d39b e4ba e5e6 83bc
00000170: 3ad0 7a3b c48e b7bb f375 d8bb 73de d1ba
00000180: 455d c2bc bbfa 9dbb 2b7a 93bc eb78 2d3c
00000190: b1da c5bb 07ce 87bb b8fe 903c 61bd 323b
000001a0: a619 67bc f7c6 b4bb 7e3e a73b 6af5 fbbb
000001b0: be1e ac3b cbb5 c7bc 3f41 8d3c 8ee4 9a3b
000001c0: c2e9 4fbc 98dd 6fbc 5f2d c93b 8c17 59bd
000001d0: 1e22 3c3c 7ee2 2abc 8b49 62bb a74e 7dbc
000001e0: 49bd 263b 026a 22bc 872d 41bb 05ce f4bc
000001f0: af09 dcbc 83eb 303c 12b2 f3bc ba11 cd3a
-0.012042568 0.00018673165 0.012899008 0.025217384 -0.0008888501 0.01994075 -0.004217234 0.022248643
-0.00037892256 -0.010933086 -0.055717103 0.012612043 0.0011190091 -0.014323093 0.01553084 -0.030951757
-0.02597103 -0.008086725 -0.00086491014 0.018829847 0.042582147 0.0028796168 0.018618058 -0.010623285
-0.0059951637 0.011538709 -0.04523682 0.021632373 0.022725942 0.0040875804 0.018244445 -0.0084864935
0.013677693 0.017982272 -0.0048318706 0.0061922856 0.0061936784 -0.00030717754 -0.020645203 -0.0043037254
-0.007455473 -0.0048065735 -0.0022843885 0.00084357004 -0.018411132 0.0037174195 0.01307788 0.0016197325
0.013807431 0.0031592615 -0.030035036 0.005217015 0.019531146 0.010731941 -0.00885593 0.009938181
-0.047443125 0.00089987984 0.0026713358 -0.009454997 0.0030698823 0.008416249 -0.015110702 -0.00510334
-0.01830547 -0.005504219 0.0007525961 -0.001985839 0.005472065 0.010650847 -0.0056319856 0.023768162
0.0050097173 -0.011757681 0.003341934 -0.02217239 0.025799533 -0.0043749604 -0.002149741 -0.010442463
0.0076133492 0.010344491 -0.025364611 -0.013505114 0.0012010703 -0.01594334 0.03431292 -0.0010478604
-0.0041107587 -0.0077933087 -0.0017441459 -0.01610131 0.0038271085 -0.005601736 -0.0066058575 -0.001601173
-0.023726115 -0.004821149 -0.01800259 0.010587911 -0.006038033 -0.0041444334 0.017699584 0.0027273523
-0.014105236 -0.0055168825 0.005103885 -0.0076891677 0.005252688 -0.024378678 0.017243026 0.004726953
-0.01269001 -0.014640234 0.006139442 -0.05300097 0.011482744 -0.0104299765 -0.0034528698 -0.015460647
0.0025442413 -0.00991297 -0.00294766 -0.029883394 -0.026860086 0.010798338 -0.029747996 0.0015645542

running_var f4 [128]
00000000: ed94 103b 9e61 633a 02c4 cd3a fae7 173b
00000010: fa96 943a 6d19 6e3a 51d8 9c3b 5382 b83a
00000020: 341c 9439 c67b 383a 2848 313b e19e e83a
00000030: bce1 a93a 3b53 cd3a 0f3a db3a fe20 9e3a
00000040: fcb7 973a b9de 863b 0c12 d23a b4dd 0d3b
00000050: 2e42 473b 9f36 c53a 988e 983b f7e9 fb39
00000060: 1430 3c3a 8df5 1d3c 679b 2b3b 04db ab3b
00000070: df69 593b b6bf 403b a41a 083b ef73 ea3a
00000080: e9af 313a afd2 c13a 2e5b 173b 3e98 893b
00000090: 682c fb3a 76d0 403a a7aa 403b af8a 8b3a
000000a0: 1552 313a 16c7 953a 2c34 0a3c 089f 2639
000000b0: 30b0 553a 8439 943a 18a9 bd3a cd71 4937
000000c0: 26fd 5d3a 7dc4 7b3a 05c3 433b cb5a 2d3a
000000d0: 9cfa 6e3b b11e c43a 2c1c b73b 7d83 983a
000000e0: de86 0d3b 7c83 073b 6d6e 983a 1113 b13a
000000f0: b295 f83a 6cd0 c83a 34df 173b f6b9 203b
00000100: 304e 0c3b e32c 493a c515 c13a 65ba 173a
00000110: 2c5d a33a 457f d63b e508 bb3a 61ec c13a
00000120: 8fc0 9739 67b9 3f3b 7e57 643b fa6e 863a
00000130: 395a 743a 541e 9c3a f3e1 c13a 09d1 d339
00000140: 18d2 273b 5b7b e73a a279 573a c4d0 d03a
00000150: 0cf8 3c3b 6767 3b3b 1fab 693b f7b4 ac3b
00000160: b056 013b 7fee 903a 2ecf 693a 1520 223b
00000170: 65e5 053b 49b2 1238 580d f039 0612 313b
00000180: 8c7a f139 9e45 cd3a d90c 973a e197 033b
00000190: 12bf ba3a 720b 873a 03ac 853a aba2 463a
000001a0: a3e7 c13b a488 693b fbcc 793a d393 b13a
000001b0: b3bf 833b 3426 3b3a 5cf9 843b 7c63 e93a
000001c0: 1583 e43a 5ab9 a03a 2c67 083a ec9e 083b
000001d0: 8545 a13a 97b5 f23a 5262 5f3a 833c c23a
000001e0: 4d35 333b ad57 593b ef20 203b 368c e73a
000001f0: a902 9e3a 7c96 1f3b 5075 bd3a 68b3 a63a
0.0022061423 0.0008673909 0.0015698674 0.002317904 0.0011336498 0.0009082768 0.004786529 0.0014076926
0.00028249773 0.00070374866 0.0027051065 0.0017747545 0.0012960951 0.0015665063 0.0016725677 0.0012064276
0.0011575217 0.004115906 0.0016027107 0.0021647038 0.0030404436 0.0015046186 0.0046556704 0.00048048768
0.0007178795 0.009641063 0.0026185156 0.0052446146 0.0033174676 0.0029411144 0.0020767832 0.0017887334
0.0006778227 0.001478752 0.0023095119 0.004199057 0.0019163014 0.0007355282 0.0029398592 0.0010646189
0.00067642453 0.001142713 0.00843529 0.00015890237 0.0008151559 0.0011308645 0.001446995 1.200703e-05
0.0008468203 0.0009604169 0.002987088 0.00066129555 0.0036465293 0.001496276 0.005588075 0.0011635866
0.002159528 0.0020677736 0.0011629589 0.001350971 0.0018965511 0.0015320904 0.002317381 0.0024524904
0.0021408908 0.000767423 0.0014731219 0.0005787968 0.001246368 0.0065459334 0.0014269619 0.0014795178
0.00028944432 0.0029254796 0.0034842188 0.0010256462 0.00093213056 0.0011910894 0.001479207 0.000404008
0.0025607403 0.0017660664 0.0008219724 0.0015931358 0.002883437 0.0028595568 0.0035654975 0.005270596
0.0019735508 0.0011057405 0.0008919117 0.002473836 0.002043092 3.4975154e-05 0.0004578631 0.00270188
0.00046058407 0.0015661006 0.0011524215 0.002007954 0.0014247617 0.0010303094 0.0010198358 0.000757734
0.005917506 0.0035634423 0.00095291407 0.0013548083 0.004020655 0.00071391766 0.0040580463 0.0017806138
0.0017434085 0.001226227 0.0005203362 0.0020846678 0.0012304044 0.0018517253 0.0008521426 0.0014819059
0.0027345002 0.003316383 0.0024433692 0.0017665687 0.0012055236 0.002435117 0.0014454518 0.0012718262

cpu f4 [128]
00000000: 0000 0000 0000 0000 0000 0000 0000 0000
00000010: 0000 0000 0000 0000 0000 0000 0000 0000
00000020: 0000 0000 0000 0000 0000 0000 0000 0000
00000030: 0000 0000 0000 0000 0000 0000 0000 0000
00000040: 0000 0000 0000 0000 0000 0000 0000 0000
00000050: 0000 0000 0000 0000 0000 0000 0000 0000
00000060: 0000 0000 0000 0000 0000 0000 0000 0000
00000070: 0000 0000 0000 0000 0000 0000 0000 0000
00000080: 0000 0000 0000 0000 0000 0000 0000 0000
00000090: 0000 0000 0000 0000 0000 0000 0000 0000
000000a0: 0000 0000 0000 0000 0000 0000 0000 0000
000000b0: 0000 0000 0000 0000 0000 0000 0000 0000
000000c0: 0000 0000 0000 0000 0000 0000 0000 0000
000000d0: 0000 0000 0000 0000 0000 0000 0000 0000
000000e0: 0000 0000 0000 0000 0000 0000 0000 0000
000000f0: 0000 0000 0000 0000 0000 0000 0000 0000
00000100: 0000 0000 0000 0000 0000 0000 0000 0000
00000110: 0000 0000 0000 0000 0000 0000 0000 0000
00000120: 0000 0000 0000 0000 0000 0000 0000 0000
00000130: 0000 0000 0000 0000 0000 0000 0000 0000
00000140: 0000 0000 0000 0000 0000 0000 0000 0000
00000150: 0000 0000 0000 0000 0000 0000 0000 0000
00000160: 0000 0000 0000 0000 0000 0000 0000 0000
00000170: 0000 0000 0000 0000 0000 0000 0000 0000
00000180: 0000 0000 0000 0000 0000 0000 0000 0000
00000190: 0000 0000 0000 0000 0000 0000 0000 0000
000001a0: 0000 0000 0000 0000 0000 0000 0000 0000
000001b0: 0000 0000 0000 0000 0000 0000 0000 0000
000001c0: 0000 0000 0000 0000 0000 0000 0000 0000
000001d0: 0000 0000 0000 0000 0000 0000 0000 0000
000001e0: 0000 0000 0000 0000 0000 0000 0000 0000
000001f0: 0000 0000 0000 0000 0000 0000 0000 0000
0.0 0.0 0.0 0.0 0.0 0.0 0.0 0.0
0.0 0.0 0.0 0.0 0.0 0.0 0.0 0.0
0.0 0.0 0.0 0.0 0.0 0.0 0.0 0.0
0.0 0.0 0.0 0.0 0.0 0.0 0.0 0.0
0.0 0.0 0.0 0.0 0.0 0.0 0.0 0.0
0.0 0.0 0.0 0.0 0.0 0.0 0.0 0.0
0.0 0.0 0.0 0.0 0.0 0.0 0.0 0.0
0.0 0.0 0.0 0.0 0.0 0.0 0.0 0.0
0.0 0.0 0.0 0.0 0.0 0.0 0.0 0.0
0.0 0.0 0.0 0.0 0.0 0.0 0.0 0.0
0.0 0.0 0.0 0.0 0.0 0.0 0.0 0.0
0.0 0.0 0.0 0.0 0.0 0.0 0.0 0.0
0.0 0.0 0.0 0.0 0.0 0.0 0.0 0.0
0.0 0.0 0.0 0.0 0.0 0.0 0.0 0.0
0.0 0.0 0.0 0.0 0.0 0.0 0.0 0.0
0.0 0.0 0.0 0.0 0.0 0.0 0.0 0.0
