ldpi/training/output/ResCNN/scripted_quantized_model.pth (torch, 269162 bytes, 61 tensors)

cpu f4 [64]
0.0 0.0 0.0 0.0 0.0 0.0 0.0 0.0
0.0 0.0 0.0 0.0 0.0 0.0 0.0 0.0
0.0 0.0 0.0 0.0 0.0 0.0 0.0 0.0
0.0 0.0 0.0 0.0 0.0 0.0 0.0 0.0
0.0 0.0 0.0 0.0 0.0 0.0 0.0 0.0
0.0 0.0 0.0 0.0 0.0 0.0 0.0 0.0
0.0 0.0 0.0 0.0 0.0 0.0 0.0 0.0
0.0 0.0 0.0 0.0 0.0 0.0 0.0 0.0
00000000: 0000 0000 0000 0000 0000 0000 0000 0000
00000010: 0000 0000 0000 0000 0000 0000 0000 0000
00000020: 0000 0000 0000 0000 0000 0000 0000 0000
00000030: 0000 0000 0000 0000 0000 0000 0000 0000
00000040: 0000 0000 0000 0000 0000 0000 0000 0000
00000050: 0000 0000 0000 0000 0000 0000 0000 0000
00000060: 0000 0000 0000 0000 0000 0000 0000 0000
00000070: 0000 0000 0000 0000 0000 0000 0000 0000
00000080: 0000 0000 0000 0000 0000 0000 0000 0000
00000090: 0000 0000 0000 0000 0000 0000 0000 0000
000000a0: 0000 0000 0000 0000 0000 0000 0000 0000
000000b0: 0000 0000 0000 0000 0000 0000 0000 0000
000000c0: 0000 0000 0000 0000 0000 0000 0000 0000
000000d0: 0000 0000 0000 0000 0000 0000 0000 0000
000000e0: 0000 0000 0000 0000 0000 0000 0000 0000
000000f0: 0000 0000 0000 0000 0000 0000 0000 0000

weight f4 [64]
0.09621904 0.49697688 0.11842871 0.22697522 0.4046296 0.21953249 0.22675505 0.34090972
0.06328203 0.17362331 0.4159256 0.094376355 0.19623451 0.15092684 0.030818788 0.25506955
0.17985043 0.03627236 0.27324033 0.088703394 0.2582131 0.26859042 0.39683884 0.44978115
0.5045608 0.31321424 0.14982885 0.28713384 0.052530468 0.05356226 0.23459287 0.17322612
0.46828514 0.05920704 0.4168012 0.04250213 0.45405793 0.3675111 0.14406842 0.090390936
0.3101369 0.03733695 0.25662914 0.03394425 0.057800233 0.19740091 0.04251637 0.3082532
0.14656086 0.11900815 0.4472758 0.087408744 0.07274592 0.5667793 0.2398969 0.06398082
0.21479762 0.19589166 9.068e-42 0.41264105 0.18966769 0.68947154 0.5509278 0.15979508
00000000: 7d0e c53d c173 fe3e c08a f23d 316c 683e
00000010: 9c2b cf3e 20cd 603e 7a32 683e b88b ae3e
00000020: 029a 813d 4fca 313e 33f4 d43e 6448 c13d
00000030: b3f1 483e 918c 1a3e af77 fc3c 7a98 823e
00000040: b62a 383e 5392 143d 28e6 8b3e 20aa b53d
00000050: 8234 843e af84 893e 762e cb3e b749 e63e
00000060: e62a 013f 9e5d a03e bc6c 193e 3503 933e
00000070: 302a 573d 1a64 5b3d 1d39 703e 3062 313e
00000080: 12c3 ef3e 1583 723d f866 d53e b716 2e3d
00000090: 487a e83e 6a2a bc3e ac86 133e e21e b93d
000000a0: 44ca 9e3e a1ee 183d e564 833e 2009 0b3d
000000b0: f0bf 6c3d 7723 4a3e a525 2e3d 5dd3 9d3e
000000c0: 0d14 163e 8cba f33d 5501 e53e 5b03 b33d
000000d0: d0fb 943d 7318 113f 88a7 753e 6008 833d
000000e0: e8f3 5b3e d397 483e 4719 0000 b045 d33e
000000f0: 3f38 423e 3581 303f 9b09 0d3f 52a1 233e

bias f4 [64]
-0.12341571 0.036915723 0.024008956 -0.18115461 0.0636885 0.36703026 0.058072347 0.06444095
-0.06996399 -0.28028607 0.015733872 0.10257033 0.0073386244 -0.05004552 -0.09125539 -0.36643192
-0.22253598 -0.062082678 0.020600505 0.17342407 -0.0664545 -0.10240176 0.11457207 0.033189256
-0.072116315 0.13075563 -0.12994994 0.38180986 -0.07789909 -0.07169058 -0.0681727 -0.03731624
-0.19129148 -0.026698891 -0.24883956 -0.011713843 0.22467852 -0.12932591 -0.08468719 -0.011770599
0.010499098 -0.050245304 0.35029072 -0.043053247 0.016415501 0.029556593 -0.04218911 0.3661852
0.09906236 -0.23380299 0.16019225 -0.02558778 -0.095170945 -0.17938483 -0.38345137 -0.021108901
-0.34400308 0.21582825 0.8023468 0.46543944 -0.36970246 -0.12089184 -0.24837402 -0.06537673
00000000: 60c1 fcbd f134 173d 6eae c43c 9880 39be
00000010: 1e6f 823d 64eb bb3e 45dd 6d3d 9ef9 833d
00000020: 4849 8fbd a881 8fbe 52e4 803c 6510 d23d
00000030: d878 f03b 88fc 4cbd 1be4 babd f79c bbbe
00000040: 79e0 63be 684a 7ebd 64c2 a83c 1496 313e
00000050: 4c19 88bd 04b8 d1bd c3a4 ea3d 75f1 073d
00000060: b8b1 93bd cee4 053e 9911 05be 957c c33e
00000070: 8f89 9fbd 83d2 92bd 219e 8bbd ead8 18bd
00000080: eae1 43be a2b7 dabc cccf 7ebe 6beb 3fbc
00000090: 2012 663e 036e 04be 7a70 adbd 78d9 40bc
000000a0: 6904 2c3c 05ce 4dbd 4e59 b33e 9a58 30bd
000000b0: cd79 863c ab20 f23c 7dce 2cbd a07c bb3e
000000c0: 35e1 ca3d 0d6a 6fbe 7009 243e 779d d1bc
000000d0: fce8 c2bd a8b0 37be bd53 c4be 93ec acbc
000000e0: 2c21 b0be 1502 5d3e 9a66 4d3f 144e ee3e
000000f0: a449 bdbe 2496 f7bd c255 7ebe 3ce4 85bd

running_mean f4 [64]
0.02919695 0.03144031 0.02698783 0.02101881 -0.027071439 0.033210818 0.018253906 -0.028131478
0.015576499 -0.009338049 0.028642403 -0.011387241 -0.027362503 0.027900733 0.010643104 0.021042617
-0.021539105 0.02113407 0.027678037 0.029764004 -0.023410253 -0.020501457 0.03249436 0.035442647
-0.036341857 -0.07399427 0.00068873673 0.060404886 0.008886678 0.026342697 -0.02495629 -0.026439015
-0.022423025 -0.0070445933 0.048945878 -0.029148215 0.030643294 -0.017686842 -0.016020978 -0.0070513994
0.033972126 -0.017550593 -0.026892152 0.02358467 0.0059780576 -0.024630854 0.024636948 -0.024699984
-0.026169406 0.017943377 0.029238977 0.01112726 0.02255194 -0.032730248 -0.0077989036 -0.00064191
-0.02933013 -0.016509535 1.949e-42 0.038002465 0.0021517463 -0.042025957 0.020953381 -0.0007843234
00000000: 712e ef3c 8ec7 003d 9515 dd3c a42f ac3c
00000010: ecc4 ddbc 1108 083d 3789 953c fc73 e6bc
00000020: 9234 7f3c 9efe 18bc 79a3 ea3c 8d91 3abc
00000030: 5427 e0bc 1490 e43c 6a60 2e3c 9161 ac3c
00000040: c772 b0bc 5b21 ad3c 0dbd e23c a4d3 f33c
00000050: dcc6 bfbc acf2 a7bc ce18 053d 4f2c 113d
00000060: 33db 14bd 4f8a 97bd 578c 343a 1d6b 773d
00000070: 6e99 113c a4cc d73c 2271 ccbc a296 d8bc
00000080: 7eb0 b7bc 55d6 e6bb 797b 483d 3dc8 eebc
00000090: a507 fb3c ffe3 90bc 6d3e 83bc 6d0f e7bb
000000a0: 5b26 0b3d 43c6 8fbc ee4c dcbc a334 c13c
000000b0: 95e3 c33b a5c6 c9bc 6dd3 c93c 9f57 cabc
000000c0: 3961 d6bc fdfd 923c 9486 ef3c 1c4f 363c
000000d0: d9be b83c 2710 06bd f28d ffbb da45 28ba
000000e0: be45 f0bc 013f 87bc 6f05 0000 79a8 1b3d
000000f0: 5004 0d3b 6923 2cbd 6da6 ab3c 0d9b 4dba

running_var f4 [64]
0.00073724077 0.00085488585 0.00062989816 0.00038207677 0.00063380727 0.0009538795 0.00028816817 0.00068441505
0.00020983316 7.54131e-05 0.0007095016 0.0001121428 0.00064750947 0.00067323336 9.796502e-05 0.0003829428
0.00040122657 0.00038627858 0.000662529 0.0007661559 0.00047396534 0.00036349957 0.0009131673 0.0010863922
0.0011422174 0.0047351164 4.1024276e-07 0.0031555758 6.829883e-05 0.0006001432 0.0005386348 0.00060453994
0.00043483335 4.2918677e-05 0.0020718905 0.0007347819 0.00081209204 0.00027054214 0.00022197928 4.3001648e-05
0.0009981131 0.00026639004 0.0006254399 0.0004810541 3.0906842e-05 0.00052467856 0.0005249383 0.00052762794
0.0005922733 0.00027844714 0.0007393648 0.00010708061 0.0004398477 0.0009264736 5.2601907e-05 3.5635483e-07
0.0007439818 0.00023572416 6e-45 0.0012489873 4.004206e-06 0.0015274591 0.00037970187 5.3201603e-07
00000000: 6443 413a 6b1a 603a c01f 253a 7a51 c839
00000010: 1626 263a c50d 7a3a 4715 9739 516a 333a
00000020: a906 5c39 1a27 9e38 d9fd 393a 352e eb38
00000030: a0bd 293a ed7b 303a 9272 cd38 b6c5 c839
00000040: b85b d239 6f85 ca39 92ad 2d3a dad7 483a
00000050: 8d7e f839 1694 be39 9f61 6f3a 4665 8e3a
00000060: 75b6 953a 0929 9b3b 563f dc34 c7cd 4e3b
00000070: a83b 8f38 ee52 1d3a 2b33 0d3a fd79 1e3a
00000080: 58fa e339 9403 3438 8ec8 073b 619e 403a
00000090: 93e2 543a 8dd7 8d39 1cc3 6839 ab5c 3438
000000a0: 1ed3 823a 44aa 8b39 90f4 233a fd35 fc39
000000b0: f8a1 0138 958a 093a 039c 093a 8350 0a3a
000000c0: ca42 1b3a 8bfc 9139 efd1 413a 7790 e038
000000d0: 5c9b e639 97de 723a dea0 5c38 0951 bf34
000000e0: c607 433a b92c 7739 0400 0000 0fb5 a33a
000000f0: de5b 8636 0635 c83a b912 c739 ddcf 0e35

cpu f4 [64]
0.0 0.0 0.0 0.0 0.0 0.0 0.0 0.0
0.0 0.0 0.0 0.0 0.0 0.0 0.0 0.0
0.0 0.0 0.0 0.0 0.0 0.0 0.0 0.0
0.0 0.0 0.0 0.0 0.0 0.0 0.0 0.0
0.0 0.0 0.0 0.0 0.0 0.0 0.0 0.0
0.0 0.0 0.0 0.0 0.0 0.0 0.0 0.0
0.0 0.0 0.0 0.0 0.0 0.0 0.0 0.0
0.0 0.0 0.0 0.0 0.0 0.0 0.0 0.0
00000000: 0000 0000 0000 0000 0000 0000 0000 0000
00000010: 0000 0000 0000 0000 0000 0000 0000 0000
00000020: 0000 0000 0000 0000 0000 0000 0000 0000
00000030: 0000 0000 0000 0000 0000 0000 0000 0000
00000040: 0000 0000 0000 0000 0000 0000 0000 0000
00000050: 0000 0000 0000 0000 0000 0000 0000 0000
00000060: 0000 0000 0000 0000 0000 0000 0000 0000
00000070: 0000 0000 0000 0000 0000 0000 0000 0000
00000080: 0000 0000 0000 0000 0000 0000 0000 0000
00000090: 0000 0000 0000 0000 0000 0000 0000 0000
000000a0: 0000 0000 0000 0000 0000 0000 0000 0000
000000b0: 0000 0000 0000 0000 0000 0000 0000 0000
000000c0: 0000 0000 0000 0000 0000 0000 0000 0000
000000d0: 0000 0000 0000 0000 0000 0000 0000 0000
000000e0: 0000 0000 0000 0000 0000 0000 0000 0000
000000f0: 0000 0000 0000 0000 0000 0000 0000 0000

cpu f4 [64]
0.0 0.0 0.0 0.0 0.0 0.0 0.0 0.0
0.0 0.0 0.0 0.0 0.0 0.0 0.0 0.0
0.0 0.0 0.0 0.0 0.0 0.0 0.0 0.0
0.0 0.0 0.0 0.0 0.0 0.0 0.0 0.0
0.0 0.0 0.0 0.0 0.0 0.0 0.0 0.0
0.0 0.0 0.0 0.0 0.0 0.0 0.0 0.0
0.0 0.0 0.0 0.0 0.0 0.0 0.0 0.0
0.0 0.0 0.0 0.0 0.0 0.0 0.0 0.0
00000000: 0000 0000 0000 0000 0000 0000 0000 0000
00000010: 0000 0000 0000 0000 0000 0000 0000 0000
00000020: 0000 0000 0000 0000 0000 0000 0000 0000
00000030: 0000 0000 0000 0000 0000 0000 0000 0000
00000040: 0000 0000 0000 0000 0000 0000 0000 0000
00000050: 0000 0000 0000 0000 0000 0000 0000 0000
00000060: 0000 0000 0000 0000 0000 0000 0000 0000
00000070: 0000 0000 0000 0000 0000 0000 0000 0000
00000080: 0000 0000 0000 0000 0000 0000 0000 0000
00000090: 0000 0000 0000 0000 0000 0000 0000 0000
000000a0: 0000 0000 0000 0000 0000 0000 0000 0000
000000b0: 0000 0000 0000 0000 0000 0000 0000 0000
000000c0: 0000 0000 0000 0000 0000 0000 0000 0000
000000d0: 0000 0000 0000 0000 0000 0000 0000 0000
000000e0: 0000 0000 0000 0000 0000 0000 0000 0000
000000f0: 0000 0000 0000 0000 0000 0000 0000 0000

weight f4 [64]
0.24518983 0.15895137 0.12714684 0.04990258 0.47846273 0.045435674 0.12597355 0.0826188
0.1116053 0.04378889 0.07610506 0.19264464 0.6775232 0.1808794 0.042494424 0.27888075
0.051076327 0.6264203 0.056837812 0.03463695 0.12551494 0.057800043 0.20084158 0.52740616
0.7176002 0.4669581 0.16108821 0.5216352 0.17928839 0.34944054 0.25931826 0.058393016
0.104844704 0.21806794 0.03865243 0.12152114 0.036840066 0.06941443 0.026210308 0.13106224
0.17601253 0.7811967 0.1364849 0.816183 0.5298607 0.06011951 0.10803475 0.30898395
0.75138587 0.052113116 0.3129542 0.09968931 0.5703965 0.04007585 0.04558081 0.12085731
0.115706965 0.05979254 0.0541948 0.04448487 0.092939906 0.10294078 0.17560597 0.19511892
00000000: 0b13 7b3e 26c4 223e c832 023e a666 4c3d
00000010: 11f9 f43e c21a 3a3d 36ff 003e 0c34 a93d
00000020: 5291 e43d fb5b 333d f8dc 9b3d a344 453e
00000030: 2972 2d3f 7338 393e a20e 2e3d 75c9 8e3e
00000040: 6935 513d 155d 203f c4ce 683d 79df 0d3d
00000050: fd86 003e bdbf 6c3d 6aa9 4d3e 1704 073f
00000060: a6b4 373f 2215 ef3e 4ff4 243e e289 053f
00000070: 6097 373e dfe9 b23e 5dc5 843e 842d 6f3d
00000080: d2b8 d63d 344d 5f3e 0352 1e3d 13e0 f83d
00000090: 9ce5 163d 2729 8e3d 00b7 d63c 2e35 063e
000000a0: a13c 343e 82fc 473f b3c2 0b3e 5ef1 503f
000000b0: f3a4 073f e03f 763d 5341 dd3d 2533 9e3e
000000c0: d35a 403f 9074 553d 883b a03e e929 cc3d
000000d0: 8105 123f 9326 243d f2b2 3a3d 0a84 f73d
000000e0: c6f7 ec3d 06e9 743d 5efb 5d3d c435 363d
000000f0: 4757 be3d 9ed2 d23d 0dd2 333e 41cd 473e

bias f4 [64]
-0.07347735 0.025495728 -0.034856636 0.0018815188 -0.04243428 0.0011017381 -0.08179539 -0.09593845
0.0397283 -0.07952201 0.0041143564 -0.11491956 -0.48243406 0.16216893 -0.0035686025 -0.2521401
0.0023044182 -0.22845784 0.011003358 -0.0040699383 -0.107491195 0.010613056 0.03256364 0.10689192
0.1509329 0.06230079 0.0032861647 -0.14881665 0.03440969 -0.018520202 0.039893065 0.0014628655
0.00037130475 -0.15257551 -0.03650456 0.087105036 -0.0014523219 0.0294429 -0.23485957 -0.13239172
0.0806255 0.2611532 -0.3002683 -0.2641001 -0.14055122 -0.09733102 0.010338685 0.064564906
-0.41095823 -0.040497854 -0.0544708 0.006122303 -0.012332451 0.00095041614 -0.033007935 0.030276755
-0.0042201662 0.0059957895 -0.080062546 -0.034715533 0.018733779 -0.029409831 -0.3177693 -0.04960821
00000000: 4b7b 96bd 6bdc d03c d5c5 0ebd 4b9d f63a
00000010: 91cf 2dbd 3268 903a 5784 a7bd 617b c4bd
00000020: 24ba 223d 70dc a2bd b9d1 863b f25a ebbd
00000030: 9901 f7be 9d0f 263e 37df 69bb 8218 81be
00000040: b905 173b daf0 69be 6e47 343c 1e5d 85bb
00000050: 5824 dcbd 62e2 2d3c 7461 053d 27ea da3d
00000060: 278e 1a3e 1d2f 7f3d b25c 573b 6463 18be
00000070: 2df1 0c3d aeb7 97bc e966 233d 9fbd bf3a
00000080: aeab c239 c13c 1cbe ce85 15bd 2064 b23d
00000090: d65b beba 3d32 f13c 077f 70be b291 07be
000000a0: fb1e a53d dfb5 853e c4bc 99be 2138 87be
000000b0: a9ec 0fbe 7c55 c7bd 9663 293c 9b3a 843d
000000c0: 1e69 d2be 14e1 25bd c61c 5fbd 9a9d c83b
000000d0: 0c0e 4abc 5925 793a 5433 07bd f506 f83c
000000e0: 5249 8abb 5478 c43b d5f7 a3bd e031 0ebd
000000f0: 9577 993c e3ec f0bc a8b2 a2be fa31 4bbd

running_mean f4 [64]
-0.13471383 -0.038915657 0.013132023 -0.015516698 -0.17547159 -0.003225315 0.00871276 0.0076551293
0.022424513 0.0072090146 0.022371216 -0.030488772 0.16654566 -0.10056349 -0.006870846 0.0062773433
-0.018338801 0.019987244 0.0065078344 0.005013923 0.013392504 -0.00014253572 -0.0056263157 0.010526903
0.008502834 -0.07350379 0.040332496 -0.064012356 0.011888835 0.016256046 0.29103005 -0.021499444
-0.014343103 0.009417098 0.002397684 0.020940628 -0.0016554013 0.012757018 -0.031092677 0.0027103901
-0.11947686 -0.03143491 -0.0094513735 -0.06324065 -0.21253164 0.0045568557 -0.006030549 0.12308954
-0.11986444 0.008055801 -0.08673849 -0.0082834 -0.010975422 0.0040020915 -0.0013432618 0.01751142
-0.038521644 0.0059640887 0.0036031357 -0.002064195 0.023588024 0.007214078 -0.046008468 0.019481745
00000000: 6cf2 09be 0666 1fbd b227 573c c039 7ebc
00000010: d3ae 33be ce5f 53bb f7bf 0e3c e1d7 fa3b
00000020: 9db3 b73c 9939 ec3b d743 b73c 97c3 f9bc
00000030: f28a 2a3e 3bf4 cdbd d524 e1bb 2cb2 cd3b
00000040: 413b 96bc 4abc a33c ac3f d53b d64b a43b
00000050: 3c6c 5b3c a475 15b9 f55c b8bb 0879 2c3c
00000060: 784f 0b3c 2889 96bd b033 253d e918 83bd
00000070: 63c9 423c 662b 853c e401 953e 9a1f b0bc
00000080: 56ff 6abc 2c4a 1a3c 7622 1d3b ae8b ab3c
00000090: 0dfa d8ba d002 513c 12b6 febc cda0 313b
000000a0: 49b0 f4bd e4c1 00bd efd9 1abc 5084 81bd
000000b0: e5a1 59be ad51 953b e99b c5bb 5e16 fc3d
000000c0: 7d7b f5bd 7afc 033c f3a3 b1bd 19b7 07bc
000000d0: 42d2 33bc fa23 833b 6310 b0ba 1c74 8f3c
000000e0: dfc8 1dbd 676e c33b 9622 6c3b 7247 07bb
000000f0: ac3b c13c 1364 ec3b 6073 3cbd 2e98 9f3c

running_var f4 [64]
0.0047618337 0.0007307521 0.0011360893 8.432754e-06 0.0043735774 4.4093606e-05 0.00020484356 4.7680056e-05
0.00042989242 4.2258438e-05 0.0006623474 0.00526 0.013395341 0.00411828 1.5717062e-05 0.0014078029
2.0126092e-05 0.0109458035 0.00015460969 1.568993e-05 0.0011026446 3.9540013e-05 0.000354466 0.028260004
0.09068579 0.041646168 0.001512658 0.008800819 0.0014258807 0.0028810313 0.017015222 5.0725463e-05
0.0006556227 0.001700964 6.3342895e-06 0.0011959027 1.0299201e-05 0.00022863498 0.00032312918 0.0008598504
0.0016692802 0.08830648 7.0099195e-05 0.031745583 0.12652183 8.493067e-05 0.0004546203 0.0081520155
0.054391712 5.2700903e-05 0.0046767225 0.0005789957 0.029204609 1.3362689e-05 4.0450224e-05 0.00065039593
0.00014910722 3.7940154e-05 1.965955e-05 4.599207e-05 0.00020886307 0.00014010556 0.0025812034 0.0022722285
00000000: 2809 9c3b f18f 3f3a d5e8 943a 677a 0d37
00000010: 3a50 8f3b 26f1 3838 46cb 5639 12fc 4738
00000020: 2f63 e139 a73e 3138 62a1 2d3a 145c ac3b
00000030: 2278 5b3c a3f2 863b 22d8 8337 0786 b83a
00000040: 74d4 a837 0756 333c b91e 2239 de9d 8337
00000050: 9d86 903a c4d7 2538 9fd7 b939 8681 e73c
00000060: 79b9 b93d 2c95 2a3d 6144 c63a 4f31 103c
00000070: 9ee4 ba3a afcf 3c3b 8263 8b3c 0dc2 5438
00000080: 18de 2b3a e2f2 de3a 228b d436 d6bf 9c3a
00000090: bbca 2c37 bcbd 6f39 aa69 a939 9567 613a
000000a0: c0cb da3a 07da b43d 3802 9338 a807 023d
000000b0: f08e 013e ce1c b238 1b5a ee39 0890 053c
000000c0: d8c9 5e3d 2a0b 5d38 313f 993b bec7 173a
000000d0: 813e ef3c 5030 6037 19a9 2938 557f 2a3a
000000e0: aa59 1c39 ee21 1f38 90ea a437 9ce7 4038
000000f0: 4102 5b39 4de9 1239 6829 293b abe9 143b

cpu f4 [64]
0.0 0.0 0.0 0.0 0.0 0.0 0.0 0.0
0.0 0.0 0.0 0.0 0.0 0.0 0.0 0.0
0.0 0.0 0.0 0.0 0.0 0.0 0.0 0.0
0.0 0.0 0.0 0.0 0.0 0.0 0.0 0.0
0.0 0.0 0.0 0.0 0.0 0.0 0.0 0.0
0.0 0.0 0.0 0.0 0.0 0.0 0.0 0.0
0.0 0.0 0.0 0.0 0.0 0.0 0.0 0.0
0.0 0.0 0.0 0.0 0.0 0.0 0.0 0.0
00000000: 0000 0000 0000 0000 0000 0000 0000 0000
00000010: 0000 0000 0000 0000 0000 0000 0000 0000
00000020: 0000 0000 0000 0000 0000 0000 0000 0000
00000030: 0000 0000 0000 0000 0000 0000 0000 0000
00000040: 0000 0000 0000 0000 0000 0000 0000 0000
00000050: 0000 0000 0000 0000 0000 0000 0000 0000
00000060: 0000 0000 0000 0000 0000 0000 0000 0000
00000070: 0000 0000 0000 0000 0000 0000 0000 0000
00000080: 0000 0000 0000 0000 0000 0000 0000 0000
00000090: 0000 0000 0000 0000 0000 0000 0000 0000
000000a0: 0000 0000 0000 0000 0000 0000 0000 0000
000000b0: 0000 0000 0000 0000 0000 0000 0000 0000
000000c0: 0000 0000 0000 0000 0000 0000 0000 0000
000000d0: 0000 0000 0000 0000 0000 0000 0000 0000
000000e0: 0000 0000 0000 0000 0000 0000 0000 0000
000000f0: 0000 0000 0000 0000 0000 0000 0000 0000

cpu f4 [64]
0.0 0.0 0.0 0.0 0.0 0.0 0.0 0.0
0.0 0.0 0.0 0.0 0.0 0.0 0.0 0.0
0.0 0.0 0.0 0.0 0.0 0.0 0.0 0.0
0.0 0.0 0.0 0.0 0.0 0.0 0.0 0.0
0.0 0.0 0.0 0.0 0.0 0.0 0.0 0.0
0.0 0.0 0.0 0.0 0.0 0.0 0.0 0.0
0.0 0.0 0.0 0.0 0.0 0.0 0.0 0.0
0.0 0.0 0.0 0.0 0.0 0.0 0.0 0.0
00000000: 0000 0000 0000 0000 0000 0000 0000 0000
00000010: 0000 0000 0000 0000 0000 0000 0000 0000
00000020: 0000 0000 0000 0000 0000 0000 0000 0000
00000030: 0000 0000 0000 0000 0000 0000 0000 0000
00000040: 0000 0000 0000 0000 0000 0000 0000 0000
00000050: 0000 0000 0000 0000 0000 0000 0000 0000
00000060: 0000 0000 0000 0000 0000 0000 0000 0000
00000070: 0000 0000 0000 0000 0000 0000 0000 0000
00000080: 0000 0000 0000 0000 0000 0000 0000 0000
00000090: 0000 0000 0000 0000 0000 0000 0000 0000
000000a0: 0000 0000 0000 0000 0000 0000 0000 0000
000000b0: 0000 0000 0000 0000 0000 0000 0000 0000
000000c0: 0000 0000 0000 0000 0000 0000 0000 0000
000000d0: 0000 0000 0000 0000 0000 0000 0000 0000
000000e0: 0000 0000 0000 0000 0000 0000 0000 0000
000000f0: 0000 0000 0000 0000 0000 0000 0000 0000

weight f4 [64]
0.64442945 0.17046829 0.25628653 0.57660353 0.2556917 0.33468473 0.14980993 0.2739398
0.04457703 0.54748243 0.4163109 0.23287731 0.24466847 0.29632306 0.39762804 0.34902605
0.23262167 0.56264895 0.5571063 0.33282834 0.26692405 0.33459082 0.4296425 0.23715308
0.28126228 0.36860657 0.12505831 0.53675133 0.36986533 0.18269435 0.32060295 0.23097265
0.33538538 0.30064192 0.39805937 0.16754557 0.5742756 0.103637405 0.11163687 0.1658839
0.18990326 0.5155868 0.35823783 0.24435708 0.4090572 0.18726748 0.49187356 0.22996467
0.3272534 0.3261435 0.21869346 0.19900426 0.45141226 0.2354023 0.057703298 0.37704527
0.22863396 0.1805429 0.41579318 0.35382637 0.31959385 0.07474271 0.17995048 0.29769298
00000000: 54f9 243f 3d8f 2e3e fd37 833e 4a9c 133f
00000010: 06ea 823e cc5b ab3e c667 193e d641 8c3e
00000020: 6796 363d cf27 0c3f b426 d53e 6477 6e3e
00000030: 5f8a 7a3e a8b7 973e e795 cb3e 8bb3 b23e
00000040: 6034 6e3e c309 103f 859e 0e3f 7a68 aa3e
00000050: 45aa 883e 7d4f ab3e 1afa db3e 42d8 723e
00000060: 9c01 903e 00ba bc3e 490f 003e 8968 093f
00000070: fd5e bd3e 3a14 3b3e 1226 a43e 1884 6c3e
00000080: a2b7 ab3e bded 993e 70ce cb3e 1191 2b3e
00000090: ba03 133f d93f d43d dfa1 e43d 78dd 293e
000000a0: 0076 423e 7ffd 033f f36a b73e be38 7a3e
000000b0: f26f d13e 0cc3 3f3e dad6 fb3e dc7b 6b3e
000000c0: c28d a73e 48fc a63e 2ef1 5f3e c6c7 4b3e
000000d0: 821f e73e 4d0d 713e 4b5a 6c3d 140c c13e
000000e0: 051f 6a3e 3de0 383e d8e2 d43e bb28 b53e
000000f0: cea1 a33e b512 993d f044 383e 376b 983e

bias f4 [64]
-0.20958184 -0.10234603 -0.019411353 0.040925205 0.081058495 -0.2684911 -0.067664154 -0.07629064
0.00029905618 0.08711578 -0.16605347 0.03277709 0.016880872 0.057835408 -0.32967383 0.1323018
-0.06701265 -0.18859501 -0.31523532 0.13676395 -0.026516413 -0.12071938 -0.11561301 -0.15400556
-0.08308272 -0.21317106 -0.04653013 -0.18989876 -0.16366607 0.015319801 -0.0907165 -0.1597153
0.11801564 -0.085657045 -0.29854596 0.014374629 0.0155181335 0.026762 -0.0068332492 -0.079250455
-0.1403683 -0.07031557 -0.1896498 -0.19501962 -0.036992874 0.038039327 -0.11785859 -0.014091415
-0.22629608 -0.18312828 0.030185534 -0.25341696 0.080313474 0.056937456 -0.04392929 -0.07981515
0.12173368 0.066125795 0.13752724 -0.2405387 -0.026660148 -0.04334978 -0.11065728 -0.08793912
00000000: 9f9c 56be cc9a d1bd 8f04 9fbc 30a1 273d
00000010: ff01 a63d aa77 89be 8193 8abd 443e 9cbd
00000020: a4ca 9c39 c269 b23d ec09 2abe 4541 063d
00000030: c149 8a3c d2e4 6c3d 02cb a8be 207a 073e
00000040: ee3d 89bd 0d1f 41be 8666 a1be d90b 0c3e
00000050: f338 d9bc b93b f7bd 84c6 ecbd a2b3 1dbe
00000060: 4627 aabd 8449 5abe 6196 3ebd d274 42be
00000070: 1498 27be e7ff 7a3c 93c9 b9bd 688c 23be
00000080: 2fb2 f13d f66c afbd 04db 98be 9083 6b3c
00000090: c53f 7e3c fb3b db3c 73e9 dfbb 104e a2bd
000000a0: b5bc 0fbe 9c01 90bd 8f33 42be 39b3 47be
000000b0: d785 17bd 20cf 1b3d d85f f1bd aedf 66bc
000000c0: 29ba 67be fb85 3bbe a747 f73c debf 81be
000000d0: 647b a43d 4037 693d 33ef 33bd 2076 a3bd
000000e0: 824f f93d f66c 873d f1d3 0c3e c74f 76be
000000f0: 6266 dabc 8a8f 31bd 49a0 e2bd 6d19 b4bd

running_mean f4 [64]
-0.10653251 -0.05125939 0.0319389 0.12504101 -0.018420579 0.04855826 0.04499499 -0.01445535
-0.0064807483 -0.03714145 0.12138125 -0.01251835 -0.11022585 -0.051390234 0.0903959 -0.09761299
0.060505252 0.056586877 0.20485689 -0.3536998 -0.0780417 0.06142572 -0.08109328 0.037343748
-0.02707012 0.0321889 0.023524877 0.03846833 0.071395196 0.007077845 0.009742697 0.041385286
0.056244202 -0.0034287702 -0.11017889 0.0017434917 0.050583933 0.024780946 -0.029765649 0.019337289
0.013143448 0.012532379 0.079345144 -0.029579844 -0.00538416 -0.088359654 0.16342951 -0.0038756179
-0.061351374 0.005110579 -0.0049040294 -0.0586663 -0.0015830057 -0.14280911 0.012835941 0.069008894
-0.092384905 -0.055793907 0.041355252 0.007229381 0.15593481 0.020119553 0.06209442 0.027001519
00000000: b72d dabd 5ef5 51bd 5dd2 023d c00a 003e
00000010: c1e6 96bc 07e5 463d ab4c 383d 22d6 6cbc
00000020: 755c d4bb a221 18bd bc96 f83d c419 4dbc
00000030: 17be e1bd 917e 52bd 7c21 b93d 52e9 c7bd
00000040: 5bd4 773d a4c7 673d 01c6 513e 2418 b5be
00000050: 54d4 9fbd 8999 7b3d 3c14 a6bd c2f5 183d
00000060: 28c2 ddbc 82d8 033d 3eb7 c03c f890 1d3d
00000070: a537 923d 44ed e73b d59f 1f3c 9e83 293d
00000080: 5260 663d 38b5 60bb 78a5 e1bd e085 e43a
00000090: 1931 4f3d 6901 cb3c 17d7 f3bc 3c69 9e3c
000000a0: 9e57 573c 9b54 4d3c b57f a23d 6e51 f2bc
000000b0: 9c6d b0bb e8f5 b4bd 115a 273e 14fe 7dbb
000000c0: 944b 7bbd a576 a73b fbb1 a0bb 134c 70bd
000000d0: db7c cfba 8d3c 12be d74d 523c 8954 8d3d
000000e0: 4c34 bdbd 2788 64bd 2064 293d 71e4 ec3b
000000f0: 60ad 1f3e c3d1 a43c b856 7e3d 4a32 dd3c

running_var f4 [64]
0.016160097 0.0038957635 0.00095935736 0.035500247 0.006451558 0.026457734 0.0017225357 0.005384777
7.447635e-05 0.024098724 0.015323479 0.0007828421 0.005577942 0.006963896 0.02411658 0.010750048
0.007343406 0.026045693 0.051787764 0.061714493 0.0074953455 0.0027916932 0.011777176 0.0016232447
0.007825047 0.010183115 0.0015436889 0.015970277 0.012021614 0.0008403679 0.0064741923 0.02214296
0.0046288846 0.007736047 0.016454138 0.0042553972 0.04884348 0.00047532248 0.00087491464 0.0022082988
0.004109223 0.016880793 0.031197615 0.011514419 0.010047045 0.0049518542 0.043679364 0.0007170109
0.015426109 0.027623987 0.00043685894 0.007018709 0.023604816 0.012824001 0.00014511248 0.02206927
0.006975609 0.0023411515 0.021739118 0.0011393046 0.043302193 0.00029086243 0.002449389 0.0021692265
00000000: 2e62 843c 1150 7f3b 627d 7b3a b568 113d
00000010: 9767 d33b e4bd d83c b5c6 e13a c972 b03b
00000020: 3030 9c38 b06a c53c 540f 7b3c a537 4d3a
00000030: 2bc7 b63b 6531 e43b 2290 c53c f820 303c
00000040: f4a0 f03b c75d d53c 681f 543d 56c8 7c3d
00000050: 849b f53b d7f4 363b 0ef5 403c 0ec3 d43a
00000060: a034 003c 14d7 263c 9b55 ca3a 19d4 823c
00000070: 4ef6 443c 234c 5c3a 7625 d43b 2765 b53c
00000080: e6ad 973b aa7e fd3b d4ca 863c dc70 8b3b
00000090: 1a10 483d b434 f939 875a 653a 1bb9 103b
000000a0: a9a6 863b 9749 8a3c 2492 ff3c f9a6 3c3c
000000b0: 5c9c 243c 2a43 a23b 22e9 323d c9f5 3b3a
000000c0: cabd 7c3c b34b e23c 370a e539 33fd e53b
000000d0: e35e c13c c21b 523c 5629 1839 9dca b43c
000000e0: a693 e43b 016e 193b 3c16 b23c b854 953a
000000f0: a45d 313d e57e 9839 ee85 203b 9529 0e3b

cpu f4 [64]
0.0 0.0 0.0 0.0 0.0 0.0 0.0 0.0
0.0 0.0 0.0 0.0 0.0 0.0 0.0 0.0
0.0 0.0 0.0 0.0 0.0 0.0 0.0 0.0
0.0 0.0 0.0 0.0 0.0 0.0 0.0 0.0
0.0 0.0 0.0 0.0 0.0 0.0 0.0 0.0
0.0 0.0 0.0 0.0 0.0 0.0 0.0 0.0
0.0 0.0 0.0 0.0 0.0 0.0 0.0 0.0
0.0 0.0 0.0 0.0 0.0 0.0 0.0 0.0
00000000: 0000 0000 0000 0000 0000 0000 0000 0000
00000010: 0000 0000 0000 0000 0000 0000 0000 0000
00000020: 0000 0000 0000 0000 0000 0000 0000 0000
00000030: 0000 0000 0000 0000 0000 0000 0000 0000
00000040: 0000 0000 0000 0000 0000 0000 0000 0000
00000050: 0000 0000 0000 0000 0000 0000 0000 0000
00000060: 0000 0000 0000 0000 0000 0000 0000 0000
00000070: 0000 0000 0000 0000 0000 0000 0000 0000
00000080: 0000 0000 0000 0000 0000 0000 0000 0000
00000090: 0000 0000 0000 0000 0000 0000 0000 0000
000000a0: 0000 0000 0000 0000 0000 0000 0000 0000
000000b0: 0000 0000 0000 0000 0000 0000 0000 0000
000000c0: 0000 0000 0000 0000 0000 0000 0000 0000
000000d0: 0000 0000 0000 0000 0000 0000 0000 0000
000000e0: 0000 0000 0000 0000 0000 0000 0000 0000
000000f0: 0000 0000 0000 0000 0000 0000 0000 0000

weight f4 [64]
0.14760566 0.07320319 0.015914684 -0.026353907 0.17131302 0.0062755095 0.06429702 0.046865117
0.04767225 0.23994589 -0.13618435 -0.013217844 -0.029102283 0.064101 0.069794744 0.010808701
0.0239482 -0.062090993 -0.04564484 -0.45741946 -0.0830539 -0.087774746 0.1187083 0.04607494
0.006542329 0.029971367 0.018048123 0.28183365 0.030292576 0.011493327 -0.09552069 -0.09148173
-0.00695011 0.01472578 -0.07097029 -0.2604923 -0.007571422 0.032057036 0.022845628 0.015852222
0.019272335 0.10179478 -0.16748236 0.020740785 -0.1454111 -0.04988274 0.46142066 0.0083297035
0.028776119 0.061462365 0.051884368 0.044895943 0.0034451634 0.24452339 0.034063112 0.23928943
0.16359429 0.0506608 0.07894048 -0.036983233 0.33682525 0.037405953 -0.0708006 0.059748437
00000000: f025 173e 8eeb 953d 835f 823c 26e4 d7bc
00000010: ae6c 2f3e caa2 cd3b 28ae 833d a3f5 3f3d
00000020: fa43 433d 60b4 753e e973 0bbe a88f 58bc
00000030: e967 eebc 6347 833d 8cf0 8e3d fa16 313c
00000040: 042f c43c 2053 7ebd 15f6 3abd e232 eabe
00000050: 2a18 aabd 3fc3 b3bd 561d f33d 14b9 3c3d
00000060: 0961 d63b 8386 f53c a8d9 933c 804c 903e
00000070: 2328 f83c 824e 3c3c 5aa0 c3bd c65a bbbd
00000080: c0bd e3bb 6644 713c df58 91bd 3f5f 85be
00000090: b119 f8bb 3d4e 033d c126 bb3c 85dc 813c
000000a0: 04e1 9d3c c879 d03d 7f80 2bbe 94e8 a93c
000000b0: a6e6 14be d851 4cbd 543f ec3e 4f79 083c
000000c0: e5bb eb3c f6bf 7b3d b484 543d cfe4 373d
000000d0: 40c8 613b 5764 7a3e c385 0b3d 4a08 753e
000000e0: 4385 273e b381 4f3d 8cab a13d bb7b 17bd
000000f0: 5c74 ac3e fc36 193d e8ff 90bd c7ba 743d

bias f4 [64]
-0.20958184 -0.10234603 -0.019411353 0.040925205 0.081058495 -0.2684911 -0.067664154 -0.07629064
0.00029905618 0.08711578 -0.16605347 0.03277709 0.016880872 0.057835408 -0.32967383 0.1323018
-0.06701265 -0.18859501 -0.31523532 0.13676395 -0.026516413 -0.12071938 -0.11561301 -0.15400556
-0.08308272 -0.21317106 -0.04653013 -0.18989876 -0.16366607 0.015319801 -0.0907165 -0.1597153
0.11801564 -0.085657045 -0.29854596 0.014374629 0.0155181335 0.026762 -0.0068332492 -0.079250455
-0.1403683 -0.07031557 -0.1896498 -0.19501962 -0.036992874 0.038039327 -0.11785859 -0.014091415
-0.22629608 -0.18312828 0.030185534 -0.25341696 0.080313474 0.056937456 -0.04392929 -0.07981515
0.12173368 0.066125795 0.13752724 -0.2405387 -0.026660148 -0.04334978 -0.11065728 -0.08793912
00000000: 9f9c 56be cc9a d1bd 8f04 9fbc 30a1 273d
00000010: ff01 a63d aa77 89be 8193 8abd 443e 9cbd
00000020: a4ca 9c39 c269 b23d ec09 2abe 4541 063d
00000030: c149 8a3c d2e4 6c3d 02cb a8be 207a 073e
00000040: ee3d 89bd 0d1f 41be 8666 a1be d90b 0c3e
00000050: f338 d9bc b93b f7bd 84c6 ecbd a2b3 1dbe
00000060: 4627 aabd 8449 5abe 6196 3ebd d274 42be
00000070: 1498 27be e7ff 7a3c 93c9 b9bd 688c 23be
00000080: 2fb2 f13d f66c afbd 04db 98be 9083 6b3c
00000090: c53f 7e3c fb3b db3c 73e9 dfbb 104e a2bd
000000a0: b5bc 0fbe 9c01 90bd 8f33 42be 39b3 47be
000000b0: d785 17bd 20cf 1b3d d85f f1bd aedf 66bc
000000c0: 29ba 67be fb85 3bbe a747 f73c debf 81be
000000d0: 647b a43d 4037 693d 33ef 33bd 2076 a3bd
000000e0: 824f f93d f66c 873d f1d3 0c3e c74f 76be
000000f0: 6266 dabc 8a8f 31bd 49a0 e2bd 6d19 b4bd

running_mean f4 [64]
0.012320704 0.007853637 -0.007023062 -0.005838906 0.013033048 0.0042665587 -0.008255008 0.007940753
0.0035044525 0.017258005 0.012791201 0.0028626302 0.0051261955 -0.008442379 -0.0043995664 -0.0028793064
0.006729231 -0.007730938 -0.0073262556 0.020317722 0.009686289 -0.010802168 -0.011428396 -0.0011904349
0.003081577 -0.004747072 -0.005114721 -0.015579339 0.010299214 -0.0041325595 -0.009435332 -0.009509485
0.0021753912 -0.007871041 0.007816718 -0.016294725 0.004572331 -0.005530662 -0.004100667 -0.0076227975
0.004105347 -0.010148166 -0.011790459 0.008462908 0.01186267 -0.0069545987 0.020478955 -0.008613362
-0.010619172 0.007980681 -0.007207596 0.008192054 -0.0057281 -0.015114442 0.007358196 0.015911741
-0.01237146 -0.0071449797 -0.009907019 -0.006531142 -0.019321255 0.004776293 0.008804376 0.007650385
00000000: c7dc 493c 8bac 003c b721 e6bb 4b54 bfbb
00000010: 9188 553c 7dce 8b3b 0340 07bc ef19 023c
00000020: f5aa 653b a960 8d3c 2f92 513c f79a 3b3b
00000030: a5f9 a73b e751 0abc 3d2a 90bb bfb2 3cbb
00000040: e280 dc3b cf53 fdbb 1611 f0bb 5a71 a63c
00000050: 3eb3 1e3c 94fb 30bc 2b3e 3bbc 5e08 9cba
00000060: 48f4 493b 538d 9bbb 6499 a7bb 7c40 7fbc
00000070: 09be 283c 6c6a 87bb a796 1abc accd 1bbc
00000080: 0291 0e3b 8af5 00bc b111 003c 847c 85bc
00000090: 7ed3 953b 8e3a b5bb e35e 86bb a9c8 f9bb
000000a0: 2686 863b 7e44 26bc c52c 41bc 02a8 0a3c
000000b0: a55b 423c 67e3 e3bb 7bc3 a73c 0f1f 0dbc
000000c0: 09fc 2dbc 67c1 023c b32d ecbb f737 063c
000000d0: c9b2 bbbb 91a2 77bc 061d f13b 5759 823c
000000e0: aab1 4abc 6f20 eabb 0d51 22bc 3103 d6bb
000000f0: 9c47 9ebc 7382 9c3b 3b40 103c 15b0 fa3b

running_var f4 [64]
0.00018621261 7.566234e-05 6.0504975e-05 4.1821633e-05 0.00020836758 2.2330243e-05 8.359363e-05 7.735021e-05
1.5065321e-05 0.0003653585 0.00020070614 1.0052372e-05 3.2235053e-05 8.7431465e-05 2.3744213e-05 1.0169832e-05
5.5548076e-05 7.331662e-05 6.584188e-05 0.0005063933 0.00011509408 0.00014313961 0.000160217 1.7383989e-06
1.1648879e-05 2.7643287e-05 3.20909e-05 0.00029773926 0.00013012065 2.0949628e-05 0.00010920751 0.000110930785
5.8051414e-06 7.599805e-05 7.4952644e-05 0.00032571086 2.5645626e-05 3.7522543e-05 2.062752e-05 7.127986e-05
2.0674637e-05 0.00012633196 0.00017052951 8.78572e-05 0.00017262471 5.9331065e-05 0.0005144625 9.1008784e-05
0.00013833093 7.813003e-05 6.3726344e-05 8.232349e-05 4.024938e-05 0.00028023496 6.641723e-05 0.00031058
0.00018775006 6.26239e-05 0.00012039933 5.232585e-05 0.00045794022 2.7984655e-05 9.5090094e-05 7.179673e-05
00000000: 1142 4339 e9ac 9e38 b9c6 7d38 a369 2f38
00000010: 3f7d 5a39 d551 bb37 fd4e af38 1437 a238
00000020: 10c1 7c37 968d bf39 a574 5239 9ca6 2837
00000030: 2034 0738 695b b738 4f2e c737 199f 2a37
00000040: 4bfc 6838 90c1 9938 9714 8a38 7bbf 043a
00000050: aa5e f138 bf17 1639 ecff 2739 ee52 e935
00000060: 8e6f 4337 82e3 e737 5799 0638 e319 9c39
00000070: ff70 0839 fcbc af37 5606 e538 83a3 e838
00000080: c9c9 c236 2461 9f38 e52f 9d38 2cc4 aa39
00000090: 9021 d737 8661 1d38 4309 ad37 157c 9538
000000a0: 726e ad37 fa77 0439 2bd0 3239 fa3f b838
000000b0: 9802 3539 3fda 7838 fedc 063a f8db be38
000000c0: ed0c 1139 bed9 a338 d2a4 8538 16a5 ac38
000000d0: 71d1 2838 80ec 9239 7b49 8b38 58d5 a239
000000e0: c6de 4439 f354 8338 e67e fc38 7478 5b38
000000f0: b217 f039 97c0 ea37 1b6b c738 9391 9638

cpu f4 [64]
0.0 0.0 0.0 0.0 0.0 0.0 0.0 0.0
0.0 0.0 0.0 0.0 0.0 0.0 0.0 0.0
0.0 0.0 0.0 0.0 0.0 0.0 0.0 0.0
0.0 0.0 0.0 0.0 0.0 0.0 0.0 0.0
0.0 0.0 0.0 0.0 0.0 0.0 0.0 0.0
0.0 0.0 0.0 0.0 0.0 0.0 0.0 0.0
0.0 0.0 0.0 0.0 0.0 0.0 0.0 0.0
0.0 0.0 0.0 0.0 0.0 0.0 0.0 0.0
00000000: 0000 0000 0000 0000 0000 0000 0000 0000
00000010: 0000 0000 0000 0000 0000 0000 0000 0000
00000020: 0000 0000 0000 0000 0000 0000 0000 0000
00000030: 0000 0000 0000 0000 0000 0000 0000 0000
00000040: 0000 0000 0000 0000 0000 0000 0000 0000
00000050: 0000 0000 0000 0000 0000 0000 0000 0000
00000060: 0000 0000 0000 0000 0000 0000 0000 0000
00000070: 0000 0000 0000 0000 0000 0000 0000 0000
00000080: 0000 0000 0000 0000 0000 0000 0000 0000
00000090: 0000 0000 0000 0000 0000 0000 0000 0000
000000a0: 0000 0000 0000 0000 0000 0000 0000 0000
000000b0: 0000 0000 0000 0000 0000 0000 0000 0000
000000c0: 0000 0000 0000 0000 0000 0000 0000 0000
000000d0: 0000 0000 0000 0000 0000 0000 0000 0000
000000e0: 0000 0000 0000 0000 0000 0000 0000 0000
000000f0: 0000 0000 0000 0000 0000 0000 0000 0000

cpu f4 [128]
0.0 0.0 0.0 0.0 0.0 0.0 0.0 0.0
0.0 0.0 0.0 0.0 0.0 0.0 0.0 0.0
0.0 0.0 0.0 0.0 0.0 0.0 0.0 0.0
0.0 0.0 0.0 0.0 0.0 0.0 0.0 0.0
0.0 0.0 0.0 0.0 0.0 0.0 0.0 0.0
0.0 0.0 0.0 0.0 0.0 0.0 0.0 0.0
0.0 0.0 0.0 0.0 0.0 0.0 0.0 0.0
0.0 0.0 0.0 0.0 0.0 0.0 0.0 0.0
0.0 0.0 0.0 0.0 0.0 0.0 0.0 0.0
0.0 0.0 0.0 0.0 0.0 0.0 0.0 0.0
0.0 0.0 0.0 0.0 0.0 0.0 0.0 0.0
0.0 0.0 0.0 0.0 0.0 0.0 0.0 0.0
0.0 0.0 0.0 0.0 0.0 0.0 0.0 0.0
0.0 0.0 0.0 0.0 0.0 0.0 0.0 0.0
0.0 0.0 0.0 0.0 0.0 0.0 0.0 0.0
0.0 0.0 0.0 0.0 0.0 0.0 0.0 0.0
00000000: 0000 0000 0000 0000 0000 0000 0000 0000
00000010: 0000 0000 0000 0000 0000 0000 0000 0000
00000020: 0000 0000 0000 0000 0000 0000 0000 0000
00000030: 0000 0000 0000 0000 0000 0000 0000 0000
00000040: 0000 0000 0000 0000 0000 0000 0000 0000
00000050: 0000 0000 0000 0000 0000 0000 0000 0000
00000060: 0000 0000 0000 0000 0000 0000 0000 0000
00000070: 0000 0000 0000 0000 0000 0000 0000 0000
00000080: 0000 0000 0000 0000 0000 0000 0000 0000
00000090: 0000 0000 0000 0000 0000 0000 0000 0000
000000a0: 0000 0000 0000 0000 0000 0000 0000 0000
000000b0: 0000 0000 0000 0000 0000 0000 0000 0000
000000c0: 0000 0000 0000 0000 0000 0000 0000 0000
000000d0: 0000 0000 0000 0000 0000 0000 0000 0000
000000e0: 0000 0000 0000 0000 0000 0000 0000 0000
000000f0: 0000 0000 0000 0000 0000 0000 0000 0000
00000100: 0000 0000 0000 0000 0000 0000 0000 0000
00000110: 0000 0000 0000 0000 0000 0000 0000 0000
00000120: 0000 0000 0000 0000 0000 0000 0000 0000
00000130: 0000 0000 0000 0000 0000 0000 0000 0000
00000140: 0000 0000 0000 0000 0000 0000 0000 0000
00000150: 0000 0000 0000 0000 0000 0000 0000 0000
00000160: 0000 0000 0000 0000 0000 0000 0000 0000
00000170: 0000 0000 0000 0000 0000 0000 0000 0000
00000180: 0000 0000 0000 0000 0000 0000 0000 0000
00000190: 0000 0000 0000 0000 0000 0000 0000 0000
000001a0: 0000 0000 0000 0000 0000 0000 0000 0000
000001b0: 0000 0000 0000 0000 0000 0000 0000 0000
000001c0: 0000 0000 0000 0000 0000 0000 0000 0000
000001d0: 0000 0000 0000 0000 0000 0000 0000 0000
000001e0: 0000 0000 0000 0000 0000 0000 0000 0000
000001f0: 0000 0000 0000 0000 0000 0000 0000 0000

weight f4 [128]
0.17596923 0.25904536 0.16166365 0.21878526 0.0821487 0.23573135 0.2964393 0.16434216
0.36874717 0.12171652 0.13222496 0.13259101 0.22213586 0.16481087 0.12610324 0.2681002
0.28704163 0.34371874 0.34514278 0.2568491 0.10449239 0.15142983 0.27656922 0.10924771
0.39436904 0.34613866 0.16849934 0.22724836 0.22815341 0.1831882 0.17963405 0.16666156
0.17730188 0.09473076 0.08264338 0.15486005 0.16589926 0.28719917 0.17678289 0.3346922
0.25907195 0.22557525 0.022913078 -0.1980662 0.025867123 0.08698539 0.25302213 0.2086826
0.48396137 0.20569448 0.12902537 0.25350466 0.34460104 0.20268379 0.14093602 0.15493949
0.20312327 0.22536306 0.21700148 0.20736323 0.20250857 0.31619763 0.3613395 0.14839622
0.15876119 0.17902778 0.2931494 0.31115216 0.09262299 0.15816258 0.27736774 0.2392159
0.24968472 0.2566733 0.29276875 0.123170264 0.09948414 0.08585993 0.11163681 0.07937802
0.4872074 0.14472161 0.09068938 0.11120764 0.22876519 0.24172539 0.10162484 0.16717136
0.10429314 0.236064 0.1728319 0.19785652 0.1447798 0.06446074 0.33231187 0.15977745
0.31052235 0.2801024 0.28133863 0.19041057 0.2662909 0.18595824 0.23412171 0.23661265
0.19357711 0.048237298 0.19819902 0.20409168 0.18840297 0.18040614 0.24665916 0.13604632
0.16772744 0.16544081 0.16930854 0.16069862 0.24002858 0.19612142 0.11333219 0.17556956
0.114265636 0.2913237 0.16475792 0.17670116 0.2229998 0.10068184 0.03352053 0.2278599
00000000: 4731 343e 98a1 843e 288b 253e 3e09 603e
00000010: 943d a83d 8f63 713e e4c6 973e 5049 283e
00000020: 6ecc bc3e 8346 f93d fb65 073e f0c5 073e
00000030: 9577 633e 2ec4 283e 3521 013e 6e44 893e
00000040: 1ff7 923e e7fb af3e 8eb6 b03e ba81 833e
00000050: 1b00 d63d 6c10 1b3e 7b9a 8d3e 43bd df3d
00000060: bdea c93e 1639 b13e 178b 2c3e cbb3 683e
00000070: 0ca1 693e b095 3b3e fdf1 373e 54a9 2a3e
00000080: a08e 353e 3302 c23d ef40 a93d a293 1e3e
00000090: 7fe1 293e c50b 933e 9306 353e c75c ab3e
000000a0: 14a5 843e 33fd 663e 35b4 bb3c ded1 4abe
000000b0: 4ae7 d33c 6525 b23d 1e8c 813e e4b0 553e
000000c0: c9c9 f73e 93a1 523e 3a1f 043e 5dcb 813e
000000d0: 8c6f b03e 578c 4f3e 8851 103e 75a8 1e3e
000000e0: 8cff 4f3e 93c5 663e a335 5e3e 0757 543e
000000f0: 685e 4f3e a8e4 a13e 7e01 b93e 2ef5 173e
00000100: 4b92 223e 0f53 373e ae17 963e 564f 9f3e
00000110: 1fb1 bd3d 5ff5 213e 2503 8e3e 03f5 743e
00000120: 5aad 7f3e af6a 833e c9e5 953e b140 fc3d
00000130: 57be cb3d 55d7 af3d d7a1 e43d f190 a23d
00000140: 4073 f93e e731 143e 5bbb b93d d5c0 e33d
00000150: 6c41 6a3e dc86 773e af20 d03d f82e 2b3e
00000160: a497 d53d c3ba 713e d8fa 303e e69a 4a3e
00000170: 2841 143e fe03 843d c824 aa3e b39c 233e
00000180: c9fc 9e3e 9569 8f3e 9e0b 903e fdfa 423e
00000190: 4857 883e d66b 3e3e 9abd 6f3e 964a 723e
000001a0: 1439 463e 7994 453d aff4 4a3e 69fd 503e
000001b0: b5ec 403e 63bc 383e 3894 7c3e ba4f 0b3e
000001c0: bec0 2b3e 5169 293e 385f 2d3e 2e8e 243e
000001d0: 0dca 753e 0ed4 483e b51a e83d 82c8 333e
000001e0: 1a04 ea3d 6128 953e 4db6 283e 26f1 343e
000001f0: 0f5a 643e 4832 ce3d d34c 093d 1b54 693e

bias f4 [128]
-0.2595844 -0.09419032 -0.01924073 -0.22735639 0.00059721235 -0.20129307 -0.03623261 -0.10220357
0.058958992 -0.11938674 -0.029381568 -0.13069257 -0.19095333 -0.25341853 -0.12166531 -0.033645842
-0.020565055 -0.22461094 -0.0135047 -0.0029487768 -0.15311503 -0.12791719 -0.13704497 -0.2865381
0.010954831 -0.038377974 -0.21513775 -0.08626802 0.05875515 -0.14379162 -0.036266673 -0.11411155
-0.08190056 -0.10734849 -0.22523542 -0.008558626 -0.1896765 -0.17307943 -0.10770967 0.023754723
-0.10568481 -0.16932876 0.055958368 0.008645335 -0.26628926 -0.1040446 -0.19495504 0.11762626
-0.07508242 -0.34548813 -0.25949985 -0.05891687 0.12196066 0.013571927 -0.106892794 -0.17799334
-0.12686619 -0.087820314 -0.06824983 -0.007971736 -0.0894243 -0.16408841 -0.04818053 -0.055449046
-0.032101538 -0.14273554 -0.007990083 0.35201693 -0.0054108333 -0.12373938 -0.029411068 -0.13955359
-0.030717127 -0.058193445 -0.08080253 -0.13542958 -0.08044046 -0.07709244 0.03581788 -0.24580288
-0.03970291 -0.19992928 -0.14049289 -0.11449595 -0.18749994 -0.18515469 -0.07751764 -0.1071598
-0.18362862 -0.11584438 -0.082809314 -0.043020602 -0.08909735 -0.008047239 -0.043791156 0.011906411
-0.05870628 -0.11811944 -0.08371545 -0.10872535 0.018841192 -0.04643701 -0.041223392 -0.14419645
-0.15727764 -0.10690091 0.07700242 -0.018635057 0.038834833 -0.19659287 -0.066466734 -0.14157322
-0.1566903 -0.034225672 -0.25952536 -0.10043012 -0.06473747 -0.08239496 -0.26879257 -0.12511669
-0.23901922 0.25976038 -0.33387473 0.039041504 -0.10051562 -0.14008273 -0.06280942 -0.06257734
00000000: 3fe8 84be dbe6 c0bd bc9e 9dbc 1dd0 68be
00000010: 3e8e 1c3a c51f 4ebe a568 14bd 1b50 d1bd
00000020: fc7e 713d 0981 f4bd 9db1 f0bc 46d4 05be
00000030: 4589 43be 13c0 81be a92b f9bd 39d0 09bd
00000040: 0c78 a8bc 6900 66be d142 5dbc 4440 41bb
00000050: 30ca 1cbe b9fc 02be 8455 0cbe 1fb5 92be
00000060: e47b 333c 3932 1dbd 124d 5cbe 4aad b0bd
00000070: 3da9 703d 1c3e 13be 5d8c 14bd 51b3 e9bd
00000080: 7bbb a7bd 86d9 dbbd 1da4 66be 7b39 0cbc
00000090: 8e3a 42be bc3b 31be e396 dcbd 4499 c23c
000000a0: 4771 d8bd 8564 2dbe 9a34 653d 2aa5 0d3c
000000b0: 1157 88be 5615 d5bd 4ba2 47be 09e6 f03d
000000c0: d0c4 99bd d2e3 b0be 2add 84be d152 71bd
000000d0: 83c6 f93d ca5c 5e3c 9cea dabd e343 36be
000000e0: 36e9 01be 23db b3bd 91c6 8bbd e29b 02bc
000000f0: 1624 b7bd cb06 28be f358 45bd 8a1e 63bd
00000100: e77c 03bd 4429 12be d6e8 02bc 903b b43e
00000110: 5c4d b1bb 126b fdbd 7bef f0bc 23e7 0ebe
00000120: 7ca2 fbbc 405c 6ebd cc7b a5bd 0dae 0abe
00000130: f8bd a4bd a4e2 9dbd c5b5 123d c0b3 7bbe
00000140: 859f 22bd 43ba 4cbe 5edd 0fbe da7c eabd
00000150: fcff 3fbe 3199 3dbe 92c1 9ebd 9976 dbbd
00000160: 2409 3cbe d13f edbd ee97 a9bd 5f36 30bd
00000170: ac78 b6bd 91d8 03bc 5b5e 33bd 1b13 433c
00000180: ff75 70bd 9be8 f1bd 0173 abbd 65ab debd
00000190: d858 9a3c bc34 3ebd dcd9 28bd 3ca8 13be
000001a0: 640d 21be ddee dabd 72b3 9d3d 8ca8 98bc
000001b0: 4611 1f3d a44f 49be b61f 88bd 92f8 10be
000001c0: 6c73 20be 3830 0cbd 82e0 84be 4fae cdbd
000001d0: 1495 84bd b0be a8bd 2e9f 89be 971e 00be
000001e0: 74c1 74be 50ff 843e a1f1 aabe fce9 1f3d
000001f0: 22db cdbd d971 0fbe 3aa2 80bd 8c28 80bd

running_mean f4 [128]
0.012652019 0.015465917 -0.040708855 -0.044331722 0.0072172736 0.009520999 0.045754977 -0.02405259
-0.04478611 0.00057409756 -0.025186073 -0.010684744 0.0066649285 0.034618776 0.020873988 -0.038258158
0.0023902569 0.04221935 0.020417644 0.005012451 0.07368944 -0.0067377035 0.00914814 -0.049882047
0.0052767573 -0.010646244 0.035496116 -0.0023823774 -0.05461173 -0.0064386236 0.011709206 0.0035957366
-0.013683763 -0.010928464 -0.10347431 0.028466128 -0.017758783 0.008706227 -0.0242381 -0.020176535
0.008404468 -0.021232225 -0.024003997 -0.023137566 0.024057165 -0.023433344 -0.017738942 -0.019256188
0.06720538 0.030193537 0.03724257 -0.030455796 -0.0702289 -0.0020604765 -0.01723951 -0.047577746
-0.033774864 0.055421874 -0.032834746 -0.048747554 0.0020488822 -0.012403123 -0.037224196 -0.009761032
0.01633471 0.019474212 0.0017483752 -0.10507543 -0.01218128 -0.026128074 0.0015084057 0.027170768
0.00321366 -0.030167414 0.0210275 -0.052049797 0.008664286 0.027532902 -0.029818237 0.00802039
-0.03713589 -0.019822733 -0.003106506 -0.0071837096 -0.0066437074 -0.034856074 -0.012291911 0.021050774
-0.0028441877 -0.06485819 -0.0012996928 0.054657545 0.014036433 -0.029493796 0.014328459 0.027483381
0.014289545 -0.056504957 0.04182287 0.01724769 0.020465808 0.020011222 0.05693802 -0.01448931
-0.029925594 -0.047544744 -0.041740652 -0.027889503 -0.02518205 0.05405873 0.007853658 -0.01219843
0.05891929 -0.03234673 -0.049830664 -0.010387492 0.029884614 0.027924053 0.050583158 0.014676456
-0.00915983 0.009981629 0.023215778 -0.011337162 0.0074991393 -0.00036008208 -0.06066982 -0.07753863
00000000: 6a4a 4f3c c264 7d3c 54be 26bd 2e95 35bd
00000010: e17e ec3b f7fd 1b3c 9269 3b3d f009 c5bc
00000020: a471 37bd 097f 163a 0653 cebc 110f 2fbc
00000030: 7965 da3b 6bcc 0d3d edff aa3c 96b4 1cbd
00000040: dba5 1c3b 32ee 2c3d e742 a73c 7d3f a43b
00000050: 7dea 963d f4c7 dcbb 15e2 153c 1e51 4cbd
00000060: a6e8 ac3b 956d 2ebc 6064 113d a921 1cbb
00000070: 8db0 5fbd 17fb d2bb f8d7 3f3c 73a6 6b3b
00000080: dd31 60bc 4d0d 33bc 57ea d3bd cc31 e93c
00000090: de7a 91bc 90a4 0e3c fb8e c6bc 4349 a5bc
000000a0: e5b2 093c 34ef adbc 08a4 c4bc fe8a bdbc
000000b0: 8813 c53c 49f7 bfbc 4251 91bc 27bf 9dbc
000000c0: f9a2 893d 7058 f73c aa8b 183d 6f7e f9bc
000000d0: 2bd4 8fbd 0f09 07bb df39 8dbc e2e0 42bd
000000e0: 8357 0abd 0c02 633d ba7d 06bd 84ab 47bd
000000f0: 8a46 063b 7836 4bbc 6678 18bd bcec 1fbc
00000100: 5fd0 853c 6288 9f3c bd29 e53a c931 d7bd
00000110: fe93 47bc 8b0a d6bc b2b5 c53a 3b95 de3c
00000120: 459c 523b a721 f7bc dd41 ac3c 2b32 55bd
00000130: a6f4 0d3c ae8c e13c 6045 f4bc f467 033c
00000140: ce1b 18bd 4963 a2bc 8696 4bbb 5365 ebbb
00000150: 75b3 d9bb 3ec5 0ebd 0364 49bc ac72 ac3c
00000160: 8d65 3abb 5fd4 84bd 745a aaba 97e0 5f3d
00000170: 11f9 653c f99c f1bc eac1 6a3c d424 e13c
00000180: b21e 6a3c be71 67bd 754e 2b3d 074b 8d3c
00000190: e9a7 a73c 93ee a33c d737 693d 9264 6dbc
000001a0: 8526 f5bc 47be 42bd 3ff8 2abd 8778 e4bc
000001b0: 964a cebc b06c 5d3d a1ac 003c ecdb 47bc
000001c0: 5a55 713d 017e 04bd 3d1b 4cbd 4d30 2abc
000001d0: 94d0 f43c fcc0 e43c 4930 4f3d 8575 703c
000001e0: 1d13 16bc fd89 233c 042f be3c 81bf 39bc
000001f0: 57bb f53b 66c9 bcb9 eb80 78bd 93cc 9ebd

running_var f4 [128]
0.0023206973 0.0030970327 0.0012090435 0.0021693425 0.0030038645 0.0069680354 0.0016102579 0.0011770733
0.0055941916 0.0007961506 0.0017850123 0.0021685169 0.006507155 0.0029505861 0.0030399458 0.0025671558
0.003945325 0.0068258774 0.0027936178 0.00097649824 0.004023134 0.001812454 0.0039449246 0.0046899864
0.0030827147 0.0011669807 0.0016081141 0.0011519315 0.0014467749 0.0014870628 0.0013525877 0.000840221
0.0014698346 0.0010826453 0.008568374 0.00072851253 0.0007410163 0.0037289297 0.00056592055 0.0014729132
0.0034517222 0.0027222065 0.0005612003 0.0028803227 0.0007946785 0.0015650385 0.002967129 0.0010061836
0.0075529 0.0018014106 0.0038417354 0.0038381468 0.003624555 0.0007744017 0.0009417202 0.0021852222
0.0036415537 0.0049050734 0.0021357804 0.0024429974 0.003174827 0.002176872 0.0018591227 0.0015559066
0.000555763 0.002980939 0.0026177398 0.016246103 0.000114847695 0.0013265456 0.0013335723 0.0010297879
0.0017531362 0.00397325 0.0032260336 0.0019410362 0.0010797841 0.0036994305 0.0011200812 0.0009198904
0.0043164873 0.0015930198 0.0010661664 0.0015423818 0.0013332912 0.0030726644 0.00018982393 0.0013172525
0.0020717247 0.004438029 0.001282138 0.0041657137 0.0009891919 0.00069457776 0.0035544024 0.0013258781
0.0019870743 0.002806708 0.0034440677 0.0018213792 0.0030264882 0.0014631923 0.0040189214 0.009818118
0.0010068715 0.0039181877 0.0031316741 0.0011118939 0.0029870728 0.006637713 0.0016788852 0.0024111576
0.009625873 0.0019920669 0.0026885462 0.0034980758 0.0037340585 0.0067033754 0.0026889816 0.0016794639
0.0020641426 0.0043688132 0.005044339 0.0011265184 0.0018646806 0.00067872467 0.0047269166 0.0016033348
00000000: d716 183b 96f7 4a3b c578 9e3a 872b 0e3b
00000010: 7cdc 443b 1e54 e43b 4a0f d33a 0748 9a3a
00000020: 7b4f b73b c3b4 503a 13f7 e93a ad1d 0e3b
00000030: f939 d53b 9f5e 413b d439 473b ba3d 283b
00000040: c947 813b 9cab df3b 2115 373b b0fb 7f3a
00000050: 7ed4 833b dd8f ed3a 6d44 813b 75ae 993b
00000060: 5f07 4a3b 60f5 983a 5bc7 d23a 68fc 963a
00000070: b6a1 bd3a 8ce9 c23a 5049 b13a 4742 5c3a
00000080: 77a7 c03a 8ce7 8d3a 5e62 0c3c a6f9 3e3a
00000090: c340 423a 0f61 743b 495a 143a c40e c13a
000000a0: 4a36 623b 0c67 323b 841d 133a ccc3 3c3b
000000b0: f951 503a fa21 cd3a 2a74 423b ebe1 833a
000000c0: 517e f73b 4f1d ec3a a0c5 7b3b 6b89 7b3b
000000d0: f189 6d3b 3801 4b3a c6dd 763a f235 0f3b
000000e0: 22a7 6e3b bdba a03b 73f8 0b3b b21a 203b
000000f0: c210 503b daa9 0e3b cead f33a 90ef cb3a
00000100: a0b0 113a dc5b 433b 638e 2b3b 8c16 853c
00000110: 63da f038 7cdf ad3a 43cb ae3a f3f9 863a
00000120: 7dc9 e53a 0932 823b dd6b 533b 5e6a fe3a
00000130: 8b87 8d3a 2572 723b b0cf 923a cd24 713a
00000140: 5271 8d3b e0cc d03a 9cbe 8b3a bf29 ca3a
00000150: d4c1 ae3a c15e 493b 790b 4739 a9a7 ac3a
00000160: c6c5 073b e36c 913b 6a0d a83a 8a80 883b
00000170: c6a7 813a 5314 363a faf0 683b 16c9 ad3a
00000180: 9339 023b bff0 373b deb5 613b 58bb ee3a
00000190: 0c58 463b 96c8 bf3a 28b1 833b 2cdc 203c
000001a0: 00f9 833a 2464 803b c63c 4d3b f8bc 913a
000001b0: c4c2 433b 2c81 d93b 0a0e dc3a 8304 1e3b
000001c0: d6b5 1d3c 568d 023b 5232 303b f93f 653b
000001d0: 1bb7 743b fda7 db3b a039 303b 7521 dc3a
000001e0: 9146 073b 4328 8f3b fc4a a53b afa7 933a
000001f0: 4c68 f43a 71ec 313a 40e4 9a3b fd26 d23a

cpu f4 [128]
0.0 0.0 0.0 0.0 0.0 0.0 0.0 0.0
0.0 0.0 0.0 0.0 0.0 0.0 0.0 0.0
0.0 0.0 0.0 0.0 0.0 0.0 0.0 0.0
0.0 0.0 0.0 0.0 0.0 0.0 0.0 0.0
0.0 0.0 0.0 0.0 0.0 0.0 0.0 0.0
0.0 0.0 0.0 0.0 0.0 0.0 0.0 0.0
0.0 0.0 0.0 0.0 0.0 0.0 0.0 0.0
0.0 0.0 0.0 0.0 0.0 0.0 0.0 0.0
0.0 0.0 0.0 0.0 0.0 0.0 0.0 0.0
0.0 0.0 0.0 0.0 0.0 0.0 0.0 0.0
0.0 0.0 0.0 0.0 0.0 0.0 0.0 0.0
0.0 0.0 0.0 0.0 0.0 0.0 0.0 0.0
0.0 0.0 0.0 0.0 0.0 0.0 0.0 0.0
0.0 0.0 0.0 0.0 0.0 0.0 0.0 0.0
0.0 0.0 0.0 0.0 0.0 0.0 0.0 0.0
0.0 0.0 0.0 0.0 0.0 0.0 0.0 0.0
00000000: 0000 0000 0000 0000 0000 0000 0000 0000
00000010: 0000 0000 0000 0000 0000 0000 0000 0000
00000020: 0000 0000 0000 0000 0000 0000 0000 0000
00000030: 0000 0000 0000 0000 0000 0000 0000 0000
00000040: 0000 0000 0000 0000 0000 0000 0000 0000
00000050: 0000 0000 0000 0000 0000 0000 0000 0000
00000060: 0000 0000 0000 0000 0000 0000 0000 0000
00000070: 0000 0000 0000 0000 0000 0000 0000 0000
00000080: 0000 0000 0000 0000 0000 0000 0000 0000
00000090: 0000 0000 0000 0000 0000 0000 0000 0000
000000a0: 0000 0000 0000 0000 0000 0000 0000 0000
000000b0: 0000 0000 0000 0000 0000 0000 0000 0000
000000c0: 0000 0000 0000 0000 0000 0000 0000 0000
000000d0: 0000 0000 0000 0000 0000 0000 0000 0000
000000e0: 0000 0000 0000 0000 0000 0000 0000 0000
000000f0: 0000 0000 0000 0000 0000 0000 0000 0000
00000100: 0000 0000 0000 0000 0000 0000 0000 0000
00000110: 0000 0000 0000 0000 0000 0000 0000 0000
00000120: 0000 0000 0000 0000 0000 0000 0000 0000
00000130: 0000 0000 0000 0000 0000 0000 0000 0000
00000140: 0000 0000 0000 0000 0000 0000 0000 0000
00000150: 0000 0000 0000 0000 0000 0000 0000 0000
00000160: 0000 0000 0000 0000 0000 0000 0000 0000
00000170: 0000 0000 0000 0000 0000 0000 0000 0000
00000180: 0000 0000 0000 0000 0000 0000 0000 0000
00000190: 0000 0000 0000 0000 0000 0000 0000 0000
000001a0: 0000 0000 0000 0000 0000 0000 0000 0000
000001b0: 0000 0000 0000 0000 0000 0000 0000 0000
000001c0: 0000 0000 0000 0000 0000 0000 0000 0000
000001d0: 0000 0000 0000 0000 0000 0000 0000 0000
000001e0: 0000 0000 0000 0000 0000 0000 0000 0000
000001f0: 0000 0000 0000 0000 0000 0000 0000 0000
