ldpi/training/output/ResCNN/scripted_quantized_model.pth (torch, 269226 bytes, 61 tensors)

cpu f4 [64]
0	0x00000000	0.0
1	0x00000000	0.0
2	0x00000000	0.0
3	0x00000000	0.0
4	0x00000000	0.0
5	0x00000000	0.0
6	0x00000000	0.0
7	0x00000000	0.0
8	0x00000000	0.0
9	0x00000000	0.0
10	0x00000000	0.0
11	0x00000000	0.0
12	0x00000000	0.0
13	0x00000000	0.0
14	0x00000000	0.0
15	0x00000000	0.0
16	0x00000000	0.0
17	0x00000000	0.0
18	0x00000000	0.0
19	0x00000000	0.0
20	0x00000000	0.0
21	0x00000000	0.0
22	0x00000000	0.0
23	0x00000000	0.0
24	0x00000000	0.0
25	0x00000000	0.0
26	0x00000000	0.0
27	0x00000000	0.0
28	0x00000000	0.0
29	0x00000000	0.0
30	0x00000000	0.0
31	0x00000000	0.0
32	0x00000000	0.0
33	0x00000000	0.0
34	0x00000000	0.0
35	0x00000000	0.0
36	0x00000000	0.0
37	0x00000000	0.0
38	0x00000000	0.0
39	0x00000000	0.0
40	0x00000000	0.0
41	0x00000000	0.0
42	0x00000000	0.0
43	0x00000000	0.0
44	0x00000000	0.0
45	0x00000000	0.0
46	0x00000000	0.0
47	0x00000000	0.0
48	0x00000000	0.0
49	0x00000000	0.0
50	0x00000000	0.0
51	0x00000000	0.0
52	0x00000000	0.0
53	0x00000000	0.0
54	0x00000000	0.0
55	0x00000000	0.0
56	0x00000000	0.0
57	0x00000000	0.0
58	0x00000000	0.0
59	0x00000000	0.0
60	0x00000000	0.0
61	0x00000000	0.0
62	0x00000000	0.0
63	0x00000000	0.0

weight f4 [64]
0	0x3e6a0318	0.22852743
1	0x3e042380	0.12904167
2	0x3ead28e3	0.33820257
3	0x3d615391	0.055011336
4	0x3e049324	0.12946755
5	0x3ec95ace	0.3932709
6	0x3e35fd7d	0.1777248
7	0x3e52f0b0	0.20599627
8	0x3eea2543	0.45731553
9	0x3ee7ab03	0.4524766
10	0x3d94ff1d	0.072752215
11	0x3e983f35	0.29735723
12	0x3e9f46cf	0.3110871
13	0x3ddfc135	0.10925523
14	0x3e216dde	0.15764567
15	0x3ebf8f22	0.3741389
16	0x3e237d47	0.15965758
17	0x3d670f36	0.05641099
18	0x3f16a8ac	0.5885112
19	0x3c6ee5f8	0.014581196
20	0x3e015e63	0.12633662
21	0x3e473096	0.19452128
22	0x3dae5d48	0.08513886
23	0x3db33821	0.0875094
24	0x3e3b1305	0.18268974
25	0x3e9dbef4	0.30809748
26	0x3e091f22	0.13390782
27	0x3e129c0c	0.1431734
28	0x3dbe52a2	0.09293105
29	0x3db7c12c	0.089723915
30	0x3efa3597	0.4886901
31	0x3e8fddfd	0.2809905
32	0x3e1e6487	0.15468036
33	0x3e74bdff	0.23900603
34	0x3edb10e7	0.42786333
35	0x3e806e73	0.25084266
36	0x3eb85d18	0.36008525
37	0x3ea3c323	0.31984815
38	0x3df6a919	0.120439716
39	0x3dd56c59	0.10421056
40	0x3d32e29d	0.043673147
41	0x3d520054	0.051269844
42	0x3eb6a23e	0.35670656
43	0x3eadac82	0.33920676
44	0x3f1c6885	0.61096984
45	0x3c858fe5	0.016303966
46	0x3f2e9888	0.68201494
47	0x3c39f37a	0.011349553
48	0x3e857664	0.26066887
49	0x3e45db14	0.19321853
50	0x3e47b369	0.19502033
51	0x3d11f800	0.0356369
52	0x3ecabff5	0.39599577
53	0x3e4b063a	0.19826594
54	0x3ead2d36	0.33823556
55	0x3d017245	0.031603117
56	0x3e7b7532	0.24556425
57	0x3e5fbbd6	0.21848997
58	0x3f07a326	0.5298332
59	0x3dc07bf8	0.09398645
60	0x3ccbc0ae	0.02487215
61	0x3ebc82ef	0.36818644
62	0x3ecb42da	0.3969944
63	0x3dc88da8	0.09792644

bias f4 [64]
0	0xbebcd2e6	-0.36879653
1	0x3dbac64a	0.09119852
2	0x3df2691c	0.11836454
3	0xbc4fa012	-0.012672441
4	0x3dd7d40e	0.10538493
5	0x3e0501c7	0.12988959
6	0x3e1b1c59	0.15147533
7	0x3d74bbbc	0.05974935
8	0x3e39cc70	0.18144393
9	0x3e219374	0.15778905
10	0xbc82fbaf	-0.015989153
11	0x3cc24d39	0.023718463
12	0xbdb8c15e	-0.09021257
13	0xbea9211e	-0.3303308
14	0xbd987401	-0.07444001
15	0xbdc91e7d	-0.09820268
16	0xbd69872d	-0.05701368
17	0xbd962827	-0.07331877
18	0x3d845ba8	0.064627945
19	0x3f3f3461	0.746893
20	0xbd825040	-0.06362963
21	0xbe4e0b85	-0.20121582
22	0xbcb22456	-0.021745842
23	0x3e8d8c65	0.27646175
24	0x3cadbcea	0.021208245
25	0xbda3517c	-0.07974526
26	0xbd168d60	-0.03675592
27	0x3d379c69	0.0448269
28	0xbd306d80	-0.043073177
29	0xbca3b004	-0.019981392
30	0xbe0bc579	-0.13649549
31	0xbd86f5ce	-0.06589852
32	0x3e86d68d	0.26335564
33	0xbdd63818	-0.10459918
34	0x3eb39357	0.3507335
35	0xbda24305	-0.07922939
36	0x3e46d9ac	0.19418973
37	0xbddbe980	-0.10737896
38	0x3da7f06e	0.08200155
39	0xbd46a6bc	-0.048498854
40	0xbd893be5	-0.06700877
41	0xbefe754d	-0.49698868
42	0x3e1605c0	0.14650631
43	0xbdba1098	-0.09085196
44	0x3d9e3a3b	0.0772595
45	0xbdc5e390	-0.09662545
46	0xbe6cd584	-0.23128325
47	0xbe1c3452	-0.15254334
48	0x3dd060f7	0.101747446
49	0x3d82a4c1	0.063790806
50	0xbd5a7039	-0.05332968
51	0xbc40a1c5	-0.011757319
52	0x3dfc64c7	0.12323909
53	0xbda243fe	-0.07923125
54	0x3e0edcc5	0.13951404
55	0xbda44f8f	-0.08022987
56	0x3e8a489f	0.2700853
57	0x3d618162	0.05505503
58	0x3ee0b304	0.43886578
59	0x3ceb5199	0.028725432
60	0xbe555097	-0.20831524
61	0xbc8d30c1	-0.017235162
62	0xbee176d6	-0.44035977
63	0xbcd99492	-0.026560102

running_mean f4 [64]
0	0x3cc37ba1	0.023862662
1	0xbc538969	-0.012911179
2	0x3ce8b320	0.028405726
3	0xbcb566d3	-0.022143757
4	0x3c383c85	0.011244898
5	0x3cacb04f	0.021080164
6	0xbcbdf62a	-0.02318867
7	0x3c2e5b55	0.010641892
8	0xbc9a6fc6	-0.018852126
9	0xbcdf9020	-0.027290404
10	0xbbd6fc97	-0.006560873
11	0xbc863722	-0.016383711
12	0x3c978555	0.018496195
13	0xbbd2c95f	-0.0064326967
14	0x3c8a26a4	0.016864128
15	0x3c9c1660	0.019053638
16	0x3cd1c5e5	0.025607059
17	0x3bde7c22	0.0067897
18	0xbcfb52fb	-0.030679217
19	0x3beba84c	0.0071916934
20	0xbbe1a300	-0.006885886
21	0x3a6abfb9	0.00089549605
22	0xbc467494	-0.012112755
23	0xbca18686	-0.019717466
24	0xbca65f5c	-0.020309143
25	0x3c958469	0.018251615
26	0xbc192955	-0.009348233
27	0x3c724914	0.014787931
28	0x3cafadd4	0.021445192
29	0x3c1fefd4	0.009761769
30	0xbcafa7aa	-0.021442253
31	0xbca6aa6b	-0.020344933
32	0xbc618c8f	-0.013766422
33	0x3c7c6a6b	0.015406231
34	0xbcd87ef4	-0.026427723
35	0xbcda8cc7	-0.026678456
36	0x3ca00d55	0.019537607
37	0x3c8e4756	0.017368
38	0xbcb41692	-0.021983419
39	0x39cc6b0a	0.00038989662
40	0xbca658d7	-0.020306034
41	0xbca643d8	-0.020296022
42	0x3cb40643	0.021975642
43	0x3c84cf38	0.01621209
44	0xbcfc96ab	-0.030833563
45	0xbc2f9538	-0.010716729
46	0xbcfc168c	-0.03077247
47	0xbcdb893f	-0.026798842
48	0x3c0f1700	0.008733511
49	0xbc0f8371	-0.008759365
50	0xb8abf0f7	-8.1987986e-05
51	0xbc03586b	-0.008016686
52	0xbcae7e35	-0.021300415
53	0xba19032e	-0.00058369606
54	0x3c85aa4f	0.016316561
55	0x3c6f6a8f	0.014612808
56	0xbd5dc53f	-0.054143187
57	0xbc7001c7	-0.014648861
58	0xbd00d7fc	-0.03145598
59	0x3c9609b6	0.018315177
60	0x3b2de883	0.0026536293
61	0x3c9319d4	0.017956652
62	0xbcb0307e	-0.021507498
63	0xbcd1eb36	-0.025624853

running_var f4 [64]
0	0x3a09f331	0.00052623736
1	0x392189d1	0.00015405497
2	0x3a437a1a	0.0007456854
3	0x39ed9569	0.00045315482
4	0x38f51124	0.00011685703
5	0x39d74f0d	0.00041066893
6	0x3a02446f	0.0004969304
7	0x38db7d0a	0.00010466024
8	0x39ac3357	0.00032844648
9	0x3a346d8e	0.000688278
10	0x3826d9b0	3.978022e-05
11	0x39820ef3	0.0002480667
12	0x39a5c276	0.00031616137
13	0x38206507	3.824106e-05
14	0x3989cc30	0.00026282808
15	0x39afe6ca	0.00033550552
16	0x3a1edb19	0.000605987
17	0x3832b125	4.2603486e-05
18	0x3a64050a	0.00086982606
19	0x38487a4c	4.7797614e-05
20	0x3837ca6a	4.3819113e-05
21	0x3546ef59	7.4109045e-07
22	0x390e2d58	0.00013559067
23	0x39bc5f32	0.0003592908
24	0x39c7d8c1	0.00038117732
25	0x39a1679f	0.00030785517
26	0x38a95e5d	8.0761245e-05
27	0x3953e9e0	0.00020209653
28	0x39ded47e	0.0004250146
29	0x38b8af48	8.8064524e-05
30	0x39dec4d8	0.000424898
31	0x39c88d43	0.0003825222
32	0x3937a5de	0.0001751403
33	0x39660132	0.00021934955
34	0x3a29337c	0.000645451
35	0x3a2c6d4c	0.0006577566
36	0x39b8f372	0.00035276596
37	0x399227ac	0.00027876848
38	0x39ea27ce	0.00044661615
39	0x3416d95f	1.4048918e-07
40	0x39c7c91b	0.00038106073
41	0x39c796ae	0.00038068503
42	0x39e9fd67	0.00044630023
43	0x397eb22a	0.00024289699
44	0x3a6651de	0.0008786003
45	0x38de9613	0.000106137384
46	0x3a656871	0.000875122
47	0x3a2dfc96	0.00066370645
48	0x3893d383	7.048903e-05
49	0x3894b3ea	7.0907015e-05
50	0x31d572f5	6.212185e-09
51	0x38791c86	5.939279e-05
52	0x39dbd4df	0.00041929536
53	0x34a90a06	3.1485996e-07
54	0x3980fe93	0.00024603735
55	0x394eec93	0.00019733822
56	0x3b318bd5	0.0027091403
57	0x394ff24c	0.00019831321
58	0x3a6fb655	0.0009144296
59	0x39a287eb	0.00031000315
60	0x36da5c53	6.5076542e-06
61	0x399c3ae6	0.0002979852
62	0x39e0206f	0.00042748774
63	0x3a1f13a3	0.0006068295

cpu f4 [64]
0	0x00000000	0.0
1	0x00000000	0.0
2	0x00000000	0.0
3	0x00000000	0.0
4	0x00000000	0.0
5	0x00000000	0.0
6	0x00000000	0.0
7	0x00000000	0.0
8	0x00000000	0.0
9	0x00000000	0.0
10	0x00000000	0.0
11	0x00000000	0.0
12	0x00000000	0.0
13	0x00000000	0.0
14	0x00000000	0.0
15	0x00000000	0.0
16	0x00000000	0.0
17	0x00000000	0.0
18	0x00000000	0.0
19	0x00000000	0.0
20	0x00000000	0.0
21	0x00000000	0.0
22	0x00000000	0.0
23	0x00000000	0.0
24	0x00000000	0.0
25	0x00000000	0.0
26	0x00000000	0.0
27	0x00000000	0.0
28	0x00000000	0.0
29	0x00000000	0.0
30	0x00000000	0.0
31	0x00000000	0.0
32	0x00000000	0.0
33	0x00000000	0.0
34	0x00000000	0.0
35	0x00000000	0.0
36	0x00000000	0.0
37	0x00000000	0.0
38	0x00000000	0.0
39	0x00000000	0.0
40	0x00000000	0.0
41	0x00000000	0.0
42	0x00000000	0.0
43	0x00000000	0.0
44	0x00000000	0.0
45	0x00000000	0.0
46	0x00000000	0.0
47	0x00000000	0.0
48	0x00000000	0.0
49	0x00000000	0.0
50	0x00000000	0.0
51	0x00000000	0.0
52	0x00000000	0.0
53	0x00000000	0.0
54	0x00000000	0.0
55	0x00000000	0.0
56	0x00000000	0.0
57	0x00000000	0.0
58	0x00000000	0.0
59	0x00000000	0.0
60	0x00000000	0.0
61	0x00000000	0.0
62	0x00000000	0.0
63	0x00000000	0.0

cpu f4 [64]
0	0x00000000	0.0
1	0x00000000	0.0
2	0x00000000	0.0
3	0x00000000	0.0
4	0x00000000	0.0
5	0x00000000	0.0
6	0x00000000	0.0
7	0x00000000	0.0
8	0x00000000	0.0
9	0x00000000	0.0
10	0x00000000	0.0
11	0x00000000	0.0
12	0x00000000	0.0
13	0x00000000	0.0
14	0x00000000	0.0
15	0x00000000	0.0
16	0x00000000	0.0
17	0x00000000	0.0
18	0x00000000	0.0
19	0x00000000	0.0
20	0x00000000	0.0
21	0x00000000	0.0
22	0x00000000	0.0
23	0x00000000	0.0
24	0x00000000	0.0
25	0x00000000	0.0
26	0x00000000	0.0
27	0x00000000	0.0
28	0x00000000	0.0
29	0x00000000	0.0
30	0x00000000	0.0
31	0x00000000	0.0
32	0x00000000	0.0
33	0x00000000	0.0
34	0x00000000	0.0
35	0x00000000	0.0
36	0x00000000	0.0
37	0x00000000	0.0
38	0x00000000	0.0
39	0x00000000	0.0
40	0x00000000	0.0
41	0x00000000	0.0
42	0x00000000	0.0
43	0x00000000	0.0
44	0x00000000	0.0
45	0x00000000	0.0
46	0x00000000	0.0
47	0x00000000	0.0
48	0x00000000	0.0
49	0x00000000	0.0
50	0x00000000	0.0
51	0x00000000	0.0
52	0x00000000	0.0
53	0x00000000	0.0
54	0x00000000	0.0
55	0x00000000	0.0
56	0x00000000	0.0
57	0x00000000	0.0
58	0x00000000	0.0
59	0x00000000	0.0
60	0x00000000	0.0
61	0x00000000	0.0
62	0x00000000	0.0
63	0x00000000	0.0

weight f4 [64]
0	0x3db3156a	0.08744319
1	0x3f2c9d23	0.6742727
2	0x3ec846c0	0.39116478
3	0x3e219876	0.15780815
4	0x3e111277	0.141672
5	0x3f0e620d	0.55618364
6	0x3d672f5a	0.056441642
7	0x3e3e26d4	0.18569499
8	0x3ea10e40	0.31456184
9	0x3ec190f3	0.378059
10	0x3d0981e1	0.033571128
11	0x3e5c2a1e	0.21500441
12	0x3e475642	0.19466498
13	0x3e67b55a	0.22627774
14	0x3e1c9027	0.15289365
15	0x3e3b6113	0.1829875
16	0x3d606c5c	0.05479084
17	0x3f4b3bc3	0.79388064
18	0x3e3ed584	0.18636137
19	0x3e4a2a35	0.19742663
20	0x3d37e80d	0.044899035
21	0x3e142f8e	0.14471266
22	0x3e02f338	0.12788093
23	0x3d88bf52	0.066771165
24	0x3d8234fb	0.063577615
25	0x3f17b951	0.59267145
26	0x3e5f7503	0.2182198
27	0x3d73b826	0.05950179
28	0x3e43a6ba	0.1910657
29	0x3ef2f5e2	0.4745322
30	0x3e92e7f8	0.28692603
31	0x3eaada66	0.3336975
32	0x3d808d9d	0.062770106
33	0x3efa7ead	0.4892477
34	0x3d8c523c	0.068516225
35	0x3de10dc2	0.10988952
36	0x3f1de316	0.6167463
37	0x3dcaf527	0.0991004
38	0x3e11a25a	0.14222088
39	0x3f1bf2c6	0.6091732
40	0x3e9eb183	0.30994806
41	0x3d4f50ad	0.050614048
42	0x3d279bc5	0.040920038
43	0x3e4ce8c8	0.20010674
44	0x3e976b55	0.29574075
45	0x3d300ec6	0.04298284
46	0x3f1c4bcd	0.6105316
47	0x3e704ea1	0.23467495
48	0x3d687a7d	0.05675744
49	0x3d91f3e4	0.071265966
50	0x3ee746d1	0.45171216
51	0x3d8ccd0b	0.06875046
52	0x3e3621c7	0.17786323
53	0x3ef81fe2	0.48461825
54	0x3db65b16	0.08904092
55	0x3da74622	0.08167674
56	0x3e5329c7	0.20621406
57	0x3ec4064b	0.3828605
58	0x3f2eebd1	0.6832858
59	0x3f14cd76	0.5812601
60	0x3d29fa96	0.041498743
61	0x3d03b30f	0.032153185
62	0x3ef485b4	0.47758257
63	0x3e06f4cc	0.1317932

bias f4 [64]
0	0xbd83fef3	-0.06445112
1	0xbee4763c	-0.44621456
2	0xbe80208e	-0.25024837
3	0xbd9f07fd	-0.077651955
4	0xbe53bd8c	-0.20677775
5	0xbdb2d8f7	-0.08732789
6	0xbbf171db	-0.007368309
7	0xbb23e7b8	-0.0025009941
8	0xbe331138	-0.17487037
9	0xbe43960e	-0.1910021
10	0xbd03f283	-0.0322137
11	0x3de33ab4	0.11095181
12	0x3d53e616	0.0517331
13	0xbe4f5adb	-0.20249502
14	0xbdf24b92	-0.1183082
15	0x3d437fb2	0.0477292
16	0x3caca7a8	0.021076038
17	0xbe435357	-0.1907476
18	0xbcb6013e	-0.02221739
19	0xbd15df97	-0.036590185
20	0xbd5ae14c	-0.053437516
21	0xbc9b46f8	-0.018954739
22	0xbdcc2cca	-0.0996948
23	0xbb905372	-0.0044044787
24	0xbdcb6770	-0.099318385
25	0xbe34ffcb	-0.17675702
26	0xbebff94a	-0.3749488
27	0xbd8b36f8	-0.06797594
28	0x3cff03f7	0.03112982
29	0xbe891a99	-0.26778105
30	0xbd8911de	-0.06692861
31	0xbe332e15	-0.17498048
32	0xbdaf80ca	-0.085694864
33	0xbde2c20a	-0.11072166
34	0xbd531360	-0.05153215
35	0xbd571a77	-0.052515473
36	0xbcb6f339	-0.022332774
37	0xbdb7c915	-0.089739
38	0xbcdbcbd0	-0.026830584
39	0xbd8a3a8d	-0.06749449
40	0xbe090b18	-0.13383138
41	0xbd8c104f	-0.06839048
42	0xba0997eb	-0.0005248773
43	0xbd43a1b6	-0.04776164
44	0xbdbac7ab	-0.09120115
45	0xbda347b5	-0.079726614
46	0x3c59431c	0.013260629
47	0xbc1df7e3	-0.00964162
48	0xbd8b8ebc	-0.06814334
49	0xbd4d7e4a	-0.050169267
50	0x3df1fe04	0.11816028
51	0xbc9505dc	-0.01819127
52	0xbde3a5b8	-0.11115593
53	0xbee3c78f	-0.4448819
54	0xbd9aaa25	-0.07551984
55	0xbc107f3b	-0.008819397
56	0xbd0f8b23	-0.0350448
57	0x3db743a1	0.08948446
58	0xbca8db8a	-0.020612497
59	0xbc12e37c	-0.008965369
60	0xbb00a658	-0.0019630399
61	0xbcd45d38	-0.025923356
62	0x3d9b1f33	0.0757431
63	0x3d5287b2	0.05139894

running_mean f4 [64]
0	0xbc57b030	-0.013164565
1	0xbdd43c7f	-0.10363101
2	0xbdaba4e2	-0.08381058
3	0x3d2d3505	0.04228689
4	0x3caacdff	0.02085018
5	0x3cd2bcfc	0.02572488
6	0xbc78fba6	-0.015196716
7	0xbb377bce	-0.0027997377
8	0x3d24bac3	0.040217172
9	0xbdda2128	-0.10650855
10	0x3b3db1da	0.002894512
11	0x3beec13d	0.0072862194
12	0xbcaf3625	-0.021388123
13	0xbd316af3	-0.043314885
14	0xbcfa0d67	-0.030523969
15	0x394866ad	0.00019111736
16	0xba89405a	-0.0010471449
17	0x3cb37e94	0.021910943
18	0xbd1f6772	-0.038917013
19	0xbcd92cfb	-0.026510706
20	0x3c9094ed	0.017649138
21	0xbd5bf8b8	-0.053703994
22	0xbcadedbf	-0.02123153
23	0xbc9da7f5	-0.019245127
24	0xbc7d3951	-0.01545556
25	0x3de9b2d5	0.11411063
26	0xbd95d495	-0.073159374
27	0xbc5799f0	-0.01315926
28	0xbc951654	-0.018199123
29	0xbd1da24b	-0.038484853
30	0xbe0c4695	-0.136988
31	0x3c0370d0	0.008022502
32	0x3bc895ce	0.0061213737
33	0xbcb20961	-0.021732988
34	0xbbabbe0a	-0.0052411603
35	0xbc44f044	-0.012020174
36	0x3dbd4be9	0.09242994
37	0x3c87ff48	0.01660122
38	0xbcf36ca3	-0.029714888
39	0xbe0c6d18	-0.13713491
40	0x3b635fd5	0.0034694572
41	0x3c66e252	0.014092045
42	0x3b1c7861	0.0023875462
43	0xbc82da4a	-0.015973229
44	0xbe2680bf	-0.1626005
45	0xbb8ff220	-0.004392877
46	0x3ccfe583	0.025377994
47	0xbd8719b7	-0.065967016
48	0x3be78e3b	0.0070665157
49	0xbc952912	-0.01820806
50	0x3d84bd8e	0.06481467
51	0xbc275db5	-0.010215213
52	0xbd382215	-0.04495438
53	0xbd302fb4	-0.043014243
54	0xbc2e0b87	-0.0106228655
55	0xbcc04c89	-0.023473995
56	0xbd5ec3fa	-0.054386117
57	0x3da2914a	0.07937868
58	0x3ddf116e	0.10891996
59	0x3ade509e	0.0016961282
60	0xbba6f730	-0.005095385
61	0x3b2106c4	0.0024570683
62	0x3d5f5a9c	0.05452977
63	0xbc9099af	-0.017651407

running_var f4 [64]
0	0x3859bd5e	5.1913194e-05
1	0x3b6ce41e	0.003614671
2	0x3acd79c7	0.0015676551
3	0x39ba0f9f	0.00035488323
4	0x3a11abef	0.0005556931
5	0x3d0dab54	0.03458722
6	0x38188188	3.636026e-05
7	0x3988b0ac	0.00026071572
8	0x3c15e18e	0.009148015
9	0x3b5d22ba	0.0033742622
10	0x37129c3e	8.738656e-06
11	0x3a4b9586	0.0007766116
12	0x3bf6e07d	0.0075340853
13	0x3b011a86	0.0019699647
14	0x39fa4002	0.00047731405
15	0x3b08c5aa	0.002086977
16	0x37eb91e6	2.8082122e-05
17	0x3ce71ca2	0.028211895
18	0x3a70ba92	0.00091830746
19	0x3ac10c2c	0.0014728359
20	0x37da788e	2.6043763e-05
21	0x3a623bd2	0.000863013
22	0x3902dadb	0.00012479296
23	0x391b5fdb	0.00014817661
24	0x38cc56d1	9.743649e-05
25	0x3d113085	0.035446662
26	0x3af8a508	0.0018970082
27	0x3a50d26e	0.0007965927
28	0x3aeb0ed6	0.0017933499
29	0x3bf114e4	0.0073572267
30	0x3be2bd6e	0.0069195544
31	0x3ad7d814	0.0016467595
32	0x388b849b	6.652736e-05
33	0x3ca70efd	0.02039289
34	0x37ca6753	2.412839e-05
35	0x399e8a9e	0.00030239386
36	0x3d14cae6	0.03632631
37	0x39cfabbb	0.00039610066
38	0x3aa2bd46	0.0012416027
39	0x3c41ff2f	0.011840626
40	0x3c76a17e	0.015053151
41	0x38dacfb2	0.00010433736
42	0x36bc67df	5.614929e-06
43	0x3b2047db	0.0024456892
44	0x3b08c29b	0.0020867947
45	0x389749f7	7.214018e-05
46	0x3d0626fc	0.032752022
47	0x3b15c863	0.0022855035
48	0x3764d9ca	1.3640567e-05
49	0x38a7a255	7.993417e-05
50	0x3c7a6e0d	0.015285027
51	0x394a8f3b	0.00019317579
52	0x3b0aecc9	0.0021198264
53	0x3afa70d6	0.0019107114
54	0x39bb938c	0.0003577735
55	0x389607a7	7.153983e-05
56	0x3a9b689e	0.001185674
57	0x3c71be8c	0.014754903
58	0x3d7dd4e9	0.061970625
59	0x3c9dcfc7	0.019264115
60	0x37f91997	2.969503e-05
61	0x37398207	1.1057134e-05
62	0x3d02a351	0.031894032
63	0x3a121b88	0.00055735605

cpu f4 [64]
0	0x00000000	0.0
1	0x00000000	0.0
2	0x00000000	0.0
3	0x00000000	0.0
4	0x00000000	0.0
5	0x00000000	0.0
6	0x00000000	0.0
7	0x00000000	0.0
8	0x00000000	0.0
9	0x00000000	0.0
10	0x00000000	0.0
11	0x00000000	0.0
12	0x00000000	0.0
13	0x00000000	0.0
14	0x00000000	0.0
15	0x00000000	0.0
16	0x00000000	0.0
17	0x00000000	0.0
18	0x00000000	0.0
19	0x00000000	0.0
20	0x00000000	0.0
21	0x00000000	0.0
22	0x00000000	0.0
23	0x00000000	0.0
24	0x00000000	0.0
25	0x00000000	0.0
26	0x00000000	0.0
27	0x00000000	0.0
28	0x00000000	0.0
29	0x00000000	0.0
30	0x00000000	0.0
31	0x00000000	0.0
32	0x00000000	0.0
33	0x00000000	0.0
34	0x00000000	0.0
35	0x00000000	0.0
36	0x00000000	0.0
37	0x00000000	0.0
38	0x00000000	0.0
39	0x00000000	0.0
40	0x00000000	0.0
41	0x00000000	0.0
42	0x00000000	0.0
43	0x00000000	0.0
44	0x00000000	0.0
45	0x00000000	0.0
46	0x00000000	0.0
47	0x00000000	0.0
48	0x00000000	0.0
49	0x00000000	0.0
50	0x00000000	0.0
51	0x00000000	0.0
52	0x00000000	0.0
53	0x00000000	0.0
54	0x00000000	0.0
55	0x00000000	0.0
56	0x00000000	0.0
57	0x00000000	0.0
58	0x00000000	0.0
59	0x00000000	0.0
60	0x00000000	0.0
61	0x00000000	0.0
62	0x00000000	0.0
63	0x00000000	0.0

cpu f4 [64]
0	0x00000000	0.0
1	0x00000000	0.0
2	0x00000000	0.0
3	0x00000000	0.0
4	0x00000000	0.0
5	0x00000000	0.0
6	0x00000000	0.0
7	0x00000000	0.0
8	0x00000000	0.0
9	0x00000000	0.0
10	0x00000000	0.0
11	0x00000000	0.0
12	0x00000000	0.0
13	0x00000000	0.0
14	0x00000000	0.0
15	0x00000000	0.0
16	0x00000000	0.0
17	0x00000000	0.0
18	0x00000000	0.0
19	0x00000000	0.0
20	0x00000000	0.0
21	0x00000000	0.0
22	0x00000000	0.0
23	0x00000000	0.0
24	0x00000000	0.0
25	0x00000000	0.0
26	0x00000000	0.0
27	0x00000000	0.0
28	0x00000000	0.0
29	0x00000000	0.0
30	0x00000000	0.0
31	0x00000000	0.0
32	0x00000000	0.0
33	0x00000000	0.0
34	0x00000000	0.0
35	0x00000000	0.0
36	0x00000000	0.0
37	0x00000000	0.0
38	0x00000000	0.0
39	0x00000000	0.0
40	0x00000000	0.0
41	0x00000000	0.0
42	0x00000000	0.0
43	0x00000000	0.0
44	0x00000000	0.0
45	0x00000000	0.0
46	0x00000000	0.0
47	0x00000000	0.0
48	0x00000000	0.0
49	0x00000000	0.0
50	0x00000000	0.0
51	0x00000000	0.0
52	0x00000000	0.0
53	0x00000000	0.0
54	0x00000000	0.0
55	0x00000000	0.0
56	0x00000000	0.0
57	0x00000000	0.0
58	0x00000000	0.0
59	0x00000000	0.0
60	0x00000000	0.0
61	0x00000000	0.0
62	0x00000000	0.0
63	0x00000000	0.0

weight f4 [64]
0	0x3e7d0824	0.24710137
1	0x3ee11327	0.43959925
2	0x3ec74595	0.38920274
3	0x3e7dd40c	0.2478792
4	0x3ed85420	0.42251682
5	0x3e5dc724	0.21657997
6	0x3ebba8df	0.36652276
7	0x3e8ee219	0.27906874
8	0x3eb8089f	0.35944077
9	0x3e713643	0.23555855
10	0x3e61909d	0.22027822
11	0x3eeced36	0.46274728
12	0x3ea3f272	0.3202091
13	0x3e85f7d2	0.26165634
14	0x3e94c03a	0.29052907
15	0x3e8c206b	0.27368483
16	0x3f0eebed	0.55828744
17	0x3ea1bf41	0.31591228
18	0x3ed4ac25	0.41537586
19	0x3e9822ab	0.2971395
20	0x3eac7222	0.33680826
21	0x3e95a877	0.2923009
22	0x3eb9ec8d	0.36313286
23	0x3ea88189	0.32911327
24	0x3e325d96	0.17418513
25	0x3e9e2bea	0.3089288
26	0x3ec606dc	0.38677108
27	0x3e40edb9	0.18840684
28	0x3e906c82	0.28207785
29	0x3f019cdc	0.50629973
30	0x3e9e438c	0.3091091
31	0x3ec3cbca	0.38241416
32	0x3e7a0cae	0.244189
33	0x3ea1e334	0.31618655
34	0x3eabbebc	0.33543956
35	0x3eea6c26	0.45785636
36	0x3ee7cb1f	0.45272157
37	0x3f139e2b	0.5766322
38	0x3e910c95	0.28329912
39	0x3ee85960	0.45380688
40	0x3ee6b843	0.45062456
41	0x3ea60464	0.32425225
42	0x3ee0ac62	0.43881518
43	0x3e81ccb2	0.25351483
44	0x3e905f15	0.28197542
45	0x3ea6d470	0.32583952
46	0x3ed047b0	0.40679693
47	0x3e8dce71	0.27696565
48	0x3ef1eeac	0.47252405
49	0x3eab13c8	0.3341353
50	0x3e823a68	0.25435185
51	0x3eaa7529	0.3329251
52	0x3e9e1a2b	0.3087934
53	0x3ebe95c8	0.3722365
54	0x3ef41540	0.47672462
55	0x3e809f75	0.25121656
56	0x3e7a470a	0.24441162
57	0x3e6e3ffa	0.23266593
58	0x3de36d9f	0.11104893
59	0x3f169d5b	0.58833855
60	0x3dc6dec6	0.097104594
61	0x3ece6ab8	0.40315795
62	0x3f0a6d68	0.5407319
63	0x3f11c64d	0.5694321

bias f4 [64]
0	0x3d1096a3	0.03529991
1	0xbddb5d58	-0.10711163
2	0xbe6929f4	-0.2276991
3	0xbcc5799e	-0.024105843
4	0xbe2307d8	-0.15920961
5	0x3d299d2b	0.041409653
6	0x3b900b73	0.004395896
7	0xbddbd860	-0.1073463
8	0xbe04177d	-0.12899585
9	0x3d3e062e	0.046392612
10	0x3c8106f6	0.01575039
11	0xbdba76ff	-0.09104728
12	0xbd8b5419	-0.0680315
13	0xbe1dd233	-0.15412216
14	0xbd513462	-0.051075347
15	0xbd3438cc	-0.04399948
16	0xbe74f53a	-0.23921672
17	0xbe579d7a	-0.21056166
18	0xbe2c7ed9	-0.16845264
19	0xbd4208fc	-0.04737185
20	0xbdb48b69	-0.08815653
21	0x3c1183b2	0.008881496
22	0xbd6c05c3	-0.057622682
23	0xbd1c5479	-0.038166497
24	0xbbf5ee15	-0.007505188
25	0xbd9e54ee	-0.07731043
26	0xbd980623	-0.074230455
27	0x3ccbf820	0.024898589
28	0xbde4bae6	-0.111684605
29	0xbe490feb	-0.19634978
30	0x3c3b85f3	0.01144551
31	0xbde4027c	-0.11133286
32	0xbcbc1814	-0.0229607
33	0xbd52867c	-0.051397786
34	0xbc8c1fbe	-0.01710498
35	0xbc647c89	-0.013945707
36	0xbdf33281	-0.11874867
37	0xbeb2f0ff	-0.3494949
38	0xbdeeec2d	-0.11666141
39	0xbe029338	-0.12751472
40	0xbc3894b1	-0.01126592
41	0xbdb468da	-0.08809061
42	0xbea59619	-0.32341078
43	0xbdd3f77d	-0.10349939
44	0x3bf8515c	0.007578058
45	0xbe26b7d2	-0.1628106
46	0xbe30b0ad	-0.17254896
47	0xbcbff7c8	-0.023433581
48	0xbe1fd9a9	-0.15610375
49	0xbe866454	-0.2624842
50	0x3cc8d6f0	0.024516553
51	0xbda0c6c3	-0.07850411
52	0xbe43a730	-0.19106746
53	0xbde05c5d	-0.10955117
54	0xbe7a9ae1	-0.24473144
55	0xbc5494ce	-0.012974931
56	0x3d5e2044	0.05422999
57	0xbd2ceba0	-0.042216897
58	0xbc8703f9	-0.016481386
59	0xbe708140	-0.23486805
60	0xbd84c0d2	-0.0648209
61	0xbe530d18	-0.20610464
62	0xbe03a467	-0.12855683
63	0xbe0ef9a7	-0.13962422

running_mean f4 [64]
0	0x3cecbb40	0.028897882
1	0xbcc51c2a	-0.024061281
2	0xbcaf70df	-0.021416126
3	0x3bdcd898	0.006739687
4	0xbb70937d	-0.0036709004
5	0xbd05dbc8	-0.032680303
6	0xbc91d344	-0.017800935
7	0xbbed2ca4	-0.0072379876
8	0x3b9c655d	0.0047728256
9	0x3b4a9b91	0.0030915479
10	0xbbe82ccd	-0.007085419
11	0xbd2d7315	-0.04234608
12	0xbbda24ea	-0.0066572325
13	0xbc7e4537	-0.015519432
14	0xb9e53a48	-0.00043721707
15	0xbc76e1b4	-0.01506846
16	0xbcfac27d	-0.030610317
17	0xbb22c5bb	-0.0024837095
18	0x3bd57279	0.0065138903
19	0xbacc6984	-0.0015595411
20	0xbc15c382	-0.009140851
21	0x3b4ee616	0.0031570247
22	0xbc74cc58	-0.0149412975
23	0xbcf891d1	-0.030342968
24	0x3b4aa715	0.0030922343
25	0x3c529ec5	0.012855236
26	0x3cdbbfb6	0.026824813
27	0x3b42b9b6	0.0029712743
28	0xbd0f3c1d	-0.034969438
29	0x3c34568f	0.011006965
30	0x3cf80ce1	0.030279579
31	0x3cba55a3	0.022745913
32	0x3ca812ad	0.020516718
33	0xbd705dd3	-0.058683228
34	0xbd23ca0f	-0.03998762
35	0xbcfbe8bd	-0.030750627
36	0x3d0485af	0.032354053
37	0x3aedc019	0.0018138915
38	0xbbb36365	-0.0054744952
39	0x3bde2d6f	0.0067803185
40	0x3cabd5c2	0.020975951
41	0xbc96ec01	-0.018423082
42	0x3c1fee00	0.009761333
43	0xbbdedb28	-0.006801028
44	0xbc5c3662	-0.0134407
45	0xbcaea1d1	-0.021317394
46	0x3c040773	0.008058417
47	0xbceae654	-0.028674282
48	0x3b3c1207	0.0028697269
49	0x3c22edfa	0.009944433
50	0x3bf3bf59	0.007438582
51	0xbc8f3da5	-0.01748545
52	0xb873ce76	-5.8127996e-05
53	0x3a42dfec	0.00074338797
54	0xbce665d2	-0.028124724
55	0x3c1c92bf	0.009556471
56	0xbbc7ad5b	-0.0060936636
57	0x3ccd2450	0.02504173
58	0xbc23cec3	-0.009998026
59	0xb9be1b22	-0.0003625984
60	0x3ad6a0f3	0.0016374871
61	0xbc505712	-0.012716072
62	0xbd199dbf	-0.037503954
63	0xbcfd142c	-0.030893408

running_var f4 [64]
0	0x3bf61a73	0.007510477
1	0x3c7322dd	0.014839855
2	0x3c8a7030	0.016899198
3	0x3c8a8a11	0.016911538
4	0x3c8b9ce6	0.017042588
5	0x3c38749c	0.011258271
6	0x3c1b1d4e	0.009467436
7	0x3c10c2fd	0.008835551
8	0x3c25d641	0.010121883
9	0x3b8e484d	0.004342115
10	0x3b9e6e19	0.004834902
11	0x3d1de250	0.038545907
12	0x3bccf645	0.0062549436
13	0x3aa3bcbe	0.0012492163
14	0x3be62a15	0.0070240595
15	0x3c03ceed	0.00804494
16	0x3c9507d0	0.018192202
17	0x3c544838	0.012956671
18	0x3c7d9c1b	0.015479113
19	0x3bc0875a	0.00587551
20	0x3c2ffd34	0.010741521
21	0x3b9d5f48	0.004802618
22	0x3bac4452	0.005257168
23	0x3bc85c63	0.006114529
24	0x3a4f734b	0.00079136033
25	0x3c8660e9	0.016403632
26	0x3ca9092a	0.020634253
27	0x3abc7559	0.0014378234
28	0x3c2910a9	0.0103189135
29	0x3c854f12	0.016273055
30	0x3c181a08	0.00928355
31	0x3c04c9a9	0.00810472
32	0x3b287890	0.0025706626
33	0x3ca9cd44	0.020727761
34	0x3b8d20c0	0.0043068826
35	0x3c302c2f	0.010752722
36	0x3c01c8b4	0.0079213865
37	0x3bae6da4	0.005323129
38	0x3bbc79af	0.0057518105
39	0x3c3b1c4b	0.01142032
40	0x3c8e09b3	0.01733861
41	0x3c0d5939	0.008627229
42	0x3c503ef5	0.012710323
43	0x3b96d75d	0.00460331
44	0x3bcd963a	0.006274012
45	0x3bf2108a	0.0073872255
46	0x3ba75012	0.0051059807
47	0x3c2e6102	0.010643246
48	0x3be028e5	0.0068408125
49	0x3c236f8b	0.009975324
50	0x3bd9e2c3	0.0066493466
51	0x3b9fff4f	0.00488273
52	0x3b0f2a8d	0.002184543
53	0x3c1ae2b6	0.009453466
54	0x3c81f396	0.015863221
55	0x3be223c0	0.0069012344
56	0x3c1334f4	0.008984793
57	0x3bd12c56	0.006383459
58	0x3b778c9d	0.003777302
59	0x3c612041	0.0137406
60	0x38d6ca04	0.000102419435
61	0x3bb11b84	0.0054048914
62	0x3bab9801	0.005236626
63	0x3bb8c033	0.0056381463

cpu f4 [64]
0	0x00000000	0.0
1	0x00000000	0.0
2	0x00000000	0.0
3	0x00000000	0.0
4	0x00000000	0.0
5	0x00000000	0.0
6	0x00000000	0.0
7	0x00000000	0.0
8	0x00000000	0.0
9	0x00000000	0.0
10	0x00000000	0.0
11	0x00000000	0.0
12	0x00000000	0.0
13	0x00000000	0.0
14	0x00000000	0.0
15	0x00000000	0.0
16	0x00000000	0.0
17	0x00000000	0.0
18	0x00000000	0.0
19	0x00000000	0.0
20	0x00000000	0.0
21	0x00000000	0.0
22	0x00000000	0.0
23	0x00000000	0.0
24	0x00000000	0.0
25	0x00000000	0.0
26	0x00000000	0.0
27	0x00000000	0.0
28	0x00000000	0.0
29	0x00000000	0.0
30	0x00000000	0.0
31	0x00000000	0.0
32	0x00000000	0.0
33	0x00000000	0.0
34	0x00000000	0.0
35	0x00000000	0.0
36	0x00000000	0.0
37	0x00000000	0.0
38	0x00000000	0.0
39	0x00000000	0.0
40	0x00000000	0.0
41	0x00000000	0.0
42	0x00000000	0.0
43	0x00000000	0.0
44	0x00000000	0.0
45	0x00000000	0.0
46	0x00000000	0.0
47	0x00000000	0.0
48	0x00000000	0.0
49	0x00000000	0.0
50	0x00000000	0.0
51	0x00000000	0.0
52	0x00000000	0.0
53	0x00000000	0.0
54	0x00000000	0.0
55	0x00000000	0.0
56	0x00000000	0.0
57	0x00000000	0.0
58	0x00000000	0.0
59	0x00000000	0.0
60	0x00000000	0.0
61	0x00000000	0.0
62	0x00000000	0.0
63	0x00000000	0.0

weight f4 [64]
0	0x3daf438a	0.08557804
1	0x3d837b24	0.064199716
2	0xbca4f427	-0.020135952
3	0x3ce8a6f3	0.02839992
4	0xba2ff9b9	-0.0006712932
5	0x3ddde931	0.10835493
6	0xbe1fe6c2	-0.15615371
7	0xbda7664a	-0.08173807
8	0x38a3d1b7	7.811508e-05
9	0x3d89a735	0.06721345
10	0x3d1bf205	0.038072605
11	0xbc941380	-0.018075705
12	0x3dbb8965	0.09157065
13	0x3d039390	0.03212315
14	0x3e25726d	0.16156931
15	0x3db61f48	0.08892685
16	0x3cbad74e	0.022807743
17	0x3db0d23f	0.08633851
18	0xbdbdd27d	-0.09268663
19	0x3d40e7a7	0.04709592
20	0xbd0fe3b2	-0.035129257
21	0xbdd56583	-0.104197524
22	0x3dc3dec9	0.09563977
23	0xbbc01517	-0.005861889
24	0xbc13f3c4	-0.009030286
25	0xbe8dabf2	-0.27670246
26	0xbbd18cf3	-0.0063949763
27	0x3d11a3e0	0.035556674
28	0xbc23081c	-0.009950664
29	0xbe565d0c	-0.20933932
30	0xbc2551ea	-0.010090331
31	0xbdbd8239	-0.092533536
32	0x3d162deb	0.036664885
33	0x38efbe7c	0.000114318886
34	0x3dc80605	0.09766773
35	0x3d9887b0	0.07447755
36	0xbdcb7e10	-0.09936154
37	0x3d9d5b81	0.076834686
38	0xbe4e4fba	-0.20147601
39	0xbdefff60	-0.11718631
40	0xbe25e48b	-0.16200463
41	0xbd8016ce	-0.0625435
42	0xbd45a15f	-0.0482496
43	0x3e16eb19	0.1473812
44	0x3d634ef8	0.055495232
45	0xbdd3a7fa	-0.10334773
46	0x3e0a2231	0.13489605
47	0x3d2145cf	0.039373215
48	0x3e0e12d9	0.13874377
49	0x3ca4baca	0.0201086
50	0xbe27bed3	-0.16381387
51	0x3b898c0d	0.0041976036
52	0xbcb45f3b	-0.022018066
53	0x3d3059a5	0.04305424
54	0x3d6401be	0.055665724
55	0xbdcf7198	-0.10129088
56	0xbd941d8d	-0.07232199
57	0x3c4495e5	0.011998628
58	0x3e4e852c	0.20167989
59	0xbdf3e1f4	-0.119083315
60	0x3c263f45	0.010146921
61	0xbd3819c3	-0.044946443
62	0x3ddac9b5	0.10683004
63	0x3e2beabc	0.16788763

bias f4 [64]
0	0x3d1096a3	0.03529991
1	0xbddb5d58	-0.10711163
2	0xbe6929f4	-0.2276991
3	0xbcc5799e	-0.024105843
4	0xbe2307d8	-0.15920961
5	0x3d299d2b	0.041409653
6	0x3b900b73	0.004395896
7	0xbddbd860	-0.1073463
8	0xbe04177d	-0.12899585
9	0x3d3e062e	0.046392612
10	0x3c8106f6	0.01575039
11	0xbdba76ff	-0.09104728
12	0xbd8b5419	-0.0680315
13	0xbe1dd233	-0.15412216
14	0xbd513462	-0.051075347
15	0xbd3438cc	-0.04399948
16	0xbe74f53a	-0.23921672
17	0xbe579d7a	-0.21056166
18	0xbe2c7ed9	-0.16845264
19	0xbd4208fc	-0.04737185
20	0xbdb48b69	-0.08815653
21	0x3c1183b2	0.008881496
22	0xbd6c05c3	-0.057622682
23	0xbd1c5479	-0.038166497
24	0xbbf5ee15	-0.007505188
25	0xbd9e54ee	-0.07731043
26	0xbd980623	-0.074230455
27	0x3ccbf820	0.024898589
28	0xbde4bae6	-0.111684605
29	0xbe490feb	-0.19634978
30	0x3c3b85f3	0.01144551
31	0xbde4027c	-0.11133286
32	0xbcbc1814	-0.0229607
33	0xbd52867c	-0.051397786
34	0xbc8c1fbe	-0.01710498
35	0xbc647c89	-0.013945707
36	0xbdf33281	-0.11874867
37	0xbeb2f0ff	-0.3494949
38	0xbdeeec2d	-0.11666141
39	0xbe029338	-0.12751472
40	0xbc3894b1	-0.01126592
41	0xbdb468da	-0.08809061
42	0xbea59619	-0.32341078
43	0xbdd3f77d	-0.10349939
44	0x3bf8515c	0.007578058
45	0xbe26b7d2	-0.1628106
46	0xbe30b0ad	-0.17254896
47	0xbcbff7c8	-0.023433581
48	0xbe1fd9a9	-0.15610375
49	0xbe866454	-0.2624842
50	0x3cc8d6f0	0.024516553
51	0xbda0c6c3	-0.07850411
52	0xbe43a730	-0.19106746
53	0xbde05c5d	-0.10955117
54	0xbe7a9ae1	-0.24473144
55	0xbc5494ce	-0.012974931
56	0x3d5e2044	0.05422999
57	0xbd2ceba0	-0.042216897
58	0xbc8703f9	-0.016481386
59	0xbe708140	-0.23486805
60	0xbd84c0d2	-0.0648209
61	0xbe530d18	-0.20610464
62	0xbe03a467	-0.12855683
63	0xbe0ef9a7	-0.13962422

running_mean f4 [64]
0	0xbc127b78	-0.00894057
1	0x3c04b6ac	0.008100193
2	0x3c16f9e6	0.009214854
3	0x3c17cb4e	0.00926478
4	0x388c7890	6.698177e-05
5	0xbc2437c6	-0.010023063
6	0x3c3be3f4	0.0114679225
7	0x3c0a55ca	0.008443305
8	0x3746883d	1.183344e-05
9	0x3bfff947	0.0078116986
10	0x3c16a011	0.009193436
11	0xbc1e92b6	-0.009678533
12	0x3c429598	0.011876486
13	0xbc1f3147	-0.0097163385
14	0xbc47e536	-0.012200644
15	0x3c1843bd	0.009293494
16	0x3b8fb111	0.0043851216
17	0xbc0ec8f1	-0.0087149
18	0x3c437353	0.011929351
19	0xbbe3b5c5	-0.006949159
20	0xbbff16b8	-0.0077846907
21	0x3c4da5af	0.012551709
22	0xbc17ce6b	-0.0092655225
23	0xbc2d52af	-0.010578795
24	0xbbc49e38	-0.0060003065
25	0x3c85569d	0.016276652
26	0xbb5f4306	-0.0034067049
27	0x3bbecc70	0.0058227107
28	0xbc115837	-0.00887113
29	0xbc6841ec	-0.014175873
30	0x3b5fafa3	0.0034131787
31	0x3c224e4d	0.009906364
32	0x3c028a97	0.007967613
33	0x3800bda6	3.0694202e-05
34	0xbc0cb1a8	-0.008587278
35	0xbc0dc3f8	-0.00865268
36	0xbc2b9275	-0.01047193
37	0x3bee38ba	0.007269946
38	0x3c6b6211	0.014366643
39	0xbc152dbd	-0.009105143
40	0x3c5130d9	0.012767994
41	0xbc0e087b	-0.008669014
42	0xbc361d7c	-0.011115428
43	0xbc388c8b	-0.011263977
44	0x3c35b0bf	0.011089503
45	0x3bfa4298	0.007637333
46	0x3c342a42	0.010996403
47	0x3bbe6177	0.0058099586
48	0x3c2153f8	0.00984668
49	0x3bca8207	0.0061800512
50	0xbc4dd4ce	-0.012562944
51	0x3c14f703	0.009092095
52	0x3b7e66cc	0.0038818596
53	0x3c086661	0.00832519
54	0xbbeb5661	-0.007181928
55	0xbc1f7448	-0.009732313
56	0xbc082980	-0.008310676
57	0x3bdf3db2	0.0068127746
58	0x3c61ae84	0.013774518
59	0x3bcd0ac9	0.006257389
60	0x3b812522	0.003941194
61	0x3bfa5fa9	0.007640798
62	0x3cbc4900	0.022984028
63	0xbc2301f8	-0.0099492

running_var f4 [64]
0	0x38c80c5f	9.5390475e-05
1	0x38a4355b	7.8300676e-05
2	0x38d482d1	0.00010133314
3	0x38d6d1ec	0.00010243416
4	0x31b7f74f	5.3541167e-09
5	0x38fb6c59	0.00011988794
6	0x39249148	0.0001569438
7	0x38b26a0a	8.507453e-05
8	0x2f37bca8	1.6710777e-10
9	0x3898b849	7.2822506e-05
10	0x38d3863a	0.00010086266
11	0x38ea6f86	0.00011178762
12	0x3930809a	0.00016832576
13	0x38ec454b	0.00011266264
14	0x393a44cf	0.00017763975
15	0x38d82751	0.00010307006
16	0x37c07fac	2.2947635e-05
17	0x38be13b2	9.0635745e-05
18	0x393213be	0.00016982757
19	0x3871b662	5.7628735e-05
20	0x3897aa69	7.2319825e-05
21	0x3945247a	0.00018800973
22	0x38d6dabe	0.00010245059
23	0x390c09d2	0.00013355099
24	0x38343606	4.2965657e-05
25	0x39a5c213	0.0003161585
26	0x37685c73	1.3849803e-05
27	0x3829b385	4.045993e-05
28	0x38c4f3f2	9.391447e-05
29	0x397b7688	0.00023981382
30	0x37693ebf	1.3902491e-05
31	0x38f59a46	0.00011711246
32	0x389ee082	7.575845e-05
33	0x309a8640	1.1243131e-09
34	0x38b88cfa	8.800063e-05
35	0x38bb5f5e	8.9346184e-05
36	0x3909392b	0.00013086635
37	0x3884458c	6.3072046e-05
38	0x39812367	0.00024631174
39	0x38cf7b1b	9.893459e-05
40	0x394bfec4	0.00019454496
41	0x38bc14a3	8.9683825e-05
42	0x391a9b30	0.00014744396
43	0x391ec422	0.0001514112
44	0x3919e2c8	0.000146757
45	0x3891fa6d	6.960784e-05
46	0x39175019	0.00014430321
47	0x3828f56f	4.02829e-05
48	0x38f2a6f5	0.000115705574
49	0x383f2b68	4.5578374e-05
50	0x39457eda	0.0001883464
51	0x38cee2fe	9.865126e-05
52	0x3796d97f	1.7982673e-05
53	0x38ad7518	8.271093e-05
54	0x38811696	6.155406e-05
55	0x38ed0c58	0.0001130334
56	0x38acda65	8.242278e-05
57	0x3868515f	5.5388893e-05
58	0x396d6cef	0.00022642662
59	0x3843fbee	4.672625e-05
60	0x379b7f0c	1.85366e-05
61	0x38921c55	6.9671e-05
62	0x3a254279	0.00063041557
63	0x38f7bb32	0.00011812746

cpu f4 [64]
0	0x00000000	0.0
1	0x00000000	0.0
2	0x00000000	0.0
3	0x00000000	0.0
4	0x00000000	0.0
5	0x00000000	0.0
6	0x00000000	0.0
7	0x00000000	0.0
8	0x00000000	0.0
9	0x00000000	0.0
10	0x00000000	0.0
11	0x00000000	0.0
12	0x00000000	0.0
13	0x00000000	0.0
14	0x00000000	0.0
15	0x00000000	0.0
16	0x00000000	0.0
17	0x00000000	0.0
18	0x00000000	0.0
19	0x00000000	0.0
20	0x00000000	0.0
21	0x00000000	0.0
22	0x00000000	0.0
23	0x00000000	0.0
24	0x00000000	0.0
25	0x00000000	0.0
26	0x00000000	0.0
27	0x00000000	0.0
28	0x00000000	0.0
29	0x00000000	0.0
30	0x00000000	0.0
31	0x00000000	0.0
32	0x00000000	0.0
33	0x00000000	0.0
34	0x00000000	0.0
35	0x00000000	0.0
36	0x00000000	0.0
37	0x00000000	0.0
38	0x00000000	0.0
39	0x00000000	0.0
40	0x00000000	0.0
41	0x00000000	0.0
42	0x00000000	0.0
43	0x00000000	0.0
44	0x00000000	0.0
45	0x00000000	0.0
46	0x00000000	0.0
47	0x00000000	0.0
48	0x00000000	0.0
49	0x00000000	0.0
50	0x00000000	0.0
51	0x00000000	0.0
52	0x00000000	0.0
53	0x00000000	0.0
54	0x00000000	0.0
55	0x00000000	0.0
56	0x00000000	0.0
57	0x00000000	0.0
58	0x00000000	0.0
59	0x00000000	0.0
60	0x00000000	0.0
61	0x00000000	0.0
62	0x00000000	0.0
63	0x00000000	0.0

cpu f4 [128]
0	0x00000000	0.0
1	0x00000000	0.0
2	0x00000000	0.0
3	0x00000000	0.0
4	0x00000000	0.0
5	0x00000000	0.0
6	0x00000000	0.0
7	0x00000000	0.0
8	0x00000000	0.0
9	0x00000000	0.0
10	0x00000000	0.0
11	0x00000000	0.0
12	0x00000000	0.0
13	0x00000000	0.0
14	0x00000000	0.0
15	0x00000000	0.0
16	0x00000000	0.0
17	0x00000000	0.0
18	0x00000000	0.0
19	0x00000000	0.0
20	0x00000000	0.0
21	0x00000000	0.0
22	0x00000000	0.0
23	0x00000000	0.0
24	0x00000000	0.0
25	0x00000000	0.0
26	0x00000000	0.0
27	0x00000000	0.0
28	0x00000000	0.0
29	0x00000000	0.0
30	0x00000000	0.0
31	0x00000000	0.0
32	0x00000000	0.0
33	0x00000000	0.0
34	0x00000000	0.0
35	0x00000000	0.0
36	0x00000000	0.0
37	0x00000000	0.0
38	0x00000000	0.0
39	0x00000000	0.0
40	0x00000000	0.0
41	0x00000000	0.0
42	0x00000000	0.0
43	0x00000000	0.0
44	0x00000000	0.0
45	0x00000000	0.0
46	0x00000000	0.0
47	0x00000000	0.0
48	0x00000000	0.0
49	0x00000000	0.0
50	0x00000000	0.0
51	0x00000000	0.0
52	0x00000000	0.0
53	0x00000000	0.0
54	0x00000000	0.0
55	0x00000000	0.0
56	0x00000000	0.0
57	0x00000000	0.0
58	0x00000000	0.0
59	0x00000000	0.0
60	0x00000000	0.0
61	0x00000000	0.0
62	0x00000000	0.0
63	0x00000000	0.0
64	0x00000000	0.0
65	0x00000000	0.0
66	0x00000000	0.0
67	0x00000000	0.0
68	0x00000000	0.0
69	0x00000000	0.0
70	0x00000000	0.0
71	0x00000000	0.0
72	0x00000000	0.0
73	0x00000000	0.0
74	0x00000000	0.0
75	0x00000000	0.0
76	0x00000000	0.0
77	0x00000000	0.0
78	0x00000000	0.0
79	0x00000000	0.0
80	0x00000000	0.0
81	0x00000000	0.0
82	0x00000000	0.0
83	0x00000000	0.0
84	0x00000000	0.0
85	0x00000000	0.0
86	0x00000000	0.0
87	0x00000000	0.0
88	0x00000000	0.0
89	0x00000000	0.0
90	0x00000000	0.0
91	0x00000000	0.0
92	0x00000000	0.0
93	0x00000000	0.0
94	0x00000000	0.0
95	0x00000000	0.0
96	0x00000000	0.0
97	0x00000000	0.0
98	0x00000000	0.0
99	0x00000000	0.0
100	0x00000000	0.0
101	0x00000000	0.0
102	0x00000000	0.0
103	0x00000000	0.0
104	0x00000000	0.0
105	0x00000000	0.0
106	0x00000000	0.0
107	0x00000000	0.0
108	0x00000000	0.0
109	0x00000000	0.0
110	0x00000000	0.0
111	0x00000000	0.0
112	0x00000000	0.0
113	0x00000000	0.0
114	0x00000000	0.0
115	0x00000000	0.0
116	0x00000000	0.0
117	0x00000000	0.0
118	0x00000000	0.0
119	0x00000000	0.0
120	0x00000000	0.0
121	0x00000000	0.0
122	0x00000000	0.0
123	0x00000000	0.0
124	0x00000000	0.0
125	0x00000000	0.0
126	0x00000000	0.0
127	0x00000000	0.0

weight f4 [128]
0	0x3e9743df	0.2954397
1	0x3e78ab1c	0.24284023
2	0x3e523595	0.20528252
3	0x3e6b2244	0.2296229
4	0x3e3db49a	0.18525925
5	0x3e7ccc63	0.24687342
6	0x3e809622	0.25114542
7	0x3e5f7952	0.21823624
8	0x3ea8484a	0.32867652
9	0x3e46211b	0.19348566
10	0x3e67d777	0.22640787
11	0x3e330a90	0.17484498
12	0x3e2c23cd	0.16810532
13	0x3e589d7a	0.21153823
14	0x3e66c8bd	0.22537513
15	0x3e8bf504	0.2733537
16	0x3e4fb05a	0.20282117
17	0x3e326ae1	0.17423584
18	0x3e3c9991	0.18417956
19	0x3e57a79e	0.21060035
20	0x3e3f9203	0.18708043
21	0x3e3a17ff	0.18173216
22	0x3e35d958	0.17758691
23	0x3e1f257f	0.15541647
24	0x3e20b913	0.156956
25	0x3ddcb6ae	0.10777031
26	0x3e587ca4	0.21141297
27	0x3e0d23cc	0.13783187
28	0x3e868cb3	0.2627922
29	0x3e10a6ae	0.14126083
30	0x3e332da6	0.17497882
31	0x3e82054c	0.25394666
32	0x3e817055	0.25281015
33	0x3e4325f0	0.19057441
34	0x3e8c3045	0.27380577
35	0x3e2304c1	0.15919782
36	0x3e887ebd	0.26659194
37	0x3e669484	0.22517592
38	0x3e779354	0.24177295
39	0x3e28c915	0.16482957
40	0x3e4d0386	0.20020875
41	0x3e4890b6	0.19586453
42	0x3e4d3ead	0.2004344
43	0x3e751f14	0.23937637
44	0x3e688469	0.2270676
45	0x3e3dd0af	0.18536638
46	0x3e183f8d	0.14867993
47	0x3e81f082	0.25378805
48	0x3e62a666	0.22133788
49	0x3e2f7a72	0.17136553
50	0x3e68290e	0.22671911
51	0x3e85991b	0.26093373
52	0x3e819a38	0.25312972
53	0x3e92c12d	0.28663006
54	0x3e26d172	0.16290835
55	0x3e632ca9	0.22185005
56	0x3e719087	0.23590289
57	0x3e6a37d6	0.22872862
58	0x3e3a6425	0.18202265
59	0x3e8041c7	0.25050184
60	0x3e855726	0.2604305
61	0x3e5ce486	0.2157155
62	0x3e81f280	0.25380325
63	0x3e3b929b	0.18317644
64	0x3e2f5266	0.17121276
65	0x3e5ddd7d	0.21666522
66	0x3e62f032	0.2216194
67	0x3e492da7	0.19646321
68	0x3e90fb8e	0.2831692
69	0x3e5a8883	0.21341138
70	0x3e2144dc	0.15748924
71	0x3e965871	0.2936435
72	0x3e63d155	0.22247823
73	0x3e57c604	0.2107163
74	0x3e4d31fb	0.20038597
75	0x3e6ba6f4	0.23012906
76	0x3e59abd2	0.2125695
77	0x3e615a48	0.22007096
78	0x3e5cb82f	0.21554635
79	0x3e7de2b7	0.24793516
80	0x3e556ae9	0.20841564
81	0x3e4365e2	0.19081834
82	0x3e8982b0	0.2685752
83	0x3e76f6a9	0.24117531
84	0x3e81c672	0.25346714
85	0x3e8618bf	0.26190755
86	0x3e6723b6	0.22572216
87	0x3e6743bc	0.22584432
88	0x3e6bc16f	0.23023008
89	0x3e64206d	0.22277994
90	0x3e249c3f	0.16075228
91	0x3e5a491f	0.21316956
92	0x3e566531	0.20937039
93	0x3e2fa23b	0.1715173
94	0x3e61eea5	0.22063692
95	0x3e8c3b7f	0.27389142
96	0x3e70a54a	0.23500553
97	0x3e4125ba	0.18862048
98	0x3e5764f1	0.210346
99	0x3e2e212c	0.17004842
100	0x3e72b0ac	0.23700207
101	0x3e57f10f	0.2108805
102	0x3e459fe3	0.19299273
103	0x3e5e262c	0.21694249
104	0x3e392059	0.18078746
105	0x3e4e9a2d	0.20176001
106	0x3e476c84	0.19474989
107	0x3e359b32	0.17734984
108	0x3e2a897b	0.16654007
109	0x3e2b1ddf	0.16710614
110	0x3e80234c	0.2502693
111	0x3e8bf61f	0.27336213
112	0x3e5de508	0.216694
113	0x3e4a8e9b	0.19780962
114	0x3e485a34	0.1956566
115	0x3e3b6434	0.18299943
116	0x3e64a0ca	0.22326961
117	0x3e310dd4	0.17290431
118	0x3e35f71b	0.17770045
119	0x3e43730a	0.19086853
120	0x3e8617f0	0.26190138
121	0x3e5720d0	0.2100861
122	0x3e5980e7	0.21240579
123	0x3e3c29f8	0.18375385
124	0x3e2209a6	0.15823993
125	0x3e61608e	0.22009489
126	0x3e74a2ac	0.2389018
127	0x3e40c647	0.18825637

bias f4 [128]
0	0xbc9a15fe	-0.018809315
1	0x3d16d4d0	0.036824048
2	0xbd949f8e	-0.07256995
3	0xbe71f08a	-0.23626915
4	0xbe0be981	-0.13663293
5	0xbe4012ab	-0.18757121
6	0xbd176ece	-0.036970906
7	0xbd4d886c	-0.05017893
8	0xbe1db570	-0.15401244
9	0xbdae06d1	-0.08497394
10	0xbd74f943	-0.059808027
11	0xbccdf27b	-0.025140038
12	0xbccd3446	-0.02504934
13	0xbe0decd0	-0.13859868
14	0xbe068bd1	-0.13139273
15	0xbc8c3dba	-0.017119277
16	0xbbb2d51d	-0.005457534
17	0xbde17a71	-0.11009682
18	0xbd9d366f	-0.07676398
19	0xbd657c2c	-0.056026623
20	0xbe453193	-0.19257192
21	0xbdda32b4	-0.10654202
22	0xbd93c33b	-0.07214972
23	0xbcf0bd0d	-0.029387021
24	0xbdeec3dd	-0.11658452
25	0x3cd1798a	0.02557065
26	0xbe1f6d90	-0.15569139
27	0x3c229f4b	0.009925674
28	0xbe02f6eb	-0.12789504
29	0xbe4ddef7	-0.20104586
30	0xbdbe612c	-0.09295878
31	0xbd4a2345	-0.049350042
32	0xbda953d5	-0.08267943
33	0xbd3717b3	-0.044700336
34	0xbdf39349	-0.11893327
35	0xbc93d7d4	-0.01804725
36	0xbcfbd560	-0.030741394
37	0xbdda894d	-0.10670719
38	0xbd2c3ee6	-0.042052172
39	0xbde4f042	-0.11178638
40	0xbd17a228	-0.03701988
41	0xbd838ed7	-0.06423729
42	0xbe05567b	-0.13021271
43	0xbe41eeea	-0.18938795
44	0x3c179841	0.009252609
45	0xbc6cbaa7	-0.014448798
46	0xbe48caa8	-0.19608557
47	0xbdb9e1e7	-0.090762906
48	0x3d290df7	0.041273084
49	0xbcae7e5a	-0.021300483
50	0xbd9594e4	-0.07303789
51	0xbd6ab882	-0.057304867
52	0xbdf93d3c	-0.12169883
53	0xbd297864	-0.04137458
54	0xbe58cde1	-0.21172287
55	0xbe02d548	-0.12776673
56	0xbdf9eb5d	-0.12203095
57	0xbd35d5f6	-0.044393502
58	0xbd252338	-0.04031679
59	0xbe0aa90d	-0.1354105
60	0xbe08c5bb	-0.13356678
61	0xbe31b963	-0.17355876
62	0xbe022f5f	-0.12713383
63	0xbdab974c	-0.08378467
64	0xbe12e1db	-0.1434397
65	0xbdfebd30	-0.124384284
66	0xbda2d5ce	-0.07950936
67	0xbe727dc2	-0.23680785
68	0xbcd6c8d6	-0.026218813
69	0x3bf6bb82	0.007529677
70	0xbe30067f	-0.17189978
71	0xbe28fdb9	-0.16503038
72	0xbe13cb50	-0.14433026
73	0xbe175b78	-0.14780986
74	0xbdb36e09	-0.08761222
75	0xbdee25b5	-0.11628286
76	0xbe0909df	-0.13382672
77	0xbdaae16f	-0.08343779
78	0xbc882df0	-0.016623467
79	0xbe964695	-0.29350725
80	0xbe4e1cbc	-0.20128149
81	0xbde88005	-0.11352543
82	0xbdae82b9	-0.08521027
83	0xbe2e3dde	-0.17015788
84	0xbdab76dc	-0.0837228
85	0xbdfe74a4	-0.12424591
86	0xbd9557e9	-0.07292158
87	0xbd2e6eac	-0.042586014
88	0xbe081258	-0.13288248
89	0xbca305bf	-0.0199002
90	0xbdc5faee	-0.09667002
91	0xbd0a0228	-0.033693463
92	0x3ce39196	0.027779382
93	0xbcfa9747	-0.030589713
94	0xbc161c25	-0.009161984
95	0xbdd32863	-0.103104375
96	0xbdbcf116	-0.09225671
97	0xbe851e51	-0.25999692
98	0xbe51a92e	-0.20474693
99	0xbe071f2a	-0.13195482
100	0xbd7e3a73	-0.06206746
101	0xbcefedbf	-0.02928817
102	0xbdb11b97	-0.086478405
103	0xbde551c1	-0.11197234
104	0xbe0a6252	-0.13514069
105	0xbdf517d4	-0.119674355
106	0xbd37fd9b	-0.04491959
107	0xbd76af3c	-0.06022571
108	0xbd80af2a	-0.0628341
109	0xbd0899b1	-0.033349697
110	0xbe079247	-0.13239394
111	0xbdfb115f	-0.12259173
112	0xbd18dada	-0.037318088
113	0xbe425567	-0.18977891
114	0xbd99e769	-0.07514841
115	0xbe185418	-0.14875829
116	0x3ca8618b	0.020554325
117	0xbe439151	-0.19098403
118	0xbdd546ab	-0.104138695
119	0xbdf158a8	-0.11784488
120	0x3c211858	0.009832464
121	0xbe43c062	-0.19116357
122	0xbe28b9b4	-0.1647709
123	0xbd0a1bc6	-0.033717893
124	0xbdbd6201	-0.092472084
125	0xbd4d1a45	-0.05007388
126	0xbda2e1eb	-0.07953247
127	0xbde50462	-0.111824766

running_mean f4 [128]
0	0xbcce8da4	-0.025214024
1	0xbc3d10b2	-0.011539625
2	0xbae7948a	-0.001766817
3	0x3c77dd8a	0.015128503
4	0xbc4e3e93	-0.012588161
5	0xbca11aae	-0.019666042
6	0xbbd261ce	-0.0064203506
7	0x3b6107dc	0.003433696
8	0xbd3d6b72	-0.046245046
9	0xbcbd3c98	-0.023100182
10	0xbc24ea91	-0.010065691
11	0xbc343cda	-0.011000836
12	0x3b81b35d	0.0039581493
13	0xbb68754d	-0.0035470307
14	0xbc025572	-0.007954942
15	0xbcbe971d	-0.023265416
16	0xbca1aae6	-0.019734811
17	0xbbaf3627	-0.0053470316
18	0xb99bdcd0	-0.00029728422
19	0x39958bdb	0.00028523695
20	0x3bca4393	0.0061726063
21	0x3c247994	0.010038752
22	0xb970573d	-0.00022920682
23	0x3a94e79e	0.0011360531
24	0xbb32b580	-0.0027268827
25	0xbd35a9cd	-0.044351388
26	0x3c876d3a	0.016531575
27	0xbd0282de	-0.031863086
28	0xbc5fd849	-0.013662406
29	0xbc60805b	-0.013702477
30	0x3ba62a0d	0.005070931
31	0xbcd2cadf	-0.025731502
32	0xbb5bd7c7	-0.0033545361
33	0xbc8fa7b6	-0.017536025
34	0xbc5202d6	-0.012818059
35	0xbbd56532	-0.0065123076
36	0xba1f77a4	-0.00060831965
37	0x3c3682f6	0.011139622
38	0x3ab5754e	0.0013844164
39	0xbafa4856	-0.0019095044
40	0xb9ac05be	-0.00032810675
41	0x3b83a085	0.004016938
42	0xbca281d1	-0.019837292
43	0xbc71bbc3	-0.014754239
44	0xbbba3409	-0.0056824726
45	0x3bf8aeff	0.0075892205
46	0xbbfb3974	-0.007666761
47	0x3aab17ea	0.0013053392
48	0xbc9c5f86	-0.019088518
49	0xbc7dc3ef	-0.015488609
50	0xbc409e5c	-0.011756506
51	0xbca3ca09	-0.019993799
52	0x3b7c279a	0.0038475753
53	0xbcbcbd8d	-0.023039604
54	0x3aa32b71	0.001244886
55	0x3ca95696	0.02067117
56	0x3a3d9106	0.0007231388
57	0x3c8ace1a	0.01694398
58	0xbb1e10c3	-0.0024118877
59	0xbc62de08	-0.013846882
60	0xbb2ec9cb	-0.002667057
61	0xbcac0208	-0.020997062
62	0xbca08a9e	-0.019597348
63	0xbc330c35	-0.010928203
64	0xbb9179fd	-0.004439591
65	0x3b8746ce	0.0041283136
66	0xbcad2fec	-0.021141015
67	0x3bd6fa24	0.006560581
68	0xbc006e07	-0.007838733
69	0xbcaa53e4	-0.020791955
70	0x3b5fd4c6	0.0034153922
71	0xbc2cab10	-0.010538831
72	0xbc1a5806	-0.0094204005
73	0xbbda9c5a	-0.0066714706
74	0xbb01da6f	-0.0019814034
75	0xbc70a189	-0.0146869505
76	0x3c33e9e4	0.010981057
77	0xbc9429d1	-0.018086346
78	0xbc2c0f6d	-0.010501725
79	0x3bd68d62	0.006547616
80	0xbbe1d246	-0.0068915216
81	0xbc895fb8	-0.016769275
82	0xbc3ece6e	-0.011645896
83	0x3cbbd4c9	0.022928612
84	0x3b7807be	0.0037846412
85	0xbae232d2	-0.0017257577
86	0xbc8ed4e1	-0.017435493
87	0x3c2cf158	0.010555588
88	0xbbde16ca	-0.006777619
89	0xbc00a6aa	-0.007852236
90	0xbc4b7c72	-0.012419807
91	0x3c0354bd	0.008015809
92	0xbb3172cf	-0.0027076488
93	0xbb9d341d	-0.004797472
94	0xbc801121	-0.015633168
95	0xbaea1570	-0.0017859172
96	0xbbaeae5f	-0.0053308452
97	0x39ee7c53	0.00045487526
98	0xb94ed028	-0.00019723235
99	0xbc68ee1d	-0.014216927
100	0x3b0a3864	0.002109074
101	0xbb5e2098	-0.003389394
102	0xbc14004c	-0.009033274
103	0xbc3b2ce6	-0.011424279
104	0x3c911b45	0.017713198
105	0xbc0a3e84	-0.008437756
106	0x3c367f6b	0.011138777
107	0x3c8f0450	0.017458111
108	0x3b500f6a	0.0031747469
109	0xbb7cc05b	-0.0038566801
110	0xbc3172a3	-0.010830554
111	0xbc8027e0	-0.015644014
112	0xbafc49c1	-0.0019248055
113	0x3c666d1b	0.014064099
114	0xbc823657	-0.015895052
115	0x3c895b98	0.016767308
116	0xbcd6b432	-0.02620897
117	0x3b107449	0.0022041968
118	0xbc0570f6	-0.008144608
119	0xbba64aca	-0.0050748335
120	0xbc21c0d0	-0.00987263
121	0xbcc42e6b	-0.023947915
122	0x38ad5ba1	8.26635e-05
123	0xbc81c2cd	-0.015839959
124	0x3be0b0f0	0.00685703
125	0xbbb80e48	-0.005616937
126	0xbb163592	-0.0022920114
127	0x3c02ab6d	0.007975441
