ldpi/training/output/ResCNN/traced_model.pth (torch, 775612 bytes, 63 tensors)

weight f4 [1, 1, 7]
0	0xbfed527d	-1.8540798
1	0xbf06eec9	-0.5270811
2	0xbcf991ee	-0.030465093
3	0xbca14eaf	-0.01969084
4	0xbc61768d	-0.013761175
5	0x3bc330be	0.0059567383
6	0x3bf7f74b	0.0075673214

weight f4 [64, 1, 1]
0	0xbd156bb4	-0.036479667
1	0x3ca1b116	0.019737761
2	0xbd31de35	-0.043424804
3	0x3d0aa850	0.03385192
4	0xbc8cd301	-0.017190458
5	0xbd03ff60	-0.032225966
6	0x3d11334c	0.03544931
7	0xbc8545c8	-0.016268626
8	0x3cec17b1	0.02881989
9	0x3d2ae25b	0.041719776
10	0x3c245429	0.010029831
11	0x3ccd2dfb	0.02504634
12	0xbce7a296	-0.02827577
13	0x3c211e4b	0.009833883
14	0xbcd33232	-0.02578077
15	0xbcee9dbb	-0.029127946
16	0xbd2057f6	-0.039146386
17	0xbc2a0f65	-0.010379647
18	0x3d401a99	0.046900366
19	0xbc3420f7	-0.010994188
20	0x3c2c7823	0.01052669
21	0xbab36f31	-0.0013689754
22	0x3c97b15a	0.018517185
23	0x3cf6edf6	0.030142765
24	0x3cfe56dd	0.031047279
25	0xbce49274	-0.027901866
26	0x3c6a24a5	0.014290963
27	0xbcb931ef	-0.022606818
28	0xbd064884	-0.032784
29	0xbc74803b	-0.014923151
30	0x3d0643cd	0.032779504
31	0x3cfec9a0	0.031102002
32	0x3cac66fc	0.0210452
33	0xbcc0f031	-0.023552032
34	0x3d257b7a	0.04040096
35	0x3d270d67	0.040784266
36	0xbcf4ad56	-0.02986781
37	0xbcd9819b	-0.026551059
38	0x3d09a74a	0.033606805
39	0xba1c4020	-0.0005960483
40	0x3cfe4ce8	0.031042531
41	0x3cfe2cce	0.031027224
42	0xbd099ad3	-0.033594918
43	0xbccb07c7	-0.024783982
44	0x3d411204	0.04713632
45	0x3c8635b4	0.01638303
46	0x3d40b015	0.047042925
47	0x3d27ce63	0.04096831
48	0xbc5abf0f	-0.013351216
49	0x3c5b64d7	0.013390741
50	0x39036d1f	0.00012533784
51	0x3c48cacd	0.012255383
52	0x3d056070	0.032562673
53	0x3a69ea52	0.0008923161
54	0xbccc56b1	-0.024943681
55	0xbcb7007c	-0.022339098
56	0x3da9839a	0.08277054
57	0x3cb77413	0.022394216
58	0x3d44f7be	0.048087828
59	0xbce55e3c	-0.027999036
60	0xbb84ee04	-0.004056694
61	0xbce0e0d0	-0.027450949
62	0x3d06ac64	0.03287925
63	0x3d20747c	0.03917359

weight f4 [64]
0	0x3e6a0318	0.22852743
1	0x3e042380	0.12904167
2	0x3ead28e3	0.33820257
3	0x3d615391	0.055011336
4	0x3e049324	0.12946755
5	0x3ec95ace	0.3932709
6	0x3e35fd7d	0.1777248
7	0x3e52f0b0	0.20599627
8	0x3eea2543	0.45731553
9	0x3ee7ab03	0.4524766
10	0x3d94ff1d	0.072752215
11	0x3e983f35	0.29735723
12	0x3e9f46cf	0.3110871
13	0x3ddfc135	0.10925523
14	0x3e216dde	0.15764567
15	0x3ebf8f22	0.3741389
16	0x3e237d47	0.15965758
17	0x3d670f36	0.05641099
18	0x3f16a8ac	0.5885112
19	0x3c6ee5f8	0.014581196
20	0x3e015e63	0.12633662
21	0x3e473096	0.19452128
22	0x3dae5d48	0.08513886
23	0x3db33821	0.0875094
24	0x3e3b1305	0.18268974
25	0x3e9dbef4	0.30809748
26	0x3e091f22	0.13390782
27	0x3e129c0c	0.1431734
28	0x3dbe52a2	0.09293105
29	0x3db7c12c	0.089723915
30	0x3efa3597	0.4886901
31	0x3e8fddfd	0.2809905
32	0x3e1e6487	0.15468036
33	0x3e74bdff	0.23900603
34	0x3edb10e7	0.42786333
35	0x3e806e73	0.25084266
36	0x3eb85d18	0.36008525
37	0x3ea3c323	0.31984815
38	0x3df6a919	0.120439716
39	0x3dd56c59	0.10421056
40	0x3d32e29d	0.043673147
41	0x3d520054	0.051269844
42	0x3eb6a23e	0.35670656
43	0x3eadac82	0.33920676
44	0x3f1c6885	0.61096984
45	0x3c858fe5	0.016303966
46	0x3f2e9888	0.68201494
47	0x3c39f37a	0.011349553
48	0x3e857664	0.26066887
49	0x3e45db14	0.19321853
50	0x3e47b369	0.19502033
51	0x3d11f800	0.0356369
52	0x3ecabff5	0.39599577
53	0x3e4b063a	0.19826594
54	0x3ead2d36	0.33823556
55	0x3d017245	0.031603117
56	0x3e7b7532	0.24556425
57	0x3e5fbbd6	0.21848997
58	0x3f07a326	0.5298332
59	0x3dc07bf8	0.09398645
60	0x3ccbc0ae	0.02487215
61	0x3ebc82ef	0.36818644
62	0x3ecb42da	0.3969944
63	0x3dc88da8	0.09792644

bias f4 [64]
0	0xbebcd2e6	-0.36879653
1	0x3dbac64a	0.09119852
2	0x3df2691c	0.11836454
3	0xbc4fa012	-0.012672441
4	0x3dd7d40e	0.10538493
5	0x3e0501c7	0.12988959
6	0x3e1b1c59	0.15147533
7	0x3d74bbbc	0.05974935
8	0x3e39cc70	0.18144393
9	0x3e219374	0.15778905
10	0xbc82fbaf	-0.015989153
11	0x3cc24d39	0.023718463
12	0xbdb8c15e	-0.09021257
13	0xbea9211e	-0.3303308
14	0xbd987401	-0.07444001
15	0xbdc91e7d	-0.09820268
16	0xbd69872d	-0.05701368
17	0xbd962827	-0.07331877
18	0x3d845ba8	0.064627945
19	0x3f3f3461	0.746893
20	0xbd825040	-0.06362963
21	0xbe4e0b85	-0.20121582
22	0xbcb22456	-0.021745842
23	0x3e8d8c65	0.27646175
24	0x3cadbcea	0.021208245
25	0xbda3517c	-0.07974526
26	0xbd168d60	-0.03675592
27	0x3d379c69	0.0448269
28	0xbd306d80	-0.043073177
29	0xbca3b004	-0.019981392
30	0xbe0bc579	-0.13649549
31	0xbd86f5ce	-0.06589852
32	0x3e86d68d	0.26335564
33	0xbdd63818	-0.10459918
34	0x3eb39357	0.3507335
35	0xbda24305	-0.07922939
36	0x3e46d9ac	0.19418973
37	0xbddbe980	-0.10737896
38	0x3da7f06e	0.08200155
39	0xbd46a6bc	-0.048498854
40	0xbd893be5	-0.06700877
41	0xbefe754d	-0.49698868
42	0x3e1605c0	0.14650631
43	0xbdba1098	-0.09085196
44	0x3d9e3a3b	0.0772595
45	0xbdc5e390	-0.09662545
46	0xbe6cd584	-0.23128325
47	0xbe1c3452	-0.15254334
48	0x3dd060f7	0.101747446
49	0x3d82a4c1	0.063790806
50	0xbd5a7039	-0.05332968
51	0xbc40a1c5	-0.011757319
52	0x3dfc64c7	0.12323909
53	0xbda243fe	-0.07923125
54	0x3e0edcc5	0.13951404
55	0xbda44f8f	-0.08022987
56	0x3e8a489f	0.2700853
57	0x3d618162	0.05505503
58	0x3ee0b304	0.43886578
59	0x3ceb5199	0.028725432
60	0xbe555097	-0.20831524
61	0xbc8d30c1	-0.017235162
62	0xbee176d6	-0.44035977
63	0xbcd99492	-0.026560102

running_mean f4 [64]
0	0x3cc37ba1	0.023862662
1	0xbc538969	-0.012911179
2	0x3ce8b320	0.028405726
3	0xbcb566d3	-0.022143757
4	0x3c383c85	0.011244898
5	0x3cacb04f	0.021080164
6	0xbcbdf62a	-0.02318867
7	0x3c2e5b55	0.010641892
8	0xbc9a6fc6	-0.018852126
9	0xbcdf9020	-0.027290404
10	0xbbd6fc97	-0.006560873
11	0xbc863722	-0.016383711
12	0x3c978555	0.018496195
13	0xbbd2c95f	-0.0064326967
14	0x3c8a26a4	0.016864128
15	0x3c9c1660	0.019053638
16	0x3cd1c5e5	0.025607059
17	0x3bde7c22	0.0067897
18	0xbcfb52fb	-0.030679217
19	0x3beba84c	0.0071916934
20	0xbbe1a300	-0.006885886
21	0x3a6abfb9	0.00089549605
22	0xbc467494	-0.012112755
23	0xbca18686	-0.019717466
24	0xbca65f5c	-0.020309143
25	0x3c958469	0.018251615
26	0xbc192955	-0.009348233
27	0x3c724914	0.014787931
28	0x3cafadd4	0.021445192
29	0x3c1fefd4	0.009761769
30	0xbcafa7aa	-0.021442253
31	0xbca6aa6b	-0.020344933
32	0xbc618c8f	-0.013766422
33	0x3c7c6a6b	0.015406231
34	0xbcd87ef4	-0.026427723
35	0xbcda8cc7	-0.026678456
36	0x3ca00d55	0.019537607
37	0x3c8e4756	0.017368
38	0xbcb41692	-0.021983419
39	0x39cc6b0a	0.00038989662
40	0xbca658d7	-0.020306034
41	0xbca643d8	-0.020296022
42	0x3cb40643	0.021975642
43	0x3c84cf38	0.01621209
44	0xbcfc96ab	-0.030833563
45	0xbc2f9538	-0.010716729
46	0xbcfc168c	-0.03077247
47	0xbcdb893f	-0.026798842
48	0x3c0f1700	0.008733511
49	0xbc0f8371	-0.008759365
50	0xb8abf0f7	-8.1987986e-05
51	0xbc03586b	-0.008016686
52	0xbcae7e35	-0.021300415
53	0xba19032e	-0.00058369606
54	0x3c85aa4f	0.016316561
55	0x3c6f6a8f	0.014612808
56	0xbd5dc53f	-0.054143187
57	0xbc7001c7	-0.014648861
58	0xbd00d7fc	-0.03145598
59	0x3c9609b6	0.018315177
60	0x3b2de883	0.0026536293
61	0x3c9319d4	0.017956652
62	0xbcb0307e	-0.021507498
63	0xbcd1eb36	-0.025624853

running_var f4 [64]
0	0x3a09f331	0.00052623736
1	0x392189d1	0.00015405497
2	0x3a437a1a	0.0007456854
3	0x39ed9569	0.00045315482
4	0x38f51124	0.00011685703
5	0x39d74f0d	0.00041066893
6	0x3a02446f	0.0004969304
7	0x38db7d0a	0.00010466024
8	0x39ac3357	0.00032844648
9	0x3a346d8e	0.000688278
10	0x3826d9b0	3.978022e-05
11	0x39820ef3	0.0002480667
12	0x39a5c276	0.00031616137
13	0x38206507	3.824106e-05
14	0x3989cc30	0.00026282808
15	0x39afe6ca	0.00033550552
16	0x3a1edb19	0.000605987
17	0x3832b125	4.2603486e-05
18	0x3a64050a	0.00086982606
19	0x38487a4c	4.7797614e-05
20	0x3837ca6a	4.3819113e-05
21	0x3546ef59	7.4109045e-07
22	0x390e2d58	0.00013559067
23	0x39bc5f32	0.0003592908
24	0x39c7d8c1	0.00038117732
25	0x39a1679f	0.00030785517
26	0x38a95e5d	8.0761245e-05
27	0x3953e9e0	0.00020209653
28	0x39ded47e	0.0004250146
29	0x38b8af48	8.8064524e-05
30	0x39dec4d8	0.000424898
31	0x39c88d43	0.0003825222
32	0x3937a5de	0.0001751403
33	0x39660132	0.00021934955
34	0x3a29337c	0.000645451
35	0x3a2c6d4c	0.0006577566
36	0x39b8f372	0.00035276596
37	0x399227ac	0.00027876848
38	0x39ea27ce	0.00044661615
39	0x3416d95f	1.4048918e-07
40	0x39c7c91b	0.00038106073
41	0x39c796ae	0.00038068503
42	0x39e9fd67	0.00044630023
43	0x397eb22a	0.00024289699
44	0x3a6651de	0.0008786003
45	0x38de9613	0.000106137384
46	0x3a656871	0.000875122
47	0x3a2dfc96	0.00066370645
48	0x3893d383	7.048903e-05
49	0x3894b3ea	7.0907015e-05
50	0x31d572f5	6.212185e-09
51	0x38791c86	5.939279e-05
52	0x39dbd4df	0.00041929536
53	0x34a90a06	3.1485996e-07
54	0x3980fe93	0.00024603735
55	0x394eec93	0.00019733822
56	0x3b318bd5	0.0027091403
57	0x394ff24c	0.00019831321
58	0x3a6fb655	0.0009144296
59	0x39a287eb	0.00031000315
60	0x36da5c53	6.5076542e-06
61	0x399c3ae6	0.0002979852
62	0x39e0206f	0.00042748774
63	0x3a1f13a3	0.0006068295

weight f4 [64, 1, 5]
0	0xbd74783d	-0.05968498
1	0xbd55aea4	-0.052168503
2	0xbd81622d	-0.06317554
3	0xbcbd0509	-0.02307369
4	0x3d96c3cd	0.07361565
5	0xbe128ff0	-0.1431272
6	0xbd5339e4	-0.05156888
7	0xbaefe2b1	-0.0018301812
8	0x3c958b46	0.018254887
9	0x3d8fb287	0.07016473
10	0x3e880b56	0.2657115
11	0x3e00a899	0.12564315
12	0xbe1d1af5	-0.15342315
13	0x3da0092c	0.078142494
14	0x3d9b0b51	0.07570518
15	0xbcb559c3	-0.022137528
16	0xbb6d1244	-0.0036174217
17	0x3cfb86f3	0.030703997
18	0x3c5ede08	0.013602741
19	0x3d124d25	0.035718102
20	0x3d53715b	0.051621776
21	0x3dd6d0de	0.10489057
22	0xbdf10104	-0.11767772
23	0xbd451d4f	-0.048123654
24	0x3c900efc	0.01758527
25	0xbdf739c0	-0.12071562
26	0xbdae20be	-0.08502339
27	0xbdc21d7b	-0.09478279
28	0x3d334700	0.043768883
29	0xbe876136	-0.26441354
30	0xbe5b96c1	-0.21444227
31	0x3d157119	0.03648481
32	0x3d81a23d	0.063297726
33	0xbcfe2863	-0.031025117
34	0x3d3e0ce1	0.046399
35	0x3d660369	0.056155596
36	0x3d6c7bd5	0.057735283
37	0x3d3d7596	0.046254717
38	0x3d77de04	0.060514465
39	0x3d823913	0.06358542
40	0x3d123351	0.03569347
41	0x3db07000	0.08615112
42	0x3e51a240	0.2047205
43	0x3e2ba6ca	0.16762844
44	0xbd1c0531	-0.03809089
45	0x3ccb5e61	0.024825277
46	0x3ee64808	0.4497683
47	0xbdd3c6ac	-0.10340628
48	0x3cdea26e	0.027177062
49	0xbe82ec67	-0.25570986
50	0x3d477040	0.048691034
51	0xbc315884	-0.010824326
52	0x3b993fa2	0.004676775
53	0x3b3db6c5	0.002894805
54	0xbda6ba79	-0.081410356
55	0x3d813ee9	0.06310827
56	0x3d854721	0.065077074
57	0x3dcc7f84	0.09985259
58	0x3d9f1555	0.07767741
59	0x3dfb0e86	0.122586295
60	0x3e073d9f	0.132071
61	0x3dfb14a8	0.12259799
62	0x3e088ec1	0.13335706
63	0x3d067b61	0.032832507
64	0xbd887088	-0.06662089
65	0x3c43c263	0.011948201
66	0xbc330a06	-0.010927683
67	0xbde93757	-0.11387508
68	0xbdaedfb2	-0.0853876
69	0x3b166b55	0.0022952158
70	0xbe28b529	-0.16475357
71	0x3dc9444e	0.09827481
72	0x3d7bd604	0.061483398
73	0xbda58ac4	-0.08083108
74	0x3d4aa941	0.04947782
75	0x3d7b8ca1	0.06141341
76	0x3d6a29b0	0.057168663
77	0x3e07b5c8	0.13252938
78	0x3dc03804	0.09385684
79	0x3d9dcd91	0.07705224
80	0xbca51423	-0.020151203
81	0x3d570493	0.052494597
82	0xbd893310	-0.066991925
83	0xbdc10e78	-0.09426588
84	0xbd813cdc	-0.06310436
85	0xbc71c3e7	-0.014756179
86	0xbc2cb6bc	-0.010541614
87	0x3cbb7500	0.022882938
88	0x3a713d29	0.0009202534
89	0x3cf05b97	0.029340548
90	0xbd9f61da	-0.077823356
91	0xbeb5665d	-0.3542966
92	0xbd971022	-0.07376124
93	0x3e1af9ec	0.151344
94	0x3f42c39e	0.7607974
95	0x3ecd9d1d	0.4015893
96	0x3dce1809	0.10063178
97	0xbe7ccfcf	-0.24688648
98	0x3d4538c6	0.048149846
99	0x3ed63190	0.41834688
100	0x3c934b9d	0.017980391
101	0xbc9fc196	-0.019501489
102	0x3c5ca89e	0.013467936
103	0xbcae0e35	-0.021247009
104	0xbdc8729d	-0.09787486
105	0x3e02688f	0.12735198
106	0x3e03b002	0.1286011
107	0x3dce90b4	0.10086194
108	0x3d94fca7	0.07274752
109	0x3d41cc36	0.04731389
110	0xbe0f1d1c	-0.13975948
111	0xbcd29fcc	-0.025710963
112	0x3c97bab4	0.018521644
113	0xbcb988a2	-0.02264816
114	0x3d90d135	0.07071153
115	0xbda4ad55	-0.08040873
116	0x3d8c0140	0.06836176
117	0xbda7d0be	-0.08194111
118	0x3dbab883	0.09117224
119	0xbd0587fb	-0.032600384
120	0x3da4a111	0.080385335
121	0x3d6f9508	0.058491737
122	0x3dd8cc50	0.105858445
123	0xbb05e7fa	-0.0020432458
124	0x3c75805d	0.0149842175
125	0x3d87bf5b	0.06628295
126	0x3da1945d	0.07889626
127	0x3de05b13	0.10954871
128	0x3d886f87	0.06661897
129	0x3d76a456	0.060215317
130	0xbd2dc1d3	-0.042421173
131	0xbd01ddee	-0.03170579
132	0xbd710faf	-0.058852848
133	0xbd8cb1dd	-0.06869862
134	0xbd6b9956	-0.05751928
135	0xbda2b261	-0.07944179
136	0xbd4b8bcf	-0.04969388
137	0xbd5cc142	-0.053895243
138	0xbd98dc8d	-0.07463942
139	0x3b598333	0.0033189773
140	0x3dd4a2dd	0.10382626
141	0xbd6455bb	-0.05574582
142	0xbc231586	-0.009953862
143	0xbcaf1087	-0.021370186
144	0xbca52498	-0.02015905
145	0x3da4dc1b	0.08049794
146	0x3d973f73	0.07385149
147	0x388bf803	6.674232e-05
148	0x3c01c827	0.007921255
149	0xbb439098	-0.0029840823
150	0xbd336e56	-0.043806396
151	0x3d04f1b9	0.032457087
152	0xbdb0dfc8	-0.08636433
153	0xbe070aed	-0.13187762
154	0xbea1ccbc	-0.31601512
155	0x3cfac590	0.030611783
156	0xbe1de05e	-0.1541762
157	0xbdc0205b	-0.09381171
158	0xbda37826	-0.07981901
159	0xbe29346d	-0.16523905
160	0xbe4b3574	-0.1984461
161	0x3da56aae	0.08076988
162	0xbd8ccb53	-0.068747185
163	0x3cd44aa8	0.025914505
164	0x3d697187	0.056993034
165	0xbdbfd77e	-0.09367274
166	0xbdde3b83	-0.10851195
167	0x3e3c0c52	0.18364075
168	0xbc9ca656	-0.019122284
169	0x3e04d09c	0.12970203
170	0x3ee7b657	0.45256302
171	0xbe2eb73a	-0.17062083
172	0x3ebc545d	0.36783114
173	0xbe16e829	-0.14737
174	0xbee42759	-0.4456127
175	0x3d813413	0.063087605
176	0x3d849735	0.06474153
177	0x3d2000eb	0.039063375
178	0x3da22727	0.07917624
179	0x3e286673	0.16445331
180	0xbf23576a	-0.6380526
181	0x3ecf1288	0.40443826
182	0x3e310d9d	0.1729035
183	0x3c9c6a22	0.019093577
184	0x3e265c74	0.16246206
185	0xbda57b18	-0.08080119
186	0xbd77d2cc	-0.060503766
187	0xbdd95534	-0.10611954
188	0xbdd0f18f	-0.10202324
189	0xbdffbbac	-0.124869674
190	0x3dd95136	0.10611193
191	0xbd919baf	-0.071097724
192	0xbcfbb028	-0.030723646
193	0xbd0cd3b7	-0.034381595
194	0x3d2d8b11	0.042368952
195	0x3ddc817e	0.10766886
196	0xbc5e4f41	-0.0135687
197	0xbd9ad2c2	-0.0755973
198	0xbc0239ff	-0.007948398
199	0xbdb18699	-0.086682506
200	0xbb9d8ebe	-0.004808276
201	0xba8b16b2	-0.0010611622
202	0x3a9c910e	0.0011945085
203	0xbc7b5127	-0.015339172
204	0xbcf9d513	-0.03049711
205	0x3cc9ce05	0.02463437
206	0xbd1cc6a3	-0.038275372
207	0xbc5843d8	-0.013199769
208	0xbdc70f53	-0.0971972
209	0xbdd72845	-0.10505728
210	0xbece66f8	-0.40312934
211	0xbe349aec	-0.17637223
212	0x3e41df9e	0.1893296
213	0xbca3c083	-0.019989258
214	0x3e093eb7	0.1340283
215	0xbd932159	-0.07184095
216	0xbda2626f	-0.07928931
217	0xbe0b2136	-0.13586888
218	0xbd38e76f	-0.045142587
219	0x3b86da0a	0.0041153478
220	0x3dc0ac04	0.094078094
221	0xbf0f5b2f	-0.5599851
222	0x3f14ce08	0.5812688
223	0x3dbc21e2	0.0918615
224	0xbed5fc60	-0.4179411
225	0x3bacdfcb	0.0052757016
226	0x3c46ddca	0.01213784
227	0xbba77476	-0.005110319
228	0xbc3bf2d7	-0.011471472
229	0xbc4ccdef	-0.01250027
230	0x3e521c04	0.205185
231	0x3d902099	0.070374675
232	0x3eb4e13e	0.35328096
233	0x3dbddc48	0.09270531
234	0x3e6f8157	0.23389183
235	0xbb8708db	-0.0041209287
236	0x3a01d0e2	0.00049520854
237	0x3c0b22e1	0.0084922025
238	0xbcc227b4	-0.023700573
239	0xbcd4275d	-0.025897676
240	0xbc833ebb	-0.016021123
241	0x3e6ccba6	0.2312456
242	0xbd248347	-0.04016426
243	0x3bbfbdaa	0.005851467
244	0xbea66169	-0.32496193
245	0x3dbb2f9f	0.091399424
246	0x3ccfc390	0.025361806
247	0x3bb2a51f	0.005451813
248	0x3d49a71b	0.04923163
249	0x3dbd23a2	0.09235312
250	0xbe0e99e4	-0.13925892
251	0x3d4d514b	0.050126355
252	0x3e2dcddc	0.1697306
253	0x3bd6d394	0.006555984
254	0x3e2a55ef	0.16634344
255	0x3b051c36	0.0020311004

weight f4 [64, 64, 1]
0	0x3cea3206	0.028588306
1	0x3bac2e85	0.005254569
2	0xbbcb8144	-0.006210478
3	0x38110fae	3.4585297e-05
4	0xbd0bb37c	-0.034106717
5	0x3c8b1658	0.016978428
6	0x3bb977e8	0.005660046
7	0xbc80e378	-0.015733466
8	0xbc82ed4b	-0.01598229
9	0x38f904de	0.00011874152
10	0x3aebed84	0.0017999862
11	0xbc6c615e	-0.014427511
12	0x3ac5b8ea	0.0015085016
13	0x3b4e4ebc	0.0031480035
14	0xbd09d959	-0.033654545
15	0x3ca7fd42	0.020506505
16	0xbbfdd3dd	-0.0077462033
17	0x3c9ea427	0.019365383
18	0xbc075cab	-0.00826184
19	0xbaef79b0	-0.0018270519
20	0xbb47b9bc	-0.0030475697
21	0xbcac982f	-0.02106866
22	0xbb5d4a18	-0.0033766087
23	0x3b8ecca7	0.0043578926
24	0xbcbece82	-0.02329183
25	0x3ba1ae60	0.004934117
26	0xbbb61c0a	-0.0055575417
27	0x3ad023f2	0.0015879853
28	0xbb71d4a3	-0.0036900423
29	0x3a9382bf	0.0011254175
30	0x3c9edb8c	0.019391797
31	0xba81fd48	-0.0009917403
32	0x3bf7e0e3	0.0075646504
33	0x3b7f182a	0.0038924315
34	0x3b27df7e	0.002561539
35	0x3c5d98a9	0.013525167
36	0xbbcea7ab	-0.0063066087
37	0xbc9d43c7	-0.019197358
38	0x3c372794	0.01117887
39	0xbb55e06e	-0.0032634991
40	0x3c8f1f80	0.017471075
41	0x3ba62623	0.005070464
42	0xbb1f265c	-0.0024284339
43	0x3c0e72f2	0.008694397
44	0xbb26cb01	-0.002545059
45	0x3cbf5971	0.023358079
46	0xbcbfae0e	-0.023398425
47	0x3cd1b069	0.025596814
48	0x3c8757b2	0.016521309
49	0xbbb947dd	-0.0056543187
50	0xbb6aa2c2	-0.0035802578
51	0xbbb6d3c5	-0.005579444
52	0x3b155d26	0.0022791116
53	0xbbceee5e	-0.0063150367
54	0x3b6ed6f3	0.0036444038
55	0x3befa6c6	0.007313582
56	0xbbb2ba6e	-0.005454353
57	0xbb7509fe	-0.003738999
58	0xbbc474e6	-0.0059953807
59	0x3a294cc1	0.00064582756
60	0x3ba724c3	0.005100818
61	0xbd00b211	-0.031419817
62	0xbd0c90f7	-0.034317937
63	0xbc351e5c	-0.0110546015
64	0xbdfd8f84	-0.12380889
65	0xbc83b776	-0.016078692
66	0xbe3b5641	-0.18294622
67	0xbc418864	-0.011812303
68	0xbd72e570	-0.05930084
69	0x3e54c78d	0.20779248
70	0xbd0014af	-0.031269725
71	0xbdc6b511	-0.097025044
72	0x3e1ab93d	0.15109725
73	0x3db747f5	0.089492716
74	0x3c4d211d	0.012520102
75	0xbe44bb06	-0.19211969
76	0x3e0208ea	0.12698713
77	0x3d840053	0.06445374
78	0xbd9db243	-0.07700016
79	0x3e150c2f	0.14555429
80	0xbddbeed8	-0.10738915
81	0x3cac3144	0.021019585
82	0x3d81d74e	0.06339894
83	0xbc2cbbb4	-0.010542799
84	0x3b8cd983	0.0042983904
85	0x3d1545b1	0.036443416
86	0x39479bfd	0.00019036229
87	0xbd5d9a95	-0.0541025
88	0xbd045159	-0.03230414
89	0x3dfff790	0.12498391
90	0x3d86ebbc	0.065879315
91	0x3d8022fa	0.06256671
92	0x3c46c401	0.012131692
93	0x3c912363	0.017717069
94	0x3e2cbbd6	0.16868529
95	0x3e0c8e78	0.13726223
96	0xbd6a4171	-0.057191316
97	0x3e29986c	0.1656205
98	0xbb857e59	-0.0040738997
99	0xbdc22f15	-0.094816364
100	0xbda81ed2	-0.082090035
101	0xbdc12576	-0.09430973
102	0x3a7b64fa	0.0009589937
103	0xbce2c815	-0.027683297
104	0xbc2fc550	-0.010728195
105	0x3df4f690	0.119610906
106	0x3dc4b769	0.09605295
107	0xbe03633e	-0.12830827
108	0x3d8192d6	0.06326835
109	0x3c2e1305	0.010624652
110	0xbecb0dda	-0.39659005
111	0x3c845a59	0.016156362
112	0x3dd9aecc	0.10629043
113	0x3da1398a	0.07872303
114	0x3d942cb7	0.07235091
115	0x3a7dd3ea	0.0009682762
116	0xbb312e9b	-0.0027035836
117	0x3d7759e9	0.06038848
118	0xbd41dd9e	-0.04733049
119	0x3ca3468a	0.019931097
120	0xbdc7007b	-0.097168885
121	0x3d980fe5	0.07424907
122	0xbdaf7076	-0.08566372
123	0xbbbebc3c	-0.005820779
124	0x3cb8146c	0.022470675
125	0xbebeac43	-0.372408
126	0xbea6e63e	-0.32597536
127	0xbd151ade	-0.036402576
128	0x3df7fc8b	0.121087156
129	0x3af2f5da	0.0018536404
130	0x3d6b01b6	0.05737468
131	0x3bac576e	0.005259446
132	0x3ba83fe8	0.0051345713
133	0xbd1847eb	-0.03717796
134	0x3b4e0e29	0.0031441546
135	0x3cdaa1ba	0.026688445
136	0xbeae011c	-0.3398522
137	0xbdbb6662	-0.09150387
138	0xbb7efdc7	-0.0038908587
139	0x3b0b30a0	0.00212387
140	0xbe003bf3	-0.12522869
141	0xbd43dc96	-0.04781779
142	0x3c98e738	0.018664941
143	0xbe1eaa70	-0.15494704
144	0x3d30d3d9	0.043170784
145	0xbb60af33	-0.0034284114
146	0xbe1f44b9	-0.1555356
147	0xbcf48ba2	-0.029851738
148	0xbcc885eb	-0.02447792
149	0x3d2ba806	0.041908287
150	0xbcc5ca55	-0.024144331
151	0x3dc4dc25	0.09612302
152	0xbd81f60f	-0.0634576
153	0xbdeeae25	-0.11654309
154	0xbc7977ec	-0.0152263455
155	0xbcbccd09	-0.023046987
156	0xbc34b2b8	-0.011028938
157	0xbcdc1381	-0.026864769
158	0xbd97eb00	-0.074178696
159	0xbd143c9b	-0.03619061
160	0x3dabbfea	0.08386214
161	0xbd8b5e9b	-0.06805154
162	0xbd6370ac	-0.055527374
163	0x3d0c3fdf	0.0342406
164	0xbd4a5ad3	-0.049403023
165	0x3e00075c	0.12502807
166	0x38048e5d	3.160384e-05
167	0x3c638895	0.013887544
168	0xbbafe565	-0.005367922
169	0xbd060c4c	-0.03272657
170	0xbcfeab1c	-0.03108745
171	0x3dde0dca	0.10842474
172	0xbdb74ebb	-0.089505635
173	0xba8078b9	-0.0009801603
174	0x3d7476ef	0.059683736
175	0xbbb42e6f	-0.0054986994
176	0xbc8d0267	-0.01721306
177	0xbd6ea460	-0.05826223
178	0xbd0f83df	-0.03503787
179	0x3ada0471	0.0016633404
180	0xbc2856f8	-0.010274641
181	0xbd914042	-0.07092334
182	0x3c0de08d	0.008659494
183	0x3ba5f4e6	0.0050645946
184	0x3cbe02a3	0.023194617
185	0xbd7e6f56	-0.062117897
186	0xbd0ad8b0	-0.033898056
187	0xb9927aa7	-0.00027938673
188	0xbb54ca40	-0.0032469183
189	0xbd767205	-0.06016733
190	0x3d6e0588	0.058110744
191	0x3c5ec9d2	0.013597922
192	0x3abed747	0.0014560007
193	0xbc7a6cfa	-0.015284771
194	0x3d0596c4	0.032614484
195	0x3abfc3b0	0.0014630463
196	0x3ce61e6e	0.028090682
197	0xbd0c916f	-0.034318384
198	0x3d03229e	0.032015435
199	0x3d0f8218	0.035036176
200	0xbc5bdcb5	-0.01341932
201	0xbbd03d0a	-0.0063549327
202	0xbbf7c2dd	-0.0075610713
203	0x3d120806	0.035652183
204	0xbc15dbf8	-0.009146683
205	0xbccfc4e8	-0.025362447
206	0x3c746927	0.014917648
207	0xbc8fc582	-0.017550234
208	0x3b0dc11a	0.002162999
209	0xbcdb62ac	-0.026780449
210	0x3abcc7aa	0.0014402766
211	0x3caf0dbc	0.021368854
212	0xbd0d312c	-0.034470722
213	0x3d43635f	0.04770219
214	0xbc4198da	-0.011816228
215	0x3cb65ca3	0.02226097
216	0xbc0c2d37	-0.008555702
217	0xbca5aa2b	-0.020222744
218	0xbca05c35	-0.019575218
219	0xbc2a04e5	-0.0103771435
220	0xba31bdeb	-0.0006780314
221	0xbb2d79d3	-0.0026470318
222	0xbd7f8a12	-0.062387533
223	0xbd36efcb	-0.04466228
224	0x3d1fb613	0.038992
225	0xbcfb3127	-0.030663086
226	0xbcd9f7ef	-0.026607482
227	0x3d4c1184	0.04982139
228	0x3bef5d30	0.00730481
229	0x3cba970e	0.022777107
230	0x3ced6efd	0.028983587
231	0xbada4f0d	-0.0016655639
232	0xbcb4224d	-0.021989012
233	0xbc4717b6	-0.012151649
234	0xbcc3fe39	-0.023924934
235	0x3c09a0ba	0.008400137
236	0xbb42efe3	-0.0029745034
237	0xbcbd0c18	-0.023077056
238	0x3dd526f0	0.10407817
239	0xbcd77d6f	-0.026304929
240	0xbcfe7209	-0.031060236
241	0xbd0db52e	-0.034596615
242	0x3baa4082	0.005195678
243	0xbc22b30d	-0.009930384
244	0xbc3703f6	-0.011170378
245	0xbcdc0272	-0.026856635
246	0x3cc40c98	0.023931786
247	0xbc2d17c9	-0.010564753
248	0x3d044f22	0.03230203
249	0xbc8cc916	-0.017185729
250	0xba7fe27a	-0.00097612257
251	0x39e3fcc5	0.00043485142
252	0xbd0742b7	-0.03302261
253	0x3d84e2b6	0.06488554
254	0x3c8cdf88	0.017196432
255	0x3ce3d104	0.027809627

weight f4 [64]
0	0x3db3156a	0.08744319
1	0x3f2c9d23	0.6742727
2	0x3ec846c0	0.39116478
3	0x3e219876	0.15780815
4	0x3e111277	0.141672
5	0x3f0e620d	0.55618364
6	0x3d672f5a	0.056441642
7	0x3e3e26d4	0.18569499
8	0x3ea10e40	0.31456184
9	0x3ec190f3	0.378059
10	0x3d0981e1	0.033571128
11	0x3e5c2a1e	0.21500441
12	0x3e475642	0.19466498
13	0x3e67b55a	0.22627774
14	0x3e1c9027	0.15289365
15	0x3e3b6113	0.1829875
16	0x3d606c5c	0.05479084
17	0x3f4b3bc3	0.79388064
18	0x3e3ed584	0.18636137
19	0x3e4a2a35	0.19742663
20	0x3d37e80d	0.044899035
21	0x3e142f8e	0.14471266
22	0x3e02f338	0.12788093
23	0x3d88bf52	0.066771165
24	0x3d8234fb	0.063577615
25	0x3f17b951	0.59267145
26	0x3e5f7503	0.2182198
27	0x3d73b826	0.05950179
28	0x3e43a6ba	0.1910657
29	0x3ef2f5e2	0.4745322
30	0x3e92e7f8	0.28692603
31	0x3eaada66	0.3336975
32	0x3d808d9d	0.062770106
33	0x3efa7ead	0.4892477
34	0x3d8c523c	0.068516225
35	0x3de10dc2	0.10988952
36	0x3f1de316	0.6167463
37	0x3dcaf527	0.0991004
38	0x3e11a25a	0.14222088
39	0x3f1bf2c6	0.6091732
40	0x3e9eb183	0.30994806
41	0x3d4f50ad	0.050614048
42	0x3d279bc5	0.040920038
43	0x3e4ce8c8	0.20010674
44	0x3e976b55	0.29574075
45	0x3d300ec6	0.04298284
46	0x3f1c4bcd	0.6105316
47	0x3e704ea1	0.23467495
48	0x3d687a7d	0.05675744
49	0x3d91f3e4	0.071265966
50	0x3ee746d1	0.45171216
51	0x3d8ccd0b	0.06875046
52	0x3e3621c7	0.17786323
53	0x3ef81fe2	0.48461825
54	0x3db65b16	0.08904092
55	0x3da74622	0.08167674
56	0x3e5329c7	0.20621406
57	0x3ec4064b	0.3828605
58	0x3f2eebd1	0.6832858
59	0x3f14cd76	0.5812601
60	0x3d29fa96	0.041498743
61	0x3d03b30f	0.032153185
62	0x3ef485b4	0.47758257
63	0x3e06f4cc	0.1317932

bias f4 [64]
0	0xbd83fef3	-0.06445112
1	0xbee4763c	-0.44621456
2	0xbe80208e	-0.25024837
3	0xbd9f07fd	-0.077651955
4	0xbe53bd8c	-0.20677775
5	0xbdb2d8f7	-0.08732789
6	0xbbf171db	-0.007368309
7	0xbb23e7b8	-0.0025009941
8	0xbe331138	-0.17487037
9	0xbe43960e	-0.1910021
10	0xbd03f283	-0.0322137
11	0x3de33ab4	0.11095181
12	0x3d53e616	0.0517331
13	0xbe4f5adb	-0.20249502
14	0xbdf24b92	-0.1183082
15	0x3d437fb2	0.0477292
16	0x3caca7a8	0.021076038
17	0xbe435357	-0.1907476
18	0xbcb6013e	-0.02221739
19	0xbd15df97	-0.036590185
20	0xbd5ae14c	-0.053437516
21	0xbc9b46f8	-0.018954739
22	0xbdcc2cca	-0.0996948
23	0xbb905372	-0.0044044787
24	0xbdcb6770	-0.099318385
25	0xbe34ffcb	-0.17675702
26	0xbebff94a	-0.3749488
27	0xbd8b36f8	-0.06797594
28	0x3cff03f7	0.03112982
29	0xbe891a99	-0.26778105
30	0xbd8911de	-0.06692861
31	0xbe332e15	-0.17498048
32	0xbdaf80ca	-0.085694864
33	0xbde2c20a	-0.11072166
34	0xbd531360	-0.05153215
35	0xbd571a77	-0.052515473
36	0xbcb6f339	-0.022332774
37	0xbdb7c915	-0.089739
38	0xbcdbcbd0	-0.026830584
39	0xbd8a3a8d	-0.06749449
40	0xbe090b18	-0.13383138
41	0xbd8c104f	-0.06839048
42	0xba0997eb	-0.0005248773
43	0xbd43a1b6	-0.04776164
44	0xbdbac7ab	-0.09120115
45	0xbda347b5	-0.079726614
46	0x3c59431c	0.013260629
47	0xbc1df7e3	-0.00964162
48	0xbd8b8ebc	-0.06814334
49	0xbd4d7e4a	-0.050169267
50	0x3df1fe04	0.11816028
51	0xbc9505dc	-0.01819127
52	0xbde3a5b8	-0.11115593
53	0xbee3c78f	-0.4448819
54	0xbd9aaa25	-0.07551984
55	0xbc107f3b	-0.008819397
56	0xbd0f8b23	-0.0350448
57	0x3db743a1	0.08948446
58	0xbca8db8a	-0.020612497
59	0xbc12e37c	-0.008965369
60	0xbb00a658	-0.0019630399
61	0xbcd45d38	-0.025923356
62	0x3d9b1f33	0.0757431
63	0x3d5287b2	0.05139894

running_mean f4 [64]
0	0xbc57b030	-0.013164565
1	0xbdd43c7f	-0.10363101
2	0xbdaba4e2	-0.08381058
3	0x3d2d3505	0.04228689
4	0x3caacdff	0.02085018
5	0x3cd2bcfc	0.02572488
6	0xbc78fba6	-0.015196716
7	0xbb377bce	-0.0027997377
8	0x3d24bac3	0.040217172
9	0xbdda2128	-0.10650855
10	0x3b3db1da	0.002894512
11	0x3beec13d	0.0072862194
12	0xbcaf3625	-0.021388123
13	0xbd316af3	-0.043314885
14	0xbcfa0d67	-0.030523969
15	0x394866ad	0.00019111736
16	0xba89405a	-0.0010471449
17	0x3cb37e94	0.021910943
18	0xbd1f6772	-0.038917013
19	0xbcd92cfb	-0.026510706
20	0x3c9094ed	0.017649138
21	0xbd5bf8b8	-0.053703994
22	0xbcadedbf	-0.02123153
23	0xbc9da7f5	-0.019245127
24	0xbc7d3951	-0.01545556
25	0x3de9b2d5	0.11411063
26	0xbd95d495	-0.073159374
27	0xbc5799f0	-0.01315926
28	0xbc951654	-0.018199123
29	0xbd1da24b	-0.038484853
30	0xbe0c4695	-0.136988
31	0x3c0370d0	0.008022502
32	0x3bc895ce	0.0061213737
33	0xbcb20961	-0.021732988
34	0xbbabbe0a	-0.0052411603
35	0xbc44f044	-0.012020174
36	0x3dbd4be9	0.09242994
37	0x3c87ff48	0.01660122
38	0xbcf36ca3	-0.029714888
39	0xbe0c6d18	-0.13713491
40	0x3b635fd5	0.0034694572
41	0x3c66e252	0.014092045
42	0x3b1c7861	0.0023875462
43	0xbc82da4a	-0.015973229
44	0xbe2680bf	-0.1626005
45	0xbb8ff220	-0.004392877
46	0x3ccfe583	0.025377994
47	0xbd8719b7	-0.065967016
48	0x3be78e3b	0.0070665157
49	0xbc952912	-0.01820806
50	0x3d84bd8e	0.06481467
51	0xbc275db5	-0.010215213
52	0xbd382215	-0.04495438
53	0xbd302fb4	-0.043014243
54	0xbc2e0b87	-0.0106228655
55	0xbcc04c89	-0.023473995
56	0xbd5ec3fa	-0.054386117
57	0x3da2914a	0.07937868
58	0x3ddf116e	0.10891996
59	0x3ade509e	0.0016961282
60	0xbba6f730	-0.005095385
61	0x3b2106c4	0.0024570683
62	0x3d5f5a9c	0.05452977
63	0xbc9099af	-0.017651407

running_var f4 [64]
0	0x3859bd5e	5.1913194e-05
1	0x3b6ce41e	0.003614671
2	0x3acd79c7	0.0015676551
3	0x39ba0f9f	0.00035488323
4	0x3a11abef	0.0005556931
5	0x3d0dab54	0.03458722
6	0x38188188	3.636026e-05
7	0x3988b0ac	0.00026071572
8	0x3c15e18e	0.009148015
9	0x3b5d22ba	0.0033742622
10	0x37129c3e	8.738656e-06
11	0x3a4b9586	0.0007766116
12	0x3bf6e07d	0.0075340853
13	0x3b011a86	0.0019699647
14	0x39fa4002	0.00047731405
15	0x3b08c5aa	0.002086977
16	0x37eb91e6	2.8082122e-05
17	0x3ce71ca2	0.028211895
18	0x3a70ba92	0.00091830746
19	0x3ac10c2c	0.0014728359
20	0x37da788e	2.6043763e-05
21	0x3a623bd2	0.000863013
22	0x3902dadb	0.00012479296
23	0x391b5fdb	0.00014817661
24	0x38cc56d1	9.743649e-05
25	0x3d113085	0.035446662
26	0x3af8a508	0.0018970082
27	0x3a50d26e	0.0007965927
28	0x3aeb0ed6	0.0017933499
29	0x3bf114e4	0.0073572267
30	0x3be2bd6e	0.0069195544
31	0x3ad7d814	0.0016467595
32	0x388b849b	6.652736e-05
33	0x3ca70efd	0.02039289
34	0x37ca6753	2.412839e-05
35	0x399e8a9e	0.00030239386
36	0x3d14cae6	0.03632631
37	0x39cfabbb	0.00039610066
38	0x3aa2bd46	0.0012416027
39	0x3c41ff2f	0.011840626
40	0x3c76a17e	0.015053151
41	0x38dacfb2	0.00010433736
42	0x36bc67df	5.614929e-06
43	0x3b2047db	0.0024456892
44	0x3b08c29b	0.0020867947
45	0x389749f7	7.214018e-05
46	0x3d0626fc	0.032752022
47	0x3b15c863	0.0022855035
48	0x3764d9ca	1.3640567e-05
49	0x38a7a255	7.993417e-05
50	0x3c7a6e0d	0.015285027
51	0x394a8f3b	0.00019317579
52	0x3b0aecc9	0.0021198264
53	0x3afa70d6	0.0019107114
54	0x39bb938c	0.0003577735
55	0x389607a7	7.153983e-05
56	0x3a9b689e	0.001185674
57	0x3c71be8c	0.014754903
58	0x3d7dd4e9	0.061970625
59	0x3c9dcfc7	0.019264115
60	0x37f91997	2.969503e-05
61	0x37398207	1.1057134e-05
62	0x3d02a351	0.031894032
63	0x3a121b88	0.00055735605

weight f4 [64, 1, 3]
0	0x3c6e059a	0.014527703
1	0x3c86aa67	0.016438676
2	0x3cd3f7bd	0.025874967
3	0xbd39751e	-0.045277707
4	0x3e35e579	0.17763318
5	0x3e8f42f5	0.27980772
6	0x3c5bc98a	0.01341475
7	0x3e1b7b42	0.15183738
8	0x3e6d1323	0.23151831
9	0x3cfcbcb5	0.030851701
10	0x3d98946f	0.074501865
11	0x3dc6feb8	0.097165525
12	0xba0c74a0	-0.00053579547
13	0x3d3e81e2	0.046510585
14	0x3da9a5a3	0.08283546
15	0xbdcdd13c	-0.10049674
16	0xbe015d93	-0.12633352
17	0xbec11bc0	-0.37716484
18	0x3d1200fe	0.035645477
19	0xbcecfcca	-0.028929133
20	0xbcc38e27	-0.023871494
21	0x3d90b47b	0.07065674
22	0x3d68fda9	0.056882534
23	0x3de12853	0.10994019
24	0x3cf16784	0.029468305
25	0xbda90cf4	-0.08254424
26	0xbe626e35	-0.22112353
27	0xbd3f343d	-0.046680678
28	0xbdd14a2f	-0.102192275
29	0xbe623ef0	-0.22094321
30	0x3c913fe7	0.017730666
31	0x3b249763	0.0025114648
32	0x3c241a75	0.0100160735
33	0xbd0b4133	-0.033997726
34	0xbd0cb68d	-0.03435378
35	0xbe20cb10	-0.15702462
36	0x3e51cae5	0.20487554
37	0xbd7849f9	-0.06061742
38	0xbdbf986b	-0.09355243
39	0xbcb32cb6	-0.021871906
40	0xbba83927	-0.005133766
41	0x3da72216	0.08160798
42	0xbccf73b1	-0.02532372
43	0xbcff718c	-0.031182073
44	0xbd86867d	-0.0656862
45	0xbdcd9644	-0.100384265
46	0xbde7bab8	-0.11314911
47	0xbdd41fc2	-0.1035762
48	0xbcdd30b2	-0.027000759
49	0xbd2ed950	-0.042687714
50	0xbc4e9ac0	-0.012610137
51	0x3db89704	0.09013179
52	0x3e622624	0.22084862
53	0x3e4de3a1	0.20106365
54	0x3e333882	0.17502025
55	0xbcc057f8	-0.023479447
56	0xbb8086e3	-0.0039223297
57	0xbdbbd125	-0.091707505
58	0xbdc641b3	-0.096805
59	0xbde7ee80	-0.11324787
60	0x3b92b834	0.004477525
61	0x3bea0cae	0.007142625
62	0x3cfb8864	0.030704685
63	0x3e0e4b77	0.13895975
64	0x3bfc6a30	0.007703088
65	0xbd42e4cb	-0.047581475
66	0xbc343f31	-0.011001394
67	0xbd163cbb	-0.03667901
68	0xbce64317	-0.028108163
69	0x3d5eae13	0.05436523
70	0x3cc4e349	0.02403416
71	0xbcb780c9	-0.022400277
72	0xbc912136	-0.017716032
73	0xbcc2e2a0	-0.023789704
74	0xbc7bd206	-0.015369898
75	0x3daf4852	0.08558716
76	0x3ed5ee18	0.41783214
77	0xbe0e0905	-0.13870628
78	0x3bcab9ad	0.006186685
79	0xbc487a35	-0.012236168
80	0xbd879121	-0.06619478
81	0xbd05155e	-0.03249108
82	0xbcd1cd38	-0.025610551
83	0xbd2446b3	-0.040106487
84	0x3d8363d8	0.06415528
85	0x3dc6d1ca	0.09707983
86	0x3dd6066b	0.10450443
87	0xbd6714c8	-0.056416303
88	0x3cc2f72e	0.023799505
89	0x3e5490a6	0.20758304
90	0x3dbd9529	0.09256966
91	0x3da89e9b	0.082333766
92	0x3e3662a3	0.17811064
93	0xbd0de0e0	-0.034638286
94	0xbe2be19d	-0.16785283
95	0xbe3e15ab	-0.18562953
96	0x3bf4bcd9	0.0074688015
97	0x3c767f88	0.015045054
98	0x3d1f4ab6	0.03888961
99	0x3ee7275f	0.45147225
100	0xbe1129ad	-0.14176054
101	0xbe179f9d	-0.14806981
102	0xbc918729	-0.017764645
103	0xbca40dd7	-0.02002613
104	0xbadd3120	-0.0016875602
105	0xbd65365a	-0.055960037
106	0xbd38b930	-0.045098484
107	0xbd91f2d1	-0.07126392
108	0xbd875c50	-0.06609404
109	0x3edbf146	0.42957515
110	0xbf18a396	-0.5962461
111	0x3d0600c0	0.03271556
112	0x3d1d0803	0.03833772
113	0x3d83bc4d	0.064324
114	0x3d312cd4	0.043255642
115	0x3db9390a	0.090440825
116	0x3da9dcb8	0.08294052
117	0x3e531598	0.20613706
118	0xbd356b05	-0.044291515
119	0x3e81c45c	0.25345123
120	0x3c1f3089	0.0097161615
121	0xbc866fc5	-0.016410718
122	0x3d3ec10c	0.046570823
123	0xbc9265c5	-0.017870793
124	0x3a97c28f	0.0011578369
125	0xbc942637	-0.018084629
126	0x3896f0aa	7.1973845e-05
127	0x3c4f8328	0.012665547
128	0xbbeb919a	-0.007188988
129	0xbd874ee1	-0.06606842
130	0xbddd2da0	-0.10799718
131	0xbde55908	-0.11198622
132	0x3e7017b4	0.23446542
133	0x3dbce8c3	0.09224083
134	0x3dea4fc6	0.11440997
135	0xbb1cbffe	-0.0023918147
136	0xbd26458d	-0.040593673
137	0xbd017ef5	-0.031615216
138	0xbf03ea12	-0.5152904
139	0x3bd2d3cd	0.00643394
140	0xbe3a9aee	-0.18223163
141	0xbd9cb688	-0.076520026
142	0xbdf8b446	-0.121437594
143	0xbde2daed	-0.11076913
144	0xb9df18de	-0.00042552402
145	0x3cbe3719	0.023219632
146	0x3d03d57e	0.032186024
147	0x3cf2ebd2	0.029653464
148	0x3d07569c	0.03304158
149	0x3cf0f216	0.02941231
150	0xbeb99d95	-0.36253038
151	0x3eb860fb	0.3601149
152	0x3e11365a	0.1418089
153	0xbc515d4a	-0.0127785895
154	0xbd541bdc	-0.05178438
155	0x3c3a42d5	0.011368473
156	0xbdd24f11	-0.10268987
157	0xbd91d696	-0.07121007
158	0xbdd3c5dc	-0.10340473
159	0x3e1042f1	0.14088036
160	0x3e6f3a32	0.23362043
161	0x3e4995a4	0.1968599
162	0xbbe7f6d7	-0.007078986
163	0x3b016511	0.0019744078
164	0xbc6863ee	-0.014183981
165	0xbbfeaf8a	-0.0077723907
166	0x3d21d8f2	0.039513536
167	0x3d88b60e	0.06675349
168	0xbd804d9a	-0.06264801
169	0xbd9ad184	-0.07559493
170	0xbe0d70e0	-0.1381259
171	0x3e7133fb	0.23554985
172	0x3d89601a	0.06707783
173	0xbeda77a3	-0.426694
174	0xbf22bf1e	-0.6357287
175	0x3f1ef272	0.6208869
176	0x3d64039d	0.05566751
177	0x3ef774fa	0.48331434
178	0xbecf7c78	-0.4052465
179	0xbcf9e007	-0.030502332
180	0xbbae4143	-0.0053178384
181	0x3c94b444	0.018152364
182	0x3c45b430	0.012066886
183	0xbc7f45bf	-0.015580594
184	0xbc6ac2df	-0.014328687
185	0x3c3c129f	0.011479049
186	0x3d5c29a9	0.053750668
187	0xbec07b28	-0.3759396
188	0x3ef97b00	0.48726654
189	0xbd384895	-0.044991095
190	0xbd9bd973	-0.076098345
191	0xbdacda12	-0.08440031

weight f4 [64, 64, 1]
0	0x3badd4cc	0.0053049084
1	0xbc29dfc1	-0.0103682885
2	0xbcc2cb37	-0.023778541
3	0xbbe83e39	-0.0070874956
4	0xbac2e4bc	-0.0014869194
5	0xbc9b50bb	-0.018959394
6	0xbc0aff5a	-0.008483732
7	0xbc2a3bff	-0.010390281
8	0x3caa6ddc	0.020804338
9	0x3b08cac4	0.002087281
10	0x3b85bce8	0.0040813573
11	0xbba94292	-0.0051654065
12	0x3c6d0b28	0.014467992
13	0x3a05104e	0.0005075977
14	0x3bd8c741	0.00661555
15	0xbc0402b0	-0.008057281
16	0x3bbbfe7e	0.005737125
17	0x3cc20e53	0.023688471
18	0xbd343ae4	-0.044001475
19	0x3c6fc9a5	0.014635478
20	0xbb049234	-0.0020228745
21	0xbd8c7c11	-0.06859601
22	0xbadbf76d	-0.0016782113
23	0xbcb74161	-0.022370042
24	0x3ae51427	0.0017477319
25	0xbc83dd53	-0.016096747
26	0x3b0773c6	0.0020668372
27	0x3bc9f50b	0.0061632446
28	0xbb932545	-0.004490527
29	0x3b5c4673	0.0033611327
30	0xbbb06fdb	-0.005384428
31	0x3c2d6012	0.010581987
32	0xbc13262b	-0.008981268
33	0xbc627093	-0.013820785
34	0xbb2daf9e	-0.002650238
35	0x3a0b44e6	0.0005312696
36	0xbea39bf7	-0.3195493
37	0xbc204f23	-0.009784493
38	0xbcae12dc	-0.021249227
39	0xbc5ff814	-0.013669986
40	0x3b92722d	0.004469177
41	0xba37a7fc	-0.00070059276
42	0xbb595e0d	-0.003316763
43	0x3c0c9572	0.008580552
44	0xbdc5cb23	-0.09657886
45	0x3b749b98	0.0037324186
46	0xbd96623f	-0.07342958
47	0xbbc43d4d	-0.005988753
48	0xbb217590	-0.0024636723
49	0xbae531d4	-0.0017486163
50	0xbcbd4ad2	-0.023106966
51	0x3c986e4e	0.018607285
52	0x3d1a201e	0.037628286
53	0xbc3a4d00	-0.011370897
54	0x3b1faa13	0.0024362847
55	0xbc702516	-0.0146572795
56	0x3c27695c	0.010217991
57	0x3c95e058	0.018295452
58	0x3e1e5d73	0.15465336
59	0x3d6fae4a	0.058515824
60	0xbaafa73a	-0.0013401278
61	0x3ba35091	0.0049839695
62	0x3dbce610	0.092235684
63	0x3c086e2b	0.008327047
64	0x3c0d02a3	0.008606586
65	0xbe2d3a41	-0.16916753
66	0x3d8cdba7	0.06877833
67	0x3cba035c	0.02270668
68	0x3c5d01f1	0.013489232
69	0xbc866ae1	-0.016408386
70	0x3b8ab1c1	0.0042326157
71	0xbd1c1f0a	-0.03811554
72	0x3c77fe3d	0.015136299
73	0x3daea984	0.08528426
74	0xba51a0e3	-0.0007996691
75	0x3dab1452	0.08353485
76	0x3c9bb98c	0.019009374
77	0xbd683d91	-0.05669934
78	0x3c983a3e	0.01858246
79	0x3b8b6958	0.0042545013
80	0x3bf3f199	0.007444572
81	0xbe11d4ac	-0.14241284
82	0xbc7cb2c4	-0.01542348
83	0x3be27ab2	0.006911599
84	0x3a9d663c	0.0012008618
85	0x3a6f833e	0.0009136683
86	0xbc65ea36	-0.014032891
87	0x3b2ad7a2	0.0026068469
88	0x3c4ff931	0.012693689
89	0x3e11fa30	0.14255595
90	0x3d3504b5	0.044193942
91	0xbc1c20b6	-0.009529283
92	0xbd15fbcb	-0.03661708
93	0xbe1eca4c	-0.15506858
94	0xbd665d2a	-0.056241192
95	0xbd7ae1e5	-0.061250586
96	0xbb8d35c7	-0.0043093893
97	0x3c0e1763	0.008672568
98	0xbb9b6c6c	-0.0047431495
99	0x3c70a570	0.014687881
100	0xbccb4e88	-0.02481772
101	0x3ca7e461	0.020494642
102	0xbce5a43e	-0.028032418
103	0x3e19cca1	0.15019466
104	0xbd93ed8b	-0.07223042
105	0x3bc78c31	0.00608971
106	0xbba88fbe	-0.0051440885
107	0x3cfa03ae	0.030519333
108	0xbd3bd55c	-0.045857772
109	0x3b6d931a	0.003625101
110	0x3da52b7f	0.08064937
111	0x3d6961bb	0.05697797
112	0xbb9aad7a	-0.004720387
113	0x3b30de39	0.0026987924
114	0x3d008ee9	0.03138629
115	0xbbf49a1e	-0.0074646613
116	0xbc81543a	-0.015787233
117	0x3dd612d6	0.104528114
118	0x3cf9d057	0.030494852
119	0xbc4ccb36	-0.012499621
120	0x3d1fcaf8	0.039011925
121	0xbcf43a27	-0.029812885
122	0xbecb1d64	-0.3967086
123	0xbd0224c5	-0.031773347
124	0xbb90bff7	-0.0044174152
125	0xba865e49	-0.0010251488
126	0xbd8f316a	-0.06991847
127	0x3d3038d4	0.043022946
128	0xbb4cf3ed	-0.003127332
129	0x3cf8c2b4	0.03036628
130	0xbce4e133	-0.027939415
131	0xbbf8f47c	-0.007597504
132	0xbbee3277	-0.0072691995
133	0x3ca1df48	0.01975979
134	0xbb6d895b	-0.00362452
135	0xbcdc14a3	-0.02686531
136	0x3cfaa83e	0.030597802
137	0xbd4abf1b	-0.04949866
138	0xb95fe52c	-0.0002135231
139	0xbc14a4d6	-0.009072503
140	0xbb9da87b	-0.004811344
141	0x3d7f0b1c	0.062266454
142	0x3c99784e	0.018734124
143	0x39cd8a61	0.00039203747
144	0x3c0f0ce4	0.008731101
145	0x3d5065da	0.050878383
146	0x3cee96ef	0.029124705
147	0x3d08d143	0.033402693
148	0xbaef704d	-0.0018267721
149	0x3d2453b4	0.040118888
150	0x3b9ab59c	0.0047213566
151	0x3bbf2b7b	0.0058340407
152	0x3c01a845	0.007913654
153	0x3d8fb5c2	0.070170894
154	0x3c44f1de	0.012020556
155	0x3c5e841d	0.013581303
156	0xbd5194d4	-0.051167324
157	0xba0f247a	-0.00054604525
158	0x3bf1426c	0.0073626544
159	0x3cbb63c8	0.022874728
160	0xb9d4bc18	-0.00040575932
161	0x3d4fec77	0.05076262
162	0x3bce17f6	0.0062894775
163	0xbb797a24	-0.0038067186
164	0x3e401052	0.18756226
165	0xbc650603	-0.013978484
166	0x3c13c000	0.009017944
167	0xbd315144	-0.04329039
168	0xbd498ae6	-0.04920473
169	0x3aabe8e0	0.0013115667
170	0x3b9778df	0.0046225633
171	0x3d6438c5	0.055718202
172	0x3d669175	0.056291062
173	0x3b61b354	0.0034439163
174	0x3d0695a2	0.032857545
175	0xbbfaa0f7	-0.007648583
176	0x3b880e5a	0.0041521015
177	0xbbdcd1af	-0.0067388634
178	0xbc7dd3e6	-0.015492415
179	0x3bab7325	0.005232232
180	0xbcdac15d	-0.02670353
181	0xbd8b003b	-0.06787153
182	0x3c9a81d7	0.01886074
183	0x3cd14c03	0.02554894
184	0xbcfa77c0	-0.03057468
185	0xbd253e36	-0.040342532
186	0xbeebac6a	-0.4602998
187	0xbc687dbc	-0.014190134
188	0x3acba70d	0.0015537456
189	0xbb890767	-0.0041817906
190	0xbdc2e8a2	-0.095170274
191	0x3ca5c320	0.020234644
192	0x3c0e56c9	0.008687683
193	0xbd1e47a3	-0.038642537
194	0x3c5ef403	0.013607982
195	0xb9e569af	-0.00043757024
196	0xbbcd1357	-0.006258409
197	0x3d85601f	0.06512474
198	0x3bbf8ae5	0.005845415
199	0xbcacbaf2	-0.021085236
200	0xb930c48a	-0.00016857884
201	0xb83c8449	-4.4945893e-05
202	0xbb4edc57	-0.0031564438
203	0x3c80aa69	0.015706258
204	0x3d2b6021	0.041839723
205	0xbc1cb90b	-0.009565602
206	0xb93d46d7	-0.00018050834
207	0xbbabb7e7	-0.0052404287
208	0x3c0fa3ae	0.008767052
209	0x3ceffeb7	0.029296262
210	0x3c3a4ddf	0.011371105
211	0x3c855a22	0.01627833
212	0xbba422d6	-0.0050090356
213	0x3c5e6a8f	0.01357521
214	0x3b97bbeb	0.004630556
215	0x3ad8fa92	0.0016554168
216	0xba6a084b	-0.00089276274
217	0xbe9edfd7	-0.3103015
218	0x3ce77d29	0.028257923
219	0x3c8441cc	0.016144656
220	0xbbf4fc89	-0.0074763936
221	0xbd305216	-0.043047033
222	0xbc78a52d	-0.0151761
223	0x3bc6bdd8	0.0060651116
224	0xbc1fd444	-0.009755198
225	0x3ea759cb	0.32685694
226	0xbc52b225	-0.012859856
227	0x3bdbd4cd	0.0067087174
228	0xbd8b7c81	-0.068108566
229	0x3b9f1edd	0.004855974
230	0xbc9d363c	-0.0191909
231	0xbc738348	-0.014862843
232	0xbdbf3cf5	-0.093377985
233	0x3b84cec1	0.0040529673
234	0xbba481ef	-0.005020372
235	0x3d819c23	0.06328609
236	0xbcf4c158	-0.02987735
237	0x3c3a24fd	0.011361358
238	0xbdfa5c27	-0.12224608
239	0x3bd21243	0.0064108684
240	0xba252e6d	-0.00063011685
241	0x3c09f1d8	0.008419476
242	0x3d26546f	0.040607866
243	0x3b5c0e8c	0.0033578007
244	0x3cf0bce4	0.029386945
245	0xbda14cd5	-0.07875983
246	0xbc900c68	-0.01758404
247	0xbc48fba3	-0.012267026
248	0x3cf37aa6	0.02972157
249	0xbdec2ca1	-0.1153195
250	0x3e1b7745	0.15182216
251	0x3e8b3daf	0.27195498
252	0xbaa84486	-0.0012837804
253	0x3bb69bbe	0.005572765
254	0xbce47310	-0.027886897
255	0x3ce1ecee	0.027578797

weight f4 [64]
0	0x3e7d0824	0.24710137
1	0x3ee11327	0.43959925
2	0x3ec74595	0.38920274
3	0x3e7dd40c	0.2478792
4	0x3ed85420	0.42251682
5	0x3e5dc724	0.21657997
6	0x3ebba8df	0.36652276
7	0x3e8ee219	0.27906874
8	0x3eb8089f	0.35944077
9	0x3e713643	0.23555855
10	0x3e61909d	0.22027822
11	0x3eeced36	0.46274728
12	0x3ea3f272	0.3202091
13	0x3e85f7d2	0.26165634
14	0x3e94c03a	0.29052907
15	0x3e8c206b	0.27368483
16	0x3f0eebed	0.55828744
17	0x3ea1bf41	0.31591228
18	0x3ed4ac25	0.41537586
19	0x3e9822ab	0.2971395
20	0x3eac7222	0.33680826
21	0x3e95a877	0.2923009
22	0x3eb9ec8d	0.36313286
23	0x3ea88189	0.32911327
24	0x3e325d96	0.17418513
25	0x3e9e2bea	0.3089288
26	0x3ec606dc	0.38677108
27	0x3e40edb9	0.18840684
28	0x3e906c82	0.28207785
29	0x3f019cdc	0.50629973
30	0x3e9e438c	0.3091091
31	0x3ec3cbca	0.38241416
32	0x3e7a0cae	0.244189
33	0x3ea1e334	0.31618655
34	0x3eabbebc	0.33543956
35	0x3eea6c26	0.45785636
36	0x3ee7cb1f	0.45272157
37	0x3f139e2b	0.5766322
38	0x3e910c95	0.28329912
39	0x3ee85960	0.45380688
40	0x3ee6b843	0.45062456
41	0x3ea60464	0.32425225
42	0x3ee0ac62	0.43881518
43	0x3e81ccb2	0.25351483
44	0x3e905f15	0.28197542
45	0x3ea6d470	0.32583952
46	0x3ed047b0	0.40679693
47	0x3e8dce71	0.27696565
48	0x3ef1eeac	0.47252405
49	0x3eab13c8	0.3341353
50	0x3e823a68	0.25435185
51	0x3eaa7529	0.3329251
52	0x3e9e1a2b	0.3087934
53	0x3ebe95c8	0.3722365
54	0x3ef41540	0.47672462
55	0x3e809f75	0.25121656
56	0x3e7a470a	0.24441162
57	0x3e6e3ffa	0.23266593
58	0x3de36d9f	0.11104893
59	0x3f169d5b	0.58833855
60	0x3dc6dec6	0.097104594
61	0x3ece6ab8	0.40315795
62	0x3f0a6d68	0.5407319
63	0x3f11c64d	0.5694321

bias f4 [64]
0	0x3d1096a3	0.03529991
1	0xbddb5d58	-0.10711163
2	0xbe6929f4	-0.2276991
3	0xbcc5799e	-0.024105843
4	0xbe2307d8	-0.15920961
5	0x3d299d2b	0.041409653
6	0x3b900b73	0.004395896
7	0xbddbd860	-0.1073463
8	0xbe04177d	-0.12899585
9	0x3d3e062e	0.046392612
10	0x3c8106f6	0.01575039
11	0xbdba76ff	-0.09104728
12	0xbd8b5419	-0.0680315
13	0xbe1dd233	-0.15412216
14	0xbd513462	-0.051075347
15	0xbd3438cc	-0.04399948
16	0xbe74f53a	-0.23921672
17	0xbe579d7a	-0.21056166
18	0xbe2c7ed9	-0.16845264
19	0xbd4208fc	-0.04737185
20	0xbdb48b69	-0.08815653
21	0x3c1183b2	0.008881496
22	0xbd6c05c3	-0.057622682
23	0xbd1c5479	-0.038166497
24	0xbbf5ee15	-0.007505188
25	0xbd9e54ee	-0.07731043
26	0xbd980623	-0.074230455
27	0x3ccbf820	0.024898589
28	0xbde4bae6	-0.111684605
29	0xbe490feb	-0.19634978
30	0x3c3b85f3	0.01144551
31	0xbde4027c	-0.11133286
32	0xbcbc1814	-0.0229607
33	0xbd52867c	-0.051397786
34	0xbc8c1fbe	-0.01710498
35	0xbc647c89	-0.013945707
36	0xbdf33281	-0.11874867
37	0xbeb2f0ff	-0.3494949
38	0xbdeeec2d	-0.11666141
39	0xbe029338	-0.12751472
40	0xbc3894b1	-0.01126592
41	0xbdb468da	-0.08809061
42	0xbea59619	-0.32341078
43	0xbdd3f77d	-0.10349939
44	0x3bf8515c	0.007578058
45	0xbe26b7d2	-0.1628106
46	0xbe30b0ad	-0.17254896
47	0xbcbff7c8	-0.023433581
48	0xbe1fd9a9	-0.15610375
49	0xbe866454	-0.2624842
50	0x3cc8d6f0	0.024516553
51	0xbda0c6c3	-0.07850411
52	0xbe43a730	-0.19106746
53	0xbde05c5d	-0.10955117
54	0xbe7a9ae1	-0.24473144
55	0xbc5494ce	-0.012974931
56	0x3d5e2044	0.05422999
57	0xbd2ceba0	-0.042216897
58	0xbc8703f9	-0.016481386
59	0xbe708140	-0.23486805
60	0xbd84c0d2	-0.0648209
61	0xbe530d18	-0.20610464
62	0xbe03a467	-0.12855683
63	0xbe0ef9a7	-0.13962422

running_mean f4 [64]
0	0x3cecbb40	0.028897882
1	0xbcc51c2a	-0.024061281
2	0xbcaf70df	-0.021416126
3	0x3bdcd898	0.006739687
4	0xbb70937d	-0.0036709004
5	0xbd05dbc8	-0.032680303
6	0xbc91d344	-0.017800935
7	0xbbed2ca4	-0.0072379876
8	0x3b9c655d	0.0047728256
9	0x3b4a9b91	0.0030915479
10	0xbbe82ccd	-0.007085419
11	0xbd2d7315	-0.04234608
12	0xbbda24ea	-0.0066572325
13	0xbc7e4537	-0.015519432
14	0xb9e53a48	-0.00043721707
15	0xbc76e1b4	-0.01506846
16	0xbcfac27d	-0.030610317
17	0xbb22c5bb	-0.0024837095
18	0x3bd57279	0.0065138903
19	0xbacc6984	-0.0015595411
20	0xbc15c382	-0.009140851
21	0x3b4ee616	0.0031570247
22	0xbc74cc58	-0.0149412975
23	0xbcf891d1	-0.030342968
24	0x3b4aa715	0.0030922343
25	0x3c529ec5	0.012855236
26	0x3cdbbfb6	0.026824813
27	0x3b42b9b6	0.0029712743
28	0xbd0f3c1d	-0.034969438
29	0x3c34568f	0.011006965
30	0x3cf80ce1	0.030279579
31	0x3cba55a3	0.022745913
32	0x3ca812ad	0.020516718
33	0xbd705dd3	-0.058683228
34	0xbd23ca0f	-0.03998762
35	0xbcfbe8bd	-0.030750627
36	0x3d0485af	0.032354053
37	0x3aedc019	0.0018138915
38	0xbbb36365	-0.0054744952
39	0x3bde2d6f	0.0067803185
40	0x3cabd5c2	0.020975951
41	0xbc96ec01	-0.018423082
42	0x3c1fee00	0.009761333
43	0xbbdedb28	-0.006801028
44	0xbc5c3662	-0.0134407
45	0xbcaea1d1	-0.021317394
46	0x3c040773	0.008058417
47	0xbceae654	-0.028674282
48	0x3b3c1207	0.0028697269
49	0x3c22edfa	0.009944433
50	0x3bf3bf59	0.007438582
51	0xbc8f3da5	-0.01748545
52	0xb873ce76	-5.8127996e-05
53	0x3a42dfec	0.00074338797
54	0xbce665d2	-0.028124724
55	0x3c1c92bf	0.009556471
56	0xbbc7ad5b	-0.0060936636
57	0x3ccd2450	0.02504173
58	0xbc23cec3	-0.009998026
59	0xb9be1b22	-0.0003625984
60	0x3ad6a0f3	0.0016374871
61	0xbc505712	-0.012716072
62	0xbd199dbf	-0.037503954
63	0xbcfd142c	-0.030893408

running_var f4 [64]
0	0x3bf61a73	0.007510477
1	0x3c7322dd	0.014839855
2	0x3c8a7030	0.016899198
3	0x3c8a8a11	0.016911538
4	0x3c8b9ce6	0.017042588
5	0x3c38749c	0.011258271
6	0x3c1b1d4e	0.009467436
7	0x3c10c2fd	0.008835551
8	0x3c25d641	0.010121883
9	0x3b8e484d	0.004342115
10	0x3b9e6e19	0.004834902
11	0x3d1de250	0.038545907
12	0x3bccf645	0.0062549436
13	0x3aa3bcbe	0.0012492163
14	0x3be62a15	0.0070240595
15	0x3c03ceed	0.00804494
16	0x3c9507d0	0.018192202
17	0x3c544838	0.012956671
18	0x3c7d9c1b	0.015479113
19	0x3bc0875a	0.00587551
20	0x3c2ffd34	0.010741521
21	0x3b9d5f48	0.004802618
22	0x3bac4452	0.005257168
23	0x3bc85c63	0.006114529
24	0x3a4f734b	0.00079136033
25	0x3c8660e9	0.016403632
26	0x3ca9092a	0.020634253
27	0x3abc7559	0.0014378234
28	0x3c2910a9	0.0103189135
29	0x3c854f12	0.016273055
30	0x3c181a08	0.00928355
31	0x3c04c9a9	0.00810472
32	0x3b287890	0.0025706626
33	0x3ca9cd44	0.020727761
34	0x3b8d20c0	0.0043068826
35	0x3c302c2f	0.010752722
36	0x3c01c8b4	0.0079213865
37	0x3bae6da4	0.005323129
38	0x3bbc79af	0.0057518105
39	0x3c3b1c4b	0.01142032
40	0x3c8e09b3	0.01733861
41	0x3c0d5939	0.008627229
42	0x3c503ef5	0.012710323
43	0x3b96d75d	0.00460331
44	0x3bcd963a	0.006274012
45	0x3bf2108a	0.0073872255
46	0x3ba75012	0.0051059807
47	0x3c2e6102	0.010643246
48	0x3be028e5	0.0068408125
49	0x3c236f8b	0.009975324
50	0x3bd9e2c3	0.0066493466
51	0x3b9fff4f	0.00488273
52	0x3b0f2a8d	0.002184543
53	0x3c1ae2b6	0.009453466
54	0x3c81f396	0.015863221
55	0x3be223c0	0.0069012344
56	0x3c1334f4	0.008984793
57	0x3bd12c56	0.006383459
58	0x3b778c9d	0.003777302
59	0x3c612041	0.0137406
60	0x38d6ca04	0.000102419435
61	0x3bb11b84	0.0054048914
62	0x3bab9801	0.005236626
63	0x3bb8c033	0.0056381463

weight f4 [64, 1, 1]
0	0xbd06e950	-0.032937348
1	0x3cf475e7	0.029841376
2	0x3d0b0cde	0.033947818
3	0x3d0bcdbb	0.034131747
4	0x39815ff8	0.000246763
5	0xbd173ef8	-0.036925286
6	0x3d2d0c72	0.042248197
7	0x3cfed0c5	0.031105408
8	0x3836d987	4.359477e-05
9	0x3cebc0ff	0.028778551
10	0x3d0aba22	0.033868916
11	0xbd120c0e	-0.035656027
12	0x3d3336b9	0.04375336
13	0xbd129e19	-0.035795305
14	0xbd381af1	-0.04494757
15	0x3d0c3ca6	0.034237526
16	0x3c845758	0.01615493
17	0xbd03818e	-0.032105975
18	0x3d3402ef	0.04394811
19	0xbcd1b908	-0.025600925
20	0xbceaf055	-0.028679052
21	0x3d3d6719	0.0462409
22	0xbd0bd09a	-0.034134485
23	0xbd1fa1c3	-0.038972627
24	0xbcb51639	-0.022105323
25	0x3d759c83	0.059963714
26	0xbc4da03c	-0.01255041
27	0x3cafba1f	0.021451054
28	0xbd05dd11	-0.03268153
29	0xbd55e939	-0.05222437
30	0x3c4e0445	0.01257426
31	0x3d157c29	0.03649536
32	0x3cf07595	0.029352942
33	0x38ed2485	0.00011307843
34	0xbd01948e	-0.031635813
35	0xbd029133	-0.031876754
36	0xbd1e04ef	-0.038578924
37	0x3cdb676c	0.026782714
38	0x3d58ca29	0.05292717
39	0xbd09650f	-0.033543643
40	0x3d40aa9b	0.047037702
41	0xbd02d04c	-0.03193693
42	0xbd27bac3	-0.040949594
43	0xbd29f89a	-0.04149685
44	0x3d27569e	0.04085409
45	0x3ce67dda	0.028136183
46	0x3d25eef9	0.040511105
47	0x3caf5799	0.021404075
48	0x3d14959b	0.036275487
49	0x3cba82ed	0.022767508
50	0xbd3d927e	-0.046282284
51	0x3d0932a8	0.033495575
52	0x3c6a4e4e	0.014300896
53	0x3cfb4036	0.030670267
54	0xbcd8bf66	-0.026458453
55	0xbd12dbcf	-0.035854157
56	0xbcfad014	-0.030616798
57	0x3ccd9b55	0.025098482
58	0x3d4fdacc	0.05074577
59	0x3cbcd870	0.023052424
60	0x3c6de321	0.014519484
61	0x3ce6989e	0.028148945
62	0x3dad6983	0.084673904
63	0xbd1621a3	-0.036653172
