ldpi/training/output/ResCNN/traced_model.pth (torch, 775612 bytes, 63 tensors)

weight f4 [1, 1, 7]
000000 57 93 df bf ac ce a3 be ee bd 7f bc 12 eb 46 bd
       -1.746684 -0.31993616 -0.015609248 -0.048564024
000010 64 f0 6e 3d c2 c3 4d 3c c0 94 84 3d
       0.058334723 0.012558879 0.06473684

weight f4 [64, 1, 1]
000000 74 90 56 be 1d 95 50 be dd 70 8d be be 7b d0 bd
       -0.20953542 -0.20369382 -0.2762517 -0.10179852
000010 f2 42 e5 bc 83 c8 ab be be 01 17 3e f1 88 ab be
       -0.027986024 -0.33551416 0.14746758 -0.33502916
000020 a6 a3 f9 3e d4 b5 d5 3e 63 0c 7c 3d 8f ba d0 bc
       0.48757666 0.41740286 0.06153525 -0.025479583
000030 5c bc 01 bf 56 bd 03 bd 89 b0 80 3e 37 d2 ba 3e
       -0.5067804 -0.032162987 0.25134686 0.36488506
000040 9e a5 ff be 25 b9 d1 bd 92 59 8b 3e dd 6d 5f 3e
       -0.49931043 -0.10240392 0.27216774 0.21819253
000050 a9 21 ba 3c 00 6c 40 3d f4 ea 84 be b2 b7 02 bf
       0.022721129 0.046977997 -0.25960505 -0.51061547
000060 51 50 ff be c6 a9 06 3d 87 7c 99 3e 91 a2 c2 bd
       -0.49865964 0.032876752 0.2997782 -0.09503663
000070 35 59 fd 3e 2e f0 32 3e c8 08 ab be cd 41 b4 bd
       0.49482122 0.17474434 -0.33405137 -0.08801613
000080 df 37 6e be 04 b0 6b 3e fa 72 d4 3e b6 66 73 3e
       -0.232635 0.23016363 0.4149397 0.2376965
000090 2d 96 66 3e 91 7a 50 3e 99 b6 f1 be 26 7d 60 3d
       0.22518225 0.20359255 -0.47209623 0.05480685
0000a0 44 d3 e9 bc c6 91 00 3f 5c 87 da 3e 6f 30 a9 be
       -0.028543122 0.5022243 0.42681396 -0.33044764
0000b0 37 9a 88 3e 4a 81 a5 be 50 21 ed 3e 35 99 fd 3d
       0.26680157 -0.32325202 0.46314478 0.123827375
0000c0 4d 30 02 3f 65 3c 4f 3e 8e 5a f4 be a9 c7 fc be
       0.5085495 0.20237882 -0.47725338 -0.4937108
0000d0 d5 3a 81 3e 91 71 9a 3e 98 99 fc be da 22 10 be
       0.25240198 0.3016477 -0.49335933 -0.14075795
0000e0 1d d0 eb bd cd 36 d2 bc 02 8b b6 3d 2e 2d bb be
       -0.11514304 -0.025660897 0.089132324 -0.36557907
0000f0 93 54 e1 be cf 6f f6 3e a1 d3 fa 3e 15 c2 83 3d
       -0.44009838 0.48132178 0.48989585 0.064335026

weight f4 [64]
000000 79 fb 0c 3f 69 b6 14 3f 01 1f 04 3f 00 ee 0e 3f
       0.55071217 0.58090836 0.5160981 0.5583191
000010 15 e4 0e 3f c6 aa 05 3f 21 73 13 3f 22 1c f0 3e
       0.55816776 0.52213705 0.5759755 0.46896464
000020 6c d9 0f 3f 86 31 01 3f a9 4e 27 3f a7 62 25 3f
       0.56191134 0.5046619 0.653544 0.64603657
000030 39 a3 2e 3f 75 db 2d 3f ee 30 fc 3e 23 8b 23 3f
       0.6821781 0.6791299 0.4925608 0.6388418
000040 fe e2 2a 3f b2 ec 1c 3f c4 8c 12 3f 4b 1f 67 3f
       0.6675261 0.6129867 0.5724604 0.90282124
000050 bc 0d 10 3f 95 71 52 3f 12 41 0e 3f 84 7c 07 3f
       0.56270957 0.8220456 0.5556804 0.5292437
000060 aa d6 02 3f 24 39 25 3f 27 99 21 3f 96 c6 04 3f
       0.511088 0.64540315 0.63124317 0.5186552
000070 cd ac 53 3f 81 65 2c 3f 61 5f 4a 3f d8 44 16 3f
       0.8268555 0.6734238 0.79051787 0.586988
000080 bf 64 0e 3f df 4f 60 3f b8 ab 0d 3f 30 8b 5b 3f
       0.55622476 0.87621874 0.55340147 0.8575926
000090 ad 03 bc 3e 9f 6e 0d 3f 01 0d 1c 3f ad 7b 1f 3f
       0.36721554 0.5524692 0.6095734 0.6229809
0000a0 4a 6c 0f 3f 8f 2f fc 3e 02 4a 1a 3f 39 58 47 3f
       0.5602461 0.49255034 0.60269177 0.7786899
0000b0 48 57 1b 3f a1 70 f9 3e 07 b4 23 3f a2 5a 01 3f
       0.60680056 0.48718742 0.63946575 0.5052892
0000c0 ed 9d 0b 3f 3d 77 3c 3f 64 8f 4d 3f 48 a2 02 3f
       0.5453785 0.73619443 0.8029692 0.5102887
0000d0 bc b7 9a 3f fb dd 48 3f 5d 0c 11 3f ff 31 5a 3f
       1.2087321 0.78463715 0.5665949 0.8523254
0000e0 fe 8d 0c 3f 55 0e 37 3f 46 f6 2a 3f cf 42 17 3f
       0.5490416 0.71506244 0.66782033 0.59086317
0000f0 3d 72 2e 3f bc 93 96 3f 42 dc 33 3f 83 4c 15 3f
       0.68143064 1.1763835 0.7025796 0.5831987

bias f4 [64]
000000 a3 7b 33 bd 71 1a 1b 3e 0c 96 8d 3d 2e a8 1b 3e
       -0.04381908 0.15146805 0.06913385 0.15200874
000010 45 ee 01 3e 24 00 cd 3d 16 a3 0a be f0 f1 56 3e
       0.12688549 0.100097924 -0.13538775 0.2099073
000020 b8 e2 f7 bc 2d 2a e2 bd 3e d4 bd 3e 55 e2 2b be
       -0.030259475 -0.11043201 0.3707599 -0.16785558
000030 75 50 a1 3d 52 31 29 be 76 ca ae bd 1c 80 32 be
       0.07876674 -0.1652272 -0.0853471 -0.17431682
000040 72 c9 01 be 20 fd 1b 3e 41 a1 e6 3e d3 b5 f2 3e
       -0.12674502 0.15233278 0.45044902 0.47404346
000050 3a 34 72 be fe de d6 3d ec 4b 04 3e 7e 68 02 3e
       -0.23652735 0.10491751 0.12919587 0.12735173
000060 18 4a 6b bf ed 7d 86 3f b0 ff f8 bd ee 70 04 3e
       -0.91909933 1.050718 -0.121581435 0.12933704
000070 7c 2c 2f 3e 0c c2 8a 3e 00 18 c5 be 5a 40 01 3e
       0.17106813 0.2710117 -0.38494873 0.12622204
000080 fe d9 e8 be 81 22 dd 3e 5f 89 0f be 6e 1a 22 3f
       -0.45478815 0.43190387 -0.14017247 0.6332158
000090 23 88 23 3f 3a 7a 06 be 8a d1 82 bf 31 b9 7d be
       0.63879603 -0.13132563 -1.0220196 -0.24777676
0000a0 a1 f2 00 3e 39 52 f0 bd d3 dd 8d bd b4 b5 29 be
       0.12592556 -0.11734433 -0.06927075 -0.1657322
0000b0 45 72 33 be 7c 53 2b 3e 08 a7 6c be 99 86 17 be
       -0.17524059 0.16731066 -0.23110592 -0.14797439
0000c0 22 88 c8 bd c3 20 89 3e 02 0b eb be 17 85 9a 3d
       -0.0979159 0.26782808 -0.45906836 0.07544916
0000d0 b3 db ca 3e e4 ab 35 3f d6 70 12 3e 2f 32 97 3d
       0.39620742 0.7096541 0.14300856 0.07382619
0000e0 19 35 4d bf 62 6e 69 be 96 5b 79 be 0b a3 85 be
       -0.80159146 -0.22796014 -0.24351344 -0.26100954
0000f0 f4 1c ec be 3d 55 81 3e f2 ab 87 be 2c 48 21 be
       -0.4611584 0.25260344 -0.2649837 -0.15750188

running_mean f4 [64]
000000 28 56 eb 3d 92 c6 e4 3d 4b 22 1b 3e be aa 64 3d
       0.114910424 0.11170687 0.151498 0.055826895
000010 e8 74 7b 3c f2 69 3c 3e 42 a0 a5 bd 38 24 3c 3e
       0.015347697 0.1839979 -0.080872074 0.18373191
000020 52 e7 88 be 5e 66 6a be 8b 39 0a bd a2 ef 64 3c
       -0.26738983 -0.22890612 -0.033746284 0.013973149
000030 b1 4b 8e 3e 56 7e 90 3c f2 25 0d be 59 e8 4c be
       0.27792123 0.017638367 -0.13784006 -0.20010509
000040 c0 32 8c 3e de 06 66 3d 2e d7 18 be 46 0f f5 bd
       0.2738247 0.056158893 -0.14925835 -0.11965804
000050 b2 26 4c bc ef 0c d3 bc 28 c9 11 3e 5d 5f 8f 3e
       -0.012460398 -0.025763003 0.14236891 0.28002444
000060 fa 03 8c 3e 3a b3 93 bc 80 58 28 be 5a 7a 55 3d
       0.27346784 -0.018029798 -0.1644001 0.052118637
000070 10 f0 8a be f0 42 c4 bd a6 97 3b 3e 3d b5 45 3d
       -0.27136278 -0.0958308 0.18319568 0.048268545
000080 e8 a3 02 3e 9f 40 01 be 44 04 69 be 8d 7b 05 be
       0.12757838 -0.12622307 -0.22755533 -0.13035412
000090 f9 e8 fc bd 74 a9 e4 bd 94 8e 84 3e d2 38 f6 bc
       -0.123491235 -0.11165133 0.25890028 -0.03005639
0000a0 2b 3b 80 3c 34 04 8d be 52 af 6f be 94 91 39 3e
       0.015653213 -0.2754227 -0.23406723 0.1812194
0000b0 ba d3 15 be 20 87 35 3e 24 0b 82 be 2a 13 8b bd
       -0.14631549 0.17727327 -0.25399125 -0.06790765
0000c0 dd ca 8e be 7a 4c e3 bd 47 01 86 3e 40 a0 8a 3e
       -0.27889147 -0.11098571 0.2617285 0.27075386
0000d0 a0 bd 0d be 43 65 29 be fd 86 8a 3e 15 17 9e 3d
       -0.13841867 -0.16542535 0.27056113 0.07719246
0000e0 3a 52 81 3d b2 90 66 3c 1b 37 48 bd 1d 4c 4d 3e
       0.063145116 0.014072584 -0.048880678 0.20048566
0000f0 1b 25 77 3e b8 25 87 be 07 8e 89 be 8b 83 10 bd
       0.24135248 -0.26395965 -0.2686617 -0.0352817

running_var f4 [64]
000000 ab 53 66 3c d3 a9 59 3c c5 2c c8 3c e3 74 59 3b
       0.014058034 0.013285118 0.02443541 0.0033181242
000010 0f 7b 83 39 bc a2 13 3d bf 2a e4 3b 8b 35 13 3d
       0.00025077953 0.036043867 0.0069631035 0.035939734
000020 80 e4 9b 3d 3b 7f 64 3d 7d ea 9e 3a 00 f8 59 39
       0.07611942 0.0557854 0.0012124326 0.0002078712
000030 17 6a a8 3d 32 a8 ad 39 8c b5 a5 3c 77 9d 2e 3d
       0.0822336 0.00033122447 0.02022817 0.04263064
000040 73 7c a3 3d fb 0c 5c 3b d2 4c c2 3c 92 c0 79 3c
       0.07982721 0.0033577073 0.023718271 0.015243666
000050 0a 54 2d 39 dc 3d 39 3a ed c6 b0 3c 19 f9 aa 3d
       0.00016529873 0.00070664077 0.02157923 0.08348293
000060 6c 0f a3 3d 3f 73 b5 39 c8 b8 eb 3c fc 86 3d 3b
       0.07961926 0.00034608875 0.028774634 0.0028919568
000070 42 8f a0 3d af 30 20 3c e7 59 12 3d 67 8f 22 3b
       0.07839824 0.009777232 0.03573027 0.0024804713
000080 67 f4 8d 3c 63 f4 8a 3c e3 ce 61 3d f0 32 94 3c
       0.017328454 0.016962236 0.055128943 0.018090695
000090 47 01 85 3c 6f 72 59 3c 91 26 92 3d 81 20 7c 3a
       0.01623596 0.013271912 0.07136262 0.00096178806
0000a0 73 c4 88 39 5e 66 a5 3d ba ea 6e 3d e5 35 0f 3d
       0.00026086307 0.080761656 0.05832932 0.034963507
0000b0 ba b6 ba 3c a1 0a 09 3d 2c a9 8c 3d 6a e0 a0 3b
       0.022792209 0.033457402 0.068682045 0.0049095647
0000c0 a2 97 a9 3d b1 dc 56 3c 75 5c 95 3d fc d6 9f 3d
       0.08280875 0.01311414 0.072930254 0.07804677
0000d0 74 1a a7 3c c6 ab ee 3c be 9c 9f 3d 64 e0 cf 3b
       0.020398356 0.029134642 0.07793568 0.006343888
0000e0 3f 1a 8b 3b fa 14 5d 39 9b b5 26 3b ac 47 2f 3d
       0.004245072 0.00021084017 0.0025437835 0.04279296
0000f0 4f 05 7e 3d 23 eb 97 3d 0e 61 9d 3d b6 b4 ad 3a
       0.06201678 0.07417896 0.07684527 0.0013252709

weight f4 [64, 1, 5]
000000 88 5f 71 3e c7 ca 02 be d1 ff 55 3e 48 9f 5e 3e
       0.23571599 -0.12772666 0.20898367 0.21740448
000010 05 c6 73 bd d5 8b 83 3e 3f 09 b0 bd f0 4a b1 3e
       -0.059515018 0.2569262 -0.085955136 0.34627485
000020 27 19 8d 3e ae 3b 1a bc ac 19 15 be 35 f9 9f bd
       0.27558252 -0.009413643 -0.14560574 -0.07811204
000030 28 20 29 3e 8e 88 34 3e 03 36 37 bc 6a b1 ff 3d
       0.16516173 0.17630216 -0.011182311 0.12485011
000040 88 e9 8e 3e fe 2f a2 3e 34 2d 8d bd 04 3b 38 3e
       0.27912545 0.3167724 -0.068933874 0.17991263
000050 bb 76 a1 be 97 11 49 3e 9d 7e 3d bd 8e fa bb 3b
       -0.31535897 0.19635616 -0.046263326 0.0057366556
000060 75 02 6b 3d d2 07 1d be 8a fd a4 bb ec 5a 17 be
       0.05737539 -0.15335014 -0.005035107 -0.14780778
000070 5d f1 c3 3d c1 31 de 3d b7 2e 9e be 2a 01 0c be
       0.09567521 0.108493336 -0.30895016 -0.13672319
000080 cf d2 00 be 94 95 ed 3d 25 6c d4 3d ed 0f 39 3e
       -0.12580417 0.116007954 0.103721894 0.18072481
000090 af a6 34 bd ed b0 e8 bd 91 e5 e2 3d b8 bd 8e 3d
       -0.044104274 -0.11361871 0.110789426 0.0696978
0000a0 7f b8 c2 3b e2 36 6e 3c e5 57 49 be 17 0e a3 bd
       0.005942404 0.014539452 -0.19662435 -0.07961672
0000b0 89 fb b9 bd dc 48 3b 3d f5 17 a1 bd d5 3b 55 be
       -0.0908118 0.04572378 -0.078658976 -0.20823605
0000c0 14 e3 24 3e fb cf 4a be 32 8b 90 bc 97 c0 a3 3e
       0.16102248 -0.19805901 -0.017644498 0.31982872
0000d0 9f 4e 7b 3e 66 c9 4d be 12 95 03 3d 71 5c 81 3d
       0.2454171 -0.20096359 0.032124586 0.0631646
0000e0 66 2b 73 3e bc e5 48 3e a6 92 8b 3d 83 bc 79 bd
       0.23747024 0.19618887 0.0681508 -0.060970794
0000f0 6c ee 3a 3e 3f 5d 38 3e 3b f1 11 bd ad 10 8b 3d
       0.18255013 0.1800432 -0.035630446 0.0679029
000100 b6 eb d6 3d dd 6d 16 be 35 ab 0b 3e a2 e6 9d bd
       0.10494177 -0.14690347 0.13639529 -0.07710005
000110 0c 9b 64 3e 7b 2c 93 3e 40 bf 2e 3d a0 ee ce bd
       0.2232477 0.28744873 0.04266286 -0.10104108
000120 8d bc 6a bd 8e a1 00 be f6 78 4b 3e a1 14 a9 be
       -0.057308722 -0.12561628 0.19870362 -0.3302355
000130 c4 4f 90 bd ed 44 b4 be 59 f1 98 bd e3 1a 6f bd
       -0.07046464 -0.35208836 -0.074679084 -0.05837525
000140 05 9f 90 3e 08 fd 0f 3e f7 9f a1 3d be 38 25 bc
       0.28246322 0.14061368 0.07891839 -0.010084329
000150 13 b5 d1 3d 44 19 93 be 8e 27 48 be 94 96 90 3d
       0.10239615 -0.28730214 -0.19546339 0.070599705
000160 9f 92 9c 3e 1e e1 8a 3e a8 9d 00 be 37 ae 02 be
       0.30580613 0.27124876 -0.12560141 -0.1276177
000170 22 b8 fc 3c b3 9c 1a 3e 73 85 16 be d8 31 64 be
       0.03084952 0.15098839 -0.14699344 -0.22284639
000180 0a 7d 37 3e b5 e4 d9 3e c6 73 01 be b6 4f 28 bc
       0.17918792 0.42557302 -0.1264182 -0.010272911
000190 c8 49 19 be 77 7c 84 bd cd 00 2a bd bf 97 88 3c
       -0.14969552 -0.06469052 -0.04150467 0.01667392
0001a0 5b e4 09 be 8d cf b2 3e 05 71 77 be a9 3c 8d bc
       -0.13466017 0.34923974 -0.24164207 -0.01724084
0001b0 59 2d 1d be c1 9b f1 be 6b aa a2 be 05 c8 96 3d
       -0.1534933 -0.47189143 -0.31770644 0.073623694
0001c0 c3 d9 ac bb 2c dd 22 3e 91 21 67 3d 7f 85 8a 3e
       -0.0052749827 0.15904683 0.056428496 0.27054974
0001d0 d9 f2 ca 3d 83 43 90 bd 95 a0 fc bd ee 34 67 bc
       0.09909601 -0.07044127 -0.12335316 -0.0141117405
0001e0 38 8d 5c be 3e 0f 07 be 4a af b6 bd 3e bb 61 3d
       -0.21538246 -0.13189408 -0.089201525 0.05511021
0001f0 8f 7b 01 3e 42 2c 39 bc 15 2a 8c bd e9 c9 2e 3e
       0.1264479 -0.011302056 -0.06843964 0.1706921
000200 e1 58 a3 3d 46 9b 35 3e b5 30 8e bc 4f 26 c9 3e
       0.07975937 0.17735013 -0.01735721 0.3928704
000210 43 18 84 3b c8 f1 24 be 6b 9a 2b 3e 98 a4 90 be
       0.0040312125 -0.16107857 0.16758125 -0.28250575
000220 19 dc ec 3c d3 7f 9f bd 05 db 7a bc e8 f2 e5 bd
       0.028913544 -0.077880524 -0.015311007 -0.11227971
000230 ff 28 12 be f9 f1 81 bc b4 a0 a7 be 52 7d a2 be
       -0.14273451 -0.015862452 -0.32739794 -0.31736237
000240 7b 62 7e bd ae 9f fa 3d fe 60 82 3e 1b 62 86 bc
       -0.062105637 0.12237488 0.25464624 -0.016404202
000250 9e ef 72 3e 4f 64 ac 3d 16 60 67 3e 8d 22 cb 3d
       0.23724219 0.0841757 0.22595248 0.099186994
000260 21 25 94 3d bd 9f c1 3e 92 c3 a6 bd bc cc 15 3e
       0.07233644 0.37817183 -0.08142771 0.14628881
000270 d3 25 b4 bd 90 1a 72 be 60 3d 24 be 2a 65 24 bc
       -0.08796277 -0.23642945 -0.16039038 -0.010033885
000280 ac 25 3f be 13 9b 06 3b f2 9d fc 3c fe 8a 9e be
       -0.18666714 0.0020539209 0.030837033 -0.30965418
000290 89 f6 01 bd c5 c7 aa be ee 38 f1 bd 1c d5 8b be
       -0.031729255 -0.33355537 -0.117784366 -0.27311027
0002a0 e5 ea 1a 3e 23 17 10 bb 62 3a 80 3e 36 53 f8 bd
       0.15128668 -0.0021986447 0.25044543 -0.12125246
0002b0 60 dc c0 3d e3 25 0c 3e af a1 3d be ab 67 17 3d
       0.09417033 0.13686328 -0.18518709 0.0369641
0002c0 85 39 84 3d 3e bc 94 3e 37 aa 82 3c 4b 51 f8 be
       0.064562835 0.29049867 0.015950305 -0.48499522
0002d0 67 92 d7 3b 44 09 85 bc ff d0 1b be 0f 23 a2 3d
       0.006578732 -0.01623977 -0.15216444 0.07916843
0002e0 0b 7b 7c be c1 ed 0f 3e 02 f6 89 3b f0 59 76 3e
       -0.24656312 0.1405554 0.0042102346 0.24057746
0002f0 dc c3 d2 bd 16 20 0e bd 3d 14 12 be 11 36 a3 bd
       -0.102912635 -0.03469857 -0.14265533 -0.07969297
000300 71 22 d1 3d 98 78 15 3e 41 35 0f 3e 04 b3 5a 3e
       0.10211647 0.14596784 0.13985159 0.21357352
000310 69 65 bb bd 7d b7 b5 3e 8f 10 ab 3e 6f cd 49 3e
       -0.09150202 0.35491553 0.3341107 0.19707273
000320 95 cb 38 be 20 26 94 bd bd e9 f6 3c ea 53 59 3e
       -0.1804641 -0.07233834 0.030140752 0.21223417
000330 3a 73 2c 3e b7 69 40 3d 2d a7 38 3e 4f a9 c5 bd
       0.1684083 0.046975818 0.18032522 -0.09651434
000340 eb 9c 21 3d 09 3b 76 be 00 61 3c 3e 9d ef 01 3e
       0.03945629 -0.24045958 0.18396378 0.12689061
000350 32 50 1f 3e 84 e5 2f 3c 32 33 34 bd 20 a2 49 be
       0.15557936 0.010735873 -0.043994136 -0.19690752
000360 d5 71 f2 bd f8 73 d6 bd 92 23 40 3d 37 de 83 be
       -0.11838118 -0.10471338 0.046908922 -0.25755474
000370 82 15 84 be 9b 2c a5 bd 66 a5 5f be ea 0a 28 bc
       -0.2579766 -0.080651484 -0.21840438 -0.010256508
000380 ba bc 8a be d2 77 e7 bd a9 56 15 3d e1 d0 2c be
       -0.27097112 -0.11302151 0.0364596 -0.16876556
000390 b6 8d 1c 3e 9c 77 51 3e 58 32 cc 3e a7 5c 66 3d
       0.15288433 0.20455784 0.3988216 0.056240704
0003a0 d4 0e 44 3d b2 b7 da 3c 70 a5 89 3b a1 d4 4d be
       0.047865704 0.02669892 0.00420063 -0.20100643
0003b0 ff 73 4f be 8a 20 da 3d 30 07 30 be b6 c0 6b 3d
       -0.20259093 0.106507376 -0.17190242 0.05755683
0003c0 9b dd 8b 3e 4d a9 18 be 86 1a 29 be 16 0a e0 bd
       0.2731751 -0.14908333 -0.16514024 -0.10939424
0003d0 6e f0 45 3e 47 17 2b be 70 92 8b be 36 b7 04 be
       0.19329998 -0.16708098 -0.2726016 -0.12960514
0003e0 5a 62 29 3e 52 2e 48 be 90 70 42 be d1 c7 b6 3d
       0.16541424 -0.1954892 -0.18988252 0.08924831
0003f0 16 20 8e bd 9d d2 60 be 60 45 aa be 46 11 fc bd
       -0.06939714 -0.21955343 -0.33256054 -0.12307982

weight f4 [64, 64, 1]
000000 e6 e6 1f bc be bb e2 3c 13 63 98 3b 72 30 82 3c
       -0.00975964 0.027677413 0.0046504824 0.015892241
000010 e6 eb a2 3b 8b 98 51 bc 1a aa 0b 3d 03 62 67 3d
       0.004971969 -0.012792717 0.03409777 0.056489956
000020 e3 37 d0 bc 54 4b e2 3b 70 c4 c2 bc 25 d8 62 bc
       -0.025417274 0.0069059525 -0.02377531 -0.013845478
000030 c1 1e c9 3b 66 63 22 3c 4f 19 43 3d ff f6 45 bd
       0.0061376994 0.009911394 0.047631558 -0.048331257
000040 f6 74 3e 3d 70 80 b2 bc 8b 35 94 bd 13 a1 3f 3d
       0.04649826 -0.02178976 -0.07236775 0.04678447
000050 33 70 7f 3d 1b 31 a5 bd f3 58 45 bd f9 78 ca 3c
       0.06236286 -0.08066007 -0.04818053 0.024715887
000060 f3 b8 70 bc e5 0f bb 3c 67 7b b3 3a 84 c8 5c bd
       -0.014692533 0.022834728 0.0013693393 -0.053902164
000070 66 14 c8 bc 01 1c 35 3d bb 37 95 3c ad 8e 15 bc
       -0.02442379 0.04421616 0.01821505 -0.009128255
000080 b4 0d ef bb 22 2a 12 bc 31 24 91 bd 6d c1 f2 3c
       -0.0072953347 -0.008921178 -0.07086981 0.029633248
000090 c4 53 04 bc e3 08 c2 3c 85 21 73 bd 49 c8 50 bc
       -0.008076612 0.023685878 -0.05935814 -0.012743064
0000a0 6b 8b 6c bd 5d 65 9f bd f9 56 cf bc 04 1c 1f 3c
       -0.057750147 -0.077830054 -0.025310026 0.009711269
0000b0 7a ca 5f bd 70 75 4c 3d e4 3e 25 bd 20 b8 e5 bc
       -0.054636456 0.049916685 -0.04034318 -0.0280419
0000c0 1a 50 9e bb 5d ac 9a bd df 33 5d bd 25 42 81 bb
       -0.004831326 -0.07552407 -0.054004546 -0.0039446526
0000d0 44 5a ce bd 1a f5 5a 3d ac 59 5f 3d da 40 9c 3c
       -0.100758106 0.053456403 0.054528877 0.019073892
0000e0 74 1e 82 3d e2 02 74 bd 4a 6a 93 3c f3 c4 39 bd
       0.06353465 -0.05957306 0.017995019 -0.04535384
0000f0 ba 97 93 3b 1f c0 4c bc 0c e6 7a 3d 65 20 75 bb
       0.004504171 -0.012496977 0.061254546 -0.0037403342
000100 fc fa a8 bb 05 08 e8 bd ec 20 7d bb 92 19 8f bd
       -0.005156873 -0.113296546 -0.003862436 -0.06987299
000110 74 c4 12 bc 2b 47 15 3d a5 0d ce 3c f9 d0 8e bd
       -0.008957971 0.036444824 0.02515299 -0.06973452
000120 aa 22 74 bc bd 4e 14 bd 8f 6f 34 3d 64 bf 82 bd
       -0.014900843 -0.036207903 0.044051703 -0.06384161
000130 99 d7 29 3c fc 58 16 bd 69 50 23 bd 6f f3 2e 3d
       0.010366344 -0.036705956 -0.039871607 0.042712625
000140 ec ab d9 bc dd 89 5d bd f8 8e 0c bd c4 2f 08 bd
       -0.026571237 -0.054086555 -0.034316033 -0.033248678
000150 04 ae 1d 3b 2c 7f 8b bd e1 d9 ef 3b 09 2d 70 3c
       0.002406002 -0.068113655 0.0073196744 0.014659175
000160 e6 f0 cd 3b aa 9c 31 3d 30 eb 1f 3c e7 c5 20 3d
       0.006284821 0.043362297 0.009760663 0.039251234
000170 92 2c 14 3d 93 0e 2c bd 67 e1 2d bd 5c 28 8a 3d
       0.036175318 -0.042006087 -0.04245129 0.06745979
000180 c6 be 48 bd 8c 47 12 bd 2f 2e 0a 3d ce 26 2c 3c
       -0.04901006 -0.035712764 0.03373545 0.010507299
000190 74 02 42 3d 25 45 a8 bc 8d da 97 bd 9d ad be 3c
       0.04736562 -0.020540783 -0.07414732 0.023276145
0001a0 ee 9b 3a bd 81 14 48 bc 40 f9 80 bd 1d 19 57 3d
       -0.045558862 -0.01221192 -0.06297541 0.052514184
0001b0 36 5f 57 3d 53 47 57 3d 66 4e 21 3c ce 8b 81 3d
       0.052581035 0.052558254 0.009845352 0.06325494
0001c0 2c 7e 42 bd a1 d4 c9 bc b3 2d 17 3d 90 4c 5a bd
       -0.047483608 -0.024637522 0.036908817 -0.053295672
0001d0 d4 8f b2 3d e9 3f 8a 3c 5f 3f 01 3d d6 e0 3e bb
       0.08718839 0.016876178 0.031554576 -0.0029125712
0001e0 b8 93 37 bd 4d c7 c6 bb 97 98 63 3c 92 80 60 bd
       -0.04481861 -0.006066239 0.013891361 -0.054810114
0001f0 e2 3d 54 3d 17 80 8b 3c f7 b5 34 bd ec 31 05 3c
       0.05181683 0.017028851 -0.044118848 0.008129578
000200 57 1c 6d bd 96 f5 0c bc 37 c7 ce 3c 09 ec 72 3c
       -0.057888355 -0.008603474 0.025241477 0.014826783
000210 5a d9 98 bd 83 68 f5 39 a1 53 6f 3c ac 81 3b bd
       -0.074633315 0.0004680791 0.014607341 -0.04577796
000220 2a 0d d4 3b 19 6f 6d 3d 56 9a 8b bc 52 99 14 3d
       0.006471296 0.05796728 -0.017041367 0.03627903
000230 18 6c 58 bd 89 22 4f bd a3 b0 be bb 65 e3 d7 3c
       -0.05283746 -0.050570045 -0.0058193966 0.026353547
000240 ee c1 62 bd 61 a6 ea bc f7 be bd 3d 7a 2f d9 bd
       -0.055360727 -0.028643789 0.09264939 -0.106047586
000250 63 87 86 bd 21 f5 38 bd 89 9e 36 bd 92 fe 0e 3c
       -0.06568792 -0.04515565 -0.044584785 0.0087276865
000260 90 01 41 3c 2e 1c 1b 3a f6 35 d4 bd 21 f5 c3 b9
       0.011780158 0.000591698 -0.10361855 -0.00037375934
000270 27 0d c7 3c f1 07 6a 3c cc f5 77 bc 89 7b 8f 3c
       0.024298264 0.01428412 -0.015134286 0.01751496
000280 e5 b0 b2 3c e5 85 d0 3d d9 37 87 3d 1b 3c 1b bb
       0.021812866 0.10181788 0.06602449 -0.0023686949
000290 44 ff b5 3b 10 32 9c 3c b2 81 f8 bc b5 2e a2 3d
       0.0055541117 0.01906684 -0.030335281 0.07919065
0002a0 7c 8a b7 bd 0e e0 f0 3c e4 e8 b6 bc 88 1f 9f 3c
       -0.08961961 0.029403713 -0.022327848 0.019424215
0002b0 f8 65 56 bd ff fb b6 bc 84 b9 cf bc 13 f8 01 bd
       -0.05234334 -0.022336958 -0.025357015 -0.031730723
0002c0 e5 c4 6b bd bb c0 92 3d 2b 5c 8f 3d be da d6 bb
       -0.05756082 0.07165667 0.070000015 -0.006556838
0002d0 9e f2 f2 3d f7 87 1e 3d 03 10 d1 bd a6 b8 50 3d
       0.11862682 0.038703885 -0.10208132 0.050957344
0002e0 31 71 83 3d 19 9a a0 3c e3 b0 a0 3d b7 6f 1d 3c
       0.06418074 0.01960473 0.078462385 0.009609154
0002f0 0b b8 f8 3b 31 66 17 3e 73 03 93 3d f3 2e d7 bc
       0.007590299 0.14785077 0.07178392 -0.026267504
000300 65 88 36 bd bc ef 67 bd ef 25 d4 3c 60 04 16 3d
       -0.04456367 -0.056625113 0.025896994 0.036625266
000310 b1 3f 0a 3b 78 c8 1e 3d 33 8e f9 3c 79 90 9a bd
       0.0021095092 0.0387654 0.030463314 -0.07547087
000320 f6 b9 35 3d 50 9a 5f 3d cb 90 a2 3c 49 d4 3d 3b
       0.0443668 0.054590523 0.019844433 0.0028965643
000330 aa 3e 30 3d a3 b9 b1 bd c6 dc ac 3d e0 41 96 3d
       0.04302851 -0.086779855 0.08440547 0.073367834
000340 f0 72 a8 3d cb c4 3e bd f5 6d 85 3d cf 8a 9f bc
       0.082250476 -0.046574395 0.06515113 -0.019475369
000350 85 23 8e bd ad 39 81 3d 57 67 68 bd b7 3d 0b bc
       -0.069403686 0.06309829 -0.056739178 -0.008498601
000360 ff 5f e0 bc ae 1f f1 bd 5c c9 94 bd 07 eb 2e 3d
       -0.027389525 -0.117736205 -0.07264969 0.04270461
000370 d7 96 86 3d fa a7 a9 bd f4 dd 7e 3d 0b af d2 bc
       0.06571739 -0.08283992 0.06222339 -0.025718233
000380 1a 1f 2b bc f7 73 fb bb 2b 62 d9 3c 1d ee 69 3c
       -0.010444427 -0.007673736 0.026536068 0.014277962
000390 7b 4c 0c 3e 7f 55 3b 3d b3 d4 81 bd 30 a3 ac bd
       0.1370105 0.045735832 -0.06339397 -0.08429563
0003a0 c5 2c 22 bd 74 f7 09 bd 4b c9 0f 3b 64 55 8f bc
       -0.039593477 -0.033683255 0.0021940048 -0.017496772
0003b0 13 0f 9e 3d 34 7f 91 bd c2 87 5b ba af 16 21 bd
       0.07717719 -0.0710434 -0.00083744165 -0.039328273
0003c0 5e 57 ec 3c a1 53 da 3c 46 45 07 bd ed c0 18 3c
       0.028850254 0.026651205 -0.03302505 0.009323341
0003d0 0e 31 c2 3c 91 e4 99 bd c4 49 97 bd 4b 5e 95 3b
       0.023705032 -0.07514299 -0.073871166 0.0045583597
0003e0 9f 30 8f bc bf f4 0e bd 08 1a 74 bd 22 8e 01 bd
       -0.017479239 -0.034901377 -0.059595138 -0.03162969
0003f0 06 b3 85 bd a4 05 02 bb 47 53 03 be cd 67 e8 bc
       -0.06528287 -0.0019839788 -0.12824737 -0.028369809

weight f4 [64]
000000 86 cd f1 3e fb 4b 00 3f 74 4a 16 3f 00 f7 d4 3e
       0.47227114 0.50115937 0.58707356 0.41594696
000010 81 50 f3 3e 6a 49 fa 3e 61 58 3a 3f 30 ec 0f 3f
       0.47522357 0.48884135 0.72791106 0.5621977
000020 4e 3f 09 3f 8c ae ee 3e 7d ca 5b 3f 31 1a 3a 3f
       0.5361222 0.46617544 0.8585585 0.72696215
000030 55 a7 fd 3e 20 b4 f5 3e 7f 18 f8 3e 91 e3 11 3f
       0.49541727 0.47988987 0.4845619 0.56987864
000040 25 b3 e8 3e 81 b6 01 3f bf ab f0 3e 85 4b e4 3e
       0.45449176 0.50669104 0.47006032 0.44588867
000050 25 f1 ef 3e e8 56 37 3f 67 ce 0c 3f a4 b2 e7 3e
       0.46863666 0.71616983 0.55002445 0.4525348
000060 7f b1 17 3f 1d 7b f3 3e 70 a5 ef 3e 8b 65 35 3f
       0.5925521 0.47554865 0.46805906 0.7085807
000070 45 6f fe 3e 52 ef 33 3f c4 6e e5 3e bf 4d 05 3f
       0.49694267 0.7028705 0.4481107 0.52071756
000080 81 e5 0d 3f 4d 89 00 3f 70 f8 dc 3e 4d 24 2e 3f
       0.5542832 0.50209504 0.43158293 0.6802414
000090 ac 34 bc 3e 6c 92 05 3f 80 bb eb 3e c6 63 41 3f
       0.36758935 0.5217655 0.4604149 0.7554287
0000a0 3e e1 3b 3f fe b0 1b 3f 78 da 00 3f d1 6d 72 3f
       0.7339057 0.60816944 0.50333357 0.94698817
0000b0 ff 0e ef 3e 03 9a 06 3f 37 a0 e2 3e 47 c7 14 3f
       0.4669113 0.52578753 0.4426286 0.58116573
0000c0 cd 9a e4 3e 6e e4 e8 3e 37 d8 38 3f 3e 7d 6c 3e
       0.44649354 0.45486778 0.7220492 0.23094651
0000d0 ba 0a 02 3f be 9b 9c 3f 81 48 eb 3e b0 5b f3 3e
       0.5079762 1.2235029 0.45953754 0.4753089
0000e0 50 da f9 3e 9c 49 e3 3e ef 9b e6 3e 12 f1 07 3f
       0.48799372 0.44392097 0.45040843 0.5310222
0000f0 dd dc 5e 3f b4 07 32 3f 05 79 cc 3f da 21 ed 3e
       0.8705576 0.69543004 1.5974432 0.4631489

bias f4 [64]
000000 9e e6 9d bc f5 a2 b6 bc 79 78 1f bd 52 9f d8 3c
       -0.019275006 -0.0222945 -0.03893325 0.026443157
000010 ac b5 48 bc b5 1c 60 3c 58 07 c4 3d 95 23 db bb
       -0.012250345 0.013678719 0.09571713 -0.0066875913
000020 c1 b6 ec bd f1 21 9a be 04 0e 6b bd 03 8a fd bf
       -0.11558295 -0.3010402 -0.057386413 -1.9807743
000030 36 59 33 bd 49 42 a0 bc 01 7c ba bb 11 22 2c be
       -0.04378625 -0.019562857 -0.005691052 -0.1680987
000040 9b 5a 50 bd 1c a6 00 3d fd 5e 83 bb e2 dc 0a bd
       -0.050867658 0.031408414 -0.004009126 -0.033902057
000050 43 43 6a bd d4 e6 36 bd c1 99 20 be f3 1e 34 bd
       -0.057193052 -0.04465373 -0.15683652 -0.043974828
000060 3c 87 ce bd cc 85 d1 3d ea b7 4b 3c 9e 79 09 3e
       -0.10084388 0.10230598 0.012433985 0.134253
000070 9b ff 3e 3d 65 1b bc bd d9 94 a9 be 9d 19 43 bf
       0.046630483 -0.091849126 -0.33121374 -0.7621096
000080 c5 a1 35 3d e1 c6 39 3e 6d ff 33 bd e0 2a e8 3c
       0.04434373 0.18142273 -0.043944765 0.028340757
000090 fa 2b 0a be b7 55 5f bd 8d 1b 6e 3d 28 55 93 bf
       -0.13493338 -0.054525103 0.058131743 -1.1510363
0000a0 35 53 fb bc 4a d3 30 3d 29 5b 8e bd 68 88 73 3e
       -0.030679325 0.04317025 -0.06950981 0.23782504
0000b0 9e 1d 07 bd 3c d8 2b 3e e8 b0 fc bc a0 29 8b 3d
       -0.03298723 0.16781706 -0.030846074 0.06795049
0000c0 fa 7e 92 3e 57 ba 99 3b 23 7b 0e be b5 9f 52 bf
       0.286125 0.004691403 -0.1391416 -0.82274944
0000d0 a4 76 c4 bc 85 fc 89 bf cc 92 05 bd ca b4 d6 bd
       -0.023982354 -1.0780188 -0.0326107 -0.104837015
0000e0 d7 c8 17 bc 76 ec 29 bd 7a 71 96 bd 50 f0 7d bb
       -0.009264193 -0.041485272 -0.07345863 -0.0038747974
0000f0 9d c5 8b bd f4 2c 34 3c 1b 31 bb be 8b dd 83 bd
       -0.06824801 0.010997046 -0.36560902 -0.0643874

running_mean f4 [64]
000000 5c 16 3f 3e 50 2f 00 be 3b 01 c1 bd 8f 2d 83 be
       0.18660873 -0.12518048 -0.09424063 -0.25620696
000010 c1 40 cf 3d 16 31 2c bd 7d e7 d3 be ed 5a db bd
       0.10119773 -0.042039 -0.4138755 -0.10710702
000020 40 e5 bd 3a cd 85 b9 be 35 05 b2 be a5 ad 31 bf
       0.0014487877 -0.36234894 -0.34769598 -0.69405586
000030 1a ad 8b bd 41 ab a7 3d 03 45 88 bd 61 3e ea 3b
       -0.06820126 0.08186961 -0.06653788 0.0071485494
000040 b4 63 f7 3d a6 0f 8b bd 93 5c 1b 3e 44 aa 9c 3d
       0.12079564 -0.06790094 0.15172033 0.07649663
000050 00 77 c6 bd 01 a6 a3 be f5 8b d9 bd a2 34 01 3e
       -0.09690666 -0.31962588 -0.10622398 0.12617734
000060 3e ed 46 3d df e7 ab bd d3 ae a0 bd 8d e6 06 bf
       0.048566096 -0.08393835 -0.07845845 -0.5269554
000070 35 45 27 bd 20 42 2b be 89 f2 3e bf bd 2d 17 bf
       -0.040837485 -0.16724443 -0.7458883 -0.59054166
000080 48 c9 13 3e d3 4b 10 be 1a 99 80 3d e9 58 b2 be
       0.14432251 -0.14091425 0.06279202 -0.34833458
000090 fd 36 5a 3d 70 55 6d 3e 4b 7f 57 3b 06 96 f9 be
       0.053275097 0.23177123 0.003288227 -0.4874727
0000a0 1e 53 48 be 91 a2 17 bd 79 43 bf 3d 00 79 c9 be
       -0.19562957 -0.03702027 0.09339041 -0.39350128
0000b0 75 39 d8 3d 47 2e 56 3c 5b be de bd 76 89 bf be
       0.10557834 0.013072557 -0.10876151 -0.37409562
0000c0 d6 63 b9 be 40 5d 82 3d 55 34 24 be ed 2c 4a be
       -0.3620898 0.06365442 -0.16035588 -0.197437
0000d0 a0 13 10 be 65 5a 57 bf d5 a8 52 be c2 39 8f 3b
       -0.14069986 -0.84122306 -0.20572217 0.004370899
0000e0 8b 4c 54 3e c0 a0 55 3d 78 36 8d 3d 2d 24 b7 3d
       0.20732324 0.052155256 0.06895155 0.08942447
0000f0 12 4d 22 bf 2d 9c b4 be b2 be 06 bf 5e 11 e7 3d
       -0.6339885 -0.35275403 -0.5263473 0.112826094

running_var f4 [64]
000000 4e a0 3f 3c b2 b5 17 3c f8 7f 96 3c be 92 d7 3c
       0.011695934 0.009259628 0.018371567 0.02631509
000010 ea 43 3b 3b 4b 76 8e 3b 6f c3 0f 3e f6 8d 86 3c
       0.0028574415 0.0043475977 0.14039396 0.016425114
000020 e1 4c 2a 3d ec 6b 10 3d 99 7b 0d 3e 27 8b e9 3e
       0.041577224 0.035259172 0.1381668 0.45613977
000030 79 28 ae 3b 34 8b be 3b 20 05 1b 3c a0 2a d8 3c
       0.0053148833 0.005814934 0.009461671 0.026387513
000040 51 88 dc 3b 2d 95 45 3c ed a6 05 3c 24 d1 c2 3b
       0.0067301174 0.012059492 0.008157474 0.0059453417
000050 94 25 a6 3b 3e 0b b8 3d 61 8b 84 3c d1 29 34 3c
       0.0050703976 0.08986519 0.016179742 0.010996298
000060 00 d3 12 3d 9d 23 fa 3c e3 15 5a 3b 43 61 da 3d
       0.035845757 0.03053456 0.0033277206 0.106630825
000070 41 e2 ad 3b b9 03 90 3d 80 c3 2b 3e 49 d6 43 3e
       0.0053065126 0.0703196 0.16773796 0.19124712
000080 a9 e1 5c 3c 65 42 c8 3c 14 d9 8a 3c b6 c5 69 3d
       0.013481536 0.024445722 0.016949214 0.057073317
000090 25 d0 1b 3c 82 f1 4c 3d 7e d8 47 3c 76 66 5b 3e
       0.009510075 0.050035007 0.012197612 0.21425804
0000a0 16 00 b2 3d 56 fb 6b 3c 1d 7d d3 3c 81 54 65 3d
       0.08691423 0.014403185 0.025816495 0.055988792
0000b0 8b 42 1e 3c 4c f1 1e 3d 32 bf 98 3c e8 4d e7 3c
       0.00965942 0.038804337 0.018645857 0.02823539
0000c0 24 ad 39 3d ec ef 17 3d 65 1f 8b 3c bc 0d 03 3d
       0.045331135 0.03709404 0.016982744 0.03199552
0000d0 50 2f 92 3c ed bf 9f 3e f5 af c1 3c e8 02 c5 3b
       0.017844826 0.31201115 0.023643473 0.0060123093
0000e0 5d 64 75 3c 18 f9 13 3c a1 fe 4c 3c 15 65 03 3c
       0.014977542 0.009031557 0.01251188 0.008019705
0000f0 e4 22 b0 3d 88 6c f1 3d b4 eb 22 3e 6f da ae 3c
       0.08600405 0.11788279 0.15910226 0.021344392

weight f4 [64, 1, 3]
000000 68 19 ae 3e b2 97 d6 bd b9 ad 73 be 77 94 2b 3d
       0.34003758 -0.10478152 -0.23796739 0.041889634
000010 bb 14 3c 3e 4b bf 72 be 51 77 88 3e 27 32 49 be
       0.18367283 -0.23705785 0.2665353 -0.19648038
000020 0a c9 82 3e 7d b1 31 3e 4c 0f 3b 3e 71 39 04 3e
       0.25544006 0.17352863 0.18267554 0.12912537
000030 72 aa 8b 3a 40 19 bc bd ad af d4 3d 4a 0f bf 3d
       0.0010655655 -0.091845036 0.1038507 0.09329088
000040 b4 73 55 3d c3 77 20 be 2d 86 21 bf 50 b6 83 3e
       0.052112296 -0.15670685 -0.6309536 0.2572503
000050 e3 d7 9c 3e a2 c0 45 3e fc ac a5 3e c8 8c 59 be
       0.30633458 0.19311765 0.3235854 -0.2124511
000060 9e d5 2f be 41 6d a6 be 3f 17 99 bd 36 8f 39 be
       -0.17171332 -0.3250523 -0.07475137 -0.18121037
000070 4a dd 8e be 6f 66 5f bd df 55 32 be f6 ac 0b 3d
       -0.27903205 -0.054541048 -0.1741557 0.034100495
000080 b4 b5 09 bf 1c f3 ad 3e 90 5f d5 3e c3 33 cb 3e
       -0.5379288 0.3397454 0.4167447 0.3968793
000090 40 5e 66 be d8 82 23 3e 45 d3 a9 3c 34 6e 6c 3e
       -0.22496891 0.15967882 0.020730624 0.23088914
0000a0 51 c1 06 3c 10 78 06 be cc 50 4b be a6 c4 4d 3d
       0.008224801 -0.13131738 -0.1985504 0.050236367
0000b0 ff 8b d2 3d 38 d5 3d be 60 a0 6c be 6c a6 1b 3e
       0.102806084 -0.18538368 -0.23108053 0.15200204
0000c0 96 fe a1 3e 6a 89 73 bd 75 f6 26 be 2a 2a 14 b9
       0.31639546 -0.05945722 -0.16304953 -0.00014130087
0000d0 b1 a2 29 be 75 b7 d7 3d 14 1f 06 3c 74 e3 81 3e
       -0.16565968 0.105330385 0.008186121 0.25368845
0000e0 78 d7 77 be 9f 34 91 bc 4c 81 16 be ec c0 6c 3e
       -0.24203289 -0.017725287 -0.1469776 0.23120469
0000f0 74 e3 1b be ad 9a 49 3e b2 98 2f 3c 86 dd e5 3e
       -0.15223485 0.1968791 0.010717558 0.4489557
000100 bb b0 6c 3d 39 23 90 3e fe b2 02 bb 5f 32 8b be
       0.05778573 0.28151873 -0.0019943113 -0.27186868
000110 f6 fc 26 be ee b4 02 be d4 bc 30 3e 5c 1d 4f be
       -0.16307434 -0.12764332 0.17259532 -0.20226043
000120 85 1c 2e bd 79 0e 8d be c1 6e a7 be a8 9c b6 be
       -0.042507667 -0.27550104 -0.32701686 -0.35666394
000130 c9 1e 84 bc 7d d3 0d 3e 05 87 1d 3e 56 c4 ba bd
       -0.01612796 0.13850208 0.15383537 -0.09119479
000140 12 d8 fa bd 7a 9d a7 be 57 c0 92 be 7c 33 36 be
       -0.122482434 -0.32737333 -0.2866237 -0.17793077
000150 e3 56 1a 3e 58 67 5d be 4d cf 22 3e 62 3d f0 3e
       0.15072207 -0.21621454 0.15899391 0.4692183
000160 51 16 d7 be e2 53 8c be 76 af 31 be 23 d5 85 be
       -0.42009214 -0.27407748 -0.1735209 -0.26139173
000170 40 ba 8b bd 18 a4 a4 3e 2a d3 9d 3e 5f 09 6c 3e
       -0.06822634 0.32156444 0.30825168 0.2305045
000180 f2 dc d5 be 75 83 2f 3e 59 e1 5f 3e 6e 2e 9d be
       -0.4177013 0.1713999 0.21863307 -0.30699486
000190 11 2f 65 3d dc 5e 23 3e 8c 30 67 be 79 2c 5f be
       0.05595309 0.15954155 -0.22577113 -0.21794309
0001a0 76 a8 ee 3d 0e 23 8c 3e 6f 9a 97 be 12 18 c0 be
       0.11653225 0.27370495 -0.2961001 -0.37518364
0001b0 26 52 3d 3e aa a8 db bc c3 42 70 3d d4 3b 98 3e
       0.18488368 -0.026813824 0.05865742 0.29733145
0001c0 fc 61 a5 be 87 63 fe bc 71 2c 2e be ed 6f 41 3e
       -0.3230132 -0.031053318 -0.1700914 0.18890353
0001d0 b1 72 f6 bd c2 55 82 3d e8 9b d1 be f1 5e 0b bf
       -0.120335944 0.06364013 -0.4093926 -0.54441744
0001e0 c4 5f fd be 5c b8 0b 3e 48 4e 85 be 67 9f 94 3e
       -0.49487126 0.13644546 -0.26036286 0.29027864
0001f0 96 8c 71 be e6 b9 98 3e d0 2c 94 be c3 0b 90 bd
       -0.23588786 0.2982933 -0.2894044 -0.07033493
000200 13 75 8c 3e 5d 5c 03 3d 29 89 38 be 73 03 c4 3e
       0.2743307 0.032070506 -0.18021072 0.38283882
000210 ad 5c 85 be 71 54 56 3e 88 65 53 3d bc e4 aa 3e
       -0.26047269 0.2093065 0.0516105 0.33377635
000220 89 27 76 bd 81 d7 6b be d6 17 0c be f3 82 95 bd
       -0.060096297 -0.23031427 -0.13680968 -0.07300367
000230 6d 11 52 3d d6 0b 3d be d6 b9 36 be 64 37 02 bd
       0.05128615 -0.18461546 -0.17844328 -0.031791106
000240 0d d6 e6 3d 7a bf 04 be 43 a6 5f be 96 b5 5f 3e
       0.11271296 -0.12963668 -0.21840768 0.21846613
000250 c7 27 cb bd 7f 1a 87 3d e8 77 3c 3e a6 85 ea 3e
       -0.09919696 0.065968506 0.18405116 0.4580509
000260 4d 70 1b 3e e1 4e fc 3d 5f be 50 3e b6 10 33 3e
       0.15179558 0.123197325 0.20385121 0.17486843
000270 4b 15 0b 3e bd ce 19 3d 50 a5 0d 3d 93 c9 ba be
       0.13582341 0.037550677 0.034581482 -0.36481914
000280 13 e5 b7 be 29 09 8d be 87 56 ee bd 63 40 cf bc
       -0.35916957 -0.2754605 -0.116375975 -0.025299257
000290 26 66 49 bd 1b d9 1b bc d2 e1 e4 3d 70 b1 54 3e
       -0.049169682 -0.009512211 0.11175884 0.20770812
0002a0 bf ac 75 be 94 5c a1 bd f9 d0 65 3e f1 ee 03 3d
       -0.23991679 -0.07878986 0.22442998 0.032210294
0002b0 64 07 99 bd cf 3e 28 3e 0b 7b 3e be 05 a5 2c be
       -0.07472113 0.1643021 -0.18601625 -0.16859825
0002c0 44 9f 97 3e fe 16 9e bd 8c 9f 95 3d 3b 3e 3c 3e
       0.29613698 -0.07719229 0.07305822 0.18383114
0002d0 95 34 b3 be ce e6 6e bd e7 3f b6 bd 7a e6 fe be
       -0.35001054 -0.05832558 -0.08898907 -0.49785215
0002e0 6c 1b a9 3e 02 82 8c 3e d8 bc 9b 3e a6 8d ed 3d
       0.33028734 0.27442938 0.30417514 0.11599283
0002f0 7e 6b 8a 3e fc b8 22 be eb 09 9b 3e 67 68 41 be
       0.27035135 -0.15890878 0.30281004 -0.18887483

weight f4 [64, 64, 1]
000000 23 18 09 bd fa 18 8d bd 1e 36 16 3c 6f 0f 00 3d
       -0.033470284 -0.068895295 0.009168176 0.03126472
000010 d5 07 34 3d c5 a4 7d 3a 54 f6 e8 bd b0 2a ff bb
       0.04395278 0.00096757367 -0.11375108 -0.007787071
000020 36 e9 11 bd 60 19 1c bd 21 44 5a bd b8 58 8f 3d
       -0.035622798 -0.038110137 -0.05328763 0.06999344
000030 f4 f9 28 3d 7b b7 86 bc e2 95 4c bd 73 6f 4d 3d
       0.041254 -0.016444912 -0.049947627 0.050155114
000040 80 e4 75 bd be 33 41 3d ba f1 6e 3d db 3b d0 bb
       -0.060032368 0.047168486 0.058335997 -0.0063547916
000050 dd 83 94 bd a1 f6 85 3d b2 c4 c8 3c 9d ed 99 3d
       -0.072517134 0.06541181 0.024507854 0.07516024
000060 db 67 9c 3d 36 11 e9 3b 48 fa 71 3d 37 d9 72 bd
       0.07636996 0.0071126474 0.059076577 -0.059289183
000070 03 64 ff bc 71 6b 1d bd b9 65 65 3b d1 bf 04 bd
       -0.031175619 -0.038432542 0.0035003258 -0.032409493
000080 49 c5 10 3e 82 5e 0a 3d 5d 57 91 3c b9 86 8f 3d
       0.14137758 0.033781536 0.017741853 0.07008118
000090 c9 99 4c 3d e9 dc bf bd 34 5c 81 bc 10 0e 19 3d
       0.04995135 -0.09368307 -0.015791036 0.037366927
0000a0 9d 09 08 3d c9 1c a8 bb 49 35 93 3c 00 f0 82 3d
       0.033212293 -0.0051303846 0.017969744 0.063934326
0000b0 79 2c 0b bd 3b f6 ec 3c 13 ea 08 bc 30 44 f0 bc
       -0.03397796 0.028926006 -0.008356589 -0.02932939
0000c0 ec e1 88 3d d3 4f aa bc 65 ee da 3b 8e c5 7e 3d
       0.06683716 -0.020790016 0.006681251 0.06220012
0000d0 bb f8 21 bd cf fe 78 bb 3e d9 fc 3c 7f 77 86 3d
       -0.03954385 -0.0037993675 0.030865308 0.06565761
0000e0 a5 17 3a 3d c3 70 2b bc c5 fb 0e bd c6 44 6c 3d
       0.045432705 -0.010463896 -0.034908075 0.057682775
0000f0 79 ef 87 3d 3b 5f ac 3c e1 ba 83 bd 6c 7c 36 3c
       0.06637473 0.021041503 -0.06432129 0.011138063
000100 51 90 74 bc 80 27 2e bd 36 94 57 bd d7 9f ed 3c
       -0.014926986 -0.04251814 -0.05263158 0.029006882
000110 47 8f 97 bb 5c 47 ab 3c 5d 62 0b 3d 4e 3e 4b 3c
       -0.0046252343 0.02090805 0.034029353 0.012404991
000120 3a 5d 38 3b db fe 70 bd 90 60 8b bd 06 ac 1f 3c
       0.002813174 -0.0588368 -0.06805527 0.009745603
000130 d2 f5 0d bd 03 47 56 bd 48 de 87 3d b3 70 0c 3d
       -0.03465826 -0.052313816 0.06634194 0.034287166
000140 8f 6b 6d 3d 4a 9d 03 bd 8c ea 99 bc 23 52 57 3d
       0.057963904 -0.032132424 -0.018788598 0.052568566
000150 f8 9b ea 3c 1c e3 d5 bb a9 ea f1 bc 30 d8 07 bd
       0.028638825 -0.0065273177 -0.02953084 -0.033165157
000160 66 c3 1c bd bf f0 e3 3c 85 b6 5c 3d c8 3f 96 bc
       -0.038272284 0.027824758 0.053885 -0.01834096
000170 7e f4 2c bd ad bf 36 3d 6a 30 5e bc 27 ff 05 bd
       -0.042225353 0.04461639 -0.0135613475 -0.032714035
000180 d0 d5 82 3c d3 91 fa 3b ff d5 1c bd 75 85 6a 3d
       0.015971094 0.007646778 -0.03829002 0.05725618
000190 cf b0 1c 3d d7 c8 7a bd 3a 50 74 3d 5a 9e 39 bd
       0.038254555 -0.061226692 0.059646823 -0.04531703
0001a0 79 67 99 bc 03 82 02 3d e9 2e 36 3d 27 e4 91 3d
       -0.018726097 0.03186227 0.04447833 0.07123595
0001b0 8e f2 91 bb 6e 88 00 3c a5 86 ac 3d c0 3e ec bc
       -0.0044539636 0.007845027 0.08424119 -0.028838515
0001c0 fe 73 ac 3d 87 06 55 bd 59 68 fe bb e8 36 53 3d
       0.08420561 -0.052008178 -0.007763904 0.051566035
0001d0 f2 a7 2a bd a2 25 34 3d 94 96 59 bc 14 3c 96 3d
       -0.04166407 0.043981202 -0.0132805295 0.07335678
0001e0 37 c7 ae 3c d8 d7 b1 3c 05 df b7 3b 81 d6 24 3d
       0.021335227 0.021709368 0.005611303 0.04024363
0001f0 e2 ba 44 bd 2c b3 8f 3b 6c 60 ae 3d 05 5d fc 3c
       -0.048029788 0.0043853726 0.08514485 0.030806074
000200 f6 da 1e 3c 35 7a 0c bd d7 50 59 3d 59 52 87 bc
       0.009695759 -0.034296233 0.05305561 -0.016518759
000210 f3 e3 44 bd 96 ed d6 3b de 3e bc 3d 3c 10 10 3d
       -0.04806895 0.006559084 0.091916785 0.035171732
000220 18 e9 68 3d ec 11 88 3c 10 2f 97 bd 55 6f b9 bd
       0.05686292 0.016610108 -0.07382023 -0.09054438
000230 49 19 20 3c bb bd b6 3c 19 b3 2a 3d cf aa 2e bc
       0.009771653 0.022307267 0.041674707 -0.010660841
000240 60 cd 06 bd f3 c0 54 bd 76 bf 11 bd 64 4a fd 3b
       -0.032910705 -0.051941823 -0.035582982 0.0077298153
000250 c5 eb df 3c 98 46 2b bc 96 96 c8 3c 2b b6 ad 3d
       0.027334103 -0.010453843 0.024485867 0.084820114
000260 b0 ac 97 3a 04 e5 bc 3c b7 81 b3 3b be 7d 39 3d
       0.0011571851 0.023058422 0.0054781097 0.045285933
000270 8a 74 bb bb 96 51 7b 3d b6 1c 4d bd af bc 5c 3c
       -0.0057206796 0.061357103 -0.05007621 0.01347272
000280 39 fb 19 3c 58 f6 ac 3d 19 72 03 3d af a8 b8 3c
       0.009398275 0.08445424 0.032091234 0.022541372
000290 19 47 1f 3d 27 58 57 3d fc 76 ee bb aa b7 f2 3d
       0.038886163 0.052574303 -0.0072773676 0.118514374
0002a0 a0 b4 bb bd 5f ad 26 3d b6 61 9c 3d da c8 10 be
       -0.09165311 0.040692683 0.076358244 -0.14139119
0002b0 ff 1b 0e 3d f0 19 65 3d f7 98 13 bd 90 00 c9 3c
       0.034694668 0.05593294 -0.03603455 0.024536401
0002c0 24 2c 0c bd b8 6e 3d bc 6e db 98 bc 53 5d 6b bd
       -0.034221783 -0.011562042 -0.01865932 -0.057462048
0002d0 d6 f8 a6 3c 09 7c 6f 3d 4f d6 77 3b 0c ad 61 bd
       0.020382326 0.0584679 0.0037816947 -0.05509667
0002e0 83 bc 0b bd 51 4c 4a bd 64 e4 12 bd fd 3d 76 3d
       -0.034115326 -0.049389187 -0.03586234 0.06011771
0002f0 ea 27 96 bd d3 6f b2 3c c5 c3 86 3e 8c fb df 3c
       -0.07331832 0.021781838 0.26321235 0.027341627
000300 35 8f 2f bd 70 1f 38 3d 1d b5 0b bd 03 45 02 3c
       -0.042861182 0.044951856 -0.03410827 0.007951024
000310 0a 6c 20 3d 2b 29 4e bd 0e e6 92 bd 00 33 78 bb
       0.039165534 -0.05033223 -0.07172786 -0.0037872195
000320 8d fd 06 3d 94 c8 35 bc b8 31 cd bc 8b 93 37 3d
       0.03295665 -0.011095185 -0.025048122 0.044818442
000330 3c 56 43 bd c7 be de bb 7e 41 e6 3b e0 ad 0b 3d
       -0.04768966 -0.006797645 0.0070268502 0.034101367
000340 36 15 71 bd eb 84 4f bc 22 e5 6a 3c 03 29 68 bd
       -0.05885812 -0.012665967 0.014336856 -0.056679737
000350 6b a1 29 3d ba bb 11 bd 09 c1 0f 3d eb 52 57 bd
       0.041413706 -0.03557942 0.035096202 -0.05256931
000360 f7 54 8b bd 69 0e 44 3d d5 35 4e 3d be 23 28 bd
       -0.06803315 0.047865305 0.050344307 -0.04104971
000370 98 18 0c bb e0 a2 14 3e 8f dc b3 bc 4b 27 12 bd
       -0.0021376964 0.14515257 -0.021955756 -0.035682004
000380 1b ee ab ba bb 58 fb bc 38 47 78 3d 85 8a db bc
       -0.0013117226 -0.030681958 0.060614794 -0.02679945
000390 ae 8c 98 bd a5 19 03 3d 4a 44 86 bd 5f c0 42 bd
       -0.074487075 0.03200688 -0.06555994 -0.04754674
0003a0 dc af e4 3d ba ee 97 bd 0e 4e f8 bc ee 0a 76 3c
       0.11166355 -0.0741858 -0.030310657 0.015017254
0003b0 3a 1c 31 bd 07 97 da bd b5 e7 04 bd 81 52 35 3d
       -0.04323981 -0.106733374 -0.032447536 0.044268135
0003c0 a1 aa 0e bd b9 97 78 bc d0 9d 84 3b 6d fb bc 3c
       -0.034830693 -0.015172892 0.004047133 0.023069108
0003d0 89 35 0c bb 6d d2 3b 3c 26 ec 8a 3d 32 58 58 bd
       -0.0021394214 0.011463744 0.06783323 -0.052818485
0003e0 4c 03 0a bb 36 08 1e 3b 8e f3 a7 3d fd a9 78 bc
       -0.0021059094 0.002411378 0.08200751 -0.015177247
0003f0 e3 d6 60 3d 91 17 f7 bc 1a fc c4 3d 4a 61 5a bd
       0.054892432 -0.030162605 0.09618397 -0.05331544

weight f4 [64]
000000 80 74 0d 3f 42 97 03 3f 08 8f 08 3f 18 c7 0a 3f
       0.5525589 0.51402676 0.5334325 0.5421004
000010 f6 18 24 3f da d3 0b 3f 23 82 8f 3f 10 23 2d 3f
       0.6410059 0.54620135 1.121159 0.67631626
000020 9d 56 00 3f 60 f4 1d 3f f1 26 05 3f 3a cd 22 3f
       0.5013216 0.6170101 0.52012545 0.635944
000030 a9 ae 01 3f 8b f2 3d 3f 73 ae 78 3f c2 4e fa 3e
       0.50657135 0.74198216 0.9714119 0.48888212
000040 80 2d 0d 3f 50 f9 65 3f 16 f8 9d 3f 4c 57 ff 3e
       0.5514755 0.89833546 1.2341335 0.4987129
000050 3e 7c 58 3f 9c 6f 3d 3f c3 6f 05 3f b2 75 00 3f
       0.8456458 0.7399843 0.5212366 0.5017959
000060 50 31 18 3f 9d 50 56 3f 2f 6e ed 3e 2d 43 0b 3f
       0.59450245 0.83716756 0.46373126 0.5439938
000070 64 0e 02 3f a1 fe 0d 3f b2 e5 1e 3f 31 f1 1f 3f
       0.5080321 0.5546666 0.6206924 0.62477404
000080 e4 db c6 3e c7 db 1c 3f 45 47 f6 3e 80 68 10 3f
       0.38839638 0.61272854 0.4810125 0.56409454
000090 90 29 fb 3e f9 72 01 3f 42 e1 59 3f 30 6d 36 3f
       0.49055147 0.5056606 0.8510934 0.71260357
0000a0 0c ac 0e 3f 1e 1d 39 3f a8 84 44 3f e2 19 05 3f
       0.5573127 0.72310054 0.7676492 0.5199262
0000b0 2a 3a 53 3f af 4a 0a 3f 4e b8 69 3f d2 43 00 3f
       0.82510626 0.5402021 0.9129685 0.50103486
0000c0 bd 72 1e 3f 02 9d fe 3e 21 8e 1f 3f d1 3a 0f 3f
       0.61893827 0.49729162 0.62326247 0.5594912
0000d0 b7 df 42 3f 83 ef 0d 3f 11 d2 45 3f 82 21 f9 3e
       0.7612261 0.5544359 0.7727366 0.48658377
0000e0 99 f2 1c 3f d8 9b f9 3e cd de 06 3f 6f 5e 12 3f
       0.61307675 0.48751712 0.52683717 0.57175344
0000f0 98 59 1c 3f ca ba 10 3f 16 9d 1e 3f e2 30 02 3f
       0.6107421 0.5653502 0.61958444 0.5085584

bias f4 [64]
000000 61 f0 10 3d 67 45 e6 ba 63 14 28 bd 6e dc f2 3c
       0.035385493 -0.0017568291 -0.041035067 0.029646125
000010 cd 86 1d 3d 57 04 fe 3b 11 7f 5b be b1 aa 97 be
       0.038458634 0.007751982 -0.2143519 -0.29622415
000020 bc a3 ea bc 3b c0 f6 3c 17 ee 04 bd 4e 0d 93 bc
       -0.028642528 0.03012096 -0.032453623 -0.01795068
000030 7f 60 92 bc f5 9b ab be e0 a5 c3 be fd 2e 18 bc
       -0.017868279 -0.33517423 -0.3821249 -0.009288547
000040 04 a9 5b be 5f 1e da bd 5c 69 f1 be dd 7c 37 bd
       -0.21451193 -0.10650324 -0.47150695 -0.044796813
000050 f8 1e d4 3d e6 dc a5 bd 19 7e 8d bc 29 f3 2d bd
       0.10357469 -0.08098774 -0.017272042 -0.042468224
000060 b0 a7 9e bb 74 bf c6 bd 01 33 23 3b 11 62 bd bc
       -0.0048417673 -0.097044855 0.0024902227 -0.02311805
000070 1b b8 c3 3c e2 c0 dd bb 7c f5 83 3d c7 81 98 3d
       0.0238915 -0.006767378 0.06443307 0.07446628
000080 42 07 c1 bd d0 16 67 be 3a ed f2 bb b9 36 a4 3c
       -0.094252124 -0.22567296 -0.0074135335 0.020045625
000090 47 4d 2b be cb 16 f1 3b 45 11 aa be 61 b2 13 be
       -0.16728698 0.0073574535 -0.332163 -0.14423515
0000a0 25 18 6d 3d ae ca ee bd e5 57 5d be 91 be 18 3c
       0.057884354 -0.11659752 -0.2161556 0.009322778
0000b0 fb 64 7b be a7 75 a1 bc 9c c8 2d bd 05 f9 67 bc
       -0.2455024 -0.019709421 -0.042427644 -0.014158492
0000c0 e5 70 3e bc c6 d1 d1 bc 88 5b 77 bd 37 2e 8e 3c
       -0.011623596 -0.025612723 -0.060390025 0.017356021
0000d0 51 b3 b6 bc 1c 62 4d be 46 b2 4f be e2 d1 68 be
       -0.022302302 -0.20056957 -0.2028285 -0.22736314
0000e0 0a 34 cd bd c7 77 ef bd b8 b5 fc bc 3d 11 2f bd
       -0.10019691 -0.116927676 -0.030848369 -0.04274105
0000f0 0a d3 48 3d a7 2b dc bb a6 20 6c ba 19 62 a6 bc
       0.049029388 -0.006719071 -0.00090075505 -0.020310448

running_mean f4 [64]
000000 99 fe fa ba dd 55 5c 3d 0d fb 9b 3d fb 9c 2e bc
       -0.0019149362 0.053792823 0.076162435 -0.010657544
000010 e5 4d db bc 0e 29 cb bd 84 9b 2b 3d 67 91 8c bd
       -0.026770541 -0.0991994 0.041896358 -0.06863671
000020 2a e6 53 3c c9 cd 03 be ca e0 48 bd d3 e8 8f bd
       0.012933293 -0.1287147 -0.0490425 -0.070268296
000030 39 b3 6c bc 78 43 60 be 73 2a f1 bd eb 1f 9e bd
       -0.014447027 -0.21900737 -0.11775675 -0.077209316
000040 5a 40 97 3d 54 73 39 bd d6 bf 81 3c a2 b0 16 3d
       0.07385321 -0.045276 0.015838545 0.036789544
000050 77 54 2b bd e5 6a 96 bc f9 a6 1f bd 17 18 50 3d
       -0.0418286 -0.018361518 -0.038977597 0.050804224
000060 ec c8 bc 3c 03 5f cb 3c a0 25 6a 3d 49 fa 95 bc
       0.023045026 0.024825579 0.05716479 -0.018307822
000070 87 2b 16 bd 61 ff 21 bc eb d4 b8 bc 46 72 0d bd
       -0.036662605 -0.009887547 -0.022562465 -0.034532808
000080 a6 5e 69 be 49 75 6e bc 12 bb 2f 3d ab c5 9d bd
       -0.22790012 -0.01455433 0.042903014 -0.07703718
000090 1a 50 5f 3d 28 fc 41 3d 15 a9 5e bd ae 7b bc 3d
       0.05451975 0.047359616 -0.054360468 0.092032775
0000a0 3d 5c db 3c bf f5 2f 3c 19 99 c7 bc bd 50 52 3c
       0.026777381 0.010739743 -0.024364995 0.012836632
0000b0 fe 0e 06 bb 12 49 c9 bd 60 02 5d be b0 49 e7 3c
       -0.0020455713 -0.0982839 -0.21582937 0.02823338
0000c0 2d 73 b3 bd 77 dd b6 3c 2a e3 fd bc 19 4f 9b 3d
       -0.087622024 0.0223224 -0.03099211 0.07583446
0000d0 b9 55 aa bd 04 db af 3d 54 47 30 bd c5 99 49 3c
       -0.083171315 0.08586696 -0.043036774 0.012304728
0000e0 7e e1 33 be 32 b8 8a bd 8b a2 24 bd 53 b0 36 bd
       -0.17566487 -0.06773414 -0.040194076 -0.04460175
0000f0 f1 08 02 be 00 f8 5b bd 17 b5 de bc 7b ba 2e bd
       -0.12698723 -0.053703308 -0.02718596 -0.04265831

running_var f4 [64]
000000 56 aa 41 3b d2 8c 8f 3b 26 2a 6d 3c 0e ee 8b 3b
       0.002955099 0.0043808008 0.014475381 0.0042703217
000010 fe 12 e0 3c f8 6a 2f 3c d3 fe a6 3c db 83 29 3c
       0.027352806 0.010706656 0.020385182 0.010346378
000020 5d 0c db 3a 86 5a 82 3c 75 9b 2b 3b a9 e9 bc 3c
       0.0016712059 0.015912306 0.002618519 0.023060637
000030 d2 75 bd 3a 6e aa 80 3d 9d 61 3c 3d 1a 7c f1 3b
       0.0014454669 0.06282507 0.04599153 0.0073695304
000040 2d ec 4d 3c 39 8d 3b 3d 3b 52 04 3d 2f f7 29 3b
       0.012568516 0.045788977 0.032304984 0.0025934686
000050 0f 41 95 3d a6 f6 ba 3d 33 10 8e 3b 3e e1 a4 3b
       0.072877996 0.09129076 0.004335427 0.005031734
000060 1b 72 ce 3b f3 1d 91 3d 4d 49 b6 3b e1 fe f9 3b
       0.0063002235 0.070857905 0.0055629374 0.007629261
000070 30 17 70 3b 0b e0 5c 3b 74 a3 dc 3b a8 a1 18 3d
       0.0036634915 0.0033702876 0.0067333523 0.037263542
000080 34 dd 65 3d d2 a4 10 3c a0 db ac 3b fc 3f 58 3b
       0.05611916 0.008828359 0.005275205 0.0032997122
000090 2c 13 5a 3c ea 38 0e 3b 36 3b 7c 3c f2 fd c7 3c
       0.013310235 0.0021701404 0.015394976 0.024413083
0000a0 53 ac 05 3c 3f 8a c2 3c 27 e1 0f 3d bd a7 db 3b
       0.008158761 0.023747561 0.03512683 0.0067033456
0000b0 f9 ba 72 3c 76 ed 9c 3b c2 2d 60 3d 08 27 04 3b
       0.014815086 0.0047890497 0.054731138 0.0020164866
0000c0 91 55 8c 3c e8 97 e0 3a 47 a3 87 3c 17 ae 82 3c
       0.017130645 0.0017135115 0.016557349 0.015952153
0000d0 93 b4 78 3c 0a 5b 56 3c b0 2f dd 3c 60 cb ff 3b
       0.015179771 0.013083229 0.027000278 0.0078062266
0000e0 61 38 ff 3c 69 d5 34 3c 5c 49 25 3c 85 ea 7d 3b
       0.031154813 0.011037209 0.010088291 0.003874452
0000f0 96 09 f8 3c b8 a3 ea 3c 23 14 bd 3b 1e 7f d3 3b
       0.030278008 0.02864252 0.0057702227 0.0064543625
