ldpi/training/output/ResCNN/traced_model.pth (torch, 775804 bytes, 63 tensors)

weight f4 [1, 1, 7]
2.309243 0.26729244 -0.14587405 -0.048414584 0.03870163 0.067370765 0.047784563
00000000: a3ca 1340 8eda 883e 0260 15be 5f4e 46bd
00000010: 9a85 1e3d aff9 893d bfb9 433d

weight f4 [64, 1, 1]
-0.024150405 0.040500585 -0.024551466 0.008172829 0.021496324 0.02315019 0.033376373 -0.0108707175
0.01837219 0.025696369 0.012124302 -0.02617743 -0.009135606 0.009843865 -0.022780115 0.010677225
0.023921417 -0.011202332 -0.021562517 0.018862177 -0.01922257 -0.01973601 -0.00050281914 -0.025607694
-0.0071215588 -0.013496722 0.053029366 -0.025104506 -0.017348256 0.04291852 -0.057096966 0.0008158499
0.021136284 -0.019124279 0.012786464 0.014461502 0.014064402 -0.030249339 -0.0067498945 0.02358084
-0.024405587 -0.022300482 -0.012208165 0.017328404 -0.016261281 0.0039561978 -0.06758675 0.013071734
-0.0014532106 -0.008489791 -0.05436888 0.05993814 -0.009276729 0.01668593 -0.02565702 -0.021374734
0.00018371046 0.009181103 0.020822236 0.01666211 0.024566496 -0.016152028 0.006642587 0.02077335
00000000: 12d7 c5bc f1e3 253d 2820 c9bc 54e7 053c
00000010: 0f19 b03c 78a5 bd3c aab5 083d 181b 32bc
00000020: 4681 963c 3181 d23c 02a5 463c 0d72 d6bc
00000030: 82ad 15bc 2a48 213c 5d9d babc 87ef 2e3c
00000040: d9f6 c33c fc89 37bc e0a3 b0bc da84 9a3c
00000050: a778 9dbc 6aad a1bc 9fcf 03ba 3ac7 d1bc
00000060: f75b e9bb 5b21 5dbc 5235 593d f7a7 cdbc
00000070: ee1d 8ebc 54cb 2f3d 82de 69bd c3de 553a
00000080: 0026 ad3c 85aa 9cbc 517e 513c f0ef 6c3c
00000090: 616e 663c 76cd f7bc 382e ddbb 9b2c c13c
000000a0: 3aee c7bc 80af b6bc c104 48bc 4cf4 8d3c
000000b0: 6136 85bc fea2 813b ec6a 8abd d42a 563c
000000c0: a879 beba c418 0bbc e7b1 5ebd b281 753d
000000d0: 6cfd 17bc eeb0 883c ac2e d2bc 111a afbc
000000e0: 67a2 4039 566c 163c 6593 aa3c fa7e 883c
000000f0: ad3f c93c 4251 84bc 0faa d93b df2c aa3c

weight f4 [64]
0.04478987 0.3169833 0.024971616 0.037812147 0.04413292 0.060749497 0.28910935 0.09784641
0.03837211 0.020809649 0.030209929 0.03880445 0.05872627 0.05846641 0.06349318 0.04825824
0.057002217 0.10171211 0.050570764 0.026143596 0.19279069 0.17670609 0.7494956 0.043191966
0.2218033 0.090187475 0.70001405 0.060840566 0.05873731 0.35248986 0.8051275 0.10723931
0.12263172 0.104541264 0.03087283 0.05112056 0.041793514 0.35751006 0.04779594 0.1584728
0.0662463 0.33457044 0.04341633 0.04539315 0.08512884 0.04620807 1.6718986 0.08548308
0.024592007 0.032091044 0.67158395 0.52008575 0.0666252 0.15580946 0.21121335 0.21522802
0.078235514 0.03089639 0.03142407 0.042941645 0.2987616 0.024896728 0.039385334 0.038291004
00000000: 9575 373d a34b a23e 4691 cc3c e9e0 1a3d
00000010: b9c4 343d 77d4 783d 2406 943e b363 c83d
00000020: 132c 1d3d ff78 aa3c d07a f73c 6af1 1e3d
00000030: f58a 703d 797a 6f3d b608 823d 6faa 453d
00000040: 287b 693d 704e d03d 4a23 4f3d 182b d63c
00000050: ec6a 453e 71f2 343e f2de 3f3f 0fea 303d
00000060: 6720 633e 36b4 b83d 1f34 333f f533 793d
00000070: 8996 703d 8d79 b43e d61c 4e3f 49a0 db3d
00000080: 5726 fb3d bb19 d63d 04e9 fc3c cb63 513d
00000090: ad2f 2b3d 8f0b b73e adc5 433d b246 223e
000000a0: 24ac 873d d14c ab3e 52d5 313d 2bee 393d
000000b0: 0758 ae3d ac44 3d3d c600 d63f c111 af3d
000000c0: 2d75 c93c e671 033d edec 2b3f 5724 053f
000000d0: cb72 883d 848c 1f3e 5048 583e bc64 5c3e
000000e0: f139 a03d 6d1a fd3c 87b6 003d 94e3 2f3d
000000f0: 48f7 983e 39f4 cb3c 8452 213d 07d7 1c3d

bias f4 [64]
-0.11370999 0.5052101 -0.031507064 0.035629723 0.03392729 -0.013598689 0.3197758 -0.005068256
-0.07676552 -0.027049992 0.015906615 -0.060579855 0.12178534 -0.023069238 0.088460974 0.071604304
-0.029258106 0.018336726 -0.08261736 -0.02361477 -0.04776614 0.024570748 -0.9411749 0.008198597
-0.22332849 0.019631948 -0.5811604 -0.05143334 -0.031051563 0.4864986 -0.24575567 -0.07936072
-0.07117633 -0.0026701079 -0.00881647 -0.030223738 -0.0579285 0.09570542 -0.056858536 -0.074024774
-0.030356359 -0.083676174 -0.04259285 -0.19506851 0.07470786 -0.073762655 -0.3487634 -0.049819216
-0.015567791 -0.03332804 -0.27342176 0.5526522 -0.108524784 0.05080571 0.09693713 0.1161281
-0.013471551 0.38490373 -0.01925644 -0.047312483 -0.029644046 -0.0707368 -0.037840243 -0.03909908
00000000: c9e0 e8bd 7355 013f 8d0d 01bd 79f0 113d
00000010: 58f7 0a3d 09cd 5ebc a7b9 a33e 9d13 a6bb
00000020: 3e37 9dbd f297 ddbc 974e 823c 9522 78bd
00000030: 986a f93d b3fb bcbc 072b b53d 47a5 923d
00000040: b2ae efbc e736 963c 4a33 a9bd c373 c1bc
00000050: 6ea6 43bd 9848 c93c d7f0 70bf 6853 063c
00000060: 39b0 64be 2ed3 a03c eec6 14bf c4ab 52bd
00000070: d95f febc 5816 f93e 60a7 7bbe e087 a2bd
00000080: e5c4 91bd fafc 2ebb f572 10bc c697 f7bc
00000090: 6f46 6dbd 3401 c43d 7fe4 68bd 4d9a 97bd
000000a0: e6ad f8bc 6a5e abbd d775 2ebd 0ac0 47be
000000b0: 6f00 993d e010 97bd 1e91 b2be 3c0f 4cbd
000000c0: 0c10 7fbc fc82 08bd f0fd 8bbe 9d7a 0d3f
000000d0: 3e42 debd a619 503d f986 c63d 92d4 ed3d
000000e0: c8b7 5cbc 1a12 c53e afbf 9dbc bcca 41bd
000000f0: 12d8 f2bc 75de 90bd 5ffe 1abd 5b26 20bd

running_mean f4 [64]
-0.016730908 0.02805798 -0.017008757 0.0056619695 0.014892215 0.016037982 0.02312247 -0.0075310115
0.012727878 0.017801922 0.00839947 -0.018135192 -0.0063289623 0.00681963 -0.0157816 0.0073969634
0.01657227 -0.0077607473 -0.014938072 0.013067332 -0.013317005 -0.013672706 -0.00034834282 -0.01774049
-0.004933671 -0.009350254 0.03673766 -0.01739189 -0.012018517 0.029733075 -0.039555613 0.00056520425
0.014642787 -0.01324891 0.008858201 0.010018634 0.009743531 -0.020956125 -0.0046761893 0.016336326
-0.016907694 -0.015449319 -0.008457568 0.012004766 -0.011265485 0.0027407731 -0.04682272 0.0090558315
-0.0010067548 -0.0058815544 -0.03766565 0.041523926 -0.0064267293 0.011559671 -0.01777466 -0.01480798
0.00012727086 0.0063604815 0.01442522 0.011543171 0.017019168 -0.011189796 0.004601849 0.014391353
00000000: 420f 89bc d9d9 e53c f355 8bbc 0b88 b93b
00000010: 7afe 733c 1662 833c 566b bd3c b4c6 f6bb
00000020: 9788 503c 56d5 913c ee9d 093c 4190 94bc
00000030: 2f63 cfbb 3477 df3b 6a48 81bc 3a62 f23b
00000040: 92c2 873c de4d febb d1be 74bc 5d18 563c
00000050: 912f 5abc 7c03 60bc c8a1 b6b9 8154 91bc
00000060: a2aa a1bb cf31 19bc 3b7a 163d 7079 8ebc
00000070: 50e9 44bc c792 f33c 1105 22bd 372a 143a
00000080: 4de8 6f3c f511 59bc fd21 113c 3225 243c
00000090: 55a3 1f3c 2eac abbc b83a 99bb c2d3 853c
000000a0: 0182 8abc 241f 7dbc 9c91 0abc a3af 443c
000000b0: de92 38bc 8b9e 333b 2ec9 3fbd e95e 143c
000000c0: 16f5 83ba 0eba c0bb 4c47 1abd fe14 2a3d
000000d0: 5097 d2bb c664 3d3c 2a9c 91bc 2b9d 72bc
000000e0: 0374 0539 966b d03b c257 6c3c 911f 3d3c
000000f0: c86b 8b3c 6855 37bc 1bcb 963b b6c9 6b3c

running_var f4 [64]
0.00030471702 0.00085697946 0.00031492178 3.489737e-05 0.00024142167 0.00027999934 0.0005820042 6.1739665e-05
0.00017634765 0.00034497798 7.680002e-05 0.00035801553 4.3603624e-05 5.062665e-05 0.00027111883 5.9561367e-05
0.0002989659 6.5563894e-05 0.00024291078 0.0001858795 0.00019305045 0.00020350101 1.3209048e-07 0.00034260112
2.649708e-05 9.5170966e-05 0.0014691992 0.0003292693 0.00015723874 0.0009623594 0.0017032325 3.4775104e-07
0.0002334023 0.00019108123 8.541788e-05 0.00010926339 0.00010334522 0.00047805693 2.3803554e-05 0.00029051353
0.00031119055 0.00025982223 7.786614e-05 0.00015687906 0.00013815206 8.177185e-06 0.0023865525 8.92718e-05
1.1033288e-06 3.765667e-05 0.0015443603 0.0018769572 4.4961173e-05 0.0001454617 0.00034392223 0.0002386983
1.7632575e-08 4.4039014e-05 0.00022651794 0.00014504671 0.0003153075 0.00013630193 2.3052731e-05 0.00022545554
00000000: 6dc2 9f39 eba6 603a 161c a539 c45e 1238
00000010: 2326 7d39 e0cc 9239 a491 183a 3b7a 8138
00000020: f6e9 3839 29de b439 b20f a138 08b4 bb39
00000030: 09e3 3638 f457 5438 f424 8e39 88d1 7938
00000040: 86be 9c39 597f 8938 deb5 7e39 a6e8 4239
00000050: 966d 4a39 e362 5539 c1d4 0d34 259f b339
00000060: 0c46 de37 8696 c738 2592 c03a c7a1 ac39
00000070: 74e0 2439 d946 7c3a 003f df3a 8ab2 ba34
00000080: 74bd 7439 fa5c 4839 6022 b338 5624 e538
00000090: 0bbb d838 b7a3 fa39 bead c737 1150 9839
000000a0: 4a27 a339 c038 8839 114c a338 e77f 2439
000000b0: e9dc 1039 be30 0937 b567 1c3b 6f37 bb38
000000c0: 1716 9435 8bf1 1d38 226c ca3a 3c04 f63a
000000d0: b194 3c38 1487 1839 7650 b439 164b 7a39
000000e0: 7176 9732 88b6 3838 7285 6d39 ae17 1839
000000f0: db4f a539 45ec 0e39 5d61 c137 4368 6c39

weight f4 [64, 1, 5]
-0.014783072 -0.02467233 -0.021921862 -0.0122813145 0.003302732 -0.30498168 0.40617418 0.41866904
-0.16341598 -0.2794202 -0.010360177 -0.0079276655 0.021672035 0.0019383408 0.0043849875 -0.011369429
-0.02895783 0.014502707 -0.00262185 0.010623256 0.00020048073 -0.0014565443 0.02501606 -0.019147383
-0.03289533 -0.005805673 -0.028187353 -0.02995818 -0.028899532 -0.024894241 0.19461395 -0.11403922
-0.18789358 0.22371742 0.22626272 0.0216922 0.032488495 0.057350416 0.026297878 0.021316666
-0.0054395166 -0.00033563565 -0.01589713 0.0021773444 0.003699987 0.00432572 0.0033146355 0.0013282094
-0.008843863 -0.0075877807 -0.015943727 0.0124948425 0.009333732 0.008260177 -0.0024645554 0.018134195
0.022350183 -0.023054585 0.0019267693 -0.0067517087 -0.10968463 -0.00046902464 0.015648939 0.0008716337
-0.07013156 -0.009546029 0.0016517317 -0.018907422 -0.0028539246 -0.012276687 -0.09704301 -0.020285323
0.018222148 0.044985067 -0.016143065 0.021309966 0.010090132 -0.017915018 -0.000101428115 0.0038966062
-0.012864925 -0.00024884788 -0.05480767 0.057945736 0.049007215 0.0005889431 -0.03408837 -0.05358031
-0.04831712 -0.02368161 -0.013669774 0.0039417795 0.0070513985 -0.002044121 -0.018999832 0.00032626782
-0.02244698 -0.0017141873 -0.0025859326 -0.022052545 0.08694748 0.2759347 -0.1784166 -0.026533594
0.009800319 -0.023771524 -0.03571541 -0.024359124 -0.10396085 -0.06729702 0.022595856 0.07647023
0.6743143 0.2005972 0.12204201 0.03417727 0.01715679 -0.015201984 0.013869851 0.002592275
-0.038632758 -0.049942408 0.017078666 -0.04889699 -0.040340602 0.0124724405 -0.032757733 -0.02975981
-0.016088983 -0.0025100417 0.004838508 0.09890077 -0.47510278 -0.099133894 -0.09837097 0.08507811
0.06421272 -0.1353484 -0.050759573 0.02120202 -0.022205956 -0.02832346 -0.0053744633 -0.016678672
-0.0075390055 0.11030067 -0.18578309 0.48564574 -0.5862776 -0.48900315 -0.051870856 -0.39921662
-0.18305567 -0.4031732 -0.42219946 0.0012733442 0.016122201 0.009499138 0.035282653 0.048054833
0.019575628 -0.08188045 0.13990009 -0.07806879 -0.08061283 0.052085422 0.04336516 0.036298495
0.03478385 0.013970244 -0.01609176 -0.0016549968 -0.011175168 0.0023159885 -0.0075228303 0.038343307
0.056040123 -0.021684973 -0.015840804 -0.03618206 0.062394455 0.09526629 -0.119867325 -0.040950015
-0.019689083 0.05031264 -0.28370872 -0.101622835 -0.1370127 -0.06036386 0.013757497 0.009430454
0.0038202766 0.0054372763 0.012824996 -0.060946252 -0.050107207 -0.077696525 0.09871463 0.2233651
0.028463833 -0.0054735094 0.03471602 0.011002257 -0.012828627 0.117872626 0.045182176 0.04412212
0.08890366 0.053786017 0.041142035 0.017256148 0.008664371 -0.010140794 -0.013831846 0.054591402
0.032223627 0.016558044 0.020894283 0.03998517 0.10536714 0.0678528 -0.028241927 -0.045364857
-0.05690968 0.0040213894 -0.0033183543 -0.0006703472 -0.0075275525 -0.010775398 0.46970984 -0.7523612
-0.8379369 0.90793335 0.3970956 0.093417555 0.0764112 -0.07246455 -0.023615146 -0.039463047
-0.00968824 -0.029209495 0.0066886107 0.0008844725 0.0104762 -0.00086244673 -0.020732507 -0.014273454
-0.0042069727 0.0056261453 0.19051257 -0.0397656 -0.13836728 -0.4995391 -0.5221016 0.71609324
00000000: b334 72bc a01d cabc 7a95 b3bc 9137 49bc
00000010: a672 583b 8f26 9cbe 10f6 cf3e ca5b d63e
00000020: 8556 27be 2a10 8fbe bbbd 29bc 0ae3 01bc
00000030: 8d89 b13c ed0f fe3a f1af 8f3b d746 3abc
00000040: f938 edbc c39c 6d3c 58d3 2bbb 2a0d 2e3c
00000050: 2338 5239 84e9 beba 7bee cc3c f9da 9cbc
00000060: 41bd 06bd 843d bebb 2ae9 e6bc db6a f5bc
00000070: b6be ecbc 02ef cbbc e148 473e 658d e9bd
00000080: 2d67 40be 2e16 653e 6ab1 673e d7b3 b13c
00000090: a812 053d 45e8 6a3d a66e d73c 4aa0 ae3c
000000a0: f93d b2bb 41f8 afb9 b33a 82bc c7b1 0e3b
000000b0: 7b7b 723b c5be 8d3b 5b3a 593b 5017 ae3a
000000c0: dae5 10bc eba2 f8bb 6b9c 82bc 2bb7 4c3c
000000d0: 82ec 183c b255 073c 6184 21bb 2a8e 943c
000000e0: bb17 b73c f8dc bcbc a68b fc3a 703d ddbb
000000f0: 56a2 e0bd 6ce7 f5b9 3432 803c 597e 643a
00000100: 23a1 8fbd f366 1cbc eb7e d83a bde3 9abc
00000110: e908 3bbb 2824 49bc 7cbe c6bd 682d a6bc
00000120: 9d46 953c 4342 383d 763e 84bc 3d92 ae3c
00000130: 1551 253c 84c2 92bc ceb5 d4b8 345e 7f3b
00000140: 68c7 52bc cc77 82b9 027e 60bd 8258 6d3d
00000150: cabb 483d 4d63 1a3a 3fa0 0bbd 0777 5bbd
00000160: 2ce8 45bd f0ff c1bc 30f7 5fbc 0b2a 813b
00000170: 6b0f e73b a9f6 05bb 89a5 9bbc ed0e ab39
00000180: bbe2 b7bc 95ae e0ba c078 29bb 8aa7 b4bc
00000190: 8511 b23d 5047 8d3e d7b2 36be fb5c d9bc
000001a0: 8491 203c 80bc c2bc 524a 12bd c98c c7bc
000001b0: 6de9 d4bd 05d3 89bd f21a b93c 6d9c 9c3d
000001c0: dd9f 2c3f 5a69 4d3e 29f1 f93d 77fd 0b3d
000001d0: 658c 8c3c be11 79bc 5f3e 633c 28e3 293b
000001e0: 623d 1ebd 6990 4cbd 8fe8 8b3c 3648 48bd
000001f0: 303c 25bd 3559 4c3c f92c 06bd d8ca f3bc
00000200: 0bcd 83bc 837f 24bb 598c 9e3b 7d8c ca3d
00000210: ac40 f3be b606 cbbd b876 c9bd 6f3d ae3d
00000220: f581 833d c598 0abe 45e9 4fbd dcaf ad3c
00000230: 44e9 b5bc 9a06 e8bc 441c b0bb b6a1 88bc
00000240: c309 f7bb 51e5 e13d ec3d 3ebe 8fa6 f83e
00000250: 4a16 16bf 9f5e fabe 8976 54bd 1f66 ccbe
00000260: f272 3bbe b86c cebe 872a d8be 57e6 a63a
00000270: b512 843c 46a2 1b3c 8b84 103d 25d5 443d
00000280: 115d a03c f0b0 a7bd f841 0f3e 88e2 9fbd
00000290: 5718 a5bd 8657 553d aa9f 313d bbad 143d
000002a0: 8379 0e3d 73e3 643c ded2 83bc 7aec d8ba
000002b0: 0d18 37bc d7c7 173b 1382 f6bb df0d 1d3d
000002c0: 548a 653d afa4 b1bc 93c4 81bc a433 14bd
000002d0: 5491 7f3d f91a c33d 007d f5bd 34bb 27bd
000002e0: 004b a1bc a014 4e3d 4542 91be a21f d0bd
000002f0: 0f4d 0cbe 1840 77bd 2067 613c 3182 1a3c
00000300: 9b5d 7a3b 2e2b b23b ef1f 523c c7a2 79bd
00000310: 373d 4dbd 5b1f 9fbd e52a ca3d d2b9 643e
00000320: fc2c e93c 205b b3bb 6332 0e3d cf42 343c
00000330: 292f 52bc 3467 f13d f210 393d 65b9 343d
00000340: 1f13 b63d ba4e 5c3d 8d84 283d c45c 8d3c
00000350: 02f5 0d3c 9325 26bc f89e 62bc 3c9b 5f3d
00000360: ecfc 033d bca4 873c 7d2a ab3c 7dc7 233d
00000370: baca d73d 69f6 8a3d 9d5b e7bc 80d0 39bd
00000380: 201a 69bd dcc5 833b bf78 59bb 3dba 2fba
00000390: b0a9 f6bb 4c8b 30bc cf7d f03e be9a 40bf
000003a0: 0883 56bf 526e 683f 1d50 cb3e b451 bf3d
000003b0: 7a7d 9c3d 4b68 94bd 8d74 c1bc 01a4 21bd
000003c0: 6cbb 1ebc c048 efbc 222c db3b f2db 673a
000003d0: 5ea4 2b3c d215 62ba 38d7 a9bc 35db 69bc
000003e0: a5da 89bb 875b b83b ba15 433e 41e1 22bd
000003f0: 27b0 0dbe 97c3 ffbe 73a8 05bf e351 373f

weight f4 [64, 64, 1]
0.00019847191 0.004258193 -0.0006019889 0.002311368 -0.000526184 -0.002450093 -0.012025366 -0.0023073824
-0.0025833694 0.0018122143 -0.00230289 0.0007240937 0.0037643826 0.00018064893 0.007844955 -0.0020630916
-0.0055138967 -0.0023036303 -0.002371315 -0.0012520925 -0.01826041 -0.0020432048 0.015427113 0.0034636825
0.0017227923 -0.0031830762 -0.00853277 -0.0055411533 0.002226498 0.042147413 0.008591361 0.0049461485
-0.0030464209 -0.0012776126 -1.5222257e-05 -0.0016675631 -0.002977994 -0.0019977442 0.002667723 0.0021919112
-0.00020199182 0.0077064703 -0.006549549 0.0014264792 -0.016995499 -0.0019292745 -0.011333995 -0.0027258738
0.0039645787 0.0028912872 -0.056406736 -0.019898131 0.0045726923 -0.002715018 0.005983954 0.023443338
0.002930245 -0.0010982493 0.00047838752 0.00093308097 0.00079815683 0.0011589346 -0.0016473519 0.0019994755
0.0020585107 -0.022171378 -0.00021756937 -0.0019484608 -0.0003968804 -0.0014803361 -0.0021238532 0.002281204
0.0023836447 0.00044994382 0.0040739826 -0.0020094826 0.019251546 -0.0003947392 0.009512734 -0.0021860835
0.005943507 -0.004322382 -0.0069473824 -0.005480905 -0.002568532 0.0036194685 0.027670858 -0.0023421566
-0.0012933476 -0.0043599205 -0.0043418845 -0.010084567 0.0008394467 -0.027917871 -0.005340269 -0.002846572
-0.015999848 0.0006695479 0.001185455 0.0009606071 0.00012555458 -0.0015083189 0.0028534783 0.01218081
0.0028350472 0.0013484897 -0.00068648305 -0.007115771 -0.00018829532 -0.0010203813 0.02969216 -0.005049438
0.0032659138 0.00018085023 -0.006869422 0.015670948 -0.0048814137 0.0037811822 -0.007053713 0.00030323246
0.00016158953 0.009520637 0.00034859838 -0.00090133294 -0.015041397 -0.0004154227 0.0036995695 -0.00041311263
0.0019827378 -0.06626169 -0.0051413393 -8.535314e-05 0.0015245506 -0.0030803287 0.08172877 -0.007671253
0.008854985 0.0043496904 -0.0011873866 0.017447302 -0.006775388 0.0025417244 -0.005375509 0.015649015
0.009725024 -0.0013877507 0.0034073745 0.0014873166 0.03118433 0.01889209 0.18764669 0.0025339131
-0.035555974 0.010925377 0.03343484 0.010609188 0.016272942 -0.08989091 -0.05799144 -0.007399106
0.0082341265 0.0062562246 0.008490763 -0.0065131905 -0.0002814615 -0.03764336 0.0070119393 0.019079175
-0.0056906086 0.055041406 -0.008825411 0.042423088 0.020013478 0.01199149 0.0095379045 0.0070740734
-0.002282673 -0.0018001079 0.021103166 0.12884185 0.015681626 -0.030781198 -0.0190473 -0.02534329
0.0007534363 -0.01981736 -0.0013471702 0.0006762073 -0.045986254 -0.011172978 0.0015516024 -0.003180026
0.0004681236 0.0030226342 0.0008911682 -0.0002879419 0.002629387 0.0022375141 -0.0025790934 0.0027258988
0.001892215 -0.002803979 0.0011894702 -0.0025188439 0.0021239442 -0.00033581443 -0.0008742646 -0.0004756012
-0.0019502239 0.0021932183 1.2380978e-05 0.0014448857 0.00048326995 -0.00058858964 -0.0060835583 0.0022525832
0.00046385996 0.00236419 -0.0020482014 0.0022808888 0.0007370512 0.004288462 -0.0006907881 -0.002172004
-0.0018856983 0.0012624867 0.0010170637 -0.0003230782 0.0028027527 5.229034e-05 0.0026366492 -0.0017807692
-0.0015950288 0.0007925244 -0.0003600873 0.0015020933 -0.0034110155 -0.0015076497 -0.004481879 0.0009846492
0.0021471875 -0.0028913745 -0.00015794844 0.0014648366 0.0031408356 0.00025653397 0.0032939985 0.0027642427
-0.0020319798 0.0007517878 0.00048912864 -0.001559991 -0.0019582321 -0.0015637319 -0.0015859954 -0.00054195354
00000000: e61c 5039 5088 8b3b cbce 1dba 527a 173b
00000010: 9cef 09ba bd91 20bb 0a06 45bc 7437 17bb
00000020: bf4d 29bb d287 ed3a 15ec 16bb 1bd1 3d3a
00000030: dcb3 763b 946c 3d39 2088 003c ef34 07bb
00000040: ebad b4bb 81f8 16bb 1068 1bbb 411d a4ba
00000050: db96 95bc 4ae7 05bb 00c2 7c3c f3fe 623b
00000060: 51cf e13a 289b 50bb 08cd 0bbc 9092 b5bb
00000070: 70ea 113b c4a2 2c3d c8c2 0c3c 4d13 a23b
00000080: 76a6 47bb 9175 a7ba 1963 7fb7 2292 daba
00000090: 732a 43bb 96ec 02bb f7d4 2e3b 2ba6 0f3b
000000a0: c4cd 53b9 8f86 fc3b 999d d6bb b3f8 ba3a
000000b0: 253a 8bbc b6df fcba 38b2 39bc 93a4 32bb
000000c0: 4ce9 813b c07b 3d3b c00a 67bd 6801 a3bc
000000d0: 86d6 953b 72ee 31bb 0b15 c43b 3e0c c03c
000000e0: 5a09 403b 22f3 8fba 16d0 fa39 019a 743a
000000f0: 663b 513a 64e7 973a f5eb d7ba a209 033b
00000100: 14e8 063b c0a0 b5bc 5523 64b9 7f63 ffba
00000110: 6314 d0b9 d607 c2ba 5830 0bbb 4180 153b
00000120: ec36 1c3b 70e6 eb39 0b7f 853b 86b1 03bb
00000130: 6bb5 9d3c 00f5 ceb9 4cdb 1b3c 6544 0fbb
00000140: c0c1 c23b c5a2 8dbb dea6 e3bb 2a99 b3bb
00000150: d154 28bb 9b34 6d3b ffad e23c de7e 19bb
00000160: 8b85 a9ba aadd 8ebb 5e46 8ebb bd39 25bc
00000170: 500e 5c3a 05b4 e4bc 6cfd aebb 8e8d 3abb
00000180: 1d12 83bc 9984 2f3a 4561 9b3a 40d1 7b3a
00000190: 4da7 0339 c9b2 c5ba 6c01 3b3b 0592 473c
000001a0: 33cc 393b cebf b03a 19f5 33ba 6a2b e9bb
000001b0: 2471 45b9 51be 85ba f93c f33c c275 a5bb
000001c0: f108 563b 9da2 3d39 e318 e1bb 5c60 803c
000001d0: 44f4 9fbb b6cd 773b d522 e7bb 2cfb 9e39
000001e0: 5c70 2939 72fc 1b3c 15c4 b639 6e47 6cba
000001f0: 3170 76bc 17cd d9b9 7a74 723b 0a97 d8b9
00000200: d2f0 013b 35b4 87bd ae78 a8bb 9eff b2b8
00000210: 6ed3 c73a 57df 49bb 6a61 a73d 225f fbbb
00000220: 8014 113c d987 8e3b 15a2 9bba a5ed 8e3c
00000230: 1304 debb 0f93 263b 0a25 b0bb 5d32 803c
00000240: b555 1f3c 30e5 b5ba 424e 5f3b 10f2 c23a
00000250: 4876 ff3c 96c3 9a3c 7426 403e 0210 263b
00000260: 24a3 11bd 5a00 333c f9f2 083d 29d2 2d3c
00000270: d54e 853c ba18 b8bd 6f88 6dbd 3374 f2bb
00000280: 6ee8 063c 0401 cd3b d71c 0b3c 9a6c d5bb
00000290: 2091 93b9 ed2f 1abd 69c4 e53b ee4b 9c3c
000002a0: 4978 babb 1973 613d 7598 10bc d5c3 2d3d
000002b0: 4ef3 a33c f477 443c df44 1c3c a1cd e73b
000002c0: e698 15bb 99f1 ebba 8ce0 ac3c 1eef 033e
000002d0: c176 803c da28 fcbc 1509 9cbc bb9c cfbc
000002e0: 4182 453a 0458 a2bc 8893 b0ba 8143 313a
000002f0: 155c 3cbd de0e 37bc 235f cb3a fc67 50bb
00000300: 7c6e f539 6317 463b 499d 693a e8f6 96b9
00000310: cb51 2c3b 42a3 123b 0206 29bb fea4 323b
00000320: 3304 f83a f6c2 37bb ffe7 9b3a 3013 25bb
00000330: df31 0b3b 4010 b0b9 e72e 65ba 1d5a f9b9
00000340: a89e ffba 19bc 0f3b e5b7 4f37 5262 bd3a
00000350: 655f fd39 954b 1aba 9658 c7bb 13a0 133b
00000360: 3b32 f339 87f0 1a3b 1e3b 06bb f77a 153b
00000370: ab36 413a 3a86 8c3b 0116 35ba 2e58 0ebb
00000380: 8929 f7ba 067a a53a ff4e 853a d262 a9b9
00000390: 63ae 373b 5352 5b38 a2cb 2c3b b368 e9ba
000003a0: 4910 d1ba 6ac1 4f3a 19ca bcb9 e3e1 c43a
000003b0: 588b 5fbb 549c c5ba badc 92bb 580f 813a
000003c0: d4b7 0c3b 377d 3dbb f69e 25b9 c3ff bf3a
000003d0: 7ad6 4d3b 687f 8639 20e0 573b 4c28 353b
000003e0: f72a 05bb a013 453a de38 003a 9d78 ccba
000003f0: af55 00bb 23f6 ccba 2de1 cfba e311 0eba

weight f4 [64]
0.08880368 0.1009117 0.13374875 0.026034728 0.029119741 0.09270628 0.6505296 0.38104555
0.02577825 0.049129453 0.027012076 0.01839527 0.066933535 0.05791923 0.05682631 0.20073362
0.023711363 0.06841502 0.14868587 0.07085615 0.18363743 0.67950696 0.09768376 0.1617462
0.03674773 0.09709639 0.0216223 0.10989523 0.054717075 0.025454754 0.0116218515 0.1349166
0.025486736 0.8183051 0.23889984 0.76353306 0.199069 0.12178365 0.32203385 0.041367225
0.02110418 0.08732774 0.047249187 0.03757841 0.036236037 0.05447198 0.043602988 0.26664138
0.044219125 1.420267 0.065810315 0.005570286 0.117259294 0.04101933 0.034059614 0.5935873
0.13961531 0.04359068 0.029837498 0.029838422 0.09792645 0.120144434 0.03764126 0.07463768
00000000: b4de b53d cbaa ce3d 6ff5 083e c846 d53c
00000010: 868c ee3c cadc bd3d 1c89 263f 6718 c33e
00000020: e92c d33c f73b 493d 6e48 dd3c adb1 963c
00000030: 7314 893d b73c 6d3d b4c2 683d 1d8d 4d3e
00000040: 553e c23c 2d1d 8c3d 1c41 183e 071d 913d
00000050: 730b 3c3e 2bf4 2d3f 6c0e c83d cca0 253e
00000060: ca84 163d 79da c63d 4021 b13c c010 e13d
00000070: 031f 603d 7d86 d03c 9469 3e3c 9427 0a3e
00000080: 8fc9 d03c 717c 513f 29a2 743e e776 433f
00000090: bed8 4b3e b569 f93d 9fe1 a43e ae70 293d
000000a0: ace2 ac3c e3d8 b23d 5d88 413d d2eb 193d
000000b0: 3d6c 143d 031e 5f3d 0c99 323d 3885 883e
000000c0: 1d1f 353d 4fcb b53f 8fc7 863d f286 b63b
000000d0: a425 f03d e303 283d 1882 0b3d 56f5 173f
000000e0: 51f7 0e3e 248c 323d c56d f43c b56f f43c
000000f0: aa8d c83d 490e f63d b92d 1a3d a4db 983d

bias f4 [64]
0.020245768 0.0009370716 0.045045946 -0.0009336498 0.0035712447 -0.046478648 0.14558536 -0.2506085
-0.00963386 -0.018331163 -0.002456947 -0.024379032 0.018589804 -0.026930494 -0.08677231 0.04240432
-0.006012544 -0.051740177 -0.06555488 0.0022811326 -0.16833533 0.5031829 -0.019635826 -0.07274086
-0.008058535 -0.014767922 -0.005150743 0.0095060915 -0.043377664 -0.00320289 -0.020958398 -0.27580255
0.0010794516 0.7083745 -0.08119076 -0.48689282 -0.072129816 0.042467497 0.027985917 0.0020928876
0.012847891 -0.06769436 0.001900226 -0.0009922363 -0.0011575962 0.007837459 -0.0017526363 0.121998094
-0.04047939 0.4412866 -0.045292333 -0.07563438 -0.04339841 0.0049581933 0.0040827207 -0.093992405
-0.16686141 -0.039452095 -0.068775184 -0.0012387641 0.013168755 -0.049634334 -0.045078933 -0.07679754
00000000: 74da a53c d0a5 753a 1982 383d 2dc0 74ba
00000010: 8b0b 6a3b 6560 3ebd 5414 153e c24f 80be
00000020: 56d7 1dbc 3c2b 96bc bb04 21bb 89b6 c7bc
00000030: a549 983c 579d dcbc aeb5 b1bd 27b0 2d3d
00000040: e004 c5bb 82ed 53bd a341 86bd 0e7f 153b
00000050: 1960 2cbe 98d0 003f 50db a0bc 29f9 94bd
00000060: f207 04bc 28f5 71bc 90c7 a8bb 70bf 1b3c
00000070: c7ac 31bd 94e7 51bb f2b0 abbc fe35 8dbe
00000080: 637c 8d3a 0858 353f 5747 a6bd 044a f9be
00000090: ccb8 93bd 66f2 2d3d b942 e53c d428 093b
000000a0: f67f 523c 57a3 8abd 0111 f93a ed0d 82ba
000000b0: 7cba 97ba b068 003c b7b8 e5ba 23da f93d
000000c0: b8cd 25bd 51f0 e13e 7484 39bd 33e6 9abd
000000d0: 88c2 31bd 5778 a23b 58c8 853b 177f c0bd
000000e0: b8dd 2abe 8598 21bd 01da 8cbd 075e a2ba
000000f0: c3c1 573c 5f4d 4bbd b0a4 38bd 0748 9dbd

running_mean f4 [64]
-0.01967778 0.021901205 0.12548326 -0.00073006994 -0.009535379 0.026190955 -0.27660224 -0.22060212
0.004752633 -0.001852672 0.00040545716 -0.009182189 0.01448531 0.004836582 0.006810433 0.02027943
0.0054390705 0.021715645 -0.019224832 0.010582696 0.13574748 0.04242053 -0.015528983 -0.006625046
0.006090158 0.054586735 0.0008765675 -0.010301422 0.029008351 -0.0003564496 -0.0039003005 0.07819691
0.0015342435 -0.048421603 -0.0035388323 0.41146725 0.024294944 -0.0013227676 -0.1670696 0.0017539897
2.083609e-05 0.001951895 -0.0034790938 0.0038500752 0.0026866114 0.0074008796 -0.0057157115 -0.05150268
0.012188927 0.4415914 0.014184307 0.019912569 0.010306365 -0.01219883 -0.0019400013 0.37379372
0.038519174 -0.004593145 0.042994145 0.0027523558 -0.0077035087 0.007751199 -0.0011938557 -0.002511004
00000000: 4c33 a1bc 286a b33c af7e 003e 2a62 3fba
00000010: 473a 1cbc 6a8e d63c cf9e 8dbe 86e5 61be
00000020: fabb 9b3b 5bd5 f2ba 8a93 d439 e470 16bc
00000030: cb53 6d3c 317c 9e3b 0e2a df3b 0c21 a63c
00000040: 3b3a b23b 02e5 b13c 657d 9dbc 0b63 2d3c
00000050: 6301 0b3e 26c1 2d3d 476d 7ebc ea16 d9bb
00000060: f38f c73b 5796 5f3d 73c9 653a 4cc7 28bc
00000070: eca2 ed3c dbe1 bab9 2f9c 7fbb b425 a03d
00000080: ab18 c93a bb55 46bd c1eb 67bb d6ab d23e
00000090: 3106 c73c b760 adba 4b14 2bbe 21e6 e53a
000000a0: 2ac9 ae37 bad6 ff3a 8201 64bb 8b51 7c3b
000000b0: dc11 303b 1483 f23b dd4a bbbb 79f4 52bd
000000c0: 11b4 473c 4518 e23e 4c65 683c af1f a33c
000000d0: 07dc 283c 9add 47bc a447 feba e461 bf3e
000000e0: 48c6 1d3d 1882 96bb a11a 303d de60 343b
000000f0: b76d fcbb c5fd fd3b 267b 9cba a88f 24bb

running_var f4 [64]
0.0003801639 0.00030306308 0.0038581812 5.3831823e-06 1.8982999e-05 0.0005222506 0.06722476 0.026046216
2.0861999e-05 9.308545e-05 7.1348713e-06 0.00032056618 0.00010705532 0.00024795634 0.00021543933 0.016235974
1.4302916e-05 0.00036067487 0.0025787519 0.000110573725 0.01074433 0.26262686 0.0008338459 0.0023237106
0.00024147292 0.0006260707 4.573704e-06 0.0007881922 0.00029982437 3.5430653e-06 0.00014608701 0.0043031685
7.121136e-05 0.23823127 0.0153522855 0.109137215 0.01066887 0.00026108153 0.011847337 0.00014582252
1.2804286e-06 0.00030952634 5.864424e-05 1.6958631e-05 7.388361e-05 0.00029964666 0.00025370336 0.01029297
0.00018501777 0.7690771 0.00019988889 0.00080840813 0.0005758273 8.863485e-05 1.7603119e-05 0.050376855
0.0041113365 4.6820245e-05 0.0011558402 4.9337516e-05 0.00061999576 0.0028937443 9.138178e-05 0.0012984074
00000000: bc50 c739 70e4 9e39 8ad9 7c3b 2fa1 b436
00000010: ae3d 9f37 a5e7 083a 23ad 893d e05e d53c
00000020: cd00 af37 df36 c338 1468 ef36 aa11 a839
00000030: e382 e038 2300 8239 8ee7 6139 4e01 853c
00000040: 8ef6 6f37 f618 bd39 4700 293b d1e3 e738
00000050: fc08 303c 0777 863e 7396 5a3a 6549 183b
00000060: e533 7d39 e51e 243a d177 9936 af9e 4e3a
00000070: bf31 9d39 66c5 6d36 ef2e 1939 9801 8d3b
00000080: 4f57 9538 e6f2 733e 2788 7b3c 5583 df3d
00000090: 7ccc 2e3c c5e1 8839 551b 423c efe7 1839
000000a0: 31db ab35 ec47 a239 c6f8 7538 6242 8e37
000000b0: f6f1 9a38 e519 9d39 7d03 8539 d8a3 283c
000000c0: 5401 4239 3de2 443f 4499 5139 5aeb 533a
000000d0: 1ef3 163a 79e1 b938 69aa 9337 f657 4e3d
000000e0: 64b8 863b db60 4438 907f 973a c1ef 4e38
000000f0: 3687 223a f9a4 3d3b 38a4 bf38 532f aa3a

weight f4 [64, 1, 3]
-0.0013643195 -0.04307026 -0.07690359 0.08979885 0.023289656 0.021070136 0.04917791 0.017936403
0.10252837 -0.0033017243 0.008184614 0.011181662 -0.0064662094 -0.014435501 -0.016076326 -0.035777926
-0.09802966 0.07991943 -0.44951212 -0.2551145 -0.34015816 0.22897439 0.19508208 0.25874388
-0.004673323 0.0019673235 0.022355298 0.03321703 0.015319586 0.029368384 -0.010434171 0.01439148
-0.005539688 0.00559894 0.00045055783 0.006026125 0.06837104 -0.0041351505 -0.012290115 -0.061842743
0.07772011 -0.046323594 -0.029935567 -0.06782649 -0.031656727 -0.14126715 0.035426192 -0.15141265
0.017301327 0.004654186 -0.0045922063 -0.009400651 -0.021894896 -0.020801334 0.20410568 -0.077615276
-0.049236186 -0.05569286 -0.03410855 0.02519101 0.025523745 -0.01374639 0.008155533 0.028368024
-0.019398138 -1.0689187 0.021772746 -0.036521345 -0.08413043 -0.0021264069 0.010771813 -0.023662845
0.01003011 0.032380942 -0.0046462226 -0.08593113 -0.030934086 0.0033187333 0.0052061565 -0.01670298
0.0038984432 -0.055466484 -0.06207119 -0.06583742 0.01787228 -0.015385903 -0.030683482 -0.0026715863
-0.0026144313 -0.009283007 -0.0023782395 0.009978527 0.006198028 -0.056205224 -0.06290525 -0.06291867
-0.011884958 -0.0045587053 -0.012856905 -0.51511735 0.5781317 -0.81434494 -0.120123155 -0.048519775
-0.10104285 -0.37699506 -0.22759694 -0.28471246 0.13238242 0.0783548 0.048545685 -0.02577747
-0.11855725 0.062166512 0.19457419 0.25173685 -0.0061397506 0.012034828 0.012788756 0.028508993
0.007152428 0.01032815 0.017284565 0.074777275 -0.02031851 -0.014670694 -0.02743404 0.032916453
0.019613963 0.015287922 0.023746254 0.013615755 0.010038257 0.022053212 0.019911861 0.022458479
0.029423019 0.035976175 0.027587222 0.02215087 0.0013669521 -0.1974853 -0.14822826 -0.14064197
-0.019843945 -0.015017833 -0.013569326 -0.1338647 0.900715 -0.03606917 -0.007386921 0.0090606855
0.008825537 0.0027180999 0.00619341 0.00050599826 0.06862057 0.067545295 0.053228907 0.023335852
0.01933917 0.020759733 0.025457129 0.003161253 0.021725161 -0.3400137 -0.026378483 -0.3312333
-0.03419672 -0.06206768 -0.025280418 0.035476938 -0.0053546987 0.031689648 -0.021525573 -0.040814906
-0.026378805 0.01490939 -0.010708392 0.022334076 0.055545755 0.039642636 0.06212226 -0.050835624
-0.056836933 -0.08218716 -0.0015345776 -0.007461443 0.00085142156 -0.035057355 -0.036727834 -0.03347675
00000000: f7d2 b2ba 716a 30bd a17f 9dbd 76e8 b73d
00000010: f3c9 be3c 479b ac3c c76e 493d 5def 923c
00000020: 65fa d13d be61 58bb c218 063c 4a33 373c
00000030: 7fe2 d3bb e182 6cbc 80b2 83bc e08b 12bd
00000040: c6c3 c8bd ccac a33d 7426 e6be 5e9e 82be
00000050: 3629 aebe 4378 6a3e 99c3 473e 147a 843e
00000060: ad22 99bb 36ee 003b 7522 b73c 950e 083d
00000070: 00ff 7a3c f795 f03c 16f4 2abc 3eca 6b3c
00000080: 4586 b5bb 5077 b73b d938 ec39 cd76 c53b
00000090: 1e06 8c3d 2880 87bb 7a5c 49bc d14e 7dbd
000000a0: b92b 9f3d cfbd 3dbd 6f3b f5bc 9de8 8abd
000000b0: 7caa 01bd 56a8 10be 0e1b 113d eb0b 1bbe
000000c0: 83bb 8d3c 2482 983b 387a 96bb 3005 1abc
000000d0: ed5c b3bc 8f67 aabc 1401 513e c2f4 9ebd
000000e0: e2ab 49bd 321e 64bd 68b5 0bbd 615d ce3c
000000f0: 2c17 d13c 8a38 61bc c99e 053c 0f64 e83c
00000100: d8e8 9ebc 54d2 88bf c25c b23c 6897 15bd
00000110: 934c acbd 305b 0bbb 427c 303c 95d8 c1bc
00000120: 5555 243c e1a1 043d 573f 98bb a9fc afbd
00000130: 7b69 fdbc 1b7f 593b 6898 aa3b b0d4 88bc
00000140: 067d 7f3b d330 63bd 5c3e 7ebd c5d5 86bd
00000150: e368 923c 2815 7cbc ed5b fbbc c815 2fbb
00000160: e156 2bbb c117 18bc 3ddc 1bbb fa7c 233c
00000170: d418 cb3b 7337 66bd 78d4 80bd 81db 80bd
00000180: 20b9 42bc 3161 95bb c5a5 52bc bbde 03bf
00000190: 7000 143f e978 50bf 2103 f6bd acbc 46bd
000001a0: 8eef cebd 7f05 c1be 2c0f 69be d5c5 91be
000001b0: 428f 073e 7b78 a03d d7d7 463d 462b d3bc
000001c0: 25ce f2bd 50a2 7e3d 753e 473e a7e3 803e
000001d0: f62f c9bb ba2d 453c ee87 513c b18b e93c
000001e0: ea5e ea3b 6737 293c 5c98 8d3c d424 993d
000001f0: 0173 a6bc 5a5d 70bc 5abd e0bc 67d3 063d
00000200: 76ad a03c 317a 7a3c 8187 c23c 9e14 5f3c
00000210: 8077 243c f0a8 b43c 331e a33c d8fa b73c
00000220: 8b08 f13c c15b 133d 99fe e13c be75 b53c
00000230: 4d2b b33a 9639 4abe 26c9 17be 7304 10be
00000240: c58f a2bc 5b0d 76bc e151 5ebc d413 09be
00000250: 4295 663f 44bd 13bd fc0d f2bb 4573 143c
00000260: fc98 103c 2622 323b 17f2 ca3b f8a4 043a
00000270: f188 8c3d 3055 8a3d 8e06 5a3d d42a bf3c
00000280: 2e6d 9e3c 5110 aa3c 788b d03c 062d 4f3b
00000290: f7f8 b13c 4716 aebe b017 d8bc 6997 a9be
000002a0: dc11 0cbd ae3a 7ebd e118 cfbc 4450 113d
000002b0: 7876 afbb 01cd 013d 6656 b0bc 882d 27bd
000002c0: 5d18 d8bc 8446 743c 4072 2fbc f4f5 b63c
000002d0: f283 633d 5160 223d e973 7e3d 0439 50bd
000002e0: d8cd 68bd be51 a8bd e123 c9ba 1f7f f4bb
000002f0: ef31 5f3a 4d98 0fbd ed6f 16bd eb1e 09bd

weight f4 [64, 64, 1]
-0.005486385 0.0034946168 0.014883715 0.0005829948 0.005189238 -0.022608446 0.0010519873 0.009990267
-0.00061153574 -0.0037170383 0.0023389028 -0.008333484 -0.0030483757 0.0060550272 -0.0139123695 -0.06417612
-0.0035867896 0.00032954352 0.14404422 -0.0057239346 0.061322648 0.06886074 0.010700293 0.0036079523
-0.0062248693 -0.00044088427 0.0016182394 -0.0018030538 -0.0019109686 -0.0015591669 -0.0038133143 -0.012832475
0.0025375169 -0.06206201 -0.025124254 0.023232678 0.0007307167 0.00096299883 0.009278416 0.00028509274
0.0036235137 0.04468224 -0.0010261323 -0.0045247003 -0.0013042693 -0.0026349593 0.003147427 0.0021655506
0.00022619142 -0.031310644 0.01009526 -0.0038821052 -0.0018576486 -0.0021926153 -0.00018558299 0.06463039
-0.02354725 -0.014968083 0.008397601 -0.0045358324 9.664279e-05 0.0056035565 0.0034132693 0.010126164
0.0034774211 0.0037336245 0.055445272 0.0008434966 -0.0019803697 0.014825075 -0.08744357 -0.011773564
-0.0019316407 -0.009148959 -0.0021183195 -0.031999644 0.0024181607 -0.0010287326 0.012133267 -0.040876985
-0.005538323 0.021942453 0.020883264 -0.0012150924 -0.033320945 0.0065437346 0.0147188185 -0.021906797
0.00023191073 -0.00058455346 0.0010277572 0.007184118 0.048092004 0.0028434114 -0.019922722 0.028072368
0.0057835123 0.00254584 0.007837447 0.054912373 -0.0008405187 0.0049985377 -0.008407374 -0.0037785568
0.015802925 -0.001065446 -0.01681239 -0.0021276576 -0.013268221 -0.027881024 -0.022536024 -0.025950115
-0.0064354376 -0.01407805 -0.005190282 -0.024812402 -0.021057336 -0.008831684 -0.0075235907 -0.06660239
-0.07708845 0.009552928 -0.0066160536 -0.0016636525 -0.025766388 -0.006249754 0.021942306 0.057412907
0.00018453899 -0.0039632767 -0.0073918663 -0.0006612546 0.004325209 0.013487524 -0.019336065 0.003622141
0.00047142772 -0.0038844272 0.0006302693 0.00358812 -0.0044602137 0.00085705146 -0.001544268 0.022740811
-0.002316852 0.0031798335 0.0694659 0.0026736015 0.012008238 0.049907785 0.023457807 0.0016150217
-0.006970556 0.0133197885 0.00075647194 0.0061080223 0.0035332884 -0.0018784812 -0.0011517699 -0.0021143602
0.0022345332 -0.0114307795 0.042322423 -0.0555257 -0.010034933 0.023749802 0.006272463 -0.0018258386
0.004060672 0.023951257 -0.008166383 -0.0024845067 -0.0011430724 -0.004268756 -0.006436171 -0.0030841853
0.006613225 -0.10134919 -0.0055115363 -0.0042272904 -0.00093303726 -5.777926e-05 -0.005347019 0.009893624
-0.0028527423 -0.0020908432 0.0021504282 0.00082929165 -0.006199082 0.0014704319 -0.003809437 0.00474775
-3.9503964e-05 -0.004226895 -0.012892696 -0.00096002803 -0.0019044869 -0.013043592 -0.0540846 -0.02048562
-0.0035911712 -0.0061008707 0.00066706934 -0.0077122464 -0.0073629385 0.0007244135 -0.017160045 0.014552241
-0.00045499497 0.00052571885 -0.0530774 0.004047741 0.012727137 0.008173079 -0.0022029504 0.0024159634
-0.005907786 0.009921881 0.0006895277 0.007973351 -0.0058008125 0.0029307809 -0.0040589394 -0.023568837
0.0029757028 -0.011447808 0.024759257 -0.008481963 0.002864897 -0.0075289584 -0.014567603 -0.0029256595
-0.0057897833 -0.010235226 0.005067441 -0.00030064562 -0.0023241476 -0.0042093364 -0.0062856916 -0.022089312
0.004102638 0.015652247 0.0006419514 0.0076137194 -0.0059040277 -0.0074838693 -0.0025643979 0.06557265
0.0065805563 -0.011048013 -0.005338404 -0.0060166847 -0.01151072 -0.018504063 0.0036982354 -0.00407654
00000000: 22c7 b3bb f105 653b d3da 733c 1ed4 183a
00000010: 7c0a aa3b 5935 b9bc d6e2 893a 38ae 233c
00000020: 784f 20ba 8e99 73bb 4748 193b 2a89 08bc
00000030: 42c7 47bb 4069 c63b b5f0 63bc c56e 83bd
00000040: 5810 6bbb 95c6 ac39 5480 133e d88f bbbb
00000050: 752d 7b3d dc06 8d3d 4850 2f3c 6573 6c3b
00000060: fdf9 cbbb 7c26 e7b9 1b1b d43a 7254 ecba
00000070: 7779 faba f65c ccba cce8 79bb 4d3f 52bc
00000080: 784c 263b bc34 7ebd 61d1 cdbc 7552 be3c
00000090: 918d 3f3a c271 7c3a 7f04 183c 8078 9539
000000a0: 7978 6d3b b904 373d 497f 86ba f043 94bb
000000b0: 04f4 aaba 48af 2cbb 1045 4e3b e9eb 0d3b
000000c0: cc2d 6d39 973f 00bd 9766 253c eb6a 7ebb
000000d0: 587c f3ba fbb1 0fbb 0e99 42b9 f05c 843d
000000e0: 2ae6 c0bc b13c 75bc 1796 093c 52a1 94bb
000000f0: b4ac ca38 0a9e b73b 28b1 5f3b 36e8 253c
00000100: 72e5 633b d3af 743b 951a 633d 191e 5d3a
00000110: 17c9 01bb dfe4 723c 9d15 b3bd e8e5 40bc
00000120: 1b2f fdba 84e5 15bc 81d3 0abb 0f12 03bd
00000130: 017a 1e3b 8ad6 86ba 9cca 463c a06e 27bd
00000140: d27a b5bb a9c0 b33c 6113 ab3c bc43 9fba
00000150: 8b7b 08bd d36c d63b 3327 713c e275 b3bc
00000160: 102d 7339 b83c 19ba cfb5 863a c068 eb3b
00000170: 1ffc 443d 8758 3a3b fa34 a3bc 06f8 e53c
00000180: 9e83 bd3b 1cd8 263b a368 003c cceb 603d
00000190: 4156 5cba c6ca a33b 15bf 09bc aaa1 77bb
000001a0: 2375 813c 6fa6 8bba 23ba 89bc 2c70 0bbb
000001b0: f462 59bc bf66 e4bc 789d b8bc 5695 d4bc
000001c0: 5de0 d2bb 9fa7 66bc 3e13 aabb 6143 cbbc
000001d0: 6f80 acbc c4b2 10bc 7488 f6bb d566 88bd
000001e0: 8de0 9dbd e283 1c3c 7bcb d8bb ea0e daba
000001f0: 0814 d3bc bdca ccbb 5ac0 b33c cc29 6b3d
00000200: cf80 4139 60de 81bb 7837 f2bb 0c58 2dba
00000210: 7cba 8d3b c7fa 5c3c ab66 9ebc 7161 6d3b
00000220: f529 f739 e091 7ebb a838 253a aa26 6b3b
00000230: fc26 92bb c0ab 603a 0969 caba f04a ba3c
00000240: 54d6 17bb c164 503b 2344 8e3d 9737 2f3b
00000250: 33be 443c 1b6c 4c3d 962a c03c 23af d33a
00000260: 4369 e4bb 3e3b 5a3c f94d 463a ce25 c83b
00000270: be8e 673b 5f37 f6ba fcf6 96ba 1491 0abb
00000280: 3f71 123b 2a48 3bbc 475a 2d3d eb6e 63bd
00000290: 8f69 24bc f28e c23c 3c89 cd3b fa50 efba
000002a0: 630f 853b 6d35 c43c 4bcc 05bc 1bd3 22bb
000002b0: 25d3 95ba ece0 8bbb 84e6 d2bb 0b20 4abb
000002c0: c1b3 d83b 2a90 cfbd 1e9a b4bb 1585 8abb
000002d0: 1297 74ba 0258 72b8 0c36 afbb de18 223c
000002e0: 13f5 3abb 8706 09bb 33ee 0c3b d264 593a
000002f0: ab21 cbbb 82bb c03a bfa7 79bb 0393 9b3b
00000300: 0fb1 25b8 c481 8abb e33b 53bc 64aa 7bba
00000310: fa9f f9ba cab4 55bc d087 5dbd 75d1 a7bc
00000320: db59 6bbb d0e9 c7bb 44de 2e3a 03b7 fcbb
00000330: ce44 f1bb 91e6 3d3a 3993 8cbc 866c 6e3c
00000340: 648c eeb9 65d0 093a b067 59bd eaa2 843b
00000350: 7b85 503c 61e8 053c 605f 10bb 2455 1e3b
00000360: 1a96 c1bb 638f 223c 6cc1 343a a8a2 023c
00000370: be14 bebb 5812 403b da00 85bb 6f13 c1bc
00000380: 0204 433b 968f 3bbc edd3 ca3c eef7 0abc
00000390: ffc0 3b3b 7bb5 f6bb f5ac 6ebc 6cbc 3fbb
000003a0: 39b8 bdbb a6b1 27bc c70c a63b f99f 9db9
000003b0: ba50 18bb 79ee 89bb 34f8 cdbb a5f4 b4bc
000003c0: 6c6f 863b 2439 803c a148 283a 827c f93b
000003d0: 9376 c1bb 3f3b f5bb 750f 28bb f44a 863d
000003e0: b5a1 d73b ba02 35bc c7ed aebb 9c27 c5bb
000003f0: 7597 3cbc d595 97bc 185e 723b 7f94 85bb

weight f4 [64]
0.14117423 0.10148107 0.176924 0.14474131 0.26656836 0.5721651 0.25177312 0.16880448
0.30440012 0.24525028 0.10333193 0.6501985 0.053578798 0.13764383 0.17744151 0.13361596
0.22951235 0.20355771 0.31286323 0.31784442 0.86851627 0.26737696 0.11394118 0.4793135
0.5310542 0.38320994 0.54576945 0.36072707 0.23706788 0.66178364 0.04253989 0.236356
0.1572117 0.46421233 0.15554178 0.19483757 0.1866042 0.17236792 -0.18529084 0.25789008
0.08228279 0.33027154 0.26979023 0.054935314 0.27381182 0.08762571 0.5595202 0.20097883
0.09105158 0.28709647 0.5816938 0.53742903 0.32557136 0.107937776 0.40257362 0.37042204
0.10532197 0.16332403 0.7020894 0.23356883 0.2791866 0.04864043 0.16016805 0.11119615
00000000: fa8f 103e 4fd5 cf3d 912b 353e 1137 143e
00000010: a67b 883e 6979 123f 68e8 803e 15db 2c3e
00000020: 55da 9b3e e422 7b3e b19f d33d 6973 263f
00000030: 7175 5b3d 81f2 0c3e 3ab3 353e 9fd2 083e
00000040: 4905 6b3e 6f71 503e 9c2f a03e 81bc a23e
00000050: 1557 5e3f a2e5 883e fe59 e93d 9468 f53e
00000060: 2bf3 073f 1834 c43e 8cb7 0b3f 38b1 b83e
00000070: ecc1 723e a76a 293f 4f3e 2e3d 4f07 723e
00000080: 1bfc 203e 3dad ed3e 5846 1f3e 8083 473e
00000090: 2c15 3f3e 3781 303e e2bc 3dbe 2b0a 843e
000000a0: e183 a83d 5a19 a93e f221 8a3e da03 613d
000000b0: 1031 8c3e 1c75 b33d b73c 0f3f 65cd 4d3e
000000c0: 4079 ba3d 4ffe 923e e3e9 143f f394 093f
000000d0: 4ab1 a63e 7b0e dd3d 211e ce3e f5a7 bd3e
000000e0: 0cb3 d73d 6a3e 273e 22bc 333f ab2c 6f3e
000000f0: 8cf1 8e3e 303b 473d 1803 243e cfba e33d

bias f4 [64]
-0.09589122 0.00423718 -0.046758577 0.012065165 -0.21737888 -0.20531255 -0.16240531 -0.08594476
0.014670595 0.37966865 -0.10514408 -0.34606582 -0.024608035 -0.045688637 -0.08847825 0.2241327
-0.0026945283 0.2443302 -0.15357172 -0.007934075 -0.25512433 0.16598222 0.013668627 0.02383881
0.18013628 -0.12123517 -0.15135127 0.056099232 0.11767568 0.003053149 -0.059015796 -0.16161661
-0.07638409 0.070336096 0.026402384 -0.07273813 0.020538647 -0.044761725 0.08050191 0.0064288527
-0.054846186 0.04578186 -0.15636852 -0.03788038 -0.2251348 -0.08358076 0.17562263 0.051768415
0.007232855 -0.032474045 0.10669881 -0.03532812 -0.058003526 -0.046900295 -0.023411 -0.11350375
-0.06995525 -0.0070058783 0.020564517 -0.14721957 0.13397159 -0.0469469 -0.11354884 -0.046429582
00000000: 9e62 c4bd 0bd8 8a3b ec85 3fbd f8ac 453c
00000010: 9298 5ebe 743d 52be 944d 26be ce03 b0bd
00000020: ef5c 703c ee63 c23e c855 d7bd 8a2f b1be
00000030: ca96 c9bc 0224 3bbd 1634 b5bd 0b83 653e
00000040: af96 30bb b231 7a3e e841 1dbe ecfd 01bc
00000050: a89f 82be 3ef7 293e 60f2 5f3c 9c49 c33c
00000060: a575 383e 254a f8bd d4fb 1abe 4fc8 653d
00000070: f2ff f03d 5717 483b 8cba 71bd d37e 25be
00000080: 436f 9cbd 5f0c 903d d049 d83c bbf7 94bd
00000090: aa40 a83c 1258 37bd 2fde a43d 20a9 d23b
000000a0: 65a6 60bd c285 3b3d 121f 20be 7528 1bbd
000000b0: bd89 66be 642c abbd 6bd6 333e 1e0b 543d
000000c0: 9601 ed3b 8103 05bd e884 da3d 38b4 10bd
000000d0: 1b95 6dbd 861a 40bd 6dc8 bfbc a774 e8bd
000000e0: b344 8fbd 9191 e5bb eb76 a83c bac0 16be
000000f0: d92f 093e 654b 40bd 4b8c e8bd f22c 3ebd

running_mean f4 [64]
-0.03295786 0.021725697 -0.07146991 0.019863443 -0.087436944 -0.07636458 -0.048680093 0.030773938
-0.24034719 -0.27914062 0.022680249 -0.022718096 -0.0007833976 0.0015576752 -0.0075815367 -0.062200595
-0.074922234 0.5477724 -0.21875994 -0.16934013 0.27099952 0.029974934 -0.07073219 0.26684073
0.07521926 0.16409564 0.035970997 -0.23866159 -0.027168885 0.26734394 0.036656335 -0.082996845
-0.017696656 0.30346483 -0.32196668 0.09676697 0.016119005 -0.06221935 0.10373088 0.011812277
0.01975763 0.10996395 -0.25786358 -0.0012902867 -0.061221223 0.022853838 -0.21344101 -0.02042601
-0.0044141286 -0.020328917 0.26133907 -0.40981266 0.025585871 0.0901207 0.21229386 0.024401244
0.050562683 -0.07421856 0.029554429 -0.020047797 -0.11676911 0.022546476 -0.003868225 -0.0100612445
00000000: d2fe 06bd 17fa b13c d15e 92bd a9b8 a23c
00000010: 2412 b3bd 0865 9cbd c764 47bd a019 fc3c
00000020: 931d 76be 85eb 8ebe eecb b93c 4d1b babc
00000030: ec5c 4dba e82a cc3a 8a6e f8bb 0dc6 7ebd
00000040: d470 99bd d03a 0c3f 9b02 60be 8067 2dbe
00000050: 73c0 8a3e fe8d f53c 0adc 90bd 599f 883e
00000060: 8e0c 9a3d b008 283e 5356 133d b463 74be
00000070: 4891 debc 4ee1 883e f424 163d 40fa a9bd
00000080: 94f8 90bc be5f 9b3e d1d8 a4be c32d c63d
00000090: 010c 843c b8d9 7ebd db70 d43d 4888 413c
000000a0: c1da a13c c834 e13d b206 84be d61e a9ba
000000b0: 1bc3 7abd f937 bb3c 4890 5abe 7354 a7bc
000000c0: 65a4 90bb d488 a6bc 3cce 853e f7d2 d1be
000000d0: 7699 d13c 3491 b83d 9063 593e 1ee5 c73c
000000e0: d11a 4f3d e6ff 97bd 211c f23c 473b a4bc
000000f0: a524 efbd 63b3 b83c 0c82 7dbb ebd7 24bc

running_var f4 [64]
0.0058527957 0.0010768101 0.00770498 0.00057177164 0.041718125 0.124295354 0.026564987 0.012789432
0.014698526 0.1523494 0.013691502 0.0874011 7.543321e-05 0.012117871 0.0023243492 0.07245558
0.025812516 0.20272145 0.056073777 0.30739635 0.20324422 0.08883196 0.001772882 0.0865033
0.1466484 0.064080626 0.13203482 0.02615772 0.040333364 0.12835135 0.0014535376 0.02406941
0.005463182 0.10080958 0.09377205 0.007068737 0.0077069895 0.00338974 0.16632709 0.060645413
0.004436415 0.11789938 0.08718387 7.859464e-05 0.04411677 0.00036846852 0.18683372 0.012146856
0.0012621531 0.02875233 0.17224067 0.11740387 0.005500908 0.007254242 0.036678083 0.036554366
0.0054041888 0.0016661283 0.2980169 0.016071511 0.22828896 0.00034521264 0.0014936046 0.00032902835
00000000: cfc8 bf3b c023 8d3a 0f7a fc3b f2e2 153a
00000010: a0e0 2a3d 908e fe3d d19e d93c c48a 513c
00000020: 16d2 703c 7b01 1c3e 5252 603c 59ff b23d
00000030: e531 9e38 098a 463c 1c54 183b 9763 943d
00000040: c574 d33c 3696 4f3e 9ead 653d 0e63 9d3e
00000050: 411f 503e 88ed b53d 0c60 e83a a428 b13d
00000060: 002b 163e b43c 833d 2334 073e b748 d63c
00000070: 9934 253d 896e 033e a184 be3a 362d c53c
00000080: 7e04 b33b 4175 ce3d 900b c03d dda0 e73b
00000090: ea8a fc3b 6626 5e3b a651 2a3e 5367 783d
000000a0: 595f 913b 3b75 f13d 758d b23d 2dd3 a438
000000b0: c9b3 343d 022f c139 5751 3f3e 9b03 473c
000000c0: d56e a53a 028a eb3c dc5f 303e 7171 f03d
000000d0: f640 b43b feb4 ed3b c23b 163d 08ba 153d
000000e0: 9f15 b13b fd61 da3a ac95 983e 67a8 833c
000000f0: 95c4 693e a8fd b439 0ec5 c33a 7081 ac39

weight f4 [64, 1, 1]
-0.026929496 -0.0070159803 0.02709732 -0.02121196 -0.031535707 -0.04056747 -0.027286457 0.015448713
0.040969495 0.047213536 0.01865905 -0.06422529 -0.019389931 -0.0037934792 -0.022366391 0.05222078
-0.047863297 -0.06534878 -0.02947179 0.029447997 -0.038459815 -0.0043713544 -0.02424614 1.2156703e-08
0.06914368 0.03716066 0.04436171 -5.838674e-11 0.06084655 0.052451793 -0.022553364 0.050384004
-0.013977617 -0.093046375 -1.7564419e-15 0.009994613 -0.036471024 -0.025927149 -3.266535e-39 -0.035705537
0.022480225 -0.05534058 0.03351362 0.0026403684 -0.019662175 -0.005127082 -0.07661071 0.028120466
0.022532333 -0.030474663 -0.00013779802 0.023664057 0.031122362 0.019424535 0.017477162 -0.033492256
0.016323552 -0.0033785969 -0.07754701 0.018135509 0.4660618 0.014649213 0.009601556 0.02487559
00000000: 3f9b dcbc 4fe6 e5bb 33fb dd3c b4c4 adbc
00000010: 962b 01bd 132a 26bd d987 dfbc 991c 7d3c
00000020: a1cf 273d fb62 413d ddda 983c 8d88 83bd
00000030: a2d7 9ebc 059c 78bb b939 b7bc 75e5 553d
00000040: 4e0c 44bd 95d5 85bd d36e f1bc ed3c f13c
00000050: 0a88 1dbd 943d 8fbb d79f c6bc bfd9 5032
00000060: 349b 8d3d c735 183d a0b4 353d d064 80ae
00000070: 3b3a 793d b1d7 563d d5c1 b8bc 755f 4e3d
00000080: 6002 65bc 198f bebd 4521 fda6 72c0 233c
00000090: a462 15bd 2c65 d4bc c591 2380 f83f 12bd
000000a0: 7328 b83c ceac 62bd 9445 093d 080a 2d3b
000000b0: 9212 a1bc 1501 a8bb 13e6 9cbd e45c e63c
000000c0: ba95 b83c 00a6 f9bc e07d 10b9 20db c13c
000000d0: 53f4 fe3c 3420 9f3c 442c 8f3c 2d2f 09bd
000000e0: f8b8 853c 736b 5dbb f7d0 9ebd eb90 943c
000000f0: a79f ee3e 4103 703c d84f 1d3c e5c7 cb3c

weight f4 [64]
0.0800417 0.0061077927 -0.0549418 0.02587012 -0.08726641 0.12213056 -0.060199387 -0.016321626
-0.10523792 -0.15076381 0.019876862 0.35563233 0.020355267 -0.002907327 -0.007339032 0.19148342
0.18126948 -0.30605105 0.06285438 -0.017784078 -0.079655245 -0.0040771705 0.05380079 -1.2156704e-08
-0.34862196 0.096968085 -0.13427092 -6.37109e-11 -0.25769156 -0.19971302 0.015450357 0.20032528
0.008283252 0.62681794 1.7564418e-15 -0.045230318 0.12473251 0.05369093 -3.047143e-39 -0.093493454
0.027026322 -0.22064967 -0.0782487 0.0015795254 -0.02762602 -0.009948071 0.44709522 0.06176418
0.046477046 0.06519829 0.00013766969 -0.03379953 0.06296041 -0.004256428 -9.7593045e-05 0.09956299
0.017181661 0.010387293 -0.4160095 -0.044897646 -0.16712981 0.010664116 0.018428463 0.022387156
00000000: e7ec a33d e123 c83b a70a 61bd 93ed d33c
00000010: bbb8 b2bd 961f fa3d a293 76bd eeb4 85bc
00000020: fb86 d7bd d461 1abe cdd4 a23c 7115 b63e
00000030: 17c0 a63c da88 3ebb 437c f0bb 3b14 443e
00000040: b59e 393e b9b2 9cbe ccb9 803d eaaf 91bc
00000050: 4a22 a3bd c999 85bb 385e 5c3d c0d9 50b2
00000060: 947e b2be 3497 c63d 517e 09be 0c1a 8cae
00000070: 26f0 83be 9281 4cbe 7f23 7d3c 1222 4d3e
00000080: 7ab6 073c 2477 203f 4421 fd26 6d43 39bd
00000090: c273 ff3d 05eb 5b3d 322e 2180 7f79 bfbd
000000a0: 4e66 dd3c fdf1 61be db40 a0bd 1408 cf3a
000000b0: f74f e2bc 3cfd 22bc aae9 e43e 70fc 7c3d
000000c0: b75e 3e3d ae86 853d 6d5b 1039 6071 0abd
000000d0: 63f1 803d 8279 8bbb deaa ccb8 aee7 cb3d
000000e0: 8ec0 8c3c 772f 2a3c 32ff d4be 98e6 37bd
000000f0: 1424 2bbe 8bb8 2e3c 4af7 963c 4565 b73c

bias f4 [64]
-0.09589122 0.00423718 -0.046758577 0.012065165 -0.21737888 -0.20531255 -0.16240531 -0.08594476
0.014670595 0.37966865 -0.10514408 -0.34606582 -0.024608035 -0.045688637 -0.08847825 0.2241327
-0.0026945283 0.2443302 -0.15357172 -0.007934075 -0.25512433 0.16598222 0.013668627 0.02383881
0.18013628 -0.12123517 -0.15135127 0.056099232 0.11767568 0.003053149 -0.059015796 -0.16161661
-0.07638409 0.070336096 0.026402384 -0.07273813 0.020538647 -0.044761725 0.08050191 0.0064288527
-0.054846186 0.04578186 -0.15636852 -0.03788038 -0.2251348 -0.08358076 0.17562263 0.051768415
0.007232855 -0.032474045 0.10669881 -0.03532812 -0.058003526 -0.046900295 -0.023411 -0.11350375
-0.06995525 -0.0070058783 0.020564517 -0.14721957 0.13397159 -0.0469469 -0.11354884 -0.046429582
00000000: 9e62 c4bd 0bd8 8a3b ec85 3fbd f8ac 453c
00000010: 9298 5ebe 743d 52be 944d 26be ce03 b0bd
00000020: ef5c 703c ee63 c23e c855 d7bd 8a2f b1be
00000030: ca96 c9bc 0224 3bbd 1634 b5bd 0b83 653e
00000040: af96 30bb b231 7a3e e841 1dbe ecfd 01bc
00000050: a89f 82be 3ef7 293e 60f2 5f3c 9c49 c33c
00000060: a575 383e 254a f8bd d4fb 1abe 4fc8 653d
00000070: f2ff f03d 5717 483b 8cba 71bd d37e 25be
00000080: 436f 9cbd 5f0c 903d d049 d83c bbf7 94bd
00000090: aa40 a83c 1258 37bd 2fde a43d 20a9 d23b
000000a0: 65a6 60bd c285 3b3d 121f 20be 7528 1bbd
000000b0: bd89 66be 642c abbd 6bd6 333e 1e0b 543d
000000c0: 9601 ed3b 8103 05bd e884 da3d 38b4 10bd
000000d0: 1b95 6dbd 861a 40bd 6dc8 bfbc a774 e8bd
000000e0: b344 8fbd 9191 e5bb eb76 a83c bac0 16be
000000f0: d92f 093e 654b 40bd 4b8c e8bd f22c 3ebd
