ldpi/training/output/ResCNN/traced_model.pth (torch, 775612 bytes, 63 tensors)

weight f4 [1, 1, 7]
0	0xbe5c395e	-0.21506259
1	0xbfed47c8	-1.8537531
2	0xbe62e8e2	-0.2215915
3	0x3cfc2b39	0.030782329
4	0xbd30d9b9	-0.043176387
5	0x3d1615d3	0.036641907
6	0xbc5bcdf8	-0.013415806

weight f4 [64, 1, 1]
0	0xbcc171d4	-0.023613848
1	0x3d00d1e3	0.031450164
2	0x3d1fea18	0.03904161
3	0xbce5cbfd	-0.02805137
4	0x3cadd42d	0.021219337
5	0xbcd5983e	-0.026073571
6	0x3d378794	0.04480703
7	0x3cbf9f56	0.023391407
8	0xbd0ba7a5	-0.034095425
9	0x3cff4edf	0.031165538
10	0xbcc5fba2	-0.02416784
11	0xbb93066b	-0.004486849
12	0x3d1f441a	0.038883306
13	0xbcd6295a	-0.026142765
14	0x3cf0092a	0.029301245
15	0x3b97bf93	0.0046309917
16	0x3ce0190c	0.027355693
17	0x3ce950d3	0.028480923
18	0xbc2309de	-0.009951083
19	0xbd207e4e	-0.039182954
20	0x3d189590	0.03725201
21	0x3cc3a2b7	0.0238813
22	0xbc8738fa	-0.01650666
23	0xbd02b7d8	-0.03191361
24	0xbccae134	-0.024765588
25	0xbd1ea29e	-0.038729303
26	0x3cb8b30f	0.02254632
27	0xbd358dda	-0.044324733
28	0xbcd7a313	-0.026322877
29	0x3be55634	0.0069988016
30	0x3d135183	0.035966408
31	0xbd0042d9	-0.03131375
32	0xbc56067b	-0.0130630685
33	0xbcfa7349	-0.03057255
34	0x3ae23412	0.001725795
35	0xbc8b6d94	-0.017020024
36	0xbcffe8f4	-0.03123901
37	0x3a2d9696	0.00066218653
38	0xbc90ba0a	-0.017666835
39	0x3c0c0835	0.008546879
40	0x3cf6c829	0.03012474
41	0xbe130742	-0.14358237
42	0x3c742ab0	0.014902756
43	0x3cf052fe	0.029336449
44	0x3cb94201	0.02261448
45	0xbc2df7a9	-0.010618129
46	0xbcdfee9f	-0.027335463
47	0xbc9bab66	-0.019002628
48	0x3cd5c5ec	0.026095353
49	0xbc6dd443	-0.014515939
50	0xbd5f4b12	-0.054514952
51	0x3caf4ca7	0.021398855
52	0x3cba68e4	0.022755094
53	0x3cddd5c4	0.02707947
54	0x3ccd18aa	0.025036175
55	0xbc9c62de	-0.019090112
56	0xbd68d6fb	-0.056845646
57	0x3bc8c900	0.0061274767
58	0x3d2153b1	0.039386455
59	0x3cb6052d	0.022219265
60	0xbc739fbd	-0.014869628
61	0x3c771cc5	0.015082543
62	0x3cc983c0	0.024598956
63	0xbbea487a	-0.007149753

weight f4 [64]
0	0x3e3dd4a6	0.1853815
1	0x3f26b0d3	0.6511356
2	0x3f314319	0.6924301
3	0x3e3707ab	0.17874019
4	0x3e781435	0.24226458
5	0x3e536899	0.2064537
6	0x3f05035b	0.51958245
7	0x3ccb908f	0.024849204
8	0x3f1cb103	0.612076
9	0x3eac4773	0.3364826
10	0x3d9dcfdd	0.077056624
11	0x3d446cc4	0.04795529
12	0x3efcc2fa	0.49367505
13	0x3eab6ac1	0.33479884
14	0x3d2fdbf8	0.042934388
15	0x3ec40996	0.38288563
16	0x3ed7f0d9	0.4217594
17	0x3d555c58	0.05209002
18	0x3d38a20d	0.04507642
19	0x3f29471b	0.66124123
20	0x3ed8d2bf	0.42348287
21	0x3d18c8dc	0.03730093
22	0x3dc6351e	0.096781
23	0x3d3f5123	0.046708237
24	0x3e922067	0.28540346
25	0x3f3680d5	0.7129033
26	0x3e9aad81	0.30210498
27	0x3eae71ec	0.3407129
28	0x3e63b23d	0.22235961
29	0x3d943e46	0.0723844
30	0x3eccaadd	0.39974108
31	0x3dc15167	0.094393544
32	0x3d30dfb5	0.043182094
33	0x3d5103c3	0.051028978
34	0x3db20e53	0.086941384
35	0x3e545325	0.20734842
36	0x3ec22c1c	0.37924278
37	0x3e022af0	0.12711692
38	0x3e840da2	0.2579165
39	0x3dcd01cd	0.10010109
40	0x3e6e7bf4	0.23289472
41	0x3efb1d6c	0.49045885
42	0x3d1e5364	0.038653746
43	0x3cfed06a	0.031105239
44	0x3e2b1524	0.16707283
45	0x3e180499	0.14845504
46	0x3dcfbeee	0.10143839
47	0x3db9c32d	0.0907043
48	0x3e5d1b6f	0.21592496
49	0x3d534109	0.051575694
50	0x3eb21bf4	0.34786952
51	0x3e8ed5c7	0.27897474
52	0x3d1b1125	0.037858147
53	0x3dfe46ee	0.124158725
54	0x3d4c2669	0.04984132
55	0x3c4b5fa4	0.012412939
56	0x3ec24fc5	0.37951484
57	0x3d955608	0.072918
58	0x3f052a4c	0.52017665
59	0x3eb25e39	0.3483751
60	0x3e315c42	0.1732035
61	0x3e9b3cc3	0.30319795
62	0x3d37fe46	0.04492023
63	0x3d9751ca	0.07388647

bias f4 [64]
0	0xbeba7091	-0.36414006
1	0xbed9e2da	-0.42555887
2	0xbe9d63fc	-0.30740345
3	0xbd32cb0b	-0.043650668
4	0x3f0c178c	0.5472343
5	0x3d6f1b93	0.058375906
6	0x3e6000b1	0.21875264
7	0x3ead178b	0.33807024
8	0xbe132b16	-0.14371905
9	0xbdef5bd8	-0.1168744
10	0xbf12e11e	-0.5737475
11	0xbda724b8	-0.081613004
12	0x3ec2b8b2	0.38031536
13	0x3e1255fa	0.1429061
14	0x3c3d77be	0.011564193
15	0xbedb84ce	-0.4287476
16	0xbe0d0e0f	-0.13774894
17	0x3ce0c752	0.027438793
18	0xbc9bac25	-0.019002983
19	0xbe5b5b46	-0.21421537
20	0x3f0cbe78	0.5497813
21	0xbc0e50a6	-0.00868622
22	0xbd6d750c	-0.057972953
23	0xbc2ae8cd	-0.010431481
24	0x3e86a0ea	0.26294643
25	0x3e47b975	0.1950434
26	0x3eb9fb30	0.36324453
27	0x3f42c622	0.76083577
28	0x3d410047	0.047119405
29	0xbca569b9	-0.020192014
30	0x3ee2401d	0.4418954
31	0x3d1fc5a1	0.039006833
32	0xbc1a7abb	-0.009428675
33	0xbdafaf82	-0.08578397
34	0xbe20f9a9	-0.15720238
35	0x3e94eabd	0.2908534
36	0x3e54b1d1	0.20770957
37	0xbce02dee	-0.027365651
38	0xbd1beb23	-0.03806604
39	0xbce08b7b	-0.02741026
40	0xbdaba11f	-0.08380341
41	0x3f06e056	0.5268606
42	0xbd7c62df	-0.06161773
43	0xbd315693	-0.043295454
44	0x3d26680a	0.040626563
45	0xbf2c5062	-0.67310154
46	0x3da084b1	0.07837809
47	0xbe091de4	-0.13390309
48	0xbd98107a	-0.07425018
49	0xbd83d68f	-0.06437408
50	0x3eba2b6a	0.36361247
51	0xbdb8a2ad	-0.09015403
52	0xbd2b1e6c	-0.04177706
53	0xbd0e15cd	-0.03468876
54	0xbd9e7565	-0.07737235
55	0xbd5ed9d6	-0.054406963
56	0x3e9e7f1e	0.30956358
57	0x3d23c3dd	0.03998171
58	0x3dd0a39b	0.10187455
59	0xbdc1025b	-0.094242774
60	0x3d18d678	0.03731391
61	0xbe13a387	-0.1441785
62	0xbc8fd9e8	-0.01755996
63	0xbc83b280	-0.016076326

running_mean f4 [64]
0	0x3c6ee303	0.014580491
1	0xbc9f14ba	-0.019419063
2	0xbcc57ae0	-0.024106443
3	0x3c8de3a3	0.01732046
4	0xbc56a9b9	-0.0131019885
5	0x3c83e298	0.01609926
6	0xbce2a480	-0.02766633
7	0xbc6ca2ef	-0.014443143
8	0x3cac7613	0.021052396
9	0xbc9da42b	-0.01924332
10	0x3c747dbb	0.014922555
11	0x3b359010	0.0027704276
12	0xbcc4ade2	-0.024008695
13	0x3c843c32	0.016141985
14	0xbc943619	-0.018092202
15	0xbb3b6544	-0.0028594295
16	0xbc8a5ed0	-0.016890913
17	0xbc900fde	-0.017585691
18	0x3bc95685	0.006144347
19	0x3cc631e6	0.024193715
20	0xbcbc6d87	-0.023001445
21	0xbc7197a9	-0.014745631
22	0x3c26fcdc	0.010192122
23	0x3ca16cd8	0.019705221
24	0x3c7a89c8	0.015291639
25	0x3cc3e678	0.023913607
26	0xbc641655	-0.01392134
27	0x3ce033fb	0.027368536
28	0x3c85256c	0.016253196
29	0xbb8d9aea	-0.0043214457
30	0xbcb5eccd	-0.022207642
31	0x3c9e6417	0.019334836
32	0x3c0426aa	0.008065859
33	0x3c9aa450	0.018877178
34	0xba8baba1	-0.0010656008
35	0x3c2c2e5e	0.010509102
36	0x3c9e0350	0.019288689
37	0xb9d65dab	-0.0004088705
38	0x3c32b978	0.010908477
39	0xbbaced51	-0.0052773138
40	0xbc986072	-0.018600676
41	0x3db5911b	0.08865567
42	0xbc16c313	-0.009201783
43	0xbc9463b0	-0.018113941
44	0xbc64c6dc	-0.013963427
45	0x3bd6d58b	0.006556218
46	0x3c8a449c	0.016878419
47	0x3c403ce6	0.011733269
48	0xbc83fecd	-0.01611271
49	0x3c12d94c	0.00896294
50	0x3d09dfa2	0.03366054
51	0xbc587aa3	-0.013212833
52	0xbc663303	-0.014050248
53	0xbc88f921	-0.016720356
54	0xbc7d468b	-0.015458713
55	0x3c411f78	0.011787288
56	0x3d0fc4a2	0.035099633
57	0xbb77f39f	-0.0037834418
58	0xbcc73969	-0.024319367
59	0xbc60c754	-0.0137193985
60	0x3c166d47	0.009181327
61	0xbc1894b0	-0.009312794
62	0xbc78da3e	-0.015188752
63	0x3b90a8c8	0.0044146515

running_var f4 [64]
0	0x395a29a0	0.00020805607
1	0x39c17de7	0.00036905633
2	0x3a15167c	0.00056872494
3	0x3999ee3b	0.0002935993
4	0x39302948	0.00016800046
5	0x3984fd5b	0.00025365766
6	0x3a445f2e	0.00074909895
7	0x39561262	0.00020415479
8	0x39e368e3	0.0004337496
9	0x39be0165	0.00036240663
10	0x396484e1	0.00021793276
11	0x36fc0bc2	7.511554e-06
12	0x3a13e19a	0.0005641222
13	0x3985b249	0.0002550057
14	0x39a7f415	0.00032034577
15	0x3706400a	8.001933e-06
16	0x399263e7	0.00027921723
17	0x399eae55	0.00030265996
18	0x381af84f	3.6947717e-05
19	0x3a162b56	0.00057285035
20	0x3a07bbb5	0.0005177812
21	0x395f21e5	0.00021279564
22	0x38d53435	0.00010166356
23	0x39c73c82	0.0003800132
24	0x396ff67f	0.00022884643
25	0x3a12b651	0.0005596625
26	0x3946e219	0.0001896698
27	0x3a402ac8	0.00073305937
28	0x39878b85	0.00025853157
29	0x37995098	1.827655e-05
30	0x39fd0d7b	0.00048265964
31	0x39bfd123	0.00036586178
32	0x388586c3	6.3670355e-05
33	0x39b6d800	0.00034874678
34	0x35952772	1.1112845e-06
35	0x38e2abef	0.00010808545
36	0x39bee701	0.00036411735
37	0x342fac89	1.6360913e-07
38	0x38f43a34	0.00011645668
39	0x37e4a3ca	2.7255988e-05
40	0x39b186ce	0.00033860508
41	0x3bfc0ea1	0.0076921736
42	0x38adc8b7	8.286669e-05
43	0x39a85b75	0.00032111598
44	0x39481668	0.00019081833
45	0x3830713b	4.2067124e-05
46	0x39922c81	0.00027880448
47	0x390d4721	0.00013473305
48	0x39853641	0.0002540816
49	0x38a4e130	7.862074e-05
50	0x3a915749	0.0011088635
51	0x39332791	0.0001708551
52	0x394a955f	0.00019319866
53	0x398f72e8	0.00027360697
54	0x39753c33	0.00023387447
55	0x390e94e9	0.00013597649
56	0x3a9e08c4	0.0012057056
57	0x376b089f	1.4009099e-05
58	0x3a17bbb2	0.00057881617
59	0x394127b3	0.00018420703
60	0x38ad0325	8.2498686e-05
61	0x38b2009d	8.487816e-05
62	0x396cbea0	0.00022577727
63	0x379fffe6	1.9073439e-05

weight f4 [64, 1, 5]
0	0x3d05b0c7	0.03263929
1	0x3cf6b99b	0.0301178
2	0x3d43f622	0.047842152
3	0x3d35f9eb	0.044427793
4	0x3d072749	0.03299645
5	0x3c8d2deb	0.01723381
6	0x3d85bf9f	0.065306894
7	0x3e133c27	0.14378415
8	0x3cb7be40	0.022429585
9	0x3c47561c	0.012166526
10	0x3d315088	0.04328969
11	0x3e1f50fc	0.15558237
12	0x3e2eee0d	0.17082997
13	0x3e389722	0.18026403
14	0x3db24a36	0.08705561
15	0xbdfcf598	-0.12351531
16	0xbd45ceba	-0.048292853
17	0xbd430563	-0.04761256
18	0xbd9567e2	-0.07295205
19	0xbd57d8be	-0.052696936
20	0xbe306dab	-0.17229335
21	0xbd6cab24	-0.0577804
22	0x3dbc162d	0.09183917
23	0xbd3631c8	-0.04448107
24	0xbda80996	-0.08204953
25	0xbd6f1892	-0.05837304
26	0xbda415f1	-0.080119975
27	0xbd266a15	-0.04062851
28	0xbdc699de	-0.096973166
29	0xbdd40e68	-0.1035431
30	0xbf34e20b	-0.70657414
31	0xbdc77200	-0.09738541
32	0x3e025ce4	0.12730747
33	0x3d489cdf	0.04897773
34	0x3e49c959	0.19705714
35	0x3d9b6504	0.075876266
36	0x3c3b3111	0.011425273
37	0xbd3556e6	-0.044272326
38	0x3e260a47	0.16214858
39	0x3e64b84f	0.22335933
40	0x3e0a6bce	0.13517687
41	0x3dd65d8b	0.10467061
42	0x3e10b014	0.14129668
43	0x3e5bcb04	0.21464163
44	0x3d98d1ca	0.07461889
45	0xbeec3c13	-0.46139583
46	0x3caa18a7	0.020763708
47	0x3e1c2a1e	0.15250441
48	0x3e4c6067	0.1995865
49	0x3e392c46	0.18083295
50	0xbd2ab667	-0.04167786
51	0x3df40230	0.1191448
52	0x3e0e1869	0.13876499
53	0x3ca81577	0.020518048
54	0x3c4aad43	0.01237041
55	0x3c9947cf	0.018710999
56	0x3c3a1a3c	0.011358794
57	0x3cacf6e2	0.021113817
58	0x3be3df06	0.0069540767
59	0xbc137d6d	-0.009002072
60	0x3f08136f	0.53154653
61	0xbed484d7	-0.415076
62	0x3a27ba98	0.0006398349
63	0x3d1e139c	0.03859292
64	0xbd2aa236	-0.041658603
65	0xbdac1472	-0.08402337
66	0xbde3ad86	-0.11117081
67	0xbc865933	-0.016399955
68	0xbdadebcf	-0.084922425
69	0xbe5b3272	-0.21405962
70	0x3d0d7d25	0.034543175
71	0x3bd226a7	0.006413299
72	0x3c7be56b	0.015374522
73	0xbae0792e	-0.0017125958
74	0xbaded5b3	-0.0017000943
75	0x3cf57490	0.029962808
76	0x391b2864	0.00014796999
77	0xbd4e47a3	-0.050361287
78	0x3c697c99	0.014250898
79	0x3ba1b287	0.004934612
80	0xbdc6a696	-0.096997425
81	0xbe220aed	-0.1582448
82	0xbe161ba9	-0.14658989
83	0xbe06950e	-0.13142797
84	0xbde0295c	-0.10945389
85	0xbd2ca820	-0.042152524
86	0x3c106304	0.00881267
87	0x3b24bdbc	0.0025137505
88	0xbbfa4d66	-0.007638621
89	0xbcd14e50	-0.025550038
90	0x3c15af09	0.00913597
91	0xbcea9b76	-0.028638583
92	0x3cccb744	0.024989732
93	0x3bdf0b90	0.0068067983
94	0x3cda5a2b	0.026654324
95	0xbe8dee61	-0.2772093
96	0xbe011cd5	-0.12608655
97	0xbe46dcb5	-0.1942013
98	0xbe76bc6b	-0.24095313
99	0xbdad2233	-0.084537886
100	0x3ecbae26	0.39781302
101	0x3e73dd6b	0.23814933
102	0xbe4dc65d	-0.20095201
103	0xbe360a36	-0.17777333
104	0x3d726e73	0.059187364
105	0xbcb406f7	-0.021975977
106	0xbcaf9786	-0.021434557
107	0xbb1b6acd	-0.0023714781
108	0xbb85203e	-0.0040626815
109	0xbc4221ba	-0.011848861
110	0x3d89f084	0.06735328
111	0xbd74c060	-0.059753776
112	0xbc492925	-0.012277876
113	0x3d075f57	0.033049908
114	0x3d4e7d73	0.050412606
115	0xbc96d2a6	-0.018410992
116	0xbcd6cdc2	-0.02622116
117	0xbc8bfed7	-0.01708929
118	0x3c423b22	0.011854919
119	0x3c67a192	0.014137642
120	0xbcd94c8d	-0.02652576
121	0x3e531f92	0.20617512
122	0xbd19b395	-0.03752478
123	0x3c868c4d	0.016424323
124	0x3dcce9ad	0.100055076
125	0xbe34b131	-0.17645718
126	0xbe57436d	-0.21021815
127	0xbe3f452d	-0.18678732
128	0xbe41fdfd	-0.18944545
129	0xbdfd6607	-0.12372976
130	0xbe49bb38	-0.19700325
131	0x3e4c79e6	0.19968376
132	0xbc7abd3c	-0.015303906
133	0x3e0c0c26	0.1367651
134	0x3e5fa6f8	0.21841037
135	0xbe23972a	-0.15975633
136	0x3cd8520f	0.026406316
137	0x3f29f4ea	0.66389334
138	0x3d36b21b	0.04460345
139	0xbf03c7d2	-0.51476777
140	0x3dbd63c9	0.09247548
141	0x3dd4b35f	0.10385775
142	0x3dbe7e97	0.09301489
143	0x3db0d8b2	0.08635081
144	0x3d21940d	0.039447833
145	0x3c4de86f	0.0125676235
146	0xbce05498	-0.027384087
147	0xbd197c65	-0.037472147
148	0xbd2b9e35	-0.041898925
149	0xbcef5696	-0.029216092
150	0x3eb85639	0.36003283
151	0x3e980ef0	0.29698896
152	0xbdc4c2cc	-0.09607467
153	0xbe0c19bc	-0.13681692
154	0xbe2bcc60	-0.16777182
155	0x3d1f7a14	0.038934782
156	0xbdb1ca58	-0.08681172
157	0x3d0ae994	0.033914164
158	0xbc0a276f	-0.008432253
159	0x3c2e260e	0.01062919
160	0xbb125d02	-0.002233327
161	0xbd036ba8	-0.03208509
162	0x3a6ba9ce	0.00089898414
163	0xbc820602	-0.015872005
164	0x3bae6c11	0.005322941
165	0x3c9c3be5	0.019071529
166	0x3cab11d2	0.02088252
167	0x3b96128d	0.004579848
168	0x3c93b63e	0.018031236
169	0x3bddbcf8	0.0067669116
170	0xbbb0b407	-0.0053925547
171	0xbc59d4b6	-0.013295343
172	0xbcaa681f	-0.020801602
173	0xbc7726ce	-0.015084935
174	0xbcee2d53	-0.029074347
175	0x3e29a3a0	0.16566324
176	0x3d567805	0.052360553
177	0xbe32e29f	-0.17469262
178	0xbdb3f02f	-0.08786046
179	0xbdbc5172	-0.09195222
180	0xbe92d386	-0.28677005
181	0x3e228be3	0.15873675
182	0x3e6cd40d	0.23127766
183	0x3e1a3a76	0.15061364
184	0x3da62068	0.0811165
185	0x3cde6def	0.02715203
186	0x3d959b0c	0.073049635
187	0x3db49465	0.088173665
188	0xbbb1b69f	-0.0054233815
189	0x3c61e68d	0.013787878
190	0x3d660a29	0.056162033
191	0x3dc78a31	0.09743155
192	0x3e09e335	0.13465579
193	0x3dae792c	0.085192055
194	0x3d06861f	0.03284275
195	0xbd25b06c	-0.040451452
196	0xbd2efb13	-0.04271991
197	0xbd1cd541	-0.038289312
198	0xbd08b030	-0.03337115
199	0xbd38e48a	-0.045139827
200	0x3d5072b8	0.050890654
201	0x3e0d8992	0.1382201
202	0x3dd6c619	0.10487003
203	0x3da19feb	0.0789183
204	0x3d1c54e4	0.038166896
205	0xbe089287	-0.13337146
206	0x3f0fcb7e	0.5616988
207	0xbf556fa1	-0.8337346
208	0xbe261654	-0.16219455
209	0xbd860d06	-0.06545453
210	0x3b7bd928	0.0038428996
211	0x3c82c482	0.015962843
212	0x3c1fa4a3	0.009743842
213	0x3bf6c4b5	0.0075307735
214	0x3c8dd593	0.017313754
215	0x3b53356a	0.0032227882
216	0xbd02dabc	-0.031946883
217	0x3c2c1e43	0.010505262
218	0xbba1a51c	-0.0049330126
219	0xbc4a1a06	-0.012335306
220	0xbe04b5c0	-0.12959957
221	0xbd71aab0	-0.05900067
222	0xbdabe8ed	-0.083940364
223	0xbcad0662	-0.021121208
224	0xbc0f4c7f	-0.008746265
225	0x3ca64e06	0.020300876
226	0x3d1823fa	0.037143685
227	0x3ad380ba	0.0016136386
228	0x3b198ac9	0.002342867
229	0x3d5bcbaa	0.053661026
230	0xbc7fc6a3	-0.0156113235
231	0x3c84f33a	0.01622926
232	0xbc978f88	-0.018501058
233	0xbd7e80f8	-0.062134713
234	0xbd68b1e5	-0.05681028
235	0x3cd5676d	0.026050294
236	0x3be2c936	0.006920959
237	0xbb2939ee	-0.0025821882
238	0x3c8b54e6	0.017008256
239	0xbbe8c393	-0.0071033924
240	0xbd7b09b0	-0.061288536
241	0xbe6b293c	-0.22964948
242	0x3e000507	0.12501918
243	0x3df4a881	0.11946202
244	0x3d2a1ef5	0.04153343
245	0x3c176892	0.00924124
246	0x3cea0e71	0.02857134
247	0x3d5bc308	0.053652793
248	0xbb9139fc	-0.004431961
249	0xbca05165	-0.019570062
250	0xbf421110	-0.75807285
251	0xbd335fc4	-0.0437925
252	0x3e9a9684	0.3019296
253	0x3e4d1864	0.20028836
254	0x3d163e6f	0.036680635
255	0x3d914022	0.070923105

weight f4 [64, 64, 1]
0	0xba6a4d49	-0.0008937908
1	0xbd8922f5	-0.06696121
2	0xbd4ba494	-0.0497175
3	0xbca66bc2	-0.020315055
4	0xbe31bebb	-0.17357914
5	0x3ce4a3be	0.02791011
6	0x3d455098	0.048172563
7	0xbd0950d1	-0.03352434
8	0xbdbdf98a	-0.092761114
9	0x3e05baaa	0.13059488
10	0xbd3bf2a7	-0.04588571
11	0xbc0416e4	-0.008062098
12	0x3a26320e	0.0006339856
13	0x3be91e0e	0.0071141785
14	0x3a8692a8	0.0010267096
15	0x3d7efc82	0.06225253
16	0x3cc56558	0.024096176
17	0xbc36ab2b	-0.011149208
18	0x3aaf6496	0.0013381417
19	0x3db30207	0.08740621
20	0xbd195132	-0.03743095
21	0x3bed85de	0.007248624
22	0xbc38215c	-0.011238422
23	0x3c060444	0.008179728
24	0x3c4a00bc	0.012329277
25	0x3d44355c	0.04790245
26	0x3d7995af	0.060933765
27	0x3e2fba46	0.17160901
28	0xbae792d7	-0.0017667663
29	0x3ba7aa49	0.005116735
30	0xbdf9c785	-0.121962585
31	0xbc583860	-0.013197035
32	0xbb6a60b3	-0.0035763204
33	0xbc08b207	-0.008343226
34	0xbd3009e7	-0.042978194
35	0x3db3965a	0.08768912
36	0xbdfeff8f	-0.12451088
37	0x3c5815f9	0.013188832
38	0xbcfca9bd	-0.030842656
39	0x3c092c24	0.00837234
40	0xbd1f7713	-0.038931917
41	0x3df54e1d	0.119777896
42	0x3bc3de30	0.0059774145
43	0x37db1803	2.6118016e-05
44	0x3cd3625f	0.025803743
45	0x3a01b43f	0.0004947818
46	0xbcce22a8	-0.02516301
47	0xbc5f17c8	-0.01361651
48	0x3d4827be	0.048866026
49	0xbd0c479a	-0.034247972
50	0xbd8b802d	-0.06811557
51	0xbca28e38	-0.019843206
52	0x3c87c9b2	0.016575668
53	0x3bfbac9e	0.0076804897
54	0x3c0522bb	0.008125956
55	0xbb58ae63	-0.0033062927
56	0xbe269089	-0.16266073
57	0x3bf719b8	0.0075409077
58	0x3d5c1a07	0.05373576
59	0xbcddbd1d	-0.027067715
60	0xbc040f60	-0.008060306
61	0xbd475a57	-0.04867014
62	0x3a191602	0.0005839766
63	0xbbb667e8	-0.005566586
64	0x3bd07bc0	0.0063624084
65	0x3d164429	0.036686096
66	0x3d1a0514	0.0376025
67	0x3c8cff8b	0.017211696
68	0x3b6ac667	0.0035823823
69	0xbc3ee02c	-0.011650126
70	0xbb5058e2	-0.003179126
71	0xbba0a38c	-0.004902309
72	0xbd713e3e	-0.05889725
73	0x3c0575dc	0.008145776
74	0xbc1874ba	-0.0093051735
75	0x3a21f962	0.00061788235
76	0x3bb048bf	0.0053797658
77	0xbd352f2f	-0.04423445
78	0x393e5243	0.00018150457
79	0xbc59e97b	-0.013300295
80	0xbced69d5	-0.028981129
81	0xba1e3408	-0.0006034975
82	0xb98b6cd1	-0.0002659322
83	0x3dbb0194	0.091311604
84	0xbcedd142	-0.029030446
85	0xbac857bb	-0.0015284935
86	0xbb93aafb	-0.0045064664
87	0x3badb388	0.005300943
88	0xbcd280d5	-0.025696198
89	0xbd78839f	-0.0606724
90	0xbc9d6f17	-0.01921801
91	0x3c800b77	0.015630467
92	0x3b8f9b27	0.0043825093
93	0x3a403a9e	0.00073329534
94	0xbc4b25e0	-0.012399167
95	0xbb101301	-0.0021983983
96	0x3b5e67fd	0.0033936494
97	0x3bacf570	0.005278282
98	0x3b958862	0.0045633772
99	0xbad519a4	-0.0016258252
100	0x3ca0f1b9	0.019646512
101	0x3b933193	0.0044919937
102	0xbcc2063c	-0.023684613
103	0xba25de4b	-0.0006327375
104	0x3c5c6806	0.0134525355
105	0xbcb494bb	-0.022043576
106	0xbb86a69b	-0.0041092164
107	0x3beaba28	0.007163305
108	0x3c5184b0	0.012787983
109	0xbc28a0ff	-0.010292291
110	0x3ace5211	0.001574101
111	0x3aeb8a89	0.0017970364
112	0x3cf566ed	0.029956305
113	0x3bb2aaca	0.0054524885
114	0xbc6ccf1f	-0.014453678
115	0x3c5bdd06	0.013419395
116	0x3aacda41	0.0013187603
117	0xbb9ca33d	-0.0047802017
118	0xbc04f533	-0.008115101
119	0x3aa73e5b	0.0012759672
120	0xbc0dbc9c	-0.008650925
121	0xbb717966	-0.003684604
122	0xbd9c19e2	-0.07622124
123	0x3c9245f0	0.017855614
124	0xbc3a4d6c	-0.011370998
125	0xbb907226	-0.004408139
126	0x3b7c89f3	0.0038534373
127	0x3bf7c70c	0.00756157
128	0xbb53941c	-0.0032284325
129	0xbcd1a8d9	-0.025593208
130	0xbb690b8a	-0.0035559856
131	0xbbd5feff	-0.006530642
132	0xbcaf96d9	-0.021434234
133	0x3c8d4846	0.017246377
134	0x3d4145bd	0.04718565
135	0xbc04483a	-0.008073861
136	0x3d60d5c1	0.05489135
137	0x3cbd64f4	0.023119427
138	0x3ce1523d	0.027505035
139	0xbb15024e	-0.002273697
140	0xbc929e88	-0.01789786
141	0x3d3a11cf	0.04542714
142	0xbb1883ff	-0.0023272035
143	0x3c8c2b26	0.017110419
144	0xbc9b5c69	-0.018964963
145	0xbba65d3b	-0.005077032
146	0xbbcab040	-0.0061855614
147	0xbdc5e0a8	-0.096619904
148	0x3bf6e5af	0.0075347046
149	0xbb4d86dd	-0.0031360902
150	0xbbde5d29	-0.006786008
151	0xbaf945db	-0.0019018011
152	0x3d0af2ef	0.033923086
153	0x3d654e5a	0.055982925
154	0x3d5317cb	0.051536363
155	0x3dafe8b9	0.0858931
156	0x3c1c406c	0.009536844
157	0x3b0e4e43	0.0021714128
158	0xbc8d61c6	-0.017258536
159	0x3bf5bca4	0.0074992944
160	0xbaac87cb	-0.0013163028
161	0xba878388	-0.0010338882
162	0x3ad94d7c	0.0016578878
163	0x3ce682c4	0.028138526
164	0xbd61a478	-0.05508849
165	0xbb823cdc	-0.00397454
166	0x3cb0ed9a	0.021597672
167	0xba71c13e	-0.0009222216
168	0xbb022610	-0.0019859113
169	0x3da6727c	0.08127305
170	0xba032562	-0.0005002824
171	0xb937af37	-0.00017517513
172	0xbc55397c	-0.013014194
173	0x3d0503ab	0.0324742
174	0x3bd73071	0.006567054
175	0xbb503789	-0.0031771383
176	0x3b51d275	0.0032016311
177	0xbb12e1d0	-0.0022412427
178	0x3ba9c3dc	0.005180819
179	0x3c25178c	0.010076415
180	0x3c44afd3	0.01200481
181	0xb8586257	-5.159e-05
182	0x3a83fc63	0.0010069724
183	0x3b5e0fac	0.0033883853
184	0xbcbb82f3	-0.02288959
185	0x3a249b2f	0.00062792277
186	0x3dea4d88	0.11440569
187	0xbc5257b9	-0.0128382975
188	0x3c7b74f0	0.015347704
189	0x3c9a9eb8	0.018874511
190	0x3ba54e50	0.005044736
191	0xbbc853ac	-0.00611349
192	0x3b32889b	0.0027242068
193	0x3be63c8b	0.0070262603
194	0x3ab6fa26	0.0013960048
195	0x3a315255	0.00067642826
196	0x39ca88e0	0.00038630422
197	0x3b5baa13	0.003351812
198	0xbb3b1833	-0.002854836
199	0xbb4d7c3c	-0.0031354567
200	0x3a388c55	0.0007039954
201	0xbbc455a2	-0.0059916535
202	0xba50d01d	-0.00079655816
203	0xb908d5f6	-0.00013049677
204	0xbb4746e8	-0.0030407254
205	0x3b79c646	0.0038112565
206	0x3b468fe2	0.0030298163
207	0xbb111c59	-0.002214214
208	0xbb99fce5	-0.004699337
209	0xbabd5c0c	-0.0014446988
210	0x38e11456	0.00010732624
211	0x3a460912	0.0007554452
212	0x3b192e03	0.0023373372
213	0x39a65511	0.00031725367
214	0xbb401124	-0.0029307092
215	0xba7b1adf	-0.0009578894
216	0xbb9c5b5d	-0.0047716335
217	0x3aa31ed9	0.0012445106
218	0xbb7c7649	-0.0038522652
219	0xbb0d5526	-0.0021565645
220	0x3b77175c	0.0037703132
221	0xbaebab43	-0.0017980117
222	0xba3f97cc	-0.0007308691
223	0xbb12fac1	-0.0022427293
224	0x3b78a1e4	0.0037938291
225	0xb991f5ba	-0.00027839636
226	0x3add96d5	0.0016905913
227	0x3a6dfd46	0.0009078573
228	0x3b26b9de	0.0025440375
229	0x3b52ecc2	0.0032184576
230	0x39cd25a6	0.00039128697
231	0x3b62e598	0.0034621712
232	0x3a88294d	0.0010388285
233	0xba9a6e31	-0.0011782107
234	0xbb7d731a	-0.0038673342
235	0x3b15b3b3	0.0022842705
236	0xbb1b919d	-0.0023737915
237	0xbacc4342	-0.0015584009
238	0xbb93032d	-0.0044864626
239	0x3ac7ad4a	0.0015234139
240	0xbb5acaea	-0.0033385106
241	0xbae454dc	-0.001742031
242	0x3bc6bec0	0.0060652196
243	0xbaed1b75	-0.0018089848
244	0xbafd059d	-0.0019304041
245	0x3a85ed3c	0.0010217796
246	0xbba604db	-0.005066497
247	0xbb1e6967	-0.0024171711
248	0x3b97f86e	0.0046377694
249	0x3b5ef6dd	0.0034021654
250	0x3b7ec2b6	0.003887338
251	0x3b94492b	0.004525324
252	0xba6cb1dd	-0.0009029189
253	0xbb0d6916	-0.0021577529
254	0xb9fa1bc5	-0.00047704406
255	0xbacc8e41	-0.001560636

weight f4 [64]
0	0x3ea413c8	0.32046342
1	0x3e35bb38	0.177472
2	0x3e35c6de	0.17751643
3	0x3cfe37b9	0.03103243
4	0x3d144d84	0.036206737
5	0x3e953bb5	0.29147115
6	0x3de0bc05	0.10973362
7	0x3efcbd49	0.49363163
8	0x3d92a8ea	0.07161124
9	0x3e040d6a	0.12895742
10	0x3f42cb7f	0.7609176
11	0x3e86f97b	0.26362213
12	0x3dabc787	0.08387666
13	0x3e37c979	0.1794795
14	0x3ce729e0	0.02821821
15	0x3de145f8	0.109996736
16	0x3d594f93	0.053054404
17	0x3e74dfb0	0.23913455
18	0x3e937a86	0.28804415
19	0x3def22f7	0.11676591
20	0x3e2ab650	0.16671109
21	0x3f639627	0.8890099
22	0x3cf0248d	0.029314304
23	0x3e23ac4f	0.159837
24	0x3e48ebd2	0.19621208
25	0x3ead23a8	0.33816266
26	0x3e176f0a	0.14788452
27	0x3e6ffea5	0.23436983
28	0x3e16474c	0.14675635
29	0x3f0dee5d	0.5544184
30	0x3f1b1768	0.6058259
31	0x3e20d357	0.1570562
32	0x3f160ad3	0.58610266
33	0x3cf56b94	0.029958524
34	0x3e42c894	0.19021827
35	0x3db86446	0.09003501
36	0x3e367562	0.17818215
37	0x3d2364e2	0.03989113
38	0x3f076c4e	0.52899635
39	0x3e92a87c	0.28644168
40	0x3dab393c	0.08360526
41	0x3d8cd71e	0.06876968
42	0x3e26e162	0.16296914
43	0x3f157712	0.5838481
44	0x3debaf2c	0.11508021
45	0x3ce2ea57	0.027699633
46	0x3d02e298	0.031954378
47	0x3e05914e	0.1304371
48	0x3e44c4e2	0.1921573
49	0x3e520cd1	0.20512702
50	0x3e18e640	0.14931583
51	0x3f290de4	0.6603682
52	0x3edc7d5a	0.43064386
53	0x3f34ccea	0.70625174
54	0x3f3c72c2	0.73612607
55	0x3ddb5877	0.10710233
56	0x3e4f9033	0.20269851
57	0x3d16cccc	0.036816403
58	0x3f4d7a18	0.80264425
59	0x3ccf31ce	0.025292303
60	0x3d2a6397	0.041598883
61	0x3dd20690	0.10255158
62	0x3f120573	0.57039565
63	0x3e246f76	0.16058144

bias f4 [64]
0	0xbe4f37a1	-0.20236064
1	0xbd86dc2f	-0.065849654
2	0x3d8ca4b3	0.068673514
3	0xba293db4	-0.0006456033
4	0xbcb109aa	-0.021611053
5	0xbecbc622	-0.397996
6	0x3c0f742b	0.008755724
7	0x3df69579	0.120402284
8	0x3c83fa99	0.016110705
9	0xbd557a19	-0.052118395
10	0xbdc14a81	-0.094380386
11	0xbe075b05	-0.13218315
12	0xbdf85712	-0.12125982
13	0x3cb94b8c	0.022619031
14	0xbb5c42e8	-0.0033609215
15	0xbd0add85	-0.033902664
16	0x3c960e89	0.018317478
17	0xbc456c4d	-0.012049747
18	0xbe77dbc0	-0.24204922
19	0xbb7894bc	-0.003793045
20	0xbd2eaf17	-0.042647447
21	0xbefdaf6a	-0.49547893
22	0xbaf60c75	-0.0018772023
23	0xbd9568c4	-0.07295373
24	0xbd82aec6	-0.06380992
25	0xbe7a621c	-0.24451488
26	0x3c8cf444	0.017206319
27	0xbe1d9176	-0.1538752
28	0xbd8c9003	-0.068634056
29	0xbe931f53	-0.28734836
30	0xbecfaff4	-0.4056393
31	0xbf02370c	-0.50865245
32	0xbe603677	-0.21895777
33	0xbaba0ea2	-0.0014195035
34	0x3de66d0d	0.112512685
35	0xbd932da2	-0.07186438
36	0x3d49755c	0.04918419
37	0x3b92cf34	0.004480267
38	0xbd495270	-0.049150884
39	0xbee9dcc5	-0.45676246
40	0x3c294f84	0.010333899
41	0x3bd56a83	0.0065129413
42	0xbec0cb2c	-0.37655008
43	0xbd18d891	-0.03731591
44	0xbe0329b6	-0.1280888
45	0xbcb1ec16	-0.02171902
46	0x3a1bf811	0.00059497455
47	0xbdac3823	-0.08409145
48	0x3b998bb1	0.004685842
49	0xbe2965ff	-0.16542815
50	0xbc9a546a	-0.01883908
51	0xbde287cc	-0.110610574
52	0xbe5d1fac	-0.21594113
53	0xbe066860	-0.13125753
54	0xbe0ecf68	-0.13946307
55	0xbd3f70f5	-0.046738584
56	0xbe25be5c	-0.16185898
57	0x3a87f95c	0.0010373998
58	0xbdba21be	-0.09088467
59	0xbcc5e5cc	-0.024157427
60	0xbd619438	-0.055072993
61	0x3cd68e28	0.026190832
62	0xbd9ad31b	-0.075597964
63	0xbe1d502f	-0.15362619

running_mean f4 [64]
0	0xbda776cf	-0.08176958
1	0xb9c865ff	-0.00038222966
2	0xbc3914ad	-0.011296433
3	0xba3d8aad	-0.0007230442
4	0xbbea2580	-0.0071455836
5	0xbd27ea30	-0.040994823
6	0xbc1d36d2	-0.00959559
7	0xbde7d0fc	-0.113191575
8	0x3bad52b9	0.0052894023
9	0xbcdadcd9	-0.026716636
10	0xbea5cd2e	-0.32383102
11	0x3b0f2c43	0.002184645
12	0xbb83b70e	-0.0040196246
13	0x3d0c5ea7	0.034269955
14	0x3abc7aec	0.0014379895
15	0x3c4858ff	0.01222825
16	0x3bb9e5da	0.0056731524
17	0xbd09cbfe	-0.033641808
18	0xbdb34645	-0.08753637
19	0xbc752c5a	-0.0149641875
20	0x3ad57e79	0.0016288302
21	0xbe1aa5ec	-0.15102357
22	0xb9c56f3b	-0.0003765764
23	0xbd499dc3	-0.04922272
24	0x3c8abf15	0.016936818
25	0xbd6f7cf5	-0.058468778
26	0x3c6a5cf7	0.014304391
27	0xbd969877	-0.07353299
28	0xbcbe3845	-0.02322019
29	0x3c475f20	0.012168676
30	0xbe556448	-0.20839036
31	0xbd22e4a5	-0.039768834
32	0xbd80ddf7	-0.062923364
33	0xb95a2fad	-0.0002080786
34	0x3ce5e77d	0.028064484
35	0xbc5ba899	-0.013406896
36	0x3ba523a1	0.0050396477
37	0x3ac9c48c	0.0015393659
38	0xbdd50bc7	-0.10402637
39	0xbd61164a	-0.054952897
40	0x3ba9dea3	0.005184011
41	0xbb652e44	-0.0034970203
42	0xbd8ad574	-0.06778994
43	0xbdde9774	-0.10868731
44	0xbc43b3f3	-0.011944759
45	0xba1abe9e	-0.0005903038
46	0xbb4ac698	-0.0030941125
47	0xbc3f629a	-0.011681223
48	0x3c086d62	0.00832686
49	0xbe26ec4b	-0.16301076
50	0x3c0c1481	0.00854981
51	0xbe6a13e7	-0.22859155
52	0xbc60d17e	-0.013721822
53	0xbe9b2de8	-0.3030846
54	0xbe698a5a	-0.22806683
55	0xbd0373c9	-0.032092843
56	0x3d997539	0.074930616
57	0xbb3b1ffb	-0.0028552997
58	0x3c007965	0.007841443
59	0xba8f8c76	-0.0010951895
60	0x3abc5caf	0.0014370884
61	0xbcc8eee9	-0.024527984
62	0xbda39305	-0.07987026
63	0x3d8ef2db	0.06979915

running_var f4 [64]
0	0x3c8b4302	0.016999725
1	0x397b3e8b	0.00023960524
2	0x3b0fcb1c	0.002194113
3	0x378b96c8	1.6640304e-05
4	0x390ef5de	0.00013633768
5	0x3b49dec8	0.0030802954
6	0x3a3cd0a2	0.00072027196
7	0x3cc58c0c	0.024114631
8	0x38883026	6.493954e-05
9	0x3ad3cd44	0.0016159196
10	0x3e06610c	0.13122958
11	0x3b5bac17	0.0033519322
12	0x38806614	6.122529e-05
13	0x3aed0549	0.001808324
14	0x35a57c7d	1.2329689e-06
15	0x39eb2b71	0.0004485506
16	0x381b10e4	3.697061e-05
17	0x3b38dbfa	0.0028207288
18	0x3c899175	0.016792992
19	0x3a299955	0.00064696866
20	0x3b3da5b7	0.0028937885
21	0x3d1a79b7	0.037713733
22	0x37aeda97	2.0844205e-05
23	0x3b1302c6	0.0022432073
24	0x3bb8f37b	0.0056442595
25	0x3b0030ee	0.0019560414
26	0x3a1429c6	0.00056519767
27	0x3bf7a7fa	0.007557866
28	0x3a1b5176	0.00059249194
29	0x3c220e95	0.009891172
30	0x3c427df3	0.011870849
31	0x3c0853f6	0.008320799
32	0x3bcd3bb1	0.0062632193
33	0x372c12d6	1.02563845e-05
34	0x3b5e3c45	0.0033910435
35	0x3a8c3688	0.0010697404
36	0x3ad6536a	0.0016351764
37	0x37be2f7e	2.267188e-05
38	0x3cf693c2	0.030099753
39	0x3b5704e4	0.0032809312
40	0x39c7e82f	0.00038129228
41	0x38715654	5.7539277e-05
42	0x3b1d4854	0.002399941
43	0x3d8eab75	0.069662966
44	0x39e7bc6a	0.00044200133
45	0x36894f75	4.092168e-06
46	0x36c2d12e	5.8060023e-06
47	0x3a179b9d	0.0005783381
48	0x3b3f83b1	0.0029222781
49	0x3bfc3b2e	0.0076974845
50	0x3aaa6202	0.0012999179
51	0x3d002b76	0.031291448
52	0x3b9bb867	0.004752207
53	0x3df99e77	0.12188428
54	0x3d8eb4ab	0.069680534
55	0x3a87e7f9	0.0010368816
56	0x3cb23884	0.021755464
57	0x382dcc44	4.143665e-05
58	0x3dbf1560	0.09330249
59	0x35fecfa0	1.8984902e-06
60	0x37d58f64	2.545835e-05
61	0x39cd63e1	0.00039175063
62	0x3c6654fb	0.014058347
63	0x3b35b4d7	0.0027726197

weight f4 [64, 1, 3]
0	0xbddf14ed	-0.10892663
1	0x3dcdda7b	0.100514375
2	0x3e885b76	0.2663228
3	0x3dcd6020	0.100281
4	0x3db2246e	0.08698355
5	0x3dd4614b	0.1037012
6	0x3d2d3ce6	0.042294405
7	0x3db4e6ec	0.08833107
8	0x3dda85fd	0.106700875
9	0xbc282332	-0.0102622975
10	0xbc7a120e	-0.015263094
11	0x3c72e3da	0.014824832
12	0xbc07fdf4	-0.008300293
13	0x3d073379	0.033008073
14	0xbcb66414	-0.022264518
15	0xbe112733	-0.1417511
16	0xbdb043d4	-0.08606687
17	0xbdab6496	-0.083687946
18	0xbd3c5351	-0.045977894
19	0xbd1e6149	-0.038666997
20	0xbd8df995	-0.069323696
21	0x3e2e5990	0.17026353
22	0x3e6e7624	0.23287255
23	0x3e6bef3e	0.23040482
24	0x3d64b71f	0.0558387
25	0x3ca09c28	0.019605711
26	0x3d2616e3	0.04054917
27	0xbc016c6d	-0.007899386
28	0xbd813ec6	-0.06310801
29	0xbdcc7381	-0.09982968
30	0x3e8c605c	0.27417266
31	0xbf59d1b1	-0.8508559
32	0x3ebbedf5	0.36704984
33	0x3d0227c6	0.031776212
34	0x3d3d26df	0.04617965
35	0x3e57b737	0.21065985
36	0x3bae2fed	0.005315772
37	0x3c9f45a3	0.019442385
38	0x3cbdadad	0.023154104
39	0x3dba45d1	0.09095348
40	0x3e02ed83	0.12785916
41	0x3d482e06	0.048872016
42	0xba837aed	-0.0010031142
43	0x3c142ec3	0.009044352
44	0xbaaf75ba	-0.0013386526
45	0xbd9c266c	-0.07624516
46	0xbd0138da	-0.03154836
47	0xbd08e56e	-0.033421926
48	0xbd4722d0	-0.048617184
49	0xbcbfd917	-0.023418946
50	0xbc3bc9fd	-0.011461732
51	0xbe6c17ca	-0.2305595
52	0xbd36a7fd	-0.0445938
53	0x3d92ecdd	0.07174084
54	0xbd87ff38	-0.06640476
55	0xbd688c70	-0.056774557
56	0xbcb678d5	-0.022274414
57	0x3db58551	0.08863319
58	0x3d8b8223	0.06811931
59	0x3bbbaa4a	0.005727087
60	0xbc829250	-0.015938908
61	0xbd9d200e	-0.076721296
62	0xbdd9d6a5	-0.10636643
63	0xbd0e28eb	-0.03470699
64	0x3e35f721	0.17770053
65	0x3e3ade1c	0.1824879
66	0x3ba61e23	0.0050695105
67	0xbbe2c7af	-0.006920777
68	0x3c957a9f	0.018246947
69	0xbb237f2c	-0.0024947627
70	0xbd769926	-0.060204647
71	0xbdd0388a	-0.10167034
72	0x3d30fd6e	0.04321044
73	0x3db7e8b3	0.08979931
74	0x3de10b9e	0.10988544
75	0x3d84ac75	0.06478206
76	0x3d6a1089	0.057144675
77	0x3e2ac261	0.16675712
78	0x3d0e48db	0.03473745
79	0xbdddf3fa	-0.108375505
80	0xbdbd2cbf	-0.0923705
81	0xbe021507	-0.12703334
82	0xbe0a2a30	-0.13492656
83	0xbc87fa4a	-0.01659884
84	0xbd830ab6	-0.06398527
85	0xbdb0185e	-0.08598398
86	0xbdbe6b7c	-0.09297845
87	0x3e7561d0	0.23963094
88	0x3e77e669	0.24208988
89	0x3e7115b1	0.23543431
90	0x3d3a05e5	0.045415778
91	0xbd900cd2	-0.07033695
92	0xbde4991f	-0.11162018
93	0x3cd5c064	0.026092716
94	0xbd9f9a1b	-0.07793065
95	0xbe02bda2	-0.12767652
96	0x3d85b54c	0.0652872
97	0x3e5d36a8	0.21602881
98	0x3e7d8948	0.247594
99	0x3c4c81e0	0.0124821365
100	0xbc93bb40	-0.018033624
101	0x3bdce6ee	0.006741396
102	0xbdbf0640	-0.09327364
103	0xbdc70c1c	-0.097191066
104	0xbe005068	-0.12530673
105	0x3d5db958	0.054131836
106	0x3cd50243	0.026002055
107	0xbc3237fd	-0.010877606
108	0x3dc19fe5	0.094543256
109	0x3dfb6e55	0.122769035
110	0x3daacc9d	0.08339808
111	0xbcd6f316	-0.02623896
112	0xbcb41954	-0.021984734
113	0x3b5df952	0.003387053
114	0x3e2f3ffe	0.17114255
115	0x3dc61d4d	0.096735574
116	0x3e84132c	0.25795877
117	0xbd255030	-0.040359676
118	0xbdc26901	-0.09492684
119	0xbe05eb57	-0.13078056
120	0xbd4eeae8	-0.050516993
121	0xbd021b37	-0.031764235
122	0xbcea1cd9	-0.028578209
123	0x3d0c9683	0.034323227
124	0x3d1d224d	0.03836279
125	0x3d19a24e	0.0375083
126	0x3dbad1bd	0.09122036
127	0x3d15d685	0.036581535
128	0x3c154c6b	0.009112458
129	0x3d1d5c59	0.038418148
130	0xbd958769	-0.07301218
131	0xbee29d97	-0.44260857
132	0x3ccac5ca	0.024752516
133	0x3d66c1ac	0.056337044
134	0x3d6f0e6d	0.058363367
135	0x3b35ef9b	0.0027761224
136	0x3c562c61	0.013072104
137	0x3bf28ad9	0.007401806
138	0xba0e16fc	-0.0005420295
139	0xbc2f508f	-0.010700359
140	0x3c7f5e56	0.015586456
141	0x3d84bad5	0.06480948
142	0x3d931992	0.071826115
143	0x3dbbfbe1	0.091789015
144	0x3dab6b83	0.083701156
145	0x3dbbf19d	0.091769435
146	0x3dbcc2a2	0.09216811
147	0xbc39e800	-0.011346817
148	0x3d9d0a3f	0.0766797
149	0x3df2fae6	0.11864261
150	0x3dabc246	0.08386664
151	0x3da55abe	0.08073948
152	0x3d960422	0.07325007
153	0x3e00fd58	0.12596643
154	0x3e96580b	0.29364046
155	0x3e2a746b	0.16645972
156	0x3df65d7a	0.12029548
157	0xbde0b5a8	-0.10972148
158	0xbe463e1d	-0.19359632
159	0xbee315a7	-0.44352457
160	0xbd8aad97	-0.06771391
161	0x3f457adb	0.7714059
162	0x3ef05077	0.4693639
163	0xbf17da99	-0.5931793
164	0x3eada45d	0.33914462
165	0xbcacdffa	-0.021102894
166	0xbd8e32a8	-0.06943256
167	0xbd8239ab	-0.063586555
168	0xbc879756	-0.016551655
169	0x3d470d52	0.048596688
170	0x3e022647	0.12709914
171	0xbc1a747d	-0.009427187
172	0x3b03d9be	0.0020118798
173	0x3cc882d9	0.024476456
174	0xbf103fea	-0.56347525
175	0xbdfe35f9	-0.12412638
176	0xbe00e713	-0.12588148
177	0xbbeb7f26	-0.007186788
178	0xbc4d67ab	-0.012536923
179	0xbc2de758	-0.010614239
180	0xbbee61db	-0.007274849
181	0x3cf7cb62	0.030248348
182	0x3ccdd1e5	0.0251245
183	0xbdc9bfee	-0.09851061
184	0x3ccd72dd	0.025079185
185	0x3ce7c23a	0.028290857
186	0x3c6ada82	0.014334323
187	0x3dc3b8ee	0.09556757
188	0x3e904301	0.2817612
189	0x3d28543a	0.04109595
190	0x3d29d806	0.04146578
191	0x3d870004	0.065918

weight f4 [64, 64, 1]
0	0xbd08c7c9	-0.033393655
1	0xbc98a0e9	-0.018631415
2	0xbcf5eb91	-0.030019553
3	0x3a84911b	0.0010114046
4	0x3951289e	0.00019946924
5	0xbd4b772e	-0.049674205
6	0x3c4bb985	0.012434368
7	0xbbb094b3	-0.00538882
8	0xbc56d307	-0.013111836
9	0x3bda131f	0.0066551114
10	0x3e462c26	0.19352779
11	0xbcb1cb7a	-0.02170347
12	0x3c26563a	0.010152394
13	0xbcc1a1f5	-0.023636797
14	0xba7e324e	-0.0009696827
15	0x3c00502f	0.007831617
16	0x3bed5ef7	0.0072439867
17	0x3db5117c	0.088412255
18	0x3d5ab5bc	0.05339597
19	0xbc95042e	-0.01819047
20	0x3c4ac805	0.01237679
21	0x3d8f1dde	0.069881186
22	0xba834e90	-0.001001792
23	0xbb629cdd	-0.003457836
24	0xbc42a1fc	-0.01187944
25	0x3d32d2e1	0.04365814
26	0x3c568e04	0.013095383
27	0xbd0144ec	-0.03155987
28	0x3c614bd1	0.013750986
29	0xbd8f4671	-0.069958575
30	0xbc99bf75	-0.018768052
31	0x3d317135	0.043320853
32	0xbd6b4226	-0.05743613
33	0xba9db32b	-0.0012031546
34	0x3cfe3cce	0.031034853
35	0x3b124959	0.002232155
36	0xb9a928f6	-0.0003226471
37	0x3b5285ef	0.0032123288
38	0x3d8783c8	0.06616932
39	0xbd0f59f7	-0.034997907
40	0x3c6f20e0	0.01459524
41	0xbc325fc3	-0.010887089
42	0xbd33fcdf	-0.04394233
43	0xbd9cfe86	-0.07665734
44	0x3ce1a916	0.027546447
45	0xbbb370b1	-0.0054760803
46	0x39bb5826	0.00035733095
47	0x3d047679	0.032339547
48	0xbc4ade78	-0.012382142
49	0xbcc75db6	-0.024336677
50	0x39f0e5e0	0.00045947637
51	0xbdbd29da	-0.09236498
52	0x3d8e1dad	0.06939254
53	0x3e73c128	0.23804152
54	0xbe514b05	-0.20438774
55	0x3bb8eb92	0.0056433165
56	0xbc9f8a73	-0.019475197
57	0xba9b60fe	-0.0011854467
58	0x3cf5a11c	0.02998405
59	0x3bf74217	0.0075457203
60	0xbcc839d2	-0.024441633
61	0x3c8f7664	0.017512508
62	0xbdbe8fdc	-0.09304783
63	0x3c9bc025	0.01901252
64	0xbda8801c	-0.0822756
65	0xbbae3a5d	-0.005317016
66	0xbcf0d645	-0.029399047
67	0x3aac1f68	0.0013131918
68	0x39d02559	0.00039700678
69	0x3a317487	0.0006769378
70	0x3bd89433	0.0066094636
71	0x3c1fed08	0.0097611025
72	0xbbd778e8	-0.0065756924
73	0x3c2a3470	0.010388479
74	0xbddf0746	-0.10890059
75	0xbd91bc39	-0.07115979
76	0xbb7a7805	-0.003821851
77	0xbc8c74d9	-0.017145561
78	0x3a8842f7	0.0010395934
79	0x3c1d9b7f	0.009619593
80	0x3a560302	0.00081639003
81	0x3d945b79	0.072440095
82	0xbbe73866	-0.0070562838
83	0xbc8517ee	-0.016246762
84	0x3c2b7167	0.010464049
85	0xbd206268	-0.039156348
86	0x3b872399	0.0041241166
87	0x3c821be7	0.015882445
88	0xbc8d3192	-0.017235551
89	0xbc53b907	-0.012922532
90	0x3cfdd8c4	0.030987151
91	0x3c3b2f46	0.011424845
92	0x39cf8a43	0.0003958513
93	0xbd7a1243	-0.061052572
94	0x3c672403	0.014107707
95	0x3c8383f4	0.016054131
96	0xbcbbda87	-0.02293135
97	0x39acbe82	0.00032948336
98	0x3cc0f4fe	0.023554321
99	0x3c0985c7	0.008393711
100	0xbc6da985	-0.014505749
101	0xbb2e67b7	-0.0026612112
102	0x3d42a6cb	0.047522347
103	0x3c3aebfa	0.0114088
104	0xbb34af7d	-0.002757042
105	0xbb5de266	-0.0033856868
106	0xbb5d526f	-0.0033771058
107	0xbce2c999	-0.02768402
108	0xbb86e903	-0.0041171326
109	0xbaf20018	-0.0018463163
110	0x3a79622f	0.00095132267
111	0x3b8e7490	0.0043473914
112	0xbc242b57	-0.010020099
113	0x3cb16b87	0.021657718
114	0xbc7f3643	-0.015576902
115	0xbd09a7ad	-0.033607174
116	0x3c7129f3	0.014719474
117	0xbed40010	-0.41406298
118	0x3d247800	0.040153503
119	0x3ba71016	0.005098353
120	0xbcf3d903	-0.029766565
121	0xbbdcf6b0	-0.0067432746
122	0x3bc0b702	0.005881191
123	0x3aa02749	0.0012218739
124	0xbb2008cd	-0.0024419308
125	0x3c27505c	0.01021203
126	0xbc0b7a7c	-0.008513089
127	0xbba53b73	-0.0050424873
128	0x3d6d5d03	0.05795003
129	0xbbf018b7	-0.007327165
130	0x3ca0df13	0.01963762
131	0xbb2df336	-0.002654267
132	0xbb9c079b	-0.004761649
133	0x3c61486d	0.013750178
134	0x3abbb765	0.0014321624
135	0x3d35f74b	0.04442529
136	0x386374b5	5.422971e-05
137	0x39896ce4	0.00026211806
138	0xbde2eebd	-0.11080692
139	0xbd014ec4	-0.031569257
140	0x3bcaf05a	0.006193203
141	0x3a4838d1	0.0007637861
142	0x3b4da52b	0.0031378965
143	0x3c07715f	0.008266776
144	0x3bbee9d4	0.0058262143
145	0xbdb1d336	-0.086828634
146	0xbd29fede	-0.041502826
147	0x3d2f477e	0.04279279
148	0x3b8b6379	0.0042538014
149	0xbd45e500	-0.048314095
150	0xbb67bbe3	-0.0035359792
151	0x3c31661f	0.01082757
152	0xbccf2990	-0.025288373
153	0xbca4c20e	-0.020112064
154	0x3a2fc660	0.00067052804
155	0x3cb3a688	0.021929994
156	0x3b986bc7	0.00465152
157	0xbd0340d7	-0.032044258
158	0x3c27f191	0.010250465
159	0xbabfde93	-0.0014638476
160	0xbce94ae3	-0.028478092
161	0x3b4960b5	0.0030727808
162	0x3b937f1c	0.0045012366
163	0x3b8eb4e5	0.0043550604
164	0x3c83443f	0.016023753
165	0x3b945153	0.004526296
166	0x3d749a35	0.059717376
167	0xb8383be6	-4.3924803e-05
168	0x3c11bbf0	0.008894905
169	0xbbe32596	-0.006931971
170	0x3c3c6789	0.011499294
171	0x3d26dd60	0.040738463
172	0xbc8bfb32	-0.017087553
173	0x3abbc66b	0.0014326101
174	0xbac2a171	-0.0014849139
175	0x3a91e97d	0.0011132207
176	0xbc320839	-0.010866218
177	0xbd1bd4d6	-0.038044773
178	0x3a6e92c8	0.00091008516
179	0x3dcfba05	0.10142902
180	0xbd113a02	-0.03545571
181	0x3e269b1f	0.16270112
182	0x3d37c954	0.044869736
183	0x3baa651a	0.0052000405
184	0xbbe42284	-0.0069621224
185	0x3abcf762	0.0014416988
186	0x3db9f32b	0.09079584
187	0x3b8ba6a9	0.004261811
188	0xbc86bad0	-0.016446501
189	0xbd526f56	-0.05137571
190	0xbc8dead9	-0.017323898
191	0xbc573dac	-0.013137262
192	0x3dd8c958	0.10585278
193	0x3bb259c4	0.00544283
194	0xbc859a57	-0.016308947
195	0xbb861b12	-0.0040925825
196	0x3b3f8771	0.0029225016
197	0x3cbfdc96	0.023420613
198	0xb761fc29	-1.3469756e-05
199	0x3dac0f67	0.08401375
200	0xbaf43c3a	-0.0018633672
201	0x3c5f52f0	0.013630614
202	0xbe2694c2	-0.16267684
203	0xbc094dbb	-0.008380349
204	0xbb57abca	-0.003290879
205	0xbbac84a7	-0.005264837
206	0x39cdc3cf	0.00039246536
207	0x3bbced24	0.005765574
208	0xba69ab5e	-0.00089137803
209	0x3d385457	0.045002308
210	0xbd8a4900	-0.06752205
211	0xbc16c43d	-0.00920206
212	0xbc1ebfd8	-0.009689294
213	0xbda46596	-0.080271885
214	0xbaf2fdf0	-0.0018538814
215	0x3c94fd7f	0.018187283
216	0xbc305a49	-0.010763713
217	0xbd569f47	-0.052397992
218	0xbae4c361	-0.0017453247
219	0x3c079ba9	0.008276858
220	0x3a9ba925	0.001187597
221	0x3c86b35e	0.01644295
222	0x3d330299	0.04370365
223	0xbbaaaa71	-0.0052083065
224	0x3c2c33c0	0.010510385
225	0xbb41fa38	-0.0029598605
226	0x3c13f37b	0.009030218
227	0xbc138a8b	-0.009005199
228	0xbc6f8458	-0.014618956
229	0x3b8c632a	0.004284282
230	0x3e487eaa	0.19579569
231	0x3cdc67e9	0.026905017
232	0x3c25864f	0.010102822
233	0xbb71efd2	-0.0036916626
234	0x3cbc6798	0.022998616
235	0x3e3638ec	0.17795151
236	0xbce0bada	-0.027432848
237	0x3bab1775	0.005221302
238	0xbb2418d7	-0.002503922
239	0x3bcc5410	0.006235607
240	0x3b3799e8	0.002801532
241	0x3d08e4a9	0.033421192
242	0x3c64d1fd	0.013966081
243	0x3d3d3958	0.046197265
244	0xbd07fdc3	-0.03320099
245	0xbce85cab	-0.0283645
246	0x3e35d18a	0.17755714
247	0x3bf9f237	0.007627751
248	0xbd3db1c8	-0.046312124
249	0x3b34e3e4	0.0027601654
250	0x3d8e419d	0.069461085
251	0x3a509e2e	0.0007958141
252	0xbbcf9187	-0.006334487
253	0x3bec459b	0.007210446
254	0x3d0e41eb	0.034730833
255	0xbc1d4d46	-0.009600943

weight f4 [64]
0	0x3eaa71d1	0.3328996
1	0x3e98ac67	0.29819033
2	0x3e47aef5	0.19500335
3	0x3ea0dbe4	0.31417763
4	0x3e8b366e	0.27189964
5	0x3ef77d3a	0.48337728
6	0x3e9c5c53	0.30539188
7	0x3ed46c20	0.41488743
8	0x3ee6b8f2	0.45062977
9	0x3ed612fc	0.4181136
10	0x3e3f2086	0.1866475
11	0x3f0bdfce	0.54638374
12	0x3ee83bc1	0.4535809
13	0x3e89f18a	0.26942092
14	0x3f0dc708	0.5538182
15	0x3e6930cf	0.22772525
16	0x3f2db7cf	0.67858595
17	0x3e6f9787	0.23397647
18	0x3e8ef8f0	0.279243
19	0x3e96ff2a	0.2949155
20	0x3e4fdee0	0.20299864
21	0x3eb11d5d	0.34592715
22	0x3f02e199	0.51125485
23	0x3eed540a	0.4635318
24	0x3eacf2ed	0.33779088
25	0x3e9f943d	0.31167784
26	0x3eac7fcf	0.3369126
27	0x3e8135b8	0.25236297
28	0x3ee74426	0.4516918
29	0x3ed85f90	0.42260408
30	0x3f45261f	0.77011293
31	0x3e637f0a	0.2221643
32	0x3e802274	0.25026286
33	0x3e87ed30	0.26548147
34	0x3ea8b86e	0.3295321
35	0x3eaba89f	0.33527085
36	0x3eb22736	0.3479554
37	0x3e6e5cc3	0.23277573
38	0x3ec96fe9	0.39343193
39	0x3d944659	0.0723998
40	0x3eb6cb36	0.35701913
41	0x3e4cd3a1	0.20002605
42	0x3e8f1254	0.2794367
43	0x3ed7f570	0.4217944
44	0x3d3f37f7	0.04668423
45	0x3e66d7dd	0.22543283
46	0x3ef18b64	0.4717666
47	0x3eb96f85	0.36217895
48	0x3f1b8afb	0.6075894
49	0x3e8d3c6e	0.27585167
50	0x3ef2de6e	0.47435325
51	0x3eaa7b6c	0.33297288
52	0x3e3e5ef3	0.18590908
53	0x3e6c9bb5	0.23106273
54	0x3e37a604	0.17934424
55	0x3e733008	0.23748791
56	0x3f0a0209	0.53909355
57	0x3edb4983	0.42829522
58	0x3ede8212	0.4345861
59	0x3e2af6f8	0.16695774
60	0x3d04946b	0.032368105
61	0x3e590801	0.2119446
62	0x3d43986e	0.04775279
63	0x3ee6770e	0.45012707

bias f4 [64]
0	0xbde90431	-0.113777526
1	0xbd463801	-0.048393253
2	0xbd40a43c	-0.047031626
3	0xbbb25430	-0.005442165
4	0x3cf90cd4	0.030401625
5	0xbe2922a0	-0.16517115
6	0x3c43c04d	0.011947704
7	0xbe71f108	-0.23627102
8	0xbe054f8a	-0.13018623
9	0xbdcc90b0	-0.099885345
10	0x3d04d54f	0.03242999
11	0xbe6d13a2	-0.2315202
12	0xbd0527c9	-0.032508645
13	0x3d2e1a2b	0.042505424
14	0xbdd68640	-0.10474825
15	0x3d94f1cc	0.072726816
16	0xbea57f28	-0.32323575
17	0xbc81e631	-0.015856834
18	0xbcc57f38	-0.024108514
19	0xbe23242d	-0.15931769
20	0x3cc2025c	0.023682766
21	0x3c63ca7c	0.0139032565
22	0xbdfe4529	-0.12415535
23	0xbd420c56	-0.047375046
24	0xba8cf266	-0.0010753393
25	0xbda0e442	-0.07856037
26	0xbd78d112	-0.06074626
27	0xbe14d884	-0.14535719
28	0x3c0adb38	0.008475117
29	0xbe824a06	-0.254471
30	0xbeb3ccc2	-0.35117155
31	0x3da18a73	0.07887735
32	0x3cb2d1ee	0.021828618
33	0xbc80b62d	-0.015711868
34	0xbe8a9eb0	-0.27074194
35	0xbe64dca1	-0.22349788
36	0xbd9d5670	-0.07682502
37	0xbdc4d055	-0.09610049
38	0xbe9db65c	-0.30803192
39	0xbd69ba09	-0.057062183
40	0xbdbf255a	-0.09333296
41	0x3db0605b	0.08612128
42	0xbe32e538	-0.17470253
43	0xbd8998a5	-0.06718568
44	0x3c34e4b8	0.011040859
45	0x3d09efb1	0.033675853
46	0xbe032095	-0.12805398
47	0xbd3bb870	-0.04583019
48	0xbde3a816	-0.11116044
49	0xbcc18634	-0.023623563
50	0xbe22a886	-0.15884599
51	0xbe50d766	-0.20394668
52	0x3c8a610c	0.016891979
53	0xbe1854e1	-0.14876129
54	0x3c7aabf9	0.015299791
55	0xbcbb87cf	-0.022891907
56	0xbe135d0d	-0.14390965
57	0xbd50c93b	-0.05097316
58	0xbe0956c1	-0.13412
59	0x3d2bf8d3	0.041985344
60	0x3b1c84e8	0.002388293
61	0xbceb3ac1	-0.02871454
62	0x3aa0395c	0.0012224126
63	0xbe144dd3	-0.14482813

running_mean f4 [64]
0	0xbd0295b5	-0.031881053
1	0xbcd5e243	-0.026108867
2	0x3c10f681	0.008847834
3	0x3c7efcaa	0.0155631695
4	0x3c9de875	0.019275883
5	0x3db493c7	0.08817249
6	0xbbd8dbe5	-0.0066180103
7	0xba273f5a	-0.00063799846
8	0xbcb6ba76	-0.022305708
9	0x3d682a3b	0.0566809
10	0x3c9d47a3	0.019199198
11	0x3dde5a05	0.108570136
12	0x3d7398fb	0.059472065
13	0xbc0f886f	-0.008760556
14	0xbe025f77	-0.1273173
15	0xbb49b1da	-0.0030776174
16	0xbd05dadc	-0.032679424
17	0xbc5dccca	-0.013537595
18	0x3bb454ff	0.0055032964
19	0xbd258800	-0.040412903
20	0x3cccfa61	0.025021734
21	0x3d0b67c9	0.034034524
22	0x3cd445dd	0.02591222
23	0x3dc676a1	0.096905954
24	0x3d05ed11	0.032696787
25	0xbd0fda12	-0.035120077
26	0x3b1068cf	0.0022035127
27	0xbcb8d937	-0.022564514
28	0x3dce5144	0.10074094
29	0xbd4cd809	-0.050010715
30	0x3ddd495b	0.10805007
31	0xbcd699c7	-0.026196374
32	0xbaa8dbd8	-0.0012882901
33	0xbbeb48f0	-0.0071803257
34	0x3d00fcb6	0.031491004
35	0xbbaaaa42	-0.0052082846
36	0xbc54e0ad	-0.01299302
37	0xbc041265	-0.008061026
38	0x3dc6d37b	0.097083054
39	0xbb02c50f	-0.0019953882
40	0xbcf065e0	-0.029345453
41	0x3cce9240	0.025216222
42	0xbc1da31b	-0.009621407
43	0xbc8a6d9c	-0.016897969
44	0xbb87ba5e	-0.0041420897
45	0x3cc544fa	0.024080742
46	0x3d254bc8	0.040355474
47	0x3cde4aea	0.027135331
48	0xbd98bcbe	-0.07457875
49	0xbb51887a	-0.0031972216
50	0xbd4c4467	-0.04986992
51	0x3a60bddf	0.0008573215
52	0xbc2569d9	-0.010096037
53	0xbb6373c7	-0.003470646
54	0x3c428834	0.011873294
55	0x3b98bfe6	0.004661548
56	0x3dd6e2ff	0.10492515
57	0x3dc210d3	0.09475865
58	0x3ccbe9f3	0.02489183
59	0xbcc3e5b2	-0.023913238
60	0x3a8b618d	0.0010633931
61	0xbc8daeca	-0.01729526
62	0x39d637e7	0.0004085891
63	0xbca6d42d	-0.020364845

running_var f4 [64]
0	0x3c5fffac	0.013671797
1	0x3ca82c53	0.020528948
2	0x3bb353b4	0.0054726247
3	0x3bcb329a	0.0062011005
4	0x3c179371	0.009251461
5	0x3c9caaaa	0.019124348
6	0x3c733748	0.014844723
7	0x3cb96091	0.022629054
8	0x3b8311a7	0.003999907
9	0x3cc4553a	0.02396642
10	0x3b5e5770	0.0033926629
11	0x3cf50dd1	0.029913815
12	0x3d0e693b	0.034768324
13	0x3c65e474	0.014031518
14	0x3bd742d3	0.0065692454
15	0x3ae5c7fe	0.0017530916
16	0x3bacfa17	0.0052788365
17	0x3b394ff9	0.0028276427
18	0x3b2e9695	0.0026640047
19	0x3c58fb35	0.013243486
20	0x3badf7a6	0.005309063
21	0x3bde04bb	0.0067754663
22	0x3cfefaca	0.031125445
23	0x3beb57f8	0.0071821176
24	0x3c03ee26	0.0080523845
25	0x3cdbf5e9	0.026850658
26	0x3c96dca4	0.018415757
27	0x3a088f6a	0.00052093586
28	0x3c045e81	0.008079172
29	0x3b0f053d	0.002182319
30	0x3bb6f64f	0.0055835615
31	0x3be6011d	0.0070191757
32	0x3c82ac2e	0.015951242
33	0x3ca547c9	0.020175831
34	0x3c138ec4	0.009006206
35	0x3c96af18	0.018394038
36	0x3c1c47d8	0.009538613
37	0x3bd003cb	0.0063481084
38	0x3bab340e	0.0052247113
39	0x3890ca2a	6.904111e-05
40	0x3ca6fe96	0.020385068
41	0x3c06b733	0.008222389
42	0x3b1bbf76	0.0023765243
43	0x3cfd9dab	0.030958971
44	0x37801477	1.5268319e-05
45	0x3c572731	0.013131903
46	0x3ccd84a6	0.025087666
47	0x3b9ed0e9	0.0048466814
48	0x3c3d7a66	0.011564827
49	0x3c45fd0b	0.012084256
50	0x3c3e2b23	0.011606964
51	0x3c2f8100	0.010711908
52	0x3b6e5557	0.0036366784
53	0x3c319e5d	0.010840979
54	0x3b0bbdce	0.002132285
55	0x3c0821b8	0.00830882
56	0x3caf96fd	0.021434302
57	0x3bb12596	0.005406092
58	0x3bf9a902	0.0076190243
59	0x3aeaee0d	0.0017923728
60	0x37568754	1.27869025e-05
61	0x3b4c615c	0.003118596
62	0x38a1aef8	7.709669e-05
63	0x3c27b5dc	0.01023623

weight f4 [64, 1, 1]
0	0xbcdd2668	-0.026995853
1	0xbca48e06	-0.020087253
2	0xbc641d01	-0.013922931
3	0xbcdf9c6b	-0.027296266
4	0x3c0708b0	0.008241817
5	0x3d2d1820	0.042259336
6	0x3cbe16cf	0.023204235
7	0xbc281139	-0.010258012
8	0xbd0b4de7	-0.03400984
9	0xbd16572f	-0.03670424
10	0xbd0ce043	-0.03439356
11	0x3d1fd03c	0.039016947
12	0x3d4cadc5	0.049970407
13	0xbcb696ab	-0.022288641
14	0x3d5c5745	0.053794164
15	0xbcb42b25	-0.02199323
16	0x3e2f8b52	0.1714299
17	0xbcd5cd5a	-0.026098896
18	0xbd027cce	-0.031857304
19	0xbcef98d9	-0.029247688
20	0x3cc70802	0.02429581
21	0x3e12b807	0.14328013
22	0x3d0e6d20	0.03477204
23	0xbcd04beb	-0.025426826
24	0x3d0e8ae3	0.03480042
25	0x3cee429f	0.029084502
26	0xba2cd5fc	-0.00065931655
27	0x3cd5023c	0.026002042
28	0x3d053a8b	0.032526534
29	0xbcfbfda7	-0.0307606
30	0x3ce65175	0.028115014
31	0xbce7f589	-0.028315322
32	0x3cfab613	0.030604398
33	0x3cd814bd	0.026377076
34	0xbc5b320e	-0.013378633
35	0x3ce055b7	0.027384622
36	0xbd06bf4a	-0.03289727
37	0x3cc6adc2	0.024252776
38	0x3ce41f3f	0.02784693
39	0xbca386f8	-0.019961819
40	0x3c630e8c	0.013858449
41	0x3cf76af8	0.030202374
42	0xbce19f6d	-0.02754184
43	0xbc286c71	-0.010279761
44	0xbbf2616f	-0.007396869
45	0x3ad80608	0.001648129
46	0x3d411efe	0.047148697
47	0xbad6878d	-0.0016367302
48	0xbd1e39d0	-0.038629353
49	0xbca302d3	-0.019898808
50	0x3cfda423	0.030962056
51	0x3cbb0fc4	0.022834666
52	0x3c859876	0.01630805
53	0xbc6180a9	-0.013763585
54	0x3c1c565a	0.009542072
55	0x3c86f1cc	0.01647272
56	0xbd3a253d	-0.04544567
57	0x3cf49b42	0.029859189
58	0xbd2e874e	-0.042609505
59	0xbbc07d1b	-0.0058742887
60	0x3a90ece3	0.0011056926
61	0xbcce6479	-0.025194393
62	0xbc16102c	-0.009159129
63	0x3d4ecc50	0.050487816
