ldpi/training/output/ResCNN/traced_model.pth (torch, 775420 bytes, 63 tensors)

weight f4 [1, 1, 7]
0	0x3e92c1c3	0.28663453
1	0x4003a63c	2.0570211
2	0x3e555e87	0.2083684
3	0x3eaf134b	0.34194407
4	0x3dfd9981	0.12382794
5	0xbe1b3817	-0.15158115
6	0xbaccfa8b	-0.0015638632

weight f4 [64, 1, 1]
0	0x3d1b4ce5	0.03791513
1	0x3d273ba3	0.04082836
2	0x3d0f8cc8	0.03504637
3	0x3cdf99c6	0.027295005
4	0xbd0ffea2	-0.035154946
5	0x3d30a67f	0.043127533
6	0x3cc22ff3	0.023704505
7	0xbd15a211	-0.03653151
8	0x3ca5b468	0.020227626
9	0xbc46adbc	-0.012126382
10	0x3d1859c8	0.037194997
11	0xbc724719	-0.014787459
12	0xbd118af8	-0.03553292
13	0x3d1467dd	0.036231864
14	0x3c627200	0.013821125
15	0x3cdfda9c	0.02732592
16	0xbce522b9	-0.027970659
17	0x3ce0d3ab	0.027444681
18	0x3d13389f	0.03594267
19	0x3d1e510b	0.038651507
20	0xbcf90a88	-0.03040053
21	0xbcda18d6	-0.02662317
22	0x3d2cd6e9	0.04219714
23	0x3d3c8588	0.046025783
24	0xbd414dfa	-0.047193505
25	0xbdc4ca41	-0.09608889
26	0x3a6a75b0	0.00089439284
27	0x3da0a60f	0.07844173
28	0x3c3d133c	0.01154023
29	0x3d0c1e51	0.0342086
30	0xbd04be79	-0.03240821
31	0xbd0ca179	-0.03433368
32	0xbcee89f6	-0.02911852
33	0xbc15e1ec	-0.009148102
34	0x3d822c4f	0.063561074
35	0xbd1b0a8a	-0.037851848
36	0x3d22fe5a	0.03979335
37	0xbcbc27a0	-0.022968113
38	0xbcaa6ee2	-0.020804826
39	0xbc1606fe	-0.0091569405
40	0x3d34b327	0.044116165
41	0xbcbab492	-0.02279118
42	0xbd0f0a80	-0.034922123
43	0x3cfae587	0.030627025
44	0x3bfe619a	0.0077631
45	0xbd030356	-0.031985603
46	0x3d030ba2	0.031993516
47	0xbd036178	-0.032075375
48	0xbd0b325a	-0.033983566
49	0x3cbee244	0.023301251
50	0x3d1b861f	0.037969705
51	0x3c6cbf0e	0.014449848
52	0x3cefe90c	0.02928593
53	0xbd2e181e	-0.04250347
54	0xbc25ee6f	-0.010127648
55	0xba5a84db	-0.0008335837
56	0xbd1c023e	-0.038088076
57	0xbcafa166	-0.021439265
58	0x0000070e	2.531e-42
59	0x3d4a2331	0.049349967
60	0x3b371fd3	0.0027942553
61	0xbd5f89e5	-0.054574866
62	0x3cdee798	0.027210042
63	0xba857fe9	-0.0010185215

weight f4 [64]
0	0x3dc50e7d	0.09621904
1	0x3efe73c1	0.49697688
2	0x3df28ac0	0.11842871
3	0x3e686c31	0.22697522
4	0x3ecf2b9c	0.4046296
5	0x3e60cd20	0.21953249
6	0x3e68327a	0.22675505
7	0x3eae8bb8	0.34090972
8	0x3d819a02	0.06328203
9	0x3e31ca4f	0.17362331
10	0x3ed4f433	0.4159256
11	0x3dc14864	0.094376355
12	0x3e48f1b3	0.19623451
13	0x3e1a8c91	0.15092684
14	0x3cfc77af	0.030818788
15	0x3e82987a	0.25506955
16	0x3e382ab6	0.17985043
17	0x3d149253	0.03627236
18	0x3e8be628	0.27324033
19	0x3db5aa20	0.088703394
20	0x3e843482	0.2582131
21	0x3e8984af	0.26859042
22	0x3ecb2e76	0.39683884
23	0x3ee649b7	0.44978115
24	0x3f012ae6	0.5045608
25	0x3ea05d9e	0.31321424
26	0x3e196cbc	0.14982885
27	0x3e930335	0.28713384
28	0x3d572a30	0.052530468
29	0x3d5b641a	0.05356226
30	0x3e70391d	0.23459287
31	0x3e316230	0.17322612
32	0x3eefc312	0.46828514
33	0x3d728315	0.05920704
34	0x3ed566f8	0.4168012
35	0x3d2e16b7	0.04250213
36	0x3ee87a48	0.45405793
37	0x3ebc2a6a	0.3675111
38	0x3e1386ac	0.14406842
39	0x3db91ee2	0.090390936
40	0x3e9eca44	0.3101369
41	0x3d18eea1	0.03733695
42	0x3e8364e5	0.25662914
43	0x3d0b0920	0.03394425
44	0x3d6cbff0	0.057800233
45	0x3e4a2377	0.19740091
46	0x3d2e25a5	0.04251637
47	0x3e9dd35d	0.3082532
48	0x3e16140d	0.14656086
49	0x3df3ba8c	0.11900815
50	0x3ee50155	0.4472758
51	0x3db3035b	0.087408744
52	0x3d94fbd0	0.07274592
53	0x3f111873	0.5667793
54	0x3e75a788	0.2398969
55	0x3d830860	0.06398082
56	0x3e5bf3e8	0.21479762
57	0x3e4897d3	0.19589166
58	0x00001947	9.068e-42
59	0x3ed345b0	0.41264105
60	0x3e42383f	0.18966769
61	0x3f308135	0.68947154
62	0x3f0d099b	0.5509278
63	0x3e23a152	0.15979508

bias f4 [64]
0	0xbdfcc160	-0.12341571
1	0x3d1734f1	0.036915723
2	0x3cc4ae6e	0.024008956
3	0xbe398098	-0.18115461
4	0x3d826f1e	0.0636885
5	0x3ebbeb64	0.36703026
6	0x3d6ddd45	0.058072347
7	0x3d83f99e	0.06444095
8	0xbd8f4948	-0.06996399
9	0xbe8f81a8	-0.28028607
10	0x3c80e452	0.015733872
11	0x3dd21065	0.10257033
12	0x3bf078d8	0.0073386244
13	0xbd4cfc88	-0.05004552
14	0xbdbae41b	-0.09125539
15	0xbebb9cf7	-0.36643192
16	0xbe63e079	-0.22253598
17	0xbd7e4a68	-0.062082678
18	0x3ca8c264	0.020600505
19	0x3e319614	0.17342407
20	0xbd88194c	-0.0664545
21	0xbdd1b804	-0.10240176
22	0x3deaa4c3	0.11457207
23	0x3d07f175	0.033189256
24	0xbd93b1b8	-0.072116315
25	0x3e05e4ce	0.13075563
26	0xbe051199	-0.12994994
27	0x3ec37c95	0.38180986
28	0xbd9f898f	-0.07789909
29	0xbd92d283	-0.07169058
30	0xbd8b9e21	-0.0681727
31	0xbd18d8ea	-0.03731624
32	0xbe43e1ea	-0.19129148
33	0xbcdab7a2	-0.026698891
34	0xbe7ecfcc	-0.24883956
35	0xbc3feb6b	-0.011713843
36	0x3e661220	0.22467852
37	0xbe046e03	-0.12932591
38	0xbdad707a	-0.08468719
39	0xbc40d978	-0.011770599
40	0x3c2c0469	0.010499098
41	0xbd4dce05	-0.050245304
42	0x3eb3594e	0.35029072
43	0xbd30589a	-0.043053247
44	0x3c8679cd	0.016415501
45	0x3cf220ab	0.029556593
46	0xbd2cce7d	-0.04218911
47	0x3ebb7ca0	0.3661852
48	0x3dcae135	0.09906236
49	0xbe6f6a0d	-0.23380299
50	0x3e240970	0.16019225
51	0xbcd19d77	-0.02558778
52	0xbdc2e8fc	-0.095170945
53	0xbe37b0a8	-0.17938483
54	0xbec453bd	-0.38345137
55	0xbcacec93	-0.021108901
56	0xbeb0212c	-0.34400308
57	0x3e5d0215	0.21582825
58	0x3f4d669a	0.8023468
59	0x3eee4e14	0.46543944
60	0xbebd49a4	-0.36970246
61	0xbdf79624	-0.12089184
62	0xbe7e55c2	-0.24837402
63	0xbd85e43c	-0.06537673

running_mean f4 [64]
0	0x3cef2e71	0.02919695
1	0x3d00c78e	0.03144031
2	0x3cdd1595	0.02698783
3	0x3cac2fa4	0.02101881
4	0xbcddc4ec	-0.027071439
5	0x3d080811	0.033210818
6	0x3c958937	0.018253906
7	0xbce673fc	-0.028131478
8	0x3c7f3492	0.015576499
9	0xbc18fe9e	-0.009338049
10	0x3ceaa379	0.028642403
11	0xbc3a918d	-0.011387241
12	0xbce02754	-0.027362503
13	0x3ce49014	0.027900733
14	0x3c2e606a	0.010643104
15	0x3cac6191	0.021042617
16	0xbcb072c7	-0.021539105
17	0x3cad215b	0.02113407
18	0x3ce2bd0d	0.027678037
19	0x3cf3d3a4	0.029764004
20	0xbcbfc6dc	-0.023410253
21	0xbca7f2ac	-0.020501457
22	0x3d0518ce	0.03249436
23	0x3d112c4f	0.035442647
24	0xbd14db33	-0.036341857
25	0xbd978a4f	-0.07399427
26	0x3a348c57	0.00068873673
27	0x3d776b1d	0.060404886
28	0x3c11996e	0.008886678
29	0x3cd7cca4	0.026342697
30	0xbccc7122	-0.02495629
31	0xbcd896a2	-0.026439015
32	0xbcb7b07e	-0.022423025
33	0xbbe6d655	-0.0070445933
34	0x3d487b79	0.048945878
35	0xbceec83d	-0.029148215
36	0x3cfb07a5	0.030643294
37	0xbc90e3ff	-0.017686842
38	0xbc833e6d	-0.016020978
39	0xbbe70f6d	-0.0070513994
40	0x3d0b265b	0.033972126
41	0xbc8fc643	-0.017550593
42	0xbcdc4cee	-0.026892152
43	0x3cc134a3	0.02358467
44	0x3bc3e395	0.0059780576
45	0xbcc9c6a5	-0.024630854
46	0x3cc9d36d	0.024636948
47	0xbcca579f	-0.024699984
48	0xbcd66139	-0.026169406
49	0x3c92fdfd	0.017943377
50	0x3cef8694	0.029238977
51	0x3c364f1c	0.01112726
52	0x3cb8bed9	0.02255194
53	0xbd061027	-0.032730248
54	0xbbff8df2	-0.0077989036
55	0xba2845da	-0.00064191
56	0xbcf045be	-0.02933013
57	0xbc873f01	-0.016509535
58	0x0000056f	1.949e-42
59	0x3d1ba879	0.038002465
60	0x3b0d0450	0.0021517463
61	0xbd2c2369	-0.042025957
62	0x3caba66d	0.020953381
63	0xba4d9b0d	-0.0007843234

running_var f4 [64]
0	0x3a414364	0.00073724077
1	0x3a601a6b	0.00085488585
2	0x3a251fc0	0.00062989816
3	0x39c8517a	0.00038207677
4	0x3a262616	0.00063380727
5	0x3a7a0dc5	0.0009538795
6	0x39971547	0.00028816817
7	0x3a336a51	0.00068441505
8	0x395c06a9	0.00020983316
9	0x389e271a	7.54131e-05
10	0x3a39fdd9	0.0007095016
11	0x38eb2e35	0.0001121428
12	0x3a29bda0	0.00064750947
13	0x3a307bed	0.00067323336
14	0x38cd7292	9.796502e-05
15	0x39c8c5b6	0.0003829428
16	0x39d25bb8	0.00040122657
17	0x39ca856f	0.00038627858
18	0x3a2dad92	0.000662529
19	0x3a48d7da	0.0007661559
20	0x39f87e8d	0.00047396534
21	0x39be9416	0.00036349957
22	0x3a6f619f	0.0009131673
23	0x3a8e6546	0.0010863922
24	0x3a95b675	0.0011422174
25	0x3b9b2909	0.0047351164
26	0x34dc3f56	4.1024276e-07
27	0x3b4ecdc7	0.0031555758
28	0x388f3ba8	6.829883e-05
29	0x3a1d52ee	0.0006001432
30	0x3a0d332b	0.0005386348
31	0x3a1e79fd	0.00060453994
32	0x39e3fa58	0.00043483335
33	0x38340394	4.2918677e-05
34	0x3b07c88e	0.0020718905
35	0x3a409e61	0.0007347819
36	0x3a54e293	0.00081209204
37	0x398dd78d	0.00027054214
38	0x3968c31c	0.00022197928
39	0x38345cab	4.3001648e-05
40	0x3a82d31e	0.0009981131
41	0x398baa44	0.00026639004
42	0x3a23f490	0.0006254399
43	0x39fc35fd	0.0004810541
44	0x3801a1f8	3.0906842e-05
45	0x3a098a95	0.00052467856
46	0x3a099c03	0.0005249383
47	0x3a0a5083	0.00052762794
48	0x3a1b42ca	0.0005922733
49	0x3991fc8b	0.00027844714
50	0x3a41d1ef	0.0007393648
51	0x38e09077	0.00010708061
52	0x39e69b5c	0.0004398477
53	0x3a72de97	0.0009264736
54	0x385ca0de	5.2601907e-05
55	0x34bf5109	3.5635483e-07
56	0x3a4307c6	0.0007439818
57	0x39772cb9	0.00023572416
58	0x00000004	6e-45
59	0x3aa3b50f	0.0012489873
60	0x36865bde	4.004206e-06
61	0x3ac83506	0.0015274591
62	0x39c712b9	0.00037970187
63	0x350ecfdd	5.3201603e-07

weight f4 [64, 1, 5]
0	0xbd9b675a	-0.07588072
1	0xbd0a2948	-0.033730775
2	0xbce78eef	-0.028266398
3	0xbd2436c1	-0.04009128
4	0xbca5787c	-0.020199053
5	0x3d5cf480	0.05394411
6	0x3dfbb164	0.12289694
7	0x3cc98a53	0.024602091
8	0x3e6ba126	0.23010692
9	0x3e8acebe	0.27110857
10	0xbd941f43	-0.07232525
11	0xbcca3d74	-0.024687506
12	0xbd0ec13b	-0.034852248
13	0xbd078e34	-0.0330946
14	0xbd7c288d	-0.06156211
15	0xbc932b54	-0.017964996
16	0xbce42130	-0.027847856
17	0xbd999898	-0.07499808
18	0xbd369827	-0.044578698
19	0xbdb425e9	-0.08796293
20	0xbdbff470	-0.09372795
21	0x3e3560cd	0.17712708
22	0xbd7818e8	-0.060570627
23	0x3d9c8d1f	0.07644104
24	0x3e68d769	0.22738422
25	0xbe02e2e0	-0.12781858
26	0xbef15220	-0.4713297
27	0x3ec9d0e4	0.39417183
28	0x3cecffa3	0.02893049
29	0xbe8cfdc6	-0.27537364
30	0x3e86095f	0.26179025
31	0xbd9cd23d	-0.07657287
32	0xbdc19fc0	-0.09454298
33	0xbc942c37	-0.01808749
34	0x3c68db8d	0.014212501
35	0xbd40c8e4	-0.047066584
36	0x3da9b16d	0.082857944
37	0xbd7d7bb9	-0.06188557
38	0x3e119fc5	0.14221103
39	0x3e67ee20	0.22649431
40	0xbabdc937	-0.0014479522
41	0xbb70aec5	-0.0036725265
42	0x3b99e06c	0.0046959426
43	0x3c49f8e5	0.0123274075
44	0x3b00921a	0.0019618333
45	0x3d5da3dd	0.05411135
46	0x3cb76bb8	0.022390231
47	0x3d25616b	0.04037611
48	0x3da7b56a	0.08188899
49	0x3da6045e	0.08106302
50	0x3d9b6917	0.07588404
51	0x3e0fb274	0.14032918
52	0x3d9bc42e	0.07605778
53	0x3e430ce9	0.19047894
54	0x3e5672f0	0.20942283
55	0x3d10f1b3	0.035386752
56	0xbceebd00	-0.029142857
57	0x3c8468ee	0.016163316
58	0xbd327f14	-0.043578222
59	0xbd5361bd	-0.051606882
60	0xbcff7902	-0.03118563
61	0xbd2c8fda	-0.042129375
62	0xbdb521f7	-0.08844369
63	0xbc83b4ce	-0.016077425
64	0x3a23be54	0.00062463176
65	0x3becdbab	0.007228335
66	0xbe2b5b9b	-0.16734163
67	0xbc9c9907	-0.019115938
68	0x3c621b2a	0.013800422
69	0xbcef2c30	-0.029195875
70	0xbbe462e0	-0.0069697946
71	0xbc792681	-0.015206934
72	0x3a3d4135	0.00072194944
73	0x3cfd97af	0.030956117
74	0xbad410e4	-0.001617935
75	0x3e48f2f1	0.19623925
76	0x3e24c865	0.1609207
77	0x3dc7bbd2	0.09752621
78	0x3e15db90	0.14634538
79	0x3de5f221	0.11227823
80	0xbd8d94be	-0.06913136
81	0xbc688854	-0.014192659
82	0xbd0d96e9	-0.034567747
83	0xbd63c27a	-0.05560539
84	0xbde183f8	-0.11011499
85	0x3ba3f936	0.0050040735
86	0x3a99ebdc	0.0011743265
87	0xbcd4d1e1	-0.025978984
88	0xbcb7b5b6	-0.022425514
89	0xbceefb0c	-0.029172443
90	0x3e89dbde	0.26925558
91	0x3d35bca3	0.04436935
92	0x3d04409a	0.03228817
93	0x3d08894d	0.033334065
94	0xbd84b3cf	-0.06479608
95	0x3df596c7	0.11991649
96	0xbb9ebd9e	-0.0048443815
97	0xbd077110	-0.03306681
98	0xbc8d3b2d	-0.017240131
99	0xbcb8631e	-0.0225082
100	0xbe342cce	-0.17595217
101	0xbd67c8e6	-0.056588076
102	0xbcc9fe4b	-0.02465739
103	0xbd0f0635	-0.03491803
104	0xbdcb0702	-0.09913446
105	0x3d997540	0.07493067
106	0x3d1c960d	0.038229037
107	0x3dd7ee51	0.10543502
108	0x3d9d1e96	0.076718494
109	0x3dae0b20	0.08498216
110	0xbdc935da	-0.098247245
111	0xbda5f1ad	-0.081027366
112	0xbdb50462	-0.088387266
113	0xbe3cc036	-0.18432698
114	0xbe445d5b	-0.19176237
115	0xbe1ba2af	-0.15198778
116	0xbe173678	-0.14766872
117	0xbe310ac3	-0.17289262
118	0xbdc90929	-0.098162
119	0xbe7222e3	-0.2364612
120	0x3e0e7255	0.13910802
121	0xbe2f6f3b	-0.17132275
122	0x3f020df5	0.50802547
123	0xbdb2df34	-0.08733979
124	0xbe84fca8	-0.2597401
125	0xbcb1cbaa	-0.02170356
126	0xbd5ceb74	-0.053935483
127	0xbd7f9be2	-0.06240452
128	0xbde1df37	-0.11028903
129	0x3e2929f1	0.16519906
130	0x3cae0e45	0.021247039
131	0xbd193838	-0.03740713
132	0xbc9b9830	-0.018993467
133	0xbce65928	-0.028118685
134	0xbd31ee2e	-0.043440036
135	0xbe9c87b9	-0.30572298
136	0xbf27518b	-0.653588
137	0x3e4adec2	0.19811538
138	0x3e588074	0.21142751
139	0x3e8b3b60	0.27193737
140	0x3c565632	0.013082074
141	0x3c5633f7	0.013073913
142	0x3ce5569a	0.027995396
143	0x3c36aeb8	0.011150055
144	0x3d261772	0.040549703
145	0xbc84fc6b	-0.016233644
146	0xbcc47643	-0.023982173
147	0xbc727f71	-0.014800892
148	0xbd1b9887	-0.03798726
149	0xbcae288f	-0.021259574
150	0xbd7af3f3	-0.061267804
151	0x3d66279b	0.056190114
152	0xbc6f96bc	-0.01462334
153	0x3df8ff40	0.1215806
154	0x3e498f96	0.1968368
155	0x3be9d12b	0.0071355305
156	0xbe366148	-0.17810547
157	0x3ce75910	0.02824071
158	0xbc36bfed	-0.011154157
159	0xbd156f03	-0.036482822
160	0x3e05788b	0.13034265
161	0xbccc55bb	-0.024943223
162	0x3e22e26e	0.15906689
163	0x3c675a39	0.014120632
164	0x3d868f50	0.065703034
165	0xbd1636d3	-0.03667338
166	0xbc7391e6	-0.014866328
167	0xbc73a284	-0.01487029
168	0xbba467f4	-0.005017275
169	0xbcc9caa8	-0.024632767
170	0xbea69f3c	-0.3254336
171	0xbd9333f7	-0.07187646
172	0xbe4a902e	-0.19781563
173	0xbe3a8af7	-0.18217073
174	0x3f4cc405	0.799866
175	0xbaec68dc	-0.0018036622
176	0xbc9b2fb3	-0.018943643
177	0x3a90a7af	0.0011036302
178	0x3c72bba4	0.014815245
179	0x3c784fd2	0.015155749
180	0x3d0d561c	0.03450595
181	0x3db968ac	0.09053168
182	0xbbac1fcf	-0.0052528153
183	0x3e9f93b6	0.31167382
184	0x3e942eaa	0.28941852
185	0x3e18bcc4	0.14915758
186	0x3d3f0f22	0.04664529
187	0x3de0dc59	0.10979528
188	0x3d0811bc	0.033220038
189	0x3dd7a0b6	0.105287
190	0x3e914697	0.28374168
191	0xbe08f847	-0.1337596
192	0x3d90ff20	0.07079911
193	0xbcf83ed2	-0.030303393
194	0xbdbc8e07	-0.09206777
195	0xbd288652	-0.041143723
196	0xbcf38c31	-0.029729934
197	0xbc8eba48	-0.01742281
198	0xbc314092	-0.010818617
199	0xbccca445	-0.024980674
200	0x3eba20a6	0.36353034
201	0xbd04cc67	-0.032421496
202	0x3cbebea8	0.023284271
203	0x3c2f9707	0.01071716
204	0xbe629312	-0.22126415
205	0x3bc59f71	0.00603097
206	0x3bbdd2bc	0.0057929438
207	0x3bb8f991	0.005644985
208	0xbcd81c60	-0.026380718
209	0xb9c57083	-0.00037658596
210	0xbe334eee	-0.17510578
211	0x3ddf33e6	0.10898571
212	0xbe09d8a4	-0.13461548
213	0x3ccefeb8	0.025267944
214	0x3e426d81	0.18987085
215	0xbcb1a426	-0.021684717
216	0xbd666a4d	-0.05625372
217	0xbad9e121	-0.001662288
218	0x3c16950d	0.00919081
219	0x3b1d6dc6	0.002402173
220	0xbcb6d316	-0.02231745
221	0xbc871315	-0.016488591
222	0xbd0a3abd	-0.033747423
223	0xbc832d08	-0.016012684
224	0xbb5ce5fc	-0.0033706417
225	0x3d38bbc0	0.045100927
226	0x3cd15688	0.025553957
227	0x3dac192d	0.084032394
228	0xbd26e0f2	-0.04074187
229	0xbb95ba12	-0.0045693005
230	0x3b32c0e1	0.002727561
231	0x3d11164f	0.035421666
232	0xbd3cd901	-0.04610539
233	0xbbed49e6	-0.0072414754
234	0x3cfd6494	0.030931748
235	0xbc66804f	-0.014068677
236	0xbca8deb6	-0.02061401
237	0xbd9192ce	-0.07108079
238	0xbe1ed93c	-0.15512556
239	0xbdedd8ef	-0.116136424
240	0x3d1304d3	0.035893273
241	0x3d2bd052	0.041946717
242	0xbc939a07	-0.018017782
243	0xbdc3837a	-0.095465615
244	0xbd5b9fcc	-0.05361919
245	0xbce8d0fe	-0.028419968
246	0xbc20661f	-0.009789973
247	0xbd0ba2eb	-0.034090918
248	0xbd13176f	-0.03591102
249	0xbd2bdb1a	-0.041957
250	0x3c8e51c5	0.017372975
251	0xbe95ae79	-0.29234675
252	0xbe72725d	-0.23676439
253	0xbde317cd	-0.11088524
254	0xbe21b6dd	-0.15792413
255	0x3d947f55	0.07250849

weight f4 [64, 64, 1]
0	0x3af5a0bf	0.0018739923
1	0xbd3fcc4b	-0.04682569
2	0xbbad5edc	-0.005290849
3	0x3ce3548d	0.027750278
4	0xbd4b2832	-0.04959888
5	0xbc910c9e	-0.017706212
6	0xbc00bd82	-0.007857682
7	0xbcf9d0ed	-0.030495131
8	0xbb1909c8	-0.0023351777
9	0x3c98dfeb	0.01866146
10	0xbccc189a	-0.024914075
11	0x3b20f768	0.0024561528
12	0x3bd11ece	0.006381846
13	0x3c74c282	0.014938952
14	0x3acf44f5	0.0015813397
15	0x3ccc7c78	0.024961695
16	0x3d0f35b5	0.03496333
17	0x3a8466c4	0.0010101427
18	0xbc33b331	-0.0109680155
19	0xbd1ac215	-0.037782747
20	0xbc96fb5e	-0.018430408
21	0x3c96ef04	0.018424518
22	0x3d0c86c0	0.034308195
23	0xbb04f048	-0.002028482
24	0x3c30cde1	0.010791273
25	0xbca0fa9a	-0.019650746
26	0xbd0b31fa	-0.03398321
27	0x3dafeb62	0.085898176
28	0x3ac5b47e	0.0015083698
29	0x3afa2d93	0.0019087069
30	0x3c3ac095	0.011398454
31	0xbc520ca1	-0.012820394
32	0x3d0fab3d	0.035075415
33	0xba91b5a6	-0.0011116758
34	0x3dc1f73d	0.09470985
35	0xba71d815	-0.0009225619
36	0xbd806e9c	-0.06271097
37	0x3cfa0ef3	0.030524706
38	0xbc9d7198	-0.019219205
39	0xbafe7297	-0.0019412813
40	0xbd5161f7	-0.051118817
41	0xbb621db7	-0.0034502575
42	0x3cdfe0a8	0.027328804
43	0xba5aef4b	-0.00083516975
44	0xb9bc0610	-0.0003586267
45	0xbcc49c65	-0.024000356
46	0x3bb58e6c	0.0055406597
47	0x3d1f3bf0	0.03887552
48	0x3b50bd58	0.003185114
49	0xbc1df772	-0.009641515
50	0xbd830f12	-0.06399359
51	0xbbeb2027	-0.0071754637
52	0xba842517	-0.0010081854
53	0xbd1ac084	-0.037781253
54	0xbd04b1d6	-0.03239616
55	0x3c16b872	0.009199249
56	0x3d079647	0.0331023
57	0xbcbd0a78	-0.023076281
58	0x3e1c1bd1	0.15244986
59	0xbd82343a	-0.06357618
60	0x39e1bfec	0.00043058337
61	0xbe227352	-0.15864304
62	0x3d84808b	0.0646983
63	0x3c4e8302	0.012604477
64	0xbb6d0411	-0.0036165754
65	0x3caade8b	0.02085807
66	0xbb08ee55	-0.002089401
67	0xbaeb95a7	-0.0017973677
68	0x3ce18817	0.027530713
69	0x3bf46d52	0.007459321
70	0xba90fc33	-0.0011061489
71	0x3c6fc86e	0.0146351885
72	0x3b6c1310	0.0036022104
73	0xbb2128c7	-0.0024590956
74	0x3c4f0536	0.01263552
75	0xbc222a96	-0.009897849
76	0xbbd23f25	-0.006416219
77	0x3b5f46df	0.0034069342
78	0xbb689b08	-0.0035492796
79	0x3bb44d8e	0.0055024093
80	0xba832015	-0.0010004068
81	0xbb29b742	-0.0025896584
82	0x3c3ebe5d	0.011642066
83	0xbc07dafa	-0.008291954
84	0x3bcd8e64	0.006273078
85	0x3bec5d46	0.0072132675
86	0xbca0ddc8	-0.019637004
87	0xbc8152be	-0.015786525
88	0xbd1bfba2	-0.038081773
89	0xbcaca06e	-0.021072593
90	0x39bded5c	0.00036225736
91	0x3b201939	0.0024429096
92	0x3b9ace33	0.004724288
93	0xbbae8cca	-0.005326842
94	0x3c7678b7	0.015043429
95	0xbc6fd1bf	-0.01463741
96	0x3c8944ec	0.016756497
97	0xbb900eb5	-0.0043962845
98	0xbd3418e0	-0.043969035
99	0xbaa1f71e	-0.0012356972
100	0x3cb24757	0.021762533
101	0x3b0f561a	0.002187139
102	0xbd05e68c	-0.03269057
103	0x3b400a16	0.0029302887
104	0x3cd63aaf	0.02615103
105	0x3b1886ba	0.0023273663
106	0x3d7183aa	0.058963455
107	0x3bc3b08d	0.005971974
108	0xbb4c2c0e	-0.0031154188
109	0x3beed0bd	0.007288067
110	0xbbc0c513	-0.005882868
111	0xbbadab40	-0.0052999556
112	0xbb8bf9f0	-0.004271738
113	0xb91bfdd2	-0.00014876507
114	0xbc98e256	-0.018662613
115	0x398604de	0.00025562098
116	0xbb782169	-0.003786171
117	0x3c07e4da	0.008294309
118	0xbc51e668	-0.012811281
119	0xbb3d42f1	-0.0028879012
120	0x3c443c08	0.011977203
121	0x3cbd44ff	0.023104189
122	0x3d8359a4	0.06413582
123	0xbdc22cc4	-0.094811946
124	0xbbbfae24	-0.0058496166
125	0xbc4f22db	-0.012642588
126	0xbca3b214	-0.019982375
127	0xbaa54021	-0.0012607613
128	0x3c234618	0.009965442
129	0x3d0fe789	0.03513292
130	0x3b557515	0.0032571007
131	0xbc02107e	-0.007938502
132	0x3d34b23b	0.044115286
133	0x3c3475d3	0.01101442
134	0x3af0cfa1	0.0018372425
135	0x3cc4150c	0.023935817
136	0x3b5f55df	0.0034078283
137	0xbc920239	-0.017823325
138	0x3cbef841	0.023311736
139	0xbb846a3c	-0.0040409844
140	0xbc238934	-0.009981442
141	0xbbb98f31	-0.0056628217
142	0xbb0623c7	-0.0020468102
143	0xbd182bf1	-0.03715128
144	0xbc2bb052	-0.01047905
145	0x3bed3970	0.007239513
146	0x399020b3	0.00027490183
147	0x3bc6d1e5	0.006067502
148	0x3c80d7e6	0.015727948
149	0xbbeef600	-0.007292509
150	0xbca49dc9	-0.02009477
151	0x3bdae781	0.0066804294
152	0xbc79f310	-0.0152557045
153	0x3ce7b420	0.028284132
154	0x3b0374ff	0.0020058749
155	0xbd7dbcc1	-0.061947588
156	0xbb61a0d8	-0.0034428146
157	0x3b9273b1	0.004469358
158	0xbc264f2a	-0.01015071
159	0xbbb4c89c	-0.0055170786
160	0xbc8c360b	-0.017115613
161	0x3b5796c6	0.0032896264
162	0xbd8b20e5	-0.067933835
163	0x3a718691	0.00092134724
164	0x3cfef34b	0.03112187
165	0xbc28373e	-0.010267077
166	0xbbc40ad1	-0.0059827347
167	0x3bb61c82	0.0055575976
168	0x3b7b7b1d	0.0038372942
169	0x3a9ae2b7	0.0011816834
170	0x3c09663b	0.00838619
171	0xbabdd02d	-0.0014481597
172	0x3b4bbe7e	0.0031088884
173	0x3aca42ad	0.0015431248
174	0x3b3f1fa9	0.0029163158
175	0xbc6cd35c	-0.014454689
176	0xbc75573d	-0.0149744125
177	0x3accb0e6	0.0015616685
178	0x3c7365f6	0.014855852
179	0xbab8db21	-0.0014103391
180	0xbb95b40a	-0.0045685815
181	0x3c87ed91	0.016592773
182	0x3bff43dc	0.007790072
183	0xbbabb87f	-0.0052404995
184	0xbc894e21	-0.016760888
185	0x3bebb091	0.007192679
186	0x3bf0fb60	0.007354185
187	0xbc78f317	-0.015194676
188	0x3cef1f71	0.029189797
189	0x3d4f8c5d	0.05067097
190	0xbd39686d	-0.045265604
191	0xbb7c6474	-0.0038512023
192	0xbb2dc2d8	-0.002651384
193	0x3aae7154	0.0013308921
194	0xbad2c76c	-0.0016081161
195	0xbbc56672	-0.0060241753
196	0xbaac2d6f	-0.0013136099
197	0xbbc3293b	-0.005955843
198	0xbb79d415	-0.0038120796
199	0xba3f6a45	-0.0007301907
200	0x3b04c38c	0.0020258157
201	0xba8c3a0f	-0.0010698455
202	0xbb201f69	-0.0024432784
203	0x3b604dbd	0.0034226023
204	0xbb3e617d	-0.0029049807
205	0xba68d3b7	-0.00088816456
206	0xb9dcb3d9	-0.00042095667
207	0xbab441f3	-0.0013752565
208	0x3ae56697	0.0017501888
209	0xbb5bb565	-0.0033524868
210	0xbb26f0e3	-0.002547317
211	0x3b366d8b	0.0027836289
212	0x3b567eb9	0.0032729341
213	0x3a7e64f9	0.0009704377
214	0x398efed6	0.00027274218
215	0xbb39e039	-0.0028362407
216	0xbb0f155b	-0.0021832797
217	0x39a8f7df	0.00032228135
218	0x3b3c7fbf	0.0028762666
219	0xbc2b3e28	-0.010451831
220	0x3b029e02	0.0019930606
221	0xbbdafe4d	-0.006683147
222	0xbb8da8c0	-0.004323095
223	0xbb7bcc86	-0.0038421466
224	0x3ac25401	0.001482606
225	0x3b68bbf8	0.0035512429
226	0xbbace420	-0.005276218
227	0x3b57a7f2	0.00329065
228	0x3ba3f8cf	0.0050040255
229	0x3b271320	0.0025493577
230	0x3aea9b67	0.0017899097
231	0x3b83f835	0.0040273913
232	0xbad3b18e	-0.0016150938
233	0xbb86756f	-0.0041033546
234	0x3bd28dfc	0.0064256173
235	0x3bca304c	0.006170308
236	0x3adcaa6b	0.0016835456
237	0x3a7aebe4	0.00095718936
238	0x3c2dccdb	0.010607923
239	0xb9248ed9	-0.00015693474
240	0x3b33c626	0.0027431338
241	0xbb6c6292	-0.0036069495
242	0x3b15c80d	0.0022854835
243	0x3ad374ae	0.0016132796
244	0xbb66b56e	-0.0035203355
245	0x3b0638ba	0.002048059
246	0x39e094d9	0.0004283551
247	0xba8e112e	-0.001083886
248	0x38e08c70	0.00010707311
249	0x3b977310	0.004621871
250	0x3ced3880	0.028957605
251	0xb9603a1e	-0.00021383955
252	0x3b87f89e	0.0041495105
253	0xbb85d791	-0.0040845354
254	0xba920f64	-0.0011143503
255	0x391205e0	0.00013925834

weight f4 [64]
0	0x3e7b130b	0.24518983
1	0x3e22c426	0.15895137
2	0x3e0232c8	0.12714684
3	0x3d4c66a6	0.04990258
4	0x3ef4f911	0.47846273
5	0x3d3a1ac2	0.045435674
6	0x3e00ff36	0.12597355
7	0x3da9340c	0.0826188
8	0x3de49152	0.1116053
9	0x3d335bfb	0.04378889
10	0x3d9bdcf8	0.07610506
11	0x3e4544a3	0.19264464
12	0x3f2d7229	0.6775232
13	0x3e393873	0.1808794
14	0x3d2e0ea2	0.042494424
15	0x3e8ec975	0.27888075
16	0x3d513569	0.051076327
17	0x3f205d15	0.6264203
18	0x3d68cec4	0.056837812
19	0x3d0ddf79	0.03463695
20	0x3e0086fd	0.12551494
21	0x3d6cbfbd	0.057800043
22	0x3e4da96a	0.20084158
23	0x3f070417	0.52740616
24	0x3f37b4a6	0.7176002
25	0x3eef1522	0.4669581
26	0x3e24f44f	0.16108821
27	0x3f0589e2	0.5216352
28	0x3e379760	0.17928839
29	0x3eb2e9df	0.34944054
30	0x3e84c55d	0.25931826
31	0x3d6f2d84	0.058393016
32	0x3dd6b8d2	0.104844704
33	0x3e5f4d34	0.21806794
34	0x3d1e5203	0.03865243
35	0x3df8e013	0.12152114
36	0x3d16e59c	0.036840066
37	0x3d8e2927	0.06941443
38	0x3cd6b700	0.026210308
39	0x3e06352e	0.13106224
40	0x3e343ca1	0.17601253
41	0x3f47fc82	0.7811967
42	0x3e0bc2b3	0.1364849
43	0x3f50f15e	0.816183
44	0x3f07a4f3	0.5298607
45	0x3d763fe0	0.06011951
46	0x3ddd4153	0.10803475
47	0x3e9e3325	0.30898395
48	0x3f405ad3	0.75138587
49	0x3d557490	0.052113116
50	0x3ea03b88	0.3129542
51	0x3dcc29e9	0.09968931
52	0x3f120581	0.5703965
53	0x3d242693	0.04007585
54	0x3d3ab2f2	0.04558081
55	0x3df7840a	0.12085731
56	0x3decf7c6	0.115706965
57	0x3d74e906	0.05979254
58	0x3d5dfb5e	0.0541948
59	0x3d3635c4	0.04448487
60	0x3dbe5747	0.092939906
61	0x3dd2d29e	0.10294078
62	0x3e33d20d	0.17560597
63	0x3e47cd41	0.19511892

bias f4 [64]
0	0xbd967b4b	-0.07347735
1	0x3cd0dc6b	0.025495728
2	0xbd0ec5d5	-0.034856636
3	0x3af69d4b	0.0018815188
4	0xbd2dcf91	-0.04243428
5	0x3a906832	0.0011017381
6	0xbda78457	-0.08179539
7	0xbdc47b61	-0.09593845
8	0x3d22ba24	0.0397283
9	0xbda2dc70	-0.07952201
10	0x3b86d1b9	0.0041143564
11	0xbdeb5af2	-0.11491956
12	0xbef70199	-0.48243406
13	0x3e260f9d	0.16216893
14	0xbb69df37	-0.0035686025
15	0xbe811882	-0.2521401
16	0x3b1705b9	0.0023044182
17	0xbe69f0da	-0.22845784
18	0x3c34476e	0.011003358
19	0xbb855d1e	-0.0040699383
20	0xbddc2458	-0.107491195
21	0x3c2de262	0.010613056
22	0x3d056174	0.03256364
23	0x3ddaea27	0.10689192
24	0x3e1a8e27	0.1509329
25	0x3d7f2f1d	0.06230079
26	0x3b575cb2	0.0032861647
27	0xbe186364	-0.14881665
28	0x3d0cf12d	0.03440969
29	0xbc97b7ae	-0.018520202
30	0x3d2366e9	0.039893065
31	0x3abfbd9f	0.0014628655
32	0x39c2abae	0.00037130475
33	0xbe1c3cc1	-0.15257551
34	0xbd1585ce	-0.03650456
35	0x3db26420	0.087105036
36	0xbabe5bd6	-0.0014523219
37	0x3cf1323d	0.0294429
38	0xbe707f07	-0.23485957
39	0xbe0791b2	-0.13239172
40	0x3da51efb	0.0806255
41	0x3e85b5df	0.2611532
42	0xbe99bcc4	-0.3002683
43	0xbe873821	-0.2641001
44	0xbe0feca9	-0.14055122
45	0xbdc7557c	-0.09733102
46	0x3c296396	0.010338685
47	0x3d843a9b	0.064564906
48	0xbed2691e	-0.41095823
49	0xbd25e114	-0.040497854
50	0xbd5f1cc6	-0.0544708
51	0x3bc89d9a	0.006122303
52	0xbc4a0e0c	-0.012332451
53	0x3a792559	0.00095041614
54	0xbd073354	-0.033007935
55	0x3cf806f5	0.030276755
56	0xbb8a4952	-0.0042201662
57	0x3bc47854	0.0059957895
58	0xbda3f7d5	-0.080062546
59	0xbd0e31e0	-0.034715533
60	0x3c997795	0.018733779
61	0xbcf0ece3	-0.029409831
62	0xbea2b2a8	-0.3177693
63	0xbd4b31fa	-0.04960821

running_mean f4 [64]
0	0xbe09f26c	-0.13471383
1	0xbd1f6606	-0.038915657
2	0x3c5727b2	0.013132023
3	0xbc7e39c0	-0.015516698
4	0xbe33aed3	-0.17547159
5	0xbb535fce	-0.003225315
6	0x3c0ebff7	0.00871276
7	0x3bfad7e1	0.0076551293
8	0x3cb7b39d	0.022424513
9	0x3bec3999	0.0072090146
10	0x3cb743d7	0.022371216
11	0xbcf9c397	-0.030488772
12	0x3e2a8af2	0.16654566
13	0xbdcdf43b	-0.10056349
14	0xbbe124d5	-0.006870846
15	0x3bcdb22c	0.0062773433
16	0xbc963b41	-0.018338801
17	0x3ca3bc4a	0.019987244
18	0x3bd53fac	0.0065078344
19	0x3ba44bd6	0.005013923
20	0x3c5b6c3c	0.013392504
21	0xb91575a4	-0.00014253572
22	0xbbb85cf5	-0.0056263157
23	0x3c2c7908	0.010526903
24	0x3c0b4f78	0.008502834
25	0xbd968928	-0.07350379
26	0x3d2533b0	0.040332496
27	0xbd8318e9	-0.064012356
28	0x3c42c963	0.011888835
29	0x3c852b66	0.016256046
30	0x3e9501e4	0.29103005
31	0xbcb01f9a	-0.021499444
32	0xbc6aff56	-0.014343103
33	0x3c1a4a2c	0.009417098
34	0x3b1d2276	0.002397684
35	0x3cab8bae	0.020940628
36	0xbad8fa0d	-0.0016554013
37	0x3c5102d0	0.012757018
38	0xbcfeb612	-0.031092677
39	0x3b31a0cd	0.0027103901
40	0xbdf4b049	-0.11947686
41	0xbd00c1e4	-0.03143491
42	0xbc1ad9ef	-0.0094513735
43	0xbd818450	-0.06324065
44	0xbe59a1e5	-0.21253164
45	0x3b9551ad	0.0045568557
46	0xbbc59be9	-0.006030549
47	0x3dfc165e	0.12308954
48	0xbdf57b7d	-0.11986444
49	0x3c03fc7a	0.008055801
50	0xbdb1a3f3	-0.08673849
51	0xbc07b719	-0.0082834
52	0xbc33d242	-0.010975422
53	0x3b8323fa	0.0040020915
54	0xbab01063	-0.0013432618
55	0x3c8f741c	0.01751142
56	0xbd1dc8df	-0.038521644
57	0x3bc36e67	0.0059640887
58	0x3b6c2296	0.0036031357
59	0xbb074772	-0.002064195
60	0x3cc13bac	0.023588024
61	0x3bec6413	0.007214078
62	0xbd3c7360	-0.046008468
63	0x3c9f982e	0.019481745

running_var f4 [64]
0	0x3b9c0928	0.0047618337
1	0x3a3f8ff1	0.0007307521
2	0x3a94e8d5	0.0011360893
3	0x370d7a67	8.432754e-06
4	0x3b8f503a	0.0043735774
5	0x3838f126	4.4093606e-05
6	0x3956cb46	0.00020484356
7	0x3847fc12	4.7680056e-05
8	0x39e1632f	0.00042989242
9	0x38313ea7	4.2258438e-05
10	0x3a2da162	0.0006623474
11	0x3bac5c14	0.00526
12	0x3c5b7822	0.013395341
13	0x3b86f2a3	0.00411828
14	0x3783d822	1.5717062e-05
15	0x3ab88607	0.0014078029
16	0x37a8d474	2.0126092e-05
17	0x3c335607	0.0109458035
18	0x39221eb9	0.00015460969
19	0x37839dde	1.568993e-05
20	0x3a90869d	0.0011026446
21	0x3825d7c4	3.9540013e-05
22	0x39b9d79f	0.000354466
23	0x3ce78186	0.028260004
24	0x3db9b979	0.09068579
25	0x3d2a952c	0.041646168
26	0x3ac64461	0.001512658
27	0x3c10314f	0.008800819
28	0x3abae49e	0.0014258807
29	0x3b3ccfaf	0.0028810313
30	0x3c8b6382	0.017015222
31	0x3854c20d	5.0725463e-05
32	0x3a2bde18	0.0006556227
33	0x3adef2e2	0.001700964
34	0x36d48b22	6.3342895e-06
35	0x3a9cbfd6	0.0011959027
36	0x372ccabb	1.0299201e-05
37	0x396fbdbc	0.00022863498
38	0x39a969aa	0.00032312918
39	0x3a616795	0.0008598504
40	0x3adacbc0	0.0016692802
41	0x3db4da07	0.08830648
42	0x38930238	7.0099195e-05
43	0x3d0207a8	0.031745583
44	0x3e018ef0	0.12652183
45	0x38b21cce	8.493067e-05
46	0x39ee5a1b	0.0004546203
47	0x3c059008	0.0081520155
48	0x3d5ec9d8	0.054391712
49	0x385d0b2a	5.2700903e-05
50	0x3b993f31	0.0046767225
51	0x3a17c7be	0.0005789957
52	0x3cef3e81	0.029204609
53	0x37603050	1.3362689e-05
54	0x3829a919	4.0450224e-05
55	0x3a2a7f55	0.00065039593
56	0x391c59aa	0.00014910722
57	0x381f21ee	3.7940154e-05
58	0x37a4ea90	1.965955e-05
59	0x3840e79c	4.599207e-05
60	0x395b0241	0.00020886307
61	0x3912e94d	0.00014010556
62	0x3b292968	0.0025812034
63	0x3b14e9ab	0.0022722285

weight f4 [64, 1, 3]
0	0x3d451020	0.04811108
1	0xbe77574b	-0.24154393
2	0xbda559f2	-0.08073796
3	0xbcbeb860	-0.023281276
4	0x3e311b50	0.17295575
5	0xbd86db0f	-0.06584751
6	0xbd792874	-0.060829595
7	0xbd7c6e21	-0.061628465
8	0xbd9e61b3	-0.077334784
9	0xbcd132a9	-0.025536852
10	0x3bbc3be7	0.0057444456
11	0x3d0aa1ac	0.03384559
12	0xbeb888b2	-0.3604179
13	0xbb785d1b	-0.0037897292
14	0xbe60d91e	-0.21957824
15	0x3d042971	0.032266084
16	0x3cbfc572	0.023409579
17	0xbcb3f9ac	-0.021969639
18	0x3d05f421	0.032703523
19	0x3cb05fdb	0.021530082
20	0x3d57c011	0.052673403
21	0xbcab0cec	-0.020880185
22	0xbd365e8a	-0.044523753
23	0xbd05e0ee	-0.032685213
24	0x3d998412	0.074958935
25	0x3d143f4f	0.03619319
26	0x3d930748	0.07179123
27	0x3cb5df33	0.022201156
28	0x3ce7e766	0.028308582
29	0x3cb00cd5	0.021490494
30	0x3b91c489	0.0044484776
31	0x3c1eb4f8	0.009686701
32	0x3dac902d	0.08425937
33	0xbd8175c3	-0.063212894
34	0x3e0266ca	0.12734523
35	0x3df7c362	0.12097813
36	0x3d27b8d5	0.040947754
37	0x3e8eca9f	0.27888963
38	0x3d3a4f5c	0.04548584
39	0xbe0a04f0	-0.13478446
40	0xbd970cbe	-0.07375477
41	0xbe07897f	-0.13236044
42	0x3a4ebbed	0.00078862795
43	0xbceb9d75	-0.028761605
44	0xbb7d1b57	-0.0038621032
45	0x3d3450b2	0.04402227
46	0x3dad4c5a	0.084618285
47	0x3e22e862	0.1590896
48	0x3d094077	0.033508744
49	0xbce09110	-0.027412921
50	0x3bac64d3	0.0052610426
51	0x3c2ec511	0.0106671015
52	0xbebfe0dd	-0.37476245
53	0xbe5d0486	-0.21583757
54	0x3cd06009	0.025436418
55	0x3cca3156	0.024681728
56	0x3d06be60	0.0328964
57	0xbabfe695	-0.0014640862
58	0x3b82e539	0.0039946106
59	0x3c6d8072	0.014495956
60	0xbcc10e82	-0.023566488
61	0xbd432c0d	-0.047649432
62	0xbd12ce49	-0.03584126
63	0x3d594cbd	0.0530517
64	0x3cb2ecab	0.021841368
65	0x3b9c304d	0.0047665
66	0x3d7997b3	0.060935687
67	0x3d45e010	0.048309386
68	0x3db68337	0.08911746
69	0x3db2ed3e	0.087366566
70	0x3dd15b7a	0.10222526
71	0x3ed9e7d5	0.42559686
72	0x3f2c5721	0.6732045
73	0xbdcbe9cf	-0.09956705
74	0xbefe2836	-0.49640054
75	0x3f0fc60d	0.56161577
76	0x3d24ef64	0.040267363
77	0x3db55f83	0.08856108
78	0xbdc51ef8	-0.096250474
79	0xbd6a43bd	-0.057193507
80	0xbdbde183	-0.092715286
81	0xbddd95a0	-0.10819554
82	0x3c82092b	0.015873512
83	0xbe5abe1e	-0.21361586
84	0xbdc5fc71	-0.0966729
85	0xbdc1d8c1	-0.09465171
86	0xbde7f42d	-0.1132587
87	0x3da33c48	0.07970482
88	0xbc0d9f05	-0.00864387
89	0x3e332805	0.17495735
90	0xbe234263	-0.15943293
91	0xbb057cc1	-0.0020368549
92	0xbda2643d	-0.07929275
93	0xbaff7db6	-0.0019492421
94	0xbd54e870	-0.051979482
95	0xba00c010	-0.0004911432
96	0xbcfbe365	-0.030748079
97	0xbdc3502a	-0.095367745
98	0xbca47985	-0.020077476
99	0x3e13b37e	0.1442394
100	0x3e11f3dc	0.14253181
101	0x3dfac718	0.12245005
102	0x3c1bc537	0.009507469
103	0x3cc7f023	0.024406498
104	0x3c122786	0.008920556
105	0x3dd304b9	0.10303635
106	0x3daaef5d	0.08346436
107	0x3d194dc4	0.03742768
108	0xbb820945	-0.00396839
109	0x3c95bc93	0.018278396
110	0x3c45e93a	0.012079531
111	0xbd0b0169	-0.03393689
112	0xbc9342a8	-0.01797612
113	0xbd6841b0	-0.05670327
114	0x3cff94f6	0.03119896
115	0x3da57af3	0.08080091
116	0x3dc66517	0.0968725
117	0xbd2d6444	-0.04233195
118	0xbd95c1cb	-0.07312354
119	0xbdc52463	-0.09626081
120	0xbd097ae6	-0.03356447
121	0x3e5bbf89	0.21459784
122	0xbe13a1f1	-0.14417244
123	0x3ebb4090	0.36572695
124	0x3dbef060	0.09323192
125	0x3f44c7af	0.76867193
126	0xbc6441d0	-0.013931707
127	0xbd3dfb96	-0.04638251
128	0xbd917131	-0.07101668
129	0xbd8db482	-0.06919195
130	0xbe4573b6	-0.19282421
131	0xbeb577a5	-0.35442844
132	0xbe50da8b	-0.20395868
133	0xbf0e85a3	-0.55672663
134	0x3f1bea22	0.60904133
135	0x3cb64ccd	0.022253418
136	0xba9ba527	-0.0011874781
137	0x3cafaef5	0.02144573
138	0x3d80b49d	0.06284449
139	0x3d277d3c	0.040890917
140	0x3d833fe0	0.064086676
141	0xbe9009b6	-0.2813241
142	0x3e522b4c	0.20524329
143	0x3cc3b8ba	0.023891795
144	0xbdb4e0c5	-0.08831934
145	0x3ea11d52	0.31467682
146	0xbee48c69	-0.44638374
147	0x3d273a35	0.040826995
148	0x3d008960	0.03138101
149	0x3c1f0812	0.009706514
150	0xbdc2efee	-0.09518419
151	0xbde80d4c	-0.11330661
152	0xbe167752	-0.14693955
153	0x3d944bfe	0.07241057
154	0x3d65d5d5	0.05611213
155	0x3c8a7191	0.016899856
156	0x3df63d87	0.12023454
157	0x3e3feeb2	0.18743399
158	0x3e8b8d7a	0.27256376
159	0x3c996470	0.01872465
160	0x3c851939	0.016247379
161	0x3c5f91a1	0.0136455605
162	0x3bb60660	0.005554959
163	0x3cb1fd86	0.021727335
164	0x3cc02058	0.023452923
165	0xbd6ea04a	-0.058258332
166	0xbd90ad52	-0.07064308
167	0xbd8fc001	-0.07019044
168	0xbd3887c1	-0.04505134
169	0x3dc4d5f5	0.096111216
170	0x3d807b4c	0.06273517
171	0xbd325335	-0.043536384
172	0xbb86ef0b	-0.0041178516
173	0xbd1f9c2b	-0.038967293
174	0x3c9fd066	0.019508552
175	0x3ce84080	0.028351068
176	0x3cf980b8	0.030456886
177	0x3c8706a7	0.016482664
178	0x3caec694	0.021334924
179	0x3b387676	0.002814678
180	0x3d7cb93c	0.06170009
181	0x3d1d1a87	0.038355377
182	0x3d49718f	0.049180564
183	0x3d521045	0.051285047
184	0x3d64f4bd	0.055897463
185	0x3d6200e6	0.055176638
186	0x3d8300e6	0.06396656
187	0x3d17431f	0.036929246
188	0x3c8065b9	0.015673505
189	0x3dca8ce8	0.09890157
190	0x3dc5edef	0.09664523
191	0x3dd9f7eb	0.1064299

weight f4 [64, 64, 1]
0	0xbd38bdda	-0.04510293
1	0xbb1ffad9	-0.0024410991
2	0x3c9252ab	0.017861685
3	0xbb2acee4	-0.0026063258
4	0x3d80c044	0.06286672
5	0x39131eff	0.0001403056
6	0x3c44163e	0.011968194
7	0x3cd34c8d	0.025793338
8	0xbc236f90	-0.009975329
9	0xbba2d791	-0.004969545
10	0xbc9bce84	-0.019019373
11	0xb9a20c72	-0.0003090832
12	0xbeb61c55	-0.3556849
13	0x3e03ca9d	0.1287026
14	0x3add69c4	0.0016892483
15	0x3d47018b	0.048585456
16	0xba9dbac6	-0.0012033812
17	0x3da85e41	0.082211025
18	0xbbef024a	-0.007293974
19	0xba917758	-0.0011098189
20	0xbde2e2af	-0.11078393
21	0xbc805aec	-0.015668355
22	0xbd65f51d	-0.05614196
23	0x3e056bdb	0.13029425
24	0x3d8583c8	0.06519276
25	0x3c416516	0.011803886
26	0x3c00cbdd	0.007861105
27	0x3d24b64e	0.04021292
28	0x3bef763b	0.0073077953
29	0x3d5e20bd	0.05423044
30	0x3cbf7030	0.023368925
31	0x3bf0dfd2	0.0073509
32	0x3b7cdcf0	0.0038583837
33	0xbd9b4a3e	-0.0758252
34	0x3b155681	0.0022787156
35	0xbcf1f1cf	-0.029534249
36	0xbbda390a	-0.0066596316
37	0x3c9572ac	0.018243156
38	0x3c7cc004	0.0154266395
39	0xbbbec9d6	-0.0058224006
40	0x3d53e2d2	0.051729985
41	0xbe7ea011	-0.24865748
42	0xbb56ef49	-0.0032796434
43	0xbe080e5a	-0.13286725
44	0xbdbdf641	-0.09275485
45	0xbd071534	-0.032979205
46	0xbd7c5d39	-0.06161234
47	0xbdfcf527	-0.123514466
48	0x3e9d81e3	0.30763158
49	0xbc20024a	-0.009766171
50	0x3d9f2871	0.077713855
51	0xbcf2b333	-0.029626464
52	0x3ebcd464	0.3688079
53	0xba136b60	-0.0005623605
54	0xbcb2e25d	-0.021836454
55	0x3cf63035	0.030052284
56	0xbc4deed1	-0.012569145
57	0x3c60f924	0.013731275
58	0xbb9986e0	-0.004685268
59	0xbc7e0edc	-0.015506472
60	0xbd1e33c4	-0.038623586
61	0xbbb10a05	-0.0054028057
62	0x3d816206	0.063175246
63	0xbd72cd70	-0.05927795
64	0xbc061742	-0.008184256
65	0xbc7fb4f0	-0.015607104
66	0xbbbb1db8	-0.00571033
67	0x3c2661d2	0.010155158
68	0xbd3edf8c	-0.04659991
69	0xbbe36d76	-0.006940539
70	0xbc660322	-0.014038833
71	0x3b3b6217	0.0028592402
72	0xbc481466	-0.012211895
73	0x3ba87f98	0.0051421635
74	0xbbf1fcb2	-0.00738486
75	0xbc955a29	-0.018231468
76	0xbda5921d	-0.080845095
77	0x3cb86f23	0.022513932
78	0xbb22ecd5	-0.0024860401
79	0xbc91b1a4	-0.017784901
80	0xbbdcc67a	-0.0067375274
81	0x3ce7fba6	0.028318238
82	0xba95fab2	-0.0011442511
83	0xbafda59d	-0.0019351725
84	0x3c19e5a4	0.0093931295
85	0xbc03b648	-0.008039065
86	0x3b78b835	0.0037951593
87	0x3d27136b	0.040790003
88	0x3dd4d0a1	0.10391355
89	0x3d9e1964	0.077196866
90	0x3b580dec	0.0032967282
91	0xbd27e8ba	-0.04099343
92	0x3c05b077	0.008159748
93	0xbd5cfa9f	-0.05394995
94	0x3ade4162	0.0016956741
95	0x3aa392dc	0.0012479681
96	0x3a4db027	0.0007846378
97	0xbbd4c353	-0.006493011
98	0x3a9151d6	0.0011087011
99	0xbb31f14f	-0.0027151888
100	0xba875cff	-0.0010327398
101	0x3979053a	0.00023748438
102	0x3b5fb777	0.0034136453
103	0x3bb30472	0.0054631764
104	0xbd0dbeb3	-0.034605693
105	0xbdd31083	-0.10305884
106	0x3b966492	0.0045896256
107	0x3b08f7ba	0.002089961
108	0x3b335618	0.0027364548
109	0xbc4fa7b2	-0.012674259
110	0xbc40cf22	-0.011768134
111	0x3ceeaa14	0.029133834
112	0x3dc5b23b	0.096531354
113	0xbb69b52e	-0.003566097
114	0x3c30813d	0.010773
115	0x3acd3260	0.0015655272
116	0xbcf15563	-0.02945966
117	0xbb96ed85	-0.0046059513
118	0xbc011114	-0.007877607
119	0xbb0816cb	-0.0020765539
120	0x3c9d1002	0.019172672
121	0x3b703639	0.0036653413
122	0xba51000a	-0.0007972723
123	0xbba6fd11	-0.005096086
124	0xbbfab104	-0.0076504964
125	0xbc2b4c3e	-0.010455189
126	0x3cdea28e	0.027177121
127	0x3b303882	0.002688915
128	0xbcdf48ca	-0.027256388
129	0xbc2458d0	-0.01003094
130	0x3a28e818	0.0006443276
131	0x3b234fa1	0.0024919289
132	0xbe38c65e	-0.18044421
133	0x3c12bd82	0.008956315
134	0x3c10857a	0.008820886
135	0xbbc11450	-0.005892314
136	0xbb5cf585	-0.0033715677
137	0x3af5683e	0.0018723083
138	0xbba42346	-0.0050090877
139	0x3d058e89	0.032606635
140	0xbc8d9b70	-0.017286032
141	0xbbbac9c6	-0.005700323
142	0xbb845d7a	-0.0040394636
143	0xbb38f5c1	-0.0028222653
144	0x3aa9b696	0.0012948092
145	0x3c9cb567	0.019129468
146	0xbb44f075	-0.003005055
147	0xbb0f203e	-0.0021839286
148	0x3c684804	0.014177326
149	0x3a1a3ce9	0.000588371
150	0x3bc8942f	0.0061211805
151	0x3cd3fd10	0.025877506
152	0x3cea59f9	0.028607355
153	0xbde7da69	-0.11320955
154	0x3c242ab7	0.01001995
155	0xbd9b5104	-0.07583812
156	0x3b4a6d12	0.0030887765
157	0xbb77715d	-0.0037756779
158	0xb9ccbc94	-0.00039050414
159	0xbc487cea	-0.012236813
160	0xbd1188e8	-0.035530955
161	0xbb725999	-0.0036979674
162	0x3beced6c	0.0072304513
163	0x3c1726ec	0.009225588
164	0xbbf616ab	-0.0075100265
165	0xbb2ed859	-0.0026679246
166	0x3bd7f7c0	0.0065908134
167	0xbc191952	-0.009344416
168	0xbc482232	-0.012215184
169	0x3d9712a7	0.073766045
170	0x3a634c76	0.00086707564
171	0x3d5828ee	0.05277341
172	0xbbf445d1	-0.007454612
173	0xbb825411	-0.0039773067
174	0xbbe38cd0	-0.0069442764
175	0x3d00af94	0.031417444
176	0x3dabbc1b	0.08385488
177	0xbb321af8	-0.002717672
178	0xbc8bf3ad	-0.017083967
179	0x3c068c60	0.008212179
180	0xbd7d4fbe	-0.061843626
181	0x3bc2be96	0.00594313
182	0xbb8d1841	-0.00430587
183	0x3af4bb4b	0.001867154
184	0x3c215163	0.009846064
185	0x3b95b9eb	0.0045692823
186	0x3bfbe20c	0.007686859
187	0xbb869fc2	-0.0041084
188	0x39f15588	0.00046030828
189	0x3b7ddf24	0.0038737739
190	0x3b1478c0	0.002265498
191	0x3c214a3b	0.009844358
192	0x3d06d096	0.032913767
193	0x3d624239	0.055238936
194	0x3d10cff1	0.03535456
195	0x3bf17227	0.0073683443
196	0xbcba53ca	-0.022745032
197	0xbbd082da	-0.006363255
198	0xba48b66b	-0.0007656577
199	0x3b0e2a1e	0.0021692584
200	0xbd113f26	-0.035460614
201	0x3a8d8d9f	0.0010799653
202	0xbc56efe0	-0.013118714
203	0x3e11ae0a	0.14226547
204	0xbe453e81	-0.19262125
205	0xbc6bc7e1	-0.014390917
206	0x3bf0afa2	0.007345156
207	0xbd5c3594	-0.053762034
208	0xbc2ed957	-0.010671935
209	0x3e2b81cd	0.16748734
210	0xbc44faad	-0.012022656
211	0xba7ebd9a	-0.0009717584
212	0xbd83dc08	-0.06438452
213	0xbc13fd0c	-0.009032499
214	0x3c9958d8	0.018719122
215	0x3e1d0b30	0.15336299
216	0xbe9f01b5	-0.3105599
217	0x3f2cce1b	0.6750199
218	0x3d93c534	0.07215348
219	0x3e10c3b1	0.1413715
220	0x3d10da0c	0.035364196
221	0x3d7ebefd	0.06219386
222	0x3d8c27c9	0.06843526
223	0x3b3fefef	0.0029287299
224	0x3cd9c413	0.026582753
225	0xbd8da0e7	-0.06915455
226	0x3b652f56	0.0034970841
227	0xbd828b82	-0.06374265
228	0x3b6093a7	0.0034267695
229	0x3c1d800d	0.009613049
230	0xbca757ec	-0.020427667
231	0x3d39920c	0.045305297
232	0x3cd4a2dc	0.025956564
233	0x3c833e12	0.016020808
234	0x3c98db7b	0.018659344
235	0xbdc74b46	-0.09731154
236	0x3c507ffc	0.012725826
237	0xbb6cf185	-0.00361547
238	0xbb2be4c9	-0.0026228896
239	0xbe1d2eca	-0.1534988
240	0x3dbabf6d	0.09118543
241	0xbd1ef853	-0.03881104
242	0x3da3678e	0.07978736
243	0x3c22dad0	0.009939864
244	0x3e271417	0.16316257
245	0xbbaca798	-0.005269002
246	0xbb20ddda	-0.0024546296
247	0x3c76b150	0.015056923
248	0x3c80f11a	0.015739966
249	0x3bfdbc53	0.0077433973
250	0x3ba591ef	0.005052797
251	0x3b71f3d7	0.0036919022
252	0xbcc6667c	-0.02421879
253	0xbd0568b9	-0.032570574
254	0x3c65ed5f	0.014033644
255	0xbd0ce04e	-0.0343936

weight f4 [64]
0	0x3f24f954	0.64442945
1	0x3e2e8f3d	0.17046829
2	0x3e8337fd	0.25628653
3	0x3f139c4a	0.57660353
4	0x3e82ea06	0.2556917
5	0x3eab5bcc	0.33468473
6	0x3e1967c6	0.14980993
7	0x3e8c41d6	0.2739398
8	0x3d369667	0.04457703
9	0x3f0c27cf	0.54748243
10	0x3ed526b4	0.4163109
11	0x3e6e7764	0.23287731
12	0x3e7a8a5f	0.24466847
13	0x3e97b7a8	0.29632306
14	0x3ecb95e7	0.39762804
15	0x3eb2b38b	0.34902605
16	0x3e6e3460	0.23262167
17	0x3f1009c3	0.56264895
18	0x3f0e9e85	0.5571063
19	0x3eaa687a	0.33282834
20	0x3e88aa45	0.26692405
21	0x3eab4f7d	0.33459082
22	0x3edbfa1a	0.4296425
23	0x3e72d842	0.23715308
24	0x3e90019c	0.28126228
25	0x3ebcba00	0.36860657
26	0x3e000f49	0.12505831
27	0x3f096889	0.53675133
28	0x3ebd5efd	0.36986533
29	0x3e3b143a	0.18269435
30	0x3ea42612	0.32060295
31	0x3e6c8418	0.23097265
32	0x3eabb7a2	0.33538538
33	0x3e99edbd	0.30064192
34	0x3ecbce70	0.39805937
35	0x3e2b9111	0.16754557
36	0x3f1303ba	0.5742756
37	0x3dd43fd9	0.103637405
38	0x3de4a1df	0.11163687
39	0x3e29dd78	0.1658839
40	0x3e427600	0.18990326
41	0x3f03fd7f	0.5155868
42	0x3eb76af3	0.35823783
43	0x3e7a38be	0.24435708
44	0x3ed16ff2	0.4090572
45	0x3e3fc30c	0.18726748
46	0x3efbd6da	0.49187356
47	0x3e6b7bdc	0.22996467
48	0x3ea78dc2	0.3272534
49	0x3ea6fc48	0.3261435
50	0x3e5ff12e	0.21869346
51	0x3e4bc7c6	0.19900426
52	0x3ee71f82	0.45141226
53	0x3e710d4d	0.2354023
54	0x3d6c5a4b	0.057703298
55	0x3ec10c14	0.37704527
56	0x3e6a1f05	0.22863396
57	0x3e38e03d	0.1805429
58	0x3ed4e2d8	0.41579318
59	0x3eb528bb	0.35382637
60	0x3ea3a1ce	0.31959385
61	0x3d9912b5	0.07474271
62	0x3e3844f0	0.17995048
63	0x3e986b37	0.29769298

bias f4 [64]
0	0xbe569c9f	-0.20958184
1	0xbdd19acc	-0.10234603
2	0xbc9f048f	-0.019411353
3	0x3d27a130	0.040925205
4	0x3da601ff	0.081058495
5	0xbe8977aa	-0.2684911
6	0xbd8a9381	-0.067664154
7	0xbd9c3e44	-0.07629064
8	0x399ccaa4	0.00029905618
9	0x3db269c2	0.08711578
10	0xbe2a09ec	-0.16605347
11	0x3d064145	0.03277709
12	0x3c8a49c1	0.016880872
13	0x3d6ce4d2	0.057835408
14	0xbea8cb02	-0.32967383
15	0x3e077a20	0.1323018
16	0xbd893dee	-0.06701265
17	0xbe411f0d	-0.18859501
18	0xbea16686	-0.31523532
19	0x3e0c0bd9	0.13676395
20	0xbcd938f3	-0.026516413
21	0xbdf73bb9	-0.12071938
22	0xbdecc684	-0.11561301
23	0xbe1db3a2	-0.15400556
24	0xbdaa2746	-0.08308272
25	0xbe5a4984	-0.21317106
26	0xbd3e9661	-0.04653013
27	0xbe4274d2	-0.18989876
28	0xbe279814	-0.16366607
29	0x3c7affe7	0.015319801
30	0xbdb9c993	-0.0907165
31	0xbe238c68	-0.1597153
32	0x3df1b22f	0.11801564
33	0xbdaf6cf6	-0.085657045
34	0xbe98db04	-0.29854596
35	0x3c6b8390	0.014374629
36	0x3c7e3fc5	0.0155181335
37	0x3cdb3bfb	0.026762
38	0xbbdfe973	-0.0068332492
39	0xbda24e10	-0.079250455
40	0xbe0fbcb5	-0.1403683
41	0xbd90019c	-0.07031557
42	0xbe42338f	-0.1896498
43	0xbe47b339	-0.19501962
44	0xbd1785d7	-0.036992874
45	0x3d1bcf20	0.038039327
46	0xbdf15fd8	-0.11785859
47	0xbc66dfae	-0.014091415
48	0xbe67ba29	-0.22629608
49	0xbe3b85fb	-0.18312828
50	0x3cf747a7	0.030185534
51	0xbe81bfde	-0.25341696
52	0x3da47b64	0.080313474
53	0x3d693740	0.056937456
54	0xbd33ef33	-0.04392929
55	0xbda37620	-0.07981515
56	0x3df94f82	0.12173368
57	0x3d876cf6	0.066125795
58	0x3e0cd3f1	0.13752724
59	0xbe764fc7	-0.2405387
60	0xbcda6662	-0.026660148
61	0xbd318f8a	-0.04334978
62	0xbde2a049	-0.11065728
63	0xbdb4196d	-0.08793912

running_mean f4 [64]
0	0xbdda2db7	-0.10653251
1	0xbd51f55e	-0.05125939
2	0x3d02d25d	0.0319389
3	0x3e000ac0	0.12504101
4	0xbc96e6c1	-0.018420579
5	0x3d46e507	0.04855826
6	0x3d384cab	0.04499499
7	0xbc6cd622	-0.01445535
8	0xbbd45c75	-0.0064807483
9	0xbd1821a2	-0.03714145
10	0x3df896bc	0.12138125
11	0xbc4d19c4	-0.01251835
12	0xbde1be17	-0.11022585
13	0xbd527e91	-0.051390234
14	0x3db9217c	0.0903959
15	0xbdc7e952	-0.09761299
16	0x3d77d45b	0.060505252
17	0x3d67c7a4	0.056586877
18	0x3e51c601	0.20485689
19	0xbeb51824	-0.3536998
20	0xbd9fd454	-0.0780417
21	0x3d7b9989	0.06142572
22	0xbda6143c	-0.08109328
23	0x3d18f5c2	0.037343748
24	0xbcddc228	-0.02707012
25	0x3d03d882	0.0321889
26	0x3cc0b73e	0.023524877
27	0x3d1d90f8	0.03846833
28	0x3d9237a5	0.071395196
29	0x3be7ed44	0.007077845
30	0x3c1f9fd5	0.009742697
31	0x3d29839e	0.041385286
32	0x3d666052	0.056244202
33	0xbb60b538	-0.0034287702
34	0xbde1a578	-0.11017889
35	0x3ae485e0	0.0017434917
36	0x3d4f3119	0.050583933
37	0x3ccb0169	0.024780946
38	0xbcf3d717	-0.029765649
39	0x3c9e693c	0.019337289
40	0x3c57579e	0.013143448
41	0x3c4d549b	0.012532379
42	0x3da27fb5	0.079345144
43	0xbcf2516e	-0.029579844
44	0xbbb06d9c	-0.00538416
45	0xbdb4f5e8	-0.088359654
46	0x3e275a11	0.16342951
47	0xbb7dfe14	-0.0038756179
48	0xbd7b4b94	-0.061351374
49	0x3ba776a5	0.005110579
50	0xbba0b1fb	-0.0049040294
51	0xbd704c13	-0.0586663
52	0xbacf7cdb	-0.0015830057
53	0xbe123c8d	-0.14280911
54	0x3c524dd7	0.012835941
55	0x3d8d5489	0.069008894
56	0xbdbd344c	-0.092384905
57	0xbd648827	-0.055793907
58	0x3d296420	0.041355252
59	0x3bece471	0.007229381
60	0x3e1fad60	0.15593481
61	0x3ca4d1c3	0.020119553
62	0x3d7e56b8	0.06209442
63	0x3cdd324a	0.027001519

running_var f4 [64]
0	0x3c84622e	0.016160097
1	0x3b7f5011	0.0038957635
2	0x3a7b7d62	0.00095935736
3	0x3d1168b5	0.035500247
4	0x3bd36797	0.006451558
5	0x3cd8bde4	0.026457734
6	0x3ae1c6b5	0.0017225357
7	0x3bb072c9	0.005384777
8	0x389c3030	7.447635e-05
9	0x3cc56ab0	0.024098724
10	0x3c7b0f54	0.015323479
11	0x3a4d37a5	0.0007828421
12	0x3bb6c72b	0.005577942
13	0x3be43165	0.006963896
14	0x3cc59022	0.02411658
15	0x3c3020f8	0.010750048
16	0x3bf0a0f4	0.007343406
17	0x3cd55dc7	0.026045693
18	0x3d541f68	0.051787764
19	0x3d7cc856	0.061714493
20	0x3bf59b84	0.0074953455
21	0x3b36f4d7	0.0027916932
22	0x3c40f50e	0.011777176
23	0x3ad4c30e	0.0016232447
24	0x3c0034a0	0.007825047
25	0x3c26d714	0.010183115
26	0x3aca559b	0.0015436889
27	0x3c82d419	0.015970277
28	0x3c44f64e	0.012021614
29	0x3a5c4c23	0.0008403679
30	0x3bd42576	0.0064741923
31	0x3cb56527	0.02214296
32	0x3b97ade6	0.0046288846
33	0x3bfd7eaa	0.007736047
34	0x3c86cad4	0.016454138
35	0x3b8b70dc	0.0042553972
36	0x3d48101a	0.04884348
37	0x39f934b4	0.00047532248
38	0x3a655a87	0.00087491464
39	0x3b10b91b	0.0022082988
40	0x3b86a6a9	0.004109223
41	0x3c8a4997	0.016880793
42	0x3cff9224	0.031197615
43	0x3c3ca6f9	0.011514419
44	0x3c249c5c	0.010047045
45	0x3ba2432a	0.0049518542
46	0x3d32e922	0.043679364
47	0x3a3bf5c9	0.0007170109
48	0x3c7cbdca	0.015426109
49	0x3ce24bb3	0.027623987
50	0x39e50a37	0.00043685894
51	0x3be5fd33	0.007018709
52	0x3cc15ee3	0.023604816
53	0x3c521bc2	0.012824001
54	0x39182956	0.00014511248
55	0x3cb4ca9d	0.02206927
56	0x3be493a6	0.006975609
57	0x3b196e01	0.0023411515
58	0x3cb2163c	0.021739118
59	0x3a9554b8	0.0011393046
60	0x3d315da4	0.043302193
61	0x39987ee5	0.00029086243
62	0x3b2085ee	0.002449389
63	0x3b0e2995	0.0021692265

weight f4 [64, 1, 1]
0	0x3d3a9b33	0.045558166
1	0x3cede5fd	0.029040331
2	0xbcd4bd31	-0.02596912
3	0xbcb0de81	-0.021590473
4	0x3d45652f	0.0481922
5	0x3c813d8c	0.015776418
6	0xbcfa0e79	-0.03052448
7	0x3cf0898a	0.029362459
8	0x3c544f68	0.012958385
9	0x3d82b153	0.06381478
10	0x3d41bb76	0.047297917
11	0x3c2d6d3a	0.010585124
12	0x3c9b47b5	0.018955091
13	0xbcffbb74	-0.031217314
14	0xbc8544f9	-0.01626824
15	0xbc2e6fdd	-0.0106467875
16	0x3ccbd6a5	0.024882624
17	0xbcea2e80	-0.028586626
18	0xbcddec57	-0.027090235
19	0x3d99dd0f	0.07512867
20	0x3d12b4c2	0.035816915
21	0xbd239b5d	-0.039943088
22	0xbd2d1771	-0.042258684
23	0xbb903d7e	-0.0044018617
24	0x3c3ab0ee	0.011394722
25	0xbc8fcbbf	-0.017553208
26	0xbc9aeeba	-0.018912662
27	0xbd6bf5f1	-0.057607595
28	0x3d1bfd42	0.038083322
29	0xbc7a5cdf	-0.015280931
30	0xbd0ee7b8	-0.034888953
31	0xbd10073b	-0.035163146
32	0x3c03caac	0.008043926
33	0xbcee6cf2	-0.029104684
34	0x3cecc7b1	0.028903814
35	0xbd76cbb9	-0.06025288
36	0x3c8a80b2	0.01690707
37	0xbca78831	-0.020450683
38	0xbc786e3d	-0.015163002
39	0xbce6e7e9	-0.028186755
40	0x3c78b6d5	0.015180309
41	0xbd19b398	-0.03752479
42	0xbd329347	-0.043597486
43	0x3d002d54	0.03129323
44	0x3d33ab43	0.0438645
45	0xbcd2aa47	-0.02571596
46	0x3d9b15a3	0.07572486
47	0xbd0274ad	-0.031849552
48	0xbd20d5d4	-0.039266422
49	0x3cf1bf2b	0.029510101
50	0xbcda542f	-0.02665147
51	0x3cf82649	0.030291693
52	0xbcad833f	-0.021180747
53	0xbd64eb64	-0.05588855
54	0x3cdee408	0.027208343
55	0x3d70fec5	0.058836717
56	0xbd3b6000	-0.04574585
57	0xbcd86e9e	-0.026419934
58	0xbd160c98	-0.036633104
59	0xbcc5d689	-0.02415015
60	0xbd925142	-0.07144405
61	0x3c90ae58	0.017661259
62	0x3d05594e	0.03255587
63	0x3ce7bdd8	0.028288767
