ldpi/training/output/ResCNN/traced_model.pth (torch, 777470 bytes, 63 tensors)

weight f4 [1, 1, 7]
0	0xbeb200b5	-0.34766164
1	0xbfe2251d	-1.7667576
2	0x3d784752	0.06061489
3	0xbc9d09b7	-0.019169671
4	0x3dde6ec4	0.108609706
5	0xbe462679	-0.19350614
6	0xbf2f771f	-0.6854114

weight f4 [64, 1, 1]
0	0x3d19ed7e	0.037580006
1	0xbd075436	-0.033039294
2	0x3bbf1647	0.005831513
3	0xba7a785c	-0.0009554678
4	0x3c330a9e	0.010927824
5	0x3d1aff5b	0.037841182
6	0xbc67e07b	-0.014152641
7	0xbc9562ac	-0.018235527
8	0xbca541ba	-0.020172942
9	0x3cb57b2b	0.022153458
10	0x3d05a4b0	0.03262776
11	0x3c666736	0.014062693
12	0x3cb2caf1	0.021825286
13	0xbd1bdd7a	-0.038053013
14	0xbc1b15cb	-0.009465645
15	0xbd1f0f5a	-0.038833
16	0x3cb05509	0.021524923
17	0xbc8e8161	-0.017395677
18	0x3c167f08	0.00918556
19	0xbc9dac1b	-0.019247105
20	0x3a492f33	0.0007674575
21	0xbc2094e4	-0.009801123
22	0x3c433159	0.011913621
23	0x3c8acb13	0.016942536
24	0x3cb78761	0.02240342
25	0xbc83d84e	-0.016094353
26	0xbc73c0bf	-0.014877497
27	0xbcd75797	-0.026286883
28	0x3cfcb29e	0.03084689
29	0xbc602854	-0.01368149
30	0xbce70b2d	-0.028203571
31	0x3d049c49	0.032375608
32	0xbd2131a0	-0.039353967
33	0x3ec3b10e	0.3822102
34	0x3d765918	0.06014356
35	0x3d19410a	0.03741554
36	0x3e320807	0.17385875
37	0x3c80dd6b	0.01573058
38	0x3bd6b21f	0.0065519954
39	0x3bc1df32	0.0059164995
40	0xbc3c5fa7	-0.011497415
41	0xbcf64998	-0.03006439
42	0xbcc37ea5	-0.0238641
43	0xbcfb9945	-0.030712733
44	0xbc8ee443	-0.017442828
45	0x3cbedcaf	0.02329859
46	0x3d8e552f	0.06949841
47	0xbca8bee0	-0.020598829
48	0xbcc7a244	-0.024369366
49	0x3d02abd7	0.03190216
50	0x3b88388e	0.0041571325
51	0x3bb6ea42	0.005582125
52	0x3cdf90d7	0.027290745
53	0xbc948e04	-0.018134125
54	0xbcd29649	-0.025706427
55	0x3d053e9a	0.032530405
56	0x3ba97eab	0.0051725707
57	0x3cc89729	0.024486141
58	0x3cf4dde7	0.029890968
59	0x3ce09947	0.027416838
60	0xbc97e343	-0.018540984
61	0x3d259517	0.040425386
62	0x3c94484b	0.018100878
63	0xbce2d121	-0.027687611

weight f4 [64]
0	0x3d46bff3	0.0485229
1	0x3df10549	0.11768586
2	0x3d32b163	0.0436262
3	0x3d1b6b4c	0.037944123
4	0x3d1ac99c	0.037789926
5	0x3d2de714	0.0424567
6	0x3e31317e	0.17304036
7	0x3d3cfda0	0.046140313
8	0x3c9afb2f	0.018918602
9	0x3ddb8623	0.10718944
10	0x3e552738	0.20815742
11	0x3daa16ee	0.08305155
12	0x3d1dd255	0.038530666
13	0x3caf0e0a	0.021368999
14	0x3d91b312	0.07114233
15	0x3f4413c5	0.76592666
16	0x3e9e93dc	0.30972183
17	0x3d5bc219	0.053651903
18	0x3d36dfb9	0.044646952
19	0x3d6f0ed7	0.05836376
20	0x3d28ae9b	0.04118214
21	0x3e08f4b3	0.13374595
22	0x3d9f01d9	0.07764024
23	0x3d44cfbf	0.048049685
24	0x3e39be10	0.1813891
25	0x3d12b428	0.03581634
26	0x3e7e6f15	0.24847062
27	0x3ddfe4d1	0.10932315
28	0x3d32041d	0.043460954
29	0x3ce4a26c	0.02790948
30	0x3db9ea70	0.090779185
31	0x3d5baf26	0.05363383
32	0x3d9331c8	0.071872294
33	0x3fb4cb68	1.4124575
34	0x3f6efbb2	0.93352807
35	0x3d259c5d	0.040432323
36	0x3f49f7ff	0.78894037
37	0x3d56435c	0.052310333
38	0x3d5b791f	0.053582307
39	0x3d1ffee8	0.039061457
40	0x3e1e77f5	0.15475447
41	0x3f228a5d	0.63492376
42	0x3d0a8cdb	0.033825736
43	0x3ec0fc8b	0.37692675
44	0x3e24b6c0	0.16085339
45	0x3d2fa8af	0.04288548
46	0x3f9b8ca1	1.2152292
47	0x3ea07986	0.31342715
48	0x3d0f101e	0.03492748
49	0x3d759474	0.05995603
50	0x3c5aaacb	0.013346384
51	0x3d38a3e1	0.045078162
52	0x3e3049d4	0.17215663
53	0x3da49b4c	0.08037433
54	0x3e16d186	0.14728364
55	0x3e76bc59	0.24095286
56	0x3d26448a	0.040592708
57	0x3d5a921e	0.053362004
58	0x3d4051ac	0.04695289
59	0x3d2f7af5	0.04284187
60	0xbd9d5c3c	-0.07683608
61	0x3d33a3f2	0.043857522
62	0x3e962e2a	0.29332095
63	0x3f021834	0.5081818

bias f4 [64]
0	0x3c25697f	0.010095953
1	0x3e9228cb	0.28546748
2	0x3c952a8f	0.01820877
3	0xbddd22ef	-0.10797679
4	0x3d43f501	0.047841076
5	0xbd1a1087	-0.037613418
6	0x3d30a88b	0.043129485
7	0x3c0477be	0.008085189
8	0xbdd297fe	-0.102828965
9	0xbd9a81ca	-0.075442865
10	0xbd57aed0	-0.05265695
11	0x3d88f185	0.06686691
12	0x3c4d9cbf	0.012549578
13	0xbe59226d	-0.21204539
14	0xbc2ff3c2	-0.010739269
15	0x3e074d46	0.13213071
16	0x3e3a28f9	0.18179692
17	0x3d2408a3	0.0400473
18	0x3be26200	0.006908655
19	0xbcdb9089	-0.026802318
20	0x3c1d0b94	0.00958528
21	0x3d32acba	0.043621756
22	0x3d8d1426	0.06888609
23	0x3c2328f7	0.009958497
24	0x3e53abe0	0.20671034
25	0xbccd54fb	-0.025064936
26	0x3d8735f5	0.06602088
27	0x3cbd3e2d	0.023100937
28	0x3d452759	0.048133228
29	0xbe7833a4	-0.2423845
30	0x3d369bfa	0.044582345
31	0x3cfd9423	0.030954426
32	0xbcb2bedc	-0.021819524
33	0xbf21b486	-0.6316608
34	0x3d8dc920	0.06923127
35	0xbdf92bf9	-0.1216659
36	0x3f0ecbb8	0.557796
37	0x3cc78849	0.024356978
38	0x3e2d7bc8	0.1694175
39	0x3cbe5f43	0.023238784
40	0x3d1e6f14	0.03868015
41	0x3e18100d	0.14849873
42	0xbdd42237	-0.103580885
43	0x3d9c8412	0.07642378
44	0x3d09d27d	0.033648003
45	0x3c36658a	0.011132607
46	0x3e9d1a8c	0.30684316
47	0xbdcf64c8	-0.101266444
48	0xbd5f8cc3	-0.0545776
49	0x3c870819	0.016483353
50	0xbebfad54	-0.37436926
51	0x3bfe59fe	0.0077621927
52	0xbec52451	-0.3850427
53	0xbc6df2ee	-0.014523251
54	0x3d083ecc	0.033263013
55	0xbd8c5739	-0.06852574
56	0xbd87fa79	-0.06639571
57	0x3ca3af95	0.019981185
58	0x3bee2353	0.0072673946
59	0x3c5ac57d	0.013352749
60	0x3f3348f7	0.7003321
61	0x3c31b0d2	0.01084538
62	0xbd5c182a	-0.053733982
63	0x3e1474a3	0.14497618

running_mean f4 [64]
0	0xbcc68819	-0.024234818
1	0x3cae8b21	0.021306576
2	0xbb76756b	-0.0037606608
3	0x3a218651	0.00061616773
4	0xbbe6ec34	-0.0070472006
5	0xbcc7e951	-0.024403246
6	0x3c1588be	0.00912684
7	0x3c40ac53	0.011759835
8	0x3c5524be	0.013009248
9	0xbc6a11bb	-0.014286454
10	0xbcac5e90	-0.021041185
11	0xbc149572	-0.009068834
12	0xbc669a12	-0.014074819
13	0x3cc907ce	0.024539854
14	0x3bc80642	0.0061042616
15	0x3ccd26ad	0.025042856
16	0xbc636da4	-0.013881121
17	0x3c37cca8	0.011218227
18	0xbbc21b15	-0.0059236386
19	0x3c4b5c7c	0.012412187
20	0xba01bdb1	-0.00049492257
21	0x3bcf1d18	0.006320607
22	0xbbfbc10f	-0.0076829265
23	0xbc3302fb	-0.010926004
24	0xbc6cb5d8	-0.014447652
25	0x3c2a0cc6	0.010379022
26	0x3c1d315f	0.0095942905
27	0x3c8adf02	0.016952042
28	0xbca2f612	-0.019892726
29	0x3c108e59	0.008823001
30	0x3c94ff2f	0.018188087
31	0xbcab098c	-0.020878576
32	0x3ccfe73f	0.025378821
33	0xbe7c65c5	-0.24648197
34	0xbd1eddcb	-0.038785737
35	0xbcc5a9ac	-0.024128757
36	0xbde59eaf	-0.11211907
37	0xbc2634d3	-0.01014443
38	0xbb8a744d	-0.00422529
39	0xbb7a0ceb	-0.0038154672
40	0x3bf2f584	0.0074145216
41	0x3c9ed3cd	0.019388104
42	0x3c7c24c3	0.015389624
43	0x3ca240a2	0.01980621
44	0x3c384c32	0.011248635
45	0xbc762b23	-0.015024933
46	0xbd3793a7	-0.044818547
47	0x3c59a4b2	0.013283895
48	0x3c80bdb6	0.015715461
49	0xbca8893e	-0.020573255
50	0xbb2fb1a5	-0.0026808765
51	0xbb6beb32	-0.0035998342
52	0xbc902ca7	-0.017599417
53	0x3c3f9a0c	0.0116944425
54	0x3c87cdfc	0.016577713
55	0xbcabdae6	-0.020978402
56	0xbb5a9c11	-0.0033357183
57	0xbc815ba4	-0.015790768
58	0xbc9de942	-0.019276265
59	0xbc90d730	-0.017680734
60	0x3c43e68a	0.01195682
61	0xbcd59043	-0.026069766
62	0xbc3f401f	-0.0116730025
63	0x3c924562	0.01785535

running_var f4 [64]
0	0x3a2688d8	0.0006352789
1	0x3a00b8c9	0.00049103476
2	0x37805296	1.5297246e-05
3	0x34dc78be	4.1066045e-07
4	0x38614f0c	5.37178e-05
5	0x3a28db7e	0.0006441398
6	0x38bcf42d	9.01002e-05
7	0x391cd9dc	0.00014958478
8	0x393ff351	0.00018305822
9	0x39677da4	0.00022076681
10	0x39fb11fa	0.00047887844
11	0x38ba8f44	8.8958564e-05
12	0x3960aee5	0.00021427458
13	0x3a2ac0d0	0.00065137167
14	0x38290c65	4.0304283e-05
15	0x3a31d32c	0.0006783481
16	0x395a8aa0	0.00020841742
17	0x390ebc66	0.00013612359
18	0x381f3138	3.7954393e-05
19	0x392ebc54	0.00016664091
20	0x348e3e13	2.6494726e-07
21	0x38353e53	4.3211807e-05
22	0x3885e56d	6.384668e-05
23	0x39076583	0.0001291242
24	0x396cbe84	0.00022577686
25	0x38f45bd0	0.00011651928
26	0x38d0ce06	9.956588e-05
27	0x39a2f779	0.0003108343
28	0x39e06921	0.00042802937
29	0x38b09519	8.4201056e-05
30	0x39bb992a	0.00035781536
31	0x39f73460	0.00047150534
32	0x3a36a0ce	0.0006966711
33	0x3d8694dc	0.065713614
34	0x3ad54645	0.0016271552
35	0x3a251481	0.0006297306
36	0x3c5ec60d	0.013597024
37	0x38e96ff0	0.00011131156
38	0x37a1fd67	1.9310695e-05
39	0x37841712	1.574637e-05
40	0x3879688b	5.946359e-05
41	0x39d52b71	0.00040658892
42	0x39864f8e	0.00025617745
43	0x39de7681	0.00042431432
44	0x390f82c3	0.00013686255
45	0x39800548	0.00024417997
46	0x3b0e63ec	0.0021727039
47	0x3948240f	0.00019086919
48	0x398c0ef3	0.0002671402
49	0x39f00705	0.00045781597
50	0x37026c9c	7.773891e-06
51	0x376b29d6	1.4016832e-05
52	0x39afa6be	0.00033502834
53	0x391b1c88	0.0001479258
54	0x399bd95b	0.00029725846
55	0x39f992fb	0.0004760249
56	0x3749ec06	1.2035487e-05
57	0x398d6766	0.00026970654
58	0x39d2b7ae	0.00040191173
59	0x39b1473a	0.0003381314
60	0x39222655	0.00015463804
61	0x3a40b52c	0.00073512155
62	0x391a8b10	0.0001473839
63	0x39b4cc13	0.00034484323

weight f4 [64, 1, 5]
0	0xbc896892	-0.016773496
1	0x3c5b4c9e	0.013384966
2	0xba12f561	-0.00056060223
3	0x3c3d3c6e	0.011550052
4	0x3c4294ed	0.011876327
5	0x3deb87fb	0.115005456
6	0x3c8bec99	0.017080592
7	0xbd0ec865	-0.03485908
8	0x3cdeffa0	0.0272215
9	0x3d04fe71	0.032469217
10	0x3ca5131d	0.020150715
11	0x3cb961df	0.022629676
12	0xbc06bd9a	-0.0082239155
13	0x3ca07b53	0.019590056
14	0xbc25a909	-0.010111102
15	0xbc8c4812	-0.01712421
16	0xbc49731c	-0.012295511
17	0xbcce2b0f	-0.025167016
18	0xbb861ad6	-0.0040925546
19	0x3a83b3ac	0.0010048053
20	0xbc9bb49a	-0.019007016
21	0xbb3fafbc	-0.0029249033
22	0xbb23e744	-0.0025009671
23	0x3c38a010	0.011268631
24	0xbc62ac8c	-0.013835084
25	0x3c7c69c4	0.015406076
26	0x3b500876	0.0031743324
27	0x3c4b0042	0.012390198
28	0x3c9547b3	0.018222665
29	0xbb3dd37b	-0.0028965164
30	0x3da8d1c0	0.08243132
31	0x3d5341f3	0.051576566
32	0x3d45a0e9	0.04824916
33	0x3d8c9593	0.068644665
34	0x3da2f372	0.0795659
35	0xbbc68e59	-0.0060594496
36	0xbc095553	-0.008382159
37	0xbbd9b860	-0.0066442937
38	0xbc3a156e	-0.011357648
39	0xbcc13ea2	-0.023589436
40	0xbbbdaa12	-0.005788096
41	0xbc4f4e09	-0.012652882
42	0xbba186ed	-0.0049294145
43	0x3b6440bf	0.003482863
44	0x3c887226	0.016655993
45	0x3cfc3ef9	0.030791746
46	0x3bebb033	0.0071926354
47	0x3cf51b4f	0.029920248
48	0x3d143846	0.03618648
49	0x3ceafc54	0.028684773
50	0x3da01c6f	0.07817923
51	0x3da49feb	0.080383144
52	0x3d87ce5d	0.066311575
53	0x3d8b91ee	0.06814943
54	0x3dc8da18	0.09807223
55	0x3cd6badb	0.026212147
56	0xbc1e301e	-0.009655027
57	0xbc5e76a7	-0.013578094
58	0xbc4c0113	-0.012451428
59	0x3c6058fc	0.0136930905
60	0x3b5ea920	0.0033975318
61	0x3c0958d3	0.008382994
62	0x3b80aa13	0.0039265244
63	0x3b93b801	0.004508019
64	0xbac10d7c	-0.001472875
65	0xbb8a22da	-0.0042155804
66	0xbc81e1d5	-0.015854755
67	0xbc4a0fb5	-0.012332846
68	0xbc925452	-0.017862473
69	0xbc3aa017	-0.011390707
70	0xbca436d0	-0.020045668
71	0xbcf08171	-0.029358597
72	0xbd02fa5a	-0.031977035
73	0xbbcc0fd1	-0.0062274714
74	0xbced5bf6	-0.028974514
75	0x3e7fb2f8	0.24970615
76	0xbd8a1ee3	-0.067441724
77	0x3dcfeae4	0.10152224
78	0x3e17393b	0.14767925
79	0x3ebaa59e	0.3645448
80	0xbdeb348d	-0.11484633
81	0x3e140417	0.14454685
82	0x3e3a9805	0.18222053
83	0x3dad62dd	0.08466122
84	0xbc099d0a	-0.008399257
85	0xbaf69c5a	-0.0018814907
86	0x39c82117	0.00038171627
87	0xbc89fbae	-0.016843643
88	0xbbc93af1	-0.0061410596
89	0xbacf160f	-0.0015799421
90	0xbb461aab	-0.0030228298
91	0x3c4a68ae	0.012354059
92	0x3ca02b4c	0.019551896
93	0x3c658193	0.014007944
94	0xbad9be33	-0.001661247
95	0xbcc0310b	-0.023460886
96	0xbca21181	-0.019783737
97	0xbbfd3c6b	-0.0077281496
98	0xbc94e5be	-0.018175956
99	0xbc6401a1	-0.013916404
100	0xbb86c187	-0.0041124257
101	0x3c768c64	0.01504812
102	0x3c651a6f	0.013983353
103	0xbc97e80a	-0.018543262
104	0x3bb675d0	0.0055682436
105	0x3d981186	0.07425217
106	0x3d2542df	0.040346976
107	0x3cc7482f	0.024326412
108	0x3c733582	0.0148443
109	0x3b7e372d	0.0038790212
110	0x3c39750a	0.011319408
111	0xbc7f4fda	-0.015583003
112	0xbcb135a7	-0.021632029
113	0xbc0f6bf6	-0.008753767
114	0xbcb697b4	-0.022289135
115	0xbbb3060b	-0.005463367
116	0xbb83da40	-0.00402382
117	0xbb1c9f4f	-0.0023898666
118	0x3ba08b37	0.004899408
119	0xbc9eb221	-0.019372048
120	0x3c2c9c33	0.010535288
121	0x3df5451e	0.11976074
122	0x3dafa1ed	0.08575807
123	0x3d1c647a	0.03818176
124	0x3d39f486	0.04539921
125	0xbc2ed13e	-0.010670004
126	0xbc12d35d	-0.008961526
127	0x3b9aece8	0.0047279485
128	0x3b432f6a	0.00297829
129	0x3bc28adb	0.005936963
130	0xbe219e7e	-0.15783116
131	0xbdb63e9a	-0.08898659
132	0xbd72ca9d	-0.05927526
133	0xbd10472f	-0.035224136
134	0xbd9df94f	-0.077135675
135	0x3d30874b	0.043097775
136	0x3ca059f1	0.019574137
137	0x3c7c218c	0.015388858
138	0x3caa94f8	0.020822987
139	0x3c60c0a4	0.013717804
140	0xbc99f71e	-0.018794592
141	0x3c579cfa	0.013159985
142	0xba937846	-0.0011251054
143	0x3cc3f907	0.023922456
144	0x3adc5666	0.0016810417
145	0xbc9d81d6	-0.01922695
146	0xbc99d92e	-0.018780317
147	0xbc95daf4	-0.018292882
148	0x3b81807c	0.003952084
149	0xbc6f13d9	-0.014592134
150	0xbd033e32	-0.032041736
151	0xbd1172fd	-0.035510052
152	0xbb97194d	-0.0046111704
153	0xbcc8e998	-0.024525449
154	0xbc8a9900	-0.01691866
155	0xbb94b62a	-0.004538317
156	0xbc806153	-0.015671408
157	0x3b99a1ed	0.0046884925
158	0xba20df6a	-0.0006136807
159	0xbc36a39f	-0.011147409
160	0xbccf26a7	-0.025286986
161	0xbc6c039a	-0.014405156
162	0xbccd64c6	-0.025072467
163	0xbcd613d9	-0.026132511
164	0xbbe88aa0	-0.0070966035
165	0xbd875558	-0.06608075
166	0xbe27f152	-0.1640065
167	0xbe381071	-0.17975022
168	0xbd20fd80	-0.039304256
169	0xbe87e096	-0.26538533
170	0x3da63867	0.08116227
171	0x3c809a5c	0.015698604
172	0xbf0da175	-0.5532449
173	0xbf5338c4	-0.8250849
174	0xbe091167	-0.13385545
175	0x3c1df48f	0.009640827
176	0x3b41cbe8	0.0029571
177	0x3c5092ff	0.012730359
178	0x3c814310	0.015779048
179	0x3c605505	0.013692145
180	0x3f665813	0.8997814
181	0x3e0cea38	0.13761222
182	0xbcc9f586	-0.024653208
183	0xbee0245a	-0.43777734
184	0xbf2cb915	-0.6746991
185	0x3c94f325	0.018182347
186	0xbc34b8ba	-0.01103037
187	0x3c436c39	0.011927658
188	0xbbd1c7fc	-0.006402014
189	0x3c8544af	0.016268102
190	0x3d123b45	0.035701055
191	0x3aba48f3	0.0014212414
192	0xbc2a404a	-0.010391304
193	0xbc132e73	-0.008983242
194	0xbc4d8017	-0.012542746
195	0xbc4e13ca	-0.01257796
196	0x3a73369c	0.0009277852
197	0xbb9fa195	-0.004871557
198	0x39272b3e	0.0001594247
199	0x3c41e9cd	0.011835528
200	0xbd74a39d	-0.059726346
201	0xbc94574c	-0.018108033
202	0xbd3c7d1e	-0.04601776
203	0xbd647e56	-0.055784546
204	0xbd7ba2fc	-0.06143473
205	0xbec6ba9e	-0.38814253
206	0xbc3014c1	-0.010747136
207	0x3caa02b1	0.020753236
208	0xbe48e87b	-0.19619934
209	0xbe890f45	-0.26769462
210	0xbc0ac671	-0.008470164
211	0xbca49553	-0.020090735
212	0xbbe2f09d	-0.006925656
213	0xbc196309	-0.009361991
214	0x3a826f22	0.0009951333
215	0xbe1bf476	-0.15229973
216	0xbd486529	-0.0489246
217	0xbd9ab4e3	-0.07554033
218	0xbd825bfc	-0.06365201
219	0xbe0c0be5	-0.13676412
220	0x3d9854be	0.07438038
221	0x3d3f79e1	0.046747092
222	0x3d459320	0.048236012
223	0x3d61649f	0.0550276
224	0x3d99b556	0.0750529
225	0x3c408fda	0.011753047
226	0xbc8cb1d7	-0.017174644
227	0x3c0475b2	0.008084701
228	0x3b13dd65	0.0022562381
229	0xbc4e2605	-0.012582307
230	0xbfa4a9e4	-1.2864347
231	0x3f2c33ec	0.67266726
232	0x3f4eaf1e	0.8073596
233	0x3ef6ada3	0.4817935
234	0x3e33ce2b	0.17559116
235	0xbdc8a908	-0.09797865
236	0xbd4d6d53	-0.050153088
237	0xbd82f9c1	-0.06395293
238	0xbda502cb	-0.08057173
239	0xbe0fd394	-0.14045554
240	0xbc66dbcf	-0.014090492
241	0x3c14b03e	0.009075223
242	0xbc95b9c7	-0.018277062
243	0xbc8d3fae	-0.017242279
244	0xbb63f7ff	-0.0034785268
245	0x3c5ca719	0.013467574
246	0x3b676834	0.0035309913
247	0x3b58f67e	0.0033105905
248	0x3cdbd8b8	0.026836738
249	0x3cdb0580	0.026736021
250	0x3ccd515f	0.025063215
251	0x3c047108	0.008083589
252	0x3c6d5a3c	0.014486846
253	0xbac1acbe	-0.0014776213
254	0x3bef3150	0.0072995797
255	0x3c0c6730	0.008569524

weight f4 [64, 64, 1]
0	0xba77e8a9	-0.00094569713
1	0xbb959157	-0.004564445
2	0x3b8c2fc4	0.004278155
3	0xb9d7f78a	-0.00041192427
4	0xb9b49e3e	-0.00034450175
5	0xbbbb1124	-0.0057088304
6	0x3b81fbe2	0.0039667943
7	0xbb64af65	-0.0034894582
8	0x3b9957ae	0.0046796417
9	0xbaef7134	-0.001826799
10	0xbb70bea6	-0.003673473
11	0xbc0eaa40	-0.008707583
12	0xbaf698ec	-0.0018813885
13	0x39b547d3	0.00034576523
14	0x3b5aa0a9	0.003335992
15	0x3c0cbac4	0.00858945
16	0xbc900113	-0.017578637
17	0x3b91da66	0.004451084
18	0xbc1c8187	-0.009552366
19	0x3b9d2733	0.0047959327
20	0x3b5d620d	0.0033780367
21	0xbb516188	-0.0031949002
22	0xbbde0c9b	-0.006776405
23	0xbaede1b3	-0.0018148929
24	0xbbad6ece	-0.00529275
25	0xbb80c675	-0.003929908
26	0x3af5e2d0	0.0018759612
27	0x3c13eea4	0.009029064
28	0xbb1a84c3	-0.0023577667
29	0x3a2d545c	0.0006611997
30	0x3aaaf8f2	0.0013044162
31	0x3b4b8046	0.0031051799
32	0x3bab9d70	0.005237274
33	0xbc193a1d	-0.009352234
34	0x3c1bccb9	0.009509259
35	0xbb8d735b	-0.00431673
36	0x3c856e31	0.016287895
37	0xb9fdb402	-0.00048390037
38	0xbc0e5a19	-0.008688473
39	0xbb090227	-0.0020905824
40	0x3b577ac4	0.003287957
41	0x3c220fc2	0.009891452
42	0x3aebd931	0.0017993805
43	0x3c0f61e7	0.008751369
44	0x3acf0020	0.0015792884
45	0x3b897d93	0.004195878
46	0xbcc98c0a	-0.024602909
47	0xbb27b45c	-0.002558968
48	0x3b15069e	0.002273954
49	0xbabac166	-0.0014248311
50	0xbb06331a	-0.0020477236
51	0xbb5683d8	-0.0032732394
52	0x3ba8b9ec	0.0051491167
53	0x3b49159e	0.003068305
54	0xba340564	-0.00068672583
55	0xbb5c0521	-0.0033572393
56	0x3a0c4368	0.00053506205
57	0xbc0cca9b	-0.008593227
58	0xba1b66a4	-0.00059280754
59	0xbb50ec5d	-0.0031879165
60	0xbc3c0d97	-0.011477849
61	0x3a79c2d4	0.0009527628
62	0xba21d07a	-0.0006172728
63	0xbac705ab	-0.0015184184
64	0xbb63709a	-0.0034704567
65	0xbc52f779	-0.012876385
66	0xbb89ddc9	-0.004207347
67	0xbbc3a9a2	-0.0059711495
68	0xbb106cc8	-0.0022037495
69	0x3b93d8da	0.0045119347
70	0xbe0b7085	-0.13617142
71	0x3c816bd0	0.01579848
72	0x3b1d1a76	0.002397207
73	0x3c222e85	0.009898786
74	0xbe13ed10	-0.14445901
75	0xbc2085fd	-0.00979757
76	0xb98b937e	-0.00026622036
77	0x3a1fd053	0.00060964114
78	0x3cbff3a8	0.023431614
79	0xbf32b276	-0.6980356
80	0x3c81ee1e	0.015860613
81	0xb88bf154	-6.6729874e-05
82	0xbb3a9219	-0.0028468429
83	0x3c3b6695	0.011438032
84	0xbaaad04f	-0.0013032052
85	0xbcc8e564	-0.024523444
86	0xb9d3b940	-0.00040383078
87	0x3bc51f1f	0.006015673
88	0xbdb3581e	-0.087570414
89	0x3bb78fdd	0.0056018666
90	0x3dab8022	0.08374049
91	0xbcbb8546	-0.022890698
92	0x3ba2a53a	0.004963544
93	0xba6e6206	-0.0009093586
94	0x3c075541	0.008260072
95	0xbaa6598b	-0.0012691481
96	0x3cece21a	0.028916407
97	0x3f267e3e	0.6503638
98	0xbef32927	-0.47492334
99	0x396acfce	0.00022393392
100	0xbd8fa97d	-0.07014749
101	0xbba8ce8b	-0.005151575
102	0xba1054b3	-0.0005505785
103	0xbad3df0b	-0.0016164494
104	0x3dcecdda	0.10097857
105	0x3e5bd62f	0.21468423
106	0x3aae7364	0.0013309536
107	0x3e8fa127	0.28052637
108	0xbe006131	-0.12537076
109	0x3b31c24e	0.0027123871
110	0x3e303eb0	0.17211413
111	0x3e142942	0.14468864
112	0xbba0d61d	-0.004908337
113	0xbc62e39d	-0.013848213
114	0xb9006972	-0.00012246313
115	0x3ba96480	0.0051694512
116	0xbe787b34	-0.24265748
117	0x3d04b921	0.032403115
118	0x3dc76e5b	0.097378455
119	0x3df8923a	0.121372655
120	0x3b4ad44e	0.0030949297
121	0xba20ba36	-0.0006131263
122	0xbc7369dd	-0.014856783
123	0x3bc17fd9	0.005905133
124	0x3d0b6eb8	0.034041137
125	0x3c2c063b	0.010499532
126	0xbe1c16d0	-0.15243077
127	0x3eac6ac2	0.336752
128	0xb9d5a4a0	-0.0004074918
129	0xbc4be008	-0.01244355
130	0xbb78e014	-0.0037975358
131	0xbb3add4c	-0.002851325
132	0xb94cd5b9	-0.00019534574
133	0x3b9fec29	0.0048804474
134	0xbc1b8e51	-0.00949438
135	0x3bf91167	0.0076009515
136	0x3b2c63ad	0.0026304529
137	0x3bc6b81c	0.006064428
138	0xbc9dbf05	-0.019256124
139	0xbc3237f7	-0.010877601
140	0x3ac16ad8	0.0014756573
141	0xba66e181	-0.00088074064
142	0x3baa174f	0.005190767
143	0xbcbf914d	-0.023384714
144	0xbdbb93be	-0.09159039
145	0xbba87f51	-0.0051421304
146	0x3b039c71	0.002008226
147	0x3b525467	0.0032093765
148	0x3b616e59	0.0034398048
149	0xbc1b6c70	-0.009486303
150	0x3ae36524	0.0017348868
151	0x3b078967	0.0020681263
152	0xbcfcf4ca	-0.030878443
153	0xbb956edc	-0.0045603346
154	0x3c3bb334	0.0114563
155	0xbcec7ba0	-0.028867543
156	0xbb96f58c	-0.004606908
157	0x3b1d7c32	0.0024030325
158	0x3b9cc4cb	0.0047842017
159	0x3b6e3217	0.0036345774
160	0x3b8915ef	0.004183523
161	0x3d670301	0.05639935
162	0xbd49b758	-0.049247116
163	0x3a255ade	0.0006307791
164	0xbd90a298	-0.07062262
165	0xbbc33bfe	-0.0059580794
166	0xbb61a883	-0.0034432716
167	0x390b0e80	0.00013261475
168	0x3bb5bc4d	0.005546129
169	0x3d78ad25	0.060712
170	0x3b101d69	0.0021990186
171	0x3d12c8f2	0.035836168
172	0xbbb6e91a	-0.005581987
173	0xbb255f63	-0.0025233857
174	0xbde201fb	-0.11035534
175	0x3c7f37af	0.015577241
176	0x3b740735	0.003723574
177	0xbbc9f396	-0.006163071
178	0xbb3623ea	-0.0027792403
179	0xbaf82ded	-0.0018934585
180	0xbc4f9518	-0.012669824
181	0x3be548ae	0.0069971895
182	0x3c2d17ff	0.010564803
183	0x3cbc5992	0.02299193
184	0xbae42a55	-0.0017407635
185	0xbb728734	-0.0037006857
186	0xbb502cb3	-0.0031764924
187	0x3bcb96d6	0.0062130494
188	0x3c9145da	0.017733503
189	0x3acbac42	0.0015539008
190	0xbc87b029	-0.016563492
191	0x3d6f00ff	0.05835056
192	0xbab2138c	-0.0013586148
193	0xbbbfc877	-0.0058527547
194	0x3bb31456	0.0054650707
195	0x3a9908f9	0.0011675648
196	0xbb1c5072	-0.002385166
197	0x3b70cb38	0.0036742222
198	0xbac7375c	-0.0015198993
199	0x3b3a642c	0.0028441055
200	0xbb12785c	-0.0022349572
201	0xbc0305ba	-0.007996971
202	0xba418b88	-0.00073831575
203	0xbb8338c8	-0.0040045716
204	0x3bf0730d	0.007337934
205	0xba5688d9	-0.0008183844
206	0x3b02a623	0.001993545
207	0x3c2eca20	0.010668308
208	0xba0d010d	-0.000537888
209	0x3bc9ac63	0.0061545833
210	0x3b953f90	0.0045546964
211	0x3aa7958d	0.0012785658
212	0x3c054dbd	0.00813621
213	0xbc495543	-0.012288394
214	0xbb46c73d	-0.0030331158
215	0xbb1bfb1f	-0.0023800803
216	0x3b416ab5	0.0029513065
217	0x3ab09cfe	0.0013474522
218	0xbb00aa9d	-0.0019632943
219	0x3bf33687	0.0074222717
220	0xb90a7390	-0.00013203756
221	0x3b2adea5	0.0026072648
222	0x3bc14290	0.0058978274
223	0xbb8b31fc	-0.004247902
224	0x3b75c6c5	0.003750251
225	0x3b29eae8	0.0025927369
226	0x39c66e0d	0.00037847497
227	0xbb037244	-0.0020057121
228	0xbba4cb75	-0.005029137
229	0x3b97ae9d	0.00462897
230	0xbb6c1356	-0.0036022267
231	0x3b2eb1f7	0.0026656368
232	0xbb96ec72	-0.004605823
233	0x3c83efc7	0.016105546
234	0xb9b99f42	-0.00035404606
235	0x3b8ff744	0.00439349
236	0xbabcb049	-0.0014395799
237	0x3b4a8fda	0.0030908496
238	0xba876c62	-0.0010331983
239	0xbb43b17e	-0.0029860432
240	0x3b8847ba	0.004158941
241	0x3b8e2018	0.004337322
242	0x3a3d744e	0.00072271086
243	0xbbd6090c	-0.00653184
244	0x3b1dcecd	0.0024079562
245	0x3bd356bd	0.006449549
246	0x3c11f99c	0.008909609
247	0x3a99a726	0.0011722788
248	0xbb1114bd	-0.0022137605
249	0xbb355cf5	-0.0027673815
250	0x3c1ada15	0.009451409
251	0xbb454abc	-0.003010436
252	0x3b000e19	0.0019539653
253	0xbc104536	-0.008805564
254	0xbb9e84e9	-0.0048376215
255	0xbc06650b	-0.008202801

weight f4 [64]
0	0x3d828459	0.063728996
1	0x3fa1d7c4	1.2643971
2	0x3e1ddf33	0.15417175
3	0x3cfe39d9	0.031033443
4	0x3d1dc91c	0.03852187
5	0x3d510220	0.051027417
6	0x3e968dad	0.29404965
7	0x3d82f530	0.06394422
8	0x3ea10f28	0.31456876
9	0x3d57561f	0.052572366
10	0x3c93b2f3	0.018029666
11	0x3f4599eb	0.77187985
12	0x3d2985e9	0.041387472
13	0x3d126af3	0.035746526
14	0x3e9f4289	0.3110545
15	0x3db4a7d7	0.088210754
16	0x3e750ed7	0.23931442
17	0x3ee20481	0.4414406
18	0x3f94bfa9	1.162099
19	0x3ead0195	0.3379027
20	0x3cf1b091	0.029503139
21	0xbd875986	-0.06608872
22	0x3db9fe56	0.09081714
23	0x3e97adfb	0.29624924
24	0x3d5bf92c	0.053704426
25	0x3d6ab8ef	0.057305273
26	0x3d259c89	0.040432487
27	0x3d14bf26	0.036315106
28	0x3e018886	0.12649736
29	0x3cd6d902	0.026226524
30	0x3d27afa0	0.040938973
31	0x3d902f87	0.07040315
32	0x3e354b5f	0.17704533
33	0x3ecb6578	0.39725852
34	0x3dcb9482	0.09940435
35	0x3da8d459	0.08243627
36	0x3d2b1d70	0.04177612
37	0x3f4859dc	0.78262115
38	0x3f31592a	0.6927668
39	0x3e8e4fcd	0.27795258
40	0x3ceef399	0.02916889
41	0x3edc2aa8	0.43001294
42	0x3d247b08	0.040156394
43	0x3d81d2e4	0.06339052
44	0x3d63a389	0.05557588
45	0x3d2beadf	0.041972037
46	0x3cedde78	0.029036745
47	0x3e8c5d44	0.27414906
48	0x3d537e93	0.051634382
49	0x3e5fc60f	0.21852897
50	0x3ebd886d	0.37018147
51	0x3d63db5d	0.055629123
52	0x3cfcd69c	0.030864052
53	0x3d6ec1dd	0.05829035
54	0x3ccde86a	0.025135238
55	0x3eca9cf2	0.39572865
56	0x3e3d49ba	0.18485156
57	0x3a429c69	0.00074238196
58	0x3eb45dd2	0.3522783
59	0x3d62c9a7	0.055368092
60	0x3f0bfb1c	0.5468004
61	0x3dda53f6	0.106605455
62	0x3c8f88c9	0.017521279
63	0x3ee152a0	0.4400835

bias f4 [64]
0	0xb8252fe9	-3.9383685e-05
1	0xbe97a3d8	-0.2961719
2	0xbe02785e	-0.12741229
3	0xbd83b29b	-0.06430551
4	0xbc23214f	-0.009956672
5	0xbc773047	-0.015087194
6	0x3e26b951	0.1628163
7	0xbcd844b7	-0.026399953
8	0xbe2e1903	-0.17001729
9	0xbd9cee40	-0.0766263
10	0xbd9d78ea	-0.07689078
11	0x3daa1130	0.083040595
12	0xbb5fd417	-0.0034153515
13	0xbc94b58e	-0.018152978
14	0xbf0cc976	-0.54994905
15	0xbd048215	-0.03235062
16	0xbefe3b03	-0.49654397
17	0xbd12f0c9	-0.035874162
18	0xbe3e01e9	-0.18555416
19	0xbe96615e	-0.2937116
20	0xbcfbcd1d	-0.030737454
21	0xbea98fc5	-0.331175
22	0xbd6e4b5c	-0.058177337
23	0xbd8a30ee	-0.06747614
24	0xbcf5ebbf	-0.030019639
25	0xbd4af1c3	-0.04954697
26	0xbe52053b	-0.20509808
27	0x3af27e0e	0.0018500702
28	0x3a705f66	0.0009169489
29	0xbc9e6b11	-0.019338163
30	0xbe5d2ce5	-0.21599157
31	0xbc9fb17e	-0.019493815
32	0x3cd4b784	0.025966413
33	0x3c312cbd	0.010813889
34	0xbe31aa75	-0.1735018
35	0xbd0749d2	-0.033029385
36	0xbd72ff5d	-0.059325565
37	0xbd7583f6	-0.0599403
38	0x3e9fe8e4	0.3123237
39	0x3de7a3a0	0.11310506
40	0xbbd9d392	-0.0066475356
41	0xbea56c5f	-0.32309243
42	0xbc1db3cb	-0.0096253855
43	0xbd848334	-0.064703375
44	0xbcd9488c	-0.02652385
45	0xbd0339ab	-0.03203742
46	0xbc11d8c7	-0.008901781
47	0xbe444968	-0.19168627
48	0xbcca2a40	-0.02467835
49	0x3d9468ad	0.07246528
50	0xbf430f98	-0.7619567
51	0xbdc30826	-0.095230386
52	0xbc53bddd	-0.012923685
53	0xbd0b8636	-0.03406354
54	0xbc073659	-0.008252704
55	0x3e5e87a4	0.2173143
56	0x3d48f7ef	0.049064573
57	0xbc219b63	-0.009863707
58	0xbe25adef	-0.16179632
59	0xbda5584d	-0.08073483
60	0x3e8d4121	0.27588752
61	0xbc736454	-0.014855463
62	0xbd663f06	-0.056212448
63	0x3dce189e	0.10063289

running_mean f4 [64]
0	0xbc74a1fc	-0.014931198
1	0xbe3720ec	-0.17883652
2	0xbddbd81a	-0.107345775
3	0xbb2a10c4	-0.0025949934
4	0x3b8a1285	0.0042136335
5	0x3c59b493	0.013287681
6	0xbe51c039	-0.20483483
7	0x3b30c325	0.0026971784
8	0x3ce322e8	0.027726606
9	0xbc3b744a	-0.0114413
10	0x3a2ce07f	0.0006594732
11	0xbec0d936	-0.3766572
12	0x3be71417	0.0070519554
13	0xb79456f4	-1.7683466e-05
14	0x3e0d9f56	0.13830313
15	0x3cde84d3	0.027162945
16	0xbdd0772f	-0.101789825
17	0xbf0b96f2	-0.545272
18	0xbe1ca981	-0.15299036
19	0xbe711624	-0.23543602
20	0xbcd435c4	-0.025904544
21	0xbd36ee1f	-0.044660684
22	0x3b9994db	0.0046869344
23	0x3e04057f	0.12892722
24	0x3bd8d685	0.0066173696
25	0xbce5528e	-0.027993467
26	0x3b5889b4	0.0033041062
27	0x3c616953	0.013758021
28	0xbd393afe	-0.045222275
29	0x3ce76915	0.02824835
30	0xbd25e881	-0.040504936
31	0x3c302dec	0.010753136
32	0xbdd44b6a	-0.103659466
33	0x3e488d76	0.19585213
34	0xbc2d2285	-0.010567312
35	0x3b24744e	0.0025093737
36	0xbc844671	-0.01614687
37	0x3e0dba41	0.13840581
38	0xbf1e0eec	-0.6174152
39	0x3e01f187	0.12689792
40	0x3c47d97e	0.01219785
41	0xbf1ceef9	-0.61302143
42	0x3d1785a0	0.03699267
43	0x3b659b53	0.0035035207
44	0xbb49e06c	-0.0030803932
45	0xbc0098da	-0.007848943
46	0xbc7aa3dc	-0.015297856
47	0xbd248770	-0.040168226
48	0xbb14028c	-0.0022584526
49	0x3cd86fe5	0.026420543
50	0xbe4321e2	-0.19055894
51	0x3c923868	0.017849162
52	0x3b9dc86a	0.004815151
53	0xbc8a9d47	-0.016920699
54	0xbb48b698	-0.0030626412
55	0x3d3bb659	0.045828197
56	0xbdffd060	-0.12490916
57	0x3c764317	0.015030644
58	0x3cfa8d98	0.030585095
59	0xbd512c57	-0.051067676
60	0xbe53ec17	-0.2069553
61	0xbb913e4d	-0.0044324757
62	0x3d78bc6c	0.060726568
63	0xbc63c5ff	-0.013902186

running_var f4 [64]
0	0x3a4af259	0.0007741801
1	0x3ecdf8db	0.40228924
2	0x3b856012	0.0040702904
3	0x36862904	3.998286e-06
4	0x38225624	3.8704035e-05
5	0x39591a00	0.00020704418
6	0x3e2bcf15	0.16778214
7	0x38e66522	0.00010986092
8	0x3bc39800	0.0059690475
9	0x392a8d3e	0.0001626508
10	0x366f4149	3.5651776e-06
11	0x3dbcb7fc	0.0921478
12	0x37c44391	2.3396484e-05
13	0x38372763	4.366728e-05
14	0x3c0cfb5f	0.008604853
15	0x39c624e6	0.00037792994
16	0x3c4c9820	0.012487441
17	0x3e8c5d36	0.27414864
18	0x3eb5d5e3	0.35514745
19	0x3d22f07d	0.03978013
20	0x3aa7f6e0	0.0012814663
21	0x395d3599	0.00021096169
22	0x38ad3d29	8.260675e-05
23	0x3ce4316c	0.027855597
24	0x37b54dc8	2.1613101e-05
25	0x39ba703e	0.00035560312
26	0x3a1bb8ae	0.00059403
27	0x39013755	0.00012323011
28	0x3bfd6430	0.0077328905
29	0x3b36a898	0.0027871486
30	0x3a903156	0.0011001031
31	0x39834816	0.00025039975
32	0x3c5d1841	0.013494552
33	0x3d05d023	0.032669198
34	0x3ac401e4	0.0014954177
35	0x39762e70	0.00023477688
36	0x39325bb0	0.00017009559
37	0x3e4c53e5	0.19953878
38	0x3f168929	0.5880304
39	0x3d1c3c57	0.038143482
40	0x3979d22d	0.00023824787
41	0x3ec046c7	0.37554
42	0x3a9ba5b9	0.0011874951
43	0x3955e5c4	0.00020398857
44	0x384b76b3	4.850952e-05
45	0x382f37d1	4.1775234e-05
46	0x37a567ea	1.9717922e-05
47	0x3c43e02a	0.0119553
48	0x39960524	0.0002861406
49	0x3be8704a	0.007093464
50	0x3d47bd7e	0.0487647
51	0x38fa4f82	0.000119357384
52	0x37f3bb9f	2.9055225e-05
53	0x39a0662b	0.000305937
54	0x37223085	9.667249e-06
55	0x3d94524e	0.07242261
56	0x3cf6594d	0.030071879
57	0x38698b28	5.568113e-05
58	0x3d771758	0.060324997
59	0x3acac92a	0.0015471329
60	0x3e78b1d3	0.24286585
61	0x396f5dd0	0.00022827764
62	0x3c0d8834	0.00863843
63	0x3d75946a	0.05995599

weight f4 [64, 1, 3]
0	0xbc5fde8a	-0.013663897
1	0xbc9de448	-0.019273892
2	0xbd3a8b3a	-0.045542933
3	0x3e033bf1	0.12815835
4	0x3e97693e	0.2957248
5	0x3ecf9b33	0.40548095
6	0x3dbebefe	0.093137726
7	0x3d8bd335	0.06827394
8	0x3ddfc4fe	0.10926245
9	0x3b87b553	0.0041414886
10	0x3cdc8ee7	0.02692361
11	0x3b7f0dd4	0.0038918154
12	0xbc9a5f89	-0.018844383
13	0xbca3ee6f	-0.020011155
14	0x3b8ddb0f	0.0043290923
15	0x3cba391f	0.022732316
16	0x3ce7bf9c	0.028289609
17	0xbad7a7bb	-0.0016453186
18	0x3dc3edde	0.09566854
19	0x3e471515	0.19441636
20	0x3e751222	0.23932698
21	0xbceb1ccc	-0.028700255
22	0xbcc79110	-0.024361163
23	0xbd18da80	-0.037317753
24	0x3b9a1dd5	0.0047032633
25	0x3daad004	0.08340457
26	0x3e0c40f9	0.1369666
27	0xbca31873	-0.01990912
28	0xbcd74899	-0.026279734
29	0xbc27f5e5	-0.010251497
30	0xbc2bd22d	-0.0104871215
31	0xbca55107	-0.020180238
32	0xbc61588c	-0.013754021
33	0xbe0b8958	-0.13626611
34	0xbe49283e	-0.19644257
35	0xbeb923e4	-0.36160195
36	0x3c789e3c	0.015174445
37	0x3cbadbad	0.022809828
38	0x3c4b467c	0.0124069415
39	0x3c6a9d68	0.014319755
40	0x3b491b5e	0.0030686478
41	0x3c161ae4	0.009161685
42	0x3dada129	0.084780045
43	0x3d66973b	0.05629657
44	0xbd8f8379	-0.07007498
45	0xbd2d98ec	-0.042382166
46	0xbd4d29c7	-0.05008867
47	0xbd2d123c	-0.042253718
48	0x3da8eadc	0.08247921
49	0x3b7cba9f	0.0038563383
50	0x3d559521	0.052144174
51	0x3eccb273	0.39979896
52	0xbdf90fde	-0.121612296
53	0x3e788693	0.24270086
54	0xbe733141	-0.23749258
55	0x3b3babdb	0.002863637
56	0xbf0484b3	-0.5176498
57	0x3cee2dc0	0.02907455
58	0xbe40da4a	-0.1883327
59	0xbb8340fc	-0.0040055495
60	0xbbd1a92c	-0.0063983407
61	0xbd0a38d6	-0.03374561
62	0xba2406ad	-0.0006257098
63	0x3c4cc747	0.012498683
64	0xbac50ad1	-0.0015033131
65	0x3cfd5307	0.03092338
66	0xbd491d63	-0.04910029
67	0xbd581743	-0.05275656
68	0xbcb331a5	-0.021874258
69	0xbe3e5b57	-0.18589531
70	0xbe33da95	-0.17563851
71	0xbe02a4b8	-0.12758148
72	0x3b6f7b03	0.0036541827
73	0x3d0aeb58	0.033915848
74	0x3d0bb858	0.03411135
75	0xbd1110cf	-0.03541642
76	0xbcab2710	-0.02089265
77	0xbced4deb	-0.028967818
78	0x3cbd3fbb	0.023101678
79	0x3d050e76	0.032484494
80	0x3d580744	0.052741304
81	0x3c22fae1	0.0099475095
82	0xbcc6f71d	-0.024287755
83	0xbba0da7d	-0.0049088583
84	0xbddf033c	-0.10889289
85	0xbd15a951	-0.036538426
86	0x3d182d50	0.03715259
87	0xbb4eb96e	-0.003154363
88	0x3ca41ce5	0.02003331
89	0xbb6b1b59	-0.0035874455
90	0xbca120c1	-0.019668939
91	0xbd34e503	-0.044163715
92	0xbcc67940	-0.024227738
93	0x3d237749	0.03990868
94	0x3b9db7f1	0.0048131873
95	0x3d22faab	0.039789837
96	0xbd99f6ab	-0.07517751
97	0xbd96c140	-0.07361078
98	0xbe0305b4	-0.12795144
99	0x3e7486e2	0.23879579
100	0x3e6337c1	0.22189237
101	0x3e25c942	0.16190055
102	0xbdba2ab0	-0.09090173
103	0xbdace0cb	-0.08441313
104	0xbdb96ea7	-0.090543084
105	0x3d517bd5	0.051143486
106	0x3d25442f	0.040348228
107	0x3d16ab05	0.03678419
108	0x3c9ce861	0.019153776
109	0x3c840058	0.016113445
110	0x3d045ceb	0.032315176
111	0xbf18543d	-0.5950354
112	0xbe24644d	-0.16053887
113	0xbe5be1a3	-0.21472792
114	0x3f6092e4	0.8772414
115	0xbe05dfe1	-0.13073684
116	0x3e307c7f	0.17234991
117	0xbe53573a	-0.20638743
118	0xbe25255a	-0.1612753
119	0xbd039ca5	-0.03213181
120	0x3c5fd988	0.013662703
121	0x3c4aec4c	0.012385439
122	0xbc1cb6e3	-0.009565088
123	0x3e0320a3	0.12805419
124	0xbecf2ecc	-0.4046539
125	0xbcf7b405	-0.030237207
126	0xbc017646	-0.007901734
127	0x3c9b9ca5	0.018995592
128	0x3c928f76	0.017890673
129	0x3d178976	0.036996327
130	0x3d027f4a	0.031859674
131	0x3cf1c8d7	0.029514713
132	0x3ce75e3b	0.028243175
133	0x3d28ba25	0.041193146
134	0x3a90b5e1	0.0011040532
135	0x3cb82a4b	0.022481104
136	0x3cf4a0d5	0.029861847
137	0x3b8f6f25	0.004377263
138	0xbbcc5f12	-0.006236919
139	0xbc2afb7f	-0.010435938
140	0xbc3ebcc2	-0.011641683
141	0xbde2df7a	-0.11077781
142	0xbe1ae7d7	-0.15127502
143	0xbdda994b	-0.106737696
144	0x3cbe7e99	0.023253726
145	0x3ce7fa24	0.028317519
146	0x3c213ebd	0.009841618
147	0xbe32f8e8	-0.17477763
148	0xbe143a14	-0.1447528
149	0xbbace939	-0.0052768257
150	0xbe81625b	-0.25270352
151	0xbe5b7938	-0.2143296
152	0xbd87e934	-0.06636277
153	0x3bd3c914	0.0064631794
154	0x3c8fbb28	0.017545298
155	0x3d106fa2	0.03526271
156	0xbb4d0cf0	-0.003128823
157	0x3c2f958b	0.010716806
158	0xbb5e8fb3	-0.0033960163
159	0x3ce33956	0.0277373
160	0x3c28b10b	0.010296117
161	0x3d066e89	0.03282026
162	0xbbde7949	-0.0067893607
163	0xbc686a6e	-0.014185531
164	0x3c850345	0.01623691
165	0x3ece07e0	0.40240383
166	0xbdc5b3d3	-0.096534394
167	0xbe0c3f4c	-0.13696021
168	0x3daa29d9	0.08308763
169	0x3d1533ac	0.03642623
170	0xbe2c6dcf	-0.16838764
171	0xbbc0739d	-0.005873157
172	0x3c2b8351	0.01046832
173	0x3b8e6743	0.004345806
174	0xbe40d8ef	-0.18832754
175	0x3ce531c6	0.027977835
176	0x3d78e45f	0.060764667
177	0xbcdbd5c5	-0.026835332
178	0xbc9e44e8	-0.019319966
179	0xbcd121f8	-0.025528893
180	0x3eafa291	0.34303716
181	0xbe89306e	-0.2679476
182	0xbeb1f4c4	-0.34757054
183	0xbd8391ae	-0.064242706
184	0xbd236b4d	-0.039897252
185	0xbd315c2e	-0.0433008
186	0xbc054a3c	-0.008135375
187	0x3ca568b5	0.02019153
188	0x3cc15462	0.023599807
189	0x3dc9c018	0.09851092
190	0xbe014499	-0.12623824
191	0xbecbbbbe	-0.39791673

weight f4 [64, 64, 1]
0	0x3c1ef01d	0.009700802
1	0xbcf64e13	-0.030066526
2	0xbcbc4284	-0.022980936
3	0x3bd3b989	0.0064613265
4	0xba1781b8	-0.00057795225
5	0xbb23b789	-0.0024981222
6	0x3b8cf143	0.0043012216
7	0xbb81bebd	-0.0039595054
8	0x3d04c5af	0.03241509
9	0xbb83e66e	-0.004025272
10	0xba2b80dc	-0.0006542334
11	0xbcfbbabb	-0.030728688
12	0xbb7e3c8e	-0.0038793418
13	0x3bab4614	0.00522686
14	0xbcce2df1	-0.025168391
15	0xbc186d71	-0.009303437
16	0xbd4ccefe	-0.05000209
17	0x3bd66ecc	0.0065439697
18	0x3c94c8d0	0.018162161
19	0xbd0e9ba5	-0.034816403
20	0x3b5ea94d	0.0033975423
21	0xbb486922	-0.0030580242
22	0xbb8fc503	-0.0043874993
23	0x3b0ea245	0.00217642
24	0xbb814fef	-0.0039462964
25	0xbc020894	-0.0079366155
26	0xbc84c01e	-0.01620489
27	0xbb578a9a	-0.003288901
28	0xbc6b7dba	-0.014373237
29	0x3bac619d	0.00526066
30	0xbb1095cd	-0.0022061944
31	0x3bda3797	0.006659459
32	0xbcb82863	-0.022480195
33	0x3b9a9ac9	0.004718159
34	0xbbc838ce	-0.0061102873
35	0x3b52ebd8	0.003218403
36	0xbb08891b	-0.0020833674
37	0xbd2a5700	-0.041586876
38	0x3cbb3fb8	0.022857532
39	0x3ae41bef	0.0017403344
40	0x3bc09264	0.005876826
41	0xbb9a223f	-0.0047037895
42	0x3c1a992e	0.009435935
43	0x3bee4eff	0.0072726007
44	0x3a9fca07	0.0012190946
45	0x3a9350ee	0.0011239329
46	0xba85222a	-0.0010157276
47	0x3bf1be01	0.0073773866
48	0x3bcfcbe3	0.006341444
49	0xbb0af835	-0.0021205072
50	0x3c0e59e4	0.008688424
51	0x3c3467cd	0.011011076
52	0xb9c15081	-0.0003687181
53	0x3bf86e14	0.0075814817
54	0xba31b975	-0.00067796494
55	0xbcc2ab28	-0.023763254
56	0x3acb918d	0.0015531048
57	0xbaab0ee0	-0.0013050698
58	0x3b58f5b4	0.0033105435
59	0xbcac251c	-0.021013789
60	0xbc10ce06	-0.008838182
61	0x3c84d1f3	0.016213393
62	0xbcb0f645	-0.021601805
63	0xbc219ac3	-0.009863558
64	0x3b65dc36	0.0035073883
65	0xbdb25cef	-0.08709132
66	0xba88a3f9	-0.0010424844
67	0xbb73383e	-0.003711238
68	0xb7dcb9e0	-2.6312598e-05
69	0xbb7c315f	-0.0038481576
70	0xbce6feab	-0.028197607
71	0x3b3332f4	0.0027343603
72	0xbb97f358	-0.004637163
73	0x3b263ea7	0.0025366934
74	0x3bb4da29	0.005519171
75	0x3d32c2fe	0.04364299
76	0x3acd20c6	0.0015650026
77	0xbb65d0a7	-0.0035066993
78	0x3d0cac04	0.034343734
79	0x3b0a336f	0.0021087786
80	0x3a145fc8	0.00056600245
81	0xbd145d61	-0.036221866
82	0xbdb36898	-0.08760184
83	0x3925dd82	0.00015818144
84	0xbaa2e920	-0.0012429096
85	0xbb3b09cc	-0.0028539775
86	0xba844608	-0.0010091672
87	0xbb8d0482	-0.004303516
88	0x3bec7bf5	0.0072169253
89	0xbbb5949e	-0.005541398
90	0xbb0bed04	-0.002135099
91	0xbb48b2d4	-0.0030624168
92	0xbb72e1bb	-0.0037060815
93	0x3b2361d6	0.002493014
94	0xbbfb540e	-0.007669932
95	0xbb4a112c	-0.003083299
96	0x3cfd4d1c	0.030920558
97	0x3ce3e3cc	0.027818583
98	0x3c05696f	0.008142813
99	0x3bb0b864	0.005393075
100	0x3ae22610	0.0017253775
101	0x3d12530c	0.03572373
102	0xbe080fb0	-0.13287234
103	0x3d41f4a9	0.047352467
104	0x3b8ff6a8	0.0043934174
105	0xbdf526a1	-0.119702585
106	0xbb22e89f	-0.0024857891
107	0xbae2fb8f	-0.0017317402
108	0x3b275e62	0.0025538434
109	0x3aff6202	0.0019484165
110	0xbaf5fd6c	-0.0018767542
111	0x3b2f6ec8	0.0026768912
112	0x39de8583	0.00042442614
113	0xbc92400f	-0.017852811
114	0xbd33c1ab	-0.043885868
115	0xbc124cb9	-0.008929425
116	0xbaed6a3d	-0.0018113327
117	0x39bee760	0.00036412012
118	0xba61db46	-0.0008615743
119	0xbd9e7a6f	-0.07738196
120	0x3c8f14f1	0.01746604
121	0x39e38ffc	0.0004340409
122	0x3ca18bb0	0.019719929
123	0x3a358a80	0.000692524
124	0x3d1dce0c	0.03852658
125	0xbb4509ba	-0.0030065612
126	0xba305092	-0.0006725873
127	0x3d07a21c	0.033113584
128	0x3ad24904	0.0016043489
129	0xb9a838fe	-0.0003208592
130	0xbd6ba827	-0.05753341
131	0xba8dd4d1	-0.001082087
132	0x3baf4a3b	0.005349425
133	0xbb0330ec	-0.0020018173
134	0xbba45568	-0.005015064
135	0x3b52689c	0.003210581
136	0xbc93e4a9	-0.01805337
137	0x3ba5ef15	0.005063901
138	0xbb5b0c3c	-0.003342404
139	0x3d491b27	0.04909816
140	0xba3f4782	-0.0007296727
141	0xbb08d025	-0.0020876017
142	0x3cd38228	0.0258189
143	0xbb90ef98	-0.004423093
144	0xbbea9f04	-0.0071600694
145	0xbd808bbb	-0.062766515
146	0x3c92d3e9	0.017923312
147	0x3dcdb530	0.100443244
148	0x3a69a20d	0.0008912392
149	0x39f78683	0.0004721173
150	0xbb9f801a	-0.004867566
151	0x3bddf9a9	0.0067741466
152	0xba48a35f	-0.0007653739
153	0xba565796	-0.00081765035
154	0x3b30cfed	0.0026979402
155	0x3a907159	0.0011020108
156	0x3c681b79	0.014166706
157	0xbba66a31	-0.005078577
158	0xb979aad4	-0.00023810129
159	0x3b8a0a34	0.004212642
160	0x3cca38a5	0.024685213
161	0xbc90164e	-0.01758876
162	0xbcc36481	-0.023851635
163	0xbb0c00c6	-0.0021362766
164	0x3b941fbf	0.004520386
165	0x3d8e7314	0.06955543
166	0xbcc86ad8	-0.02446501
167	0x3d6f1304	0.058367744
168	0xbb40d691	-0.0029424767
169	0xbda63799	-0.08116073
170	0xbba41ba0	-0.005008176
171	0x3b5c8e23	0.0033654056
172	0x3ab535f0	0.0013825279
173	0xbba25552	-0.0049540186
174	0x3ad97e13	0.0016593359
175	0x3bad0d4b	0.0052811257
176	0xbb437c73	-0.0029828816
177	0x3c28ecc3	0.010310355
178	0xbd894f59	-0.067045875
179	0x3bb8766a	0.0056293504
180	0xba5a96d9	-0.0008338518
181	0x3b30b904	0.0026965747
182	0x3b9c5ec0	0.0047720373
183	0x3cbf3ee3	0.023345416
184	0xbc20ae1c	-0.009807136
185	0xbb43b413	-0.0029861971
186	0xbcb17e54	-0.021666683
187	0xbb179ed7	-0.0023135447
188	0x3deda342	0.116034046
189	0x3c59142e	0.01324944
190	0xbbb9f80d	-0.005675322
191	0xbb973e48	-0.004615579
192	0x3a435458	0.0007451228
193	0xbe4029bd	-0.18765922
194	0xbc1c9110	-0.00955607
195	0xbbb92342	-0.005649955
196	0x3b536eb8	0.0032262038
197	0xbbe5ce64	-0.007013129
198	0xbd0b62cf	-0.034029778
199	0xbc103381	-0.008801342
200	0xbcb2a45b	-0.021806886
201	0x3c28c9ad	0.0103019895
202	0x3bbedb00	0.0058244467
203	0x3e126cb8	0.14299285
204	0xbb586d06	-0.0033023967
205	0x3b1fc70d	0.0024380118
206	0x3cd426cb	0.025897404
207	0xbc3c56c8	-0.0114953
208	0x3c607e12	0.0137019325
209	0x3d9a9100	0.07547188
210	0x3dddf115	0.108369984
211	0x3ce427a7	0.027850939
212	0xbc12bf90	-0.008956805
213	0xbc60567f	-0.013692497
214	0xbc8d809e	-0.017273244
215	0x3d0cc4a2	0.03436721
216	0x3c1ef865	0.009702777
217	0xbc6472de	-0.013943402
218	0xbbd843d1	-0.006599881
219	0x3a4f59c7	0.0007909801
220	0xbc623bcd	-0.013808203
221	0xbc67861b	-0.014131094
222	0x3b2290a3	0.0024805448
223	0x3c85744f	0.016290812
224	0x3cf74b78	0.030187353
225	0x3b028a04	0.001991869
226	0xbc6086a4	-0.013703976
227	0x3cbca7ec	0.02302929
228	0x3c8390e5	0.016060302
229	0x3e056c08	0.13029492
230	0xbd5fc2a4	-0.054628983
231	0x3d754c2b	0.059887093
232	0x3b0d6fd2	0.0021581543
233	0xb968fe7e	-0.0002222005
234	0x3bdcee97	0.0067423093
235	0x3c7a3a3f	0.015272676
236	0x3c176577	0.0092405
237	0x3c6e3d82	0.014541032
238	0x3bed0011	0.007232674
239	0x3d8f8010	0.07006848
240	0x3bccca3a	0.006249693
241	0x3d354380	0.044253826
242	0xbd9798ab	-0.07402166
243	0x3cb380e2	0.021912042
244	0x3b301436	0.0026867515
245	0x3c79765c	0.015225973
246	0x3b17f09c	0.0023184186
247	0x3d438b0e	0.047740035
248	0xba5c81fc	-0.0008411703
249	0x3c255dca	0.010093162
250	0x3b5936cd	0.0033144236
251	0xbbcfc309	-0.0063403887
252	0x3e342fcb	0.17596357
253	0xbba2b2ae	-0.004965148
254	0xbbe6d5a2	-0.00704451
255	0x3dbf8e74	0.09353343

weight f4 [64]
0	0x3dc476dd	0.09592984
1	0x3e8a2172	0.26978642
2	0x3defb779	0.117049165
3	0x3ec5a47b	0.3860205
4	0x3db60912	0.08888449
5	0x3e525608	0.20540631
6	0x3f0b8b27	0.54509205
7	0x3e606ea8	0.21917212
8	0x3e1c2a7c	0.15250582
9	0x3ead9ad5	0.3390719
10	0x3df43c58	0.11925572
11	0x3dc471a6	0.09591989
12	0x3e6cc481	0.23121835
13	0x3f2fb443	0.6863443
14	0x3ec4fdfb	0.38475022
15	0x3f14ab8f	0.5807428
16	0x3d1bdd4c	0.038052842
17	0x3ecdab41	0.4016972
18	0x3f3e9e47	0.7446026
19	0x3ec6af60	0.38805676
20	0x3dee1758	0.11625546
21	0x3e7baa03	0.24576573
22	0x3e8c00cd	0.2734436
23	0x3e170388	0.14747441
24	0x3e9ead5b	0.30991635
25	0x3efb7c8c	0.4911846
26	0x3f28f503	0.6599886
27	0x3d7749b4	0.060373023
28	0x3e1073c4	0.14106661
29	0x3ec7a493	0.38992748
30	0x3e349a40	0.17636967
31	0x3d2e20a8	0.042511612
32	0x3de49b38	0.11162418
33	0x3dae6cba	0.08516832
34	0x3d65125d	0.055925716
35	0x3e819b29	0.2531369
36	0x3eec30cd	0.46130982
37	0x3ef02935	0.46906438
38	0x3ebe296d	0.3714098
39	0x3d238e4f	0.039930638
40	0x3d0d3b9a	0.03448067
41	0x3ec53d5f	0.38523385
42	0x3e866a82	0.26253134
43	0x3e344571	0.17604615
44	0x3f21913b	0.6311223
45	0x3d5730c9	0.05253676
46	0x3eb073fd	0.34463492
47	0x3df48206	0.119388625
48	0x3e3d6456	0.18495306
49	0x3e204491	0.15651156
50	0x3de624ce	0.11237489
51	0x3dc046a7	0.09388476
52	0x3ead8ca1	0.33896354
53	0x3d9eb999	0.07750244
54	0x3ddca09b	0.107728206
55	0x3e15d787	0.14632998
56	0x3dbd66b1	0.092481025
57	0x3d448d62	0.047986396
58	0x3f058cf1	0.52168185
59	0x3ec95595	0.39323106
60	0x3d1f302f	0.03886431
61	0x3e05697f	0.13028525
62	0x3dd53430	0.104103446
63	0x3e224a6d	0.15848704

bias f4 [64]
0	0xbce1e0a2	-0.027572934
1	0x3d133c0c	0.035945937
2	0xbd8afeeb	-0.06786903
3	0xbe9345c4	-0.28764164
4	0xbd38ffaa	-0.045165695
5	0xbdffca13	-0.124897145
6	0xbe8a2041	-0.26977733
7	0xbe098c7f	-0.13432501
8	0xbbf386fa	-0.007431862
9	0xbe1ca71d	-0.15298124
10	0xbc707c26	-0.014678037
11	0x3ce2457c	0.027621023
12	0x3e6c5bf7	0.23081957
13	0xbe67f615	-0.22652467
14	0xbe0db9d4	-0.13840419
15	0xbec224f8	-0.3791883
16	0xbcee6198	-0.02909927
17	0xbe4e1121	-0.20123722
18	0xbe30d2ea	-0.17267957
19	0xbe30b325	-0.17255838
20	0xbdb8a089	-0.09014995
21	0xbdf4d3c7	-0.11954456
22	0xbe42dd5a	-0.19029751
23	0xbcfde265	-0.030991742
24	0xbe486486	-0.19569597
25	0xbdc34a0a	-0.09535606
26	0x3d84ce20	0.06484628
27	0xbbf3d18f	-0.007440753
28	0xbd94c70c	-0.07264528
29	0x3dbe0485	0.09278206
30	0xbd83c421	-0.06433893
31	0xbb8d7990	-0.00431747
32	0xbd2fef78	-0.042952985
33	0xbd4a9a77	-0.049463715
34	0xbd72c51c	-0.05927001
35	0xbcc51064	-0.024055667
36	0xbe2937f2	-0.16525248
37	0xbe175da4	-0.14781815
38	0xbdd0dfb6	-0.101989195
39	0x3c3667c9	0.011133143
40	0xbd29b0c8	-0.041428357
41	0xbdfe1619	-0.124065585
42	0xbe0f865e	-0.14016101
43	0x3b848eba	0.0040453346
44	0x3ed04943	0.40680894
45	0xbaaca6f9	-0.001317232
46	0xbdf9028b	-0.12158688
47	0xbd1bef1a	-0.038069822
48	0xbd2e6c2c	-0.04258363
49	0xbdab652e	-0.08368908
50	0xbe93f3f7	-0.28897068
51	0xbd0c9c8f	-0.034328993
52	0xbe729f5f	-0.23693608
53	0xbd713d82	-0.05889655
54	0x3d14bcba	0.036312796
55	0xbd29653a	-0.041356303
56	0xbc459f3b	-0.012061889
57	0xbd4e3a30	-0.05034846
58	0x3e08c511	0.13356425
59	0xbc82770c	-0.015925907
60	0xbd26ea58	-0.04075083
61	0x3de5724c	0.11203441
62	0xbc470fed	-0.012149793
63	0xbd91d36b	-0.07120403

running_mean f4 [64]
0	0x3c8e03f8	0.017335877
1	0xbdc788fa	-0.09742923
2	0xbd9b3736	-0.0757889
3	0xbe6dcf56	-0.23223624
4	0xbc653176	-0.013988843
5	0xbe0b7b4b	-0.13621251
6	0xbe4aff05	-0.19823845
7	0xbe11b49a	-0.1422905
8	0xbdf9a028	-0.121887505
9	0xbeb00f94	-0.34386885
10	0x3c2d35f8	0.010571949
11	0x3bc319ca	0.005954002
12	0xbdc0ca8c	-0.09413633
13	0xbe2169cf	-0.15763019
14	0xbe10ab73	-0.14127903
15	0xba175a34	-0.0005773634
16	0x3ac06c2c	0.0014680675
17	0xbc8857d2	-0.016643438
18	0x3e7b08cd	0.24515076
19	0x3d7a56c3	0.0611179
20	0xbdb46911	-0.08809102
21	0x3d69c97f	0.057076927
22	0x3c8af351	0.016961725
23	0x3d60cfd6	0.054885708
24	0xbe1fc038	-0.1560067
25	0xbc927295	-0.017876903
26	0xbe39caa2	-0.18143705
27	0x3b989fc7	0.004657719
28	0xbdc7ab88	-0.09749514
29	0xbe4c7736	-0.1996735
30	0x3d8f257d	0.06989572
31	0x3a8b4cc4	0.0010627736
32	0xbdab1b68	-0.08354837
33	0x3d9419cd	0.072314836
34	0xbcbc2769	-0.022968011
35	0xbde8cdee	-0.11367403
36	0xbdba86c4	-0.09107736
37	0xbd88678a	-0.066603735
38	0xbdd86ef6	-0.10568039
39	0xbbba54ed	-0.0056863935
40	0xbcf4f5c5	-0.029902348
41	0xbda8cf5a	-0.08242674
42	0xbe35e81b	-0.17764322
43	0xbd2aef1f	-0.04173195
44	0xbe943329	-0.28945282
45	0xbb45e8c0	-0.0030198544
46	0xbe1c443a	-0.15260401
47	0x3b300d2a	0.0026863315
48	0x3d3b013b	0.04565547
49	0xbe007240	-0.12543583
50	0xbd873e26	-0.06603651
51	0xbce2d831	-0.027690979
52	0xbea8fb08	-0.33004022
53	0xbc7e41c5	-0.01551861
54	0xbca628c8	-0.020283118
55	0x3d1c9522	0.03822816
56	0x3be15abe	0.0068772724
57	0xbcf9d5b4	-0.03049741
58	0xbb6ab7be	-0.0035815085
59	0xbece326a	-0.40272838
60	0xbc28233d	-0.010262308
61	0xbdd8010a	-0.10547073
62	0x3ac8453f	0.0015279426
63	0xbca82139	-0.020523654

running_var f4 [64]
0	0x3967be60	0.00022100797
1	0x3b64a994	0.0034891116
2	0x3a2398d3	0.0006240729
3	0x3ca67017	0.02031712
4	0x3a9776ca	0.0011555788
5	0x3aaaf1ba	0.0013042011
6	0x3bc69805	0.0060606026
7	0x3a859373	0.0010191038
8	0x3d3bd370	0.04585594
9	0x3de0e643	0.10981419
10	0x3a0db235	0.0005405278
11	0x3afa240c	0.0019084229
12	0x3e0ac21a	0.13550606
13	0x3bdeec0a	0.0068030404
14	0x3e320a30	0.17386699
15	0x3cc1549e	0.023599919
16	0x37e56648	2.7346556e-05
17	0x3cc1b98b	0.023648044
18	0x3c25cad8	0.0101191625
19	0x3c992dc6	0.018698584
20	0x3a513842	0.00079811004
21	0x3b357fe9	0.0027694649
22	0x3cf589c6	0.029972922
23	0x3c31b72c	0.010846894
24	0x3b9c3116	0.0047665937
25	0x3bb3aca7	0.0054832282
26	0x3e349609	0.17635359
27	0x38e75889	0.00011031429
28	0x3a8a28fe	0.0010540781
29	0x3dcbac41	0.09944964
30	0x3b5b5bd4	0.0033471482
31	0x383b10f1	4.4600052e-05
32	0x39f3507a	0.00046408531
33	0x3a9fc727	0.0012190089
34	0x38967617	7.174553e-05
35	0x3a8a9c69	0.0010575178
36	0x3cdb9039	0.02680217
37	0x3bc36386	0.005962792
38	0x3b960d46	0.004579219
39	0x37759e3d	1.4639981e-05
40	0x38880b36	6.4870736e-05
41	0x3d46babd	0.04851793
42	0x3c2108de	0.009828774
43	0x3d0ffa3a	0.035150744
44	0x3dec8da5	0.11550454
45	0x3857a955	5.1417697e-05
46	0x3cace9b6	0.021107536
47	0x38b5b6d7	8.664809e-05
48	0x3b9639d7	0.0045845318
49	0x3bbe2cfe	0.0058037033
50	0x396e94fb	0.00022752948
51	0x39821bbf	0.00024816205
52	0x3d01f2b7	0.03172561
53	0x380d859a	3.3741446e-05
54	0x3ad003ef	0.0015870313
55	0x3afa6ce6	0.0019105941
56	0x39867a76	0.00025649712
57	0x3893d746	7.049604e-05
58	0x3d9d26d6	0.07673423
59	0x3d76cea4	0.06025566
60	0x3793547f	1.7563112e-05
61	0x3ca04669	0.019564824
62	0x3abbec1f	0.0014337337
63	0x38b80ff0	8.776772e-05

weight f4 [64, 1, 1]
0	0x3cacae4e	0.021079209
1	0x3d44bc1b	0.048030954
2	0xbcad4614	-0.02115158
3	0xbab70edf	-0.0013966224
4	0xbd200856	-0.03907045
5	0x3cb6ac3d	0.022298926
6	0xbd032d1f	-0.032025453
7	0xbd170c03	-0.03687669
8	0xbd2e3c0d	-0.042537738
9	0x3da725f5	0.081615366
10	0x3cdbdd16	0.02683882
11	0x3c5c791e	0.013456611
12	0x3ddeade5	0.108730115
13	0xbd34dad3	-0.044154
14	0xbd90eea4	-0.07076767
15	0xbd286d4e	-0.041119866
16	0xbcc5cb4a	-0.024144787
17	0x3d113d9c	0.035459146
18	0xbd01ab4c	-0.031657502
19	0xbd717596	-0.05895003
20	0xbcdadfcc	-0.026718043
21	0x3c681761	0.01416573
22	0x3d3660f8	0.04452607
23	0x3cfc892f	0.030827133
24	0xbcf7d47e	-0.030252691
25	0x3d36d772	0.04463906
26	0xb3684b23	-5.4085046e-08
27	0xbc045a25	-0.008078133
28	0x3ce57964	0.028011985
29	0xbd9df169	-0.07712061
30	0x3d3ed248	0.04658726
31	0x3d245c72	0.040127225
32	0x3cd56b59	0.026052164
33	0xbd1d25ba	-0.038366057
34	0x3c880b52	0.01660696
35	0xbd2b2361	-0.041781787
36	0xbd55f989	-0.05223993
37	0xbd06fe54	-0.03295739
38	0xbcd6b2dd	-0.026208336
39	0xbd1c4998	-0.038156122
40	0xbcb2822c	-0.021790586
41	0x3ce4ba8e	0.027920987
42	0x3d67e0e4	0.056610957
43	0x3c982eea	0.018577058
44	0xbd851896	-0.0649883
45	0xbc9ca13c	-0.019119851
46	0x3d1053fd	0.035236347
47	0xbcc496f8	-0.023997769
48	0x3cea30b9	0.028587686
49	0xbcd5ca6e	-0.026097503
50	0x3cb4bf90	0.022064
51	0xbd1c618a	-0.038178958
52	0xbd079990	-0.033105433
53	0x3ca5fdfc	0.02026271
54	0xbcc2d6b0	-0.023784012
55	0x3d122745	0.03568198
56	0x3d111c94	0.035427645
57	0xb9679164	-0.00022084039
58	0x3d4110cc	0.04713516
59	0x3cfa8b50	0.030584008
60	0x3c0ec26b	0.008713345
61	0xb4a12411	-3.001483e-07
62	0x3d068565	0.03284206
63	0xbbec5524	-0.007212298
