ldpi/training/output/ResCNN/traced_model.pth (torch, 775804 bytes, 63 tensors)

weight f4 [1, 1, 7]
00000000: e624 363e 6aff e93f 7114 0c3e 729d b13d
00000010: 0b8d 75bc f120 24bd c396 36bd
0.17787513 1.8281071 0.13679673 0.086726084 -0.014987241 -0.040070478 -0.04457737

weight f4 [64, 1, 1]
00000000: 781c cb3c 2695 013d cadb eebb c7bd 103e
00000010: 4bf0 94bc e6f2 d73c 9be5 973c 0b4a adba
00000020: 04ce e1bc 958b 31bd 282c 9fba 8268 f1bc
00000030: 76eb cdbc 12ca 0c3d 3085 22bd 3e49 a43c
00000040: 2975 87bd fc5b 873c 84a6 03bd 4e55 f2bc
00000050: ce64 033d d362 c23c 8cc3 273d 681f f63c
00000060: 14ec 60bc dfce 8e3c da99 4c3c 1e29 643c
00000070: 842f 0bbd 7c15 80bc bd2e 953c 8755 8f3c
00000080: ff6f 20bd 86c3 e8bc 831f 20bd e07a 9b3c
00000090: f03f 0abd 7835 1d3d 7af4 1fbd 86da eabc
000000a0: af32 f5ba b872 84bb 8ae4 883d 1e01 db3c
000000b0: eaa6 8a3c 693a 8bbc 578c 24bd 35a4 6fbd
000000c0: 510b 37bc 748c 9f3c 134f 0d3d 16f5 b8bc
000000d0: 2c9f 21bd f861 793b 34b0 07bd 124b a3bc
000000e0: 084c 22bd 26da cbbc d6f3 50bc fec3 5fbc
000000f0: 3ac2 88bc 11b0 053d a253 dabc 14bb f93c
0.024793848 0.03163638 -0.0072893845 0.14134894 -0.018180987 0.02636094 0.018542102 -0.0013220919
-0.027564056 -0.043346006 -0.0012143897 -0.029468779 -0.02513669 0.034372397 -0.0396778 0.020054456
-0.066141434 0.016523354 -0.032141224 -0.029581692 0.032078557 0.023728764 0.040957972 0.030044273
-0.01372816 0.017432628 0.012487853 0.013925819 -0.03398086 -0.015635245 0.018210763 0.017496837
-0.039169308 -0.028413545 -0.039092552 0.01897949 -0.03375238 0.03838107 -0.03905151 -0.028668653
-0.0018707121 -0.004041996 0.06684215 0.026733931 0.016925294 -0.016995626 -0.0401729 -0.05850621
-0.011172132 0.019476153 0.03449924 -0.022577804 -0.03945844 0.0038052779 -0.033127025 -0.019933257
-0.03962329 -0.024884295 -0.0127534475 -0.013657568 -0.016694177 0.032638613 -0.026651207 0.030484714

weight f4 [64]
00000000: c191 a83e 1304 ac3e 43df e73c e320 0c3f
00000010: c927 f73d 1a0f 063e e41f 723e 89c5 363e
00000020: 6c44 e53e b172 f03e 8a82 043e 7fab e13c
00000030: bd4c a23e f6a2 c33d 520a 693d 5128 543c
00000040: d746 c03e c980 d03e 30f0 df3c 8cc7 c93e
00000050: c9ed b33e d8fd d93d 41d5 193f 4d05 de3e
00000060: f6cb 623e bed0 e33d 55e4 173e 6261 183d
00000070: 9b45 e63e 502d 273d 144c 6d3c a1b7 013f
00000080: 4338 c93e dd52 703d a5f0 ad3e 2d39 8b3d
00000090: d496 e83d 1369 c83e f2c5 273f 3986 803e
000000a0: 85bb 1a3e 06ca 073d ca6e c23e 8ef8 363d
000000b0: ade1 763d 68ed a23d 0953 093e 86f5 633f
000000c0: 0e22 4d3c a65e c03e 5730 ee3e 2133 393e
000000d0: bf68 103f 547d 6d3c d72b e43e 6e80 913e
000000e0: 6f5a de3e 2c41 753e c3c4 913d d78c e63d
000000f0: 8bb8 753e 52be 9f3e bfe8 bc3d ddf6 153e
0.329237 0.33596858 0.028304702 0.5473768 0.12068135 0.13091698 0.23644978 0.17848791
0.44778764 0.46962503 0.12940422 0.027547596 0.31699172 0.09552567 0.056894608 0.012949065
0.37554047 0.40723255 0.02733621 0.39410055 0.35142353 0.1064412 0.60091025 0.4336342
0.22148117 0.11123799 0.14833196 0.037202246 0.4497498 0.040814698 0.0144834705 0.5067082
0.39300737 0.058672775 0.3397266 0.06798015 0.11356893 0.39142665 0.65536416 0.25102404
0.15110596 0.03315165 0.3797515 0.044670634 0.060273815 0.07955438 0.13410582 0.89046514
0.012520326 0.3757221 0.46521255 0.1808591 0.5640983 0.014495213 0.44564697 0.28418297
0.4342837 0.23950642 0.071176074 0.11257332 0.23996179 0.3119989 0.0922408 0.14644952

bias f4 [64]
00000000: 2860 9c3e 5026 96bd dbf9 93be 7af7 1d3e
00000010: 73c4 ea3c b99d 2cbd 443f 97be ba49 84bd
00000020: 9443 15be 8e21 eabd 8eeb 1bbd cafb 9fbd
00000030: 1eac 93bd fdf9 1ebe 390c 683d b456 f1bd
00000040: 8124 ae3d 1faf 09bf 50ef 2dbd 9673 e33e
00000050: d6af 84bd 29c5 c3be 3491 563d 60a3 b0bd
00000060: d075 f8be 2ec8 41be ab1e 05bd fe53 60bd
00000070: 0d74 b23d f3c3 8ebd d82a b4bd 50c0 2abe
00000080: a7c8 9b3e 2308 df3d 196e 95bd b750 d0bd
00000090: 8ac2 eebd c537 c73e 2f93 f23e e5e2 a23e
000000a0: 14c1 30be 549c 6fbd 7090 a6be 1394 d8be
000000b0: 30c2 5ebe f1e7 9fbc ada4 e13d d5e4 93bd
000000c0: 7b70 d13d 532e 50be 088d 0ebe 9579 6a3d
000000d0: d08e 21be b227 dfbd 5413 37be 2fdb 053d
000000e0: e2c6 04be 1ca4 853d 0b0e 293c 319f 3c3d
000000f0: 04b6 493d 9d4d 523e 9526 433f 637a 123d
0.3054211 -0.07331526 -0.28901562 0.15426436 0.028658127 -0.042142604 -0.29540455 -0.06459375
-0.1457656 -0.11432181 -0.03806644 -0.07811697 -0.07210563 -0.1552505 0.05665228 -0.117841154
0.08503056 -0.5378284 -0.042464554 0.44424123 -0.064788505 -0.3823636 0.05238457 -0.08624911
-0.48527384 -0.18924019 -0.03249995 -0.0547676 0.08713541 -0.06970968 -0.08797234 -0.16674924
0.30426523 0.10890224 -0.0729639 -0.10171645 -0.11658199 0.38909736 0.47377917 0.31813732
-0.17261153 -0.058498695 -0.32532072 -0.42300472 -0.21753764 -0.019519778 0.110177375 -0.072213806
0.10226532 -0.20330171 -0.13920987 0.057244856 -0.15777135 -0.10896243 -0.17878467 0.032679733
-0.12966493 0.06525442 0.0103182895 0.046050254 0.04924585 0.2053742 0.76230747 0.03576125

running_mean f4 [64]
00000000: 26ff 653c 37bc 923c e73c 87bb 85e6 a33d
00000010: 44a7 28bc 9988 743c d200 2c3c 2a3a 44ba
00000020: b1b1 7fbc ec0b c9bc ea3d 34ba 77ae 88bc
00000030: 4f2d 69bc e66c 9f3c 6508 b8bc 4808 3a3c
00000040: 4f63 19bd cd46 193c a813 95bc 8834 89bc
00000050: 3fc9 943c d61d 5c3c 6ff8 bd3c ca59 8b3c
00000060: d9b1 febb 1ab6 213c 03af e73b 4f2e 013c
00000070: ff9b 9dbc c509 11bc faed 283c 954e 223c
00000080: 9eac b5bc 83c9 83bc 7c51 b5bc 830f 303c
00000090: b48c 9cbc af04 b23c c220 b5bc 6bf8 84bc
000000a0: c3d3 8aba e3fa 15bb 5303 1b3d 5bfe 773c
000000b0: 4f01 1d3c 55a8 1dbc 4454 babc 61ae 07bd
000000c0: ff45 cfbb f4aa 343c 8003 a03c 9970 51bc
000000d0: ec03 b7bc 5032 0d3b 2ca6 99bc 78e8 38bc
000000e0: acc7 b7bc efd5 66bc 739c ecbb 9162 fdbb
000000f0: 77dc 1abc 3e62 973c e739 77bc c264 8d3c
0.014037883 0.017912013 -0.004127133 0.080029525 -0.0102937855 0.014925146 0.010498242 -0.0007485474
-0.01560633 -0.024541818 -0.0006875681 -0.016684754 -0.014231994 0.019461107 -0.02246494 0.0113545135
-0.037448224 0.009355259 -0.01819785 -0.016748682 0.018162368 0.013434848 0.023189751 0.017010588
-0.007772666 0.009870077 0.0070704236 0.007884576 -0.019239424 -0.008852427 0.010310644 0.009906431
-0.022177037 -0.0160873 -0.022133581 0.010745886 -0.019110061 0.021730749 -0.022110347 -0.016231736
-0.0010591674 -0.0022885136 0.037844967 0.015136327 0.0095828315 -0.009622653 -0.02274526 -0.033125285
-0.006325483 0.0110270865 0.019532919 -0.012783193 -0.022340737 0.0021544881 -0.018755995 -0.011285894
-0.022434078 -0.014089092 -0.0072207986 -0.0077326973 -0.009451977 0.018479463 -0.015089489 0.01725996

running_var f4 [64]
00000000: d58d 5839 a549 b039 85be 9537 d9f1 db3b
00000010: cee2 e838 2ecb 7439 a53a f238 89a1 1d35
00000020: fed2 8539 1078 253a a7fe 0435 49f5 9839
00000030: 9795 5e39 1919 d039 e1a5 0a3a 61ad 0d39
00000040: 9ca2 c03a 085b c038 78f5 b539 f021 9a39
00000050: 0040 b539 2e59 4639 32bd 133a a0fd 9e39
00000060: b8c7 8438 ce1b d638 11be 5b38 96a1 8838
00000070: 5962 cb39 ca3b ac38 41a6 e938 52b0 d738
00000080: f81d 073a 2b33 8e39 8a96 063a adca fd38
00000090: 8aa8 c839 cfbb 013a 3b4e 063a cac3 9039
000000a0: 5dcc 9d35 a72b b836 0cbd c43a 20c5 7b39
000000b0: e5d3 c938 3282 cb38 3121 0e3a 39ba 963a
000000c0: a8e0 2f38 c49f 0539 03a3 d139 c392 3339
000000d0: 811e 093a fd3a a336 ae4a c139 51f8 0b39
000000e0: 6e44 0a3a 0a23 5a39 5b30 6538 086b 8338
000000f0: 785a c438 55a2 bb39 dd36 7a39 baaf a339
0.00020652202 0.00033624205 1.7850902e-05 0.00671218 0.00011104868 0.00023345344 0.000115503826 5.872212e-07
0.00025524938 0.0006312141 4.95444e-07 0.0002917445 0.00021227296 0.0003969155 0.0005289 0.00013511397
0.0014696899 9.172229e-05 0.000347059 0.00029398454 0.00034570694 0.00018915973 0.0005635797 0.00030325074
6.331451e-05 0.00010209494 5.2390682e-05 6.515083e-05 0.00038792452 8.212736e-05 0.00011141273 0.00010284841
0.0005154307 0.00027122474 0.00051341264 0.000121017314 0.00038272544 0.0004948945 0.00051233516 0.00027611695
1.1756889e-06 5.488709e-06 0.0015009954 0.0002401066 9.623895e-05 9.704045e-05 0.0005421816 0.001149959
4.193248e-05 0.00012743386 0.0003998504 0.00017125443 0.00052306807 4.8646457e-06 0.0003686747 0.00013348578
0.0005274479 0.00020803153 5.464289e-05 6.266503e-05 9.3628594e-05 0.00035788366 0.00023862296 0.0003122071

weight f4 [64, 1, 5]
00000000: f5f9 3dbe 6f72 aebe 1e14 fcbd 7ca8 263e
00000010: 3262 6e3e 6486 e03b 75d6 0d3d d76d e63b
00000020: 961b 7fbe 1b1f 81be 4478 e73c 3f10 853c
00000030: d85f 57bc 2ec2 dd3c 788a 2c3d 66ce d53d
00000040: 3817 013f 4e2c a43e 3798 06be 9251 8abd
00000050: 4dc6 4abd 3324 c3bd 012d 99bc c7dc f5bc
00000060: 6186 843b 2405 73bd a58a 50bd b5ab 85bb
00000070: fe68 6ebd 5963 87bd 07be a6bd 3685 a5bd
00000080: 8bca e9bd 8424 bcbd 717c d6bd a6d6 1f3d
00000090: 0d90 653d 323a 103d f62b 513d f34a 033d
000000a0: ac0c 39bd 809d bbbd 35f8 eabd ca9d cfbd
000000b0: 8c2e 24bd 37f9 41be dda3 3ebb 5261 aabe
000000c0: 3c9f 973e e68e a43e 2a3b d9bc de62 5ebd
000000d0: 1eaa 5bbd 612f 6abd 2d2f 58bd 161b e43b
000000e0: 2c22 3d3c df91 a03b aa12 48bb 5644 21bc
000000f0: 7d35 dc3d 87e6 ab3d a67b ce3d 6b0e d43d
00000100: 6cb8 a13d ca87 3f3b 0c45 9abb 218d c3bb
00000110: e740 c9bb b99c dc3b 02b5 4dbc d3d0 02bd
00000120: 4e84 c33c 5c39 90ba 57f9 c93b 33f4 70b9
00000130: 4ae8 58bc d2fe f4bc 06ca c53b a790 cfbc
00000140: d12b 64bd 936c 08bb 64c8 1e3f c4bf fcbd
00000150: 8a42 d5be 8ba9 a9bc 9de6 b93b a4d6 253d
00000160: 4770 6c3d 49e3 313d faa9 f9ba e1dc ecbb
00000170: 32d1 a5bc 9817 2dbc ae01 5b3c 2faa 733e
00000180: 56a5 a93d 6e72 2a3e 2b4c d0bd 2f48 92bd
00000190: c59b 623d 8fce 81bd 355e e4bd 57ad 573e
000001a0: 8c17 a63e e96f d13c b756 323d b81f f83c
000001b0: 3223 a63c f295 643d b440 3f3b 02e9 743e
000001c0: 0eb7 c63e 8e76 a03c baa5 1d3e 8f29 9fbd
000001d0: e152 dabd 0619 cdbd dbf7 c9bd 61f5 38be
000001e0: b02f 5f3d 26e7 4d3d ec78 7e3d 5e39 323d
000001f0: d507 b33d 544d a6bc 6b32 94bc b95f a43b
00000200: c559 d53b df9a 563b 4106 8abd d868 3bbd
00000210: 846d b0bd 3e39 10bd d67b 6cbd 6d47 d83b
00000220: 6c91 6f3c 59db 233c 38f2 493a fa00 1d3c
00000230: 5eb5 913d 4dbd 663e 3f8f 26be 95d7 353e
00000240: 7f81 873e 33ba e9bc 7e8d 213b a059 923b
00000250: 0818 a7bc e757 07ba efb0 203c 7c2c 42bb
00000260: 0ffd 0bbc 552d 863c 2cad bc3c baa8 4a3b
00000270: e248 0f3d 8e0c e03c 79aa 063d 5f75 123e
00000280: 9c2d f4be e033 163b dbda 8f3e 8c21 46bd
00000290: cad4 da3d 6857 0ebd 6af0 9e3c 9bd3 a53a
000002a0: cd42 d93c 32e9 b73c 4977 c73d 99bb 9c3d
000002b0: f3b6 eb3d d577 e83d 933a 7d3d be0f 79bc
000002c0: 267b 2ebc 0a8b 9bbc 9e5e 16bd 77ad 55bc
000002d0: 4692 6a3c 006b 483d 37f1 44bc 224b 413d
000002e0: 9ee2 3a3d 8c58 d1be e843 8cbe cff0 2abe
000002f0: 2081 5d3e b8f3 093f 889d efbe f87c 97bd
00000300: 8ad1 ecbe 1250 b23e b0e4 af3e a8d0 72be
00000310: d6ba 18be 331a 543e 4337 b8bd 6366 e6bd
00000320: ea5b ff3d b4f8 5bbb c64a a83d aad7 fa3c
00000330: 3949 443d 91df 973b 64e3 ec3b 67c1 943b
00000340: 39d7 863c 4741 c33a 96a5 a0bc 2e3d 02bd
00000350: 8e8b 89bd 6aab 88bd 14e4 e9bd d6c4 43bd
00000360: 90df f9bc c8e9 2cbd cf83 60bd 0460 88bd
00000370: acd0 caba c0ad c9bc 4eea e4bc 5d74 abbc
00000380: e485 11bd c511 a33c 4892 c03c 49b4 b53c
00000390: 5ac4 483d a6d8 e53c 51c6 c4bd a1c8 b8bd
000003a0: 6143 003d 6f84 4f3d 91a8 5d3d ec91 223e
000003b0: 096b 5a3f 2aa3 6bbf 234c 7d3c 969f e3bc
000003c0: 6cad 1a3c 7913 a93c ffa7 84bc 4b18 0b3d
000003d0: 7ba3 183d 5f95 b23d 988f 963d f77c 9d3d
000003e0: 8367 c63d 905c f13d 30ee 07be 8b77 0bbe
000003f0: d9e4 b2bd 74d2 783d 8e04 f4bb 2eac 173d
-0.18552382 -0.3407168 -0.123085245 0.16275209 0.23279646 0.006851958 0.03462835 0.007032137
-0.24912867 -0.25219044 0.02825559 0.016243098 -0.0131454095 0.027070131 0.04212424 0.10439758
0.50426054 0.32065052 -0.13144003 -0.067538396 -0.04950552 -0.09528389 -0.018698217 -0.030012501
0.0040443395 -0.059331074 -0.05091347 -0.004079307 -0.058205597 -0.06610746 -0.081417136 -0.080820486
-0.11415585 -0.09186652 -0.10472954 0.039023064 0.05604558 0.03521175 0.051067315 0.0320539
-0.0451781 -0.091609 -0.11473123 -0.10137518 -0.040083453 -0.18942724 -0.002908937 -0.33277375
0.29613674 0.32140273 -0.02651747 -0.054293506 -0.053629033 -0.05717409 -0.052779365 0.0069612367
0.011543792 0.0049002017 -0.0030528703 -0.009842953 0.107523896 0.08393579 0.10082178 0.103543125
0.07896504 0.0029225224 -0.004707938 -0.0059677516 -0.00614177 0.00673255 -0.012555363 -0.03193743
0.023866799 -0.0011003423 0.006163757 -0.00022979155 -0.013238976 -0.029906664 0.006036046 -0.02533753
-0.05570585 -0.0020816668 0.6202452 -0.12341264 -0.41652328 -0.020710727 0.005673243 0.0404879
0.057724264 0.043429647 -0.0019047849 -0.0072284793 -0.020241354 -0.010564707 0.0133671 0.23795389
0.082834885 0.16645214 -0.10170778 -0.07142674 0.055324335 -0.06338226 -0.11150781 0.21062218
0.3243984 0.025566058 0.04353973 0.030288562 0.020280454 0.05580706 0.0029182853 0.2391701
0.38811535 0.019587781 0.15395251 -0.077715985 -0.10660339 -0.100145385 -0.09861728 -0.18062355
0.054488838 0.05026927 0.06212704 0.04351174 0.08741728 -0.020300545 -0.018090447 0.005016294
0.0065109455 0.003274612 -0.06739474 -0.045754284 -0.086146384 -0.03521084 -0.057735287 0.0066003115
0.014622074 0.010001027 0.0007703635 0.009582752 0.07114671 0.2253315 -0.16265582 0.1775802
0.26465985 -0.02853117 0.0024650986 0.0044662505 -0.020397201 -0.000516294 0.009807809 -0.0029628566
-0.008544221 0.016379038 0.023031794 0.0030923323 0.034981616 0.027349737 0.03287742 0.14302586
-0.47691047 0.0022919104 0.2809666 -0.048371837 0.106851175 -0.034751326 0.019401748 0.0012651564
0.02652111 0.022450063 0.09739549 0.07652969 0.11509504 0.11350981 0.06182344 -0.015201507
-0.010649478 -0.018987197 -0.036711328 -0.0130418455 0.014317101 0.04893017 -0.012020401 0.047190793
0.045626275 -0.40887868 -0.27395558 -0.16693424 0.21631289 0.5388751 -0.46799874 -0.07396883
-0.46253616 0.34826714 0.34354162 -0.23712409 -0.14915022 0.20713119 -0.08994915 -0.112499975
0.12468703 -0.0033564987 0.08217387 0.030620415 0.047921393 0.0046348055 0.0072292555 0.004539657
0.016460048 0.0014896774 -0.019610208 -0.031796627 -0.06716071 -0.0667332 -0.114204556 -0.04779514
-0.03050211 -0.04221514 -0.054813202 -0.066589385 -0.0015473566 -0.024618983 -0.027943756 -0.02092951
-0.03552808 0.019905934 0.023507252 0.022180693 0.04901538 0.028057408 -0.09608138 -0.09022642
0.031314258 0.050663408 0.054115836 0.15875977 0.8531957 -0.92045844 0.015460047 -0.027786057
0.009440761 0.020639168 -0.016193388 0.033958714 0.037265282 0.087198965 0.07351607 0.07689851
0.09687712 0.11785233 -0.13274455 -0.13619821 -0.087350555 0.06074758 -0.007446832 0.037029438

weight f4 [64, 64, 1]
00000000: 296d 41bc bc63 6b3a a9a2 823a a854 e93a
00000010: 618f d43c a052 973c 247b b03c c019 b23b
00000020: 97c4 323b 06b8 223d 6f70 1e3c 3fe7 f1bb
00000030: 0fa2 f33c ceda 84bc 190f 053d d229 6d3c
00000040: a8f1 a5bb 3a8b 77bc eacf 9d3c 89e7 63bc
00000050: a0a4 4fbc 9092 6bbc 92e3 8b3c 0750 1e3c
00000060: 8554 b33b ac88 9fbc 88a3 86bb f342 423c
00000070: 1f86 03bd fe7e 583c 33f2 4dbc be13 fdbb
00000080: 4522 303c f69e 82bc e0d2 623b 64ce 97bc
00000090: 4a89 7fbc b9ea 0e3c 97db d33c 51df 3abd
000000a0: bee3 d4bc 11bd 39bc 31c2 2b3c e62e 063c
000000b0: 49ab 4e3c d689 fb3b fa70 013c bb77 923c
000000c0: 9732 46bd 67e4 9ebc 9419 89bc cb24 d93a
000000d0: 60d5 063c 12ca 7cbc 7bcb d2bb 52a7 3fbc
000000e0: 5832 40bd 50a3 38bb f7ef c9bc 4e9d 9b3a
000000f0: db83 3b3c fc4f 98bc 6b6c 0b3c 507a 313c
00000100: d917 e5bb 5808 343b 3b5b 97bb 3fc9 243c
00000110: 6cf5 133b 84e8 64bb 6406 89bb 8e74 8e3b
00000120: 5e56 203b e17d aebc 2aa7 9c39 32b8 c2b7
00000130: 475d a03b 5106 29ba 1cde d9ba 5110 8a3b
00000140: 4627 4e3c efa4 d43a ccb8 dbba 1cf8 88ba
00000150: e320 903b 05cc 653b f4e8 8a3b 1237 a7bb
00000160: d9d1 233b 47a9 88ba 9e75 60bb 0263 6839
00000170: 7e02 50bc 1b14 853a 4c39 f0b8 470f d23a
00000180: a235 bbb9 bd66 0abb 4e59 8bba 0e12 263b
00000190: 9ddd 51bb d88f 9bbc 7cf3 39bc 57a4 373b
000001a0: af41 9c3b 5dcb bbba d5b2 e2bb ecc4 233a
000001b0: 2ab5 d8b9 992f 68b7 c775 8cbb a9a2 1d3c
000001c0: 15ca afbb 3411 cf3b dc16 973b bea9 02bb
000001d0: 6e1f 84ba 74ca 343b c395 99ba 9d49 963b
000001e0: f545 953c 1aec 95ba ed08 d9ba 0d65 93bb
000001f0: 98e2 ba39 386a babb 1bff c73c ff2e 613b
00000200: 7b81 c0bb 98d2 e4bd b420 833b f869 f83c
00000210: 34fc a8bc e8e1 09bc 211b f23c 84fb b53c
00000220: b72b 72bd 8495 953d 1789 9ebb 9698 acbb
00000230: 84b7 363d 97eb 03bc ff1d 6ebc faa2 3b3b
00000240: e958 b13d 0fed 01bd 6a32 c03b 03ad 7ebd
00000250: 5f72 ca3d 0705 86bb 8cc6 0c3e 4246 81bd
00000260: a025 9ebc d41e bdbb 3742 40bc 889b 893b
00000270: cd3c 703e 824c ffba c198 013b f6ca 0e3d
00000280: 09cd 063d f6ef b83c 2466 513d f017 04bc
00000290: 1a26 be3c 23e5 3abd a296 973e 779e c5bc
000002a0: bac1 93bc 4c9c 703b a9b4 803c c738 063b
000002b0: 10a0 2e3c 99e8 1c3c b343 5e3b f00e bc3e
000002c0: f1a0 9e3c 3283 4b3c d3a4 823c 840a bd3b
000002d0: e9ae debd 41db f1bb 7f16 57bd c5ff 423d
000002e0: d4de 46be 6731 87ba e254 643c fae0 78bb
000002f0: 8b54 06bd cd55 2abd 1f6b 3bbe 8c13 623c
00000300: 4992 22bb 43d0 173b 0237 4b39 3788 383a
00000310: 88a2 4dbb 709b 50bb 2e38 82bb a678 99bb
00000320: 0fc2 dabb 6ae7 b9bb 7862 91bb f572 4f3b
00000330: 7345 febb 5e6e 92ba ad4f 0dba 5004 6d3b
00000340: 4b18 ad3a 1b16 94ba 7b3a 83bb c585 b03b
00000350: 8566 9cbb 5ae8 ecba 8da3 ffbb 756b 95bb
00000360: 8374 26bc ffb9 7cbb b9f6 103b dfb8 b8bb
00000370: 4dde 843c e23b bcba 0cd1 653b c793 6e3b
00000380: 274d 8fbb b996 8e3a 46c3 e0ba 8612 9f3b
00000390: 3924 083c 4a37 3fbc 56c2 6abb 9419 823b
000003a0: bb03 cfba fe4d edba c237 c73a 4260 843b
000003b0: 7a73 a23b ae9f eb3a 1f84 50ba 244f 25bc
000003c0: cb03 0a3b d929 25bb 2ce5 c8ba 9c58 3abb
000003d0: abe5 4dbc b89a c83a 896b 01bc f4c0 e83b
000003e0: f48d 7d3a d904 363b be31 fa39 b756 80bb
000003f0: 43c9 7abb 6239 6339 b0fc eabb 5efd 213a
-0.011805811 0.00089794 0.0009966689 0.0017801719 0.025947275 0.018472016 0.021543093 0.0054351985
0.0027277821 0.03972628 0.009670361 -0.007382303 0.029740361 -0.016217615 0.0324851 0.014475303
-0.005064208 -0.015108878 0.01926418 -0.013910183 -0.012673527 -0.014378205 0.017076287 0.009662635
0.005472722 -0.01947435 -0.00410885 0.011856782 -0.03211033 0.013213871 -0.012569952 -0.0077233007
0.010750358 -0.01594494 0.0034610555 -0.018531032 -0.015596697 0.008722954 0.025861545 -0.045623127
-0.025987502 -0.011336581 0.010483311 0.008189892 0.01261408 0.0076763434 0.007900471 0.017879358
-0.04838809 -0.01939602 -0.01673583 0.0016566751 0.0082295835 -0.015429037 -0.006432948 -0.011697607
-0.04692301 -0.0028173514 -0.024650557 0.0011872442 0.011445011 -0.018592827 0.008509736 0.010832384
-0.0069913683 0.0027470794 -0.00461903 0.010057746 0.0022576703 -0.003492863 -0.00418167 0.0043473905
0.0024465541 -0.021300258 0.00029879186 -2.3212375e-05 0.004893932 -0.00064477796 -0.001662198 0.004213371
0.012582606 0.001622347 -0.0016763448 -0.0010449919 0.0043984517 0.0035064232 0.004239196 -0.0051030004
0.0024996905 -0.0010426425 -0.0034249793 0.00022162127 -0.012695907 0.0010153087 -0.00011454764 0.0016026282
-0.0003570738 -0.0021118366 -0.0010631473 0.0025340351 -0.003202296 -0.018989488 -0.011349555 0.0028021538
0.0047685723 -0.0014327575 -0.006918291 0.00062473 -0.00041333708 -1.383936e-05 -0.004286501 0.009621301
-0.005364666 0.0063191894 0.0046108793 -0.00199376 -0.0010080168 0.0027586492 -0.0011717606 0.004586412
0.018221835 -0.0011438162 -0.0016558446 -0.00449813 0.0003564551 -0.005688932 0.024413636 0.0034360287
-0.0058748103 -0.1117298 0.0040017013 0.030323967 -0.020628072 -0.008415677 0.029553952 0.022214659
-0.05912372 0.073039085 -0.0048381197 -0.005267213 0.044608608 -0.008051774 -0.014533519 0.0028631077
0.086595364 -0.031720217 0.005865385 -0.062176716 0.09885096 -0.004089955 0.13747615 -0.06312229
-0.01930505 -0.0057714973 -0.011734537 0.004199449 0.23460694 -0.0019477757 0.0019774886 0.034861527
0.03291038 0.02257536 0.0511228 -0.008062348 0.023211528 -0.045628678 0.2960711 -0.024123413
-0.018036712 0.0036714254 0.015711145 0.002048062 0.010658279 0.00957694 0.0033914864 0.36730146
0.019363852 0.012421416 0.015947735 0.005769076 -0.10873205 -0.0073808734 -0.05251169 0.047607202
-0.1942094 -0.0010314406 0.013936253 -0.0037975893 -0.03279547 -0.041585732 -0.18302582 0.013798606
-0.002480643 0.0023164905 0.0001938008 0.00070393406 -0.0031377394 -0.003183093 -0.0039739823 -0.004683572
-0.0066759656 -0.0056733387 -0.004436787 0.0031654213 -0.007759744 -0.0011171808 -0.0005390596 0.00361659
0.0013206092 -0.0011298092 -0.004004774 0.0053870403 -0.0047729635 -0.0018074617 -0.007801479 -0.004559929
-0.0101596145 -0.003856301 0.0022119714 -0.0056372727 0.016219283 -0.0014361108 0.0035067229 0.0036404
-0.004373211 0.0010878659 -0.001714804 0.004854503 0.008309417 -0.011670897 -0.00358214 0.0039703343
-0.0015793958 -0.0018104909 0.0015199112 0.004039795 0.0049576135 0.0017976665 -0.0007954258 -0.010089669
0.002105939 -0.0025201945 -0.0015327088 -0.0028434163 -0.012566964 0.0015304899 -0.007899174 0.00710308
0.0009672337 0.0027773886 0.00047720777 -0.003916587 -0.0038266934 0.00021669784 -0.007171236 0.0006179417

weight f4 [64]
00000000: 562e 773d bc89 933d 225b db3e cf32 733d
00000010: 939e 5c3d 17dc 0e3e 4093 9a3d c0d7 a13e
00000020: feee 433e 5fdd e73d 79af 583d 6fa8 1d3f
00000030: 4adb 893d 0b60 d73d 27fe 053f 0450 243f
00000040: 54c8 033f 2e9f ba3e 5839 7a3d 7d21 773e
00000050: b85c 423e 3a81 8a3e 11d6 123f ad47 ef3d
00000060: 68ec 203e 4da9 693d 88b4 723d 786b 473e
00000070: 34ab 223d 25b8 d43d 972a 083f 8571 083e
00000080: d1d1 7b3e 7f93 c53d 4d22 6b3d 661b 323d
00000090: 26f0 573d b79b 313d d55e 713e 0ed8 2e3d
000000a0: b187 ee3e 409a ee3e de93 973e 9003 f53d
000000b0: d066 363d 456e 4f3f bec8 263e 0c71 253d
000000c0: 185d 683d 08ec 553f 5888 a23d 12c5 773e
000000d0: 0721 353d cf1e 943d d149 2f3e c404 aa3e
000000e0: cd24 aa3e 8d20 403f 1c7f 203d 3365 1c3f
000000f0: 3d77 163f 0db7 3d3e 38cd 2e3f 5653 9b3e
0.060346924 0.07204005 0.42842966 0.059374627 0.053862166 0.13951145 0.07547617 0.31609917
0.19134137 0.1132152 0.05290172 0.61585134 0.06731279 0.105163656 0.5234093 0.64184594
0.5147755 0.3644957 0.061089844 0.24133869 0.18980682 0.27051717 0.5735789 0.11683593
0.15715182 0.057046223 0.0592542 0.1947459 0.039714053 0.10386685 0.53189987 0.13324554
0.24591757 0.09647273 0.05740576 0.04348316 0.052719258 0.043361392 0.23571332 0.042686515
0.465879 0.46602058 0.29605 0.1196357 0.044531643 0.8102763 0.16287515 0.040391013
0.056729406 0.8356328 0.07936162 0.2419627 0.04422095 0.07232439 0.17118002 0.3320676
0.33231202 0.7504967 0.03918372 0.6109192 0.58775693 0.1852686 0.6828189 0.30337018

bias f4 [64]
00000000: aacd 2dbe ca01 883b 00d4 623e c1c9 b83b
00000010: 2bd5 063c 5033 3e3d 0ae1 36be aaaa 6a3d
00000020: ddeb 87be be2a 6d3d 6534 723c e956 fabd
00000030: e4ae a83a 7395 dbbb 7652 94be ff56 173d
00000040: 387d 43be 223a e9bc 0036 6bbd ae4f 6ebe
00000050: 280e ee3d d4a2 37bd e043 3ebe 0348 c43c
00000060: 6121 c9be 9972 ee3b 9ce2 5abc 069f 4fbe
00000070: d7de 3fbb bd08 a3bd 356a 8cbd d457 153d
00000080: fce7 20bd a084 983d 1ea7 32bd aa93 e4b8
00000090: db4f 453c 17a1 f7bb 649d 30bc f3d6 513b
000000a0: 77c7 aabe 68a4 3a3e 9623 46be 8aea 2cbe
000000b0: 2baf 1dbd a9d1 ffbe 1f62 de3c ba52 e439
000000c0: 6aa8 39bd 45fb 0fbf f648 01bf 1bd4 153e
000000d0: bac0 c43b 5719 b6ba 5b28 63be 3c4a 12be
000000e0: 4ba0 263e cd31 58bb 2c9f 203a abc8 0a3d
000000f0: a87d 1fbd c761 adbd f83b 3ebd 6391 10bf
-0.16972986 0.004150604 0.22151184 0.0056392853 0.008229534 0.046435654 -0.17859283 0.057291664
-0.26547137 0.05790209 0.014783 -0.12223608 0.0012869504 -0.0067011653 -0.28969163 0.0369482
-0.19090736 -0.028470103 -0.057424545 -0.23272583 0.11623794 -0.04483302 -0.1858058 0.02396012
-0.3928328 0.0072768447 -0.013359692 -0.20275506 -0.002927711 -0.07960651 -0.06856195 0.036460713
-0.039283738 0.07447171 -0.043616407 -0.00010899392 0.012042965 -0.007557045 -0.010779712 0.003201899
-0.33355305 0.18226779 -0.19349512 -0.16886345 -0.03849713 -0.49964646 0.027146397 0.00043549185
-0.045326628 -0.5624278 -0.50501955 0.14631693 0.00600442 -0.001389305 -0.22183363 -0.1428613
0.16272084 -0.0032988668 0.0006127234 0.03388278 -0.038938195 -0.08465915 -0.04644391 -0.5647184

running_mean f4 [64]
00000000: 78dc d3bb 4528 22bc e226 323e 1f24 043c
00000010: 0108 083c 6c22 c03c 0017 30bc 90a2 333d
00000020: de71 12bc 4a3f 9dbb fae2 6d3b 285b 1fbe
00000030: 9ac2 053c 88f8 ecbb d247 1c3e 4380 0abd
00000040: 9bca 70bb 8bbd b0bd 2cdf 63bc ac7f 8abe
00000050: 2af4 e83b 36c7 183d ab80 11be 90cb b2ba
00000060: 674a 59bd 300f df3b 25ed 923b b2cb b1bd
00000070: 1d5b 553b 9b10 123c 3ea0 d83d 0000 09bd
00000080: c9c9 25be deee d4bc c438 463c 8406 16bc
00000090: ce9c 4e3c a279 f6bb 0a0f 58bd 4b72 b43b
000000a0: 874c 17be b88b 183d 990f c0bd 3d62 e5bc
000000b0: f3d7 5a3b 26ce ea3c dc62 323d 85fe 8639
000000c0: a624 d7bc 5456 17be 8be8 c6bd 5246 cd3d
000000d0: 258b 933b db4d b53b 4c2a 1cbd e20d 96bd
000000e0: 5f9b 933d 3b15 80be 52bc 693b e4e3 68bd
000000f0: 0465 bf3b 72ce 1fbd 410b e3bd aa80 7fbd
-0.006465491 -0.009897296 0.17397645 0.008065253 0.0083026895 0.023453914 -0.010747671 0.043856204
-0.008938281 -0.0047988044 0.0036298619 -0.15562117 0.008164072 -0.0072317757 0.15261772 -0.033813726
-0.0036741856 -0.086299025 -0.013908189 -0.2705053 0.0071091847 0.037299357 -0.14209239 -0.0013640989
-0.05304947 0.0068072304 0.0044838362 -0.0868143 0.0032555528 0.008915092 0.10577439 -0.033447266
-0.16190256 -0.025992807 0.012098495 -0.009156827 0.012610627 -0.007521824 -0.052748717 0.005506789
-0.14775287 0.03724262 -0.09377975 -0.028000945 0.0033392876 0.028662752 0.04355131 0.00025748104
-0.026262593 -0.14779025 -0.09712323 0.10023178 0.0045026713 0.0055329627 -0.038126275 -0.07326867
0.07207369 -0.25016198 0.0035665226 -0.05685796 0.0058408994 -0.03901524 -0.11086131 -0.062378563

running_var f4 [64]
00000000: 52bd 9039 d226 7a38 bc45 d63c 959c 2638
00000010: 3304 c937 d5ad ab3a 0a9d 5f3a 8af4 743b
00000020: 3df4 bb3b cf59 903a 9463 0838 b0ae b43c
00000030: ddb1 2c39 66d4 053a d8d0 a13c a6b1 603d
00000040: 8230 633d 4286 6e3c 698e ad3a 60bf f53d
00000050: ed07 b93b 6676 ce3b 4f44 423c aa66 a23a
00000060: a3d6 7b3b e4b0 9c38 4959 1839 62df 133b
00000070: 48e1 f537 e9d8 ed38 c0a1 8c3d e1f6 dd39
00000080: c7a1 d53a ceb1 f339 3a07 9939 c1c4 8b37
00000090: 9bbb fa37 8a01 ad37 7c3c 263b 4f1e 7937
000000a0: 1507 7f3c e340 ed3c c492 063b e987 353a
000000b0: 2110 0f39 a148 433d d494 f03a 2031 4a38
000000c0: 0d6d ba37 5cf3 063d 7b11 003c ec87 c63c
000000d0: c39e 4838 3ecf 5a39 749c 3c3c a5b9 1e3c
000000e0: 2466 1c3d f509 1f3d 8e11 8f36 666a af3d
000000f0: f9e1 2c3d ae07 0d3b 5077 1f3d 4528 b83c
0.00027606875 5.96408e-05 0.026156299 3.9723313e-05 2.3963023e-05 0.0013098071 0.00085301755 0.0037377202
0.0057359026 0.0011013093 3.2517666e-05 0.022055954 0.00016469457 0.0005105197 0.019752905 0.05485692
0.055466183 0.014558377 0.0013241294 0.119993925 0.005646697 0.0063007353 0.011857106 0.0012390215
0.0038427494 7.471608e-05 0.00014529111 0.0022563566 2.931118e-05 0.00011341443 0.06866789 0.00042336344
0.0016298824 0.00046481047 0.00029187818 1.6661712e-05 2.9889683e-05 2.0623924e-05 0.0025365641 1.4848613e-05
0.015565653 0.028961604 0.0020534256 0.0006924854 0.00013643551 0.047676686 0.0018354901 4.8206304e-05
2.2223709e-05 0.03294693 0.007816668 0.024234734 4.7831574e-05 0.00020867304 0.011511911 0.009687816
0.038183346 0.038827855 4.2637757e-06 0.08565216 0.04220769 0.002151947 0.038932145 0.02248014

weight f4 [64, 1, 3]
00000000: c01f 073d aaab 133d 57f3 2e3d 8466 af3b
00000010: 949c 33bd eba9 43bd dc9b 05be 332f 033f
00000020: 0e07 47be a805 0f3c c814 2f3d 9d1e 073d
00000030: 4d7e 07bd 3b1a a7bc f7bd 57bc 1222 b73d
00000040: 2365 1a3d 42ef 913d dbe3 5abc ae99 3cbd
00000050: 14c2 7dbd bb53 273e 38ee dabd a18c 84be
00000060: 8b42 a53c 43e0 713d 71ec 983d a179 41bd
00000070: 4f42 92bd dcd4 86bd bf9e 403d 1fa7 7f3c
00000080: 1e43 113c a2e7 5fbe 676a 41bc 898e 383d
00000090: 6e5b 52bd d622 0cbd 2dc1 96bb 6e52 4e3c
000000a0: 0e0d 8d3d 2e8a 903d c6b7 b73e 395f 0fbf
000000b0: df44 043e 89f6 f3be 3aee 303d 3f8d 18bd
000000c0: 18ee 08bf dab0 ac3d 83ca a03d dd59 b43d
000000d0: d74c 883d 00da 3b3e 64e2 03bd b420 26bd
000000e0: df5b 02bc fc2f a53d 6f32 6c3d a45c d23d
000000f0: ae17 c9bd 15c4 89bd 00c5 89bd f67b 08be
00000100: fa24 4abd 7664 3cbe 89b3 f2bd 50ff 0f3b
00000110: 3dd8 903d f213 bc3d 6ad2 bfbc ecb9 87bd
00000120: 1c33 83bd 4c95 a2bd 0338 8dbd 0475 ed3b
00000130: c93e 343d fd29 af3c b774 26bd 4c6e e8bc
00000140: cc94 6cbc 7cad b63c e833 a13c 0199 503d
00000150: e7f3 9dbc 567e 5bbc 3da5 7d3c eedf 873d
00000160: a90c 633d 03e6 3a3d 112a 14bf 622a c43d
00000170: bef4 2c3e 2d1c dc3d 2cb4 f53c 7615 9abd
00000180: 66d4 063e 0648 483e 1a27 303d ffa8 8b3d
00000190: 1a06 663d 2432 d43c bd1f 8e3d 67c0 11bc
000001a0: ae12 47bd 7b85 4f3c 6bae 5f3c 9f39 5ebc
000001b0: a00b c4bc c9b3 adbc 1ae1 d0bc 9744 a8bc
000001c0: 7b5c 3d3c 4824 ca3c 47fe 17be dfa1 f3bd
000001d0: df7f 92bb ee04 b33c 3249 0cbc 7704 a33c
000001e0: c2b8 883d 722d 133c 11e3 80be bc9b 053d
000001f0: 06cb 7ebe 39ea cdbe f768 443d 07d5 803d
00000200: e71f c13d a08b 9c3b 823c c3bc 01d5 83bd
00000210: a80b 69bc b999 f9bc dc99 e2bc 62ea d73d
00000220: 873c aa3e eea4 bd3e b0a6 e23d 7004 ac3d
00000230: 2b34 653d 9128 79bc cbe3 b3bc f8d5 323c
00000240: 51d1 97bb 07ca 8f3c a055 5d3b 122f 90bc
00000250: a732 14be 20a0 8cbe 4b18 e7bd 6b33 f3bd
00000260: 056e 1bbe 85ca b4be c448 f23d 1016 723e
00000270: 0e4e 97b8 546e 10b9 5cbe 16bd 0935 09bd
00000280: 6070 623d b5fd f03c 3aa1 793d 4fa3 c93d
00000290: d77e ee3d c98f 0cbe 6245 b2bc 8930 dcbd
000002a0: 05ec 653e f6b3 493e a4e6 4d3e 5bec 2cbd
000002b0: 4acb 183d 6b76 da3e 7056 98bc 4958 8139
000002c0: 46ff 223c 5847 0b3e e420 a83d 3c25 0ebf
000002d0: 2f6f 143f 8ccc 2bbe 6188 03bd c9e4 99bb
000002e0: 4e2d eb3d 323a 0b3e f513 b9be fcff 88be
000002f0: 4b94 26be 89bf bbbd 05c8 e3bd d846 e1bd
0.032989264 0.036052383 0.042712536 0.005352797 -0.043850496 -0.04776947 -0.13047737 0.51243895
-0.19436285 0.008729376 0.042744428 0.03298818 -0.033079434 -0.02039825 -0.01316785 0.08942045
0.037694108 0.07125713 -0.013359989 -0.046044998 -0.061952665 0.16340534 -0.10689968 -0.2588854
0.020173332 0.059051763 0.074669726 -0.047235135 -0.071415536 -0.065835685 0.047026392 0.01560381
0.0088661 -0.21865705 -0.011805153 0.045057807 -0.051356725 -0.03421291 -0.004600665 0.012592895
0.068872556 0.07057606 0.35882396 -0.56004673 0.12916897 -0.4764903 0.04319594 -0.037244078
-0.534883 0.08432169 0.07851126 0.088062026 0.06655281 0.18344879 -0.032198325 -0.040558532
-0.007956474 0.08065793 0.057665285 0.10271576 -0.0981897 -0.06726853 -0.06727028 -0.13328537
-0.04935167 -0.18397698 -0.1185065 0.0021972246 0.07072494 0.09183492 -0.023415763 -0.06627259
-0.06406233 -0.07938632 -0.06895449 0.0072466154 0.04400519 0.021382326 -0.04063865 -0.028372906
-0.014439773 0.02229952 0.019678071 0.050927166 -0.01928134 -0.01339682 0.01548129 0.06634508
0.055431996 0.045629513 -0.5787669 0.095783964 0.16890237 0.107475616 0.02999314 -0.075236246
0.13166961 0.19558725 0.04300604 0.06819343 0.056158163 0.025902815 0.06939647 -0.00889597
-0.0486018 0.012666102 0.013652424 -0.013563543 -0.023931324 -0.021203892 -0.025497962 -0.020540519
0.011557694 0.024675503 -0.14843093 -0.11896109 -0.00447081 0.021852937 -0.008562373 0.01989959
0.06675865 0.008983003 -0.25173238 0.032619223 -0.24882135 -0.4021776 0.047951665 0.06290632
0.09429913 0.004777387 -0.023832563 -0.06437112 -0.0142239705 -0.030468808 -0.027661256 0.10542752
0.33249304 0.37039894 0.11066949 0.08399284 0.055957954 -0.015207426 -0.021959206 0.010915272
-0.0046331068 0.017552389 0.003377296 -0.01760057 -0.14472447 -0.27465916 -0.112839304 -0.118750416
-0.15178688 -0.3531076 0.11830285 0.23641229 -7.21478e-05 -0.0001377401 -0.036802635 -0.033497844
0.05528295 0.029417852 0.060944773 0.09845602 0.116452865 -0.13726725 -0.0217616 -0.10751445
0.22453316 0.19697556 0.20107514 -0.042217594 0.037303247 0.4266847 -0.018595904 0.00024670575
0.009948557 0.13601434 0.082093984 -0.55525565 0.5798215 -0.16777247 -0.032112483 -0.004696463
0.114832506 0.13596418 -0.36148039 -0.267578 -0.16267507 -0.09167392 -0.11122135 -0.109998405

weight f4 [64, 64, 1]
00000000: dba5 d139 6ca2 9a3b f98d ecbb 6f83 253a
00000010: ab19 91bb 46b2 84bb d437 663c cea6 103c
00000020: d10f 30bc 8223 3d3a 2bd3 76bb 1891 823c
00000030: 6639 77bb cd31 39bc 8df5 26bd 6107 ef3a
00000040: a7e0 38bd f851 bdbb c521 713c 0017 853b
00000050: 5fba 653a a965 353b 317d 2b3c 2d40 a5bb
00000060: 591a 36bd fe31 93ba 52bf d93a 31e0 0dbc
00000070: 867f 203a 3629 763b 7ff9 60bc 61dd b3bb
00000080: d74f 41bc a7e9 a63b 38ee 86bc 06e0 fcba
00000090: 2e5c 6ebb ea11 89bb 6dbc 0c3c dfb5 94bb
000000a0: 5ad8 423c e5b5 443b cf33 393d 9b90 87bc
000000b0: 6f4d 52bb 98c2 0c3c 2d45 86bb 44e1 5b3b
000000c0: ef79 7fba 8ad9 663d add5 063d b4d0 10bb
000000d0: 9ba2 023b 44e4 0c3c ebad 59bc d358 d23b
000000e0: 8fc3 b33c a99e 1a3c 7089 883b 1354 99bc
000000f0: 1de5 a53b 2ec2 08bc 6261 a9bc f49c 20bd
00000100: 0b99 8abc b133 883b 939c a63d 3233 443b
00000110: 7b85 683b ea5f 0ebc ee9a f33b bb05 e03c
00000120: a0b7 0d3c d02d 963b 5dd8 003a 6423 85bc
00000130: db7d f83b 3999 4cbb 3f0a 96bd 1a3c 653b
00000140: f52e d5bd a452 eabc 30bf 943b df65 35bd
00000150: 8607 863c 232d 273d cbfb d43c d336 a83b
00000160: 1f7b 203d 8b2a fcba 4689 c93b e021 8abc
00000170: f6f4 443a 6e87 c93b fbf1 d6bd e73d 96bb
00000180: e876 b8bc 37a3 b23c e3c6 ba3a a2ca 873b
00000190: e5d6 793b 1d29 12bb 1488 b83c 2b20 6abb
000001a0: 6c19 d53c 3f54 5dbd fec0 06bc 1b41 6d3c
000001b0: 95ff c939 5da3 37bd 7939 0cbb 7495 91bb
000001c0: 6fcc 24bb e7e1 8c3c 9dcf bc3c df90 b73c
000001d0: 7893 7d3a b1b5 3cbb e435 c43b 7e22 5b3c
000001e0: 352b 303d 0321 6cbd f1bd 89bb 154c 803d
000001f0: 9436 cbbc b6fc 60bc d5bf 2ebc a4f4 413d
00000200: 1575 9e3c dccc e3b8 68fe 49bc 94ab e8b9
00000210: 1908 8e3a ec86 f2bb 430b 4c3c cb02 8f3b
00000220: 92b1 3ebd fb55 91ba c8d7 97bb 9175 6b3b
00000230: d192 cbbb 05f1 c33a 0d67 c03c 56e1 fcba
00000240: c50e 29bc 838a 07bb fddc d73c 5a69 ce3a
00000250: e466 f23b 11f1 ac3a 69e5 733b 91a2 9ebb
00000260: 29c9 6cbc ade1 a53b ffca 293b 7d9b 913b
00000270: 7ddc 9fbb 0c60 7e3c c051 a43c 68bb c63a
00000280: 286d 9dbb 92f2 1c3c b102 32bc d5a9 22bb
00000290: a13e ae3a afb1 013b 4818 d93b 6381 5a3b
000002a0: a5b9 433c 1ca9 ba3b ca6e 6e3d b40d dcbc
000002b0: a80a f63b 4da5 eb3c 7597 a1bb a3ca 373b
000002c0: 9e64 72bb b8a6 853c dc0f 343c ed6f f53b
000002d0: 09e4 83b9 6712 843b 1043 37bc 0005 323b
000002e0: 2055 933b af31 cdbc 8847 44ba 19f9 a8bc
000002f0: b5e7 b03c 8e3e 9cbb 2a2a 023b ad8d 9bbc
00000300: 95bc 8dbb e275 86bb c6b3 7d3c dc78 3ab9
00000310: 060b 9c3b d9e8 37bd e6a5 3e3b 1f9e a8ba
00000320: 4e41 ffbb 710b 063c 429d 29bb 70f8 5f3d
00000330: 8e53 b23b 9e0a 24bc 867d eebb 638f c0bd
00000340: 7fd6 bd3c 6847 d4ba 16c9 193b b89f d1bc
00000350: 0789 133c 2884 4c3d dbef 743d be44 c5bb
00000360: 0dd1 2c3c 194d c6b9 0aeb ea3b 8294 5bbc
00000370: 332b 2abb 2fd1 433c ad38 003d f51c 51bc
00000380: 8fb4 51ba cde1 f73a 2bfa 133c 1dae 37b9
00000390: dbdc ff3a b7e6 013b 9042 153c 11b7 bbb9
000003a0: c7f7 453d c53d debd ebf9 353c 4455 b03a
000003b0: 6a2c 223c 43a3 f7bc d0c5 02bc 6ec2 b63a
000003c0: fa15 0abb 728f 933d a610 5b3c 8423 88bd
000003d0: 096c a43a d7e6 11bc 287f 54bc edd9 fe3c
000003e0: 890c b9bc c819 923d 1fa1 c4bb a1de 023e
000003f0: ef59 ec3d 88de 31bc 0667 29bc 28ff 503b
0.00039987158 0.004719069 -0.007219073 0.00063138356 -0.0044281087 -0.004049572 0.014051396 0.008828832
-0.010745958 0.0007215069 -0.0037662487 0.015938327 -0.003772342 -0.011303377 -0.04076152 0.0018236452
-0.04513612 -0.0057775937 0.014717524 0.0040615797 0.0008763428 0.0027679002 0.01046686 -0.0050430507
-0.04445872 -0.0011230109 0.0016612804 -0.008659408 0.0006122518 0.0037561185 -0.0137313595 -0.005489037
-0.01179882 0.0050937715 -0.016471013 -0.0019292838 -0.0036370861 -0.0041830437 0.008589846 -0.0045382823
0.011892403 0.0030015644 0.045215424 -0.016548445 -0.003208961 0.008591317 -0.004097602 0.0033551017
-0.00097456475 0.056359805 0.03291862 -0.0022097053 0.0019933346 0.008599345 -0.013286094 0.00641928
0.021943836 0.009437242 0.0041667745 -0.018716848 0.005062713 -0.008347077 -0.020676319 -0.039212182
-0.01691868 0.0041565527 0.08135333 0.0029937741 0.0035479951 -0.00868986 0.0074342405 0.027346483
0.008649737 0.004583098 0.0004915053 -0.016252227 0.0075833625 -0.0031219258 -0.07326173 0.003497845
-0.10409347 -0.02860386 0.004539393 -0.044286605 0.01636101 0.04081453 0.02599897 0.0051334887
0.039179917 -0.0019238753 0.0061503975 -0.016861856 0.00075133087 0.0061501777 -0.10495373 -0.004585016
-0.022517636 0.021806343 0.0014249947 0.0041440288 0.0038122472 -0.0022302337 0.022525825 -0.003572474
0.026013099 -0.05403542 -0.008224724 0.014480854 0.0003852813 -0.04483353 -0.002139656 -0.004442865
-0.0025146266 0.017197562 0.023048216 0.022407947 0.00096731586 -0.002879482 0.0059878696 0.013374923
0.043009955 -0.05764867 -0.004203551 0.062645115 -0.024806298 -0.013732126 -0.0106658535 0.047352448
0.019342938 -0.000108623615 -0.012328722 -0.00044378324 0.0010836154 -0.007401338 0.012453857 0.0043643466
-0.046556063 -0.0011088246 -0.0046338774 0.003592823 -0.0062125702 0.0014949149 0.023486638 -0.001929323
-0.010318463 -0.0020681925 0.026350493 0.001574795 0.0073975194 0.0013194402 0.0037215597 -0.004841157
-0.014452257 0.005062303 0.0025908349 0.0044435845 -0.004878579 0.015525829 0.020058513 0.0015162053
-0.004804272 0.009579318 -0.0108648995 -0.0024820466 0.0013293811 0.0019789746 0.006625209 0.003334128
0.011946117 0.005696429 0.058211125 -0.026862003 0.0075085945 0.028765345 -0.004931385 0.0028044365
-0.0036986242 0.01631485 0.010990109 0.0074901492 -0.00025156167 0.004030514 -0.011185423 0.0027163625
0.0044962317 -0.025048105 -0.00074874656 -0.020626592 0.021594862 -0.0047681993 0.0019861558 -0.018988455
-0.0043254592 -0.004103408 0.015484756 -0.00017783366 0.0047620563 -0.044899795 0.0029090582 -0.0012864507
-0.0077897673 0.008181439 -0.0025881086 0.054680288 0.0054420894 -0.010012297 -0.007278147 -0.09402349
0.023173569 -0.0016195597 0.0023465804 -0.025588855 0.009004838 0.04993072 0.059799057 -0.0060201576
0.010547888 -0.00037822945 0.007169132 -0.013402106 -0.002596569 0.011951729 0.03130405 -0.012763252
-0.00079996226 0.0018911898 0.009031813 -0.00017517102 0.0019520776 0.0019821355 0.009110108 -0.00035803815
0.048332002 -0.10851625 0.011106948 0.0013453146 0.009898284 -0.030229216 -0.0079817325 0.0013943443
-0.0021070228 0.072050944 0.0133706685 -0.06647399 0.0012544404 -0.008905134 -0.01296977 0.031109774
-0.022588985 0.07133824 -0.0060006524 0.12780239 0.11540591 -0.010856278 -0.010339504 0.0031890366

weight f4 [64]
00000000: b6f1 983d 2d99 453e 1d8f ad3d 5326 3b3e
00000010: cff6 a63e c1c8 923e b3e0 623d c5aa 9a3e
00000020: e1ab 003e a420 8a3e 73f5 9e3e f2cf 093f
00000030: 236a c83e 8f53 a93e 9b29 323f a106 9e3e
00000040: 6ad7 283f 8d49 0d3f a16d 783e 9ac5 cb3e
00000050: 1a21 ed3e e4c7 4c3e 2060 8d3e fc59 133f
00000060: 4739 813e 37cf af3e 04ac 173e eaef a03e
00000070: df9f 383e 0dbf 8c3e 11ca 3d3e 83ab e33e
00000080: eddc 033f ccf3 883e 2e09 243e c9c0 243e
00000090: a2ed 1c3f e12c b53e 7a9d e73e 4a99 c73e
000000a0: fbc8 363f 2364 9f3e d488 5f3e e1a6 623e
000000b0: 950f a93e c421 dd3e 8d7c 163e 0aac ea3e
000000c0: 2448 b93e 387f 083f e238 9f3e bb64 c73e
000000d0: 9684 953e 2aa4 863e 894f eb3e 3a55 233e
000000e0: 3502 753e d5f2 f23d 928c 8a3e fbb0 d43e
000000f0: 618f dd3e e0e8 9d3e b01b a63e 77de 363d
0.07467978 0.19296713 0.08474562 0.18276338 0.32610175 0.28668788 0.05539007 0.30208412
0.12565567 0.26978028 0.31046638 0.53832924 0.39143476 0.33071563 0.69594735 0.30864432
0.65953696 0.55190355 0.2426057 0.39799196 0.46314317 0.19998127 0.276124 0.5755918
0.25239012 0.3433778 0.14811713 0.3143304 0.18029736 0.2748951 0.18534113 0.4446679
0.5150898 0.26748502 0.16019127 0.16089167 0.613001 0.35385802 0.45237333 0.38984138
0.7140042 0.31131086 0.2182954 0.22133972 0.330197 0.43189824 0.1469595 0.4583438
0.3618785 0.5331912 0.31098086 0.3894404 0.29202718 0.26297122 0.45959118 0.1595048
0.23926623 0.11862723 0.27060372 0.41541275 0.43273452 0.30841732 0.32443 0.044645753

bias f4 [64]
00000000: b44a 80bd d9e2 9fbc 537d 73bd 6b19 ae3b
00000010: 2f9c 9a3d d2d7 bcbc 752b c43b 385d 313d
00000020: 349a 5d3b 53aa a53d 55b6 8a3d e0e3 fcbd
00000030: ad57 26bd 6111 a2bd 42dc bdbe 636a 21be
00000040: 4ad1 9bbe c7f0 22be 1ed5 f7bd f510 01be
00000050: 7ff3 0dbe 754f 363d b9b7 eabc 8566 cabe
00000060: a744 a33c a7e7 2fbb 617b e03c 9524 2fbd
00000070: 4a5c 41bd 9fc5 7f3d 17dd 6c3d 484b 65bc
00000080: 5063 3fbd 29a4 7cbc c966 c8bd fcc9 8e3c
00000090: dcd8 abbd 6508 91bd 9b83 b5bc 3d12 163b
000000a0: 5bb6 e6bd 30e5 3ebe 1422 37be d505 eb3c
000000b0: 1a16 efbc 39ea 43be 682b 07bc e3f3 fdbd
000000c0: 10a9 aabd f9c8 3cbe 2139 32bd 47e5 3bbe
000000d0: dc7b 33bd 99b6 b93c ebff c7bd cd64 00bd
000000e0: f33d 2ebd 42f7 2f3e 31c7 3abd 2177 ffbd
000000f0: 0a18 97bd 75e7 db39 5d7b cdbc 1382 3f3a
-0.062642485 -0.01951735 -0.05944569 0.0053130887 0.07549321 -0.02305213 0.005986626 0.04330179
0.0033813836 0.080891274 0.06773058 -0.12348151 -0.040610958 -0.07913471 -0.37082106 -0.1576324
-0.30433112 -0.15912162 -0.12101196 -0.12604125 -0.13862418 0.04450937 -0.028652059 -0.3953134
0.019930197 -0.0026840956 0.027402582 -0.042759497 -0.047207154 0.062444326 0.057828035 -0.013994999
-0.04672557 -0.015419998 -0.0978523 0.017430298 -0.08390972 -0.07081679 -0.022157481 0.0022899054
-0.1126525 -0.18642116 -0.17884094 0.028689304 -0.029185344 -0.19132318 -0.008250095 -0.12400033
-0.08333027 -0.1843604 -0.043511514 -0.18349181 -0.043819293 0.022670077 -0.09765609 -0.03134613
-0.042539548 0.17184165 -0.04560012 -0.12473894 -0.07377632 0.00041943384 -0.025083238 0.00073054543

running_mean f4 [64]
00000000: 792d 0d3c accc f53b ce18 d8b8 c94e b73c
00000010: 6828 7cbc 97b4 843b a4f3 363a a912 e83c
00000020: 62d8 cfbc ed69 293d 5e24 403d 5c54 8abc
00000030: 253e 983c c068 5d39 616f a3bd 7811 05bd
00000040: d1cd ef3d b7f0 40bc 92a8 0bbc 1c13 82bc
00000050: da03 d03c 7692 7c3b 6634 333d c671 bc3d
00000060: cc6e 1b3d 14b2 12bd ee04 713c e91c 87bc
00000070: 8746 c5bc 4d1d e53c f5d5 31bd ab89 523d
00000080: 1c2b 8cbc b7e1 e63c 5722 4bbb da9c fb3a
00000090: a598 913d 2514 833c bc50 193d 16d4 26bd
000000a0: 6ef1 063e 2a26 1cbc a882 dc3b c0ad d33c
000000b0: 5893 29ba ccfd f03c 09b1 603c 06c3 33bd
000000c0: 1757 463c b6e9 16bd f771 afbc e6cd 06bd
000000d0: fd87 0dbc 91d6 873a 0532 a63d cf12 ebbc
000000e0: bec2 253c 0623 0e3c d5e4 5c3d c6f3 74bd
000000f0: d864 923c a707 82bb b456 ce3c e8a9 233b
0.008616799 0.0075012054 -0.00010304303 0.022376435 -0.015390493 0.0040498483 0.00069790543 0.02832921
-0.025371734 0.041360784 0.046909682 -0.016885929 0.01858432 0.00021115225 -0.07980228 -0.032487363
0.11709178 -0.011776141 -0.008524077 -0.015878253 0.025392462 0.0038539446 0.043751143 0.09201388
0.03794746 -0.03581436 0.014710648 -0.016493278 -0.024081482 0.027968073 -0.043416936 0.05140082
-0.0171104 0.028183801 -0.003099581 0.0019196526 0.07109193 0.016000817 0.03743051 -0.040729605
0.13178036 -0.009530583 0.0067294426 0.025839686 -0.00064687943 0.029417895 0.0137140835 -0.04388716
0.012105725 -0.036843978 -0.021416647 -0.032911204 -0.008638379 0.0010363628 0.08115009 -0.028695492
0.010117231 0.008675342 0.05392917 -0.059802793 0.017870352 -0.0039681974 0.025187828 0.0024973098

running_var f4 [64]
00000000: f650 1239 ae7b 1b3b de62 8e38 0509 093b
00000010: ae74 f53b 97b9 073c 5960 8f38 77e5 873b
00000020: 27d4 7b39 af04 6f3c 2d57 c63b 37f4 f33b
00000030: f737 863c f6d7 053c b1d8 543c 157a f53b
00000040: e24e de3c 1480 353c 6ffc c13a f421 3e3b
00000050: e854 433c 03d7 d73a 2f67 1f3b 5123 5f3c
00000060: ef64 f43a fffd 1e3b 9b8c e639 e972 d73a
00000070: 4631 ee39 3984 d23b ee46 8c3a c378 523c
00000080: a674 d83c e862 473c 37ee 2f3a 0f1d 863a
00000090: 5b93 5b3c 0dc3 293c a3be d73b f155 563b
000000a0: 81cd a53c d786 133c 6df7 273c 0489 363b
000000b0: a499 a33b e4b1 083c bf6e 283a 93a9 173c
000000c0: 6b88 d73b b221 343c a27c 063c 184d 863b
000000d0: c683 7d3b ee92 f13b 677f df3b eb62 123a
000000e0: 1788 d03b 3362 283b 201b df3a c213 d53b
000000f0: ac5e a83c 6d38 033c 4272 cc3c f2cb 5037
0.00013953805 0.0023724842 6.789503e-05 0.0020909917 0.007490716 0.008283994 6.8367175e-05 0.0041472274
0.00024016258 0.014588519 0.0060528726 0.007444884 0.016384108 0.008169165 0.012991116 0.00749136
0.027137224 0.0110778995 0.0014799963 0.0029011937 0.011922099 0.0016467277 0.0024322977 0.01361926
0.0018645803 0.002426028 0.00043973778 0.0016437444 0.0004543161 0.0064244536 0.0010702291 0.012846175
0.02642281 0.012169577 0.0006711217 0.0010232049 0.0134018315 0.010361445 0.006584005 0.0032705034
0.020239593 0.009004316 0.010251862 0.0027852664 0.0049926806 0.008343194 0.0006425194 0.009256738
0.0065775416 0.010994362 0.008208426 0.0040985458 0.003868328 0.0073722517 0.0068206075 0.0005584198
0.0063638794 0.0025693297 0.0017021634 0.0065025995 0.020552956 0.008009058 0.024956826 1.2445251e-05

weight f4 [64, 1, 1]
00000000: 2e9f ec3c 5f47 20bd 3be9 27bd 628a 9d3c
00000010: 3711 51bd 0123 cebc aaa6 833c 14cc b4bc
00000020: 6c8f c43c f0b0 863d d0b4 4a3c af76 42bd
00000030: 68de 723d bfc2 d8bc f5a0 343d 2ef5 c0bc
00000040: 8213 62bd f552 4bbd dcaf 3cbc 1c29 6cbc
00000050: 9fcb 05bd a1c9 2b3d 8034 b6bc b406 133c
00000060: c6c2 df3c ae0b 1fbd 3b75 043d 3504 123d
00000070: 6479 09bd bddf 383d d3b1 25bd 383d 3f3d
00000080: 928f 2d3d 4939 1f3d 44e4 853c 55f7 113d
00000090: 39b6 55bd 95f3 b3bc 227e 013d 7b78 27bd
000000a0: 7580 2cbd aff6 f13c ab2a 2a3c 2ecc 303c
000000b0: 5713 34bd 4547 a8bc f147 f4bc 9af1 1cbd
000000c0: 6f04 90bc ce26 01bd b1dd 273d ad49 233d
000000d0: 0773 9cba 3dcf 9f3c c0bf cb3c 1872 f63c
000000e0: e304 10bd 1567 65bd 794f f0bc f27a 68bd
000000f0: 9062 843c 0f9e d73c 0f5f 1c3d 95b1 a3bc
0.028884497 -0.039130565 -0.04099391 0.019231025 -0.051041808 -0.025163176 0.016070683 -0.022069968
0.02399417 0.06576717 0.012372211 -0.047476467 0.059294134 -0.02646005 0.044098813 -0.02355441
-0.055194385 -0.04963966 -0.0115165375 -0.014414098 -0.03266489 0.041940335 -0.02224183 0.008973766
0.027314555 -0.038829498 0.032338362 0.035648543 -0.033563033 0.04513525 -0.04045279 0.046689242
0.042373247 0.03887299 0.016344197 0.035636265 -0.052175734 -0.021966735 0.03161443 -0.040886384
-0.042114694 0.029536573 0.010386149 0.010790868 -0.043963756 -0.020541796 -0.02981946 -0.038316347
-0.01758024 -0.031531148 0.040982906 0.039865185 -0.0011936136 0.019507999 0.024871707 0.030083701
-0.03516091 -0.05600651 -0.02933477 -0.056757875 0.01616028 0.026320485 0.038176592 -0.019982139

weight f4 [64]
00000000: 785c 013d 6922 c13c 874c 433b cbe2 093d
00000010: caaf 623e 370c 453d 6e16 263d c5b7 273d
00000020: 14fa 293d 7cfb 993e 76ec aebc d9b4 423e
00000030: b694 93be 44b6 0abd 112a 233e db0a 553d
00000040: e520 813e 80c8 673e c5f9 be3b b361 923d
00000050: ddda aabd 440e 4abd 362c 973a 0804 333c
00000060: dcee 0c3d 14c9 0f3e 2bcc 303d 30fb 8abd
00000070: 2560 54bc f790 043e 4ba5 37bc 7fff 25be
00000080: a48b b2bd e257 33bd a56d 25bd eddb 313d
00000090: abb4 7abe 5efb febc 334f 9cbd 1324 103e
000000a0: 0da1 dcbd d1e6 093d 7165 423c ec0b 403c
000000b0: a998 0b3e d1d1 efbc f455 043d c0a2 503e
000000c0: 4573 87bd 519e ef3d 9a37 cfbd 8390 cf3d
000000d0: 270c 24b8 0051 d8bc 93ff ec3d 2947 983d
000000e0: 5955 203d 2599 743e a987 aebd 8bba 0bbe
000000f0: 9d15 97bc 380a 20bd 978c dc3d 2980 323d
0.031582326 0.023575978 0.0029800253 0.033663552 0.2213737 0.048107352 0.040548734 0.04094674
0.04149826 0.3007468 -0.021352988 0.190143 -0.28824395 -0.03386523 0.15934016 0.052012306
0.2522041 0.22635078 0.0058281147 0.07147541 -0.08342526 -0.04933001 0.0011533562 0.010926254
0.03440748 0.14041549 0.04316346 -0.067861915 -0.012962376 0.12945925 -0.0112088425 -0.16210745
-0.087180406 -0.043784983 -0.04038777 0.04342263 -0.24482982 -0.03112572 -0.076322936 0.14076261
-0.107729055 0.03366739 0.011865006 0.011721592 0.13632454 -0.029274853 0.032308534 0.20374584
-0.06613783 0.11700118 -0.10118027 0.10134985 -3.9111965e-05 -0.026405811 0.115721844 0.07435448
0.039143894 0.23886545 -0.08521969 -0.13645379 -0.018442923 -0.039072245 0.10769003 0.043579254

bias f4 [64]
00000000: b44a 80bd d9e2 9fbc 537d 73bd 6b19 ae3b
00000010: 2f9c 9a3d d2d7 bcbc 752b c43b 385d 313d
00000020: 349a 5d3b 53aa a53d 55b6 8a3d e0e3 fcbd
00000030: ad57 26bd 6111 a2bd 42dc bdbe 636a 21be
00000040: 4ad1 9bbe c7f0 22be 1ed5 f7bd f510 01be
00000050: 7ff3 0dbe 754f 363d b9b7 eabc 8566 cabe
00000060: a744 a33c a7e7 2fbb 617b e03c 9524 2fbd
00000070: 4a5c 41bd 9fc5 7f3d 17dd 6c3d 484b 65bc
00000080: 5063 3fbd 29a4 7cbc c966 c8bd fcc9 8e3c
00000090: dcd8 abbd 6508 91bd 9b83 b5bc 3d12 163b
000000a0: 5bb6 e6bd 30e5 3ebe 1422 37be d505 eb3c
000000b0: 1a16 efbc 39ea 43be 682b 07bc e3f3 fdbd
000000c0: 10a9 aabd f9c8 3cbe 2139 32bd 47e5 3bbe
000000d0: dc7b 33bd 99b6 b93c ebff c7bd cd64 00bd
000000e0: f33d 2ebd 42f7 2f3e 31c7 3abd 2177 ffbd
000000f0: 0a18 97bd 75e7 db39 5d7b cdbc 1382 3f3a
-0.062642485 -0.01951735 -0.05944569 0.0053130887 0.07549321 -0.02305213 0.005986626 0.04330179
0.0033813836 0.080891274 0.06773058 -0.12348151 -0.040610958 -0.07913471 -0.37082106 -0.1576324
-0.30433112 -0.15912162 -0.12101196 -0.12604125 -0.13862418 0.04450937 -0.028652059 -0.3953134
0.019930197 -0.0026840956 0.027402582 -0.042759497 -0.047207154 0.062444326 0.057828035 -0.013994999
-0.04672557 -0.015419998 -0.0978523 0.017430298 -0.08390972 -0.07081679 -0.022157481 0.0022899054
-0.1126525 -0.18642116 -0.17884094 0.028689304 -0.029185344 -0.19132318 -0.008250095 -0.12400033
-0.08333027 -0.1843604 -0.043511514 -0.18349181 -0.043819293 0.022670077 -0.09765609 -0.03134613
-0.042539548 0.17184165 -0.04560012 -0.12473894 -0.07377632 0.00041943384 -0.025083238 0.00073054543
