ldpi/training/output/ResCNN/traced_model.pth (torch, 775612 bytes, 63 tensors)

weight f4 [1, 1, 7]
-0.053578828 -1.9413282 -0.10513975 -0.022887854 0.01255533 0.012898199 0.0009331696
00000000: 7975 5bbd 717d f8bf 8253 d7bd 4f7f bbbc
00000010: dfb4 4d3c f852 533c f49f 743a

weight f4 [64, 1, 1]
-0.38802457 -0.020773748 -0.010518709 -0.010019619 -0.00047617534 0.045972798 0.014006991 0.015824199
0.053664383 0.023356613 0.020187195 0.023277719 -0.016627228 0.025779517 0.01279487 0.0011235365
-0.0406294 -0.017618753 -0.030856686 -0.026501484 -9.206842e-05 0.021592459 0.0006075941 0.041469805
-0.021428436 0.021254623 0.027408792 -0.032397177 0.034429066 0.012747813 -0.025060313 0.015068265
-0.016106239 0.00050565694 0.018352928 -0.016192127 -0.030077081 -0.025134943 -0.023510091 -0.025734833
0.02122016 -0.0003337469 -0.0166857 -0.027341519 -0.04387392 0.030941967 0.02557824 0.0041266563
0.00538566 0.06888057 0.038887616 0.05260645 0.0106082745 0.04059387 0.009911786 0.02645764
-0.013194269 0.011901185 0.020428877 0.025708912 -0.021833293 -0.0018179927 -0.009128997 0.025248822
00000000: 28ab c6be b52d aabc aa56 2cbc 5429 24bc
00000010: 2ca7 f9b9 f94d 3c3d 947d 653c c0a1 813c
00000020: 2fcf 5b3d 5e56 bf3c 9e5f a53c eab0 be3c
00000030: d335 88bc 912f d33c 93a1 513c a143 933a
00000040: 046b 26bd 3455 90bc 29c7 fcbc a419 d9bc
00000050: db14 c1b8 abe2 b03c f346 1f3a 3edc 293d
00000060: b08a afbc 2d1e ae3c 6788 e03c e7b2 04bd
00000070: 7e05 0d3d 34dc 503c 494b cdbc e2e0 763c
00000080: 3bf1 83bc 108e 043a e158 963c 5aa5 84bc
00000090: 3664 f6bc cce7 cdbc 3c98 c0bc dbd1 d2bc
000000a0: e7d5 ad3c c0fa aeb9 73b0 88bc 52fb dfbc
000000b0: 24b5 33bd 027a fd3c 7589 d13c e738 873b
000000c0: 317a b03b 4211 8d3d 9f48 1f3d dc79 573d
000000d0: 54ce 2d3c c245 263d 0b65 223c b1bd d83c
000000e0: c62c 58bc 30fd 423c 765a a73c 7f9b d23c
000000f0: bcdb b2bc b649 eeba ca91 15bc 9ed6 ce3c

weight f4 [64]
0.3311234 0.2840797 0.07875576 0.05882666 0.33754042 0.46586227 0.021463813 0.05299285
0.3090597 0.08213207 0.034770418 0.386392 0.06142007 0.3305162 0.15392675 0.23333426
0.4129855 0.0809635 0.28651622 0.040341582 0.17060144 0.040084206 0.1294315 0.74394345
0.24851625 0.03528522 0.39130837 0.2958042 0.36372733 0.02602142 0.16304007 0.08664232
0.1022165 0.023778323 0.053911325 0.1472199 0.32131416 0.25033724 0.1404134 0.024631908
0.05502728 0.022629088 0.11419343 0.1727008 0.31403553 0.4712014 0.012872503 0.029499955
0.3063514 0.8139341 0.44420686 0.4630042 0.048755493 0.38993603 0.08545636 0.24109924
0.011391433 0.032793526 0.2470615 0.03856844 0.016029952 0.18794358 0.1090264 0.2532492
00000000: 0289 a93e e572 913e b34a a13d 39f4 703d
00000010: 19d2 ac3e 8085 ee3e e1d4 af3c 080f 593d
00000020: 133d 9e3e dc34 a83d 6d6b 0e3d 2cd5 c53e
00000030: 9c93 7b3d 6b39 a93e f99e 1d3e 2def 6e3e
00000040: d672 d33e 31d0 a53d 41b2 923e 373d 253d
00000050: 25b2 2e3e 562f 243d b189 043e 1473 3e3f
00000060: 0b7b 7e3e 3c87 103d 9259 c83e a673 973e
00000070: 783a ba3e df2a d53c faf3 263e 8771 b13d
00000080: e256 d13d c2ca c23c 1fd2 5c3d d0c0 163e
00000090: 4a83 a43e 342c 803e 88c8 0f3e dbc8 c93c
000000a0: 4964 613d a360 b93c 3fde e93d 7ad8 303e
000000b0: 44c9 a03e 4f41 f13e 31e7 523c e4a9 f13c
000000c0: 17da 9c3e fc5d 503f 156f e33e e30e ed3e
000000d0: d7b3 473d b2a5 c73e be03 af3d b8e2 763e
000000e0: 22a3 3a3c 8152 063d b1fd 7c3e f1f9 1d3d
000000f0: 3f51 833c 4874 403e 3c49 df3d e1a9 813e

bias f4 [64]
-0.13175566 -0.19204076 -0.13212493 0.04674475 -0.3380512 0.10648569 -0.05239259 -0.012618479
0.8309109 0.4472476 -0.008742109 0.24451932 -0.09654088 -0.11468574 0.031888258 -0.374482
-0.15823403 -0.081814885 0.034955587 -0.083699115 -0.10710369 -0.0415654 -0.031813823 -0.136417
-0.06754496 -0.15549886 -0.36930954 0.3238892 0.2000121 -0.021734616 -0.05184407 -0.08954021
-0.034768116 -0.036650494 0.4060495 -0.39347196 -0.07409364 -0.04354784 0.4951226 -0.053460397
0.20890205 -0.050168414 -0.07104543 -0.08847969 0.42914054 -0.21448655 -0.03119683 -0.045494918
-0.3656746 -0.35140544 -0.047251448 0.4459702 -0.012025199 -0.060190655 -0.02144209 0.12145151
-0.13383694 -0.04971518 -0.11045192 -0.08726615 -0.058853716 -0.26802298 -0.02803554 0.12772256
00000000: f5ea 06be 55a6 44be c24b 07be 6c77 3f3d
00000010: 0c15 adbe 2b15 da3d 9d99 56bd bdbd 4ebc
00000020: 94b6 543f a3fd e43e 103b 0fbc 4663 7a3e
00000030: 3ab7 c5bd 5be0 eabd 439d 023d 1bbc bfbe
00000040: 1a08 22be 908e a7bd 972d 0f3d 716a abbd
00000050: 2e59 dbbd 7b40 2abd 364f 02bd e6b0 0bbe
00000060: 0355 8abd 183b 1fbe 2416 bdbe ced4 a53e
00000070: f9cf 4c3e cb0c b2bc 735a 54bd dc60 b7bd
00000080: 0369 0ebd d41e 16bd b8e5 cf3e 2875 c9be
00000090: 68be 97bd 385f 32bd b680 fd3e 4af9 5abd
000000a0: 6bea 553e 657d 4dbd 4480 91bd d734 b5bd
000000b0: 4fb8 db3e 5da2 5bbe 7f90 ffbc e158 3abd
000000c0: b339 bbbe 6aeb b3be bc8a 41bd 3556 e43e
000000d0: 5705 45bc 7a8a 76bd 52a7 afbc 92bb f83d
000000e0: 8d0c 09be 25a2 4bbd 9e34 e2bd 98b8 b2bd
000000f0: 9810 71bd 4f3a 89be caaa e5bc b4c9 023e

running_mean f4 [64]
0.21840638 0.011692867 0.0059206393 0.005639718 0.00026802358 -0.025876591 -0.007884079 -0.008906925
-0.030205933 -0.013146677 -0.011362716 -0.01310227 0.009358925 -0.01451045 -0.007201816 -0.00063240214
0.022868967 0.009917023 0.01736822 0.014916821 5.1822313e-05 -0.012153693 -0.00034199492 -0.023342002
0.01206137 -0.011963535 -0.015427516 0.018235317 -0.019379 -0.007175329 0.014105635 -0.008481435
0.0090656765 -0.00028461785 -0.010330264 0.009114021 0.016929409 0.014147641 0.013233066 0.014485298
-0.0119441375 0.00018785526 0.009391837 0.01538965 0.0246952 -0.017416226 -0.014397159 -0.0023227604
-0.0030314126 -0.038770627 -0.021888573 -0.029610455 -0.005971052 -0.022848966 -0.0055790213 -0.014892144
0.0074266237 -0.0066987895 -0.011498749 -0.0144707095 0.012289249 0.0010232888 0.0051384154 -0.0142117385
00000000: eca5 5f3e 7093 3f3c ec01 c23b 62cd b83b
00000010: 8485 8c39 25fb d3bc 392c 01bc 5aee 11bc
00000020: 6f72 f7bc 2965 57bc af2a 3abc e7aa 56bc
00000030: 2d56 193c 3dbd 6dbc 36fd ebbb cac7 25ba
00000040: b357 bb3c 027b 223c cc47 8e3c af65 743c
00000050: c95b 5938 4820 47bc c84d b3b9 ba37 bfbc
00000060: 0d9d 453c b402 44bc b1c3 7cbc 3b62 953c
00000070: b5c0 9ebc 061f ebbb 521b 673c b7f5 0abc
00000080: 3488 143c c338 95b9 4540 29bc fa52 153c
00000090: 8baf 8a3c 82cb 673c 80cf 583c be53 6d3c
000000a0: 58b1 43bc 03fb 4439 38e0 193c df24 7c3c
000000b0: 974d ca3c 79ac 8ebc 10e2 6bbc 7439 18bb
000000c0: aaaa 46bb f3cd 1ebd aa4f b3bc a091 f2bc
000000d0: d1a8 c3bb c12d bbbc 39d0 b6bb 2efe 73bc
000000e0: 095b f33b 8581 dbbb 4065 3cbc 8e16 6dbc
000000f0: d958 493c e01f 863a 2760 a83b 5ad8 68bc

running_var f4 [64]
0.05311867 0.0001522504 3.903495e-05 3.541858e-05 7.999494e-08 0.0007456424 6.92179e-05 8.8343004e-05
0.0010160172 0.00019246353 0.00014377412 0.00019116551 9.753677e-05 0.00023446516 5.7756446e-05 4.4535162e-07
0.00058238406 0.000109516375 0.00033591338 0.00024778166 2.9905431e-09 0.00016448749 1.3024342e-07 0.00060672616
0.000161998 0.00015938062 0.0002650382 0.00037029092 0.00041819533 5.7332392e-05 0.00022156526 8.010418e-05
9.1520196e-05 9.020709e-08 0.00011883364 9.2498885e-05 0.00031915383 0.0002228869 0.00019500122 0.00023365302
0.0001588642 3.9297344e-08 9.8223994e-05 0.00026373877 0.0006791123 0.00033777268 0.00023081819 6.0079365e-06
1.0233084e-05 0.0016738719 0.0005335209 0.0009763525 3.970254e-05 0.000581366 3.4660316e-05 0.00024696242
6.141852e-05 4.9969974e-05 0.00014723725 0.00023318257 0.00016817726 1.1660387e-06 2.9401865e-05 0.00022491114
00000000: f692 593d 68a5 1f39 75b9 2338 698e 1438
00000010: afc9 ab33 3777 433a 1429 9138 ca44 b938
00000020: e12b 853a 09d0 4939 12c2 1639 9a73 4839
00000030: a88c cc38 c3da 7539 833f 7238 a918 ef34
00000040: 22ab 183a 28ac e538 881d b039 b1e8 8139
00000050: 3182 4d31 467a 2c39 0ad9 0b34 b40c 1f3a
00000060: 02de 2939 691f 2739 d3f4 8a39 9b23 c239
00000070: 3a41 db39 3078 7038 f953 6839 9bfd a738
00000080: 88ee bf38 dfb7 c133 5336 f938 f6fb c138
00000090: 1a54 a739 bfb6 6939 3e79 4c39 c100 7539
000000a0: c994 2639 e3c7 2833 9bfd cd38 6b46 8a39
000000b0: 7406 323a 1517 b139 c907 7239 c897 c936
000000c0: c3ae 2b37 d265 db3a fbdb 0b3a e8f1 7f3a
000000d0: 4786 2638 d066 183a 3b60 1138 bc7a 8139
000000e0: d1cd 8038 da96 5138 b363 1a39 7882 7439
000000f0: bd58 3039 c980 9c35 06a4 f637 20d6 6b39

weight f4 [64, 1, 5]
-0.31425408 -0.3234902 -0.019240458 -0.19500421 0.096026875 -0.049852535 0.0057239537 -0.07312673
-0.13559671 -0.043661658 0.015038029 0.02536692 0.017277716 0.026280023 0.033274576 -0.008825859
0.028428473 -0.019536354 0.021428766 0.02444007 -0.58535 0.10156961 0.399484 0.18909189
0.10532344 0.50397754 0.067584276 0.12512557 0.030193223 0.0016316974 0.0032704913 -0.063011184
-0.05651172 -0.041801285 -0.017711451 0.017610792 0.01706098 0.027167711 0.01709863 0.024668874
-0.45142776 0.9147706 -0.17117655 -0.21825016 0.12066217 0.15599489 0.117330916 -0.065309145
0.09098993 0.29741317 -0.021547401 -0.023242315 -0.0029095623 0.010642447 0.008126058 -0.19976705
-0.17089309 -0.034066834 -0.09900963 -0.053467147 0.020683287 0.01846248 0.021209227 0.014481778
0.006877738 -0.021592963 -0.07018827 -0.08721021 -0.13625944 -0.12426477 0.039204344 0.011641339
0.021346819 0.049320154 0.018251266 0.005439277 -0.033922043 -0.053833965 -0.008301969 0.00016759783
-0.024324887 0.21520685 -0.016648255 -0.29624268 0.012233189 0.008266411 -0.00980061 -0.0031555085
0.0040211263 -0.017209414 0.18637934 -0.116933644 -0.06990021 -0.105421424 0.41437787 0.0023812521
0.0126088 -0.004894689 0.0028880888 0.0073197624 -0.30717763 0.05538199 0.15296972 0.0039725234
-0.031308047 0.026080884 0.040060766 -0.01587901 -0.04019282 0.00091703073 -0.024982646 -0.032714766
-0.049061157 -0.066024244 -0.043863673 -0.05439863 0.15238851 -0.023625404 0.22206393 0.17353795
0.06549853 0.0029922703 0.052114908 0.1515907 0.07118855 0.0035642213 -0.0076067494 -0.009463351
-0.002316623 0.005850438 -0.0443785 -0.03779279 0.00066775904 -0.034123197 -0.005635786 0.0015463922
0.20166554 0.07970306 -0.044453427 0.029648598 0.26228407 -0.05504111 0.23594007 0.1108402
-0.05315565 0.028737396 0.016632495 0.020869177 -0.013506395 -0.013207798 0.019457377 0.034857344
0.06838314 0.10285766 0.03150495 0.039665688 0.040221494 0.012634358 0.03564034 0.037542585
-0.035378467 -0.009851467 -0.017704075 -0.0063409335 0.020735769 0.009284233 0.009520986 0.009871698
0.006097118 0.009145881 -0.45403638 0.041943766 0.31866738 0.17822209 -0.08490501 -0.03702165
-0.047273036 -0.053067144 -0.0389152 -0.031803526 -0.12604044 -0.099217825 -0.10238149 -0.1520214
-0.14384583 0.091585696 0.07244577 0.097185954 0.11311493 0.07818604 0.105677225 -0.10064794
-0.07905286 0.03275085 0.061706256 -0.012023178 0.0029288512 -0.016212171 -0.0009829304 0.0021321294
-0.09729265 -0.133076 0.021976218 -0.01997104 -0.07091971 -0.004939229 -0.007247879 0.009013911
-0.0014126566 -0.008365964 -0.044453263 -0.0066417754 -0.08279156 -0.0075860443 0.05809939 -0.04727772
0.18552248 0.042515602 -0.04751626 -0.010759308 0.45778915 0.50893074 -0.1424534 -0.19188456
-0.1223141 0.009606754 0.14969037 0.09084269 0.12836978 0.10845433 0.033171322 -0.032698892
-0.00036223102 -0.007078903 -0.04199413 -0.0075826007 0.0057036728 0.0017962174 0.019283297 0.017497733
-0.09172565 -0.07508123 -0.09675816 -0.049802218 -0.040960375 0.43880555 0.0023202258 0.22067298
-0.16355759 -0.91199857 0.5082727 -0.24220544 0.16718996 -0.08217279 -0.20128234 -0.59821874
00000000: e9e5 a0be 82a0 a5be 2a9e 9dbc 2faf 47be
00000010: bda9 c43d 2c32 4cbd 0190 bb3b 78c3 95bd
00000020: ddd9 0abe 91d6 32bd 1162 763c 49ce cf3c
00000030: ff89 8d3c 3449 d73c ec4a 083d 569a 10bc
00000040: d4e2 e83c b40a a0bc 618b af3c 8b36 c83c
00000050: 7fd9 15bf ba03 d03d 2b89 cc3e 4ea1 413e
00000060: d1b3 d73d ac04 013f a069 8a3d eb20 003e
00000070: c757 f73c aede d53a bd55 563b 020c 81bd
00000080: d578 67bd d337 2bbd 9b17 91bc 8244 903c
00000090: 78c3 8b3c d28e de3c 6d12 8c3c 6116 ca3c
000000a0: 8a21 e7be 682e 6a3f e848 2fbe f87c 5fbe
000000b0: ba1d f73d 20bd 1f3e 314b f03d cdc0 85bd
000000c0: ee58 ba3d 8a46 983e 2d84 b0bc ab66 bebc
000000d0: 5bae 3ebb a85d 2e3c 2823 053c bc8f 4cbe
000000e0: 99fe 2ebe aa89 0bbd 90c5 cabd 5e00 5bbd
000000f0: ff6f a93c a03e 973c f9be ad3c fb44 6d3c
00000100: a65e e13b bae3 b0bc debe 8fbd 449b b2bd
00000110: 9887 0bbe 877e febd bc94 203d 51bb 3e3c
00000120: 86df ae3c ee03 4a3d ae83 953c f63b b23b
00000130: d7f1 0abd 0181 5cbd fb04 08bc 33bd 2f39
00000140: fc44 c7bc 2f5f 5c3e ec61 88bc 1fad 97be
00000150: b76d 483c d76f 073c bd92 20bc a6cc 4ebb
00000160: a7c3 833b c2fa 8cbc 3ada 3e3e e87a efbd
00000170: d727 8fbd 30e7 d7bd 5629 d43e c80e 1c3b
00000180: 2495 4e3c a163 a0bb 1746 3d3b 9eda ef3b
00000190: 6346 9dbe 3ad8 623d 18a4 1c3e f12b 823b
000001a0: de3c 00bd 94a7 d53c c216 243d b314 82bc
000001b0: 3aa1 24bd e464 703a 68a8 ccbc ebff 05bd
000001c0: 5af4 48bd b837 87bd 65aa 33bd 19d1 5ebd
000001d0: bc0b 1c3e 108a c1bc ba64 633e efb3 313e
000001e0: 1824 863d f719 443b 7176 553d 983a 1b3e
000001f0: 4dcb 913d b695 693b 0a42 f9bb 2c0c 1bbc
00000200: 7cd2 17bb 08b5 bf3b 3bc6 35bd 9dcc 1abd
00000210: 8d0c 2f3a c4c4 0bbd 66ac b8bb 50b0 ca3a
00000220: 6981 4e3e 5c3b a33d cc14 36bd 9ee1 f23c
00000230: 194a 863e c972 61bd 469a 713e 3000 e33d
00000240: bdb9 59bd b06a eb3c df40 883c d6f5 aa3c
00000250: ed49 5dbc 8565 58bc 1465 9f3c 93c6 0e3d
00000260: 760c 8c3d 09a7 d23d 560b 013d 7d78 223d
00000270: 4bbf 243d 5700 4f3c 9bfb 113d 41c6 193d
00000280: 03e9 10bd 0c68 21bc 2308 91bc 9bc7 cfbb
00000290: 0fde a93c e51c 183c e9fd 1b3c e7bc 213c
000002a0: 55ca c73b 9bd8 153c 7577 e8be 3acd 2b3d
000002b0: 5f28 a33e da7f 363e aee2 adbd 03a4 17bd
000002c0: 5fa1 41bd ef5c 59bd 8b65 1fbd 6a44 02bd
000002d0: bf10 01be b732 cbbd 63ad d1bd 7fab 1bbe
000002e0: 524c 13be 4891 bb3d 735e 943d 6e09 c73d
000002f0: cda8 e73d 0120 a03d 4d6d d83d 8220 cebd
00000300: 77e6 a1bd c125 063d b3bf 7c3d ddfc 44bc
00000310: f8f1 3f3b 63cf 84bc acd5 80ba 32bb 0b3b
00000320: 5e41 c7bd 1345 08be 7807 b43c 4e9a a3bc
00000330: 5a3e 91bd 42d9 a1bb 9e7f edbb 15af 133c
00000340: e428 b9ba 6511 09bc a014 36bd 40a3 d9bb
00000350: 9f8e a9bd 5a94 f8bb a0f9 6d3d 48a6 41bd
00000360: 9bf9 3d3e d724 2e3d 69a0 42bd cf47 30bc
00000370: 5763 ea3e 4949 023f 4edf 11be 637d 44be
00000380: d17f fabd a665 1d3c 6f48 193e bb0b ba3d
00000390: 5e73 033e 4e1d de3d a7de 073d 46ef 05bd
000003a0: d3e9 bdb9 24f6 e7bb 0902 2cbd 7777 f8bb
000003b0: e0e5 ba3b 0e6f eb3a 01f8 9d3c 6857 8f3c
000003c0: a8da bbbd 30c4 99bd 2429 c6bd 69fd 4bbd
000003d0: 11c6 27bd 1fab e03e ee0e 183b 19f8 613e
000003e0: a47b 27be bd78 69bf 291e 023f b404 78be
000003f0: d833 2b3e 354a a8bd f51c 4ebe dd24 19bf

weight f4 [64, 64, 1]
0.00057097565 0.004814169 0.0007830272 0.007853869 0.0017970748 0.0030185645 0.006098173 0.0034260158
0.002971995 0.0045236773 0.0010019349 -0.00265908 0.0074930573 -0.0058877706 0.0038006746 -0.0016333085
-0.0023655607 0.0065072905 -0.004117012 0.01124256 -0.008059644 0.001056668 -0.0077961604 0.005065136
-0.003231243 0.0028123325 0.00527078 0.0048888153 0.0031088435 -0.0035111 0.006313068 0.004471235
0.000340999 -0.010122917 0.0013129708 0.00696866 0.007545241 0.0008237774 0.009500663 0.0062523875
0.0035970544 0.011266092 -0.00047812163 -0.0009050313 0.0019904394 4.7378886e-05 0.0035169418 0.0026746667
-0.0016252326 0.001464448 -0.0020144375 -0.003699996 0.0048346827 0.0034345684 0.0046418663 -0.0032229095
-0.0033441407 0.0071359426 -0.002390975 -0.0058626016 0.008238 -0.007913628 0.0068053273 0.0014137172
-0.011293213 0.022394998 0.023896217 -0.005338865 0.0014142798 -0.0016733414 0.0054582614 0.0019629102
-0.0035619037 -0.009174323 -0.0032314758 -0.019610545 0.0026134022 -0.011651849 0.014817067 0.062872626
0.0024714575 0.02054359 0.0044917716 0.0030364385 0.011573337 -0.0076749846 -0.008451142 0.033652198
-0.011227633 -0.013186904 0.03223064 0.032696225 -0.029745556 0.0016402213 -0.01428889 -0.013333806
-0.009809235 0.0048862607 -0.013641916 0.023746341 -0.0033946014 -0.0020696912 0.023737513 -0.0020039477
0.0070936414 -0.002568937 -0.007174222 0.019075118 0.015990423 0.02690207 0.0094847595 -0.001104822
-0.031001052 0.014854828 0.028952895 0.021116264 0.00435124 -0.0693883 0.0107102515 -0.0048929574
0.0015205723 0.023456868 -0.0068634413 0.0054479055 -0.0011099933 -0.04975708 0.008200015 0.015515613
0.098283194 0.02328491 0.011339988 0.014973277 -0.0477294 0.03493182 -0.0116841905 -0.0018325989
0.17036732 0.07937301 0.0025193298 0.028018726 0.002748363 0.008443471 -0.015831126 0.07255131
0.009680661 0.009619947 0.073431544 0.004371149 -0.019283187 -0.022396974 0.0011377301 -0.03331311
-0.0043863407 0.009481989 -0.034489606 0.02562033 0.067104876 -0.0021232786 0.0120661855 0.017884683
0.026006393 -0.0035405583 -0.20717731 0.016549667 -0.006492988 -0.0076233596 0.02660919 0.0021171605
0.0030459838 -0.0034906606 0.051959388 -0.0053612976 -0.071812555 0.01989859 0.011357882 -3.9743804e-06
0.027176397 0.048174977 0.11207015 -0.13399394 -0.0020610667 -0.0021604456 -0.018440636 -0.09663278
-0.0015095074 -0.0043708016 -0.009559972 -0.0034746563 -0.00036263786 -0.072916456 0.018893283 -0.035780363
0.007647107 0.0055932794 0.016409544 0.0009907909 0.015352242 -0.011790498 0.010678895 0.0036975532
0.006973028 -0.008241411 0.00055369595 -0.0136560025 0.034180943 -0.016503531 0.007431615 0.01505456
-0.0037680427 0.02202884 -0.008525288 0.020190587 0.010684875 -0.015135098 -0.009711694 0.013706711
-0.003067878 -0.00046405275 0.018514488 0.0023868282 0.0028107243 0.00081789045 0.0006049077 0.0027126106
0.004926706 0.002424951 0.017370196 -0.0001143804 0.0045775296 -0.004137196 0.007954421 0.00019614391
0.0129175475 -0.0052962378 0.0017336651 0.0019339689 -0.022468597 -0.009057022 0.02027411 0.0031153893
-0.017874619 0.0060820025 0.010412483 0.034949265 -0.0017195102 0.00055665 0.017115116 -0.024513332
-0.019107036 0.0043516275 -0.01024003 0.0024620385 -0.0013484269 -0.012250944 0.018932907 0.012788538
00000000: 87ad 153a 2dc0 9d3b 1144 4d3a 84ad 003c
00000010: d38b eb3a 1cd3 453b 2fd3 c73b 0287 603b
00000020: cdc5 423b 5b3b 943b 5b53 833a f643 2ebb
00000030: 5288 f53b 33ee c0bb bd14 793b bd14 d6ba
00000040: 8607 1bbb 1c3b d53b 00e8 86bb b732 383c
00000050: 990c 04bc e57f 8a3a ef76 ffbb 71f9 a53b
00000060: 43c3 53bb 1c4f 383b 82b6 ac3b 5b32 a03b
00000070: bdbd 4b3b 7c1a 66bb dadd ce3b 7083 923b
00000080: 1cc8 b239 97da 25bc fd17 ac3a 5b59 e43b
00000090: 123e f73b c4f2 573a aba8 1b3c d4e0 cc3b
000000a0: 8fbc 6b3b 6a95 383c 66ac fab9 9f3f 6dba
000000b0: 0872 023b b1b8 4638 7e7c 663b 7649 2f3b
000000c0: c205 d5ba b9f2 bf3a a704 04bb a27b 72bb
000000d0: 426c 9e3b 7f16 613b cc1a 983b 7337 53bb
000000e0: 5f29 5bbb a0d4 e93b e7b1 1cbb 111b c0bb
000000f0: adf8 063c 29a8 01bc 39ff de3b 7a4c b93a
00000100: 2b07 39bc b775 b73c 00c2 c33c a5f1 aebb
00000110: 5b5f b93a 0554 dbba 37db b23b 2ba4 003b
00000120: d46e 69bb e64f 16bc 2bc7 53bb 4ba6 a0bc
00000130: 9d45 2b3b 66e7 3ebc 49c3 723c 5dc3 803d
00000140: 2df8 213b 084b a83c b62f 933b fcfe 463b
00000150: 189e 3d3c 707e fbbb a976 0abc e3d6 093d
00000160: 1bf4 37bc e20d 58bc 4704 043d 7aec 053d
00000170: f4ac f3bc b2fc d63a f31b 6abc 0976 5abc
00000180: eab6 20bc ed1c a03b 5882 5fbc b087 c23c
00000190: f677 5ebb a8a3 07bb 2c75 c23c aa54 03bb
000001a0: c771 e83b 9c5b 28bb bc15 ebbb 6c43 9c3c
000001b0: 59fe 823c bb61 dc3c f765 1b3c adcf 90ba
000001c0: ebf5 fdbc aa61 733c 9f2e ed3c 04fc ac3c
000001d0: d994 8e3b 741b 8ebd 0d7a 2f3c 1a55 a0bb
000001e0: f14d c73a 9e28 c03c b8e6 e0bb 5884 b23b
000001f0: 327d 91ba 14ce 4bbd 5b59 063c 3335 7e3c
00000200: b348 c93d ffbf be3c 5bcb 393c 7a52 753c
00000210: e77f 43bd ab14 0f3d 0c6f 3fbc d133 f0ba
00000220: c574 2e3e 518e a23d 571b 253b 8787 e53c
00000230: e11d 343b 7c56 0a3c 47b0 81bc c895 943d
00000240: a39b 1e3c fb9c 1d3c 4763 963d db3b 8f3b
00000250: c6f7 9dbc dc79 b7bc e31f 953a 5473 08bd
00000260: 4bbb 8fbb 585a 1b3c f944 0dbd bae1 d13c
00000270: 486e 893d b426 0bbb 40b1 453c e682 923c
00000280: 5c0b d53c b608 68bb 4a26 54be 2b93 873c
00000290: 22c3 d4bb 60cd f9bb 84fb d93c 0fc0 0a3b
000002a0: 219f 473b 91c3 64bb 5ed3 543d d3ad afbb
000002b0: 7612 93bd 5e02 a33c 6916 3a3c ab5b 85b6
000002c0: 09a1 de3c 2053 453d 0985 e53d b535 09be
000002d0: f612 07bb 4396 0dbb d110 97bc 68e7 c5bd
000002e0: aada c5ba f138 8fbb 6ea1 1cbc 0fb7 63bb
000002f0: 6e20 beb9 3955 95bd 16c6 9a3c 6e8e 12bd
00000300: 9594 fa3b d447 b73b 4f6d 863c 6ddd 813a
00000310: f887 7b3c ef2c 41bc 88f6 2e3c a652 723b
00000320: 007e e43b fc06 07bc e825 113a 6dbd 5fbc
00000330: 5101 0c3d 6a32 87bc e884 f33b 67a7 763c
00000340: 44f1 76bb d375 b43c a6ad 0bbc bb66 a53c
00000350: 9d0f 2f3c 34f9 77bc cc1d 1fbc 1d92 603c
00000360: 740e 49bb 1b4c f3b9 b2ab 973c 556c 1c3b
00000370: 2134 383b b367 563a ab92 1e3a 0ec6 313b
00000380: 3570 a13b edeb 1e3b f14b 8e3c 82df efb8
00000390: 1aff 953b 5191 87bb 4353 023c fbab 4d39
000003a0: 1fa4 533c 108c adbb 263c e33a 3a7d fd3a
000003b0: 1010 b8bc e763 14bc e415 a63c 8f2b 4c3b
000003c0: cb6d 92bc 894b c73b 1e99 2a3c f626 0f3d
000003d0: 3061 e1ba 26ec 113a 0035 8c3c 2fd0 c8bc
000003e0: 5c86 9cbc 1998 8e3b ccc5 27bc 275a 213b
000003f0: b3bd b0ba 2fb8 48bc 2f19 9b3c 0487 513c

weight f4 [64]
0.03356583 0.095482595 0.37898374 0.07341686 0.031029372 0.041322637 0.026086316 0.42541075
0.07676215 0.05426734 0.066006064 0.09921745 0.029368445 0.09284633 0.19433399 0.40657505
0.26898155 0.036677912 0.35694146 0.023185056 0.62892944 0.74155545 0.025291804 0.5920443
0.03204655 0.15656617 0.026112031 0.26412073 0.44056344 0.036683295 0.1653515 0.6752977
0.028106965 0.05512727 0.06021324 0.569429 0.029392777 0.052909438 0.38302812 0.5089393
0.1336843 0.24213539 0.6132842 0.030126518 0.39216205 0.16057715 0.4082135 0.58736074
0.08661915 0.16389036 0.40170702 0.6497289 0.02486298 0.03668382 0.069820985 0.039135553
0.35496414 0.25886896 0.1432574 0.4027367 0.11053006 0.03286616 0.10787966 0.1203505
00000000: 537c 093d 618c c33d 280a c23e 945b 963d
00000010: 4f31 fe3c ed41 293d f8b2 d53c 70cf d93e
00000020: 7935 9d3d 6e47 5e3d 302e 873d 8532 cb3d
00000030: 1896 f03c 3726 be3d 7dff 463e 9b2a d03e
00000040: f3b7 893e 943b 163d 08c1 b63e 96ee bd3c
00000050: 8501 213f 94d6 3d3f c230 cf3c 3790 173f
00000060: 3e43 033d e252 203e e6e8 d53c d53a 873e
00000070: 8891 e13e 3941 163d e751 293e 4fe0 2c3f
00000080: 9440 e63c 22cd 613d 29a2 763d 19c6 113f
00000090: 1fc9 f03c 91b7 583d 431c c43e d949 023f
000000a0: 8ae4 083e 57f2 773e 3100 1d3f e3cb f63c
000000b0: 77c9 c83e 566e 243e 5c01 d13e 465d 163f
000000c0: 6265 b13d e0d2 273e 8bac cd3e a254 263f
000000d0: 73ad cb3c c641 163d 4efe 8e3d 9a4c 203d
000000e0: dcbd b53e 798a 843e 11b2 123e 8133 ce3e
000000f0: 965d e23d ab9e 063d 03f0 dc3d 537a f63d

bias f4 [64]
-0.02016318 -0.13753666 0.110391535 -0.07846426 0.0053115687 -0.017067064 -0.06238508 0.057508513
-0.08686174 -0.03969775 0.023927493 -0.08375872 -0.0011636358 -0.060069084 -0.21367566 0.1253308
-0.0835983 -0.020683087 -0.10161015 -0.004488924 -0.012220165 0.004364356 -0.00066534575 -0.08441777
-0.00064471306 -0.035747595 0.00040471947 -0.41918904 -0.16004384 -0.07804337 0.037188146 -0.060568765
0.0016218348 -0.004831451 -0.01123294 -0.30877495 0.0018107606 -0.0812957 0.045939807 -0.06445261
0.008104009 -0.1882381 -0.015682483 0.00087828375 0.018424664 -0.10529425 0.19175021 -0.4856665
-0.29346117 0.05257641 -0.07318343 -0.57191914 -0.02034796 -0.009728074 -0.029866807 -0.05831398
-0.09697587 0.12631573 0.060370144 -0.0860133 0.037425213 0.0001412159 -0.14949873 -0.22209604
00000000: 412d a5bc 69d6 0cbe f514 e23d dfb1 a0bd
00000010: ab0c ae3b 3ad0 8bbc 7f87 7fbd 0c8e 6b3d
00000020: 91e4 b1bd 1c9a 22bd 9703 c43c b189 abbd
00000030: 2385 98ba 000b 76bd cbcd 5abe b856 003e
00000040: 9635 abbd 946f a9bc fb18 d0bd d317 93bb
00000050: 1637 48bc df02 8f3b 996a 2eba 39e3 acbd
00000060: f601 29ba 126c 12bd 8730 d439 f29f d6be
00000070: 88e2 23be 34d5 9fbd 9952 183d f416 78bd
00000080: bf93 d43a 2651 9ebb 5d0a 38bc c017 9ebe
00000090: 0b57 ed3a 5c7e a6bd 612b 3c3d bbff 83bd
000000a0: adc6 043c 7dc1 40be 8d78 80bc a03c 663a
000000b0: 52ef 963c 83a4 d7bd 2b5a 443e 48a9 f8be
000000c0: 8b40 96be 5d5a 573d 32e1 95bd 4b69 12bf
000000d0: c4b0 a6bc 8062 1fbc 3cab f4bc a4da 6ebd
000000e0: 499b c6bd e958 013e af46 773d be27 b0bd
000000f0: 2e4b 193d 5b13 1439 3216 19be 256d 63be

running_mean f4 [64]
0.0048142513 0.0015187381 0.07623765 -0.015914025 0.0046797846 0.00020055778 -0.012322039 0.034581475
0.01116057 -0.0053424328 -0.0002549111 0.0012635849 0.0009671003 -0.0025837151 -0.027602041 -0.050372116
-0.1571422 0.009603741 -0.10989702 0.00068430457 -0.12567565 0.1859912 0.0028066216 -0.15239948
-0.005099277 -0.02510015 0.0016835636 -0.06905222 0.008901714 -0.016499795 -0.0077196527 0.09139695
0.0023027768 0.0037132476 0.007930012 -0.050486557 0.0026592866 -0.014011132 0.0074951355 -0.14425792
0.0143681895 -0.017828694 -0.060041126 -0.0009914492 -0.03845173 -0.026670713 -0.05308912 -0.13995351
-0.031272765 -0.014761937 -0.15829763 -0.12879746 -0.0019555246 0.0048558 0.022267463 -0.008250226
-0.18370193 -0.07886186 -0.032261252 -0.050593086 -0.015013447 0.0035056723 0.004831122 -0.0066215377
00000000: dec0 9d3b 6510 c73a 7c22 9c3d 215e 82bc
00000010: e158 993b d24c 5239 61e2 49bc 4ea5 0d3d
00000020: d3da 363c 930f afbb 97a5 85b9 e09e a53a
00000030: 0185 7d3a 8c53 29bb ad1d e2bc fe52 4ebd
00000040: e3e9 20be 0259 1d3c b011 e1bd e762 333a
00000050: 1eb1 00be 7a74 3e3e 4cef 373b 9c0e 1cbe
00000060: d617 a7bb d49e cdbc 05ab dc3a 406b 8dbd
00000070: 7fd8 113c 942a 87bc 24f5 fcbb 532e bb3d
00000080: 2fea 163b f559 733b e2ec 013c feca 4ebd
00000090: 6d47 2e3b f28e 65bc c199 f53b 59b8 13be
000000a0: 8e68 6b3c 7b0d 92bc afed 75bd 84f3 81ba
000000b0: 907f 1dbd 8a7c dabc fa73 59bd f94f 0fbe
000000c0: df17 00bd 0ddc 71bc c618 22be 7be3 03be
000000d0: 4228 00bb 671d 9f3b 416a b63c f52b 07bc
000000e0: 5c1c 3cbe 5482 a1bd 6024 04bd b23a 4fbd
000000f0: f6fa 75bc 6cbf 653b 634e 9e3b 7cf9 d8bb

running_var f4 [64]
5.9930576e-06 0.00015951267 0.006718308 6.3582294e-05 8.903847e-06 1.9005278e-05 7.590767e-05 0.01950428
0.00014003787 0.00030389678 0.0001812243 0.00028642747 2.260631e-06 0.00075156015 0.00033755644 0.0022660033
0.012763659 1.8206274e-05 0.0026278754 4.801383e-06 0.025068345 0.032825276 1.2997117e-06 0.006652725
1.6258782e-05 0.00024463198 1.4185258e-06 0.0063395686 0.04115284 0.0001409748 0.00073814316 0.039470732
4.181909e-06 2.155541e-05 0.00035012976 0.013458022 2.8186232e-06 6.0150986e-05 0.0035953498 0.044022676
0.0009255647 0.0012508655 0.02984199 1.5287587e-05 0.014201191 0.001556244 0.010736981 0.028304076
0.001146334 0.0008478108 0.008581329 0.014795839 1.987446e-05 8.678093e-06 0.0005218772 3.736611e-05
0.034134768 0.0021655113 0.0017193394 0.0026946613 0.0008535723 9.682079e-06 0.0012081497 0.00020196516
00000000: f917 c936 db42 2739 4125 dc3b 7c57 8538
00000010: bb61 1537 866d 9f37 9f30 9f38 71c7 9f3c
00000020: 21d7 1239 5654 9f39 0707 3e39 a52b 9639
00000030: 58b5 1736 5904 453a 0ffa b039 3a81 143b
00000040: aa1e 513c adb9 9837 6f38 2c3b 911b a136
00000050: 215c cd3c cc73 063d c171 ae35 1aff d93b
00000060: 7863 8837 f341 8039 2d64 be35 28bc cf3b
00000070: e18f 283d a2d2 1339 f37f 413a 10ac 213d
00000080: 5352 8c36 e4d1 b437 9f91 b739 097f 5c3c
00000090: 9427 3d36 a14a 7c38 f69f 6b3b 1f51 343d
000000a0: 98a1 723a 15f4 a33a 3077 f43c d83d 8037
000000b0: 1dac 683c e2fa cb3a 2aea 2f3c f3dd e73c
000000c0: 9640 963a 9f3f 5e3a b498 0c3c 3f6a 723c
000000d0: 14b8 a637 2098 1137 96ce 083a 8eb9 1c38
000000e0: e6d0 0b3d 40eb 0d3b 755b e13a ea98 303b
000000f0: 44c2 5f3a 3670 2237 c75a 9e3a 9cc6 5339

weight f4 [64, 1, 3]
-0.017233457 -0.0073266355 -0.02085568 0.041418653 0.05222268 0.058116898 0.022265937 -0.22785822
0.35848987 -0.011432809 -0.031876087 -0.033092223 0.009584727 -0.004999375 0.020827398 0.010530446
0.019931218 0.008571729 -0.013858492 -0.019173484 -0.0046486496 0.33682713 -0.045165185 0.17409876
-0.0347513 -0.015115349 -0.030501861 0.05425035 -0.006213647 -0.036337767 -0.05130467 -0.010921807
0.045639385 0.011872678 -0.026071146 -0.0640718 0.009263123 0.01949441 -0.0023632653 0.035844136
0.024408704 0.02488506 0.051712155 0.06151687 0.10387694 0.13054372 0.031379238 0.09049239
-0.07579741 -0.10354396 -0.043059934 0.0075512673 0.017461143 -0.034848303 0.14135343 0.13590388
0.25250345 -0.01674214 -0.007970733 0.0017862776 -0.067308344 -0.3161027 -0.34281787 -0.36271605
0.0313747 0.520234 0.009713911 -0.0067567625 0.0023264545 -0.23763835 -0.3287472 -0.10685116
-0.009467971 -0.025563132 0.01721619 0.08591417 0.071595654 0.08885576 -0.013588762 -0.0037277555
-0.0036303734 0.02916011 0.1192394 0.111004956 0.29653275 0.13334914 -0.5192867 0.018370518
0.020232279 0.012705181 -0.10367913 -0.09579528 -0.05570394 -0.66061556 -0.046167567 0.04737854
-0.012353338 -0.007133051 -0.004308541 -0.034048457 -0.021450115 -0.031510398 0.05780605 0.017443994
-0.019200584 -0.30833763 -0.011150693 -0.14020859 -0.009539581 -0.009791946 -0.0102607105 -0.01600646
-0.015818954 -0.027612016 -0.20058094 -0.16398324 -0.1895964 -0.35621887 0.026862692 0.48006505
0.058746684 0.09009654 0.054007128 -0.0582866 -0.05267093 -0.0441186 0.19334713 0.0818253
0.40079907 0.0012267126 0.009009028 -0.023176156 -0.17560767 -0.12318314 -0.22367507 -0.09409113
-0.09470253 -0.085373014 0.09761399 0.034021005 0.26300025 0.2711435 0.17126091 0.23863484
-0.07935172 -0.086722486 -0.07940882 0.12553735 0.085256435 0.03728242 0.2397249 0.27076066
-0.32357863 0.08692016 -0.010879288 0.2516398 0.016843542 0.014892146 -0.0028908195 -0.008258889
-0.028845416 -0.011752675 0.04307439 0.037527796 0.015040787 -0.010403427 -0.017437046 -0.01904506
0.3047738 -0.49181885 0.08161386 0.0900151 -0.0061705555 -0.0074000014 0.15907533 -0.038710244
-0.0066564637 0.086295456 0.12356645 0.21844712 0.06444672 0.055531558 0.055369914 0.018670337
0.016852606 0.0025451411 0.102719106 0.07804811 0.0600951 0.0034642937 0.11333456 0.099087685
00000000: 2e2d 8dbc 4614 f0bb 88d9 aabc 9ba6 293d
00000010: 73e7 553d fc0b 6e3d 0e67 b63c aa53 69be
00000020: fc8b b73e ad50 3bbc 8090 02bd b68b 07bd
00000030: 4209 1d3c ccd1 a3bb 389e aa3c e487 2c3c
00000040: cb46 a33c 7070 0c3c ba0e 63bc b611 9dbc
00000050: b353 98bb 9b74 ac3e 21ff 38bd f246 323e
00000060: 6157 0ebd 5ea6 77bc 0adf f9bc 9d35 5e3d
00000070: d99b cbbb e9d6 14bd d824 52bd 61f1 32bc
00000080: 5df0 3a3d 9f85 423c 2893 d5bc 1338 83bd
00000090: 5bc4 173c beb2 9f3c 03e1 1abb 4dd1 123d
000000a0: c3f4 c73c c1db cb3c 20d0 533d 1df9 7b3d
000000b0: 6fbd d43d 41ad 053e 8487 003d 1354 b93d
000000c0: ac3b 9bbd db0e d4bd 9d5f 30bd 9f70 f73b
000000d0: ac0a 8f3c 18bd 0ebd f4be 103e 632a 0b3e
000000e0: 2248 813e d026 89bc ad97 02bc 8821 ea3a
000000f0: f5d8 89bd 37d8 a1be d385 afbe ebb5 b9be
00000100: c282 003d 0e2e 053f 1927 1f3c d567 ddbb
00000110: 6e77 183b 7857 73be 8e51 a8be c8d4 dabd
00000120: 8c1f 1bbc c669 d1bc f808 8d3c c5f3 af3d
00000130: bea0 923d 02fa b53d 66a3 5ebc 5c4d 74bb
00000140: 8feb 6dbb 2fe1 ee3c c933 f43d 9156 e33d
00000150: 24d3 973e ad8c 083e f9ef 04bf c57d 963c
00000160: 2abe a53c 6429 503c b955 d4bd 5130 c4bd
00000170: d129 64bd 1a1e 29bf 341a 3dbd 0010 423d
00000180: a865 4abc 5ebc e9bb a92e 8dbb 6576 0bbd
00000190: 27b8 afbc 0c11 01bd 09c6 6c3d b5e6 8e3c
000001a0: 8b4a 9dbc 6ede 9dbe 65b1 36bc d792 0fbe
000001b0: e74b 1cbc 666e 20bc 8a1c 28bc fb1f 83bc
000001c0: c096 81bc 9832 e2bc 1765 4dbe 39eb 27be
000001d0: 8f25 42be 5262 b6be 260f dc3c 16cb f53e
000001e0: 5da0 703d 8984 b83d 9436 5d3d eebd 6ebd
000001f0: 79bd 57bd b5b5 34bd cafc 453e 0694 a73d
00000200: 8935 cd3e a5c9 a03a 9a9a 133c ecdb bdbc
00000210: 7fd2 33be 7147 fcbd 140b 65be dab2 c0bd
00000220: 66f3 c1bd 0cd8 aebd d8e9 c73d 9c59 0b3d
00000230: f8a7 863e 52d3 8a3e 055f 2f3e b15c 743e
00000240: 2883 a2bd 8f9b b1bd 17a1 a2bd dd8c 003e
00000250: ed9a ae3d 73b5 183d 727a 753e 24a1 8a3e
00000260: 19ac a5be 3203 b23d 0b3f 32bc efd6 803e
00000270: 78fb 893c 30fe 733c e773 3dbb 4b50 07bc
00000280: 394d ecbc 4b8e 40bc c66e 303d bfb6 193d
00000290: a26d 763c 2373 2abc 23d8 8ebc 6304 9cbc
000002a0: 500b 9c3e aecf fbbe 2b25 a73d d659 b83d
000002b0: 5f32 cabb b67b f2bb a5e4 223e a28e 1ebd
000002c0: 771e dabb acbb b03d 6810 fd3d 9ab0 5f3e
000002d0: a4fc 833d 0f75 633d 90cb 623d 89f2 983c
000002e0: 7a0e 8a3c 62cc 263b 655e d23d b0d7 9f3d
000002f0: 4826 763d 3409 633b f31b e83d 7cee ca3d

weight f4 [64, 64, 1]
0.00063214696 -0.0006949768 0.006976928 -0.0044226735 0.0024456677 0.00074928283 -0.0033280894 -0.02128492
-0.00033104318 -0.004113721 -0.0021047464 -0.002328922 -0.0036814269 0.004789132 0.0038676164 0.0007192855
0.0025709607 -0.0044541582 -0.005657676 0.002874505 0.0065340837 0.02934321 0.0017318049 -0.017778821
-0.0015979568 -0.0012213654 0.0034800146 0.0009920499 0.010866635 0.0019479889 0.0013462704 0.0139774075
-0.0033991425 -0.0006416405 0.00017769102 -0.0060888217 0.0008212121 0.0010625541 0.003290556 0.0047780573
-0.00037898397 -0.0011525657 -0.017143391 0.0018371025 0.0019548547 -0.0037212088 0.002193071 -0.009374135
0.003993992 0.002912857 0.02760009 0.01345789 0.0027338576 0.0025186474 0.001315216 -0.0018699162
-0.0027074504 0.000118841985 0.009249449 0.003059472 0.002124959 0.0024620024 -0.0021089413 0.005427415
-0.0022934813 -0.0041942615 0.13022107 0.00543884 0.0024576408 -0.005946676 0.004409477 0.02607903
0.0041397824 -0.0020372027 -0.0060756067 -0.0024581992 -0.00019826117 -0.0014441338 -0.021404093 -0.0017297632
0.020488854 -0.0013469972 -0.11970237 -0.001216058 0.05104467 -0.12489291 0.0036991285 0.027904488
-0.0024898082 -0.016333016 -0.0011949943 -0.0284025 0.188702 -0.00019087072 0.03812374 0.07155833
0.0007997941 0.004896279 -0.0072882227 0.10085872 0.0016485079 0.0015965584 0.008171347 -0.1323623
-0.0069608754 0.0021160224 -0.04303629 0.005938797 0.061144948 0.023344394 0.004071093 0.0012204179
0.0017617543 -0.043964166 0.018915309 -0.044080123 0.0005738736 0.007988824 -0.0007073454 0.0063400785
-0.1733625 -0.00719591 -0.044449255 -0.07989238 -0.015215368 -0.0014408187 0.003051417 -0.012386193
-0.0034232044 -0.0010654537 0.03453894 0.0035197407 -0.0027052595 0.006496788 0.0032173325 -0.038297173
0.020697704 0.041294903 0.0010942592 0.024656083 -0.0028701576 -0.030063799 0.03114564 0.060847715
-0.042280197 -0.0033274647 -0.054602288 -0.0032861105 0.26349565 -0.043990776 -0.00041151873 0.17941126
-0.0022301334 -0.041211627 0.00037943653 0.05834701 0.09905716 0.009275223 0.035649125 -0.16571636
0.0012334897 0.0046070144 0.017559482 0.2971353 0.0032169314 -0.006436369 -0.052093714 -0.20667998
-0.038345367 -0.061558142 0.33579308 -0.003457498 -0.23434165 -0.0362652 0.23624401 0.25870445
-0.026202025 -0.028026866 0.011025895 -0.2677212 0.0032841314 0.008889367 0.018668689 0.0066150757
0.2680407 0.12702547 -0.035502933 0.093017615 -0.019265188 -0.0023091452 0.040703513 -0.0083015235
0.0005714672 -0.005585692 0.027132206 0.0018134599 0.0017305117 -0.0009014906 0.0025840134 0.13587087
0.008346547 -0.015462003 -0.0044477186 0.012383512 -0.0038244636 -0.014396038 -0.036875997 -0.019281695
0.03579896 0.00083459186 -0.026077755 -0.001496132 -0.13201754 -0.055350367 0.0011942937 0.01596285
-0.0033966342 -0.0035298911 -0.0011870916 -0.02680859 0.017649954 -0.0016631029 0.012542961 0.08979248
-5.9022128e-05 0.0048559625 -0.009281958 0.004225941 -0.0005252056 0.0018131711 -0.05744129 -0.20669864
-0.005353556 0.026617398 -0.0160788 0.00019007362 0.06889539 0.029577224 -0.03308571 -0.00071070873
0.0101687135 -0.010463695 0.09766383 0.23260711 -0.0006241165 0.00078968785 -0.00931773 -0.0019495379
-0.3835735 -0.013069387 -0.022549814 -0.06814102 -0.024989342 -0.0031675433 -0.0105236685 -0.0247666
00000000: aab6 253a 1b2f 36ba b79e e43b 13ec 90bb
00000010: 7f47 203b 856b 443a 131c 5abb b65d aebc
00000020: dd8f adb9 65cc 86bb c9ef 09bb d4a0 18bb
00000030: 1844 71bb 27ee 9c3b d677 7d3b 6f8e 3c3a
00000040: 907d 283b 30f4 91bb 0764 b9bb 3162 3c3b
00000050: de1b d63b 2c61 f03c bbfd e23a e4a4 91bc
00000060: 8872 d1ba 3916 a0ba f510 643b ac07 823a
00000070: f809 323c a953 ff3a 5775 b03a 7f01 653c
00000080: 26c4 5ebb c433 28ba 9252 3a39 bd84 c7bb
00000090: 9c46 573a 6645 8b3a 5ea6 573b 4091 9c3b
000000a0: 5eb2 c6b9 b011 97ba 4c70 8cbc eeca f03a
000000b0: 051d 003b 86df 73bb a0b9 0f3b f995 19bc
000000c0: 09e0 823b a2e5 3e3b 9519 e23c 7b7e 5c3c
000000d0: 852a 333b e40f 253b 5363 ac3a fa17 f5ba
000000e0: 7b6f 31bb ce3a f938 008b 173c 6c81 483b
000000f0: e542 0b3b 8c59 213b 2a36 0abb 75d8 b13b
00000100: 3b4e 16bb 0470 89bb ac58 053e 4c38 b23b
00000110: 5f10 213b 55dc c2bb 607d 903b b1a3 d53c
00000120: 03a7 873b 9782 05bb e215 c7bb bd19 21bb
00000130: 54e4 4fb9 1749 bdba a357 afbc 39b9 e2ba
00000140: 3ed8 a73c ba8d b0ba 8426 f5bd 2364 9fba
00000150: 3714 513d dbc7 ffbd 146d 723b f497 e43c
00000160: 0d2c 23bb d1cc 85bc 5ba1 9cba 5cac e8bc
00000170: 193b 413e 7824 48b9 a427 1c3d 2c8d 923d
00000180: 46a9 513a f770 a03b 0bd2 eebb 048f ce3d
00000190: bf12 d83a 9c43 d13a 1de1 053c fc89 07be
000001a0: 0e18 e4bb f7ac 0a3b d246 30bd 3d9a c23b
000001b0: 2073 7a3d be3c bf3c ce66 853b 6ef6 9f3a
000001c0: aaea e63a c513 34bd 47f4 9a3c 5c8d 34bd
000001d0: 0170 163a 8ee3 023c 256d 39ba 6fc0 cf3b
000001e0: f085 31be abcb ebbb 6c10 36bd 9e9e a3bd
000001f0: e149 79bc dad9 bcba 48fa 473b 75ef 4abc
00000200: d757 60bb b2a6 8bba b478 0d3d 73ab 663b
00000210: b94a 31bb 02e3 d43b e2d9 523b 7fdd 1cbd
00000220: 3b8e a93c d824 293d 3f6d 8f3a 8efb c93c
00000230: 4119 3cbb 5b48 f6bc 2425 ff3c 743b 793d
00000240: 002e 2dbd 9811 5abb a6a6 5fbd c95b 57bb
00000250: e7e8 863e ac2f 34bd 1cc1 d7b9 96b7 373e
00000260: 6e27 12bb 86cd 28bd 1cef c639 46fd 6e3d
00000270: 7bde ca3d 1bf7 173c d104 123d 8db1 29be
00000280: 0cad a13a 70f6 963b e7d8 8f3c 1e22 983e
00000290: 27d3 523b 2de8 d2bb 3860 55bd eba3 53be
000002a0: 0810 1dbd 6424 7cbd 12ed ab3e 3197 62bb
000002b0: 42f7 6fbe d18a 14bd f3e9 713e e974 843e
000002c0: a1a5 d6bc 9998 e5bc f5a5 343c c112 89be
000002d0: 953a 573b b5a4 113c 14ef 983c 47c3 d83b
000002e0: a13c 893e f712 023e 866b 11bd 0580 be3d
000002f0: 07d2 9dbc 0755 17bb bab8 263d 1d03 08bc
00000300: 84ce 153a 2e08 b7bb 5c44 de3c 9eb1 ed3a
00000310: 56d2 e23a 0352 6cba 8d58 293b bc21 0b3e
00000320: f5bf 083c 5754 7dbc 2bbe 91bb 37e4 4a3c
00000330: daa3 7abb 5cdd 6bbc 490b 17bd a5f4 9dbc
00000340: eea1 123d 83c8 5a3a 04a1 d5bc dc19 c4ba
00000350: 9b2f 07be 11b7 62bd d989 9c3a 86c4 823c
00000360: 119a 5ebb bf55 67bb 2f98 9bba b09d dbbc
00000370: a396 903c 79fc d9ba fe80 4d3c 1fe5 b73d
00000380: 878e 77b8 c41e 9f3b 5b13 18bc c379 8a3b
00000390: f4ad 09ba eda7 ed3a 8f47 6bbd cfa8 53be
000003a0: e26c afbb bb0c da3c b0b7 83bc 804e 4739
000003b0: 0719 8d3d ef4b f23c e284 07bd db4e 3aba
000003c0: ad9a 263c eb6f 2bbc f903 c83d 8f30 6e3e
000003d0: c09b 23ba 0e03 4f3a 64a9 18bc a387 ffba
000003e0: bf63 c4be fb20 56bc 63ba b8bc 858d 8bbd
000003f0: 73b6 ccbc 8f96 4fbb 776b 2cbc 53e3 cabc

weight f4 [64]
0.07463784 0.22582449 0.5067618 0.30175546 0.2657288 0.37139362 0.38344377 0.19516745
0.18731101 0.23614596 0.18337037 0.026001584 0.1039145 0.50909024 0.45958757 0.28585097
0.5962768 0.45321816 0.40719625 0.5106417 0.37993488 0.5114549 0.49966744 0.3107338
0.24697612 0.24702519 0.28800568 0.024901863 0.1533808 0.026391119 0.29326844 0.45007157
0.3423289 0.20216976 0.072571345 0.44849807 0.2848455 0.30213934 0.57321525 0.19857703
0.49952048 0.14258498 0.40817484 0.4670679 0.3856858 0.21898098 0.20255184 0.15862252
0.4018492 0.2798131 0.2126962 0.33955202 0.32299817 0.10990305 0.2813687 0.15413465
0.26398036 0.32239404 0.15378858 0.030815434 0.2883604 0.16504532 0.46815306 0.27330023
00000000: b9db 983d 893e 673e 24bb 013f b17f 9a3e
00000010: 9b0d 883e 4e27 be3e be52 c43e fad9 473e
00000020: 75ce 3f3e 3fd0 713e 71c5 3b3e 4601 d53c
00000030: 20d1 d43d bd53 023f 104f eb3e 0f5b 923e
00000040: 99a5 183f 360c e83e 077c d03e 6ab9 023f
00000050: d386 c23e b5ee 023f 69d4 ff3e 8018 9f3e
00000060: 4fe7 7c3e 2cf4 7c3e 7b75 933e fefe cb3c
00000070: db0f 1d3e 3032 d83c 4827 963e c86f e63e
00000080: bc45 af3e 9705 4f3e 49a0 943d 8aa1 e53e
00000090: 45d7 913e 02b2 9a3e 3cbe 123f c757 4b3e
000000a0: 26c1 ff3e cc01 123e 4bfc d03e 8623 ef3e
000000b0: 9c78 c53e 8d3c 603e c069 4f3e f16d 223e
000000c0: 2ebf cd3e aa43 8f3e 08cd 593e c3d9 ad3e
000000d0: 0460 a53e da14 e13d 8f0f 903e 79d5 1d3e
000000e0: 6f28 873e d510 a53e c17a 1d3e a670 fc3c
000000f0: f9a3 933e a401 293e c2b1 ef3e 02ee 8b3e

bias f4 [64]
0.010271574 0.00047505266 -0.13258359 -0.26149362 -0.08499396 0.0023329733 -0.07161342 0.04878761
-0.061612766 0.047849894 -0.09623268 -0.0008405271 -0.074874945 0.074454576 -0.15287726 -0.10809054
-0.3520849 -0.01963331 -0.109387554 -0.16489893 -0.12387252 -0.13719673 -0.018252788 -0.18016504
0.114617966 0.062380888 0.1408544 -0.0011866544 0.009686086 0.00038365982 -0.011081732 -0.20498157
-0.08240174 0.2130708 0.024826717 -0.16141324 -0.090131775 -0.08670333 -0.11456938 -0.20186804
-0.022641616 -0.107757434 -0.12878127 0.019548353 -0.017451975 -0.08884625 0.0875797 -0.02413432
-0.072280295 0.01387532 -0.068918414 -0.18410276 -0.04313856 0.01918817 -0.070868276 -0.0659691
-0.16597918 0.078519024 -0.08665726 -0.0015188523 -0.025775997 0.04310801 -0.18525715 0.057590388
00000000: 1b4a 283c 7d10 f939 fec3 07be 7ee2 85be
00000010: 5011 aebd cce4 183b 0faa 92bd 84d5 473d
00000020: ab5d 7cbd 40fe 433d a415 c5bd d256 5cba
00000030: 0958 99bd a47b 983d db8b 1cbe 935e ddbd
00000040: 7944 b4be 09d6 a0bc 9506 e0bd 44db 28be
00000050: e0b0 fdbd 4d7d 0cbe df86 95bc 2f7d 38be
00000060: d3bc ea3d 1a83 7f3d 233c 103e 8489 9bba
00000070: 64b2 1e3c f325 c939 2790 35bc b0e6 51be
00000080: 3ec2 a8bd 3b2f 5a3e 6661 cb3c 8349 25be
00000090: 0297 b8bd 8491 b1bd 5aa3 eabd 7fb6 4ebe
000000a0: e97a b9bc eeaf dcbd 3ddf 03be de23 a03c
000000b0: 72f7 8ebc 06f5 b5bd fc5c b33d 56b5 c5bc
000000c0: b107 94bd 4f55 633c 1925 8dbd 6f85 3cbe
000000d0: 0fb2 30bd 8230 9d3c 6323 91bd cf1a 87bd
000000e0: 72f6 29be 95ce a03d 5d79 b1bd 3a14 c7ba
000000f0: 2f28 d3bc 0692 303d 0db4 3dbe e6e3 6b3d

running_mean f4 [64]
-0.0030179112 -0.06201067 0.04140402 0.009206163 -0.040813 0.00106549 -0.024502788 -0.028109416
0.039800502 -0.00795573 0.00015165367 -0.0013808287 0.0040474986 -0.06321748 0.0064474577 0.0038700218
0.04045477 -0.00074733986 0.024377447 -0.029654464 0.08409997 -0.044382833 0.06976319 0.0074415575
0.015933625 -0.0005696169 -0.066917896 8.598319e-05 -0.016595641 -0.0018247665 -0.014603839 -0.018714735
0.018404854 -0.008773442 -0.0033519457 -0.028242039 -0.021742541 0.0064778673 0.03387904 0.046373416
-0.016649576 0.004564573 -0.033925585 -0.048721284 0.08115325 0.008407342 -0.0012415055 0.012261437
-0.01776118 -0.045116384 0.00546019 0.07252439 -0.037480623 -0.014831748 -0.041113224 -0.026507514
-0.009997743 -0.02316327 0.0049071214 0.0025663243 -0.00112757 -0.019889299 0.034002777 -0.057571806
00000000: 26c8 45bb e6fe 7dbd 4397 293d 72d5 163c
00000010: 882b 27bd e9a7 8b3a 12ba c8bc b845 e6bc
00000020: da05 233d c058 02bc 3905 1f39 ecfc b4ba
00000030: e1a0 843b 2b78 81bd 3245 d33b 31a0 7d3b
00000040: e7b3 253d 21e9 43ba 36b3 c73c ebed f2bc
00000050: 9b3c ac3d c6ca 35bd 01e0 8e3d 4fd8 f33b
00000060: 3c87 823c 5852 15ba 400c 89bd e051 b438
00000070: 95f3 87bc 012d efba f144 6fbc a54f 99bc
00000080: c7c5 963c 7cbe 0fbc 51ac 5bbb d95b e7bc
00000090: 6a1d b2bc 4a44 d43b c0c4 0a3d 0df2 3d3d
000000a0: b164 88bc 6a92 953b 8ef5 0abd f88f 47bd
000000b0: ad33 a63d f3be 093c 03ba a2ba 32e4 483c
000000c0: e57f 91bc f5cb 38bd 65eb b23b ab87 943d
000000d0: 4885 19bd dc00 73bc 5766 28bd 4926 d9bc
000000e0: 93cd 23bc e6c0 bdbc ebcb a03b c72f 283b
000000f0: f9ca 93ba e2ee a2bc 7f46 0b3d 6ad0 6bbd

running_var f4 [64]
9.076215e-05 0.003272059 0.028486136 0.0046043396 0.0010934104 0.0066581806 0.008971141 0.0039041473
0.0061038854 0.0013118864 0.00081846415 1.2894012e-06 0.0002902455 0.027096707 0.0054554674 0.0023457261
0.019297116 0.01834397 0.0044083046 0.0029203861 0.0026176972 0.004677275 0.017588297 0.0049091685
0.0056298524 0.0034149685 0.008373891 9.807171e-07 0.0007920623 1.829449e-06 0.0040032603 0.012966944
0.011884893 0.013062317 9.1061265e-05 0.014267697 0.0013343878 0.008646874 0.022373805 0.0018058184
0.012200689 0.00028767122 0.005599146 0.018935353 0.007863091 0.0022755114 0.0031581058 0.00028903713
0.004317499 0.0023445508 0.00089188915 0.0034285167 0.0051695895 0.0015142601 0.010893558 0.0041612056
0.0040366687 0.0039256816 0.0004927414 1.1848228e-05 0.002975011 0.0034373398 0.011424638 0.0017191747
00000000: 8f57 be38 0a70 563b c25b e93c 00e0 963b
00000010: c450 8f3a de2c da3b b1fb 123c b9dc 7f3b
00000020: 1a03 c83b 9af3 ab3a 338e 563a 7d0f ad35
00000030: 172c 9839 eaf9 dd3c c7c3 b23b c1ba 193b
00000040: fc14 9e3c 1846 963c 8a73 903b f363 3f3b
00000050: ac8d 2b3b d443 993b 5515 903c 17dd a03b
00000060: a07a b83b aacd 5f3b a532 093c 2fa1 8335
00000070: 67a2 4f3a 648b f535 c82d 833b 4e73 543c
00000080: dbb8 423c 5403 563c 25f8 be38 0fc3 693c
00000090: a0e6 ae3a 9eab 0d3c 4549 b73c 36b1 ec3a
000000a0: 66e5 473c 94d2 9639 0a79 b73b 501e 9b3c
000000b0: 32d4 003c bf20 153b 39f8 4e3b e889 9739
000000c0: cf79 8d3b 09a7 193b abcd 693a f7b0 603b
000000d0: a965 a93b 237a c63a e57a 323c b95a 883b
000000e0: 0846 843b 01a3 803b 512b 013a c0c7 4637
000000f0: 67f8 423b fe44 613b 682e 3b3c ee55 e13a

weight f4 [64, 1, 1]
0.018829614 0.04174328 0.029107602 0.04694683 0.018193582 0.015513561 0.0001233045 0.050012235
-0.041086167 0.0094370805 -0.028937733 0.008365785 -0.0256875 0.07482784 0.027620163 -0.03681497
-0.0046758372 -0.03878401 -0.01995744 -0.038522635 -0.0023999559 -4.948826e-10 -0.038767356 -0.028382577
0.0299542 -0.021445328 -0.041197624 -0.0197418 -0.03240851 -0.022402862 -0.026281292 -0.03347413
-0.036100674 1.3199496e-12 -0.010756279 0.025731865 0.028275033 -0.055726632 -0.032461338 0.01613409
0.052033804 0.0054152813 -0.010377342 0.046422582 -1.678235e-06 -0.024768727 -0.026510626 0.018847208
0.037549663 0.030565627 0.012355068 0.02534897 4.663511e-05 -0.009653164 -0.03554913 -1.8983097e-06
-0.025501108 0.044580102 0.022375194 -0.020080294 0.01188848 -0.049606852 -0.030526498 0.020707548
00000000: 9040 9a3c 00fb 2a3d 1173 ee3c 524b 403d
00000010: b50a 953c 972c 7e3c 4d4b 0139 a1d9 4c3d
00000020: f849 28bd fc9d 1a3c d30e edbc a510 093c
00000030: 986e d2bc 573f 993d ae43 e23c 4bcb 16bd
00000040: c437 99bb fbdb 1ebd c97d a3bc e9c9 1dbd
00000050: 9448 1dbb 4408 08b0 85ca 1ebd 9482 e8bc
00000060: 8362 f53c 1dae afbc d7be 28bd 8eb9 a1bc
00000070: c9be 04bd 3586 b7bc dd4b d7bc 2b1c 09bd
00000080: 4dde 13bd 32c4 b92b 1b3b 30bc a2cb d23c
00000090: 0ba1 e73c 9c41 64bd 2ef6 04bd a42b 843c
000000a0: 6621 553d ac72 b13b ba05 2abc 9b25 3e3d
000000b0: b73f e1b5 c9e7 cabc d02c d9bc 7665 9a3c
000000c0: adcd 193d c464 fa3c e96c 4a3c a5a8 cf3c
000000d0: 119a 4338 4e28 1ebc f79b 11bd 6dc9 feb5
000000e0: b3e7 d0bc a099 363d 2f4c b73c 6e7f a4bc
000000f0: e6c7 423c 8e30 4bbd b512 fabc e0a2 a93c

weight f4 [64]
0.03660954 0.13104229 0.10222522 -0.17969629 -0.030681556 -0.015199678 -0.0020239411 0.16611773
-0.109039396 0.011040027 0.05470821 0.026237966 -0.0120778335 -0.45170632 -0.04209587 0.11231776
-0.0009809101 -0.12078901 -0.028743494 -0.101021156 -0.0023598159 -4.945888e-10 0.100593925 -0.04885402
-0.0679517 0.03360168 -0.12300191 0.025527526 0.09124596 0.026761822 0.050982747 -0.07766009
0.09372659 1.3315477e-12 0.029874895 -0.058152862 0.060917124 -0.22649445 -0.023224082 0.028792363
0.07236425 0.02645198 -0.017966954 0.12097729 -1.7936457e-06 0.032523014 0.05368574 0.024589876
-0.10295139 0.06825142 0.039250545 0.045590624 -1.3542134e-05 0.008332268 -0.08162791 -1.8982842e-06
0.040589996 -0.15238193 -0.027853597 0.023588482 0.008628328 0.18119456 -0.075347856 0.03127038
00000000: e3f3 153d f32f 063e 755b d13d 4e02 38be
00000010: e357 fbbc 1208 79bc 19a4 04bb c41a 2a3e
00000020: 0c50 dfbd 3be1 343c b715 603d 01f1 d63c
00000030: 1be2 45bc 0d46 e7be b86c 2cbd db06 e63d
00000040: e291 80ba 3a60 f7bd 7a77 ebbc 2ee4 cebd
00000050: 24a7 1abb 98f3 07b0 3004 ce3d 271b 48bd
00000060: 432a 8bbd eaa1 093d 6de8 fbbd 1a1f d13c
00000070: 29df ba3d 9c3b db3c 49d3 503d 410c 9fbd
00000080: baf3 bf3d 1066 bb2b 32bc f43c b231 6ebd
00000090: 3c84 793d 29ee 67be 6e40 bebc f6dd eb3c
000000a0: b533 943d d3b1 d83c 6f2f 93bc f1c2 f73d
000000b0: 32bd f0b5 da36 053d 94e5 5b3d b570 c93c
000000c0: 2ed8 d2bd 67c7 8b3d 2ec5 203d 3cbd 3a3d
000000d0: 0633 63b7 1184 083c 892c a7bd 8cc8 feb5
000000e0: b241 263d 020a 1cbe 3a2d e4bc a23c c13c
000000f0: d55d 0d3c 118b 393e fa4f 9abd 5f15 003d

bias f4 [64]
0.010271574 0.00047505266 -0.13258359 -0.26149362 -0.08499396 0.0023329733 -0.07161342 0.04878761
-0.061612766 0.047849894 -0.09623268 -0.0008405271 -0.074874945 0.074454576 -0.15287726 -0.10809054
-0.3520849 -0.01963331 -0.109387554 -0.16489893 -0.12387252 -0.13719673 -0.018252788 -0.18016504
0.114617966 0.062380888 0.1408544 -0.0011866544 0.009686086 0.00038365982 -0.011081732 -0.20498157
-0.08240174 0.2130708 0.024826717 -0.16141324 -0.090131775 -0.08670333 -0.11456938 -0.20186804
-0.022641616 -0.107757434 -0.12878127 0.019548353 -0.017451975 -0.08884625 0.0875797 -0.02413432
-0.072280295 0.01387532 -0.068918414 -0.18410276 -0.04313856 0.01918817 -0.070868276 -0.0659691
-0.16597918 0.078519024 -0.08665726 -0.0015188523 -0.025775997 0.04310801 -0.18525715 0.057590388
00000000: 1b4a 283c 7d10 f939 fec3 07be 7ee2 85be
00000010: 5011 aebd cce4 183b 0faa 92bd 84d5 473d
00000020: ab5d 7cbd 40fe 433d a415 c5bd d256 5cba
00000030: 0958 99bd a47b 983d db8b 1cbe 935e ddbd
00000040: 7944 b4be 09d6 a0bc 9506 e0bd 44db 28be
00000050: e0b0 fdbd 4d7d 0cbe df86 95bc 2f7d 38be
00000060: d3bc ea3d 1a83 7f3d 233c 103e 8489 9bba
00000070: 64b2 1e3c f325 c939 2790 35bc b0e6 51be
00000080: 3ec2 a8bd 3b2f 5a3e 6661 cb3c 8349 25be
00000090: 0297 b8bd 8491 b1bd 5aa3 eabd 7fb6 4ebe
000000a0: e97a b9bc eeaf dcbd 3ddf 03be de23 a03c
000000b0: 72f7 8ebc 06f5 b5bd fc5c b33d 56b5 c5bc
000000c0: b107 94bd 4f55 633c 1925 8dbd 6f85 3cbe
000000d0: 0fb2 30bd 8230 9d3c 6323 91bd cf1a 87bd
000000e0: 72f6 29be 95ce a03d 5d79 b1bd 3a14 c7ba
000000f0: 2f28 d3bc 0692 303d 0db4 3dbe e6e3 6b3d
